…
| Selected 781 train exemplars, time=  0.4s
781
------------------------------------------------------------------------------------------------------------
>>> Test on task  0 : loss=0.478 | TAw acc= 92.1%, forg=  0.0%| TAg acc= 82.2%, forg=  9.9% <<<
>>> Test on task  1 : loss=14.648 | TAw acc= 95.4%, forg=  0.0%| TAg acc= 89.9%, forg=  3.7% <<<
>>> Test on task  2 : loss=22.802 | TAw acc= 93.7%, forg=  0.0%| TAg acc= 82.9%, forg=  0.9% <<<
>>> Test on task  3 : loss=30.483 | TAw acc= 96.6%, forg=  0.0%| TAg acc= 88.2%, forg=  0.0% <<<
Save at icarl_wisdm_3/wisdm_flex_icarl
======
LLL_Net(
  (model): SimpleMLP(
    (fc1): Linear(in_features=91, out_features=1000, bias=True)
    (fc2): Sequential()
  )
  (heads): ModuleList(
    (0): Linear(in_features=1000, out_features=34, bias=True)
    (1): Linear(in_features=1000, out_features=20, bias=True)
    (2): Linear(in_features=1000, out_features=20, bias=True)
    (3): Linear(in_features=1000, out_features=20, bias=True)
  )
)
======

************************************************************************************************************
Task  4
************************************************************************************************************
| Epoch   1, time=  1.0s | Train: skip eval | Valid: time=  0.2s loss=41.341, TAw acc= 55.7% | *
| Epoch   2, time=  1.0s | Train: skip eval | Valid: time=  0.2s loss=39.109, TAw acc= 69.3% | *
…
------------------------------------------------------------------------------------------------------------
>>> Test on task  0 : loss=0.500 | TAw acc= 92.1%, forg=  0.0%| TAg acc= 81.2%, forg= 11.0% <<<
>>> Test on task  1 : loss=14.528 | TAw acc= 95.4%, forg=  0.0%| TAg acc= 89.0%, forg=  4.6% <<<
>>> Test on task  2 : loss=22.660 | TAw acc= 93.7%, forg=  0.0%| TAg acc= 82.9%, forg=  0.9% <<<
>>> Test on task  3 : loss=30.364 | TAw acc= 96.6%, forg=  0.0%| TAg acc= 88.2%, forg=  0.0% <<<
>>> Test on task  4 : loss=34.754 | TAw acc= 95.7%, forg=  0.0%| TAg acc= 88.0%, forg=  0.0% <<<
Save at icarl_wisdm_3/wisdm_flex_icarl
======
LLL_Net(
  (model): SimpleMLP(
    (fc1): Linear(in_features=91, out_features=1000, bias=True)
    (fc2): Sequential()
  )
  (heads): ModuleList(
    (0): Linear(in_features=1000, out_features=34, bias=True)
    (1): Linear(in_features=1000, out_features=20, bias=True)
    (2): Linear(in_features=1000, out_features=20, bias=True)
    (3): Linear(in_features=1000, out_features=20, bias=True)
    (4): Linear(in_features=1000, out_features=20, bias=True)
  )
)
======

************************************************************************************************************
Task  5
************************************************************************************************************
| Epoch   1, time=  1.2s | Train: skip eval | Valid: time=  0.2s loss=46.479, TAw acc= 40.0% | *
| Epoch   2, time=  1.2s | Train: skip eval | Valid: time=  0.2s loss=43.718, TAw acc= 52.9% | *
…
>>> Test on task  0 : loss=0.594 | TAw acc= 92.1%, forg=  0.0%| TAg acc= 78.5%, forg= 13.6% <<<
>>> Test on task  1 : loss=14.546 | TAw acc= 95.4%, forg=  0.0%| TAg acc= 88.1%, forg=  5.5% <<<
>>> Test on task  2 : loss=22.603 | TAw acc= 93.7%, forg=  0.0%| TAg acc= 82.9%, forg=  0.9% <<<
>>> Test on task  3 : loss=30.291 | TAw acc= 96.6%, forg=  0.0%| TAg acc= 86.6%, forg=  1.7% <<<
>>> Test on task  4 : loss=34.696 | TAw acc= 95.7%, forg=  0.0%| TAg acc= 88.0%, forg=  0.0% <<<
>>> Test on task  5 : loss=39.011 | TAw acc= 95.7%, forg=  0.0%| TAg acc= 89.6%, forg=  0.0% <<<
Save at icarl_wisdm_3/wisdm_flex_icarl
======
LLL_Net(
  (model): SimpleMLP(
    (fc1): Linear(in_features=91, out_features=1000, bias=True)
    (fc2): Sequential()
  )
  (heads): ModuleList(
    (0): Linear(in_features=1000, out_features=34, bias=True)
    (1): Linear(in_features=1000, out_features=20, bias=True)
    (2): Linear(in_features=1000, out_features=20, bias=True)
    (3): Linear(in_features=1000, out_features=20, bias=True)
    (4): Linear(in_features=1000, out_features=20, bias=True)
    (5): Linear(in_features=1000, out_features=20, bias=True)
  )
)
======

************************************************************************************************************
Task  6
************************************************************************************************************
| Epoch   1, time=  1.5s | Train: skip eval | Valid: time=  0.2s loss=53.301, TAw acc= 48.0% | *
| Epoch   2, time=  1.5s | Train: skip eval | Valid: time=  0.2s loss=50.031, TAw acc= 41.3% | *
…
>>> Test on task  1 : loss=14.465 | TAw acc= 95.4%, forg=  0.0%| TAg acc= 88.1%, forg=  5.5% <<<
>>> Test on task  2 : loss=22.538 | TAw acc= 93.7%, forg=  0.0%| TAg acc= 82.9%, forg=  0.9% <<<
>>> Test on task  3 : loss=30.263 | TAw acc= 96.6%, forg=  0.0%| TAg acc= 84.9%, forg=  3.4% <<<
>>> Test on task  4 : loss=34.693 | TAw acc= 95.7%, forg=  0.0%| TAg acc= 86.3%, forg=  1.7% <<<
>>> Test on task  5 : loss=39.159 | TAw acc= 95.7%, forg=  0.0%| TAg acc= 87.0%, forg=  2.6% <<<
>>> Test on task  6 : loss=44.796 | TAw acc= 90.3%, forg=  0.0%| TAg acc= 75.7%, forg=  0.0% <<<
Save at icarl_wisdm_3/wisdm_flex_icarl
======
LLL_Net(
  (model): SimpleMLP(
    (fc1): Linear(in_features=91, out_features=1000, bias=True)
    (fc2): Sequential()
  )
  (heads): ModuleList(
    (0): Linear(in_features=1000, out_features=34, bias=True)
    (1): Linear(in_features=1000, out_features=20, bias=True)
    (2): Linear(in_features=1000, out_features=20, bias=True)
    (3): Linear(in_features=1000, out_features=20, bias=True)
    (4): Linear(in_features=1000, out_features=20, bias=True)
    (5): Linear(in_features=1000, out_features=20, bias=True)
    (6): Linear(in_features=1000, out_features=20, bias=True)
  )
)
======

************************************************************************************************************
Task  7
************************************************************************************************************
| Epoch   1, time=  1.9s | Train: skip eval | Valid: time=  0.2s loss=52.878, TAw acc= 48.8% | *
| Epoch   2, time=  1.8s | Train: skip eval | Valid: time=  0.2s loss=49.592, TAw acc= 62.5% | *
…
>>> Test on task  2 : loss=22.494 | TAw acc= 93.7%, forg=  0.0%| TAg acc= 82.0%, forg=  1.8% <<<
>>> Test on task  3 : loss=30.136 | TAw acc= 96.6%, forg=  0.0%| TAg acc= 84.9%, forg=  3.4% <<<
>>> Test on task  4 : loss=34.487 | TAw acc= 95.7%, forg=  0.0%| TAg acc= 84.6%, forg=  3.4% <<<
>>> Test on task  5 : loss=39.088 | TAw acc= 95.7%, forg=  0.0%| TAg acc= 83.5%, forg=  6.1% <<<
>>> Test on task  6 : loss=44.762 | TAw acc= 90.3%, forg=  0.0%| TAg acc= 75.7%, forg=  0.0% <<<
>>> Test on task  7 : loss=46.514 | TAw acc= 98.1%, forg=  0.0%| TAg acc= 80.6%, forg=  0.0% <<<
Save at icarl_wisdm_3/wisdm_flex_icarl
======
LLL_Net(
  (model): SimpleMLP(
    (fc1): Linear(in_features=91, out_features=1000, bias=True)
    (fc2): Sequential()
  )
  (heads): ModuleList(
    (0): Linear(in_features=1000, out_features=34, bias=True)
    (1): Linear(in_features=1000, out_features=20, bias=True)
    (2): Linear(in_features=1000, out_features=20, bias=True)
    (3): Linear(in_features=1000, out_features=20, bias=True)
    (4): Linear(in_features=1000, out_features=20, bias=True)
    (5): Linear(in_features=1000, out_features=20, bias=True)
    (6): Linear(in_features=1000, out_features=20, bias=True)
    (7): Linear(in_features=1000, out_features=20, bias=True)
  )
)
======

************************************************************************************************************
Task  8
************************************************************************************************************
| Epoch   1, time=  2.3s | Train: skip eval | Valid: time=  0.2s loss=53.940, TAw acc= 39.6% | *
| Epoch   2, time=  2.2s | Train: skip eval | Valid: time=  0.2s loss=50.696, TAw acc= 69.3% | *
…
>>> Test on task  3 : loss=30.112 | TAw acc= 96.6%, forg=  0.0%| TAg acc= 84.0%, forg=  4.2% <<<
>>> Test on task  4 : loss=34.491 | TAw acc= 95.7%, forg=  0.0%| TAg acc= 84.6%, forg=  3.4% <<<
>>> Test on task  5 : loss=38.920 | TAw acc= 95.7%, forg=  0.0%| TAg acc= 80.0%, forg=  9.6% <<<
>>> Test on task  6 : loss=44.631 | TAw acc= 90.3%, forg=  0.0%| TAg acc= 75.7%, forg=  0.0% <<<
>>> Test on task  7 : loss=46.594 | TAw acc= 98.1%, forg=  0.0%| TAg acc= 80.6%, forg=  0.0% <<<
>>> Test on task  8 : loss=48.570 | TAw acc= 94.7%, forg=  0.0%| TAg acc= 81.8%, forg=  0.0% <<<
Save at icarl_wisdm_3/wisdm_flex_icarl
======
LLL_Net(
  (model): SimpleMLP(
    (fc1): Linear(in_features=91, out_features=1000, bias=True)
    (fc2): Sequential()
  )
  (heads): ModuleList(
    (0): Linear(in_features=1000, out_features=34, bias=True)
    (1): Linear(in_features=1000, out_features=20, bias=True)
    (2): Linear(in_features=1000, out_features=20, bias=True)
    (3): Linear(in_features=1000, out_features=20, bias=True)
    (4): Linear(in_features=1000, out_features=20, bias=True)
    (5): Linear(in_features=1000, out_features=20, bias=True)
    (6): Linear(in_features=1000, out_features=20, bias=True)
    (7): Linear(in_features=1000, out_features=20, bias=True)
    (8): Linear(in_features=1000, out_features=20, bias=True)
  )
)
======

************************************************************************************************************
Task  9
************************************************************************************************************
| Epoch   1, time=  2.6s | Train: skip eval | Valid: time=  0.2s loss=63.019, TAw acc= 33.8% | *
| Epoch   2, time=  2.6s | Train: skip eval | Valid: time=  0.2s loss=59.427, TAw acc= 45.6% | *
…
>>> Test on task  4 : loss=34.353 | TAw acc= 95.7%, forg=  0.0%| TAg acc= 84.6%, forg=  3.4% <<<
>>> Test on task  5 : loss=38.911 | TAw acc= 95.7%, forg=  0.0%| TAg acc= 77.4%, forg= 12.2% <<<
>>> Test on task  6 : loss=44.551 | TAw acc= 90.3%, forg=  0.0%| TAg acc= 73.8%, forg=  1.9% <<<
>>> Test on task  7 : loss=46.482 | TAw acc= 98.1%, forg=  0.0%| TAg acc= 76.9%, forg=  3.7% <<<
>>> Test on task  8 : loss=48.691 | TAw acc= 94.7%, forg=  0.0%| TAg acc= 78.8%, forg=  3.0% <<<
>>> Test on task  9 : loss=54.709 | TAw acc= 94.8%, forg=  0.0%| TAg acc= 81.2%, forg=  0.0% <<<
Save at icarl_wisdm_3/wisdm_flex_icarl
======
LLL_Net(
  (model): SimpleMLP(
    (fc1): Linear(in_features=91, out_features=1000, bias=True)
    (fc2): Sequential()
  )
  (heads): ModuleList(
    (0): Linear(in_features=1000, out_features=34, bias=True)
    (1): Linear(in_features=1000, out_features=20, bias=True)
    (2): Linear(in_features=1000, out_features=20, bias=True)
    (3): Linear(in_features=1000, out_features=20, bias=True)
    (4): Linear(in_features=1000, out_features=20, bias=True)
    (5): Linear(in_features=1000, out_features=20, bias=True)
    (6): Linear(in_features=1000, out_features=20, bias=True)
    (7): Linear(in_features=1000, out_features=20, bias=True)
    (8): Linear(in_features=1000, out_features=20, bias=True)
    (9): Linear(in_features=1000, out_features=20, bias=True)
  )
)
======

************************************************************************************************************
Task 10
************************************************************************************************************
| Epoch   1, time=  3.1s | Train: skip eval | Valid: time=  0.3s loss=65.081, TAw acc= 42.7% | *
| Epoch   2, time=  3.0s | Train: skip eval | Valid: time=  0.2s loss=61.060, TAw acc= 46.3% | *
…
>>> Test on task  5 : loss=38.794 | TAw acc= 95.7%, forg=  0.0%| TAg acc= 77.4%, forg= 12.2% <<<
>>> Test on task  6 : loss=44.532 | TAw acc= 90.3%, forg=  0.0%| TAg acc= 73.8%, forg=  1.9% <<<
>>> Test on task  7 : loss=46.450 | TAw acc= 98.1%, forg=  0.0%| TAg acc= 76.9%, forg=  3.7% <<<
>>> Test on task  8 : loss=48.644 | TAw acc= 94.7%, forg=  0.0%| TAg acc= 76.5%, forg=  5.3% <<<
>>> Test on task  9 : loss=54.751 | TAw acc= 94.8%, forg=  0.0%| TAg acc= 79.2%, forg=  2.1% <<<
>>> Test on task 10 : loss=56.341 | TAw acc= 96.4%, forg=  0.0%| TAg acc= 73.0%, forg=  0.0% <<<
Save at icarl_wisdm_3/wisdm_flex_icarl
======
LLL_Net(
  (model): SimpleMLP(
    (fc1): Linear(in_features=91, out_features=1000, bias=True)
    (fc2): Sequential()
  )
  (heads): ModuleList(
    (0): Linear(in_features=1000, out_features=34, bias=True)
    (1): Linear(in_features=1000, out_features=20, bias=True)
    (2): Linear(in_features=1000, out_features=20, bias=True)
    (3): Linear(in_features=1000, out_features=20, bias=True)
    (4): Linear(in_features=1000, out_features=20, bias=True)
    (5): Linear(in_features=1000, out_features=20, bias=True)
    (6): Linear(in_features=1000, out_features=20, bias=True)
    (7): Linear(in_features=1000, out_features=20, bias=True)
    (8): Linear(in_features=1000, out_features=20, bias=True)
    (9): Linear(in_features=1000, out_features=20, bias=True)
    (10): Linear(in_features=1000, out_features=20, bias=True)
  )
)
======

************************************************************************************************************
Task 11
************************************************************************************************************
| Epoch   1, time=  3.5s | Train: skip eval | Valid: time=  0.2s loss=66.053, TAw acc= 37.8% | *
| Epoch   2, time=  3.6s | Train: skip eval | Valid: time=  0.2s loss=61.998, TAw acc= 45.9% | *
…
>>> Test on task  6 : loss=44.411 | TAw acc= 90.3%, forg=  0.0%| TAg acc= 72.8%, forg=  2.9% <<<
>>> Test on task  7 : loss=46.307 | TAw acc= 98.1%, forg=  0.0%| TAg acc= 75.9%, forg=  4.6% <<<
>>> Test on task  8 : loss=48.582 | TAw acc= 94.7%, forg=  0.0%| TAg acc= 76.5%, forg=  5.3% <<<
>>> Test on task  9 : loss=54.595 | TAw acc= 94.8%, forg=  0.0%| TAg acc= 79.2%, forg=  2.1% <<<
>>> Test on task 10 : loss=56.419 | TAw acc= 96.4%, forg=  0.0%| TAg acc= 73.0%, forg=  0.0% <<<
>>> Test on task 11 : loss=58.242 | TAw acc= 96.0%, forg=  0.0%| TAg acc= 67.3%, forg=  0.0% <<<
Save at icarl_wisdm_3/wisdm_flex_icarl
======
LLL_Net(
  (model): SimpleMLP(
    (fc1): Linear(in_features=91, out_features=1000, bias=True)
    (fc2): Sequential()
  )
  (heads): ModuleList(
    (0): Linear(in_features=1000, out_features=34, bias=True)
    (1): Linear(in_features=1000, out_features=20, bias=True)
    (2): Linear(in_features=1000, out_features=20, bias=True)
    (3): Linear(in_features=1000, out_features=20, bias=True)
    (4): Linear(in_features=1000, out_features=20, bias=True)
    (5): Linear(in_features=1000, out_features=20, bias=True)
    (6): Linear(in_features=1000, out_features=20, bias=True)
    (7): Linear(in_features=1000, out_features=20, bias=True)
    (8): Linear(in_features=1000, out_features=20, bias=True)
    (9): Linear(in_features=1000, out_features=20, bias=True)
    (10): Linear(in_features=1000, out_features=20, bias=True)
    (11): Linear(in_features=1000, out_features=20, bias=True)
  )
)
======

************************************************************************************************************
Task 12
************************************************************************************************************
| Epoch   1, time=  4.1s | Train: skip eval | Valid: time=  0.2s loss=69.179, TAw acc= 27.3% | *
| Epoch   2, time=  3.8s | Train: skip eval | Valid: time=  0.2s loss=65.225, TAw acc= 28.8% | *
…
>>> Test on task  7 : loss=46.187 | TAw acc= 98.1%, forg=  0.0%| TAg acc= 74.1%, forg=  6.5% <<<
>>> Test on task  8 : loss=48.379 | TAw acc= 94.7%, forg=  0.0%| TAg acc= 76.5%, forg=  5.3% <<<
>>> Test on task  9 : loss=54.543 | TAw acc= 94.8%, forg=  0.0%| TAg acc= 75.0%, forg=  6.2% <<<
>>> Test on task 10 : loss=56.252 | TAw acc= 96.4%, forg=  0.0%| TAg acc= 73.0%, forg=  0.0% <<<
>>> Test on task 11 : loss=58.384 | TAw acc= 96.0%, forg=  0.0%| TAg acc= 67.3%, forg=  0.0% <<<
>>> Test on task 12 : loss=59.120 | TAw acc= 87.1%, forg=  0.0%| TAg acc= 60.2%, forg=  0.0% <<<
Save at icarl_wisdm_3/wisdm_flex_icarl
======
LLL_Net(
  (model): SimpleMLP(
    (fc1): Linear(in_features=91, out_features=1000, bias=True)
    (fc2): Sequential()
  )
  (heads): ModuleList(
    (0): Linear(in_features=1000, out_features=34, bias=True)
    (1): Linear(in_features=1000, out_features=20, bias=True)
    (2): Linear(in_features=1000, out_features=20, bias=True)
    (3): Linear(in_features=1000, out_features=20, bias=True)
    (4): Linear(in_features=1000, out_features=20, bias=True)
    (5): Linear(in_features=1000, out_features=20, bias=True)
    (6): Linear(in_features=1000, out_features=20, bias=True)
    (7): Linear(in_features=1000, out_features=20, bias=True)
    (8): Linear(in_features=1000, out_features=20, bias=True)
    (9): Linear(in_features=1000, out_features=20, bias=True)
    (10): Linear(in_features=1000, out_features=20, bias=True)
    (11): Linear(in_features=1000, out_features=20, bias=True)
    (12): Linear(in_features=1000, out_features=20, bias=True)
  )
)
======

************************************************************************************************************
Task 13
************************************************************************************************************
| Epoch   1, time=  4.4s | Train: skip eval | Valid: time=  0.3s loss=68.351, TAw acc= 31.5% | *
| Epoch   2, time=  4.7s | Train: skip eval | Valid: time=  0.3s loss=64.368, TAw acc= 63.0% | *
…
>>> Test on task  8 : loss=48.341 | TAw acc= 94.7%, forg=  0.0%| TAg acc= 76.5%, forg=  5.3% <<<
>>> Test on task  9 : loss=54.445 | TAw acc= 94.8%, forg=  0.0%| TAg acc= 74.0%, forg=  7.3% <<<
>>> Test on task 10 : loss=56.176 | TAw acc= 96.4%, forg=  0.0%| TAg acc= 71.2%, forg=  1.8% <<<
>>> Test on task 11 : loss=58.290 | TAw acc= 96.0%, forg=  0.0%| TAg acc= 65.3%, forg=  2.0% <<<
>>> Test on task 12 : loss=59.368 | TAw acc= 87.1%, forg=  0.0%| TAg acc= 58.1%, forg=  2.2% <<<
>>> Test on task 13 : loss=60.610 | TAw acc= 95.9%, forg=  0.0%| TAg acc= 76.4%, forg=  0.0% <<<
Save at icarl_wisdm_3/wisdm_flex_icarl
======
LLL_Net(
  (model): SimpleMLP(
    (fc1): Linear(in_features=91, out_features=1000, bias=True)
    (fc2): Sequential()
  )
  (heads): ModuleList(
    (0): Linear(in_features=1000, out_features=34, bias=True)
    (1): Linear(in_features=1000, out_features=20, bias=True)
    (2): Linear(in_features=1000, out_features=20, bias=True)
    (3): Linear(in_features=1000, out_features=20, bias=True)
    (4): Linear(in_features=1000, out_features=20, bias=True)
    (5): Linear(in_features=1000, out_features=20, bias=True)
    (6): Linear(in_features=1000, out_features=20, bias=True)
    (7): Linear(in_features=1000, out_features=20, bias=True)
    (8): Linear(in_features=1000, out_features=20, bias=True)
    (9): Linear(in_features=1000, out_features=20, bias=True)
    (10): Linear(in_features=1000, out_features=20, bias=True)
    (11): Linear(in_features=1000, out_features=20, bias=True)
    (12): Linear(in_features=1000, out_features=20, bias=True)
    (13): Linear(in_features=1000, out_features=20, bias=True)
  )
)
======

************************************************************************************************************
Task 14
************************************************************************************************************
| Epoch   1, time=  5.0s | Train: skip eval | Valid: time=  0.2s loss=74.248, TAw acc= 43.8% | *
| Epoch   2, time=  5.0s | Train: skip eval | Valid: time=  0.2s loss=69.997, TAw acc= 50.0% | *
…
>>> Test on task  9 : loss=54.345 | TAw acc= 94.8%, forg=  0.0%| TAg acc= 69.8%, forg= 11.5% <<<
>>> Test on task 10 : loss=56.037 | TAw acc= 96.4%, forg=  0.0%| TAg acc= 71.2%, forg=  1.8% <<<
>>> Test on task 11 : loss=58.168 | TAw acc= 96.0%, forg=  0.0%| TAg acc= 64.4%, forg=  3.0% <<<
>>> Test on task 12 : loss=59.216 | TAw acc= 87.1%, forg=  0.0%| TAg acc= 58.1%, forg=  2.2% <<<
>>> Test on task 13 : loss=60.711 | TAw acc= 95.9%, forg=  0.0%| TAg acc= 76.4%, forg=  0.0% <<<
>>> Test on task 14 : loss=63.143 | TAw acc= 93.4%, forg=  0.0%| TAg acc= 61.5%, forg=  0.0% <<<
Save at icarl_wisdm_3/wisdm_flex_icarl
======
LLL_Net(
  (model): SimpleMLP(
    (fc1): Linear(in_features=91, out_features=1000, bias=True)
    (fc2): Sequential()
  )
  (heads): ModuleList(
    (0): Linear(in_features=1000, out_features=34, bias=True)
    (1): Linear(in_features=1000, out_features=20, bias=True)
    (2): Linear(in_features=1000, out_features=20, bias=True)
    (3): Linear(in_features=1000, out_features=20, bias=True)
    (4): Linear(in_features=1000, out_features=20, bias=True)
    (5): Linear(in_features=1000, out_features=20, bias=True)
    (6): Linear(in_features=1000, out_features=20, bias=True)
    (7): Linear(in_features=1000, out_features=20, bias=True)
    (8): Linear(in_features=1000, out_features=20, bias=True)
    (9): Linear(in_features=1000, out_features=20, bias=True)
    (10): Linear(in_features=1000, out_features=20, bias=True)
    (11): Linear(in_features=1000, out_features=20, bias=True)
    (12): Linear(in_features=1000, out_features=20, bias=True)
    (13): Linear(in_features=1000, out_features=20, bias=True)
    (14): Linear(in_features=1000, out_features=20, bias=True)
  )
)
======

************************************************************************************************************
Task 15
************************************************************************************************************
| Epoch   1, time=  5.9s | Train: skip eval | Valid: time=  0.3s loss=78.563, TAw acc= 45.1% | *
| Epoch   2, time=  5.6s | Train: skip eval | Valid: time=  0.3s loss=73.654, TAw acc= 67.0% | *
…
>>> Test on task 10 : loss=55.914 | TAw acc= 96.4%, forg=  0.0%| TAg acc= 71.2%, forg=  1.8% <<<
>>> Test on task 11 : loss=58.048 | TAw acc= 96.0%, forg=  0.0%| TAg acc= 64.4%, forg=  3.0% <<<
>>> Test on task 12 : loss=59.137 | TAw acc= 87.1%, forg=  0.0%| TAg acc= 58.1%, forg=  2.2% <<<
>>> Test on task 13 : loss=60.664 | TAw acc= 95.9%, forg=  0.0%| TAg acc= 74.0%, forg=  2.4% <<<
>>> Test on task 14 : loss=63.253 | TAw acc= 93.4%, forg=  0.0%| TAg acc= 61.5%, forg=  0.0% <<<
>>> Test on task 15 : loss=71.076 | TAw acc= 95.9%, forg=  0.0%| TAg acc= 64.8%, forg=  0.0% <<<
Save at icarl_wisdm_3/wisdm_flex_icarl
======
LLL_Net(
  (model): SimpleMLP(
    (fc1): Linear(in_features=91, out_features=1000, bias=True)
    (fc2): Sequential()
  )
  (heads): ModuleList(
    (0): Linear(in_features=1000, out_features=34, bias=True)
    (1): Linear(in_features=1000, out_features=20, bias=True)
    (2): Linear(in_features=1000, out_features=20, bias=True)
    (3): Linear(in_features=1000, out_features=20, bias=True)
    (4): Linear(in_features=1000, out_features=20, bias=True)
    (5): Linear(in_features=1000, out_features=20, bias=True)
    (6): Linear(in_features=1000, out_features=20, bias=True)
    (7): Linear(in_features=1000, out_features=20, bias=True)
    (8): Linear(in_features=1000, out_features=20, bias=True)
    (9): Linear(in_features=1000, out_features=20, bias=True)
    (10): Linear(in_features=1000, out_features=20, bias=True)
    (11): Linear(in_features=1000, out_features=20, bias=True)
    (12): Linear(in_features=1000, out_features=20, bias=True)
    (13): Linear(in_features=1000, out_features=20, bias=True)
    (14): Linear(in_features=1000, out_features=20, bias=True)
    (15): Linear(in_features=1000, out_features=20, bias=True)
  )
)
======

************************************************************************************************************
Task 16
************************************************************************************************************
| Epoch   1, time=  6.3s | Train: skip eval | Valid: time=  0.3s loss=75.904, TAw acc= 46.2% | *
| Epoch   2, time=  6.2s | Train: skip eval | Valid: time=  0.3s loss=71.869, TAw acc= 58.1% | *
…
>>> Test on task 11 : loss=57.901 | TAw acc= 96.0%, forg=  0.0%| TAg acc= 64.4%, forg=  3.0% <<<
>>> Test on task 12 : loss=58.900 | TAw acc= 87.1%, forg=  0.0%| TAg acc= 58.1%, forg=  2.2% <<<
>>> Test on task 13 : loss=60.467 | TAw acc= 95.9%, forg=  0.0%| TAg acc= 73.2%, forg=  3.3% <<<
>>> Test on task 14 : loss=63.168 | TAw acc= 93.4%, forg=  0.0%| TAg acc= 61.5%, forg=  0.0% <<<
>>> Test on task 15 : loss=71.176 | TAw acc= 95.9%, forg=  0.0%| TAg acc= 63.9%, forg=  0.8% <<<
>>> Test on task 16 : loss=66.215 | TAw acc= 93.5%, forg=  0.0%| TAg acc= 78.0%, forg=  0.0% <<<
Save at icarl_wisdm_3/wisdm_flex_icarl
======
LLL_Net(
  (model): SimpleMLP(
    (fc1): Linear(in_features=91, out_features=1000, bias=True)
    (fc2): Sequential()
  )
  (heads): ModuleList(
    (0): Linear(in_features=1000, out_features=34, bias=True)
    (1): Linear(in_features=1000, out_features=20, bias=True)
    (2): Linear(in_features=1000, out_features=20, bias=True)
    (3): Linear(in_features=1000, out_features=20, bias=True)
    (4): Linear(in_features=1000, out_features=20, bias=True)
    (5): Linear(in_features=1000, out_features=20, bias=True)
    (6): Linear(in_features=1000, out_features=20, bias=True)
    (7): Linear(in_features=1000, out_features=20, bias=True)
    (8): Linear(in_features=1000, out_features=20, bias=True)
    (9): Linear(in_features=1000, out_features=20, bias=True)
    (10): Linear(in_features=1000, out_features=20, bias=True)
    (11): Linear(in_features=1000, out_features=20, bias=True)
    (12): Linear(in_features=1000, out_features=20, bias=True)
    (13): Linear(in_features=1000, out_features=20, bias=True)
    (14): Linear(in_features=1000, out_features=20, bias=True)
    (15): Linear(in_features=1000, out_features=20, bias=True)
    (16): Linear(in_features=1000, out_features=20, bias=True)
  )
)
======

************************************************************************************************************
Task 17
************************************************************************************************************
| Epoch   1, time=  7.2s | Train: skip eval | Valid: time=  0.3s loss=83.406, TAw acc= 35.3% | *
| Epoch   2, time=  7.4s | Train: skip eval | Valid: time=  0.3s loss=78.325, TAw acc= 54.1% | *
…
>>> Test on task 12 : loss=58.876 | TAw acc= 87.1%, forg=  0.0%| TAg acc= 58.1%, forg=  2.2% <<<
>>> Test on task 13 : loss=60.451 | TAw acc= 95.9%, forg=  0.0%| TAg acc= 72.4%, forg=  4.1% <<<
>>> Test on task 14 : loss=63.033 | TAw acc= 93.4%, forg=  0.0%| TAg acc= 61.5%, forg=  0.0% <<<
>>> Test on task 15 : loss=70.983 | TAw acc= 95.9%, forg=  0.0%| TAg acc= 63.9%, forg=  0.8% <<<
>>> Test on task 16 : loss=66.318 | TAw acc= 93.5%, forg=  0.0%| TAg acc= 78.0%, forg=  0.0% <<<
>>> Test on task 17 : loss=73.091 | TAw acc= 93.0%, forg=  0.0%| TAg acc= 69.6%, forg=  0.0% <<<
Save at icarl_wisdm_3/wisdm_flex_icarl
======
LLL_Net(
  (model): SimpleMLP(
    (fc1): Linear(in_features=91, out_features=1000, bias=True)
    (fc2): Sequential()
  )
  (heads): ModuleList(
    (0): Linear(in_features=1000, out_features=34, bias=True)
    (1): Linear(in_features=1000, out_features=20, bias=True)
    (2): Linear(in_features=1000, out_features=20, bias=True)
    (3): Linear(in_features=1000, out_features=20, bias=True)
    (4): Linear(in_features=1000, out_features=20, bias=True)
    (5): Linear(in_features=1000, out_features=20, bias=True)
    (6): Linear(in_features=1000, out_features=20, bias=True)
    (7): Linear(in_features=1000, out_features=20, bias=True)
    (8): Linear(in_features=1000, out_features=20, bias=True)
    (9): Linear(in_features=1000, out_features=20, bias=True)
    (10): Linear(in_features=1000, out_features=20, bias=True)
    (11): Linear(in_features=1000, out_features=20, bias=True)
    (12): Linear(in_features=1000, out_features=20, bias=True)
    (13): Linear(in_features=1000, out_features=20, bias=True)
    (14): Linear(in_features=1000, out_features=20, bias=True)
    (15): Linear(in_features=1000, out_features=20, bias=True)
    (16): Linear(in_features=1000, out_features=20, bias=True)
    (17): Linear(in_features=1000, out_features=20, bias=True)
  )
)
======

************************************************************************************************************
Task 18
************************************************************************************************************
| Epoch   1, time=  7.9s | Train: skip eval | Valid: time=  0.2s loss=83.692, TAw acc= 43.4% | *
| Epoch   2, time=  8.0s | Train: skip eval | Valid: time=  0.3s loss=78.753, TAw acc= 48.7% | *
…
>>> Test on task 13 : loss=60.301 | TAw acc= 95.9%, forg=  0.0%| TAg acc= 72.4%, forg=  4.1% <<<
>>> Test on task 14 : loss=63.003 | TAw acc= 93.4%, forg=  0.0%| TAg acc= 60.4%, forg=  1.1% <<<
>>> Test on task 15 : loss=70.872 | TAw acc= 95.9%, forg=  0.0%| TAg acc= 63.1%, forg=  1.6% <<<
>>> Test on task 16 : loss=66.215 | TAw acc= 93.5%, forg=  0.0%| TAg acc= 77.2%, forg=  0.8% <<<
>>> Test on task 17 : loss=73.276 | TAw acc= 93.0%, forg=  0.0%| TAg acc= 69.6%, forg=  0.0% <<<
>>> Test on task 18 : loss=71.091 | TAw acc= 98.1%, forg=  0.0%| TAg acc= 58.7%, forg=  0.0% <<<
Save at icarl_wisdm_3/wisdm_flex_icarl
======
LLL_Net(
  (model): SimpleMLP(
    (fc1): Linear(in_features=91, out_features=1000, bias=True)
    (fc2): Sequential()
  )
  (heads): ModuleList(
    (0): Linear(in_features=1000, out_features=34, bias=True)
    (1): Linear(in_features=1000, out_features=20, bias=True)
    (2): Linear(in_features=1000, out_features=20, bias=True)
    (3): Linear(in_features=1000, out_features=20, bias=True)
    (4): Linear(in_features=1000, out_features=20, bias=True)
    (5): Linear(in_features=1000, out_features=20, bias=True)
    (6): Linear(in_features=1000, out_features=20, bias=True)
    (7): Linear(in_features=1000, out_features=20, bias=True)
    (8): Linear(in_features=1000, out_features=20, bias=True)
    (9): Linear(in_features=1000, out_features=20, bias=True)
    (10): Linear(in_features=1000, out_features=20, bias=True)
    (11): Linear(in_features=1000, out_features=20, bias=True)
    (12): Linear(in_features=1000, out_features=20, bias=True)
    (13): Linear(in_features=1000, out_features=20, bias=True)
    (14): Linear(in_features=1000, out_features=20, bias=True)
    (15): Linear(in_features=1000, out_features=20, bias=True)
    (16): Linear(in_features=1000, out_features=20, bias=True)
    (17): Linear(in_features=1000, out_features=20, bias=True)
    (18): Linear(in_features=1000, out_features=20, bias=True)
  )
)
======

************************************************************************************************************
Task 19
************************************************************************************************************
| Epoch   1, time=  8.8s | Train: skip eval | Valid: time=  0.3s loss=85.752, TAw acc= 44.0% | *
| Epoch   2, time=  8.1s | Train: skip eval | Valid: time=  0.3s loss=80.760, TAw acc= 44.0% | *
…
>>> Test on task 14 : loss=62.838 | TAw acc= 93.4%, forg=  0.0%| TAg acc= 60.4%, forg=  1.1% <<<
>>> Test on task 15 : loss=70.742 | TAw acc= 95.9%, forg=  0.0%| TAg acc= 63.1%, forg=  1.6% <<<
>>> Test on task 16 : loss=66.067 | TAw acc= 93.5%, forg=  0.0%| TAg acc= 77.2%, forg=  0.8% <<<
>>> Test on task 17 : loss=73.160 | TAw acc= 93.0%, forg=  0.0%| TAg acc= 69.6%, forg=  0.0% <<<
>>> Test on task 18 : loss=71.220 | TAw acc= 98.1%, forg=  0.0%| TAg acc= 58.7%, forg=  0.0% <<<
>>> Test on task 19 : loss=73.666 | TAw acc= 98.1%, forg=  0.0%| TAg acc= 74.8%, forg=  0.0% <<<
Save at icarl_wisdm_3/wisdm_flex_icarl
======
LLL_Net(
  (model): SimpleMLP(
    (fc1): Linear(in_features=91, out_features=1000, bias=True)
    (fc2): Sequential()
  )
  (heads): ModuleList(
    (0): Linear(in_features=1000, out_features=34, bias=True)
    (1): Linear(in_features=1000, out_features=20, bias=True)
    (2): Linear(in_features=1000, out_features=20, bias=True)
    (3): Linear(in_features=1000, out_features=20, bias=True)
    (4): Linear(in_features=1000, out_features=20, bias=True)
    (5): Linear(in_features=1000, out_features=20, bias=True)
    (6): Linear(in_features=1000, out_features=20, bias=True)
    (7): Linear(in_features=1000, out_features=20, bias=True)
    (8): Linear(in_features=1000, out_features=20, bias=True)
    (9): Linear(in_features=1000, out_features=20, bias=True)
    (10): Linear(in_features=1000, out_features=20, bias=True)
    (11): Linear(in_features=1000, out_features=20, bias=True)
    (12): Linear(in_features=1000, out_features=20, bias=True)
    (13): Linear(in_features=1000, out_features=20, bias=True)
    (14): Linear(in_features=1000, out_features=20, bias=True)
    (15): Linear(in_features=1000, out_features=20, bias=True)
    (16): Linear(in_features=1000, out_features=20, bias=True)
    (17): Linear(in_features=1000, out_features=20, bias=True)
    (18): Linear(in_features=1000, out_features=20, bias=True)
    (19): Linear(in_features=1000, out_features=20, bias=True)
  )
)
======

************************************************************************************************************
Task 20
************************************************************************************************************
| Epoch   1, time=  9.6s | Train: skip eval | Valid: time=  0.3s loss=84.033, TAw acc= 61.4% | *
| Epoch   2, time=  9.4s | Train: skip eval | Valid: time=  0.3s loss=78.809, TAw acc= 62.7% | *
…
>>> Test on task 15 : loss=70.713 | TAw acc= 95.9%, forg=  0.0%| TAg acc= 60.7%, forg=  4.1% <<<
>>> Test on task 16 : loss=65.919 | TAw acc= 93.5%, forg=  0.0%| TAg acc= 77.2%, forg=  0.8% <<<
>>> Test on task 17 : loss=73.141 | TAw acc= 93.0%, forg=  0.0%| TAg acc= 67.0%, forg=  2.6% <<<
>>> Test on task 18 : loss=71.095 | TAw acc= 98.1%, forg=  0.0%| TAg acc= 58.7%, forg=  0.0% <<<
>>> Test on task 19 : loss=73.681 | TAw acc= 98.1%, forg=  0.0%| TAg acc= 74.8%, forg=  0.0% <<<
>>> Test on task 20 : loss=78.290 | TAw acc= 97.3%, forg=  0.0%| TAg acc= 70.5%, forg=  0.0% <<<
Save at icarl_wisdm_3/wisdm_flex_icarl
======
LLL_Net(
  (model): SimpleMLP(
    (fc1): Linear(in_features=91, out_features=1000, bias=True)
    (fc2): Sequential()
  )
  (heads): ModuleList(
    (0): Linear(in_features=1000, out_features=34, bias=True)
    (1): Linear(in_features=1000, out_features=20, bias=True)
    (2): Linear(in_features=1000, out_features=20, bias=True)
    (3): Linear(in_features=1000, out_features=20, bias=True)
    (4): Linear(in_features=1000, out_features=20, bias=True)
    (5): Linear(in_features=1000, out_features=20, bias=True)
    (6): Linear(in_features=1000, out_features=20, bias=True)
    (7): Linear(in_features=1000, out_features=20, bias=True)
    (8): Linear(in_features=1000, out_features=20, bias=True)
    (9): Linear(in_features=1000, out_features=20, bias=True)
    (10): Linear(in_features=1000, out_features=20, bias=True)
    (11): Linear(in_features=1000, out_features=20, bias=True)
    (12): Linear(in_features=1000, out_features=20, bias=True)
    (13): Linear(in_features=1000, out_features=20, bias=True)
    (14): Linear(in_features=1000, out_features=20, bias=True)
    (15): Linear(in_features=1000, out_features=20, bias=True)
    (16): Linear(in_features=1000, out_features=20, bias=True)
    (17): Linear(in_features=1000, out_features=20, bias=True)
    (18): Linear(in_features=1000, out_features=20, bias=True)
    (19): Linear(in_features=1000, out_features=20, bias=True)
    (20): Linear(in_features=1000, out_features=20, bias=True)
  )
)
======

************************************************************************************************************
Task 21
************************************************************************************************************
| Epoch   1, time=  9.8s | Train: skip eval | Valid: time=  0.3s loss=91.747, TAw acc= 57.3% | *
| Epoch   2, time= 10.5s | Train: skip eval | Valid: time=  0.3s loss=85.951, TAw acc= 65.2% | *
…
>>> Test on task 16 : loss=65.859 | TAw acc= 93.5%, forg=  0.0%| TAg acc= 76.4%, forg=  1.6% <<<
>>> Test on task 17 : loss=73.057 | TAw acc= 93.0%, forg=  0.0%| TAg acc= 67.0%, forg=  2.6% <<<
>>> Test on task 18 : loss=70.998 | TAw acc= 98.1%, forg=  0.0%| TAg acc= 58.7%, forg=  0.0% <<<
>>> Test on task 19 : loss=73.580 | TAw acc= 98.1%, forg=  0.0%| TAg acc= 74.8%, forg=  0.0% <<<
>>> Test on task 20 : loss=78.419 | TAw acc= 97.3%, forg=  0.0%| TAg acc= 70.5%, forg=  0.0% <<<
>>> Test on task 21 : loss=80.739 | TAw acc= 91.6%, forg=  0.0%| TAg acc= 74.8%, forg=  0.0% <<<
Save at icarl_wisdm_3/wisdm_flex_icarl
======
LLL_Net(
  (model): SimpleMLP(
    (fc1): Linear(in_features=91, out_features=1000, bias=True)
    (fc2): Sequential()
  )
  (heads): ModuleList(
    (0): Linear(in_features=1000, out_features=34, bias=True)
    (1): Linear(in_features=1000, out_features=20, bias=True)
    (2): Linear(in_features=1000, out_features=20, bias=True)
    (3): Linear(in_features=1000, out_features=20, bias=True)
    (4): Linear(in_features=1000, out_features=20, bias=True)
    (5): Linear(in_features=1000, out_features=20, bias=True)
    (6): Linear(in_features=1000, out_features=20, bias=True)
    (7): Linear(in_features=1000, out_features=20, bias=True)
    (8): Linear(in_features=1000, out_features=20, bias=True)
    (9): Linear(in_features=1000, out_features=20, bias=True)
    (10): Linear(in_features=1000, out_features=20, bias=True)
    (11): Linear(in_features=1000, out_features=20, bias=True)
    (12): Linear(in_features=1000, out_features=20, bias=True)
    (13): Linear(in_features=1000, out_features=20, bias=True)
    (14): Linear(in_features=1000, out_features=20, bias=True)
    (15): Linear(in_features=1000, out_features=20, bias=True)
    (16): Linear(in_features=1000, out_features=20, bias=True)
    (17): Linear(in_features=1000, out_features=20, bias=True)
    (18): Linear(in_features=1000, out_features=20, bias=True)
    (19): Linear(in_features=1000, out_features=20, bias=True)
    (20): Linear(in_features=1000, out_features=20, bias=True)
    (21): Linear(in_features=1000, out_features=20, bias=True)
  )
)
======

************************************************************************************************************
Task 22
************************************************************************************************************
| Epoch   1, time= 11.0s | Train: skip eval | Valid: time=  0.3s loss=89.130, TAw acc= 52.6% | *
| Epoch   2, time= 11.1s | Train: skip eval | Valid: time=  0.3s loss=84.554, TAw acc= 60.3% | *
…
>>> Test on task 17 : loss=73.042 | TAw acc= 93.0%, forg=  0.0%| TAg acc= 65.2%, forg=  4.3% <<<
>>> Test on task 18 : loss=70.982 | TAw acc= 98.1%, forg=  0.0%| TAg acc= 58.7%, forg=  0.0% <<<
>>> Test on task 19 : loss=73.539 | TAw acc= 98.1%, forg=  0.0%| TAg acc= 73.8%, forg=  1.0% <<<
>>> Test on task 20 : loss=78.291 | TAw acc= 97.3%, forg=  0.0%| TAg acc= 68.8%, forg=  1.8% <<<
>>> Test on task 21 : loss=80.750 | TAw acc= 91.6%, forg=  0.0%| TAg acc= 74.8%, forg=  0.0% <<<
>>> Test on task 22 : loss=81.084 | TAw acc= 91.4%, forg=  0.0%| TAg acc= 55.2%, forg=  0.0% <<<
Save at icarl_wisdm_3/wisdm_flex_icarl
======
LLL_Net(
  (model): SimpleMLP(
    (fc1): Linear(in_features=91, out_features=1000, bias=True)
    (fc2): Sequential()
  )
  (heads): ModuleList(
    (0): Linear(in_features=1000, out_features=34, bias=True)
    (1): Linear(in_features=1000, out_features=20, bias=True)
    (2): Linear(in_features=1000, out_features=20, bias=True)
    (3): Linear(in_features=1000, out_features=20, bias=True)
    (4): Linear(in_features=1000, out_features=20, bias=True)
    (5): Linear(in_features=1000, out_features=20, bias=True)
    (6): Linear(in_features=1000, out_features=20, bias=True)
    (7): Linear(in_features=1000, out_features=20, bias=True)
    (8): Linear(in_features=1000, out_features=20, bias=True)
    (9): Linear(in_features=1000, out_features=20, bias=True)
    (10): Linear(in_features=1000, out_features=20, bias=True)
    (11): Linear(in_features=1000, out_features=20, bias=True)
    (12): Linear(in_features=1000, out_features=20, bias=True)
    (13): Linear(in_features=1000, out_features=20, bias=True)
    (14): Linear(in_features=1000, out_features=20, bias=True)
    (15): Linear(in_features=1000, out_features=20, bias=True)
    (16): Linear(in_features=1000, out_features=20, bias=True)
    (17): Linear(in_features=1000, out_features=20, bias=True)
    (18): Linear(in_features=1000, out_features=20, bias=True)
    (19): Linear(in_features=1000, out_features=20, bias=True)
    (20): Linear(in_features=1000, out_features=20, bias=True)
    (21): Linear(in_features=1000, out_features=20, bias=True)
    (22): Linear(in_features=1000, out_features=20, bias=True)
  )
)
======

************************************************************************************************************
Task 23
************************************************************************************************************
| Epoch   1, time= 11.6s | Train: skip eval | Valid: time=  0.3s loss=88.303, TAw acc= 41.1% | *
| Epoch   2, time= 12.2s | Train: skip eval | Valid: time=  0.3s loss=81.750, TAw acc= 68.9% | *
…
>>> Test on task 18 : loss=70.835 | TAw acc= 98.1%, forg=  0.0%| TAg acc= 58.7%, forg=  0.0% <<<
>>> Test on task 19 : loss=73.403 | TAw acc= 98.1%, forg=  0.0%| TAg acc= 73.8%, forg=  1.0% <<<
>>> Test on task 20 : loss=78.165 | TAw acc= 97.3%, forg=  0.0%| TAg acc= 68.8%, forg=  1.8% <<<
>>> Test on task 21 : loss=80.650 | TAw acc= 91.6%, forg=  0.0%| TAg acc= 74.8%, forg=  0.0% <<<
>>> Test on task 22 : loss=81.369 | TAw acc= 91.4%, forg=  0.0%| TAg acc= 55.2%, forg=  0.0% <<<
>>> Test on task 23 : loss=76.245 | TAw acc= 90.9%, forg=  0.0%| TAg acc= 71.9%, forg=  0.0% <<<
Save at icarl_wisdm_3/wisdm_flex_icarl
======
LLL_Net(
  (model): SimpleMLP(
    (fc1): Linear(in_features=91, out_features=1000, bias=True)
    (fc2): Sequential()
  )
  (heads): ModuleList(
    (0): Linear(in_features=1000, out_features=34, bias=True)
    (1): Linear(in_features=1000, out_features=20, bias=True)
    (2): Linear(in_features=1000, out_features=20, bias=True)
    (3): Linear(in_features=1000, out_features=20, bias=True)
    (4): Linear(in_features=1000, out_features=20, bias=True)
    (5): Linear(in_features=1000, out_features=20, bias=True)
    (6): Linear(in_features=1000, out_features=20, bias=True)
    (7): Linear(in_features=1000, out_features=20, bias=True)
    (8): Linear(in_features=1000, out_features=20, bias=True)
    (9): Linear(in_features=1000, out_features=20, bias=True)
    (10): Linear(in_features=1000, out_features=20, bias=True)
    (11): Linear(in_features=1000, out_features=20, bias=True)
    (12): Linear(in_features=1000, out_features=20, bias=True)
    (13): Linear(in_features=1000, out_features=20, bias=True)
    (14): Linear(in_features=1000, out_features=20, bias=True)
    (15): Linear(in_features=1000, out_features=20, bias=True)
    (16): Linear(in_features=1000, out_features=20, bias=True)
    (17): Linear(in_features=1000, out_features=20, bias=True)
    (18): Linear(in_features=1000, out_features=20, bias=True)
    (19): Linear(in_features=1000, out_features=20, bias=True)
    (20): Linear(in_features=1000, out_features=20, bias=True)
    (21): Linear(in_features=1000, out_features=20, bias=True)
    (22): Linear(in_features=1000, out_features=20, bias=True)
    (23): Linear(in_features=1000, out_features=20, bias=True)
  )
)
======

************************************************************************************************************
Task 24
************************************************************************************************************
| Epoch   1, time= 12.4s | Train: skip eval | Valid: time=  0.3s loss=97.993, TAw acc= 50.0% | *
| Epoch   2, time= 13.0s | Train: skip eval | Valid: time=  0.3s loss=92.237, TAw acc= 55.8% | *
…
>>> Test on task 19 : loss=73.323 | TAw acc= 98.1%, forg=  0.0%| TAg acc= 73.8%, forg=  1.0% <<<
>>> Test on task 20 : loss=78.041 | TAw acc= 97.3%, forg=  0.0%| TAg acc= 68.8%, forg=  1.8% <<<
>>> Test on task 21 : loss=80.508 | TAw acc= 91.6%, forg=  0.0%| TAg acc= 73.9%, forg=  0.8% <<<
>>> Test on task 22 : loss=81.220 | TAw acc= 91.4%, forg=  0.0%| TAg acc= 55.2%, forg=  0.0% <<<
>>> Test on task 23 : loss=76.338 | TAw acc= 90.9%, forg=  0.0%| TAg acc= 71.9%, forg=  0.0% <<<
>>> Test on task 24 : loss=86.468 | TAw acc= 90.4%, forg=  0.0%| TAg acc= 58.3%, forg=  0.0% <<<
Save at icarl_wisdm_3/wisdm_flex_icarl
======
LLL_Net(
  (model): SimpleMLP(
    (fc1): Linear(in_features=91, out_features=1000, bias=True)
    (fc2): Sequential()
  )
  (heads): ModuleList(
    (0): Linear(in_features=1000, out_features=34, bias=True)
    (1): Linear(in_features=1000, out_features=20, bias=True)
    (2): Linear(in_features=1000, out_features=20, bias=True)
    (3): Linear(in_features=1000, out_features=20, bias=True)
    (4): Linear(in_features=1000, out_features=20, bias=True)
    (5): Linear(in_features=1000, out_features=20, bias=True)
    (6): Linear(in_features=1000, out_features=20, bias=True)
    (7): Linear(in_features=1000, out_features=20, bias=True)
    (8): Linear(in_features=1000, out_features=20, bias=True)
    (9): Linear(in_features=1000, out_features=20, bias=True)
    (10): Linear(in_features=1000, out_features=20, bias=True)
    (11): Linear(in_features=1000, out_features=20, bias=True)
    (12): Linear(in_features=1000, out_features=20, bias=True)
    (13): Linear(in_features=1000, out_features=20, bias=True)
    (14): Linear(in_features=1000, out_features=20, bias=True)
    (15): Linear(in_features=1000, out_features=20, bias=True)
    (16): Linear(in_features=1000, out_features=20, bias=True)
    (17): Linear(in_features=1000, out_features=20, bias=True)
    (18): Linear(in_features=1000, out_features=20, bias=True)
    (19): Linear(in_features=1000, out_features=20, bias=True)
    (20): Linear(in_features=1000, out_features=20, bias=True)
    (21): Linear(in_features=1000, out_features=20, bias=True)
    (22): Linear(in_features=1000, out_features=20, bias=True)
    (23): Linear(in_features=1000, out_features=20, bias=True)
    (24): Linear(in_features=1000, out_features=20, bias=True)
  )
)
======

************************************************************************************************************
Task 25
************************************************************************************************************
| Epoch   1, time= 13.3s | Train: skip eval | Valid: time=  0.3s loss=102.419, TAw acc= 51.3% | *
| Epoch   2, time= 13.3s | Train: skip eval | Valid: time=  0.3s loss=95.839, TAw acc= 72.4% | *
…
>>> Test on task 20 : loss=77.998 | TAw acc= 97.3%, forg=  0.0%| TAg acc= 67.0%, forg=  3.6% <<<
>>> Test on task 21 : loss=80.472 | TAw acc= 91.6%, forg=  0.0%| TAg acc= 73.9%, forg=  0.8% <<<
>>> Test on task 22 : loss=81.289 | TAw acc= 91.4%, forg=  0.0%| TAg acc= 55.2%, forg=  0.0% <<<
>>> Test on task 23 : loss=76.277 | TAw acc= 90.9%, forg=  0.0%| TAg acc= 70.2%, forg=  1.7% <<<
>>> Test on task 24 : loss=86.834 | TAw acc= 90.4%, forg=  0.0%| TAg acc= 57.4%, forg=  0.9% <<<
>>> Test on task 25 : loss=88.334 | TAw acc= 98.1%, forg=  0.0%| TAg acc= 70.2%, forg=  0.0% <<<
Save at icarl_wisdm_3/wisdm_flex_icarl
======
LLL_Net(
  (model): SimpleMLP(
    (fc1): Linear(in_features=91, out_features=1000, bias=True)
    (fc2): Sequential()
  )
  (heads): ModuleList(
    (0): Linear(in_features=1000, out_features=34, bias=True)
    (1): Linear(in_features=1000, out_features=20, bias=True)
    (2): Linear(in_features=1000, out_features=20, bias=True)
    (3): Linear(in_features=1000, out_features=20, bias=True)
    (4): Linear(in_features=1000, out_features=20, bias=True)
    (5): Linear(in_features=1000, out_features=20, bias=True)
    (6): Linear(in_features=1000, out_features=20, bias=True)
    (7): Linear(in_features=1000, out_features=20, bias=True)
    (8): Linear(in_features=1000, out_features=20, bias=True)
    (9): Linear(in_features=1000, out_features=20, bias=True)
    (10): Linear(in_features=1000, out_features=20, bias=True)
    (11): Linear(in_features=1000, out_features=20, bias=True)
    (12): Linear(in_features=1000, out_features=20, bias=True)
    (13): Linear(in_features=1000, out_features=20, bias=True)
    (14): Linear(in_features=1000, out_features=20, bias=True)
    (15): Linear(in_features=1000, out_features=20, bias=True)
    (16): Linear(in_features=1000, out_features=20, bias=True)
    (17): Linear(in_features=1000, out_features=20, bias=True)
    (18): Linear(in_features=1000, out_features=20, bias=True)
    (19): Linear(in_features=1000, out_features=20, bias=True)
    (20): Linear(in_features=1000, out_features=20, bias=True)
    (21): Linear(in_features=1000, out_features=20, bias=True)
    (22): Linear(in_features=1000, out_features=20, bias=True)
    (23): Linear(in_features=1000, out_features=20, bias=True)
    (24): Linear(in_features=1000, out_features=20, bias=True)
    (25): Linear(in_features=1000, out_features=20, bias=True)
  )
)
======

************************************************************************************************************
Task 26
************************************************************************************************************
| Epoch   1, time= 14.9s | Train: skip eval | Valid: time=  0.3s loss=91.644, TAw acc= 38.5% | *
| Epoch   2, time= 14.3s | Train: skip eval | Valid: time=  0.3s loss=85.947, TAw acc= 51.3% | *
…
>>> Test on task 21 : loss=80.362 | TAw acc= 91.6%, forg=  0.0%| TAg acc= 73.9%, forg=  0.8% <<<
>>> Test on task 22 : loss=81.224 | TAw acc= 91.4%, forg=  0.0%| TAg acc= 54.3%, forg=  1.0% <<<
>>> Test on task 23 : loss=76.221 | TAw acc= 90.9%, forg=  0.0%| TAg acc= 70.2%, forg=  1.7% <<<
>>> Test on task 24 : loss=86.717 | TAw acc= 90.4%, forg=  0.0%| TAg acc= 57.4%, forg=  0.9% <<<
>>> Test on task 25 : loss=88.593 | TAw acc= 98.1%, forg=  0.0%| TAg acc= 70.2%, forg=  0.0% <<<
>>> Test on task 26 : loss=84.578 | TAw acc= 95.3%, forg=  0.0%| TAg acc= 80.4%, forg=  0.0% <<<
Save at icarl_wisdm_3/wisdm_flex_icarl
======
LLL_Net(
  (model): SimpleMLP(
    (fc1): Linear(in_features=91, out_features=1000, bias=True)
    (fc2): Sequential()
  )
  (heads): ModuleList(
    (0): Linear(in_features=1000, out_features=34, bias=True)
    (1): Linear(in_features=1000, out_features=20, bias=True)
    (2): Linear(in_features=1000, out_features=20, bias=True)
    (3): Linear(in_features=1000, out_features=20, bias=True)
    (4): Linear(in_features=1000, out_features=20, bias=True)
    (5): Linear(in_features=1000, out_features=20, bias=True)
    (6): Linear(in_features=1000, out_features=20, bias=True)
    (7): Linear(in_features=1000, out_features=20, bias=True)
    (8): Linear(in_features=1000, out_features=20, bias=True)
    (9): Linear(in_features=1000, out_features=20, bias=True)
    (10): Linear(in_features=1000, out_features=20, bias=True)
    (11): Linear(in_features=1000, out_features=20, bias=True)
    (12): Linear(in_features=1000, out_features=20, bias=True)
    (13): Linear(in_features=1000, out_features=20, bias=True)
    (14): Linear(in_features=1000, out_features=20, bias=True)
    (15): Linear(in_features=1000, out_features=20, bias=True)
    (16): Linear(in_features=1000, out_features=20, bias=True)
    (17): Linear(in_features=1000, out_features=20, bias=True)
    (18): Linear(in_features=1000, out_features=20, bias=True)
    (19): Linear(in_features=1000, out_features=20, bias=True)
    (20): Linear(in_features=1000, out_features=20, bias=True)
    (21): Linear(in_features=1000, out_features=20, bias=True)
    (22): Linear(in_features=1000, out_features=20, bias=True)
    (23): Linear(in_features=1000, out_features=20, bias=True)
    (24): Linear(in_features=1000, out_features=20, bias=True)
    (25): Linear(in_features=1000, out_features=20, bias=True)
    (26): Linear(in_features=1000, out_features=20, bias=True)
  )
)
======

************************************************************************************************************
Task 27
************************************************************************************************************
| Epoch   1, time= 16.3s | Train: skip eval | Valid: time=  0.3s loss=94.531, TAw acc= 49.4% | *
| Epoch   2, time= 15.5s | Train: skip eval | Valid: time=  0.3s loss=87.812, TAw acc= 67.1% | *
…
>>> Test on task 22 : loss=81.061 | TAw acc= 91.4%, forg=  0.0%| TAg acc= 54.3%, forg=  1.0% <<<
>>> Test on task 23 : loss=76.114 | TAw acc= 90.9%, forg=  0.0%| TAg acc= 70.2%, forg=  1.7% <<<
>>> Test on task 24 : loss=86.587 | TAw acc= 90.4%, forg=  0.0%| TAg acc= 56.5%, forg=  1.7% <<<
>>> Test on task 25 : loss=88.426 | TAw acc= 98.1%, forg=  0.0%| TAg acc= 68.3%, forg=  1.9% <<<
>>> Test on task 26 : loss=84.539 | TAw acc= 95.3%, forg=  0.0%| TAg acc= 80.4%, forg=  0.0% <<<
>>> Test on task 27 : loss=86.879 | TAw acc= 91.2%, forg=  0.0%| TAg acc= 64.0%, forg=  0.0% <<<
Save at icarl_wisdm_3/wisdm_flex_icarl
======
LLL_Net(
  (model): SimpleMLP(
    (fc1): Linear(in_features=91, out_features=1000, bias=True)
    (fc2): Sequential()
  )
  (heads): ModuleList(
    (0): Linear(in_features=1000, out_features=34, bias=True)
    (1): Linear(in_features=1000, out_features=20, bias=True)
    (2): Linear(in_features=1000, out_features=20, bias=True)
    (3): Linear(in_features=1000, out_features=20, bias=True)
    (4): Linear(in_features=1000, out_features=20, bias=True)
    (5): Linear(in_features=1000, out_features=20, bias=True)
    (6): Linear(in_features=1000, out_features=20, bias=True)
    (7): Linear(in_features=1000, out_features=20, bias=True)
    (8): Linear(in_features=1000, out_features=20, bias=True)
    (9): Linear(in_features=1000, out_features=20, bias=True)
    (10): Linear(in_features=1000, out_features=20, bias=True)
    (11): Linear(in_features=1000, out_features=20, bias=True)
    (12): Linear(in_features=1000, out_features=20, bias=True)
    (13): Linear(in_features=1000, out_features=20, bias=True)
    (14): Linear(in_features=1000, out_features=20, bias=True)
    (15): Linear(in_features=1000, out_features=20, bias=True)
    (16): Linear(in_features=1000, out_features=20, bias=True)
    (17): Linear(in_features=1000, out_features=20, bias=True)
    (18): Linear(in_features=1000, out_features=20, bias=True)
    (19): Linear(in_features=1000, out_features=20, bias=True)
    (20): Linear(in_features=1000, out_features=20, bias=True)
    (21): Linear(in_features=1000, out_features=20, bias=True)
    (22): Linear(in_features=1000, out_features=20, bias=True)
    (23): Linear(in_features=1000, out_features=20, bias=True)
    (24): Linear(in_features=1000, out_features=20, bias=True)
    (25): Linear(in_features=1000, out_features=20, bias=True)
    (26): Linear(in_features=1000, out_features=20, bias=True)
    (27): Linear(in_features=1000, out_features=20, bias=True)
  )
)
======

************************************************************************************************************
Task 28
************************************************************************************************************
| Epoch   1, time= 16.6s | Train: skip eval | Valid: time=  0.3s loss=91.171, TAw acc= 45.8% | *
| Epoch   2, time= 16.4s | Train: skip eval | Valid: time=  0.3s loss=86.564, TAw acc= 62.7% | *
…
>>> Test on task 23 : loss=75.905 | TAw acc= 90.9%, forg=  0.0%| TAg acc= 70.2%, forg=  1.7% <<<
>>> Test on task 24 : loss=86.507 | TAw acc= 90.4%, forg=  0.0%| TAg acc= 54.8%, forg=  3.5% <<<
>>> Test on task 25 : loss=88.304 | TAw acc= 98.1%, forg=  0.0%| TAg acc= 68.3%, forg=  1.9% <<<
>>> Test on task 26 : loss=84.408 | TAw acc= 95.3%, forg=  0.0%| TAg acc= 80.4%, forg=  0.0% <<<
>>> Test on task 27 : loss=86.880 | TAw acc= 91.2%, forg=  0.0%| TAg acc= 64.0%, forg=  0.0% <<<
>>> Test on task 28 : loss=81.631 | TAw acc= 96.4%, forg=  0.0%| TAg acc= 76.8%, forg=  0.0% <<<
Save at icarl_wisdm_3/wisdm_flex_icarl
======
LLL_Net(
  (model): SimpleMLP(
    (fc1): Linear(in_features=91, out_features=1000, bias=True)
    (fc2): Sequential()
  )
  (heads): ModuleList(
    (0): Linear(in_features=1000, out_features=34, bias=True)
    (1): Linear(in_features=1000, out_features=20, bias=True)
    (2): Linear(in_features=1000, out_features=20, bias=True)
    (3): Linear(in_features=1000, out_features=20, bias=True)
    (4): Linear(in_features=1000, out_features=20, bias=True)
    (5): Linear(in_features=1000, out_features=20, bias=True)
    (6): Linear(in_features=1000, out_features=20, bias=True)
    (7): Linear(in_features=1000, out_features=20, bias=True)
    (8): Linear(in_features=1000, out_features=20, bias=True)
    (9): Linear(in_features=1000, out_features=20, bias=True)
    (10): Linear(in_features=1000, out_features=20, bias=True)
    (11): Linear(in_features=1000, out_features=20, bias=True)
    (12): Linear(in_features=1000, out_features=20, bias=True)
    (13): Linear(in_features=1000, out_features=20, bias=True)
    (14): Linear(in_features=1000, out_features=20, bias=True)
    (15): Linear(in_features=1000, out_features=20, bias=True)
    (16): Linear(in_features=1000, out_features=20, bias=True)
    (17): Linear(in_features=1000, out_features=20, bias=True)
    (18): Linear(in_features=1000, out_features=20, bias=True)
    (19): Linear(in_features=1000, out_features=20, bias=True)
    (20): Linear(in_features=1000, out_features=20, bias=True)
    (21): Linear(in_features=1000, out_features=20, bias=True)
    (22): Linear(in_features=1000, out_features=20, bias=True)
    (23): Linear(in_features=1000, out_features=20, bias=True)
    (24): Linear(in_features=1000, out_features=20, bias=True)
    (25): Linear(in_features=1000, out_features=20, bias=True)
    (26): Linear(in_features=1000, out_features=20, bias=True)
    (27): Linear(in_features=1000, out_features=20, bias=True)
    (28): Linear(in_features=1000, out_features=20, bias=True)
  )
)
======

************************************************************************************************************
Task 29
************************************************************************************************************
| Epoch   1, time= 17.5s | Train: skip eval | Valid: time=  0.3s loss=102.588, TAw acc= 64.3% | *
| Epoch   2, time= 17.5s | Train: skip eval | Valid: time=  0.3s loss=95.694, TAw acc= 71.4% | *
…
>>> Test on task 24 : loss=86.419 | TAw acc= 90.4%, forg=  0.0%| TAg acc= 53.9%, forg=  4.3% <<<
>>> Test on task 25 : loss=88.148 | TAw acc= 98.1%, forg=  0.0%| TAg acc= 67.3%, forg=  2.9% <<<
>>> Test on task 26 : loss=84.272 | TAw acc= 95.3%, forg=  0.0%| TAg acc= 80.4%, forg=  0.0% <<<
>>> Test on task 27 : loss=86.724 | TAw acc= 91.2%, forg=  0.0%| TAg acc= 64.0%, forg=  0.0% <<<
>>> Test on task 28 : loss=81.660 | TAw acc= 96.4%, forg=  0.0%| TAg acc= 76.8%, forg=  0.0% <<<
>>> Test on task 29 : loss=93.847 | TAw acc= 95.6%, forg=  0.0%| TAg acc= 71.9%, forg=  0.0% <<<
Save at icarl_wisdm_3/wisdm_flex_icarl
======
LLL_Net(
  (model): SimpleMLP(
    (fc1): Linear(in_features=91, out_features=1000, bias=True)
    (fc2): Sequential()
  )
  (heads): ModuleList(
    (0): Linear(in_features=1000, out_features=34, bias=True)
    (1): Linear(in_features=1000, out_features=20, bias=True)
    (2): Linear(in_features=1000, out_features=20, bias=True)
    (3): Linear(in_features=1000, out_features=20, bias=True)
    (4): Linear(in_features=1000, out_features=20, bias=True)
    (5): Linear(in_features=1000, out_features=20, bias=True)
    (6): Linear(in_features=1000, out_features=20, bias=True)
    (7): Linear(in_features=1000, out_features=20, bias=True)
    (8): Linear(in_features=1000, out_features=20, bias=True)
    (9): Linear(in_features=1000, out_features=20, bias=True)
    (10): Linear(in_features=1000, out_features=20, bias=True)
    (11): Linear(in_features=1000, out_features=20, bias=True)
    (12): Linear(in_features=1000, out_features=20, bias=True)
    (13): Linear(in_features=1000, out_features=20, bias=True)
    (14): Linear(in_features=1000, out_features=20, bias=True)
    (15): Linear(in_features=1000, out_features=20, bias=True)
    (16): Linear(in_features=1000, out_features=20, bias=True)
    (17): Linear(in_features=1000, out_features=20, bias=True)
    (18): Linear(in_features=1000, out_features=20, bias=True)
    (19): Linear(in_features=1000, out_features=20, bias=True)
    (20): Linear(in_features=1000, out_features=20, bias=True)
    (21): Linear(in_features=1000, out_features=20, bias=True)
    (22): Linear(in_features=1000, out_features=20, bias=True)
    (23): Linear(in_features=1000, out_features=20, bias=True)
    (24): Linear(in_features=1000, out_features=20, bias=True)
    (25): Linear(in_features=1000, out_features=20, bias=True)
    (26): Linear(in_features=1000, out_features=20, bias=True)
    (27): Linear(in_features=1000, out_features=20, bias=True)
    (28): Linear(in_features=1000, out_features=20, bias=True)
    (29): Linear(in_features=1000, out_features=20, bias=True)
  )
)
======

************************************************************************************************************
Task 30
************************************************************************************************************
| Epoch   1, time= 19.9s | Train: skip eval | Valid: time=  0.3s loss=103.512, TAw acc= 37.2% | *
| Epoch   2, time= 19.7s | Train: skip eval | Valid: time=  0.3s loss=96.844, TAw acc= 57.7% | *
…
