…
| Selected 1445 train exemplars, time=  0.0s
1445
------------------------------------------------------------------------------------------------------------
>>> Test on task  0 : loss=0.932 | TAw acc= 91.0%, forg= -3.5%| TAg acc= 88.9%, forg= -6.9% <<<
>>> Test on task  1 : loss=0.828 | TAw acc= 99.2%, forg= -0.8%| TAg acc= 86.7%, forg=  2.5% <<<
>>> Test on task  2 : loss=0.986 | TAw acc= 99.2%, forg=-14.2%| TAg acc= 96.7%, forg=-23.3% <<<
>>> Test on task  3 : loss=1.256 | TAw acc= 87.5%, forg=  0.0%| TAg acc= 73.3%, forg=  0.0% <<<
Save at k=100/eeil_e5_dsads_3/har_flex_eeil
======
LLL_Net(
  (model): SimpleMLP(
    (fc1): Linear(in_features=405, out_features=66, bias=True)
    (fc2): Sequential()
  )
  (heads): ModuleList(
    (0): Linear(in_features=66, out_features=12, bias=True)
    (1): Linear(in_features=66, out_features=10, bias=True)
    (2): Linear(in_features=66, out_features=10, bias=True)
    (3): Linear(in_features=66, out_features=10, bias=True)
  )
)
======

************************************************************************************************************
Task  4
************************************************************************************************************
| Epoch   1, time=  0.4s | Train: skip eval | Valid: time=  0.2s loss=4.247, TAw acc= 21.9% | *
| Epoch   2, time=  0.5s | Train: skip eval | Valid: time=  0.2s loss=3.215, TAw acc= 42.7% | *
…
------------------------------------------------------------------------------------------------------------
>>> Test on task  0 : loss=0.913 | TAw acc= 91.7%, forg= -0.7%| TAg acc= 83.3%, forg=  5.6% <<<
>>> Test on task  1 : loss=0.746 | TAw acc= 99.2%, forg=  0.0%| TAg acc= 93.3%, forg= -4.2% <<<
>>> Test on task  2 : loss=0.631 | TAw acc=100.0%, forg= -0.8%| TAg acc= 98.3%, forg= -1.7% <<<
>>> Test on task  3 : loss=1.044 | TAw acc= 96.7%, forg= -9.2%| TAg acc= 87.5%, forg=-14.2% <<<
>>> Test on task  4 : loss=1.049 | TAw acc= 95.8%, forg=  0.0%| TAg acc= 84.2%, forg=  0.0% <<<
Save at k=100/eeil_e5_dsads_3/har_flex_eeil
======
LLL_Net(
  (model): SimpleMLP(
    (fc1): Linear(in_features=405, out_features=66, bias=True)
    (fc2): Sequential()
  )
  (heads): ModuleList(
    (0): Linear(in_features=66, out_features=12, bias=True)
    (1): Linear(in_features=66, out_features=10, bias=True)
    (2): Linear(in_features=66, out_features=10, bias=True)
    (3): Linear(in_features=66, out_features=10, bias=True)
    (4): Linear(in_features=66, out_features=10, bias=True)
  )
)
======

************************************************************************************************************
Task  5
************************************************************************************************************
| Epoch   1, time=  0.5s | Train: skip eval | Valid: time=  0.2s loss=4.040, TAw acc= 50.0% | *
| Epoch   2, time=  0.5s | Train: skip eval | Valid: time=  0.2s loss=2.850, TAw acc= 63.5% | *
…
>>> Test on task  0 : loss=0.831 | TAw acc= 93.1%, forg= -1.4%| TAg acc= 88.9%, forg=  0.0% <<<
>>> Test on task  1 : loss=0.691 | TAw acc= 99.2%, forg=  0.0%| TAg acc= 90.0%, forg=  3.3% <<<
>>> Test on task  2 : loss=0.525 | TAw acc=100.0%, forg=  0.0%| TAg acc= 96.7%, forg=  1.7% <<<
>>> Test on task  3 : loss=1.001 | TAw acc= 97.5%, forg= -0.8%| TAg acc= 80.8%, forg=  6.7% <<<
>>> Test on task  4 : loss=0.882 | TAw acc= 96.7%, forg= -0.8%| TAg acc= 87.5%, forg= -3.3% <<<
>>> Test on task  5 : loss=1.066 | TAw acc= 95.8%, forg=  0.0%| TAg acc= 80.0%, forg=  0.0% <<<
Save at k=100/eeil_e5_dsads_3/har_flex_eeil
======
LLL_Net(
  (model): SimpleMLP(
    (fc1): Linear(in_features=405, out_features=66, bias=True)
    (fc2): Sequential()
  )
  (heads): ModuleList(
    (0): Linear(in_features=66, out_features=12, bias=True)
    (1): Linear(in_features=66, out_features=10, bias=True)
    (2): Linear(in_features=66, out_features=10, bias=True)
    (3): Linear(in_features=66, out_features=10, bias=True)
    (4): Linear(in_features=66, out_features=10, bias=True)
    (5): Linear(in_features=66, out_features=10, bias=True)
  )
)
======

************************************************************************************************************
Task  6
************************************************************************************************************
| Epoch   1, time=  0.7s | Train: skip eval | Valid: time=  0.2s loss=3.820, TAw acc= 30.2% | *
| Epoch   2, time=  0.7s | Train: skip eval | Valid: time=  0.2s loss=2.781, TAw acc= 53.1% | *
…
>>> Test on task  1 : loss=0.467 | TAw acc= 99.2%, forg=  0.0%| TAg acc= 96.7%, forg= -3.3% <<<
>>> Test on task  2 : loss=0.527 | TAw acc=100.0%, forg=  0.0%| TAg acc= 96.7%, forg=  1.7% <<<
>>> Test on task  3 : loss=0.819 | TAw acc= 98.3%, forg= -0.8%| TAg acc= 77.5%, forg= 10.0% <<<
>>> Test on task  4 : loss=0.749 | TAw acc= 96.7%, forg=  0.0%| TAg acc= 90.0%, forg= -2.5% <<<
>>> Test on task  5 : loss=0.941 | TAw acc= 96.7%, forg= -0.8%| TAg acc= 87.5%, forg= -7.5% <<<
>>> Test on task  6 : loss=0.898 | TAw acc= 94.2%, forg=  0.0%| TAg acc= 83.3%, forg=  0.0% <<<
Save at k=100/eeil_e5_dsads_3/har_flex_eeil
======
LLL_Net(
  (model): SimpleMLP(
    (fc1): Linear(in_features=405, out_features=66, bias=True)
    (fc2): Sequential()
  )
  (heads): ModuleList(
    (0): Linear(in_features=66, out_features=12, bias=True)
    (1): Linear(in_features=66, out_features=10, bias=True)
    (2): Linear(in_features=66, out_features=10, bias=True)
    (3): Linear(in_features=66, out_features=10, bias=True)
    (4): Linear(in_features=66, out_features=10, bias=True)
    (5): Linear(in_features=66, out_features=10, bias=True)
    (6): Linear(in_features=66, out_features=10, bias=True)
  )
)
======

************************************************************************************************************
Task  7
************************************************************************************************************
| Epoch   1, time=  0.8s | Train: skip eval | Valid: time=  0.2s loss=3.867, TAw acc= 34.4% | *
| Epoch   2, time=  0.8s | Train: skip eval | Valid: time=  0.2s loss=3.020, TAw acc= 58.3% | *
…
>>> Test on task  2 : loss=0.499 | TAw acc=100.0%, forg=  0.0%| TAg acc= 87.5%, forg= 10.8% <<<
>>> Test on task  3 : loss=0.713 | TAw acc= 98.3%, forg=  0.0%| TAg acc= 80.8%, forg=  6.7% <<<
>>> Test on task  4 : loss=0.633 | TAw acc= 96.7%, forg=  0.0%| TAg acc= 86.7%, forg=  3.3% <<<
>>> Test on task  5 : loss=0.859 | TAw acc= 98.3%, forg= -1.7%| TAg acc= 86.7%, forg=  0.8% <<<
>>> Test on task  6 : loss=0.716 | TAw acc= 97.5%, forg= -3.3%| TAg acc= 91.7%, forg= -8.3% <<<
>>> Test on task  7 : loss=1.277 | TAw acc= 94.2%, forg=  0.0%| TAg acc= 60.0%, forg=  0.0% <<<
Save at k=100/eeil_e5_dsads_3/har_flex_eeil
======
LLL_Net(
  (model): SimpleMLP(
    (fc1): Linear(in_features=405, out_features=66, bias=True)
    (fc2): Sequential()
  )
  (heads): ModuleList(
    (0): Linear(in_features=66, out_features=12, bias=True)
    (1): Linear(in_features=66, out_features=10, bias=True)
    (2): Linear(in_features=66, out_features=10, bias=True)
    (3): Linear(in_features=66, out_features=10, bias=True)
    (4): Linear(in_features=66, out_features=10, bias=True)
    (5): Linear(in_features=66, out_features=10, bias=True)
    (6): Linear(in_features=66, out_features=10, bias=True)
    (7): Linear(in_features=66, out_features=10, bias=True)
  )
)
======

************************************************************************************************************
Task  8
************************************************************************************************************
| Epoch   1, time=  0.9s | Train: skip eval | Valid: time=  0.2s loss=4.460, TAw acc= 37.5% | *
| Epoch   2, time=  1.0s | Train: skip eval | Valid: time=  0.2s loss=2.817, TAw acc= 59.4% | *
…
>>> Test on task  3 : loss=0.603 | TAw acc= 99.2%, forg= -0.8%| TAg acc= 90.0%, forg= -2.5% <<<
>>> Test on task  4 : loss=0.635 | TAw acc= 98.3%, forg= -1.7%| TAg acc= 85.0%, forg=  5.0% <<<
>>> Test on task  5 : loss=0.738 | TAw acc= 99.2%, forg= -0.8%| TAg acc= 89.2%, forg= -1.7% <<<
>>> Test on task  6 : loss=0.600 | TAw acc= 96.7%, forg=  0.8%| TAg acc= 91.7%, forg=  0.0% <<<
>>> Test on task  7 : loss=1.271 | TAw acc= 95.8%, forg= -1.7%| TAg acc= 60.0%, forg=  0.0% <<<
>>> Test on task  8 : loss=1.137 | TAw acc= 98.3%, forg=  0.0%| TAg acc= 67.5%, forg=  0.0% <<<
Save at k=100/eeil_e5_dsads_3/har_flex_eeil
======
LLL_Net(
  (model): SimpleMLP(
    (fc1): Linear(in_features=405, out_features=66, bias=True)
    (fc2): Sequential()
  )
  (heads): ModuleList(
    (0): Linear(in_features=66, out_features=12, bias=True)
    (1): Linear(in_features=66, out_features=10, bias=True)
    (2): Linear(in_features=66, out_features=10, bias=True)
    (3): Linear(in_features=66, out_features=10, bias=True)
    (4): Linear(in_features=66, out_features=10, bias=True)
    (5): Linear(in_features=66, out_features=10, bias=True)
    (6): Linear(in_features=66, out_features=10, bias=True)
    (7): Linear(in_features=66, out_features=10, bias=True)
    (8): Linear(in_features=66, out_features=10, bias=True)
  )
)
======

************************************************************************************************************
Task  9
************************************************************************************************************
| Epoch   1, time=  1.1s | Train: skip eval | Valid: time=  0.2s loss=3.477, TAw acc= 53.1% | *
| Epoch   2, time=  1.1s | Train: skip eval | Valid: time=  0.2s loss=2.682, TAw acc= 64.6% | *
…
>>> Test on task  4 : loss=0.587 | TAw acc= 97.5%, forg=  0.8%| TAg acc= 89.2%, forg=  0.8% <<<
>>> Test on task  5 : loss=0.692 | TAw acc= 99.2%, forg=  0.0%| TAg acc= 89.2%, forg=  0.0% <<<
>>> Test on task  6 : loss=0.614 | TAw acc= 95.0%, forg=  2.5%| TAg acc= 86.7%, forg=  5.0% <<<
>>> Test on task  7 : loss=1.135 | TAw acc= 95.8%, forg=  0.0%| TAg acc= 69.2%, forg= -9.2% <<<
>>> Test on task  8 : loss=1.064 | TAw acc= 98.3%, forg=  0.0%| TAg acc= 66.7%, forg=  0.8% <<<
>>> Test on task  9 : loss=1.024 | TAw acc= 96.7%, forg=  0.0%| TAg acc= 69.2%, forg=  0.0% <<<
Save at k=100/eeil_e5_dsads_3/har_flex_eeil
======
LLL_Net(
  (model): SimpleMLP(
    (fc1): Linear(in_features=405, out_features=66, bias=True)
    (fc2): Sequential()
  )
  (heads): ModuleList(
    (0): Linear(in_features=66, out_features=12, bias=True)
    (1): Linear(in_features=66, out_features=10, bias=True)
    (2): Linear(in_features=66, out_features=10, bias=True)
    (3): Linear(in_features=66, out_features=10, bias=True)
    (4): Linear(in_features=66, out_features=10, bias=True)
    (5): Linear(in_features=66, out_features=10, bias=True)
    (6): Linear(in_features=66, out_features=10, bias=True)
    (7): Linear(in_features=66, out_features=10, bias=True)
    (8): Linear(in_features=66, out_features=10, bias=True)
    (9): Linear(in_features=66, out_features=10, bias=True)
  )
)
======

************************************************************************************************************
Task 10
************************************************************************************************************
| Epoch   1, time=  1.2s | Train: skip eval | Valid: time=  0.2s loss=4.193, TAw acc= 49.0% | *
| Epoch   2, time=  1.3s | Train: skip eval | Valid: time=  0.2s loss=3.177, TAw acc= 63.5% | *
…
>>> Test on task  5 : loss=0.653 | TAw acc= 99.2%, forg=  0.0%| TAg acc= 86.7%, forg=  2.5% <<<
>>> Test on task  6 : loss=0.662 | TAw acc= 97.5%, forg=  0.0%| TAg acc= 84.2%, forg=  7.5% <<<
>>> Test on task  7 : loss=1.092 | TAw acc= 96.7%, forg= -0.8%| TAg acc= 76.7%, forg= -7.5% <<<
>>> Test on task  8 : loss=0.923 | TAw acc= 99.2%, forg= -0.8%| TAg acc= 78.3%, forg=-10.8% <<<
>>> Test on task  9 : loss=0.984 | TAw acc= 97.5%, forg= -0.8%| TAg acc= 70.0%, forg= -0.8% <<<
>>> Test on task 10 : loss=1.373 | TAw acc= 83.3%, forg=  0.0%| TAg acc= 55.0%, forg=  0.0% <<<
Save at k=100/eeil_e5_dsads_3/har_flex_eeil
======
LLL_Net(
  (model): SimpleMLP(
    (fc1): Linear(in_features=405, out_features=66, bias=True)
    (fc2): Sequential()
  )
  (heads): ModuleList(
    (0): Linear(in_features=66, out_features=12, bias=True)
    (1): Linear(in_features=66, out_features=10, bias=True)
    (2): Linear(in_features=66, out_features=10, bias=True)
    (3): Linear(in_features=66, out_features=10, bias=True)
    (4): Linear(in_features=66, out_features=10, bias=True)
    (5): Linear(in_features=66, out_features=10, bias=True)
    (6): Linear(in_features=66, out_features=10, bias=True)
    (7): Linear(in_features=66, out_features=10, bias=True)
    (8): Linear(in_features=66, out_features=10, bias=True)
    (9): Linear(in_features=66, out_features=10, bias=True)
    (10): Linear(in_features=66, out_features=10, bias=True)
  )
)
======

************************************************************************************************************
Task 11
************************************************************************************************************
| Epoch   1, time=  1.4s | Train: skip eval | Valid: time=  0.2s loss=4.263, TAw acc= 38.5% | *
| Epoch   2, time=  1.4s | Train: skip eval | Valid: time=  0.2s loss=2.228, TAw acc= 67.7% | *
…
>>> Test on task  6 : loss=0.764 | TAw acc= 97.5%, forg=  0.0%| TAg acc= 80.0%, forg= 11.7% <<<
>>> Test on task  7 : loss=1.131 | TAw acc= 96.7%, forg=  0.0%| TAg acc= 67.5%, forg=  9.2% <<<
>>> Test on task  8 : loss=0.884 | TAw acc= 99.2%, forg=  0.0%| TAg acc= 75.8%, forg=  2.5% <<<
>>> Test on task  9 : loss=1.030 | TAw acc= 97.5%, forg=  0.0%| TAg acc= 73.3%, forg= -3.3% <<<
>>> Test on task 10 : loss=1.375 | TAw acc= 82.5%, forg=  0.8%| TAg acc= 53.3%, forg=  1.7% <<<
>>> Test on task 11 : loss=0.823 | TAw acc= 96.7%, forg=  0.0%| TAg acc= 79.2%, forg=  0.0% <<<
Save at k=100/eeil_e5_dsads_3/har_flex_eeil
======
LLL_Net(
  (model): SimpleMLP(
    (fc1): Linear(in_features=405, out_features=66, bias=True)
    (fc2): Sequential()
  )
  (heads): ModuleList(
    (0): Linear(in_features=66, out_features=12, bias=True)
    (1): Linear(in_features=66, out_features=10, bias=True)
    (2): Linear(in_features=66, out_features=10, bias=True)
    (3): Linear(in_features=66, out_features=10, bias=True)
    (4): Linear(in_features=66, out_features=10, bias=True)
    (5): Linear(in_features=66, out_features=10, bias=True)
    (6): Linear(in_features=66, out_features=10, bias=True)
    (7): Linear(in_features=66, out_features=10, bias=True)
    (8): Linear(in_features=66, out_features=10, bias=True)
    (9): Linear(in_features=66, out_features=10, bias=True)
    (10): Linear(in_features=66, out_features=10, bias=True)
    (11): Linear(in_features=66, out_features=10, bias=True)
  )
)
======

************************************************************************************************************
Task 12
************************************************************************************************************
| Epoch   1, time=  1.6s | Train: skip eval | Valid: time=  0.2s loss=4.397, TAw acc= 49.0% | *
| Epoch   2, time=  1.6s | Train: skip eval | Valid: time=  0.2s loss=2.921, TAw acc= 71.9% | *
…
>>> Test on task  7 : loss=1.129 | TAw acc= 96.7%, forg=  0.0%| TAg acc= 69.2%, forg=  7.5% <<<
>>> Test on task  8 : loss=0.768 | TAw acc= 99.2%, forg=  0.0%| TAg acc= 80.8%, forg= -2.5% <<<
>>> Test on task  9 : loss=0.889 | TAw acc= 97.5%, forg=  0.0%| TAg acc= 75.8%, forg= -2.5% <<<
>>> Test on task 10 : loss=1.292 | TAw acc= 87.5%, forg= -4.2%| TAg acc= 62.5%, forg= -7.5% <<<
>>> Test on task 11 : loss=0.675 | TAw acc= 99.2%, forg= -2.5%| TAg acc= 85.8%, forg= -6.7% <<<
>>> Test on task 12 : loss=1.049 | TAw acc= 93.3%, forg=  0.0%| TAg acc= 70.0%, forg=  0.0% <<<
Save at k=100/eeil_e5_dsads_3/har_flex_eeil
======
LLL_Net(
  (model): SimpleMLP(
    (fc1): Linear(in_features=405, out_features=66, bias=True)
    (fc2): Sequential()
  )
  (heads): ModuleList(
    (0): Linear(in_features=66, out_features=12, bias=True)
    (1): Linear(in_features=66, out_features=10, bias=True)
    (2): Linear(in_features=66, out_features=10, bias=True)
    (3): Linear(in_features=66, out_features=10, bias=True)
    (4): Linear(in_features=66, out_features=10, bias=True)
    (5): Linear(in_features=66, out_features=10, bias=True)
    (6): Linear(in_features=66, out_features=10, bias=True)
    (7): Linear(in_features=66, out_features=10, bias=True)
    (8): Linear(in_features=66, out_features=10, bias=True)
    (9): Linear(in_features=66, out_features=10, bias=True)
    (10): Linear(in_features=66, out_features=10, bias=True)
    (11): Linear(in_features=66, out_features=10, bias=True)
    (12): Linear(in_features=66, out_features=10, bias=True)
  )
)
======

************************************************************************************************************
Task 13
************************************************************************************************************
| Epoch   1, time=  1.8s | Train: skip eval | Valid: time=  0.2s loss=3.876, TAw acc= 44.8% | *
| Epoch   2, time=  1.7s | Train: skip eval | Valid: time=  0.2s loss=2.613, TAw acc= 61.5% | *
…
>>> Test on task  8 : loss=0.742 | TAw acc= 99.2%, forg=  0.0%| TAg acc= 82.5%, forg= -1.7% <<<
>>> Test on task  9 : loss=0.886 | TAw acc= 97.5%, forg=  0.0%| TAg acc= 70.0%, forg=  5.8% <<<
>>> Test on task 10 : loss=1.245 | TAw acc= 86.7%, forg=  0.8%| TAg acc= 62.5%, forg=  0.0% <<<
>>> Test on task 11 : loss=0.625 | TAw acc=100.0%, forg= -0.8%| TAg acc= 89.2%, forg= -3.3% <<<
>>> Test on task 12 : loss=0.952 | TAw acc= 94.2%, forg= -0.8%| TAg acc= 76.7%, forg= -6.7% <<<
>>> Test on task 13 : loss=1.203 | TAw acc= 92.5%, forg=  0.0%| TAg acc= 68.3%, forg=  0.0% <<<
Save at k=100/eeil_e5_dsads_3/har_flex_eeil
======
LLL_Net(
  (model): SimpleMLP(
    (fc1): Linear(in_features=405, out_features=66, bias=True)
    (fc2): Sequential()
  )
  (heads): ModuleList(
    (0): Linear(in_features=66, out_features=12, bias=True)
    (1): Linear(in_features=66, out_features=10, bias=True)
    (2): Linear(in_features=66, out_features=10, bias=True)
    (3): Linear(in_features=66, out_features=10, bias=True)
    (4): Linear(in_features=66, out_features=10, bias=True)
    (5): Linear(in_features=66, out_features=10, bias=True)
    (6): Linear(in_features=66, out_features=10, bias=True)
    (7): Linear(in_features=66, out_features=10, bias=True)
    (8): Linear(in_features=66, out_features=10, bias=True)
    (9): Linear(in_features=66, out_features=10, bias=True)
    (10): Linear(in_features=66, out_features=10, bias=True)
    (11): Linear(in_features=66, out_features=10, bias=True)
    (12): Linear(in_features=66, out_features=10, bias=True)
    (13): Linear(in_features=66, out_features=10, bias=True)
  )
)
======

************************************************************************************************************
Task 14
************************************************************************************************************
| Epoch   1, time=  2.0s | Train: skip eval | Valid: time=  0.2s loss=4.065, TAw acc= 35.4% | *
| Epoch   2, time=  2.0s | Train: skip eval | Valid: time=  0.2s loss=2.566, TAw acc= 72.9% | *
…
