…
| Selected 1443 train exemplars, time=  0.0s
1443
------------------------------------------------------------------------------------------------------------
>>> Test on task  0 : loss=0.803 | TAw acc= 95.8%, forg= -3.5%| TAg acc= 94.4%, forg= -9.7% <<<
>>> Test on task  1 : loss=1.082 | TAw acc= 91.7%, forg= -3.3%| TAg acc= 80.0%, forg=-10.8% <<<
>>> Test on task  2 : loss=1.530 | TAw acc= 83.3%, forg=-11.7%| TAg acc= 65.8%, forg= -2.5% <<<
>>> Test on task  3 : loss=1.252 | TAw acc= 96.7%, forg=  0.0%| TAg acc= 85.8%, forg=  0.0% <<<
Save at k=100/eeil_e5_dsads_4/har_flex_eeil
======
LLL_Net(
  (model): SimpleMLP(
    (fc1): Linear(in_features=405, out_features=66, bias=True)
    (fc2): Sequential()
  )
  (heads): ModuleList(
    (0): Linear(in_features=66, out_features=12, bias=True)
    (1): Linear(in_features=66, out_features=10, bias=True)
    (2): Linear(in_features=66, out_features=10, bias=True)
    (3): Linear(in_features=66, out_features=10, bias=True)
  )
)
======

************************************************************************************************************
Task  4
************************************************************************************************************
| Epoch   1, time=  0.4s | Train: skip eval | Valid: time=  0.2s loss=3.955, TAw acc= 46.9% | *
| Epoch   2, time=  0.5s | Train: skip eval | Valid: time=  0.2s loss=2.964, TAw acc= 51.0% | *
…
------------------------------------------------------------------------------------------------------------
>>> Test on task  0 : loss=0.646 | TAw acc= 97.2%, forg= -1.4%| TAg acc= 93.8%, forg=  0.7% <<<
>>> Test on task  1 : loss=0.958 | TAw acc= 98.3%, forg= -6.7%| TAg acc= 84.2%, forg= -4.2% <<<
>>> Test on task  2 : loss=1.294 | TAw acc= 83.3%, forg=  0.0%| TAg acc= 72.5%, forg= -6.7% <<<
>>> Test on task  3 : loss=0.960 | TAw acc= 98.3%, forg= -1.7%| TAg acc= 81.7%, forg=  4.2% <<<
>>> Test on task  4 : loss=1.337 | TAw acc= 90.0%, forg=  0.0%| TAg acc= 74.2%, forg=  0.0% <<<
Save at k=100/eeil_e5_dsads_4/har_flex_eeil
======
LLL_Net(
  (model): SimpleMLP(
    (fc1): Linear(in_features=405, out_features=66, bias=True)
    (fc2): Sequential()
  )
  (heads): ModuleList(
    (0): Linear(in_features=66, out_features=12, bias=True)
    (1): Linear(in_features=66, out_features=10, bias=True)
    (2): Linear(in_features=66, out_features=10, bias=True)
    (3): Linear(in_features=66, out_features=10, bias=True)
    (4): Linear(in_features=66, out_features=10, bias=True)
  )
)
======

************************************************************************************************************
Task  5
************************************************************************************************************
| Epoch   1, time=  0.5s | Train: skip eval | Valid: time=  0.2s loss=3.979, TAw acc= 42.7% | *
| Epoch   2, time=  0.5s | Train: skip eval | Valid: time=  0.2s loss=2.621, TAw acc= 56.2% | *
…
>>> Test on task  0 : loss=0.634 | TAw acc= 97.9%, forg= -0.7%| TAg acc= 93.1%, forg=  1.4% <<<
>>> Test on task  1 : loss=0.787 | TAw acc= 97.5%, forg=  0.8%| TAg acc= 87.5%, forg= -3.3% <<<
>>> Test on task  2 : loss=1.160 | TAw acc= 85.8%, forg= -2.5%| TAg acc= 72.5%, forg=  0.0% <<<
>>> Test on task  3 : loss=0.712 | TAw acc= 98.3%, forg=  0.0%| TAg acc= 86.7%, forg= -0.8% <<<
>>> Test on task  4 : loss=1.114 | TAw acc= 91.7%, forg= -1.7%| TAg acc= 75.8%, forg= -1.7% <<<
>>> Test on task  5 : loss=1.060 | TAw acc= 90.0%, forg=  0.0%| TAg acc= 72.5%, forg=  0.0% <<<
Save at k=100/eeil_e5_dsads_4/har_flex_eeil
======
LLL_Net(
  (model): SimpleMLP(
    (fc1): Linear(in_features=405, out_features=66, bias=True)
    (fc2): Sequential()
  )
  (heads): ModuleList(
    (0): Linear(in_features=66, out_features=12, bias=True)
    (1): Linear(in_features=66, out_features=10, bias=True)
    (2): Linear(in_features=66, out_features=10, bias=True)
    (3): Linear(in_features=66, out_features=10, bias=True)
    (4): Linear(in_features=66, out_features=10, bias=True)
    (5): Linear(in_features=66, out_features=10, bias=True)
  )
)
======

************************************************************************************************************
Task  6
************************************************************************************************************
| Epoch   1, time=  0.7s | Train: skip eval | Valid: time=  0.2s loss=4.090, TAw acc= 37.5% | *
| Epoch   2, time=  0.7s | Train: skip eval | Valid: time=  0.2s loss=2.775, TAw acc= 79.2% | *
…
>>> Test on task  1 : loss=0.698 | TAw acc= 99.2%, forg= -0.8%| TAg acc= 87.5%, forg=  0.0% <<<
>>> Test on task  2 : loss=1.077 | TAw acc= 85.8%, forg=  0.0%| TAg acc= 74.2%, forg= -1.7% <<<
>>> Test on task  3 : loss=0.574 | TAw acc= 98.3%, forg=  0.0%| TAg acc= 90.0%, forg= -3.3% <<<
>>> Test on task  4 : loss=0.931 | TAw acc= 91.7%, forg=  0.0%| TAg acc= 80.8%, forg= -5.0% <<<
>>> Test on task  5 : loss=1.059 | TAw acc= 91.7%, forg= -1.7%| TAg acc= 67.5%, forg=  5.0% <<<
>>> Test on task  6 : loss=1.036 | TAw acc= 95.0%, forg=  0.0%| TAg acc= 85.8%, forg=  0.0% <<<
Save at k=100/eeil_e5_dsads_4/har_flex_eeil
======
LLL_Net(
  (model): SimpleMLP(
    (fc1): Linear(in_features=405, out_features=66, bias=True)
    (fc2): Sequential()
  )
  (heads): ModuleList(
    (0): Linear(in_features=66, out_features=12, bias=True)
    (1): Linear(in_features=66, out_features=10, bias=True)
    (2): Linear(in_features=66, out_features=10, bias=True)
    (3): Linear(in_features=66, out_features=10, bias=True)
    (4): Linear(in_features=66, out_features=10, bias=True)
    (5): Linear(in_features=66, out_features=10, bias=True)
    (6): Linear(in_features=66, out_features=10, bias=True)
  )
)
======

************************************************************************************************************
Task  7
************************************************************************************************************
| Epoch   1, time=  0.8s | Train: skip eval | Valid: time=  0.2s loss=3.813, TAw acc= 30.2% | *
| Epoch   2, time=  0.9s | Train: skip eval | Valid: time=  0.2s loss=2.592, TAw acc= 40.6% | *
…
>>> Test on task  2 : loss=0.975 | TAw acc= 86.7%, forg= -0.8%| TAg acc= 76.7%, forg= -2.5% <<<
>>> Test on task  3 : loss=0.486 | TAw acc= 99.2%, forg= -0.8%| TAg acc= 90.0%, forg=  0.0% <<<
>>> Test on task  4 : loss=0.793 | TAw acc= 95.8%, forg= -4.2%| TAg acc= 88.3%, forg= -7.5% <<<
>>> Test on task  5 : loss=0.890 | TAw acc= 95.0%, forg= -3.3%| TAg acc= 80.0%, forg= -7.5% <<<
>>> Test on task  6 : loss=0.920 | TAw acc= 95.0%, forg=  0.0%| TAg acc= 81.7%, forg=  4.2% <<<
>>> Test on task  7 : loss=0.899 | TAw acc= 98.3%, forg=  0.0%| TAg acc= 81.7%, forg=  0.0% <<<
Save at k=100/eeil_e5_dsads_4/har_flex_eeil
======
LLL_Net(
  (model): SimpleMLP(
    (fc1): Linear(in_features=405, out_features=66, bias=True)
    (fc2): Sequential()
  )
  (heads): ModuleList(
    (0): Linear(in_features=66, out_features=12, bias=True)
    (1): Linear(in_features=66, out_features=10, bias=True)
    (2): Linear(in_features=66, out_features=10, bias=True)
    (3): Linear(in_features=66, out_features=10, bias=True)
    (4): Linear(in_features=66, out_features=10, bias=True)
    (5): Linear(in_features=66, out_features=10, bias=True)
    (6): Linear(in_features=66, out_features=10, bias=True)
    (7): Linear(in_features=66, out_features=10, bias=True)
  )
)
======

************************************************************************************************************
Task  8
************************************************************************************************************
| Epoch   1, time=  0.9s | Train: skip eval | Valid: time=  0.2s loss=4.392, TAw acc= 39.6% | *
| Epoch   2, time=  0.9s | Train: skip eval | Valid: time=  0.2s loss=2.891, TAw acc= 58.3% | *
…
>>> Test on task  3 : loss=0.428 | TAw acc= 97.5%, forg=  1.7%| TAg acc= 90.8%, forg= -0.8% <<<
>>> Test on task  4 : loss=0.681 | TAw acc= 93.3%, forg=  2.5%| TAg acc= 87.5%, forg=  0.8% <<<
>>> Test on task  5 : loss=0.791 | TAw acc= 95.8%, forg= -0.8%| TAg acc= 78.3%, forg=  1.7% <<<
>>> Test on task  6 : loss=0.867 | TAw acc= 95.0%, forg=  0.0%| TAg acc= 82.5%, forg=  3.3% <<<
>>> Test on task  7 : loss=0.753 | TAw acc= 99.2%, forg= -0.8%| TAg acc= 82.5%, forg= -0.8% <<<
>>> Test on task  8 : loss=0.881 | TAw acc=100.0%, forg=  0.0%| TAg acc= 87.5%, forg=  0.0% <<<
Save at k=100/eeil_e5_dsads_4/har_flex_eeil
======
LLL_Net(
  (model): SimpleMLP(
    (fc1): Linear(in_features=405, out_features=66, bias=True)
    (fc2): Sequential()
  )
  (heads): ModuleList(
    (0): Linear(in_features=66, out_features=12, bias=True)
    (1): Linear(in_features=66, out_features=10, bias=True)
    (2): Linear(in_features=66, out_features=10, bias=True)
    (3): Linear(in_features=66, out_features=10, bias=True)
    (4): Linear(in_features=66, out_features=10, bias=True)
    (5): Linear(in_features=66, out_features=10, bias=True)
    (6): Linear(in_features=66, out_features=10, bias=True)
    (7): Linear(in_features=66, out_features=10, bias=True)
    (8): Linear(in_features=66, out_features=10, bias=True)
  )
)
======

************************************************************************************************************
Task  9
************************************************************************************************************
| Epoch   1, time=  1.0s | Train: skip eval | Valid: time=  0.2s loss=4.231, TAw acc= 47.9% | *
| Epoch   2, time=  1.1s | Train: skip eval | Valid: time=  0.2s loss=3.138, TAw acc= 50.0% | *
…
>>> Test on task  4 : loss=0.574 | TAw acc= 98.3%, forg= -2.5%| TAg acc= 95.8%, forg= -7.5% <<<
>>> Test on task  5 : loss=0.663 | TAw acc= 96.7%, forg= -0.8%| TAg acc= 85.8%, forg= -5.8% <<<
>>> Test on task  6 : loss=0.848 | TAw acc= 94.2%, forg=  0.8%| TAg acc= 81.7%, forg=  4.2% <<<
>>> Test on task  7 : loss=0.614 | TAw acc=100.0%, forg= -0.8%| TAg acc= 85.8%, forg= -3.3% <<<
>>> Test on task  8 : loss=0.833 | TAw acc=100.0%, forg=  0.0%| TAg acc= 82.5%, forg=  5.0% <<<
>>> Test on task  9 : loss=1.127 | TAw acc= 92.5%, forg=  0.0%| TAg acc= 75.8%, forg=  0.0% <<<
Save at k=100/eeil_e5_dsads_4/har_flex_eeil
======
LLL_Net(
  (model): SimpleMLP(
    (fc1): Linear(in_features=405, out_features=66, bias=True)
    (fc2): Sequential()
  )
  (heads): ModuleList(
    (0): Linear(in_features=66, out_features=12, bias=True)
    (1): Linear(in_features=66, out_features=10, bias=True)
    (2): Linear(in_features=66, out_features=10, bias=True)
    (3): Linear(in_features=66, out_features=10, bias=True)
    (4): Linear(in_features=66, out_features=10, bias=True)
    (5): Linear(in_features=66, out_features=10, bias=True)
    (6): Linear(in_features=66, out_features=10, bias=True)
    (7): Linear(in_features=66, out_features=10, bias=True)
    (8): Linear(in_features=66, out_features=10, bias=True)
    (9): Linear(in_features=66, out_features=10, bias=True)
  )
)
======

************************************************************************************************************
Task 10
************************************************************************************************************
| Epoch   1, time=  1.3s | Train: skip eval | Valid: time=  0.2s loss=4.805, TAw acc= 59.4% | *
| Epoch   2, time=  1.2s | Train: skip eval | Valid: time=  0.2s loss=2.737, TAw acc= 85.4% | *
…
>>> Test on task  5 : loss=0.645 | TAw acc= 99.2%, forg= -2.5%| TAg acc= 84.2%, forg=  1.7% <<<
>>> Test on task  6 : loss=0.740 | TAw acc= 95.0%, forg=  0.0%| TAg acc= 82.5%, forg=  3.3% <<<
>>> Test on task  7 : loss=0.556 | TAw acc= 99.2%, forg=  0.8%| TAg acc= 86.7%, forg= -0.8% <<<
>>> Test on task  8 : loss=0.765 | TAw acc=100.0%, forg=  0.0%| TAg acc= 83.3%, forg=  4.2% <<<
>>> Test on task  9 : loss=1.032 | TAw acc= 94.2%, forg= -1.7%| TAg acc= 77.5%, forg= -1.7% <<<
>>> Test on task 10 : loss=0.806 | TAw acc= 98.3%, forg=  0.0%| TAg acc= 80.8%, forg=  0.0% <<<
Save at k=100/eeil_e5_dsads_4/har_flex_eeil
======
LLL_Net(
  (model): SimpleMLP(
    (fc1): Linear(in_features=405, out_features=66, bias=True)
    (fc2): Sequential()
  )
  (heads): ModuleList(
    (0): Linear(in_features=66, out_features=12, bias=True)
    (1): Linear(in_features=66, out_features=10, bias=True)
    (2): Linear(in_features=66, out_features=10, bias=True)
    (3): Linear(in_features=66, out_features=10, bias=True)
    (4): Linear(in_features=66, out_features=10, bias=True)
    (5): Linear(in_features=66, out_features=10, bias=True)
    (6): Linear(in_features=66, out_features=10, bias=True)
    (7): Linear(in_features=66, out_features=10, bias=True)
    (8): Linear(in_features=66, out_features=10, bias=True)
    (9): Linear(in_features=66, out_features=10, bias=True)
    (10): Linear(in_features=66, out_features=10, bias=True)
  )
)
======

************************************************************************************************************
Task 11
************************************************************************************************************
| Epoch   1, time=  1.4s | Train: skip eval | Valid: time=  0.2s loss=4.865, TAw acc= 38.5% | *
| Epoch   2, time=  1.4s | Train: skip eval | Valid: time=  0.2s loss=2.853, TAw acc= 65.6% | *
…
>>> Test on task  6 : loss=0.857 | TAw acc= 95.0%, forg=  0.0%| TAg acc= 77.5%, forg=  8.3% <<<
>>> Test on task  7 : loss=0.511 | TAw acc= 99.2%, forg=  0.8%| TAg acc= 90.8%, forg= -4.2% <<<
>>> Test on task  8 : loss=0.790 | TAw acc=100.0%, forg=  0.0%| TAg acc= 80.8%, forg=  6.7% <<<
>>> Test on task  9 : loss=0.993 | TAw acc= 94.2%, forg=  0.0%| TAg acc= 73.3%, forg=  4.2% <<<
>>> Test on task 10 : loss=0.768 | TAw acc= 98.3%, forg=  0.0%| TAg acc= 80.8%, forg=  0.0% <<<
>>> Test on task 11 : loss=0.953 | TAw acc= 93.3%, forg=  0.0%| TAg acc= 76.7%, forg=  0.0% <<<
Save at k=100/eeil_e5_dsads_4/har_flex_eeil
======
LLL_Net(
  (model): SimpleMLP(
    (fc1): Linear(in_features=405, out_features=66, bias=True)
    (fc2): Sequential()
  )
  (heads): ModuleList(
    (0): Linear(in_features=66, out_features=12, bias=True)
    (1): Linear(in_features=66, out_features=10, bias=True)
    (2): Linear(in_features=66, out_features=10, bias=True)
    (3): Linear(in_features=66, out_features=10, bias=True)
    (4): Linear(in_features=66, out_features=10, bias=True)
    (5): Linear(in_features=66, out_features=10, bias=True)
    (6): Linear(in_features=66, out_features=10, bias=True)
    (7): Linear(in_features=66, out_features=10, bias=True)
    (8): Linear(in_features=66, out_features=10, bias=True)
    (9): Linear(in_features=66, out_features=10, bias=True)
    (10): Linear(in_features=66, out_features=10, bias=True)
    (11): Linear(in_features=66, out_features=10, bias=True)
  )
)
======

************************************************************************************************************
Task 12
************************************************************************************************************
| Epoch   1, time=  1.6s | Train: skip eval | Valid: time=  0.2s loss=3.844, TAw acc= 42.7% | *
| Epoch   2, time=  1.5s | Train: skip eval | Valid: time=  0.2s loss=2.249, TAw acc= 76.0% | *
…
>>> Test on task  7 : loss=0.468 | TAw acc=100.0%, forg=  0.0%| TAg acc= 88.3%, forg=  2.5% <<<
>>> Test on task  8 : loss=0.681 | TAw acc=100.0%, forg=  0.0%| TAg acc= 86.7%, forg=  0.8% <<<
>>> Test on task  9 : loss=0.791 | TAw acc= 97.5%, forg= -3.3%| TAg acc= 87.5%, forg=-10.0% <<<
>>> Test on task 10 : loss=0.729 | TAw acc= 99.2%, forg= -0.8%| TAg acc= 78.3%, forg=  2.5% <<<
>>> Test on task 11 : loss=0.934 | TAw acc= 97.5%, forg= -4.2%| TAg acc= 75.0%, forg=  1.7% <<<
>>> Test on task 12 : loss=0.855 | TAw acc= 97.5%, forg=  0.0%| TAg acc= 77.5%, forg=  0.0% <<<
Save at k=100/eeil_e5_dsads_4/har_flex_eeil
======
LLL_Net(
  (model): SimpleMLP(
    (fc1): Linear(in_features=405, out_features=66, bias=True)
    (fc2): Sequential()
  )
  (heads): ModuleList(
    (0): Linear(in_features=66, out_features=12, bias=True)
    (1): Linear(in_features=66, out_features=10, bias=True)
    (2): Linear(in_features=66, out_features=10, bias=True)
    (3): Linear(in_features=66, out_features=10, bias=True)
    (4): Linear(in_features=66, out_features=10, bias=True)
    (5): Linear(in_features=66, out_features=10, bias=True)
    (6): Linear(in_features=66, out_features=10, bias=True)
    (7): Linear(in_features=66, out_features=10, bias=True)
    (8): Linear(in_features=66, out_features=10, bias=True)
    (9): Linear(in_features=66, out_features=10, bias=True)
    (10): Linear(in_features=66, out_features=10, bias=True)
    (11): Linear(in_features=66, out_features=10, bias=True)
    (12): Linear(in_features=66, out_features=10, bias=True)
  )
)
======

************************************************************************************************************
Task 13
************************************************************************************************************
| Epoch   1, time=  2.0s | Train: skip eval | Valid: time=  0.2s loss=3.959, TAw acc= 41.7% | *
| Epoch   2, time=  1.8s | Train: skip eval | Valid: time=  0.2s loss=2.728, TAw acc= 65.6% | *
…
>>> Test on task  8 : loss=0.775 | TAw acc=100.0%, forg=  0.0%| TAg acc= 83.3%, forg=  4.2% <<<
>>> Test on task  9 : loss=0.819 | TAw acc= 95.8%, forg=  1.7%| TAg acc= 82.5%, forg=  5.0% <<<
>>> Test on task 10 : loss=0.700 | TAw acc= 99.2%, forg=  0.0%| TAg acc= 84.2%, forg= -3.3% <<<
>>> Test on task 11 : loss=1.048 | TAw acc= 96.7%, forg=  0.8%| TAg acc= 70.8%, forg=  5.8% <<<
>>> Test on task 12 : loss=0.963 | TAw acc= 95.8%, forg=  1.7%| TAg acc= 70.0%, forg=  7.5% <<<
>>> Test on task 13 : loss=1.059 | TAw acc= 95.8%, forg=  0.0%| TAg acc= 70.8%, forg=  0.0% <<<
Save at k=100/eeil_e5_dsads_4/har_flex_eeil
======
LLL_Net(
  (model): SimpleMLP(
    (fc1): Linear(in_features=405, out_features=66, bias=True)
    (fc2): Sequential()
  )
  (heads): ModuleList(
    (0): Linear(in_features=66, out_features=12, bias=True)
    (1): Linear(in_features=66, out_features=10, bias=True)
    (2): Linear(in_features=66, out_features=10, bias=True)
    (3): Linear(in_features=66, out_features=10, bias=True)
    (4): Linear(in_features=66, out_features=10, bias=True)
    (5): Linear(in_features=66, out_features=10, bias=True)
    (6): Linear(in_features=66, out_features=10, bias=True)
    (7): Linear(in_features=66, out_features=10, bias=True)
    (8): Linear(in_features=66, out_features=10, bias=True)
    (9): Linear(in_features=66, out_features=10, bias=True)
    (10): Linear(in_features=66, out_features=10, bias=True)
    (11): Linear(in_features=66, out_features=10, bias=True)
    (12): Linear(in_features=66, out_features=10, bias=True)
    (13): Linear(in_features=66, out_features=10, bias=True)
  )
)
======

************************************************************************************************************
Task 14
************************************************************************************************************
| Epoch   1, time=  2.0s | Train: skip eval | Valid: time=  0.2s loss=4.630, TAw acc= 52.1% | *
| Epoch   2, time=  1.9s | Train: skip eval | Valid: time=  0.2s loss=3.296, TAw acc= 71.9% | *
…
