…
| Selected 1434 train exemplars, time=  0.0s
1434
------------------------------------------------------------------------------------------------------------
>>> Test on task  0 : loss=0.954 | TAw acc= 94.4%, forg=  0.7%| TAg acc= 80.6%, forg=  7.6% <<<
>>> Test on task  1 : loss=0.815 | TAw acc= 99.2%, forg= -2.5%| TAg acc= 97.5%, forg= -7.5% <<<
>>> Test on task  2 : loss=1.295 | TAw acc= 89.2%, forg= -5.0%| TAg acc= 71.7%, forg= -3.3% <<<
>>> Test on task  3 : loss=1.270 | TAw acc= 93.3%, forg=  0.0%| TAg acc= 80.0%, forg=  0.0% <<<
Save at k=100/eeil_e5_dsads_5/har_flex_eeil
======
LLL_Net(
  (model): SimpleMLP(
    (fc1): Linear(in_features=405, out_features=66, bias=True)
    (fc2): Sequential()
  )
  (heads): ModuleList(
    (0): Linear(in_features=66, out_features=12, bias=True)
    (1): Linear(in_features=66, out_features=10, bias=True)
    (2): Linear(in_features=66, out_features=10, bias=True)
    (3): Linear(in_features=66, out_features=10, bias=True)
  )
)
======

************************************************************************************************************
Task  4
************************************************************************************************************
| Epoch   1, time=  0.5s | Train: skip eval | Valid: time=  0.2s loss=3.720, TAw acc= 34.4% | *
| Epoch   2, time=  0.5s | Train: skip eval | Valid: time=  0.2s loss=2.765, TAw acc= 57.3% | *
…
------------------------------------------------------------------------------------------------------------
>>> Test on task  0 : loss=0.820 | TAw acc= 94.4%, forg=  0.7%| TAg acc= 83.3%, forg=  4.9% <<<
>>> Test on task  1 : loss=0.674 | TAw acc= 97.5%, forg=  1.7%| TAg acc= 95.0%, forg=  2.5% <<<
>>> Test on task  2 : loss=1.109 | TAw acc= 94.2%, forg= -5.0%| TAg acc= 82.5%, forg=-10.8% <<<
>>> Test on task  3 : loss=0.949 | TAw acc= 87.5%, forg=  5.8%| TAg acc= 75.8%, forg=  4.2% <<<
>>> Test on task  4 : loss=1.267 | TAw acc= 92.5%, forg=  0.0%| TAg acc= 78.3%, forg=  0.0% <<<
Save at k=100/eeil_e5_dsads_5/har_flex_eeil
======
LLL_Net(
  (model): SimpleMLP(
    (fc1): Linear(in_features=405, out_features=66, bias=True)
    (fc2): Sequential()
  )
  (heads): ModuleList(
    (0): Linear(in_features=66, out_features=12, bias=True)
    (1): Linear(in_features=66, out_features=10, bias=True)
    (2): Linear(in_features=66, out_features=10, bias=True)
    (3): Linear(in_features=66, out_features=10, bias=True)
    (4): Linear(in_features=66, out_features=10, bias=True)
  )
)
======

************************************************************************************************************
Task  5
************************************************************************************************************
| Epoch   1, time=  0.6s | Train: skip eval | Valid: time=  0.2s loss=4.139, TAw acc= 37.5% | *
| Epoch   2, time=  0.5s | Train: skip eval | Valid: time=  0.2s loss=3.053, TAw acc= 67.7% | *
…
>>> Test on task  0 : loss=0.745 | TAw acc= 95.1%, forg=  0.0%| TAg acc= 82.6%, forg=  5.6% <<<
>>> Test on task  1 : loss=0.501 | TAw acc= 98.3%, forg=  0.8%| TAg acc= 95.8%, forg=  1.7% <<<
>>> Test on task  2 : loss=1.007 | TAw acc= 97.5%, forg= -3.3%| TAg acc= 75.0%, forg=  7.5% <<<
>>> Test on task  3 : loss=0.874 | TAw acc= 94.2%, forg= -0.8%| TAg acc= 82.5%, forg= -2.5% <<<
>>> Test on task  4 : loss=1.117 | TAw acc= 93.3%, forg= -0.8%| TAg acc= 82.5%, forg= -4.2% <<<
>>> Test on task  5 : loss=1.012 | TAw acc= 99.2%, forg=  0.0%| TAg acc= 77.5%, forg=  0.0% <<<
Save at k=100/eeil_e5_dsads_5/har_flex_eeil
======
LLL_Net(
  (model): SimpleMLP(
    (fc1): Linear(in_features=405, out_features=66, bias=True)
    (fc2): Sequential()
  )
  (heads): ModuleList(
    (0): Linear(in_features=66, out_features=12, bias=True)
    (1): Linear(in_features=66, out_features=10, bias=True)
    (2): Linear(in_features=66, out_features=10, bias=True)
    (3): Linear(in_features=66, out_features=10, bias=True)
    (4): Linear(in_features=66, out_features=10, bias=True)
    (5): Linear(in_features=66, out_features=10, bias=True)
  )
)
======

************************************************************************************************************
Task  6
************************************************************************************************************
| Epoch   1, time=  0.6s | Train: skip eval | Valid: time=  0.2s loss=4.016, TAw acc= 43.8% | *
| Epoch   2, time=  0.6s | Train: skip eval | Valid: time=  0.2s loss=3.075, TAw acc= 60.4% | *
…
>>> Test on task  1 : loss=0.495 | TAw acc= 98.3%, forg=  0.8%| TAg acc= 95.8%, forg=  1.7% <<<
>>> Test on task  2 : loss=0.932 | TAw acc= 96.7%, forg=  0.8%| TAg acc= 73.3%, forg=  9.2% <<<
>>> Test on task  3 : loss=0.765 | TAw acc= 90.8%, forg=  3.3%| TAg acc= 76.7%, forg=  5.8% <<<
>>> Test on task  4 : loss=0.989 | TAw acc= 95.8%, forg= -2.5%| TAg acc= 81.7%, forg=  0.8% <<<
>>> Test on task  5 : loss=0.890 | TAw acc=100.0%, forg= -0.8%| TAg acc= 83.3%, forg= -5.8% <<<
>>> Test on task  6 : loss=1.028 | TAw acc= 99.2%, forg=  0.0%| TAg acc= 80.0%, forg=  0.0% <<<
Save at k=100/eeil_e5_dsads_5/har_flex_eeil
======
LLL_Net(
  (model): SimpleMLP(
    (fc1): Linear(in_features=405, out_features=66, bias=True)
    (fc2): Sequential()
  )
  (heads): ModuleList(
    (0): Linear(in_features=66, out_features=12, bias=True)
    (1): Linear(in_features=66, out_features=10, bias=True)
    (2): Linear(in_features=66, out_features=10, bias=True)
    (3): Linear(in_features=66, out_features=10, bias=True)
    (4): Linear(in_features=66, out_features=10, bias=True)
    (5): Linear(in_features=66, out_features=10, bias=True)
    (6): Linear(in_features=66, out_features=10, bias=True)
  )
)
======

************************************************************************************************************
Task  7
************************************************************************************************************
| Epoch   1, time=  0.8s | Train: skip eval | Valid: time=  0.2s loss=4.120, TAw acc= 41.7% | *
| Epoch   2, time=  0.8s | Train: skip eval | Valid: time=  0.2s loss=2.893, TAw acc= 72.9% | *
…
>>> Test on task  2 : loss=0.854 | TAw acc= 97.5%, forg=  0.0%| TAg acc= 75.8%, forg=  6.7% <<<
>>> Test on task  3 : loss=0.735 | TAw acc= 96.7%, forg= -2.5%| TAg acc= 85.8%, forg= -3.3% <<<
>>> Test on task  4 : loss=0.789 | TAw acc= 96.7%, forg= -0.8%| TAg acc= 85.8%, forg= -3.3% <<<
>>> Test on task  5 : loss=0.777 | TAw acc= 99.2%, forg=  0.8%| TAg acc= 88.3%, forg= -5.0% <<<
>>> Test on task  6 : loss=0.768 | TAw acc= 99.2%, forg=  0.0%| TAg acc= 89.2%, forg= -9.2% <<<
>>> Test on task  7 : loss=1.005 | TAw acc= 94.2%, forg=  0.0%| TAg acc= 75.8%, forg=  0.0% <<<
Save at k=100/eeil_e5_dsads_5/har_flex_eeil
======
LLL_Net(
  (model): SimpleMLP(
    (fc1): Linear(in_features=405, out_features=66, bias=True)
    (fc2): Sequential()
  )
  (heads): ModuleList(
    (0): Linear(in_features=66, out_features=12, bias=True)
    (1): Linear(in_features=66, out_features=10, bias=True)
    (2): Linear(in_features=66, out_features=10, bias=True)
    (3): Linear(in_features=66, out_features=10, bias=True)
    (4): Linear(in_features=66, out_features=10, bias=True)
    (5): Linear(in_features=66, out_features=10, bias=True)
    (6): Linear(in_features=66, out_features=10, bias=True)
    (7): Linear(in_features=66, out_features=10, bias=True)
  )
)
======

************************************************************************************************************
Task  8
************************************************************************************************************
| Epoch   1, time=  0.9s | Train: skip eval | Valid: time=  0.2s loss=4.329, TAw acc= 41.7% | *
| Epoch   2, time=  0.9s | Train: skip eval | Valid: time=  0.2s loss=2.870, TAw acc= 56.2% | *
…
>>> Test on task  3 : loss=0.679 | TAw acc= 96.7%, forg=  0.0%| TAg acc= 86.7%, forg= -0.8% <<<
>>> Test on task  4 : loss=0.762 | TAw acc= 97.5%, forg= -0.8%| TAg acc= 88.3%, forg= -2.5% <<<
>>> Test on task  5 : loss=0.839 | TAw acc= 99.2%, forg=  0.8%| TAg acc= 75.8%, forg= 12.5% <<<
>>> Test on task  6 : loss=0.761 | TAw acc=100.0%, forg= -0.8%| TAg acc= 86.7%, forg=  2.5% <<<
>>> Test on task  7 : loss=0.901 | TAw acc= 95.0%, forg= -0.8%| TAg acc= 77.5%, forg= -1.7% <<<
>>> Test on task  8 : loss=1.188 | TAw acc= 93.3%, forg=  0.0%| TAg acc= 73.3%, forg=  0.0% <<<
Save at k=100/eeil_e5_dsads_5/har_flex_eeil
======
LLL_Net(
  (model): SimpleMLP(
    (fc1): Linear(in_features=405, out_features=66, bias=True)
    (fc2): Sequential()
  )
  (heads): ModuleList(
    (0): Linear(in_features=66, out_features=12, bias=True)
    (1): Linear(in_features=66, out_features=10, bias=True)
    (2): Linear(in_features=66, out_features=10, bias=True)
    (3): Linear(in_features=66, out_features=10, bias=True)
    (4): Linear(in_features=66, out_features=10, bias=True)
    (5): Linear(in_features=66, out_features=10, bias=True)
    (6): Linear(in_features=66, out_features=10, bias=True)
    (7): Linear(in_features=66, out_features=10, bias=True)
    (8): Linear(in_features=66, out_features=10, bias=True)
  )
)
======

************************************************************************************************************
Task  9
************************************************************************************************************
| Epoch   1, time=  1.1s | Train: skip eval | Valid: time=  0.2s loss=4.636, TAw acc= 34.4% | *
| Epoch   2, time=  1.1s | Train: skip eval | Valid: time=  0.2s loss=3.276, TAw acc= 56.2% | *
…
>>> Test on task  4 : loss=0.655 | TAw acc= 97.5%, forg=  0.0%| TAg acc= 90.8%, forg= -2.5% <<<
>>> Test on task  5 : loss=0.780 | TAw acc=100.0%, forg=  0.0%| TAg acc= 73.3%, forg= 15.0% <<<
>>> Test on task  6 : loss=0.530 | TAw acc=100.0%, forg=  0.0%| TAg acc= 94.2%, forg= -5.0% <<<
>>> Test on task  7 : loss=0.808 | TAw acc= 97.5%, forg= -2.5%| TAg acc= 85.0%, forg= -7.5% <<<
>>> Test on task  8 : loss=1.099 | TAw acc= 95.8%, forg= -2.5%| TAg acc= 74.2%, forg= -0.8% <<<
>>> Test on task  9 : loss=1.092 | TAw acc= 90.0%, forg=  0.0%| TAg acc= 64.2%, forg=  0.0% <<<
Save at k=100/eeil_e5_dsads_5/har_flex_eeil
======
LLL_Net(
  (model): SimpleMLP(
    (fc1): Linear(in_features=405, out_features=66, bias=True)
    (fc2): Sequential()
  )
  (heads): ModuleList(
    (0): Linear(in_features=66, out_features=12, bias=True)
    (1): Linear(in_features=66, out_features=10, bias=True)
    (2): Linear(in_features=66, out_features=10, bias=True)
    (3): Linear(in_features=66, out_features=10, bias=True)
    (4): Linear(in_features=66, out_features=10, bias=True)
    (5): Linear(in_features=66, out_features=10, bias=True)
    (6): Linear(in_features=66, out_features=10, bias=True)
    (7): Linear(in_features=66, out_features=10, bias=True)
    (8): Linear(in_features=66, out_features=10, bias=True)
    (9): Linear(in_features=66, out_features=10, bias=True)
  )
)
======

************************************************************************************************************
Task 10
************************************************************************************************************
| Epoch   1, time=  1.2s | Train: skip eval | Valid: time=  0.2s loss=4.168, TAw acc= 51.0% | *
| Epoch   2, time=  1.2s | Train: skip eval | Valid: time=  0.2s loss=2.777, TAw acc= 74.0% | *
…
>>> Test on task  5 : loss=0.731 | TAw acc=100.0%, forg=  0.0%| TAg acc= 75.0%, forg= 13.3% <<<
>>> Test on task  6 : loss=0.473 | TAw acc=100.0%, forg=  0.0%| TAg acc= 92.5%, forg=  1.7% <<<
>>> Test on task  7 : loss=0.792 | TAw acc= 96.7%, forg=  0.8%| TAg acc= 80.0%, forg=  5.0% <<<
>>> Test on task  8 : loss=1.081 | TAw acc= 96.7%, forg= -0.8%| TAg acc= 73.3%, forg=  0.8% <<<
>>> Test on task  9 : loss=1.036 | TAw acc= 90.8%, forg= -0.8%| TAg acc= 70.0%, forg= -5.8% <<<
>>> Test on task 10 : loss=1.176 | TAw acc= 87.5%, forg=  0.0%| TAg acc= 66.7%, forg=  0.0% <<<
Save at k=100/eeil_e5_dsads_5/har_flex_eeil
======
LLL_Net(
  (model): SimpleMLP(
    (fc1): Linear(in_features=405, out_features=66, bias=True)
    (fc2): Sequential()
  )
  (heads): ModuleList(
    (0): Linear(in_features=66, out_features=12, bias=True)
    (1): Linear(in_features=66, out_features=10, bias=True)
    (2): Linear(in_features=66, out_features=10, bias=True)
    (3): Linear(in_features=66, out_features=10, bias=True)
    (4): Linear(in_features=66, out_features=10, bias=True)
    (5): Linear(in_features=66, out_features=10, bias=True)
    (6): Linear(in_features=66, out_features=10, bias=True)
    (7): Linear(in_features=66, out_features=10, bias=True)
    (8): Linear(in_features=66, out_features=10, bias=True)
    (9): Linear(in_features=66, out_features=10, bias=True)
    (10): Linear(in_features=66, out_features=10, bias=True)
  )
)
======

************************************************************************************************************
Task 11
************************************************************************************************************
| Epoch   1, time=  1.5s | Train: skip eval | Valid: time=  0.2s loss=4.105, TAw acc= 32.3% | *
| Epoch   2, time=  1.4s | Train: skip eval | Valid: time=  0.2s loss=2.494, TAw acc= 65.6% | *
…
>>> Test on task  6 : loss=0.398 | TAw acc=100.0%, forg=  0.0%| TAg acc= 97.5%, forg= -3.3% <<<
>>> Test on task  7 : loss=0.690 | TAw acc= 97.5%, forg=  0.0%| TAg acc= 84.2%, forg=  0.8% <<<
>>> Test on task  8 : loss=0.903 | TAw acc= 97.5%, forg= -0.8%| TAg acc= 78.3%, forg= -4.2% <<<
>>> Test on task  9 : loss=1.060 | TAw acc= 93.3%, forg= -2.5%| TAg acc= 64.2%, forg=  5.8% <<<
>>> Test on task 10 : loss=1.255 | TAw acc= 91.7%, forg= -4.2%| TAg acc= 54.2%, forg= 12.5% <<<
>>> Test on task 11 : loss=0.864 | TAw acc= 99.2%, forg=  0.0%| TAg acc= 81.7%, forg=  0.0% <<<
Save at k=100/eeil_e5_dsads_5/har_flex_eeil
======
LLL_Net(
  (model): SimpleMLP(
    (fc1): Linear(in_features=405, out_features=66, bias=True)
    (fc2): Sequential()
  )
  (heads): ModuleList(
    (0): Linear(in_features=66, out_features=12, bias=True)
    (1): Linear(in_features=66, out_features=10, bias=True)
    (2): Linear(in_features=66, out_features=10, bias=True)
    (3): Linear(in_features=66, out_features=10, bias=True)
    (4): Linear(in_features=66, out_features=10, bias=True)
    (5): Linear(in_features=66, out_features=10, bias=True)
    (6): Linear(in_features=66, out_features=10, bias=True)
    (7): Linear(in_features=66, out_features=10, bias=True)
    (8): Linear(in_features=66, out_features=10, bias=True)
    (9): Linear(in_features=66, out_features=10, bias=True)
    (10): Linear(in_features=66, out_features=10, bias=True)
    (11): Linear(in_features=66, out_features=10, bias=True)
  )
)
======

************************************************************************************************************
Task 12
************************************************************************************************************
| Epoch   1, time=  1.6s | Train: skip eval | Valid: time=  0.2s loss=4.878, TAw acc= 46.9% | *
| Epoch   2, time=  1.6s | Train: skip eval | Valid: time=  0.2s loss=2.966, TAw acc= 57.3% | *
…
>>> Test on task  7 : loss=0.716 | TAw acc= 96.7%, forg=  0.8%| TAg acc= 82.5%, forg=  2.5% <<<
>>> Test on task  8 : loss=0.894 | TAw acc= 95.8%, forg=  1.7%| TAg acc= 76.7%, forg=  1.7% <<<
>>> Test on task  9 : loss=1.163 | TAw acc= 93.3%, forg=  0.0%| TAg acc= 62.5%, forg=  7.5% <<<
>>> Test on task 10 : loss=1.221 | TAw acc= 93.3%, forg= -1.7%| TAg acc= 65.8%, forg=  0.8% <<<
>>> Test on task 11 : loss=0.844 | TAw acc= 99.2%, forg=  0.0%| TAg acc= 81.7%, forg=  0.0% <<<
>>> Test on task 12 : loss=1.038 | TAw acc= 91.7%, forg=  0.0%| TAg acc= 80.0%, forg=  0.0% <<<
Save at k=100/eeil_e5_dsads_5/har_flex_eeil
======
LLL_Net(
  (model): SimpleMLP(
    (fc1): Linear(in_features=405, out_features=66, bias=True)
    (fc2): Sequential()
  )
  (heads): ModuleList(
    (0): Linear(in_features=66, out_features=12, bias=True)
    (1): Linear(in_features=66, out_features=10, bias=True)
    (2): Linear(in_features=66, out_features=10, bias=True)
    (3): Linear(in_features=66, out_features=10, bias=True)
    (4): Linear(in_features=66, out_features=10, bias=True)
    (5): Linear(in_features=66, out_features=10, bias=True)
    (6): Linear(in_features=66, out_features=10, bias=True)
    (7): Linear(in_features=66, out_features=10, bias=True)
    (8): Linear(in_features=66, out_features=10, bias=True)
    (9): Linear(in_features=66, out_features=10, bias=True)
    (10): Linear(in_features=66, out_features=10, bias=True)
    (11): Linear(in_features=66, out_features=10, bias=True)
    (12): Linear(in_features=66, out_features=10, bias=True)
  )
)
======

************************************************************************************************************
Task 13
************************************************************************************************************
| Epoch   1, time=  1.8s | Train: skip eval | Valid: time=  0.2s loss=4.631, TAw acc= 53.1% | *
| Epoch   2, time=  1.8s | Train: skip eval | Valid: time=  0.2s loss=2.180, TAw acc= 72.9% | *
…
>>> Test on task  8 : loss=0.760 | TAw acc= 97.5%, forg=  0.0%| TAg acc= 81.7%, forg= -3.3% <<<
>>> Test on task  9 : loss=1.039 | TAw acc= 94.2%, forg= -0.8%| TAg acc= 70.8%, forg= -0.8% <<<
>>> Test on task 10 : loss=1.155 | TAw acc= 93.3%, forg=  0.0%| TAg acc= 65.0%, forg=  1.7% <<<
>>> Test on task 11 : loss=0.694 | TAw acc= 99.2%, forg=  0.0%| TAg acc= 89.2%, forg= -7.5% <<<
>>> Test on task 12 : loss=1.016 | TAw acc= 94.2%, forg= -2.5%| TAg acc= 72.5%, forg=  7.5% <<<
>>> Test on task 13 : loss=0.701 | TAw acc= 99.2%, forg=  0.0%| TAg acc= 88.3%, forg=  0.0% <<<
Save at k=100/eeil_e5_dsads_5/har_flex_eeil
======
LLL_Net(
  (model): SimpleMLP(
    (fc1): Linear(in_features=405, out_features=66, bias=True)
    (fc2): Sequential()
  )
  (heads): ModuleList(
    (0): Linear(in_features=66, out_features=12, bias=True)
    (1): Linear(in_features=66, out_features=10, bias=True)
    (2): Linear(in_features=66, out_features=10, bias=True)
    (3): Linear(in_features=66, out_features=10, bias=True)
    (4): Linear(in_features=66, out_features=10, bias=True)
    (5): Linear(in_features=66, out_features=10, bias=True)
    (6): Linear(in_features=66, out_features=10, bias=True)
    (7): Linear(in_features=66, out_features=10, bias=True)
    (8): Linear(in_features=66, out_features=10, bias=True)
    (9): Linear(in_features=66, out_features=10, bias=True)
    (10): Linear(in_features=66, out_features=10, bias=True)
    (11): Linear(in_features=66, out_features=10, bias=True)
    (12): Linear(in_features=66, out_features=10, bias=True)
    (13): Linear(in_features=66, out_features=10, bias=True)
  )
)
======

************************************************************************************************************
Task 14
************************************************************************************************************
| Epoch   1, time=  2.0s | Train: skip eval | Valid: time=  0.2s loss=4.081, TAw acc= 44.8% | *
| Epoch   2, time=  2.0s | Train: skip eval | Valid: time=  0.2s loss=2.275, TAw acc= 91.7% | *
…
