…
| Selected 1439 train exemplars, time=  0.0s
1439
------------------------------------------------------------------------------------------------------------
>>> Test on task  0 : loss=1.087 | TAw acc= 86.1%, forg=  0.7%| TAg acc= 78.5%, forg=  0.7% <<<
>>> Test on task  1 : loss=1.082 | TAw acc= 95.8%, forg= -2.5%| TAg acc= 85.0%, forg=  2.5% <<<
>>> Test on task  2 : loss=0.906 | TAw acc= 97.5%, forg= -3.3%| TAg acc= 86.7%, forg= -4.2% <<<
>>> Test on task  3 : loss=1.244 | TAw acc= 93.3%, forg=  0.0%| TAg acc= 74.2%, forg=  0.0% <<<
Save at k=100/eeil_e5_dsads_2/har_flex_eeil
======
LLL_Net(
  (model): SimpleMLP(
    (fc1): Linear(in_features=405, out_features=66, bias=True)
    (fc2): Sequential()
  )
  (heads): ModuleList(
    (0): Linear(in_features=66, out_features=12, bias=True)
    (1): Linear(in_features=66, out_features=10, bias=True)
    (2): Linear(in_features=66, out_features=10, bias=True)
    (3): Linear(in_features=66, out_features=10, bias=True)
  )
)
======

************************************************************************************************************
Task  4
************************************************************************************************************
| Epoch   1, time=  0.4s | Train: skip eval | Valid: time=  0.2s loss=4.213, TAw acc= 27.1% | *
| Epoch   2, time=  0.4s | Train: skip eval | Valid: time=  0.2s loss=3.287, TAw acc= 39.6% | *
…
------------------------------------------------------------------------------------------------------------
>>> Test on task  0 : loss=1.047 | TAw acc= 86.1%, forg=  0.7%| TAg acc= 79.2%, forg=  0.0% <<<
>>> Test on task  1 : loss=0.872 | TAw acc= 95.8%, forg=  0.0%| TAg acc= 89.2%, forg= -1.7% <<<
>>> Test on task  2 : loss=0.633 | TAw acc= 99.2%, forg= -1.7%| TAg acc= 93.3%, forg= -6.7% <<<
>>> Test on task  3 : loss=1.047 | TAw acc= 99.2%, forg= -5.8%| TAg acc= 86.7%, forg=-12.5% <<<
>>> Test on task  4 : loss=1.344 | TAw acc= 85.8%, forg=  0.0%| TAg acc= 62.5%, forg=  0.0% <<<
Save at k=100/eeil_e5_dsads_2/har_flex_eeil
======
LLL_Net(
  (model): SimpleMLP(
    (fc1): Linear(in_features=405, out_features=66, bias=True)
    (fc2): Sequential()
  )
  (heads): ModuleList(
    (0): Linear(in_features=66, out_features=12, bias=True)
    (1): Linear(in_features=66, out_features=10, bias=True)
    (2): Linear(in_features=66, out_features=10, bias=True)
    (3): Linear(in_features=66, out_features=10, bias=True)
    (4): Linear(in_features=66, out_features=10, bias=True)
  )
)
======

************************************************************************************************************
Task  5
************************************************************************************************************
| Epoch   1, time=  0.6s | Train: skip eval | Valid: time=  0.1s loss=4.467, TAw acc= 33.3% | *
| Epoch   2, time=  0.5s | Train: skip eval | Valid: time=  0.1s loss=3.167, TAw acc= 51.0% | *
…
>>> Test on task  0 : loss=0.985 | TAw acc= 86.1%, forg=  0.7%| TAg acc= 77.8%, forg=  1.4% <<<
>>> Test on task  1 : loss=0.775 | TAw acc= 94.2%, forg=  1.7%| TAg acc= 88.3%, forg=  0.8% <<<
>>> Test on task  2 : loss=0.528 | TAw acc= 99.2%, forg=  0.0%| TAg acc= 90.8%, forg=  2.5% <<<
>>> Test on task  3 : loss=0.992 | TAw acc= 97.5%, forg=  1.7%| TAg acc= 72.5%, forg= 14.2% <<<
>>> Test on task  4 : loss=1.260 | TAw acc= 88.3%, forg= -2.5%| TAg acc= 65.0%, forg= -2.5% <<<
>>> Test on task  5 : loss=1.207 | TAw acc= 80.0%, forg=  0.0%| TAg acc= 69.2%, forg=  0.0% <<<
Save at k=100/eeil_e5_dsads_2/har_flex_eeil
======
LLL_Net(
  (model): SimpleMLP(
    (fc1): Linear(in_features=405, out_features=66, bias=True)
    (fc2): Sequential()
  )
  (heads): ModuleList(
    (0): Linear(in_features=66, out_features=12, bias=True)
    (1): Linear(in_features=66, out_features=10, bias=True)
    (2): Linear(in_features=66, out_features=10, bias=True)
    (3): Linear(in_features=66, out_features=10, bias=True)
    (4): Linear(in_features=66, out_features=10, bias=True)
    (5): Linear(in_features=66, out_features=10, bias=True)
  )
)
======

************************************************************************************************************
Task  6
************************************************************************************************************
| Epoch   1, time=  0.6s | Train: skip eval | Valid: time=  0.2s loss=3.776, TAw acc= 39.6% | *
| Epoch   2, time=  0.6s | Train: skip eval | Valid: time=  0.2s loss=2.535, TAw acc= 50.0% | *
…
>>> Test on task  1 : loss=0.774 | TAw acc= 98.3%, forg= -2.5%| TAg acc= 85.8%, forg=  3.3% <<<
>>> Test on task  2 : loss=0.506 | TAw acc=100.0%, forg= -0.8%| TAg acc= 93.3%, forg=  0.0% <<<
>>> Test on task  3 : loss=0.782 | TAw acc= 98.3%, forg=  0.8%| TAg acc= 89.2%, forg= -2.5% <<<
>>> Test on task  4 : loss=1.043 | TAw acc= 85.8%, forg=  2.5%| TAg acc= 71.7%, forg= -6.7% <<<
>>> Test on task  5 : loss=1.167 | TAw acc= 90.8%, forg=-10.8%| TAg acc= 70.0%, forg= -0.8% <<<
>>> Test on task  6 : loss=1.078 | TAw acc= 90.8%, forg=  0.0%| TAg acc= 71.7%, forg=  0.0% <<<
Save at k=100/eeil_e5_dsads_2/har_flex_eeil
======
LLL_Net(
  (model): SimpleMLP(
    (fc1): Linear(in_features=405, out_features=66, bias=True)
    (fc2): Sequential()
  )
  (heads): ModuleList(
    (0): Linear(in_features=66, out_features=12, bias=True)
    (1): Linear(in_features=66, out_features=10, bias=True)
    (2): Linear(in_features=66, out_features=10, bias=True)
    (3): Linear(in_features=66, out_features=10, bias=True)
    (4): Linear(in_features=66, out_features=10, bias=True)
    (5): Linear(in_features=66, out_features=10, bias=True)
    (6): Linear(in_features=66, out_features=10, bias=True)
  )
)
======

************************************************************************************************************
Task  7
************************************************************************************************************
| Epoch   1, time=  0.8s | Train: skip eval | Valid: time=  0.1s loss=4.376, TAw acc= 47.9% | *
| Epoch   2, time=  0.8s | Train: skip eval | Valid: time=  0.2s loss=2.904, TAw acc= 72.9% | *
…
>>> Test on task  2 : loss=0.453 | TAw acc=100.0%, forg=  0.0%| TAg acc= 92.5%, forg=  0.8% <<<
>>> Test on task  3 : loss=0.571 | TAw acc=100.0%, forg= -0.8%| TAg acc= 91.7%, forg= -2.5% <<<
>>> Test on task  4 : loss=1.003 | TAw acc= 89.2%, forg= -0.8%| TAg acc= 73.3%, forg= -1.7% <<<
>>> Test on task  5 : loss=1.078 | TAw acc= 94.2%, forg= -3.3%| TAg acc= 70.8%, forg= -0.8% <<<
>>> Test on task  6 : loss=0.980 | TAw acc= 93.3%, forg= -2.5%| TAg acc= 66.7%, forg=  5.0% <<<
>>> Test on task  7 : loss=0.579 | TAw acc= 98.3%, forg=  0.0%| TAg acc= 98.3%, forg=  0.0% <<<
Save at k=100/eeil_e5_dsads_2/har_flex_eeil
======
LLL_Net(
  (model): SimpleMLP(
    (fc1): Linear(in_features=405, out_features=66, bias=True)
    (fc2): Sequential()
  )
  (heads): ModuleList(
    (0): Linear(in_features=66, out_features=12, bias=True)
    (1): Linear(in_features=66, out_features=10, bias=True)
    (2): Linear(in_features=66, out_features=10, bias=True)
    (3): Linear(in_features=66, out_features=10, bias=True)
    (4): Linear(in_features=66, out_features=10, bias=True)
    (5): Linear(in_features=66, out_features=10, bias=True)
    (6): Linear(in_features=66, out_features=10, bias=True)
    (7): Linear(in_features=66, out_features=10, bias=True)
  )
)
======

************************************************************************************************************
Task  8
************************************************************************************************************
| Epoch   1, time=  0.9s | Train: skip eval | Valid: time=  0.1s loss=5.133, TAw acc= 32.3% | *
| Epoch   2, time=  0.9s | Train: skip eval | Valid: time=  0.1s loss=2.999, TAw acc= 45.8% | *
…
>>> Test on task  3 : loss=0.604 | TAw acc=100.0%, forg=  0.0%| TAg acc= 90.0%, forg=  1.7% <<<
>>> Test on task  4 : loss=0.949 | TAw acc= 90.0%, forg= -0.8%| TAg acc= 75.0%, forg= -1.7% <<<
>>> Test on task  5 : loss=0.867 | TAw acc= 94.2%, forg=  0.0%| TAg acc= 84.2%, forg=-13.3% <<<
>>> Test on task  6 : loss=0.728 | TAw acc= 97.5%, forg= -4.2%| TAg acc= 88.3%, forg=-16.7% <<<
>>> Test on task  7 : loss=0.525 | TAw acc= 98.3%, forg=  0.0%| TAg acc= 95.8%, forg=  2.5% <<<
>>> Test on task  8 : loss=1.232 | TAw acc= 95.8%, forg=  0.0%| TAg acc= 75.0%, forg=  0.0% <<<
Save at k=100/eeil_e5_dsads_2/har_flex_eeil
======
LLL_Net(
  (model): SimpleMLP(
    (fc1): Linear(in_features=405, out_features=66, bias=True)
    (fc2): Sequential()
  )
  (heads): ModuleList(
    (0): Linear(in_features=66, out_features=12, bias=True)
    (1): Linear(in_features=66, out_features=10, bias=True)
    (2): Linear(in_features=66, out_features=10, bias=True)
    (3): Linear(in_features=66, out_features=10, bias=True)
    (4): Linear(in_features=66, out_features=10, bias=True)
    (5): Linear(in_features=66, out_features=10, bias=True)
    (6): Linear(in_features=66, out_features=10, bias=True)
    (7): Linear(in_features=66, out_features=10, bias=True)
    (8): Linear(in_features=66, out_features=10, bias=True)
  )
)
======

************************************************************************************************************
Task  9
************************************************************************************************************
| Epoch   1, time=  1.1s | Train: skip eval | Valid: time=  0.2s loss=3.440, TAw acc= 41.7% | *
| Epoch   2, time=  1.1s | Train: skip eval | Valid: time=  0.2s loss=2.390, TAw acc= 78.1% | *
…
>>> Test on task  4 : loss=0.874 | TAw acc= 89.2%, forg=  0.8%| TAg acc= 75.0%, forg=  0.0% <<<
>>> Test on task  5 : loss=0.838 | TAw acc= 95.0%, forg= -0.8%| TAg acc= 80.8%, forg=  3.3% <<<
>>> Test on task  6 : loss=0.626 | TAw acc=100.0%, forg= -2.5%| TAg acc= 87.5%, forg=  0.8% <<<
>>> Test on task  7 : loss=0.406 | TAw acc= 99.2%, forg= -0.8%| TAg acc= 95.0%, forg=  3.3% <<<
>>> Test on task  8 : loss=1.314 | TAw acc= 96.7%, forg= -0.8%| TAg acc= 66.7%, forg=  8.3% <<<
>>> Test on task  9 : loss=0.571 | TAw acc=100.0%, forg=  0.0%| TAg acc= 95.0%, forg=  0.0% <<<
Save at k=100/eeil_e5_dsads_2/har_flex_eeil
======
LLL_Net(
  (model): SimpleMLP(
    (fc1): Linear(in_features=405, out_features=66, bias=True)
    (fc2): Sequential()
  )
  (heads): ModuleList(
    (0): Linear(in_features=66, out_features=12, bias=True)
    (1): Linear(in_features=66, out_features=10, bias=True)
    (2): Linear(in_features=66, out_features=10, bias=True)
    (3): Linear(in_features=66, out_features=10, bias=True)
    (4): Linear(in_features=66, out_features=10, bias=True)
    (5): Linear(in_features=66, out_features=10, bias=True)
    (6): Linear(in_features=66, out_features=10, bias=True)
    (7): Linear(in_features=66, out_features=10, bias=True)
    (8): Linear(in_features=66, out_features=10, bias=True)
    (9): Linear(in_features=66, out_features=10, bias=True)
  )
)
======

************************************************************************************************************
Task 10
************************************************************************************************************
| Epoch   1, time=  1.2s | Train: skip eval | Valid: time=  0.2s loss=4.083, TAw acc= 49.0% | *
| Epoch   2, time=  1.2s | Train: skip eval | Valid: time=  0.2s loss=2.765, TAw acc= 74.0% | *
…
>>> Test on task  5 : loss=0.966 | TAw acc= 95.8%, forg= -0.8%| TAg acc= 75.0%, forg=  9.2% <<<
>>> Test on task  6 : loss=0.600 | TAw acc= 98.3%, forg=  1.7%| TAg acc= 90.0%, forg= -1.7% <<<
>>> Test on task  7 : loss=0.353 | TAw acc=100.0%, forg= -0.8%| TAg acc= 94.2%, forg=  4.2% <<<
>>> Test on task  8 : loss=1.173 | TAw acc= 96.7%, forg=  0.0%| TAg acc= 72.5%, forg=  2.5% <<<
>>> Test on task  9 : loss=0.541 | TAw acc= 99.2%, forg=  0.8%| TAg acc= 83.3%, forg= 11.7% <<<
>>> Test on task 10 : loss=1.044 | TAw acc= 95.0%, forg=  0.0%| TAg acc= 71.7%, forg=  0.0% <<<
Save at k=100/eeil_e5_dsads_2/har_flex_eeil
======
LLL_Net(
  (model): SimpleMLP(
    (fc1): Linear(in_features=405, out_features=66, bias=True)
    (fc2): Sequential()
  )
  (heads): ModuleList(
    (0): Linear(in_features=66, out_features=12, bias=True)
    (1): Linear(in_features=66, out_features=10, bias=True)
    (2): Linear(in_features=66, out_features=10, bias=True)
    (3): Linear(in_features=66, out_features=10, bias=True)
    (4): Linear(in_features=66, out_features=10, bias=True)
    (5): Linear(in_features=66, out_features=10, bias=True)
    (6): Linear(in_features=66, out_features=10, bias=True)
    (7): Linear(in_features=66, out_features=10, bias=True)
    (8): Linear(in_features=66, out_features=10, bias=True)
    (9): Linear(in_features=66, out_features=10, bias=True)
    (10): Linear(in_features=66, out_features=10, bias=True)
  )
)
======

************************************************************************************************************
Task 11
************************************************************************************************************
| Epoch   1, time=  1.4s | Train: skip eval | Valid: time=  0.1s loss=3.782, TAw acc= 40.6% | *
| Epoch   2, time=  1.3s | Train: skip eval | Valid: time=  0.1s loss=2.853, TAw acc= 83.3% | *
…
>>> Test on task  6 : loss=0.453 | TAw acc= 99.2%, forg=  0.8%| TAg acc= 93.3%, forg= -3.3% <<<
>>> Test on task  7 : loss=0.336 | TAw acc=100.0%, forg=  0.0%| TAg acc= 95.8%, forg=  2.5% <<<
>>> Test on task  8 : loss=1.171 | TAw acc= 96.7%, forg=  0.0%| TAg acc= 72.5%, forg=  2.5% <<<
>>> Test on task  9 : loss=0.468 | TAw acc=100.0%, forg=  0.0%| TAg acc= 87.5%, forg=  7.5% <<<
>>> Test on task 10 : loss=0.959 | TAw acc= 97.5%, forg= -2.5%| TAg acc= 74.2%, forg= -2.5% <<<
>>> Test on task 11 : loss=0.892 | TAw acc= 97.5%, forg=  0.0%| TAg acc= 75.8%, forg=  0.0% <<<
Save at k=100/eeil_e5_dsads_2/har_flex_eeil
======
LLL_Net(
  (model): SimpleMLP(
    (fc1): Linear(in_features=405, out_features=66, bias=True)
    (fc2): Sequential()
  )
  (heads): ModuleList(
    (0): Linear(in_features=66, out_features=12, bias=True)
    (1): Linear(in_features=66, out_features=10, bias=True)
    (2): Linear(in_features=66, out_features=10, bias=True)
    (3): Linear(in_features=66, out_features=10, bias=True)
    (4): Linear(in_features=66, out_features=10, bias=True)
    (5): Linear(in_features=66, out_features=10, bias=True)
    (6): Linear(in_features=66, out_features=10, bias=True)
    (7): Linear(in_features=66, out_features=10, bias=True)
    (8): Linear(in_features=66, out_features=10, bias=True)
    (9): Linear(in_features=66, out_features=10, bias=True)
    (10): Linear(in_features=66, out_features=10, bias=True)
    (11): Linear(in_features=66, out_features=10, bias=True)
  )
)
======

************************************************************************************************************
Task 12
************************************************************************************************************
| Epoch   1, time=  1.5s | Train: skip eval | Valid: time=  0.2s loss=4.626, TAw acc= 36.5% | *
| Epoch   2, time=  1.6s | Train: skip eval | Valid: time=  0.2s loss=2.582, TAw acc= 83.3% | *
…
>>> Test on task  7 : loss=0.462 | TAw acc=100.0%, forg=  0.0%| TAg acc= 88.3%, forg= 10.0% <<<
>>> Test on task  8 : loss=1.158 | TAw acc= 96.7%, forg=  0.0%| TAg acc= 66.7%, forg=  8.3% <<<
>>> Test on task  9 : loss=0.406 | TAw acc=100.0%, forg=  0.0%| TAg acc= 90.8%, forg=  4.2% <<<
>>> Test on task 10 : loss=0.794 | TAw acc= 96.7%, forg=  0.8%| TAg acc= 83.3%, forg= -9.2% <<<
>>> Test on task 11 : loss=0.835 | TAw acc= 97.5%, forg=  0.0%| TAg acc= 80.0%, forg= -4.2% <<<
>>> Test on task 12 : loss=0.725 | TAw acc= 99.2%, forg=  0.0%| TAg acc= 89.2%, forg=  0.0% <<<
Save at k=100/eeil_e5_dsads_2/har_flex_eeil
======
LLL_Net(
  (model): SimpleMLP(
    (fc1): Linear(in_features=405, out_features=66, bias=True)
    (fc2): Sequential()
  )
  (heads): ModuleList(
    (0): Linear(in_features=66, out_features=12, bias=True)
    (1): Linear(in_features=66, out_features=10, bias=True)
    (2): Linear(in_features=66, out_features=10, bias=True)
    (3): Linear(in_features=66, out_features=10, bias=True)
    (4): Linear(in_features=66, out_features=10, bias=True)
    (5): Linear(in_features=66, out_features=10, bias=True)
    (6): Linear(in_features=66, out_features=10, bias=True)
    (7): Linear(in_features=66, out_features=10, bias=True)
    (8): Linear(in_features=66, out_features=10, bias=True)
    (9): Linear(in_features=66, out_features=10, bias=True)
    (10): Linear(in_features=66, out_features=10, bias=True)
    (11): Linear(in_features=66, out_features=10, bias=True)
    (12): Linear(in_features=66, out_features=10, bias=True)
  )
)
======

************************************************************************************************************
Task 13
************************************************************************************************************
| Epoch   1, time=  1.7s | Train: skip eval | Valid: time=  0.2s loss=3.949, TAw acc= 46.9% | *
| Epoch   2, time=  1.8s | Train: skip eval | Valid: time=  0.2s loss=3.076, TAw acc= 66.7% | *
…
>>> Test on task  8 : loss=1.152 | TAw acc= 96.7%, forg=  0.0%| TAg acc= 71.7%, forg=  3.3% <<<
>>> Test on task  9 : loss=0.476 | TAw acc=100.0%, forg=  0.0%| TAg acc= 86.7%, forg=  8.3% <<<
>>> Test on task 10 : loss=1.016 | TAw acc= 96.7%, forg=  0.8%| TAg acc= 70.0%, forg= 13.3% <<<
>>> Test on task 11 : loss=0.771 | TAw acc= 97.5%, forg=  0.0%| TAg acc= 86.7%, forg= -6.7% <<<
>>> Test on task 12 : loss=0.677 | TAw acc=100.0%, forg= -0.8%| TAg acc= 89.2%, forg=  0.0% <<<
>>> Test on task 13 : loss=1.046 | TAw acc= 93.3%, forg=  0.0%| TAg acc= 73.3%, forg=  0.0% <<<
Save at k=100/eeil_e5_dsads_2/har_flex_eeil
======
LLL_Net(
  (model): SimpleMLP(
    (fc1): Linear(in_features=405, out_features=66, bias=True)
    (fc2): Sequential()
  )
  (heads): ModuleList(
    (0): Linear(in_features=66, out_features=12, bias=True)
    (1): Linear(in_features=66, out_features=10, bias=True)
    (2): Linear(in_features=66, out_features=10, bias=True)
    (3): Linear(in_features=66, out_features=10, bias=True)
    (4): Linear(in_features=66, out_features=10, bias=True)
    (5): Linear(in_features=66, out_features=10, bias=True)
    (6): Linear(in_features=66, out_features=10, bias=True)
    (7): Linear(in_features=66, out_features=10, bias=True)
    (8): Linear(in_features=66, out_features=10, bias=True)
    (9): Linear(in_features=66, out_features=10, bias=True)
    (10): Linear(in_features=66, out_features=10, bias=True)
    (11): Linear(in_features=66, out_features=10, bias=True)
    (12): Linear(in_features=66, out_features=10, bias=True)
    (13): Linear(in_features=66, out_features=10, bias=True)
  )
)
======

************************************************************************************************************
Task 14
************************************************************************************************************
| Epoch   1, time=  2.4s | Train: skip eval | Valid: time=  0.3s loss=4.263, TAw acc= 54.2% | *
| Epoch   2, time=  2.1s | Train: skip eval | Valid: time=  0.2s loss=3.046, TAw acc= 82.3% | *
…
