…
| Selected 778 train exemplars, time=  0.4s
778
------------------------------------------------------------------------------------------------------------
>>> Test on task  0 : loss=2.511 | TAw acc= 91.3%, forg=  0.0%| TAg acc= 83.7%, forg=  7.6% <<<
>>> Test on task  1 : loss=24.439 | TAw acc= 97.2%, forg=  0.0%| TAg acc= 85.3%, forg=  3.7% <<<
>>> Test on task  2 : loss=38.126 | TAw acc= 87.6%, forg=  0.0%| TAg acc= 82.5%, forg=  1.0% <<<
>>> Test on task  3 : loss=51.166 | TAw acc= 95.6%, forg=  0.0%| TAg acc= 86.7%, forg=  0.0% <<<
Save at k=100/icarl_wisdm_3/wisdm_flex_icarl
======
LLL_Net(
  (model): SimpleMLP(
    (fc1): Linear(in_features=91, out_features=1000, bias=True)
    (fc2): Sequential()
  )
  (heads): ModuleList(
    (0): Linear(in_features=1000, out_features=34, bias=True)
    (1): Linear(in_features=1000, out_features=20, bias=True)
    (2): Linear(in_features=1000, out_features=20, bias=True)
    (3): Linear(in_features=1000, out_features=20, bias=True)
  )
)
======

************************************************************************************************************
Task  4
************************************************************************************************************
| Epoch   1, time=  1.0s | Train: skip eval | Valid: time=  0.2s loss=67.197, TAw acc= 10.7% | *
| Epoch   2, time=  0.9s | Train: skip eval | Valid: time=  0.2s loss=67.186, TAw acc= 14.3% | *
…
------------------------------------------------------------------------------------------------------------
>>> Test on task  0 : loss=2.419 | TAw acc= 91.3%, forg=  0.0%| TAg acc= 81.5%, forg=  9.8% <<<
>>> Test on task  1 : loss=24.217 | TAw acc= 97.2%, forg=  0.0%| TAg acc= 81.7%, forg=  7.3% <<<
>>> Test on task  2 : loss=37.869 | TAw acc= 87.6%, forg=  0.0%| TAg acc= 82.5%, forg=  1.0% <<<
>>> Test on task  3 : loss=50.867 | TAw acc= 95.6%, forg=  0.0%| TAg acc= 85.8%, forg=  0.9% <<<
>>> Test on task  4 : loss=65.299 | TAw acc= 82.3%, forg=  0.0%| TAg acc= 73.5%, forg=  0.0% <<<
Save at k=100/icarl_wisdm_3/wisdm_flex_icarl
======
LLL_Net(
  (model): SimpleMLP(
    (fc1): Linear(in_features=91, out_features=1000, bias=True)
    (fc2): Sequential()
  )
  (heads): ModuleList(
    (0): Linear(in_features=1000, out_features=34, bias=True)
    (1): Linear(in_features=1000, out_features=20, bias=True)
    (2): Linear(in_features=1000, out_features=20, bias=True)
    (3): Linear(in_features=1000, out_features=20, bias=True)
    (4): Linear(in_features=1000, out_features=20, bias=True)
  )
)
======

************************************************************************************************************
Task  5
************************************************************************************************************
| Epoch   1, time=  1.2s | Train: skip eval | Valid: time=  0.2s loss=78.152, TAw acc=  2.1% | *
| Epoch   2, time=  1.3s | Train: skip eval | Valid: time=  0.2s loss=78.121, TAw acc=  2.1% | *
…
>>> Test on task  0 : loss=2.405 | TAw acc= 91.3%, forg=  0.0%| TAg acc= 81.5%, forg=  9.8% <<<
>>> Test on task  1 : loss=24.040 | TAw acc= 97.2%, forg=  0.0%| TAg acc= 81.7%, forg=  7.3% <<<
>>> Test on task  2 : loss=37.639 | TAw acc= 87.6%, forg=  0.0%| TAg acc= 81.4%, forg=  2.1% <<<
>>> Test on task  3 : loss=50.597 | TAw acc= 95.6%, forg=  0.0%| TAg acc= 81.4%, forg=  5.3% <<<
>>> Test on task  4 : loss=64.983 | TAw acc= 82.3%, forg=  0.0%| TAg acc= 72.6%, forg=  0.9% <<<
>>> Test on task  5 : loss=75.091 | TAw acc= 89.0%, forg=  0.0%| TAg acc= 74.0%, forg=  0.0% <<<
Save at k=100/icarl_wisdm_3/wisdm_flex_icarl
======
LLL_Net(
  (model): SimpleMLP(
    (fc1): Linear(in_features=91, out_features=1000, bias=True)
    (fc2): Sequential()
  )
  (heads): ModuleList(
    (0): Linear(in_features=1000, out_features=34, bias=True)
    (1): Linear(in_features=1000, out_features=20, bias=True)
    (2): Linear(in_features=1000, out_features=20, bias=True)
    (3): Linear(in_features=1000, out_features=20, bias=True)
    (4): Linear(in_features=1000, out_features=20, bias=True)
    (5): Linear(in_features=1000, out_features=20, bias=True)
  )
)
======

************************************************************************************************************
Task  6
************************************************************************************************************
| Epoch   1, time=  1.5s | Train: skip eval | Valid: time=  0.2s loss=91.706, TAw acc=  0.0% | *
| Epoch   2, time=  1.5s | Train: skip eval | Valid: time=  0.2s loss=91.686, TAw acc=  0.0% | *
…
>>> Test on task  1 : loss=23.764 | TAw acc= 97.2%, forg=  0.0%| TAg acc= 81.7%, forg=  7.3% <<<
>>> Test on task  2 : loss=37.299 | TAw acc= 87.6%, forg=  0.0%| TAg acc= 81.4%, forg=  2.1% <<<
>>> Test on task  3 : loss=50.236 | TAw acc= 95.6%, forg=  0.0%| TAg acc= 81.4%, forg=  5.3% <<<
>>> Test on task  4 : loss=64.559 | TAw acc= 82.3%, forg=  0.0%| TAg acc= 70.8%, forg=  2.7% <<<
>>> Test on task  5 : loss=74.762 | TAw acc= 89.0%, forg=  0.0%| TAg acc= 69.3%, forg=  4.7% <<<
>>> Test on task  6 : loss=88.463 | TAw acc= 97.3%, forg=  0.0%| TAg acc= 87.3%, forg=  0.0% <<<
Save at k=100/icarl_wisdm_3/wisdm_flex_icarl
======
LLL_Net(
  (model): SimpleMLP(
    (fc1): Linear(in_features=91, out_features=1000, bias=True)
    (fc2): Sequential()
  )
  (heads): ModuleList(
    (0): Linear(in_features=1000, out_features=34, bias=True)
    (1): Linear(in_features=1000, out_features=20, bias=True)
    (2): Linear(in_features=1000, out_features=20, bias=True)
    (3): Linear(in_features=1000, out_features=20, bias=True)
    (4): Linear(in_features=1000, out_features=20, bias=True)
    (5): Linear(in_features=1000, out_features=20, bias=True)
    (6): Linear(in_features=1000, out_features=20, bias=True)
  )
)
======

************************************************************************************************************
Task  7
************************************************************************************************************
| Epoch   1, time=  1.9s | Train: skip eval | Valid: time=  0.2s loss=101.726, TAw acc=  6.1% | *
| Epoch   2, time=  1.9s | Train: skip eval | Valid: time=  0.2s loss=101.700, TAw acc=  6.1% | *
…
>>> Test on task  2 : loss=37.000 | TAw acc= 87.6%, forg=  0.0%| TAg acc= 78.4%, forg=  5.2% <<<
>>> Test on task  3 : loss=49.883 | TAw acc= 95.6%, forg=  0.0%| TAg acc= 77.9%, forg=  8.8% <<<
>>> Test on task  4 : loss=64.120 | TAw acc= 82.3%, forg=  0.0%| TAg acc= 69.0%, forg=  4.4% <<<
>>> Test on task  5 : loss=74.396 | TAw acc= 89.0%, forg=  0.0%| TAg acc= 63.0%, forg= 11.0% <<<
>>> Test on task  6 : loss=88.039 | TAw acc= 97.3%, forg=  0.0%| TAg acc= 86.4%, forg=  0.9% <<<
>>> Test on task  7 : loss=99.822 | TAw acc= 96.4%, forg=  0.0%| TAg acc= 85.6%, forg=  0.0% <<<
Save at k=100/icarl_wisdm_3/wisdm_flex_icarl
======
LLL_Net(
  (model): SimpleMLP(
    (fc1): Linear(in_features=91, out_features=1000, bias=True)
    (fc2): Sequential()
  )
  (heads): ModuleList(
    (0): Linear(in_features=1000, out_features=34, bias=True)
    (1): Linear(in_features=1000, out_features=20, bias=True)
    (2): Linear(in_features=1000, out_features=20, bias=True)
    (3): Linear(in_features=1000, out_features=20, bias=True)
    (4): Linear(in_features=1000, out_features=20, bias=True)
    (5): Linear(in_features=1000, out_features=20, bias=True)
    (6): Linear(in_features=1000, out_features=20, bias=True)
    (7): Linear(in_features=1000, out_features=20, bias=True)
  )
)
======

************************************************************************************************************
Task  8
************************************************************************************************************
| Epoch   1, time=  2.3s | Train: skip eval | Valid: time=  0.2s loss=114.495, TAw acc=  0.0% | *
| Epoch   2, time=  2.2s | Train: skip eval | Valid: time=  0.2s loss=114.473, TAw acc=  0.0% | *
…
>>> Test on task  3 : loss=49.515 | TAw acc= 95.6%, forg=  0.0%| TAg acc= 77.9%, forg=  8.8% <<<
>>> Test on task  4 : loss=63.654 | TAw acc= 82.3%, forg=  0.0%| TAg acc= 69.0%, forg=  4.4% <<<
>>> Test on task  5 : loss=73.941 | TAw acc= 89.0%, forg=  0.0%| TAg acc= 63.0%, forg= 11.0% <<<
>>> Test on task  6 : loss=87.559 | TAw acc= 97.3%, forg=  0.0%| TAg acc= 83.6%, forg=  3.6% <<<
>>> Test on task  7 : loss=99.376 | TAw acc= 96.4%, forg=  0.0%| TAg acc= 82.9%, forg=  2.7% <<<
>>> Test on task  8 : loss=111.533 | TAw acc= 93.2%, forg=  0.0%| TAg acc= 75.7%, forg=  0.0% <<<
Save at k=100/icarl_wisdm_3/wisdm_flex_icarl
======
LLL_Net(
  (model): SimpleMLP(
    (fc1): Linear(in_features=91, out_features=1000, bias=True)
    (fc2): Sequential()
  )
  (heads): ModuleList(
    (0): Linear(in_features=1000, out_features=34, bias=True)
    (1): Linear(in_features=1000, out_features=20, bias=True)
    (2): Linear(in_features=1000, out_features=20, bias=True)
    (3): Linear(in_features=1000, out_features=20, bias=True)
    (4): Linear(in_features=1000, out_features=20, bias=True)
    (5): Linear(in_features=1000, out_features=20, bias=True)
    (6): Linear(in_features=1000, out_features=20, bias=True)
    (7): Linear(in_features=1000, out_features=20, bias=True)
    (8): Linear(in_features=1000, out_features=20, bias=True)
  )
)
======

************************************************************************************************************
Task  9
************************************************************************************************************
| Epoch   1, time=  2.7s | Train: skip eval | Valid: time=  0.2s loss=126.716, TAw acc=  0.0% | *
| Epoch   2, time=  2.5s | Train: skip eval | Valid: time=  0.2s loss=126.692, TAw acc=  0.0% | *
…
>>> Test on task  4 : loss=63.213 | TAw acc= 82.3%, forg=  0.0%| TAg acc= 69.0%, forg=  4.4% <<<
>>> Test on task  5 : loss=73.493 | TAw acc= 89.0%, forg=  0.0%| TAg acc= 63.0%, forg= 11.0% <<<
>>> Test on task  6 : loss=87.065 | TAw acc= 97.3%, forg=  0.0%| TAg acc= 83.6%, forg=  3.6% <<<
>>> Test on task  7 : loss=98.819 | TAw acc= 96.4%, forg=  0.0%| TAg acc= 82.0%, forg=  3.6% <<<
>>> Test on task  8 : loss=110.987 | TAw acc= 93.2%, forg=  0.0%| TAg acc= 71.8%, forg=  3.9% <<<
>>> Test on task  9 : loss=123.185 | TAw acc= 91.2%, forg=  0.0%| TAg acc= 76.5%, forg=  0.0% <<<
Save at k=100/icarl_wisdm_3/wisdm_flex_icarl
======
LLL_Net(
  (model): SimpleMLP(
    (fc1): Linear(in_features=91, out_features=1000, bias=True)
    (fc2): Sequential()
  )
  (heads): ModuleList(
    (0): Linear(in_features=1000, out_features=34, bias=True)
    (1): Linear(in_features=1000, out_features=20, bias=True)
    (2): Linear(in_features=1000, out_features=20, bias=True)
    (3): Linear(in_features=1000, out_features=20, bias=True)
    (4): Linear(in_features=1000, out_features=20, bias=True)
    (5): Linear(in_features=1000, out_features=20, bias=True)
    (6): Linear(in_features=1000, out_features=20, bias=True)
    (7): Linear(in_features=1000, out_features=20, bias=True)
    (8): Linear(in_features=1000, out_features=20, bias=True)
    (9): Linear(in_features=1000, out_features=20, bias=True)
  )
)
======

************************************************************************************************************
Task 10
************************************************************************************************************
| Epoch   1, time=  3.2s | Train: skip eval | Valid: time=  0.2s loss=137.001, TAw acc=  7.6% | *
| Epoch   2, time=  3.2s | Train: skip eval | Valid: time=  0.2s loss=136.970, TAw acc= 10.1% | *
…
>>> Test on task  5 : loss=73.055 | TAw acc= 89.0%, forg=  0.0%| TAg acc= 62.2%, forg= 11.8% <<<
>>> Test on task  6 : loss=86.568 | TAw acc= 97.3%, forg=  0.0%| TAg acc= 81.8%, forg=  5.5% <<<
>>> Test on task  7 : loss=98.247 | TAw acc= 96.4%, forg=  0.0%| TAg acc= 81.1%, forg=  4.5% <<<
>>> Test on task  8 : loss=110.413 | TAw acc= 93.2%, forg=  0.0%| TAg acc= 71.8%, forg=  3.9% <<<
>>> Test on task  9 : loss=122.560 | TAw acc= 91.2%, forg=  0.0%| TAg acc= 76.5%, forg=  0.0% <<<
>>> Test on task 10 : loss=133.717 | TAw acc= 96.3%, forg=  0.0%| TAg acc= 76.6%, forg=  0.0% <<<
Save at k=100/icarl_wisdm_3/wisdm_flex_icarl
======
LLL_Net(
  (model): SimpleMLP(
    (fc1): Linear(in_features=91, out_features=1000, bias=True)
    (fc2): Sequential()
  )
  (heads): ModuleList(
    (0): Linear(in_features=1000, out_features=34, bias=True)
    (1): Linear(in_features=1000, out_features=20, bias=True)
    (2): Linear(in_features=1000, out_features=20, bias=True)
    (3): Linear(in_features=1000, out_features=20, bias=True)
    (4): Linear(in_features=1000, out_features=20, bias=True)
    (5): Linear(in_features=1000, out_features=20, bias=True)
    (6): Linear(in_features=1000, out_features=20, bias=True)
    (7): Linear(in_features=1000, out_features=20, bias=True)
    (8): Linear(in_features=1000, out_features=20, bias=True)
    (9): Linear(in_features=1000, out_features=20, bias=True)
    (10): Linear(in_features=1000, out_features=20, bias=True)
  )
)
======

************************************************************************************************************
Task 11
************************************************************************************************************
| Epoch   1, time=  3.6s | Train: skip eval | Valid: time=  0.2s loss=148.721, TAw acc=  5.2% | *
| Epoch   2, time=  3.8s | Train: skip eval | Valid: time=  0.2s loss=148.684, TAw acc=  5.2% | *
…
>>> Test on task  6 : loss=86.147 | TAw acc= 97.3%, forg=  0.0%| TAg acc= 80.0%, forg=  7.3% <<<
>>> Test on task  7 : loss=97.666 | TAw acc= 96.4%, forg=  0.0%| TAg acc= 81.1%, forg=  4.5% <<<
>>> Test on task  8 : loss=109.841 | TAw acc= 93.2%, forg=  0.0%| TAg acc= 71.8%, forg=  3.9% <<<
>>> Test on task  9 : loss=121.955 | TAw acc= 91.2%, forg=  0.0%| TAg acc= 75.5%, forg=  1.0% <<<
>>> Test on task 10 : loss=133.282 | TAw acc= 96.3%, forg=  0.0%| TAg acc= 76.6%, forg=  0.0% <<<
>>> Test on task 11 : loss=144.506 | TAw acc= 96.1%, forg=  0.0%| TAg acc= 75.8%, forg=  0.0% <<<
Save at k=100/icarl_wisdm_3/wisdm_flex_icarl
======
LLL_Net(
  (model): SimpleMLP(
    (fc1): Linear(in_features=91, out_features=1000, bias=True)
    (fc2): Sequential()
  )
  (heads): ModuleList(
    (0): Linear(in_features=1000, out_features=34, bias=True)
    (1): Linear(in_features=1000, out_features=20, bias=True)
    (2): Linear(in_features=1000, out_features=20, bias=True)
    (3): Linear(in_features=1000, out_features=20, bias=True)
    (4): Linear(in_features=1000, out_features=20, bias=True)
    (5): Linear(in_features=1000, out_features=20, bias=True)
    (6): Linear(in_features=1000, out_features=20, bias=True)
    (7): Linear(in_features=1000, out_features=20, bias=True)
    (8): Linear(in_features=1000, out_features=20, bias=True)
    (9): Linear(in_features=1000, out_features=20, bias=True)
    (10): Linear(in_features=1000, out_features=20, bias=True)
    (11): Linear(in_features=1000, out_features=20, bias=True)
  )
)
======

************************************************************************************************************
Task 12
************************************************************************************************************
| Epoch   1, time=  4.7s | Train: skip eval | Valid: time=  0.3s loss=162.724, TAw acc=  0.0% | *
| Epoch   2, time=  4.8s | Train: skip eval | Valid: time=  0.3s loss=162.703, TAw acc=  1.1% | *
…
>>> Test on task  7 : loss=97.131 | TAw acc= 96.4%, forg=  0.0%| TAg acc= 81.1%, forg=  4.5% <<<
>>> Test on task  8 : loss=109.238 | TAw acc= 93.2%, forg=  0.0%| TAg acc= 71.8%, forg=  3.9% <<<
>>> Test on task  9 : loss=121.329 | TAw acc= 91.2%, forg=  0.0%| TAg acc= 75.5%, forg=  1.0% <<<
>>> Test on task 10 : loss=132.648 | TAw acc= 96.3%, forg=  0.0%| TAg acc= 76.6%, forg=  0.0% <<<
>>> Test on task 11 : loss=143.840 | TAw acc= 96.1%, forg=  0.0%| TAg acc= 75.8%, forg=  0.0% <<<
>>> Test on task 12 : loss=159.365 | TAw acc= 96.7%, forg=  0.0%| TAg acc= 76.7%, forg=  0.0% <<<
Save at k=100/icarl_wisdm_3/wisdm_flex_icarl
======
LLL_Net(
  (model): SimpleMLP(
    (fc1): Linear(in_features=91, out_features=1000, bias=True)
    (fc2): Sequential()
  )
  (heads): ModuleList(
    (0): Linear(in_features=1000, out_features=34, bias=True)
    (1): Linear(in_features=1000, out_features=20, bias=True)
    (2): Linear(in_features=1000, out_features=20, bias=True)
    (3): Linear(in_features=1000, out_features=20, bias=True)
    (4): Linear(in_features=1000, out_features=20, bias=True)
    (5): Linear(in_features=1000, out_features=20, bias=True)
    (6): Linear(in_features=1000, out_features=20, bias=True)
    (7): Linear(in_features=1000, out_features=20, bias=True)
    (8): Linear(in_features=1000, out_features=20, bias=True)
    (9): Linear(in_features=1000, out_features=20, bias=True)
    (10): Linear(in_features=1000, out_features=20, bias=True)
    (11): Linear(in_features=1000, out_features=20, bias=True)
    (12): Linear(in_features=1000, out_features=20, bias=True)
  )
)
======

************************************************************************************************************
Task 13
************************************************************************************************************
| Epoch   1, time=  5.5s | Train: skip eval | Valid: time=  0.3s loss=173.591, TAw acc=  8.1% | *
| Epoch   2, time=  5.3s | Train: skip eval | Valid: time=  0.3s loss=173.571, TAw acc=  8.1% | *
…
>>> Test on task  8 : loss=108.696 | TAw acc= 93.2%, forg=  0.0%| TAg acc= 70.9%, forg=  4.9% <<<
>>> Test on task  9 : loss=120.725 | TAw acc= 91.2%, forg=  0.0%| TAg acc= 71.6%, forg=  4.9% <<<
>>> Test on task 10 : loss=132.031 | TAw acc= 96.3%, forg=  0.0%| TAg acc= 75.7%, forg=  0.9% <<<
>>> Test on task 11 : loss=143.140 | TAw acc= 96.1%, forg=  0.0%| TAg acc= 75.8%, forg=  0.0% <<<
>>> Test on task 12 : loss=158.634 | TAw acc= 96.7%, forg=  0.0%| TAg acc= 75.0%, forg=  1.7% <<<
>>> Test on task 13 : loss=169.092 | TAw acc= 94.1%, forg=  0.0%| TAg acc= 63.7%, forg=  0.0% <<<
Save at k=100/icarl_wisdm_3/wisdm_flex_icarl
======
LLL_Net(
  (model): SimpleMLP(
    (fc1): Linear(in_features=91, out_features=1000, bias=True)
    (fc2): Sequential()
  )
  (heads): ModuleList(
    (0): Linear(in_features=1000, out_features=34, bias=True)
    (1): Linear(in_features=1000, out_features=20, bias=True)
    (2): Linear(in_features=1000, out_features=20, bias=True)
    (3): Linear(in_features=1000, out_features=20, bias=True)
    (4): Linear(in_features=1000, out_features=20, bias=True)
    (5): Linear(in_features=1000, out_features=20, bias=True)
    (6): Linear(in_features=1000, out_features=20, bias=True)
    (7): Linear(in_features=1000, out_features=20, bias=True)
    (8): Linear(in_features=1000, out_features=20, bias=True)
    (9): Linear(in_features=1000, out_features=20, bias=True)
    (10): Linear(in_features=1000, out_features=20, bias=True)
    (11): Linear(in_features=1000, out_features=20, bias=True)
    (12): Linear(in_features=1000, out_features=20, bias=True)
    (13): Linear(in_features=1000, out_features=20, bias=True)
  )
)
======

************************************************************************************************************
Task 14
************************************************************************************************************
| Epoch   1, time=  5.7s | Train: skip eval | Valid: time=  0.3s loss=182.938, TAw acc=  3.8% | *
| Epoch   2, time=  5.9s | Train: skip eval | Valid: time=  0.3s loss=182.907, TAw acc=  3.8% | *
…
>>> Test on task  9 : loss=120.161 | TAw acc= 91.2%, forg=  0.0%| TAg acc= 68.6%, forg=  7.8% <<<
>>> Test on task 10 : loss=131.396 | TAw acc= 96.3%, forg=  0.0%| TAg acc= 75.7%, forg=  0.9% <<<
>>> Test on task 11 : loss=142.414 | TAw acc= 96.1%, forg=  0.0%| TAg acc= 75.8%, forg=  0.0% <<<
>>> Test on task 12 : loss=157.868 | TAw acc= 96.7%, forg=  0.0%| TAg acc= 72.5%, forg=  4.2% <<<
>>> Test on task 13 : loss=168.474 | TAw acc= 94.1%, forg=  0.0%| TAg acc= 61.8%, forg=  2.0% <<<
>>> Test on task 14 : loss=179.289 | TAw acc= 96.3%, forg=  0.0%| TAg acc= 69.2%, forg=  0.0% <<<
Save at k=100/icarl_wisdm_3/wisdm_flex_icarl
======
LLL_Net(
  (model): SimpleMLP(
    (fc1): Linear(in_features=91, out_features=1000, bias=True)
    (fc2): Sequential()
  )
  (heads): ModuleList(
    (0): Linear(in_features=1000, out_features=34, bias=True)
    (1): Linear(in_features=1000, out_features=20, bias=True)
    (2): Linear(in_features=1000, out_features=20, bias=True)
    (3): Linear(in_features=1000, out_features=20, bias=True)
    (4): Linear(in_features=1000, out_features=20, bias=True)
    (5): Linear(in_features=1000, out_features=20, bias=True)
    (6): Linear(in_features=1000, out_features=20, bias=True)
    (7): Linear(in_features=1000, out_features=20, bias=True)
    (8): Linear(in_features=1000, out_features=20, bias=True)
    (9): Linear(in_features=1000, out_features=20, bias=True)
    (10): Linear(in_features=1000, out_features=20, bias=True)
    (11): Linear(in_features=1000, out_features=20, bias=True)
    (12): Linear(in_features=1000, out_features=20, bias=True)
    (13): Linear(in_features=1000, out_features=20, bias=True)
    (14): Linear(in_features=1000, out_features=20, bias=True)
  )
)
======

************************************************************************************************************
Task 15
************************************************************************************************************
| Epoch   1, time=  6.3s | Train: skip eval | Valid: time=  0.3s loss=194.838, TAw acc=  0.0% | *
| Epoch   2, time=  6.5s | Train: skip eval | Valid: time=  0.3s loss=194.819, TAw acc=  0.0% | *
…
>>> Test on task 10 : loss=130.787 | TAw acc= 96.3%, forg=  0.0%| TAg acc= 75.7%, forg=  0.9% <<<
>>> Test on task 11 : loss=141.702 | TAw acc= 96.1%, forg=  0.0%| TAg acc= 75.8%, forg=  0.0% <<<
>>> Test on task 12 : loss=157.107 | TAw acc= 96.7%, forg=  0.0%| TAg acc= 72.5%, forg=  4.2% <<<
>>> Test on task 13 : loss=167.773 | TAw acc= 94.1%, forg=  0.0%| TAg acc= 60.8%, forg=  2.9% <<<
>>> Test on task 14 : loss=178.605 | TAw acc= 96.3%, forg=  0.0%| TAg acc= 67.3%, forg=  1.9% <<<
>>> Test on task 15 : loss=192.235 | TAw acc= 92.9%, forg=  0.0%| TAg acc= 73.5%, forg=  0.0% <<<
Save at k=100/icarl_wisdm_3/wisdm_flex_icarl
======
LLL_Net(
  (model): SimpleMLP(
    (fc1): Linear(in_features=91, out_features=1000, bias=True)
    (fc2): Sequential()
  )
  (heads): ModuleList(
    (0): Linear(in_features=1000, out_features=34, bias=True)
    (1): Linear(in_features=1000, out_features=20, bias=True)
    (2): Linear(in_features=1000, out_features=20, bias=True)
    (3): Linear(in_features=1000, out_features=20, bias=True)
    (4): Linear(in_features=1000, out_features=20, bias=True)
    (5): Linear(in_features=1000, out_features=20, bias=True)
    (6): Linear(in_features=1000, out_features=20, bias=True)
    (7): Linear(in_features=1000, out_features=20, bias=True)
    (8): Linear(in_features=1000, out_features=20, bias=True)
    (9): Linear(in_features=1000, out_features=20, bias=True)
    (10): Linear(in_features=1000, out_features=20, bias=True)
    (11): Linear(in_features=1000, out_features=20, bias=True)
    (12): Linear(in_features=1000, out_features=20, bias=True)
    (13): Linear(in_features=1000, out_features=20, bias=True)
    (14): Linear(in_features=1000, out_features=20, bias=True)
    (15): Linear(in_features=1000, out_features=20, bias=True)
  )
)
======

************************************************************************************************************
Task 16
************************************************************************************************************
| Epoch   1, time=  6.9s | Train: skip eval | Valid: time=  0.3s loss=207.113, TAw acc=  6.5% | *
| Epoch   2, time=  7.2s | Train: skip eval | Valid: time=  0.3s loss=207.088, TAw acc=  7.5% | *
…
>>> Test on task 11 : loss=141.090 | TAw acc= 96.1%, forg=  0.0%| TAg acc= 75.8%, forg=  0.0% <<<
>>> Test on task 12 : loss=156.412 | TAw acc= 96.7%, forg=  0.0%| TAg acc= 72.5%, forg=  4.2% <<<
>>> Test on task 13 : loss=167.107 | TAw acc= 94.1%, forg=  0.0%| TAg acc= 59.8%, forg=  3.9% <<<
>>> Test on task 14 : loss=177.949 | TAw acc= 96.3%, forg=  0.0%| TAg acc= 66.4%, forg=  2.8% <<<
>>> Test on task 15 : loss=191.438 | TAw acc= 92.9%, forg=  0.0%| TAg acc= 73.5%, forg=  0.0% <<<
>>> Test on task 16 : loss=201.837 | TAw acc= 92.8%, forg=  0.0%| TAg acc= 72.0%, forg=  0.0% <<<
Save at k=100/icarl_wisdm_3/wisdm_flex_icarl
======
LLL_Net(
  (model): SimpleMLP(
    (fc1): Linear(in_features=91, out_features=1000, bias=True)
    (fc2): Sequential()
  )
  (heads): ModuleList(
    (0): Linear(in_features=1000, out_features=34, bias=True)
    (1): Linear(in_features=1000, out_features=20, bias=True)
    (2): Linear(in_features=1000, out_features=20, bias=True)
    (3): Linear(in_features=1000, out_features=20, bias=True)
    (4): Linear(in_features=1000, out_features=20, bias=True)
    (5): Linear(in_features=1000, out_features=20, bias=True)
    (6): Linear(in_features=1000, out_features=20, bias=True)
    (7): Linear(in_features=1000, out_features=20, bias=True)
    (8): Linear(in_features=1000, out_features=20, bias=True)
    (9): Linear(in_features=1000, out_features=20, bias=True)
    (10): Linear(in_features=1000, out_features=20, bias=True)
    (11): Linear(in_features=1000, out_features=20, bias=True)
    (12): Linear(in_features=1000, out_features=20, bias=True)
    (13): Linear(in_features=1000, out_features=20, bias=True)
    (14): Linear(in_features=1000, out_features=20, bias=True)
    (15): Linear(in_features=1000, out_features=20, bias=True)
    (16): Linear(in_features=1000, out_features=20, bias=True)
  )
)
======

************************************************************************************************************
Task 17
************************************************************************************************************
| Epoch   1, time=  7.8s | Train: skip eval | Valid: time=  0.3s loss=218.196, TAw acc=  0.0% | *
| Epoch   2, time=  7.6s | Train: skip eval | Valid: time=  0.2s loss=218.174, TAw acc=  0.0% | *
…
>>> Test on task 12 : loss=155.677 | TAw acc= 96.7%, forg=  0.0%| TAg acc= 70.8%, forg=  5.8% <<<
>>> Test on task 13 : loss=166.412 | TAw acc= 94.1%, forg=  0.0%| TAg acc= 59.8%, forg=  3.9% <<<
>>> Test on task 14 : loss=177.248 | TAw acc= 96.3%, forg=  0.0%| TAg acc= 65.4%, forg=  3.7% <<<
>>> Test on task 15 : loss=190.636 | TAw acc= 92.9%, forg=  0.0%| TAg acc= 72.4%, forg=  1.0% <<<
>>> Test on task 16 : loss=201.152 | TAw acc= 92.8%, forg=  0.0%| TAg acc= 72.0%, forg=  0.0% <<<
>>> Test on task 17 : loss=212.936 | TAw acc= 92.2%, forg=  0.0%| TAg acc= 69.6%, forg=  0.0% <<<
Save at k=100/icarl_wisdm_3/wisdm_flex_icarl
======
LLL_Net(
  (model): SimpleMLP(
    (fc1): Linear(in_features=91, out_features=1000, bias=True)
    (fc2): Sequential()
  )
  (heads): ModuleList(
    (0): Linear(in_features=1000, out_features=34, bias=True)
    (1): Linear(in_features=1000, out_features=20, bias=True)
    (2): Linear(in_features=1000, out_features=20, bias=True)
    (3): Linear(in_features=1000, out_features=20, bias=True)
    (4): Linear(in_features=1000, out_features=20, bias=True)
    (5): Linear(in_features=1000, out_features=20, bias=True)
    (6): Linear(in_features=1000, out_features=20, bias=True)
    (7): Linear(in_features=1000, out_features=20, bias=True)
    (8): Linear(in_features=1000, out_features=20, bias=True)
    (9): Linear(in_features=1000, out_features=20, bias=True)
    (10): Linear(in_features=1000, out_features=20, bias=True)
    (11): Linear(in_features=1000, out_features=20, bias=True)
    (12): Linear(in_features=1000, out_features=20, bias=True)
    (13): Linear(in_features=1000, out_features=20, bias=True)
    (14): Linear(in_features=1000, out_features=20, bias=True)
    (15): Linear(in_features=1000, out_features=20, bias=True)
    (16): Linear(in_features=1000, out_features=20, bias=True)
    (17): Linear(in_features=1000, out_features=20, bias=True)
  )
)
======

************************************************************************************************************
Task 18
************************************************************************************************************
| Epoch   1, time=  8.3s | Train: skip eval | Valid: time=  0.3s loss=224.091, TAw acc=  8.9% | *
| Epoch   2, time=  8.4s | Train: skip eval | Valid: time=  0.3s loss=224.048, TAw acc= 10.1% | *
…
>>> Test on task 13 : loss=165.764 | TAw acc= 94.1%, forg=  0.0%| TAg acc= 58.8%, forg=  4.9% <<<
>>> Test on task 14 : loss=176.603 | TAw acc= 96.3%, forg=  0.0%| TAg acc= 65.4%, forg=  3.7% <<<
>>> Test on task 15 : loss=189.839 | TAw acc= 92.9%, forg=  0.0%| TAg acc= 72.4%, forg=  1.0% <<<
>>> Test on task 16 : loss=200.425 | TAw acc= 92.8%, forg=  0.0%| TAg acc= 72.0%, forg=  0.0% <<<
>>> Test on task 17 : loss=212.217 | TAw acc= 92.2%, forg=  0.0%| TAg acc= 69.6%, forg=  0.0% <<<
>>> Test on task 18 : loss=218.695 | TAw acc= 98.1%, forg=  0.0%| TAg acc= 83.3%, forg=  0.0% <<<
Save at k=100/icarl_wisdm_3/wisdm_flex_icarl
======
LLL_Net(
  (model): SimpleMLP(
    (fc1): Linear(in_features=91, out_features=1000, bias=True)
    (fc2): Sequential()
  )
  (heads): ModuleList(
    (0): Linear(in_features=1000, out_features=34, bias=True)
    (1): Linear(in_features=1000, out_features=20, bias=True)
    (2): Linear(in_features=1000, out_features=20, bias=True)
    (3): Linear(in_features=1000, out_features=20, bias=True)
    (4): Linear(in_features=1000, out_features=20, bias=True)
    (5): Linear(in_features=1000, out_features=20, bias=True)
    (6): Linear(in_features=1000, out_features=20, bias=True)
    (7): Linear(in_features=1000, out_features=20, bias=True)
    (8): Linear(in_features=1000, out_features=20, bias=True)
    (9): Linear(in_features=1000, out_features=20, bias=True)
    (10): Linear(in_features=1000, out_features=20, bias=True)
    (11): Linear(in_features=1000, out_features=20, bias=True)
    (12): Linear(in_features=1000, out_features=20, bias=True)
    (13): Linear(in_features=1000, out_features=20, bias=True)
    (14): Linear(in_features=1000, out_features=20, bias=True)
    (15): Linear(in_features=1000, out_features=20, bias=True)
    (16): Linear(in_features=1000, out_features=20, bias=True)
    (17): Linear(in_features=1000, out_features=20, bias=True)
    (18): Linear(in_features=1000, out_features=20, bias=True)
  )
)
======

************************************************************************************************************
Task 19
************************************************************************************************************
| Epoch   1, time=  9.2s | Train: skip eval | Valid: time=  0.3s loss=234.557, TAw acc=  6.0% | *
| Epoch   2, time=  9.1s | Train: skip eval | Valid: time=  0.3s loss=234.510, TAw acc=  8.0% | *
…
>>> Test on task 14 : loss=175.988 | TAw acc= 96.3%, forg=  0.0%| TAg acc= 65.4%, forg=  3.7% <<<
>>> Test on task 15 : loss=189.167 | TAw acc= 92.9%, forg=  0.0%| TAg acc= 69.4%, forg=  4.1% <<<
>>> Test on task 16 : loss=199.729 | TAw acc= 92.8%, forg=  0.0%| TAg acc= 71.2%, forg=  0.8% <<<
>>> Test on task 17 : loss=211.544 | TAw acc= 92.2%, forg=  0.0%| TAg acc= 69.6%, forg=  0.0% <<<
>>> Test on task 18 : loss=217.997 | TAw acc= 98.1%, forg=  0.0%| TAg acc= 83.3%, forg=  0.0% <<<
>>> Test on task 19 : loss=230.313 | TAw acc= 88.5%, forg=  0.0%| TAg acc= 48.1%, forg=  0.0% <<<
Save at k=100/icarl_wisdm_3/wisdm_flex_icarl
======
LLL_Net(
  (model): SimpleMLP(
    (fc1): Linear(in_features=91, out_features=1000, bias=True)
    (fc2): Sequential()
  )
  (heads): ModuleList(
    (0): Linear(in_features=1000, out_features=34, bias=True)
    (1): Linear(in_features=1000, out_features=20, bias=True)
    (2): Linear(in_features=1000, out_features=20, bias=True)
    (3): Linear(in_features=1000, out_features=20, bias=True)
    (4): Linear(in_features=1000, out_features=20, bias=True)
    (5): Linear(in_features=1000, out_features=20, bias=True)
    (6): Linear(in_features=1000, out_features=20, bias=True)
    (7): Linear(in_features=1000, out_features=20, bias=True)
    (8): Linear(in_features=1000, out_features=20, bias=True)
    (9): Linear(in_features=1000, out_features=20, bias=True)
    (10): Linear(in_features=1000, out_features=20, bias=True)
    (11): Linear(in_features=1000, out_features=20, bias=True)
    (12): Linear(in_features=1000, out_features=20, bias=True)
    (13): Linear(in_features=1000, out_features=20, bias=True)
    (14): Linear(in_features=1000, out_features=20, bias=True)
    (15): Linear(in_features=1000, out_features=20, bias=True)
    (16): Linear(in_features=1000, out_features=20, bias=True)
    (17): Linear(in_features=1000, out_features=20, bias=True)
    (18): Linear(in_features=1000, out_features=20, bias=True)
    (19): Linear(in_features=1000, out_features=20, bias=True)
  )
)
======

************************************************************************************************************
Task 20
************************************************************************************************************
| Epoch   1, time=  9.7s | Train: skip eval | Valid: time=  0.3s loss=244.898, TAw acc=  7.7% | *
| Epoch   2, time=  9.8s | Train: skip eval | Valid: time=  0.3s loss=244.851, TAw acc=  8.8% | *
…
>>> Test on task 15 : loss=188.413 | TAw acc= 92.9%, forg=  0.0%| TAg acc= 68.4%, forg=  5.1% <<<
>>> Test on task 16 : loss=198.932 | TAw acc= 92.8%, forg=  0.0%| TAg acc= 71.2%, forg=  0.8% <<<
>>> Test on task 17 : loss=210.792 | TAw acc= 92.2%, forg=  0.0%| TAg acc= 69.6%, forg=  0.0% <<<
>>> Test on task 18 : loss=217.130 | TAw acc= 98.1%, forg=  0.0%| TAg acc= 83.3%, forg=  0.0% <<<
>>> Test on task 19 : loss=229.764 | TAw acc= 88.5%, forg=  0.0%| TAg acc= 47.3%, forg=  0.8% <<<
>>> Test on task 20 : loss=241.948 | TAw acc= 90.9%, forg=  0.0%| TAg acc= 52.1%, forg=  0.0% <<<
Save at k=100/icarl_wisdm_3/wisdm_flex_icarl
======
LLL_Net(
  (model): SimpleMLP(
    (fc1): Linear(in_features=91, out_features=1000, bias=True)
    (fc2): Sequential()
  )
  (heads): ModuleList(
    (0): Linear(in_features=1000, out_features=34, bias=True)
    (1): Linear(in_features=1000, out_features=20, bias=True)
    (2): Linear(in_features=1000, out_features=20, bias=True)
    (3): Linear(in_features=1000, out_features=20, bias=True)
    (4): Linear(in_features=1000, out_features=20, bias=True)
    (5): Linear(in_features=1000, out_features=20, bias=True)
    (6): Linear(in_features=1000, out_features=20, bias=True)
    (7): Linear(in_features=1000, out_features=20, bias=True)
    (8): Linear(in_features=1000, out_features=20, bias=True)
    (9): Linear(in_features=1000, out_features=20, bias=True)
    (10): Linear(in_features=1000, out_features=20, bias=True)
    (11): Linear(in_features=1000, out_features=20, bias=True)
    (12): Linear(in_features=1000, out_features=20, bias=True)
    (13): Linear(in_features=1000, out_features=20, bias=True)
    (14): Linear(in_features=1000, out_features=20, bias=True)
    (15): Linear(in_features=1000, out_features=20, bias=True)
    (16): Linear(in_features=1000, out_features=20, bias=True)
    (17): Linear(in_features=1000, out_features=20, bias=True)
    (18): Linear(in_features=1000, out_features=20, bias=True)
    (19): Linear(in_features=1000, out_features=20, bias=True)
    (20): Linear(in_features=1000, out_features=20, bias=True)
  )
)
======

************************************************************************************************************
Task 21
************************************************************************************************************
| Epoch   1, time= 10.2s | Train: skip eval | Valid: time=  0.3s loss=254.763, TAw acc=  5.1% | *
| Epoch   2, time= 10.4s | Train: skip eval | Valid: time=  0.3s loss=254.732, TAw acc=  5.1% | *
…
>>> Test on task 16 : loss=198.183 | TAw acc= 92.8%, forg=  0.0%| TAg acc= 68.0%, forg=  4.0% <<<
>>> Test on task 17 : loss=209.992 | TAw acc= 92.2%, forg=  0.0%| TAg acc= 68.6%, forg=  1.0% <<<
>>> Test on task 18 : loss=216.248 | TAw acc= 98.1%, forg=  0.0%| TAg acc= 83.3%, forg=  0.0% <<<
>>> Test on task 19 : loss=229.021 | TAw acc= 88.5%, forg=  0.0%| TAg acc= 47.3%, forg=  0.8% <<<
>>> Test on task 20 : loss=241.514 | TAw acc= 90.9%, forg=  0.0%| TAg acc= 52.1%, forg=  0.0% <<<
>>> Test on task 21 : loss=247.694 | TAw acc= 86.9%, forg=  0.0%| TAg acc= 59.8%, forg=  0.0% <<<
Save at k=100/icarl_wisdm_3/wisdm_flex_icarl
======
LLL_Net(
  (model): SimpleMLP(
    (fc1): Linear(in_features=91, out_features=1000, bias=True)
    (fc2): Sequential()
  )
  (heads): ModuleList(
    (0): Linear(in_features=1000, out_features=34, bias=True)
    (1): Linear(in_features=1000, out_features=20, bias=True)
    (2): Linear(in_features=1000, out_features=20, bias=True)
    (3): Linear(in_features=1000, out_features=20, bias=True)
    (4): Linear(in_features=1000, out_features=20, bias=True)
    (5): Linear(in_features=1000, out_features=20, bias=True)
    (6): Linear(in_features=1000, out_features=20, bias=True)
    (7): Linear(in_features=1000, out_features=20, bias=True)
    (8): Linear(in_features=1000, out_features=20, bias=True)
    (9): Linear(in_features=1000, out_features=20, bias=True)
    (10): Linear(in_features=1000, out_features=20, bias=True)
    (11): Linear(in_features=1000, out_features=20, bias=True)
    (12): Linear(in_features=1000, out_features=20, bias=True)
    (13): Linear(in_features=1000, out_features=20, bias=True)
    (14): Linear(in_features=1000, out_features=20, bias=True)
    (15): Linear(in_features=1000, out_features=20, bias=True)
    (16): Linear(in_features=1000, out_features=20, bias=True)
    (17): Linear(in_features=1000, out_features=20, bias=True)
    (18): Linear(in_features=1000, out_features=20, bias=True)
    (19): Linear(in_features=1000, out_features=20, bias=True)
    (20): Linear(in_features=1000, out_features=20, bias=True)
    (21): Linear(in_features=1000, out_features=20, bias=True)
  )
)
======

************************************************************************************************************
Task 22
************************************************************************************************************
| Epoch   1, time= 11.7s | Train: skip eval | Valid: time=  0.3s loss=263.374, TAw acc=  0.0% | *
| Epoch   2, time= 10.9s | Train: skip eval | Valid: time=  0.3s loss=263.338, TAw acc=  2.5% | *
…
>>> Test on task 17 : loss=209.289 | TAw acc= 92.2%, forg=  0.0%| TAg acc= 68.6%, forg=  1.0% <<<
>>> Test on task 18 : loss=215.396 | TAw acc= 98.1%, forg=  0.0%| TAg acc= 82.4%, forg=  0.9% <<<
>>> Test on task 19 : loss=228.263 | TAw acc= 88.5%, forg=  0.0%| TAg acc= 47.3%, forg=  0.8% <<<
>>> Test on task 20 : loss=240.954 | TAw acc= 90.9%, forg=  0.0%| TAg acc= 52.1%, forg=  0.0% <<<
>>> Test on task 21 : loss=247.221 | TAw acc= 86.9%, forg=  0.0%| TAg acc= 58.9%, forg=  0.9% <<<
>>> Test on task 22 : loss=258.513 | TAw acc= 90.7%, forg=  0.0%| TAg acc= 60.2%, forg=  0.0% <<<
Save at k=100/icarl_wisdm_3/wisdm_flex_icarl
======
LLL_Net(
  (model): SimpleMLP(
    (fc1): Linear(in_features=91, out_features=1000, bias=True)
    (fc2): Sequential()
  )
  (heads): ModuleList(
    (0): Linear(in_features=1000, out_features=34, bias=True)
    (1): Linear(in_features=1000, out_features=20, bias=True)
    (2): Linear(in_features=1000, out_features=20, bias=True)
    (3): Linear(in_features=1000, out_features=20, bias=True)
    (4): Linear(in_features=1000, out_features=20, bias=True)
    (5): Linear(in_features=1000, out_features=20, bias=True)
    (6): Linear(in_features=1000, out_features=20, bias=True)
    (7): Linear(in_features=1000, out_features=20, bias=True)
    (8): Linear(in_features=1000, out_features=20, bias=True)
    (9): Linear(in_features=1000, out_features=20, bias=True)
    (10): Linear(in_features=1000, out_features=20, bias=True)
    (11): Linear(in_features=1000, out_features=20, bias=True)
    (12): Linear(in_features=1000, out_features=20, bias=True)
    (13): Linear(in_features=1000, out_features=20, bias=True)
    (14): Linear(in_features=1000, out_features=20, bias=True)
    (15): Linear(in_features=1000, out_features=20, bias=True)
    (16): Linear(in_features=1000, out_features=20, bias=True)
    (17): Linear(in_features=1000, out_features=20, bias=True)
    (18): Linear(in_features=1000, out_features=20, bias=True)
    (19): Linear(in_features=1000, out_features=20, bias=True)
    (20): Linear(in_features=1000, out_features=20, bias=True)
    (21): Linear(in_features=1000, out_features=20, bias=True)
    (22): Linear(in_features=1000, out_features=20, bias=True)
  )
)
======

************************************************************************************************************
Task 23
************************************************************************************************************
| Epoch   1, time= 11.6s | Train: skip eval | Valid: time=  0.3s loss=276.746, TAw acc=  8.6% | *
| Epoch   2, time= 12.2s | Train: skip eval | Valid: time=  0.3s loss=276.712, TAw acc=  8.6% | *
…
>>> Test on task 18 : loss=214.581 | TAw acc= 98.1%, forg=  0.0%| TAg acc= 82.4%, forg=  0.9% <<<
>>> Test on task 19 : loss=227.509 | TAw acc= 88.5%, forg=  0.0%| TAg acc= 46.6%, forg=  1.5% <<<
>>> Test on task 20 : loss=240.227 | TAw acc= 90.9%, forg=  0.0%| TAg acc= 52.1%, forg=  0.0% <<<
>>> Test on task 21 : loss=246.591 | TAw acc= 86.9%, forg=  0.0%| TAg acc= 58.9%, forg=  0.9% <<<
>>> Test on task 22 : loss=257.906 | TAw acc= 90.7%, forg=  0.0%| TAg acc= 60.2%, forg=  0.0% <<<
>>> Test on task 23 : loss=267.839 | TAw acc= 94.5%, forg=  0.0%| TAg acc= 71.8%, forg=  0.0% <<<
Save at k=100/icarl_wisdm_3/wisdm_flex_icarl
======
LLL_Net(
  (model): SimpleMLP(
    (fc1): Linear(in_features=91, out_features=1000, bias=True)
    (fc2): Sequential()
  )
  (heads): ModuleList(
    (0): Linear(in_features=1000, out_features=34, bias=True)
    (1): Linear(in_features=1000, out_features=20, bias=True)
    (2): Linear(in_features=1000, out_features=20, bias=True)
    (3): Linear(in_features=1000, out_features=20, bias=True)
    (4): Linear(in_features=1000, out_features=20, bias=True)
    (5): Linear(in_features=1000, out_features=20, bias=True)
    (6): Linear(in_features=1000, out_features=20, bias=True)
    (7): Linear(in_features=1000, out_features=20, bias=True)
    (8): Linear(in_features=1000, out_features=20, bias=True)
    (9): Linear(in_features=1000, out_features=20, bias=True)
    (10): Linear(in_features=1000, out_features=20, bias=True)
    (11): Linear(in_features=1000, out_features=20, bias=True)
    (12): Linear(in_features=1000, out_features=20, bias=True)
    (13): Linear(in_features=1000, out_features=20, bias=True)
    (14): Linear(in_features=1000, out_features=20, bias=True)
    (15): Linear(in_features=1000, out_features=20, bias=True)
    (16): Linear(in_features=1000, out_features=20, bias=True)
    (17): Linear(in_features=1000, out_features=20, bias=True)
    (18): Linear(in_features=1000, out_features=20, bias=True)
    (19): Linear(in_features=1000, out_features=20, bias=True)
    (20): Linear(in_features=1000, out_features=20, bias=True)
    (21): Linear(in_features=1000, out_features=20, bias=True)
    (22): Linear(in_features=1000, out_features=20, bias=True)
    (23): Linear(in_features=1000, out_features=20, bias=True)
  )
)
======

************************************************************************************************************
Task 24
************************************************************************************************************
| Epoch   1, time= 12.8s | Train: skip eval | Valid: time=  0.3s loss=288.123, TAw acc=  0.0% | *
| Epoch   2, time= 12.1s | Train: skip eval | Valid: time=  0.3s loss=288.092, TAw acc=  0.0% | *
…
>>> Test on task 19 : loss=226.806 | TAw acc= 88.5%, forg=  0.0%| TAg acc= 46.6%, forg=  1.5% <<<
>>> Test on task 20 : loss=239.503 | TAw acc= 90.9%, forg=  0.0%| TAg acc= 52.1%, forg=  0.0% <<<
>>> Test on task 21 : loss=245.892 | TAw acc= 86.9%, forg=  0.0%| TAg acc= 58.9%, forg=  0.9% <<<
>>> Test on task 22 : loss=257.151 | TAw acc= 90.7%, forg=  0.0%| TAg acc= 60.2%, forg=  0.0% <<<
>>> Test on task 23 : loss=267.214 | TAw acc= 94.5%, forg=  0.0%| TAg acc= 71.8%, forg=  0.0% <<<
>>> Test on task 24 : loss=281.613 | TAw acc= 94.1%, forg=  0.0%| TAg acc= 72.5%, forg=  0.0% <<<
Save at k=100/icarl_wisdm_3/wisdm_flex_icarl
======
LLL_Net(
  (model): SimpleMLP(
    (fc1): Linear(in_features=91, out_features=1000, bias=True)
    (fc2): Sequential()
  )
  (heads): ModuleList(
    (0): Linear(in_features=1000, out_features=34, bias=True)
    (1): Linear(in_features=1000, out_features=20, bias=True)
    (2): Linear(in_features=1000, out_features=20, bias=True)
    (3): Linear(in_features=1000, out_features=20, bias=True)
    (4): Linear(in_features=1000, out_features=20, bias=True)
    (5): Linear(in_features=1000, out_features=20, bias=True)
    (6): Linear(in_features=1000, out_features=20, bias=True)
    (7): Linear(in_features=1000, out_features=20, bias=True)
    (8): Linear(in_features=1000, out_features=20, bias=True)
    (9): Linear(in_features=1000, out_features=20, bias=True)
    (10): Linear(in_features=1000, out_features=20, bias=True)
    (11): Linear(in_features=1000, out_features=20, bias=True)
    (12): Linear(in_features=1000, out_features=20, bias=True)
    (13): Linear(in_features=1000, out_features=20, bias=True)
    (14): Linear(in_features=1000, out_features=20, bias=True)
    (15): Linear(in_features=1000, out_features=20, bias=True)
    (16): Linear(in_features=1000, out_features=20, bias=True)
    (17): Linear(in_features=1000, out_features=20, bias=True)
    (18): Linear(in_features=1000, out_features=20, bias=True)
    (19): Linear(in_features=1000, out_features=20, bias=True)
    (20): Linear(in_features=1000, out_features=20, bias=True)
    (21): Linear(in_features=1000, out_features=20, bias=True)
    (22): Linear(in_features=1000, out_features=20, bias=True)
    (23): Linear(in_features=1000, out_features=20, bias=True)
    (24): Linear(in_features=1000, out_features=20, bias=True)
  )
)
======

************************************************************************************************************
Task 25
************************************************************************************************************
| Epoch   1, time= 13.6s | Train: skip eval | Valid: time=  0.3s loss=285.167, TAw acc=  8.5% | *
| Epoch   2, time= 13.5s | Train: skip eval | Valid: time=  0.3s loss=285.112, TAw acc=  8.5% | *
…
>>> Test on task 20 : loss=238.855 | TAw acc= 90.9%, forg=  0.0%| TAg acc= 52.1%, forg=  0.0% <<<
>>> Test on task 21 : loss=245.234 | TAw acc= 86.9%, forg=  0.0%| TAg acc= 58.9%, forg=  0.9% <<<
>>> Test on task 22 : loss=256.466 | TAw acc= 90.7%, forg=  0.0%| TAg acc= 60.2%, forg=  0.0% <<<
>>> Test on task 23 : loss=266.466 | TAw acc= 94.5%, forg=  0.0%| TAg acc= 71.8%, forg=  0.0% <<<
>>> Test on task 24 : loss=280.855 | TAw acc= 94.1%, forg=  0.0%| TAg acc= 72.5%, forg=  0.0% <<<
>>> Test on task 25 : loss=277.432 | TAw acc= 95.5%, forg=  0.0%| TAg acc= 75.7%, forg=  0.0% <<<
Save at k=100/icarl_wisdm_3/wisdm_flex_icarl
======
LLL_Net(
  (model): SimpleMLP(
    (fc1): Linear(in_features=91, out_features=1000, bias=True)
    (fc2): Sequential()
  )
  (heads): ModuleList(
    (0): Linear(in_features=1000, out_features=34, bias=True)
    (1): Linear(in_features=1000, out_features=20, bias=True)
    (2): Linear(in_features=1000, out_features=20, bias=True)
    (3): Linear(in_features=1000, out_features=20, bias=True)
    (4): Linear(in_features=1000, out_features=20, bias=True)
    (5): Linear(in_features=1000, out_features=20, bias=True)
    (6): Linear(in_features=1000, out_features=20, bias=True)
    (7): Linear(in_features=1000, out_features=20, bias=True)
    (8): Linear(in_features=1000, out_features=20, bias=True)
    (9): Linear(in_features=1000, out_features=20, bias=True)
    (10): Linear(in_features=1000, out_features=20, bias=True)
    (11): Linear(in_features=1000, out_features=20, bias=True)
    (12): Linear(in_features=1000, out_features=20, bias=True)
    (13): Linear(in_features=1000, out_features=20, bias=True)
    (14): Linear(in_features=1000, out_features=20, bias=True)
    (15): Linear(in_features=1000, out_features=20, bias=True)
    (16): Linear(in_features=1000, out_features=20, bias=True)
    (17): Linear(in_features=1000, out_features=20, bias=True)
    (18): Linear(in_features=1000, out_features=20, bias=True)
    (19): Linear(in_features=1000, out_features=20, bias=True)
    (20): Linear(in_features=1000, out_features=20, bias=True)
    (21): Linear(in_features=1000, out_features=20, bias=True)
    (22): Linear(in_features=1000, out_features=20, bias=True)
    (23): Linear(in_features=1000, out_features=20, bias=True)
    (24): Linear(in_features=1000, out_features=20, bias=True)
    (25): Linear(in_features=1000, out_features=20, bias=True)
  )
)
======

************************************************************************************************************
Task 26
************************************************************************************************************
| Epoch   1, time= 14.6s | Train: skip eval | Valid: time=  0.3s loss=296.250, TAw acc=  6.9% | *
| Epoch   2, time= 14.4s | Train: skip eval | Valid: time=  0.3s loss=296.197, TAw acc=  6.9% | *
…
>>> Test on task 21 : loss=244.589 | TAw acc= 86.9%, forg=  0.0%| TAg acc= 57.9%, forg=  1.9% <<<
>>> Test on task 22 : loss=255.733 | TAw acc= 90.7%, forg=  0.0%| TAg acc= 60.2%, forg=  0.0% <<<
>>> Test on task 23 : loss=265.701 | TAw acc= 94.5%, forg=  0.0%| TAg acc= 71.8%, forg=  0.0% <<<
>>> Test on task 24 : loss=280.027 | TAw acc= 94.1%, forg=  0.0%| TAg acc= 72.5%, forg=  0.0% <<<
>>> Test on task 25 : loss=277.003 | TAw acc= 95.5%, forg=  0.0%| TAg acc= 75.7%, forg=  0.0% <<<
>>> Test on task 26 : loss=291.501 | TAw acc= 88.9%, forg=  0.0%| TAg acc= 62.4%, forg=  0.0% <<<
Save at k=100/icarl_wisdm_3/wisdm_flex_icarl
======
LLL_Net(
  (model): SimpleMLP(
    (fc1): Linear(in_features=91, out_features=1000, bias=True)
    (fc2): Sequential()
  )
  (heads): ModuleList(
    (0): Linear(in_features=1000, out_features=34, bias=True)
    (1): Linear(in_features=1000, out_features=20, bias=True)
    (2): Linear(in_features=1000, out_features=20, bias=True)
    (3): Linear(in_features=1000, out_features=20, bias=True)
    (4): Linear(in_features=1000, out_features=20, bias=True)
    (5): Linear(in_features=1000, out_features=20, bias=True)
    (6): Linear(in_features=1000, out_features=20, bias=True)
    (7): Linear(in_features=1000, out_features=20, bias=True)
    (8): Linear(in_features=1000, out_features=20, bias=True)
    (9): Linear(in_features=1000, out_features=20, bias=True)
    (10): Linear(in_features=1000, out_features=20, bias=True)
    (11): Linear(in_features=1000, out_features=20, bias=True)
    (12): Linear(in_features=1000, out_features=20, bias=True)
    (13): Linear(in_features=1000, out_features=20, bias=True)
    (14): Linear(in_features=1000, out_features=20, bias=True)
    (15): Linear(in_features=1000, out_features=20, bias=True)
    (16): Linear(in_features=1000, out_features=20, bias=True)
    (17): Linear(in_features=1000, out_features=20, bias=True)
    (18): Linear(in_features=1000, out_features=20, bias=True)
    (19): Linear(in_features=1000, out_features=20, bias=True)
    (20): Linear(in_features=1000, out_features=20, bias=True)
    (21): Linear(in_features=1000, out_features=20, bias=True)
    (22): Linear(in_features=1000, out_features=20, bias=True)
    (23): Linear(in_features=1000, out_features=20, bias=True)
    (24): Linear(in_features=1000, out_features=20, bias=True)
    (25): Linear(in_features=1000, out_features=20, bias=True)
    (26): Linear(in_features=1000, out_features=20, bias=True)
  )
)
======

************************************************************************************************************
Task 27
************************************************************************************************************
| Epoch   1, time= 15.5s | Train: skip eval | Valid: time=  0.3s loss=315.207, TAw acc= 11.1% | *
| Epoch   2, time= 14.9s | Train: skip eval | Valid: time=  0.3s loss=315.146, TAw acc= 11.1% | *
…
>>> Test on task 22 : loss=255.033 | TAw acc= 90.7%, forg=  0.0%| TAg acc= 60.2%, forg=  0.0% <<<
>>> Test on task 23 : loss=264.967 | TAw acc= 94.5%, forg=  0.0%| TAg acc= 71.8%, forg=  0.0% <<<
>>> Test on task 24 : loss=279.227 | TAw acc= 94.1%, forg=  0.0%| TAg acc= 72.5%, forg=  0.0% <<<
>>> Test on task 25 : loss=276.333 | TAw acc= 95.5%, forg=  0.0%| TAg acc= 75.7%, forg=  0.0% <<<
>>> Test on task 26 : loss=291.106 | TAw acc= 88.9%, forg=  0.0%| TAg acc= 60.7%, forg=  1.7% <<<
>>> Test on task 27 : loss=302.662 | TAw acc= 97.5%, forg=  0.0%| TAg acc= 63.0%, forg=  0.0% <<<
Save at k=100/icarl_wisdm_3/wisdm_flex_icarl
======
LLL_Net(
  (model): SimpleMLP(
    (fc1): Linear(in_features=91, out_features=1000, bias=True)
    (fc2): Sequential()
  )
  (heads): ModuleList(
    (0): Linear(in_features=1000, out_features=34, bias=True)
    (1): Linear(in_features=1000, out_features=20, bias=True)
    (2): Linear(in_features=1000, out_features=20, bias=True)
    (3): Linear(in_features=1000, out_features=20, bias=True)
    (4): Linear(in_features=1000, out_features=20, bias=True)
    (5): Linear(in_features=1000, out_features=20, bias=True)
    (6): Linear(in_features=1000, out_features=20, bias=True)
    (7): Linear(in_features=1000, out_features=20, bias=True)
    (8): Linear(in_features=1000, out_features=20, bias=True)
    (9): Linear(in_features=1000, out_features=20, bias=True)
    (10): Linear(in_features=1000, out_features=20, bias=True)
    (11): Linear(in_features=1000, out_features=20, bias=True)
    (12): Linear(in_features=1000, out_features=20, bias=True)
    (13): Linear(in_features=1000, out_features=20, bias=True)
    (14): Linear(in_features=1000, out_features=20, bias=True)
    (15): Linear(in_features=1000, out_features=20, bias=True)
    (16): Linear(in_features=1000, out_features=20, bias=True)
    (17): Linear(in_features=1000, out_features=20, bias=True)
    (18): Linear(in_features=1000, out_features=20, bias=True)
    (19): Linear(in_features=1000, out_features=20, bias=True)
    (20): Linear(in_features=1000, out_features=20, bias=True)
    (21): Linear(in_features=1000, out_features=20, bias=True)
    (22): Linear(in_features=1000, out_features=20, bias=True)
    (23): Linear(in_features=1000, out_features=20, bias=True)
    (24): Linear(in_features=1000, out_features=20, bias=True)
    (25): Linear(in_features=1000, out_features=20, bias=True)
    (26): Linear(in_features=1000, out_features=20, bias=True)
    (27): Linear(in_features=1000, out_features=20, bias=True)
  )
)
======

************************************************************************************************************
Task 28
************************************************************************************************************
| Epoch   1, time= 16.7s | Train: skip eval | Valid: time=  0.3s loss=310.193, TAw acc=  1.2% | *
| Epoch   2, time= 16.4s | Train: skip eval | Valid: time=  0.3s loss=310.106, TAw acc=  1.2% | *
…
>>> Test on task 23 : loss=264.241 | TAw acc= 94.5%, forg=  0.0%| TAg acc= 71.8%, forg=  0.0% <<<
>>> Test on task 24 : loss=278.395 | TAw acc= 94.1%, forg=  0.0%| TAg acc= 72.5%, forg=  0.0% <<<
>>> Test on task 25 : loss=275.653 | TAw acc= 95.5%, forg=  0.0%| TAg acc= 75.7%, forg=  0.0% <<<
>>> Test on task 26 : loss=290.487 | TAw acc= 88.9%, forg=  0.0%| TAg acc= 60.7%, forg=  1.7% <<<
>>> Test on task 27 : loss=302.182 | TAw acc= 97.5%, forg=  0.0%| TAg acc= 63.0%, forg=  0.0% <<<
>>> Test on task 28 : loss=300.510 | TAw acc= 97.2%, forg=  0.0%| TAg acc= 74.1%, forg=  0.0% <<<
Save at k=100/icarl_wisdm_3/wisdm_flex_icarl
======
LLL_Net(
  (model): SimpleMLP(
    (fc1): Linear(in_features=91, out_features=1000, bias=True)
    (fc2): Sequential()
  )
  (heads): ModuleList(
    (0): Linear(in_features=1000, out_features=34, bias=True)
    (1): Linear(in_features=1000, out_features=20, bias=True)
    (2): Linear(in_features=1000, out_features=20, bias=True)
    (3): Linear(in_features=1000, out_features=20, bias=True)
    (4): Linear(in_features=1000, out_features=20, bias=True)
    (5): Linear(in_features=1000, out_features=20, bias=True)
    (6): Linear(in_features=1000, out_features=20, bias=True)
    (7): Linear(in_features=1000, out_features=20, bias=True)
    (8): Linear(in_features=1000, out_features=20, bias=True)
    (9): Linear(in_features=1000, out_features=20, bias=True)
    (10): Linear(in_features=1000, out_features=20, bias=True)
    (11): Linear(in_features=1000, out_features=20, bias=True)
    (12): Linear(in_features=1000, out_features=20, bias=True)
    (13): Linear(in_features=1000, out_features=20, bias=True)
    (14): Linear(in_features=1000, out_features=20, bias=True)
    (15): Linear(in_features=1000, out_features=20, bias=True)
    (16): Linear(in_features=1000, out_features=20, bias=True)
    (17): Linear(in_features=1000, out_features=20, bias=True)
    (18): Linear(in_features=1000, out_features=20, bias=True)
    (19): Linear(in_features=1000, out_features=20, bias=True)
    (20): Linear(in_features=1000, out_features=20, bias=True)
    (21): Linear(in_features=1000, out_features=20, bias=True)
    (22): Linear(in_features=1000, out_features=20, bias=True)
    (23): Linear(in_features=1000, out_features=20, bias=True)
    (24): Linear(in_features=1000, out_features=20, bias=True)
    (25): Linear(in_features=1000, out_features=20, bias=True)
    (26): Linear(in_features=1000, out_features=20, bias=True)
    (27): Linear(in_features=1000, out_features=20, bias=True)
    (28): Linear(in_features=1000, out_features=20, bias=True)
  )
)
======

************************************************************************************************************
Task 29
************************************************************************************************************
| Epoch   1, time= 17.4s | Train: skip eval | Valid: time=  0.3s loss=331.534, TAw acc= 14.5% | *
| Epoch   2, time= 17.1s | Train: skip eval | Valid: time=  0.3s loss=331.497, TAw acc= 14.5% | *
…
>>> Test on task 24 : loss=277.610 | TAw acc= 94.1%, forg=  0.0%| TAg acc= 72.5%, forg=  0.0% <<<
>>> Test on task 25 : loss=274.895 | TAw acc= 95.5%, forg=  0.0%| TAg acc= 75.7%, forg=  0.0% <<<
>>> Test on task 26 : loss=289.792 | TAw acc= 88.9%, forg=  0.0%| TAg acc= 60.7%, forg=  1.7% <<<
>>> Test on task 27 : loss=301.501 | TAw acc= 97.5%, forg=  0.0%| TAg acc= 63.0%, forg=  0.0% <<<
>>> Test on task 28 : loss=299.985 | TAw acc= 97.2%, forg=  0.0%| TAg acc= 74.1%, forg=  0.0% <<<
>>> Test on task 29 : loss=326.406 | TAw acc= 94.6%, forg=  0.0%| TAg acc= 66.1%, forg=  0.0% <<<
Save at k=100/icarl_wisdm_3/wisdm_flex_icarl
======
LLL_Net(
  (model): SimpleMLP(
    (fc1): Linear(in_features=91, out_features=1000, bias=True)
    (fc2): Sequential()
  )
  (heads): ModuleList(
    (0): Linear(in_features=1000, out_features=34, bias=True)
    (1): Linear(in_features=1000, out_features=20, bias=True)
    (2): Linear(in_features=1000, out_features=20, bias=True)
    (3): Linear(in_features=1000, out_features=20, bias=True)
    (4): Linear(in_features=1000, out_features=20, bias=True)
    (5): Linear(in_features=1000, out_features=20, bias=True)
    (6): Linear(in_features=1000, out_features=20, bias=True)
    (7): Linear(in_features=1000, out_features=20, bias=True)
    (8): Linear(in_features=1000, out_features=20, bias=True)
    (9): Linear(in_features=1000, out_features=20, bias=True)
    (10): Linear(in_features=1000, out_features=20, bias=True)
    (11): Linear(in_features=1000, out_features=20, bias=True)
    (12): Linear(in_features=1000, out_features=20, bias=True)
    (13): Linear(in_features=1000, out_features=20, bias=True)
    (14): Linear(in_features=1000, out_features=20, bias=True)
    (15): Linear(in_features=1000, out_features=20, bias=True)
    (16): Linear(in_features=1000, out_features=20, bias=True)
    (17): Linear(in_features=1000, out_features=20, bias=True)
    (18): Linear(in_features=1000, out_features=20, bias=True)
    (19): Linear(in_features=1000, out_features=20, bias=True)
    (20): Linear(in_features=1000, out_features=20, bias=True)
    (21): Linear(in_features=1000, out_features=20, bias=True)
    (22): Linear(in_features=1000, out_features=20, bias=True)
    (23): Linear(in_features=1000, out_features=20, bias=True)
    (24): Linear(in_features=1000, out_features=20, bias=True)
    (25): Linear(in_features=1000, out_features=20, bias=True)
    (26): Linear(in_features=1000, out_features=20, bias=True)
    (27): Linear(in_features=1000, out_features=20, bias=True)
    (28): Linear(in_features=1000, out_features=20, bias=True)
    (29): Linear(in_features=1000, out_features=20, bias=True)
  )
)
======

************************************************************************************************************
Task 30
************************************************************************************************************
| Epoch   1, time= 18.5s | Train: skip eval | Valid: time=  0.4s loss=334.753, TAw acc=  2.2% | *
| Epoch   2, time= 18.4s | Train: skip eval | Valid: time=  0.3s loss=334.693, TAw acc=  4.4% | *
…
>>> Test on task 25 : loss=274.229 | TAw acc= 95.5%, forg=  0.0%| TAg acc= 75.7%, forg=  0.0% <<<
>>> Test on task 26 : loss=289.116 | TAw acc= 88.9%, forg=  0.0%| TAg acc= 59.8%, forg=  2.6% <<<
>>> Test on task 27 : loss=300.815 | TAw acc= 97.5%, forg=  0.0%| TAg acc= 62.2%, forg=  0.8% <<<
>>> Test on task 28 : loss=299.301 | TAw acc= 97.2%, forg=  0.0%| TAg acc= 74.1%, forg=  0.0% <<<
>>> Test on task 29 : loss=325.849 | TAw acc= 94.6%, forg=  0.0%| TAg acc= 66.1%, forg=  0.0% <<<
>>> Test on task 30 : loss=325.498 | TAw acc= 90.9%, forg=  0.0%| TAg acc= 70.2%, forg=  0.0% <<<
Save at k=100/icarl_wisdm_3/wisdm_flex_icarl
======
LLL_Net(
  (model): SimpleMLP(
    (fc1): Linear(in_features=91, out_features=1000, bias=True)
    (fc2): Sequential()
  )
  (heads): ModuleList(
    (0): Linear(in_features=1000, out_features=34, bias=True)
    (1): Linear(in_features=1000, out_features=20, bias=True)
    (2): Linear(in_features=1000, out_features=20, bias=True)
    (3): Linear(in_features=1000, out_features=20, bias=True)
    (4): Linear(in_features=1000, out_features=20, bias=True)
    (5): Linear(in_features=1000, out_features=20, bias=True)
    (6): Linear(in_features=1000, out_features=20, bias=True)
    (7): Linear(in_features=1000, out_features=20, bias=True)
    (8): Linear(in_features=1000, out_features=20, bias=True)
    (9): Linear(in_features=1000, out_features=20, bias=True)
    (10): Linear(in_features=1000, out_features=20, bias=True)
    (11): Linear(in_features=1000, out_features=20, bias=True)
    (12): Linear(in_features=1000, out_features=20, bias=True)
    (13): Linear(in_features=1000, out_features=20, bias=True)
    (14): Linear(in_features=1000, out_features=20, bias=True)
    (15): Linear(in_features=1000, out_features=20, bias=True)
    (16): Linear(in_features=1000, out_features=20, bias=True)
    (17): Linear(in_features=1000, out_features=20, bias=True)
    (18): Linear(in_features=1000, out_features=20, bias=True)
    (19): Linear(in_features=1000, out_features=20, bias=True)
    (20): Linear(in_features=1000, out_features=20, bias=True)
    (21): Linear(in_features=1000, out_features=20, bias=True)
    (22): Linear(in_features=1000, out_features=20, bias=True)
    (23): Linear(in_features=1000, out_features=20, bias=True)
    (24): Linear(in_features=1000, out_features=20, bias=True)
    (25): Linear(in_features=1000, out_features=20, bias=True)
    (26): Linear(in_features=1000, out_features=20, bias=True)
    (27): Linear(in_features=1000, out_features=20, bias=True)
    (28): Linear(in_features=1000, out_features=20, bias=True)
    (29): Linear(in_features=1000, out_features=20, bias=True)
    (30): Linear(in_features=1000, out_features=20, bias=True)
  )
)
======

************************************************************************************************************
Task 31
************************************************************************************************************
| Epoch   1, time= 18.6s | Train: skip eval | Valid: time=  0.3s loss=335.996, TAw acc=  7.9% | *
| Epoch   2, time= 19.0s | Train: skip eval | Valid: time=  0.4s loss=335.940, TAw acc= 12.4% | *
…
>>> Test on task 26 : loss=288.437 | TAw acc= 88.9%, forg=  0.0%| TAg acc= 59.0%, forg=  3.4% <<<
>>> Test on task 27 : loss=300.119 | TAw acc= 97.5%, forg=  0.0%| TAg acc= 61.3%, forg=  1.7% <<<
>>> Test on task 28 : loss=298.631 | TAw acc= 97.2%, forg=  0.0%| TAg acc= 73.1%, forg=  0.9% <<<
>>> Test on task 29 : loss=325.141 | TAw acc= 94.6%, forg=  0.0%| TAg acc= 66.1%, forg=  0.0% <<<
>>> Test on task 30 : loss=324.955 | TAw acc= 90.9%, forg=  0.0%| TAg acc= 70.2%, forg=  0.0% <<<
>>> Test on task 31 : loss=337.580 | TAw acc= 92.4%, forg=  0.0%| TAg acc= 73.1%, forg=  0.0% <<<
Save at k=100/icarl_wisdm_3/wisdm_flex_icarl
======
LLL_Net(
  (model): SimpleMLP(
    (fc1): Linear(in_features=91, out_features=1000, bias=True)
    (fc2): Sequential()
  )
  (heads): ModuleList(
    (0): Linear(in_features=1000, out_features=34, bias=True)
    (1): Linear(in_features=1000, out_features=20, bias=True)
    (2): Linear(in_features=1000, out_features=20, bias=True)
    (3): Linear(in_features=1000, out_features=20, bias=True)
    (4): Linear(in_features=1000, out_features=20, bias=True)
    (5): Linear(in_features=1000, out_features=20, bias=True)
    (6): Linear(in_features=1000, out_features=20, bias=True)
    (7): Linear(in_features=1000, out_features=20, bias=True)
    (8): Linear(in_features=1000, out_features=20, bias=True)
    (9): Linear(in_features=1000, out_features=20, bias=True)
    (10): Linear(in_features=1000, out_features=20, bias=True)
    (11): Linear(in_features=1000, out_features=20, bias=True)
    (12): Linear(in_features=1000, out_features=20, bias=True)
    (13): Linear(in_features=1000, out_features=20, bias=True)
    (14): Linear(in_features=1000, out_features=20, bias=True)
    (15): Linear(in_features=1000, out_features=20, bias=True)
    (16): Linear(in_features=1000, out_features=20, bias=True)
    (17): Linear(in_features=1000, out_features=20, bias=True)
    (18): Linear(in_features=1000, out_features=20, bias=True)
    (19): Linear(in_features=1000, out_features=20, bias=True)
    (20): Linear(in_features=1000, out_features=20, bias=True)
    (21): Linear(in_features=1000, out_features=20, bias=True)
    (22): Linear(in_features=1000, out_features=20, bias=True)
    (23): Linear(in_features=1000, out_features=20, bias=True)
    (24): Linear(in_features=1000, out_features=20, bias=True)
    (25): Linear(in_features=1000, out_features=20, bias=True)
    (26): Linear(in_features=1000, out_features=20, bias=True)
    (27): Linear(in_features=1000, out_features=20, bias=True)
    (28): Linear(in_features=1000, out_features=20, bias=True)
    (29): Linear(in_features=1000, out_features=20, bias=True)
    (30): Linear(in_features=1000, out_features=20, bias=True)
    (31): Linear(in_features=1000, out_features=20, bias=True)
  )
)
======

************************************************************************************************************
Task 32
************************************************************************************************************
| Epoch   1, time= 19.6s | Train: skip eval | Valid: time=  0.4s loss=356.321, TAw acc=  3.7% | *
| Epoch   2, time= 20.3s | Train: skip eval | Valid: time=  0.4s loss=356.278, TAw acc=  4.9% | *
…
>>> Test on task 27 : loss=299.473 | TAw acc= 97.5%, forg=  0.0%| TAg acc= 61.3%, forg=  1.7% <<<
>>> Test on task 28 : loss=297.916 | TAw acc= 97.2%, forg=  0.0%| TAg acc= 73.1%, forg=  0.9% <<<
>>> Test on task 29 : loss=324.420 | TAw acc= 94.6%, forg=  0.0%| TAg acc= 66.1%, forg=  0.0% <<<
>>> Test on task 30 : loss=324.226 | TAw acc= 90.9%, forg=  0.0%| TAg acc= 70.2%, forg=  0.0% <<<
>>> Test on task 31 : loss=336.949 | TAw acc= 92.4%, forg=  0.0%| TAg acc= 73.1%, forg=  0.0% <<<
>>> Test on task 32 : loss=347.470 | TAw acc= 76.4%, forg=  0.0%| TAg acc= 51.8%, forg=  0.0% <<<
Save at k=100/icarl_wisdm_3/wisdm_flex_icarl
======
LLL_Net(
  (model): SimpleMLP(
    (fc1): Linear(in_features=91, out_features=1000, bias=True)
    (fc2): Sequential()
  )
  (heads): ModuleList(
    (0): Linear(in_features=1000, out_features=34, bias=True)
    (1): Linear(in_features=1000, out_features=20, bias=True)
    (2): Linear(in_features=1000, out_features=20, bias=True)
    (3): Linear(in_features=1000, out_features=20, bias=True)
    (4): Linear(in_features=1000, out_features=20, bias=True)
    (5): Linear(in_features=1000, out_features=20, bias=True)
    (6): Linear(in_features=1000, out_features=20, bias=True)
    (7): Linear(in_features=1000, out_features=20, bias=True)
    (8): Linear(in_features=1000, out_features=20, bias=True)
    (9): Linear(in_features=1000, out_features=20, bias=True)
    (10): Linear(in_features=1000, out_features=20, bias=True)
    (11): Linear(in_features=1000, out_features=20, bias=True)
    (12): Linear(in_features=1000, out_features=20, bias=True)
    (13): Linear(in_features=1000, out_features=20, bias=True)
    (14): Linear(in_features=1000, out_features=20, bias=True)
    (15): Linear(in_features=1000, out_features=20, bias=True)
    (16): Linear(in_features=1000, out_features=20, bias=True)
    (17): Linear(in_features=1000, out_features=20, bias=True)
    (18): Linear(in_features=1000, out_features=20, bias=True)
    (19): Linear(in_features=1000, out_features=20, bias=True)
    (20): Linear(in_features=1000, out_features=20, bias=True)
    (21): Linear(in_features=1000, out_features=20, bias=True)
    (22): Linear(in_features=1000, out_features=20, bias=True)
    (23): Linear(in_features=1000, out_features=20, bias=True)
    (24): Linear(in_features=1000, out_features=20, bias=True)
    (25): Linear(in_features=1000, out_features=20, bias=True)
    (26): Linear(in_features=1000, out_features=20, bias=True)
    (27): Linear(in_features=1000, out_features=20, bias=True)
    (28): Linear(in_features=1000, out_features=20, bias=True)
    (29): Linear(in_features=1000, out_features=20, bias=True)
    (30): Linear(in_features=1000, out_features=20, bias=True)
    (31): Linear(in_features=1000, out_features=20, bias=True)
    (32): Linear(in_features=1000, out_features=20, bias=True)
  )
)
======

************************************************************************************************************
Task 33
************************************************************************************************************
| Epoch   1, time= 21.6s | Train: skip eval | Valid: time=  0.4s loss=353.834, TAw acc=  5.5% | *
| Epoch   2, time= 20.9s | Train: skip eval | Valid: time=  0.3s loss=353.765, TAw acc=  5.5% | *
…
>>> Test on task 28 : loss=297.276 | TAw acc= 97.2%, forg=  0.0%| TAg acc= 72.2%, forg=  1.9% <<<
>>> Test on task 29 : loss=323.634 | TAw acc= 94.6%, forg=  0.0%| TAg acc= 66.1%, forg=  0.0% <<<
>>> Test on task 30 : loss=323.511 | TAw acc= 90.9%, forg=  0.0%| TAg acc= 69.4%, forg=  0.8% <<<
>>> Test on task 31 : loss=336.150 | TAw acc= 92.4%, forg=  0.0%| TAg acc= 73.1%, forg=  0.0% <<<
>>> Test on task 32 : loss=346.867 | TAw acc= 76.4%, forg=  0.0%| TAg acc= 51.8%, forg=  0.0% <<<
>>> Test on task 33 : loss=349.039 | TAw acc= 86.9%, forg=  0.0%| TAg acc= 67.2%, forg=  0.0% <<<
Save at k=100/icarl_wisdm_3/wisdm_flex_icarl
======
LLL_Net(
  (model): SimpleMLP(
    (fc1): Linear(in_features=91, out_features=1000, bias=True)
    (fc2): Sequential()
  )
  (heads): ModuleList(
    (0): Linear(in_features=1000, out_features=34, bias=True)
    (1): Linear(in_features=1000, out_features=20, bias=True)
    (2): Linear(in_features=1000, out_features=20, bias=True)
    (3): Linear(in_features=1000, out_features=20, bias=True)
    (4): Linear(in_features=1000, out_features=20, bias=True)
    (5): Linear(in_features=1000, out_features=20, bias=True)
    (6): Linear(in_features=1000, out_features=20, bias=True)
    (7): Linear(in_features=1000, out_features=20, bias=True)
    (8): Linear(in_features=1000, out_features=20, bias=True)
    (9): Linear(in_features=1000, out_features=20, bias=True)
    (10): Linear(in_features=1000, out_features=20, bias=True)
    (11): Linear(in_features=1000, out_features=20, bias=True)
    (12): Linear(in_features=1000, out_features=20, bias=True)
    (13): Linear(in_features=1000, out_features=20, bias=True)
    (14): Linear(in_features=1000, out_features=20, bias=True)
    (15): Linear(in_features=1000, out_features=20, bias=True)
    (16): Linear(in_features=1000, out_features=20, bias=True)
    (17): Linear(in_features=1000, out_features=20, bias=True)
    (18): Linear(in_features=1000, out_features=20, bias=True)
    (19): Linear(in_features=1000, out_features=20, bias=True)
    (20): Linear(in_features=1000, out_features=20, bias=True)
    (21): Linear(in_features=1000, out_features=20, bias=True)
    (22): Linear(in_features=1000, out_features=20, bias=True)
    (23): Linear(in_features=1000, out_features=20, bias=True)
    (24): Linear(in_features=1000, out_features=20, bias=True)
    (25): Linear(in_features=1000, out_features=20, bias=True)
    (26): Linear(in_features=1000, out_features=20, bias=True)
    (27): Linear(in_features=1000, out_features=20, bias=True)
    (28): Linear(in_features=1000, out_features=20, bias=True)
    (29): Linear(in_features=1000, out_features=20, bias=True)
    (30): Linear(in_features=1000, out_features=20, bias=True)
    (31): Linear(in_features=1000, out_features=20, bias=True)
    (32): Linear(in_features=1000, out_features=20, bias=True)
    (33): Linear(in_features=1000, out_features=20, bias=True)
  )
)
======

************************************************************************************************************
Task 34
************************************************************************************************************
| Epoch   1, time= 22.0s | Train: skip eval | Valid: time=  0.3s loss=373.874, TAw acc=  1.4% | *
| Epoch   2, time= 21.7s | Train: skip eval | Valid: time=  0.3s loss=373.834, TAw acc=  1.4% | *
…
>>> Test on task 29 : loss=322.876 | TAw acc= 94.6%, forg=  0.0%| TAg acc= 66.1%, forg=  0.0% <<<
>>> Test on task 30 : loss=322.728 | TAw acc= 90.9%, forg=  0.0%| TAg acc= 68.6%, forg=  1.7% <<<
>>> Test on task 31 : loss=335.284 | TAw acc= 92.4%, forg=  0.0%| TAg acc= 72.3%, forg=  0.8% <<<
>>> Test on task 32 : loss=346.098 | TAw acc= 76.4%, forg=  0.0%| TAg acc= 51.8%, forg=  0.0% <<<
>>> Test on task 33 : loss=348.570 | TAw acc= 86.9%, forg=  0.0%| TAg acc= 67.2%, forg=  0.0% <<<
>>> Test on task 34 : loss=361.862 | TAw acc= 95.0%, forg=  0.0%| TAg acc= 60.0%, forg=  0.0% <<<
Save at k=100/icarl_wisdm_3/wisdm_flex_icarl
======
LLL_Net(
  (model): SimpleMLP(
    (fc1): Linear(in_features=91, out_features=1000, bias=True)
    (fc2): Sequential()
  )
  (heads): ModuleList(
    (0): Linear(in_features=1000, out_features=34, bias=True)
    (1): Linear(in_features=1000, out_features=20, bias=True)
    (2): Linear(in_features=1000, out_features=20, bias=True)
    (3): Linear(in_features=1000, out_features=20, bias=True)
    (4): Linear(in_features=1000, out_features=20, bias=True)
    (5): Linear(in_features=1000, out_features=20, bias=True)
    (6): Linear(in_features=1000, out_features=20, bias=True)
    (7): Linear(in_features=1000, out_features=20, bias=True)
    (8): Linear(in_features=1000, out_features=20, bias=True)
    (9): Linear(in_features=1000, out_features=20, bias=True)
    (10): Linear(in_features=1000, out_features=20, bias=True)
    (11): Linear(in_features=1000, out_features=20, bias=True)
    (12): Linear(in_features=1000, out_features=20, bias=True)
    (13): Linear(in_features=1000, out_features=20, bias=True)
    (14): Linear(in_features=1000, out_features=20, bias=True)
    (15): Linear(in_features=1000, out_features=20, bias=True)
    (16): Linear(in_features=1000, out_features=20, bias=True)
    (17): Linear(in_features=1000, out_features=20, bias=True)
    (18): Linear(in_features=1000, out_features=20, bias=True)
    (19): Linear(in_features=1000, out_features=20, bias=True)
    (20): Linear(in_features=1000, out_features=20, bias=True)
    (21): Linear(in_features=1000, out_features=20, bias=True)
    (22): Linear(in_features=1000, out_features=20, bias=True)
    (23): Linear(in_features=1000, out_features=20, bias=True)
    (24): Linear(in_features=1000, out_features=20, bias=True)
    (25): Linear(in_features=1000, out_features=20, bias=True)
    (26): Linear(in_features=1000, out_features=20, bias=True)
    (27): Linear(in_features=1000, out_features=20, bias=True)
    (28): Linear(in_features=1000, out_features=20, bias=True)
    (29): Linear(in_features=1000, out_features=20, bias=True)
    (30): Linear(in_features=1000, out_features=20, bias=True)
    (31): Linear(in_features=1000, out_features=20, bias=True)
    (32): Linear(in_features=1000, out_features=20, bias=True)
    (33): Linear(in_features=1000, out_features=20, bias=True)
    (34): Linear(in_features=1000, out_features=20, bias=True)
  )
)
======

************************************************************************************************************
Task 35
************************************************************************************************************
| Epoch   1, time= 24.2s | Train: skip eval | Valid: time=  0.3s loss=356.168, TAw acc=  0.0% | *
| Epoch   2, time= 23.9s | Train: skip eval | Valid: time=  0.4s loss=356.101, TAw acc=  0.0% | *
…
>>> Test on task 30 : loss=321.998 | TAw acc= 90.9%, forg=  0.0%| TAg acc= 67.8%, forg=  2.5% <<<
>>> Test on task 31 : loss=334.465 | TAw acc= 92.4%, forg=  0.0%| TAg acc= 72.3%, forg=  0.8% <<<
>>> Test on task 32 : loss=345.282 | TAw acc= 76.4%, forg=  0.0%| TAg acc= 51.8%, forg=  0.0% <<<
>>> Test on task 33 : loss=347.965 | TAw acc= 86.9%, forg=  0.0%| TAg acc= 67.2%, forg=  0.0% <<<
>>> Test on task 34 : loss=361.158 | TAw acc= 95.0%, forg=  0.0%| TAg acc= 60.0%, forg=  0.0% <<<
>>> Test on task 35 : loss=358.241 | TAw acc= 87.7%, forg=  0.0%| TAg acc= 66.0%, forg=  0.0% <<<
Save at k=100/icarl_wisdm_3/wisdm_flex_icarl
======
LLL_Net(
  (model): SimpleMLP(
    (fc1): Linear(in_features=91, out_features=1000, bias=True)
    (fc2): Sequential()
  )
  (heads): ModuleList(
    (0): Linear(in_features=1000, out_features=34, bias=True)
    (1): Linear(in_features=1000, out_features=20, bias=True)
    (2): Linear(in_features=1000, out_features=20, bias=True)
    (3): Linear(in_features=1000, out_features=20, bias=True)
    (4): Linear(in_features=1000, out_features=20, bias=True)
    (5): Linear(in_features=1000, out_features=20, bias=True)
    (6): Linear(in_features=1000, out_features=20, bias=True)
    (7): Linear(in_features=1000, out_features=20, bias=True)
    (8): Linear(in_features=1000, out_features=20, bias=True)
    (9): Linear(in_features=1000, out_features=20, bias=True)
    (10): Linear(in_features=1000, out_features=20, bias=True)
    (11): Linear(in_features=1000, out_features=20, bias=True)
    (12): Linear(in_features=1000, out_features=20, bias=True)
    (13): Linear(in_features=1000, out_features=20, bias=True)
    (14): Linear(in_features=1000, out_features=20, bias=True)
    (15): Linear(in_features=1000, out_features=20, bias=True)
    (16): Linear(in_features=1000, out_features=20, bias=True)
    (17): Linear(in_features=1000, out_features=20, bias=True)
    (18): Linear(in_features=1000, out_features=20, bias=True)
    (19): Linear(in_features=1000, out_features=20, bias=True)
    (20): Linear(in_features=1000, out_features=20, bias=True)
    (21): Linear(in_features=1000, out_features=20, bias=True)
    (22): Linear(in_features=1000, out_features=20, bias=True)
    (23): Linear(in_features=1000, out_features=20, bias=True)
    (24): Linear(in_features=1000, out_features=20, bias=True)
    (25): Linear(in_features=1000, out_features=20, bias=True)
    (26): Linear(in_features=1000, out_features=20, bias=True)
    (27): Linear(in_features=1000, out_features=20, bias=True)
    (28): Linear(in_features=1000, out_features=20, bias=True)
    (29): Linear(in_features=1000, out_features=20, bias=True)
    (30): Linear(in_features=1000, out_features=20, bias=True)
    (31): Linear(in_features=1000, out_features=20, bias=True)
    (32): Linear(in_features=1000, out_features=20, bias=True)
    (33): Linear(in_features=1000, out_features=20, bias=True)
    (34): Linear(in_features=1000, out_features=20, bias=True)
    (35): Linear(in_features=1000, out_features=20, bias=True)
  )
)
======

************************************************************************************************************
Task 36
************************************************************************************************************
| Epoch   1, time= 24.1s | Train: skip eval | Valid: time=  0.3s loss=363.185, TAw acc=  5.3% | *
| Epoch   2, time= 24.6s | Train: skip eval | Valid: time=  0.4s loss=363.115, TAw acc=  5.3% | *
…
>>> Test on task 31 : loss=333.715 | TAw acc= 92.4%, forg=  0.0%| TAg acc= 72.3%, forg=  0.8% <<<
>>> Test on task 32 : loss=344.498 | TAw acc= 76.4%, forg=  0.0%| TAg acc= 51.8%, forg=  0.0% <<<
>>> Test on task 33 : loss=347.243 | TAw acc= 86.9%, forg=  0.0%| TAg acc= 67.2%, forg=  0.0% <<<
>>> Test on task 34 : loss=360.348 | TAw acc= 95.0%, forg=  0.0%| TAg acc= 60.0%, forg=  0.0% <<<
>>> Test on task 35 : loss=357.721 | TAw acc= 87.7%, forg=  0.0%| TAg acc= 66.0%, forg=  0.0% <<<
>>> Test on task 36 : loss=363.866 | TAw acc= 93.1%, forg=  0.0%| TAg acc= 57.4%, forg=  0.0% <<<
Save at k=100/icarl_wisdm_3/wisdm_flex_icarl
======
LLL_Net(
  (model): SimpleMLP(
    (fc1): Linear(in_features=91, out_features=1000, bias=True)
    (fc2): Sequential()
  )
  (heads): ModuleList(
    (0): Linear(in_features=1000, out_features=34, bias=True)
    (1): Linear(in_features=1000, out_features=20, bias=True)
    (2): Linear(in_features=1000, out_features=20, bias=True)
    (3): Linear(in_features=1000, out_features=20, bias=True)
    (4): Linear(in_features=1000, out_features=20, bias=True)
    (5): Linear(in_features=1000, out_features=20, bias=True)
    (6): Linear(in_features=1000, out_features=20, bias=True)
    (7): Linear(in_features=1000, out_features=20, bias=True)
    (8): Linear(in_features=1000, out_features=20, bias=True)
    (9): Linear(in_features=1000, out_features=20, bias=True)
    (10): Linear(in_features=1000, out_features=20, bias=True)
    (11): Linear(in_features=1000, out_features=20, bias=True)
    (12): Linear(in_features=1000, out_features=20, bias=True)
    (13): Linear(in_features=1000, out_features=20, bias=True)
    (14): Linear(in_features=1000, out_features=20, bias=True)
    (15): Linear(in_features=1000, out_features=20, bias=True)
    (16): Linear(in_features=1000, out_features=20, bias=True)
    (17): Linear(in_features=1000, out_features=20, bias=True)
    (18): Linear(in_features=1000, out_features=20, bias=True)
    (19): Linear(in_features=1000, out_features=20, bias=True)
    (20): Linear(in_features=1000, out_features=20, bias=True)
    (21): Linear(in_features=1000, out_features=20, bias=True)
    (22): Linear(in_features=1000, out_features=20, bias=True)
    (23): Linear(in_features=1000, out_features=20, bias=True)
    (24): Linear(in_features=1000, out_features=20, bias=True)
    (25): Linear(in_features=1000, out_features=20, bias=True)
    (26): Linear(in_features=1000, out_features=20, bias=True)
    (27): Linear(in_features=1000, out_features=20, bias=True)
    (28): Linear(in_features=1000, out_features=20, bias=True)
    (29): Linear(in_features=1000, out_features=20, bias=True)
    (30): Linear(in_features=1000, out_features=20, bias=True)
    (31): Linear(in_features=1000, out_features=20, bias=True)
    (32): Linear(in_features=1000, out_features=20, bias=True)
    (33): Linear(in_features=1000, out_features=20, bias=True)
    (34): Linear(in_features=1000, out_features=20, bias=True)
    (35): Linear(in_features=1000, out_features=20, bias=True)
    (36): Linear(in_features=1000, out_features=20, bias=True)
  )
)
======

************************************************************************************************************
Task 37
************************************************************************************************************
| Epoch   1, time= 26.0s | Train: skip eval | Valid: time=  0.3s loss=373.704, TAw acc=  5.1% | *
| Epoch   2, time= 25.4s | Train: skip eval | Valid: time=  0.3s loss=373.633, TAw acc=  5.1% | *
…
>>> Test on task 32 : loss=343.829 | TAw acc= 76.4%, forg=  0.0%| TAg acc= 51.8%, forg=  0.0% <<<
>>> Test on task 33 : loss=346.504 | TAw acc= 86.9%, forg=  0.0%| TAg acc= 67.2%, forg=  0.0% <<<
>>> Test on task 34 : loss=359.562 | TAw acc= 95.0%, forg=  0.0%| TAg acc= 60.0%, forg=  0.0% <<<
>>> Test on task 35 : loss=356.987 | TAw acc= 87.7%, forg=  0.0%| TAg acc= 66.0%, forg=  0.0% <<<
>>> Test on task 36 : loss=363.350 | TAw acc= 93.1%, forg=  0.0%| TAg acc= 57.4%, forg=  0.0% <<<
>>> Test on task 37 : loss=365.559 | TAw acc= 86.8%, forg=  0.0%| TAg acc= 60.4%, forg=  0.0% <<<
Save at k=100/icarl_wisdm_3/wisdm_flex_icarl
======
LLL_Net(
  (model): SimpleMLP(
    (fc1): Linear(in_features=91, out_features=1000, bias=True)
    (fc2): Sequential()
  )
  (heads): ModuleList(
    (0): Linear(in_features=1000, out_features=34, bias=True)
    (1): Linear(in_features=1000, out_features=20, bias=True)
    (2): Linear(in_features=1000, out_features=20, bias=True)
    (3): Linear(in_features=1000, out_features=20, bias=True)
    (4): Linear(in_features=1000, out_features=20, bias=True)
    (5): Linear(in_features=1000, out_features=20, bias=True)
    (6): Linear(in_features=1000, out_features=20, bias=True)
    (7): Linear(in_features=1000, out_features=20, bias=True)
    (8): Linear(in_features=1000, out_features=20, bias=True)
    (9): Linear(in_features=1000, out_features=20, bias=True)
    (10): Linear(in_features=1000, out_features=20, bias=True)
    (11): Linear(in_features=1000, out_features=20, bias=True)
    (12): Linear(in_features=1000, out_features=20, bias=True)
    (13): Linear(in_features=1000, out_features=20, bias=True)
    (14): Linear(in_features=1000, out_features=20, bias=True)
    (15): Linear(in_features=1000, out_features=20, bias=True)
    (16): Linear(in_features=1000, out_features=20, bias=True)
    (17): Linear(in_features=1000, out_features=20, bias=True)
    (18): Linear(in_features=1000, out_features=20, bias=True)
    (19): Linear(in_features=1000, out_features=20, bias=True)
    (20): Linear(in_features=1000, out_features=20, bias=True)
    (21): Linear(in_features=1000, out_features=20, bias=True)
    (22): Linear(in_features=1000, out_features=20, bias=True)
    (23): Linear(in_features=1000, out_features=20, bias=True)
    (24): Linear(in_features=1000, out_features=20, bias=True)
    (25): Linear(in_features=1000, out_features=20, bias=True)
    (26): Linear(in_features=1000, out_features=20, bias=True)
    (27): Linear(in_features=1000, out_features=20, bias=True)
    (28): Linear(in_features=1000, out_features=20, bias=True)
    (29): Linear(in_features=1000, out_features=20, bias=True)
    (30): Linear(in_features=1000, out_features=20, bias=True)
    (31): Linear(in_features=1000, out_features=20, bias=True)
    (32): Linear(in_features=1000, out_features=20, bias=True)
    (33): Linear(in_features=1000, out_features=20, bias=True)
    (34): Linear(in_features=1000, out_features=20, bias=True)
    (35): Linear(in_features=1000, out_features=20, bias=True)
    (36): Linear(in_features=1000, out_features=20, bias=True)
    (37): Linear(in_features=1000, out_features=20, bias=True)
  )
)
======

************************************************************************************************************
Task 38
************************************************************************************************************
| Epoch   1, time= 26.4s | Train: skip eval | Valid: time=  0.3s loss=372.767, TAw acc=  0.0% | *
| Epoch   2, time= 26.1s | Train: skip eval | Valid: time=  0.3s loss=372.659, TAw acc=  1.3% | *
…
>>> Test on task 33 : loss=345.788 | TAw acc= 86.9%, forg=  0.0%| TAg acc= 67.2%, forg=  0.0% <<<
>>> Test on task 34 : loss=358.757 | TAw acc= 95.0%, forg=  0.0%| TAg acc= 60.0%, forg=  0.0% <<<
>>> Test on task 35 : loss=356.246 | TAw acc= 87.7%, forg=  0.0%| TAg acc= 66.0%, forg=  0.0% <<<
>>> Test on task 36 : loss=362.628 | TAw acc= 93.1%, forg=  0.0%| TAg acc= 56.4%, forg=  1.0% <<<
>>> Test on task 37 : loss=365.314 | TAw acc= 86.8%, forg=  0.0%| TAg acc= 60.4%, forg=  0.0% <<<
>>> Test on task 38 : loss=378.398 | TAw acc= 92.2%, forg=  0.0%| TAg acc= 61.2%, forg=  0.0% <<<
Save at k=100/icarl_wisdm_3/wisdm_flex_icarl
======
LLL_Net(
  (model): SimpleMLP(
    (fc1): Linear(in_features=91, out_features=1000, bias=True)
    (fc2): Sequential()
  )
  (heads): ModuleList(
    (0): Linear(in_features=1000, out_features=34, bias=True)
    (1): Linear(in_features=1000, out_features=20, bias=True)
    (2): Linear(in_features=1000, out_features=20, bias=True)
    (3): Linear(in_features=1000, out_features=20, bias=True)
    (4): Linear(in_features=1000, out_features=20, bias=True)
    (5): Linear(in_features=1000, out_features=20, bias=True)
    (6): Linear(in_features=1000, out_features=20, bias=True)
    (7): Linear(in_features=1000, out_features=20, bias=True)
    (8): Linear(in_features=1000, out_features=20, bias=True)
    (9): Linear(in_features=1000, out_features=20, bias=True)
    (10): Linear(in_features=1000, out_features=20, bias=True)
    (11): Linear(in_features=1000, out_features=20, bias=True)
    (12): Linear(in_features=1000, out_features=20, bias=True)
    (13): Linear(in_features=1000, out_features=20, bias=True)
    (14): Linear(in_features=1000, out_features=20, bias=True)
    (15): Linear(in_features=1000, out_features=20, bias=True)
    (16): Linear(in_features=1000, out_features=20, bias=True)
    (17): Linear(in_features=1000, out_features=20, bias=True)
    (18): Linear(in_features=1000, out_features=20, bias=True)
    (19): Linear(in_features=1000, out_features=20, bias=True)
    (20): Linear(in_features=1000, out_features=20, bias=True)
    (21): Linear(in_features=1000, out_features=20, bias=True)
    (22): Linear(in_features=1000, out_features=20, bias=True)
    (23): Linear(in_features=1000, out_features=20, bias=True)
    (24): Linear(in_features=1000, out_features=20, bias=True)
    (25): Linear(in_features=1000, out_features=20, bias=True)
    (26): Linear(in_features=1000, out_features=20, bias=True)
    (27): Linear(in_features=1000, out_features=20, bias=True)
    (28): Linear(in_features=1000, out_features=20, bias=True)
    (29): Linear(in_features=1000, out_features=20, bias=True)
    (30): Linear(in_features=1000, out_features=20, bias=True)
    (31): Linear(in_features=1000, out_features=20, bias=True)
    (32): Linear(in_features=1000, out_features=20, bias=True)
    (33): Linear(in_features=1000, out_features=20, bias=True)
    (34): Linear(in_features=1000, out_features=20, bias=True)
    (35): Linear(in_features=1000, out_features=20, bias=True)
    (36): Linear(in_features=1000, out_features=20, bias=True)
    (37): Linear(in_features=1000, out_features=20, bias=True)
    (38): Linear(in_features=1000, out_features=20, bias=True)
  )
)
======

************************************************************************************************************
Task 39
************************************************************************************************************
| Epoch   1, time= 27.8s | Train: skip eval | Valid: time=  0.4s loss=387.571, TAw acc=  6.1% | *
| Epoch   2, time= 27.9s | Train: skip eval | Valid: time=  0.4s loss=387.486, TAw acc=  6.1% | *
…
>>> Test on task 34 : loss=358.038 | TAw acc= 95.0%, forg=  0.0%| TAg acc= 60.0%, forg=  0.0% <<<
>>> Test on task 35 : loss=355.557 | TAw acc= 87.7%, forg=  0.0%| TAg acc= 66.0%, forg=  0.0% <<<
>>> Test on task 36 : loss=361.886 | TAw acc= 93.1%, forg=  0.0%| TAg acc= 56.4%, forg=  1.0% <<<
>>> Test on task 37 : loss=364.756 | TAw acc= 86.8%, forg=  0.0%| TAg acc= 60.4%, forg=  0.0% <<<
>>> Test on task 38 : loss=377.831 | TAw acc= 92.2%, forg=  0.0%| TAg acc= 61.2%, forg=  0.0% <<<
>>> Test on task 39 : loss=383.952 | TAw acc= 91.8%, forg=  0.0%| TAg acc= 70.9%, forg=  0.0% <<<
Save at k=100/icarl_wisdm_3/wisdm_flex_icarl
======
LLL_Net(
  (model): SimpleMLP(
    (fc1): Linear(in_features=91, out_features=1000, bias=True)
    (fc2): Sequential()
  )
  (heads): ModuleList(
    (0): Linear(in_features=1000, out_features=34, bias=True)
    (1): Linear(in_features=1000, out_features=20, bias=True)
    (2): Linear(in_features=1000, out_features=20, bias=True)
    (3): Linear(in_features=1000, out_features=20, bias=True)
    (4): Linear(in_features=1000, out_features=20, bias=True)
    (5): Linear(in_features=1000, out_features=20, bias=True)
    (6): Linear(in_features=1000, out_features=20, bias=True)
    (7): Linear(in_features=1000, out_features=20, bias=True)
    (8): Linear(in_features=1000, out_features=20, bias=True)
    (9): Linear(in_features=1000, out_features=20, bias=True)
    (10): Linear(in_features=1000, out_features=20, bias=True)
    (11): Linear(in_features=1000, out_features=20, bias=True)
    (12): Linear(in_features=1000, out_features=20, bias=True)
    (13): Linear(in_features=1000, out_features=20, bias=True)
    (14): Linear(in_features=1000, out_features=20, bias=True)
    (15): Linear(in_features=1000, out_features=20, bias=True)
    (16): Linear(in_features=1000, out_features=20, bias=True)
    (17): Linear(in_features=1000, out_features=20, bias=True)
    (18): Linear(in_features=1000, out_features=20, bias=True)
    (19): Linear(in_features=1000, out_features=20, bias=True)
    (20): Linear(in_features=1000, out_features=20, bias=True)
    (21): Linear(in_features=1000, out_features=20, bias=True)
    (22): Linear(in_features=1000, out_features=20, bias=True)
    (23): Linear(in_features=1000, out_features=20, bias=True)
    (24): Linear(in_features=1000, out_features=20, bias=True)
    (25): Linear(in_features=1000, out_features=20, bias=True)
    (26): Linear(in_features=1000, out_features=20, bias=True)
    (27): Linear(in_features=1000, out_features=20, bias=True)
    (28): Linear(in_features=1000, out_features=20, bias=True)
    (29): Linear(in_features=1000, out_features=20, bias=True)
    (30): Linear(in_features=1000, out_features=20, bias=True)
    (31): Linear(in_features=1000, out_features=20, bias=True)
    (32): Linear(in_features=1000, out_features=20, bias=True)
    (33): Linear(in_features=1000, out_features=20, bias=True)
    (34): Linear(in_features=1000, out_features=20, bias=True)
    (35): Linear(in_features=1000, out_features=20, bias=True)
    (36): Linear(in_features=1000, out_features=20, bias=True)
    (37): Linear(in_features=1000, out_features=20, bias=True)
    (38): Linear(in_features=1000, out_features=20, bias=True)
    (39): Linear(in_features=1000, out_features=20, bias=True)
  )
)
======

************************************************************************************************************
Task 40
************************************************************************************************************
| Epoch   1, time= 27.8s | Train: skip eval | Valid: time=  0.3s loss=421.846, TAw acc= 11.6% | *
| Epoch   2, time= 27.6s | Train: skip eval | Valid: time=  0.4s loss=421.810, TAw acc= 11.6% | *
…
>>> Test on task 35 : loss=354.881 | TAw acc= 87.7%, forg=  0.0%| TAg acc= 66.0%, forg=  0.0% <<<
>>> Test on task 36 : loss=361.228 | TAw acc= 93.1%, forg=  0.0%| TAg acc= 56.4%, forg=  1.0% <<<
>>> Test on task 37 : loss=364.163 | TAw acc= 86.8%, forg=  0.0%| TAg acc= 60.4%, forg=  0.0% <<<
>>> Test on task 38 : loss=377.134 | TAw acc= 92.2%, forg=  0.0%| TAg acc= 61.2%, forg=  0.0% <<<
>>> Test on task 39 : loss=383.473 | TAw acc= 91.8%, forg=  0.0%| TAg acc= 70.9%, forg=  0.0% <<<
>>> Test on task 40 : loss=407.071 | TAw acc= 91.7%, forg=  0.0%| TAg acc= 61.5%, forg=  0.0% <<<
Save at k=100/icarl_wisdm_3/wisdm_flex_icarl
======
LLL_Net(
  (model): SimpleMLP(
    (fc1): Linear(in_features=91, out_features=1000, bias=True)
    (fc2): Sequential()
  )
  (heads): ModuleList(
    (0): Linear(in_features=1000, out_features=34, bias=True)
    (1): Linear(in_features=1000, out_features=20, bias=True)
    (2): Linear(in_features=1000, out_features=20, bias=True)
    (3): Linear(in_features=1000, out_features=20, bias=True)
    (4): Linear(in_features=1000, out_features=20, bias=True)
    (5): Linear(in_features=1000, out_features=20, bias=True)
    (6): Linear(in_features=1000, out_features=20, bias=True)
    (7): Linear(in_features=1000, out_features=20, bias=True)
    (8): Linear(in_features=1000, out_features=20, bias=True)
    (9): Linear(in_features=1000, out_features=20, bias=True)
    (10): Linear(in_features=1000, out_features=20, bias=True)
    (11): Linear(in_features=1000, out_features=20, bias=True)
    (12): Linear(in_features=1000, out_features=20, bias=True)
    (13): Linear(in_features=1000, out_features=20, bias=True)
    (14): Linear(in_features=1000, out_features=20, bias=True)
    (15): Linear(in_features=1000, out_features=20, bias=True)
    (16): Linear(in_features=1000, out_features=20, bias=True)
    (17): Linear(in_features=1000, out_features=20, bias=True)
    (18): Linear(in_features=1000, out_features=20, bias=True)
    (19): Linear(in_features=1000, out_features=20, bias=True)
    (20): Linear(in_features=1000, out_features=20, bias=True)
    (21): Linear(in_features=1000, out_features=20, bias=True)
    (22): Linear(in_features=1000, out_features=20, bias=True)
    (23): Linear(in_features=1000, out_features=20, bias=True)
    (24): Linear(in_features=1000, out_features=20, bias=True)
    (25): Linear(in_features=1000, out_features=20, bias=True)
    (26): Linear(in_features=1000, out_features=20, bias=True)
    (27): Linear(in_features=1000, out_features=20, bias=True)
    (28): Linear(in_features=1000, out_features=20, bias=True)
    (29): Linear(in_features=1000, out_features=20, bias=True)
    (30): Linear(in_features=1000, out_features=20, bias=True)
    (31): Linear(in_features=1000, out_features=20, bias=True)
    (32): Linear(in_features=1000, out_features=20, bias=True)
    (33): Linear(in_features=1000, out_features=20, bias=True)
    (34): Linear(in_features=1000, out_features=20, bias=True)
    (35): Linear(in_features=1000, out_features=20, bias=True)
    (36): Linear(in_features=1000, out_features=20, bias=True)
    (37): Linear(in_features=1000, out_features=20, bias=True)
    (38): Linear(in_features=1000, out_features=20, bias=True)
    (39): Linear(in_features=1000, out_features=20, bias=True)
    (40): Linear(in_features=1000, out_features=20, bias=True)
  )
)
======

************************************************************************************************************
Task 41
************************************************************************************************************
| Epoch   1, time= 33.3s | Train: skip eval | Valid: time=  0.3s loss=422.299, TAw acc=  1.3% | *
| Epoch   2, time= 28.8s | Train: skip eval | Valid: time=  0.3s loss=422.251, TAw acc=  1.3% | *
…
