…
| Selected 845 train exemplars, time=  0.0s
845
------------------------------------------------------------------------------------------------------------
>>> Test on task  0 : loss=0.706 | TAw acc= 95.3%, forg=  0.0%| TAg acc= 83.0%, forg= 11.7% <<<
>>> Test on task  1 : loss=1.081 | TAw acc= 95.3%, forg=  0.0%| TAg acc= 81.1%, forg=  5.5% <<<
>>> Test on task  2 : loss=1.174 | TAw acc= 89.4%, forg= -5.7%| TAg acc= 81.3%, forg= -0.8% <<<
>>> Test on task  3 : loss=1.504 | TAw acc= 83.8%, forg=  0.0%| TAg acc= 64.0%, forg=  0.0% <<<
Save at k=100/eeil_e20_wisdm_3/wisdm_flex_eeil
======
LLL_Net(
  (model): SimpleMLP(
    (fc1): Linear(in_features=91, out_features=1000, bias=True)
    (fc2): Sequential()
  )
  (heads): ModuleList(
    (0): Linear(in_features=1000, out_features=34, bias=True)
    (1): Linear(in_features=1000, out_features=20, bias=True)
    (2): Linear(in_features=1000, out_features=20, bias=True)
    (3): Linear(in_features=1000, out_features=20, bias=True)
  )
)
======

************************************************************************************************************
Task  4
************************************************************************************************************
| Epoch   1, time=  0.4s | Train: skip eval | Valid: time=  0.2s loss=3.853, TAw acc= 47.9% | *
| Epoch   2, time=  0.4s | Train: skip eval | Valid: time=  0.2s loss=2.250, TAw acc= 62.8% | *
…
------------------------------------------------------------------------------------------------------------
>>> Test on task  0 : loss=0.679 | TAw acc= 95.3%, forg=  0.0%| TAg acc= 84.8%, forg=  9.9% <<<
>>> Test on task  1 : loss=1.062 | TAw acc= 95.3%, forg=  0.0%| TAg acc= 78.0%, forg=  8.7% <<<
>>> Test on task  2 : loss=0.996 | TAw acc= 86.2%, forg=  3.3%| TAg acc= 80.5%, forg=  0.8% <<<
>>> Test on task  3 : loss=1.829 | TAw acc= 91.9%, forg= -8.1%| TAg acc= 42.3%, forg= 21.6% <<<
>>> Test on task  4 : loss=0.858 | TAw acc= 95.2%, forg=  0.0%| TAg acc= 88.0%, forg=  0.0% <<<
Save at k=100/eeil_e20_wisdm_3/wisdm_flex_eeil
======
LLL_Net(
  (model): SimpleMLP(
    (fc1): Linear(in_features=91, out_features=1000, bias=True)
    (fc2): Sequential()
  )
  (heads): ModuleList(
    (0): Linear(in_features=1000, out_features=34, bias=True)
    (1): Linear(in_features=1000, out_features=20, bias=True)
    (2): Linear(in_features=1000, out_features=20, bias=True)
    (3): Linear(in_features=1000, out_features=20, bias=True)
    (4): Linear(in_features=1000, out_features=20, bias=True)
  )
)
======

************************************************************************************************************
Task  5
************************************************************************************************************
| Epoch   1, time=  0.4s | Train: skip eval | Valid: time=  0.2s loss=4.280, TAw acc= 51.5% | *
| Epoch   2, time=  0.4s | Train: skip eval | Valid: time=  0.2s loss=2.911, TAw acc= 58.4% | *
…
>>> Test on task  0 : loss=0.627 | TAw acc= 96.5%, forg= -1.2%| TAg acc= 90.6%, forg=  4.1% <<<
>>> Test on task  1 : loss=0.919 | TAw acc= 96.1%, forg= -0.8%| TAg acc= 81.9%, forg=  4.7% <<<
>>> Test on task  2 : loss=0.972 | TAw acc= 89.4%, forg=  0.0%| TAg acc= 80.5%, forg=  0.8% <<<
>>> Test on task  3 : loss=1.665 | TAw acc= 93.7%, forg= -1.8%| TAg acc= 47.7%, forg= 16.2% <<<
>>> Test on task  4 : loss=1.266 | TAw acc= 95.2%, forg=  0.0%| TAg acc= 72.0%, forg= 16.0% <<<
>>> Test on task  5 : loss=1.050 | TAw acc= 88.0%, forg=  0.0%| TAg acc= 74.4%, forg=  0.0% <<<
Save at k=100/eeil_e20_wisdm_3/wisdm_flex_eeil
======
LLL_Net(
  (model): SimpleMLP(
    (fc1): Linear(in_features=91, out_features=1000, bias=True)
    (fc2): Sequential()
  )
  (heads): ModuleList(
    (0): Linear(in_features=1000, out_features=34, bias=True)
    (1): Linear(in_features=1000, out_features=20, bias=True)
    (2): Linear(in_features=1000, out_features=20, bias=True)
    (3): Linear(in_features=1000, out_features=20, bias=True)
    (4): Linear(in_features=1000, out_features=20, bias=True)
    (5): Linear(in_features=1000, out_features=20, bias=True)
  )
)
======

************************************************************************************************************
Task  6
************************************************************************************************************
| Epoch   1, time=  0.5s | Train: skip eval | Valid: time=  0.2s loss=4.566, TAw acc= 43.5% | *
| Epoch   2, time=  0.5s | Train: skip eval | Valid: time=  0.2s loss=2.693, TAw acc= 63.5% | *
…
>>> Test on task  1 : loss=0.888 | TAw acc= 96.9%, forg= -0.8%| TAg acc= 84.3%, forg=  2.4% <<<
>>> Test on task  2 : loss=0.925 | TAw acc= 87.8%, forg=  1.6%| TAg acc= 80.5%, forg=  0.8% <<<
>>> Test on task  3 : loss=1.489 | TAw acc= 95.5%, forg= -1.8%| TAg acc= 57.7%, forg=  6.3% <<<
>>> Test on task  4 : loss=1.336 | TAw acc= 96.0%, forg= -0.8%| TAg acc= 63.2%, forg= 24.8% <<<
>>> Test on task  5 : loss=1.428 | TAw acc= 94.7%, forg= -6.8%| TAg acc= 64.7%, forg=  9.8% <<<
>>> Test on task  6 : loss=0.807 | TAw acc= 96.5%, forg=  0.0%| TAg acc= 92.2%, forg=  0.0% <<<
Save at k=100/eeil_e20_wisdm_3/wisdm_flex_eeil
======
LLL_Net(
  (model): SimpleMLP(
    (fc1): Linear(in_features=91, out_features=1000, bias=True)
    (fc2): Sequential()
  )
  (heads): ModuleList(
    (0): Linear(in_features=1000, out_features=34, bias=True)
    (1): Linear(in_features=1000, out_features=20, bias=True)
    (2): Linear(in_features=1000, out_features=20, bias=True)
    (3): Linear(in_features=1000, out_features=20, bias=True)
    (4): Linear(in_features=1000, out_features=20, bias=True)
    (5): Linear(in_features=1000, out_features=20, bias=True)
    (6): Linear(in_features=1000, out_features=20, bias=True)
  )
)
======

************************************************************************************************************
Task  7
************************************************************************************************************
| Epoch   1, time=  0.5s | Train: skip eval | Valid: time=  0.2s loss=5.083, TAw acc= 50.0% | *
| Epoch   2, time=  0.5s | Train: skip eval | Valid: time=  0.2s loss=3.217, TAw acc= 61.3% | *
…
>>> Test on task  2 : loss=0.913 | TAw acc= 89.4%, forg=  0.0%| TAg acc= 84.6%, forg= -3.3% <<<
>>> Test on task  3 : loss=1.365 | TAw acc= 96.4%, forg= -0.9%| TAg acc= 59.5%, forg=  4.5% <<<
>>> Test on task  4 : loss=1.154 | TAw acc= 96.0%, forg=  0.0%| TAg acc= 68.0%, forg= 20.0% <<<
>>> Test on task  5 : loss=1.410 | TAw acc= 95.5%, forg= -0.8%| TAg acc= 59.4%, forg= 15.0% <<<
>>> Test on task  6 : loss=1.355 | TAw acc= 99.1%, forg= -2.6%| TAg acc= 55.7%, forg= 36.5% <<<
>>> Test on task  7 : loss=1.061 | TAw acc= 93.5%, forg=  0.0%| TAg acc= 83.3%, forg=  0.0% <<<
Save at k=100/eeil_e20_wisdm_3/wisdm_flex_eeil
======
LLL_Net(
  (model): SimpleMLP(
    (fc1): Linear(in_features=91, out_features=1000, bias=True)
    (fc2): Sequential()
  )
  (heads): ModuleList(
    (0): Linear(in_features=1000, out_features=34, bias=True)
    (1): Linear(in_features=1000, out_features=20, bias=True)
    (2): Linear(in_features=1000, out_features=20, bias=True)
    (3): Linear(in_features=1000, out_features=20, bias=True)
    (4): Linear(in_features=1000, out_features=20, bias=True)
    (5): Linear(in_features=1000, out_features=20, bias=True)
    (6): Linear(in_features=1000, out_features=20, bias=True)
    (7): Linear(in_features=1000, out_features=20, bias=True)
  )
)
======

************************************************************************************************************
Task  8
************************************************************************************************************
| Epoch   1, time=  0.6s | Train: skip eval | Valid: time=  0.2s loss=5.292, TAw acc= 49.4% | *
| Epoch   2, time=  0.6s | Train: skip eval | Valid: time=  0.2s loss=3.463, TAw acc= 62.7% | *
…
>>> Test on task  3 : loss=1.408 | TAw acc= 95.5%, forg=  0.9%| TAg acc= 63.1%, forg=  0.9% <<<
>>> Test on task  4 : loss=1.201 | TAw acc= 96.8%, forg= -0.8%| TAg acc= 65.6%, forg= 22.4% <<<
>>> Test on task  5 : loss=1.358 | TAw acc= 94.7%, forg=  0.8%| TAg acc= 63.2%, forg= 11.3% <<<
>>> Test on task  6 : loss=1.229 | TAw acc= 99.1%, forg=  0.0%| TAg acc= 67.8%, forg= 24.3% <<<
>>> Test on task  7 : loss=1.403 | TAw acc= 91.7%, forg=  1.9%| TAg acc= 62.0%, forg= 21.3% <<<
>>> Test on task  8 : loss=1.201 | TAw acc= 95.5%, forg=  0.0%| TAg acc= 70.5%, forg=  0.0% <<<
Save at k=100/eeil_e20_wisdm_3/wisdm_flex_eeil
======
LLL_Net(
  (model): SimpleMLP(
    (fc1): Linear(in_features=91, out_features=1000, bias=True)
    (fc2): Sequential()
  )
  (heads): ModuleList(
    (0): Linear(in_features=1000, out_features=34, bias=True)
    (1): Linear(in_features=1000, out_features=20, bias=True)
    (2): Linear(in_features=1000, out_features=20, bias=True)
    (3): Linear(in_features=1000, out_features=20, bias=True)
    (4): Linear(in_features=1000, out_features=20, bias=True)
    (5): Linear(in_features=1000, out_features=20, bias=True)
    (6): Linear(in_features=1000, out_features=20, bias=True)
    (7): Linear(in_features=1000, out_features=20, bias=True)
    (8): Linear(in_features=1000, out_features=20, bias=True)
  )
)
======

************************************************************************************************************
Task  9
************************************************************************************************************
| Epoch   1, time=  0.6s | Train: skip eval | Valid: time=  0.2s loss=4.216, TAw acc= 43.0% | *
| Epoch   2, time=  0.7s | Train: skip eval | Valid: time=  0.2s loss=2.591, TAw acc= 66.7% | *
…
>>> Test on task  4 : loss=1.166 | TAw acc= 96.8%, forg=  0.0%| TAg acc= 70.4%, forg= 17.6% <<<
>>> Test on task  5 : loss=1.362 | TAw acc= 96.2%, forg= -0.8%| TAg acc= 60.9%, forg= 13.5% <<<
>>> Test on task  6 : loss=1.117 | TAw acc= 99.1%, forg=  0.0%| TAg acc= 71.3%, forg= 20.9% <<<
>>> Test on task  7 : loss=1.338 | TAw acc= 92.6%, forg=  0.9%| TAg acc= 60.2%, forg= 23.1% <<<
>>> Test on task  8 : loss=1.729 | TAw acc= 95.5%, forg=  0.0%| TAg acc= 33.0%, forg= 37.5% <<<
>>> Test on task  9 : loss=0.861 | TAw acc= 96.8%, forg=  0.0%| TAg acc= 89.5%, forg=  0.0% <<<
Save at k=100/eeil_e20_wisdm_3/wisdm_flex_eeil
======
LLL_Net(
  (model): SimpleMLP(
    (fc1): Linear(in_features=91, out_features=1000, bias=True)
    (fc2): Sequential()
  )
  (heads): ModuleList(
    (0): Linear(in_features=1000, out_features=34, bias=True)
    (1): Linear(in_features=1000, out_features=20, bias=True)
    (2): Linear(in_features=1000, out_features=20, bias=True)
    (3): Linear(in_features=1000, out_features=20, bias=True)
    (4): Linear(in_features=1000, out_features=20, bias=True)
    (5): Linear(in_features=1000, out_features=20, bias=True)
    (6): Linear(in_features=1000, out_features=20, bias=True)
    (7): Linear(in_features=1000, out_features=20, bias=True)
    (8): Linear(in_features=1000, out_features=20, bias=True)
    (9): Linear(in_features=1000, out_features=20, bias=True)
  )
)
======

************************************************************************************************************
Task 10
************************************************************************************************************
| Epoch   1, time=  0.7s | Train: skip eval | Valid: time=  0.1s loss=5.679, TAw acc= 31.9% | *
| Epoch   2, time=  0.7s | Train: skip eval | Valid: time=  0.2s loss=3.708, TAw acc= 45.8% | *
…
>>> Test on task  5 : loss=1.275 | TAw acc= 95.5%, forg=  0.8%| TAg acc= 70.7%, forg=  3.8% <<<
>>> Test on task  6 : loss=1.107 | TAw acc= 99.1%, forg=  0.0%| TAg acc= 71.3%, forg= 20.9% <<<
>>> Test on task  7 : loss=1.224 | TAw acc= 92.6%, forg=  0.9%| TAg acc= 70.4%, forg= 13.0% <<<
>>> Test on task  8 : loss=1.690 | TAw acc= 95.5%, forg=  0.0%| TAg acc= 33.0%, forg= 37.5% <<<
>>> Test on task  9 : loss=1.182 | TAw acc= 96.8%, forg=  0.0%| TAg acc= 76.6%, forg= 12.9% <<<
>>> Test on task 10 : loss=1.250 | TAw acc= 89.9%, forg=  0.0%| TAg acc= 68.7%, forg=  0.0% <<<
Save at k=100/eeil_e20_wisdm_3/wisdm_flex_eeil
======
LLL_Net(
  (model): SimpleMLP(
    (fc1): Linear(in_features=91, out_features=1000, bias=True)
    (fc2): Sequential()
  )
  (heads): ModuleList(
    (0): Linear(in_features=1000, out_features=34, bias=True)
    (1): Linear(in_features=1000, out_features=20, bias=True)
    (2): Linear(in_features=1000, out_features=20, bias=True)
    (3): Linear(in_features=1000, out_features=20, bias=True)
    (4): Linear(in_features=1000, out_features=20, bias=True)
    (5): Linear(in_features=1000, out_features=20, bias=True)
    (6): Linear(in_features=1000, out_features=20, bias=True)
    (7): Linear(in_features=1000, out_features=20, bias=True)
    (8): Linear(in_features=1000, out_features=20, bias=True)
    (9): Linear(in_features=1000, out_features=20, bias=True)
    (10): Linear(in_features=1000, out_features=20, bias=True)
  )
)
======

************************************************************************************************************
Task 11
************************************************************************************************************
| Epoch   1, time=  0.8s | Train: skip eval | Valid: time=  0.2s loss=5.004, TAw acc= 43.9% | *
| Epoch   2, time=  0.8s | Train: skip eval | Valid: time=  0.2s loss=3.016, TAw acc= 53.7% | *
…
>>> Test on task  6 : loss=1.108 | TAw acc= 99.1%, forg=  0.0%| TAg acc= 77.4%, forg= 14.8% <<<
>>> Test on task  7 : loss=1.118 | TAw acc= 92.6%, forg=  0.9%| TAg acc= 69.4%, forg= 13.9% <<<
>>> Test on task  8 : loss=1.624 | TAw acc= 95.5%, forg=  0.0%| TAg acc= 38.4%, forg= 32.1% <<<
>>> Test on task  9 : loss=1.156 | TAw acc= 96.0%, forg=  0.8%| TAg acc= 79.0%, forg= 10.5% <<<
>>> Test on task 10 : loss=1.456 | TAw acc= 89.9%, forg=  0.0%| TAg acc= 66.7%, forg=  2.0% <<<
>>> Test on task 11 : loss=1.132 | TAw acc= 83.0%, forg=  0.0%| TAg acc= 69.6%, forg=  0.0% <<<
Save at k=100/eeil_e20_wisdm_3/wisdm_flex_eeil
======
LLL_Net(
  (model): SimpleMLP(
    (fc1): Linear(in_features=91, out_features=1000, bias=True)
    (fc2): Sequential()
  )
  (heads): ModuleList(
    (0): Linear(in_features=1000, out_features=34, bias=True)
    (1): Linear(in_features=1000, out_features=20, bias=True)
    (2): Linear(in_features=1000, out_features=20, bias=True)
    (3): Linear(in_features=1000, out_features=20, bias=True)
    (4): Linear(in_features=1000, out_features=20, bias=True)
    (5): Linear(in_features=1000, out_features=20, bias=True)
    (6): Linear(in_features=1000, out_features=20, bias=True)
    (7): Linear(in_features=1000, out_features=20, bias=True)
    (8): Linear(in_features=1000, out_features=20, bias=True)
    (9): Linear(in_features=1000, out_features=20, bias=True)
    (10): Linear(in_features=1000, out_features=20, bias=True)
    (11): Linear(in_features=1000, out_features=20, bias=True)
  )
)
======

************************************************************************************************************
Task 12
************************************************************************************************************
