…
| Selected 724 train exemplars, time=  0.0s
724
------------------------------------------------------------------------------------------------------------
>>> Test on task  0 : loss=1.496 | TAw acc= 84.1%, forg=  0.5%| TAg acc= 76.4%, forg= -4.4% <<<
>>> Test on task  1 : loss=1.483 | TAw acc= 95.9%, forg=  0.0%| TAg acc= 84.5%, forg= -8.2% <<<
>>> Test on task  2 : loss=1.775 | TAw acc= 93.5%, forg=-13.0%| TAg acc= 59.3%, forg= 11.1% <<<
>>> Test on task  3 : loss=1.733 | TAw acc= 80.5%, forg=  0.0%| TAg acc= 60.2%, forg=  0.0% <<<
Save at eeil_e5_wisdm_5/wisdm_flex_eeil
======
LLL_Net(
  (model): SimpleMLP(
    (fc1): Linear(in_features=91, out_features=1000, bias=True)
    (fc2): Sequential()
  )
  (heads): ModuleList(
    (0): Linear(in_features=1000, out_features=34, bias=True)
    (1): Linear(in_features=1000, out_features=20, bias=True)
    (2): Linear(in_features=1000, out_features=20, bias=True)
    (3): Linear(in_features=1000, out_features=20, bias=True)
  )
)
======

************************************************************************************************************
Task  4
************************************************************************************************************
| Epoch   1, time=  0.4s | Train: skip eval | Valid: time=  0.2s loss=4.016, TAw acc= 34.2% | *
| Epoch   2, time=  0.4s | Train: skip eval | Valid: time=  0.2s loss=3.060, TAw acc= 51.3% | *
…
------------------------------------------------------------------------------------------------------------
>>> Test on task  0 : loss=1.417 | TAw acc= 86.3%, forg= -1.6%| TAg acc= 83.5%, forg= -7.1% <<<
>>> Test on task  1 : loss=1.464 | TAw acc= 97.9%, forg= -2.1%| TAg acc= 81.4%, forg=  3.1% <<<
>>> Test on task  2 : loss=1.558 | TAw acc= 94.4%, forg= -0.9%| TAg acc= 70.4%, forg=  0.0% <<<
>>> Test on task  3 : loss=1.959 | TAw acc= 91.2%, forg=-10.6%| TAg acc= 48.7%, forg= 11.5% <<<
>>> Test on task  4 : loss=1.770 | TAw acc= 83.5%, forg=  0.0%| TAg acc= 59.2%, forg=  0.0% <<<
Save at eeil_e5_wisdm_5/wisdm_flex_eeil
======
LLL_Net(
  (model): SimpleMLP(
    (fc1): Linear(in_features=91, out_features=1000, bias=True)
    (fc2): Sequential()
  )
  (heads): ModuleList(
    (0): Linear(in_features=1000, out_features=34, bias=True)
    (1): Linear(in_features=1000, out_features=20, bias=True)
    (2): Linear(in_features=1000, out_features=20, bias=True)
    (3): Linear(in_features=1000, out_features=20, bias=True)
    (4): Linear(in_features=1000, out_features=20, bias=True)
  )
)
======

************************************************************************************************************
Task  5
************************************************************************************************************
| Epoch   1, time=  0.4s | Train: skip eval | Valid: time=  0.2s loss=4.388, TAw acc= 51.3% | *
| Epoch   2, time=  0.4s | Train: skip eval | Valid: time=  0.2s loss=3.094, TAw acc= 67.1% | *
…
>>> Test on task  0 : loss=1.372 | TAw acc= 87.4%, forg= -1.1%| TAg acc= 84.1%, forg= -0.5% <<<
>>> Test on task  1 : loss=1.395 | TAw acc= 96.9%, forg=  1.0%| TAg acc= 78.4%, forg=  6.2% <<<
>>> Test on task  2 : loss=1.404 | TAw acc= 97.2%, forg= -2.8%| TAg acc= 75.9%, forg= -5.6% <<<
>>> Test on task  3 : loss=1.767 | TAw acc= 93.8%, forg= -2.7%| TAg acc= 50.4%, forg=  9.7% <<<
>>> Test on task  4 : loss=2.010 | TAw acc= 98.1%, forg=-14.6%| TAg acc= 37.9%, forg= 21.4% <<<
>>> Test on task  5 : loss=1.684 | TAw acc= 81.0%, forg=  0.0%| TAg acc= 57.1%, forg=  0.0% <<<
Save at eeil_e5_wisdm_5/wisdm_flex_eeil
======
LLL_Net(
  (model): SimpleMLP(
    (fc1): Linear(in_features=91, out_features=1000, bias=True)
    (fc2): Sequential()
  )
  (heads): ModuleList(
    (0): Linear(in_features=1000, out_features=34, bias=True)
    (1): Linear(in_features=1000, out_features=20, bias=True)
    (2): Linear(in_features=1000, out_features=20, bias=True)
    (3): Linear(in_features=1000, out_features=20, bias=True)
    (4): Linear(in_features=1000, out_features=20, bias=True)
    (5): Linear(in_features=1000, out_features=20, bias=True)
  )
)
======

************************************************************************************************************
Task  6
************************************************************************************************************
| Epoch   1, time=  0.5s | Train: skip eval | Valid: time=  0.2s loss=4.103, TAw acc= 59.6% | *
| Epoch   2, time=  0.5s | Train: skip eval | Valid: time=  0.2s loss=3.033, TAw acc= 69.7% | *
…
>>> Test on task  1 : loss=1.341 | TAw acc= 97.9%, forg=  0.0%| TAg acc= 82.5%, forg=  2.1% <<<
>>> Test on task  2 : loss=1.345 | TAw acc= 97.2%, forg=  0.0%| TAg acc= 76.9%, forg= -0.9% <<<
>>> Test on task  3 : loss=1.725 | TAw acc= 94.7%, forg= -0.9%| TAg acc= 59.3%, forg=  0.9% <<<
>>> Test on task  4 : loss=1.703 | TAw acc= 99.0%, forg= -1.0%| TAg acc= 58.3%, forg=  1.0% <<<
>>> Test on task  5 : loss=1.941 | TAw acc= 89.5%, forg= -8.6%| TAg acc= 39.0%, forg= 18.1% <<<
>>> Test on task  6 : loss=1.635 | TAw acc= 91.6%, forg=  0.0%| TAg acc= 72.3%, forg=  0.0% <<<
Save at eeil_e5_wisdm_5/wisdm_flex_eeil
======
LLL_Net(
  (model): SimpleMLP(
    (fc1): Linear(in_features=91, out_features=1000, bias=True)
    (fc2): Sequential()
  )
  (heads): ModuleList(
    (0): Linear(in_features=1000, out_features=34, bias=True)
    (1): Linear(in_features=1000, out_features=20, bias=True)
    (2): Linear(in_features=1000, out_features=20, bias=True)
    (3): Linear(in_features=1000, out_features=20, bias=True)
    (4): Linear(in_features=1000, out_features=20, bias=True)
    (5): Linear(in_features=1000, out_features=20, bias=True)
    (6): Linear(in_features=1000, out_features=20, bias=True)
  )
)
======

************************************************************************************************************
Task  7
************************************************************************************************************
| Epoch   1, time=  0.6s | Train: skip eval | Valid: time=  0.2s loss=4.410, TAw acc= 52.1% | *
| Epoch   2, time=  0.5s | Train: skip eval | Valid: time=  0.2s loss=3.017, TAw acc= 61.6% | *
…
>>> Test on task  2 : loss=1.189 | TAw acc= 97.2%, forg=  0.0%| TAg acc= 82.4%, forg= -5.6% <<<
>>> Test on task  3 : loss=1.437 | TAw acc= 94.7%, forg=  0.0%| TAg acc= 80.5%, forg=-20.4% <<<
>>> Test on task  4 : loss=1.539 | TAw acc= 99.0%, forg=  0.0%| TAg acc= 68.0%, forg= -8.7% <<<
>>> Test on task  5 : loss=1.734 | TAw acc= 92.4%, forg= -2.9%| TAg acc= 61.9%, forg= -4.8% <<<
>>> Test on task  6 : loss=1.895 | TAw acc= 92.4%, forg= -0.8%| TAg acc= 53.8%, forg= 18.5% <<<
>>> Test on task  7 : loss=1.762 | TAw acc= 83.2%, forg=  0.0%| TAg acc= 52.5%, forg=  0.0% <<<
Save at eeil_e5_wisdm_5/wisdm_flex_eeil
======
LLL_Net(
  (model): SimpleMLP(
    (fc1): Linear(in_features=91, out_features=1000, bias=True)
    (fc2): Sequential()
  )
  (heads): ModuleList(
    (0): Linear(in_features=1000, out_features=34, bias=True)
    (1): Linear(in_features=1000, out_features=20, bias=True)
    (2): Linear(in_features=1000, out_features=20, bias=True)
    (3): Linear(in_features=1000, out_features=20, bias=True)
    (4): Linear(in_features=1000, out_features=20, bias=True)
    (5): Linear(in_features=1000, out_features=20, bias=True)
    (6): Linear(in_features=1000, out_features=20, bias=True)
    (7): Linear(in_features=1000, out_features=20, bias=True)
  )
)
======

************************************************************************************************************
Task  8
************************************************************************************************************
| Epoch   1, time=  0.6s | Train: skip eval | Valid: time=  0.2s loss=4.666, TAw acc= 35.2% | *
| Epoch   2, time=  0.6s | Train: skip eval | Valid: time=  0.2s loss=3.221, TAw acc= 53.5% | *
…
>>> Test on task  3 : loss=1.317 | TAw acc= 94.7%, forg=  0.0%| TAg acc= 74.3%, forg=  6.2% <<<
>>> Test on task  4 : loss=1.399 | TAw acc= 99.0%, forg=  0.0%| TAg acc= 71.8%, forg= -3.9% <<<
>>> Test on task  5 : loss=1.693 | TAw acc= 92.4%, forg=  0.0%| TAg acc= 65.7%, forg= -3.8% <<<
>>> Test on task  6 : loss=1.739 | TAw acc= 95.0%, forg= -2.5%| TAg acc= 52.1%, forg= 20.2% <<<
>>> Test on task  7 : loss=1.910 | TAw acc= 92.1%, forg= -8.9%| TAg acc= 51.5%, forg=  1.0% <<<
>>> Test on task  8 : loss=1.725 | TAw acc= 92.9%, forg=  0.0%| TAg acc= 61.2%, forg=  0.0% <<<
Save at eeil_e5_wisdm_5/wisdm_flex_eeil
======
LLL_Net(
  (model): SimpleMLP(
    (fc1): Linear(in_features=91, out_features=1000, bias=True)
    (fc2): Sequential()
  )
  (heads): ModuleList(
    (0): Linear(in_features=1000, out_features=34, bias=True)
    (1): Linear(in_features=1000, out_features=20, bias=True)
    (2): Linear(in_features=1000, out_features=20, bias=True)
    (3): Linear(in_features=1000, out_features=20, bias=True)
    (4): Linear(in_features=1000, out_features=20, bias=True)
    (5): Linear(in_features=1000, out_features=20, bias=True)
    (6): Linear(in_features=1000, out_features=20, bias=True)
    (7): Linear(in_features=1000, out_features=20, bias=True)
    (8): Linear(in_features=1000, out_features=20, bias=True)
  )
)
======

************************************************************************************************************
Task  9
************************************************************************************************************
| Epoch   1, time=  0.7s | Train: skip eval | Valid: time=  0.2s loss=4.599, TAw acc= 45.1% | *
| Epoch   2, time=  0.7s | Train: skip eval | Valid: time=  0.2s loss=3.157, TAw acc= 58.2% | *
…
>>> Test on task  4 : loss=1.330 | TAw acc= 99.0%, forg=  0.0%| TAg acc= 74.8%, forg= -2.9% <<<
>>> Test on task  5 : loss=1.502 | TAw acc= 93.3%, forg= -1.0%| TAg acc= 74.3%, forg= -8.6% <<<
>>> Test on task  6 : loss=1.648 | TAw acc= 95.8%, forg= -0.8%| TAg acc= 61.3%, forg= 10.9% <<<
>>> Test on task  7 : loss=1.765 | TAw acc= 93.1%, forg= -1.0%| TAg acc= 54.5%, forg= -2.0% <<<
>>> Test on task  8 : loss=1.753 | TAw acc= 98.0%, forg= -5.1%| TAg acc= 45.9%, forg= 15.3% <<<
>>> Test on task  9 : loss=1.569 | TAw acc= 91.7%, forg=  0.0%| TAg acc= 71.1%, forg=  0.0% <<<
Save at eeil_e5_wisdm_5/wisdm_flex_eeil
======
LLL_Net(
  (model): SimpleMLP(
    (fc1): Linear(in_features=91, out_features=1000, bias=True)
    (fc2): Sequential()
  )
  (heads): ModuleList(
    (0): Linear(in_features=1000, out_features=34, bias=True)
    (1): Linear(in_features=1000, out_features=20, bias=True)
    (2): Linear(in_features=1000, out_features=20, bias=True)
    (3): Linear(in_features=1000, out_features=20, bias=True)
    (4): Linear(in_features=1000, out_features=20, bias=True)
    (5): Linear(in_features=1000, out_features=20, bias=True)
    (6): Linear(in_features=1000, out_features=20, bias=True)
    (7): Linear(in_features=1000, out_features=20, bias=True)
    (8): Linear(in_features=1000, out_features=20, bias=True)
    (9): Linear(in_features=1000, out_features=20, bias=True)
  )
)
======

************************************************************************************************************
Task 10
************************************************************************************************************
| Epoch   1, time=  0.7s | Train: skip eval | Valid: time=  0.2s loss=4.800, TAw acc= 43.2% | *
| Epoch   2, time=  0.7s | Train: skip eval | Valid: time=  0.2s loss=3.157, TAw acc= 50.6% | *
…
>>> Test on task  5 : loss=1.501 | TAw acc= 93.3%, forg=  0.0%| TAg acc= 69.5%, forg=  4.8% <<<
>>> Test on task  6 : loss=1.536 | TAw acc= 95.0%, forg=  0.8%| TAg acc= 66.4%, forg=  5.9% <<<
>>> Test on task  7 : loss=1.749 | TAw acc= 92.1%, forg=  1.0%| TAg acc= 56.4%, forg= -2.0% <<<
>>> Test on task  8 : loss=1.609 | TAw acc= 98.0%, forg=  0.0%| TAg acc= 51.0%, forg= 10.2% <<<
>>> Test on task  9 : loss=1.927 | TAw acc= 99.2%, forg= -7.4%| TAg acc= 39.7%, forg= 31.4% <<<
>>> Test on task 10 : loss=1.474 | TAw acc= 84.5%, forg=  0.0%| TAg acc= 64.5%, forg=  0.0% <<<
Save at eeil_e5_wisdm_5/wisdm_flex_eeil
======
LLL_Net(
  (model): SimpleMLP(
    (fc1): Linear(in_features=91, out_features=1000, bias=True)
    (fc2): Sequential()
  )
  (heads): ModuleList(
    (0): Linear(in_features=1000, out_features=34, bias=True)
    (1): Linear(in_features=1000, out_features=20, bias=True)
    (2): Linear(in_features=1000, out_features=20, bias=True)
    (3): Linear(in_features=1000, out_features=20, bias=True)
    (4): Linear(in_features=1000, out_features=20, bias=True)
    (5): Linear(in_features=1000, out_features=20, bias=True)
    (6): Linear(in_features=1000, out_features=20, bias=True)
    (7): Linear(in_features=1000, out_features=20, bias=True)
    (8): Linear(in_features=1000, out_features=20, bias=True)
    (9): Linear(in_features=1000, out_features=20, bias=True)
    (10): Linear(in_features=1000, out_features=20, bias=True)
  )
)
======

************************************************************************************************************
Task 11
************************************************************************************************************
| Epoch   1, time=  0.9s | Train: skip eval | Valid: time=  0.2s loss=4.496, TAw acc= 40.4% | *
| Epoch   2, time=  0.8s | Train: skip eval | Valid: time=  0.2s loss=2.856, TAw acc= 67.4% | *
…
>>> Test on task  6 : loss=1.446 | TAw acc= 94.1%, forg=  1.7%| TAg acc= 68.9%, forg=  3.4% <<<
>>> Test on task  7 : loss=1.511 | TAw acc= 93.1%, forg=  0.0%| TAg acc= 71.3%, forg=-14.9% <<<
>>> Test on task  8 : loss=1.509 | TAw acc= 98.0%, forg=  0.0%| TAg acc= 59.2%, forg=  2.0% <<<
>>> Test on task  9 : loss=1.776 | TAw acc= 99.2%, forg=  0.0%| TAg acc= 44.6%, forg= 26.4% <<<
>>> Test on task 10 : loss=1.849 | TAw acc= 93.6%, forg= -9.1%| TAg acc= 34.5%, forg= 30.0% <<<
>>> Test on task 11 : loss=1.443 | TAw acc= 93.3%, forg=  0.0%| TAg acc= 73.9%, forg=  0.0% <<<
Save at eeil_e5_wisdm_5/wisdm_flex_eeil
======
LLL_Net(
  (model): SimpleMLP(
    (fc1): Linear(in_features=91, out_features=1000, bias=True)
    (fc2): Sequential()
  )
  (heads): ModuleList(
    (0): Linear(in_features=1000, out_features=34, bias=True)
    (1): Linear(in_features=1000, out_features=20, bias=True)
    (2): Linear(in_features=1000, out_features=20, bias=True)
    (3): Linear(in_features=1000, out_features=20, bias=True)
    (4): Linear(in_features=1000, out_features=20, bias=True)
    (5): Linear(in_features=1000, out_features=20, bias=True)
    (6): Linear(in_features=1000, out_features=20, bias=True)
    (7): Linear(in_features=1000, out_features=20, bias=True)
    (8): Linear(in_features=1000, out_features=20, bias=True)
    (9): Linear(in_features=1000, out_features=20, bias=True)
    (10): Linear(in_features=1000, out_features=20, bias=True)
    (11): Linear(in_features=1000, out_features=20, bias=True)
  )
)
======

************************************************************************************************************
Task 12
************************************************************************************************************
| Epoch   1, time=  0.9s | Train: skip eval | Valid: time=  0.2s loss=4.892, TAw acc= 31.3% | *
| Epoch   2, time=  1.0s | Train: skip eval | Valid: time=  0.2s loss=3.099, TAw acc= 60.2% | *
…
>>> Test on task  7 : loss=1.442 | TAw acc= 98.0%, forg= -5.0%| TAg acc= 71.3%, forg=  0.0% <<<
>>> Test on task  8 : loss=1.484 | TAw acc= 98.0%, forg=  0.0%| TAg acc= 63.3%, forg= -2.0% <<<
>>> Test on task  9 : loss=1.548 | TAw acc= 99.2%, forg=  0.0%| TAg acc= 64.5%, forg=  6.6% <<<
>>> Test on task 10 : loss=1.693 | TAw acc= 93.6%, forg=  0.0%| TAg acc= 44.5%, forg= 20.0% <<<
>>> Test on task 11 : loss=1.782 | TAw acc= 93.3%, forg=  0.0%| TAg acc= 44.5%, forg= 29.4% <<<
>>> Test on task 12 : loss=1.543 | TAw acc= 93.8%, forg=  0.0%| TAg acc= 62.5%, forg=  0.0% <<<
Save at eeil_e5_wisdm_5/wisdm_flex_eeil
======
LLL_Net(
  (model): SimpleMLP(
    (fc1): Linear(in_features=91, out_features=1000, bias=True)
    (fc2): Sequential()
  )
  (heads): ModuleList(
    (0): Linear(in_features=1000, out_features=34, bias=True)
    (1): Linear(in_features=1000, out_features=20, bias=True)
    (2): Linear(in_features=1000, out_features=20, bias=True)
    (3): Linear(in_features=1000, out_features=20, bias=True)
    (4): Linear(in_features=1000, out_features=20, bias=True)
    (5): Linear(in_features=1000, out_features=20, bias=True)
    (6): Linear(in_features=1000, out_features=20, bias=True)
    (7): Linear(in_features=1000, out_features=20, bias=True)
    (8): Linear(in_features=1000, out_features=20, bias=True)
    (9): Linear(in_features=1000, out_features=20, bias=True)
    (10): Linear(in_features=1000, out_features=20, bias=True)
    (11): Linear(in_features=1000, out_features=20, bias=True)
    (12): Linear(in_features=1000, out_features=20, bias=True)
  )
)
======

************************************************************************************************************
Task 13
************************************************************************************************************
| Epoch   1, time=  1.0s | Train: skip eval | Valid: time=  0.2s loss=4.981, TAw acc= 44.6% | *
| Epoch   2, time=  1.0s | Train: skip eval | Valid: time=  0.2s loss=3.036, TAw acc= 63.0% | *
…
>>> Test on task  8 : loss=1.518 | TAw acc= 98.0%, forg=  0.0%| TAg acc= 61.2%, forg=  2.0% <<<
>>> Test on task  9 : loss=1.409 | TAw acc= 98.3%, forg=  0.8%| TAg acc= 68.6%, forg=  2.5% <<<
>>> Test on task 10 : loss=1.522 | TAw acc= 94.5%, forg= -0.9%| TAg acc= 56.4%, forg=  8.2% <<<
>>> Test on task 11 : loss=1.665 | TAw acc= 95.0%, forg= -1.7%| TAg acc= 52.9%, forg= 21.0% <<<
>>> Test on task 12 : loss=1.912 | TAw acc= 92.9%, forg=  0.9%| TAg acc= 29.5%, forg= 33.0% <<<
>>> Test on task 13 : loss=1.277 | TAw acc= 90.2%, forg=  0.0%| TAg acc= 69.7%, forg=  0.0% <<<
Save at eeil_e5_wisdm_5/wisdm_flex_eeil
======
LLL_Net(
  (model): SimpleMLP(
    (fc1): Linear(in_features=91, out_features=1000, bias=True)
    (fc2): Sequential()
  )
  (heads): ModuleList(
    (0): Linear(in_features=1000, out_features=34, bias=True)
    (1): Linear(in_features=1000, out_features=20, bias=True)
    (2): Linear(in_features=1000, out_features=20, bias=True)
    (3): Linear(in_features=1000, out_features=20, bias=True)
    (4): Linear(in_features=1000, out_features=20, bias=True)
    (5): Linear(in_features=1000, out_features=20, bias=True)
    (6): Linear(in_features=1000, out_features=20, bias=True)
    (7): Linear(in_features=1000, out_features=20, bias=True)
    (8): Linear(in_features=1000, out_features=20, bias=True)
    (9): Linear(in_features=1000, out_features=20, bias=True)
    (10): Linear(in_features=1000, out_features=20, bias=True)
    (11): Linear(in_features=1000, out_features=20, bias=True)
    (12): Linear(in_features=1000, out_features=20, bias=True)
    (13): Linear(in_features=1000, out_features=20, bias=True)
  )
)
======

************************************************************************************************************
Task 14
************************************************************************************************************
| Epoch   1, time=  1.0s | Train: skip eval | Valid: time=  0.2s loss=4.560, TAw acc= 36.9% | *
| Epoch   2, time=  1.1s | Train: skip eval | Valid: time=  0.2s loss=2.778, TAw acc= 60.7% | *
…
>>> Test on task  9 : loss=1.416 | TAw acc= 98.3%, forg=  0.8%| TAg acc= 67.8%, forg=  3.3% <<<
>>> Test on task 10 : loss=1.461 | TAw acc= 94.5%, forg=  0.0%| TAg acc= 59.1%, forg=  5.5% <<<
>>> Test on task 11 : loss=1.518 | TAw acc= 95.0%, forg=  0.0%| TAg acc= 56.3%, forg= 17.6% <<<
>>> Test on task 12 : loss=1.864 | TAw acc= 93.8%, forg=  0.0%| TAg acc= 33.0%, forg= 29.5% <<<
>>> Test on task 13 : loss=1.708 | TAw acc= 91.8%, forg= -1.6%| TAg acc= 43.4%, forg= 26.2% <<<
>>> Test on task 14 : loss=1.499 | TAw acc= 87.5%, forg=  0.0%| TAg acc= 66.1%, forg=  0.0% <<<
Save at eeil_e5_wisdm_5/wisdm_flex_eeil
======
LLL_Net(
  (model): SimpleMLP(
    (fc1): Linear(in_features=91, out_features=1000, bias=True)
    (fc2): Sequential()
  )
  (heads): ModuleList(
    (0): Linear(in_features=1000, out_features=34, bias=True)
    (1): Linear(in_features=1000, out_features=20, bias=True)
    (2): Linear(in_features=1000, out_features=20, bias=True)
    (3): Linear(in_features=1000, out_features=20, bias=True)
    (4): Linear(in_features=1000, out_features=20, bias=True)
    (5): Linear(in_features=1000, out_features=20, bias=True)
    (6): Linear(in_features=1000, out_features=20, bias=True)
    (7): Linear(in_features=1000, out_features=20, bias=True)
    (8): Linear(in_features=1000, out_features=20, bias=True)
    (9): Linear(in_features=1000, out_features=20, bias=True)
    (10): Linear(in_features=1000, out_features=20, bias=True)
    (11): Linear(in_features=1000, out_features=20, bias=True)
    (12): Linear(in_features=1000, out_features=20, bias=True)
    (13): Linear(in_features=1000, out_features=20, bias=True)
    (14): Linear(in_features=1000, out_features=20, bias=True)
  )
)
======

************************************************************************************************************
Task 15
************************************************************************************************************
| Epoch   1, time=  1.2s | Train: skip eval | Valid: time=  0.2s loss=5.119, TAw acc= 53.2% | *
| Epoch   2, time=  1.2s | Train: skip eval | Valid: time=  0.2s loss=3.069, TAw acc= 57.0% | *
…
>>> Test on task 10 : loss=1.329 | TAw acc= 94.5%, forg=  0.0%| TAg acc= 69.1%, forg= -4.5% <<<
>>> Test on task 11 : loss=1.417 | TAw acc= 94.1%, forg=  0.8%| TAg acc= 63.9%, forg= 10.1% <<<
>>> Test on task 12 : loss=1.692 | TAw acc= 92.9%, forg=  0.9%| TAg acc= 42.9%, forg= 19.6% <<<
>>> Test on task 13 : loss=1.616 | TAw acc= 94.3%, forg= -2.5%| TAg acc= 48.4%, forg= 21.3% <<<
>>> Test on task 14 : loss=1.869 | TAw acc= 94.6%, forg= -7.1%| TAg acc= 52.7%, forg= 13.4% <<<
>>> Test on task 15 : loss=1.436 | TAw acc= 90.7%, forg=  0.0%| TAg acc= 63.0%, forg=  0.0% <<<
Save at eeil_e5_wisdm_5/wisdm_flex_eeil
======
LLL_Net(
  (model): SimpleMLP(
    (fc1): Linear(in_features=91, out_features=1000, bias=True)
    (fc2): Sequential()
  )
  (heads): ModuleList(
    (0): Linear(in_features=1000, out_features=34, bias=True)
    (1): Linear(in_features=1000, out_features=20, bias=True)
    (2): Linear(in_features=1000, out_features=20, bias=True)
    (3): Linear(in_features=1000, out_features=20, bias=True)
    (4): Linear(in_features=1000, out_features=20, bias=True)
    (5): Linear(in_features=1000, out_features=20, bias=True)
    (6): Linear(in_features=1000, out_features=20, bias=True)
    (7): Linear(in_features=1000, out_features=20, bias=True)
    (8): Linear(in_features=1000, out_features=20, bias=True)
    (9): Linear(in_features=1000, out_features=20, bias=True)
    (10): Linear(in_features=1000, out_features=20, bias=True)
    (11): Linear(in_features=1000, out_features=20, bias=True)
    (12): Linear(in_features=1000, out_features=20, bias=True)
    (13): Linear(in_features=1000, out_features=20, bias=True)
    (14): Linear(in_features=1000, out_features=20, bias=True)
    (15): Linear(in_features=1000, out_features=20, bias=True)
  )
)
======

************************************************************************************************************
Task 16
************************************************************************************************************
| Epoch   1, time=  1.3s | Train: skip eval | Valid: time=  0.2s loss=4.396, TAw acc= 45.8% | *
| Epoch   2, time=  1.3s | Train: skip eval | Valid: time=  0.2s loss=2.584, TAw acc= 78.3% | *
…
>>> Test on task 11 : loss=1.524 | TAw acc= 95.0%, forg=  0.0%| TAg acc= 56.3%, forg= 17.6% <<<
>>> Test on task 12 : loss=1.841 | TAw acc= 92.0%, forg=  1.8%| TAg acc= 36.6%, forg= 25.9% <<<
>>> Test on task 13 : loss=1.569 | TAw acc= 95.1%, forg= -0.8%| TAg acc= 50.8%, forg= 18.9% <<<
>>> Test on task 14 : loss=1.743 | TAw acc= 93.8%, forg=  0.9%| TAg acc= 62.5%, forg=  3.6% <<<
>>> Test on task 15 : loss=1.656 | TAw acc= 95.4%, forg= -4.6%| TAg acc= 46.3%, forg= 16.7% <<<
>>> Test on task 16 : loss=1.452 | TAw acc= 92.0%, forg=  0.0%| TAg acc= 64.6%, forg=  0.0% <<<
Save at eeil_e5_wisdm_5/wisdm_flex_eeil
======
LLL_Net(
  (model): SimpleMLP(
    (fc1): Linear(in_features=91, out_features=1000, bias=True)
    (fc2): Sequential()
  )
  (heads): ModuleList(
    (0): Linear(in_features=1000, out_features=34, bias=True)
    (1): Linear(in_features=1000, out_features=20, bias=True)
    (2): Linear(in_features=1000, out_features=20, bias=True)
    (3): Linear(in_features=1000, out_features=20, bias=True)
    (4): Linear(in_features=1000, out_features=20, bias=True)
    (5): Linear(in_features=1000, out_features=20, bias=True)
    (6): Linear(in_features=1000, out_features=20, bias=True)
    (7): Linear(in_features=1000, out_features=20, bias=True)
    (8): Linear(in_features=1000, out_features=20, bias=True)
    (9): Linear(in_features=1000, out_features=20, bias=True)
    (10): Linear(in_features=1000, out_features=20, bias=True)
    (11): Linear(in_features=1000, out_features=20, bias=True)
    (12): Linear(in_features=1000, out_features=20, bias=True)
    (13): Linear(in_features=1000, out_features=20, bias=True)
    (14): Linear(in_features=1000, out_features=20, bias=True)
    (15): Linear(in_features=1000, out_features=20, bias=True)
    (16): Linear(in_features=1000, out_features=20, bias=True)
  )
)
======

************************************************************************************************************
Task 17
************************************************************************************************************
| Epoch   1, time=  1.4s | Train: skip eval | Valid: time=  0.2s loss=5.382, TAw acc= 33.3% | *
| Epoch   2, time=  1.4s | Train: skip eval | Valid: time=  0.2s loss=3.839, TAw acc= 56.9% | *
…
>>> Test on task 12 : loss=1.469 | TAw acc= 93.8%, forg=  0.0%| TAg acc= 55.4%, forg=  7.1% <<<
>>> Test on task 13 : loss=1.392 | TAw acc= 94.3%, forg=  0.8%| TAg acc= 57.4%, forg= 12.3% <<<
>>> Test on task 14 : loss=1.669 | TAw acc= 93.8%, forg=  0.9%| TAg acc= 67.0%, forg= -0.9% <<<
>>> Test on task 15 : loss=1.522 | TAw acc= 94.4%, forg=  0.9%| TAg acc= 55.6%, forg=  7.4% <<<
>>> Test on task 16 : loss=1.742 | TAw acc= 97.3%, forg= -5.3%| TAg acc= 46.0%, forg= 18.6% <<<
>>> Test on task 17 : loss=1.546 | TAw acc= 93.9%, forg=  0.0%| TAg acc= 60.6%, forg=  0.0% <<<
Save at eeil_e5_wisdm_5/wisdm_flex_eeil
======
LLL_Net(
  (model): SimpleMLP(
    (fc1): Linear(in_features=91, out_features=1000, bias=True)
    (fc2): Sequential()
  )
  (heads): ModuleList(
    (0): Linear(in_features=1000, out_features=34, bias=True)
    (1): Linear(in_features=1000, out_features=20, bias=True)
    (2): Linear(in_features=1000, out_features=20, bias=True)
    (3): Linear(in_features=1000, out_features=20, bias=True)
    (4): Linear(in_features=1000, out_features=20, bias=True)
    (5): Linear(in_features=1000, out_features=20, bias=True)
    (6): Linear(in_features=1000, out_features=20, bias=True)
    (7): Linear(in_features=1000, out_features=20, bias=True)
    (8): Linear(in_features=1000, out_features=20, bias=True)
    (9): Linear(in_features=1000, out_features=20, bias=True)
    (10): Linear(in_features=1000, out_features=20, bias=True)
    (11): Linear(in_features=1000, out_features=20, bias=True)
    (12): Linear(in_features=1000, out_features=20, bias=True)
    (13): Linear(in_features=1000, out_features=20, bias=True)
    (14): Linear(in_features=1000, out_features=20, bias=True)
    (15): Linear(in_features=1000, out_features=20, bias=True)
    (16): Linear(in_features=1000, out_features=20, bias=True)
    (17): Linear(in_features=1000, out_features=20, bias=True)
  )
)
======

************************************************************************************************************
Task 18
************************************************************************************************************
| Epoch   1, time=  1.4s | Train: skip eval | Valid: time=  0.2s loss=5.132, TAw acc= 39.5% | *
| Epoch   2, time=  1.4s | Train: skip eval | Valid: time=  0.2s loss=3.134, TAw acc= 60.5% | *
…
>>> Test on task 13 : loss=1.412 | TAw acc= 94.3%, forg=  0.8%| TAg acc= 59.0%, forg= 10.7% <<<
>>> Test on task 14 : loss=1.668 | TAw acc= 93.8%, forg=  0.9%| TAg acc= 69.6%, forg= -2.7% <<<
>>> Test on task 15 : loss=1.541 | TAw acc= 94.4%, forg=  0.9%| TAg acc= 56.5%, forg=  6.5% <<<
>>> Test on task 16 : loss=1.658 | TAw acc= 96.5%, forg=  0.9%| TAg acc= 53.1%, forg= 11.5% <<<
>>> Test on task 17 : loss=1.572 | TAw acc= 94.9%, forg= -1.0%| TAg acc= 61.6%, forg= -1.0% <<<
>>> Test on task 18 : loss=1.549 | TAw acc= 94.5%, forg=  0.0%| TAg acc= 63.6%, forg=  0.0% <<<
Save at eeil_e5_wisdm_5/wisdm_flex_eeil
======
LLL_Net(
  (model): SimpleMLP(
    (fc1): Linear(in_features=91, out_features=1000, bias=True)
    (fc2): Sequential()
  )
  (heads): ModuleList(
    (0): Linear(in_features=1000, out_features=34, bias=True)
    (1): Linear(in_features=1000, out_features=20, bias=True)
    (2): Linear(in_features=1000, out_features=20, bias=True)
    (3): Linear(in_features=1000, out_features=20, bias=True)
    (4): Linear(in_features=1000, out_features=20, bias=True)
    (5): Linear(in_features=1000, out_features=20, bias=True)
    (6): Linear(in_features=1000, out_features=20, bias=True)
    (7): Linear(in_features=1000, out_features=20, bias=True)
    (8): Linear(in_features=1000, out_features=20, bias=True)
    (9): Linear(in_features=1000, out_features=20, bias=True)
    (10): Linear(in_features=1000, out_features=20, bias=True)
    (11): Linear(in_features=1000, out_features=20, bias=True)
    (12): Linear(in_features=1000, out_features=20, bias=True)
    (13): Linear(in_features=1000, out_features=20, bias=True)
    (14): Linear(in_features=1000, out_features=20, bias=True)
    (15): Linear(in_features=1000, out_features=20, bias=True)
    (16): Linear(in_features=1000, out_features=20, bias=True)
    (17): Linear(in_features=1000, out_features=20, bias=True)
    (18): Linear(in_features=1000, out_features=20, bias=True)
  )
)
======

************************************************************************************************************
Task 19
************************************************************************************************************
| Epoch   1, time=  1.6s | Train: skip eval | Valid: time=  0.3s loss=4.541, TAw acc= 56.0% | *
| Epoch   2, time=  1.5s | Train: skip eval | Valid: time=  0.2s loss=2.563, TAw acc= 73.8% | *
…
>>> Test on task 14 : loss=1.614 | TAw acc= 94.6%, forg=  0.0%| TAg acc= 66.1%, forg=  3.6% <<<
>>> Test on task 15 : loss=1.392 | TAw acc= 93.5%, forg=  1.9%| TAg acc= 60.2%, forg=  2.8% <<<
>>> Test on task 16 : loss=1.615 | TAw acc= 94.7%, forg=  2.7%| TAg acc= 53.1%, forg= 11.5% <<<
>>> Test on task 17 : loss=1.467 | TAw acc= 96.0%, forg= -1.0%| TAg acc= 60.6%, forg=  1.0% <<<
>>> Test on task 18 : loss=1.930 | TAw acc= 98.2%, forg= -3.6%| TAg acc= 40.0%, forg= 23.6% <<<
>>> Test on task 19 : loss=1.311 | TAw acc= 92.0%, forg=  0.0%| TAg acc= 71.7%, forg=  0.0% <<<
Save at eeil_e5_wisdm_5/wisdm_flex_eeil
======
LLL_Net(
  (model): SimpleMLP(
    (fc1): Linear(in_features=91, out_features=1000, bias=True)
    (fc2): Sequential()
  )
  (heads): ModuleList(
    (0): Linear(in_features=1000, out_features=34, bias=True)
    (1): Linear(in_features=1000, out_features=20, bias=True)
    (2): Linear(in_features=1000, out_features=20, bias=True)
    (3): Linear(in_features=1000, out_features=20, bias=True)
    (4): Linear(in_features=1000, out_features=20, bias=True)
    (5): Linear(in_features=1000, out_features=20, bias=True)
    (6): Linear(in_features=1000, out_features=20, bias=True)
    (7): Linear(in_features=1000, out_features=20, bias=True)
    (8): Linear(in_features=1000, out_features=20, bias=True)
    (9): Linear(in_features=1000, out_features=20, bias=True)
    (10): Linear(in_features=1000, out_features=20, bias=True)
    (11): Linear(in_features=1000, out_features=20, bias=True)
    (12): Linear(in_features=1000, out_features=20, bias=True)
    (13): Linear(in_features=1000, out_features=20, bias=True)
    (14): Linear(in_features=1000, out_features=20, bias=True)
    (15): Linear(in_features=1000, out_features=20, bias=True)
    (16): Linear(in_features=1000, out_features=20, bias=True)
    (17): Linear(in_features=1000, out_features=20, bias=True)
    (18): Linear(in_features=1000, out_features=20, bias=True)
    (19): Linear(in_features=1000, out_features=20, bias=True)
  )
)
======

************************************************************************************************************
Task 20
************************************************************************************************************
| Epoch   1, time=  1.8s | Train: skip eval | Valid: time=  0.2s loss=4.504, TAw acc= 45.9% | *
| Epoch   2, time=  1.8s | Train: skip eval | Valid: time=  0.2s loss=2.996, TAw acc= 69.4% | *
…
>>> Test on task 15 : loss=1.272 | TAw acc= 92.6%, forg=  2.8%| TAg acc= 67.6%, forg= -4.6% <<<
>>> Test on task 16 : loss=1.461 | TAw acc= 96.5%, forg=  0.9%| TAg acc= 62.8%, forg=  1.8% <<<
>>> Test on task 17 : loss=1.262 | TAw acc= 96.0%, forg=  0.0%| TAg acc= 69.7%, forg= -8.1% <<<
>>> Test on task 18 : loss=1.904 | TAw acc= 96.4%, forg=  1.8%| TAg acc= 43.6%, forg= 20.0% <<<
>>> Test on task 19 : loss=1.692 | TAw acc= 95.6%, forg= -3.5%| TAg acc= 54.0%, forg= 17.7% <<<
>>> Test on task 20 : loss=1.338 | TAw acc= 96.6%, forg=  0.0%| TAg acc= 71.6%, forg=  0.0% <<<
Save at eeil_e5_wisdm_5/wisdm_flex_eeil
======
LLL_Net(
  (model): SimpleMLP(
    (fc1): Linear(in_features=91, out_features=1000, bias=True)
    (fc2): Sequential()
  )
  (heads): ModuleList(
    (0): Linear(in_features=1000, out_features=34, bias=True)
    (1): Linear(in_features=1000, out_features=20, bias=True)
    (2): Linear(in_features=1000, out_features=20, bias=True)
    (3): Linear(in_features=1000, out_features=20, bias=True)
    (4): Linear(in_features=1000, out_features=20, bias=True)
    (5): Linear(in_features=1000, out_features=20, bias=True)
    (6): Linear(in_features=1000, out_features=20, bias=True)
    (7): Linear(in_features=1000, out_features=20, bias=True)
    (8): Linear(in_features=1000, out_features=20, bias=True)
    (9): Linear(in_features=1000, out_features=20, bias=True)
    (10): Linear(in_features=1000, out_features=20, bias=True)
    (11): Linear(in_features=1000, out_features=20, bias=True)
    (12): Linear(in_features=1000, out_features=20, bias=True)
    (13): Linear(in_features=1000, out_features=20, bias=True)
    (14): Linear(in_features=1000, out_features=20, bias=True)
    (15): Linear(in_features=1000, out_features=20, bias=True)
    (16): Linear(in_features=1000, out_features=20, bias=True)
    (17): Linear(in_features=1000, out_features=20, bias=True)
    (18): Linear(in_features=1000, out_features=20, bias=True)
    (19): Linear(in_features=1000, out_features=20, bias=True)
    (20): Linear(in_features=1000, out_features=20, bias=True)
  )
)
======

************************************************************************************************************
Task 21
************************************************************************************************************
| Epoch   1, time=  1.8s | Train: skip eval | Valid: time=  0.3s loss=5.582, TAw acc= 46.3% | *
| Epoch   2, time=  1.7s | Train: skip eval | Valid: time=  0.2s loss=3.232, TAw acc= 67.1% | *
…
>>> Test on task 16 : loss=1.424 | TAw acc= 96.5%, forg=  0.9%| TAg acc= 61.9%, forg=  2.7% <<<
>>> Test on task 17 : loss=1.276 | TAw acc= 97.0%, forg= -1.0%| TAg acc= 65.7%, forg=  4.0% <<<
>>> Test on task 18 : loss=1.719 | TAw acc= 98.2%, forg=  0.0%| TAg acc= 49.1%, forg= 14.5% <<<
>>> Test on task 19 : loss=1.647 | TAw acc= 94.7%, forg=  0.9%| TAg acc= 56.6%, forg= 15.0% <<<
>>> Test on task 20 : loss=1.736 | TAw acc= 97.4%, forg= -0.9%| TAg acc= 57.8%, forg= 13.8% <<<
>>> Test on task 21 : loss=1.320 | TAw acc= 93.6%, forg=  0.0%| TAg acc= 66.4%, forg=  0.0% <<<
Save at eeil_e5_wisdm_5/wisdm_flex_eeil
======
LLL_Net(
  (model): SimpleMLP(
    (fc1): Linear(in_features=91, out_features=1000, bias=True)
    (fc2): Sequential()
  )
  (heads): ModuleList(
    (0): Linear(in_features=1000, out_features=34, bias=True)
    (1): Linear(in_features=1000, out_features=20, bias=True)
    (2): Linear(in_features=1000, out_features=20, bias=True)
    (3): Linear(in_features=1000, out_features=20, bias=True)
    (4): Linear(in_features=1000, out_features=20, bias=True)
    (5): Linear(in_features=1000, out_features=20, bias=True)
    (6): Linear(in_features=1000, out_features=20, bias=True)
    (7): Linear(in_features=1000, out_features=20, bias=True)
    (8): Linear(in_features=1000, out_features=20, bias=True)
    (9): Linear(in_features=1000, out_features=20, bias=True)
    (10): Linear(in_features=1000, out_features=20, bias=True)
    (11): Linear(in_features=1000, out_features=20, bias=True)
    (12): Linear(in_features=1000, out_features=20, bias=True)
    (13): Linear(in_features=1000, out_features=20, bias=True)
    (14): Linear(in_features=1000, out_features=20, bias=True)
    (15): Linear(in_features=1000, out_features=20, bias=True)
    (16): Linear(in_features=1000, out_features=20, bias=True)
    (17): Linear(in_features=1000, out_features=20, bias=True)
    (18): Linear(in_features=1000, out_features=20, bias=True)
    (19): Linear(in_features=1000, out_features=20, bias=True)
    (20): Linear(in_features=1000, out_features=20, bias=True)
    (21): Linear(in_features=1000, out_features=20, bias=True)
  )
)
======

************************************************************************************************************
Task 22
************************************************************************************************************
| Epoch   1, time=  2.1s | Train: skip eval | Valid: time=  0.2s loss=5.405, TAw acc= 54.3% | *
| Epoch   2, time=  2.0s | Train: skip eval | Valid: time=  0.2s loss=2.891, TAw acc= 66.7% | *
…
>>> Test on task 17 : loss=1.232 | TAw acc= 97.0%, forg=  0.0%| TAg acc= 66.7%, forg=  3.0% <<<
>>> Test on task 18 : loss=1.620 | TAw acc= 98.2%, forg=  0.0%| TAg acc= 52.7%, forg= 10.9% <<<
>>> Test on task 19 : loss=1.461 | TAw acc= 95.6%, forg=  0.0%| TAg acc= 65.5%, forg=  6.2% <<<
>>> Test on task 20 : loss=1.505 | TAw acc= 97.4%, forg=  0.0%| TAg acc= 66.4%, forg=  5.2% <<<
>>> Test on task 21 : loss=1.708 | TAw acc= 90.9%, forg=  2.7%| TAg acc= 44.5%, forg= 21.8% <<<
>>> Test on task 22 : loss=1.189 | TAw acc= 97.2%, forg=  0.0%| TAg acc= 75.2%, forg=  0.0% <<<
Save at eeil_e5_wisdm_5/wisdm_flex_eeil
======
LLL_Net(
  (model): SimpleMLP(
    (fc1): Linear(in_features=91, out_features=1000, bias=True)
    (fc2): Sequential()
  )
  (heads): ModuleList(
    (0): Linear(in_features=1000, out_features=34, bias=True)
    (1): Linear(in_features=1000, out_features=20, bias=True)
    (2): Linear(in_features=1000, out_features=20, bias=True)
    (3): Linear(in_features=1000, out_features=20, bias=True)
    (4): Linear(in_features=1000, out_features=20, bias=True)
    (5): Linear(in_features=1000, out_features=20, bias=True)
    (6): Linear(in_features=1000, out_features=20, bias=True)
    (7): Linear(in_features=1000, out_features=20, bias=True)
    (8): Linear(in_features=1000, out_features=20, bias=True)
    (9): Linear(in_features=1000, out_features=20, bias=True)
    (10): Linear(in_features=1000, out_features=20, bias=True)
    (11): Linear(in_features=1000, out_features=20, bias=True)
    (12): Linear(in_features=1000, out_features=20, bias=True)
    (13): Linear(in_features=1000, out_features=20, bias=True)
    (14): Linear(in_features=1000, out_features=20, bias=True)
    (15): Linear(in_features=1000, out_features=20, bias=True)
    (16): Linear(in_features=1000, out_features=20, bias=True)
    (17): Linear(in_features=1000, out_features=20, bias=True)
    (18): Linear(in_features=1000, out_features=20, bias=True)
    (19): Linear(in_features=1000, out_features=20, bias=True)
    (20): Linear(in_features=1000, out_features=20, bias=True)
    (21): Linear(in_features=1000, out_features=20, bias=True)
    (22): Linear(in_features=1000, out_features=20, bias=True)
  )
)
======

************************************************************************************************************
Task 23
************************************************************************************************************
| Epoch   1, time=  2.1s | Train: skip eval | Valid: time=  0.2s loss=5.008, TAw acc= 51.8% | *
| Epoch   2, time=  2.1s | Train: skip eval | Valid: time=  0.2s loss=2.703, TAw acc= 63.9% | *
…
>>> Test on task 18 : loss=1.562 | TAw acc= 98.2%, forg=  0.0%| TAg acc= 59.1%, forg=  4.5% <<<
>>> Test on task 19 : loss=1.578 | TAw acc= 96.5%, forg= -0.9%| TAg acc= 53.1%, forg= 18.6% <<<
>>> Test on task 20 : loss=1.498 | TAw acc= 95.7%, forg=  1.7%| TAg acc= 61.2%, forg= 10.3% <<<
>>> Test on task 21 : loss=1.514 | TAw acc= 94.5%, forg= -0.9%| TAg acc= 60.0%, forg=  6.4% <<<
>>> Test on task 22 : loss=1.532 | TAw acc= 96.3%, forg=  0.9%| TAg acc= 56.0%, forg= 19.3% <<<
>>> Test on task 23 : loss=1.266 | TAw acc= 86.6%, forg=  0.0%| TAg acc= 65.2%, forg=  0.0% <<<
Save at eeil_e5_wisdm_5/wisdm_flex_eeil
======
LLL_Net(
  (model): SimpleMLP(
    (fc1): Linear(in_features=91, out_features=1000, bias=True)
    (fc2): Sequential()
  )
  (heads): ModuleList(
    (0): Linear(in_features=1000, out_features=34, bias=True)
    (1): Linear(in_features=1000, out_features=20, bias=True)
    (2): Linear(in_features=1000, out_features=20, bias=True)
    (3): Linear(in_features=1000, out_features=20, bias=True)
    (4): Linear(in_features=1000, out_features=20, bias=True)
    (5): Linear(in_features=1000, out_features=20, bias=True)
    (6): Linear(in_features=1000, out_features=20, bias=True)
    (7): Linear(in_features=1000, out_features=20, bias=True)
    (8): Linear(in_features=1000, out_features=20, bias=True)
    (9): Linear(in_features=1000, out_features=20, bias=True)
    (10): Linear(in_features=1000, out_features=20, bias=True)
    (11): Linear(in_features=1000, out_features=20, bias=True)
    (12): Linear(in_features=1000, out_features=20, bias=True)
    (13): Linear(in_features=1000, out_features=20, bias=True)
    (14): Linear(in_features=1000, out_features=20, bias=True)
    (15): Linear(in_features=1000, out_features=20, bias=True)
    (16): Linear(in_features=1000, out_features=20, bias=True)
    (17): Linear(in_features=1000, out_features=20, bias=True)
    (18): Linear(in_features=1000, out_features=20, bias=True)
    (19): Linear(in_features=1000, out_features=20, bias=True)
    (20): Linear(in_features=1000, out_features=20, bias=True)
    (21): Linear(in_features=1000, out_features=20, bias=True)
    (22): Linear(in_features=1000, out_features=20, bias=True)
    (23): Linear(in_features=1000, out_features=20, bias=True)
  )
)
======

************************************************************************************************************
Task 24
************************************************************************************************************
| Epoch   1, time=  2.3s | Train: skip eval | Valid: time=  0.2s loss=5.533, TAw acc= 46.9% | *
| Epoch   2, time=  2.3s | Train: skip eval | Valid: time=  0.2s loss=3.056, TAw acc= 64.2% | *
…
>>> Test on task 19 : loss=1.465 | TAw acc= 95.6%, forg=  0.9%| TAg acc= 62.8%, forg=  8.8% <<<
>>> Test on task 20 : loss=1.441 | TAw acc= 96.6%, forg=  0.9%| TAg acc= 65.5%, forg=  6.0% <<<
>>> Test on task 21 : loss=1.519 | TAw acc= 94.5%, forg=  0.0%| TAg acc= 57.3%, forg=  9.1% <<<
>>> Test on task 22 : loss=1.429 | TAw acc= 96.3%, forg=  0.9%| TAg acc= 58.7%, forg= 16.5% <<<
>>> Test on task 23 : loss=1.627 | TAw acc= 90.2%, forg= -3.6%| TAg acc= 50.9%, forg= 14.3% <<<
>>> Test on task 24 : loss=1.372 | TAw acc= 95.4%, forg=  0.0%| TAg acc= 73.4%, forg=  0.0% <<<
Save at eeil_e5_wisdm_5/wisdm_flex_eeil
======
LLL_Net(
  (model): SimpleMLP(
    (fc1): Linear(in_features=91, out_features=1000, bias=True)
    (fc2): Sequential()
  )
  (heads): ModuleList(
    (0): Linear(in_features=1000, out_features=34, bias=True)
    (1): Linear(in_features=1000, out_features=20, bias=True)
    (2): Linear(in_features=1000, out_features=20, bias=True)
    (3): Linear(in_features=1000, out_features=20, bias=True)
    (4): Linear(in_features=1000, out_features=20, bias=True)
    (5): Linear(in_features=1000, out_features=20, bias=True)
    (6): Linear(in_features=1000, out_features=20, bias=True)
    (7): Linear(in_features=1000, out_features=20, bias=True)
    (8): Linear(in_features=1000, out_features=20, bias=True)
    (9): Linear(in_features=1000, out_features=20, bias=True)
    (10): Linear(in_features=1000, out_features=20, bias=True)
    (11): Linear(in_features=1000, out_features=20, bias=True)
    (12): Linear(in_features=1000, out_features=20, bias=True)
    (13): Linear(in_features=1000, out_features=20, bias=True)
    (14): Linear(in_features=1000, out_features=20, bias=True)
    (15): Linear(in_features=1000, out_features=20, bias=True)
    (16): Linear(in_features=1000, out_features=20, bias=True)
    (17): Linear(in_features=1000, out_features=20, bias=True)
    (18): Linear(in_features=1000, out_features=20, bias=True)
    (19): Linear(in_features=1000, out_features=20, bias=True)
    (20): Linear(in_features=1000, out_features=20, bias=True)
    (21): Linear(in_features=1000, out_features=20, bias=True)
    (22): Linear(in_features=1000, out_features=20, bias=True)
    (23): Linear(in_features=1000, out_features=20, bias=True)
    (24): Linear(in_features=1000, out_features=20, bias=True)
  )
)
======

************************************************************************************************************
Task 25
************************************************************************************************************
| Epoch   1, time=  2.3s | Train: skip eval | Valid: time=  0.2s loss=5.845, TAw acc= 34.7% | *
| Epoch   2, time=  2.3s | Train: skip eval | Valid: time=  0.2s loss=2.795, TAw acc= 73.6% | *
…
>>> Test on task 20 : loss=1.308 | TAw acc= 96.6%, forg=  0.9%| TAg acc= 74.1%, forg= -2.6% <<<
>>> Test on task 21 : loss=1.426 | TAw acc= 93.6%, forg=  0.9%| TAg acc= 63.6%, forg=  2.7% <<<
>>> Test on task 22 : loss=1.466 | TAw acc= 96.3%, forg=  0.9%| TAg acc= 54.1%, forg= 21.1% <<<
>>> Test on task 23 : loss=1.503 | TAw acc= 89.3%, forg=  0.9%| TAg acc= 56.2%, forg=  8.9% <<<
>>> Test on task 24 : loss=1.809 | TAw acc= 93.6%, forg=  1.8%| TAg acc= 45.9%, forg= 27.5% <<<
>>> Test on task 25 : loss=1.567 | TAw acc= 85.9%, forg=  0.0%| TAg acc= 65.7%, forg=  0.0% <<<
Save at eeil_e5_wisdm_5/wisdm_flex_eeil
======
LLL_Net(
  (model): SimpleMLP(
    (fc1): Linear(in_features=91, out_features=1000, bias=True)
    (fc2): Sequential()
  )
  (heads): ModuleList(
    (0): Linear(in_features=1000, out_features=34, bias=True)
    (1): Linear(in_features=1000, out_features=20, bias=True)
    (2): Linear(in_features=1000, out_features=20, bias=True)
    (3): Linear(in_features=1000, out_features=20, bias=True)
    (4): Linear(in_features=1000, out_features=20, bias=True)
    (5): Linear(in_features=1000, out_features=20, bias=True)
    (6): Linear(in_features=1000, out_features=20, bias=True)
    (7): Linear(in_features=1000, out_features=20, bias=True)
    (8): Linear(in_features=1000, out_features=20, bias=True)
    (9): Linear(in_features=1000, out_features=20, bias=True)
    (10): Linear(in_features=1000, out_features=20, bias=True)
    (11): Linear(in_features=1000, out_features=20, bias=True)
    (12): Linear(in_features=1000, out_features=20, bias=True)
    (13): Linear(in_features=1000, out_features=20, bias=True)
    (14): Linear(in_features=1000, out_features=20, bias=True)
    (15): Linear(in_features=1000, out_features=20, bias=True)
    (16): Linear(in_features=1000, out_features=20, bias=True)
    (17): Linear(in_features=1000, out_features=20, bias=True)
    (18): Linear(in_features=1000, out_features=20, bias=True)
    (19): Linear(in_features=1000, out_features=20, bias=True)
    (20): Linear(in_features=1000, out_features=20, bias=True)
    (21): Linear(in_features=1000, out_features=20, bias=True)
    (22): Linear(in_features=1000, out_features=20, bias=True)
    (23): Linear(in_features=1000, out_features=20, bias=True)
    (24): Linear(in_features=1000, out_features=20, bias=True)
    (25): Linear(in_features=1000, out_features=20, bias=True)
  )
)
======

************************************************************************************************************
Task 26
************************************************************************************************************
| Epoch   1, time=  2.6s | Train: skip eval | Valid: time=  0.2s loss=5.437, TAw acc= 48.3% | *
| Epoch   2, time=  2.5s | Train: skip eval | Valid: time=  0.2s loss=2.757, TAw acc= 72.4% | *
…
>>> Test on task 21 : loss=1.448 | TAw acc= 93.6%, forg=  0.9%| TAg acc= 61.8%, forg=  4.5% <<<
>>> Test on task 22 : loss=1.384 | TAw acc= 96.3%, forg=  0.9%| TAg acc= 64.2%, forg= 11.0% <<<
>>> Test on task 23 : loss=1.446 | TAw acc= 89.3%, forg=  0.9%| TAg acc= 55.4%, forg=  9.8% <<<
>>> Test on task 24 : loss=1.664 | TAw acc= 95.4%, forg=  0.0%| TAg acc= 50.5%, forg= 22.9% <<<
>>> Test on task 25 : loss=1.982 | TAw acc= 85.9%, forg=  0.0%| TAg acc= 35.4%, forg= 30.3% <<<
>>> Test on task 26 : loss=1.206 | TAw acc= 91.4%, forg=  0.0%| TAg acc= 73.3%, forg=  0.0% <<<
Save at eeil_e5_wisdm_5/wisdm_flex_eeil
======
LLL_Net(
  (model): SimpleMLP(
    (fc1): Linear(in_features=91, out_features=1000, bias=True)
    (fc2): Sequential()
  )
  (heads): ModuleList(
    (0): Linear(in_features=1000, out_features=34, bias=True)
    (1): Linear(in_features=1000, out_features=20, bias=True)
    (2): Linear(in_features=1000, out_features=20, bias=True)
    (3): Linear(in_features=1000, out_features=20, bias=True)
    (4): Linear(in_features=1000, out_features=20, bias=True)
    (5): Linear(in_features=1000, out_features=20, bias=True)
    (6): Linear(in_features=1000, out_features=20, bias=True)
    (7): Linear(in_features=1000, out_features=20, bias=True)
    (8): Linear(in_features=1000, out_features=20, bias=True)
    (9): Linear(in_features=1000, out_features=20, bias=True)
    (10): Linear(in_features=1000, out_features=20, bias=True)
    (11): Linear(in_features=1000, out_features=20, bias=True)
    (12): Linear(in_features=1000, out_features=20, bias=True)
    (13): Linear(in_features=1000, out_features=20, bias=True)
    (14): Linear(in_features=1000, out_features=20, bias=True)
    (15): Linear(in_features=1000, out_features=20, bias=True)
    (16): Linear(in_features=1000, out_features=20, bias=True)
    (17): Linear(in_features=1000, out_features=20, bias=True)
    (18): Linear(in_features=1000, out_features=20, bias=True)
    (19): Linear(in_features=1000, out_features=20, bias=True)
    (20): Linear(in_features=1000, out_features=20, bias=True)
    (21): Linear(in_features=1000, out_features=20, bias=True)
    (22): Linear(in_features=1000, out_features=20, bias=True)
    (23): Linear(in_features=1000, out_features=20, bias=True)
    (24): Linear(in_features=1000, out_features=20, bias=True)
    (25): Linear(in_features=1000, out_features=20, bias=True)
    (26): Linear(in_features=1000, out_features=20, bias=True)
  )
)
======

************************************************************************************************************
Task 27
************************************************************************************************************
| Epoch   1, time=  2.7s | Train: skip eval | Valid: time=  0.2s loss=5.202, TAw acc= 55.7% | *
| Epoch   2, time=  2.9s | Train: skip eval | Valid: time=  0.2s loss=2.900, TAw acc= 75.9% | *
…
>>> Test on task 22 : loss=1.371 | TAw acc= 96.3%, forg=  0.9%| TAg acc= 63.3%, forg= 11.9% <<<
>>> Test on task 23 : loss=1.362 | TAw acc= 90.2%, forg=  0.0%| TAg acc= 53.6%, forg= 11.6% <<<
>>> Test on task 24 : loss=1.654 | TAw acc= 95.4%, forg=  0.0%| TAg acc= 49.5%, forg= 23.9% <<<
>>> Test on task 25 : loss=1.949 | TAw acc= 88.9%, forg= -3.0%| TAg acc= 41.4%, forg= 24.2% <<<
>>> Test on task 26 : loss=1.783 | TAw acc= 93.1%, forg= -1.7%| TAg acc= 40.5%, forg= 32.8% <<<
>>> Test on task 27 : loss=1.259 | TAw acc= 94.4%, forg=  0.0%| TAg acc= 71.3%, forg=  0.0% <<<
Save at eeil_e5_wisdm_5/wisdm_flex_eeil
======
LLL_Net(
  (model): SimpleMLP(
    (fc1): Linear(in_features=91, out_features=1000, bias=True)
    (fc2): Sequential()
  )
  (heads): ModuleList(
    (0): Linear(in_features=1000, out_features=34, bias=True)
    (1): Linear(in_features=1000, out_features=20, bias=True)
    (2): Linear(in_features=1000, out_features=20, bias=True)
    (3): Linear(in_features=1000, out_features=20, bias=True)
    (4): Linear(in_features=1000, out_features=20, bias=True)
    (5): Linear(in_features=1000, out_features=20, bias=True)
    (6): Linear(in_features=1000, out_features=20, bias=True)
    (7): Linear(in_features=1000, out_features=20, bias=True)
    (8): Linear(in_features=1000, out_features=20, bias=True)
    (9): Linear(in_features=1000, out_features=20, bias=True)
    (10): Linear(in_features=1000, out_features=20, bias=True)
    (11): Linear(in_features=1000, out_features=20, bias=True)
    (12): Linear(in_features=1000, out_features=20, bias=True)
    (13): Linear(in_features=1000, out_features=20, bias=True)
    (14): Linear(in_features=1000, out_features=20, bias=True)
    (15): Linear(in_features=1000, out_features=20, bias=True)
    (16): Linear(in_features=1000, out_features=20, bias=True)
    (17): Linear(in_features=1000, out_features=20, bias=True)
    (18): Linear(in_features=1000, out_features=20, bias=True)
    (19): Linear(in_features=1000, out_features=20, bias=True)
    (20): Linear(in_features=1000, out_features=20, bias=True)
    (21): Linear(in_features=1000, out_features=20, bias=True)
    (22): Linear(in_features=1000, out_features=20, bias=True)
    (23): Linear(in_features=1000, out_features=20, bias=True)
    (24): Linear(in_features=1000, out_features=20, bias=True)
    (25): Linear(in_features=1000, out_features=20, bias=True)
    (26): Linear(in_features=1000, out_features=20, bias=True)
    (27): Linear(in_features=1000, out_features=20, bias=True)
  )
)
======

************************************************************************************************************
Task 28
************************************************************************************************************
| Epoch   1, time=  2.8s | Train: skip eval | Valid: time=  0.2s loss=5.589, TAw acc= 42.5% | *
| Epoch   2, time=  2.8s | Train: skip eval | Valid: time=  0.2s loss=3.011, TAw acc= 67.5% | *
…
>>> Test on task 23 : loss=1.338 | TAw acc= 90.2%, forg=  0.0%| TAg acc= 58.0%, forg=  7.1% <<<
>>> Test on task 24 : loss=1.581 | TAw acc= 95.4%, forg=  0.0%| TAg acc= 50.5%, forg= 22.9% <<<
>>> Test on task 25 : loss=1.945 | TAw acc= 87.9%, forg=  1.0%| TAg acc= 43.4%, forg= 22.2% <<<
>>> Test on task 26 : loss=1.639 | TAw acc= 94.0%, forg= -0.9%| TAg acc= 50.9%, forg= 22.4% <<<
>>> Test on task 27 : loss=1.788 | TAw acc= 96.3%, forg= -1.9%| TAg acc= 41.7%, forg= 29.6% <<<
>>> Test on task 28 : loss=1.234 | TAw acc= 92.6%, forg=  0.0%| TAg acc= 69.4%, forg=  0.0% <<<
Save at eeil_e5_wisdm_5/wisdm_flex_eeil
======
LLL_Net(
  (model): SimpleMLP(
    (fc1): Linear(in_features=91, out_features=1000, bias=True)
    (fc2): Sequential()
  )
  (heads): ModuleList(
    (0): Linear(in_features=1000, out_features=34, bias=True)
    (1): Linear(in_features=1000, out_features=20, bias=True)
    (2): Linear(in_features=1000, out_features=20, bias=True)
    (3): Linear(in_features=1000, out_features=20, bias=True)
    (4): Linear(in_features=1000, out_features=20, bias=True)
    (5): Linear(in_features=1000, out_features=20, bias=True)
    (6): Linear(in_features=1000, out_features=20, bias=True)
    (7): Linear(in_features=1000, out_features=20, bias=True)
    (8): Linear(in_features=1000, out_features=20, bias=True)
    (9): Linear(in_features=1000, out_features=20, bias=True)
    (10): Linear(in_features=1000, out_features=20, bias=True)
    (11): Linear(in_features=1000, out_features=20, bias=True)
    (12): Linear(in_features=1000, out_features=20, bias=True)
    (13): Linear(in_features=1000, out_features=20, bias=True)
    (14): Linear(in_features=1000, out_features=20, bias=True)
    (15): Linear(in_features=1000, out_features=20, bias=True)
    (16): Linear(in_features=1000, out_features=20, bias=True)
    (17): Linear(in_features=1000, out_features=20, bias=True)
    (18): Linear(in_features=1000, out_features=20, bias=True)
    (19): Linear(in_features=1000, out_features=20, bias=True)
    (20): Linear(in_features=1000, out_features=20, bias=True)
    (21): Linear(in_features=1000, out_features=20, bias=True)
    (22): Linear(in_features=1000, out_features=20, bias=True)
    (23): Linear(in_features=1000, out_features=20, bias=True)
    (24): Linear(in_features=1000, out_features=20, bias=True)
    (25): Linear(in_features=1000, out_features=20, bias=True)
    (26): Linear(in_features=1000, out_features=20, bias=True)
    (27): Linear(in_features=1000, out_features=20, bias=True)
    (28): Linear(in_features=1000, out_features=20, bias=True)
  )
)
======

************************************************************************************************************
Task 29
************************************************************************************************************
| Epoch   1, time=  3.1s | Train: skip eval | Valid: time=  0.2s loss=6.169, TAw acc= 34.2% | *
| Epoch   2, time=  3.0s | Train: skip eval | Valid: time=  0.2s loss=3.379, TAw acc= 61.6% | *
…
>>> Test on task 24 : loss=1.615 | TAw acc= 95.4%, forg=  0.0%| TAg acc= 57.8%, forg= 15.6% <<<
>>> Test on task 25 : loss=1.952 | TAw acc= 85.9%, forg=  3.0%| TAg acc= 45.5%, forg= 20.2% <<<
>>> Test on task 26 : loss=1.583 | TAw acc= 94.0%, forg=  0.0%| TAg acc= 49.1%, forg= 24.1% <<<
>>> Test on task 27 : loss=1.714 | TAw acc= 95.4%, forg=  0.9%| TAg acc= 44.4%, forg= 26.9% <<<
>>> Test on task 28 : loss=1.546 | TAw acc= 92.6%, forg=  0.0%| TAg acc= 60.2%, forg=  9.3% <<<
>>> Test on task 29 : loss=1.410 | TAw acc= 92.1%, forg=  0.0%| TAg acc= 74.3%, forg=  0.0% <<<
Save at eeil_e5_wisdm_5/wisdm_flex_eeil
======
LLL_Net(
  (model): SimpleMLP(
    (fc1): Linear(in_features=91, out_features=1000, bias=True)
    (fc2): Sequential()
  )
  (heads): ModuleList(
    (0): Linear(in_features=1000, out_features=34, bias=True)
    (1): Linear(in_features=1000, out_features=20, bias=True)
    (2): Linear(in_features=1000, out_features=20, bias=True)
    (3): Linear(in_features=1000, out_features=20, bias=True)
    (4): Linear(in_features=1000, out_features=20, bias=True)
    (5): Linear(in_features=1000, out_features=20, bias=True)
    (6): Linear(in_features=1000, out_features=20, bias=True)
    (7): Linear(in_features=1000, out_features=20, bias=True)
    (8): Linear(in_features=1000, out_features=20, bias=True)
    (9): Linear(in_features=1000, out_features=20, bias=True)
    (10): Linear(in_features=1000, out_features=20, bias=True)
    (11): Linear(in_features=1000, out_features=20, bias=True)
    (12): Linear(in_features=1000, out_features=20, bias=True)
    (13): Linear(in_features=1000, out_features=20, bias=True)
    (14): Linear(in_features=1000, out_features=20, bias=True)
    (15): Linear(in_features=1000, out_features=20, bias=True)
    (16): Linear(in_features=1000, out_features=20, bias=True)
    (17): Linear(in_features=1000, out_features=20, bias=True)
    (18): Linear(in_features=1000, out_features=20, bias=True)
    (19): Linear(in_features=1000, out_features=20, bias=True)
    (20): Linear(in_features=1000, out_features=20, bias=True)
    (21): Linear(in_features=1000, out_features=20, bias=True)
    (22): Linear(in_features=1000, out_features=20, bias=True)
    (23): Linear(in_features=1000, out_features=20, bias=True)
    (24): Linear(in_features=1000, out_features=20, bias=True)
    (25): Linear(in_features=1000, out_features=20, bias=True)
    (26): Linear(in_features=1000, out_features=20, bias=True)
    (27): Linear(in_features=1000, out_features=20, bias=True)
    (28): Linear(in_features=1000, out_features=20, bias=True)
    (29): Linear(in_features=1000, out_features=20, bias=True)
  )
)
======

************************************************************************************************************
Task 30
************************************************************************************************************
| Epoch   1, time=  3.0s | Train: skip eval | Valid: time=  0.2s loss=5.536, TAw acc= 38.6% | *
| Epoch   2, time=  3.0s | Train: skip eval | Valid: time=  0.2s loss=2.996, TAw acc= 68.6% | *
…
>>> Test on task 25 : loss=1.931 | TAw acc= 87.9%, forg=  1.0%| TAg acc= 48.5%, forg= 17.2% <<<
>>> Test on task 26 : loss=1.456 | TAw acc= 93.1%, forg=  0.9%| TAg acc= 57.8%, forg= 15.5% <<<
>>> Test on task 27 : loss=1.670 | TAw acc= 96.3%, forg=  0.0%| TAg acc= 53.7%, forg= 17.6% <<<
>>> Test on task 28 : loss=1.416 | TAw acc= 92.6%, forg=  0.0%| TAg acc= 54.6%, forg= 14.8% <<<
>>> Test on task 29 : loss=1.802 | TAw acc= 92.1%, forg=  0.0%| TAg acc= 45.5%, forg= 28.7% <<<
>>> Test on task 30 : loss=1.305 | TAw acc= 92.9%, forg=  0.0%| TAg acc= 69.4%, forg=  0.0% <<<
Save at eeil_e5_wisdm_5/wisdm_flex_eeil
======
LLL_Net(
  (model): SimpleMLP(
    (fc1): Linear(in_features=91, out_features=1000, bias=True)
    (fc2): Sequential()
  )
  (heads): ModuleList(
    (0): Linear(in_features=1000, out_features=34, bias=True)
    (1): Linear(in_features=1000, out_features=20, bias=True)
    (2): Linear(in_features=1000, out_features=20, bias=True)
    (3): Linear(in_features=1000, out_features=20, bias=True)
    (4): Linear(in_features=1000, out_features=20, bias=True)
    (5): Linear(in_features=1000, out_features=20, bias=True)
    (6): Linear(in_features=1000, out_features=20, bias=True)
    (7): Linear(in_features=1000, out_features=20, bias=True)
    (8): Linear(in_features=1000, out_features=20, bias=True)
    (9): Linear(in_features=1000, out_features=20, bias=True)
    (10): Linear(in_features=1000, out_features=20, bias=True)
    (11): Linear(in_features=1000, out_features=20, bias=True)
    (12): Linear(in_features=1000, out_features=20, bias=True)
    (13): Linear(in_features=1000, out_features=20, bias=True)
    (14): Linear(in_features=1000, out_features=20, bias=True)
    (15): Linear(in_features=1000, out_features=20, bias=True)
    (16): Linear(in_features=1000, out_features=20, bias=True)
    (17): Linear(in_features=1000, out_features=20, bias=True)
    (18): Linear(in_features=1000, out_features=20, bias=True)
    (19): Linear(in_features=1000, out_features=20, bias=True)
    (20): Linear(in_features=1000, out_features=20, bias=True)
    (21): Linear(in_features=1000, out_features=20, bias=True)
    (22): Linear(in_features=1000, out_features=20, bias=True)
    (23): Linear(in_features=1000, out_features=20, bias=True)
    (24): Linear(in_features=1000, out_features=20, bias=True)
    (25): Linear(in_features=1000, out_features=20, bias=True)
    (26): Linear(in_features=1000, out_features=20, bias=True)
    (27): Linear(in_features=1000, out_features=20, bias=True)
    (28): Linear(in_features=1000, out_features=20, bias=True)
    (29): Linear(in_features=1000, out_features=20, bias=True)
    (30): Linear(in_features=1000, out_features=20, bias=True)
  )
)
======

************************************************************************************************************
Task 31
************************************************************************************************************
| Epoch   1, time=  3.3s | Train: skip eval | Valid: time=  0.2s loss=4.934, TAw acc= 67.9% | *
| Epoch   2, time=  3.2s | Train: skip eval | Valid: time=  0.2s loss=2.417, TAw acc= 82.1% | *
…
>>> Test on task 26 : loss=1.470 | TAw acc= 94.0%, forg=  0.0%| TAg acc= 58.6%, forg= 14.7% <<<
>>> Test on task 27 : loss=1.589 | TAw acc= 96.3%, forg=  0.0%| TAg acc= 55.6%, forg= 15.7% <<<
>>> Test on task 28 : loss=1.339 | TAw acc= 92.6%, forg=  0.0%| TAg acc= 66.7%, forg=  2.8% <<<
>>> Test on task 29 : loss=1.626 | TAw acc= 91.1%, forg=  1.0%| TAg acc= 53.5%, forg= 20.8% <<<
>>> Test on task 30 : loss=1.556 | TAw acc= 96.9%, forg= -4.1%| TAg acc= 55.1%, forg= 14.3% <<<
>>> Test on task 31 : loss=1.056 | TAw acc= 97.3%, forg=  0.0%| TAg acc= 79.5%, forg=  0.0% <<<
Save at eeil_e5_wisdm_5/wisdm_flex_eeil
======
LLL_Net(
  (model): SimpleMLP(
    (fc1): Linear(in_features=91, out_features=1000, bias=True)
    (fc2): Sequential()
  )
  (heads): ModuleList(
    (0): Linear(in_features=1000, out_features=34, bias=True)
    (1): Linear(in_features=1000, out_features=20, bias=True)
    (2): Linear(in_features=1000, out_features=20, bias=True)
    (3): Linear(in_features=1000, out_features=20, bias=True)
    (4): Linear(in_features=1000, out_features=20, bias=True)
    (5): Linear(in_features=1000, out_features=20, bias=True)
    (6): Linear(in_features=1000, out_features=20, bias=True)
    (7): Linear(in_features=1000, out_features=20, bias=True)
    (8): Linear(in_features=1000, out_features=20, bias=True)
    (9): Linear(in_features=1000, out_features=20, bias=True)
    (10): Linear(in_features=1000, out_features=20, bias=True)
    (11): Linear(in_features=1000, out_features=20, bias=True)
    (12): Linear(in_features=1000, out_features=20, bias=True)
    (13): Linear(in_features=1000, out_features=20, bias=True)
    (14): Linear(in_features=1000, out_features=20, bias=True)
    (15): Linear(in_features=1000, out_features=20, bias=True)
    (16): Linear(in_features=1000, out_features=20, bias=True)
    (17): Linear(in_features=1000, out_features=20, bias=True)
    (18): Linear(in_features=1000, out_features=20, bias=True)
    (19): Linear(in_features=1000, out_features=20, bias=True)
    (20): Linear(in_features=1000, out_features=20, bias=True)
    (21): Linear(in_features=1000, out_features=20, bias=True)
    (22): Linear(in_features=1000, out_features=20, bias=True)
    (23): Linear(in_features=1000, out_features=20, bias=True)
    (24): Linear(in_features=1000, out_features=20, bias=True)
    (25): Linear(in_features=1000, out_features=20, bias=True)
    (26): Linear(in_features=1000, out_features=20, bias=True)
    (27): Linear(in_features=1000, out_features=20, bias=True)
    (28): Linear(in_features=1000, out_features=20, bias=True)
    (29): Linear(in_features=1000, out_features=20, bias=True)
    (30): Linear(in_features=1000, out_features=20, bias=True)
    (31): Linear(in_features=1000, out_features=20, bias=True)
  )
)
======

************************************************************************************************************
Task 32
************************************************************************************************************
| Epoch   1, time=  3.6s | Train: skip eval | Valid: time=  0.2s loss=6.267, TAw acc= 54.5% | *
| Epoch   2, time=  3.6s | Train: skip eval | Valid: time=  0.2s loss=2.839, TAw acc= 85.7% | *
…
>>> Test on task 27 : loss=1.513 | TAw acc= 96.3%, forg=  0.0%| TAg acc= 63.9%, forg=  7.4% <<<
>>> Test on task 28 : loss=1.287 | TAw acc= 94.4%, forg= -1.9%| TAg acc= 70.4%, forg= -0.9% <<<
>>> Test on task 29 : loss=1.620 | TAw acc= 90.1%, forg=  2.0%| TAg acc= 55.4%, forg= 18.8% <<<
>>> Test on task 30 : loss=1.371 | TAw acc= 96.9%, forg=  0.0%| TAg acc= 62.2%, forg=  7.1% <<<
>>> Test on task 31 : loss=1.314 | TAw acc= 98.2%, forg= -0.9%| TAg acc= 65.2%, forg= 14.3% <<<
>>> Test on task 32 : loss=1.018 | TAw acc= 99.0%, forg=  0.0%| TAg acc= 76.2%, forg=  0.0% <<<
Save at eeil_e5_wisdm_5/wisdm_flex_eeil
======
LLL_Net(
  (model): SimpleMLP(
    (fc1): Linear(in_features=91, out_features=1000, bias=True)
    (fc2): Sequential()
  )
  (heads): ModuleList(
    (0): Linear(in_features=1000, out_features=34, bias=True)
    (1): Linear(in_features=1000, out_features=20, bias=True)
    (2): Linear(in_features=1000, out_features=20, bias=True)
    (3): Linear(in_features=1000, out_features=20, bias=True)
    (4): Linear(in_features=1000, out_features=20, bias=True)
    (5): Linear(in_features=1000, out_features=20, bias=True)
    (6): Linear(in_features=1000, out_features=20, bias=True)
    (7): Linear(in_features=1000, out_features=20, bias=True)
    (8): Linear(in_features=1000, out_features=20, bias=True)
    (9): Linear(in_features=1000, out_features=20, bias=True)
    (10): Linear(in_features=1000, out_features=20, bias=True)
    (11): Linear(in_features=1000, out_features=20, bias=True)
    (12): Linear(in_features=1000, out_features=20, bias=True)
    (13): Linear(in_features=1000, out_features=20, bias=True)
    (14): Linear(in_features=1000, out_features=20, bias=True)
    (15): Linear(in_features=1000, out_features=20, bias=True)
    (16): Linear(in_features=1000, out_features=20, bias=True)
    (17): Linear(in_features=1000, out_features=20, bias=True)
    (18): Linear(in_features=1000, out_features=20, bias=True)
    (19): Linear(in_features=1000, out_features=20, bias=True)
    (20): Linear(in_features=1000, out_features=20, bias=True)
    (21): Linear(in_features=1000, out_features=20, bias=True)
    (22): Linear(in_features=1000, out_features=20, bias=True)
    (23): Linear(in_features=1000, out_features=20, bias=True)
    (24): Linear(in_features=1000, out_features=20, bias=True)
    (25): Linear(in_features=1000, out_features=20, bias=True)
    (26): Linear(in_features=1000, out_features=20, bias=True)
    (27): Linear(in_features=1000, out_features=20, bias=True)
    (28): Linear(in_features=1000, out_features=20, bias=True)
    (29): Linear(in_features=1000, out_features=20, bias=True)
    (30): Linear(in_features=1000, out_features=20, bias=True)
    (31): Linear(in_features=1000, out_features=20, bias=True)
    (32): Linear(in_features=1000, out_features=20, bias=True)
  )
)
======

************************************************************************************************************
Task 33
************************************************************************************************************
| Epoch   1, time=  4.3s | Train: skip eval | Valid: time=  0.2s loss=5.123, TAw acc= 62.0% | *
| Epoch   2, time=  3.6s | Train: skip eval | Valid: time=  0.2s loss=2.542, TAw acc= 73.9% | *
…
>>> Test on task 28 : loss=1.268 | TAw acc= 93.5%, forg=  0.9%| TAg acc= 69.4%, forg=  0.9% <<<
>>> Test on task 29 : loss=1.505 | TAw acc= 92.1%, forg=  0.0%| TAg acc= 61.4%, forg= 12.9% <<<
>>> Test on task 30 : loss=1.405 | TAw acc= 95.9%, forg=  1.0%| TAg acc= 60.2%, forg=  9.2% <<<
>>> Test on task 31 : loss=1.261 | TAw acc= 98.2%, forg=  0.0%| TAg acc= 65.2%, forg= 14.3% <<<
>>> Test on task 32 : loss=1.403 | TAw acc= 97.1%, forg=  1.9%| TAg acc= 61.0%, forg= 15.2% <<<
>>> Test on task 33 : loss=1.217 | TAw acc= 90.2%, forg=  0.0%| TAg acc= 72.4%, forg=  0.0% <<<
Save at eeil_e5_wisdm_5/wisdm_flex_eeil
======
LLL_Net(
  (model): SimpleMLP(
    (fc1): Linear(in_features=91, out_features=1000, bias=True)
    (fc2): Sequential()
  )
  (heads): ModuleList(
    (0): Linear(in_features=1000, out_features=34, bias=True)
    (1): Linear(in_features=1000, out_features=20, bias=True)
    (2): Linear(in_features=1000, out_features=20, bias=True)
    (3): Linear(in_features=1000, out_features=20, bias=True)
    (4): Linear(in_features=1000, out_features=20, bias=True)
    (5): Linear(in_features=1000, out_features=20, bias=True)
    (6): Linear(in_features=1000, out_features=20, bias=True)
    (7): Linear(in_features=1000, out_features=20, bias=True)
    (8): Linear(in_features=1000, out_features=20, bias=True)
    (9): Linear(in_features=1000, out_features=20, bias=True)
    (10): Linear(in_features=1000, out_features=20, bias=True)
    (11): Linear(in_features=1000, out_features=20, bias=True)
    (12): Linear(in_features=1000, out_features=20, bias=True)
    (13): Linear(in_features=1000, out_features=20, bias=True)
    (14): Linear(in_features=1000, out_features=20, bias=True)
    (15): Linear(in_features=1000, out_features=20, bias=True)
    (16): Linear(in_features=1000, out_features=20, bias=True)
    (17): Linear(in_features=1000, out_features=20, bias=True)
    (18): Linear(in_features=1000, out_features=20, bias=True)
    (19): Linear(in_features=1000, out_features=20, bias=True)
    (20): Linear(in_features=1000, out_features=20, bias=True)
    (21): Linear(in_features=1000, out_features=20, bias=True)
    (22): Linear(in_features=1000, out_features=20, bias=True)
    (23): Linear(in_features=1000, out_features=20, bias=True)
    (24): Linear(in_features=1000, out_features=20, bias=True)
    (25): Linear(in_features=1000, out_features=20, bias=True)
    (26): Linear(in_features=1000, out_features=20, bias=True)
    (27): Linear(in_features=1000, out_features=20, bias=True)
    (28): Linear(in_features=1000, out_features=20, bias=True)
    (29): Linear(in_features=1000, out_features=20, bias=True)
    (30): Linear(in_features=1000, out_features=20, bias=True)
    (31): Linear(in_features=1000, out_features=20, bias=True)
    (32): Linear(in_features=1000, out_features=20, bias=True)
    (33): Linear(in_features=1000, out_features=20, bias=True)
  )
)
======

************************************************************************************************************
Task 34
************************************************************************************************************
| Epoch   1, time=  3.7s | Train: skip eval | Valid: time=  0.2s loss=6.441, TAw acc= 34.7% | *
| Epoch   2, time=  4.0s | Train: skip eval | Valid: time=  0.2s loss=3.279, TAw acc= 69.3% | *
…
>>> Test on task 29 : loss=1.544 | TAw acc= 91.1%, forg=  1.0%| TAg acc= 56.4%, forg= 17.8% <<<
>>> Test on task 30 : loss=1.319 | TAw acc= 96.9%, forg=  0.0%| TAg acc= 63.3%, forg=  6.1% <<<
>>> Test on task 31 : loss=1.210 | TAw acc= 98.2%, forg=  0.0%| TAg acc= 71.4%, forg=  8.0% <<<
>>> Test on task 32 : loss=1.342 | TAw acc= 98.1%, forg=  1.0%| TAg acc= 58.1%, forg= 18.1% <<<
>>> Test on task 33 : loss=1.729 | TAw acc= 90.2%, forg=  0.0%| TAg acc= 47.2%, forg= 25.2% <<<
>>> Test on task 34 : loss=1.341 | TAw acc= 97.1%, forg=  0.0%| TAg acc= 69.6%, forg=  0.0% <<<
Save at eeil_e5_wisdm_5/wisdm_flex_eeil
======
LLL_Net(
  (model): SimpleMLP(
    (fc1): Linear(in_features=91, out_features=1000, bias=True)
    (fc2): Sequential()
  )
  (heads): ModuleList(
    (0): Linear(in_features=1000, out_features=34, bias=True)
    (1): Linear(in_features=1000, out_features=20, bias=True)
    (2): Linear(in_features=1000, out_features=20, bias=True)
    (3): Linear(in_features=1000, out_features=20, bias=True)
    (4): Linear(in_features=1000, out_features=20, bias=True)
    (5): Linear(in_features=1000, out_features=20, bias=True)
    (6): Linear(in_features=1000, out_features=20, bias=True)
    (7): Linear(in_features=1000, out_features=20, bias=True)
    (8): Linear(in_features=1000, out_features=20, bias=True)
    (9): Linear(in_features=1000, out_features=20, bias=True)
    (10): Linear(in_features=1000, out_features=20, bias=True)
    (11): Linear(in_features=1000, out_features=20, bias=True)
    (12): Linear(in_features=1000, out_features=20, bias=True)
    (13): Linear(in_features=1000, out_features=20, bias=True)
    (14): Linear(in_features=1000, out_features=20, bias=True)
    (15): Linear(in_features=1000, out_features=20, bias=True)
    (16): Linear(in_features=1000, out_features=20, bias=True)
    (17): Linear(in_features=1000, out_features=20, bias=True)
    (18): Linear(in_features=1000, out_features=20, bias=True)
    (19): Linear(in_features=1000, out_features=20, bias=True)
    (20): Linear(in_features=1000, out_features=20, bias=True)
    (21): Linear(in_features=1000, out_features=20, bias=True)
    (22): Linear(in_features=1000, out_features=20, bias=True)
    (23): Linear(in_features=1000, out_features=20, bias=True)
    (24): Linear(in_features=1000, out_features=20, bias=True)
    (25): Linear(in_features=1000, out_features=20, bias=True)
    (26): Linear(in_features=1000, out_features=20, bias=True)
    (27): Linear(in_features=1000, out_features=20, bias=True)
    (28): Linear(in_features=1000, out_features=20, bias=True)
    (29): Linear(in_features=1000, out_features=20, bias=True)
    (30): Linear(in_features=1000, out_features=20, bias=True)
    (31): Linear(in_features=1000, out_features=20, bias=True)
    (32): Linear(in_features=1000, out_features=20, bias=True)
    (33): Linear(in_features=1000, out_features=20, bias=True)
    (34): Linear(in_features=1000, out_features=20, bias=True)
  )
)
======

************************************************************************************************************
Task 35
************************************************************************************************************
| Epoch   1, time=  4.0s | Train: skip eval | Valid: time=  0.2s loss=5.174, TAw acc= 57.0% | *
| Epoch   2, time=  3.9s | Train: skip eval | Valid: time=  0.2s loss=2.653, TAw acc= 72.1% | *
…
>>> Test on task 30 : loss=1.302 | TAw acc= 96.9%, forg=  0.0%| TAg acc= 63.3%, forg=  6.1% <<<
>>> Test on task 31 : loss=1.214 | TAw acc= 98.2%, forg=  0.0%| TAg acc= 71.4%, forg=  8.0% <<<
>>> Test on task 32 : loss=1.266 | TAw acc= 97.1%, forg=  1.9%| TAg acc= 66.7%, forg=  9.5% <<<
>>> Test on task 33 : loss=1.567 | TAw acc= 87.8%, forg=  2.4%| TAg acc= 63.4%, forg=  8.9% <<<
>>> Test on task 34 : loss=1.842 | TAw acc= 97.1%, forg=  0.0%| TAg acc= 45.1%, forg= 24.5% <<<
>>> Test on task 35 : loss=1.363 | TAw acc= 93.0%, forg=  0.0%| TAg acc= 67.8%, forg=  0.0% <<<
Save at eeil_e5_wisdm_5/wisdm_flex_eeil
======
LLL_Net(
  (model): SimpleMLP(
    (fc1): Linear(in_features=91, out_features=1000, bias=True)
    (fc2): Sequential()
  )
  (heads): ModuleList(
    (0): Linear(in_features=1000, out_features=34, bias=True)
    (1): Linear(in_features=1000, out_features=20, bias=True)
    (2): Linear(in_features=1000, out_features=20, bias=True)
    (3): Linear(in_features=1000, out_features=20, bias=True)
    (4): Linear(in_features=1000, out_features=20, bias=True)
    (5): Linear(in_features=1000, out_features=20, bias=True)
    (6): Linear(in_features=1000, out_features=20, bias=True)
    (7): Linear(in_features=1000, out_features=20, bias=True)
    (8): Linear(in_features=1000, out_features=20, bias=True)
    (9): Linear(in_features=1000, out_features=20, bias=True)
    (10): Linear(in_features=1000, out_features=20, bias=True)
    (11): Linear(in_features=1000, out_features=20, bias=True)
    (12): Linear(in_features=1000, out_features=20, bias=True)
    (13): Linear(in_features=1000, out_features=20, bias=True)
    (14): Linear(in_features=1000, out_features=20, bias=True)
    (15): Linear(in_features=1000, out_features=20, bias=True)
    (16): Linear(in_features=1000, out_features=20, bias=True)
    (17): Linear(in_features=1000, out_features=20, bias=True)
    (18): Linear(in_features=1000, out_features=20, bias=True)
    (19): Linear(in_features=1000, out_features=20, bias=True)
    (20): Linear(in_features=1000, out_features=20, bias=True)
    (21): Linear(in_features=1000, out_features=20, bias=True)
    (22): Linear(in_features=1000, out_features=20, bias=True)
    (23): Linear(in_features=1000, out_features=20, bias=True)
    (24): Linear(in_features=1000, out_features=20, bias=True)
    (25): Linear(in_features=1000, out_features=20, bias=True)
    (26): Linear(in_features=1000, out_features=20, bias=True)
    (27): Linear(in_features=1000, out_features=20, bias=True)
    (28): Linear(in_features=1000, out_features=20, bias=True)
    (29): Linear(in_features=1000, out_features=20, bias=True)
    (30): Linear(in_features=1000, out_features=20, bias=True)
    (31): Linear(in_features=1000, out_features=20, bias=True)
    (32): Linear(in_features=1000, out_features=20, bias=True)
    (33): Linear(in_features=1000, out_features=20, bias=True)
    (34): Linear(in_features=1000, out_features=20, bias=True)
    (35): Linear(in_features=1000, out_features=20, bias=True)
  )
)
======

************************************************************************************************************
Task 36
************************************************************************************************************
| Epoch   1, time=  4.5s | Train: skip eval | Valid: time=  0.2s loss=4.794, TAw acc= 58.8% | *
| Epoch   2, time=  4.4s | Train: skip eval | Valid: time=  0.2s loss=1.970, TAw acc= 93.8% | *
…
>>> Test on task 31 : loss=1.170 | TAw acc= 98.2%, forg=  0.0%| TAg acc= 68.8%, forg= 10.7% <<<
>>> Test on task 32 : loss=1.274 | TAw acc= 97.1%, forg=  1.9%| TAg acc= 63.8%, forg= 12.4% <<<
>>> Test on task 33 : loss=1.580 | TAw acc= 89.4%, forg=  0.8%| TAg acc= 61.0%, forg= 11.4% <<<
>>> Test on task 34 : loss=1.723 | TAw acc= 98.0%, forg= -1.0%| TAg acc= 45.1%, forg= 24.5% <<<
>>> Test on task 35 : loss=1.823 | TAw acc= 91.3%, forg=  1.7%| TAg acc= 45.2%, forg= 22.6% <<<
>>> Test on task 36 : loss=1.166 | TAw acc= 95.4%, forg=  0.0%| TAg acc= 74.3%, forg=  0.0% <<<
Save at eeil_e5_wisdm_5/wisdm_flex_eeil
======
LLL_Net(
  (model): SimpleMLP(
    (fc1): Linear(in_features=91, out_features=1000, bias=True)
    (fc2): Sequential()
  )
  (heads): ModuleList(
    (0): Linear(in_features=1000, out_features=34, bias=True)
    (1): Linear(in_features=1000, out_features=20, bias=True)
    (2): Linear(in_features=1000, out_features=20, bias=True)
    (3): Linear(in_features=1000, out_features=20, bias=True)
    (4): Linear(in_features=1000, out_features=20, bias=True)
    (5): Linear(in_features=1000, out_features=20, bias=True)
    (6): Linear(in_features=1000, out_features=20, bias=True)
    (7): Linear(in_features=1000, out_features=20, bias=True)
    (8): Linear(in_features=1000, out_features=20, bias=True)
    (9): Linear(in_features=1000, out_features=20, bias=True)
    (10): Linear(in_features=1000, out_features=20, bias=True)
    (11): Linear(in_features=1000, out_features=20, bias=True)
    (12): Linear(in_features=1000, out_features=20, bias=True)
    (13): Linear(in_features=1000, out_features=20, bias=True)
    (14): Linear(in_features=1000, out_features=20, bias=True)
    (15): Linear(in_features=1000, out_features=20, bias=True)
    (16): Linear(in_features=1000, out_features=20, bias=True)
    (17): Linear(in_features=1000, out_features=20, bias=True)
    (18): Linear(in_features=1000, out_features=20, bias=True)
    (19): Linear(in_features=1000, out_features=20, bias=True)
    (20): Linear(in_features=1000, out_features=20, bias=True)
    (21): Linear(in_features=1000, out_features=20, bias=True)
    (22): Linear(in_features=1000, out_features=20, bias=True)
    (23): Linear(in_features=1000, out_features=20, bias=True)
    (24): Linear(in_features=1000, out_features=20, bias=True)
    (25): Linear(in_features=1000, out_features=20, bias=True)
    (26): Linear(in_features=1000, out_features=20, bias=True)
    (27): Linear(in_features=1000, out_features=20, bias=True)
    (28): Linear(in_features=1000, out_features=20, bias=True)
    (29): Linear(in_features=1000, out_features=20, bias=True)
    (30): Linear(in_features=1000, out_features=20, bias=True)
    (31): Linear(in_features=1000, out_features=20, bias=True)
    (32): Linear(in_features=1000, out_features=20, bias=True)
    (33): Linear(in_features=1000, out_features=20, bias=True)
    (34): Linear(in_features=1000, out_features=20, bias=True)
    (35): Linear(in_features=1000, out_features=20, bias=True)
    (36): Linear(in_features=1000, out_features=20, bias=True)
  )
)
======

************************************************************************************************************
Task 37
************************************************************************************************************
| Epoch   1, time=  4.3s | Train: skip eval | Valid: time=  0.2s loss=4.855, TAw acc= 64.8% | *
| Epoch   2, time=  4.3s | Train: skip eval | Valid: time=  0.2s loss=2.259, TAw acc= 82.4% | *
…
>>> Test on task 32 : loss=1.267 | TAw acc= 97.1%, forg=  1.9%| TAg acc= 61.9%, forg= 14.3% <<<
>>> Test on task 33 : loss=1.594 | TAw acc= 89.4%, forg=  0.8%| TAg acc= 61.0%, forg= 11.4% <<<
>>> Test on task 34 : loss=1.750 | TAw acc= 98.0%, forg=  0.0%| TAg acc= 47.1%, forg= 22.5% <<<
>>> Test on task 35 : loss=1.772 | TAw acc= 90.4%, forg=  2.6%| TAg acc= 49.6%, forg= 18.3% <<<
>>> Test on task 36 : loss=1.564 | TAw acc= 96.3%, forg= -0.9%| TAg acc= 61.5%, forg= 12.8% <<<
>>> Test on task 37 : loss=1.337 | TAw acc= 95.0%, forg=  0.0%| TAg acc= 64.5%, forg=  0.0% <<<
Save at eeil_e5_wisdm_5/wisdm_flex_eeil
======
LLL_Net(
  (model): SimpleMLP(
    (fc1): Linear(in_features=91, out_features=1000, bias=True)
    (fc2): Sequential()
  )
  (heads): ModuleList(
    (0): Linear(in_features=1000, out_features=34, bias=True)
    (1): Linear(in_features=1000, out_features=20, bias=True)
    (2): Linear(in_features=1000, out_features=20, bias=True)
    (3): Linear(in_features=1000, out_features=20, bias=True)
    (4): Linear(in_features=1000, out_features=20, bias=True)
    (5): Linear(in_features=1000, out_features=20, bias=True)
    (6): Linear(in_features=1000, out_features=20, bias=True)
    (7): Linear(in_features=1000, out_features=20, bias=True)
    (8): Linear(in_features=1000, out_features=20, bias=True)
    (9): Linear(in_features=1000, out_features=20, bias=True)
    (10): Linear(in_features=1000, out_features=20, bias=True)
    (11): Linear(in_features=1000, out_features=20, bias=True)
    (12): Linear(in_features=1000, out_features=20, bias=True)
    (13): Linear(in_features=1000, out_features=20, bias=True)
    (14): Linear(in_features=1000, out_features=20, bias=True)
    (15): Linear(in_features=1000, out_features=20, bias=True)
    (16): Linear(in_features=1000, out_features=20, bias=True)
    (17): Linear(in_features=1000, out_features=20, bias=True)
    (18): Linear(in_features=1000, out_features=20, bias=True)
    (19): Linear(in_features=1000, out_features=20, bias=True)
    (20): Linear(in_features=1000, out_features=20, bias=True)
    (21): Linear(in_features=1000, out_features=20, bias=True)
    (22): Linear(in_features=1000, out_features=20, bias=True)
    (23): Linear(in_features=1000, out_features=20, bias=True)
    (24): Linear(in_features=1000, out_features=20, bias=True)
    (25): Linear(in_features=1000, out_features=20, bias=True)
    (26): Linear(in_features=1000, out_features=20, bias=True)
    (27): Linear(in_features=1000, out_features=20, bias=True)
    (28): Linear(in_features=1000, out_features=20, bias=True)
    (29): Linear(in_features=1000, out_features=20, bias=True)
    (30): Linear(in_features=1000, out_features=20, bias=True)
    (31): Linear(in_features=1000, out_features=20, bias=True)
    (32): Linear(in_features=1000, out_features=20, bias=True)
    (33): Linear(in_features=1000, out_features=20, bias=True)
    (34): Linear(in_features=1000, out_features=20, bias=True)
    (35): Linear(in_features=1000, out_features=20, bias=True)
    (36): Linear(in_features=1000, out_features=20, bias=True)
    (37): Linear(in_features=1000, out_features=20, bias=True)
  )
)
======

************************************************************************************************************
Task 38
************************************************************************************************************
| Epoch   1, time=  4.9s | Train: skip eval | Valid: time=  0.2s loss=5.571, TAw acc= 34.2% | *
| Epoch   2, time=  4.5s | Train: skip eval | Valid: time=  0.2s loss=2.782, TAw acc= 71.2% | *
…
>>> Test on task 33 : loss=1.536 | TAw acc= 89.4%, forg=  0.8%| TAg acc= 62.6%, forg=  9.8% <<<
>>> Test on task 34 : loss=1.718 | TAw acc= 96.1%, forg=  2.0%| TAg acc= 50.0%, forg= 19.6% <<<
>>> Test on task 35 : loss=1.849 | TAw acc= 90.4%, forg=  2.6%| TAg acc= 47.0%, forg= 20.9% <<<
>>> Test on task 36 : loss=1.391 | TAw acc= 96.3%, forg=  0.0%| TAg acc= 64.2%, forg= 10.1% <<<
>>> Test on task 37 : loss=1.685 | TAw acc= 95.0%, forg=  0.0%| TAg acc= 53.7%, forg= 10.7% <<<
>>> Test on task 38 : loss=1.422 | TAw acc= 90.1%, forg=  0.0%| TAg acc= 71.3%, forg=  0.0% <<<
Save at eeil_e5_wisdm_5/wisdm_flex_eeil
======
LLL_Net(
  (model): SimpleMLP(
    (fc1): Linear(in_features=91, out_features=1000, bias=True)
    (fc2): Sequential()
  )
  (heads): ModuleList(
    (0): Linear(in_features=1000, out_features=34, bias=True)
    (1): Linear(in_features=1000, out_features=20, bias=True)
    (2): Linear(in_features=1000, out_features=20, bias=True)
    (3): Linear(in_features=1000, out_features=20, bias=True)
    (4): Linear(in_features=1000, out_features=20, bias=True)
    (5): Linear(in_features=1000, out_features=20, bias=True)
    (6): Linear(in_features=1000, out_features=20, bias=True)
    (7): Linear(in_features=1000, out_features=20, bias=True)
    (8): Linear(in_features=1000, out_features=20, bias=True)
    (9): Linear(in_features=1000, out_features=20, bias=True)
    (10): Linear(in_features=1000, out_features=20, bias=True)
    (11): Linear(in_features=1000, out_features=20, bias=True)
    (12): Linear(in_features=1000, out_features=20, bias=True)
    (13): Linear(in_features=1000, out_features=20, bias=True)
    (14): Linear(in_features=1000, out_features=20, bias=True)
    (15): Linear(in_features=1000, out_features=20, bias=True)
    (16): Linear(in_features=1000, out_features=20, bias=True)
    (17): Linear(in_features=1000, out_features=20, bias=True)
    (18): Linear(in_features=1000, out_features=20, bias=True)
    (19): Linear(in_features=1000, out_features=20, bias=True)
    (20): Linear(in_features=1000, out_features=20, bias=True)
    (21): Linear(in_features=1000, out_features=20, bias=True)
    (22): Linear(in_features=1000, out_features=20, bias=True)
    (23): Linear(in_features=1000, out_features=20, bias=True)
    (24): Linear(in_features=1000, out_features=20, bias=True)
    (25): Linear(in_features=1000, out_features=20, bias=True)
    (26): Linear(in_features=1000, out_features=20, bias=True)
    (27): Linear(in_features=1000, out_features=20, bias=True)
    (28): Linear(in_features=1000, out_features=20, bias=True)
    (29): Linear(in_features=1000, out_features=20, bias=True)
    (30): Linear(in_features=1000, out_features=20, bias=True)
    (31): Linear(in_features=1000, out_features=20, bias=True)
    (32): Linear(in_features=1000, out_features=20, bias=True)
    (33): Linear(in_features=1000, out_features=20, bias=True)
    (34): Linear(in_features=1000, out_features=20, bias=True)
    (35): Linear(in_features=1000, out_features=20, bias=True)
    (36): Linear(in_features=1000, out_features=20, bias=True)
    (37): Linear(in_features=1000, out_features=20, bias=True)
    (38): Linear(in_features=1000, out_features=20, bias=True)
  )
)
======

************************************************************************************************************
Task 39
************************************************************************************************************
| Epoch   1, time=  4.8s | Train: skip eval | Valid: time=  0.2s loss=4.493, TAw acc= 53.4% | *
| Epoch   2, time=  4.9s | Train: skip eval | Valid: time=  0.2s loss=2.230, TAw acc= 87.5% | *
…
>>> Test on task 34 : loss=1.706 | TAw acc= 97.1%, forg=  1.0%| TAg acc= 47.1%, forg= 22.5% <<<
>>> Test on task 35 : loss=1.655 | TAw acc= 90.4%, forg=  2.6%| TAg acc= 53.0%, forg= 14.8% <<<
>>> Test on task 36 : loss=1.376 | TAw acc= 96.3%, forg=  0.0%| TAg acc= 65.1%, forg=  9.2% <<<
>>> Test on task 37 : loss=1.761 | TAw acc= 95.9%, forg= -0.8%| TAg acc= 51.2%, forg= 13.2% <<<
>>> Test on task 38 : loss=1.714 | TAw acc= 92.1%, forg= -2.0%| TAg acc= 56.4%, forg= 14.9% <<<
>>> Test on task 39 : loss=1.326 | TAw acc= 94.0%, forg=  0.0%| TAg acc= 72.6%, forg=  0.0% <<<
Save at eeil_e5_wisdm_5/wisdm_flex_eeil
======
LLL_Net(
  (model): SimpleMLP(
    (fc1): Linear(in_features=91, out_features=1000, bias=True)
    (fc2): Sequential()
  )
  (heads): ModuleList(
    (0): Linear(in_features=1000, out_features=34, bias=True)
    (1): Linear(in_features=1000, out_features=20, bias=True)
    (2): Linear(in_features=1000, out_features=20, bias=True)
    (3): Linear(in_features=1000, out_features=20, bias=True)
    (4): Linear(in_features=1000, out_features=20, bias=True)
    (5): Linear(in_features=1000, out_features=20, bias=True)
    (6): Linear(in_features=1000, out_features=20, bias=True)
    (7): Linear(in_features=1000, out_features=20, bias=True)
    (8): Linear(in_features=1000, out_features=20, bias=True)
    (9): Linear(in_features=1000, out_features=20, bias=True)
    (10): Linear(in_features=1000, out_features=20, bias=True)
    (11): Linear(in_features=1000, out_features=20, bias=True)
    (12): Linear(in_features=1000, out_features=20, bias=True)
    (13): Linear(in_features=1000, out_features=20, bias=True)
    (14): Linear(in_features=1000, out_features=20, bias=True)
    (15): Linear(in_features=1000, out_features=20, bias=True)
    (16): Linear(in_features=1000, out_features=20, bias=True)
    (17): Linear(in_features=1000, out_features=20, bias=True)
    (18): Linear(in_features=1000, out_features=20, bias=True)
    (19): Linear(in_features=1000, out_features=20, bias=True)
    (20): Linear(in_features=1000, out_features=20, bias=True)
    (21): Linear(in_features=1000, out_features=20, bias=True)
    (22): Linear(in_features=1000, out_features=20, bias=True)
    (23): Linear(in_features=1000, out_features=20, bias=True)
    (24): Linear(in_features=1000, out_features=20, bias=True)
    (25): Linear(in_features=1000, out_features=20, bias=True)
    (26): Linear(in_features=1000, out_features=20, bias=True)
    (27): Linear(in_features=1000, out_features=20, bias=True)
    (28): Linear(in_features=1000, out_features=20, bias=True)
    (29): Linear(in_features=1000, out_features=20, bias=True)
    (30): Linear(in_features=1000, out_features=20, bias=True)
    (31): Linear(in_features=1000, out_features=20, bias=True)
    (32): Linear(in_features=1000, out_features=20, bias=True)
    (33): Linear(in_features=1000, out_features=20, bias=True)
    (34): Linear(in_features=1000, out_features=20, bias=True)
    (35): Linear(in_features=1000, out_features=20, bias=True)
    (36): Linear(in_features=1000, out_features=20, bias=True)
    (37): Linear(in_features=1000, out_features=20, bias=True)
    (38): Linear(in_features=1000, out_features=20, bias=True)
    (39): Linear(in_features=1000, out_features=20, bias=True)
  )
)
======

************************************************************************************************************
Task 40
************************************************************************************************************
| Epoch   1, time=  5.3s | Train: skip eval | Valid: time=  0.2s loss=4.712, TAw acc= 64.1% | *
| Epoch   2, time=  5.1s | Train: skip eval | Valid: time=  0.2s loss=2.121, TAw acc= 81.5% | *
…
>>> Test on task 35 : loss=1.675 | TAw acc= 90.4%, forg=  2.6%| TAg acc= 53.0%, forg= 14.8% <<<
>>> Test on task 36 : loss=1.363 | TAw acc= 96.3%, forg=  0.0%| TAg acc= 65.1%, forg=  9.2% <<<
>>> Test on task 37 : loss=1.741 | TAw acc= 95.9%, forg=  0.0%| TAg acc= 56.2%, forg=  8.3% <<<
>>> Test on task 38 : loss=1.574 | TAw acc= 93.1%, forg= -1.0%| TAg acc= 62.4%, forg=  8.9% <<<
>>> Test on task 39 : loss=1.764 | TAw acc= 94.9%, forg= -0.9%| TAg acc= 55.6%, forg= 17.1% <<<
>>> Test on task 40 : loss=1.295 | TAw acc= 95.9%, forg=  0.0%| TAg acc= 69.1%, forg=  0.0% <<<
Save at eeil_e5_wisdm_5/wisdm_flex_eeil
======
LLL_Net(
  (model): SimpleMLP(
    (fc1): Linear(in_features=91, out_features=1000, bias=True)
    (fc2): Sequential()
  )
  (heads): ModuleList(
    (0): Linear(in_features=1000, out_features=34, bias=True)
    (1): Linear(in_features=1000, out_features=20, bias=True)
    (2): Linear(in_features=1000, out_features=20, bias=True)
    (3): Linear(in_features=1000, out_features=20, bias=True)
    (4): Linear(in_features=1000, out_features=20, bias=True)
    (5): Linear(in_features=1000, out_features=20, bias=True)
    (6): Linear(in_features=1000, out_features=20, bias=True)
    (7): Linear(in_features=1000, out_features=20, bias=True)
    (8): Linear(in_features=1000, out_features=20, bias=True)
    (9): Linear(in_features=1000, out_features=20, bias=True)
    (10): Linear(in_features=1000, out_features=20, bias=True)
    (11): Linear(in_features=1000, out_features=20, bias=True)
    (12): Linear(in_features=1000, out_features=20, bias=True)
    (13): Linear(in_features=1000, out_features=20, bias=True)
    (14): Linear(in_features=1000, out_features=20, bias=True)
    (15): Linear(in_features=1000, out_features=20, bias=True)
    (16): Linear(in_features=1000, out_features=20, bias=True)
    (17): Linear(in_features=1000, out_features=20, bias=True)
    (18): Linear(in_features=1000, out_features=20, bias=True)
    (19): Linear(in_features=1000, out_features=20, bias=True)
    (20): Linear(in_features=1000, out_features=20, bias=True)
    (21): Linear(in_features=1000, out_features=20, bias=True)
    (22): Linear(in_features=1000, out_features=20, bias=True)
    (23): Linear(in_features=1000, out_features=20, bias=True)
    (24): Linear(in_features=1000, out_features=20, bias=True)
    (25): Linear(in_features=1000, out_features=20, bias=True)
    (26): Linear(in_features=1000, out_features=20, bias=True)
    (27): Linear(in_features=1000, out_features=20, bias=True)
    (28): Linear(in_features=1000, out_features=20, bias=True)
    (29): Linear(in_features=1000, out_features=20, bias=True)
    (30): Linear(in_features=1000, out_features=20, bias=True)
    (31): Linear(in_features=1000, out_features=20, bias=True)
    (32): Linear(in_features=1000, out_features=20, bias=True)
    (33): Linear(in_features=1000, out_features=20, bias=True)
    (34): Linear(in_features=1000, out_features=20, bias=True)
    (35): Linear(in_features=1000, out_features=20, bias=True)
    (36): Linear(in_features=1000, out_features=20, bias=True)
    (37): Linear(in_features=1000, out_features=20, bias=True)
    (38): Linear(in_features=1000, out_features=20, bias=True)
    (39): Linear(in_features=1000, out_features=20, bias=True)
    (40): Linear(in_features=1000, out_features=20, bias=True)
  )
)
======

************************************************************************************************************
Task 41
************************************************************************************************************
| Epoch   1, time=  5.3s | Train: skip eval | Valid: time=  0.2s loss=5.453, TAw acc= 57.0% | *
| Epoch   2, time=  5.2s | Train: skip eval | Valid: time=  0.2s loss=2.101, TAw acc= 82.6% | *
…
>>> Test on task 36 : loss=1.369 | TAw acc= 96.3%, forg=  0.0%| TAg acc= 67.0%, forg=  7.3% <<<
>>> Test on task 37 : loss=1.712 | TAw acc= 95.9%, forg=  0.0%| TAg acc= 57.9%, forg=  6.6% <<<
>>> Test on task 38 : loss=1.479 | TAw acc= 92.1%, forg=  1.0%| TAg acc= 63.4%, forg=  7.9% <<<
>>> Test on task 39 : loss=1.659 | TAw acc= 94.9%, forg=  0.0%| TAg acc= 58.1%, forg= 14.5% <<<
>>> Test on task 40 : loss=1.841 | TAw acc= 95.9%, forg=  0.0%| TAg acc= 45.5%, forg= 23.6% <<<
>>> Test on task 41 : loss=1.120 | TAw acc= 99.1%, forg=  0.0%| TAg acc= 75.9%, forg=  0.0% <<<
Save at eeil_e5_wisdm_5/wisdm_flex_eeil
======
LLL_Net(
  (model): SimpleMLP(
    (fc1): Linear(in_features=91, out_features=1000, bias=True)
    (fc2): Sequential()
  )
  (heads): ModuleList(
    (0): Linear(in_features=1000, out_features=34, bias=True)
    (1): Linear(in_features=1000, out_features=20, bias=True)
    (2): Linear(in_features=1000, out_features=20, bias=True)
    (3): Linear(in_features=1000, out_features=20, bias=True)
    (4): Linear(in_features=1000, out_features=20, bias=True)
    (5): Linear(in_features=1000, out_features=20, bias=True)
    (6): Linear(in_features=1000, out_features=20, bias=True)
    (7): Linear(in_features=1000, out_features=20, bias=True)
    (8): Linear(in_features=1000, out_features=20, bias=True)
    (9): Linear(in_features=1000, out_features=20, bias=True)
    (10): Linear(in_features=1000, out_features=20, bias=True)
    (11): Linear(in_features=1000, out_features=20, bias=True)
    (12): Linear(in_features=1000, out_features=20, bias=True)
    (13): Linear(in_features=1000, out_features=20, bias=True)
    (14): Linear(in_features=1000, out_features=20, bias=True)
    (15): Linear(in_features=1000, out_features=20, bias=True)
    (16): Linear(in_features=1000, out_features=20, bias=True)
    (17): Linear(in_features=1000, out_features=20, bias=True)
    (18): Linear(in_features=1000, out_features=20, bias=True)
    (19): Linear(in_features=1000, out_features=20, bias=True)
    (20): Linear(in_features=1000, out_features=20, bias=True)
    (21): Linear(in_features=1000, out_features=20, bias=True)
    (22): Linear(in_features=1000, out_features=20, bias=True)
    (23): Linear(in_features=1000, out_features=20, bias=True)
    (24): Linear(in_features=1000, out_features=20, bias=True)
    (25): Linear(in_features=1000, out_features=20, bias=True)
    (26): Linear(in_features=1000, out_features=20, bias=True)
    (27): Linear(in_features=1000, out_features=20, bias=True)
    (28): Linear(in_features=1000, out_features=20, bias=True)
    (29): Linear(in_features=1000, out_features=20, bias=True)
    (30): Linear(in_features=1000, out_features=20, bias=True)
    (31): Linear(in_features=1000, out_features=20, bias=True)
    (32): Linear(in_features=1000, out_features=20, bias=True)
    (33): Linear(in_features=1000, out_features=20, bias=True)
    (34): Linear(in_features=1000, out_features=20, bias=True)
    (35): Linear(in_features=1000, out_features=20, bias=True)
    (36): Linear(in_features=1000, out_features=20, bias=True)
    (37): Linear(in_features=1000, out_features=20, bias=True)
    (38): Linear(in_features=1000, out_features=20, bias=True)
    (39): Linear(in_features=1000, out_features=20, bias=True)
    (40): Linear(in_features=1000, out_features=20, bias=True)
    (41): Linear(in_features=1000, out_features=20, bias=True)
  )
)
======

************************************************************************************************************
Task 42
************************************************************************************************************
| Epoch   1, time=  5.5s | Train: skip eval | Valid: time=  0.2s loss=5.480, TAw acc= 50.6% | *
| Epoch   2, time=  5.4s | Train: skip eval | Valid: time=  0.2s loss=2.616, TAw acc= 92.2% | *
…
>>> Test on task 37 : loss=1.672 | TAw acc= 95.9%, forg=  0.0%| TAg acc= 56.2%, forg=  8.3% <<<
>>> Test on task 38 : loss=1.473 | TAw acc= 94.1%, forg= -1.0%| TAg acc= 60.4%, forg= 10.9% <<<
>>> Test on task 39 : loss=1.730 | TAw acc= 94.9%, forg=  0.0%| TAg acc= 58.1%, forg= 14.5% <<<
>>> Test on task 40 : loss=1.715 | TAw acc= 95.9%, forg=  0.0%| TAg acc= 44.7%, forg= 24.4% <<<
>>> Test on task 41 : loss=1.447 | TAw acc= 99.1%, forg=  0.0%| TAg acc= 61.2%, forg= 14.7% <<<
>>> Test on task 42 : loss=1.121 | TAw acc= 94.3%, forg=  0.0%| TAg acc= 62.9%, forg=  0.0% <<<
Save at eeil_e5_wisdm_5/wisdm_flex_eeil
======
LLL_Net(
  (model): SimpleMLP(
    (fc1): Linear(in_features=91, out_features=1000, bias=True)
    (fc2): Sequential()
  )
  (heads): ModuleList(
    (0): Linear(in_features=1000, out_features=34, bias=True)
    (1): Linear(in_features=1000, out_features=20, bias=True)
    (2): Linear(in_features=1000, out_features=20, bias=True)
    (3): Linear(in_features=1000, out_features=20, bias=True)
    (4): Linear(in_features=1000, out_features=20, bias=True)
    (5): Linear(in_features=1000, out_features=20, bias=True)
    (6): Linear(in_features=1000, out_features=20, bias=True)
    (7): Linear(in_features=1000, out_features=20, bias=True)
    (8): Linear(in_features=1000, out_features=20, bias=True)
    (9): Linear(in_features=1000, out_features=20, bias=True)
    (10): Linear(in_features=1000, out_features=20, bias=True)
    (11): Linear(in_features=1000, out_features=20, bias=True)
    (12): Linear(in_features=1000, out_features=20, bias=True)
    (13): Linear(in_features=1000, out_features=20, bias=True)
    (14): Linear(in_features=1000, out_features=20, bias=True)
    (15): Linear(in_features=1000, out_features=20, bias=True)
    (16): Linear(in_features=1000, out_features=20, bias=True)
    (17): Linear(in_features=1000, out_features=20, bias=True)
    (18): Linear(in_features=1000, out_features=20, bias=True)
    (19): Linear(in_features=1000, out_features=20, bias=True)
    (20): Linear(in_features=1000, out_features=20, bias=True)
    (21): Linear(in_features=1000, out_features=20, bias=True)
    (22): Linear(in_features=1000, out_features=20, bias=True)
    (23): Linear(in_features=1000, out_features=20, bias=True)
    (24): Linear(in_features=1000, out_features=20, bias=True)
    (25): Linear(in_features=1000, out_features=20, bias=True)
    (26): Linear(in_features=1000, out_features=20, bias=True)
    (27): Linear(in_features=1000, out_features=20, bias=True)
    (28): Linear(in_features=1000, out_features=20, bias=True)
    (29): Linear(in_features=1000, out_features=20, bias=True)
    (30): Linear(in_features=1000, out_features=20, bias=True)
    (31): Linear(in_features=1000, out_features=20, bias=True)
    (32): Linear(in_features=1000, out_features=20, bias=True)
    (33): Linear(in_features=1000, out_features=20, bias=True)
    (34): Linear(in_features=1000, out_features=20, bias=True)
    (35): Linear(in_features=1000, out_features=20, bias=True)
    (36): Linear(in_features=1000, out_features=20, bias=True)
    (37): Linear(in_features=1000, out_features=20, bias=True)
    (38): Linear(in_features=1000, out_features=20, bias=True)
    (39): Linear(in_features=1000, out_features=20, bias=True)
    (40): Linear(in_features=1000, out_features=20, bias=True)
    (41): Linear(in_features=1000, out_features=20, bias=True)
    (42): Linear(in_features=1000, out_features=20, bias=True)
  )
)
======

************************************************************************************************************
Task 43
************************************************************************************************************
| Epoch   1, time=  6.1s | Train: skip eval | Valid: time=  0.2s loss=4.591, TAw acc= 59.1% | *
| Epoch   2, time=  5.9s | Train: skip eval | Valid: time=  0.2s loss=2.539, TAw acc= 81.8% | *
…
