…
| Selected 420 train exemplars, time=  0.3s
420
------------------------------------------------------------------------------------------------------------
>>> Test on task  0 : loss=0.688 | TAw acc= 93.1%, forg=  0.0%| TAg acc= 90.3%, forg=  2.8% <<<
>>> Test on task  1 : loss=4.701 | TAw acc= 95.8%, forg=  0.0%| TAg acc= 92.5%, forg=  3.3% <<<
>>> Test on task  2 : loss=5.441 | TAw acc= 90.8%, forg=  0.0%| TAg acc= 88.3%, forg=  0.0% <<<
>>> Test on task  3 : loss=9.472 | TAw acc= 86.7%, forg=  0.0%| TAg acc= 77.5%, forg=  0.0% <<<
Save at k=10/icarl_dsads_3/har_flex_icarl
======
LLL_Net(
  (model): SimpleMLP(
    (fc1): Linear(in_features=405, out_features=66, bias=True)
    (fc2): Sequential()
  )
  (heads): ModuleList(
    (0): Linear(in_features=66, out_features=12, bias=True)
    (1): Linear(in_features=66, out_features=10, bias=True)
    (2): Linear(in_features=66, out_features=10, bias=True)
    (3): Linear(in_features=66, out_features=10, bias=True)
  )
)
======

************************************************************************************************************
Task  4
************************************************************************************************************
| Epoch   1, time=  0.5s | Train: skip eval | Valid: time=  0.2s loss=16.225, TAw acc= 41.7% | *
| Epoch   2, time=  0.5s | Train: skip eval | Valid: time=  0.2s loss=12.830, TAw acc= 27.1% | *
…
------------------------------------------------------------------------------------------------------------
>>> Test on task  0 : loss=0.789 | TAw acc= 93.1%, forg=  0.0%| TAg acc= 90.3%, forg=  2.8% <<<
>>> Test on task  1 : loss=4.686 | TAw acc= 95.8%, forg=  0.0%| TAg acc= 92.5%, forg=  3.3% <<<
>>> Test on task  2 : loss=5.402 | TAw acc= 90.8%, forg=  0.0%| TAg acc= 84.2%, forg=  4.2% <<<
>>> Test on task  3 : loss=9.580 | TAw acc= 86.7%, forg=  0.0%| TAg acc= 76.7%, forg=  0.8% <<<
>>> Test on task  4 : loss=10.583 | TAw acc= 95.0%, forg=  0.0%| TAg acc= 90.8%, forg=  0.0% <<<
Save at k=10/icarl_dsads_3/har_flex_icarl
======
LLL_Net(
  (model): SimpleMLP(
    (fc1): Linear(in_features=405, out_features=66, bias=True)
    (fc2): Sequential()
  )
  (heads): ModuleList(
    (0): Linear(in_features=66, out_features=12, bias=True)
    (1): Linear(in_features=66, out_features=10, bias=True)
    (2): Linear(in_features=66, out_features=10, bias=True)
    (3): Linear(in_features=66, out_features=10, bias=True)
    (4): Linear(in_features=66, out_features=10, bias=True)
  )
)
======

************************************************************************************************************
Task  5
************************************************************************************************************
| Epoch   1, time=  0.6s | Train: skip eval | Valid: time=  0.2s loss=16.565, TAw acc= 29.2% | *
| Epoch   2, time=  0.5s | Train: skip eval | Valid: time=  0.2s loss=13.008, TAw acc= 49.0% | *
…
>>> Test on task  0 : loss=0.721 | TAw acc= 93.1%, forg=  0.0%| TAg acc= 90.3%, forg=  2.8% <<<
>>> Test on task  1 : loss=4.373 | TAw acc= 95.8%, forg=  0.0%| TAg acc= 90.8%, forg=  5.0% <<<
>>> Test on task  2 : loss=5.174 | TAw acc= 90.8%, forg=  0.0%| TAg acc= 82.5%, forg=  5.8% <<<
>>> Test on task  3 : loss=9.412 | TAw acc= 86.7%, forg=  0.0%| TAg acc= 75.0%, forg=  2.5% <<<
>>> Test on task  4 : loss=10.609 | TAw acc= 95.0%, forg=  0.0%| TAg acc= 90.0%, forg=  0.8% <<<
>>> Test on task  5 : loss=10.758 | TAw acc= 96.7%, forg=  0.0%| TAg acc= 87.5%, forg=  0.0% <<<
Save at k=10/icarl_dsads_3/har_flex_icarl
======
LLL_Net(
  (model): SimpleMLP(
    (fc1): Linear(in_features=405, out_features=66, bias=True)
    (fc2): Sequential()
  )
  (heads): ModuleList(
    (0): Linear(in_features=66, out_features=12, bias=True)
    (1): Linear(in_features=66, out_features=10, bias=True)
    (2): Linear(in_features=66, out_features=10, bias=True)
    (3): Linear(in_features=66, out_features=10, bias=True)
    (4): Linear(in_features=66, out_features=10, bias=True)
    (5): Linear(in_features=66, out_features=10, bias=True)
  )
)
======

************************************************************************************************************
Task  6
************************************************************************************************************
| Epoch   1, time=  0.7s | Train: skip eval | Valid: time=  0.2s loss=18.558, TAw acc= 24.0% | *
| Epoch   2, time=  0.7s | Train: skip eval | Valid: time=  0.2s loss=14.574, TAw acc= 59.4% | *
…
>>> Test on task  1 : loss=4.273 | TAw acc= 95.8%, forg=  0.0%| TAg acc= 90.0%, forg=  5.8% <<<
>>> Test on task  2 : loss=5.009 | TAw acc= 90.8%, forg=  0.0%| TAg acc= 82.5%, forg=  5.8% <<<
>>> Test on task  3 : loss=9.167 | TAw acc= 86.7%, forg=  0.0%| TAg acc= 70.8%, forg=  6.7% <<<
>>> Test on task  4 : loss=10.411 | TAw acc= 95.0%, forg=  0.0%| TAg acc= 90.0%, forg=  0.8% <<<
>>> Test on task  5 : loss=10.902 | TAw acc= 96.7%, forg=  0.0%| TAg acc= 87.5%, forg=  0.0% <<<
>>> Test on task  6 : loss=12.717 | TAw acc= 96.7%, forg=  0.0%| TAg acc= 87.5%, forg=  0.0% <<<
Save at k=10/icarl_dsads_3/har_flex_icarl
======
LLL_Net(
  (model): SimpleMLP(
    (fc1): Linear(in_features=405, out_features=66, bias=True)
    (fc2): Sequential()
  )
  (heads): ModuleList(
    (0): Linear(in_features=66, out_features=12, bias=True)
    (1): Linear(in_features=66, out_features=10, bias=True)
    (2): Linear(in_features=66, out_features=10, bias=True)
    (3): Linear(in_features=66, out_features=10, bias=True)
    (4): Linear(in_features=66, out_features=10, bias=True)
    (5): Linear(in_features=66, out_features=10, bias=True)
    (6): Linear(in_features=66, out_features=10, bias=True)
  )
)
======

************************************************************************************************************
Task  7
************************************************************************************************************
| Epoch   1, time=  0.8s | Train: skip eval | Valid: time=  0.2s loss=20.323, TAw acc= 31.2% | *
| Epoch   2, time=  0.8s | Train: skip eval | Valid: time=  0.2s loss=15.239, TAw acc= 50.0% | *
…
>>> Test on task  2 : loss=4.886 | TAw acc= 90.8%, forg=  0.0%| TAg acc= 78.3%, forg= 10.0% <<<
>>> Test on task  3 : loss=8.691 | TAw acc= 86.7%, forg=  0.0%| TAg acc= 70.8%, forg=  6.7% <<<
>>> Test on task  4 : loss=9.911 | TAw acc= 95.0%, forg=  0.0%| TAg acc= 90.0%, forg=  0.8% <<<
>>> Test on task  5 : loss=10.770 | TAw acc= 96.7%, forg=  0.0%| TAg acc= 87.5%, forg=  0.0% <<<
>>> Test on task  6 : loss=12.735 | TAw acc= 96.7%, forg=  0.0%| TAg acc= 87.5%, forg=  0.0% <<<
>>> Test on task  7 : loss=13.280 | TAw acc= 92.5%, forg=  0.0%| TAg acc= 87.5%, forg=  0.0% <<<
Save at k=10/icarl_dsads_3/har_flex_icarl
======
LLL_Net(
  (model): SimpleMLP(
    (fc1): Linear(in_features=405, out_features=66, bias=True)
    (fc2): Sequential()
  )
  (heads): ModuleList(
    (0): Linear(in_features=66, out_features=12, bias=True)
    (1): Linear(in_features=66, out_features=10, bias=True)
    (2): Linear(in_features=66, out_features=10, bias=True)
    (3): Linear(in_features=66, out_features=10, bias=True)
    (4): Linear(in_features=66, out_features=10, bias=True)
    (5): Linear(in_features=66, out_features=10, bias=True)
    (6): Linear(in_features=66, out_features=10, bias=True)
    (7): Linear(in_features=66, out_features=10, bias=True)
  )
)
======

************************************************************************************************************
Task  8
************************************************************************************************************
| Epoch   1, time=  1.0s | Train: skip eval | Valid: time=  0.2s loss=21.327, TAw acc= 34.4% | *
| Epoch   2, time=  0.9s | Train: skip eval | Valid: time=  0.2s loss=16.404, TAw acc= 58.3% | *
…
>>> Test on task  3 : loss=8.530 | TAw acc= 86.7%, forg=  0.0%| TAg acc= 70.8%, forg=  6.7% <<<
>>> Test on task  4 : loss=9.662 | TAw acc= 95.0%, forg=  0.0%| TAg acc= 90.0%, forg=  0.8% <<<
>>> Test on task  5 : loss=10.329 | TAw acc= 96.7%, forg=  0.0%| TAg acc= 86.7%, forg=  0.8% <<<
>>> Test on task  6 : loss=12.575 | TAw acc= 96.7%, forg=  0.0%| TAg acc= 84.2%, forg=  3.3% <<<
>>> Test on task  7 : loss=13.292 | TAw acc= 92.5%, forg=  0.0%| TAg acc= 87.5%, forg=  0.0% <<<
>>> Test on task  8 : loss=14.415 | TAw acc= 91.7%, forg=  0.0%| TAg acc= 76.7%, forg=  0.0% <<<
Save at k=10/icarl_dsads_3/har_flex_icarl
======
LLL_Net(
  (model): SimpleMLP(
    (fc1): Linear(in_features=405, out_features=66, bias=True)
    (fc2): Sequential()
  )
  (heads): ModuleList(
    (0): Linear(in_features=66, out_features=12, bias=True)
    (1): Linear(in_features=66, out_features=10, bias=True)
    (2): Linear(in_features=66, out_features=10, bias=True)
    (3): Linear(in_features=66, out_features=10, bias=True)
    (4): Linear(in_features=66, out_features=10, bias=True)
    (5): Linear(in_features=66, out_features=10, bias=True)
    (6): Linear(in_features=66, out_features=10, bias=True)
    (7): Linear(in_features=66, out_features=10, bias=True)
    (8): Linear(in_features=66, out_features=10, bias=True)
  )
)
======

************************************************************************************************************
Task  9
************************************************************************************************************
| Epoch   1, time=  1.2s | Train: skip eval | Valid: time=  0.2s loss=21.573, TAw acc= 30.2% | *
| Epoch   2, time=  1.1s | Train: skip eval | Valid: time=  0.2s loss=16.745, TAw acc= 61.5% | *
…
>>> Test on task  4 : loss=9.343 | TAw acc= 95.0%, forg=  0.0%| TAg acc= 90.0%, forg=  0.8% <<<
>>> Test on task  5 : loss=10.009 | TAw acc= 96.7%, forg=  0.0%| TAg acc= 86.7%, forg=  0.8% <<<
>>> Test on task  6 : loss=12.253 | TAw acc= 96.7%, forg=  0.0%| TAg acc= 84.2%, forg=  3.3% <<<
>>> Test on task  7 : loss=13.007 | TAw acc= 92.5%, forg=  0.0%| TAg acc= 87.5%, forg=  0.0% <<<
>>> Test on task  8 : loss=14.558 | TAw acc= 91.7%, forg=  0.0%| TAg acc= 76.7%, forg=  0.0% <<<
>>> Test on task  9 : loss=14.967 | TAw acc= 94.2%, forg=  0.0%| TAg acc= 80.8%, forg=  0.0% <<<
Save at k=10/icarl_dsads_3/har_flex_icarl
======
LLL_Net(
  (model): SimpleMLP(
    (fc1): Linear(in_features=405, out_features=66, bias=True)
    (fc2): Sequential()
  )
  (heads): ModuleList(
    (0): Linear(in_features=66, out_features=12, bias=True)
    (1): Linear(in_features=66, out_features=10, bias=True)
    (2): Linear(in_features=66, out_features=10, bias=True)
    (3): Linear(in_features=66, out_features=10, bias=True)
    (4): Linear(in_features=66, out_features=10, bias=True)
    (5): Linear(in_features=66, out_features=10, bias=True)
    (6): Linear(in_features=66, out_features=10, bias=True)
    (7): Linear(in_features=66, out_features=10, bias=True)
    (8): Linear(in_features=66, out_features=10, bias=True)
    (9): Linear(in_features=66, out_features=10, bias=True)
  )
)
======

************************************************************************************************************
Task 10
************************************************************************************************************
| Epoch   1, time=  1.4s | Train: skip eval | Valid: time=  0.2s loss=21.837, TAw acc= 22.9% | *
| Epoch   2, time=  1.2s | Train: skip eval | Valid: time=  0.2s loss=16.586, TAw acc= 62.5% | *
…
>>> Test on task  5 : loss=9.861 | TAw acc= 96.7%, forg=  0.0%| TAg acc= 85.8%, forg=  1.7% <<<
>>> Test on task  6 : loss=11.883 | TAw acc= 96.7%, forg=  0.0%| TAg acc= 82.5%, forg=  5.0% <<<
>>> Test on task  7 : loss=12.727 | TAw acc= 92.5%, forg=  0.0%| TAg acc= 87.5%, forg=  0.0% <<<
>>> Test on task  8 : loss=14.313 | TAw acc= 91.7%, forg=  0.0%| TAg acc= 75.0%, forg=  1.7% <<<
>>> Test on task  9 : loss=15.213 | TAw acc= 94.2%, forg=  0.0%| TAg acc= 80.8%, forg=  0.0% <<<
>>> Test on task 10 : loss=14.790 | TAw acc= 98.3%, forg=  0.0%| TAg acc= 82.5%, forg=  0.0% <<<
Save at k=10/icarl_dsads_3/har_flex_icarl
======
LLL_Net(
  (model): SimpleMLP(
    (fc1): Linear(in_features=405, out_features=66, bias=True)
    (fc2): Sequential()
  )
  (heads): ModuleList(
    (0): Linear(in_features=66, out_features=12, bias=True)
    (1): Linear(in_features=66, out_features=10, bias=True)
    (2): Linear(in_features=66, out_features=10, bias=True)
    (3): Linear(in_features=66, out_features=10, bias=True)
    (4): Linear(in_features=66, out_features=10, bias=True)
    (5): Linear(in_features=66, out_features=10, bias=True)
    (6): Linear(in_features=66, out_features=10, bias=True)
    (7): Linear(in_features=66, out_features=10, bias=True)
    (8): Linear(in_features=66, out_features=10, bias=True)
    (9): Linear(in_features=66, out_features=10, bias=True)
    (10): Linear(in_features=66, out_features=10, bias=True)
  )
)
======

************************************************************************************************************
Task 11
************************************************************************************************************
| Epoch   1, time=  1.5s | Train: skip eval | Valid: time=  0.2s loss=22.881, TAw acc= 28.1% | *
| Epoch   2, time=  1.5s | Train: skip eval | Valid: time=  0.2s loss=17.920, TAw acc= 59.4% | *
…
>>> Test on task  6 : loss=11.693 | TAw acc= 96.7%, forg=  0.0%| TAg acc= 80.8%, forg=  6.7% <<<
>>> Test on task  7 : loss=12.391 | TAw acc= 92.5%, forg=  0.0%| TAg acc= 87.5%, forg=  0.0% <<<
>>> Test on task  8 : loss=14.089 | TAw acc= 91.7%, forg=  0.0%| TAg acc= 73.3%, forg=  3.3% <<<
>>> Test on task  9 : loss=15.029 | TAw acc= 94.2%, forg=  0.0%| TAg acc= 80.8%, forg=  0.0% <<<
>>> Test on task 10 : loss=15.356 | TAw acc= 98.3%, forg=  0.0%| TAg acc= 82.5%, forg=  0.0% <<<
>>> Test on task 11 : loss=16.478 | TAw acc= 94.2%, forg=  0.0%| TAg acc= 77.5%, forg=  0.0% <<<
Save at k=10/icarl_dsads_3/har_flex_icarl
======
LLL_Net(
  (model): SimpleMLP(
    (fc1): Linear(in_features=405, out_features=66, bias=True)
    (fc2): Sequential()
  )
  (heads): ModuleList(
    (0): Linear(in_features=66, out_features=12, bias=True)
    (1): Linear(in_features=66, out_features=10, bias=True)
    (2): Linear(in_features=66, out_features=10, bias=True)
    (3): Linear(in_features=66, out_features=10, bias=True)
    (4): Linear(in_features=66, out_features=10, bias=True)
    (5): Linear(in_features=66, out_features=10, bias=True)
    (6): Linear(in_features=66, out_features=10, bias=True)
    (7): Linear(in_features=66, out_features=10, bias=True)
    (8): Linear(in_features=66, out_features=10, bias=True)
    (9): Linear(in_features=66, out_features=10, bias=True)
    (10): Linear(in_features=66, out_features=10, bias=True)
    (11): Linear(in_features=66, out_features=10, bias=True)
  )
)
======

************************************************************************************************************
Task 12
************************************************************************************************************
| Epoch   1, time=  1.7s | Train: skip eval | Valid: time=  0.2s loss=24.541, TAw acc= 29.2% | *
| Epoch   2, time=  1.7s | Train: skip eval | Valid: time=  0.2s loss=18.418, TAw acc= 45.8% | *
…
>>> Test on task  7 : loss=12.364 | TAw acc= 92.5%, forg=  0.0%| TAg acc= 87.5%, forg=  0.0% <<<
>>> Test on task  8 : loss=13.645 | TAw acc= 91.7%, forg=  0.0%| TAg acc= 73.3%, forg=  3.3% <<<
>>> Test on task  9 : loss=14.612 | TAw acc= 94.2%, forg=  0.0%| TAg acc= 80.8%, forg=  0.0% <<<
>>> Test on task 10 : loss=14.806 | TAw acc= 98.3%, forg=  0.0%| TAg acc= 80.8%, forg=  1.7% <<<
>>> Test on task 11 : loss=16.967 | TAw acc= 94.2%, forg=  0.0%| TAg acc= 76.7%, forg=  0.8% <<<
>>> Test on task 12 : loss=15.946 | TAw acc= 97.5%, forg=  0.0%| TAg acc= 73.3%, forg=  0.0% <<<
Save at k=10/icarl_dsads_3/har_flex_icarl
======
LLL_Net(
  (model): SimpleMLP(
    (fc1): Linear(in_features=405, out_features=66, bias=True)
    (fc2): Sequential()
  )
  (heads): ModuleList(
    (0): Linear(in_features=66, out_features=12, bias=True)
    (1): Linear(in_features=66, out_features=10, bias=True)
    (2): Linear(in_features=66, out_features=10, bias=True)
    (3): Linear(in_features=66, out_features=10, bias=True)
    (4): Linear(in_features=66, out_features=10, bias=True)
    (5): Linear(in_features=66, out_features=10, bias=True)
    (6): Linear(in_features=66, out_features=10, bias=True)
    (7): Linear(in_features=66, out_features=10, bias=True)
    (8): Linear(in_features=66, out_features=10, bias=True)
    (9): Linear(in_features=66, out_features=10, bias=True)
    (10): Linear(in_features=66, out_features=10, bias=True)
    (11): Linear(in_features=66, out_features=10, bias=True)
    (12): Linear(in_features=66, out_features=10, bias=True)
  )
)
======

************************************************************************************************************
Task 13
************************************************************************************************************
| Epoch   1, time=  1.8s | Train: skip eval | Valid: time=  0.2s loss=23.591, TAw acc= 28.1% | *
| Epoch   2, time=  1.8s | Train: skip eval | Valid: time=  0.2s loss=17.884, TAw acc= 62.5% | *
…
>>> Test on task  8 : loss=13.537 | TAw acc= 91.7%, forg=  0.0%| TAg acc= 73.3%, forg=  3.3% <<<
>>> Test on task  9 : loss=14.347 | TAw acc= 94.2%, forg=  0.0%| TAg acc= 80.8%, forg=  0.0% <<<
>>> Test on task 10 : loss=14.559 | TAw acc= 98.3%, forg=  0.0%| TAg acc= 78.3%, forg=  4.2% <<<
>>> Test on task 11 : loss=16.540 | TAw acc= 94.2%, forg=  0.0%| TAg acc= 76.7%, forg=  0.8% <<<
>>> Test on task 12 : loss=16.351 | TAw acc= 97.5%, forg=  0.0%| TAg acc= 73.3%, forg=  0.0% <<<
>>> Test on task 13 : loss=16.111 | TAw acc= 98.3%, forg=  0.0%| TAg acc= 84.2%, forg=  0.0% <<<
Save at k=10/icarl_dsads_3/har_flex_icarl
======
LLL_Net(
  (model): SimpleMLP(
    (fc1): Linear(in_features=405, out_features=66, bias=True)
    (fc2): Sequential()
  )
  (heads): ModuleList(
    (0): Linear(in_features=66, out_features=12, bias=True)
    (1): Linear(in_features=66, out_features=10, bias=True)
    (2): Linear(in_features=66, out_features=10, bias=True)
    (3): Linear(in_features=66, out_features=10, bias=True)
    (4): Linear(in_features=66, out_features=10, bias=True)
    (5): Linear(in_features=66, out_features=10, bias=True)
    (6): Linear(in_features=66, out_features=10, bias=True)
    (7): Linear(in_features=66, out_features=10, bias=True)
    (8): Linear(in_features=66, out_features=10, bias=True)
    (9): Linear(in_features=66, out_features=10, bias=True)
    (10): Linear(in_features=66, out_features=10, bias=True)
    (11): Linear(in_features=66, out_features=10, bias=True)
    (12): Linear(in_features=66, out_features=10, bias=True)
    (13): Linear(in_features=66, out_features=10, bias=True)
  )
)
======

************************************************************************************************************
Task 14
************************************************************************************************************
| Epoch   1, time=  2.1s | Train: skip eval | Valid: time=  0.2s loss=24.821, TAw acc= 12.5% | *
| Epoch   2, time=  2.1s | Train: skip eval | Valid: time=  0.2s loss=18.202, TAw acc= 56.2% | *
…
