…
| Selected 790 train exemplars, time=  0.0s
790
------------------------------------------------------------------------------------------------------------
>>> Test on task  0 : loss=2.004 | TAw acc= 79.9%, forg= -4.6%| TAg acc= 76.8%, forg= -9.3% <<<
>>> Test on task  1 : loss=2.586 | TAw acc= 83.2%, forg= -8.4%| TAg acc= 57.0%, forg= -1.9% <<<
>>> Test on task  2 : loss=3.076 | TAw acc= 80.9%, forg=-26.4%| TAg acc= 34.5%, forg=  7.3% <<<
>>> Test on task  3 : loss=2.929 | TAw acc= 66.4%, forg=  0.0%| TAg acc= 50.0%, forg=  0.0% <<<
Save at k=10/eeil_wisdm_2/wisdm_flex_eeil
======
LLL_Net(
  (model): SimpleMLP(
    (fc1): Linear(in_features=91, out_features=1000, bias=True)
    (fc2): Sequential()
  )
  (heads): ModuleList(
    (0): Linear(in_features=1000, out_features=34, bias=True)
    (1): Linear(in_features=1000, out_features=20, bias=True)
    (2): Linear(in_features=1000, out_features=20, bias=True)
    (3): Linear(in_features=1000, out_features=20, bias=True)
  )
)
======

************************************************************************************************************
Task  4
************************************************************************************************************
| Epoch   1, time=  0.4s | Train: skip eval | Valid: time=  0.2s loss=5.064, TAw acc=  5.3% | *
| Epoch   2, time=  0.4s | Train: skip eval | Valid: time=  0.2s loss=5.049, TAw acc=  5.3% | *
…
------------------------------------------------------------------------------------------------------------
>>> Test on task  0 : loss=1.941 | TAw acc= 84.0%, forg= -4.1%| TAg acc= 72.7%, forg=  4.1% <<<
>>> Test on task  1 : loss=2.485 | TAw acc= 87.9%, forg= -4.7%| TAg acc= 64.5%, forg= -7.5% <<<
>>> Test on task  2 : loss=2.936 | TAw acc= 90.0%, forg= -9.1%| TAg acc= 39.1%, forg=  2.7% <<<
>>> Test on task  3 : loss=2.924 | TAw acc= 77.6%, forg=-11.2%| TAg acc= 44.0%, forg=  6.0% <<<
>>> Test on task  4 : loss=3.002 | TAw acc= 62.5%, forg=  0.0%| TAg acc= 30.8%, forg=  0.0% <<<
Save at k=10/eeil_wisdm_2/wisdm_flex_eeil
======
LLL_Net(
  (model): SimpleMLP(
    (fc1): Linear(in_features=91, out_features=1000, bias=True)
    (fc2): Sequential()
  )
  (heads): ModuleList(
    (0): Linear(in_features=1000, out_features=34, bias=True)
    (1): Linear(in_features=1000, out_features=20, bias=True)
    (2): Linear(in_features=1000, out_features=20, bias=True)
    (3): Linear(in_features=1000, out_features=20, bias=True)
    (4): Linear(in_features=1000, out_features=20, bias=True)
  )
)
======

************************************************************************************************************
Task  5
************************************************************************************************************
| Epoch   1, time=  0.5s | Train: skip eval | Valid: time=  0.2s loss=5.627, TAw acc=  3.9% | *
| Epoch   2, time=  0.5s | Train: skip eval | Valid: time=  0.2s loss=5.580, TAw acc=  5.3% | *
…
>>> Test on task  0 : loss=1.822 | TAw acc= 85.6%, forg= -1.5%| TAg acc= 79.9%, forg= -3.1% <<<
>>> Test on task  1 : loss=2.338 | TAw acc= 88.8%, forg= -0.9%| TAg acc= 71.0%, forg= -6.5% <<<
>>> Test on task  2 : loss=2.778 | TAw acc= 94.5%, forg= -4.5%| TAg acc= 40.9%, forg=  0.9% <<<
>>> Test on task  3 : loss=2.833 | TAw acc= 85.3%, forg= -7.8%| TAg acc= 45.7%, forg=  4.3% <<<
>>> Test on task  4 : loss=3.141 | TAw acc= 77.9%, forg=-15.4%| TAg acc= 12.5%, forg= 18.3% <<<
>>> Test on task  5 : loss=2.791 | TAw acc= 57.1%, forg=  0.0%| TAg acc= 38.1%, forg=  0.0% <<<
Save at k=10/eeil_wisdm_2/wisdm_flex_eeil
======
LLL_Net(
  (model): SimpleMLP(
    (fc1): Linear(in_features=91, out_features=1000, bias=True)
    (fc2): Sequential()
  )
  (heads): ModuleList(
    (0): Linear(in_features=1000, out_features=34, bias=True)
    (1): Linear(in_features=1000, out_features=20, bias=True)
    (2): Linear(in_features=1000, out_features=20, bias=True)
    (3): Linear(in_features=1000, out_features=20, bias=True)
    (4): Linear(in_features=1000, out_features=20, bias=True)
    (5): Linear(in_features=1000, out_features=20, bias=True)
  )
)
======

************************************************************************************************************
Task  6
************************************************************************************************************
| Epoch   1, time=  0.5s | Train: skip eval | Valid: time=  0.2s loss=5.562, TAw acc= 18.5% | *
| Epoch   2, time=  0.6s | Train: skip eval | Valid: time=  0.2s loss=5.535, TAw acc= 19.6% | *
…
>>> Test on task  1 : loss=2.254 | TAw acc= 90.7%, forg= -1.9%| TAg acc= 73.8%, forg= -2.8% <<<
>>> Test on task  2 : loss=2.615 | TAw acc= 95.5%, forg= -0.9%| TAg acc= 46.4%, forg= -4.5% <<<
>>> Test on task  3 : loss=2.721 | TAw acc= 92.2%, forg= -6.9%| TAg acc= 48.3%, forg=  1.7% <<<
>>> Test on task  4 : loss=2.992 | TAw acc= 87.5%, forg= -9.6%| TAg acc= 21.2%, forg=  9.6% <<<
>>> Test on task  5 : loss=2.945 | TAw acc= 81.9%, forg=-24.8%| TAg acc= 31.4%, forg=  6.7% <<<
>>> Test on task  6 : loss=2.640 | TAw acc= 66.7%, forg=  0.0%| TAg acc= 45.5%, forg=  0.0% <<<
Save at k=10/eeil_wisdm_2/wisdm_flex_eeil
======
LLL_Net(
  (model): SimpleMLP(
    (fc1): Linear(in_features=91, out_features=1000, bias=True)
    (fc2): Sequential()
  )
  (heads): ModuleList(
    (0): Linear(in_features=1000, out_features=34, bias=True)
    (1): Linear(in_features=1000, out_features=20, bias=True)
    (2): Linear(in_features=1000, out_features=20, bias=True)
    (3): Linear(in_features=1000, out_features=20, bias=True)
    (4): Linear(in_features=1000, out_features=20, bias=True)
    (5): Linear(in_features=1000, out_features=20, bias=True)
    (6): Linear(in_features=1000, out_features=20, bias=True)
  )
)
======

************************************************************************************************************
Task  7
************************************************************************************************************
| Epoch   1, time=  0.6s | Train: skip eval | Valid: time=  0.2s loss=5.683, TAw acc=  6.2% | *
| Epoch   2, time=  0.6s | Train: skip eval | Valid: time=  0.2s loss=5.668, TAw acc=  6.2% | *
…
>>> Test on task  2 : loss=2.436 | TAw acc= 95.5%, forg=  0.0%| TAg acc= 60.0%, forg=-13.6% <<<
>>> Test on task  3 : loss=2.554 | TAw acc= 93.1%, forg= -0.9%| TAg acc= 55.2%, forg= -5.2% <<<
>>> Test on task  4 : loss=2.763 | TAw acc= 88.5%, forg= -1.0%| TAg acc= 41.3%, forg=-10.6% <<<
>>> Test on task  5 : loss=2.677 | TAw acc= 87.6%, forg= -5.7%| TAg acc= 43.8%, forg= -5.7% <<<
>>> Test on task  6 : loss=2.765 | TAw acc= 88.6%, forg=-22.0%| TAg acc= 33.3%, forg= 12.2% <<<
>>> Test on task  7 : loss=3.431 | TAw acc= 50.0%, forg=  0.0%| TAg acc= 25.9%, forg=  0.0% <<<
Save at k=10/eeil_wisdm_2/wisdm_flex_eeil
======
LLL_Net(
  (model): SimpleMLP(
    (fc1): Linear(in_features=91, out_features=1000, bias=True)
    (fc2): Sequential()
  )
  (heads): ModuleList(
    (0): Linear(in_features=1000, out_features=34, bias=True)
    (1): Linear(in_features=1000, out_features=20, bias=True)
    (2): Linear(in_features=1000, out_features=20, bias=True)
    (3): Linear(in_features=1000, out_features=20, bias=True)
    (4): Linear(in_features=1000, out_features=20, bias=True)
    (5): Linear(in_features=1000, out_features=20, bias=True)
    (6): Linear(in_features=1000, out_features=20, bias=True)
    (7): Linear(in_features=1000, out_features=20, bias=True)
  )
)
======

************************************************************************************************************
Task  8
************************************************************************************************************
| Epoch   1, time=  0.7s | Train: skip eval | Valid: time=  0.3s loss=5.947, TAw acc=  0.0% | *
| Epoch   2, time=  0.7s | Train: skip eval | Valid: time=  0.3s loss=5.936, TAw acc=  1.5% | *
…
>>> Test on task  3 : loss=2.390 | TAw acc= 93.1%, forg=  0.0%| TAg acc= 59.5%, forg= -4.3% <<<
>>> Test on task  4 : loss=2.577 | TAw acc= 91.3%, forg= -2.9%| TAg acc= 46.2%, forg= -4.8% <<<
>>> Test on task  5 : loss=2.493 | TAw acc= 93.3%, forg= -5.7%| TAg acc= 49.5%, forg= -5.7% <<<
>>> Test on task  6 : loss=2.553 | TAw acc= 95.9%, forg= -7.3%| TAg acc= 42.3%, forg=  3.3% <<<
>>> Test on task  7 : loss=3.264 | TAw acc= 78.7%, forg=-28.7%| TAg acc= 38.0%, forg=-12.0% <<<
>>> Test on task  8 : loss=3.911 | TAw acc= 67.0%, forg=  0.0%| TAg acc=  0.0%, forg=  0.0% <<<
Save at k=10/eeil_wisdm_2/wisdm_flex_eeil
======
LLL_Net(
  (model): SimpleMLP(
    (fc1): Linear(in_features=91, out_features=1000, bias=True)
    (fc2): Sequential()
  )
  (heads): ModuleList(
    (0): Linear(in_features=1000, out_features=34, bias=True)
    (1): Linear(in_features=1000, out_features=20, bias=True)
    (2): Linear(in_features=1000, out_features=20, bias=True)
    (3): Linear(in_features=1000, out_features=20, bias=True)
    (4): Linear(in_features=1000, out_features=20, bias=True)
    (5): Linear(in_features=1000, out_features=20, bias=True)
    (6): Linear(in_features=1000, out_features=20, bias=True)
    (7): Linear(in_features=1000, out_features=20, bias=True)
    (8): Linear(in_features=1000, out_features=20, bias=True)
  )
)
======

************************************************************************************************************
Task  9
************************************************************************************************************
| Epoch   1, time=  0.8s | Train: skip eval | Valid: time=  0.3s loss=6.302, TAw acc=  2.2% | *
| Epoch   2, time=  0.8s | Train: skip eval | Valid: time=  0.2s loss=6.277, TAw acc=  3.4% | *
…
>>> Test on task  4 : loss=2.561 | TAw acc= 94.2%, forg= -2.9%| TAg acc= 41.3%, forg=  4.8% <<<
>>> Test on task  5 : loss=2.429 | TAw acc= 96.2%, forg= -2.9%| TAg acc= 58.1%, forg= -8.6% <<<
>>> Test on task  6 : loss=2.439 | TAw acc= 95.9%, forg=  0.0%| TAg acc= 47.2%, forg= -1.6% <<<
>>> Test on task  7 : loss=3.069 | TAw acc= 89.8%, forg=-11.1%| TAg acc= 45.4%, forg= -7.4% <<<
>>> Test on task  8 : loss=3.628 | TAw acc= 74.5%, forg= -7.4%| TAg acc=  1.1%, forg= -1.1% <<<
>>> Test on task  9 : loss=2.802 | TAw acc= 60.5%, forg=  0.0%| TAg acc= 42.9%, forg=  0.0% <<<
Save at k=10/eeil_wisdm_2/wisdm_flex_eeil
======
LLL_Net(
  (model): SimpleMLP(
    (fc1): Linear(in_features=91, out_features=1000, bias=True)
    (fc2): Sequential()
  )
  (heads): ModuleList(
    (0): Linear(in_features=1000, out_features=34, bias=True)
    (1): Linear(in_features=1000, out_features=20, bias=True)
    (2): Linear(in_features=1000, out_features=20, bias=True)
    (3): Linear(in_features=1000, out_features=20, bias=True)
    (4): Linear(in_features=1000, out_features=20, bias=True)
    (5): Linear(in_features=1000, out_features=20, bias=True)
    (6): Linear(in_features=1000, out_features=20, bias=True)
    (7): Linear(in_features=1000, out_features=20, bias=True)
    (8): Linear(in_features=1000, out_features=20, bias=True)
    (9): Linear(in_features=1000, out_features=20, bias=True)
  )
)
======

************************************************************************************************************
Task 10
************************************************************************************************************
| Epoch   1, time=  0.8s | Train: skip eval | Valid: time=  0.3s loss=6.514, TAw acc= 10.0% | *
| Epoch   2, time=  0.8s | Train: skip eval | Valid: time=  0.2s loss=6.486, TAw acc= 11.2% | *
…
>>> Test on task  5 : loss=2.308 | TAw acc= 96.2%, forg=  0.0%| TAg acc= 61.0%, forg= -2.9% <<<
>>> Test on task  6 : loss=2.255 | TAw acc= 96.7%, forg= -0.8%| TAg acc= 47.2%, forg=  0.0% <<<
>>> Test on task  7 : loss=2.803 | TAw acc= 94.4%, forg= -4.6%| TAg acc= 50.0%, forg= -4.6% <<<
>>> Test on task  8 : loss=3.325 | TAw acc= 85.1%, forg=-10.6%| TAg acc= 10.6%, forg= -9.6% <<<
>>> Test on task  9 : loss=2.912 | TAw acc= 84.0%, forg=-23.5%| TAg acc= 24.4%, forg= 18.5% <<<
>>> Test on task 10 : loss=2.966 | TAw acc= 62.4%, forg=  0.0%| TAg acc= 28.4%, forg=  0.0% <<<
Save at k=10/eeil_wisdm_2/wisdm_flex_eeil
======
LLL_Net(
  (model): SimpleMLP(
    (fc1): Linear(in_features=91, out_features=1000, bias=True)
    (fc2): Sequential()
  )
  (heads): ModuleList(
    (0): Linear(in_features=1000, out_features=34, bias=True)
    (1): Linear(in_features=1000, out_features=20, bias=True)
    (2): Linear(in_features=1000, out_features=20, bias=True)
    (3): Linear(in_features=1000, out_features=20, bias=True)
    (4): Linear(in_features=1000, out_features=20, bias=True)
    (5): Linear(in_features=1000, out_features=20, bias=True)
    (6): Linear(in_features=1000, out_features=20, bias=True)
    (7): Linear(in_features=1000, out_features=20, bias=True)
    (8): Linear(in_features=1000, out_features=20, bias=True)
    (9): Linear(in_features=1000, out_features=20, bias=True)
    (10): Linear(in_features=1000, out_features=20, bias=True)
  )
)
======

************************************************************************************************************
Task 11
************************************************************************************************************
| Epoch   1, time=  0.9s | Train: skip eval | Valid: time=  0.3s loss=6.458, TAw acc= 13.0% | *
| Epoch   2, time=  0.9s | Train: skip eval | Valid: time=  0.2s loss=6.441, TAw acc= 13.0% | *
…
>>> Test on task  6 : loss=2.068 | TAw acc= 96.7%, forg=  0.0%| TAg acc= 54.5%, forg= -7.3% <<<
>>> Test on task  7 : loss=2.549 | TAw acc= 94.4%, forg=  0.0%| TAg acc= 51.9%, forg= -1.9% <<<
>>> Test on task  8 : loss=3.033 | TAw acc= 88.3%, forg= -3.2%| TAg acc= 16.0%, forg= -5.3% <<<
>>> Test on task  9 : loss=2.688 | TAw acc= 87.4%, forg= -3.4%| TAg acc= 26.9%, forg= 16.0% <<<
>>> Test on task 10 : loss=2.951 | TAw acc= 88.1%, forg=-25.7%| TAg acc= 18.3%, forg= 10.1% <<<
>>> Test on task 11 : loss=3.693 | TAw acc= 74.3%, forg=  0.0%| TAg acc= 20.0%, forg=  0.0% <<<
Save at k=10/eeil_wisdm_2/wisdm_flex_eeil
======
LLL_Net(
  (model): SimpleMLP(
    (fc1): Linear(in_features=91, out_features=1000, bias=True)
    (fc2): Sequential()
  )
  (heads): ModuleList(
    (0): Linear(in_features=1000, out_features=34, bias=True)
    (1): Linear(in_features=1000, out_features=20, bias=True)
    (2): Linear(in_features=1000, out_features=20, bias=True)
    (3): Linear(in_features=1000, out_features=20, bias=True)
    (4): Linear(in_features=1000, out_features=20, bias=True)
    (5): Linear(in_features=1000, out_features=20, bias=True)
    (6): Linear(in_features=1000, out_features=20, bias=True)
    (7): Linear(in_features=1000, out_features=20, bias=True)
    (8): Linear(in_features=1000, out_features=20, bias=True)
    (9): Linear(in_features=1000, out_features=20, bias=True)
    (10): Linear(in_features=1000, out_features=20, bias=True)
    (11): Linear(in_features=1000, out_features=20, bias=True)
  )
)
======

************************************************************************************************************
Task 12
************************************************************************************************************
| Epoch   1, time=  1.0s | Train: skip eval | Valid: time=  0.3s loss=7.459, TAw acc=  0.0% | *
| Epoch   2, time=  1.0s | Train: skip eval | Valid: time=  0.2s loss=7.405, TAw acc=  0.0% | *
…
>>> Test on task  7 : loss=2.368 | TAw acc= 94.4%, forg=  0.0%| TAg acc= 55.6%, forg= -3.7% <<<
>>> Test on task  8 : loss=2.847 | TAw acc= 90.4%, forg= -2.1%| TAg acc= 18.1%, forg= -2.1% <<<
>>> Test on task  9 : loss=2.547 | TAw acc= 89.9%, forg= -2.5%| TAg acc= 34.5%, forg=  8.4% <<<
>>> Test on task 10 : loss=2.762 | TAw acc= 93.6%, forg= -5.5%| TAg acc= 19.3%, forg=  9.2% <<<
>>> Test on task 11 : loss=3.448 | TAw acc= 90.5%, forg=-16.2%| TAg acc= 15.2%, forg=  4.8% <<<
>>> Test on task 12 : loss=2.933 | TAw acc= 52.8%, forg=  0.0%| TAg acc= 30.6%, forg=  0.0% <<<
Save at k=10/eeil_wisdm_2/wisdm_flex_eeil
======
LLL_Net(
  (model): SimpleMLP(
    (fc1): Linear(in_features=91, out_features=1000, bias=True)
    (fc2): Sequential()
  )
  (heads): ModuleList(
    (0): Linear(in_features=1000, out_features=34, bias=True)
    (1): Linear(in_features=1000, out_features=20, bias=True)
    (2): Linear(in_features=1000, out_features=20, bias=True)
    (3): Linear(in_features=1000, out_features=20, bias=True)
    (4): Linear(in_features=1000, out_features=20, bias=True)
    (5): Linear(in_features=1000, out_features=20, bias=True)
    (6): Linear(in_features=1000, out_features=20, bias=True)
    (7): Linear(in_features=1000, out_features=20, bias=True)
    (8): Linear(in_features=1000, out_features=20, bias=True)
    (9): Linear(in_features=1000, out_features=20, bias=True)
    (10): Linear(in_features=1000, out_features=20, bias=True)
    (11): Linear(in_features=1000, out_features=20, bias=True)
    (12): Linear(in_features=1000, out_features=20, bias=True)
  )
)
======

************************************************************************************************************
Task 13
************************************************************************************************************
| Epoch   1, time=  1.1s | Train: skip eval | Valid: time=  0.3s loss=6.907, TAw acc= 15.5% | *
| Epoch   2, time=  1.1s | Train: skip eval | Valid: time=  0.2s loss=6.873, TAw acc= 16.7% | *
…
>>> Test on task  8 : loss=2.702 | TAw acc= 90.4%, forg=  0.0%| TAg acc= 28.7%, forg=-10.6% <<<
>>> Test on task  9 : loss=2.408 | TAw acc= 90.8%, forg= -0.8%| TAg acc= 33.6%, forg=  9.2% <<<
>>> Test on task 10 : loss=2.572 | TAw acc= 94.5%, forg= -0.9%| TAg acc= 29.4%, forg= -0.9% <<<
>>> Test on task 11 : loss=3.152 | TAw acc= 93.3%, forg= -2.9%| TAg acc= 21.0%, forg= -1.0% <<<
>>> Test on task 12 : loss=2.933 | TAw acc= 93.5%, forg=-40.7%| TAg acc=  9.3%, forg= 21.3% <<<
>>> Test on task 13 : loss=2.819 | TAw acc= 64.6%, forg=  0.0%| TAg acc= 50.4%, forg=  0.0% <<<
Save at k=10/eeil_wisdm_2/wisdm_flex_eeil
======
LLL_Net(
  (model): SimpleMLP(
    (fc1): Linear(in_features=91, out_features=1000, bias=True)
    (fc2): Sequential()
  )
  (heads): ModuleList(
    (0): Linear(in_features=1000, out_features=34, bias=True)
    (1): Linear(in_features=1000, out_features=20, bias=True)
    (2): Linear(in_features=1000, out_features=20, bias=True)
    (3): Linear(in_features=1000, out_features=20, bias=True)
    (4): Linear(in_features=1000, out_features=20, bias=True)
    (5): Linear(in_features=1000, out_features=20, bias=True)
    (6): Linear(in_features=1000, out_features=20, bias=True)
    (7): Linear(in_features=1000, out_features=20, bias=True)
    (8): Linear(in_features=1000, out_features=20, bias=True)
    (9): Linear(in_features=1000, out_features=20, bias=True)
    (10): Linear(in_features=1000, out_features=20, bias=True)
    (11): Linear(in_features=1000, out_features=20, bias=True)
    (12): Linear(in_features=1000, out_features=20, bias=True)
    (13): Linear(in_features=1000, out_features=20, bias=True)
  )
)
======

************************************************************************************************************
Task 14
************************************************************************************************************
| Epoch   1, time=  1.3s | Train: skip eval | Valid: time=  0.3s loss=7.402, TAw acc=  8.7% | *
| Epoch   2, time=  1.2s | Train: skip eval | Valid: time=  0.2s loss=7.355, TAw acc=  8.7% | *
…
>>> Test on task  9 : loss=2.284 | TAw acc= 93.3%, forg= -2.5%| TAg acc= 31.9%, forg= 10.9% <<<
>>> Test on task 10 : loss=2.418 | TAw acc= 96.3%, forg= -1.8%| TAg acc= 32.1%, forg= -2.8% <<<
>>> Test on task 11 : loss=2.902 | TAw acc= 94.3%, forg= -1.0%| TAg acc= 35.2%, forg=-14.3% <<<
>>> Test on task 12 : loss=2.678 | TAw acc= 95.4%, forg= -1.9%| TAg acc= 14.8%, forg= 15.7% <<<
>>> Test on task 13 : loss=2.977 | TAw acc= 93.8%, forg=-29.2%| TAg acc= 24.8%, forg= 25.7% <<<
>>> Test on task 14 : loss=2.704 | TAw acc= 68.9%, forg=  0.0%| TAg acc= 51.9%, forg=  0.0% <<<
Save at k=10/eeil_wisdm_2/wisdm_flex_eeil
======
LLL_Net(
  (model): SimpleMLP(
    (fc1): Linear(in_features=91, out_features=1000, bias=True)
    (fc2): Sequential()
  )
  (heads): ModuleList(
    (0): Linear(in_features=1000, out_features=34, bias=True)
    (1): Linear(in_features=1000, out_features=20, bias=True)
    (2): Linear(in_features=1000, out_features=20, bias=True)
    (3): Linear(in_features=1000, out_features=20, bias=True)
    (4): Linear(in_features=1000, out_features=20, bias=True)
    (5): Linear(in_features=1000, out_features=20, bias=True)
    (6): Linear(in_features=1000, out_features=20, bias=True)
    (7): Linear(in_features=1000, out_features=20, bias=True)
    (8): Linear(in_features=1000, out_features=20, bias=True)
    (9): Linear(in_features=1000, out_features=20, bias=True)
    (10): Linear(in_features=1000, out_features=20, bias=True)
    (11): Linear(in_features=1000, out_features=20, bias=True)
    (12): Linear(in_features=1000, out_features=20, bias=True)
    (13): Linear(in_features=1000, out_features=20, bias=True)
    (14): Linear(in_features=1000, out_features=20, bias=True)
  )
)
======

************************************************************************************************************
Task 15
************************************************************************************************************
| Epoch   1, time=  1.3s | Train: skip eval | Valid: time=  0.3s loss=7.103, TAw acc=  5.6% | *
| Epoch   2, time=  1.3s | Train: skip eval | Valid: time=  0.2s loss=7.078, TAw acc=  5.6% | *
…
>>> Test on task 10 : loss=2.222 | TAw acc= 96.3%, forg=  0.0%| TAg acc= 45.0%, forg=-12.8% <<<
>>> Test on task 11 : loss=2.615 | TAw acc= 95.2%, forg= -1.0%| TAg acc= 44.8%, forg= -9.5% <<<
>>> Test on task 12 : loss=2.376 | TAw acc= 95.4%, forg=  0.0%| TAg acc= 25.9%, forg=  4.6% <<<
>>> Test on task 13 : loss=2.607 | TAw acc= 93.8%, forg=  0.0%| TAg acc= 45.1%, forg=  5.3% <<<
>>> Test on task 14 : loss=2.923 | TAw acc= 84.4%, forg=-15.6%| TAg acc= 23.7%, forg= 28.1% <<<
>>> Test on task 15 : loss=3.620 | TAw acc= 76.8%, forg=  0.0%| TAg acc= 24.2%, forg=  0.0% <<<
Save at k=10/eeil_wisdm_2/wisdm_flex_eeil
======
LLL_Net(
  (model): SimpleMLP(
    (fc1): Linear(in_features=91, out_features=1000, bias=True)
    (fc2): Sequential()
  )
  (heads): ModuleList(
    (0): Linear(in_features=1000, out_features=34, bias=True)
    (1): Linear(in_features=1000, out_features=20, bias=True)
    (2): Linear(in_features=1000, out_features=20, bias=True)
    (3): Linear(in_features=1000, out_features=20, bias=True)
    (4): Linear(in_features=1000, out_features=20, bias=True)
    (5): Linear(in_features=1000, out_features=20, bias=True)
    (6): Linear(in_features=1000, out_features=20, bias=True)
    (7): Linear(in_features=1000, out_features=20, bias=True)
    (8): Linear(in_features=1000, out_features=20, bias=True)
    (9): Linear(in_features=1000, out_features=20, bias=True)
    (10): Linear(in_features=1000, out_features=20, bias=True)
    (11): Linear(in_features=1000, out_features=20, bias=True)
    (12): Linear(in_features=1000, out_features=20, bias=True)
    (13): Linear(in_features=1000, out_features=20, bias=True)
    (14): Linear(in_features=1000, out_features=20, bias=True)
    (15): Linear(in_features=1000, out_features=20, bias=True)
  )
)
======

************************************************************************************************************
Task 16
************************************************************************************************************
| Epoch   1, time=  1.4s | Train: skip eval | Valid: time=  0.3s loss=7.568, TAw acc=  1.2% | *
| Epoch   2, time=  1.4s | Train: skip eval | Valid: time=  0.2s loss=7.531, TAw acc=  3.5% | *
…
>>> Test on task 11 : loss=2.432 | TAw acc= 96.2%, forg= -1.0%| TAg acc= 50.5%, forg= -5.7% <<<
>>> Test on task 12 : loss=2.295 | TAw acc= 95.4%, forg=  0.0%| TAg acc= 24.1%, forg=  6.5% <<<
>>> Test on task 13 : loss=2.411 | TAw acc= 93.8%, forg=  0.0%| TAg acc= 45.1%, forg=  5.3% <<<
>>> Test on task 14 : loss=2.774 | TAw acc= 90.4%, forg= -5.9%| TAg acc= 28.1%, forg= 23.7% <<<
>>> Test on task 15 : loss=3.306 | TAw acc= 91.9%, forg=-15.2%| TAg acc= 13.1%, forg= 11.1% <<<
>>> Test on task 16 : loss=2.933 | TAw acc= 64.3%, forg=  0.0%| TAg acc= 34.8%, forg=  0.0% <<<
Save at k=10/eeil_wisdm_2/wisdm_flex_eeil
======
LLL_Net(
  (model): SimpleMLP(
    (fc1): Linear(in_features=91, out_features=1000, bias=True)
    (fc2): Sequential()
  )
  (heads): ModuleList(
    (0): Linear(in_features=1000, out_features=34, bias=True)
    (1): Linear(in_features=1000, out_features=20, bias=True)
    (2): Linear(in_features=1000, out_features=20, bias=True)
    (3): Linear(in_features=1000, out_features=20, bias=True)
    (4): Linear(in_features=1000, out_features=20, bias=True)
    (5): Linear(in_features=1000, out_features=20, bias=True)
    (6): Linear(in_features=1000, out_features=20, bias=True)
    (7): Linear(in_features=1000, out_features=20, bias=True)
    (8): Linear(in_features=1000, out_features=20, bias=True)
    (9): Linear(in_features=1000, out_features=20, bias=True)
    (10): Linear(in_features=1000, out_features=20, bias=True)
    (11): Linear(in_features=1000, out_features=20, bias=True)
    (12): Linear(in_features=1000, out_features=20, bias=True)
    (13): Linear(in_features=1000, out_features=20, bias=True)
    (14): Linear(in_features=1000, out_features=20, bias=True)
    (15): Linear(in_features=1000, out_features=20, bias=True)
    (16): Linear(in_features=1000, out_features=20, bias=True)
  )
)
======

************************************************************************************************************
Task 17
************************************************************************************************************
| Epoch   1, time=  1.4s | Train: skip eval | Valid: time=  0.2s loss=8.221, TAw acc=  4.7% | *
| Epoch   2, time=  1.4s | Train: skip eval | Valid: time=  0.2s loss=8.155, TAw acc=  7.1% | *
…
>>> Test on task 12 : loss=2.135 | TAw acc= 95.4%, forg=  0.0%| TAg acc= 38.9%, forg= -8.3% <<<
>>> Test on task 13 : loss=2.243 | TAw acc= 93.8%, forg=  0.0%| TAg acc= 55.8%, forg= -5.3% <<<
>>> Test on task 14 : loss=2.630 | TAw acc= 90.4%, forg=  0.0%| TAg acc= 28.1%, forg= 23.7% <<<
>>> Test on task 15 : loss=2.933 | TAw acc= 94.9%, forg= -3.0%| TAg acc= 17.2%, forg=  7.1% <<<
>>> Test on task 16 : loss=2.853 | TAw acc= 96.5%, forg=-32.2%| TAg acc= 16.5%, forg= 18.3% <<<
>>> Test on task 17 : loss=2.926 | TAw acc= 66.4%, forg=  0.0%| TAg acc= 33.6%, forg=  0.0% <<<
Save at k=10/eeil_wisdm_2/wisdm_flex_eeil
======
LLL_Net(
  (model): SimpleMLP(
    (fc1): Linear(in_features=91, out_features=1000, bias=True)
    (fc2): Sequential()
  )
  (heads): ModuleList(
    (0): Linear(in_features=1000, out_features=34, bias=True)
    (1): Linear(in_features=1000, out_features=20, bias=True)
    (2): Linear(in_features=1000, out_features=20, bias=True)
    (3): Linear(in_features=1000, out_features=20, bias=True)
    (4): Linear(in_features=1000, out_features=20, bias=True)
    (5): Linear(in_features=1000, out_features=20, bias=True)
    (6): Linear(in_features=1000, out_features=20, bias=True)
    (7): Linear(in_features=1000, out_features=20, bias=True)
    (8): Linear(in_features=1000, out_features=20, bias=True)
    (9): Linear(in_features=1000, out_features=20, bias=True)
    (10): Linear(in_features=1000, out_features=20, bias=True)
    (11): Linear(in_features=1000, out_features=20, bias=True)
    (12): Linear(in_features=1000, out_features=20, bias=True)
    (13): Linear(in_features=1000, out_features=20, bias=True)
    (14): Linear(in_features=1000, out_features=20, bias=True)
    (15): Linear(in_features=1000, out_features=20, bias=True)
    (16): Linear(in_features=1000, out_features=20, bias=True)
    (17): Linear(in_features=1000, out_features=20, bias=True)
  )
)
======

************************************************************************************************************
Task 18
************************************************************************************************************
| Epoch   1, time=  1.6s | Train: skip eval | Valid: time=  0.2s loss=7.686, TAw acc=  5.7% | *
| Epoch   2, time=  1.8s | Train: skip eval | Valid: time=  0.3s loss=7.648, TAw acc=  5.7% | *
…
>>> Test on task 13 : loss=2.031 | TAw acc= 93.8%, forg=  0.0%| TAg acc= 66.4%, forg=-10.6% <<<
>>> Test on task 14 : loss=2.501 | TAw acc= 88.9%, forg=  1.5%| TAg acc= 32.6%, forg= 19.3% <<<
>>> Test on task 15 : loss=2.662 | TAw acc= 94.9%, forg=  0.0%| TAg acc= 25.3%, forg= -1.0% <<<
>>> Test on task 16 : loss=2.609 | TAw acc= 98.3%, forg= -1.7%| TAg acc= 21.7%, forg= 13.0% <<<
>>> Test on task 17 : loss=2.830 | TAw acc= 87.6%, forg=-21.2%| TAg acc= 24.8%, forg=  8.8% <<<
>>> Test on task 18 : loss=3.199 | TAw acc= 59.3%, forg=  0.0%| TAg acc= 41.5%, forg=  0.0% <<<
Save at k=10/eeil_wisdm_2/wisdm_flex_eeil
======
LLL_Net(
  (model): SimpleMLP(
    (fc1): Linear(in_features=91, out_features=1000, bias=True)
    (fc2): Sequential()
  )
  (heads): ModuleList(
    (0): Linear(in_features=1000, out_features=34, bias=True)
    (1): Linear(in_features=1000, out_features=20, bias=True)
    (2): Linear(in_features=1000, out_features=20, bias=True)
    (3): Linear(in_features=1000, out_features=20, bias=True)
    (4): Linear(in_features=1000, out_features=20, bias=True)
    (5): Linear(in_features=1000, out_features=20, bias=True)
    (6): Linear(in_features=1000, out_features=20, bias=True)
    (7): Linear(in_features=1000, out_features=20, bias=True)
    (8): Linear(in_features=1000, out_features=20, bias=True)
    (9): Linear(in_features=1000, out_features=20, bias=True)
    (10): Linear(in_features=1000, out_features=20, bias=True)
    (11): Linear(in_features=1000, out_features=20, bias=True)
    (12): Linear(in_features=1000, out_features=20, bias=True)
    (13): Linear(in_features=1000, out_features=20, bias=True)
    (14): Linear(in_features=1000, out_features=20, bias=True)
    (15): Linear(in_features=1000, out_features=20, bias=True)
    (16): Linear(in_features=1000, out_features=20, bias=True)
    (17): Linear(in_features=1000, out_features=20, bias=True)
    (18): Linear(in_features=1000, out_features=20, bias=True)
  )
)
======

************************************************************************************************************
Task 19
************************************************************************************************************
| Epoch   1, time=  1.8s | Train: skip eval | Valid: time=  0.3s loss=8.614, TAw acc=  2.7% | *
| Epoch   2, time=  1.8s | Train: skip eval | Valid: time=  0.3s loss=8.574, TAw acc=  2.7% | *
…
>>> Test on task 14 : loss=2.349 | TAw acc= 89.6%, forg=  0.7%| TAg acc= 43.0%, forg=  8.9% <<<
>>> Test on task 15 : loss=2.454 | TAw acc= 94.9%, forg=  0.0%| TAg acc= 30.3%, forg= -5.1% <<<
>>> Test on task 16 : loss=2.348 | TAw acc= 99.1%, forg= -0.9%| TAg acc= 38.3%, forg= -3.5% <<<
>>> Test on task 17 : loss=2.545 | TAw acc= 94.7%, forg= -7.1%| TAg acc= 27.4%, forg=  6.2% <<<
>>> Test on task 18 : loss=3.181 | TAw acc= 89.8%, forg=-30.5%| TAg acc= 15.3%, forg= 26.3% <<<
>>> Test on task 19 : loss=3.419 | TAw acc= 62.7%, forg=  0.0%| TAg acc= 25.5%, forg=  0.0% <<<
Save at k=10/eeil_wisdm_2/wisdm_flex_eeil
======
LLL_Net(
  (model): SimpleMLP(
    (fc1): Linear(in_features=91, out_features=1000, bias=True)
    (fc2): Sequential()
  )
  (heads): ModuleList(
    (0): Linear(in_features=1000, out_features=34, bias=True)
    (1): Linear(in_features=1000, out_features=20, bias=True)
    (2): Linear(in_features=1000, out_features=20, bias=True)
    (3): Linear(in_features=1000, out_features=20, bias=True)
    (4): Linear(in_features=1000, out_features=20, bias=True)
    (5): Linear(in_features=1000, out_features=20, bias=True)
    (6): Linear(in_features=1000, out_features=20, bias=True)
    (7): Linear(in_features=1000, out_features=20, bias=True)
    (8): Linear(in_features=1000, out_features=20, bias=True)
    (9): Linear(in_features=1000, out_features=20, bias=True)
    (10): Linear(in_features=1000, out_features=20, bias=True)
    (11): Linear(in_features=1000, out_features=20, bias=True)
    (12): Linear(in_features=1000, out_features=20, bias=True)
    (13): Linear(in_features=1000, out_features=20, bias=True)
    (14): Linear(in_features=1000, out_features=20, bias=True)
    (15): Linear(in_features=1000, out_features=20, bias=True)
    (16): Linear(in_features=1000, out_features=20, bias=True)
    (17): Linear(in_features=1000, out_features=20, bias=True)
    (18): Linear(in_features=1000, out_features=20, bias=True)
    (19): Linear(in_features=1000, out_features=20, bias=True)
  )
)
======

************************************************************************************************************
Task 20
************************************************************************************************************
| Epoch   1, time=  1.9s | Train: skip eval | Valid: time=  0.2s loss=8.896, TAw acc=  1.5% | *
| Epoch   2, time=  1.8s | Train: skip eval | Valid: time=  0.2s loss=8.838, TAw acc=  2.9% | *
…
>>> Test on task 15 : loss=2.322 | TAw acc= 93.9%, forg=  1.0%| TAg acc= 35.4%, forg= -5.1% <<<
>>> Test on task 16 : loss=2.186 | TAw acc= 99.1%, forg=  0.0%| TAg acc= 50.4%, forg=-12.2% <<<
>>> Test on task 17 : loss=2.383 | TAw acc= 94.7%, forg=  0.0%| TAg acc= 35.4%, forg= -1.8% <<<
>>> Test on task 18 : loss=2.820 | TAw acc= 94.9%, forg= -5.1%| TAg acc= 22.9%, forg= 18.6% <<<
>>> Test on task 19 : loss=3.102 | TAw acc= 87.3%, forg=-24.5%| TAg acc= 10.8%, forg= 14.7% <<<
>>> Test on task 20 : loss=3.173 | TAw acc= 83.2%, forg=  0.0%| TAg acc= 25.3%, forg=  0.0% <<<
Save at k=10/eeil_wisdm_2/wisdm_flex_eeil
======
LLL_Net(
  (model): SimpleMLP(
    (fc1): Linear(in_features=91, out_features=1000, bias=True)
    (fc2): Sequential()
  )
  (heads): ModuleList(
    (0): Linear(in_features=1000, out_features=34, bias=True)
    (1): Linear(in_features=1000, out_features=20, bias=True)
    (2): Linear(in_features=1000, out_features=20, bias=True)
    (3): Linear(in_features=1000, out_features=20, bias=True)
    (4): Linear(in_features=1000, out_features=20, bias=True)
    (5): Linear(in_features=1000, out_features=20, bias=True)
    (6): Linear(in_features=1000, out_features=20, bias=True)
    (7): Linear(in_features=1000, out_features=20, bias=True)
    (8): Linear(in_features=1000, out_features=20, bias=True)
    (9): Linear(in_features=1000, out_features=20, bias=True)
    (10): Linear(in_features=1000, out_features=20, bias=True)
    (11): Linear(in_features=1000, out_features=20, bias=True)
    (12): Linear(in_features=1000, out_features=20, bias=True)
    (13): Linear(in_features=1000, out_features=20, bias=True)
    (14): Linear(in_features=1000, out_features=20, bias=True)
    (15): Linear(in_features=1000, out_features=20, bias=True)
    (16): Linear(in_features=1000, out_features=20, bias=True)
    (17): Linear(in_features=1000, out_features=20, bias=True)
    (18): Linear(in_features=1000, out_features=20, bias=True)
    (19): Linear(in_features=1000, out_features=20, bias=True)
    (20): Linear(in_features=1000, out_features=20, bias=True)
  )
)
======

************************************************************************************************************
Task 21
************************************************************************************************************
| Epoch   1, time=  2.0s | Train: skip eval | Valid: time=  0.3s loss=8.060, TAw acc=  5.6% | *
| Epoch   2, time=  2.0s | Train: skip eval | Valid: time=  0.3s loss=8.031, TAw acc=  7.0% | *
…
>>> Test on task 16 : loss=2.045 | TAw acc= 99.1%, forg=  0.0%| TAg acc= 56.5%, forg= -6.1% <<<
>>> Test on task 17 : loss=2.211 | TAw acc= 95.6%, forg= -0.9%| TAg acc= 43.4%, forg= -8.0% <<<
>>> Test on task 18 : loss=2.593 | TAw acc= 95.8%, forg= -0.8%| TAg acc= 30.5%, forg= 11.0% <<<
>>> Test on task 19 : loss=2.739 | TAw acc= 95.1%, forg= -7.8%| TAg acc= 25.5%, forg=  0.0% <<<
>>> Test on task 20 : loss=2.755 | TAw acc= 88.4%, forg= -5.3%| TAg acc= 16.8%, forg=  8.4% <<<
>>> Test on task 21 : loss=3.575 | TAw acc= 67.3%, forg=  0.0%| TAg acc= 33.7%, forg=  0.0% <<<
Save at k=10/eeil_wisdm_2/wisdm_flex_eeil
======
LLL_Net(
  (model): SimpleMLP(
    (fc1): Linear(in_features=91, out_features=1000, bias=True)
    (fc2): Sequential()
  )
  (heads): ModuleList(
    (0): Linear(in_features=1000, out_features=34, bias=True)
    (1): Linear(in_features=1000, out_features=20, bias=True)
    (2): Linear(in_features=1000, out_features=20, bias=True)
    (3): Linear(in_features=1000, out_features=20, bias=True)
    (4): Linear(in_features=1000, out_features=20, bias=True)
    (5): Linear(in_features=1000, out_features=20, bias=True)
    (6): Linear(in_features=1000, out_features=20, bias=True)
    (7): Linear(in_features=1000, out_features=20, bias=True)
    (8): Linear(in_features=1000, out_features=20, bias=True)
    (9): Linear(in_features=1000, out_features=20, bias=True)
    (10): Linear(in_features=1000, out_features=20, bias=True)
    (11): Linear(in_features=1000, out_features=20, bias=True)
    (12): Linear(in_features=1000, out_features=20, bias=True)
    (13): Linear(in_features=1000, out_features=20, bias=True)
    (14): Linear(in_features=1000, out_features=20, bias=True)
    (15): Linear(in_features=1000, out_features=20, bias=True)
    (16): Linear(in_features=1000, out_features=20, bias=True)
    (17): Linear(in_features=1000, out_features=20, bias=True)
    (18): Linear(in_features=1000, out_features=20, bias=True)
    (19): Linear(in_features=1000, out_features=20, bias=True)
    (20): Linear(in_features=1000, out_features=20, bias=True)
    (21): Linear(in_features=1000, out_features=20, bias=True)
  )
)
======

************************************************************************************************************
Task 22
************************************************************************************************************
| Epoch   1, time=  2.2s | Train: skip eval | Valid: time=  0.2s loss=8.587, TAw acc=  9.4% | *
| Epoch   2, time=  2.2s | Train: skip eval | Valid: time=  0.2s loss=8.541, TAw acc=  9.4% | *
…
>>> Test on task 17 : loss=2.105 | TAw acc= 94.7%, forg=  0.9%| TAg acc= 50.4%, forg= -7.1% <<<
>>> Test on task 18 : loss=2.466 | TAw acc= 96.6%, forg= -0.8%| TAg acc= 33.1%, forg=  8.5% <<<
>>> Test on task 19 : loss=2.526 | TAw acc= 96.1%, forg= -1.0%| TAg acc= 29.4%, forg= -3.9% <<<
>>> Test on task 20 : loss=2.399 | TAw acc= 89.5%, forg= -1.1%| TAg acc= 26.3%, forg= -1.1% <<<
>>> Test on task 21 : loss=3.341 | TAw acc= 84.7%, forg=-17.3%| TAg acc= 16.3%, forg= 17.3% <<<
>>> Test on task 22 : loss=2.781 | TAw acc= 73.2%, forg=  0.0%| TAg acc= 48.8%, forg=  0.0% <<<
Save at k=10/eeil_wisdm_2/wisdm_flex_eeil
======
LLL_Net(
  (model): SimpleMLP(
    (fc1): Linear(in_features=91, out_features=1000, bias=True)
    (fc2): Sequential()
  )
  (heads): ModuleList(
    (0): Linear(in_features=1000, out_features=34, bias=True)
    (1): Linear(in_features=1000, out_features=20, bias=True)
    (2): Linear(in_features=1000, out_features=20, bias=True)
    (3): Linear(in_features=1000, out_features=20, bias=True)
    (4): Linear(in_features=1000, out_features=20, bias=True)
    (5): Linear(in_features=1000, out_features=20, bias=True)
    (6): Linear(in_features=1000, out_features=20, bias=True)
    (7): Linear(in_features=1000, out_features=20, bias=True)
    (8): Linear(in_features=1000, out_features=20, bias=True)
    (9): Linear(in_features=1000, out_features=20, bias=True)
    (10): Linear(in_features=1000, out_features=20, bias=True)
    (11): Linear(in_features=1000, out_features=20, bias=True)
    (12): Linear(in_features=1000, out_features=20, bias=True)
    (13): Linear(in_features=1000, out_features=20, bias=True)
    (14): Linear(in_features=1000, out_features=20, bias=True)
    (15): Linear(in_features=1000, out_features=20, bias=True)
    (16): Linear(in_features=1000, out_features=20, bias=True)
    (17): Linear(in_features=1000, out_features=20, bias=True)
    (18): Linear(in_features=1000, out_features=20, bias=True)
    (19): Linear(in_features=1000, out_features=20, bias=True)
    (20): Linear(in_features=1000, out_features=20, bias=True)
    (21): Linear(in_features=1000, out_features=20, bias=True)
    (22): Linear(in_features=1000, out_features=20, bias=True)
  )
)
======

************************************************************************************************************
Task 23
************************************************************************************************************
| Epoch   1, time=  2.3s | Train: skip eval | Valid: time=  0.2s loss=9.337, TAw acc=  1.2% | *
| Epoch   2, time=  2.2s | Train: skip eval | Valid: time=  0.2s loss=9.277, TAw acc=  1.2% | *
…
>>> Test on task 18 : loss=2.262 | TAw acc= 96.6%, forg=  0.0%| TAg acc= 42.4%, forg= -0.8% <<<
>>> Test on task 19 : loss=2.296 | TAw acc= 96.1%, forg=  0.0%| TAg acc= 35.3%, forg= -5.9% <<<
>>> Test on task 20 : loss=2.185 | TAw acc= 90.5%, forg= -1.1%| TAg acc= 32.6%, forg= -6.3% <<<
>>> Test on task 21 : loss=2.983 | TAw acc= 87.8%, forg= -3.1%| TAg acc= 14.3%, forg= 19.4% <<<
>>> Test on task 22 : loss=2.901 | TAw acc= 90.6%, forg=-17.3%| TAg acc= 18.9%, forg= 29.9% <<<
>>> Test on task 23 : loss=2.793 | TAw acc= 72.3%, forg=  0.0%| TAg acc= 47.3%, forg=  0.0% <<<
Save at k=10/eeil_wisdm_2/wisdm_flex_eeil
======
LLL_Net(
  (model): SimpleMLP(
    (fc1): Linear(in_features=91, out_features=1000, bias=True)
    (fc2): Sequential()
  )
  (heads): ModuleList(
    (0): Linear(in_features=1000, out_features=34, bias=True)
    (1): Linear(in_features=1000, out_features=20, bias=True)
    (2): Linear(in_features=1000, out_features=20, bias=True)
    (3): Linear(in_features=1000, out_features=20, bias=True)
    (4): Linear(in_features=1000, out_features=20, bias=True)
    (5): Linear(in_features=1000, out_features=20, bias=True)
    (6): Linear(in_features=1000, out_features=20, bias=True)
    (7): Linear(in_features=1000, out_features=20, bias=True)
    (8): Linear(in_features=1000, out_features=20, bias=True)
    (9): Linear(in_features=1000, out_features=20, bias=True)
    (10): Linear(in_features=1000, out_features=20, bias=True)
    (11): Linear(in_features=1000, out_features=20, bias=True)
    (12): Linear(in_features=1000, out_features=20, bias=True)
    (13): Linear(in_features=1000, out_features=20, bias=True)
    (14): Linear(in_features=1000, out_features=20, bias=True)
    (15): Linear(in_features=1000, out_features=20, bias=True)
    (16): Linear(in_features=1000, out_features=20, bias=True)
    (17): Linear(in_features=1000, out_features=20, bias=True)
    (18): Linear(in_features=1000, out_features=20, bias=True)
    (19): Linear(in_features=1000, out_features=20, bias=True)
    (20): Linear(in_features=1000, out_features=20, bias=True)
    (21): Linear(in_features=1000, out_features=20, bias=True)
    (22): Linear(in_features=1000, out_features=20, bias=True)
    (23): Linear(in_features=1000, out_features=20, bias=True)
  )
)
======

************************************************************************************************************
Task 24
************************************************************************************************************
| Epoch   1, time=  2.5s | Train: skip eval | Valid: time=  0.2s loss=9.282, TAw acc= 15.1% | *
| Epoch   2, time=  2.6s | Train: skip eval | Valid: time=  0.3s loss=9.215, TAw acc= 16.3% | *
…
>>> Test on task 19 : loss=2.163 | TAw acc= 96.1%, forg=  0.0%| TAg acc= 42.2%, forg= -6.9% <<<
>>> Test on task 20 : loss=2.004 | TAw acc= 91.6%, forg= -1.1%| TAg acc= 49.5%, forg=-16.8% <<<
>>> Test on task 21 : loss=2.690 | TAw acc= 88.8%, forg= -1.0%| TAg acc= 30.6%, forg=  3.1% <<<
>>> Test on task 22 : loss=2.635 | TAw acc= 92.9%, forg= -2.4%| TAg acc= 27.6%, forg= 21.3% <<<
>>> Test on task 23 : loss=2.608 | TAw acc= 92.9%, forg=-20.5%| TAg acc= 19.6%, forg= 27.7% <<<
>>> Test on task 24 : loss=2.919 | TAw acc= 62.9%, forg=  0.0%| TAg acc= 34.5%, forg=  0.0% <<<
Save at k=10/eeil_wisdm_2/wisdm_flex_eeil
======
LLL_Net(
  (model): SimpleMLP(
    (fc1): Linear(in_features=91, out_features=1000, bias=True)
    (fc2): Sequential()
  )
  (heads): ModuleList(
    (0): Linear(in_features=1000, out_features=34, bias=True)
    (1): Linear(in_features=1000, out_features=20, bias=True)
    (2): Linear(in_features=1000, out_features=20, bias=True)
    (3): Linear(in_features=1000, out_features=20, bias=True)
    (4): Linear(in_features=1000, out_features=20, bias=True)
    (5): Linear(in_features=1000, out_features=20, bias=True)
    (6): Linear(in_features=1000, out_features=20, bias=True)
    (7): Linear(in_features=1000, out_features=20, bias=True)
    (8): Linear(in_features=1000, out_features=20, bias=True)
    (9): Linear(in_features=1000, out_features=20, bias=True)
    (10): Linear(in_features=1000, out_features=20, bias=True)
    (11): Linear(in_features=1000, out_features=20, bias=True)
    (12): Linear(in_features=1000, out_features=20, bias=True)
    (13): Linear(in_features=1000, out_features=20, bias=True)
    (14): Linear(in_features=1000, out_features=20, bias=True)
    (15): Linear(in_features=1000, out_features=20, bias=True)
    (16): Linear(in_features=1000, out_features=20, bias=True)
    (17): Linear(in_features=1000, out_features=20, bias=True)
    (18): Linear(in_features=1000, out_features=20, bias=True)
    (19): Linear(in_features=1000, out_features=20, bias=True)
    (20): Linear(in_features=1000, out_features=20, bias=True)
    (21): Linear(in_features=1000, out_features=20, bias=True)
    (22): Linear(in_features=1000, out_features=20, bias=True)
    (23): Linear(in_features=1000, out_features=20, bias=True)
    (24): Linear(in_features=1000, out_features=20, bias=True)
  )
)
======

************************************************************************************************************
Task 25
************************************************************************************************************
| Epoch   1, time=  2.5s | Train: skip eval | Valid: time=  0.2s loss=9.181, TAw acc= 27.7% | *
| Epoch   2, time=  2.6s | Train: skip eval | Valid: time=  0.2s loss=9.143, TAw acc= 27.7% | *
…
>>> Test on task 20 : loss=1.878 | TAw acc= 91.6%, forg=  0.0%| TAg acc= 57.9%, forg= -8.4% <<<
>>> Test on task 21 : loss=2.502 | TAw acc= 89.8%, forg= -1.0%| TAg acc= 36.7%, forg= -3.1% <<<
>>> Test on task 22 : loss=2.409 | TAw acc= 96.1%, forg= -3.1%| TAg acc= 38.6%, forg= 10.2% <<<
>>> Test on task 23 : loss=2.216 | TAw acc= 97.3%, forg= -4.5%| TAg acc= 30.4%, forg= 17.0% <<<
>>> Test on task 24 : loss=2.848 | TAw acc= 86.2%, forg=-23.3%| TAg acc= 13.8%, forg= 20.7% <<<
>>> Test on task 25 : loss=3.641 | TAw acc= 81.3%, forg=  0.0%| TAg acc=  9.9%, forg=  0.0% <<<
Save at k=10/eeil_wisdm_2/wisdm_flex_eeil
======
LLL_Net(
  (model): SimpleMLP(
    (fc1): Linear(in_features=91, out_features=1000, bias=True)
    (fc2): Sequential()
  )
  (heads): ModuleList(
    (0): Linear(in_features=1000, out_features=34, bias=True)
    (1): Linear(in_features=1000, out_features=20, bias=True)
    (2): Linear(in_features=1000, out_features=20, bias=True)
    (3): Linear(in_features=1000, out_features=20, bias=True)
    (4): Linear(in_features=1000, out_features=20, bias=True)
    (5): Linear(in_features=1000, out_features=20, bias=True)
    (6): Linear(in_features=1000, out_features=20, bias=True)
    (7): Linear(in_features=1000, out_features=20, bias=True)
    (8): Linear(in_features=1000, out_features=20, bias=True)
    (9): Linear(in_features=1000, out_features=20, bias=True)
    (10): Linear(in_features=1000, out_features=20, bias=True)
    (11): Linear(in_features=1000, out_features=20, bias=True)
    (12): Linear(in_features=1000, out_features=20, bias=True)
    (13): Linear(in_features=1000, out_features=20, bias=True)
    (14): Linear(in_features=1000, out_features=20, bias=True)
    (15): Linear(in_features=1000, out_features=20, bias=True)
    (16): Linear(in_features=1000, out_features=20, bias=True)
    (17): Linear(in_features=1000, out_features=20, bias=True)
    (18): Linear(in_features=1000, out_features=20, bias=True)
    (19): Linear(in_features=1000, out_features=20, bias=True)
    (20): Linear(in_features=1000, out_features=20, bias=True)
    (21): Linear(in_features=1000, out_features=20, bias=True)
    (22): Linear(in_features=1000, out_features=20, bias=True)
    (23): Linear(in_features=1000, out_features=20, bias=True)
    (24): Linear(in_features=1000, out_features=20, bias=True)
    (25): Linear(in_features=1000, out_features=20, bias=True)
  )
)
======

************************************************************************************************************
Task 26
************************************************************************************************************
| Epoch   1, time=  2.8s | Train: skip eval | Valid: time=  0.2s loss=9.361, TAw acc=  2.7% | *
| Epoch   2, time=  2.7s | Train: skip eval | Valid: time=  0.3s loss=9.322, TAw acc=  2.7% | *
…
>>> Test on task 21 : loss=2.365 | TAw acc= 90.8%, forg= -1.0%| TAg acc= 37.8%, forg= -1.0% <<<
>>> Test on task 22 : loss=2.260 | TAw acc= 96.1%, forg=  0.0%| TAg acc= 47.2%, forg=  1.6% <<<
>>> Test on task 23 : loss=2.019 | TAw acc= 97.3%, forg=  0.0%| TAg acc= 38.4%, forg=  8.9% <<<
>>> Test on task 24 : loss=2.570 | TAw acc= 89.7%, forg= -3.4%| TAg acc= 17.2%, forg= 17.2% <<<
>>> Test on task 25 : loss=3.038 | TAw acc= 93.4%, forg=-12.1%| TAg acc=  7.7%, forg=  2.2% <<<
>>> Test on task 26 : loss=3.415 | TAw acc= 77.2%, forg=  0.0%| TAg acc= 20.8%, forg=  0.0% <<<
Save at k=10/eeil_wisdm_2/wisdm_flex_eeil
======
LLL_Net(
  (model): SimpleMLP(
    (fc1): Linear(in_features=91, out_features=1000, bias=True)
    (fc2): Sequential()
  )
  (heads): ModuleList(
    (0): Linear(in_features=1000, out_features=34, bias=True)
    (1): Linear(in_features=1000, out_features=20, bias=True)
    (2): Linear(in_features=1000, out_features=20, bias=True)
    (3): Linear(in_features=1000, out_features=20, bias=True)
    (4): Linear(in_features=1000, out_features=20, bias=True)
    (5): Linear(in_features=1000, out_features=20, bias=True)
    (6): Linear(in_features=1000, out_features=20, bias=True)
    (7): Linear(in_features=1000, out_features=20, bias=True)
    (8): Linear(in_features=1000, out_features=20, bias=True)
    (9): Linear(in_features=1000, out_features=20, bias=True)
    (10): Linear(in_features=1000, out_features=20, bias=True)
    (11): Linear(in_features=1000, out_features=20, bias=True)
    (12): Linear(in_features=1000, out_features=20, bias=True)
    (13): Linear(in_features=1000, out_features=20, bias=True)
    (14): Linear(in_features=1000, out_features=20, bias=True)
    (15): Linear(in_features=1000, out_features=20, bias=True)
    (16): Linear(in_features=1000, out_features=20, bias=True)
    (17): Linear(in_features=1000, out_features=20, bias=True)
    (18): Linear(in_features=1000, out_features=20, bias=True)
    (19): Linear(in_features=1000, out_features=20, bias=True)
    (20): Linear(in_features=1000, out_features=20, bias=True)
    (21): Linear(in_features=1000, out_features=20, bias=True)
    (22): Linear(in_features=1000, out_features=20, bias=True)
    (23): Linear(in_features=1000, out_features=20, bias=True)
    (24): Linear(in_features=1000, out_features=20, bias=True)
    (25): Linear(in_features=1000, out_features=20, bias=True)
    (26): Linear(in_features=1000, out_features=20, bias=True)
  )
)
======

************************************************************************************************************
Task 27
************************************************************************************************************
| Epoch   1, time=  2.9s | Train: skip eval | Valid: time=  0.2s loss=9.266, TAw acc=  9.9% | *
| Epoch   2, time=  3.1s | Train: skip eval | Valid: time=  0.3s loss=9.209, TAw acc= 12.1% | *
…
>>> Test on task 22 : loss=2.226 | TAw acc= 96.1%, forg=  0.0%| TAg acc= 43.3%, forg=  5.5% <<<
>>> Test on task 23 : loss=1.931 | TAw acc= 97.3%, forg=  0.0%| TAg acc= 49.1%, forg= -1.8% <<<
>>> Test on task 24 : loss=2.409 | TAw acc= 90.5%, forg= -0.9%| TAg acc= 24.1%, forg= 10.3% <<<
>>> Test on task 25 : loss=2.662 | TAw acc= 94.5%, forg= -1.1%| TAg acc= 15.4%, forg= -5.5% <<<
>>> Test on task 26 : loss=3.099 | TAw acc= 91.1%, forg=-13.9%| TAg acc=  5.0%, forg= 15.8% <<<
>>> Test on task 27 : loss=2.927 | TAw acc= 74.4%, forg=  0.0%| TAg acc= 45.5%, forg=  0.0% <<<
Save at k=10/eeil_wisdm_2/wisdm_flex_eeil
======
LLL_Net(
  (model): SimpleMLP(
    (fc1): Linear(in_features=91, out_features=1000, bias=True)
    (fc2): Sequential()
  )
  (heads): ModuleList(
    (0): Linear(in_features=1000, out_features=34, bias=True)
    (1): Linear(in_features=1000, out_features=20, bias=True)
    (2): Linear(in_features=1000, out_features=20, bias=True)
    (3): Linear(in_features=1000, out_features=20, bias=True)
    (4): Linear(in_features=1000, out_features=20, bias=True)
    (5): Linear(in_features=1000, out_features=20, bias=True)
    (6): Linear(in_features=1000, out_features=20, bias=True)
    (7): Linear(in_features=1000, out_features=20, bias=True)
    (8): Linear(in_features=1000, out_features=20, bias=True)
    (9): Linear(in_features=1000, out_features=20, bias=True)
    (10): Linear(in_features=1000, out_features=20, bias=True)
    (11): Linear(in_features=1000, out_features=20, bias=True)
    (12): Linear(in_features=1000, out_features=20, bias=True)
    (13): Linear(in_features=1000, out_features=20, bias=True)
    (14): Linear(in_features=1000, out_features=20, bias=True)
    (15): Linear(in_features=1000, out_features=20, bias=True)
    (16): Linear(in_features=1000, out_features=20, bias=True)
    (17): Linear(in_features=1000, out_features=20, bias=True)
    (18): Linear(in_features=1000, out_features=20, bias=True)
    (19): Linear(in_features=1000, out_features=20, bias=True)
    (20): Linear(in_features=1000, out_features=20, bias=True)
    (21): Linear(in_features=1000, out_features=20, bias=True)
    (22): Linear(in_features=1000, out_features=20, bias=True)
    (23): Linear(in_features=1000, out_features=20, bias=True)
    (24): Linear(in_features=1000, out_features=20, bias=True)
    (25): Linear(in_features=1000, out_features=20, bias=True)
    (26): Linear(in_features=1000, out_features=20, bias=True)
    (27): Linear(in_features=1000, out_features=20, bias=True)
  )
)
======

************************************************************************************************************
Task 28
************************************************************************************************************
| Epoch   1, time=  3.3s | Train: skip eval | Valid: time=  0.3s loss=9.608, TAw acc=  4.5% | *
| Epoch   2, time=  3.2s | Train: skip eval | Valid: time=  0.2s loss=9.539, TAw acc=  5.6% | *
…
>>> Test on task 23 : loss=1.829 | TAw acc= 97.3%, forg=  0.0%| TAg acc= 55.4%, forg= -6.3% <<<
>>> Test on task 24 : loss=2.248 | TAw acc= 90.5%, forg=  0.0%| TAg acc= 30.2%, forg=  4.3% <<<
>>> Test on task 25 : loss=2.395 | TAw acc= 94.5%, forg=  0.0%| TAg acc= 22.0%, forg= -6.6% <<<
>>> Test on task 26 : loss=2.788 | TAw acc= 96.0%, forg= -5.0%| TAg acc= 10.9%, forg=  9.9% <<<
>>> Test on task 27 : loss=3.052 | TAw acc= 85.1%, forg=-10.7%| TAg acc= 10.7%, forg= 34.7% <<<
>>> Test on task 28 : loss=2.760 | TAw acc= 86.6%, forg=  0.0%| TAg acc= 44.5%, forg=  0.0% <<<
Save at k=10/eeil_wisdm_2/wisdm_flex_eeil
======
LLL_Net(
  (model): SimpleMLP(
    (fc1): Linear(in_features=91, out_features=1000, bias=True)
    (fc2): Sequential()
  )
  (heads): ModuleList(
    (0): Linear(in_features=1000, out_features=34, bias=True)
    (1): Linear(in_features=1000, out_features=20, bias=True)
    (2): Linear(in_features=1000, out_features=20, bias=True)
    (3): Linear(in_features=1000, out_features=20, bias=True)
    (4): Linear(in_features=1000, out_features=20, bias=True)
    (5): Linear(in_features=1000, out_features=20, bias=True)
    (6): Linear(in_features=1000, out_features=20, bias=True)
    (7): Linear(in_features=1000, out_features=20, bias=True)
    (8): Linear(in_features=1000, out_features=20, bias=True)
    (9): Linear(in_features=1000, out_features=20, bias=True)
    (10): Linear(in_features=1000, out_features=20, bias=True)
    (11): Linear(in_features=1000, out_features=20, bias=True)
    (12): Linear(in_features=1000, out_features=20, bias=True)
    (13): Linear(in_features=1000, out_features=20, bias=True)
    (14): Linear(in_features=1000, out_features=20, bias=True)
    (15): Linear(in_features=1000, out_features=20, bias=True)
    (16): Linear(in_features=1000, out_features=20, bias=True)
    (17): Linear(in_features=1000, out_features=20, bias=True)
    (18): Linear(in_features=1000, out_features=20, bias=True)
    (19): Linear(in_features=1000, out_features=20, bias=True)
    (20): Linear(in_features=1000, out_features=20, bias=True)
    (21): Linear(in_features=1000, out_features=20, bias=True)
    (22): Linear(in_features=1000, out_features=20, bias=True)
    (23): Linear(in_features=1000, out_features=20, bias=True)
    (24): Linear(in_features=1000, out_features=20, bias=True)
    (25): Linear(in_features=1000, out_features=20, bias=True)
    (26): Linear(in_features=1000, out_features=20, bias=True)
    (27): Linear(in_features=1000, out_features=20, bias=True)
    (28): Linear(in_features=1000, out_features=20, bias=True)
  )
)
======

************************************************************************************************************
Task 29
************************************************************************************************************
| Epoch   1, time=  3.4s | Train: skip eval | Valid: time=  0.2s loss=9.748, TAw acc=  9.4% | *
| Epoch   2, time=  3.2s | Train: skip eval | Valid: time=  0.2s loss=9.708, TAw acc= 10.9% | *
…
>>> Test on task 24 : loss=2.097 | TAw acc= 91.4%, forg= -0.9%| TAg acc= 39.7%, forg= -5.2% <<<
>>> Test on task 25 : loss=2.211 | TAw acc= 94.5%, forg=  0.0%| TAg acc= 27.5%, forg= -5.5% <<<
>>> Test on task 26 : loss=2.558 | TAw acc= 98.0%, forg= -2.0%| TAg acc= 24.8%, forg= -4.0% <<<
>>> Test on task 27 : loss=2.798 | TAw acc= 88.4%, forg= -3.3%| TAg acc= 17.4%, forg= 28.1% <<<
>>> Test on task 28 : loss=2.785 | TAw acc= 88.2%, forg= -1.7%| TAg acc= 13.4%, forg= 31.1% <<<
>>> Test on task 29 : loss=3.576 | TAw acc= 64.8%, forg=  0.0%| TAg acc= 18.7%, forg=  0.0% <<<
Save at k=10/eeil_wisdm_2/wisdm_flex_eeil
======
LLL_Net(
  (model): SimpleMLP(
    (fc1): Linear(in_features=91, out_features=1000, bias=True)
    (fc2): Sequential()
  )
  (heads): ModuleList(
    (0): Linear(in_features=1000, out_features=34, bias=True)
    (1): Linear(in_features=1000, out_features=20, bias=True)
    (2): Linear(in_features=1000, out_features=20, bias=True)
    (3): Linear(in_features=1000, out_features=20, bias=True)
    (4): Linear(in_features=1000, out_features=20, bias=True)
    (5): Linear(in_features=1000, out_features=20, bias=True)
    (6): Linear(in_features=1000, out_features=20, bias=True)
    (7): Linear(in_features=1000, out_features=20, bias=True)
    (8): Linear(in_features=1000, out_features=20, bias=True)
    (9): Linear(in_features=1000, out_features=20, bias=True)
    (10): Linear(in_features=1000, out_features=20, bias=True)
    (11): Linear(in_features=1000, out_features=20, bias=True)
    (12): Linear(in_features=1000, out_features=20, bias=True)
    (13): Linear(in_features=1000, out_features=20, bias=True)
    (14): Linear(in_features=1000, out_features=20, bias=True)
    (15): Linear(in_features=1000, out_features=20, bias=True)
    (16): Linear(in_features=1000, out_features=20, bias=True)
    (17): Linear(in_features=1000, out_features=20, bias=True)
    (18): Linear(in_features=1000, out_features=20, bias=True)
    (19): Linear(in_features=1000, out_features=20, bias=True)
    (20): Linear(in_features=1000, out_features=20, bias=True)
    (21): Linear(in_features=1000, out_features=20, bias=True)
    (22): Linear(in_features=1000, out_features=20, bias=True)
    (23): Linear(in_features=1000, out_features=20, bias=True)
    (24): Linear(in_features=1000, out_features=20, bias=True)
    (25): Linear(in_features=1000, out_features=20, bias=True)
    (26): Linear(in_features=1000, out_features=20, bias=True)
    (27): Linear(in_features=1000, out_features=20, bias=True)
    (28): Linear(in_features=1000, out_features=20, bias=True)
    (29): Linear(in_features=1000, out_features=20, bias=True)
  )
)
======

************************************************************************************************************
Task 30
************************************************************************************************************
| Epoch   1, time=  3.3s | Train: skip eval | Valid: time=  0.2s loss=9.746, TAw acc= 17.1% | *
| Epoch   2, time=  3.4s | Train: skip eval | Valid: time=  0.3s loss=9.684, TAw acc= 17.1% | *
…
>>> Test on task 25 : loss=2.111 | TAw acc= 95.6%, forg= -1.1%| TAg acc= 33.0%, forg= -5.5% <<<
>>> Test on task 26 : loss=2.412 | TAw acc= 98.0%, forg=  0.0%| TAg acc= 28.7%, forg= -4.0% <<<
>>> Test on task 27 : loss=2.673 | TAw acc= 88.4%, forg=  0.0%| TAg acc= 22.3%, forg= 23.1% <<<
>>> Test on task 28 : loss=2.592 | TAw acc= 89.9%, forg= -1.7%| TAg acc= 17.6%, forg= 26.9% <<<
>>> Test on task 29 : loss=3.045 | TAw acc= 81.3%, forg=-16.5%| TAg acc=  6.6%, forg= 12.1% <<<
>>> Test on task 30 : loss=3.037 | TAw acc= 76.6%, forg=  0.0%| TAg acc= 38.7%, forg=  0.0% <<<
Save at k=10/eeil_wisdm_2/wisdm_flex_eeil
======
LLL_Net(
  (model): SimpleMLP(
    (fc1): Linear(in_features=91, out_features=1000, bias=True)
    (fc2): Sequential()
  )
  (heads): ModuleList(
    (0): Linear(in_features=1000, out_features=34, bias=True)
    (1): Linear(in_features=1000, out_features=20, bias=True)
    (2): Linear(in_features=1000, out_features=20, bias=True)
    (3): Linear(in_features=1000, out_features=20, bias=True)
    (4): Linear(in_features=1000, out_features=20, bias=True)
    (5): Linear(in_features=1000, out_features=20, bias=True)
    (6): Linear(in_features=1000, out_features=20, bias=True)
    (7): Linear(in_features=1000, out_features=20, bias=True)
    (8): Linear(in_features=1000, out_features=20, bias=True)
    (9): Linear(in_features=1000, out_features=20, bias=True)
    (10): Linear(in_features=1000, out_features=20, bias=True)
    (11): Linear(in_features=1000, out_features=20, bias=True)
    (12): Linear(in_features=1000, out_features=20, bias=True)
    (13): Linear(in_features=1000, out_features=20, bias=True)
    (14): Linear(in_features=1000, out_features=20, bias=True)
    (15): Linear(in_features=1000, out_features=20, bias=True)
    (16): Linear(in_features=1000, out_features=20, bias=True)
    (17): Linear(in_features=1000, out_features=20, bias=True)
    (18): Linear(in_features=1000, out_features=20, bias=True)
    (19): Linear(in_features=1000, out_features=20, bias=True)
    (20): Linear(in_features=1000, out_features=20, bias=True)
    (21): Linear(in_features=1000, out_features=20, bias=True)
    (22): Linear(in_features=1000, out_features=20, bias=True)
    (23): Linear(in_features=1000, out_features=20, bias=True)
    (24): Linear(in_features=1000, out_features=20, bias=True)
    (25): Linear(in_features=1000, out_features=20, bias=True)
    (26): Linear(in_features=1000, out_features=20, bias=True)
    (27): Linear(in_features=1000, out_features=20, bias=True)
    (28): Linear(in_features=1000, out_features=20, bias=True)
    (29): Linear(in_features=1000, out_features=20, bias=True)
    (30): Linear(in_features=1000, out_features=20, bias=True)
  )
)
======

************************************************************************************************************
Task 31
************************************************************************************************************
| Epoch   1, time=  3.7s | Train: skip eval | Valid: time=  0.2s loss=10.021, TAw acc=  0.0% | *
| Epoch   2, time=  3.8s | Train: skip eval | Valid: time=  0.2s loss=9.966, TAw acc=  0.0% | *
…
>>> Test on task 26 : loss=2.287 | TAw acc= 98.0%, forg=  0.0%| TAg acc= 37.6%, forg= -8.9% <<<
>>> Test on task 27 : loss=2.598 | TAw acc= 87.6%, forg=  0.8%| TAg acc= 28.9%, forg= 16.5% <<<
>>> Test on task 28 : loss=2.452 | TAw acc= 89.9%, forg=  0.0%| TAg acc= 23.5%, forg= 21.0% <<<
>>> Test on task 29 : loss=2.717 | TAw acc= 92.3%, forg=-11.0%| TAg acc= 13.2%, forg=  5.5% <<<
>>> Test on task 30 : loss=3.139 | TAw acc= 95.5%, forg=-18.9%| TAg acc= 14.4%, forg= 24.3% <<<
>>> Test on task 31 : loss=3.191 | TAw acc= 70.6%, forg=  0.0%| TAg acc= 42.2%, forg=  0.0% <<<
Save at k=10/eeil_wisdm_2/wisdm_flex_eeil
======
LLL_Net(
  (model): SimpleMLP(
    (fc1): Linear(in_features=91, out_features=1000, bias=True)
    (fc2): Sequential()
  )
  (heads): ModuleList(
    (0): Linear(in_features=1000, out_features=34, bias=True)
    (1): Linear(in_features=1000, out_features=20, bias=True)
    (2): Linear(in_features=1000, out_features=20, bias=True)
    (3): Linear(in_features=1000, out_features=20, bias=True)
    (4): Linear(in_features=1000, out_features=20, bias=True)
    (5): Linear(in_features=1000, out_features=20, bias=True)
    (6): Linear(in_features=1000, out_features=20, bias=True)
    (7): Linear(in_features=1000, out_features=20, bias=True)
    (8): Linear(in_features=1000, out_features=20, bias=True)
    (9): Linear(in_features=1000, out_features=20, bias=True)
    (10): Linear(in_features=1000, out_features=20, bias=True)
    (11): Linear(in_features=1000, out_features=20, bias=True)
    (12): Linear(in_features=1000, out_features=20, bias=True)
    (13): Linear(in_features=1000, out_features=20, bias=True)
    (14): Linear(in_features=1000, out_features=20, bias=True)
    (15): Linear(in_features=1000, out_features=20, bias=True)
    (16): Linear(in_features=1000, out_features=20, bias=True)
    (17): Linear(in_features=1000, out_features=20, bias=True)
    (18): Linear(in_features=1000, out_features=20, bias=True)
    (19): Linear(in_features=1000, out_features=20, bias=True)
    (20): Linear(in_features=1000, out_features=20, bias=True)
    (21): Linear(in_features=1000, out_features=20, bias=True)
    (22): Linear(in_features=1000, out_features=20, bias=True)
    (23): Linear(in_features=1000, out_features=20, bias=True)
    (24): Linear(in_features=1000, out_features=20, bias=True)
    (25): Linear(in_features=1000, out_features=20, bias=True)
    (26): Linear(in_features=1000, out_features=20, bias=True)
    (27): Linear(in_features=1000, out_features=20, bias=True)
    (28): Linear(in_features=1000, out_features=20, bias=True)
    (29): Linear(in_features=1000, out_features=20, bias=True)
    (30): Linear(in_features=1000, out_features=20, bias=True)
    (31): Linear(in_features=1000, out_features=20, bias=True)
  )
)
======

************************************************************************************************************
Task 32
************************************************************************************************************
| Epoch   1, time=  4.0s | Train: skip eval | Valid: time=  0.3s loss=10.763, TAw acc=  5.0% | *
| Epoch   2, time=  3.8s | Train: skip eval | Valid: time=  0.3s loss=10.677, TAw acc=  8.8% | *
…
>>> Test on task 27 : loss=2.466 | TAw acc= 89.3%, forg= -0.8%| TAg acc= 33.1%, forg= 12.4% <<<
>>> Test on task 28 : loss=2.334 | TAw acc= 89.9%, forg=  0.0%| TAg acc= 30.3%, forg= 14.3% <<<
>>> Test on task 29 : loss=2.519 | TAw acc= 93.4%, forg= -1.1%| TAg acc= 23.1%, forg= -4.4% <<<
>>> Test on task 30 : loss=2.877 | TAw acc= 96.4%, forg= -0.9%| TAg acc= 19.8%, forg= 18.9% <<<
>>> Test on task 31 : loss=2.942 | TAw acc= 92.2%, forg=-21.6%| TAg acc= 21.6%, forg= 20.6% <<<
>>> Test on task 32 : loss=2.692 | TAw acc= 74.1%, forg=  0.0%| TAg acc= 43.5%, forg=  0.0% <<<
Save at k=10/eeil_wisdm_2/wisdm_flex_eeil
======
LLL_Net(
  (model): SimpleMLP(
    (fc1): Linear(in_features=91, out_features=1000, bias=True)
    (fc2): Sequential()
  )
  (heads): ModuleList(
    (0): Linear(in_features=1000, out_features=34, bias=True)
    (1): Linear(in_features=1000, out_features=20, bias=True)
    (2): Linear(in_features=1000, out_features=20, bias=True)
    (3): Linear(in_features=1000, out_features=20, bias=True)
    (4): Linear(in_features=1000, out_features=20, bias=True)
    (5): Linear(in_features=1000, out_features=20, bias=True)
    (6): Linear(in_features=1000, out_features=20, bias=True)
    (7): Linear(in_features=1000, out_features=20, bias=True)
    (8): Linear(in_features=1000, out_features=20, bias=True)
    (9): Linear(in_features=1000, out_features=20, bias=True)
    (10): Linear(in_features=1000, out_features=20, bias=True)
    (11): Linear(in_features=1000, out_features=20, bias=True)
    (12): Linear(in_features=1000, out_features=20, bias=True)
    (13): Linear(in_features=1000, out_features=20, bias=True)
    (14): Linear(in_features=1000, out_features=20, bias=True)
    (15): Linear(in_features=1000, out_features=20, bias=True)
    (16): Linear(in_features=1000, out_features=20, bias=True)
    (17): Linear(in_features=1000, out_features=20, bias=True)
    (18): Linear(in_features=1000, out_features=20, bias=True)
    (19): Linear(in_features=1000, out_features=20, bias=True)
    (20): Linear(in_features=1000, out_features=20, bias=True)
    (21): Linear(in_features=1000, out_features=20, bias=True)
    (22): Linear(in_features=1000, out_features=20, bias=True)
    (23): Linear(in_features=1000, out_features=20, bias=True)
    (24): Linear(in_features=1000, out_features=20, bias=True)
    (25): Linear(in_features=1000, out_features=20, bias=True)
    (26): Linear(in_features=1000, out_features=20, bias=True)
    (27): Linear(in_features=1000, out_features=20, bias=True)
    (28): Linear(in_features=1000, out_features=20, bias=True)
    (29): Linear(in_features=1000, out_features=20, bias=True)
    (30): Linear(in_features=1000, out_features=20, bias=True)
    (31): Linear(in_features=1000, out_features=20, bias=True)
    (32): Linear(in_features=1000, out_features=20, bias=True)
  )
)
======

************************************************************************************************************
Task 33
************************************************************************************************************
| Epoch   1, time=  4.2s | Train: skip eval | Valid: time=  0.2s loss=10.238, TAw acc=  2.3% | *
| Epoch   2, time=  4.0s | Train: skip eval | Valid: time=  0.2s loss=10.173, TAw acc=  8.1% | *
…
>>> Test on task 28 : loss=2.224 | TAw acc= 90.8%, forg= -0.8%| TAg acc= 32.8%, forg= 11.8% <<<
>>> Test on task 29 : loss=2.366 | TAw acc= 93.4%, forg=  0.0%| TAg acc= 28.6%, forg= -5.5% <<<
>>> Test on task 30 : loss=2.669 | TAw acc= 96.4%, forg=  0.0%| TAg acc= 21.6%, forg= 17.1% <<<
>>> Test on task 31 : loss=2.647 | TAw acc= 92.2%, forg=  0.0%| TAg acc= 36.3%, forg=  5.9% <<<
>>> Test on task 32 : loss=2.803 | TAw acc= 95.4%, forg=-21.3%| TAg acc= 21.3%, forg= 22.2% <<<
>>> Test on task 33 : loss=2.795 | TAw acc= 81.7%, forg=  0.0%| TAg acc= 34.8%, forg=  0.0% <<<
Save at k=10/eeil_wisdm_2/wisdm_flex_eeil
======
LLL_Net(
  (model): SimpleMLP(
    (fc1): Linear(in_features=91, out_features=1000, bias=True)
    (fc2): Sequential()
  )
  (heads): ModuleList(
    (0): Linear(in_features=1000, out_features=34, bias=True)
    (1): Linear(in_features=1000, out_features=20, bias=True)
    (2): Linear(in_features=1000, out_features=20, bias=True)
    (3): Linear(in_features=1000, out_features=20, bias=True)
    (4): Linear(in_features=1000, out_features=20, bias=True)
    (5): Linear(in_features=1000, out_features=20, bias=True)
    (6): Linear(in_features=1000, out_features=20, bias=True)
    (7): Linear(in_features=1000, out_features=20, bias=True)
    (8): Linear(in_features=1000, out_features=20, bias=True)
    (9): Linear(in_features=1000, out_features=20, bias=True)
    (10): Linear(in_features=1000, out_features=20, bias=True)
    (11): Linear(in_features=1000, out_features=20, bias=True)
    (12): Linear(in_features=1000, out_features=20, bias=True)
    (13): Linear(in_features=1000, out_features=20, bias=True)
    (14): Linear(in_features=1000, out_features=20, bias=True)
    (15): Linear(in_features=1000, out_features=20, bias=True)
    (16): Linear(in_features=1000, out_features=20, bias=True)
    (17): Linear(in_features=1000, out_features=20, bias=True)
    (18): Linear(in_features=1000, out_features=20, bias=True)
    (19): Linear(in_features=1000, out_features=20, bias=True)
    (20): Linear(in_features=1000, out_features=20, bias=True)
    (21): Linear(in_features=1000, out_features=20, bias=True)
    (22): Linear(in_features=1000, out_features=20, bias=True)
    (23): Linear(in_features=1000, out_features=20, bias=True)
    (24): Linear(in_features=1000, out_features=20, bias=True)
    (25): Linear(in_features=1000, out_features=20, bias=True)
    (26): Linear(in_features=1000, out_features=20, bias=True)
    (27): Linear(in_features=1000, out_features=20, bias=True)
    (28): Linear(in_features=1000, out_features=20, bias=True)
    (29): Linear(in_features=1000, out_features=20, bias=True)
    (30): Linear(in_features=1000, out_features=20, bias=True)
    (31): Linear(in_features=1000, out_features=20, bias=True)
    (32): Linear(in_features=1000, out_features=20, bias=True)
    (33): Linear(in_features=1000, out_features=20, bias=True)
  )
)
======

************************************************************************************************************
Task 34
************************************************************************************************************
| Epoch   1, time=  4.1s | Train: skip eval | Valid: time=  0.3s loss=10.513, TAw acc= 10.3% | *
| Epoch   2, time=  4.2s | Train: skip eval | Valid: time=  0.3s loss=10.444, TAw acc= 11.5% | *
…
>>> Test on task 29 : loss=2.273 | TAw acc= 94.5%, forg= -1.1%| TAg acc= 35.2%, forg= -6.6% <<<
>>> Test on task 30 : loss=2.514 | TAw acc= 95.5%, forg=  0.9%| TAg acc= 25.2%, forg= 13.5% <<<
>>> Test on task 31 : loss=2.436 | TAw acc= 92.2%, forg=  0.0%| TAg acc= 40.2%, forg=  2.0% <<<
>>> Test on task 32 : loss=2.543 | TAw acc= 96.3%, forg= -0.9%| TAg acc= 26.9%, forg= 16.7% <<<
>>> Test on task 33 : loss=2.697 | TAw acc= 93.9%, forg=-12.2%| TAg acc= 13.9%, forg= 20.9% <<<
>>> Test on task 34 : loss=2.682 | TAw acc= 77.6%, forg=  0.0%| TAg acc= 34.5%, forg=  0.0% <<<
Save at k=10/eeil_wisdm_2/wisdm_flex_eeil
======
LLL_Net(
  (model): SimpleMLP(
    (fc1): Linear(in_features=91, out_features=1000, bias=True)
    (fc2): Sequential()
  )
  (heads): ModuleList(
    (0): Linear(in_features=1000, out_features=34, bias=True)
    (1): Linear(in_features=1000, out_features=20, bias=True)
    (2): Linear(in_features=1000, out_features=20, bias=True)
    (3): Linear(in_features=1000, out_features=20, bias=True)
    (4): Linear(in_features=1000, out_features=20, bias=True)
    (5): Linear(in_features=1000, out_features=20, bias=True)
    (6): Linear(in_features=1000, out_features=20, bias=True)
    (7): Linear(in_features=1000, out_features=20, bias=True)
    (8): Linear(in_features=1000, out_features=20, bias=True)
    (9): Linear(in_features=1000, out_features=20, bias=True)
    (10): Linear(in_features=1000, out_features=20, bias=True)
    (11): Linear(in_features=1000, out_features=20, bias=True)
    (12): Linear(in_features=1000, out_features=20, bias=True)
    (13): Linear(in_features=1000, out_features=20, bias=True)
    (14): Linear(in_features=1000, out_features=20, bias=True)
    (15): Linear(in_features=1000, out_features=20, bias=True)
    (16): Linear(in_features=1000, out_features=20, bias=True)
    (17): Linear(in_features=1000, out_features=20, bias=True)
    (18): Linear(in_features=1000, out_features=20, bias=True)
    (19): Linear(in_features=1000, out_features=20, bias=True)
    (20): Linear(in_features=1000, out_features=20, bias=True)
    (21): Linear(in_features=1000, out_features=20, bias=True)
    (22): Linear(in_features=1000, out_features=20, bias=True)
    (23): Linear(in_features=1000, out_features=20, bias=True)
    (24): Linear(in_features=1000, out_features=20, bias=True)
    (25): Linear(in_features=1000, out_features=20, bias=True)
    (26): Linear(in_features=1000, out_features=20, bias=True)
    (27): Linear(in_features=1000, out_features=20, bias=True)
    (28): Linear(in_features=1000, out_features=20, bias=True)
    (29): Linear(in_features=1000, out_features=20, bias=True)
    (30): Linear(in_features=1000, out_features=20, bias=True)
    (31): Linear(in_features=1000, out_features=20, bias=True)
    (32): Linear(in_features=1000, out_features=20, bias=True)
    (33): Linear(in_features=1000, out_features=20, bias=True)
    (34): Linear(in_features=1000, out_features=20, bias=True)
  )
)
======

************************************************************************************************************
Task 35
************************************************************************************************************
| Epoch   1, time=  4.4s | Train: skip eval | Valid: time=  0.2s loss=11.978, TAw acc=  3.8% | *
| Epoch   2, time=  4.4s | Train: skip eval | Valid: time=  0.2s loss=11.855, TAw acc= 10.0% | *
…
>>> Test on task 30 : loss=2.420 | TAw acc= 95.5%, forg=  0.9%| TAg acc= 33.3%, forg=  5.4% <<<
>>> Test on task 31 : loss=2.345 | TAw acc= 93.1%, forg= -1.0%| TAg acc= 33.3%, forg=  8.8% <<<
>>> Test on task 32 : loss=2.394 | TAw acc= 96.3%, forg=  0.0%| TAg acc= 27.8%, forg= 15.7% <<<
>>> Test on task 33 : loss=2.419 | TAw acc= 95.7%, forg= -1.7%| TAg acc= 22.6%, forg= 12.2% <<<
>>> Test on task 34 : loss=2.702 | TAw acc= 90.5%, forg=-12.9%| TAg acc= 10.3%, forg= 24.1% <<<
>>> Test on task 35 : loss=2.702 | TAw acc= 80.6%, forg=  0.0%| TAg acc= 39.8%, forg=  0.0% <<<
Save at k=10/eeil_wisdm_2/wisdm_flex_eeil
======
LLL_Net(
  (model): SimpleMLP(
    (fc1): Linear(in_features=91, out_features=1000, bias=True)
    (fc2): Sequential()
  )
  (heads): ModuleList(
    (0): Linear(in_features=1000, out_features=34, bias=True)
    (1): Linear(in_features=1000, out_features=20, bias=True)
    (2): Linear(in_features=1000, out_features=20, bias=True)
    (3): Linear(in_features=1000, out_features=20, bias=True)
    (4): Linear(in_features=1000, out_features=20, bias=True)
    (5): Linear(in_features=1000, out_features=20, bias=True)
    (6): Linear(in_features=1000, out_features=20, bias=True)
    (7): Linear(in_features=1000, out_features=20, bias=True)
    (8): Linear(in_features=1000, out_features=20, bias=True)
    (9): Linear(in_features=1000, out_features=20, bias=True)
    (10): Linear(in_features=1000, out_features=20, bias=True)
    (11): Linear(in_features=1000, out_features=20, bias=True)
    (12): Linear(in_features=1000, out_features=20, bias=True)
    (13): Linear(in_features=1000, out_features=20, bias=True)
    (14): Linear(in_features=1000, out_features=20, bias=True)
    (15): Linear(in_features=1000, out_features=20, bias=True)
    (16): Linear(in_features=1000, out_features=20, bias=True)
    (17): Linear(in_features=1000, out_features=20, bias=True)
    (18): Linear(in_features=1000, out_features=20, bias=True)
    (19): Linear(in_features=1000, out_features=20, bias=True)
    (20): Linear(in_features=1000, out_features=20, bias=True)
    (21): Linear(in_features=1000, out_features=20, bias=True)
    (22): Linear(in_features=1000, out_features=20, bias=True)
    (23): Linear(in_features=1000, out_features=20, bias=True)
    (24): Linear(in_features=1000, out_features=20, bias=True)
    (25): Linear(in_features=1000, out_features=20, bias=True)
    (26): Linear(in_features=1000, out_features=20, bias=True)
    (27): Linear(in_features=1000, out_features=20, bias=True)
    (28): Linear(in_features=1000, out_features=20, bias=True)
    (29): Linear(in_features=1000, out_features=20, bias=True)
    (30): Linear(in_features=1000, out_features=20, bias=True)
    (31): Linear(in_features=1000, out_features=20, bias=True)
    (32): Linear(in_features=1000, out_features=20, bias=True)
    (33): Linear(in_features=1000, out_features=20, bias=True)
    (34): Linear(in_features=1000, out_features=20, bias=True)
    (35): Linear(in_features=1000, out_features=20, bias=True)
  )
)
======

************************************************************************************************************
Task 36
************************************************************************************************************
| Epoch   1, time=  4.8s | Train: skip eval | Valid: time=  0.2s loss=10.574, TAw acc=  1.3% | *
| Epoch   2, time=  4.7s | Train: skip eval | Valid: time=  0.2s loss=10.518, TAw acc=  1.3% | *
…
>>> Test on task 31 : loss=2.211 | TAw acc= 92.2%, forg=  1.0%| TAg acc= 43.1%, forg= -1.0% <<<
>>> Test on task 32 : loss=2.254 | TAw acc= 96.3%, forg=  0.0%| TAg acc= 30.6%, forg= 13.0% <<<
>>> Test on task 33 : loss=2.268 | TAw acc= 94.8%, forg=  0.9%| TAg acc= 34.8%, forg=  0.0% <<<
>>> Test on task 34 : loss=2.473 | TAw acc= 91.4%, forg= -0.9%| TAg acc= 14.7%, forg= 19.8% <<<
>>> Test on task 35 : loss=2.796 | TAw acc= 90.7%, forg=-10.2%| TAg acc= 17.6%, forg= 22.2% <<<
>>> Test on task 36 : loss=3.063 | TAw acc= 86.1%, forg=  0.0%| TAg acc= 32.4%, forg=  0.0% <<<
Save at k=10/eeil_wisdm_2/wisdm_flex_eeil
======
LLL_Net(
  (model): SimpleMLP(
    (fc1): Linear(in_features=91, out_features=1000, bias=True)
    (fc2): Sequential()
  )
  (heads): ModuleList(
    (0): Linear(in_features=1000, out_features=34, bias=True)
    (1): Linear(in_features=1000, out_features=20, bias=True)
    (2): Linear(in_features=1000, out_features=20, bias=True)
    (3): Linear(in_features=1000, out_features=20, bias=True)
    (4): Linear(in_features=1000, out_features=20, bias=True)
    (5): Linear(in_features=1000, out_features=20, bias=True)
    (6): Linear(in_features=1000, out_features=20, bias=True)
    (7): Linear(in_features=1000, out_features=20, bias=True)
    (8): Linear(in_features=1000, out_features=20, bias=True)
    (9): Linear(in_features=1000, out_features=20, bias=True)
    (10): Linear(in_features=1000, out_features=20, bias=True)
    (11): Linear(in_features=1000, out_features=20, bias=True)
    (12): Linear(in_features=1000, out_features=20, bias=True)
    (13): Linear(in_features=1000, out_features=20, bias=True)
    (14): Linear(in_features=1000, out_features=20, bias=True)
    (15): Linear(in_features=1000, out_features=20, bias=True)
    (16): Linear(in_features=1000, out_features=20, bias=True)
    (17): Linear(in_features=1000, out_features=20, bias=True)
    (18): Linear(in_features=1000, out_features=20, bias=True)
    (19): Linear(in_features=1000, out_features=20, bias=True)
    (20): Linear(in_features=1000, out_features=20, bias=True)
    (21): Linear(in_features=1000, out_features=20, bias=True)
    (22): Linear(in_features=1000, out_features=20, bias=True)
    (23): Linear(in_features=1000, out_features=20, bias=True)
    (24): Linear(in_features=1000, out_features=20, bias=True)
    (25): Linear(in_features=1000, out_features=20, bias=True)
    (26): Linear(in_features=1000, out_features=20, bias=True)
    (27): Linear(in_features=1000, out_features=20, bias=True)
    (28): Linear(in_features=1000, out_features=20, bias=True)
    (29): Linear(in_features=1000, out_features=20, bias=True)
    (30): Linear(in_features=1000, out_features=20, bias=True)
    (31): Linear(in_features=1000, out_features=20, bias=True)
    (32): Linear(in_features=1000, out_features=20, bias=True)
    (33): Linear(in_features=1000, out_features=20, bias=True)
    (34): Linear(in_features=1000, out_features=20, bias=True)
    (35): Linear(in_features=1000, out_features=20, bias=True)
    (36): Linear(in_features=1000, out_features=20, bias=True)
  )
)
======

************************************************************************************************************
Task 37
************************************************************************************************************
| Epoch   1, time=  4.9s | Train: skip eval | Valid: time=  0.2s loss=11.978, TAw acc=  0.0% | *
| Epoch   2, time=  4.9s | Train: skip eval | Valid: time=  0.2s loss=11.877, TAw acc=  0.0% | *
…
>>> Test on task 32 : loss=2.156 | TAw acc= 97.2%, forg= -0.9%| TAg acc= 38.9%, forg=  4.6% <<<
>>> Test on task 33 : loss=2.121 | TAw acc= 94.8%, forg=  0.9%| TAg acc= 44.3%, forg= -9.6% <<<
>>> Test on task 34 : loss=2.346 | TAw acc= 91.4%, forg=  0.0%| TAg acc= 23.3%, forg= 11.2% <<<
>>> Test on task 35 : loss=2.599 | TAw acc= 91.7%, forg= -0.9%| TAg acc= 21.3%, forg= 18.5% <<<
>>> Test on task 36 : loss=2.949 | TAw acc= 94.4%, forg= -8.3%| TAg acc=  6.5%, forg= 25.9% <<<
>>> Test on task 37 : loss=2.376 | TAw acc= 89.8%, forg=  0.0%| TAg acc= 38.9%, forg=  0.0% <<<
Save at k=10/eeil_wisdm_2/wisdm_flex_eeil
======
LLL_Net(
  (model): SimpleMLP(
    (fc1): Linear(in_features=91, out_features=1000, bias=True)
    (fc2): Sequential()
  )
  (heads): ModuleList(
    (0): Linear(in_features=1000, out_features=34, bias=True)
    (1): Linear(in_features=1000, out_features=20, bias=True)
    (2): Linear(in_features=1000, out_features=20, bias=True)
    (3): Linear(in_features=1000, out_features=20, bias=True)
    (4): Linear(in_features=1000, out_features=20, bias=True)
    (5): Linear(in_features=1000, out_features=20, bias=True)
    (6): Linear(in_features=1000, out_features=20, bias=True)
    (7): Linear(in_features=1000, out_features=20, bias=True)
    (8): Linear(in_features=1000, out_features=20, bias=True)
    (9): Linear(in_features=1000, out_features=20, bias=True)
    (10): Linear(in_features=1000, out_features=20, bias=True)
    (11): Linear(in_features=1000, out_features=20, bias=True)
    (12): Linear(in_features=1000, out_features=20, bias=True)
    (13): Linear(in_features=1000, out_features=20, bias=True)
    (14): Linear(in_features=1000, out_features=20, bias=True)
    (15): Linear(in_features=1000, out_features=20, bias=True)
    (16): Linear(in_features=1000, out_features=20, bias=True)
    (17): Linear(in_features=1000, out_features=20, bias=True)
    (18): Linear(in_features=1000, out_features=20, bias=True)
    (19): Linear(in_features=1000, out_features=20, bias=True)
    (20): Linear(in_features=1000, out_features=20, bias=True)
    (21): Linear(in_features=1000, out_features=20, bias=True)
    (22): Linear(in_features=1000, out_features=20, bias=True)
    (23): Linear(in_features=1000, out_features=20, bias=True)
    (24): Linear(in_features=1000, out_features=20, bias=True)
    (25): Linear(in_features=1000, out_features=20, bias=True)
    (26): Linear(in_features=1000, out_features=20, bias=True)
    (27): Linear(in_features=1000, out_features=20, bias=True)
    (28): Linear(in_features=1000, out_features=20, bias=True)
    (29): Linear(in_features=1000, out_features=20, bias=True)
    (30): Linear(in_features=1000, out_features=20, bias=True)
    (31): Linear(in_features=1000, out_features=20, bias=True)
    (32): Linear(in_features=1000, out_features=20, bias=True)
    (33): Linear(in_features=1000, out_features=20, bias=True)
    (34): Linear(in_features=1000, out_features=20, bias=True)
    (35): Linear(in_features=1000, out_features=20, bias=True)
    (36): Linear(in_features=1000, out_features=20, bias=True)
    (37): Linear(in_features=1000, out_features=20, bias=True)
  )
)
======

************************************************************************************************************
Task 38
************************************************************************************************************
| Epoch   1, time=  5.1s | Train: skip eval | Valid: time=  0.2s loss=12.104, TAw acc=  4.7% | *
| Epoch   2, time=  5.2s | Train: skip eval | Valid: time=  0.3s loss=12.011, TAw acc=  4.7% | *
…
>>> Test on task 33 : loss=2.055 | TAw acc= 94.8%, forg=  0.9%| TAg acc= 49.6%, forg= -5.2% <<<
>>> Test on task 34 : loss=2.219 | TAw acc= 88.8%, forg=  2.6%| TAg acc= 26.7%, forg=  7.8% <<<
>>> Test on task 35 : loss=2.459 | TAw acc= 91.7%, forg=  0.0%| TAg acc= 26.9%, forg= 13.0% <<<
>>> Test on task 36 : loss=2.682 | TAw acc= 95.4%, forg= -0.9%| TAg acc= 14.8%, forg= 17.6% <<<
>>> Test on task 37 : loss=2.525 | TAw acc= 98.1%, forg= -8.3%| TAg acc= 22.2%, forg= 16.7% <<<
>>> Test on task 38 : loss=2.462 | TAw acc= 89.4%, forg=  0.0%| TAg acc= 47.8%, forg=  0.0% <<<
Save at k=10/eeil_wisdm_2/wisdm_flex_eeil
======
LLL_Net(
  (model): SimpleMLP(
    (fc1): Linear(in_features=91, out_features=1000, bias=True)
    (fc2): Sequential()
  )
  (heads): ModuleList(
    (0): Linear(in_features=1000, out_features=34, bias=True)
    (1): Linear(in_features=1000, out_features=20, bias=True)
    (2): Linear(in_features=1000, out_features=20, bias=True)
    (3): Linear(in_features=1000, out_features=20, bias=True)
    (4): Linear(in_features=1000, out_features=20, bias=True)
    (5): Linear(in_features=1000, out_features=20, bias=True)
    (6): Linear(in_features=1000, out_features=20, bias=True)
    (7): Linear(in_features=1000, out_features=20, bias=True)
    (8): Linear(in_features=1000, out_features=20, bias=True)
    (9): Linear(in_features=1000, out_features=20, bias=True)
    (10): Linear(in_features=1000, out_features=20, bias=True)
    (11): Linear(in_features=1000, out_features=20, bias=True)
    (12): Linear(in_features=1000, out_features=20, bias=True)
    (13): Linear(in_features=1000, out_features=20, bias=True)
    (14): Linear(in_features=1000, out_features=20, bias=True)
    (15): Linear(in_features=1000, out_features=20, bias=True)
    (16): Linear(in_features=1000, out_features=20, bias=True)
    (17): Linear(in_features=1000, out_features=20, bias=True)
    (18): Linear(in_features=1000, out_features=20, bias=True)
    (19): Linear(in_features=1000, out_features=20, bias=True)
    (20): Linear(in_features=1000, out_features=20, bias=True)
    (21): Linear(in_features=1000, out_features=20, bias=True)
    (22): Linear(in_features=1000, out_features=20, bias=True)
    (23): Linear(in_features=1000, out_features=20, bias=True)
    (24): Linear(in_features=1000, out_features=20, bias=True)
    (25): Linear(in_features=1000, out_features=20, bias=True)
    (26): Linear(in_features=1000, out_features=20, bias=True)
    (27): Linear(in_features=1000, out_features=20, bias=True)
    (28): Linear(in_features=1000, out_features=20, bias=True)
    (29): Linear(in_features=1000, out_features=20, bias=True)
    (30): Linear(in_features=1000, out_features=20, bias=True)
    (31): Linear(in_features=1000, out_features=20, bias=True)
    (32): Linear(in_features=1000, out_features=20, bias=True)
    (33): Linear(in_features=1000, out_features=20, bias=True)
    (34): Linear(in_features=1000, out_features=20, bias=True)
    (35): Linear(in_features=1000, out_features=20, bias=True)
    (36): Linear(in_features=1000, out_features=20, bias=True)
    (37): Linear(in_features=1000, out_features=20, bias=True)
    (38): Linear(in_features=1000, out_features=20, bias=True)
  )
)
======

************************************************************************************************************
Task 39
************************************************************************************************************
| Epoch   1, time=  5.4s | Train: skip eval | Valid: time=  0.2s loss=12.044, TAw acc= 19.0% | *
| Epoch   2, time=  5.4s | Train: skip eval | Valid: time=  0.2s loss=11.894, TAw acc= 17.9% | *
…
>>> Test on task 34 : loss=2.098 | TAw acc= 89.7%, forg=  1.7%| TAg acc= 32.8%, forg=  1.7% <<<
>>> Test on task 35 : loss=2.354 | TAw acc= 90.7%, forg=  0.9%| TAg acc= 30.6%, forg=  9.3% <<<
>>> Test on task 36 : loss=2.473 | TAw acc= 95.4%, forg=  0.0%| TAg acc= 22.2%, forg= 10.2% <<<
>>> Test on task 37 : loss=2.331 | TAw acc= 98.1%, forg=  0.0%| TAg acc= 24.1%, forg= 14.8% <<<
>>> Test on task 38 : loss=2.824 | TAw acc= 92.0%, forg= -2.7%| TAg acc= 15.9%, forg= 31.9% <<<
>>> Test on task 39 : loss=2.539 | TAw acc= 85.8%, forg=  0.0%| TAg acc= 39.8%, forg=  0.0% <<<
Save at k=10/eeil_wisdm_2/wisdm_flex_eeil
======
LLL_Net(
  (model): SimpleMLP(
    (fc1): Linear(in_features=91, out_features=1000, bias=True)
    (fc2): Sequential()
  )
  (heads): ModuleList(
    (0): Linear(in_features=1000, out_features=34, bias=True)
    (1): Linear(in_features=1000, out_features=20, bias=True)
    (2): Linear(in_features=1000, out_features=20, bias=True)
    (3): Linear(in_features=1000, out_features=20, bias=True)
    (4): Linear(in_features=1000, out_features=20, bias=True)
    (5): Linear(in_features=1000, out_features=20, bias=True)
    (6): Linear(in_features=1000, out_features=20, bias=True)
    (7): Linear(in_features=1000, out_features=20, bias=True)
    (8): Linear(in_features=1000, out_features=20, bias=True)
    (9): Linear(in_features=1000, out_features=20, bias=True)
    (10): Linear(in_features=1000, out_features=20, bias=True)
    (11): Linear(in_features=1000, out_features=20, bias=True)
    (12): Linear(in_features=1000, out_features=20, bias=True)
    (13): Linear(in_features=1000, out_features=20, bias=True)
    (14): Linear(in_features=1000, out_features=20, bias=True)
    (15): Linear(in_features=1000, out_features=20, bias=True)
    (16): Linear(in_features=1000, out_features=20, bias=True)
    (17): Linear(in_features=1000, out_features=20, bias=True)
    (18): Linear(in_features=1000, out_features=20, bias=True)
    (19): Linear(in_features=1000, out_features=20, bias=True)
    (20): Linear(in_features=1000, out_features=20, bias=True)
    (21): Linear(in_features=1000, out_features=20, bias=True)
    (22): Linear(in_features=1000, out_features=20, bias=True)
    (23): Linear(in_features=1000, out_features=20, bias=True)
    (24): Linear(in_features=1000, out_features=20, bias=True)
    (25): Linear(in_features=1000, out_features=20, bias=True)
    (26): Linear(in_features=1000, out_features=20, bias=True)
    (27): Linear(in_features=1000, out_features=20, bias=True)
    (28): Linear(in_features=1000, out_features=20, bias=True)
    (29): Linear(in_features=1000, out_features=20, bias=True)
    (30): Linear(in_features=1000, out_features=20, bias=True)
    (31): Linear(in_features=1000, out_features=20, bias=True)
    (32): Linear(in_features=1000, out_features=20, bias=True)
    (33): Linear(in_features=1000, out_features=20, bias=True)
    (34): Linear(in_features=1000, out_features=20, bias=True)
    (35): Linear(in_features=1000, out_features=20, bias=True)
    (36): Linear(in_features=1000, out_features=20, bias=True)
    (37): Linear(in_features=1000, out_features=20, bias=True)
    (38): Linear(in_features=1000, out_features=20, bias=True)
    (39): Linear(in_features=1000, out_features=20, bias=True)
  )
)
======

************************************************************************************************************
Task 40
************************************************************************************************************
| Epoch   1, time=  5.6s | Train: skip eval | Valid: time=  0.2s loss=11.372, TAw acc=  9.5% | *
| Epoch   2, time=  5.5s | Train: skip eval | Valid: time=  0.2s loss=11.287, TAw acc= 13.1% | *
…
>>> Test on task 35 : loss=2.233 | TAw acc= 90.7%, forg=  0.9%| TAg acc= 36.1%, forg=  3.7% <<<
>>> Test on task 36 : loss=2.322 | TAw acc= 96.3%, forg= -0.9%| TAg acc= 30.6%, forg=  1.9% <<<
>>> Test on task 37 : loss=2.155 | TAw acc= 98.1%, forg=  0.0%| TAg acc= 29.6%, forg=  9.3% <<<
>>> Test on task 38 : loss=2.683 | TAw acc= 92.0%, forg=  0.0%| TAg acc= 21.2%, forg= 26.5% <<<
>>> Test on task 39 : loss=2.699 | TAw acc= 94.7%, forg= -8.8%| TAg acc= 19.5%, forg= 20.4% <<<
>>> Test on task 40 : loss=2.765 | TAw acc= 86.8%, forg=  0.0%| TAg acc= 44.7%, forg=  0.0% <<<
Save at k=10/eeil_wisdm_2/wisdm_flex_eeil
======
LLL_Net(
  (model): SimpleMLP(
    (fc1): Linear(in_features=91, out_features=1000, bias=True)
    (fc2): Sequential()
  )
  (heads): ModuleList(
    (0): Linear(in_features=1000, out_features=34, bias=True)
    (1): Linear(in_features=1000, out_features=20, bias=True)
    (2): Linear(in_features=1000, out_features=20, bias=True)
    (3): Linear(in_features=1000, out_features=20, bias=True)
    (4): Linear(in_features=1000, out_features=20, bias=True)
    (5): Linear(in_features=1000, out_features=20, bias=True)
    (6): Linear(in_features=1000, out_features=20, bias=True)
    (7): Linear(in_features=1000, out_features=20, bias=True)
    (8): Linear(in_features=1000, out_features=20, bias=True)
    (9): Linear(in_features=1000, out_features=20, bias=True)
    (10): Linear(in_features=1000, out_features=20, bias=True)
    (11): Linear(in_features=1000, out_features=20, bias=True)
    (12): Linear(in_features=1000, out_features=20, bias=True)
    (13): Linear(in_features=1000, out_features=20, bias=True)
    (14): Linear(in_features=1000, out_features=20, bias=True)
    (15): Linear(in_features=1000, out_features=20, bias=True)
    (16): Linear(in_features=1000, out_features=20, bias=True)
    (17): Linear(in_features=1000, out_features=20, bias=True)
    (18): Linear(in_features=1000, out_features=20, bias=True)
    (19): Linear(in_features=1000, out_features=20, bias=True)
    (20): Linear(in_features=1000, out_features=20, bias=True)
    (21): Linear(in_features=1000, out_features=20, bias=True)
    (22): Linear(in_features=1000, out_features=20, bias=True)
    (23): Linear(in_features=1000, out_features=20, bias=True)
    (24): Linear(in_features=1000, out_features=20, bias=True)
    (25): Linear(in_features=1000, out_features=20, bias=True)
    (26): Linear(in_features=1000, out_features=20, bias=True)
    (27): Linear(in_features=1000, out_features=20, bias=True)
    (28): Linear(in_features=1000, out_features=20, bias=True)
    (29): Linear(in_features=1000, out_features=20, bias=True)
    (30): Linear(in_features=1000, out_features=20, bias=True)
    (31): Linear(in_features=1000, out_features=20, bias=True)
    (32): Linear(in_features=1000, out_features=20, bias=True)
    (33): Linear(in_features=1000, out_features=20, bias=True)
    (34): Linear(in_features=1000, out_features=20, bias=True)
    (35): Linear(in_features=1000, out_features=20, bias=True)
    (36): Linear(in_features=1000, out_features=20, bias=True)
    (37): Linear(in_features=1000, out_features=20, bias=True)
    (38): Linear(in_features=1000, out_features=20, bias=True)
    (39): Linear(in_features=1000, out_features=20, bias=True)
    (40): Linear(in_features=1000, out_features=20, bias=True)
  )
)
======

************************************************************************************************************
Task 41
************************************************************************************************************
| Epoch   1, time=  5.8s | Train: skip eval | Valid: time=  0.2s loss=10.953, TAw acc=  2.8% | *
| Epoch   2, time=  5.5s | Train: skip eval | Valid: time=  0.2s loss=10.893, TAw acc=  2.8% | *
…
>>> Test on task 36 : loss=2.194 | TAw acc= 96.3%, forg=  0.0%| TAg acc= 37.0%, forg= -4.6% <<<
>>> Test on task 37 : loss=2.035 | TAw acc= 98.1%, forg=  0.0%| TAg acc= 37.0%, forg=  1.9% <<<
>>> Test on task 38 : loss=2.654 | TAw acc= 92.0%, forg=  0.0%| TAg acc= 25.7%, forg= 22.1% <<<
>>> Test on task 39 : loss=2.495 | TAw acc= 94.7%, forg=  0.0%| TAg acc= 21.2%, forg= 18.6% <<<
>>> Test on task 40 : loss=2.580 | TAw acc= 96.5%, forg= -9.6%| TAg acc= 28.1%, forg= 16.7% <<<
>>> Test on task 41 : loss=2.783 | TAw acc= 79.8%, forg=  0.0%| TAg acc= 39.4%, forg=  0.0% <<<
Save at k=10/eeil_wisdm_2/wisdm_flex_eeil
======
LLL_Net(
  (model): SimpleMLP(
    (fc1): Linear(in_features=91, out_features=1000, bias=True)
    (fc2): Sequential()
  )
  (heads): ModuleList(
    (0): Linear(in_features=1000, out_features=34, bias=True)
    (1): Linear(in_features=1000, out_features=20, bias=True)
    (2): Linear(in_features=1000, out_features=20, bias=True)
    (3): Linear(in_features=1000, out_features=20, bias=True)
    (4): Linear(in_features=1000, out_features=20, bias=True)
    (5): Linear(in_features=1000, out_features=20, bias=True)
    (6): Linear(in_features=1000, out_features=20, bias=True)
    (7): Linear(in_features=1000, out_features=20, bias=True)
    (8): Linear(in_features=1000, out_features=20, bias=True)
    (9): Linear(in_features=1000, out_features=20, bias=True)
    (10): Linear(in_features=1000, out_features=20, bias=True)
    (11): Linear(in_features=1000, out_features=20, bias=True)
    (12): Linear(in_features=1000, out_features=20, bias=True)
    (13): Linear(in_features=1000, out_features=20, bias=True)
    (14): Linear(in_features=1000, out_features=20, bias=True)
    (15): Linear(in_features=1000, out_features=20, bias=True)
    (16): Linear(in_features=1000, out_features=20, bias=True)
    (17): Linear(in_features=1000, out_features=20, bias=True)
    (18): Linear(in_features=1000, out_features=20, bias=True)
    (19): Linear(in_features=1000, out_features=20, bias=True)
    (20): Linear(in_features=1000, out_features=20, bias=True)
    (21): Linear(in_features=1000, out_features=20, bias=True)
    (22): Linear(in_features=1000, out_features=20, bias=True)
    (23): Linear(in_features=1000, out_features=20, bias=True)
    (24): Linear(in_features=1000, out_features=20, bias=True)
    (25): Linear(in_features=1000, out_features=20, bias=True)
    (26): Linear(in_features=1000, out_features=20, bias=True)
    (27): Linear(in_features=1000, out_features=20, bias=True)
    (28): Linear(in_features=1000, out_features=20, bias=True)
    (29): Linear(in_features=1000, out_features=20, bias=True)
    (30): Linear(in_features=1000, out_features=20, bias=True)
    (31): Linear(in_features=1000, out_features=20, bias=True)
    (32): Linear(in_features=1000, out_features=20, bias=True)
    (33): Linear(in_features=1000, out_features=20, bias=True)
    (34): Linear(in_features=1000, out_features=20, bias=True)
    (35): Linear(in_features=1000, out_features=20, bias=True)
    (36): Linear(in_features=1000, out_features=20, bias=True)
    (37): Linear(in_features=1000, out_features=20, bias=True)
    (38): Linear(in_features=1000, out_features=20, bias=True)
    (39): Linear(in_features=1000, out_features=20, bias=True)
    (40): Linear(in_features=1000, out_features=20, bias=True)
    (41): Linear(in_features=1000, out_features=20, bias=True)
  )
)
======

************************************************************************************************************
Task 42
************************************************************************************************************
| Epoch   1, time=  6.1s | Train: skip eval | Valid: time=  0.2s loss=12.148, TAw acc= 10.2% | *
| Epoch   2, time=  6.0s | Train: skip eval | Valid: time=  0.3s loss=12.044, TAw acc= 10.2% | *
…
>>> Test on task 37 : loss=1.924 | TAw acc= 98.1%, forg=  0.0%| TAg acc= 48.1%, forg= -9.3% <<<
>>> Test on task 38 : loss=2.568 | TAw acc= 92.0%, forg=  0.0%| TAg acc= 30.1%, forg= 17.7% <<<
>>> Test on task 39 : loss=2.404 | TAw acc= 94.7%, forg=  0.0%| TAg acc= 23.9%, forg= 15.9% <<<
>>> Test on task 40 : loss=2.279 | TAw acc= 99.1%, forg= -2.6%| TAg acc= 29.8%, forg= 14.9% <<<
>>> Test on task 41 : loss=2.747 | TAw acc= 97.0%, forg=-17.2%| TAg acc= 18.2%, forg= 21.2% <<<
>>> Test on task 42 : loss=2.465 | TAw acc= 80.3%, forg=  0.0%| TAg acc= 41.0%, forg=  0.0% <<<
Save at k=10/eeil_wisdm_2/wisdm_flex_eeil
======
LLL_Net(
  (model): SimpleMLP(
    (fc1): Linear(in_features=91, out_features=1000, bias=True)
    (fc2): Sequential()
  )
  (heads): ModuleList(
    (0): Linear(in_features=1000, out_features=34, bias=True)
    (1): Linear(in_features=1000, out_features=20, bias=True)
    (2): Linear(in_features=1000, out_features=20, bias=True)
    (3): Linear(in_features=1000, out_features=20, bias=True)
    (4): Linear(in_features=1000, out_features=20, bias=True)
    (5): Linear(in_features=1000, out_features=20, bias=True)
    (6): Linear(in_features=1000, out_features=20, bias=True)
    (7): Linear(in_features=1000, out_features=20, bias=True)
    (8): Linear(in_features=1000, out_features=20, bias=True)
    (9): Linear(in_features=1000, out_features=20, bias=True)
    (10): Linear(in_features=1000, out_features=20, bias=True)
    (11): Linear(in_features=1000, out_features=20, bias=True)
    (12): Linear(in_features=1000, out_features=20, bias=True)
    (13): Linear(in_features=1000, out_features=20, bias=True)
    (14): Linear(in_features=1000, out_features=20, bias=True)
    (15): Linear(in_features=1000, out_features=20, bias=True)
    (16): Linear(in_features=1000, out_features=20, bias=True)
    (17): Linear(in_features=1000, out_features=20, bias=True)
    (18): Linear(in_features=1000, out_features=20, bias=True)
    (19): Linear(in_features=1000, out_features=20, bias=True)
    (20): Linear(in_features=1000, out_features=20, bias=True)
    (21): Linear(in_features=1000, out_features=20, bias=True)
    (22): Linear(in_features=1000, out_features=20, bias=True)
    (23): Linear(in_features=1000, out_features=20, bias=True)
    (24): Linear(in_features=1000, out_features=20, bias=True)
    (25): Linear(in_features=1000, out_features=20, bias=True)
    (26): Linear(in_features=1000, out_features=20, bias=True)
    (27): Linear(in_features=1000, out_features=20, bias=True)
    (28): Linear(in_features=1000, out_features=20, bias=True)
    (29): Linear(in_features=1000, out_features=20, bias=True)
    (30): Linear(in_features=1000, out_features=20, bias=True)
    (31): Linear(in_features=1000, out_features=20, bias=True)
    (32): Linear(in_features=1000, out_features=20, bias=True)
    (33): Linear(in_features=1000, out_features=20, bias=True)
    (34): Linear(in_features=1000, out_features=20, bias=True)
    (35): Linear(in_features=1000, out_features=20, bias=True)
    (36): Linear(in_features=1000, out_features=20, bias=True)
    (37): Linear(in_features=1000, out_features=20, bias=True)
    (38): Linear(in_features=1000, out_features=20, bias=True)
    (39): Linear(in_features=1000, out_features=20, bias=True)
    (40): Linear(in_features=1000, out_features=20, bias=True)
    (41): Linear(in_features=1000, out_features=20, bias=True)
    (42): Linear(in_features=1000, out_features=20, bias=True)
  )
)
======

************************************************************************************************************
Task 43
************************************************************************************************************
| Epoch   1, time=  6.2s | Train: skip eval | Valid: time=  0.2s loss=13.451, TAw acc=  6.8% | *
| Epoch   2, time=  6.2s | Train: skip eval | Valid: time=  0.2s loss=13.307, TAw acc=  6.8% | *
…
