…
| Selected 1441 train exemplars, time=  1.1s
1441
------------------------------------------------------------------------------------------------------------
>>> Test on task  0 : loss=0.411 | TAw acc= 98.6%, forg=  0.0%| TAg acc= 93.8%, forg=  4.9% <<<
>>> Test on task  1 : loss=3.492 | TAw acc= 96.7%, forg=  0.0%| TAg acc= 90.8%, forg=  5.0% <<<
>>> Test on task  2 : loss=6.611 | TAw acc= 90.0%, forg=  0.0%| TAg acc= 80.8%, forg=  0.8% <<<
>>> Test on task  3 : loss=9.015 | TAw acc= 96.7%, forg=  0.0%| TAg acc= 73.3%, forg=  0.0% <<<
Save at k=100/icarl_dsads_1/har_flex_icarl
======
LLL_Net(
  (model): SimpleMLP(
    (fc1): Linear(in_features=405, out_features=66, bias=True)
    (fc2): Sequential()
  )
  (heads): ModuleList(
    (0): Linear(in_features=66, out_features=12, bias=True)
    (1): Linear(in_features=66, out_features=10, bias=True)
    (2): Linear(in_features=66, out_features=10, bias=True)
    (3): Linear(in_features=66, out_features=10, bias=True)
  )
)
======

************************************************************************************************************
Task  4
************************************************************************************************************
| Epoch   1, time=  0.8s | Train: skip eval | Valid: time=  0.1s loss=15.850, TAw acc= 38.5% | *
| Epoch   2, time=  0.8s | Train: skip eval | Valid: time=  0.1s loss=14.047, TAw acc= 55.2% | *
…
------------------------------------------------------------------------------------------------------------
>>> Test on task  0 : loss=0.412 | TAw acc= 98.6%, forg=  0.0%| TAg acc= 93.8%, forg=  4.9% <<<
>>> Test on task  1 : loss=3.373 | TAw acc= 96.7%, forg=  0.0%| TAg acc= 90.0%, forg=  5.8% <<<
>>> Test on task  2 : loss=6.334 | TAw acc= 90.0%, forg=  0.0%| TAg acc= 79.2%, forg=  2.5% <<<
>>> Test on task  3 : loss=8.666 | TAw acc= 96.7%, forg=  0.0%| TAg acc= 69.2%, forg=  4.2% <<<
>>> Test on task  4 : loss=12.053 | TAw acc=100.0%, forg=  0.0%| TAg acc= 90.0%, forg=  0.0% <<<
Save at k=100/icarl_dsads_1/har_flex_icarl
======
LLL_Net(
  (model): SimpleMLP(
    (fc1): Linear(in_features=405, out_features=66, bias=True)
    (fc2): Sequential()
  )
  (heads): ModuleList(
    (0): Linear(in_features=66, out_features=12, bias=True)
    (1): Linear(in_features=66, out_features=10, bias=True)
    (2): Linear(in_features=66, out_features=10, bias=True)
    (3): Linear(in_features=66, out_features=10, bias=True)
    (4): Linear(in_features=66, out_features=10, bias=True)
  )
)
======

************************************************************************************************************
Task  5
************************************************************************************************************
| Epoch   1, time=  1.1s | Train: skip eval | Valid: time=  0.1s loss=17.594, TAw acc= 31.2% | *
| Epoch   2, time=  1.1s | Train: skip eval | Valid: time=  0.1s loss=15.419, TAw acc= 54.2% | *
…
>>> Test on task  0 : loss=0.424 | TAw acc= 98.6%, forg=  0.0%| TAg acc= 93.8%, forg=  4.9% <<<
>>> Test on task  1 : loss=3.380 | TAw acc= 96.7%, forg=  0.0%| TAg acc= 90.0%, forg=  5.8% <<<
>>> Test on task  2 : loss=6.266 | TAw acc= 90.0%, forg=  0.0%| TAg acc= 76.7%, forg=  5.0% <<<
>>> Test on task  3 : loss=8.602 | TAw acc= 96.7%, forg=  0.0%| TAg acc= 67.5%, forg=  5.8% <<<
>>> Test on task  4 : loss=11.907 | TAw acc=100.0%, forg=  0.0%| TAg acc= 89.2%, forg=  0.8% <<<
>>> Test on task  5 : loss=13.349 | TAw acc= 95.0%, forg=  0.0%| TAg acc= 78.3%, forg=  0.0% <<<
Save at k=100/icarl_dsads_1/har_flex_icarl
======
LLL_Net(
  (model): SimpleMLP(
    (fc1): Linear(in_features=405, out_features=66, bias=True)
    (fc2): Sequential()
  )
  (heads): ModuleList(
    (0): Linear(in_features=66, out_features=12, bias=True)
    (1): Linear(in_features=66, out_features=10, bias=True)
    (2): Linear(in_features=66, out_features=10, bias=True)
    (3): Linear(in_features=66, out_features=10, bias=True)
    (4): Linear(in_features=66, out_features=10, bias=True)
    (5): Linear(in_features=66, out_features=10, bias=True)
  )
)
======

************************************************************************************************************
Task  6
************************************************************************************************************
| Epoch   1, time=  1.4s | Train: skip eval | Valid: time=  0.1s loss=19.235, TAw acc= 35.4% | *
| Epoch   2, time=  1.5s | Train: skip eval | Valid: time=  0.1s loss=16.365, TAw acc= 77.1% | *
…
>>> Test on task  1 : loss=3.260 | TAw acc= 96.7%, forg=  0.0%| TAg acc= 89.2%, forg=  6.7% <<<
>>> Test on task  2 : loss=6.041 | TAw acc= 90.0%, forg=  0.0%| TAg acc= 75.0%, forg=  6.7% <<<
>>> Test on task  3 : loss=8.286 | TAw acc= 96.7%, forg=  0.0%| TAg acc= 67.5%, forg=  5.8% <<<
>>> Test on task  4 : loss=11.536 | TAw acc=100.0%, forg=  0.0%| TAg acc= 89.2%, forg=  0.8% <<<
>>> Test on task  5 : loss=12.832 | TAw acc= 95.0%, forg=  0.0%| TAg acc= 75.8%, forg=  2.5% <<<
>>> Test on task  6 : loss=13.734 | TAw acc= 98.3%, forg=  0.0%| TAg acc= 93.3%, forg=  0.0% <<<
Save at k=100/icarl_dsads_1/har_flex_icarl
======
LLL_Net(
  (model): SimpleMLP(
    (fc1): Linear(in_features=405, out_features=66, bias=True)
    (fc2): Sequential()
  )
  (heads): ModuleList(
    (0): Linear(in_features=66, out_features=12, bias=True)
    (1): Linear(in_features=66, out_features=10, bias=True)
    (2): Linear(in_features=66, out_features=10, bias=True)
    (3): Linear(in_features=66, out_features=10, bias=True)
    (4): Linear(in_features=66, out_features=10, bias=True)
    (5): Linear(in_features=66, out_features=10, bias=True)
    (6): Linear(in_features=66, out_features=10, bias=True)
  )
)
======

************************************************************************************************************
Task  7
************************************************************************************************************
| Epoch   1, time=  1.8s | Train: skip eval | Valid: time=  0.1s loss=21.946, TAw acc= 20.8% | *
| Epoch   2, time=  1.7s | Train: skip eval | Valid: time=  0.1s loss=19.235, TAw acc= 39.6% | *
…
>>> Test on task  2 : loss=5.856 | TAw acc= 90.0%, forg=  0.0%| TAg acc= 75.0%, forg=  6.7% <<<
>>> Test on task  3 : loss=8.071 | TAw acc= 96.7%, forg=  0.0%| TAg acc= 66.7%, forg=  6.7% <<<
>>> Test on task  4 : loss=11.167 | TAw acc=100.0%, forg=  0.0%| TAg acc= 89.2%, forg=  0.8% <<<
>>> Test on task  5 : loss=12.376 | TAw acc= 95.0%, forg=  0.0%| TAg acc= 73.3%, forg=  5.0% <<<
>>> Test on task  6 : loss=13.333 | TAw acc= 98.3%, forg=  0.0%| TAg acc= 92.5%, forg=  0.8% <<<
>>> Test on task  7 : loss=16.307 | TAw acc= 98.3%, forg=  0.0%| TAg acc= 75.0%, forg=  0.0% <<<
Save at k=100/icarl_dsads_1/har_flex_icarl
======
LLL_Net(
  (model): SimpleMLP(
    (fc1): Linear(in_features=405, out_features=66, bias=True)
    (fc2): Sequential()
  )
  (heads): ModuleList(
    (0): Linear(in_features=66, out_features=12, bias=True)
    (1): Linear(in_features=66, out_features=10, bias=True)
    (2): Linear(in_features=66, out_features=10, bias=True)
    (3): Linear(in_features=66, out_features=10, bias=True)
    (4): Linear(in_features=66, out_features=10, bias=True)
    (5): Linear(in_features=66, out_features=10, bias=True)
    (6): Linear(in_features=66, out_features=10, bias=True)
    (7): Linear(in_features=66, out_features=10, bias=True)
  )
)
======

************************************************************************************************************
Task  8
************************************************************************************************************
| Epoch   1, time=  2.3s | Train: skip eval | Valid: time=  0.1s loss=24.365, TAw acc= 34.4% | *
| Epoch   2, time=  2.3s | Train: skip eval | Valid: time=  0.1s loss=19.933, TAw acc= 44.8% | *
…
>>> Test on task  3 : loss=7.925 | TAw acc= 96.7%, forg=  0.0%| TAg acc= 65.0%, forg=  8.3% <<<
>>> Test on task  4 : loss=10.895 | TAw acc=100.0%, forg=  0.0%| TAg acc= 89.2%, forg=  0.8% <<<
>>> Test on task  5 : loss=12.099 | TAw acc= 95.0%, forg=  0.0%| TAg acc= 71.7%, forg=  6.7% <<<
>>> Test on task  6 : loss=12.963 | TAw acc= 98.3%, forg=  0.0%| TAg acc= 92.5%, forg=  0.8% <<<
>>> Test on task  7 : loss=15.856 | TAw acc= 98.3%, forg=  0.0%| TAg acc= 75.0%, forg=  0.0% <<<
>>> Test on task  8 : loss=17.493 | TAw acc= 84.2%, forg=  0.0%| TAg acc= 70.8%, forg=  0.0% <<<
Save at k=100/icarl_dsads_1/har_flex_icarl
======
LLL_Net(
  (model): SimpleMLP(
    (fc1): Linear(in_features=405, out_features=66, bias=True)
    (fc2): Sequential()
  )
  (heads): ModuleList(
    (0): Linear(in_features=66, out_features=12, bias=True)
    (1): Linear(in_features=66, out_features=10, bias=True)
    (2): Linear(in_features=66, out_features=10, bias=True)
    (3): Linear(in_features=66, out_features=10, bias=True)
    (4): Linear(in_features=66, out_features=10, bias=True)
    (5): Linear(in_features=66, out_features=10, bias=True)
    (6): Linear(in_features=66, out_features=10, bias=True)
    (7): Linear(in_features=66, out_features=10, bias=True)
    (8): Linear(in_features=66, out_features=10, bias=True)
  )
)
======

************************************************************************************************************
Task  9
************************************************************************************************************
| Epoch   1, time=  2.7s | Train: skip eval | Valid: time=  0.1s loss=23.683, TAw acc= 16.7% | *
| Epoch   2, time=  2.6s | Train: skip eval | Valid: time=  0.1s loss=20.982, TAw acc= 68.8% | *
…
>>> Test on task  4 : loss=10.675 | TAw acc=100.0%, forg=  0.0%| TAg acc= 89.2%, forg=  0.8% <<<
>>> Test on task  5 : loss=11.715 | TAw acc= 95.0%, forg=  0.0%| TAg acc= 71.7%, forg=  6.7% <<<
>>> Test on task  6 : loss=12.663 | TAw acc= 98.3%, forg=  0.0%| TAg acc= 91.7%, forg=  1.7% <<<
>>> Test on task  7 : loss=15.416 | TAw acc= 98.3%, forg=  0.0%| TAg acc= 75.0%, forg=  0.0% <<<
>>> Test on task  8 : loss=17.185 | TAw acc= 84.2%, forg=  0.0%| TAg acc= 70.0%, forg=  0.8% <<<
>>> Test on task  9 : loss=18.392 | TAw acc= 95.0%, forg=  0.0%| TAg acc= 80.0%, forg=  0.0% <<<
Save at k=100/icarl_dsads_1/har_flex_icarl
======
LLL_Net(
  (model): SimpleMLP(
    (fc1): Linear(in_features=405, out_features=66, bias=True)
    (fc2): Sequential()
  )
  (heads): ModuleList(
    (0): Linear(in_features=66, out_features=12, bias=True)
    (1): Linear(in_features=66, out_features=10, bias=True)
    (2): Linear(in_features=66, out_features=10, bias=True)
    (3): Linear(in_features=66, out_features=10, bias=True)
    (4): Linear(in_features=66, out_features=10, bias=True)
    (5): Linear(in_features=66, out_features=10, bias=True)
    (6): Linear(in_features=66, out_features=10, bias=True)
    (7): Linear(in_features=66, out_features=10, bias=True)
    (8): Linear(in_features=66, out_features=10, bias=True)
    (9): Linear(in_features=66, out_features=10, bias=True)
  )
)
======

************************************************************************************************************
Task 10
************************************************************************************************************
| Epoch   1, time=  3.3s | Train: skip eval | Valid: time=  0.1s loss=26.485, TAw acc= 37.5% | *
| Epoch   2, time=  3.3s | Train: skip eval | Valid: time=  0.1s loss=23.802, TAw acc= 70.8% | *
…
>>> Test on task  5 : loss=11.427 | TAw acc= 95.0%, forg=  0.0%| TAg acc= 71.7%, forg=  6.7% <<<
>>> Test on task  6 : loss=12.418 | TAw acc= 98.3%, forg=  0.0%| TAg acc= 90.8%, forg=  2.5% <<<
>>> Test on task  7 : loss=15.074 | TAw acc= 98.3%, forg=  0.0%| TAg acc= 75.0%, forg=  0.0% <<<
>>> Test on task  8 : loss=16.876 | TAw acc= 84.2%, forg=  0.0%| TAg acc= 70.0%, forg=  0.8% <<<
>>> Test on task  9 : loss=18.036 | TAw acc= 95.0%, forg=  0.0%| TAg acc= 80.0%, forg=  0.0% <<<
>>> Test on task 10 : loss=21.326 | TAw acc=100.0%, forg=  0.0%| TAg acc= 85.8%, forg=  0.0% <<<
Save at k=100/icarl_dsads_1/har_flex_icarl
======
LLL_Net(
  (model): SimpleMLP(
    (fc1): Linear(in_features=405, out_features=66, bias=True)
    (fc2): Sequential()
  )
  (heads): ModuleList(
    (0): Linear(in_features=66, out_features=12, bias=True)
    (1): Linear(in_features=66, out_features=10, bias=True)
    (2): Linear(in_features=66, out_features=10, bias=True)
    (3): Linear(in_features=66, out_features=10, bias=True)
    (4): Linear(in_features=66, out_features=10, bias=True)
    (5): Linear(in_features=66, out_features=10, bias=True)
    (6): Linear(in_features=66, out_features=10, bias=True)
    (7): Linear(in_features=66, out_features=10, bias=True)
    (8): Linear(in_features=66, out_features=10, bias=True)
    (9): Linear(in_features=66, out_features=10, bias=True)
    (10): Linear(in_features=66, out_features=10, bias=True)
  )
)
======

************************************************************************************************************
Task 11
************************************************************************************************************
| Epoch   1, time=  3.8s | Train: skip eval | Valid: time=  0.2s loss=25.835, TAw acc= 38.5% | *
| Epoch   2, time=  3.7s | Train: skip eval | Valid: time=  0.2s loss=22.072, TAw acc= 67.7% | *
…
>>> Test on task  6 : loss=12.268 | TAw acc= 98.3%, forg=  0.0%| TAg acc= 88.3%, forg=  5.0% <<<
>>> Test on task  7 : loss=14.717 | TAw acc= 98.3%, forg=  0.0%| TAg acc= 75.0%, forg=  0.0% <<<
>>> Test on task  8 : loss=16.544 | TAw acc= 84.2%, forg=  0.0%| TAg acc= 70.0%, forg=  0.8% <<<
>>> Test on task  9 : loss=17.776 | TAw acc= 95.0%, forg=  0.0%| TAg acc= 78.3%, forg=  1.7% <<<
>>> Test on task 10 : loss=20.894 | TAw acc=100.0%, forg=  0.0%| TAg acc= 85.8%, forg=  0.0% <<<
>>> Test on task 11 : loss=19.532 | TAw acc= 96.7%, forg=  0.0%| TAg acc= 85.8%, forg=  0.0% <<<
Save at k=100/icarl_dsads_1/har_flex_icarl
======
LLL_Net(
  (model): SimpleMLP(
    (fc1): Linear(in_features=405, out_features=66, bias=True)
    (fc2): Sequential()
  )
  (heads): ModuleList(
    (0): Linear(in_features=66, out_features=12, bias=True)
    (1): Linear(in_features=66, out_features=10, bias=True)
    (2): Linear(in_features=66, out_features=10, bias=True)
    (3): Linear(in_features=66, out_features=10, bias=True)
    (4): Linear(in_features=66, out_features=10, bias=True)
    (5): Linear(in_features=66, out_features=10, bias=True)
    (6): Linear(in_features=66, out_features=10, bias=True)
    (7): Linear(in_features=66, out_features=10, bias=True)
    (8): Linear(in_features=66, out_features=10, bias=True)
    (9): Linear(in_features=66, out_features=10, bias=True)
    (10): Linear(in_features=66, out_features=10, bias=True)
    (11): Linear(in_features=66, out_features=10, bias=True)
  )
)
======

************************************************************************************************************
Task 12
************************************************************************************************************
| Epoch   1, time=  4.5s | Train: skip eval | Valid: time=  0.2s loss=26.343, TAw acc= 27.1% | *
| Epoch   2, time=  4.1s | Train: skip eval | Valid: time=  0.1s loss=20.716, TAw acc= 80.2% | *
…
>>> Test on task  7 : loss=14.337 | TAw acc= 98.3%, forg=  0.0%| TAg acc= 73.3%, forg=  1.7% <<<
>>> Test on task  8 : loss=16.260 | TAw acc= 84.2%, forg=  0.0%| TAg acc= 68.3%, forg=  2.5% <<<
>>> Test on task  9 : loss=17.311 | TAw acc= 95.0%, forg=  0.0%| TAg acc= 78.3%, forg=  1.7% <<<
>>> Test on task 10 : loss=20.376 | TAw acc=100.0%, forg=  0.0%| TAg acc= 85.8%, forg=  0.0% <<<
>>> Test on task 11 : loss=19.083 | TAw acc= 96.7%, forg=  0.0%| TAg acc= 85.8%, forg=  0.0% <<<
>>> Test on task 12 : loss=18.290 | TAw acc= 98.3%, forg=  0.0%| TAg acc= 83.3%, forg=  0.0% <<<
Save at k=100/icarl_dsads_1/har_flex_icarl
======
LLL_Net(
  (model): SimpleMLP(
    (fc1): Linear(in_features=405, out_features=66, bias=True)
    (fc2): Sequential()
  )
  (heads): ModuleList(
    (0): Linear(in_features=66, out_features=12, bias=True)
    (1): Linear(in_features=66, out_features=10, bias=True)
    (2): Linear(in_features=66, out_features=10, bias=True)
    (3): Linear(in_features=66, out_features=10, bias=True)
    (4): Linear(in_features=66, out_features=10, bias=True)
    (5): Linear(in_features=66, out_features=10, bias=True)
    (6): Linear(in_features=66, out_features=10, bias=True)
    (7): Linear(in_features=66, out_features=10, bias=True)
    (8): Linear(in_features=66, out_features=10, bias=True)
    (9): Linear(in_features=66, out_features=10, bias=True)
    (10): Linear(in_features=66, out_features=10, bias=True)
    (11): Linear(in_features=66, out_features=10, bias=True)
    (12): Linear(in_features=66, out_features=10, bias=True)
  )
)
======

************************************************************************************************************
Task 13
************************************************************************************************************
| Epoch   1, time=  5.0s | Train: skip eval | Valid: time=  0.2s loss=26.730, TAw acc= 24.0% | *
| Epoch   2, time=  4.7s | Train: skip eval | Valid: time=  0.1s loss=21.632, TAw acc= 63.5% | *
…
>>> Test on task  8 : loss=16.032 | TAw acc= 84.2%, forg=  0.0%| TAg acc= 65.8%, forg=  5.0% <<<
>>> Test on task  9 : loss=17.011 | TAw acc= 95.0%, forg=  0.0%| TAg acc= 77.5%, forg=  2.5% <<<
>>> Test on task 10 : loss=19.987 | TAw acc=100.0%, forg=  0.0%| TAg acc= 85.8%, forg=  0.0% <<<
>>> Test on task 11 : loss=18.690 | TAw acc= 96.7%, forg=  0.0%| TAg acc= 85.8%, forg=  0.0% <<<
>>> Test on task 12 : loss=18.043 | TAw acc= 98.3%, forg=  0.0%| TAg acc= 82.5%, forg=  0.8% <<<
>>> Test on task 13 : loss=20.089 | TAw acc= 99.2%, forg=  0.0%| TAg acc= 80.8%, forg=  0.0% <<<
Save at k=100/icarl_dsads_1/har_flex_icarl
======
LLL_Net(
  (model): SimpleMLP(
    (fc1): Linear(in_features=405, out_features=66, bias=True)
    (fc2): Sequential()
  )
  (heads): ModuleList(
    (0): Linear(in_features=66, out_features=12, bias=True)
    (1): Linear(in_features=66, out_features=10, bias=True)
    (2): Linear(in_features=66, out_features=10, bias=True)
    (3): Linear(in_features=66, out_features=10, bias=True)
    (4): Linear(in_features=66, out_features=10, bias=True)
    (5): Linear(in_features=66, out_features=10, bias=True)
    (6): Linear(in_features=66, out_features=10, bias=True)
    (7): Linear(in_features=66, out_features=10, bias=True)
    (8): Linear(in_features=66, out_features=10, bias=True)
    (9): Linear(in_features=66, out_features=10, bias=True)
    (10): Linear(in_features=66, out_features=10, bias=True)
    (11): Linear(in_features=66, out_features=10, bias=True)
    (12): Linear(in_features=66, out_features=10, bias=True)
    (13): Linear(in_features=66, out_features=10, bias=True)
  )
)
======

************************************************************************************************************
Task 14
************************************************************************************************************
| Epoch   1, time=  5.7s | Train: skip eval | Valid: time=  0.2s loss=28.803, TAw acc= 46.9% | *
| Epoch   2, time=  5.7s | Train: skip eval | Valid: time=  0.1s loss=24.348, TAw acc= 59.4% | *
…
