…
| Selected 420 train exemplars, time=  0.3s
420
------------------------------------------------------------------------------------------------------------
>>> Test on task  0 : loss=0.782 | TAw acc= 84.7%, forg=  0.0%| TAg acc= 80.6%, forg=  4.2% <<<
>>> Test on task  1 : loss=3.944 | TAw acc= 98.3%, forg=  0.0%| TAg acc= 89.2%, forg=  9.2% <<<
>>> Test on task  2 : loss=5.698 | TAw acc= 92.5%, forg=  0.0%| TAg acc= 79.2%, forg=  3.3% <<<
>>> Test on task  3 : loss=8.227 | TAw acc= 93.3%, forg=  0.0%| TAg acc= 75.0%, forg=  0.0% <<<
Save at k=10/icarl_dsads_1/har_flex_icarl
======
LLL_Net(
  (model): SimpleMLP(
    (fc1): Linear(in_features=405, out_features=66, bias=True)
    (fc2): Sequential()
  )
  (heads): ModuleList(
    (0): Linear(in_features=66, out_features=12, bias=True)
    (1): Linear(in_features=66, out_features=10, bias=True)
    (2): Linear(in_features=66, out_features=10, bias=True)
    (3): Linear(in_features=66, out_features=10, bias=True)
  )
)
======

************************************************************************************************************
Task  4
************************************************************************************************************
| Epoch   1, time=  0.4s | Train: skip eval | Valid: time=  0.2s loss=14.616, TAw acc= 37.5% | *
| Epoch   2, time=  0.4s | Train: skip eval | Valid: time=  0.1s loss=11.679, TAw acc= 56.2% | *
…
------------------------------------------------------------------------------------------------------------
>>> Test on task  0 : loss=0.954 | TAw acc= 84.7%, forg=  0.0%| TAg acc= 79.2%, forg=  5.6% <<<
>>> Test on task  1 : loss=3.741 | TAw acc= 98.3%, forg=  0.0%| TAg acc= 89.2%, forg=  9.2% <<<
>>> Test on task  2 : loss=5.777 | TAw acc= 92.5%, forg=  0.0%| TAg acc= 76.7%, forg=  5.8% <<<
>>> Test on task  3 : loss=8.820 | TAw acc= 93.3%, forg=  0.0%| TAg acc= 74.2%, forg=  0.8% <<<
>>> Test on task  4 : loss=10.272 | TAw acc= 90.0%, forg=  0.0%| TAg acc= 65.0%, forg=  0.0% <<<
Save at k=10/icarl_dsads_1/har_flex_icarl
======
LLL_Net(
  (model): SimpleMLP(
    (fc1): Linear(in_features=405, out_features=66, bias=True)
    (fc2): Sequential()
  )
  (heads): ModuleList(
    (0): Linear(in_features=66, out_features=12, bias=True)
    (1): Linear(in_features=66, out_features=10, bias=True)
    (2): Linear(in_features=66, out_features=10, bias=True)
    (3): Linear(in_features=66, out_features=10, bias=True)
    (4): Linear(in_features=66, out_features=10, bias=True)
  )
)
======

************************************************************************************************************
Task  5
************************************************************************************************************
| Epoch   1, time=  0.5s | Train: skip eval | Valid: time=  0.2s loss=15.841, TAw acc= 17.7% | *
| Epoch   2, time=  0.5s | Train: skip eval | Valid: time=  0.2s loss=12.838, TAw acc= 45.8% | *
…
>>> Test on task  0 : loss=0.878 | TAw acc= 84.7%, forg=  0.0%| TAg acc= 77.1%, forg=  7.6% <<<
>>> Test on task  1 : loss=3.642 | TAw acc= 98.3%, forg=  0.0%| TAg acc= 88.3%, forg= 10.0% <<<
>>> Test on task  2 : loss=5.398 | TAw acc= 92.5%, forg=  0.0%| TAg acc= 73.3%, forg=  9.2% <<<
>>> Test on task  3 : loss=8.518 | TAw acc= 93.3%, forg=  0.0%| TAg acc= 70.8%, forg=  4.2% <<<
>>> Test on task  4 : loss=10.664 | TAw acc= 90.0%, forg=  0.0%| TAg acc= 64.2%, forg=  0.8% <<<
>>> Test on task  5 : loss=10.903 | TAw acc= 95.0%, forg=  0.0%| TAg acc= 76.7%, forg=  0.0% <<<
Save at k=10/icarl_dsads_1/har_flex_icarl
======
LLL_Net(
  (model): SimpleMLP(
    (fc1): Linear(in_features=405, out_features=66, bias=True)
    (fc2): Sequential()
  )
  (heads): ModuleList(
    (0): Linear(in_features=66, out_features=12, bias=True)
    (1): Linear(in_features=66, out_features=10, bias=True)
    (2): Linear(in_features=66, out_features=10, bias=True)
    (3): Linear(in_features=66, out_features=10, bias=True)
    (4): Linear(in_features=66, out_features=10, bias=True)
    (5): Linear(in_features=66, out_features=10, bias=True)
  )
)
======

************************************************************************************************************
Task  6
************************************************************************************************************
| Epoch   1, time=  0.6s | Train: skip eval | Valid: time=  0.2s loss=16.933, TAw acc= 15.6% | *
| Epoch   2, time=  0.6s | Train: skip eval | Valid: time=  0.2s loss=14.590, TAw acc= 50.0% | *
…
>>> Test on task  1 : loss=3.583 | TAw acc= 98.3%, forg=  0.0%| TAg acc= 86.7%, forg= 11.7% <<<
>>> Test on task  2 : loss=5.331 | TAw acc= 92.5%, forg=  0.0%| TAg acc= 69.2%, forg= 13.3% <<<
>>> Test on task  3 : loss=8.095 | TAw acc= 93.3%, forg=  0.0%| TAg acc= 70.0%, forg=  5.0% <<<
>>> Test on task  4 : loss=10.399 | TAw acc= 90.0%, forg=  0.0%| TAg acc= 63.3%, forg=  1.7% <<<
>>> Test on task  5 : loss=11.249 | TAw acc= 95.0%, forg=  0.0%| TAg acc= 76.7%, forg=  0.0% <<<
>>> Test on task  6 : loss=12.643 | TAw acc= 95.8%, forg=  0.0%| TAg acc= 85.0%, forg=  0.0% <<<
Save at k=10/icarl_dsads_1/har_flex_icarl
======
LLL_Net(
  (model): SimpleMLP(
    (fc1): Linear(in_features=405, out_features=66, bias=True)
    (fc2): Sequential()
  )
  (heads): ModuleList(
    (0): Linear(in_features=66, out_features=12, bias=True)
    (1): Linear(in_features=66, out_features=10, bias=True)
    (2): Linear(in_features=66, out_features=10, bias=True)
    (3): Linear(in_features=66, out_features=10, bias=True)
    (4): Linear(in_features=66, out_features=10, bias=True)
    (5): Linear(in_features=66, out_features=10, bias=True)
    (6): Linear(in_features=66, out_features=10, bias=True)
  )
)
======

************************************************************************************************************
Task  7
************************************************************************************************************
| Epoch   1, time=  0.8s | Train: skip eval | Valid: time=  0.2s loss=20.121, TAw acc= 19.8% | *
| Epoch   2, time=  0.8s | Train: skip eval | Valid: time=  0.2s loss=15.998, TAw acc= 45.8% | *
…
>>> Test on task  2 : loss=5.102 | TAw acc= 92.5%, forg=  0.0%| TAg acc= 69.2%, forg= 13.3% <<<
>>> Test on task  3 : loss=7.822 | TAw acc= 93.3%, forg=  0.0%| TAg acc= 70.0%, forg=  5.0% <<<
>>> Test on task  4 : loss=10.086 | TAw acc= 90.0%, forg=  0.0%| TAg acc= 63.3%, forg=  1.7% <<<
>>> Test on task  5 : loss=11.007 | TAw acc= 95.0%, forg=  0.0%| TAg acc= 76.7%, forg=  0.0% <<<
>>> Test on task  6 : loss=13.083 | TAw acc= 95.8%, forg=  0.0%| TAg acc= 78.3%, forg=  6.7% <<<
>>> Test on task  7 : loss=13.860 | TAw acc= 96.7%, forg=  0.0%| TAg acc= 80.0%, forg=  0.0% <<<
Save at k=10/icarl_dsads_1/har_flex_icarl
======
LLL_Net(
  (model): SimpleMLP(
    (fc1): Linear(in_features=405, out_features=66, bias=True)
    (fc2): Sequential()
  )
  (heads): ModuleList(
    (0): Linear(in_features=66, out_features=12, bias=True)
    (1): Linear(in_features=66, out_features=10, bias=True)
    (2): Linear(in_features=66, out_features=10, bias=True)
    (3): Linear(in_features=66, out_features=10, bias=True)
    (4): Linear(in_features=66, out_features=10, bias=True)
    (5): Linear(in_features=66, out_features=10, bias=True)
    (6): Linear(in_features=66, out_features=10, bias=True)
    (7): Linear(in_features=66, out_features=10, bias=True)
  )
)
======

************************************************************************************************************
Task  8
************************************************************************************************************
| Epoch   1, time=  0.9s | Train: skip eval | Valid: time=  0.2s loss=19.904, TAw acc= 30.2% | *
| Epoch   2, time=  0.9s | Train: skip eval | Valid: time=  0.1s loss=16.273, TAw acc= 69.8% | *
…
>>> Test on task  3 : loss=7.752 | TAw acc= 93.3%, forg=  0.0%| TAg acc= 70.0%, forg=  5.0% <<<
>>> Test on task  4 : loss=9.791 | TAw acc= 90.0%, forg=  0.0%| TAg acc= 63.3%, forg=  1.7% <<<
>>> Test on task  5 : loss=10.754 | TAw acc= 95.0%, forg=  0.0%| TAg acc= 76.7%, forg=  0.0% <<<
>>> Test on task  6 : loss=12.641 | TAw acc= 95.8%, forg=  0.0%| TAg acc= 78.3%, forg=  6.7% <<<
>>> Test on task  7 : loss=14.514 | TAw acc= 96.7%, forg=  0.0%| TAg acc= 80.0%, forg=  0.0% <<<
>>> Test on task  8 : loss=14.363 | TAw acc= 98.3%, forg=  0.0%| TAg acc= 97.5%, forg=  0.0% <<<
Save at k=10/icarl_dsads_1/har_flex_icarl
======
LLL_Net(
  (model): SimpleMLP(
    (fc1): Linear(in_features=405, out_features=66, bias=True)
    (fc2): Sequential()
  )
  (heads): ModuleList(
    (0): Linear(in_features=66, out_features=12, bias=True)
    (1): Linear(in_features=66, out_features=10, bias=True)
    (2): Linear(in_features=66, out_features=10, bias=True)
    (3): Linear(in_features=66, out_features=10, bias=True)
    (4): Linear(in_features=66, out_features=10, bias=True)
    (5): Linear(in_features=66, out_features=10, bias=True)
    (6): Linear(in_features=66, out_features=10, bias=True)
    (7): Linear(in_features=66, out_features=10, bias=True)
    (8): Linear(in_features=66, out_features=10, bias=True)
  )
)
======

************************************************************************************************************
Task  9
************************************************************************************************************
| Epoch   1, time=  1.1s | Train: skip eval | Valid: time=  0.2s loss=19.990, TAw acc= 30.2% | *
| Epoch   2, time=  1.1s | Train: skip eval | Valid: time=  0.2s loss=16.071, TAw acc= 63.5% | *
…
>>> Test on task  4 : loss=9.489 | TAw acc= 90.0%, forg=  0.0%| TAg acc= 63.3%, forg=  1.7% <<<
>>> Test on task  5 : loss=10.388 | TAw acc= 95.0%, forg=  0.0%| TAg acc= 76.7%, forg=  0.0% <<<
>>> Test on task  6 : loss=12.108 | TAw acc= 95.8%, forg=  0.0%| TAg acc= 78.3%, forg=  6.7% <<<
>>> Test on task  7 : loss=13.725 | TAw acc= 96.7%, forg=  0.0%| TAg acc= 80.0%, forg=  0.0% <<<
>>> Test on task  8 : loss=14.336 | TAw acc= 98.3%, forg=  0.0%| TAg acc= 97.5%, forg=  0.0% <<<
>>> Test on task  9 : loss=14.265 | TAw acc= 99.2%, forg=  0.0%| TAg acc= 84.2%, forg=  0.0% <<<
Save at k=10/icarl_dsads_1/har_flex_icarl
======
LLL_Net(
  (model): SimpleMLP(
    (fc1): Linear(in_features=405, out_features=66, bias=True)
    (fc2): Sequential()
  )
  (heads): ModuleList(
    (0): Linear(in_features=66, out_features=12, bias=True)
    (1): Linear(in_features=66, out_features=10, bias=True)
    (2): Linear(in_features=66, out_features=10, bias=True)
    (3): Linear(in_features=66, out_features=10, bias=True)
    (4): Linear(in_features=66, out_features=10, bias=True)
    (5): Linear(in_features=66, out_features=10, bias=True)
    (6): Linear(in_features=66, out_features=10, bias=True)
    (7): Linear(in_features=66, out_features=10, bias=True)
    (8): Linear(in_features=66, out_features=10, bias=True)
    (9): Linear(in_features=66, out_features=10, bias=True)
  )
)
======

************************************************************************************************************
Task 10
************************************************************************************************************
| Epoch   1, time=  1.3s | Train: skip eval | Valid: time=  0.2s loss=21.500, TAw acc= 28.1% | *
| Epoch   2, time=  1.3s | Train: skip eval | Valid: time=  0.2s loss=16.182, TAw acc= 78.1% | *
…
>>> Test on task  5 : loss=10.177 | TAw acc= 95.0%, forg=  0.0%| TAg acc= 76.7%, forg=  0.0% <<<
>>> Test on task  6 : loss=11.736 | TAw acc= 95.8%, forg=  0.0%| TAg acc= 76.7%, forg=  8.3% <<<
>>> Test on task  7 : loss=13.304 | TAw acc= 96.7%, forg=  0.0%| TAg acc= 79.2%, forg=  0.8% <<<
>>> Test on task  8 : loss=13.690 | TAw acc= 98.3%, forg=  0.0%| TAg acc= 97.5%, forg=  0.0% <<<
>>> Test on task  9 : loss=14.380 | TAw acc= 99.2%, forg=  0.0%| TAg acc= 84.2%, forg=  0.0% <<<
>>> Test on task 10 : loss=14.169 | TAw acc=100.0%, forg=  0.0%| TAg acc= 83.3%, forg=  0.0% <<<
Save at k=10/icarl_dsads_1/har_flex_icarl
======
LLL_Net(
  (model): SimpleMLP(
    (fc1): Linear(in_features=405, out_features=66, bias=True)
    (fc2): Sequential()
  )
  (heads): ModuleList(
    (0): Linear(in_features=66, out_features=12, bias=True)
    (1): Linear(in_features=66, out_features=10, bias=True)
    (2): Linear(in_features=66, out_features=10, bias=True)
    (3): Linear(in_features=66, out_features=10, bias=True)
    (4): Linear(in_features=66, out_features=10, bias=True)
    (5): Linear(in_features=66, out_features=10, bias=True)
    (6): Linear(in_features=66, out_features=10, bias=True)
    (7): Linear(in_features=66, out_features=10, bias=True)
    (8): Linear(in_features=66, out_features=10, bias=True)
    (9): Linear(in_features=66, out_features=10, bias=True)
    (10): Linear(in_features=66, out_features=10, bias=True)
  )
)
======

************************************************************************************************************
Task 11
************************************************************************************************************
| Epoch   1, time=  1.4s | Train: skip eval | Valid: time=  0.2s loss=21.188, TAw acc= 37.5% | *
| Epoch   2, time=  1.3s | Train: skip eval | Valid: time=  0.2s loss=16.351, TAw acc= 60.4% | *
…
>>> Test on task  6 : loss=11.310 | TAw acc= 95.8%, forg=  0.0%| TAg acc= 75.8%, forg=  9.2% <<<
>>> Test on task  7 : loss=12.929 | TAw acc= 96.7%, forg=  0.0%| TAg acc= 79.2%, forg=  0.8% <<<
>>> Test on task  8 : loss=13.257 | TAw acc= 98.3%, forg=  0.0%| TAg acc= 97.5%, forg=  0.0% <<<
>>> Test on task  9 : loss=14.064 | TAw acc= 99.2%, forg=  0.0%| TAg acc= 84.2%, forg=  0.0% <<<
>>> Test on task 10 : loss=14.427 | TAw acc=100.0%, forg=  0.0%| TAg acc= 83.3%, forg=  0.0% <<<
>>> Test on task 11 : loss=14.529 | TAw acc=100.0%, forg=  0.0%| TAg acc= 82.5%, forg=  0.0% <<<
Save at k=10/icarl_dsads_1/har_flex_icarl
======
LLL_Net(
  (model): SimpleMLP(
    (fc1): Linear(in_features=405, out_features=66, bias=True)
    (fc2): Sequential()
  )
  (heads): ModuleList(
    (0): Linear(in_features=66, out_features=12, bias=True)
    (1): Linear(in_features=66, out_features=10, bias=True)
    (2): Linear(in_features=66, out_features=10, bias=True)
    (3): Linear(in_features=66, out_features=10, bias=True)
    (4): Linear(in_features=66, out_features=10, bias=True)
    (5): Linear(in_features=66, out_features=10, bias=True)
    (6): Linear(in_features=66, out_features=10, bias=True)
    (7): Linear(in_features=66, out_features=10, bias=True)
    (8): Linear(in_features=66, out_features=10, bias=True)
    (9): Linear(in_features=66, out_features=10, bias=True)
    (10): Linear(in_features=66, out_features=10, bias=True)
    (11): Linear(in_features=66, out_features=10, bias=True)
  )
)
======

************************************************************************************************************
Task 12
************************************************************************************************************
| Epoch   1, time=  1.7s | Train: skip eval | Valid: time=  0.2s loss=23.361, TAw acc= 22.9% | *
| Epoch   2, time=  1.6s | Train: skip eval | Valid: time=  0.2s loss=17.063, TAw acc= 68.8% | *
…
>>> Test on task  7 : loss=12.730 | TAw acc= 96.7%, forg=  0.0%| TAg acc= 79.2%, forg=  0.8% <<<
>>> Test on task  8 : loss=13.197 | TAw acc= 98.3%, forg=  0.0%| TAg acc= 95.8%, forg=  1.7% <<<
>>> Test on task  9 : loss=13.917 | TAw acc= 99.2%, forg=  0.0%| TAg acc= 83.3%, forg=  0.8% <<<
>>> Test on task 10 : loss=14.340 | TAw acc=100.0%, forg=  0.0%| TAg acc= 83.3%, forg=  0.0% <<<
>>> Test on task 11 : loss=15.035 | TAw acc=100.0%, forg=  0.0%| TAg acc= 82.5%, forg=  0.0% <<<
>>> Test on task 12 : loss=15.386 | TAw acc= 92.5%, forg=  0.0%| TAg acc= 69.2%, forg=  0.0% <<<
Save at k=10/icarl_dsads_1/har_flex_icarl
======
LLL_Net(
  (model): SimpleMLP(
    (fc1): Linear(in_features=405, out_features=66, bias=True)
    (fc2): Sequential()
  )
  (heads): ModuleList(
    (0): Linear(in_features=66, out_features=12, bias=True)
    (1): Linear(in_features=66, out_features=10, bias=True)
    (2): Linear(in_features=66, out_features=10, bias=True)
    (3): Linear(in_features=66, out_features=10, bias=True)
    (4): Linear(in_features=66, out_features=10, bias=True)
    (5): Linear(in_features=66, out_features=10, bias=True)
    (6): Linear(in_features=66, out_features=10, bias=True)
    (7): Linear(in_features=66, out_features=10, bias=True)
    (8): Linear(in_features=66, out_features=10, bias=True)
    (9): Linear(in_features=66, out_features=10, bias=True)
    (10): Linear(in_features=66, out_features=10, bias=True)
    (11): Linear(in_features=66, out_features=10, bias=True)
    (12): Linear(in_features=66, out_features=10, bias=True)
  )
)
======

************************************************************************************************************
Task 13
************************************************************************************************************
| Epoch   1, time=  1.9s | Train: skip eval | Valid: time=  0.2s loss=21.505, TAw acc= 40.6% | *
| Epoch   2, time=  1.9s | Train: skip eval | Valid: time=  0.2s loss=16.894, TAw acc= 72.9% | *
…
>>> Test on task  8 : loss=12.808 | TAw acc= 98.3%, forg=  0.0%| TAg acc= 95.8%, forg=  1.7% <<<
>>> Test on task  9 : loss=13.485 | TAw acc= 99.2%, forg=  0.0%| TAg acc= 83.3%, forg=  0.8% <<<
>>> Test on task 10 : loss=13.865 | TAw acc=100.0%, forg=  0.0%| TAg acc= 81.7%, forg=  1.7% <<<
>>> Test on task 11 : loss=14.540 | TAw acc=100.0%, forg=  0.0%| TAg acc= 82.5%, forg=  0.0% <<<
>>> Test on task 12 : loss=15.629 | TAw acc= 92.5%, forg=  0.0%| TAg acc= 69.2%, forg=  0.0% <<<
>>> Test on task 13 : loss=15.322 | TAw acc= 97.5%, forg=  0.0%| TAg acc= 75.8%, forg=  0.0% <<<
Save at k=10/icarl_dsads_1/har_flex_icarl
======
LLL_Net(
  (model): SimpleMLP(
    (fc1): Linear(in_features=405, out_features=66, bias=True)
    (fc2): Sequential()
  )
  (heads): ModuleList(
    (0): Linear(in_features=66, out_features=12, bias=True)
    (1): Linear(in_features=66, out_features=10, bias=True)
    (2): Linear(in_features=66, out_features=10, bias=True)
    (3): Linear(in_features=66, out_features=10, bias=True)
    (4): Linear(in_features=66, out_features=10, bias=True)
    (5): Linear(in_features=66, out_features=10, bias=True)
    (6): Linear(in_features=66, out_features=10, bias=True)
    (7): Linear(in_features=66, out_features=10, bias=True)
    (8): Linear(in_features=66, out_features=10, bias=True)
    (9): Linear(in_features=66, out_features=10, bias=True)
    (10): Linear(in_features=66, out_features=10, bias=True)
    (11): Linear(in_features=66, out_features=10, bias=True)
    (12): Linear(in_features=66, out_features=10, bias=True)
    (13): Linear(in_features=66, out_features=10, bias=True)
  )
)
======

************************************************************************************************************
Task 14
************************************************************************************************************
| Epoch   1, time=  2.1s | Train: skip eval | Valid: time=  0.2s loss=23.365, TAw acc= 40.6% | *
| Epoch   2, time=  2.0s | Train: skip eval | Valid: time=  0.2s loss=18.060, TAw acc= 69.8% | *
…
