…
Namespace(backbone_type='incremental', batch_size=20, buffer_size=10, conf_host='elquinto', conf_jobnum='3459b121-bfe6-48ce-8ba8-1d5ce96b0df1', conf_timestamp='2023-08-04 13:46:03.285421', cutmix_alpha=None, dataid=2, dataset='mod-har', debug_mode=0, disable_log=0, distributed='no', fitting_epochs=250, ignore_other_metrics=0, load_data='', lr=0.01, maxlr=0.05, minibatch_size=20, minlr=0.0005, model='gdumb_har', n_epochs=1, non_verbose=0, notes=None, nowand=0, ntask=6, optim_mom=0.0, optim_nesterov=0, optim_wd=0.0002, save_path='../har_experiments/for_paper_2/heatmap/gdumb_hapt_3.pkl', seed=None, validation=0, wandb_entity='frahman', wandb_project='mammoth')
====TRAINING TASK: 0
SimpleMLP(
  (fc1): Linear(in_features=561, out_features=1000, bias=True)
  (fc2): Linear(in_features=1000, out_features=2, bias=True)
  (_features): Identity()
  (classifier): Sequential(
    (0): Linear(in_features=561, out_features=1000, bias=True)
    (1): ReLU()
    (2): Linear(in_features=1000, out_features=2, bias=True)
  )
  (net): Sequential(
    (0): Identity()
    (1): Sequential(
      (0): Linear(in_features=561, out_features=1000, bias=True)
      (1): ReLU()
      (2): Linear(in_features=1000, out_features=2, bias=True)
    )
  )
)

Accuracy for 1 task(s): 	 [Class-IL]: 66.22 % 	 [Task-IL]: 66.22 %

====TRAINING TASK: 1
SimpleMLP(
  (fc1): Linear(in_features=561, out_features=1000, bias=True)
  (fc2): Linear(in_features=1000, out_features=2, bias=True)
  (_features): Identity()
  (classifier): Sequential(
    (0): Linear(in_features=561, out_features=1000, bias=True)
    (1): ReLU()
    (2): Linear(in_features=1000, out_features=2, bias=True)
  )
  (net): Sequential(
    (0): Identity()
    (1): Sequential(
      (0): Linear(in_features=561, out_features=1000, bias=True)
      (1): ReLU()
      (2): Linear(in_features=1000, out_features=2, bias=True)
    )
  )
)

Accuracy for 2 task(s): 	 [Class-IL]: 33.11 % 	 [Task-IL]: 33.11 %

====TRAINING TASK: 2
SimpleMLP(
  (fc1): Linear(in_features=561, out_features=1000, bias=True)
  (fc2): Linear(in_features=1000, out_features=2, bias=True)
  (_features): Identity()
  (classifier): Sequential(
    (0): Linear(in_features=561, out_features=1000, bias=True)
    (1): ReLU()
    (2): Linear(in_features=1000, out_features=2, bias=True)
  )
  (net): Sequential(
    (0): Identity()
    (1): Sequential(
      (0): Linear(in_features=561, out_features=1000, bias=True)
      (1): ReLU()
      (2): Linear(in_features=1000, out_features=2, bias=True)
    )
  )
)

Accuracy for 3 task(s): 	 [Class-IL]: 22.07 % 	 [Task-IL]: 22.07 %

====TRAINING TASK: 3
SimpleMLP(
  (fc1): Linear(in_features=561, out_features=1000, bias=True)
  (fc2): Linear(in_features=1000, out_features=2, bias=True)
  (_features): Identity()
  (classifier): Sequential(
    (0): Linear(in_features=561, out_features=1000, bias=True)
    (1): ReLU()
    (2): Linear(in_features=1000, out_features=2, bias=True)
  )
  (net): Sequential(
    (0): Identity()
    (1): Sequential(
      (0): Linear(in_features=561, out_features=1000, bias=True)
      (1): ReLU()
      (2): Linear(in_features=1000, out_features=2, bias=True)
    )
  )
)

Accuracy for 4 task(s): 	 [Class-IL]: 16.55 % 	 [Task-IL]: 16.55 %

====TRAINING TASK: 4
SimpleMLP(
  (fc1): Linear(in_features=561, out_features=1000, bias=True)
  (fc2): Linear(in_features=1000, out_features=2, bias=True)
  (_features): Identity()
  (classifier): Sequential(
    (0): Linear(in_features=561, out_features=1000, bias=True)
    (1): ReLU()
    (2): Linear(in_features=1000, out_features=2, bias=True)
  )
  (net): Sequential(
    (0): Identity()
    (1): Sequential(
      (0): Linear(in_features=561, out_features=1000, bias=True)
      (1): ReLU()
      (2): Linear(in_features=1000, out_features=2, bias=True)
    )
  )
)

Accuracy for 5 task(s): 	 [Class-IL]: 13.24 % 	 [Task-IL]: 13.24 %

====TRAINING TASK: 5
SimpleMLP(
  (fc1): Linear(in_features=561, out_features=1000, bias=True)
  (fc2): Linear(in_features=1000, out_features=2, bias=True)
  (_features): Identity()
  (classifier): Sequential(
    (0): Linear(in_features=561, out_features=1000, bias=True)
    (1): ReLU()
    (2): Linear(in_features=1000, out_features=2, bias=True)
  )
  (net): Sequential(
    (0): Identity()
    (1): Sequential(
      (0): Linear(in_features=561, out_features=1000, bias=True)
      (1): ReLU()
      (2): Linear(in_features=1000, out_features=2, bias=True)
    )
  )
)
torch.Size([120, 561])
	LABELS: [ 0  1  2  3  4  5  6  7  8 10]	Counter({2: 30, 4: 28, 8: 20, 6: 13, 5: 12, 10: 12, 7: 2, 0: 1, 1: 1, 3: 1})
fit_time: 1.144698245999999

Accuracy for 6 task(s): 	 [Class-IL]: 70.92 % 	 [Task-IL]: 97.37 %

CLASS_IL_ACC: 
	[20.27027027027027, 92.61363636363636, 84.87046632124353, 86.74698795180723, 94.87632508833921, 46.13935969868173]
…
