…
| Selected 1435 train exemplars, time=  0.0s
1435
------------------------------------------------------------------------------------------------------------
>>> Test on task  0 : loss=0.415 | TAw acc= 98.6%, forg=  0.0%| TAg acc= 91.0%, forg=  2.1% <<<
>>> Test on task  1 : loss=0.395 | TAw acc= 96.7%, forg= -2.5%| TAg acc= 90.0%, forg=  4.2% <<<
>>> Test on task  2 : loss=0.319 | TAw acc= 98.3%, forg=  0.0%| TAg acc= 93.3%, forg=  1.7% <<<
>>> Test on task  3 : loss=0.415 | TAw acc= 95.8%, forg=  0.0%| TAg acc= 87.5%, forg=  0.0% <<<
Save at k=100/eeil_e5_dsads_3/har_flex_eeil
======
LLL_Net(
  (model): SimpleMLP(
    (fc1): Linear(in_features=405, out_features=66, bias=True)
    (fc2): Sequential()
  )
  (heads): ModuleList(
    (0): Linear(in_features=66, out_features=12, bias=True)
    (1): Linear(in_features=66, out_features=10, bias=True)
    (2): Linear(in_features=66, out_features=10, bias=True)
    (3): Linear(in_features=66, out_features=10, bias=True)
  )
)
======

************************************************************************************************************
Task  4
************************************************************************************************************
| Epoch   1, time=  0.5s | Train: skip eval | Valid: time=  0.2s loss=4.118, TAw acc= 24.0% | *
| Epoch   2, time=  0.5s | Train: skip eval | Valid: time=  0.2s loss=2.555, TAw acc= 51.0% | *
…
------------------------------------------------------------------------------------------------------------
>>> Test on task  0 : loss=0.410 | TAw acc= 98.6%, forg=  0.0%| TAg acc= 93.1%, forg=  0.0% <<<
>>> Test on task  1 : loss=0.439 | TAw acc= 95.8%, forg=  0.8%| TAg acc= 89.2%, forg=  5.0% <<<
>>> Test on task  2 : loss=0.434 | TAw acc= 99.2%, forg= -0.8%| TAg acc= 85.8%, forg=  9.2% <<<
>>> Test on task  3 : loss=0.519 | TAw acc= 97.5%, forg= -1.7%| TAg acc= 86.7%, forg=  0.8% <<<
>>> Test on task  4 : loss=0.796 | TAw acc= 91.7%, forg=  0.0%| TAg acc= 86.7%, forg=  0.0% <<<
Save at k=100/eeil_e5_dsads_3/har_flex_eeil
======
LLL_Net(
  (model): SimpleMLP(
    (fc1): Linear(in_features=405, out_features=66, bias=True)
    (fc2): Sequential()
  )
  (heads): ModuleList(
    (0): Linear(in_features=66, out_features=12, bias=True)
    (1): Linear(in_features=66, out_features=10, bias=True)
    (2): Linear(in_features=66, out_features=10, bias=True)
    (3): Linear(in_features=66, out_features=10, bias=True)
    (4): Linear(in_features=66, out_features=10, bias=True)
  )
)
======

************************************************************************************************************
Task  5
************************************************************************************************************
| Epoch   1, time=  0.6s | Train: skip eval | Valid: time=  0.2s loss=4.293, TAw acc= 32.3% | *
| Epoch   2, time=  0.6s | Train: skip eval | Valid: time=  0.2s loss=2.387, TAw acc= 74.0% | *
…
>>> Test on task  0 : loss=0.410 | TAw acc= 98.6%, forg=  0.0%| TAg acc= 93.1%, forg=  0.0% <<<
>>> Test on task  1 : loss=0.532 | TAw acc= 96.7%, forg=  0.0%| TAg acc= 80.0%, forg= 14.2% <<<
>>> Test on task  2 : loss=0.457 | TAw acc= 99.2%, forg=  0.0%| TAg acc= 94.2%, forg=  0.8% <<<
>>> Test on task  3 : loss=0.515 | TAw acc= 97.5%, forg=  0.0%| TAg acc= 88.3%, forg= -0.8% <<<
>>> Test on task  4 : loss=0.891 | TAw acc= 90.8%, forg=  0.8%| TAg acc= 70.0%, forg= 16.7% <<<
>>> Test on task  5 : loss=0.959 | TAw acc= 91.7%, forg=  0.0%| TAg acc= 79.2%, forg=  0.0% <<<
Save at k=100/eeil_e5_dsads_3/har_flex_eeil
======
LLL_Net(
  (model): SimpleMLP(
    (fc1): Linear(in_features=405, out_features=66, bias=True)
    (fc2): Sequential()
  )
  (heads): ModuleList(
    (0): Linear(in_features=66, out_features=12, bias=True)
    (1): Linear(in_features=66, out_features=10, bias=True)
    (2): Linear(in_features=66, out_features=10, bias=True)
    (3): Linear(in_features=66, out_features=10, bias=True)
    (4): Linear(in_features=66, out_features=10, bias=True)
    (5): Linear(in_features=66, out_features=10, bias=True)
  )
)
======

************************************************************************************************************
Task  6
************************************************************************************************************
| Epoch   1, time=  0.7s | Train: skip eval | Valid: time=  0.2s loss=3.480, TAw acc= 38.5% | *
| Epoch   2, time=  0.7s | Train: skip eval | Valid: time=  0.2s loss=2.199, TAw acc= 68.8% | *
…
>>> Test on task  1 : loss=0.412 | TAw acc= 95.8%, forg=  0.8%| TAg acc= 92.5%, forg=  1.7% <<<
>>> Test on task  2 : loss=0.365 | TAw acc= 99.2%, forg=  0.0%| TAg acc= 88.3%, forg=  6.7% <<<
>>> Test on task  3 : loss=0.388 | TAw acc= 98.3%, forg= -0.8%| TAg acc= 92.5%, forg= -4.2% <<<
>>> Test on task  4 : loss=0.675 | TAw acc= 92.5%, forg= -0.8%| TAg acc= 77.5%, forg=  9.2% <<<
>>> Test on task  5 : loss=0.837 | TAw acc= 94.2%, forg= -2.5%| TAg acc= 80.8%, forg= -1.7% <<<
>>> Test on task  6 : loss=0.538 | TAw acc= 99.2%, forg=  0.0%| TAg acc= 86.7%, forg=  0.0% <<<
Save at k=100/eeil_e5_dsads_3/har_flex_eeil
======
LLL_Net(
  (model): SimpleMLP(
    (fc1): Linear(in_features=405, out_features=66, bias=True)
    (fc2): Sequential()
  )
  (heads): ModuleList(
    (0): Linear(in_features=66, out_features=12, bias=True)
    (1): Linear(in_features=66, out_features=10, bias=True)
    (2): Linear(in_features=66, out_features=10, bias=True)
    (3): Linear(in_features=66, out_features=10, bias=True)
    (4): Linear(in_features=66, out_features=10, bias=True)
    (5): Linear(in_features=66, out_features=10, bias=True)
    (6): Linear(in_features=66, out_features=10, bias=True)
  )
)
======

************************************************************************************************************
Task  7
************************************************************************************************************
| Epoch   1, time=  0.8s | Train: skip eval | Valid: time=  0.2s loss=3.474, TAw acc= 41.7% | *
| Epoch   2, time=  0.9s | Train: skip eval | Valid: time=  0.2s loss=2.429, TAw acc= 68.8% | *
…
>>> Test on task  2 : loss=0.363 | TAw acc= 99.2%, forg=  0.0%| TAg acc= 83.3%, forg= 11.7% <<<
>>> Test on task  3 : loss=0.335 | TAw acc= 98.3%, forg=  0.0%| TAg acc= 91.7%, forg=  0.8% <<<
>>> Test on task  4 : loss=0.585 | TAw acc= 94.2%, forg= -1.7%| TAg acc= 84.2%, forg=  2.5% <<<
>>> Test on task  5 : loss=0.735 | TAw acc= 94.2%, forg=  0.0%| TAg acc= 85.0%, forg= -4.2% <<<
>>> Test on task  6 : loss=0.438 | TAw acc=100.0%, forg= -0.8%| TAg acc= 90.0%, forg= -3.3% <<<
>>> Test on task  7 : loss=0.312 | TAw acc=100.0%, forg=  0.0%| TAg acc= 96.7%, forg=  0.0% <<<
Save at k=100/eeil_e5_dsads_3/har_flex_eeil
======
LLL_Net(
  (model): SimpleMLP(
    (fc1): Linear(in_features=405, out_features=66, bias=True)
    (fc2): Sequential()
  )
  (heads): ModuleList(
    (0): Linear(in_features=66, out_features=12, bias=True)
    (1): Linear(in_features=66, out_features=10, bias=True)
    (2): Linear(in_features=66, out_features=10, bias=True)
    (3): Linear(in_features=66, out_features=10, bias=True)
    (4): Linear(in_features=66, out_features=10, bias=True)
    (5): Linear(in_features=66, out_features=10, bias=True)
    (6): Linear(in_features=66, out_features=10, bias=True)
    (7): Linear(in_features=66, out_features=10, bias=True)
  )
)
======

************************************************************************************************************
Task  8
************************************************************************************************************
| Epoch   1, time=  0.9s | Train: skip eval | Valid: time=  0.2s loss=4.585, TAw acc= 41.7% | *
| Epoch   2, time=  1.0s | Train: skip eval | Valid: time=  0.2s loss=2.254, TAw acc= 70.8% | *
…
>>> Test on task  3 : loss=0.297 | TAw acc= 98.3%, forg=  0.0%| TAg acc= 94.2%, forg= -1.7% <<<
>>> Test on task  4 : loss=0.663 | TAw acc= 94.2%, forg=  0.0%| TAg acc= 81.7%, forg=  5.0% <<<
>>> Test on task  5 : loss=0.862 | TAw acc= 95.0%, forg= -0.8%| TAg acc= 80.8%, forg=  4.2% <<<
>>> Test on task  6 : loss=0.391 | TAw acc=100.0%, forg=  0.0%| TAg acc= 91.7%, forg= -1.7% <<<
>>> Test on task  7 : loss=0.254 | TAw acc=100.0%, forg=  0.0%| TAg acc= 96.7%, forg=  0.0% <<<
>>> Test on task  8 : loss=0.643 | TAw acc= 97.5%, forg=  0.0%| TAg acc= 82.5%, forg=  0.0% <<<
Save at k=100/eeil_e5_dsads_3/har_flex_eeil
======
LLL_Net(
  (model): SimpleMLP(
    (fc1): Linear(in_features=405, out_features=66, bias=True)
    (fc2): Sequential()
  )
  (heads): ModuleList(
    (0): Linear(in_features=66, out_features=12, bias=True)
    (1): Linear(in_features=66, out_features=10, bias=True)
    (2): Linear(in_features=66, out_features=10, bias=True)
    (3): Linear(in_features=66, out_features=10, bias=True)
    (4): Linear(in_features=66, out_features=10, bias=True)
    (5): Linear(in_features=66, out_features=10, bias=True)
    (6): Linear(in_features=66, out_features=10, bias=True)
    (7): Linear(in_features=66, out_features=10, bias=True)
    (8): Linear(in_features=66, out_features=10, bias=True)
  )
)
======

************************************************************************************************************
Task  9
************************************************************************************************************
| Epoch   1, time=  1.1s | Train: skip eval | Valid: time=  0.2s loss=4.468, TAw acc= 34.4% | *
| Epoch   2, time=  1.1s | Train: skip eval | Valid: time=  0.2s loss=2.142, TAw acc= 75.0% | *
…
>>> Test on task  4 : loss=0.568 | TAw acc= 95.0%, forg= -0.8%| TAg acc= 84.2%, forg=  2.5% <<<
>>> Test on task  5 : loss=0.840 | TAw acc= 94.2%, forg=  0.8%| TAg acc= 81.7%, forg=  3.3% <<<
>>> Test on task  6 : loss=0.387 | TAw acc=100.0%, forg=  0.0%| TAg acc= 88.3%, forg=  3.3% <<<
>>> Test on task  7 : loss=0.199 | TAw acc=100.0%, forg=  0.0%| TAg acc= 96.7%, forg=  0.0% <<<
>>> Test on task  8 : loss=0.693 | TAw acc= 97.5%, forg=  0.0%| TAg acc= 77.5%, forg=  5.0% <<<
>>> Test on task  9 : loss=0.680 | TAw acc= 97.5%, forg=  0.0%| TAg acc= 85.8%, forg=  0.0% <<<
Save at k=100/eeil_e5_dsads_3/har_flex_eeil
======
LLL_Net(
  (model): SimpleMLP(
    (fc1): Linear(in_features=405, out_features=66, bias=True)
    (fc2): Sequential()
  )
  (heads): ModuleList(
    (0): Linear(in_features=66, out_features=12, bias=True)
    (1): Linear(in_features=66, out_features=10, bias=True)
    (2): Linear(in_features=66, out_features=10, bias=True)
    (3): Linear(in_features=66, out_features=10, bias=True)
    (4): Linear(in_features=66, out_features=10, bias=True)
    (5): Linear(in_features=66, out_features=10, bias=True)
    (6): Linear(in_features=66, out_features=10, bias=True)
    (7): Linear(in_features=66, out_features=10, bias=True)
    (8): Linear(in_features=66, out_features=10, bias=True)
    (9): Linear(in_features=66, out_features=10, bias=True)
  )
)
======

************************************************************************************************************
Task 10
************************************************************************************************************
| Epoch   1, time=  1.3s | Train: skip eval | Valid: time=  0.2s loss=5.204, TAw acc= 40.6% | *
| Epoch   2, time=  1.3s | Train: skip eval | Valid: time=  0.2s loss=2.789, TAw acc= 78.1% | *
…
>>> Test on task  5 : loss=0.793 | TAw acc= 94.2%, forg=  0.8%| TAg acc= 84.2%, forg=  0.8% <<<
>>> Test on task  6 : loss=0.331 | TAw acc=100.0%, forg=  0.0%| TAg acc= 91.7%, forg=  0.0% <<<
>>> Test on task  7 : loss=0.190 | TAw acc=100.0%, forg=  0.0%| TAg acc= 97.5%, forg= -0.8% <<<
>>> Test on task  8 : loss=0.647 | TAw acc= 97.5%, forg=  0.0%| TAg acc= 80.0%, forg=  2.5% <<<
>>> Test on task  9 : loss=0.805 | TAw acc= 96.7%, forg=  0.8%| TAg acc= 76.7%, forg=  9.2% <<<
>>> Test on task 10 : loss=0.799 | TAw acc= 93.3%, forg=  0.0%| TAg acc= 80.8%, forg=  0.0% <<<
Save at k=100/eeil_e5_dsads_3/har_flex_eeil
======
LLL_Net(
  (model): SimpleMLP(
    (fc1): Linear(in_features=405, out_features=66, bias=True)
    (fc2): Sequential()
  )
  (heads): ModuleList(
    (0): Linear(in_features=66, out_features=12, bias=True)
    (1): Linear(in_features=66, out_features=10, bias=True)
    (2): Linear(in_features=66, out_features=10, bias=True)
    (3): Linear(in_features=66, out_features=10, bias=True)
    (4): Linear(in_features=66, out_features=10, bias=True)
    (5): Linear(in_features=66, out_features=10, bias=True)
    (6): Linear(in_features=66, out_features=10, bias=True)
    (7): Linear(in_features=66, out_features=10, bias=True)
    (8): Linear(in_features=66, out_features=10, bias=True)
    (9): Linear(in_features=66, out_features=10, bias=True)
    (10): Linear(in_features=66, out_features=10, bias=True)
  )
)
======

************************************************************************************************************
Task 11
************************************************************************************************************
| Epoch   1, time=  1.5s | Train: skip eval | Valid: time=  0.2s loss=4.434, TAw acc= 29.2% | *
| Epoch   2, time=  1.6s | Train: skip eval | Valid: time=  0.3s loss=2.575, TAw acc= 90.6% | *
…
>>> Test on task  6 : loss=0.363 | TAw acc=100.0%, forg=  0.0%| TAg acc= 91.7%, forg=  0.0% <<<
>>> Test on task  7 : loss=0.214 | TAw acc=100.0%, forg=  0.0%| TAg acc= 97.5%, forg=  0.0% <<<
>>> Test on task  8 : loss=0.650 | TAw acc= 98.3%, forg= -0.8%| TAg acc= 76.7%, forg=  5.8% <<<
>>> Test on task  9 : loss=0.921 | TAw acc= 96.7%, forg=  0.8%| TAg acc= 75.8%, forg= 10.0% <<<
>>> Test on task 10 : loss=0.895 | TAw acc= 95.8%, forg= -2.5%| TAg acc= 77.5%, forg=  3.3% <<<
>>> Test on task 11 : loss=0.790 | TAw acc=100.0%, forg=  0.0%| TAg acc= 81.7%, forg=  0.0% <<<
Save at k=100/eeil_e5_dsads_3/har_flex_eeil
======
LLL_Net(
  (model): SimpleMLP(
    (fc1): Linear(in_features=405, out_features=66, bias=True)
    (fc2): Sequential()
  )
  (heads): ModuleList(
    (0): Linear(in_features=66, out_features=12, bias=True)
    (1): Linear(in_features=66, out_features=10, bias=True)
    (2): Linear(in_features=66, out_features=10, bias=True)
    (3): Linear(in_features=66, out_features=10, bias=True)
    (4): Linear(in_features=66, out_features=10, bias=True)
    (5): Linear(in_features=66, out_features=10, bias=True)
    (6): Linear(in_features=66, out_features=10, bias=True)
    (7): Linear(in_features=66, out_features=10, bias=True)
    (8): Linear(in_features=66, out_features=10, bias=True)
    (9): Linear(in_features=66, out_features=10, bias=True)
    (10): Linear(in_features=66, out_features=10, bias=True)
    (11): Linear(in_features=66, out_features=10, bias=True)
  )
)
======

************************************************************************************************************
Task 12
************************************************************************************************************
| Epoch   1, time=  1.7s | Train: skip eval | Valid: time=  0.2s loss=4.755, TAw acc= 42.7% | *
| Epoch   2, time=  1.7s | Train: skip eval | Valid: time=  0.3s loss=2.709, TAw acc= 74.0% | *
…
>>> Test on task  7 : loss=0.206 | TAw acc=100.0%, forg=  0.0%| TAg acc= 97.5%, forg=  0.0% <<<
>>> Test on task  8 : loss=0.729 | TAw acc= 98.3%, forg=  0.0%| TAg acc= 75.8%, forg=  6.7% <<<
>>> Test on task  9 : loss=0.946 | TAw acc= 98.3%, forg= -0.8%| TAg acc= 75.8%, forg= 10.0% <<<
>>> Test on task 10 : loss=0.886 | TAw acc= 95.8%, forg=  0.0%| TAg acc= 77.5%, forg=  3.3% <<<
>>> Test on task 11 : loss=1.031 | TAw acc=100.0%, forg=  0.0%| TAg acc= 67.5%, forg= 14.2% <<<
>>> Test on task 12 : loss=0.774 | TAw acc= 95.8%, forg=  0.0%| TAg acc= 82.5%, forg=  0.0% <<<
Save at k=100/eeil_e5_dsads_3/har_flex_eeil
======
LLL_Net(
  (model): SimpleMLP(
    (fc1): Linear(in_features=405, out_features=66, bias=True)
    (fc2): Sequential()
  )
  (heads): ModuleList(
    (0): Linear(in_features=66, out_features=12, bias=True)
    (1): Linear(in_features=66, out_features=10, bias=True)
    (2): Linear(in_features=66, out_features=10, bias=True)
    (3): Linear(in_features=66, out_features=10, bias=True)
    (4): Linear(in_features=66, out_features=10, bias=True)
    (5): Linear(in_features=66, out_features=10, bias=True)
    (6): Linear(in_features=66, out_features=10, bias=True)
    (7): Linear(in_features=66, out_features=10, bias=True)
    (8): Linear(in_features=66, out_features=10, bias=True)
    (9): Linear(in_features=66, out_features=10, bias=True)
    (10): Linear(in_features=66, out_features=10, bias=True)
    (11): Linear(in_features=66, out_features=10, bias=True)
    (12): Linear(in_features=66, out_features=10, bias=True)
  )
)
======

************************************************************************************************************
Task 13
************************************************************************************************************
| Epoch   1, time=  2.0s | Train: skip eval | Valid: time=  0.2s loss=4.154, TAw acc= 42.7% | *
| Epoch   2, time=  2.0s | Train: skip eval | Valid: time=  0.2s loss=2.262, TAw acc= 61.5% | *
…
>>> Test on task  8 : loss=0.638 | TAw acc= 98.3%, forg=  0.0%| TAg acc= 80.8%, forg=  1.7% <<<
>>> Test on task  9 : loss=0.729 | TAw acc= 98.3%, forg=  0.0%| TAg acc= 84.2%, forg=  1.7% <<<
>>> Test on task 10 : loss=0.818 | TAw acc= 95.8%, forg=  0.0%| TAg acc= 82.5%, forg= -1.7% <<<
>>> Test on task 11 : loss=0.878 | TAw acc=100.0%, forg=  0.0%| TAg acc= 70.8%, forg= 10.8% <<<
>>> Test on task 12 : loss=0.757 | TAw acc= 97.5%, forg= -1.7%| TAg acc= 75.8%, forg=  6.7% <<<
>>> Test on task 13 : loss=0.608 | TAw acc= 99.2%, forg=  0.0%| TAg acc= 84.2%, forg=  0.0% <<<
Save at k=100/eeil_e5_dsads_3/har_flex_eeil
======
LLL_Net(
  (model): SimpleMLP(
    (fc1): Linear(in_features=405, out_features=66, bias=True)
    (fc2): Sequential()
  )
  (heads): ModuleList(
    (0): Linear(in_features=66, out_features=12, bias=True)
    (1): Linear(in_features=66, out_features=10, bias=True)
    (2): Linear(in_features=66, out_features=10, bias=True)
    (3): Linear(in_features=66, out_features=10, bias=True)
    (4): Linear(in_features=66, out_features=10, bias=True)
    (5): Linear(in_features=66, out_features=10, bias=True)
    (6): Linear(in_features=66, out_features=10, bias=True)
    (7): Linear(in_features=66, out_features=10, bias=True)
    (8): Linear(in_features=66, out_features=10, bias=True)
    (9): Linear(in_features=66, out_features=10, bias=True)
    (10): Linear(in_features=66, out_features=10, bias=True)
    (11): Linear(in_features=66, out_features=10, bias=True)
    (12): Linear(in_features=66, out_features=10, bias=True)
    (13): Linear(in_features=66, out_features=10, bias=True)
  )
)
======

************************************************************************************************************
Task 14
************************************************************************************************************
| Epoch   1, time=  2.1s | Train: skip eval | Valid: time=  0.2s loss=4.133, TAw acc= 45.8% | *
| Epoch   2, time=  2.1s | Train: skip eval | Valid: time=  0.2s loss=2.310, TAw acc= 72.9% | *
…
