…
| Selected 846 train exemplars, time=  0.0s
846
------------------------------------------------------------------------------------------------------------
>>> Test on task  0 : loss=1.056 | TAw acc= 95.9%, forg=  0.0%| TAg acc= 83.1%, forg=  3.1% <<<
>>> Test on task  1 : loss=1.030 | TAw acc= 94.4%, forg= -0.9%| TAg acc= 83.2%, forg=  7.5% <<<
>>> Test on task  2 : loss=1.136 | TAw acc= 95.1%, forg= -3.9%| TAg acc= 71.8%, forg=  6.8% <<<
>>> Test on task  3 : loss=1.068 | TAw acc= 95.1%, forg=  0.0%| TAg acc= 79.7%, forg=  0.0% <<<
Save at k=100/eeil_e20_wisdm_2/wisdm_flex_eeil
======
LLL_Net(
  (model): SimpleMLP(
    (fc1): Linear(in_features=91, out_features=1000, bias=True)
    (fc2): Sequential()
  )
  (heads): ModuleList(
    (0): Linear(in_features=1000, out_features=34, bias=True)
    (1): Linear(in_features=1000, out_features=20, bias=True)
    (2): Linear(in_features=1000, out_features=20, bias=True)
    (3): Linear(in_features=1000, out_features=20, bias=True)
  )
)
======

************************************************************************************************************
Task  4
************************************************************************************************************
| Epoch   1, time=  0.4s | Train: skip eval | Valid: time=  0.2s loss=3.712, TAw acc= 47.3% | *
| Epoch   2, time=  0.3s | Train: skip eval | Valid: time=  0.2s loss=2.604, TAw acc= 56.0% | *
…
------------------------------------------------------------------------------------------------------------
>>> Test on task  0 : loss=1.073 | TAw acc= 96.4%, forg= -0.5%| TAg acc= 77.9%, forg=  8.2% <<<
>>> Test on task  1 : loss=0.929 | TAw acc= 94.4%, forg=  0.0%| TAg acc= 90.7%, forg=  0.0% <<<
>>> Test on task  2 : loss=1.004 | TAw acc= 97.1%, forg= -1.9%| TAg acc= 82.5%, forg= -3.9% <<<
>>> Test on task  3 : loss=1.232 | TAw acc= 93.5%, forg=  1.6%| TAg acc= 73.2%, forg=  6.5% <<<
>>> Test on task  4 : loss=1.115 | TAw acc= 87.6%, forg=  0.0%| TAg acc= 79.3%, forg=  0.0% <<<
Save at k=100/eeil_e20_wisdm_2/wisdm_flex_eeil
======
LLL_Net(
  (model): SimpleMLP(
    (fc1): Linear(in_features=91, out_features=1000, bias=True)
    (fc2): Sequential()
  )
  (heads): ModuleList(
    (0): Linear(in_features=1000, out_features=34, bias=True)
    (1): Linear(in_features=1000, out_features=20, bias=True)
    (2): Linear(in_features=1000, out_features=20, bias=True)
    (3): Linear(in_features=1000, out_features=20, bias=True)
    (4): Linear(in_features=1000, out_features=20, bias=True)
  )
)
======

************************************************************************************************************
Task  5
************************************************************************************************************
| Epoch   1, time=  0.4s | Train: skip eval | Valid: time=  0.2s loss=4.009, TAw acc= 48.8% | *
| Epoch   2, time=  0.4s | Train: skip eval | Valid: time=  0.2s loss=2.678, TAw acc= 58.3% | *
…
>>> Test on task  0 : loss=0.978 | TAw acc= 95.9%, forg=  0.5%| TAg acc= 85.6%, forg=  0.5% <<<
>>> Test on task  1 : loss=0.899 | TAw acc= 95.3%, forg= -0.9%| TAg acc= 88.8%, forg=  1.9% <<<
>>> Test on task  2 : loss=0.947 | TAw acc= 97.1%, forg=  0.0%| TAg acc= 85.4%, forg= -2.9% <<<
>>> Test on task  3 : loss=1.231 | TAw acc= 93.5%, forg=  1.6%| TAg acc= 62.6%, forg= 17.1% <<<
>>> Test on task  4 : loss=1.095 | TAw acc= 95.9%, forg= -8.3%| TAg acc= 81.0%, forg= -1.7% <<<
>>> Test on task  5 : loss=0.943 | TAw acc= 92.9%, forg=  0.0%| TAg acc= 82.3%, forg=  0.0% <<<
Save at k=100/eeil_e20_wisdm_2/wisdm_flex_eeil
======
LLL_Net(
  (model): SimpleMLP(
    (fc1): Linear(in_features=91, out_features=1000, bias=True)
    (fc2): Sequential()
  )
  (heads): ModuleList(
    (0): Linear(in_features=1000, out_features=34, bias=True)
    (1): Linear(in_features=1000, out_features=20, bias=True)
    (2): Linear(in_features=1000, out_features=20, bias=True)
    (3): Linear(in_features=1000, out_features=20, bias=True)
    (4): Linear(in_features=1000, out_features=20, bias=True)
    (5): Linear(in_features=1000, out_features=20, bias=True)
  )
)
======

************************************************************************************************************
Task  6
************************************************************************************************************
| Epoch   1, time=  0.5s | Train: skip eval | Valid: time=  0.2s loss=4.817, TAw acc= 37.0% | *
| Epoch   2, time=  0.5s | Train: skip eval | Valid: time=  0.2s loss=3.422, TAw acc= 47.9% | *
…
>>> Test on task  1 : loss=0.905 | TAw acc= 94.4%, forg=  0.9%| TAg acc= 86.0%, forg=  4.7% <<<
>>> Test on task  2 : loss=0.902 | TAw acc= 97.1%, forg=  0.0%| TAg acc= 82.5%, forg=  2.9% <<<
>>> Test on task  3 : loss=1.199 | TAw acc= 92.7%, forg=  2.4%| TAg acc= 76.4%, forg=  3.3% <<<
>>> Test on task  4 : loss=0.979 | TAw acc= 91.7%, forg=  4.1%| TAg acc= 78.5%, forg=  2.5% <<<
>>> Test on task  5 : loss=1.059 | TAw acc= 97.3%, forg= -4.4%| TAg acc= 79.6%, forg=  2.7% <<<
>>> Test on task  6 : loss=1.340 | TAw acc= 90.1%, forg=  0.0%| TAg acc= 66.3%, forg=  0.0% <<<
Save at k=100/eeil_e20_wisdm_2/wisdm_flex_eeil
======
LLL_Net(
  (model): SimpleMLP(
    (fc1): Linear(in_features=91, out_features=1000, bias=True)
    (fc2): Sequential()
  )
  (heads): ModuleList(
    (0): Linear(in_features=1000, out_features=34, bias=True)
    (1): Linear(in_features=1000, out_features=20, bias=True)
    (2): Linear(in_features=1000, out_features=20, bias=True)
    (3): Linear(in_features=1000, out_features=20, bias=True)
    (4): Linear(in_features=1000, out_features=20, bias=True)
    (5): Linear(in_features=1000, out_features=20, bias=True)
    (6): Linear(in_features=1000, out_features=20, bias=True)
  )
)
======

************************************************************************************************************
Task  7
************************************************************************************************************
| Epoch   1, time=  0.6s | Train: skip eval | Valid: time=  0.2s loss=4.639, TAw acc= 55.7% | *
| Epoch   2, time=  0.6s | Train: skip eval | Valid: time=  0.2s loss=3.102, TAw acc= 62.0% | *
…
>>> Test on task  2 : loss=0.960 | TAw acc= 97.1%, forg=  0.0%| TAg acc= 76.7%, forg=  8.7% <<<
>>> Test on task  3 : loss=1.214 | TAw acc= 92.7%, forg=  2.4%| TAg acc= 78.0%, forg=  1.6% <<<
>>> Test on task  4 : loss=0.892 | TAw acc= 95.0%, forg=  0.8%| TAg acc= 81.8%, forg= -0.8% <<<
>>> Test on task  5 : loss=0.944 | TAw acc= 95.6%, forg=  1.8%| TAg acc= 77.0%, forg=  5.3% <<<
>>> Test on task  6 : loss=1.428 | TAw acc= 92.1%, forg= -2.0%| TAg acc= 64.4%, forg=  2.0% <<<
>>> Test on task  7 : loss=1.097 | TAw acc= 92.5%, forg=  0.0%| TAg acc= 74.8%, forg=  0.0% <<<
Save at k=100/eeil_e20_wisdm_2/wisdm_flex_eeil
======
LLL_Net(
  (model): SimpleMLP(
    (fc1): Linear(in_features=91, out_features=1000, bias=True)
    (fc2): Sequential()
  )
  (heads): ModuleList(
    (0): Linear(in_features=1000, out_features=34, bias=True)
    (1): Linear(in_features=1000, out_features=20, bias=True)
    (2): Linear(in_features=1000, out_features=20, bias=True)
    (3): Linear(in_features=1000, out_features=20, bias=True)
    (4): Linear(in_features=1000, out_features=20, bias=True)
    (5): Linear(in_features=1000, out_features=20, bias=True)
    (6): Linear(in_features=1000, out_features=20, bias=True)
    (7): Linear(in_features=1000, out_features=20, bias=True)
  )
)
======

************************************************************************************************************
Task  8
************************************************************************************************************
| Epoch   1, time=  0.6s | Train: skip eval | Valid: time=  0.2s loss=4.528, TAw acc= 40.5% | *
| Epoch   2, time=  0.6s | Train: skip eval | Valid: time=  0.2s loss=3.030, TAw acc= 52.4% | *
…
>>> Test on task  3 : loss=1.164 | TAw acc= 92.7%, forg=  2.4%| TAg acc= 85.4%, forg= -5.7% <<<
>>> Test on task  4 : loss=0.867 | TAw acc= 95.9%, forg=  0.0%| TAg acc= 86.0%, forg= -4.1% <<<
>>> Test on task  5 : loss=0.802 | TAw acc= 97.3%, forg=  0.0%| TAg acc= 86.7%, forg= -4.4% <<<
>>> Test on task  6 : loss=1.312 | TAw acc= 91.1%, forg=  1.0%| TAg acc= 68.3%, forg= -2.0% <<<
>>> Test on task  7 : loss=1.151 | TAw acc= 94.4%, forg= -1.9%| TAg acc= 72.9%, forg=  1.9% <<<
>>> Test on task  8 : loss=1.194 | TAw acc= 90.3%, forg=  0.0%| TAg acc= 66.4%, forg=  0.0% <<<
Save at k=100/eeil_e20_wisdm_2/wisdm_flex_eeil
======
LLL_Net(
  (model): SimpleMLP(
    (fc1): Linear(in_features=91, out_features=1000, bias=True)
    (fc2): Sequential()
  )
  (heads): ModuleList(
    (0): Linear(in_features=1000, out_features=34, bias=True)
    (1): Linear(in_features=1000, out_features=20, bias=True)
    (2): Linear(in_features=1000, out_features=20, bias=True)
    (3): Linear(in_features=1000, out_features=20, bias=True)
    (4): Linear(in_features=1000, out_features=20, bias=True)
    (5): Linear(in_features=1000, out_features=20, bias=True)
    (6): Linear(in_features=1000, out_features=20, bias=True)
    (7): Linear(in_features=1000, out_features=20, bias=True)
    (8): Linear(in_features=1000, out_features=20, bias=True)
  )
)
======

************************************************************************************************************
Task  9
************************************************************************************************************
| Epoch   1, time=  0.7s | Train: skip eval | Valid: time=  0.2s loss=5.152, TAw acc= 38.2% | *
| Epoch   2, time=  0.7s | Train: skip eval | Valid: time=  0.2s loss=3.739, TAw acc= 44.7% | *
…
>>> Test on task  4 : loss=0.978 | TAw acc= 95.9%, forg=  0.0%| TAg acc= 77.7%, forg=  8.3% <<<
>>> Test on task  5 : loss=0.819 | TAw acc= 96.5%, forg=  0.9%| TAg acc= 81.4%, forg=  5.3% <<<
>>> Test on task  6 : loss=1.200 | TAw acc= 90.1%, forg=  2.0%| TAg acc= 71.3%, forg= -3.0% <<<
>>> Test on task  7 : loss=1.094 | TAw acc= 94.4%, forg=  0.0%| TAg acc= 72.9%, forg=  1.9% <<<
>>> Test on task  8 : loss=1.299 | TAw acc= 92.9%, forg= -2.7%| TAg acc= 68.1%, forg= -1.8% <<<
>>> Test on task  9 : loss=1.219 | TAw acc= 96.2%, forg=  0.0%| TAg acc= 75.0%, forg=  0.0% <<<
Save at k=100/eeil_e20_wisdm_2/wisdm_flex_eeil
======
LLL_Net(
  (model): SimpleMLP(
    (fc1): Linear(in_features=91, out_features=1000, bias=True)
    (fc2): Sequential()
  )
  (heads): ModuleList(
    (0): Linear(in_features=1000, out_features=34, bias=True)
    (1): Linear(in_features=1000, out_features=20, bias=True)
    (2): Linear(in_features=1000, out_features=20, bias=True)
    (3): Linear(in_features=1000, out_features=20, bias=True)
    (4): Linear(in_features=1000, out_features=20, bias=True)
    (5): Linear(in_features=1000, out_features=20, bias=True)
    (6): Linear(in_features=1000, out_features=20, bias=True)
    (7): Linear(in_features=1000, out_features=20, bias=True)
    (8): Linear(in_features=1000, out_features=20, bias=True)
    (9): Linear(in_features=1000, out_features=20, bias=True)
  )
)
======

************************************************************************************************************
Task 10
************************************************************************************************************
| Epoch   1, time=  0.8s | Train: skip eval | Valid: time=  0.2s loss=5.025, TAw acc= 38.2% | *
| Epoch   2, time=  0.8s | Train: skip eval | Valid: time=  0.2s loss=3.029, TAw acc= 47.4% | *
…
>>> Test on task  5 : loss=0.733 | TAw acc= 97.3%, forg=  0.0%| TAg acc= 89.4%, forg= -2.7% <<<
>>> Test on task  6 : loss=1.191 | TAw acc= 90.1%, forg=  2.0%| TAg acc= 71.3%, forg=  0.0% <<<
>>> Test on task  7 : loss=0.954 | TAw acc= 95.3%, forg= -0.9%| TAg acc= 84.1%, forg= -9.3% <<<
>>> Test on task  8 : loss=1.138 | TAw acc= 92.0%, forg=  0.9%| TAg acc= 81.4%, forg=-13.3% <<<
>>> Test on task  9 : loss=1.511 | TAw acc= 98.1%, forg= -1.9%| TAg acc= 53.8%, forg= 21.2% <<<
>>> Test on task 10 : loss=0.943 | TAw acc= 95.2%, forg=  0.0%| TAg acc= 85.6%, forg=  0.0% <<<
Save at k=100/eeil_e20_wisdm_2/wisdm_flex_eeil
======
LLL_Net(
  (model): SimpleMLP(
    (fc1): Linear(in_features=91, out_features=1000, bias=True)
    (fc2): Sequential()
  )
  (heads): ModuleList(
    (0): Linear(in_features=1000, out_features=34, bias=True)
    (1): Linear(in_features=1000, out_features=20, bias=True)
    (2): Linear(in_features=1000, out_features=20, bias=True)
    (3): Linear(in_features=1000, out_features=20, bias=True)
    (4): Linear(in_features=1000, out_features=20, bias=True)
    (5): Linear(in_features=1000, out_features=20, bias=True)
    (6): Linear(in_features=1000, out_features=20, bias=True)
    (7): Linear(in_features=1000, out_features=20, bias=True)
    (8): Linear(in_features=1000, out_features=20, bias=True)
    (9): Linear(in_features=1000, out_features=20, bias=True)
    (10): Linear(in_features=1000, out_features=20, bias=True)
  )
)
======

************************************************************************************************************
Task 11
************************************************************************************************************
| Epoch   1, time=  0.9s | Train: skip eval | Valid: time=  0.2s loss=5.185, TAw acc= 53.9% | *
| Epoch   2, time=  0.9s | Train: skip eval | Valid: time=  0.2s loss=2.627, TAw acc= 69.7% | *
…
>>> Test on task  6 : loss=1.216 | TAw acc= 91.1%, forg=  1.0%| TAg acc= 73.3%, forg= -2.0% <<<
>>> Test on task  7 : loss=0.901 | TAw acc= 95.3%, forg=  0.0%| TAg acc= 82.2%, forg=  1.9% <<<
>>> Test on task  8 : loss=1.063 | TAw acc= 92.0%, forg=  0.9%| TAg acc= 81.4%, forg=  0.0% <<<
>>> Test on task  9 : loss=1.247 | TAw acc= 99.0%, forg= -1.0%| TAg acc= 71.2%, forg=  3.8% <<<
>>> Test on task 10 : loss=1.122 | TAw acc= 98.1%, forg= -2.9%| TAg acc= 70.2%, forg= 15.4% <<<
>>> Test on task 11 : loss=0.960 | TAw acc= 95.8%, forg=  0.0%| TAg acc= 80.7%, forg=  0.0% <<<
Save at k=100/eeil_e20_wisdm_2/wisdm_flex_eeil
======
LLL_Net(
  (model): SimpleMLP(
    (fc1): Linear(in_features=91, out_features=1000, bias=True)
    (fc2): Sequential()
  )
  (heads): ModuleList(
    (0): Linear(in_features=1000, out_features=34, bias=True)
    (1): Linear(in_features=1000, out_features=20, bias=True)
    (2): Linear(in_features=1000, out_features=20, bias=True)
    (3): Linear(in_features=1000, out_features=20, bias=True)
    (4): Linear(in_features=1000, out_features=20, bias=True)
    (5): Linear(in_features=1000, out_features=20, bias=True)
    (6): Linear(in_features=1000, out_features=20, bias=True)
    (7): Linear(in_features=1000, out_features=20, bias=True)
    (8): Linear(in_features=1000, out_features=20, bias=True)
    (9): Linear(in_features=1000, out_features=20, bias=True)
    (10): Linear(in_features=1000, out_features=20, bias=True)
    (11): Linear(in_features=1000, out_features=20, bias=True)
  )
)
======

************************************************************************************************************
Task 12
************************************************************************************************************
| Epoch   1, time=  0.9s | Train: skip eval | Valid: time=  0.2s loss=5.480, TAw acc= 24.4% | *
| Epoch   2, time=  0.9s | Train: skip eval | Valid: time=  0.2s loss=3.838, TAw acc= 47.4% | *
…
>>> Test on task  7 : loss=0.837 | TAw acc= 95.3%, forg=  0.0%| TAg acc= 86.0%, forg= -1.9% <<<
>>> Test on task  8 : loss=1.015 | TAw acc= 92.0%, forg=  0.9%| TAg acc= 79.6%, forg=  1.8% <<<
>>> Test on task  9 : loss=1.102 | TAw acc= 99.0%, forg=  0.0%| TAg acc= 77.9%, forg= -2.9% <<<
>>> Test on task 10 : loss=0.978 | TAw acc= 98.1%, forg=  0.0%| TAg acc= 80.8%, forg=  4.8% <<<
>>> Test on task 11 : loss=1.280 | TAw acc= 95.8%, forg=  0.0%| TAg acc= 71.4%, forg=  9.2% <<<
>>> Test on task 12 : loss=1.017 | TAw acc= 95.3%, forg=  0.0%| TAg acc= 82.1%, forg=  0.0% <<<
Save at k=100/eeil_e20_wisdm_2/wisdm_flex_eeil
======
LLL_Net(
  (model): SimpleMLP(
    (fc1): Linear(in_features=91, out_features=1000, bias=True)
    (fc2): Sequential()
  )
  (heads): ModuleList(
    (0): Linear(in_features=1000, out_features=34, bias=True)
    (1): Linear(in_features=1000, out_features=20, bias=True)
    (2): Linear(in_features=1000, out_features=20, bias=True)
    (3): Linear(in_features=1000, out_features=20, bias=True)
    (4): Linear(in_features=1000, out_features=20, bias=True)
    (5): Linear(in_features=1000, out_features=20, bias=True)
    (6): Linear(in_features=1000, out_features=20, bias=True)
    (7): Linear(in_features=1000, out_features=20, bias=True)
    (8): Linear(in_features=1000, out_features=20, bias=True)
    (9): Linear(in_features=1000, out_features=20, bias=True)
    (10): Linear(in_features=1000, out_features=20, bias=True)
    (11): Linear(in_features=1000, out_features=20, bias=True)
    (12): Linear(in_features=1000, out_features=20, bias=True)
  )
)
======

************************************************************************************************************
Task 13
************************************************************************************************************
| Epoch   1, time=  1.1s | Train: skip eval | Valid: time=  0.2s loss=4.566, TAw acc= 41.5% | *
| Epoch   2, time=  1.1s | Train: skip eval | Valid: time=  0.2s loss=2.366, TAw acc= 72.6% | *
…
>>> Test on task  8 : loss=0.991 | TAw acc= 92.0%, forg=  0.9%| TAg acc= 81.4%, forg=  0.0% <<<
>>> Test on task  9 : loss=1.080 | TAw acc= 99.0%, forg=  0.0%| TAg acc= 70.2%, forg=  7.7% <<<
>>> Test on task 10 : loss=0.906 | TAw acc= 98.1%, forg=  0.0%| TAg acc= 83.7%, forg=  1.9% <<<
>>> Test on task 11 : loss=1.276 | TAw acc= 96.6%, forg= -0.8%| TAg acc= 64.7%, forg= 16.0% <<<
>>> Test on task 12 : loss=1.107 | TAw acc= 99.1%, forg= -3.8%| TAg acc= 82.1%, forg=  0.0% <<<
>>> Test on task 13 : loss=0.912 | TAw acc= 94.2%, forg=  0.0%| TAg acc= 82.6%, forg=  0.0% <<<
Save at k=100/eeil_e20_wisdm_2/wisdm_flex_eeil
======
LLL_Net(
  (model): SimpleMLP(
    (fc1): Linear(in_features=91, out_features=1000, bias=True)
    (fc2): Sequential()
  )
  (heads): ModuleList(
    (0): Linear(in_features=1000, out_features=34, bias=True)
    (1): Linear(in_features=1000, out_features=20, bias=True)
    (2): Linear(in_features=1000, out_features=20, bias=True)
    (3): Linear(in_features=1000, out_features=20, bias=True)
    (4): Linear(in_features=1000, out_features=20, bias=True)
    (5): Linear(in_features=1000, out_features=20, bias=True)
    (6): Linear(in_features=1000, out_features=20, bias=True)
    (7): Linear(in_features=1000, out_features=20, bias=True)
    (8): Linear(in_features=1000, out_features=20, bias=True)
    (9): Linear(in_features=1000, out_features=20, bias=True)
    (10): Linear(in_features=1000, out_features=20, bias=True)
    (11): Linear(in_features=1000, out_features=20, bias=True)
    (12): Linear(in_features=1000, out_features=20, bias=True)
    (13): Linear(in_features=1000, out_features=20, bias=True)
  )
)
======

************************************************************************************************************
Task 14
************************************************************************************************************
| Epoch   1, time=  1.1s | Train: skip eval | Valid: time=  0.2s loss=6.156, TAw acc= 31.9% | *
| Epoch   2, time=  1.1s | Train: skip eval | Valid: time=  0.2s loss=4.012, TAw acc= 54.2% | *
…
>>> Test on task  9 : loss=1.143 | TAw acc= 99.0%, forg=  0.0%| TAg acc= 66.3%, forg= 11.5% <<<
>>> Test on task 10 : loss=0.865 | TAw acc= 98.1%, forg=  0.0%| TAg acc= 84.6%, forg=  1.0% <<<
>>> Test on task 11 : loss=1.112 | TAw acc= 95.8%, forg=  0.8%| TAg acc= 74.8%, forg=  5.9% <<<
>>> Test on task 12 : loss=0.988 | TAw acc= 99.1%, forg=  0.0%| TAg acc= 86.8%, forg= -4.7% <<<
>>> Test on task 13 : loss=1.313 | TAw acc= 94.2%, forg=  0.0%| TAg acc= 63.0%, forg= 19.6% <<<
>>> Test on task 14 : loss=1.067 | TAw acc= 95.0%, forg=  0.0%| TAg acc= 77.0%, forg=  0.0% <<<
Save at k=100/eeil_e20_wisdm_2/wisdm_flex_eeil
======
LLL_Net(
  (model): SimpleMLP(
    (fc1): Linear(in_features=91, out_features=1000, bias=True)
    (fc2): Sequential()
  )
  (heads): ModuleList(
    (0): Linear(in_features=1000, out_features=34, bias=True)
    (1): Linear(in_features=1000, out_features=20, bias=True)
    (2): Linear(in_features=1000, out_features=20, bias=True)
    (3): Linear(in_features=1000, out_features=20, bias=True)
    (4): Linear(in_features=1000, out_features=20, bias=True)
    (5): Linear(in_features=1000, out_features=20, bias=True)
    (6): Linear(in_features=1000, out_features=20, bias=True)
    (7): Linear(in_features=1000, out_features=20, bias=True)
    (8): Linear(in_features=1000, out_features=20, bias=True)
    (9): Linear(in_features=1000, out_features=20, bias=True)
    (10): Linear(in_features=1000, out_features=20, bias=True)
    (11): Linear(in_features=1000, out_features=20, bias=True)
    (12): Linear(in_features=1000, out_features=20, bias=True)
    (13): Linear(in_features=1000, out_features=20, bias=True)
    (14): Linear(in_features=1000, out_features=20, bias=True)
  )
)
======

************************************************************************************************************
Task 15
************************************************************************************************************
| Epoch   1, time=  1.2s | Train: skip eval | Valid: time=  0.2s loss=5.726, TAw acc= 51.2% | *
| Epoch   2, time=  1.3s | Train: skip eval | Valid: time=  0.1s loss=3.254, TAw acc= 57.5% | *
…
>>> Test on task 10 : loss=0.908 | TAw acc= 98.1%, forg=  0.0%| TAg acc= 78.8%, forg=  6.7% <<<
>>> Test on task 11 : loss=1.158 | TAw acc= 95.8%, forg=  0.8%| TAg acc= 69.7%, forg= 10.9% <<<
>>> Test on task 12 : loss=0.875 | TAw acc= 98.1%, forg=  0.9%| TAg acc= 88.7%, forg= -1.9% <<<
>>> Test on task 13 : loss=1.185 | TAw acc= 94.2%, forg=  0.0%| TAg acc= 71.0%, forg= 11.6% <<<
>>> Test on task 14 : loss=1.331 | TAw acc= 98.0%, forg= -3.0%| TAg acc= 56.0%, forg= 21.0% <<<
>>> Test on task 15 : loss=1.034 | TAw acc= 98.2%, forg=  0.0%| TAg acc= 78.0%, forg=  0.0% <<<
Save at k=100/eeil_e20_wisdm_2/wisdm_flex_eeil
======
LLL_Net(
  (model): SimpleMLP(
    (fc1): Linear(in_features=91, out_features=1000, bias=True)
    (fc2): Sequential()
  )
  (heads): ModuleList(
    (0): Linear(in_features=1000, out_features=34, bias=True)
    (1): Linear(in_features=1000, out_features=20, bias=True)
    (2): Linear(in_features=1000, out_features=20, bias=True)
    (3): Linear(in_features=1000, out_features=20, bias=True)
    (4): Linear(in_features=1000, out_features=20, bias=True)
    (5): Linear(in_features=1000, out_features=20, bias=True)
    (6): Linear(in_features=1000, out_features=20, bias=True)
    (7): Linear(in_features=1000, out_features=20, bias=True)
    (8): Linear(in_features=1000, out_features=20, bias=True)
    (9): Linear(in_features=1000, out_features=20, bias=True)
    (10): Linear(in_features=1000, out_features=20, bias=True)
    (11): Linear(in_features=1000, out_features=20, bias=True)
    (12): Linear(in_features=1000, out_features=20, bias=True)
    (13): Linear(in_features=1000, out_features=20, bias=True)
    (14): Linear(in_features=1000, out_features=20, bias=True)
    (15): Linear(in_features=1000, out_features=20, bias=True)
  )
)
======

************************************************************************************************************
Task 16
************************************************************************************************************
| Epoch   1, time=  1.3s | Train: skip eval | Valid: time=  0.2s loss=6.416, TAw acc= 29.2% | *
| Epoch   2, time=  1.3s | Train: skip eval | Valid: time=  0.2s loss=4.011, TAw acc= 53.8% | *
…
>>> Test on task 11 : loss=1.085 | TAw acc= 95.8%, forg=  0.8%| TAg acc= 67.2%, forg= 13.4% <<<
>>> Test on task 12 : loss=0.801 | TAw acc= 99.1%, forg=  0.0%| TAg acc= 91.5%, forg= -2.8% <<<
>>> Test on task 13 : loss=1.128 | TAw acc= 94.2%, forg=  0.0%| TAg acc= 71.0%, forg= 11.6% <<<
>>> Test on task 14 : loss=1.193 | TAw acc= 98.0%, forg=  0.0%| TAg acc= 58.0%, forg= 19.0% <<<
>>> Test on task 15 : loss=1.374 | TAw acc= 98.2%, forg=  0.0%| TAg acc= 53.2%, forg= 24.8% <<<
>>> Test on task 16 : loss=1.039 | TAw acc= 85.6%, forg=  0.0%| TAg acc= 74.4%, forg=  0.0% <<<
Save at k=100/eeil_e20_wisdm_2/wisdm_flex_eeil
======
LLL_Net(
  (model): SimpleMLP(
    (fc1): Linear(in_features=91, out_features=1000, bias=True)
    (fc2): Sequential()
  )
  (heads): ModuleList(
    (0): Linear(in_features=1000, out_features=34, bias=True)
    (1): Linear(in_features=1000, out_features=20, bias=True)
    (2): Linear(in_features=1000, out_features=20, bias=True)
    (3): Linear(in_features=1000, out_features=20, bias=True)
    (4): Linear(in_features=1000, out_features=20, bias=True)
    (5): Linear(in_features=1000, out_features=20, bias=True)
    (6): Linear(in_features=1000, out_features=20, bias=True)
    (7): Linear(in_features=1000, out_features=20, bias=True)
    (8): Linear(in_features=1000, out_features=20, bias=True)
    (9): Linear(in_features=1000, out_features=20, bias=True)
    (10): Linear(in_features=1000, out_features=20, bias=True)
    (11): Linear(in_features=1000, out_features=20, bias=True)
    (12): Linear(in_features=1000, out_features=20, bias=True)
    (13): Linear(in_features=1000, out_features=20, bias=True)
    (14): Linear(in_features=1000, out_features=20, bias=True)
    (15): Linear(in_features=1000, out_features=20, bias=True)
    (16): Linear(in_features=1000, out_features=20, bias=True)
  )
)
======

************************************************************************************************************
Task 17
************************************************************************************************************
| Epoch   1, time=  1.4s | Train: skip eval | Valid: time=  0.2s loss=6.364, TAw acc= 31.3% | *
| Epoch   2, time=  1.5s | Train: skip eval | Valid: time=  0.2s loss=3.896, TAw acc= 59.7% | *
…
>>> Test on task 12 : loss=0.763 | TAw acc= 99.1%, forg=  0.0%| TAg acc= 87.7%, forg=  3.8% <<<
>>> Test on task 13 : loss=1.064 | TAw acc= 93.5%, forg=  0.7%| TAg acc= 71.7%, forg= 10.9% <<<
>>> Test on task 14 : loss=1.179 | TAw acc= 98.0%, forg=  0.0%| TAg acc= 64.0%, forg= 13.0% <<<
>>> Test on task 15 : loss=1.272 | TAw acc= 98.2%, forg=  0.0%| TAg acc= 59.6%, forg= 18.3% <<<
>>> Test on task 16 : loss=1.264 | TAw acc= 91.1%, forg= -5.6%| TAg acc= 65.6%, forg=  8.9% <<<
>>> Test on task 17 : loss=1.100 | TAw acc= 89.2%, forg=  0.0%| TAg acc= 77.4%, forg=  0.0% <<<
Save at k=100/eeil_e20_wisdm_2/wisdm_flex_eeil
======
LLL_Net(
  (model): SimpleMLP(
    (fc1): Linear(in_features=91, out_features=1000, bias=True)
    (fc2): Sequential()
  )
  (heads): ModuleList(
    (0): Linear(in_features=1000, out_features=34, bias=True)
    (1): Linear(in_features=1000, out_features=20, bias=True)
    (2): Linear(in_features=1000, out_features=20, bias=True)
    (3): Linear(in_features=1000, out_features=20, bias=True)
    (4): Linear(in_features=1000, out_features=20, bias=True)
    (5): Linear(in_features=1000, out_features=20, bias=True)
    (6): Linear(in_features=1000, out_features=20, bias=True)
    (7): Linear(in_features=1000, out_features=20, bias=True)
    (8): Linear(in_features=1000, out_features=20, bias=True)
    (9): Linear(in_features=1000, out_features=20, bias=True)
    (10): Linear(in_features=1000, out_features=20, bias=True)
    (11): Linear(in_features=1000, out_features=20, bias=True)
    (12): Linear(in_features=1000, out_features=20, bias=True)
    (13): Linear(in_features=1000, out_features=20, bias=True)
    (14): Linear(in_features=1000, out_features=20, bias=True)
    (15): Linear(in_features=1000, out_features=20, bias=True)
    (16): Linear(in_features=1000, out_features=20, bias=True)
    (17): Linear(in_features=1000, out_features=20, bias=True)
  )
)
======

************************************************************************************************************
Task 18
************************************************************************************************************
| Epoch   1, time=  1.6s | Train: skip eval | Valid: time=  0.2s loss=5.026, TAw acc= 44.2% | *
| Epoch   2, time=  1.6s | Train: skip eval | Valid: time=  0.2s loss=2.883, TAw acc= 75.6% | *
…
>>> Test on task 13 : loss=1.062 | TAw acc= 93.5%, forg=  0.7%| TAg acc= 73.2%, forg=  9.4% <<<
>>> Test on task 14 : loss=1.066 | TAw acc= 98.0%, forg=  0.0%| TAg acc= 63.0%, forg= 14.0% <<<
>>> Test on task 15 : loss=1.337 | TAw acc= 99.1%, forg= -0.9%| TAg acc= 57.8%, forg= 20.2% <<<
>>> Test on task 16 : loss=1.129 | TAw acc= 88.9%, forg=  2.2%| TAg acc= 70.0%, forg=  4.4% <<<
>>> Test on task 17 : loss=1.275 | TAw acc= 89.2%, forg=  0.0%| TAg acc= 64.5%, forg= 12.9% <<<
>>> Test on task 18 : loss=0.819 | TAw acc=100.0%, forg=  0.0%| TAg acc= 79.5%, forg=  0.0% <<<
Save at k=100/eeil_e20_wisdm_2/wisdm_flex_eeil
======
LLL_Net(
  (model): SimpleMLP(
    (fc1): Linear(in_features=91, out_features=1000, bias=True)
    (fc2): Sequential()
  )
  (heads): ModuleList(
    (0): Linear(in_features=1000, out_features=34, bias=True)
    (1): Linear(in_features=1000, out_features=20, bias=True)
    (2): Linear(in_features=1000, out_features=20, bias=True)
    (3): Linear(in_features=1000, out_features=20, bias=True)
    (4): Linear(in_features=1000, out_features=20, bias=True)
    (5): Linear(in_features=1000, out_features=20, bias=True)
    (6): Linear(in_features=1000, out_features=20, bias=True)
    (7): Linear(in_features=1000, out_features=20, bias=True)
    (8): Linear(in_features=1000, out_features=20, bias=True)
    (9): Linear(in_features=1000, out_features=20, bias=True)
    (10): Linear(in_features=1000, out_features=20, bias=True)
    (11): Linear(in_features=1000, out_features=20, bias=True)
    (12): Linear(in_features=1000, out_features=20, bias=True)
    (13): Linear(in_features=1000, out_features=20, bias=True)
    (14): Linear(in_features=1000, out_features=20, bias=True)
    (15): Linear(in_features=1000, out_features=20, bias=True)
    (16): Linear(in_features=1000, out_features=20, bias=True)
    (17): Linear(in_features=1000, out_features=20, bias=True)
    (18): Linear(in_features=1000, out_features=20, bias=True)
  )
)
======

************************************************************************************************************
Task 19
************************************************************************************************************
| Epoch   1, time=  1.7s | Train: skip eval | Valid: time=  0.2s loss=5.225, TAw acc= 55.4% | *
| Epoch   2, time=  1.8s | Train: skip eval | Valid: time=  0.2s loss=2.876, TAw acc= 66.3% | *
…
>>> Test on task 14 : loss=1.079 | TAw acc= 98.0%, forg=  0.0%| TAg acc= 67.0%, forg= 10.0% <<<
>>> Test on task 15 : loss=1.277 | TAw acc= 98.2%, forg=  0.9%| TAg acc= 59.6%, forg= 18.3% <<<
>>> Test on task 16 : loss=1.054 | TAw acc= 91.1%, forg=  0.0%| TAg acc= 70.0%, forg=  4.4% <<<
>>> Test on task 17 : loss=1.207 | TAw acc= 89.2%, forg=  0.0%| TAg acc= 66.7%, forg= 10.8% <<<
>>> Test on task 18 : loss=1.266 | TAw acc= 99.1%, forg=  0.9%| TAg acc= 61.5%, forg= 17.9% <<<
>>> Test on task 19 : loss=1.050 | TAw acc= 92.9%, forg=  0.0%| TAg acc= 78.6%, forg=  0.0% <<<
Save at k=100/eeil_e20_wisdm_2/wisdm_flex_eeil
======
LLL_Net(
  (model): SimpleMLP(
    (fc1): Linear(in_features=91, out_features=1000, bias=True)
    (fc2): Sequential()
  )
  (heads): ModuleList(
    (0): Linear(in_features=1000, out_features=34, bias=True)
    (1): Linear(in_features=1000, out_features=20, bias=True)
    (2): Linear(in_features=1000, out_features=20, bias=True)
    (3): Linear(in_features=1000, out_features=20, bias=True)
    (4): Linear(in_features=1000, out_features=20, bias=True)
    (5): Linear(in_features=1000, out_features=20, bias=True)
    (6): Linear(in_features=1000, out_features=20, bias=True)
    (7): Linear(in_features=1000, out_features=20, bias=True)
    (8): Linear(in_features=1000, out_features=20, bias=True)
    (9): Linear(in_features=1000, out_features=20, bias=True)
    (10): Linear(in_features=1000, out_features=20, bias=True)
    (11): Linear(in_features=1000, out_features=20, bias=True)
    (12): Linear(in_features=1000, out_features=20, bias=True)
    (13): Linear(in_features=1000, out_features=20, bias=True)
    (14): Linear(in_features=1000, out_features=20, bias=True)
    (15): Linear(in_features=1000, out_features=20, bias=True)
    (16): Linear(in_features=1000, out_features=20, bias=True)
    (17): Linear(in_features=1000, out_features=20, bias=True)
    (18): Linear(in_features=1000, out_features=20, bias=True)
    (19): Linear(in_features=1000, out_features=20, bias=True)
  )
)
======

************************************************************************************************************
Task 20
************************************************************************************************************
| Epoch   1, time=  1.8s | Train: skip eval | Valid: time=  0.2s loss=5.760, TAw acc= 53.0% | *
| Epoch   2, time=  1.8s | Train: skip eval | Valid: time=  0.2s loss=2.998, TAw acc= 72.3% | *
…
>>> Test on task 15 : loss=1.209 | TAw acc= 98.2%, forg=  0.9%| TAg acc= 64.2%, forg= 13.8% <<<
>>> Test on task 16 : loss=1.008 | TAw acc= 91.1%, forg=  0.0%| TAg acc= 72.2%, forg=  2.2% <<<
>>> Test on task 17 : loss=1.199 | TAw acc= 89.2%, forg=  0.0%| TAg acc= 63.4%, forg= 14.0% <<<
>>> Test on task 18 : loss=1.129 | TAw acc= 99.1%, forg=  0.9%| TAg acc= 65.8%, forg= 13.7% <<<
>>> Test on task 19 : loss=1.524 | TAw acc= 92.9%, forg=  0.0%| TAg acc= 58.0%, forg= 20.5% <<<
>>> Test on task 20 : loss=1.039 | TAw acc= 96.4%, forg=  0.0%| TAg acc= 70.5%, forg=  0.0% <<<
Save at k=100/eeil_e20_wisdm_2/wisdm_flex_eeil
======
LLL_Net(
  (model): SimpleMLP(
    (fc1): Linear(in_features=91, out_features=1000, bias=True)
    (fc2): Sequential()
  )
  (heads): ModuleList(
    (0): Linear(in_features=1000, out_features=34, bias=True)
    (1): Linear(in_features=1000, out_features=20, bias=True)
    (2): Linear(in_features=1000, out_features=20, bias=True)
    (3): Linear(in_features=1000, out_features=20, bias=True)
    (4): Linear(in_features=1000, out_features=20, bias=True)
    (5): Linear(in_features=1000, out_features=20, bias=True)
    (6): Linear(in_features=1000, out_features=20, bias=True)
    (7): Linear(in_features=1000, out_features=20, bias=True)
    (8): Linear(in_features=1000, out_features=20, bias=True)
    (9): Linear(in_features=1000, out_features=20, bias=True)
    (10): Linear(in_features=1000, out_features=20, bias=True)
    (11): Linear(in_features=1000, out_features=20, bias=True)
    (12): Linear(in_features=1000, out_features=20, bias=True)
    (13): Linear(in_features=1000, out_features=20, bias=True)
    (14): Linear(in_features=1000, out_features=20, bias=True)
    (15): Linear(in_features=1000, out_features=20, bias=True)
    (16): Linear(in_features=1000, out_features=20, bias=True)
    (17): Linear(in_features=1000, out_features=20, bias=True)
    (18): Linear(in_features=1000, out_features=20, bias=True)
    (19): Linear(in_features=1000, out_features=20, bias=True)
    (20): Linear(in_features=1000, out_features=20, bias=True)
  )
)
======

************************************************************************************************************
Task 21
************************************************************************************************************
| Epoch   1, time=  2.0s | Train: skip eval | Valid: time=  0.2s loss=6.613, TAw acc= 37.0% | *
| Epoch   2, time=  2.0s | Train: skip eval | Valid: time=  0.2s loss=3.363, TAw acc= 57.5% | *
…
>>> Test on task 16 : loss=1.018 | TAw acc= 92.2%, forg= -1.1%| TAg acc= 76.7%, forg= -2.2% <<<
>>> Test on task 17 : loss=1.137 | TAw acc= 89.2%, forg=  0.0%| TAg acc= 73.1%, forg=  4.3% <<<
>>> Test on task 18 : loss=1.136 | TAw acc= 99.1%, forg=  0.9%| TAg acc= 62.4%, forg= 17.1% <<<
>>> Test on task 19 : loss=1.494 | TAw acc= 92.9%, forg=  0.0%| TAg acc= 55.4%, forg= 23.2% <<<
>>> Test on task 20 : loss=1.473 | TAw acc= 96.4%, forg=  0.0%| TAg acc= 46.4%, forg= 24.1% <<<
>>> Test on task 21 : loss=0.968 | TAw acc= 94.0%, forg=  0.0%| TAg acc= 76.0%, forg=  0.0% <<<
Save at k=100/eeil_e20_wisdm_2/wisdm_flex_eeil
======
LLL_Net(
  (model): SimpleMLP(
    (fc1): Linear(in_features=91, out_features=1000, bias=True)
    (fc2): Sequential()
  )
  (heads): ModuleList(
    (0): Linear(in_features=1000, out_features=34, bias=True)
    (1): Linear(in_features=1000, out_features=20, bias=True)
    (2): Linear(in_features=1000, out_features=20, bias=True)
    (3): Linear(in_features=1000, out_features=20, bias=True)
    (4): Linear(in_features=1000, out_features=20, bias=True)
    (5): Linear(in_features=1000, out_features=20, bias=True)
    (6): Linear(in_features=1000, out_features=20, bias=True)
    (7): Linear(in_features=1000, out_features=20, bias=True)
    (8): Linear(in_features=1000, out_features=20, bias=True)
    (9): Linear(in_features=1000, out_features=20, bias=True)
    (10): Linear(in_features=1000, out_features=20, bias=True)
    (11): Linear(in_features=1000, out_features=20, bias=True)
    (12): Linear(in_features=1000, out_features=20, bias=True)
    (13): Linear(in_features=1000, out_features=20, bias=True)
    (14): Linear(in_features=1000, out_features=20, bias=True)
    (15): Linear(in_features=1000, out_features=20, bias=True)
    (16): Linear(in_features=1000, out_features=20, bias=True)
    (17): Linear(in_features=1000, out_features=20, bias=True)
    (18): Linear(in_features=1000, out_features=20, bias=True)
    (19): Linear(in_features=1000, out_features=20, bias=True)
    (20): Linear(in_features=1000, out_features=20, bias=True)
    (21): Linear(in_features=1000, out_features=20, bias=True)
  )
)
======

************************************************************************************************************
Task 22
************************************************************************************************************
| Epoch   1, time=  2.0s | Train: skip eval | Valid: time=  0.2s loss=5.042, TAw acc= 60.2% | *
| Epoch   2, time=  2.1s | Train: skip eval | Valid: time=  0.2s loss=2.537, TAw acc= 78.4% | *
…
>>> Test on task 17 : loss=1.198 | TAw acc= 88.2%, forg=  1.1%| TAg acc= 63.4%, forg= 14.0% <<<
>>> Test on task 18 : loss=1.070 | TAw acc= 99.1%, forg=  0.9%| TAg acc= 69.2%, forg= 10.3% <<<
>>> Test on task 19 : loss=1.491 | TAw acc= 92.9%, forg=  0.0%| TAg acc= 57.1%, forg= 21.4% <<<
>>> Test on task 20 : loss=1.442 | TAw acc= 96.4%, forg=  0.0%| TAg acc= 48.2%, forg= 22.3% <<<
>>> Test on task 21 : loss=1.329 | TAw acc= 95.0%, forg= -1.0%| TAg acc= 57.0%, forg= 19.0% <<<
>>> Test on task 22 : loss=0.864 | TAw acc= 95.7%, forg=  0.0%| TAg acc= 80.3%, forg=  0.0% <<<
Save at k=100/eeil_e20_wisdm_2/wisdm_flex_eeil
======
LLL_Net(
  (model): SimpleMLP(
    (fc1): Linear(in_features=91, out_features=1000, bias=True)
    (fc2): Sequential()
  )
  (heads): ModuleList(
    (0): Linear(in_features=1000, out_features=34, bias=True)
    (1): Linear(in_features=1000, out_features=20, bias=True)
    (2): Linear(in_features=1000, out_features=20, bias=True)
    (3): Linear(in_features=1000, out_features=20, bias=True)
    (4): Linear(in_features=1000, out_features=20, bias=True)
    (5): Linear(in_features=1000, out_features=20, bias=True)
    (6): Linear(in_features=1000, out_features=20, bias=True)
    (7): Linear(in_features=1000, out_features=20, bias=True)
    (8): Linear(in_features=1000, out_features=20, bias=True)
    (9): Linear(in_features=1000, out_features=20, bias=True)
    (10): Linear(in_features=1000, out_features=20, bias=True)
    (11): Linear(in_features=1000, out_features=20, bias=True)
    (12): Linear(in_features=1000, out_features=20, bias=True)
    (13): Linear(in_features=1000, out_features=20, bias=True)
    (14): Linear(in_features=1000, out_features=20, bias=True)
    (15): Linear(in_features=1000, out_features=20, bias=True)
    (16): Linear(in_features=1000, out_features=20, bias=True)
    (17): Linear(in_features=1000, out_features=20, bias=True)
    (18): Linear(in_features=1000, out_features=20, bias=True)
    (19): Linear(in_features=1000, out_features=20, bias=True)
    (20): Linear(in_features=1000, out_features=20, bias=True)
    (21): Linear(in_features=1000, out_features=20, bias=True)
    (22): Linear(in_features=1000, out_features=20, bias=True)
  )
)
======

************************************************************************************************************
Task 23
************************************************************************************************************
| Epoch   1, time=  2.2s | Train: skip eval | Valid: time=  0.2s loss=5.752, TAw acc= 50.6% | *
| Epoch   2, time=  2.3s | Train: skip eval | Valid: time=  0.2s loss=2.316, TAw acc= 79.0% | *
…
>>> Test on task 18 : loss=1.027 | TAw acc= 99.1%, forg=  0.9%| TAg acc= 66.7%, forg= 12.8% <<<
>>> Test on task 19 : loss=1.411 | TAw acc= 92.9%, forg=  0.0%| TAg acc= 60.7%, forg= 17.9% <<<
>>> Test on task 20 : loss=1.405 | TAw acc= 97.3%, forg= -0.9%| TAg acc= 50.9%, forg= 19.6% <<<
>>> Test on task 21 : loss=1.244 | TAw acc= 97.0%, forg= -2.0%| TAg acc= 64.0%, forg= 12.0% <<<
>>> Test on task 22 : loss=1.176 | TAw acc= 97.4%, forg= -1.7%| TAg acc= 69.2%, forg= 11.1% <<<
>>> Test on task 23 : loss=0.917 | TAw acc= 94.5%, forg=  0.0%| TAg acc= 75.5%, forg=  0.0% <<<
Save at k=100/eeil_e20_wisdm_2/wisdm_flex_eeil
======
LLL_Net(
  (model): SimpleMLP(
    (fc1): Linear(in_features=91, out_features=1000, bias=True)
    (fc2): Sequential()
  )
  (heads): ModuleList(
    (0): Linear(in_features=1000, out_features=34, bias=True)
    (1): Linear(in_features=1000, out_features=20, bias=True)
    (2): Linear(in_features=1000, out_features=20, bias=True)
    (3): Linear(in_features=1000, out_features=20, bias=True)
    (4): Linear(in_features=1000, out_features=20, bias=True)
    (5): Linear(in_features=1000, out_features=20, bias=True)
    (6): Linear(in_features=1000, out_features=20, bias=True)
    (7): Linear(in_features=1000, out_features=20, bias=True)
    (8): Linear(in_features=1000, out_features=20, bias=True)
    (9): Linear(in_features=1000, out_features=20, bias=True)
    (10): Linear(in_features=1000, out_features=20, bias=True)
    (11): Linear(in_features=1000, out_features=20, bias=True)
    (12): Linear(in_features=1000, out_features=20, bias=True)
    (13): Linear(in_features=1000, out_features=20, bias=True)
    (14): Linear(in_features=1000, out_features=20, bias=True)
    (15): Linear(in_features=1000, out_features=20, bias=True)
    (16): Linear(in_features=1000, out_features=20, bias=True)
    (17): Linear(in_features=1000, out_features=20, bias=True)
    (18): Linear(in_features=1000, out_features=20, bias=True)
    (19): Linear(in_features=1000, out_features=20, bias=True)
    (20): Linear(in_features=1000, out_features=20, bias=True)
    (21): Linear(in_features=1000, out_features=20, bias=True)
    (22): Linear(in_features=1000, out_features=20, bias=True)
    (23): Linear(in_features=1000, out_features=20, bias=True)
  )
)
======

************************************************************************************************************
Task 24
************************************************************************************************************
| Epoch   1, time=  2.4s | Train: skip eval | Valid: time=  0.2s loss=5.564, TAw acc= 46.6% | *
| Epoch   2, time=  2.3s | Train: skip eval | Valid: time=  0.2s loss=2.725, TAw acc= 71.6% | *
…
>>> Test on task 19 : loss=1.362 | TAw acc= 92.9%, forg=  0.0%| TAg acc= 59.8%, forg= 18.8% <<<
>>> Test on task 20 : loss=1.295 | TAw acc= 97.3%, forg=  0.0%| TAg acc= 59.8%, forg= 10.7% <<<
>>> Test on task 21 : loss=1.197 | TAw acc= 96.0%, forg=  1.0%| TAg acc= 63.0%, forg= 13.0% <<<
>>> Test on task 22 : loss=1.131 | TAw acc= 95.7%, forg=  1.7%| TAg acc= 70.9%, forg=  9.4% <<<
>>> Test on task 23 : loss=1.294 | TAw acc= 94.5%, forg=  0.0%| TAg acc= 56.4%, forg= 19.1% <<<
>>> Test on task 24 : loss=1.029 | TAw acc= 95.7%, forg=  0.0%| TAg acc= 82.1%, forg=  0.0% <<<
Save at k=100/eeil_e20_wisdm_2/wisdm_flex_eeil
======
LLL_Net(
  (model): SimpleMLP(
    (fc1): Linear(in_features=91, out_features=1000, bias=True)
    (fc2): Sequential()
  )
  (heads): ModuleList(
    (0): Linear(in_features=1000, out_features=34, bias=True)
    (1): Linear(in_features=1000, out_features=20, bias=True)
    (2): Linear(in_features=1000, out_features=20, bias=True)
    (3): Linear(in_features=1000, out_features=20, bias=True)
    (4): Linear(in_features=1000, out_features=20, bias=True)
    (5): Linear(in_features=1000, out_features=20, bias=True)
    (6): Linear(in_features=1000, out_features=20, bias=True)
    (7): Linear(in_features=1000, out_features=20, bias=True)
    (8): Linear(in_features=1000, out_features=20, bias=True)
    (9): Linear(in_features=1000, out_features=20, bias=True)
    (10): Linear(in_features=1000, out_features=20, bias=True)
    (11): Linear(in_features=1000, out_features=20, bias=True)
    (12): Linear(in_features=1000, out_features=20, bias=True)
    (13): Linear(in_features=1000, out_features=20, bias=True)
    (14): Linear(in_features=1000, out_features=20, bias=True)
    (15): Linear(in_features=1000, out_features=20, bias=True)
    (16): Linear(in_features=1000, out_features=20, bias=True)
    (17): Linear(in_features=1000, out_features=20, bias=True)
    (18): Linear(in_features=1000, out_features=20, bias=True)
    (19): Linear(in_features=1000, out_features=20, bias=True)
    (20): Linear(in_features=1000, out_features=20, bias=True)
    (21): Linear(in_features=1000, out_features=20, bias=True)
    (22): Linear(in_features=1000, out_features=20, bias=True)
    (23): Linear(in_features=1000, out_features=20, bias=True)
    (24): Linear(in_features=1000, out_features=20, bias=True)
  )
)
======

************************************************************************************************************
Task 25
************************************************************************************************************
| Epoch   1, time=  2.5s | Train: skip eval | Valid: time=  0.2s loss=6.145, TAw acc= 34.2% | *
| Epoch   2, time=  2.5s | Train: skip eval | Valid: time=  0.2s loss=3.552, TAw acc= 63.3% | *
…
>>> Test on task 20 : loss=1.344 | TAw acc= 97.3%, forg=  0.0%| TAg acc= 56.2%, forg= 14.3% <<<
>>> Test on task 21 : loss=1.168 | TAw acc= 95.0%, forg=  2.0%| TAg acc= 65.0%, forg= 11.0% <<<
>>> Test on task 22 : loss=1.103 | TAw acc= 96.6%, forg=  0.9%| TAg acc= 70.1%, forg= 10.3% <<<
>>> Test on task 23 : loss=1.217 | TAw acc= 95.5%, forg= -0.9%| TAg acc= 62.7%, forg= 12.7% <<<
>>> Test on task 24 : loss=1.489 | TAw acc= 95.7%, forg=  0.0%| TAg acc= 54.7%, forg= 27.4% <<<
>>> Test on task 25 : loss=0.986 | TAw acc= 97.2%, forg=  0.0%| TAg acc= 76.6%, forg=  0.0% <<<
Save at k=100/eeil_e20_wisdm_2/wisdm_flex_eeil
======
LLL_Net(
  (model): SimpleMLP(
    (fc1): Linear(in_features=91, out_features=1000, bias=True)
    (fc2): Sequential()
  )
  (heads): ModuleList(
    (0): Linear(in_features=1000, out_features=34, bias=True)
    (1): Linear(in_features=1000, out_features=20, bias=True)
    (2): Linear(in_features=1000, out_features=20, bias=True)
    (3): Linear(in_features=1000, out_features=20, bias=True)
    (4): Linear(in_features=1000, out_features=20, bias=True)
    (5): Linear(in_features=1000, out_features=20, bias=True)
    (6): Linear(in_features=1000, out_features=20, bias=True)
    (7): Linear(in_features=1000, out_features=20, bias=True)
    (8): Linear(in_features=1000, out_features=20, bias=True)
    (9): Linear(in_features=1000, out_features=20, bias=True)
    (10): Linear(in_features=1000, out_features=20, bias=True)
    (11): Linear(in_features=1000, out_features=20, bias=True)
    (12): Linear(in_features=1000, out_features=20, bias=True)
    (13): Linear(in_features=1000, out_features=20, bias=True)
    (14): Linear(in_features=1000, out_features=20, bias=True)
    (15): Linear(in_features=1000, out_features=20, bias=True)
    (16): Linear(in_features=1000, out_features=20, bias=True)
    (17): Linear(in_features=1000, out_features=20, bias=True)
    (18): Linear(in_features=1000, out_features=20, bias=True)
    (19): Linear(in_features=1000, out_features=20, bias=True)
    (20): Linear(in_features=1000, out_features=20, bias=True)
    (21): Linear(in_features=1000, out_features=20, bias=True)
    (22): Linear(in_features=1000, out_features=20, bias=True)
    (23): Linear(in_features=1000, out_features=20, bias=True)
    (24): Linear(in_features=1000, out_features=20, bias=True)
    (25): Linear(in_features=1000, out_features=20, bias=True)
  )
)
======

************************************************************************************************************
Task 26
************************************************************************************************************
| Epoch   1, time=  2.7s | Train: skip eval | Valid: time=  0.2s loss=5.574, TAw acc= 58.3% | *
| Epoch   2, time=  2.8s | Train: skip eval | Valid: time=  0.2s loss=2.734, TAw acc= 70.8% | *
…
>>> Test on task 21 : loss=1.145 | TAw acc= 97.0%, forg=  0.0%| TAg acc= 62.0%, forg= 14.0% <<<
>>> Test on task 22 : loss=1.071 | TAw acc= 94.9%, forg=  2.6%| TAg acc= 70.9%, forg=  9.4% <<<
>>> Test on task 23 : loss=1.188 | TAw acc= 95.5%, forg=  0.0%| TAg acc= 69.1%, forg=  6.4% <<<
>>> Test on task 24 : loss=1.442 | TAw acc= 96.6%, forg= -0.9%| TAg acc= 56.4%, forg= 25.6% <<<
>>> Test on task 25 : loss=1.284 | TAw acc= 97.2%, forg=  0.0%| TAg acc= 61.7%, forg= 15.0% <<<
>>> Test on task 26 : loss=1.058 | TAw acc= 95.3%, forg=  0.0%| TAg acc= 68.8%, forg=  0.0% <<<
Save at k=100/eeil_e20_wisdm_2/wisdm_flex_eeil
======
LLL_Net(
  (model): SimpleMLP(
    (fc1): Linear(in_features=91, out_features=1000, bias=True)
    (fc2): Sequential()
  )
  (heads): ModuleList(
    (0): Linear(in_features=1000, out_features=34, bias=True)
    (1): Linear(in_features=1000, out_features=20, bias=True)
    (2): Linear(in_features=1000, out_features=20, bias=True)
    (3): Linear(in_features=1000, out_features=20, bias=True)
    (4): Linear(in_features=1000, out_features=20, bias=True)
    (5): Linear(in_features=1000, out_features=20, bias=True)
    (6): Linear(in_features=1000, out_features=20, bias=True)
    (7): Linear(in_features=1000, out_features=20, bias=True)
    (8): Linear(in_features=1000, out_features=20, bias=True)
    (9): Linear(in_features=1000, out_features=20, bias=True)
    (10): Linear(in_features=1000, out_features=20, bias=True)
    (11): Linear(in_features=1000, out_features=20, bias=True)
    (12): Linear(in_features=1000, out_features=20, bias=True)
    (13): Linear(in_features=1000, out_features=20, bias=True)
    (14): Linear(in_features=1000, out_features=20, bias=True)
    (15): Linear(in_features=1000, out_features=20, bias=True)
    (16): Linear(in_features=1000, out_features=20, bias=True)
    (17): Linear(in_features=1000, out_features=20, bias=True)
    (18): Linear(in_features=1000, out_features=20, bias=True)
    (19): Linear(in_features=1000, out_features=20, bias=True)
    (20): Linear(in_features=1000, out_features=20, bias=True)
    (21): Linear(in_features=1000, out_features=20, bias=True)
    (22): Linear(in_features=1000, out_features=20, bias=True)
    (23): Linear(in_features=1000, out_features=20, bias=True)
    (24): Linear(in_features=1000, out_features=20, bias=True)
    (25): Linear(in_features=1000, out_features=20, bias=True)
    (26): Linear(in_features=1000, out_features=20, bias=True)
  )
)
======

************************************************************************************************************
Task 27
************************************************************************************************************
| Epoch   1, time=  2.9s | Train: skip eval | Valid: time=  0.2s loss=4.887, TAw acc= 52.0% | *
| Epoch   2, time=  2.9s | Train: skip eval | Valid: time=  0.2s loss=2.176, TAw acc= 78.6% | *
…
>>> Test on task 22 : loss=1.062 | TAw acc= 94.9%, forg=  2.6%| TAg acc= 70.9%, forg=  9.4% <<<
>>> Test on task 23 : loss=1.222 | TAw acc= 95.5%, forg=  0.0%| TAg acc= 69.1%, forg=  6.4% <<<
>>> Test on task 24 : loss=1.342 | TAw acc= 97.4%, forg= -0.9%| TAg acc= 59.0%, forg= 23.1% <<<
>>> Test on task 25 : loss=1.261 | TAw acc= 97.2%, forg=  0.0%| TAg acc= 57.0%, forg= 19.6% <<<
>>> Test on task 26 : loss=1.458 | TAw acc= 95.3%, forg=  0.0%| TAg acc= 52.3%, forg= 16.4% <<<
>>> Test on task 27 : loss=0.695 | TAw acc= 98.4%, forg=  0.0%| TAg acc= 84.5%, forg=  0.0% <<<
Save at k=100/eeil_e20_wisdm_2/wisdm_flex_eeil
======
LLL_Net(
  (model): SimpleMLP(
    (fc1): Linear(in_features=91, out_features=1000, bias=True)
    (fc2): Sequential()
  )
  (heads): ModuleList(
    (0): Linear(in_features=1000, out_features=34, bias=True)
    (1): Linear(in_features=1000, out_features=20, bias=True)
    (2): Linear(in_features=1000, out_features=20, bias=True)
    (3): Linear(in_features=1000, out_features=20, bias=True)
    (4): Linear(in_features=1000, out_features=20, bias=True)
    (5): Linear(in_features=1000, out_features=20, bias=True)
    (6): Linear(in_features=1000, out_features=20, bias=True)
    (7): Linear(in_features=1000, out_features=20, bias=True)
    (8): Linear(in_features=1000, out_features=20, bias=True)
    (9): Linear(in_features=1000, out_features=20, bias=True)
    (10): Linear(in_features=1000, out_features=20, bias=True)
    (11): Linear(in_features=1000, out_features=20, bias=True)
    (12): Linear(in_features=1000, out_features=20, bias=True)
    (13): Linear(in_features=1000, out_features=20, bias=True)
    (14): Linear(in_features=1000, out_features=20, bias=True)
    (15): Linear(in_features=1000, out_features=20, bias=True)
    (16): Linear(in_features=1000, out_features=20, bias=True)
    (17): Linear(in_features=1000, out_features=20, bias=True)
    (18): Linear(in_features=1000, out_features=20, bias=True)
    (19): Linear(in_features=1000, out_features=20, bias=True)
    (20): Linear(in_features=1000, out_features=20, bias=True)
    (21): Linear(in_features=1000, out_features=20, bias=True)
    (22): Linear(in_features=1000, out_features=20, bias=True)
    (23): Linear(in_features=1000, out_features=20, bias=True)
    (24): Linear(in_features=1000, out_features=20, bias=True)
    (25): Linear(in_features=1000, out_features=20, bias=True)
    (26): Linear(in_features=1000, out_features=20, bias=True)
    (27): Linear(in_features=1000, out_features=20, bias=True)
  )
)
======

************************************************************************************************************
Task 28
************************************************************************************************************
| Epoch   1, time=  3.0s | Train: skip eval | Valid: time=  0.2s loss=6.659, TAw acc= 40.3% | *
| Epoch   2, time=  3.3s | Train: skip eval | Valid: time=  0.2s loss=3.200, TAw acc= 83.6% | *
…
>>> Test on task 23 : loss=1.191 | TAw acc= 95.5%, forg=  0.0%| TAg acc= 72.7%, forg=  2.7% <<<
>>> Test on task 24 : loss=1.360 | TAw acc= 96.6%, forg=  0.9%| TAg acc= 58.1%, forg= 23.9% <<<
>>> Test on task 25 : loss=1.211 | TAw acc= 97.2%, forg=  0.0%| TAg acc= 63.6%, forg= 13.1% <<<
>>> Test on task 26 : loss=1.445 | TAw acc= 95.3%, forg=  0.0%| TAg acc= 56.2%, forg= 12.5% <<<
>>> Test on task 27 : loss=1.009 | TAw acc= 98.4%, forg=  0.0%| TAg acc= 75.2%, forg=  9.3% <<<
>>> Test on task 28 : loss=1.302 | TAw acc= 94.6%, forg=  0.0%| TAg acc= 65.6%, forg=  0.0% <<<
Save at k=100/eeil_e20_wisdm_2/wisdm_flex_eeil
======
LLL_Net(
  (model): SimpleMLP(
    (fc1): Linear(in_features=91, out_features=1000, bias=True)
    (fc2): Sequential()
  )
  (heads): ModuleList(
    (0): Linear(in_features=1000, out_features=34, bias=True)
    (1): Linear(in_features=1000, out_features=20, bias=True)
    (2): Linear(in_features=1000, out_features=20, bias=True)
    (3): Linear(in_features=1000, out_features=20, bias=True)
    (4): Linear(in_features=1000, out_features=20, bias=True)
    (5): Linear(in_features=1000, out_features=20, bias=True)
    (6): Linear(in_features=1000, out_features=20, bias=True)
    (7): Linear(in_features=1000, out_features=20, bias=True)
    (8): Linear(in_features=1000, out_features=20, bias=True)
    (9): Linear(in_features=1000, out_features=20, bias=True)
    (10): Linear(in_features=1000, out_features=20, bias=True)
    (11): Linear(in_features=1000, out_features=20, bias=True)
    (12): Linear(in_features=1000, out_features=20, bias=True)
    (13): Linear(in_features=1000, out_features=20, bias=True)
    (14): Linear(in_features=1000, out_features=20, bias=True)
    (15): Linear(in_features=1000, out_features=20, bias=True)
    (16): Linear(in_features=1000, out_features=20, bias=True)
    (17): Linear(in_features=1000, out_features=20, bias=True)
    (18): Linear(in_features=1000, out_features=20, bias=True)
    (19): Linear(in_features=1000, out_features=20, bias=True)
    (20): Linear(in_features=1000, out_features=20, bias=True)
    (21): Linear(in_features=1000, out_features=20, bias=True)
    (22): Linear(in_features=1000, out_features=20, bias=True)
    (23): Linear(in_features=1000, out_features=20, bias=True)
    (24): Linear(in_features=1000, out_features=20, bias=True)
    (25): Linear(in_features=1000, out_features=20, bias=True)
    (26): Linear(in_features=1000, out_features=20, bias=True)
    (27): Linear(in_features=1000, out_features=20, bias=True)
    (28): Linear(in_features=1000, out_features=20, bias=True)
  )
)
======

************************************************************************************************************
Task 29
************************************************************************************************************
| Epoch   1, time=  3.1s | Train: skip eval | Valid: time=  0.2s loss=6.295, TAw acc= 41.6% | *
| Epoch   2, time=  3.2s | Train: skip eval | Valid: time=  0.2s loss=3.279, TAw acc= 62.3% | *
…
>>> Test on task 24 : loss=1.428 | TAw acc= 97.4%, forg=  0.0%| TAg acc= 61.5%, forg= 20.5% <<<
>>> Test on task 25 : loss=1.160 | TAw acc= 96.3%, forg=  0.9%| TAg acc= 68.2%, forg=  8.4% <<<
>>> Test on task 26 : loss=1.406 | TAw acc= 95.3%, forg=  0.0%| TAg acc= 57.8%, forg= 10.9% <<<
>>> Test on task 27 : loss=0.922 | TAw acc= 99.2%, forg= -0.8%| TAg acc= 80.6%, forg=  3.9% <<<
>>> Test on task 28 : loss=1.508 | TAw acc= 95.7%, forg= -1.1%| TAg acc= 54.8%, forg= 10.8% <<<
>>> Test on task 29 : loss=1.323 | TAw acc= 95.2%, forg=  0.0%| TAg acc= 66.7%, forg=  0.0% <<<
Save at k=100/eeil_e20_wisdm_2/wisdm_flex_eeil
======
LLL_Net(
  (model): SimpleMLP(
    (fc1): Linear(in_features=91, out_features=1000, bias=True)
    (fc2): Sequential()
  )
  (heads): ModuleList(
    (0): Linear(in_features=1000, out_features=34, bias=True)
    (1): Linear(in_features=1000, out_features=20, bias=True)
    (2): Linear(in_features=1000, out_features=20, bias=True)
    (3): Linear(in_features=1000, out_features=20, bias=True)
    (4): Linear(in_features=1000, out_features=20, bias=True)
    (5): Linear(in_features=1000, out_features=20, bias=True)
    (6): Linear(in_features=1000, out_features=20, bias=True)
    (7): Linear(in_features=1000, out_features=20, bias=True)
    (8): Linear(in_features=1000, out_features=20, bias=True)
    (9): Linear(in_features=1000, out_features=20, bias=True)
    (10): Linear(in_features=1000, out_features=20, bias=True)
    (11): Linear(in_features=1000, out_features=20, bias=True)
    (12): Linear(in_features=1000, out_features=20, bias=True)
    (13): Linear(in_features=1000, out_features=20, bias=True)
    (14): Linear(in_features=1000, out_features=20, bias=True)
    (15): Linear(in_features=1000, out_features=20, bias=True)
    (16): Linear(in_features=1000, out_features=20, bias=True)
    (17): Linear(in_features=1000, out_features=20, bias=True)
    (18): Linear(in_features=1000, out_features=20, bias=True)
    (19): Linear(in_features=1000, out_features=20, bias=True)
    (20): Linear(in_features=1000, out_features=20, bias=True)
    (21): Linear(in_features=1000, out_features=20, bias=True)
    (22): Linear(in_features=1000, out_features=20, bias=True)
    (23): Linear(in_features=1000, out_features=20, bias=True)
    (24): Linear(in_features=1000, out_features=20, bias=True)
    (25): Linear(in_features=1000, out_features=20, bias=True)
    (26): Linear(in_features=1000, out_features=20, bias=True)
    (27): Linear(in_features=1000, out_features=20, bias=True)
    (28): Linear(in_features=1000, out_features=20, bias=True)
    (29): Linear(in_features=1000, out_features=20, bias=True)
  )
)
======

************************************************************************************************************
Task 30
************************************************************************************************************
| Epoch   1, time=  3.4s | Train: skip eval | Valid: time=  0.2s loss=5.596, TAw acc= 44.9% | *
| Epoch   2, time=  3.4s | Train: skip eval | Valid: time=  0.2s loss=2.726, TAw acc= 67.4% | *
…
>>> Test on task 25 : loss=1.120 | TAw acc= 96.3%, forg=  0.9%| TAg acc= 71.0%, forg=  5.6% <<<
>>> Test on task 26 : loss=1.434 | TAw acc= 95.3%, forg=  0.0%| TAg acc= 59.4%, forg=  9.4% <<<
>>> Test on task 27 : loss=0.900 | TAw acc= 99.2%, forg=  0.0%| TAg acc= 76.7%, forg=  7.8% <<<
>>> Test on task 28 : loss=1.403 | TAw acc= 95.7%, forg=  0.0%| TAg acc= 59.1%, forg=  6.5% <<<
>>> Test on task 29 : loss=1.701 | TAw acc= 96.2%, forg= -1.0%| TAg acc= 36.2%, forg= 30.5% <<<
>>> Test on task 30 : loss=0.893 | TAw acc= 91.6%, forg=  0.0%| TAg acc= 82.4%, forg=  0.0% <<<
Save at k=100/eeil_e20_wisdm_2/wisdm_flex_eeil
======
LLL_Net(
  (model): SimpleMLP(
    (fc1): Linear(in_features=91, out_features=1000, bias=True)
    (fc2): Sequential()
  )
  (heads): ModuleList(
    (0): Linear(in_features=1000, out_features=34, bias=True)
    (1): Linear(in_features=1000, out_features=20, bias=True)
    (2): Linear(in_features=1000, out_features=20, bias=True)
    (3): Linear(in_features=1000, out_features=20, bias=True)
    (4): Linear(in_features=1000, out_features=20, bias=True)
    (5): Linear(in_features=1000, out_features=20, bias=True)
    (6): Linear(in_features=1000, out_features=20, bias=True)
    (7): Linear(in_features=1000, out_features=20, bias=True)
    (8): Linear(in_features=1000, out_features=20, bias=True)
    (9): Linear(in_features=1000, out_features=20, bias=True)
    (10): Linear(in_features=1000, out_features=20, bias=True)
    (11): Linear(in_features=1000, out_features=20, bias=True)
    (12): Linear(in_features=1000, out_features=20, bias=True)
    (13): Linear(in_features=1000, out_features=20, bias=True)
    (14): Linear(in_features=1000, out_features=20, bias=True)
    (15): Linear(in_features=1000, out_features=20, bias=True)
    (16): Linear(in_features=1000, out_features=20, bias=True)
    (17): Linear(in_features=1000, out_features=20, bias=True)
    (18): Linear(in_features=1000, out_features=20, bias=True)
    (19): Linear(in_features=1000, out_features=20, bias=True)
    (20): Linear(in_features=1000, out_features=20, bias=True)
    (21): Linear(in_features=1000, out_features=20, bias=True)
    (22): Linear(in_features=1000, out_features=20, bias=True)
    (23): Linear(in_features=1000, out_features=20, bias=True)
    (24): Linear(in_features=1000, out_features=20, bias=True)
    (25): Linear(in_features=1000, out_features=20, bias=True)
    (26): Linear(in_features=1000, out_features=20, bias=True)
    (27): Linear(in_features=1000, out_features=20, bias=True)
    (28): Linear(in_features=1000, out_features=20, bias=True)
    (29): Linear(in_features=1000, out_features=20, bias=True)
    (30): Linear(in_features=1000, out_features=20, bias=True)
  )
)
======

************************************************************************************************************
Task 31
************************************************************************************************************
| Epoch   1, time=  3.5s | Train: skip eval | Valid: time=  0.2s loss=6.458, TAw acc= 56.9% | *
| Epoch   2, time=  3.5s | Train: skip eval | Valid: time=  0.2s loss=2.862, TAw acc= 70.8% | *
…
>>> Test on task 26 : loss=1.374 | TAw acc= 95.3%, forg=  0.0%| TAg acc= 63.3%, forg=  5.5% <<<
>>> Test on task 27 : loss=0.863 | TAw acc= 99.2%, forg=  0.0%| TAg acc= 78.3%, forg=  6.2% <<<
>>> Test on task 28 : loss=1.375 | TAw acc= 95.7%, forg=  0.0%| TAg acc= 54.8%, forg= 10.8% <<<
>>> Test on task 29 : loss=1.695 | TAw acc= 96.2%, forg=  0.0%| TAg acc= 39.0%, forg= 27.6% <<<
>>> Test on task 30 : loss=1.237 | TAw acc= 92.4%, forg= -0.8%| TAg acc= 74.8%, forg=  7.6% <<<
>>> Test on task 31 : loss=0.883 | TAw acc= 91.9%, forg=  0.0%| TAg acc= 79.8%, forg=  0.0% <<<
Save at k=100/eeil_e20_wisdm_2/wisdm_flex_eeil
======
LLL_Net(
  (model): SimpleMLP(
    (fc1): Linear(in_features=91, out_features=1000, bias=True)
    (fc2): Sequential()
  )
  (heads): ModuleList(
    (0): Linear(in_features=1000, out_features=34, bias=True)
    (1): Linear(in_features=1000, out_features=20, bias=True)
    (2): Linear(in_features=1000, out_features=20, bias=True)
    (3): Linear(in_features=1000, out_features=20, bias=True)
    (4): Linear(in_features=1000, out_features=20, bias=True)
    (5): Linear(in_features=1000, out_features=20, bias=True)
    (6): Linear(in_features=1000, out_features=20, bias=True)
    (7): Linear(in_features=1000, out_features=20, bias=True)
    (8): Linear(in_features=1000, out_features=20, bias=True)
    (9): Linear(in_features=1000, out_features=20, bias=True)
    (10): Linear(in_features=1000, out_features=20, bias=True)
    (11): Linear(in_features=1000, out_features=20, bias=True)
    (12): Linear(in_features=1000, out_features=20, bias=True)
    (13): Linear(in_features=1000, out_features=20, bias=True)
    (14): Linear(in_features=1000, out_features=20, bias=True)
    (15): Linear(in_features=1000, out_features=20, bias=True)
    (16): Linear(in_features=1000, out_features=20, bias=True)
    (17): Linear(in_features=1000, out_features=20, bias=True)
    (18): Linear(in_features=1000, out_features=20, bias=True)
    (19): Linear(in_features=1000, out_features=20, bias=True)
    (20): Linear(in_features=1000, out_features=20, bias=True)
    (21): Linear(in_features=1000, out_features=20, bias=True)
    (22): Linear(in_features=1000, out_features=20, bias=True)
    (23): Linear(in_features=1000, out_features=20, bias=True)
    (24): Linear(in_features=1000, out_features=20, bias=True)
    (25): Linear(in_features=1000, out_features=20, bias=True)
    (26): Linear(in_features=1000, out_features=20, bias=True)
    (27): Linear(in_features=1000, out_features=20, bias=True)
    (28): Linear(in_features=1000, out_features=20, bias=True)
    (29): Linear(in_features=1000, out_features=20, bias=True)
    (30): Linear(in_features=1000, out_features=20, bias=True)
    (31): Linear(in_features=1000, out_features=20, bias=True)
  )
)
======

************************************************************************************************************
Task 32
************************************************************************************************************
| Epoch   1, time=  3.7s | Train: skip eval | Valid: time=  0.2s loss=5.529, TAw acc= 52.6% | *
| Epoch   2, time=  3.8s | Train: skip eval | Valid: time=  0.2s loss=3.128, TAw acc= 73.7% | *
…
>>> Test on task 27 : loss=0.825 | TAw acc= 99.2%, forg=  0.0%| TAg acc= 79.1%, forg=  5.4% <<<
>>> Test on task 28 : loss=1.297 | TAw acc= 95.7%, forg=  0.0%| TAg acc= 61.3%, forg=  4.3% <<<
>>> Test on task 29 : loss=1.701 | TAw acc= 94.3%, forg=  1.9%| TAg acc= 41.0%, forg= 25.7% <<<
>>> Test on task 30 : loss=1.222 | TAw acc= 93.3%, forg= -0.8%| TAg acc= 71.4%, forg= 10.9% <<<
>>> Test on task 31 : loss=1.212 | TAw acc= 94.9%, forg= -3.0%| TAg acc= 62.6%, forg= 17.2% <<<
>>> Test on task 32 : loss=1.421 | TAw acc= 94.2%, forg=  0.0%| TAg acc= 74.8%, forg=  0.0% <<<
Save at k=100/eeil_e20_wisdm_2/wisdm_flex_eeil
======
LLL_Net(
  (model): SimpleMLP(
    (fc1): Linear(in_features=91, out_features=1000, bias=True)
    (fc2): Sequential()
  )
  (heads): ModuleList(
    (0): Linear(in_features=1000, out_features=34, bias=True)
    (1): Linear(in_features=1000, out_features=20, bias=True)
    (2): Linear(in_features=1000, out_features=20, bias=True)
    (3): Linear(in_features=1000, out_features=20, bias=True)
    (4): Linear(in_features=1000, out_features=20, bias=True)
    (5): Linear(in_features=1000, out_features=20, bias=True)
    (6): Linear(in_features=1000, out_features=20, bias=True)
    (7): Linear(in_features=1000, out_features=20, bias=True)
    (8): Linear(in_features=1000, out_features=20, bias=True)
    (9): Linear(in_features=1000, out_features=20, bias=True)
    (10): Linear(in_features=1000, out_features=20, bias=True)
    (11): Linear(in_features=1000, out_features=20, bias=True)
    (12): Linear(in_features=1000, out_features=20, bias=True)
    (13): Linear(in_features=1000, out_features=20, bias=True)
    (14): Linear(in_features=1000, out_features=20, bias=True)
    (15): Linear(in_features=1000, out_features=20, bias=True)
    (16): Linear(in_features=1000, out_features=20, bias=True)
    (17): Linear(in_features=1000, out_features=20, bias=True)
    (18): Linear(in_features=1000, out_features=20, bias=True)
    (19): Linear(in_features=1000, out_features=20, bias=True)
    (20): Linear(in_features=1000, out_features=20, bias=True)
    (21): Linear(in_features=1000, out_features=20, bias=True)
    (22): Linear(in_features=1000, out_features=20, bias=True)
    (23): Linear(in_features=1000, out_features=20, bias=True)
    (24): Linear(in_features=1000, out_features=20, bias=True)
    (25): Linear(in_features=1000, out_features=20, bias=True)
    (26): Linear(in_features=1000, out_features=20, bias=True)
    (27): Linear(in_features=1000, out_features=20, bias=True)
    (28): Linear(in_features=1000, out_features=20, bias=True)
    (29): Linear(in_features=1000, out_features=20, bias=True)
    (30): Linear(in_features=1000, out_features=20, bias=True)
    (31): Linear(in_features=1000, out_features=20, bias=True)
    (32): Linear(in_features=1000, out_features=20, bias=True)
  )
)
======

************************************************************************************************************
Task 33
************************************************************************************************************
| Epoch   1, time=  4.0s | Train: skip eval | Valid: time=  0.2s loss=4.922, TAw acc= 56.8% | *
| Epoch   2, time=  4.0s | Train: skip eval | Valid: time=  0.2s loss=2.025, TAw acc= 79.5% | *
…
>>> Test on task 28 : loss=1.253 | TAw acc= 95.7%, forg=  0.0%| TAg acc= 63.4%, forg=  2.2% <<<
>>> Test on task 29 : loss=1.802 | TAw acc= 96.2%, forg=  0.0%| TAg acc= 41.9%, forg= 24.8% <<<
>>> Test on task 30 : loss=1.219 | TAw acc= 92.4%, forg=  0.8%| TAg acc= 70.6%, forg= 11.8% <<<
>>> Test on task 31 : loss=1.124 | TAw acc= 94.9%, forg=  0.0%| TAg acc= 67.7%, forg= 12.1% <<<
>>> Test on task 32 : loss=1.910 | TAw acc= 95.1%, forg= -1.0%| TAg acc= 55.3%, forg= 19.4% <<<
>>> Test on task 33 : loss=1.068 | TAw acc= 95.8%, forg=  0.0%| TAg acc= 76.3%, forg=  0.0% <<<
Save at k=100/eeil_e20_wisdm_2/wisdm_flex_eeil
======
LLL_Net(
  (model): SimpleMLP(
    (fc1): Linear(in_features=91, out_features=1000, bias=True)
    (fc2): Sequential()
  )
  (heads): ModuleList(
    (0): Linear(in_features=1000, out_features=34, bias=True)
    (1): Linear(in_features=1000, out_features=20, bias=True)
    (2): Linear(in_features=1000, out_features=20, bias=True)
    (3): Linear(in_features=1000, out_features=20, bias=True)
    (4): Linear(in_features=1000, out_features=20, bias=True)
    (5): Linear(in_features=1000, out_features=20, bias=True)
    (6): Linear(in_features=1000, out_features=20, bias=True)
    (7): Linear(in_features=1000, out_features=20, bias=True)
    (8): Linear(in_features=1000, out_features=20, bias=True)
    (9): Linear(in_features=1000, out_features=20, bias=True)
    (10): Linear(in_features=1000, out_features=20, bias=True)
    (11): Linear(in_features=1000, out_features=20, bias=True)
    (12): Linear(in_features=1000, out_features=20, bias=True)
    (13): Linear(in_features=1000, out_features=20, bias=True)
    (14): Linear(in_features=1000, out_features=20, bias=True)
    (15): Linear(in_features=1000, out_features=20, bias=True)
    (16): Linear(in_features=1000, out_features=20, bias=True)
    (17): Linear(in_features=1000, out_features=20, bias=True)
    (18): Linear(in_features=1000, out_features=20, bias=True)
    (19): Linear(in_features=1000, out_features=20, bias=True)
    (20): Linear(in_features=1000, out_features=20, bias=True)
    (21): Linear(in_features=1000, out_features=20, bias=True)
    (22): Linear(in_features=1000, out_features=20, bias=True)
    (23): Linear(in_features=1000, out_features=20, bias=True)
    (24): Linear(in_features=1000, out_features=20, bias=True)
    (25): Linear(in_features=1000, out_features=20, bias=True)
    (26): Linear(in_features=1000, out_features=20, bias=True)
    (27): Linear(in_features=1000, out_features=20, bias=True)
    (28): Linear(in_features=1000, out_features=20, bias=True)
    (29): Linear(in_features=1000, out_features=20, bias=True)
    (30): Linear(in_features=1000, out_features=20, bias=True)
    (31): Linear(in_features=1000, out_features=20, bias=True)
    (32): Linear(in_features=1000, out_features=20, bias=True)
    (33): Linear(in_features=1000, out_features=20, bias=True)
  )
)
======

************************************************************************************************************
Task 34
************************************************************************************************************
| Epoch   1, time=  4.2s | Train: skip eval | Valid: time=  0.2s loss=6.076, TAw acc= 42.9% | *
| Epoch   2, time=  4.1s | Train: skip eval | Valid: time=  0.2s loss=2.846, TAw acc= 74.0% | *
…
>>> Test on task 29 : loss=1.856 | TAw acc= 94.3%, forg=  1.9%| TAg acc= 42.9%, forg= 23.8% <<<
>>> Test on task 30 : loss=1.228 | TAw acc= 93.3%, forg=  0.0%| TAg acc= 69.7%, forg= 12.6% <<<
>>> Test on task 31 : loss=1.189 | TAw acc= 94.9%, forg=  0.0%| TAg acc= 62.6%, forg= 17.2% <<<
>>> Test on task 32 : loss=1.921 | TAw acc= 95.1%, forg=  0.0%| TAg acc= 55.3%, forg= 19.4% <<<
>>> Test on task 33 : loss=1.409 | TAw acc= 95.8%, forg=  0.0%| TAg acc= 65.3%, forg= 11.0% <<<
>>> Test on task 34 : loss=0.868 | TAw acc= 96.2%, forg=  0.0%| TAg acc= 83.0%, forg=  0.0% <<<
Save at k=100/eeil_e20_wisdm_2/wisdm_flex_eeil
======
LLL_Net(
  (model): SimpleMLP(
    (fc1): Linear(in_features=91, out_features=1000, bias=True)
    (fc2): Sequential()
  )
  (heads): ModuleList(
    (0): Linear(in_features=1000, out_features=34, bias=True)
    (1): Linear(in_features=1000, out_features=20, bias=True)
    (2): Linear(in_features=1000, out_features=20, bias=True)
    (3): Linear(in_features=1000, out_features=20, bias=True)
    (4): Linear(in_features=1000, out_features=20, bias=True)
    (5): Linear(in_features=1000, out_features=20, bias=True)
    (6): Linear(in_features=1000, out_features=20, bias=True)
    (7): Linear(in_features=1000, out_features=20, bias=True)
    (8): Linear(in_features=1000, out_features=20, bias=True)
    (9): Linear(in_features=1000, out_features=20, bias=True)
    (10): Linear(in_features=1000, out_features=20, bias=True)
    (11): Linear(in_features=1000, out_features=20, bias=True)
    (12): Linear(in_features=1000, out_features=20, bias=True)
    (13): Linear(in_features=1000, out_features=20, bias=True)
    (14): Linear(in_features=1000, out_features=20, bias=True)
    (15): Linear(in_features=1000, out_features=20, bias=True)
    (16): Linear(in_features=1000, out_features=20, bias=True)
    (17): Linear(in_features=1000, out_features=20, bias=True)
    (18): Linear(in_features=1000, out_features=20, bias=True)
    (19): Linear(in_features=1000, out_features=20, bias=True)
    (20): Linear(in_features=1000, out_features=20, bias=True)
    (21): Linear(in_features=1000, out_features=20, bias=True)
    (22): Linear(in_features=1000, out_features=20, bias=True)
    (23): Linear(in_features=1000, out_features=20, bias=True)
    (24): Linear(in_features=1000, out_features=20, bias=True)
    (25): Linear(in_features=1000, out_features=20, bias=True)
    (26): Linear(in_features=1000, out_features=20, bias=True)
    (27): Linear(in_features=1000, out_features=20, bias=True)
    (28): Linear(in_features=1000, out_features=20, bias=True)
    (29): Linear(in_features=1000, out_features=20, bias=True)
    (30): Linear(in_features=1000, out_features=20, bias=True)
    (31): Linear(in_features=1000, out_features=20, bias=True)
    (32): Linear(in_features=1000, out_features=20, bias=True)
    (33): Linear(in_features=1000, out_features=20, bias=True)
    (34): Linear(in_features=1000, out_features=20, bias=True)
  )
)
======

************************************************************************************************************
Task 35
************************************************************************************************************
| Epoch   1, time=  4.1s | Train: skip eval | Valid: time=  0.2s loss=6.662, TAw acc= 39.5% | *
| Epoch   2, time=  4.1s | Train: skip eval | Valid: time=  0.2s loss=3.438, TAw acc= 57.0% | *
…
>>> Test on task 30 : loss=1.211 | TAw acc= 93.3%, forg=  0.0%| TAg acc= 70.6%, forg= 11.8% <<<
>>> Test on task 31 : loss=1.151 | TAw acc= 92.9%, forg=  2.0%| TAg acc= 62.6%, forg= 17.2% <<<
>>> Test on task 32 : loss=1.911 | TAw acc= 95.1%, forg=  0.0%| TAg acc= 51.5%, forg= 23.3% <<<
>>> Test on task 33 : loss=1.462 | TAw acc= 95.8%, forg=  0.0%| TAg acc= 61.9%, forg= 14.4% <<<
>>> Test on task 34 : loss=1.447 | TAw acc= 98.1%, forg= -1.9%| TAg acc= 54.7%, forg= 28.3% <<<
>>> Test on task 35 : loss=1.123 | TAw acc= 82.6%, forg=  0.0%| TAg acc= 66.1%, forg=  0.0% <<<
Save at k=100/eeil_e20_wisdm_2/wisdm_flex_eeil
======
LLL_Net(
  (model): SimpleMLP(
    (fc1): Linear(in_features=91, out_features=1000, bias=True)
    (fc2): Sequential()
  )
  (heads): ModuleList(
    (0): Linear(in_features=1000, out_features=34, bias=True)
    (1): Linear(in_features=1000, out_features=20, bias=True)
    (2): Linear(in_features=1000, out_features=20, bias=True)
    (3): Linear(in_features=1000, out_features=20, bias=True)
    (4): Linear(in_features=1000, out_features=20, bias=True)
    (5): Linear(in_features=1000, out_features=20, bias=True)
    (6): Linear(in_features=1000, out_features=20, bias=True)
    (7): Linear(in_features=1000, out_features=20, bias=True)
    (8): Linear(in_features=1000, out_features=20, bias=True)
    (9): Linear(in_features=1000, out_features=20, bias=True)
    (10): Linear(in_features=1000, out_features=20, bias=True)
    (11): Linear(in_features=1000, out_features=20, bias=True)
    (12): Linear(in_features=1000, out_features=20, bias=True)
    (13): Linear(in_features=1000, out_features=20, bias=True)
    (14): Linear(in_features=1000, out_features=20, bias=True)
    (15): Linear(in_features=1000, out_features=20, bias=True)
    (16): Linear(in_features=1000, out_features=20, bias=True)
    (17): Linear(in_features=1000, out_features=20, bias=True)
    (18): Linear(in_features=1000, out_features=20, bias=True)
    (19): Linear(in_features=1000, out_features=20, bias=True)
    (20): Linear(in_features=1000, out_features=20, bias=True)
    (21): Linear(in_features=1000, out_features=20, bias=True)
    (22): Linear(in_features=1000, out_features=20, bias=True)
    (23): Linear(in_features=1000, out_features=20, bias=True)
    (24): Linear(in_features=1000, out_features=20, bias=True)
    (25): Linear(in_features=1000, out_features=20, bias=True)
    (26): Linear(in_features=1000, out_features=20, bias=True)
    (27): Linear(in_features=1000, out_features=20, bias=True)
    (28): Linear(in_features=1000, out_features=20, bias=True)
    (29): Linear(in_features=1000, out_features=20, bias=True)
    (30): Linear(in_features=1000, out_features=20, bias=True)
    (31): Linear(in_features=1000, out_features=20, bias=True)
    (32): Linear(in_features=1000, out_features=20, bias=True)
    (33): Linear(in_features=1000, out_features=20, bias=True)
    (34): Linear(in_features=1000, out_features=20, bias=True)
    (35): Linear(in_features=1000, out_features=20, bias=True)
  )
)
======

************************************************************************************************************
Task 36
************************************************************************************************************
| Epoch   1, time=  4.2s | Train: skip eval | Valid: time=  0.2s loss=7.211, TAw acc= 37.0% | *
| Epoch   2, time=  4.3s | Train: skip eval | Valid: time=  0.2s loss=4.116, TAw acc= 74.0% | *
…
>>> Test on task 31 : loss=1.079 | TAw acc= 93.9%, forg=  1.0%| TAg acc= 65.7%, forg= 14.1% <<<
>>> Test on task 32 : loss=1.920 | TAw acc= 94.2%, forg=  1.0%| TAg acc= 56.3%, forg= 18.4% <<<
>>> Test on task 33 : loss=1.398 | TAw acc= 96.6%, forg= -0.8%| TAg acc= 62.7%, forg= 13.6% <<<
>>> Test on task 34 : loss=1.410 | TAw acc= 97.2%, forg=  0.9%| TAg acc= 53.8%, forg= 29.2% <<<
>>> Test on task 35 : loss=1.609 | TAw acc= 81.7%, forg=  0.9%| TAg acc= 42.6%, forg= 23.5% <<<
>>> Test on task 36 : loss=1.508 | TAw acc= 95.0%, forg=  0.0%| TAg acc= 65.0%, forg=  0.0% <<<
Save at k=100/eeil_e20_wisdm_2/wisdm_flex_eeil
======
LLL_Net(
  (model): SimpleMLP(
    (fc1): Linear(in_features=91, out_features=1000, bias=True)
    (fc2): Sequential()
  )
  (heads): ModuleList(
    (0): Linear(in_features=1000, out_features=34, bias=True)
    (1): Linear(in_features=1000, out_features=20, bias=True)
    (2): Linear(in_features=1000, out_features=20, bias=True)
    (3): Linear(in_features=1000, out_features=20, bias=True)
    (4): Linear(in_features=1000, out_features=20, bias=True)
    (5): Linear(in_features=1000, out_features=20, bias=True)
    (6): Linear(in_features=1000, out_features=20, bias=True)
    (7): Linear(in_features=1000, out_features=20, bias=True)
    (8): Linear(in_features=1000, out_features=20, bias=True)
    (9): Linear(in_features=1000, out_features=20, bias=True)
    (10): Linear(in_features=1000, out_features=20, bias=True)
    (11): Linear(in_features=1000, out_features=20, bias=True)
    (12): Linear(in_features=1000, out_features=20, bias=True)
    (13): Linear(in_features=1000, out_features=20, bias=True)
    (14): Linear(in_features=1000, out_features=20, bias=True)
    (15): Linear(in_features=1000, out_features=20, bias=True)
    (16): Linear(in_features=1000, out_features=20, bias=True)
    (17): Linear(in_features=1000, out_features=20, bias=True)
    (18): Linear(in_features=1000, out_features=20, bias=True)
    (19): Linear(in_features=1000, out_features=20, bias=True)
    (20): Linear(in_features=1000, out_features=20, bias=True)
    (21): Linear(in_features=1000, out_features=20, bias=True)
    (22): Linear(in_features=1000, out_features=20, bias=True)
    (23): Linear(in_features=1000, out_features=20, bias=True)
    (24): Linear(in_features=1000, out_features=20, bias=True)
    (25): Linear(in_features=1000, out_features=20, bias=True)
    (26): Linear(in_features=1000, out_features=20, bias=True)
    (27): Linear(in_features=1000, out_features=20, bias=True)
    (28): Linear(in_features=1000, out_features=20, bias=True)
    (29): Linear(in_features=1000, out_features=20, bias=True)
    (30): Linear(in_features=1000, out_features=20, bias=True)
    (31): Linear(in_features=1000, out_features=20, bias=True)
    (32): Linear(in_features=1000, out_features=20, bias=True)
    (33): Linear(in_features=1000, out_features=20, bias=True)
    (34): Linear(in_features=1000, out_features=20, bias=True)
    (35): Linear(in_features=1000, out_features=20, bias=True)
    (36): Linear(in_features=1000, out_features=20, bias=True)
  )
)
======

************************************************************************************************************
Task 37
************************************************************************************************************
| Epoch   1, time=  4.8s | Train: skip eval | Valid: time=  0.2s loss=6.424, TAw acc= 54.4% | *
| Epoch   2, time=  4.4s | Train: skip eval | Valid: time=  0.2s loss=3.090, TAw acc= 72.2% | *
…
>>> Test on task 32 : loss=1.881 | TAw acc= 95.1%, forg=  0.0%| TAg acc= 59.2%, forg= 15.5% <<<
>>> Test on task 33 : loss=1.423 | TAw acc= 96.6%, forg=  0.0%| TAg acc= 63.6%, forg= 12.7% <<<
>>> Test on task 34 : loss=1.312 | TAw acc= 98.1%, forg=  0.0%| TAg acc= 57.5%, forg= 25.5% <<<
>>> Test on task 35 : loss=1.564 | TAw acc= 82.6%, forg=  0.0%| TAg acc= 50.4%, forg= 15.7% <<<
>>> Test on task 36 : loss=1.833 | TAw acc= 94.0%, forg=  1.0%| TAg acc= 44.0%, forg= 21.0% <<<
>>> Test on task 37 : loss=1.319 | TAw acc= 94.4%, forg=  0.0%| TAg acc= 67.3%, forg=  0.0% <<<
Save at k=100/eeil_e20_wisdm_2/wisdm_flex_eeil
======
LLL_Net(
  (model): SimpleMLP(
    (fc1): Linear(in_features=91, out_features=1000, bias=True)
    (fc2): Sequential()
  )
  (heads): ModuleList(
    (0): Linear(in_features=1000, out_features=34, bias=True)
    (1): Linear(in_features=1000, out_features=20, bias=True)
    (2): Linear(in_features=1000, out_features=20, bias=True)
    (3): Linear(in_features=1000, out_features=20, bias=True)
    (4): Linear(in_features=1000, out_features=20, bias=True)
    (5): Linear(in_features=1000, out_features=20, bias=True)
    (6): Linear(in_features=1000, out_features=20, bias=True)
    (7): Linear(in_features=1000, out_features=20, bias=True)
    (8): Linear(in_features=1000, out_features=20, bias=True)
    (9): Linear(in_features=1000, out_features=20, bias=True)
    (10): Linear(in_features=1000, out_features=20, bias=True)
    (11): Linear(in_features=1000, out_features=20, bias=True)
    (12): Linear(in_features=1000, out_features=20, bias=True)
    (13): Linear(in_features=1000, out_features=20, bias=True)
    (14): Linear(in_features=1000, out_features=20, bias=True)
    (15): Linear(in_features=1000, out_features=20, bias=True)
    (16): Linear(in_features=1000, out_features=20, bias=True)
    (17): Linear(in_features=1000, out_features=20, bias=True)
    (18): Linear(in_features=1000, out_features=20, bias=True)
    (19): Linear(in_features=1000, out_features=20, bias=True)
    (20): Linear(in_features=1000, out_features=20, bias=True)
    (21): Linear(in_features=1000, out_features=20, bias=True)
    (22): Linear(in_features=1000, out_features=20, bias=True)
    (23): Linear(in_features=1000, out_features=20, bias=True)
    (24): Linear(in_features=1000, out_features=20, bias=True)
    (25): Linear(in_features=1000, out_features=20, bias=True)
    (26): Linear(in_features=1000, out_features=20, bias=True)
    (27): Linear(in_features=1000, out_features=20, bias=True)
    (28): Linear(in_features=1000, out_features=20, bias=True)
    (29): Linear(in_features=1000, out_features=20, bias=True)
    (30): Linear(in_features=1000, out_features=20, bias=True)
    (31): Linear(in_features=1000, out_features=20, bias=True)
    (32): Linear(in_features=1000, out_features=20, bias=True)
    (33): Linear(in_features=1000, out_features=20, bias=True)
    (34): Linear(in_features=1000, out_features=20, bias=True)
    (35): Linear(in_features=1000, out_features=20, bias=True)
    (36): Linear(in_features=1000, out_features=20, bias=True)
    (37): Linear(in_features=1000, out_features=20, bias=True)
  )
)
======

************************************************************************************************************
Task 38
************************************************************************************************************
| Epoch   1, time=  5.0s | Train: skip eval | Valid: time=  0.2s loss=7.121, TAw acc= 38.9% | *
| Epoch   2, time=  4.6s | Train: skip eval | Valid: time=  0.2s loss=3.260, TAw acc= 79.2% | *
…
>>> Test on task 33 : loss=1.305 | TAw acc= 96.6%, forg=  0.0%| TAg acc= 67.8%, forg=  8.5% <<<
>>> Test on task 34 : loss=1.386 | TAw acc= 98.1%, forg=  0.0%| TAg acc= 52.8%, forg= 30.2% <<<
>>> Test on task 35 : loss=1.554 | TAw acc= 81.7%, forg=  0.9%| TAg acc= 51.3%, forg= 14.8% <<<
>>> Test on task 36 : loss=1.758 | TAw acc= 94.0%, forg=  1.0%| TAg acc= 52.0%, forg= 13.0% <<<
>>> Test on task 37 : loss=1.716 | TAw acc= 95.3%, forg= -0.9%| TAg acc= 54.2%, forg= 13.1% <<<
>>> Test on task 38 : loss=0.983 | TAw acc= 96.0%, forg=  0.0%| TAg acc= 77.8%, forg=  0.0% <<<
Save at k=100/eeil_e20_wisdm_2/wisdm_flex_eeil
======
LLL_Net(
  (model): SimpleMLP(
    (fc1): Linear(in_features=91, out_features=1000, bias=True)
    (fc2): Sequential()
  )
  (heads): ModuleList(
    (0): Linear(in_features=1000, out_features=34, bias=True)
    (1): Linear(in_features=1000, out_features=20, bias=True)
    (2): Linear(in_features=1000, out_features=20, bias=True)
    (3): Linear(in_features=1000, out_features=20, bias=True)
    (4): Linear(in_features=1000, out_features=20, bias=True)
    (5): Linear(in_features=1000, out_features=20, bias=True)
    (6): Linear(in_features=1000, out_features=20, bias=True)
    (7): Linear(in_features=1000, out_features=20, bias=True)
    (8): Linear(in_features=1000, out_features=20, bias=True)
    (9): Linear(in_features=1000, out_features=20, bias=True)
    (10): Linear(in_features=1000, out_features=20, bias=True)
    (11): Linear(in_features=1000, out_features=20, bias=True)
    (12): Linear(in_features=1000, out_features=20, bias=True)
    (13): Linear(in_features=1000, out_features=20, bias=True)
    (14): Linear(in_features=1000, out_features=20, bias=True)
    (15): Linear(in_features=1000, out_features=20, bias=True)
    (16): Linear(in_features=1000, out_features=20, bias=True)
    (17): Linear(in_features=1000, out_features=20, bias=True)
    (18): Linear(in_features=1000, out_features=20, bias=True)
    (19): Linear(in_features=1000, out_features=20, bias=True)
    (20): Linear(in_features=1000, out_features=20, bias=True)
    (21): Linear(in_features=1000, out_features=20, bias=True)
    (22): Linear(in_features=1000, out_features=20, bias=True)
    (23): Linear(in_features=1000, out_features=20, bias=True)
    (24): Linear(in_features=1000, out_features=20, bias=True)
    (25): Linear(in_features=1000, out_features=20, bias=True)
    (26): Linear(in_features=1000, out_features=20, bias=True)
    (27): Linear(in_features=1000, out_features=20, bias=True)
    (28): Linear(in_features=1000, out_features=20, bias=True)
    (29): Linear(in_features=1000, out_features=20, bias=True)
    (30): Linear(in_features=1000, out_features=20, bias=True)
    (31): Linear(in_features=1000, out_features=20, bias=True)
    (32): Linear(in_features=1000, out_features=20, bias=True)
    (33): Linear(in_features=1000, out_features=20, bias=True)
    (34): Linear(in_features=1000, out_features=20, bias=True)
    (35): Linear(in_features=1000, out_features=20, bias=True)
    (36): Linear(in_features=1000, out_features=20, bias=True)
    (37): Linear(in_features=1000, out_features=20, bias=True)
    (38): Linear(in_features=1000, out_features=20, bias=True)
  )
)
======

************************************************************************************************************
Task 39
************************************************************************************************************
| Epoch   1, time=  5.2s | Train: skip eval | Valid: time=  0.2s loss=5.160, TAw acc= 61.1% | *
| Epoch   2, time=  4.9s | Train: skip eval | Valid: time=  0.2s loss=2.031, TAw acc= 80.0% | *
…
>>> Test on task 34 : loss=1.392 | TAw acc= 97.2%, forg=  0.9%| TAg acc= 52.8%, forg= 30.2% <<<
>>> Test on task 35 : loss=1.633 | TAw acc= 80.0%, forg=  2.6%| TAg acc= 49.6%, forg= 16.5% <<<
>>> Test on task 36 : loss=1.783 | TAw acc= 94.0%, forg=  1.0%| TAg acc= 53.0%, forg= 12.0% <<<
>>> Test on task 37 : loss=1.719 | TAw acc= 95.3%, forg=  0.0%| TAg acc= 55.1%, forg= 12.1% <<<
>>> Test on task 38 : loss=1.355 | TAw acc= 97.0%, forg= -1.0%| TAg acc= 59.6%, forg= 18.2% <<<
>>> Test on task 39 : loss=0.889 | TAw acc= 95.2%, forg=  0.0%| TAg acc= 78.6%, forg=  0.0% <<<
Save at k=100/eeil_e20_wisdm_2/wisdm_flex_eeil
======
LLL_Net(
  (model): SimpleMLP(
    (fc1): Linear(in_features=91, out_features=1000, bias=True)
    (fc2): Sequential()
  )
  (heads): ModuleList(
    (0): Linear(in_features=1000, out_features=34, bias=True)
    (1): Linear(in_features=1000, out_features=20, bias=True)
    (2): Linear(in_features=1000, out_features=20, bias=True)
    (3): Linear(in_features=1000, out_features=20, bias=True)
    (4): Linear(in_features=1000, out_features=20, bias=True)
    (5): Linear(in_features=1000, out_features=20, bias=True)
    (6): Linear(in_features=1000, out_features=20, bias=True)
    (7): Linear(in_features=1000, out_features=20, bias=True)
    (8): Linear(in_features=1000, out_features=20, bias=True)
    (9): Linear(in_features=1000, out_features=20, bias=True)
    (10): Linear(in_features=1000, out_features=20, bias=True)
    (11): Linear(in_features=1000, out_features=20, bias=True)
    (12): Linear(in_features=1000, out_features=20, bias=True)
    (13): Linear(in_features=1000, out_features=20, bias=True)
    (14): Linear(in_features=1000, out_features=20, bias=True)
    (15): Linear(in_features=1000, out_features=20, bias=True)
    (16): Linear(in_features=1000, out_features=20, bias=True)
    (17): Linear(in_features=1000, out_features=20, bias=True)
    (18): Linear(in_features=1000, out_features=20, bias=True)
    (19): Linear(in_features=1000, out_features=20, bias=True)
    (20): Linear(in_features=1000, out_features=20, bias=True)
    (21): Linear(in_features=1000, out_features=20, bias=True)
    (22): Linear(in_features=1000, out_features=20, bias=True)
    (23): Linear(in_features=1000, out_features=20, bias=True)
    (24): Linear(in_features=1000, out_features=20, bias=True)
    (25): Linear(in_features=1000, out_features=20, bias=True)
    (26): Linear(in_features=1000, out_features=20, bias=True)
    (27): Linear(in_features=1000, out_features=20, bias=True)
    (28): Linear(in_features=1000, out_features=20, bias=True)
    (29): Linear(in_features=1000, out_features=20, bias=True)
    (30): Linear(in_features=1000, out_features=20, bias=True)
    (31): Linear(in_features=1000, out_features=20, bias=True)
    (32): Linear(in_features=1000, out_features=20, bias=True)
    (33): Linear(in_features=1000, out_features=20, bias=True)
    (34): Linear(in_features=1000, out_features=20, bias=True)
    (35): Linear(in_features=1000, out_features=20, bias=True)
    (36): Linear(in_features=1000, out_features=20, bias=True)
    (37): Linear(in_features=1000, out_features=20, bias=True)
    (38): Linear(in_features=1000, out_features=20, bias=True)
    (39): Linear(in_features=1000, out_features=20, bias=True)
  )
)
======

************************************************************************************************************
Task 40
************************************************************************************************************
| Epoch   1, time=  5.4s | Train: skip eval | Valid: time=  0.2s loss=6.527, TAw acc= 50.6% | *
| Epoch   2, time=  5.2s | Train: skip eval | Valid: time=  0.2s loss=2.870, TAw acc= 77.2% | *
…
>>> Test on task 35 : loss=1.512 | TAw acc= 83.5%, forg= -0.9%| TAg acc= 47.8%, forg= 18.3% <<<
>>> Test on task 36 : loss=1.695 | TAw acc= 94.0%, forg=  1.0%| TAg acc= 53.0%, forg= 12.0% <<<
>>> Test on task 37 : loss=1.662 | TAw acc= 94.4%, forg=  0.9%| TAg acc= 54.2%, forg= 13.1% <<<
>>> Test on task 38 : loss=1.340 | TAw acc= 97.0%, forg=  0.0%| TAg acc= 62.6%, forg= 15.2% <<<
>>> Test on task 39 : loss=1.341 | TAw acc= 96.0%, forg= -0.8%| TAg acc= 56.3%, forg= 22.2% <<<
>>> Test on task 40 : loss=0.884 | TAw acc= 99.1%, forg=  0.0%| TAg acc= 75.0%, forg=  0.0% <<<
Save at k=100/eeil_e20_wisdm_2/wisdm_flex_eeil
======
LLL_Net(
  (model): SimpleMLP(
    (fc1): Linear(in_features=91, out_features=1000, bias=True)
    (fc2): Sequential()
  )
  (heads): ModuleList(
    (0): Linear(in_features=1000, out_features=34, bias=True)
    (1): Linear(in_features=1000, out_features=20, bias=True)
    (2): Linear(in_features=1000, out_features=20, bias=True)
    (3): Linear(in_features=1000, out_features=20, bias=True)
    (4): Linear(in_features=1000, out_features=20, bias=True)
    (5): Linear(in_features=1000, out_features=20, bias=True)
    (6): Linear(in_features=1000, out_features=20, bias=True)
    (7): Linear(in_features=1000, out_features=20, bias=True)
    (8): Linear(in_features=1000, out_features=20, bias=True)
    (9): Linear(in_features=1000, out_features=20, bias=True)
    (10): Linear(in_features=1000, out_features=20, bias=True)
    (11): Linear(in_features=1000, out_features=20, bias=True)
    (12): Linear(in_features=1000, out_features=20, bias=True)
    (13): Linear(in_features=1000, out_features=20, bias=True)
    (14): Linear(in_features=1000, out_features=20, bias=True)
    (15): Linear(in_features=1000, out_features=20, bias=True)
    (16): Linear(in_features=1000, out_features=20, bias=True)
    (17): Linear(in_features=1000, out_features=20, bias=True)
    (18): Linear(in_features=1000, out_features=20, bias=True)
    (19): Linear(in_features=1000, out_features=20, bias=True)
    (20): Linear(in_features=1000, out_features=20, bias=True)
    (21): Linear(in_features=1000, out_features=20, bias=True)
    (22): Linear(in_features=1000, out_features=20, bias=True)
    (23): Linear(in_features=1000, out_features=20, bias=True)
    (24): Linear(in_features=1000, out_features=20, bias=True)
    (25): Linear(in_features=1000, out_features=20, bias=True)
    (26): Linear(in_features=1000, out_features=20, bias=True)
    (27): Linear(in_features=1000, out_features=20, bias=True)
    (28): Linear(in_features=1000, out_features=20, bias=True)
    (29): Linear(in_features=1000, out_features=20, bias=True)
    (30): Linear(in_features=1000, out_features=20, bias=True)
    (31): Linear(in_features=1000, out_features=20, bias=True)
    (32): Linear(in_features=1000, out_features=20, bias=True)
    (33): Linear(in_features=1000, out_features=20, bias=True)
    (34): Linear(in_features=1000, out_features=20, bias=True)
    (35): Linear(in_features=1000, out_features=20, bias=True)
    (36): Linear(in_features=1000, out_features=20, bias=True)
    (37): Linear(in_features=1000, out_features=20, bias=True)
    (38): Linear(in_features=1000, out_features=20, bias=True)
    (39): Linear(in_features=1000, out_features=20, bias=True)
    (40): Linear(in_features=1000, out_features=20, bias=True)
  )
)
======

************************************************************************************************************
Task 41
************************************************************************************************************
| Epoch   1, time=  5.6s | Train: skip eval | Valid: time=  0.2s loss=7.239, TAw acc= 38.7% | *
| Epoch   2, time=  5.3s | Train: skip eval | Valid: time=  0.2s loss=4.196, TAw acc= 66.7% | *
…
>>> Test on task 36 : loss=1.681 | TAw acc= 94.0%, forg=  1.0%| TAg acc= 60.0%, forg=  5.0% <<<
>>> Test on task 37 : loss=1.675 | TAw acc= 93.5%, forg=  1.9%| TAg acc= 59.8%, forg=  7.5% <<<
>>> Test on task 38 : loss=1.302 | TAw acc= 96.0%, forg=  1.0%| TAg acc= 65.7%, forg= 12.1% <<<
>>> Test on task 39 : loss=1.339 | TAw acc= 96.0%, forg=  0.0%| TAg acc= 61.1%, forg= 17.5% <<<
>>> Test on task 40 : loss=1.266 | TAw acc= 98.1%, forg=  0.9%| TAg acc= 61.1%, forg= 13.9% <<<
>>> Test on task 41 : loss=1.030 | TAw acc= 99.0%, forg=  0.0%| TAg acc= 71.8%, forg=  0.0% <<<
Save at k=100/eeil_e20_wisdm_2/wisdm_flex_eeil
======
LLL_Net(
  (model): SimpleMLP(
    (fc1): Linear(in_features=91, out_features=1000, bias=True)
    (fc2): Sequential()
  )
  (heads): ModuleList(
    (0): Linear(in_features=1000, out_features=34, bias=True)
    (1): Linear(in_features=1000, out_features=20, bias=True)
    (2): Linear(in_features=1000, out_features=20, bias=True)
    (3): Linear(in_features=1000, out_features=20, bias=True)
    (4): Linear(in_features=1000, out_features=20, bias=True)
    (5): Linear(in_features=1000, out_features=20, bias=True)
    (6): Linear(in_features=1000, out_features=20, bias=True)
    (7): Linear(in_features=1000, out_features=20, bias=True)
    (8): Linear(in_features=1000, out_features=20, bias=True)
    (9): Linear(in_features=1000, out_features=20, bias=True)
    (10): Linear(in_features=1000, out_features=20, bias=True)
    (11): Linear(in_features=1000, out_features=20, bias=True)
    (12): Linear(in_features=1000, out_features=20, bias=True)
    (13): Linear(in_features=1000, out_features=20, bias=True)
    (14): Linear(in_features=1000, out_features=20, bias=True)
    (15): Linear(in_features=1000, out_features=20, bias=True)
    (16): Linear(in_features=1000, out_features=20, bias=True)
    (17): Linear(in_features=1000, out_features=20, bias=True)
    (18): Linear(in_features=1000, out_features=20, bias=True)
    (19): Linear(in_features=1000, out_features=20, bias=True)
    (20): Linear(in_features=1000, out_features=20, bias=True)
    (21): Linear(in_features=1000, out_features=20, bias=True)
    (22): Linear(in_features=1000, out_features=20, bias=True)
    (23): Linear(in_features=1000, out_features=20, bias=True)
    (24): Linear(in_features=1000, out_features=20, bias=True)
    (25): Linear(in_features=1000, out_features=20, bias=True)
    (26): Linear(in_features=1000, out_features=20, bias=True)
    (27): Linear(in_features=1000, out_features=20, bias=True)
    (28): Linear(in_features=1000, out_features=20, bias=True)
    (29): Linear(in_features=1000, out_features=20, bias=True)
    (30): Linear(in_features=1000, out_features=20, bias=True)
    (31): Linear(in_features=1000, out_features=20, bias=True)
    (32): Linear(in_features=1000, out_features=20, bias=True)
    (33): Linear(in_features=1000, out_features=20, bias=True)
    (34): Linear(in_features=1000, out_features=20, bias=True)
    (35): Linear(in_features=1000, out_features=20, bias=True)
    (36): Linear(in_features=1000, out_features=20, bias=True)
    (37): Linear(in_features=1000, out_features=20, bias=True)
    (38): Linear(in_features=1000, out_features=20, bias=True)
    (39): Linear(in_features=1000, out_features=20, bias=True)
    (40): Linear(in_features=1000, out_features=20, bias=True)
    (41): Linear(in_features=1000, out_features=20, bias=True)
  )
)
======

************************************************************************************************************
Task 42
************************************************************************************************************
| Epoch   1, time=  5.8s | Train: skip eval | Valid: time=  0.2s loss=6.075, TAw acc= 50.6% | *
| Epoch   2, time=  5.6s | Train: skip eval | Valid: time=  0.2s loss=3.234, TAw acc= 76.5% | *
…
>>> Test on task 37 : loss=1.732 | TAw acc= 93.5%, forg=  1.9%| TAg acc= 52.3%, forg= 15.0% <<<
>>> Test on task 38 : loss=1.470 | TAw acc= 94.9%, forg=  2.0%| TAg acc= 61.6%, forg= 16.2% <<<
>>> Test on task 39 : loss=1.393 | TAw acc= 96.0%, forg=  0.0%| TAg acc= 65.1%, forg= 13.5% <<<
>>> Test on task 40 : loss=1.214 | TAw acc= 98.1%, forg=  0.9%| TAg acc= 61.1%, forg= 13.9% <<<
>>> Test on task 41 : loss=1.537 | TAw acc= 98.1%, forg=  1.0%| TAg acc= 52.4%, forg= 19.4% <<<
>>> Test on task 42 : loss=1.014 | TAw acc= 95.5%, forg=  0.0%| TAg acc= 73.6%, forg=  0.0% <<<
Save at k=100/eeil_e20_wisdm_2/wisdm_flex_eeil
======
LLL_Net(
  (model): SimpleMLP(
    (fc1): Linear(in_features=91, out_features=1000, bias=True)
    (fc2): Sequential()
  )
  (heads): ModuleList(
    (0): Linear(in_features=1000, out_features=34, bias=True)
    (1): Linear(in_features=1000, out_features=20, bias=True)
    (2): Linear(in_features=1000, out_features=20, bias=True)
    (3): Linear(in_features=1000, out_features=20, bias=True)
    (4): Linear(in_features=1000, out_features=20, bias=True)
    (5): Linear(in_features=1000, out_features=20, bias=True)
    (6): Linear(in_features=1000, out_features=20, bias=True)
    (7): Linear(in_features=1000, out_features=20, bias=True)
    (8): Linear(in_features=1000, out_features=20, bias=True)
    (9): Linear(in_features=1000, out_features=20, bias=True)
    (10): Linear(in_features=1000, out_features=20, bias=True)
    (11): Linear(in_features=1000, out_features=20, bias=True)
    (12): Linear(in_features=1000, out_features=20, bias=True)
    (13): Linear(in_features=1000, out_features=20, bias=True)
    (14): Linear(in_features=1000, out_features=20, bias=True)
    (15): Linear(in_features=1000, out_features=20, bias=True)
    (16): Linear(in_features=1000, out_features=20, bias=True)
    (17): Linear(in_features=1000, out_features=20, bias=True)
    (18): Linear(in_features=1000, out_features=20, bias=True)
    (19): Linear(in_features=1000, out_features=20, bias=True)
    (20): Linear(in_features=1000, out_features=20, bias=True)
    (21): Linear(in_features=1000, out_features=20, bias=True)
    (22): Linear(in_features=1000, out_features=20, bias=True)
    (23): Linear(in_features=1000, out_features=20, bias=True)
    (24): Linear(in_features=1000, out_features=20, bias=True)
    (25): Linear(in_features=1000, out_features=20, bias=True)
    (26): Linear(in_features=1000, out_features=20, bias=True)
    (27): Linear(in_features=1000, out_features=20, bias=True)
    (28): Linear(in_features=1000, out_features=20, bias=True)
    (29): Linear(in_features=1000, out_features=20, bias=True)
    (30): Linear(in_features=1000, out_features=20, bias=True)
    (31): Linear(in_features=1000, out_features=20, bias=True)
    (32): Linear(in_features=1000, out_features=20, bias=True)
    (33): Linear(in_features=1000, out_features=20, bias=True)
    (34): Linear(in_features=1000, out_features=20, bias=True)
    (35): Linear(in_features=1000, out_features=20, bias=True)
    (36): Linear(in_features=1000, out_features=20, bias=True)
    (37): Linear(in_features=1000, out_features=20, bias=True)
    (38): Linear(in_features=1000, out_features=20, bias=True)
    (39): Linear(in_features=1000, out_features=20, bias=True)
    (40): Linear(in_features=1000, out_features=20, bias=True)
    (41): Linear(in_features=1000, out_features=20, bias=True)
    (42): Linear(in_features=1000, out_features=20, bias=True)
  )
)
======

************************************************************************************************************
Task 43
************************************************************************************************************
| Epoch   1, time=  6.0s | Train: skip eval | Valid: time=  0.2s loss=5.256, TAw acc= 57.3% | *
| Epoch   2, time=  5.9s | Train: skip eval | Valid: time=  0.2s loss=2.227, TAw acc= 87.8% | *
…
