…
| Selected 859 train exemplars, time=  0.0s
859
------------------------------------------------------------------------------------------------------------
>>> Test on task  0 : loss=1.219 | TAw acc= 88.7%, forg= -0.5%| TAg acc= 80.9%, forg= -4.6% <<<
>>> Test on task  1 : loss=1.368 | TAw acc= 97.1%, forg= -1.9%| TAg acc= 68.3%, forg=  8.7% <<<
>>> Test on task  2 : loss=1.691 | TAw acc= 90.8%, forg=-10.8%| TAg acc= 54.2%, forg= 15.8% <<<
>>> Test on task  3 : loss=1.949 | TAw acc= 70.8%, forg=  0.0%| TAg acc= 50.4%, forg=  0.0% <<<
Save at eeil_e5_wisdm_4/wisdm_flex_eeil
======
LLL_Net(
  (model): SimpleMLP(
    (fc1): Linear(in_features=91, out_features=1000, bias=True)
    (fc2): Sequential()
  )
  (heads): ModuleList(
    (0): Linear(in_features=1000, out_features=34, bias=True)
    (1): Linear(in_features=1000, out_features=20, bias=True)
    (2): Linear(in_features=1000, out_features=20, bias=True)
    (3): Linear(in_features=1000, out_features=20, bias=True)
  )
)
======

************************************************************************************************************
Task  4
************************************************************************************************************
| Epoch   1, time=  0.4s | Train: skip eval | Valid: time=  0.2s loss=3.599, TAw acc= 33.3% | *
| Epoch   2, time=  0.4s | Train: skip eval | Valid: time=  0.2s loss=2.736, TAw acc= 59.0% | *
…
------------------------------------------------------------------------------------------------------------
>>> Test on task  0 : loss=1.133 | TAw acc= 87.1%, forg=  1.5%| TAg acc= 80.9%, forg=  0.0% <<<
>>> Test on task  1 : loss=1.240 | TAw acc= 99.0%, forg= -1.9%| TAg acc= 77.9%, forg= -1.0% <<<
>>> Test on task  2 : loss=1.512 | TAw acc= 92.5%, forg= -1.7%| TAg acc= 65.0%, forg=  5.0% <<<
>>> Test on task  3 : loss=1.907 | TAw acc= 85.8%, forg=-15.0%| TAg acc= 43.4%, forg=  7.1% <<<
>>> Test on task  4 : loss=1.895 | TAw acc= 80.4%, forg=  0.0%| TAg acc= 66.4%, forg=  0.0% <<<
Save at eeil_e5_wisdm_4/wisdm_flex_eeil
======
LLL_Net(
  (model): SimpleMLP(
    (fc1): Linear(in_features=91, out_features=1000, bias=True)
    (fc2): Sequential()
  )
  (heads): ModuleList(
    (0): Linear(in_features=1000, out_features=34, bias=True)
    (1): Linear(in_features=1000, out_features=20, bias=True)
    (2): Linear(in_features=1000, out_features=20, bias=True)
    (3): Linear(in_features=1000, out_features=20, bias=True)
    (4): Linear(in_features=1000, out_features=20, bias=True)
  )
)
======

************************************************************************************************************
Task  5
************************************************************************************************************
| Epoch   1, time=  0.4s | Train: skip eval | Valid: time=  0.2s loss=4.468, TAw acc= 52.3% | *
| Epoch   2, time=  0.5s | Train: skip eval | Valid: time=  0.2s loss=3.359, TAw acc= 60.5% | *
…
>>> Test on task  0 : loss=1.062 | TAw acc= 89.2%, forg= -0.5%| TAg acc= 82.5%, forg= -1.5% <<<
>>> Test on task  1 : loss=1.208 | TAw acc= 99.0%, forg=  0.0%| TAg acc= 78.8%, forg= -1.0% <<<
>>> Test on task  2 : loss=1.462 | TAw acc= 93.3%, forg= -0.8%| TAg acc= 63.3%, forg=  6.7% <<<
>>> Test on task  3 : loss=1.821 | TAw acc= 89.4%, forg= -3.5%| TAg acc= 43.4%, forg=  7.1% <<<
>>> Test on task  4 : loss=1.864 | TAw acc= 90.7%, forg=-10.3%| TAg acc= 55.1%, forg= 11.2% <<<
>>> Test on task  5 : loss=1.895 | TAw acc= 75.9%, forg=  0.0%| TAg acc= 59.5%, forg=  0.0% <<<
Save at eeil_e5_wisdm_4/wisdm_flex_eeil
======
LLL_Net(
  (model): SimpleMLP(
    (fc1): Linear(in_features=91, out_features=1000, bias=True)
    (fc2): Sequential()
  )
  (heads): ModuleList(
    (0): Linear(in_features=1000, out_features=34, bias=True)
    (1): Linear(in_features=1000, out_features=20, bias=True)
    (2): Linear(in_features=1000, out_features=20, bias=True)
    (3): Linear(in_features=1000, out_features=20, bias=True)
    (4): Linear(in_features=1000, out_features=20, bias=True)
    (5): Linear(in_features=1000, out_features=20, bias=True)
  )
)
======

************************************************************************************************************
Task  6
************************************************************************************************************
| Epoch   1, time=  0.5s | Train: skip eval | Valid: time=  0.2s loss=4.197, TAw acc= 39.4% | *
| Epoch   2, time=  0.5s | Train: skip eval | Valid: time=  0.2s loss=2.705, TAw acc= 52.1% | *
…
>>> Test on task  1 : loss=1.131 | TAw acc= 98.1%, forg=  1.0%| TAg acc= 79.8%, forg= -1.0% <<<
>>> Test on task  2 : loss=1.400 | TAw acc= 93.3%, forg=  0.0%| TAg acc= 66.7%, forg=  3.3% <<<
>>> Test on task  3 : loss=1.620 | TAw acc= 90.3%, forg= -0.9%| TAg acc= 56.6%, forg= -6.2% <<<
>>> Test on task  4 : loss=1.663 | TAw acc= 91.6%, forg= -0.9%| TAg acc= 68.2%, forg= -1.9% <<<
>>> Test on task  5 : loss=2.033 | TAw acc= 91.4%, forg=-15.5%| TAg acc= 52.6%, forg=  6.9% <<<
>>> Test on task  6 : loss=1.684 | TAw acc= 87.8%, forg=  0.0%| TAg acc= 55.1%, forg=  0.0% <<<
Save at eeil_e5_wisdm_4/wisdm_flex_eeil
======
LLL_Net(
  (model): SimpleMLP(
    (fc1): Linear(in_features=91, out_features=1000, bias=True)
    (fc2): Sequential()
  )
  (heads): ModuleList(
    (0): Linear(in_features=1000, out_features=34, bias=True)
    (1): Linear(in_features=1000, out_features=20, bias=True)
    (2): Linear(in_features=1000, out_features=20, bias=True)
    (3): Linear(in_features=1000, out_features=20, bias=True)
    (4): Linear(in_features=1000, out_features=20, bias=True)
    (5): Linear(in_features=1000, out_features=20, bias=True)
    (6): Linear(in_features=1000, out_features=20, bias=True)
  )
)
======

************************************************************************************************************
Task  7
************************************************************************************************************
| Epoch   1, time=  0.6s | Train: skip eval | Valid: time=  0.2s loss=4.488, TAw acc= 38.8% | *
| Epoch   2, time=  0.6s | Train: skip eval | Valid: time=  0.2s loss=3.053, TAw acc= 55.0% | *
…
>>> Test on task  2 : loss=1.380 | TAw acc= 92.5%, forg=  0.8%| TAg acc= 60.0%, forg= 10.0% <<<
>>> Test on task  3 : loss=1.562 | TAw acc= 90.3%, forg=  0.0%| TAg acc= 60.2%, forg= -3.5% <<<
>>> Test on task  4 : loss=1.536 | TAw acc= 91.6%, forg=  0.0%| TAg acc= 68.2%, forg=  0.0% <<<
>>> Test on task  5 : loss=1.756 | TAw acc= 93.1%, forg= -1.7%| TAg acc= 63.8%, forg= -4.3% <<<
>>> Test on task  6 : loss=1.651 | TAw acc= 91.8%, forg= -4.1%| TAg acc= 52.0%, forg=  3.1% <<<
>>> Test on task  7 : loss=1.608 | TAw acc= 85.3%, forg=  0.0%| TAg acc= 56.9%, forg=  0.0% <<<
Save at eeil_e5_wisdm_4/wisdm_flex_eeil
======
LLL_Net(
  (model): SimpleMLP(
    (fc1): Linear(in_features=91, out_features=1000, bias=True)
    (fc2): Sequential()
  )
  (heads): ModuleList(
    (0): Linear(in_features=1000, out_features=34, bias=True)
    (1): Linear(in_features=1000, out_features=20, bias=True)
    (2): Linear(in_features=1000, out_features=20, bias=True)
    (3): Linear(in_features=1000, out_features=20, bias=True)
    (4): Linear(in_features=1000, out_features=20, bias=True)
    (5): Linear(in_features=1000, out_features=20, bias=True)
    (6): Linear(in_features=1000, out_features=20, bias=True)
    (7): Linear(in_features=1000, out_features=20, bias=True)
  )
)
======

************************************************************************************************************
Task  8
************************************************************************************************************
| Epoch   1, time=  0.6s | Train: skip eval | Valid: time=  0.2s loss=3.840, TAw acc= 50.6% | *
| Epoch   2, time=  0.6s | Train: skip eval | Valid: time=  0.2s loss=2.577, TAw acc= 67.9% | *
…
>>> Test on task  3 : loss=1.449 | TAw acc= 88.5%, forg=  1.8%| TAg acc= 64.6%, forg= -4.4% <<<
>>> Test on task  4 : loss=1.524 | TAw acc= 91.6%, forg=  0.0%| TAg acc= 57.9%, forg= 10.3% <<<
>>> Test on task  5 : loss=1.684 | TAw acc= 94.0%, forg= -0.9%| TAg acc= 66.4%, forg= -2.6% <<<
>>> Test on task  6 : loss=1.487 | TAw acc= 92.9%, forg= -1.0%| TAg acc= 58.2%, forg= -3.1% <<<
>>> Test on task  7 : loss=1.686 | TAw acc= 95.4%, forg=-10.1%| TAg acc= 56.0%, forg=  0.9% <<<
>>> Test on task  8 : loss=1.503 | TAw acc= 80.7%, forg=  0.0%| TAg acc= 68.8%, forg=  0.0% <<<
Save at eeil_e5_wisdm_4/wisdm_flex_eeil
======
LLL_Net(
  (model): SimpleMLP(
    (fc1): Linear(in_features=91, out_features=1000, bias=True)
    (fc2): Sequential()
  )
  (heads): ModuleList(
    (0): Linear(in_features=1000, out_features=34, bias=True)
    (1): Linear(in_features=1000, out_features=20, bias=True)
    (2): Linear(in_features=1000, out_features=20, bias=True)
    (3): Linear(in_features=1000, out_features=20, bias=True)
    (4): Linear(in_features=1000, out_features=20, bias=True)
    (5): Linear(in_features=1000, out_features=20, bias=True)
    (6): Linear(in_features=1000, out_features=20, bias=True)
    (7): Linear(in_features=1000, out_features=20, bias=True)
    (8): Linear(in_features=1000, out_features=20, bias=True)
  )
)
======

************************************************************************************************************
Task  9
************************************************************************************************************
| Epoch   1, time=  0.7s | Train: skip eval | Valid: time=  0.2s loss=5.024, TAw acc= 25.4% | *
| Epoch   2, time=  0.7s | Train: skip eval | Valid: time=  0.2s loss=3.805, TAw acc= 39.4% | *
…
>>> Test on task  4 : loss=1.363 | TAw acc= 94.4%, forg= -2.8%| TAg acc= 69.2%, forg= -0.9% <<<
>>> Test on task  5 : loss=1.485 | TAw acc= 94.0%, forg=  0.0%| TAg acc= 67.2%, forg= -0.9% <<<
>>> Test on task  6 : loss=1.323 | TAw acc= 91.8%, forg=  1.0%| TAg acc= 73.5%, forg=-15.3% <<<
>>> Test on task  7 : loss=1.493 | TAw acc= 93.6%, forg=  1.8%| TAg acc= 61.5%, forg= -4.6% <<<
>>> Test on task  8 : loss=1.517 | TAw acc= 96.3%, forg=-15.6%| TAg acc= 73.4%, forg= -4.6% <<<
>>> Test on task  9 : loss=1.751 | TAw acc= 92.9%, forg=  0.0%| TAg acc= 54.5%, forg=  0.0% <<<
Save at eeil_e5_wisdm_4/wisdm_flex_eeil
======
LLL_Net(
  (model): SimpleMLP(
    (fc1): Linear(in_features=91, out_features=1000, bias=True)
    (fc2): Sequential()
  )
  (heads): ModuleList(
    (0): Linear(in_features=1000, out_features=34, bias=True)
    (1): Linear(in_features=1000, out_features=20, bias=True)
    (2): Linear(in_features=1000, out_features=20, bias=True)
    (3): Linear(in_features=1000, out_features=20, bias=True)
    (4): Linear(in_features=1000, out_features=20, bias=True)
    (5): Linear(in_features=1000, out_features=20, bias=True)
    (6): Linear(in_features=1000, out_features=20, bias=True)
    (7): Linear(in_features=1000, out_features=20, bias=True)
    (8): Linear(in_features=1000, out_features=20, bias=True)
    (9): Linear(in_features=1000, out_features=20, bias=True)
  )
)
======

************************************************************************************************************
Task 10
************************************************************************************************************
| Epoch   1, time=  0.9s | Train: skip eval | Valid: time=  0.2s loss=4.930, TAw acc= 38.7% | *
| Epoch   2, time=  0.8s | Train: skip eval | Valid: time=  0.2s loss=3.458, TAw acc= 58.7% | *
…
>>> Test on task  5 : loss=1.418 | TAw acc= 94.0%, forg=  0.0%| TAg acc= 72.4%, forg= -5.2% <<<
>>> Test on task  6 : loss=1.241 | TAw acc= 91.8%, forg=  1.0%| TAg acc= 71.4%, forg=  2.0% <<<
>>> Test on task  7 : loss=1.327 | TAw acc= 95.4%, forg=  0.0%| TAg acc= 67.0%, forg= -5.5% <<<
>>> Test on task  8 : loss=1.438 | TAw acc= 97.2%, forg= -0.9%| TAg acc= 73.4%, forg=  0.0% <<<
>>> Test on task  9 : loss=1.617 | TAw acc= 91.9%, forg=  1.0%| TAg acc= 56.6%, forg= -2.0% <<<
>>> Test on task 10 : loss=1.811 | TAw acc= 92.2%, forg=  0.0%| TAg acc= 50.0%, forg=  0.0% <<<
Save at eeil_e5_wisdm_4/wisdm_flex_eeil
======
LLL_Net(
  (model): SimpleMLP(
    (fc1): Linear(in_features=91, out_features=1000, bias=True)
    (fc2): Sequential()
  )
  (heads): ModuleList(
    (0): Linear(in_features=1000, out_features=34, bias=True)
    (1): Linear(in_features=1000, out_features=20, bias=True)
    (2): Linear(in_features=1000, out_features=20, bias=True)
    (3): Linear(in_features=1000, out_features=20, bias=True)
    (4): Linear(in_features=1000, out_features=20, bias=True)
    (5): Linear(in_features=1000, out_features=20, bias=True)
    (6): Linear(in_features=1000, out_features=20, bias=True)
    (7): Linear(in_features=1000, out_features=20, bias=True)
    (8): Linear(in_features=1000, out_features=20, bias=True)
    (9): Linear(in_features=1000, out_features=20, bias=True)
    (10): Linear(in_features=1000, out_features=20, bias=True)
  )
)
======

************************************************************************************************************
Task 11
************************************************************************************************************
| Epoch   1, time=  0.9s | Train: skip eval | Valid: time=  0.2s loss=5.204, TAw acc= 48.7% | *
| Epoch   2, time=  0.8s | Train: skip eval | Valid: time=  0.2s loss=3.188, TAw acc= 64.5% | *
…
>>> Test on task  6 : loss=1.246 | TAw acc= 91.8%, forg=  1.0%| TAg acc= 75.5%, forg= -2.0% <<<
>>> Test on task  7 : loss=1.292 | TAw acc= 95.4%, forg=  0.0%| TAg acc= 65.1%, forg=  1.8% <<<
>>> Test on task  8 : loss=1.363 | TAw acc= 97.2%, forg=  0.0%| TAg acc= 69.7%, forg=  3.7% <<<
>>> Test on task  9 : loss=1.390 | TAw acc= 97.0%, forg= -4.0%| TAg acc= 60.6%, forg= -4.0% <<<
>>> Test on task 10 : loss=1.761 | TAw acc= 97.1%, forg= -4.9%| TAg acc= 49.0%, forg=  1.0% <<<
>>> Test on task 11 : loss=1.694 | TAw acc= 89.4%, forg=  0.0%| TAg acc= 59.6%, forg=  0.0% <<<
Save at eeil_e5_wisdm_4/wisdm_flex_eeil
======
LLL_Net(
  (model): SimpleMLP(
    (fc1): Linear(in_features=91, out_features=1000, bias=True)
    (fc2): Sequential()
  )
  (heads): ModuleList(
    (0): Linear(in_features=1000, out_features=34, bias=True)
    (1): Linear(in_features=1000, out_features=20, bias=True)
    (2): Linear(in_features=1000, out_features=20, bias=True)
    (3): Linear(in_features=1000, out_features=20, bias=True)
    (4): Linear(in_features=1000, out_features=20, bias=True)
    (5): Linear(in_features=1000, out_features=20, bias=True)
    (6): Linear(in_features=1000, out_features=20, bias=True)
    (7): Linear(in_features=1000, out_features=20, bias=True)
    (8): Linear(in_features=1000, out_features=20, bias=True)
    (9): Linear(in_features=1000, out_features=20, bias=True)
    (10): Linear(in_features=1000, out_features=20, bias=True)
    (11): Linear(in_features=1000, out_features=20, bias=True)
  )
)
======

************************************************************************************************************
Task 12
************************************************************************************************************
| Epoch   1, time=  1.0s | Train: skip eval | Valid: time=  0.2s loss=5.227, TAw acc= 44.9% | *
| Epoch   2, time=  1.0s | Train: skip eval | Valid: time=  0.2s loss=3.211, TAw acc= 55.1% | *
…
>>> Test on task  7 : loss=1.235 | TAw acc= 94.5%, forg=  0.9%| TAg acc= 63.3%, forg=  3.7% <<<
>>> Test on task  8 : loss=1.245 | TAw acc= 97.2%, forg=  0.0%| TAg acc= 73.4%, forg=  0.0% <<<
>>> Test on task  9 : loss=1.216 | TAw acc= 97.0%, forg=  0.0%| TAg acc= 70.7%, forg=-10.1% <<<
>>> Test on task 10 : loss=1.582 | TAw acc= 99.0%, forg= -2.0%| TAg acc= 53.9%, forg= -3.9% <<<
>>> Test on task 11 : loss=1.844 | TAw acc= 94.2%, forg= -4.8%| TAg acc= 53.8%, forg=  5.8% <<<
>>> Test on task 12 : loss=1.788 | TAw acc= 84.0%, forg=  0.0%| TAg acc= 51.9%, forg=  0.0% <<<
Save at eeil_e5_wisdm_4/wisdm_flex_eeil
======
LLL_Net(
  (model): SimpleMLP(
    (fc1): Linear(in_features=91, out_features=1000, bias=True)
    (fc2): Sequential()
  )
  (heads): ModuleList(
    (0): Linear(in_features=1000, out_features=34, bias=True)
    (1): Linear(in_features=1000, out_features=20, bias=True)
    (2): Linear(in_features=1000, out_features=20, bias=True)
    (3): Linear(in_features=1000, out_features=20, bias=True)
    (4): Linear(in_features=1000, out_features=20, bias=True)
    (5): Linear(in_features=1000, out_features=20, bias=True)
    (6): Linear(in_features=1000, out_features=20, bias=True)
    (7): Linear(in_features=1000, out_features=20, bias=True)
    (8): Linear(in_features=1000, out_features=20, bias=True)
    (9): Linear(in_features=1000, out_features=20, bias=True)
    (10): Linear(in_features=1000, out_features=20, bias=True)
    (11): Linear(in_features=1000, out_features=20, bias=True)
    (12): Linear(in_features=1000, out_features=20, bias=True)
  )
)
======

************************************************************************************************************
Task 13
************************************************************************************************************
| Epoch   1, time=  1.1s | Train: skip eval | Valid: time=  0.2s loss=4.809, TAw acc= 31.2% | *
| Epoch   2, time=  1.1s | Train: skip eval | Valid: time=  0.2s loss=3.131, TAw acc= 56.2% | *
…
>>> Test on task  8 : loss=1.234 | TAw acc= 97.2%, forg=  0.0%| TAg acc= 73.4%, forg=  0.0% <<<
>>> Test on task  9 : loss=1.223 | TAw acc= 97.0%, forg=  0.0%| TAg acc= 72.7%, forg= -2.0% <<<
>>> Test on task 10 : loss=1.475 | TAw acc= 99.0%, forg=  0.0%| TAg acc= 62.7%, forg= -8.8% <<<
>>> Test on task 11 : loss=1.729 | TAw acc= 98.1%, forg= -3.8%| TAg acc= 58.7%, forg=  1.0% <<<
>>> Test on task 12 : loss=1.956 | TAw acc= 90.6%, forg= -6.6%| TAg acc= 52.8%, forg= -0.9% <<<
>>> Test on task 13 : loss=1.665 | TAw acc= 81.9%, forg=  0.0%| TAg acc= 51.2%, forg=  0.0% <<<
Save at eeil_e5_wisdm_4/wisdm_flex_eeil
======
LLL_Net(
  (model): SimpleMLP(
    (fc1): Linear(in_features=91, out_features=1000, bias=True)
    (fc2): Sequential()
  )
  (heads): ModuleList(
    (0): Linear(in_features=1000, out_features=34, bias=True)
    (1): Linear(in_features=1000, out_features=20, bias=True)
    (2): Linear(in_features=1000, out_features=20, bias=True)
    (3): Linear(in_features=1000, out_features=20, bias=True)
    (4): Linear(in_features=1000, out_features=20, bias=True)
    (5): Linear(in_features=1000, out_features=20, bias=True)
    (6): Linear(in_features=1000, out_features=20, bias=True)
    (7): Linear(in_features=1000, out_features=20, bias=True)
    (8): Linear(in_features=1000, out_features=20, bias=True)
    (9): Linear(in_features=1000, out_features=20, bias=True)
    (10): Linear(in_features=1000, out_features=20, bias=True)
    (11): Linear(in_features=1000, out_features=20, bias=True)
    (12): Linear(in_features=1000, out_features=20, bias=True)
    (13): Linear(in_features=1000, out_features=20, bias=True)
  )
)
======

************************************************************************************************************
Task 14
************************************************************************************************************
| Epoch   1, time=  1.2s | Train: skip eval | Valid: time=  0.2s loss=5.805, TAw acc= 44.0% | *
| Epoch   2, time=  1.2s | Train: skip eval | Valid: time=  0.2s loss=3.790, TAw acc= 58.7% | *
…
>>> Test on task  9 : loss=1.103 | TAw acc= 94.9%, forg=  2.0%| TAg acc= 77.8%, forg= -5.1% <<<
>>> Test on task 10 : loss=1.370 | TAw acc= 99.0%, forg=  0.0%| TAg acc= 63.7%, forg= -1.0% <<<
>>> Test on task 11 : loss=1.542 | TAw acc= 98.1%, forg=  0.0%| TAg acc= 61.5%, forg= -1.9% <<<
>>> Test on task 12 : loss=1.813 | TAw acc= 92.5%, forg= -1.9%| TAg acc= 50.9%, forg=  1.9% <<<
>>> Test on task 13 : loss=2.092 | TAw acc= 83.5%, forg= -1.6%| TAg acc= 32.3%, forg= 18.9% <<<
>>> Test on task 14 : loss=1.369 | TAw acc= 95.1%, forg=  0.0%| TAg acc= 74.8%, forg=  0.0% <<<
Save at eeil_e5_wisdm_4/wisdm_flex_eeil
======
LLL_Net(
  (model): SimpleMLP(
    (fc1): Linear(in_features=91, out_features=1000, bias=True)
    (fc2): Sequential()
  )
  (heads): ModuleList(
    (0): Linear(in_features=1000, out_features=34, bias=True)
    (1): Linear(in_features=1000, out_features=20, bias=True)
    (2): Linear(in_features=1000, out_features=20, bias=True)
    (3): Linear(in_features=1000, out_features=20, bias=True)
    (4): Linear(in_features=1000, out_features=20, bias=True)
    (5): Linear(in_features=1000, out_features=20, bias=True)
    (6): Linear(in_features=1000, out_features=20, bias=True)
    (7): Linear(in_features=1000, out_features=20, bias=True)
    (8): Linear(in_features=1000, out_features=20, bias=True)
    (9): Linear(in_features=1000, out_features=20, bias=True)
    (10): Linear(in_features=1000, out_features=20, bias=True)
    (11): Linear(in_features=1000, out_features=20, bias=True)
    (12): Linear(in_features=1000, out_features=20, bias=True)
    (13): Linear(in_features=1000, out_features=20, bias=True)
    (14): Linear(in_features=1000, out_features=20, bias=True)
  )
)
======

************************************************************************************************************
Task 15
************************************************************************************************************
| Epoch   1, time=  1.3s | Train: skip eval | Valid: time=  0.2s loss=5.170, TAw acc= 47.3% | *
| Epoch   2, time=  1.3s | Train: skip eval | Valid: time=  0.2s loss=3.257, TAw acc= 63.5% | *
…
>>> Test on task 10 : loss=1.327 | TAw acc= 99.0%, forg=  0.0%| TAg acc= 64.7%, forg= -1.0% <<<
>>> Test on task 11 : loss=1.500 | TAw acc= 98.1%, forg=  0.0%| TAg acc= 57.7%, forg=  3.8% <<<
>>> Test on task 12 : loss=1.712 | TAw acc= 92.5%, forg=  0.0%| TAg acc= 57.5%, forg= -4.7% <<<
>>> Test on task 13 : loss=1.948 | TAw acc= 81.9%, forg=  1.6%| TAg acc= 42.5%, forg=  8.7% <<<
>>> Test on task 14 : loss=1.393 | TAw acc= 97.1%, forg= -1.9%| TAg acc= 66.0%, forg=  8.7% <<<
>>> Test on task 15 : loss=1.606 | TAw acc= 87.0%, forg=  0.0%| TAg acc= 57.0%, forg=  0.0% <<<
Save at eeil_e5_wisdm_4/wisdm_flex_eeil
======
LLL_Net(
  (model): SimpleMLP(
    (fc1): Linear(in_features=91, out_features=1000, bias=True)
    (fc2): Sequential()
  )
  (heads): ModuleList(
    (0): Linear(in_features=1000, out_features=34, bias=True)
    (1): Linear(in_features=1000, out_features=20, bias=True)
    (2): Linear(in_features=1000, out_features=20, bias=True)
    (3): Linear(in_features=1000, out_features=20, bias=True)
    (4): Linear(in_features=1000, out_features=20, bias=True)
    (5): Linear(in_features=1000, out_features=20, bias=True)
    (6): Linear(in_features=1000, out_features=20, bias=True)
    (7): Linear(in_features=1000, out_features=20, bias=True)
    (8): Linear(in_features=1000, out_features=20, bias=True)
    (9): Linear(in_features=1000, out_features=20, bias=True)
    (10): Linear(in_features=1000, out_features=20, bias=True)
    (11): Linear(in_features=1000, out_features=20, bias=True)
    (12): Linear(in_features=1000, out_features=20, bias=True)
    (13): Linear(in_features=1000, out_features=20, bias=True)
    (14): Linear(in_features=1000, out_features=20, bias=True)
    (15): Linear(in_features=1000, out_features=20, bias=True)
  )
)
======

************************************************************************************************************
Task 16
************************************************************************************************************
| Epoch   1, time=  1.5s | Train: skip eval | Valid: time=  0.2s loss=5.757, TAw acc= 41.9% | *
| Epoch   2, time=  1.4s | Train: skip eval | Valid: time=  0.2s loss=3.508, TAw acc= 55.4% | *
…
>>> Test on task 11 : loss=1.378 | TAw acc= 98.1%, forg=  0.0%| TAg acc= 67.3%, forg= -5.8% <<<
>>> Test on task 12 : loss=1.620 | TAw acc= 90.6%, forg=  1.9%| TAg acc= 67.9%, forg=-10.4% <<<
>>> Test on task 13 : loss=1.862 | TAw acc= 82.7%, forg=  0.8%| TAg acc= 47.2%, forg=  3.9% <<<
>>> Test on task 14 : loss=1.228 | TAw acc= 97.1%, forg=  0.0%| TAg acc= 72.8%, forg=  1.9% <<<
>>> Test on task 15 : loss=1.752 | TAw acc= 90.0%, forg= -3.0%| TAg acc= 45.0%, forg= 12.0% <<<
>>> Test on task 16 : loss=1.653 | TAw acc= 86.1%, forg=  0.0%| TAg acc= 56.4%, forg=  0.0% <<<
Save at eeil_e5_wisdm_4/wisdm_flex_eeil
======
LLL_Net(
  (model): SimpleMLP(
    (fc1): Linear(in_features=91, out_features=1000, bias=True)
    (fc2): Sequential()
  )
  (heads): ModuleList(
    (0): Linear(in_features=1000, out_features=34, bias=True)
    (1): Linear(in_features=1000, out_features=20, bias=True)
    (2): Linear(in_features=1000, out_features=20, bias=True)
    (3): Linear(in_features=1000, out_features=20, bias=True)
    (4): Linear(in_features=1000, out_features=20, bias=True)
    (5): Linear(in_features=1000, out_features=20, bias=True)
    (6): Linear(in_features=1000, out_features=20, bias=True)
    (7): Linear(in_features=1000, out_features=20, bias=True)
    (8): Linear(in_features=1000, out_features=20, bias=True)
    (9): Linear(in_features=1000, out_features=20, bias=True)
    (10): Linear(in_features=1000, out_features=20, bias=True)
    (11): Linear(in_features=1000, out_features=20, bias=True)
    (12): Linear(in_features=1000, out_features=20, bias=True)
    (13): Linear(in_features=1000, out_features=20, bias=True)
    (14): Linear(in_features=1000, out_features=20, bias=True)
    (15): Linear(in_features=1000, out_features=20, bias=True)
    (16): Linear(in_features=1000, out_features=20, bias=True)
  )
)
======

************************************************************************************************************
Task 17
************************************************************************************************************
| Epoch   1, time=  1.7s | Train: skip eval | Valid: time=  0.2s loss=4.358, TAw acc= 50.0% | *
| Epoch   2, time=  1.6s | Train: skip eval | Valid: time=  0.2s loss=2.272, TAw acc= 76.1% | *
…
>>> Test on task 12 : loss=1.595 | TAw acc= 90.6%, forg=  1.9%| TAg acc= 68.9%, forg= -0.9% <<<
>>> Test on task 13 : loss=1.855 | TAw acc= 83.5%, forg=  0.0%| TAg acc= 46.5%, forg=  4.7% <<<
>>> Test on task 14 : loss=1.098 | TAw acc= 97.1%, forg=  0.0%| TAg acc= 79.6%, forg= -4.9% <<<
>>> Test on task 15 : loss=1.689 | TAw acc= 90.0%, forg=  0.0%| TAg acc= 49.0%, forg=  8.0% <<<
>>> Test on task 16 : loss=1.793 | TAw acc= 90.1%, forg= -4.0%| TAg acc= 42.6%, forg= 13.9% <<<
>>> Test on task 17 : loss=1.057 | TAw acc= 96.7%, forg=  0.0%| TAg acc= 76.4%, forg=  0.0% <<<
Save at eeil_e5_wisdm_4/wisdm_flex_eeil
======
LLL_Net(
  (model): SimpleMLP(
    (fc1): Linear(in_features=91, out_features=1000, bias=True)
    (fc2): Sequential()
  )
  (heads): ModuleList(
    (0): Linear(in_features=1000, out_features=34, bias=True)
    (1): Linear(in_features=1000, out_features=20, bias=True)
    (2): Linear(in_features=1000, out_features=20, bias=True)
    (3): Linear(in_features=1000, out_features=20, bias=True)
    (4): Linear(in_features=1000, out_features=20, bias=True)
    (5): Linear(in_features=1000, out_features=20, bias=True)
    (6): Linear(in_features=1000, out_features=20, bias=True)
    (7): Linear(in_features=1000, out_features=20, bias=True)
    (8): Linear(in_features=1000, out_features=20, bias=True)
    (9): Linear(in_features=1000, out_features=20, bias=True)
    (10): Linear(in_features=1000, out_features=20, bias=True)
    (11): Linear(in_features=1000, out_features=20, bias=True)
    (12): Linear(in_features=1000, out_features=20, bias=True)
    (13): Linear(in_features=1000, out_features=20, bias=True)
    (14): Linear(in_features=1000, out_features=20, bias=True)
    (15): Linear(in_features=1000, out_features=20, bias=True)
    (16): Linear(in_features=1000, out_features=20, bias=True)
    (17): Linear(in_features=1000, out_features=20, bias=True)
  )
)
======

************************************************************************************************************
Task 18
************************************************************************************************************
| Epoch   1, time=  1.7s | Train: skip eval | Valid: time=  0.2s loss=5.624, TAw acc= 52.4% | *
| Epoch   2, time=  1.7s | Train: skip eval | Valid: time=  0.2s loss=2.919, TAw acc= 76.2% | *
…
>>> Test on task 13 : loss=1.747 | TAw acc= 85.0%, forg= -1.6%| TAg acc= 53.5%, forg= -2.4% <<<
>>> Test on task 14 : loss=1.033 | TAw acc= 97.1%, forg=  0.0%| TAg acc= 82.5%, forg= -2.9% <<<
>>> Test on task 15 : loss=1.601 | TAw acc= 92.0%, forg= -2.0%| TAg acc= 54.0%, forg=  3.0% <<<
>>> Test on task 16 : loss=1.665 | TAw acc= 88.1%, forg=  2.0%| TAg acc= 51.5%, forg=  5.0% <<<
>>> Test on task 17 : loss=1.314 | TAw acc= 98.4%, forg= -1.6%| TAg acc= 67.5%, forg=  8.9% <<<
>>> Test on task 18 : loss=1.189 | TAw acc= 93.8%, forg=  0.0%| TAg acc= 73.5%, forg=  0.0% <<<
Save at eeil_e5_wisdm_4/wisdm_flex_eeil
======
LLL_Net(
  (model): SimpleMLP(
    (fc1): Linear(in_features=91, out_features=1000, bias=True)
    (fc2): Sequential()
  )
  (heads): ModuleList(
    (0): Linear(in_features=1000, out_features=34, bias=True)
    (1): Linear(in_features=1000, out_features=20, bias=True)
    (2): Linear(in_features=1000, out_features=20, bias=True)
    (3): Linear(in_features=1000, out_features=20, bias=True)
    (4): Linear(in_features=1000, out_features=20, bias=True)
    (5): Linear(in_features=1000, out_features=20, bias=True)
    (6): Linear(in_features=1000, out_features=20, bias=True)
    (7): Linear(in_features=1000, out_features=20, bias=True)
    (8): Linear(in_features=1000, out_features=20, bias=True)
    (9): Linear(in_features=1000, out_features=20, bias=True)
    (10): Linear(in_features=1000, out_features=20, bias=True)
    (11): Linear(in_features=1000, out_features=20, bias=True)
    (12): Linear(in_features=1000, out_features=20, bias=True)
    (13): Linear(in_features=1000, out_features=20, bias=True)
    (14): Linear(in_features=1000, out_features=20, bias=True)
    (15): Linear(in_features=1000, out_features=20, bias=True)
    (16): Linear(in_features=1000, out_features=20, bias=True)
    (17): Linear(in_features=1000, out_features=20, bias=True)
    (18): Linear(in_features=1000, out_features=20, bias=True)
  )
)
======

************************************************************************************************************
Task 19
************************************************************************************************************
| Epoch   1, time=  1.7s | Train: skip eval | Valid: time=  0.2s loss=4.218, TAw acc= 58.3% | *
| Epoch   2, time=  1.7s | Train: skip eval | Valid: time=  0.2s loss=2.648, TAw acc= 75.0% | *
…
>>> Test on task 14 : loss=0.939 | TAw acc= 97.1%, forg=  0.0%| TAg acc= 82.5%, forg=  0.0% <<<
>>> Test on task 15 : loss=1.570 | TAw acc= 93.0%, forg= -1.0%| TAg acc= 58.0%, forg= -1.0% <<<
>>> Test on task 16 : loss=1.617 | TAw acc= 90.1%, forg=  0.0%| TAg acc= 52.5%, forg=  4.0% <<<
>>> Test on task 17 : loss=1.225 | TAw acc= 98.4%, forg=  0.0%| TAg acc= 67.5%, forg=  8.9% <<<
>>> Test on task 18 : loss=1.301 | TAw acc= 96.5%, forg= -2.7%| TAg acc= 63.7%, forg=  9.7% <<<
>>> Test on task 19 : loss=1.238 | TAw acc= 97.3%, forg=  0.0%| TAg acc= 71.7%, forg=  0.0% <<<
Save at eeil_e5_wisdm_4/wisdm_flex_eeil
======
LLL_Net(
  (model): SimpleMLP(
    (fc1): Linear(in_features=91, out_features=1000, bias=True)
    (fc2): Sequential()
  )
  (heads): ModuleList(
    (0): Linear(in_features=1000, out_features=34, bias=True)
    (1): Linear(in_features=1000, out_features=20, bias=True)
    (2): Linear(in_features=1000, out_features=20, bias=True)
    (3): Linear(in_features=1000, out_features=20, bias=True)
    (4): Linear(in_features=1000, out_features=20, bias=True)
    (5): Linear(in_features=1000, out_features=20, bias=True)
    (6): Linear(in_features=1000, out_features=20, bias=True)
    (7): Linear(in_features=1000, out_features=20, bias=True)
    (8): Linear(in_features=1000, out_features=20, bias=True)
    (9): Linear(in_features=1000, out_features=20, bias=True)
    (10): Linear(in_features=1000, out_features=20, bias=True)
    (11): Linear(in_features=1000, out_features=20, bias=True)
    (12): Linear(in_features=1000, out_features=20, bias=True)
    (13): Linear(in_features=1000, out_features=20, bias=True)
    (14): Linear(in_features=1000, out_features=20, bias=True)
    (15): Linear(in_features=1000, out_features=20, bias=True)
    (16): Linear(in_features=1000, out_features=20, bias=True)
    (17): Linear(in_features=1000, out_features=20, bias=True)
    (18): Linear(in_features=1000, out_features=20, bias=True)
    (19): Linear(in_features=1000, out_features=20, bias=True)
  )
)
======

************************************************************************************************************
Task 20
************************************************************************************************************
| Epoch   1, time=  1.9s | Train: skip eval | Valid: time=  0.2s loss=5.721, TAw acc= 50.7% | *
| Epoch   2, time=  1.9s | Train: skip eval | Valid: time=  0.2s loss=3.355, TAw acc= 64.0% | *
…
>>> Test on task 15 : loss=1.488 | TAw acc= 93.0%, forg=  0.0%| TAg acc= 62.0%, forg= -4.0% <<<
>>> Test on task 16 : loss=1.536 | TAw acc= 91.1%, forg= -1.0%| TAg acc= 58.4%, forg= -2.0% <<<
>>> Test on task 17 : loss=1.146 | TAw acc= 98.4%, forg=  0.0%| TAg acc= 71.5%, forg=  4.9% <<<
>>> Test on task 18 : loss=1.210 | TAw acc= 97.3%, forg= -0.9%| TAg acc= 64.6%, forg=  8.8% <<<
>>> Test on task 19 : loss=1.488 | TAw acc= 97.3%, forg=  0.0%| TAg acc= 56.6%, forg= 15.0% <<<
>>> Test on task 20 : loss=1.531 | TAw acc= 92.3%, forg=  0.0%| TAg acc= 65.4%, forg=  0.0% <<<
Save at eeil_e5_wisdm_4/wisdm_flex_eeil
======
LLL_Net(
  (model): SimpleMLP(
    (fc1): Linear(in_features=91, out_features=1000, bias=True)
    (fc2): Sequential()
  )
  (heads): ModuleList(
    (0): Linear(in_features=1000, out_features=34, bias=True)
    (1): Linear(in_features=1000, out_features=20, bias=True)
    (2): Linear(in_features=1000, out_features=20, bias=True)
    (3): Linear(in_features=1000, out_features=20, bias=True)
    (4): Linear(in_features=1000, out_features=20, bias=True)
    (5): Linear(in_features=1000, out_features=20, bias=True)
    (6): Linear(in_features=1000, out_features=20, bias=True)
    (7): Linear(in_features=1000, out_features=20, bias=True)
    (8): Linear(in_features=1000, out_features=20, bias=True)
    (9): Linear(in_features=1000, out_features=20, bias=True)
    (10): Linear(in_features=1000, out_features=20, bias=True)
    (11): Linear(in_features=1000, out_features=20, bias=True)
    (12): Linear(in_features=1000, out_features=20, bias=True)
    (13): Linear(in_features=1000, out_features=20, bias=True)
    (14): Linear(in_features=1000, out_features=20, bias=True)
    (15): Linear(in_features=1000, out_features=20, bias=True)
    (16): Linear(in_features=1000, out_features=20, bias=True)
    (17): Linear(in_features=1000, out_features=20, bias=True)
    (18): Linear(in_features=1000, out_features=20, bias=True)
    (19): Linear(in_features=1000, out_features=20, bias=True)
    (20): Linear(in_features=1000, out_features=20, bias=True)
  )
)
======

************************************************************************************************************
Task 21
************************************************************************************************************
| Epoch   1, time=  2.3s | Train: skip eval | Valid: time=  0.2s loss=5.532, TAw acc= 47.7% | *
| Epoch   2, time=  2.1s | Train: skip eval | Valid: time=  0.2s loss=3.326, TAw acc= 64.0% | *
…
>>> Test on task 16 : loss=1.539 | TAw acc= 91.1%, forg=  0.0%| TAg acc= 55.4%, forg=  3.0% <<<
>>> Test on task 17 : loss=1.075 | TAw acc= 98.4%, forg=  0.0%| TAg acc= 71.5%, forg=  4.9% <<<
>>> Test on task 18 : loss=1.162 | TAw acc= 97.3%, forg=  0.0%| TAg acc= 68.1%, forg=  5.3% <<<
>>> Test on task 19 : loss=1.490 | TAw acc= 98.2%, forg= -0.9%| TAg acc= 57.5%, forg= 14.2% <<<
>>> Test on task 20 : loss=1.719 | TAw acc= 93.3%, forg= -1.0%| TAg acc= 59.6%, forg=  5.8% <<<
>>> Test on task 21 : loss=1.300 | TAw acc= 94.8%, forg=  0.0%| TAg acc= 68.7%, forg=  0.0% <<<
Save at eeil_e5_wisdm_4/wisdm_flex_eeil
======
LLL_Net(
  (model): SimpleMLP(
    (fc1): Linear(in_features=91, out_features=1000, bias=True)
    (fc2): Sequential()
  )
  (heads): ModuleList(
    (0): Linear(in_features=1000, out_features=34, bias=True)
    (1): Linear(in_features=1000, out_features=20, bias=True)
    (2): Linear(in_features=1000, out_features=20, bias=True)
    (3): Linear(in_features=1000, out_features=20, bias=True)
    (4): Linear(in_features=1000, out_features=20, bias=True)
    (5): Linear(in_features=1000, out_features=20, bias=True)
    (6): Linear(in_features=1000, out_features=20, bias=True)
    (7): Linear(in_features=1000, out_features=20, bias=True)
    (8): Linear(in_features=1000, out_features=20, bias=True)
    (9): Linear(in_features=1000, out_features=20, bias=True)
    (10): Linear(in_features=1000, out_features=20, bias=True)
    (11): Linear(in_features=1000, out_features=20, bias=True)
    (12): Linear(in_features=1000, out_features=20, bias=True)
    (13): Linear(in_features=1000, out_features=20, bias=True)
    (14): Linear(in_features=1000, out_features=20, bias=True)
    (15): Linear(in_features=1000, out_features=20, bias=True)
    (16): Linear(in_features=1000, out_features=20, bias=True)
    (17): Linear(in_features=1000, out_features=20, bias=True)
    (18): Linear(in_features=1000, out_features=20, bias=True)
    (19): Linear(in_features=1000, out_features=20, bias=True)
    (20): Linear(in_features=1000, out_features=20, bias=True)
    (21): Linear(in_features=1000, out_features=20, bias=True)
  )
)
======

************************************************************************************************************
Task 22
************************************************************************************************************
| Epoch   1, time=  2.1s | Train: skip eval | Valid: time=  0.2s loss=6.248, TAw acc= 25.4% | *
| Epoch   2, time=  2.1s | Train: skip eval | Valid: time=  0.2s loss=3.390, TAw acc= 62.0% | *
…
>>> Test on task 17 : loss=0.963 | TAw acc= 98.4%, forg=  0.0%| TAg acc= 78.0%, forg= -1.6% <<<
>>> Test on task 18 : loss=1.113 | TAw acc= 97.3%, forg=  0.0%| TAg acc= 71.7%, forg=  1.8% <<<
>>> Test on task 19 : loss=1.290 | TAw acc= 97.3%, forg=  0.9%| TAg acc= 70.8%, forg=  0.9% <<<
>>> Test on task 20 : loss=1.574 | TAw acc= 92.3%, forg=  1.0%| TAg acc= 61.5%, forg=  3.8% <<<
>>> Test on task 21 : loss=1.744 | TAw acc= 95.7%, forg= -0.9%| TAg acc= 40.0%, forg= 28.7% <<<
>>> Test on task 22 : loss=1.649 | TAw acc= 89.8%, forg=  0.0%| TAg acc= 72.4%, forg=  0.0% <<<
Save at eeil_e5_wisdm_4/wisdm_flex_eeil
======
LLL_Net(
  (model): SimpleMLP(
    (fc1): Linear(in_features=91, out_features=1000, bias=True)
    (fc2): Sequential()
  )
  (heads): ModuleList(
    (0): Linear(in_features=1000, out_features=34, bias=True)
    (1): Linear(in_features=1000, out_features=20, bias=True)
    (2): Linear(in_features=1000, out_features=20, bias=True)
    (3): Linear(in_features=1000, out_features=20, bias=True)
    (4): Linear(in_features=1000, out_features=20, bias=True)
    (5): Linear(in_features=1000, out_features=20, bias=True)
    (6): Linear(in_features=1000, out_features=20, bias=True)
    (7): Linear(in_features=1000, out_features=20, bias=True)
    (8): Linear(in_features=1000, out_features=20, bias=True)
    (9): Linear(in_features=1000, out_features=20, bias=True)
    (10): Linear(in_features=1000, out_features=20, bias=True)
    (11): Linear(in_features=1000, out_features=20, bias=True)
    (12): Linear(in_features=1000, out_features=20, bias=True)
    (13): Linear(in_features=1000, out_features=20, bias=True)
    (14): Linear(in_features=1000, out_features=20, bias=True)
    (15): Linear(in_features=1000, out_features=20, bias=True)
    (16): Linear(in_features=1000, out_features=20, bias=True)
    (17): Linear(in_features=1000, out_features=20, bias=True)
    (18): Linear(in_features=1000, out_features=20, bias=True)
    (19): Linear(in_features=1000, out_features=20, bias=True)
    (20): Linear(in_features=1000, out_features=20, bias=True)
    (21): Linear(in_features=1000, out_features=20, bias=True)
    (22): Linear(in_features=1000, out_features=20, bias=True)
  )
)
======

************************************************************************************************************
Task 23
************************************************************************************************************
| Epoch   1, time=  2.4s | Train: skip eval | Valid: time=  0.2s loss=4.383, TAw acc= 65.2% | *
| Epoch   2, time=  2.2s | Train: skip eval | Valid: time=  0.2s loss=2.161, TAw acc= 83.1% | *
…
>>> Test on task 18 : loss=1.039 | TAw acc= 96.5%, forg=  0.9%| TAg acc= 75.2%, forg= -1.8% <<<
>>> Test on task 19 : loss=1.262 | TAw acc= 97.3%, forg=  0.9%| TAg acc= 66.4%, forg=  5.3% <<<
>>> Test on task 20 : loss=1.547 | TAw acc= 92.3%, forg=  1.0%| TAg acc= 59.6%, forg=  5.8% <<<
>>> Test on task 21 : loss=1.567 | TAw acc= 95.7%, forg=  0.0%| TAg acc= 48.7%, forg= 20.0% <<<
>>> Test on task 22 : loss=2.117 | TAw acc= 91.8%, forg= -2.0%| TAg acc= 36.7%, forg= 35.7% <<<
>>> Test on task 23 : loss=1.046 | TAw acc= 95.0%, forg=  0.0%| TAg acc= 74.8%, forg=  0.0% <<<
Save at eeil_e5_wisdm_4/wisdm_flex_eeil
======
LLL_Net(
  (model): SimpleMLP(
    (fc1): Linear(in_features=91, out_features=1000, bias=True)
    (fc2): Sequential()
  )
  (heads): ModuleList(
    (0): Linear(in_features=1000, out_features=34, bias=True)
    (1): Linear(in_features=1000, out_features=20, bias=True)
    (2): Linear(in_features=1000, out_features=20, bias=True)
    (3): Linear(in_features=1000, out_features=20, bias=True)
    (4): Linear(in_features=1000, out_features=20, bias=True)
    (5): Linear(in_features=1000, out_features=20, bias=True)
    (6): Linear(in_features=1000, out_features=20, bias=True)
    (7): Linear(in_features=1000, out_features=20, bias=True)
    (8): Linear(in_features=1000, out_features=20, bias=True)
    (9): Linear(in_features=1000, out_features=20, bias=True)
    (10): Linear(in_features=1000, out_features=20, bias=True)
    (11): Linear(in_features=1000, out_features=20, bias=True)
    (12): Linear(in_features=1000, out_features=20, bias=True)
    (13): Linear(in_features=1000, out_features=20, bias=True)
    (14): Linear(in_features=1000, out_features=20, bias=True)
    (15): Linear(in_features=1000, out_features=20, bias=True)
    (16): Linear(in_features=1000, out_features=20, bias=True)
    (17): Linear(in_features=1000, out_features=20, bias=True)
    (18): Linear(in_features=1000, out_features=20, bias=True)
    (19): Linear(in_features=1000, out_features=20, bias=True)
    (20): Linear(in_features=1000, out_features=20, bias=True)
    (21): Linear(in_features=1000, out_features=20, bias=True)
    (22): Linear(in_features=1000, out_features=20, bias=True)
    (23): Linear(in_features=1000, out_features=20, bias=True)
  )
)
======

************************************************************************************************************
Task 24
************************************************************************************************************
| Epoch   1, time=  2.4s | Train: skip eval | Valid: time=  0.2s loss=5.001, TAw acc= 53.0% | *
| Epoch   2, time=  2.5s | Train: skip eval | Valid: time=  0.2s loss=2.374, TAw acc= 78.3% | *
…
>>> Test on task 19 : loss=1.228 | TAw acc= 97.3%, forg=  0.9%| TAg acc= 72.6%, forg= -0.9% <<<
>>> Test on task 20 : loss=1.441 | TAw acc= 91.3%, forg=  1.9%| TAg acc= 63.5%, forg=  1.9% <<<
>>> Test on task 21 : loss=1.694 | TAw acc= 96.5%, forg= -0.9%| TAg acc= 44.3%, forg= 24.3% <<<
>>> Test on task 22 : loss=1.995 | TAw acc= 91.8%, forg=  0.0%| TAg acc= 52.0%, forg= 20.4% <<<
>>> Test on task 23 : loss=1.693 | TAw acc=100.0%, forg= -5.0%| TAg acc= 40.3%, forg= 34.5% <<<
>>> Test on task 24 : loss=1.444 | TAw acc= 94.6%, forg=  0.0%| TAg acc= 67.9%, forg=  0.0% <<<
Save at eeil_e5_wisdm_4/wisdm_flex_eeil
======
LLL_Net(
  (model): SimpleMLP(
    (fc1): Linear(in_features=91, out_features=1000, bias=True)
    (fc2): Sequential()
  )
  (heads): ModuleList(
    (0): Linear(in_features=1000, out_features=34, bias=True)
    (1): Linear(in_features=1000, out_features=20, bias=True)
    (2): Linear(in_features=1000, out_features=20, bias=True)
    (3): Linear(in_features=1000, out_features=20, bias=True)
    (4): Linear(in_features=1000, out_features=20, bias=True)
    (5): Linear(in_features=1000, out_features=20, bias=True)
    (6): Linear(in_features=1000, out_features=20, bias=True)
    (7): Linear(in_features=1000, out_features=20, bias=True)
    (8): Linear(in_features=1000, out_features=20, bias=True)
    (9): Linear(in_features=1000, out_features=20, bias=True)
    (10): Linear(in_features=1000, out_features=20, bias=True)
    (11): Linear(in_features=1000, out_features=20, bias=True)
    (12): Linear(in_features=1000, out_features=20, bias=True)
    (13): Linear(in_features=1000, out_features=20, bias=True)
    (14): Linear(in_features=1000, out_features=20, bias=True)
    (15): Linear(in_features=1000, out_features=20, bias=True)
    (16): Linear(in_features=1000, out_features=20, bias=True)
    (17): Linear(in_features=1000, out_features=20, bias=True)
    (18): Linear(in_features=1000, out_features=20, bias=True)
    (19): Linear(in_features=1000, out_features=20, bias=True)
    (20): Linear(in_features=1000, out_features=20, bias=True)
    (21): Linear(in_features=1000, out_features=20, bias=True)
    (22): Linear(in_features=1000, out_features=20, bias=True)
    (23): Linear(in_features=1000, out_features=20, bias=True)
    (24): Linear(in_features=1000, out_features=20, bias=True)
  )
)
======

************************************************************************************************************
Task 25
************************************************************************************************************
| Epoch   1, time=  2.9s | Train: skip eval | Valid: time=  0.2s loss=6.640, TAw acc= 39.2% | *
| Epoch   2, time=  2.5s | Train: skip eval | Valid: time=  0.2s loss=3.775, TAw acc= 62.0% | *
…
>>> Test on task 20 : loss=1.427 | TAw acc= 91.3%, forg=  1.9%| TAg acc= 65.4%, forg=  0.0% <<<
>>> Test on task 21 : loss=1.596 | TAw acc= 96.5%, forg=  0.0%| TAg acc= 47.0%, forg= 21.7% <<<
>>> Test on task 22 : loss=1.877 | TAw acc= 90.8%, forg=  1.0%| TAg acc= 55.1%, forg= 17.3% <<<
>>> Test on task 23 : loss=1.587 | TAw acc= 99.2%, forg=  0.8%| TAg acc= 43.7%, forg= 31.1% <<<
>>> Test on task 24 : loss=2.054 | TAw acc= 94.6%, forg=  0.0%| TAg acc= 24.1%, forg= 43.8% <<<
>>> Test on task 25 : loss=1.502 | TAw acc= 96.3%, forg=  0.0%| TAg acc= 66.7%, forg=  0.0% <<<
Save at eeil_e5_wisdm_4/wisdm_flex_eeil
======
LLL_Net(
  (model): SimpleMLP(
    (fc1): Linear(in_features=91, out_features=1000, bias=True)
    (fc2): Sequential()
  )
  (heads): ModuleList(
    (0): Linear(in_features=1000, out_features=34, bias=True)
    (1): Linear(in_features=1000, out_features=20, bias=True)
    (2): Linear(in_features=1000, out_features=20, bias=True)
    (3): Linear(in_features=1000, out_features=20, bias=True)
    (4): Linear(in_features=1000, out_features=20, bias=True)
    (5): Linear(in_features=1000, out_features=20, bias=True)
    (6): Linear(in_features=1000, out_features=20, bias=True)
    (7): Linear(in_features=1000, out_features=20, bias=True)
    (8): Linear(in_features=1000, out_features=20, bias=True)
    (9): Linear(in_features=1000, out_features=20, bias=True)
    (10): Linear(in_features=1000, out_features=20, bias=True)
    (11): Linear(in_features=1000, out_features=20, bias=True)
    (12): Linear(in_features=1000, out_features=20, bias=True)
    (13): Linear(in_features=1000, out_features=20, bias=True)
    (14): Linear(in_features=1000, out_features=20, bias=True)
    (15): Linear(in_features=1000, out_features=20, bias=True)
    (16): Linear(in_features=1000, out_features=20, bias=True)
    (17): Linear(in_features=1000, out_features=20, bias=True)
    (18): Linear(in_features=1000, out_features=20, bias=True)
    (19): Linear(in_features=1000, out_features=20, bias=True)
    (20): Linear(in_features=1000, out_features=20, bias=True)
    (21): Linear(in_features=1000, out_features=20, bias=True)
    (22): Linear(in_features=1000, out_features=20, bias=True)
    (23): Linear(in_features=1000, out_features=20, bias=True)
    (24): Linear(in_features=1000, out_features=20, bias=True)
    (25): Linear(in_features=1000, out_features=20, bias=True)
  )
)
======

************************************************************************************************************
Task 26
************************************************************************************************************
| Epoch   1, time=  2.7s | Train: skip eval | Valid: time=  0.2s loss=6.072, TAw acc= 46.2% | *
| Epoch   2, time=  2.9s | Train: skip eval | Valid: time=  0.2s loss=3.136, TAw acc= 67.5% | *
…
>>> Test on task 21 : loss=1.579 | TAw acc= 96.5%, forg=  0.0%| TAg acc= 47.8%, forg= 20.9% <<<
>>> Test on task 22 : loss=1.892 | TAw acc= 91.8%, forg=  0.0%| TAg acc= 53.1%, forg= 19.4% <<<
>>> Test on task 23 : loss=1.470 | TAw acc= 99.2%, forg=  0.8%| TAg acc= 46.2%, forg= 28.6% <<<
>>> Test on task 24 : loss=1.949 | TAw acc= 94.6%, forg=  0.0%| TAg acc= 30.4%, forg= 37.5% <<<
>>> Test on task 25 : loss=2.351 | TAw acc= 93.5%, forg=  2.8%| TAg acc= 21.3%, forg= 45.4% <<<
>>> Test on task 26 : loss=1.260 | TAw acc= 96.3%, forg=  0.0%| TAg acc= 66.1%, forg=  0.0% <<<
Save at eeil_e5_wisdm_4/wisdm_flex_eeil
======
LLL_Net(
  (model): SimpleMLP(
    (fc1): Linear(in_features=91, out_features=1000, bias=True)
    (fc2): Sequential()
  )
  (heads): ModuleList(
    (0): Linear(in_features=1000, out_features=34, bias=True)
    (1): Linear(in_features=1000, out_features=20, bias=True)
    (2): Linear(in_features=1000, out_features=20, bias=True)
    (3): Linear(in_features=1000, out_features=20, bias=True)
    (4): Linear(in_features=1000, out_features=20, bias=True)
    (5): Linear(in_features=1000, out_features=20, bias=True)
    (6): Linear(in_features=1000, out_features=20, bias=True)
    (7): Linear(in_features=1000, out_features=20, bias=True)
    (8): Linear(in_features=1000, out_features=20, bias=True)
    (9): Linear(in_features=1000, out_features=20, bias=True)
    (10): Linear(in_features=1000, out_features=20, bias=True)
    (11): Linear(in_features=1000, out_features=20, bias=True)
    (12): Linear(in_features=1000, out_features=20, bias=True)
    (13): Linear(in_features=1000, out_features=20, bias=True)
    (14): Linear(in_features=1000, out_features=20, bias=True)
    (15): Linear(in_features=1000, out_features=20, bias=True)
    (16): Linear(in_features=1000, out_features=20, bias=True)
    (17): Linear(in_features=1000, out_features=20, bias=True)
    (18): Linear(in_features=1000, out_features=20, bias=True)
    (19): Linear(in_features=1000, out_features=20, bias=True)
    (20): Linear(in_features=1000, out_features=20, bias=True)
    (21): Linear(in_features=1000, out_features=20, bias=True)
    (22): Linear(in_features=1000, out_features=20, bias=True)
    (23): Linear(in_features=1000, out_features=20, bias=True)
    (24): Linear(in_features=1000, out_features=20, bias=True)
    (25): Linear(in_features=1000, out_features=20, bias=True)
    (26): Linear(in_features=1000, out_features=20, bias=True)
  )
)
======

************************************************************************************************************
Task 27
************************************************************************************************************
| Epoch   1, time=  2.8s | Train: skip eval | Valid: time=  0.2s loss=5.762, TAw acc= 50.0% | *
| Epoch   2, time=  2.9s | Train: skip eval | Valid: time=  0.2s loss=2.988, TAw acc= 79.3% | *
…
>>> Test on task 22 : loss=1.768 | TAw acc= 91.8%, forg=  0.0%| TAg acc= 59.2%, forg= 13.3% <<<
>>> Test on task 23 : loss=1.393 | TAw acc= 99.2%, forg=  0.8%| TAg acc= 56.3%, forg= 18.5% <<<
>>> Test on task 24 : loss=1.861 | TAw acc= 94.6%, forg=  0.0%| TAg acc= 38.4%, forg= 29.5% <<<
>>> Test on task 25 : loss=2.116 | TAw acc= 93.5%, forg=  2.8%| TAg acc= 33.3%, forg= 33.3% <<<
>>> Test on task 26 : loss=1.940 | TAw acc= 96.3%, forg=  0.0%| TAg acc= 26.6%, forg= 39.4% <<<
>>> Test on task 27 : loss=1.496 | TAw acc= 95.5%, forg=  0.0%| TAg acc= 65.8%, forg=  0.0% <<<
Save at eeil_e5_wisdm_4/wisdm_flex_eeil
======
LLL_Net(
  (model): SimpleMLP(
    (fc1): Linear(in_features=91, out_features=1000, bias=True)
    (fc2): Sequential()
  )
  (heads): ModuleList(
    (0): Linear(in_features=1000, out_features=34, bias=True)
    (1): Linear(in_features=1000, out_features=20, bias=True)
    (2): Linear(in_features=1000, out_features=20, bias=True)
    (3): Linear(in_features=1000, out_features=20, bias=True)
    (4): Linear(in_features=1000, out_features=20, bias=True)
    (5): Linear(in_features=1000, out_features=20, bias=True)
    (6): Linear(in_features=1000, out_features=20, bias=True)
    (7): Linear(in_features=1000, out_features=20, bias=True)
    (8): Linear(in_features=1000, out_features=20, bias=True)
    (9): Linear(in_features=1000, out_features=20, bias=True)
    (10): Linear(in_features=1000, out_features=20, bias=True)
    (11): Linear(in_features=1000, out_features=20, bias=True)
    (12): Linear(in_features=1000, out_features=20, bias=True)
    (13): Linear(in_features=1000, out_features=20, bias=True)
    (14): Linear(in_features=1000, out_features=20, bias=True)
    (15): Linear(in_features=1000, out_features=20, bias=True)
    (16): Linear(in_features=1000, out_features=20, bias=True)
    (17): Linear(in_features=1000, out_features=20, bias=True)
    (18): Linear(in_features=1000, out_features=20, bias=True)
    (19): Linear(in_features=1000, out_features=20, bias=True)
    (20): Linear(in_features=1000, out_features=20, bias=True)
    (21): Linear(in_features=1000, out_features=20, bias=True)
    (22): Linear(in_features=1000, out_features=20, bias=True)
    (23): Linear(in_features=1000, out_features=20, bias=True)
    (24): Linear(in_features=1000, out_features=20, bias=True)
    (25): Linear(in_features=1000, out_features=20, bias=True)
    (26): Linear(in_features=1000, out_features=20, bias=True)
    (27): Linear(in_features=1000, out_features=20, bias=True)
  )
)
======

************************************************************************************************************
Task 28
************************************************************************************************************
| Epoch   1, time=  2.9s | Train: skip eval | Valid: time=  0.2s loss=5.605, TAw acc= 42.3% | *
| Epoch   2, time=  3.2s | Train: skip eval | Valid: time=  0.2s loss=3.162, TAw acc= 69.2% | *
…
>>> Test on task 23 : loss=1.334 | TAw acc= 99.2%, forg=  0.8%| TAg acc= 56.3%, forg= 18.5% <<<
>>> Test on task 24 : loss=1.774 | TAw acc= 94.6%, forg=  0.0%| TAg acc= 44.6%, forg= 23.2% <<<
>>> Test on task 25 : loss=2.035 | TAw acc= 95.4%, forg=  0.9%| TAg acc= 38.0%, forg= 28.7% <<<
>>> Test on task 26 : loss=1.876 | TAw acc= 96.3%, forg=  0.0%| TAg acc= 32.1%, forg= 33.9% <<<
>>> Test on task 27 : loss=2.069 | TAw acc= 94.6%, forg=  0.9%| TAg acc= 40.5%, forg= 25.2% <<<
>>> Test on task 28 : loss=1.248 | TAw acc= 93.5%, forg=  0.0%| TAg acc= 72.9%, forg=  0.0% <<<
Save at eeil_e5_wisdm_4/wisdm_flex_eeil
======
LLL_Net(
  (model): SimpleMLP(
    (fc1): Linear(in_features=91, out_features=1000, bias=True)
    (fc2): Sequential()
  )
  (heads): ModuleList(
    (0): Linear(in_features=1000, out_features=34, bias=True)
    (1): Linear(in_features=1000, out_features=20, bias=True)
    (2): Linear(in_features=1000, out_features=20, bias=True)
    (3): Linear(in_features=1000, out_features=20, bias=True)
    (4): Linear(in_features=1000, out_features=20, bias=True)
    (5): Linear(in_features=1000, out_features=20, bias=True)
    (6): Linear(in_features=1000, out_features=20, bias=True)
    (7): Linear(in_features=1000, out_features=20, bias=True)
    (8): Linear(in_features=1000, out_features=20, bias=True)
    (9): Linear(in_features=1000, out_features=20, bias=True)
    (10): Linear(in_features=1000, out_features=20, bias=True)
    (11): Linear(in_features=1000, out_features=20, bias=True)
    (12): Linear(in_features=1000, out_features=20, bias=True)
    (13): Linear(in_features=1000, out_features=20, bias=True)
    (14): Linear(in_features=1000, out_features=20, bias=True)
    (15): Linear(in_features=1000, out_features=20, bias=True)
    (16): Linear(in_features=1000, out_features=20, bias=True)
    (17): Linear(in_features=1000, out_features=20, bias=True)
    (18): Linear(in_features=1000, out_features=20, bias=True)
    (19): Linear(in_features=1000, out_features=20, bias=True)
    (20): Linear(in_features=1000, out_features=20, bias=True)
    (21): Linear(in_features=1000, out_features=20, bias=True)
    (22): Linear(in_features=1000, out_features=20, bias=True)
    (23): Linear(in_features=1000, out_features=20, bias=True)
    (24): Linear(in_features=1000, out_features=20, bias=True)
    (25): Linear(in_features=1000, out_features=20, bias=True)
    (26): Linear(in_features=1000, out_features=20, bias=True)
    (27): Linear(in_features=1000, out_features=20, bias=True)
    (28): Linear(in_features=1000, out_features=20, bias=True)
  )
)
======

************************************************************************************************************
Task 29
************************************************************************************************************
| Epoch   1, time=  3.0s | Train: skip eval | Valid: time=  0.2s loss=5.457, TAw acc= 51.2% | *
| Epoch   2, time=  3.1s | Train: skip eval | Valid: time=  0.2s loss=2.958, TAw acc= 81.4% | *
…
>>> Test on task 24 : loss=1.716 | TAw acc= 94.6%, forg=  0.0%| TAg acc= 52.7%, forg= 15.2% <<<
>>> Test on task 25 : loss=2.050 | TAw acc= 95.4%, forg=  0.9%| TAg acc= 38.0%, forg= 28.7% <<<
>>> Test on task 26 : loss=1.879 | TAw acc= 96.3%, forg=  0.0%| TAg acc= 41.3%, forg= 24.8% <<<
>>> Test on task 27 : loss=1.913 | TAw acc= 94.6%, forg=  0.9%| TAg acc= 47.7%, forg= 18.0% <<<
>>> Test on task 28 : loss=1.659 | TAw acc= 95.3%, forg= -1.9%| TAg acc= 49.5%, forg= 23.4% <<<
>>> Test on task 29 : loss=1.404 | TAw acc= 94.8%, forg=  0.0%| TAg acc= 67.8%, forg=  0.0% <<<
Save at eeil_e5_wisdm_4/wisdm_flex_eeil
======
LLL_Net(
  (model): SimpleMLP(
    (fc1): Linear(in_features=91, out_features=1000, bias=True)
    (fc2): Sequential()
  )
  (heads): ModuleList(
    (0): Linear(in_features=1000, out_features=34, bias=True)
    (1): Linear(in_features=1000, out_features=20, bias=True)
    (2): Linear(in_features=1000, out_features=20, bias=True)
    (3): Linear(in_features=1000, out_features=20, bias=True)
    (4): Linear(in_features=1000, out_features=20, bias=True)
    (5): Linear(in_features=1000, out_features=20, bias=True)
    (6): Linear(in_features=1000, out_features=20, bias=True)
    (7): Linear(in_features=1000, out_features=20, bias=True)
    (8): Linear(in_features=1000, out_features=20, bias=True)
    (9): Linear(in_features=1000, out_features=20, bias=True)
    (10): Linear(in_features=1000, out_features=20, bias=True)
    (11): Linear(in_features=1000, out_features=20, bias=True)
    (12): Linear(in_features=1000, out_features=20, bias=True)
    (13): Linear(in_features=1000, out_features=20, bias=True)
    (14): Linear(in_features=1000, out_features=20, bias=True)
    (15): Linear(in_features=1000, out_features=20, bias=True)
    (16): Linear(in_features=1000, out_features=20, bias=True)
    (17): Linear(in_features=1000, out_features=20, bias=True)
    (18): Linear(in_features=1000, out_features=20, bias=True)
    (19): Linear(in_features=1000, out_features=20, bias=True)
    (20): Linear(in_features=1000, out_features=20, bias=True)
    (21): Linear(in_features=1000, out_features=20, bias=True)
    (22): Linear(in_features=1000, out_features=20, bias=True)
    (23): Linear(in_features=1000, out_features=20, bias=True)
    (24): Linear(in_features=1000, out_features=20, bias=True)
    (25): Linear(in_features=1000, out_features=20, bias=True)
    (26): Linear(in_features=1000, out_features=20, bias=True)
    (27): Linear(in_features=1000, out_features=20, bias=True)
    (28): Linear(in_features=1000, out_features=20, bias=True)
    (29): Linear(in_features=1000, out_features=20, bias=True)
  )
)
======

************************************************************************************************************
Task 30
************************************************************************************************************
| Epoch   1, time=  3.4s | Train: skip eval | Valid: time=  0.2s loss=4.852, TAw acc= 59.8% | *
| Epoch   2, time=  3.1s | Train: skip eval | Valid: time=  0.2s loss=2.449, TAw acc= 92.0% | *
…
>>> Test on task 25 : loss=2.014 | TAw acc= 95.4%, forg=  0.9%| TAg acc= 38.0%, forg= 28.7% <<<
>>> Test on task 26 : loss=1.719 | TAw acc= 96.3%, forg=  0.0%| TAg acc= 45.9%, forg= 20.2% <<<
>>> Test on task 27 : loss=1.915 | TAw acc= 94.6%, forg=  0.9%| TAg acc= 50.5%, forg= 15.3% <<<
>>> Test on task 28 : loss=1.685 | TAw acc= 95.3%, forg=  0.0%| TAg acc= 48.6%, forg= 24.3% <<<
>>> Test on task 29 : loss=1.898 | TAw acc= 93.9%, forg=  0.9%| TAg acc= 49.6%, forg= 18.3% <<<
>>> Test on task 30 : loss=1.213 | TAw acc= 95.7%, forg=  0.0%| TAg acc= 70.7%, forg=  0.0% <<<
Save at eeil_e5_wisdm_4/wisdm_flex_eeil
======
LLL_Net(
  (model): SimpleMLP(
    (fc1): Linear(in_features=91, out_features=1000, bias=True)
    (fc2): Sequential()
  )
  (heads): ModuleList(
    (0): Linear(in_features=1000, out_features=34, bias=True)
    (1): Linear(in_features=1000, out_features=20, bias=True)
    (2): Linear(in_features=1000, out_features=20, bias=True)
    (3): Linear(in_features=1000, out_features=20, bias=True)
    (4): Linear(in_features=1000, out_features=20, bias=True)
    (5): Linear(in_features=1000, out_features=20, bias=True)
    (6): Linear(in_features=1000, out_features=20, bias=True)
    (7): Linear(in_features=1000, out_features=20, bias=True)
    (8): Linear(in_features=1000, out_features=20, bias=True)
    (9): Linear(in_features=1000, out_features=20, bias=True)
    (10): Linear(in_features=1000, out_features=20, bias=True)
    (11): Linear(in_features=1000, out_features=20, bias=True)
    (12): Linear(in_features=1000, out_features=20, bias=True)
    (13): Linear(in_features=1000, out_features=20, bias=True)
    (14): Linear(in_features=1000, out_features=20, bias=True)
    (15): Linear(in_features=1000, out_features=20, bias=True)
    (16): Linear(in_features=1000, out_features=20, bias=True)
    (17): Linear(in_features=1000, out_features=20, bias=True)
    (18): Linear(in_features=1000, out_features=20, bias=True)
    (19): Linear(in_features=1000, out_features=20, bias=True)
    (20): Linear(in_features=1000, out_features=20, bias=True)
    (21): Linear(in_features=1000, out_features=20, bias=True)
    (22): Linear(in_features=1000, out_features=20, bias=True)
    (23): Linear(in_features=1000, out_features=20, bias=True)
    (24): Linear(in_features=1000, out_features=20, bias=True)
    (25): Linear(in_features=1000, out_features=20, bias=True)
    (26): Linear(in_features=1000, out_features=20, bias=True)
    (27): Linear(in_features=1000, out_features=20, bias=True)
    (28): Linear(in_features=1000, out_features=20, bias=True)
    (29): Linear(in_features=1000, out_features=20, bias=True)
    (30): Linear(in_features=1000, out_features=20, bias=True)
  )
)
======

************************************************************************************************************
Task 31
************************************************************************************************************
| Epoch   1, time=  3.6s | Train: skip eval | Valid: time=  0.2s loss=4.321, TAw acc= 62.8% | *
| Epoch   2, time=  3.4s | Train: skip eval | Valid: time=  0.2s loss=1.859, TAw acc= 77.7% | *
…
>>> Test on task 26 : loss=1.755 | TAw acc= 96.3%, forg=  0.0%| TAg acc= 43.1%, forg= 22.9% <<<
>>> Test on task 27 : loss=1.937 | TAw acc= 94.6%, forg=  0.9%| TAg acc= 46.8%, forg= 18.9% <<<
>>> Test on task 28 : loss=1.593 | TAw acc= 95.3%, forg=  0.0%| TAg acc= 53.3%, forg= 19.6% <<<
>>> Test on task 29 : loss=1.827 | TAw acc= 95.7%, forg= -0.9%| TAg acc= 53.9%, forg= 13.9% <<<
>>> Test on task 30 : loss=1.677 | TAw acc= 97.4%, forg= -1.7%| TAg acc= 52.6%, forg= 18.1% <<<
>>> Test on task 31 : loss=1.062 | TAw acc= 92.8%, forg=  0.0%| TAg acc= 75.2%, forg=  0.0% <<<
Save at eeil_e5_wisdm_4/wisdm_flex_eeil
======
LLL_Net(
  (model): SimpleMLP(
    (fc1): Linear(in_features=91, out_features=1000, bias=True)
    (fc2): Sequential()
  )
  (heads): ModuleList(
    (0): Linear(in_features=1000, out_features=34, bias=True)
    (1): Linear(in_features=1000, out_features=20, bias=True)
    (2): Linear(in_features=1000, out_features=20, bias=True)
    (3): Linear(in_features=1000, out_features=20, bias=True)
    (4): Linear(in_features=1000, out_features=20, bias=True)
    (5): Linear(in_features=1000, out_features=20, bias=True)
    (6): Linear(in_features=1000, out_features=20, bias=True)
    (7): Linear(in_features=1000, out_features=20, bias=True)
    (8): Linear(in_features=1000, out_features=20, bias=True)
    (9): Linear(in_features=1000, out_features=20, bias=True)
    (10): Linear(in_features=1000, out_features=20, bias=True)
    (11): Linear(in_features=1000, out_features=20, bias=True)
    (12): Linear(in_features=1000, out_features=20, bias=True)
    (13): Linear(in_features=1000, out_features=20, bias=True)
    (14): Linear(in_features=1000, out_features=20, bias=True)
    (15): Linear(in_features=1000, out_features=20, bias=True)
    (16): Linear(in_features=1000, out_features=20, bias=True)
    (17): Linear(in_features=1000, out_features=20, bias=True)
    (18): Linear(in_features=1000, out_features=20, bias=True)
    (19): Linear(in_features=1000, out_features=20, bias=True)
    (20): Linear(in_features=1000, out_features=20, bias=True)
    (21): Linear(in_features=1000, out_features=20, bias=True)
    (22): Linear(in_features=1000, out_features=20, bias=True)
    (23): Linear(in_features=1000, out_features=20, bias=True)
    (24): Linear(in_features=1000, out_features=20, bias=True)
    (25): Linear(in_features=1000, out_features=20, bias=True)
    (26): Linear(in_features=1000, out_features=20, bias=True)
    (27): Linear(in_features=1000, out_features=20, bias=True)
    (28): Linear(in_features=1000, out_features=20, bias=True)
    (29): Linear(in_features=1000, out_features=20, bias=True)
    (30): Linear(in_features=1000, out_features=20, bias=True)
    (31): Linear(in_features=1000, out_features=20, bias=True)
  )
)
======

************************************************************************************************************
Task 32
************************************************************************************************************
| Epoch   1, time=  3.5s | Train: skip eval | Valid: time=  0.2s loss=5.075, TAw acc= 62.1% | *
| Epoch   2, time=  3.5s | Train: skip eval | Valid: time=  0.2s loss=2.703, TAw acc= 80.5% | *
…
>>> Test on task 27 : loss=1.804 | TAw acc= 94.6%, forg=  0.9%| TAg acc= 55.0%, forg= 10.8% <<<
>>> Test on task 28 : loss=1.596 | TAw acc= 95.3%, forg=  0.0%| TAg acc= 55.1%, forg= 17.8% <<<
>>> Test on task 29 : loss=1.697 | TAw acc= 93.9%, forg=  1.7%| TAg acc= 58.3%, forg=  9.6% <<<
>>> Test on task 30 : loss=1.698 | TAw acc= 98.3%, forg= -0.9%| TAg acc= 50.9%, forg= 19.8% <<<
>>> Test on task 31 : loss=1.676 | TAw acc= 92.0%, forg=  0.8%| TAg acc= 38.4%, forg= 36.8% <<<
>>> Test on task 32 : loss=1.199 | TAw acc= 93.2%, forg=  0.0%| TAg acc= 76.9%, forg=  0.0% <<<
Save at eeil_e5_wisdm_4/wisdm_flex_eeil
======
LLL_Net(
  (model): SimpleMLP(
    (fc1): Linear(in_features=91, out_features=1000, bias=True)
    (fc2): Sequential()
  )
  (heads): ModuleList(
    (0): Linear(in_features=1000, out_features=34, bias=True)
    (1): Linear(in_features=1000, out_features=20, bias=True)
    (2): Linear(in_features=1000, out_features=20, bias=True)
    (3): Linear(in_features=1000, out_features=20, bias=True)
    (4): Linear(in_features=1000, out_features=20, bias=True)
    (5): Linear(in_features=1000, out_features=20, bias=True)
    (6): Linear(in_features=1000, out_features=20, bias=True)
    (7): Linear(in_features=1000, out_features=20, bias=True)
    (8): Linear(in_features=1000, out_features=20, bias=True)
    (9): Linear(in_features=1000, out_features=20, bias=True)
    (10): Linear(in_features=1000, out_features=20, bias=True)
    (11): Linear(in_features=1000, out_features=20, bias=True)
    (12): Linear(in_features=1000, out_features=20, bias=True)
    (13): Linear(in_features=1000, out_features=20, bias=True)
    (14): Linear(in_features=1000, out_features=20, bias=True)
    (15): Linear(in_features=1000, out_features=20, bias=True)
    (16): Linear(in_features=1000, out_features=20, bias=True)
    (17): Linear(in_features=1000, out_features=20, bias=True)
    (18): Linear(in_features=1000, out_features=20, bias=True)
    (19): Linear(in_features=1000, out_features=20, bias=True)
    (20): Linear(in_features=1000, out_features=20, bias=True)
    (21): Linear(in_features=1000, out_features=20, bias=True)
    (22): Linear(in_features=1000, out_features=20, bias=True)
    (23): Linear(in_features=1000, out_features=20, bias=True)
    (24): Linear(in_features=1000, out_features=20, bias=True)
    (25): Linear(in_features=1000, out_features=20, bias=True)
    (26): Linear(in_features=1000, out_features=20, bias=True)
    (27): Linear(in_features=1000, out_features=20, bias=True)
    (28): Linear(in_features=1000, out_features=20, bias=True)
    (29): Linear(in_features=1000, out_features=20, bias=True)
    (30): Linear(in_features=1000, out_features=20, bias=True)
    (31): Linear(in_features=1000, out_features=20, bias=True)
    (32): Linear(in_features=1000, out_features=20, bias=True)
  )
)
======

************************************************************************************************************
Task 33
************************************************************************************************************
| Epoch   1, time=  3.7s | Train: skip eval | Valid: time=  0.2s loss=6.572, TAw acc= 30.8% | *
| Epoch   2, time=  3.9s | Train: skip eval | Valid: time=  0.2s loss=4.157, TAw acc= 70.5% | *
…
>>> Test on task 28 : loss=1.491 | TAw acc= 95.3%, forg=  0.0%| TAg acc= 60.7%, forg= 12.1% <<<
>>> Test on task 29 : loss=1.671 | TAw acc= 94.8%, forg=  0.9%| TAg acc= 57.4%, forg= 10.4% <<<
>>> Test on task 30 : loss=1.697 | TAw acc= 97.4%, forg=  0.9%| TAg acc= 52.6%, forg= 18.1% <<<
>>> Test on task 31 : loss=1.545 | TAw acc= 93.6%, forg= -0.8%| TAg acc= 54.4%, forg= 20.8% <<<
>>> Test on task 32 : loss=1.722 | TAw acc= 94.9%, forg= -1.7%| TAg acc= 58.1%, forg= 18.8% <<<
>>> Test on task 33 : loss=1.246 | TAw acc= 98.1%, forg=  0.0%| TAg acc= 69.2%, forg=  0.0% <<<
Save at eeil_e5_wisdm_4/wisdm_flex_eeil
======
LLL_Net(
  (model): SimpleMLP(
    (fc1): Linear(in_features=91, out_features=1000, bias=True)
    (fc2): Sequential()
  )
  (heads): ModuleList(
    (0): Linear(in_features=1000, out_features=34, bias=True)
    (1): Linear(in_features=1000, out_features=20, bias=True)
    (2): Linear(in_features=1000, out_features=20, bias=True)
    (3): Linear(in_features=1000, out_features=20, bias=True)
    (4): Linear(in_features=1000, out_features=20, bias=True)
    (5): Linear(in_features=1000, out_features=20, bias=True)
    (6): Linear(in_features=1000, out_features=20, bias=True)
    (7): Linear(in_features=1000, out_features=20, bias=True)
    (8): Linear(in_features=1000, out_features=20, bias=True)
    (9): Linear(in_features=1000, out_features=20, bias=True)
    (10): Linear(in_features=1000, out_features=20, bias=True)
    (11): Linear(in_features=1000, out_features=20, bias=True)
    (12): Linear(in_features=1000, out_features=20, bias=True)
    (13): Linear(in_features=1000, out_features=20, bias=True)
    (14): Linear(in_features=1000, out_features=20, bias=True)
    (15): Linear(in_features=1000, out_features=20, bias=True)
    (16): Linear(in_features=1000, out_features=20, bias=True)
    (17): Linear(in_features=1000, out_features=20, bias=True)
    (18): Linear(in_features=1000, out_features=20, bias=True)
    (19): Linear(in_features=1000, out_features=20, bias=True)
    (20): Linear(in_features=1000, out_features=20, bias=True)
    (21): Linear(in_features=1000, out_features=20, bias=True)
    (22): Linear(in_features=1000, out_features=20, bias=True)
    (23): Linear(in_features=1000, out_features=20, bias=True)
    (24): Linear(in_features=1000, out_features=20, bias=True)
    (25): Linear(in_features=1000, out_features=20, bias=True)
    (26): Linear(in_features=1000, out_features=20, bias=True)
    (27): Linear(in_features=1000, out_features=20, bias=True)
    (28): Linear(in_features=1000, out_features=20, bias=True)
    (29): Linear(in_features=1000, out_features=20, bias=True)
    (30): Linear(in_features=1000, out_features=20, bias=True)
    (31): Linear(in_features=1000, out_features=20, bias=True)
    (32): Linear(in_features=1000, out_features=20, bias=True)
    (33): Linear(in_features=1000, out_features=20, bias=True)
  )
)
======

************************************************************************************************************
Task 34
************************************************************************************************************
| Epoch   1, time=  4.0s | Train: skip eval | Valid: time=  0.2s loss=5.530, TAw acc= 48.2% | *
| Epoch   2, time=  4.0s | Train: skip eval | Valid: time=  0.2s loss=2.693, TAw acc= 69.9% | *
…
>>> Test on task 29 : loss=1.633 | TAw acc= 94.8%, forg=  0.9%| TAg acc= 61.7%, forg=  6.1% <<<
>>> Test on task 30 : loss=1.624 | TAw acc= 98.3%, forg=  0.0%| TAg acc= 51.7%, forg= 19.0% <<<
>>> Test on task 31 : loss=1.618 | TAw acc= 93.6%, forg=  0.0%| TAg acc= 45.6%, forg= 29.6% <<<
>>> Test on task 32 : loss=1.668 | TAw acc= 94.9%, forg=  0.0%| TAg acc= 56.4%, forg= 20.5% <<<
>>> Test on task 33 : loss=1.651 | TAw acc= 98.1%, forg=  0.0%| TAg acc= 40.2%, forg= 29.0% <<<
>>> Test on task 34 : loss=1.526 | TAw acc= 89.3%, forg=  0.0%| TAg acc= 54.5%, forg=  0.0% <<<
Save at eeil_e5_wisdm_4/wisdm_flex_eeil
======
LLL_Net(
  (model): SimpleMLP(
    (fc1): Linear(in_features=91, out_features=1000, bias=True)
    (fc2): Sequential()
  )
  (heads): ModuleList(
    (0): Linear(in_features=1000, out_features=34, bias=True)
    (1): Linear(in_features=1000, out_features=20, bias=True)
    (2): Linear(in_features=1000, out_features=20, bias=True)
    (3): Linear(in_features=1000, out_features=20, bias=True)
    (4): Linear(in_features=1000, out_features=20, bias=True)
    (5): Linear(in_features=1000, out_features=20, bias=True)
    (6): Linear(in_features=1000, out_features=20, bias=True)
    (7): Linear(in_features=1000, out_features=20, bias=True)
    (8): Linear(in_features=1000, out_features=20, bias=True)
    (9): Linear(in_features=1000, out_features=20, bias=True)
    (10): Linear(in_features=1000, out_features=20, bias=True)
    (11): Linear(in_features=1000, out_features=20, bias=True)
    (12): Linear(in_features=1000, out_features=20, bias=True)
    (13): Linear(in_features=1000, out_features=20, bias=True)
    (14): Linear(in_features=1000, out_features=20, bias=True)
    (15): Linear(in_features=1000, out_features=20, bias=True)
    (16): Linear(in_features=1000, out_features=20, bias=True)
    (17): Linear(in_features=1000, out_features=20, bias=True)
    (18): Linear(in_features=1000, out_features=20, bias=True)
    (19): Linear(in_features=1000, out_features=20, bias=True)
    (20): Linear(in_features=1000, out_features=20, bias=True)
    (21): Linear(in_features=1000, out_features=20, bias=True)
    (22): Linear(in_features=1000, out_features=20, bias=True)
    (23): Linear(in_features=1000, out_features=20, bias=True)
    (24): Linear(in_features=1000, out_features=20, bias=True)
    (25): Linear(in_features=1000, out_features=20, bias=True)
    (26): Linear(in_features=1000, out_features=20, bias=True)
    (27): Linear(in_features=1000, out_features=20, bias=True)
    (28): Linear(in_features=1000, out_features=20, bias=True)
    (29): Linear(in_features=1000, out_features=20, bias=True)
    (30): Linear(in_features=1000, out_features=20, bias=True)
    (31): Linear(in_features=1000, out_features=20, bias=True)
    (32): Linear(in_features=1000, out_features=20, bias=True)
    (33): Linear(in_features=1000, out_features=20, bias=True)
    (34): Linear(in_features=1000, out_features=20, bias=True)
  )
)
======

************************************************************************************************************
Task 35
************************************************************************************************************
| Epoch   1, time=  4.0s | Train: skip eval | Valid: time=  0.2s loss=5.859, TAw acc= 47.9% | *
| Epoch   2, time=  4.3s | Train: skip eval | Valid: time=  0.2s loss=3.109, TAw acc= 78.1% | *
…
>>> Test on task 30 : loss=1.584 | TAw acc= 98.3%, forg=  0.0%| TAg acc= 53.4%, forg= 17.2% <<<
>>> Test on task 31 : loss=1.518 | TAw acc= 90.4%, forg=  3.2%| TAg acc= 56.0%, forg= 19.2% <<<
>>> Test on task 32 : loss=1.594 | TAw acc= 94.9%, forg=  0.0%| TAg acc= 59.8%, forg= 17.1% <<<
>>> Test on task 33 : loss=1.531 | TAw acc= 98.1%, forg=  0.0%| TAg acc= 47.7%, forg= 21.5% <<<
>>> Test on task 34 : loss=2.298 | TAw acc= 85.7%, forg=  3.6%| TAg acc= 24.1%, forg= 30.4% <<<
>>> Test on task 35 : loss=1.300 | TAw acc= 90.1%, forg=  0.0%| TAg acc= 66.3%, forg=  0.0% <<<
Save at eeil_e5_wisdm_4/wisdm_flex_eeil
======
LLL_Net(
  (model): SimpleMLP(
    (fc1): Linear(in_features=91, out_features=1000, bias=True)
    (fc2): Sequential()
  )
  (heads): ModuleList(
    (0): Linear(in_features=1000, out_features=34, bias=True)
    (1): Linear(in_features=1000, out_features=20, bias=True)
    (2): Linear(in_features=1000, out_features=20, bias=True)
    (3): Linear(in_features=1000, out_features=20, bias=True)
    (4): Linear(in_features=1000, out_features=20, bias=True)
    (5): Linear(in_features=1000, out_features=20, bias=True)
    (6): Linear(in_features=1000, out_features=20, bias=True)
    (7): Linear(in_features=1000, out_features=20, bias=True)
    (8): Linear(in_features=1000, out_features=20, bias=True)
    (9): Linear(in_features=1000, out_features=20, bias=True)
    (10): Linear(in_features=1000, out_features=20, bias=True)
    (11): Linear(in_features=1000, out_features=20, bias=True)
    (12): Linear(in_features=1000, out_features=20, bias=True)
    (13): Linear(in_features=1000, out_features=20, bias=True)
    (14): Linear(in_features=1000, out_features=20, bias=True)
    (15): Linear(in_features=1000, out_features=20, bias=True)
    (16): Linear(in_features=1000, out_features=20, bias=True)
    (17): Linear(in_features=1000, out_features=20, bias=True)
    (18): Linear(in_features=1000, out_features=20, bias=True)
    (19): Linear(in_features=1000, out_features=20, bias=True)
    (20): Linear(in_features=1000, out_features=20, bias=True)
    (21): Linear(in_features=1000, out_features=20, bias=True)
    (22): Linear(in_features=1000, out_features=20, bias=True)
    (23): Linear(in_features=1000, out_features=20, bias=True)
    (24): Linear(in_features=1000, out_features=20, bias=True)
    (25): Linear(in_features=1000, out_features=20, bias=True)
    (26): Linear(in_features=1000, out_features=20, bias=True)
    (27): Linear(in_features=1000, out_features=20, bias=True)
    (28): Linear(in_features=1000, out_features=20, bias=True)
    (29): Linear(in_features=1000, out_features=20, bias=True)
    (30): Linear(in_features=1000, out_features=20, bias=True)
    (31): Linear(in_features=1000, out_features=20, bias=True)
    (32): Linear(in_features=1000, out_features=20, bias=True)
    (33): Linear(in_features=1000, out_features=20, bias=True)
    (34): Linear(in_features=1000, out_features=20, bias=True)
    (35): Linear(in_features=1000, out_features=20, bias=True)
  )
)
======

************************************************************************************************************
Task 36
************************************************************************************************************
| Epoch   1, time=  4.2s | Train: skip eval | Valid: time=  0.2s loss=4.904, TAw acc= 45.2% | *
| Epoch   2, time=  4.2s | Train: skip eval | Valid: time=  0.2s loss=1.752, TAw acc= 89.4% | *
…
>>> Test on task 31 : loss=1.496 | TAw acc= 94.4%, forg= -0.8%| TAg acc= 64.0%, forg= 11.2% <<<
>>> Test on task 32 : loss=1.586 | TAw acc= 94.9%, forg=  0.0%| TAg acc= 65.8%, forg= 11.1% <<<
>>> Test on task 33 : loss=1.495 | TAw acc= 98.1%, forg=  0.0%| TAg acc= 57.0%, forg= 12.1% <<<
>>> Test on task 34 : loss=2.226 | TAw acc= 91.1%, forg= -1.8%| TAg acc= 24.1%, forg= 30.4% <<<
>>> Test on task 35 : loss=1.633 | TAw acc= 90.1%, forg=  0.0%| TAg acc= 55.4%, forg= 10.9% <<<
>>> Test on task 36 : loss=0.976 | TAw acc= 95.6%, forg=  0.0%| TAg acc= 82.4%, forg=  0.0% <<<
Save at eeil_e5_wisdm_4/wisdm_flex_eeil
======
LLL_Net(
  (model): SimpleMLP(
    (fc1): Linear(in_features=91, out_features=1000, bias=True)
    (fc2): Sequential()
  )
  (heads): ModuleList(
    (0): Linear(in_features=1000, out_features=34, bias=True)
    (1): Linear(in_features=1000, out_features=20, bias=True)
    (2): Linear(in_features=1000, out_features=20, bias=True)
    (3): Linear(in_features=1000, out_features=20, bias=True)
    (4): Linear(in_features=1000, out_features=20, bias=True)
    (5): Linear(in_features=1000, out_features=20, bias=True)
    (6): Linear(in_features=1000, out_features=20, bias=True)
    (7): Linear(in_features=1000, out_features=20, bias=True)
    (8): Linear(in_features=1000, out_features=20, bias=True)
    (9): Linear(in_features=1000, out_features=20, bias=True)
    (10): Linear(in_features=1000, out_features=20, bias=True)
    (11): Linear(in_features=1000, out_features=20, bias=True)
    (12): Linear(in_features=1000, out_features=20, bias=True)
    (13): Linear(in_features=1000, out_features=20, bias=True)
    (14): Linear(in_features=1000, out_features=20, bias=True)
    (15): Linear(in_features=1000, out_features=20, bias=True)
    (16): Linear(in_features=1000, out_features=20, bias=True)
    (17): Linear(in_features=1000, out_features=20, bias=True)
    (18): Linear(in_features=1000, out_features=20, bias=True)
    (19): Linear(in_features=1000, out_features=20, bias=True)
    (20): Linear(in_features=1000, out_features=20, bias=True)
    (21): Linear(in_features=1000, out_features=20, bias=True)
    (22): Linear(in_features=1000, out_features=20, bias=True)
    (23): Linear(in_features=1000, out_features=20, bias=True)
    (24): Linear(in_features=1000, out_features=20, bias=True)
    (25): Linear(in_features=1000, out_features=20, bias=True)
    (26): Linear(in_features=1000, out_features=20, bias=True)
    (27): Linear(in_features=1000, out_features=20, bias=True)
    (28): Linear(in_features=1000, out_features=20, bias=True)
    (29): Linear(in_features=1000, out_features=20, bias=True)
    (30): Linear(in_features=1000, out_features=20, bias=True)
    (31): Linear(in_features=1000, out_features=20, bias=True)
    (32): Linear(in_features=1000, out_features=20, bias=True)
    (33): Linear(in_features=1000, out_features=20, bias=True)
    (34): Linear(in_features=1000, out_features=20, bias=True)
    (35): Linear(in_features=1000, out_features=20, bias=True)
    (36): Linear(in_features=1000, out_features=20, bias=True)
  )
)
======

************************************************************************************************************
Task 37
************************************************************************************************************
| Epoch   1, time=  4.6s | Train: skip eval | Valid: time=  0.2s loss=4.763, TAw acc= 60.6% | *
| Epoch   2, time=  4.4s | Train: skip eval | Valid: time=  0.2s loss=2.122, TAw acc= 83.0% | *
…
>>> Test on task 32 : loss=1.534 | TAw acc= 94.9%, forg=  0.0%| TAg acc= 67.5%, forg=  9.4% <<<
>>> Test on task 33 : loss=1.410 | TAw acc= 98.1%, forg=  0.0%| TAg acc= 63.6%, forg=  5.6% <<<
>>> Test on task 34 : loss=2.251 | TAw acc= 91.1%, forg=  0.0%| TAg acc= 26.8%, forg= 27.7% <<<
>>> Test on task 35 : loss=1.589 | TAw acc= 91.1%, forg= -1.0%| TAg acc= 53.5%, forg= 12.9% <<<
>>> Test on task 36 : loss=1.602 | TAw acc= 95.6%, forg=  0.0%| TAg acc= 53.7%, forg= 28.7% <<<
>>> Test on task 37 : loss=1.136 | TAw acc= 91.2%, forg=  0.0%| TAg acc= 67.2%, forg=  0.0% <<<
Save at eeil_e5_wisdm_4/wisdm_flex_eeil
======
LLL_Net(
  (model): SimpleMLP(
    (fc1): Linear(in_features=91, out_features=1000, bias=True)
    (fc2): Sequential()
  )
  (heads): ModuleList(
    (0): Linear(in_features=1000, out_features=34, bias=True)
    (1): Linear(in_features=1000, out_features=20, bias=True)
    (2): Linear(in_features=1000, out_features=20, bias=True)
    (3): Linear(in_features=1000, out_features=20, bias=True)
    (4): Linear(in_features=1000, out_features=20, bias=True)
    (5): Linear(in_features=1000, out_features=20, bias=True)
    (6): Linear(in_features=1000, out_features=20, bias=True)
    (7): Linear(in_features=1000, out_features=20, bias=True)
    (8): Linear(in_features=1000, out_features=20, bias=True)
    (9): Linear(in_features=1000, out_features=20, bias=True)
    (10): Linear(in_features=1000, out_features=20, bias=True)
    (11): Linear(in_features=1000, out_features=20, bias=True)
    (12): Linear(in_features=1000, out_features=20, bias=True)
    (13): Linear(in_features=1000, out_features=20, bias=True)
    (14): Linear(in_features=1000, out_features=20, bias=True)
    (15): Linear(in_features=1000, out_features=20, bias=True)
    (16): Linear(in_features=1000, out_features=20, bias=True)
    (17): Linear(in_features=1000, out_features=20, bias=True)
    (18): Linear(in_features=1000, out_features=20, bias=True)
    (19): Linear(in_features=1000, out_features=20, bias=True)
    (20): Linear(in_features=1000, out_features=20, bias=True)
    (21): Linear(in_features=1000, out_features=20, bias=True)
    (22): Linear(in_features=1000, out_features=20, bias=True)
    (23): Linear(in_features=1000, out_features=20, bias=True)
    (24): Linear(in_features=1000, out_features=20, bias=True)
    (25): Linear(in_features=1000, out_features=20, bias=True)
    (26): Linear(in_features=1000, out_features=20, bias=True)
    (27): Linear(in_features=1000, out_features=20, bias=True)
    (28): Linear(in_features=1000, out_features=20, bias=True)
    (29): Linear(in_features=1000, out_features=20, bias=True)
    (30): Linear(in_features=1000, out_features=20, bias=True)
    (31): Linear(in_features=1000, out_features=20, bias=True)
    (32): Linear(in_features=1000, out_features=20, bias=True)
    (33): Linear(in_features=1000, out_features=20, bias=True)
    (34): Linear(in_features=1000, out_features=20, bias=True)
    (35): Linear(in_features=1000, out_features=20, bias=True)
    (36): Linear(in_features=1000, out_features=20, bias=True)
    (37): Linear(in_features=1000, out_features=20, bias=True)
  )
)
======

************************************************************************************************************
Task 38
************************************************************************************************************
| Epoch   1, time=  4.6s | Train: skip eval | Valid: time=  0.2s loss=6.530, TAw acc= 40.6% | *
| Epoch   2, time=  4.8s | Train: skip eval | Valid: time=  0.2s loss=3.527, TAw acc= 78.3% | *
…
>>> Test on task 33 : loss=1.304 | TAw acc= 98.1%, forg=  0.0%| TAg acc= 72.9%, forg= -3.7% <<<
>>> Test on task 34 : loss=2.070 | TAw acc= 92.0%, forg= -0.9%| TAg acc= 37.5%, forg= 17.0% <<<
>>> Test on task 35 : loss=1.594 | TAw acc= 91.1%, forg=  0.0%| TAg acc= 54.5%, forg= 11.9% <<<
>>> Test on task 36 : loss=1.473 | TAw acc= 95.6%, forg=  0.0%| TAg acc= 61.8%, forg= 20.6% <<<
>>> Test on task 37 : loss=1.775 | TAw acc= 90.4%, forg=  0.8%| TAg acc= 32.0%, forg= 35.2% <<<
>>> Test on task 38 : loss=1.615 | TAw acc= 92.7%, forg=  0.0%| TAg acc= 51.0%, forg=  0.0% <<<
Save at eeil_e5_wisdm_4/wisdm_flex_eeil
======
LLL_Net(
  (model): SimpleMLP(
    (fc1): Linear(in_features=91, out_features=1000, bias=True)
    (fc2): Sequential()
  )
  (heads): ModuleList(
    (0): Linear(in_features=1000, out_features=34, bias=True)
    (1): Linear(in_features=1000, out_features=20, bias=True)
    (2): Linear(in_features=1000, out_features=20, bias=True)
    (3): Linear(in_features=1000, out_features=20, bias=True)
    (4): Linear(in_features=1000, out_features=20, bias=True)
    (5): Linear(in_features=1000, out_features=20, bias=True)
    (6): Linear(in_features=1000, out_features=20, bias=True)
    (7): Linear(in_features=1000, out_features=20, bias=True)
    (8): Linear(in_features=1000, out_features=20, bias=True)
    (9): Linear(in_features=1000, out_features=20, bias=True)
    (10): Linear(in_features=1000, out_features=20, bias=True)
    (11): Linear(in_features=1000, out_features=20, bias=True)
    (12): Linear(in_features=1000, out_features=20, bias=True)
    (13): Linear(in_features=1000, out_features=20, bias=True)
    (14): Linear(in_features=1000, out_features=20, bias=True)
    (15): Linear(in_features=1000, out_features=20, bias=True)
    (16): Linear(in_features=1000, out_features=20, bias=True)
    (17): Linear(in_features=1000, out_features=20, bias=True)
    (18): Linear(in_features=1000, out_features=20, bias=True)
    (19): Linear(in_features=1000, out_features=20, bias=True)
    (20): Linear(in_features=1000, out_features=20, bias=True)
    (21): Linear(in_features=1000, out_features=20, bias=True)
    (22): Linear(in_features=1000, out_features=20, bias=True)
    (23): Linear(in_features=1000, out_features=20, bias=True)
    (24): Linear(in_features=1000, out_features=20, bias=True)
    (25): Linear(in_features=1000, out_features=20, bias=True)
    (26): Linear(in_features=1000, out_features=20, bias=True)
    (27): Linear(in_features=1000, out_features=20, bias=True)
    (28): Linear(in_features=1000, out_features=20, bias=True)
    (29): Linear(in_features=1000, out_features=20, bias=True)
    (30): Linear(in_features=1000, out_features=20, bias=True)
    (31): Linear(in_features=1000, out_features=20, bias=True)
    (32): Linear(in_features=1000, out_features=20, bias=True)
    (33): Linear(in_features=1000, out_features=20, bias=True)
    (34): Linear(in_features=1000, out_features=20, bias=True)
    (35): Linear(in_features=1000, out_features=20, bias=True)
    (36): Linear(in_features=1000, out_features=20, bias=True)
    (37): Linear(in_features=1000, out_features=20, bias=True)
    (38): Linear(in_features=1000, out_features=20, bias=True)
  )
)
======

************************************************************************************************************
Task 39
************************************************************************************************************
| Epoch   1, time=  5.0s | Train: skip eval | Valid: time=  0.2s loss=5.371, TAw acc= 56.6% | *
| Epoch   2, time=  5.0s | Train: skip eval | Valid: time=  0.2s loss=2.713, TAw acc= 81.9% | *
…
>>> Test on task 34 : loss=2.194 | TAw acc= 91.1%, forg=  0.9%| TAg acc= 33.0%, forg= 21.4% <<<
>>> Test on task 35 : loss=1.495 | TAw acc= 93.1%, forg= -2.0%| TAg acc= 58.4%, forg=  7.9% <<<
>>> Test on task 36 : loss=1.406 | TAw acc= 95.6%, forg=  0.0%| TAg acc= 66.2%, forg= 16.2% <<<
>>> Test on task 37 : loss=1.733 | TAw acc= 92.0%, forg= -0.8%| TAg acc= 30.4%, forg= 36.8% <<<
>>> Test on task 38 : loss=2.082 | TAw acc= 93.8%, forg= -1.0%| TAg acc= 32.3%, forg= 18.7% <<<
>>> Test on task 39 : loss=1.463 | TAw acc= 92.0%, forg=  0.0%| TAg acc= 63.4%, forg=  0.0% <<<
Save at eeil_e5_wisdm_4/wisdm_flex_eeil
======
LLL_Net(
  (model): SimpleMLP(
    (fc1): Linear(in_features=91, out_features=1000, bias=True)
    (fc2): Sequential()
  )
  (heads): ModuleList(
    (0): Linear(in_features=1000, out_features=34, bias=True)
    (1): Linear(in_features=1000, out_features=20, bias=True)
    (2): Linear(in_features=1000, out_features=20, bias=True)
    (3): Linear(in_features=1000, out_features=20, bias=True)
    (4): Linear(in_features=1000, out_features=20, bias=True)
    (5): Linear(in_features=1000, out_features=20, bias=True)
    (6): Linear(in_features=1000, out_features=20, bias=True)
    (7): Linear(in_features=1000, out_features=20, bias=True)
    (8): Linear(in_features=1000, out_features=20, bias=True)
    (9): Linear(in_features=1000, out_features=20, bias=True)
    (10): Linear(in_features=1000, out_features=20, bias=True)
    (11): Linear(in_features=1000, out_features=20, bias=True)
    (12): Linear(in_features=1000, out_features=20, bias=True)
    (13): Linear(in_features=1000, out_features=20, bias=True)
    (14): Linear(in_features=1000, out_features=20, bias=True)
    (15): Linear(in_features=1000, out_features=20, bias=True)
    (16): Linear(in_features=1000, out_features=20, bias=True)
    (17): Linear(in_features=1000, out_features=20, bias=True)
    (18): Linear(in_features=1000, out_features=20, bias=True)
    (19): Linear(in_features=1000, out_features=20, bias=True)
    (20): Linear(in_features=1000, out_features=20, bias=True)
    (21): Linear(in_features=1000, out_features=20, bias=True)
    (22): Linear(in_features=1000, out_features=20, bias=True)
    (23): Linear(in_features=1000, out_features=20, bias=True)
    (24): Linear(in_features=1000, out_features=20, bias=True)
    (25): Linear(in_features=1000, out_features=20, bias=True)
    (26): Linear(in_features=1000, out_features=20, bias=True)
    (27): Linear(in_features=1000, out_features=20, bias=True)
    (28): Linear(in_features=1000, out_features=20, bias=True)
    (29): Linear(in_features=1000, out_features=20, bias=True)
    (30): Linear(in_features=1000, out_features=20, bias=True)
    (31): Linear(in_features=1000, out_features=20, bias=True)
    (32): Linear(in_features=1000, out_features=20, bias=True)
    (33): Linear(in_features=1000, out_features=20, bias=True)
    (34): Linear(in_features=1000, out_features=20, bias=True)
    (35): Linear(in_features=1000, out_features=20, bias=True)
    (36): Linear(in_features=1000, out_features=20, bias=True)
    (37): Linear(in_features=1000, out_features=20, bias=True)
    (38): Linear(in_features=1000, out_features=20, bias=True)
    (39): Linear(in_features=1000, out_features=20, bias=True)
  )
)
======

************************************************************************************************************
Task 40
************************************************************************************************************
| Epoch   1, time=  4.9s | Train: skip eval | Valid: time=  0.2s loss=6.633, TAw acc= 50.0% | *
| Epoch   2, time=  5.1s | Train: skip eval | Valid: time=  0.2s loss=3.507, TAw acc= 80.6% | *
…
>>> Test on task 35 : loss=1.466 | TAw acc= 93.1%, forg=  0.0%| TAg acc= 58.4%, forg=  7.9% <<<
>>> Test on task 36 : loss=1.371 | TAw acc= 96.3%, forg= -0.7%| TAg acc= 66.2%, forg= 16.2% <<<
>>> Test on task 37 : loss=1.805 | TAw acc= 91.2%, forg=  0.8%| TAg acc= 30.4%, forg= 36.8% <<<
>>> Test on task 38 : loss=1.961 | TAw acc= 93.8%, forg=  0.0%| TAg acc= 39.6%, forg= 11.5% <<<
>>> Test on task 39 : loss=2.023 | TAw acc= 93.8%, forg= -1.8%| TAg acc= 46.4%, forg= 17.0% <<<
>>> Test on task 40 : loss=1.273 | TAw acc= 96.0%, forg=  0.0%| TAg acc= 73.7%, forg=  0.0% <<<
Save at eeil_e5_wisdm_4/wisdm_flex_eeil
======
LLL_Net(
  (model): SimpleMLP(
    (fc1): Linear(in_features=91, out_features=1000, bias=True)
    (fc2): Sequential()
  )
  (heads): ModuleList(
    (0): Linear(in_features=1000, out_features=34, bias=True)
    (1): Linear(in_features=1000, out_features=20, bias=True)
    (2): Linear(in_features=1000, out_features=20, bias=True)
    (3): Linear(in_features=1000, out_features=20, bias=True)
    (4): Linear(in_features=1000, out_features=20, bias=True)
    (5): Linear(in_features=1000, out_features=20, bias=True)
    (6): Linear(in_features=1000, out_features=20, bias=True)
    (7): Linear(in_features=1000, out_features=20, bias=True)
    (8): Linear(in_features=1000, out_features=20, bias=True)
    (9): Linear(in_features=1000, out_features=20, bias=True)
    (10): Linear(in_features=1000, out_features=20, bias=True)
    (11): Linear(in_features=1000, out_features=20, bias=True)
    (12): Linear(in_features=1000, out_features=20, bias=True)
    (13): Linear(in_features=1000, out_features=20, bias=True)
    (14): Linear(in_features=1000, out_features=20, bias=True)
    (15): Linear(in_features=1000, out_features=20, bias=True)
    (16): Linear(in_features=1000, out_features=20, bias=True)
    (17): Linear(in_features=1000, out_features=20, bias=True)
    (18): Linear(in_features=1000, out_features=20, bias=True)
    (19): Linear(in_features=1000, out_features=20, bias=True)
    (20): Linear(in_features=1000, out_features=20, bias=True)
    (21): Linear(in_features=1000, out_features=20, bias=True)
    (22): Linear(in_features=1000, out_features=20, bias=True)
    (23): Linear(in_features=1000, out_features=20, bias=True)
    (24): Linear(in_features=1000, out_features=20, bias=True)
    (25): Linear(in_features=1000, out_features=20, bias=True)
    (26): Linear(in_features=1000, out_features=20, bias=True)
    (27): Linear(in_features=1000, out_features=20, bias=True)
    (28): Linear(in_features=1000, out_features=20, bias=True)
    (29): Linear(in_features=1000, out_features=20, bias=True)
    (30): Linear(in_features=1000, out_features=20, bias=True)
    (31): Linear(in_features=1000, out_features=20, bias=True)
    (32): Linear(in_features=1000, out_features=20, bias=True)
    (33): Linear(in_features=1000, out_features=20, bias=True)
    (34): Linear(in_features=1000, out_features=20, bias=True)
    (35): Linear(in_features=1000, out_features=20, bias=True)
    (36): Linear(in_features=1000, out_features=20, bias=True)
    (37): Linear(in_features=1000, out_features=20, bias=True)
    (38): Linear(in_features=1000, out_features=20, bias=True)
    (39): Linear(in_features=1000, out_features=20, bias=True)
    (40): Linear(in_features=1000, out_features=20, bias=True)
  )
)
======

************************************************************************************************************
Task 41
************************************************************************************************************
| Epoch   1, time=  5.1s | Train: skip eval | Valid: time=  0.2s loss=5.351, TAw acc= 50.0% | *
| Epoch   2, time=  5.5s | Train: skip eval | Valid: time=  0.2s loss=2.774, TAw acc= 72.0% | *
…
>>> Test on task 36 : loss=1.395 | TAw acc= 95.6%, forg=  0.7%| TAg acc= 64.0%, forg= 18.4% <<<
>>> Test on task 37 : loss=1.718 | TAw acc= 92.0%, forg=  0.0%| TAg acc= 36.0%, forg= 31.2% <<<
>>> Test on task 38 : loss=1.937 | TAw acc= 94.8%, forg= -1.0%| TAg acc= 43.8%, forg=  7.3% <<<
>>> Test on task 39 : loss=1.967 | TAw acc= 94.6%, forg= -0.9%| TAg acc= 44.6%, forg= 18.7% <<<
>>> Test on task 40 : loss=1.617 | TAw acc= 97.0%, forg= -1.0%| TAg acc= 56.6%, forg= 17.2% <<<
>>> Test on task 41 : loss=1.081 | TAw acc= 99.1%, forg=  0.0%| TAg acc= 74.8%, forg=  0.0% <<<
Save at eeil_e5_wisdm_4/wisdm_flex_eeil
======
LLL_Net(
  (model): SimpleMLP(
    (fc1): Linear(in_features=91, out_features=1000, bias=True)
    (fc2): Sequential()
  )
  (heads): ModuleList(
    (0): Linear(in_features=1000, out_features=34, bias=True)
    (1): Linear(in_features=1000, out_features=20, bias=True)
    (2): Linear(in_features=1000, out_features=20, bias=True)
    (3): Linear(in_features=1000, out_features=20, bias=True)
    (4): Linear(in_features=1000, out_features=20, bias=True)
    (5): Linear(in_features=1000, out_features=20, bias=True)
    (6): Linear(in_features=1000, out_features=20, bias=True)
    (7): Linear(in_features=1000, out_features=20, bias=True)
    (8): Linear(in_features=1000, out_features=20, bias=True)
    (9): Linear(in_features=1000, out_features=20, bias=True)
    (10): Linear(in_features=1000, out_features=20, bias=True)
    (11): Linear(in_features=1000, out_features=20, bias=True)
    (12): Linear(in_features=1000, out_features=20, bias=True)
    (13): Linear(in_features=1000, out_features=20, bias=True)
    (14): Linear(in_features=1000, out_features=20, bias=True)
    (15): Linear(in_features=1000, out_features=20, bias=True)
    (16): Linear(in_features=1000, out_features=20, bias=True)
    (17): Linear(in_features=1000, out_features=20, bias=True)
    (18): Linear(in_features=1000, out_features=20, bias=True)
    (19): Linear(in_features=1000, out_features=20, bias=True)
    (20): Linear(in_features=1000, out_features=20, bias=True)
    (21): Linear(in_features=1000, out_features=20, bias=True)
    (22): Linear(in_features=1000, out_features=20, bias=True)
    (23): Linear(in_features=1000, out_features=20, bias=True)
    (24): Linear(in_features=1000, out_features=20, bias=True)
    (25): Linear(in_features=1000, out_features=20, bias=True)
    (26): Linear(in_features=1000, out_features=20, bias=True)
    (27): Linear(in_features=1000, out_features=20, bias=True)
    (28): Linear(in_features=1000, out_features=20, bias=True)
    (29): Linear(in_features=1000, out_features=20, bias=True)
    (30): Linear(in_features=1000, out_features=20, bias=True)
    (31): Linear(in_features=1000, out_features=20, bias=True)
    (32): Linear(in_features=1000, out_features=20, bias=True)
    (33): Linear(in_features=1000, out_features=20, bias=True)
    (34): Linear(in_features=1000, out_features=20, bias=True)
    (35): Linear(in_features=1000, out_features=20, bias=True)
    (36): Linear(in_features=1000, out_features=20, bias=True)
    (37): Linear(in_features=1000, out_features=20, bias=True)
    (38): Linear(in_features=1000, out_features=20, bias=True)
    (39): Linear(in_features=1000, out_features=20, bias=True)
    (40): Linear(in_features=1000, out_features=20, bias=True)
    (41): Linear(in_features=1000, out_features=20, bias=True)
  )
)
======

************************************************************************************************************
Task 42
************************************************************************************************************
| Epoch   1, time=  5.4s | Train: skip eval | Valid: time=  0.2s loss=6.305, TAw acc= 38.9% | *
| Epoch   2, time=  5.5s | Train: skip eval | Valid: time=  0.2s loss=3.368, TAw acc= 79.2% | *
…
>>> Test on task 37 : loss=1.750 | TAw acc= 92.0%, forg=  0.0%| TAg acc= 38.4%, forg= 28.8% <<<
>>> Test on task 38 : loss=1.764 | TAw acc= 93.8%, forg=  1.0%| TAg acc= 49.0%, forg=  2.1% <<<
>>> Test on task 39 : loss=1.921 | TAw acc= 94.6%, forg=  0.0%| TAg acc= 52.7%, forg= 10.7% <<<
>>> Test on task 40 : loss=1.557 | TAw acc= 97.0%, forg=  0.0%| TAg acc= 51.5%, forg= 22.2% <<<
>>> Test on task 41 : loss=1.497 | TAw acc= 99.1%, forg=  0.0%| TAg acc= 62.2%, forg= 12.6% <<<
>>> Test on task 42 : loss=1.461 | TAw acc= 89.0%, forg=  0.0%| TAg acc= 55.0%, forg=  0.0% <<<
Save at eeil_e5_wisdm_4/wisdm_flex_eeil
======
LLL_Net(
  (model): SimpleMLP(
    (fc1): Linear(in_features=91, out_features=1000, bias=True)
    (fc2): Sequential()
  )
  (heads): ModuleList(
    (0): Linear(in_features=1000, out_features=34, bias=True)
    (1): Linear(in_features=1000, out_features=20, bias=True)
    (2): Linear(in_features=1000, out_features=20, bias=True)
    (3): Linear(in_features=1000, out_features=20, bias=True)
    (4): Linear(in_features=1000, out_features=20, bias=True)
    (5): Linear(in_features=1000, out_features=20, bias=True)
    (6): Linear(in_features=1000, out_features=20, bias=True)
    (7): Linear(in_features=1000, out_features=20, bias=True)
    (8): Linear(in_features=1000, out_features=20, bias=True)
    (9): Linear(in_features=1000, out_features=20, bias=True)
    (10): Linear(in_features=1000, out_features=20, bias=True)
    (11): Linear(in_features=1000, out_features=20, bias=True)
    (12): Linear(in_features=1000, out_features=20, bias=True)
    (13): Linear(in_features=1000, out_features=20, bias=True)
    (14): Linear(in_features=1000, out_features=20, bias=True)
    (15): Linear(in_features=1000, out_features=20, bias=True)
    (16): Linear(in_features=1000, out_features=20, bias=True)
    (17): Linear(in_features=1000, out_features=20, bias=True)
    (18): Linear(in_features=1000, out_features=20, bias=True)
    (19): Linear(in_features=1000, out_features=20, bias=True)
    (20): Linear(in_features=1000, out_features=20, bias=True)
    (21): Linear(in_features=1000, out_features=20, bias=True)
    (22): Linear(in_features=1000, out_features=20, bias=True)
    (23): Linear(in_features=1000, out_features=20, bias=True)
    (24): Linear(in_features=1000, out_features=20, bias=True)
    (25): Linear(in_features=1000, out_features=20, bias=True)
    (26): Linear(in_features=1000, out_features=20, bias=True)
    (27): Linear(in_features=1000, out_features=20, bias=True)
    (28): Linear(in_features=1000, out_features=20, bias=True)
    (29): Linear(in_features=1000, out_features=20, bias=True)
    (30): Linear(in_features=1000, out_features=20, bias=True)
    (31): Linear(in_features=1000, out_features=20, bias=True)
    (32): Linear(in_features=1000, out_features=20, bias=True)
    (33): Linear(in_features=1000, out_features=20, bias=True)
    (34): Linear(in_features=1000, out_features=20, bias=True)
    (35): Linear(in_features=1000, out_features=20, bias=True)
    (36): Linear(in_features=1000, out_features=20, bias=True)
    (37): Linear(in_features=1000, out_features=20, bias=True)
    (38): Linear(in_features=1000, out_features=20, bias=True)
    (39): Linear(in_features=1000, out_features=20, bias=True)
    (40): Linear(in_features=1000, out_features=20, bias=True)
    (41): Linear(in_features=1000, out_features=20, bias=True)
    (42): Linear(in_features=1000, out_features=20, bias=True)
  )
)
======

************************************************************************************************************
Task 43
************************************************************************************************************
| Epoch   1, time=  5.9s | Train: skip eval | Valid: time=  0.2s loss=6.038, TAw acc= 41.9% | *
| Epoch   2, time=  5.8s | Train: skip eval | Valid: time=  0.2s loss=3.320, TAw acc= 74.3% | *
…
