…
| Selected 420 train exemplars, time=  0.3s
420
------------------------------------------------------------------------------------------------------------
>>> Test on task  0 : loss=1.043 | TAw acc= 95.8%, forg=  0.0%| TAg acc= 88.9%, forg=  6.9% <<<
>>> Test on task  1 : loss=4.224 | TAw acc=100.0%, forg=  0.0%| TAg acc= 93.3%, forg=  3.3% <<<
>>> Test on task  2 : loss=6.126 | TAw acc= 99.2%, forg=  0.0%| TAg acc= 91.7%, forg=  1.7% <<<
>>> Test on task  3 : loss=8.249 | TAw acc= 95.0%, forg=  0.0%| TAg acc= 80.8%, forg=  0.0% <<<
Save at k=10/icarl_dsads_4/har_flex_icarl
======
LLL_Net(
  (model): SimpleMLP(
    (fc1): Linear(in_features=405, out_features=66, bias=True)
    (fc2): Sequential()
  )
  (heads): ModuleList(
    (0): Linear(in_features=66, out_features=12, bias=True)
    (1): Linear(in_features=66, out_features=10, bias=True)
    (2): Linear(in_features=66, out_features=10, bias=True)
    (3): Linear(in_features=66, out_features=10, bias=True)
  )
)
======

************************************************************************************************************
Task  4
************************************************************************************************************
| Epoch   1, time=  0.5s | Train: skip eval | Valid: time=  0.2s loss=13.547, TAw acc= 18.8% | *
| Epoch   2, time=  0.5s | Train: skip eval | Valid: time=  0.2s loss=10.684, TAw acc= 49.0% | *
…
------------------------------------------------------------------------------------------------------------
>>> Test on task  0 : loss=0.938 | TAw acc= 95.8%, forg=  0.0%| TAg acc= 88.9%, forg=  6.9% <<<
>>> Test on task  1 : loss=3.881 | TAw acc=100.0%, forg=  0.0%| TAg acc= 92.5%, forg=  4.2% <<<
>>> Test on task  2 : loss=5.688 | TAw acc= 99.2%, forg=  0.0%| TAg acc= 85.8%, forg=  7.5% <<<
>>> Test on task  3 : loss=8.434 | TAw acc= 95.0%, forg=  0.0%| TAg acc= 80.0%, forg=  0.8% <<<
>>> Test on task  4 : loss=8.497 | TAw acc= 96.7%, forg=  0.0%| TAg acc= 89.2%, forg=  0.0% <<<
Save at k=10/icarl_dsads_4/har_flex_icarl
======
LLL_Net(
  (model): SimpleMLP(
    (fc1): Linear(in_features=405, out_features=66, bias=True)
    (fc2): Sequential()
  )
  (heads): ModuleList(
    (0): Linear(in_features=66, out_features=12, bias=True)
    (1): Linear(in_features=66, out_features=10, bias=True)
    (2): Linear(in_features=66, out_features=10, bias=True)
    (3): Linear(in_features=66, out_features=10, bias=True)
    (4): Linear(in_features=66, out_features=10, bias=True)
  )
)
======

************************************************************************************************************
Task  5
************************************************************************************************************
| Epoch   1, time=  0.6s | Train: skip eval | Valid: time=  0.2s loss=15.000, TAw acc= 30.2% | *
| Epoch   2, time=  0.6s | Train: skip eval | Valid: time=  0.2s loss=11.757, TAw acc= 49.0% | *
…
>>> Test on task  0 : loss=0.942 | TAw acc= 95.8%, forg=  0.0%| TAg acc= 86.1%, forg=  9.7% <<<
>>> Test on task  1 : loss=3.613 | TAw acc=100.0%, forg=  0.0%| TAg acc= 92.5%, forg=  4.2% <<<
>>> Test on task  2 : loss=5.527 | TAw acc= 99.2%, forg=  0.0%| TAg acc= 79.2%, forg= 14.2% <<<
>>> Test on task  3 : loss=7.839 | TAw acc= 95.0%, forg=  0.0%| TAg acc= 79.2%, forg=  1.7% <<<
>>> Test on task  4 : loss=8.637 | TAw acc= 96.7%, forg=  0.0%| TAg acc= 88.3%, forg=  0.8% <<<
>>> Test on task  5 : loss=9.605 | TAw acc= 95.8%, forg=  0.0%| TAg acc= 90.8%, forg=  0.0% <<<
Save at k=10/icarl_dsads_4/har_flex_icarl
======
LLL_Net(
  (model): SimpleMLP(
    (fc1): Linear(in_features=405, out_features=66, bias=True)
    (fc2): Sequential()
  )
  (heads): ModuleList(
    (0): Linear(in_features=66, out_features=12, bias=True)
    (1): Linear(in_features=66, out_features=10, bias=True)
    (2): Linear(in_features=66, out_features=10, bias=True)
    (3): Linear(in_features=66, out_features=10, bias=True)
    (4): Linear(in_features=66, out_features=10, bias=True)
    (5): Linear(in_features=66, out_features=10, bias=True)
  )
)
======

************************************************************************************************************
Task  6
************************************************************************************************************
| Epoch   1, time=  0.7s | Train: skip eval | Valid: time=  0.2s loss=16.759, TAw acc= 15.6% | *
| Epoch   2, time=  0.7s | Train: skip eval | Valid: time=  0.2s loss=12.630, TAw acc= 62.5% | *
…
>>> Test on task  1 : loss=3.599 | TAw acc=100.0%, forg=  0.0%| TAg acc= 91.7%, forg=  5.0% <<<
>>> Test on task  2 : loss=5.342 | TAw acc= 99.2%, forg=  0.0%| TAg acc= 77.5%, forg= 15.8% <<<
>>> Test on task  3 : loss=7.531 | TAw acc= 95.0%, forg=  0.0%| TAg acc= 79.2%, forg=  1.7% <<<
>>> Test on task  4 : loss=8.468 | TAw acc= 96.7%, forg=  0.0%| TAg acc= 87.5%, forg=  1.7% <<<
>>> Test on task  5 : loss=9.857 | TAw acc= 95.8%, forg=  0.0%| TAg acc= 90.0%, forg=  0.8% <<<
>>> Test on task  6 : loss=10.903 | TAw acc= 88.3%, forg=  0.0%| TAg acc= 77.5%, forg=  0.0% <<<
Save at k=10/icarl_dsads_4/har_flex_icarl
======
LLL_Net(
  (model): SimpleMLP(
    (fc1): Linear(in_features=405, out_features=66, bias=True)
    (fc2): Sequential()
  )
  (heads): ModuleList(
    (0): Linear(in_features=66, out_features=12, bias=True)
    (1): Linear(in_features=66, out_features=10, bias=True)
    (2): Linear(in_features=66, out_features=10, bias=True)
    (3): Linear(in_features=66, out_features=10, bias=True)
    (4): Linear(in_features=66, out_features=10, bias=True)
    (5): Linear(in_features=66, out_features=10, bias=True)
    (6): Linear(in_features=66, out_features=10, bias=True)
  )
)
======

************************************************************************************************************
Task  7
************************************************************************************************************
| Epoch   1, time=  0.8s | Train: skip eval | Valid: time=  0.2s loss=18.135, TAw acc= 39.6% | *
| Epoch   2, time=  0.8s | Train: skip eval | Valid: time=  0.2s loss=13.484, TAw acc= 58.3% | *
…
>>> Test on task  2 : loss=5.230 | TAw acc= 99.2%, forg=  0.0%| TAg acc= 77.5%, forg= 15.8% <<<
>>> Test on task  3 : loss=7.540 | TAw acc= 95.0%, forg=  0.0%| TAg acc= 75.8%, forg=  5.0% <<<
>>> Test on task  4 : loss=8.315 | TAw acc= 96.7%, forg=  0.0%| TAg acc= 85.8%, forg=  3.3% <<<
>>> Test on task  5 : loss=9.558 | TAw acc= 95.8%, forg=  0.0%| TAg acc= 90.0%, forg=  0.8% <<<
>>> Test on task  6 : loss=11.527 | TAw acc= 88.3%, forg=  0.0%| TAg acc= 76.7%, forg=  0.8% <<<
>>> Test on task  7 : loss=11.717 | TAw acc= 98.3%, forg=  0.0%| TAg acc= 85.8%, forg=  0.0% <<<
Save at k=10/icarl_dsads_4/har_flex_icarl
======
LLL_Net(
  (model): SimpleMLP(
    (fc1): Linear(in_features=405, out_features=66, bias=True)
    (fc2): Sequential()
  )
  (heads): ModuleList(
    (0): Linear(in_features=66, out_features=12, bias=True)
    (1): Linear(in_features=66, out_features=10, bias=True)
    (2): Linear(in_features=66, out_features=10, bias=True)
    (3): Linear(in_features=66, out_features=10, bias=True)
    (4): Linear(in_features=66, out_features=10, bias=True)
    (5): Linear(in_features=66, out_features=10, bias=True)
    (6): Linear(in_features=66, out_features=10, bias=True)
    (7): Linear(in_features=66, out_features=10, bias=True)
  )
)
======

************************************************************************************************************
Task  8
************************************************************************************************************
| Epoch   1, time=  0.9s | Train: skip eval | Valid: time=  0.2s loss=18.332, TAw acc= 38.5% | *
| Epoch   2, time=  1.0s | Train: skip eval | Valid: time=  0.2s loss=13.176, TAw acc= 56.2% | *
…
>>> Test on task  3 : loss=7.141 | TAw acc= 95.0%, forg=  0.0%| TAg acc= 75.8%, forg=  5.0% <<<
>>> Test on task  4 : loss=8.054 | TAw acc= 96.7%, forg=  0.0%| TAg acc= 83.3%, forg=  5.8% <<<
>>> Test on task  5 : loss=9.292 | TAw acc= 95.8%, forg=  0.0%| TAg acc= 90.0%, forg=  0.8% <<<
>>> Test on task  6 : loss=11.105 | TAw acc= 88.3%, forg=  0.0%| TAg acc= 76.7%, forg=  0.8% <<<
>>> Test on task  7 : loss=12.143 | TAw acc= 98.3%, forg=  0.0%| TAg acc= 85.8%, forg=  0.0% <<<
>>> Test on task  8 : loss=11.531 | TAw acc= 93.3%, forg=  0.0%| TAg acc= 85.8%, forg=  0.0% <<<
Save at k=10/icarl_dsads_4/har_flex_icarl
======
LLL_Net(
  (model): SimpleMLP(
    (fc1): Linear(in_features=405, out_features=66, bias=True)
    (fc2): Sequential()
  )
  (heads): ModuleList(
    (0): Linear(in_features=66, out_features=12, bias=True)
    (1): Linear(in_features=66, out_features=10, bias=True)
    (2): Linear(in_features=66, out_features=10, bias=True)
    (3): Linear(in_features=66, out_features=10, bias=True)
    (4): Linear(in_features=66, out_features=10, bias=True)
    (5): Linear(in_features=66, out_features=10, bias=True)
    (6): Linear(in_features=66, out_features=10, bias=True)
    (7): Linear(in_features=66, out_features=10, bias=True)
    (8): Linear(in_features=66, out_features=10, bias=True)
  )
)
======

************************************************************************************************************
Task  9
************************************************************************************************************
| Epoch   1, time=  1.1s | Train: skip eval | Valid: time=  0.2s loss=18.840, TAw acc= 17.7% | *
| Epoch   2, time=  1.1s | Train: skip eval | Valid: time=  0.2s loss=14.109, TAw acc= 34.4% | *
…
>>> Test on task  4 : loss=7.745 | TAw acc= 96.7%, forg=  0.0%| TAg acc= 83.3%, forg=  5.8% <<<
>>> Test on task  5 : loss=8.867 | TAw acc= 95.8%, forg=  0.0%| TAg acc= 90.0%, forg=  0.8% <<<
>>> Test on task  6 : loss=10.720 | TAw acc= 88.3%, forg=  0.0%| TAg acc= 75.0%, forg=  2.5% <<<
>>> Test on task  7 : loss=11.879 | TAw acc= 98.3%, forg=  0.0%| TAg acc= 85.0%, forg=  0.8% <<<
>>> Test on task  8 : loss=11.843 | TAw acc= 93.3%, forg=  0.0%| TAg acc= 85.8%, forg=  0.0% <<<
>>> Test on task  9 : loss=11.682 | TAw acc= 98.3%, forg=  0.0%| TAg acc= 85.0%, forg=  0.0% <<<
Save at k=10/icarl_dsads_4/har_flex_icarl
======
LLL_Net(
  (model): SimpleMLP(
    (fc1): Linear(in_features=405, out_features=66, bias=True)
    (fc2): Sequential()
  )
  (heads): ModuleList(
    (0): Linear(in_features=66, out_features=12, bias=True)
    (1): Linear(in_features=66, out_features=10, bias=True)
    (2): Linear(in_features=66, out_features=10, bias=True)
    (3): Linear(in_features=66, out_features=10, bias=True)
    (4): Linear(in_features=66, out_features=10, bias=True)
    (5): Linear(in_features=66, out_features=10, bias=True)
    (6): Linear(in_features=66, out_features=10, bias=True)
    (7): Linear(in_features=66, out_features=10, bias=True)
    (8): Linear(in_features=66, out_features=10, bias=True)
    (9): Linear(in_features=66, out_features=10, bias=True)
  )
)
======

************************************************************************************************************
Task 10
************************************************************************************************************
| Epoch   1, time=  1.3s | Train: skip eval | Valid: time=  0.2s loss=19.555, TAw acc= 27.1% | *
| Epoch   2, time=  1.2s | Train: skip eval | Valid: time=  0.2s loss=14.902, TAw acc= 72.9% | *
…
>>> Test on task  5 : loss=8.804 | TAw acc= 95.8%, forg=  0.0%| TAg acc= 88.3%, forg=  2.5% <<<
>>> Test on task  6 : loss=10.564 | TAw acc= 88.3%, forg=  0.0%| TAg acc= 71.7%, forg=  5.8% <<<
>>> Test on task  7 : loss=11.687 | TAw acc= 98.3%, forg=  0.0%| TAg acc= 85.0%, forg=  0.8% <<<
>>> Test on task  8 : loss=11.362 | TAw acc= 93.3%, forg=  0.0%| TAg acc= 85.8%, forg=  0.0% <<<
>>> Test on task  9 : loss=11.888 | TAw acc= 98.3%, forg=  0.0%| TAg acc= 85.0%, forg=  0.0% <<<
>>> Test on task 10 : loss=12.678 | TAw acc= 94.2%, forg=  0.0%| TAg acc= 73.3%, forg=  0.0% <<<
Save at k=10/icarl_dsads_4/har_flex_icarl
======
LLL_Net(
  (model): SimpleMLP(
    (fc1): Linear(in_features=405, out_features=66, bias=True)
    (fc2): Sequential()
  )
  (heads): ModuleList(
    (0): Linear(in_features=66, out_features=12, bias=True)
    (1): Linear(in_features=66, out_features=10, bias=True)
    (2): Linear(in_features=66, out_features=10, bias=True)
    (3): Linear(in_features=66, out_features=10, bias=True)
    (4): Linear(in_features=66, out_features=10, bias=True)
    (5): Linear(in_features=66, out_features=10, bias=True)
    (6): Linear(in_features=66, out_features=10, bias=True)
    (7): Linear(in_features=66, out_features=10, bias=True)
    (8): Linear(in_features=66, out_features=10, bias=True)
    (9): Linear(in_features=66, out_features=10, bias=True)
    (10): Linear(in_features=66, out_features=10, bias=True)
  )
)
======

************************************************************************************************************
Task 11
************************************************************************************************************
| Epoch   1, time=  1.5s | Train: skip eval | Valid: time=  0.2s loss=19.065, TAw acc= 24.0% | *
| Epoch   2, time=  1.4s | Train: skip eval | Valid: time=  0.2s loss=13.785, TAw acc= 69.8% | *
…
>>> Test on task  6 : loss=10.096 | TAw acc= 88.3%, forg=  0.0%| TAg acc= 71.7%, forg=  5.8% <<<
>>> Test on task  7 : loss=11.270 | TAw acc= 98.3%, forg=  0.0%| TAg acc= 85.0%, forg=  0.8% <<<
>>> Test on task  8 : loss=10.918 | TAw acc= 93.3%, forg=  0.0%| TAg acc= 85.8%, forg=  0.0% <<<
>>> Test on task  9 : loss=11.608 | TAw acc= 98.3%, forg=  0.0%| TAg acc= 83.3%, forg=  1.7% <<<
>>> Test on task 10 : loss=13.130 | TAw acc= 94.2%, forg=  0.0%| TAg acc= 72.5%, forg=  0.8% <<<
>>> Test on task 11 : loss=12.285 | TAw acc=100.0%, forg=  0.0%| TAg acc= 86.7%, forg=  0.0% <<<
Save at k=10/icarl_dsads_4/har_flex_icarl
======
LLL_Net(
  (model): SimpleMLP(
    (fc1): Linear(in_features=405, out_features=66, bias=True)
    (fc2): Sequential()
  )
  (heads): ModuleList(
    (0): Linear(in_features=66, out_features=12, bias=True)
    (1): Linear(in_features=66, out_features=10, bias=True)
    (2): Linear(in_features=66, out_features=10, bias=True)
    (3): Linear(in_features=66, out_features=10, bias=True)
    (4): Linear(in_features=66, out_features=10, bias=True)
    (5): Linear(in_features=66, out_features=10, bias=True)
    (6): Linear(in_features=66, out_features=10, bias=True)
    (7): Linear(in_features=66, out_features=10, bias=True)
    (8): Linear(in_features=66, out_features=10, bias=True)
    (9): Linear(in_features=66, out_features=10, bias=True)
    (10): Linear(in_features=66, out_features=10, bias=True)
    (11): Linear(in_features=66, out_features=10, bias=True)
  )
)
======

************************************************************************************************************
Task 12
************************************************************************************************************
| Epoch   1, time=  1.7s | Train: skip eval | Valid: time=  0.2s loss=21.051, TAw acc= 20.8% | *
| Epoch   2, time=  1.7s | Train: skip eval | Valid: time=  0.2s loss=15.310, TAw acc= 51.0% | *
…
>>> Test on task  7 : loss=10.988 | TAw acc= 98.3%, forg=  0.0%| TAg acc= 84.2%, forg=  1.7% <<<
>>> Test on task  8 : loss=10.712 | TAw acc= 93.3%, forg=  0.0%| TAg acc= 85.8%, forg=  0.0% <<<
>>> Test on task  9 : loss=11.413 | TAw acc= 98.3%, forg=  0.0%| TAg acc= 80.8%, forg=  4.2% <<<
>>> Test on task 10 : loss=12.829 | TAw acc= 94.2%, forg=  0.0%| TAg acc= 71.7%, forg=  1.7% <<<
>>> Test on task 11 : loss=12.596 | TAw acc=100.0%, forg=  0.0%| TAg acc= 85.8%, forg=  0.8% <<<
>>> Test on task 12 : loss=13.214 | TAw acc= 98.3%, forg=  0.0%| TAg acc= 69.2%, forg=  0.0% <<<
Save at k=10/icarl_dsads_4/har_flex_icarl
======
LLL_Net(
  (model): SimpleMLP(
    (fc1): Linear(in_features=405, out_features=66, bias=True)
    (fc2): Sequential()
  )
  (heads): ModuleList(
    (0): Linear(in_features=66, out_features=12, bias=True)
    (1): Linear(in_features=66, out_features=10, bias=True)
    (2): Linear(in_features=66, out_features=10, bias=True)
    (3): Linear(in_features=66, out_features=10, bias=True)
    (4): Linear(in_features=66, out_features=10, bias=True)
    (5): Linear(in_features=66, out_features=10, bias=True)
    (6): Linear(in_features=66, out_features=10, bias=True)
    (7): Linear(in_features=66, out_features=10, bias=True)
    (8): Linear(in_features=66, out_features=10, bias=True)
    (9): Linear(in_features=66, out_features=10, bias=True)
    (10): Linear(in_features=66, out_features=10, bias=True)
    (11): Linear(in_features=66, out_features=10, bias=True)
    (12): Linear(in_features=66, out_features=10, bias=True)
  )
)
======

************************************************************************************************************
Task 13
************************************************************************************************************
| Epoch   1, time=  1.9s | Train: skip eval | Valid: time=  0.2s loss=20.930, TAw acc= 40.6% | *
| Epoch   2, time=  1.8s | Train: skip eval | Valid: time=  0.2s loss=14.978, TAw acc= 84.4% | *
…
>>> Test on task  8 : loss=10.669 | TAw acc= 93.3%, forg=  0.0%| TAg acc= 85.0%, forg=  0.8% <<<
>>> Test on task  9 : loss=11.220 | TAw acc= 98.3%, forg=  0.0%| TAg acc= 79.2%, forg=  5.8% <<<
>>> Test on task 10 : loss=12.370 | TAw acc= 94.2%, forg=  0.0%| TAg acc= 71.7%, forg=  1.7% <<<
>>> Test on task 11 : loss=12.270 | TAw acc=100.0%, forg=  0.0%| TAg acc= 85.8%, forg=  0.8% <<<
>>> Test on task 12 : loss=13.617 | TAw acc= 98.3%, forg=  0.0%| TAg acc= 69.2%, forg=  0.0% <<<
>>> Test on task 13 : loss=12.888 | TAw acc= 92.5%, forg=  0.0%| TAg acc= 76.7%, forg=  0.0% <<<
Save at k=10/icarl_dsads_4/har_flex_icarl
======
LLL_Net(
  (model): SimpleMLP(
    (fc1): Linear(in_features=405, out_features=66, bias=True)
    (fc2): Sequential()
  )
  (heads): ModuleList(
    (0): Linear(in_features=66, out_features=12, bias=True)
    (1): Linear(in_features=66, out_features=10, bias=True)
    (2): Linear(in_features=66, out_features=10, bias=True)
    (3): Linear(in_features=66, out_features=10, bias=True)
    (4): Linear(in_features=66, out_features=10, bias=True)
    (5): Linear(in_features=66, out_features=10, bias=True)
    (6): Linear(in_features=66, out_features=10, bias=True)
    (7): Linear(in_features=66, out_features=10, bias=True)
    (8): Linear(in_features=66, out_features=10, bias=True)
    (9): Linear(in_features=66, out_features=10, bias=True)
    (10): Linear(in_features=66, out_features=10, bias=True)
    (11): Linear(in_features=66, out_features=10, bias=True)
    (12): Linear(in_features=66, out_features=10, bias=True)
    (13): Linear(in_features=66, out_features=10, bias=True)
  )
)
======

************************************************************************************************************
Task 14
************************************************************************************************************
| Epoch   1, time=  2.1s | Train: skip eval | Valid: time=  0.2s loss=20.704, TAw acc= 33.3% | *
| Epoch   2, time=  2.0s | Train: skip eval | Valid: time=  0.2s loss=14.857, TAw acc= 76.0% | *
…
