…
| Selected 1441 train exemplars, time=  0.0s
1441
------------------------------------------------------------------------------------------------------------
>>> Test on task  0 : loss=0.194 | TAw acc=100.0%, forg=  0.0%| TAg acc= 97.2%, forg=  2.8% <<<
>>> Test on task  1 : loss=0.402 | TAw acc= 98.3%, forg=  0.0%| TAg acc= 94.2%, forg=  4.2% <<<
>>> Test on task  2 : loss=0.590 | TAw acc= 97.5%, forg= -0.8%| TAg acc= 77.5%, forg= 11.7% <<<
>>> Test on task  3 : loss=0.330 | TAw acc= 99.2%, forg=  0.0%| TAg acc= 95.0%, forg=  0.0% <<<
Save at k=100/eeil_e5_dsads_5/har_flex_eeil
======
LLL_Net(
  (model): SimpleMLP(
    (fc1): Linear(in_features=405, out_features=66, bias=True)
    (fc2): Sequential()
  )
  (heads): ModuleList(
    (0): Linear(in_features=66, out_features=12, bias=True)
    (1): Linear(in_features=66, out_features=10, bias=True)
    (2): Linear(in_features=66, out_features=10, bias=True)
    (3): Linear(in_features=66, out_features=10, bias=True)
  )
)
======

************************************************************************************************************
Task  4
************************************************************************************************************
| Epoch   1, time=  0.5s | Train: skip eval | Valid: time=  0.3s loss=4.093, TAw acc= 16.7% | *
| Epoch   2, time=  0.5s | Train: skip eval | Valid: time=  0.2s loss=2.581, TAw acc= 38.5% | *
…
------------------------------------------------------------------------------------------------------------
>>> Test on task  0 : loss=0.298 | TAw acc=100.0%, forg=  0.0%| TAg acc= 92.4%, forg=  7.6% <<<
>>> Test on task  1 : loss=0.477 | TAw acc= 98.3%, forg=  0.0%| TAg acc= 90.8%, forg=  7.5% <<<
>>> Test on task  2 : loss=0.649 | TAw acc= 97.5%, forg=  0.0%| TAg acc= 89.2%, forg=  0.0% <<<
>>> Test on task  3 : loss=0.423 | TAw acc= 99.2%, forg=  0.0%| TAg acc= 92.5%, forg=  2.5% <<<
>>> Test on task  4 : loss=1.094 | TAw acc= 75.8%, forg=  0.0%| TAg acc= 64.2%, forg=  0.0% <<<
Save at k=100/eeil_e5_dsads_5/har_flex_eeil
======
LLL_Net(
  (model): SimpleMLP(
    (fc1): Linear(in_features=405, out_features=66, bias=True)
    (fc2): Sequential()
  )
  (heads): ModuleList(
    (0): Linear(in_features=66, out_features=12, bias=True)
    (1): Linear(in_features=66, out_features=10, bias=True)
    (2): Linear(in_features=66, out_features=10, bias=True)
    (3): Linear(in_features=66, out_features=10, bias=True)
    (4): Linear(in_features=66, out_features=10, bias=True)
  )
)
======

************************************************************************************************************
Task  5
************************************************************************************************************
| Epoch   1, time=  0.6s | Train: skip eval | Valid: time=  0.2s loss=3.821, TAw acc= 56.2% | *
| Epoch   2, time=  0.6s | Train: skip eval | Valid: time=  0.3s loss=2.329, TAw acc= 74.0% | *
…
>>> Test on task  0 : loss=0.249 | TAw acc=100.0%, forg=  0.0%| TAg acc= 95.8%, forg=  4.2% <<<
>>> Test on task  1 : loss=0.508 | TAw acc= 99.2%, forg= -0.8%| TAg acc= 94.2%, forg=  4.2% <<<
>>> Test on task  2 : loss=0.634 | TAw acc= 98.3%, forg= -0.8%| TAg acc= 74.2%, forg= 15.0% <<<
>>> Test on task  3 : loss=0.365 | TAw acc=100.0%, forg= -0.8%| TAg acc= 96.7%, forg= -1.7% <<<
>>> Test on task  4 : loss=0.988 | TAw acc= 79.2%, forg= -3.3%| TAg acc= 70.0%, forg= -5.8% <<<
>>> Test on task  5 : loss=0.697 | TAw acc= 90.0%, forg=  0.0%| TAg acc= 80.0%, forg=  0.0% <<<
Save at k=100/eeil_e5_dsads_5/har_flex_eeil
======
LLL_Net(
  (model): SimpleMLP(
    (fc1): Linear(in_features=405, out_features=66, bias=True)
    (fc2): Sequential()
  )
  (heads): ModuleList(
    (0): Linear(in_features=66, out_features=12, bias=True)
    (1): Linear(in_features=66, out_features=10, bias=True)
    (2): Linear(in_features=66, out_features=10, bias=True)
    (3): Linear(in_features=66, out_features=10, bias=True)
    (4): Linear(in_features=66, out_features=10, bias=True)
    (5): Linear(in_features=66, out_features=10, bias=True)
  )
)
======

************************************************************************************************************
Task  6
************************************************************************************************************
| Epoch   1, time=  0.8s | Train: skip eval | Valid: time=  0.2s loss=4.069, TAw acc= 37.5% | *
| Epoch   2, time=  0.7s | Train: skip eval | Valid: time=  0.2s loss=2.262, TAw acc= 62.5% | *
…
>>> Test on task  1 : loss=0.557 | TAw acc= 99.2%, forg=  0.0%| TAg acc= 91.7%, forg=  6.7% <<<
>>> Test on task  2 : loss=0.623 | TAw acc= 99.2%, forg= -0.8%| TAg acc= 75.8%, forg= 13.3% <<<
>>> Test on task  3 : loss=0.376 | TAw acc=100.0%, forg=  0.0%| TAg acc= 95.0%, forg=  1.7% <<<
>>> Test on task  4 : loss=1.015 | TAw acc= 80.8%, forg= -1.7%| TAg acc= 72.5%, forg= -2.5% <<<
>>> Test on task  5 : loss=0.637 | TAw acc= 90.8%, forg= -0.8%| TAg acc= 80.8%, forg= -0.8% <<<
>>> Test on task  6 : loss=0.665 | TAw acc= 93.3%, forg=  0.0%| TAg acc= 87.5%, forg=  0.0% <<<
Save at k=100/eeil_e5_dsads_5/har_flex_eeil
======
LLL_Net(
  (model): SimpleMLP(
    (fc1): Linear(in_features=405, out_features=66, bias=True)
    (fc2): Sequential()
  )
  (heads): ModuleList(
    (0): Linear(in_features=66, out_features=12, bias=True)
    (1): Linear(in_features=66, out_features=10, bias=True)
    (2): Linear(in_features=66, out_features=10, bias=True)
    (3): Linear(in_features=66, out_features=10, bias=True)
    (4): Linear(in_features=66, out_features=10, bias=True)
    (5): Linear(in_features=66, out_features=10, bias=True)
    (6): Linear(in_features=66, out_features=10, bias=True)
  )
)
======

************************************************************************************************************
Task  7
************************************************************************************************************
| Epoch   1, time=  0.8s | Train: skip eval | Valid: time=  0.2s loss=3.902, TAw acc= 50.0% | *
| Epoch   2, time=  0.8s | Train: skip eval | Valid: time=  0.2s loss=2.574, TAw acc= 63.5% | *
…
>>> Test on task  2 : loss=0.453 | TAw acc= 98.3%, forg=  0.8%| TAg acc= 84.2%, forg=  5.0% <<<
>>> Test on task  3 : loss=0.275 | TAw acc=100.0%, forg=  0.0%| TAg acc= 94.2%, forg=  2.5% <<<
>>> Test on task  4 : loss=0.728 | TAw acc= 87.5%, forg= -6.7%| TAg acc= 79.2%, forg= -6.7% <<<
>>> Test on task  5 : loss=0.586 | TAw acc= 87.5%, forg=  3.3%| TAg acc= 77.5%, forg=  3.3% <<<
>>> Test on task  6 : loss=0.405 | TAw acc= 95.8%, forg= -2.5%| TAg acc= 91.7%, forg= -4.2% <<<
>>> Test on task  7 : loss=0.457 | TAw acc=100.0%, forg=  0.0%| TAg acc= 91.7%, forg=  0.0% <<<
Save at k=100/eeil_e5_dsads_5/har_flex_eeil
======
LLL_Net(
  (model): SimpleMLP(
    (fc1): Linear(in_features=405, out_features=66, bias=True)
    (fc2): Sequential()
  )
  (heads): ModuleList(
    (0): Linear(in_features=66, out_features=12, bias=True)
    (1): Linear(in_features=66, out_features=10, bias=True)
    (2): Linear(in_features=66, out_features=10, bias=True)
    (3): Linear(in_features=66, out_features=10, bias=True)
    (4): Linear(in_features=66, out_features=10, bias=True)
    (5): Linear(in_features=66, out_features=10, bias=True)
    (6): Linear(in_features=66, out_features=10, bias=True)
    (7): Linear(in_features=66, out_features=10, bias=True)
  )
)
======

************************************************************************************************************
Task  8
************************************************************************************************************
| Epoch   1, time=  1.0s | Train: skip eval | Valid: time=  0.2s loss=3.828, TAw acc= 46.9% | *
| Epoch   2, time=  1.1s | Train: skip eval | Valid: time=  0.2s loss=2.158, TAw acc= 78.1% | *
…
>>> Test on task  3 : loss=0.298 | TAw acc=100.0%, forg=  0.0%| TAg acc= 92.5%, forg=  4.2% <<<
>>> Test on task  4 : loss=0.773 | TAw acc= 87.5%, forg=  0.0%| TAg acc= 76.7%, forg=  2.5% <<<
>>> Test on task  5 : loss=0.609 | TAw acc= 90.0%, forg=  0.8%| TAg acc= 80.0%, forg=  0.8% <<<
>>> Test on task  6 : loss=0.403 | TAw acc= 96.7%, forg= -0.8%| TAg acc= 92.5%, forg= -0.8% <<<
>>> Test on task  7 : loss=0.470 | TAw acc=100.0%, forg=  0.0%| TAg acc= 88.3%, forg=  3.3% <<<
>>> Test on task  8 : loss=0.648 | TAw acc= 98.3%, forg=  0.0%| TAg acc= 87.5%, forg=  0.0% <<<
Save at k=100/eeil_e5_dsads_5/har_flex_eeil
======
LLL_Net(
  (model): SimpleMLP(
    (fc1): Linear(in_features=405, out_features=66, bias=True)
    (fc2): Sequential()
  )
  (heads): ModuleList(
    (0): Linear(in_features=66, out_features=12, bias=True)
    (1): Linear(in_features=66, out_features=10, bias=True)
    (2): Linear(in_features=66, out_features=10, bias=True)
    (3): Linear(in_features=66, out_features=10, bias=True)
    (4): Linear(in_features=66, out_features=10, bias=True)
    (5): Linear(in_features=66, out_features=10, bias=True)
    (6): Linear(in_features=66, out_features=10, bias=True)
    (7): Linear(in_features=66, out_features=10, bias=True)
    (8): Linear(in_features=66, out_features=10, bias=True)
  )
)
======

************************************************************************************************************
Task  9
************************************************************************************************************
| Epoch   1, time=  1.1s | Train: skip eval | Valid: time=  0.2s loss=3.828, TAw acc= 59.4% | *
| Epoch   2, time=  1.3s | Train: skip eval | Valid: time=  0.2s loss=2.464, TAw acc= 86.5% | *
…
>>> Test on task  4 : loss=0.715 | TAw acc= 88.3%, forg= -0.8%| TAg acc= 80.8%, forg= -1.7% <<<
>>> Test on task  5 : loss=0.552 | TAw acc= 90.0%, forg=  0.8%| TAg acc= 80.0%, forg=  0.8% <<<
>>> Test on task  6 : loss=0.415 | TAw acc= 96.7%, forg=  0.0%| TAg acc= 85.8%, forg=  6.7% <<<
>>> Test on task  7 : loss=0.442 | TAw acc=100.0%, forg=  0.0%| TAg acc= 89.2%, forg=  2.5% <<<
>>> Test on task  8 : loss=0.681 | TAw acc= 99.2%, forg= -0.8%| TAg acc= 87.5%, forg=  0.0% <<<
>>> Test on task  9 : loss=0.735 | TAw acc= 98.3%, forg=  0.0%| TAg acc= 78.3%, forg=  0.0% <<<
Save at k=100/eeil_e5_dsads_5/har_flex_eeil
======
LLL_Net(
  (model): SimpleMLP(
    (fc1): Linear(in_features=405, out_features=66, bias=True)
    (fc2): Sequential()
  )
  (heads): ModuleList(
    (0): Linear(in_features=66, out_features=12, bias=True)
    (1): Linear(in_features=66, out_features=10, bias=True)
    (2): Linear(in_features=66, out_features=10, bias=True)
    (3): Linear(in_features=66, out_features=10, bias=True)
    (4): Linear(in_features=66, out_features=10, bias=True)
    (5): Linear(in_features=66, out_features=10, bias=True)
    (6): Linear(in_features=66, out_features=10, bias=True)
    (7): Linear(in_features=66, out_features=10, bias=True)
    (8): Linear(in_features=66, out_features=10, bias=True)
    (9): Linear(in_features=66, out_features=10, bias=True)
  )
)
======

************************************************************************************************************
Task 10
************************************************************************************************************
| Epoch   1, time=  1.4s | Train: skip eval | Valid: time=  0.2s loss=4.738, TAw acc= 46.9% | *
| Epoch   2, time=  1.4s | Train: skip eval | Valid: time=  0.2s loss=2.858, TAw acc= 66.7% | *
…
>>> Test on task  5 : loss=0.537 | TAw acc= 89.2%, forg=  1.7%| TAg acc= 80.0%, forg=  0.8% <<<
>>> Test on task  6 : loss=0.436 | TAw acc= 95.8%, forg=  0.8%| TAg acc= 84.2%, forg=  8.3% <<<
>>> Test on task  7 : loss=0.493 | TAw acc=100.0%, forg=  0.0%| TAg acc= 86.7%, forg=  5.0% <<<
>>> Test on task  8 : loss=0.713 | TAw acc= 99.2%, forg=  0.0%| TAg acc= 85.8%, forg=  1.7% <<<
>>> Test on task  9 : loss=0.772 | TAw acc= 99.2%, forg= -0.8%| TAg acc= 78.3%, forg=  0.0% <<<
>>> Test on task 10 : loss=0.716 | TAw acc= 99.2%, forg=  0.0%| TAg acc= 85.8%, forg=  0.0% <<<
Save at k=100/eeil_e5_dsads_5/har_flex_eeil
======
LLL_Net(
  (model): SimpleMLP(
    (fc1): Linear(in_features=405, out_features=66, bias=True)
    (fc2): Sequential()
  )
  (heads): ModuleList(
    (0): Linear(in_features=66, out_features=12, bias=True)
    (1): Linear(in_features=66, out_features=10, bias=True)
    (2): Linear(in_features=66, out_features=10, bias=True)
    (3): Linear(in_features=66, out_features=10, bias=True)
    (4): Linear(in_features=66, out_features=10, bias=True)
    (5): Linear(in_features=66, out_features=10, bias=True)
    (6): Linear(in_features=66, out_features=10, bias=True)
    (7): Linear(in_features=66, out_features=10, bias=True)
    (8): Linear(in_features=66, out_features=10, bias=True)
    (9): Linear(in_features=66, out_features=10, bias=True)
    (10): Linear(in_features=66, out_features=10, bias=True)
  )
)
======

************************************************************************************************************
Task 11
************************************************************************************************************
| Epoch   1, time=  1.5s | Train: skip eval | Valid: time=  0.2s loss=4.171, TAw acc= 40.6% | *
| Epoch   2, time=  1.5s | Train: skip eval | Valid: time=  0.2s loss=2.556, TAw acc= 66.7% | *
…
>>> Test on task  6 : loss=0.513 | TAw acc= 95.8%, forg=  0.8%| TAg acc= 81.7%, forg= 10.8% <<<
>>> Test on task  7 : loss=0.593 | TAw acc=100.0%, forg=  0.0%| TAg acc= 85.0%, forg=  6.7% <<<
>>> Test on task  8 : loss=0.754 | TAw acc= 99.2%, forg=  0.0%| TAg acc= 85.0%, forg=  2.5% <<<
>>> Test on task  9 : loss=0.741 | TAw acc= 99.2%, forg=  0.0%| TAg acc= 80.8%, forg= -2.5% <<<
>>> Test on task 10 : loss=0.966 | TAw acc= 99.2%, forg=  0.0%| TAg acc= 74.2%, forg= 11.7% <<<
>>> Test on task 11 : loss=1.094 | TAw acc= 91.7%, forg=  0.0%| TAg acc= 67.5%, forg=  0.0% <<<
Save at k=100/eeil_e5_dsads_5/har_flex_eeil
======
LLL_Net(
  (model): SimpleMLP(
    (fc1): Linear(in_features=405, out_features=66, bias=True)
    (fc2): Sequential()
  )
  (heads): ModuleList(
    (0): Linear(in_features=66, out_features=12, bias=True)
    (1): Linear(in_features=66, out_features=10, bias=True)
    (2): Linear(in_features=66, out_features=10, bias=True)
    (3): Linear(in_features=66, out_features=10, bias=True)
    (4): Linear(in_features=66, out_features=10, bias=True)
    (5): Linear(in_features=66, out_features=10, bias=True)
    (6): Linear(in_features=66, out_features=10, bias=True)
    (7): Linear(in_features=66, out_features=10, bias=True)
    (8): Linear(in_features=66, out_features=10, bias=True)
    (9): Linear(in_features=66, out_features=10, bias=True)
    (10): Linear(in_features=66, out_features=10, bias=True)
    (11): Linear(in_features=66, out_features=10, bias=True)
  )
)
======

************************************************************************************************************
Task 12
************************************************************************************************************
| Epoch   1, time=  1.7s | Train: skip eval | Valid: time=  0.3s loss=5.123, TAw acc= 36.5% | *
| Epoch   2, time=  1.8s | Train: skip eval | Valid: time=  0.2s loss=3.065, TAw acc= 61.5% | *
…
>>> Test on task  7 : loss=0.443 | TAw acc=100.0%, forg=  0.0%| TAg acc= 90.8%, forg=  0.8% <<<
>>> Test on task  8 : loss=0.583 | TAw acc= 99.2%, forg=  0.0%| TAg acc= 87.5%, forg=  0.0% <<<
>>> Test on task  9 : loss=0.576 | TAw acc= 99.2%, forg=  0.0%| TAg acc= 83.3%, forg= -2.5% <<<
>>> Test on task 10 : loss=0.740 | TAw acc=100.0%, forg= -0.8%| TAg acc= 80.0%, forg=  5.8% <<<
>>> Test on task 11 : loss=0.922 | TAw acc= 95.8%, forg= -4.2%| TAg acc= 70.8%, forg= -3.3% <<<
>>> Test on task 12 : loss=0.666 | TAw acc= 95.8%, forg=  0.0%| TAg acc= 80.8%, forg=  0.0% <<<
Save at k=100/eeil_e5_dsads_5/har_flex_eeil
======
LLL_Net(
  (model): SimpleMLP(
    (fc1): Linear(in_features=405, out_features=66, bias=True)
    (fc2): Sequential()
  )
  (heads): ModuleList(
    (0): Linear(in_features=66, out_features=12, bias=True)
    (1): Linear(in_features=66, out_features=10, bias=True)
    (2): Linear(in_features=66, out_features=10, bias=True)
    (3): Linear(in_features=66, out_features=10, bias=True)
    (4): Linear(in_features=66, out_features=10, bias=True)
    (5): Linear(in_features=66, out_features=10, bias=True)
    (6): Linear(in_features=66, out_features=10, bias=True)
    (7): Linear(in_features=66, out_features=10, bias=True)
    (8): Linear(in_features=66, out_features=10, bias=True)
    (9): Linear(in_features=66, out_features=10, bias=True)
    (10): Linear(in_features=66, out_features=10, bias=True)
    (11): Linear(in_features=66, out_features=10, bias=True)
    (12): Linear(in_features=66, out_features=10, bias=True)
  )
)
======

************************************************************************************************************
Task 13
************************************************************************************************************
| Epoch   1, time=  2.0s | Train: skip eval | Valid: time=  0.2s loss=4.655, TAw acc= 51.0% | *
| Epoch   2, time=  1.8s | Train: skip eval | Valid: time=  0.2s loss=2.739, TAw acc= 69.8% | *
…
>>> Test on task  8 : loss=0.693 | TAw acc= 99.2%, forg=  0.0%| TAg acc= 85.0%, forg=  2.5% <<<
>>> Test on task  9 : loss=0.552 | TAw acc= 99.2%, forg=  0.0%| TAg acc= 85.8%, forg= -2.5% <<<
>>> Test on task 10 : loss=0.650 | TAw acc=100.0%, forg=  0.0%| TAg acc= 86.7%, forg= -0.8% <<<
>>> Test on task 11 : loss=0.779 | TAw acc= 95.0%, forg=  0.8%| TAg acc= 76.7%, forg= -5.8% <<<
>>> Test on task 12 : loss=0.855 | TAw acc= 95.0%, forg=  0.8%| TAg acc= 74.2%, forg=  6.7% <<<
>>> Test on task 13 : loss=1.115 | TAw acc= 90.8%, forg=  0.0%| TAg acc= 69.2%, forg=  0.0% <<<
Save at k=100/eeil_e5_dsads_5/har_flex_eeil
======
LLL_Net(
  (model): SimpleMLP(
    (fc1): Linear(in_features=405, out_features=66, bias=True)
    (fc2): Sequential()
  )
  (heads): ModuleList(
    (0): Linear(in_features=66, out_features=12, bias=True)
    (1): Linear(in_features=66, out_features=10, bias=True)
    (2): Linear(in_features=66, out_features=10, bias=True)
    (3): Linear(in_features=66, out_features=10, bias=True)
    (4): Linear(in_features=66, out_features=10, bias=True)
    (5): Linear(in_features=66, out_features=10, bias=True)
    (6): Linear(in_features=66, out_features=10, bias=True)
    (7): Linear(in_features=66, out_features=10, bias=True)
    (8): Linear(in_features=66, out_features=10, bias=True)
    (9): Linear(in_features=66, out_features=10, bias=True)
    (10): Linear(in_features=66, out_features=10, bias=True)
    (11): Linear(in_features=66, out_features=10, bias=True)
    (12): Linear(in_features=66, out_features=10, bias=True)
    (13): Linear(in_features=66, out_features=10, bias=True)
  )
)
======

************************************************************************************************************
Task 14
************************************************************************************************************
| Epoch   1, time=  2.2s | Train: skip eval | Valid: time=  0.2s loss=4.084, TAw acc= 57.3% | *
| Epoch   2, time=  2.1s | Train: skip eval | Valid: time=  0.2s loss=2.005, TAw acc= 94.8% | *
…
