…
| Selected 757 train exemplars, time=  0.0s
757
------------------------------------------------------------------------------------------------------------
>>> Test on task  0 : loss=1.020 | TAw acc= 89.0%, forg=  0.5%| TAg acc= 70.7%, forg=  9.9% <<<
>>> Test on task  1 : loss=0.843 | TAw acc=100.0%, forg=  0.0%| TAg acc= 90.6%, forg=  0.0% <<<
>>> Test on task  2 : loss=1.196 | TAw acc= 91.3%, forg= -6.1%| TAg acc= 70.4%, forg=  3.5% <<<
>>> Test on task  3 : loss=1.312 | TAw acc= 86.0%, forg=  0.0%| TAg acc= 78.5%, forg=  0.0% <<<
Save at k=100/eeil_e20_wisdm_5/wisdm_flex_eeil
======
LLL_Net(
  (model): SimpleMLP(
    (fc1): Linear(in_features=91, out_features=1000, bias=True)
    (fc2): Sequential()
  )
  (heads): ModuleList(
    (0): Linear(in_features=1000, out_features=34, bias=True)
    (1): Linear(in_features=1000, out_features=20, bias=True)
    (2): Linear(in_features=1000, out_features=20, bias=True)
    (3): Linear(in_features=1000, out_features=20, bias=True)
  )
)
======

************************************************************************************************************
Task  4
************************************************************************************************************
| Epoch   1, time=  0.4s | Train: skip eval | Valid: time=  0.2s loss=4.534, TAw acc= 34.2% | *
| Epoch   2, time=  0.4s | Train: skip eval | Valid: time=  0.2s loss=3.356, TAw acc= 44.7% | *
…
------------------------------------------------------------------------------------------------------------
>>> Test on task  0 : loss=0.958 | TAw acc= 89.5%, forg=  0.0%| TAg acc= 78.5%, forg=  2.1% <<<
>>> Test on task  1 : loss=0.763 | TAw acc=100.0%, forg=  0.0%| TAg acc= 92.3%, forg= -1.7% <<<
>>> Test on task  2 : loss=1.087 | TAw acc= 93.0%, forg= -1.7%| TAg acc= 76.5%, forg= -2.6% <<<
>>> Test on task  3 : loss=1.546 | TAw acc= 92.5%, forg= -6.5%| TAg acc= 60.7%, forg= 17.8% <<<
>>> Test on task  4 : loss=1.385 | TAw acc= 87.5%, forg=  0.0%| TAg acc= 74.0%, forg=  0.0% <<<
Save at k=100/eeil_e20_wisdm_5/wisdm_flex_eeil
======
LLL_Net(
  (model): SimpleMLP(
    (fc1): Linear(in_features=91, out_features=1000, bias=True)
    (fc2): Sequential()
  )
  (heads): ModuleList(
    (0): Linear(in_features=1000, out_features=34, bias=True)
    (1): Linear(in_features=1000, out_features=20, bias=True)
    (2): Linear(in_features=1000, out_features=20, bias=True)
    (3): Linear(in_features=1000, out_features=20, bias=True)
    (4): Linear(in_features=1000, out_features=20, bias=True)
  )
)
======

************************************************************************************************************
Task  5
************************************************************************************************************
| Epoch   1, time=  0.4s | Train: skip eval | Valid: time=  0.2s loss=4.542, TAw acc= 32.9% | *
| Epoch   2, time=  0.4s | Train: skip eval | Valid: time=  0.2s loss=3.306, TAw acc= 48.1% | *
…
>>> Test on task  0 : loss=0.947 | TAw acc= 90.1%, forg= -0.5%| TAg acc= 77.5%, forg=  3.1% <<<
>>> Test on task  1 : loss=0.769 | TAw acc=100.0%, forg=  0.0%| TAg acc= 86.3%, forg=  6.0% <<<
>>> Test on task  2 : loss=1.134 | TAw acc= 93.0%, forg=  0.0%| TAg acc= 71.3%, forg=  5.2% <<<
>>> Test on task  3 : loss=1.275 | TAw acc= 93.5%, forg= -0.9%| TAg acc= 84.1%, forg= -5.6% <<<
>>> Test on task  4 : loss=1.482 | TAw acc= 97.1%, forg= -9.6%| TAg acc= 68.3%, forg=  5.8% <<<
>>> Test on task  5 : loss=1.272 | TAw acc= 89.8%, forg=  0.0%| TAg acc= 78.7%, forg=  0.0% <<<
Save at k=100/eeil_e20_wisdm_5/wisdm_flex_eeil
======
LLL_Net(
  (model): SimpleMLP(
    (fc1): Linear(in_features=91, out_features=1000, bias=True)
    (fc2): Sequential()
  )
  (heads): ModuleList(
    (0): Linear(in_features=1000, out_features=34, bias=True)
    (1): Linear(in_features=1000, out_features=20, bias=True)
    (2): Linear(in_features=1000, out_features=20, bias=True)
    (3): Linear(in_features=1000, out_features=20, bias=True)
    (4): Linear(in_features=1000, out_features=20, bias=True)
    (5): Linear(in_features=1000, out_features=20, bias=True)
  )
)
======

************************************************************************************************************
Task  6
************************************************************************************************************
| Epoch   1, time=  0.5s | Train: skip eval | Valid: time=  0.2s loss=4.501, TAw acc= 42.5% | *
| Epoch   2, time=  0.5s | Train: skip eval | Valid: time=  0.2s loss=3.038, TAw acc= 63.7% | *
…
>>> Test on task  1 : loss=0.674 | TAw acc=100.0%, forg=  0.0%| TAg acc= 92.3%, forg=  0.0% <<<
>>> Test on task  2 : loss=1.072 | TAw acc= 93.0%, forg=  0.0%| TAg acc= 78.3%, forg= -1.7% <<<
>>> Test on task  3 : loss=1.234 | TAw acc= 93.5%, forg=  0.0%| TAg acc= 83.2%, forg=  0.9% <<<
>>> Test on task  4 : loss=1.459 | TAw acc= 97.1%, forg=  0.0%| TAg acc= 63.5%, forg= 10.6% <<<
>>> Test on task  5 : loss=1.436 | TAw acc= 95.4%, forg= -5.6%| TAg acc= 65.7%, forg= 13.0% <<<
>>> Test on task  6 : loss=1.072 | TAw acc= 97.2%, forg=  0.0%| TAg acc= 80.6%, forg=  0.0% <<<
Save at k=100/eeil_e20_wisdm_5/wisdm_flex_eeil
======
LLL_Net(
  (model): SimpleMLP(
    (fc1): Linear(in_features=91, out_features=1000, bias=True)
    (fc2): Sequential()
  )
  (heads): ModuleList(
    (0): Linear(in_features=1000, out_features=34, bias=True)
    (1): Linear(in_features=1000, out_features=20, bias=True)
    (2): Linear(in_features=1000, out_features=20, bias=True)
    (3): Linear(in_features=1000, out_features=20, bias=True)
    (4): Linear(in_features=1000, out_features=20, bias=True)
    (5): Linear(in_features=1000, out_features=20, bias=True)
    (6): Linear(in_features=1000, out_features=20, bias=True)
  )
)
======

************************************************************************************************************
Task  7
************************************************************************************************************
| Epoch   1, time=  0.5s | Train: skip eval | Valid: time=  0.2s loss=4.961, TAw acc= 44.4% | *
| Epoch   2, time=  0.5s | Train: skip eval | Valid: time=  0.2s loss=3.336, TAw acc= 68.1% | *
…
>>> Test on task  2 : loss=1.091 | TAw acc= 93.0%, forg=  0.0%| TAg acc= 73.9%, forg=  4.3% <<<
>>> Test on task  3 : loss=1.138 | TAw acc= 93.5%, forg=  0.0%| TAg acc= 82.2%, forg=  1.9% <<<
>>> Test on task  4 : loss=1.291 | TAw acc= 98.1%, forg= -1.0%| TAg acc= 75.0%, forg= -1.0% <<<
>>> Test on task  5 : loss=1.243 | TAw acc= 93.5%, forg=  1.9%| TAg acc= 69.4%, forg=  9.3% <<<
>>> Test on task  6 : loss=1.345 | TAw acc= 97.2%, forg=  0.0%| TAg acc= 62.0%, forg= 18.5% <<<
>>> Test on task  7 : loss=1.303 | TAw acc= 84.8%, forg=  0.0%| TAg acc= 71.7%, forg=  0.0% <<<
Save at k=100/eeil_e20_wisdm_5/wisdm_flex_eeil
======
LLL_Net(
  (model): SimpleMLP(
    (fc1): Linear(in_features=91, out_features=1000, bias=True)
    (fc2): Sequential()
  )
  (heads): ModuleList(
    (0): Linear(in_features=1000, out_features=34, bias=True)
    (1): Linear(in_features=1000, out_features=20, bias=True)
    (2): Linear(in_features=1000, out_features=20, bias=True)
    (3): Linear(in_features=1000, out_features=20, bias=True)
    (4): Linear(in_features=1000, out_features=20, bias=True)
    (5): Linear(in_features=1000, out_features=20, bias=True)
    (6): Linear(in_features=1000, out_features=20, bias=True)
    (7): Linear(in_features=1000, out_features=20, bias=True)
  )
)
======

************************************************************************************************************
Task  8
************************************************************************************************************
| Epoch   1, time=  0.6s | Train: skip eval | Valid: time=  0.2s loss=3.976, TAw acc= 25.0% | *
| Epoch   2, time=  0.6s | Train: skip eval | Valid: time=  0.2s loss=2.328, TAw acc= 69.6% | *
…
>>> Test on task  3 : loss=1.095 | TAw acc= 93.5%, forg=  0.0%| TAg acc= 82.2%, forg=  1.9% <<<
>>> Test on task  4 : loss=1.162 | TAw acc= 98.1%, forg=  0.0%| TAg acc= 82.7%, forg= -7.7% <<<
>>> Test on task  5 : loss=1.282 | TAw acc= 93.5%, forg=  1.9%| TAg acc= 67.6%, forg= 11.1% <<<
>>> Test on task  6 : loss=1.097 | TAw acc= 98.1%, forg= -0.9%| TAg acc= 71.3%, forg=  9.3% <<<
>>> Test on task  7 : loss=1.461 | TAw acc= 92.9%, forg= -8.1%| TAg acc= 60.6%, forg= 11.1% <<<
>>> Test on task  8 : loss=0.956 | TAw acc= 91.8%, forg=  0.0%| TAg acc= 82.8%, forg=  0.0% <<<
Save at k=100/eeil_e20_wisdm_5/wisdm_flex_eeil
======
LLL_Net(
  (model): SimpleMLP(
    (fc1): Linear(in_features=91, out_features=1000, bias=True)
    (fc2): Sequential()
  )
  (heads): ModuleList(
    (0): Linear(in_features=1000, out_features=34, bias=True)
    (1): Linear(in_features=1000, out_features=20, bias=True)
    (2): Linear(in_features=1000, out_features=20, bias=True)
    (3): Linear(in_features=1000, out_features=20, bias=True)
    (4): Linear(in_features=1000, out_features=20, bias=True)
    (5): Linear(in_features=1000, out_features=20, bias=True)
    (6): Linear(in_features=1000, out_features=20, bias=True)
    (7): Linear(in_features=1000, out_features=20, bias=True)
    (8): Linear(in_features=1000, out_features=20, bias=True)
  )
)
======

************************************************************************************************************
Task  9
************************************************************************************************************
| Epoch   1, time=  0.6s | Train: skip eval | Valid: time=  0.2s loss=5.098, TAw acc= 47.4% | *
| Epoch   2, time=  0.7s | Train: skip eval | Valid: time=  0.2s loss=3.209, TAw acc= 62.8% | *
…
>>> Test on task  4 : loss=1.157 | TAw acc= 98.1%, forg=  0.0%| TAg acc= 83.7%, forg= -1.0% <<<
>>> Test on task  5 : loss=1.075 | TAw acc= 93.5%, forg=  1.9%| TAg acc= 75.9%, forg=  2.8% <<<
>>> Test on task  6 : loss=1.107 | TAw acc= 98.1%, forg=  0.0%| TAg acc= 68.5%, forg= 12.0% <<<
>>> Test on task  7 : loss=1.314 | TAw acc= 93.9%, forg= -1.0%| TAg acc= 66.7%, forg=  5.1% <<<
>>> Test on task  8 : loss=1.208 | TAw acc= 94.3%, forg= -2.5%| TAg acc= 70.5%, forg= 12.3% <<<
>>> Test on task  9 : loss=1.248 | TAw acc= 92.5%, forg=  0.0%| TAg acc= 70.1%, forg=  0.0% <<<
Save at k=100/eeil_e20_wisdm_5/wisdm_flex_eeil
======
LLL_Net(
  (model): SimpleMLP(
    (fc1): Linear(in_features=91, out_features=1000, bias=True)
    (fc2): Sequential()
  )
  (heads): ModuleList(
    (0): Linear(in_features=1000, out_features=34, bias=True)
    (1): Linear(in_features=1000, out_features=20, bias=True)
    (2): Linear(in_features=1000, out_features=20, bias=True)
    (3): Linear(in_features=1000, out_features=20, bias=True)
    (4): Linear(in_features=1000, out_features=20, bias=True)
    (5): Linear(in_features=1000, out_features=20, bias=True)
    (6): Linear(in_features=1000, out_features=20, bias=True)
    (7): Linear(in_features=1000, out_features=20, bias=True)
    (8): Linear(in_features=1000, out_features=20, bias=True)
    (9): Linear(in_features=1000, out_features=20, bias=True)
  )
)
======

************************************************************************************************************
Task 10
************************************************************************************************************
| Epoch   1, time=  0.7s | Train: skip eval | Valid: time=  0.2s loss=5.665, TAw acc= 29.2% | *
| Epoch   2, time=  0.7s | Train: skip eval | Valid: time=  0.2s loss=3.446, TAw acc= 48.6% | *
…
>>> Test on task  5 : loss=1.025 | TAw acc= 93.5%, forg=  1.9%| TAg acc= 76.9%, forg=  1.9% <<<
>>> Test on task  6 : loss=1.014 | TAw acc= 98.1%, forg=  0.0%| TAg acc= 72.2%, forg=  8.3% <<<
>>> Test on task  7 : loss=1.231 | TAw acc= 93.9%, forg=  0.0%| TAg acc= 75.8%, forg= -4.0% <<<
>>> Test on task  8 : loss=1.152 | TAw acc= 94.3%, forg=  0.0%| TAg acc= 70.5%, forg= 12.3% <<<
>>> Test on task  9 : loss=1.551 | TAw acc= 94.4%, forg= -1.9%| TAg acc= 58.9%, forg= 11.2% <<<
>>> Test on task 10 : loss=0.955 | TAw acc= 98.0%, forg=  0.0%| TAg acc= 81.6%, forg=  0.0% <<<
Save at k=100/eeil_e20_wisdm_5/wisdm_flex_eeil
======
LLL_Net(
  (model): SimpleMLP(
    (fc1): Linear(in_features=91, out_features=1000, bias=True)
    (fc2): Sequential()
  )
  (heads): ModuleList(
    (0): Linear(in_features=1000, out_features=34, bias=True)
    (1): Linear(in_features=1000, out_features=20, bias=True)
    (2): Linear(in_features=1000, out_features=20, bias=True)
    (3): Linear(in_features=1000, out_features=20, bias=True)
    (4): Linear(in_features=1000, out_features=20, bias=True)
    (5): Linear(in_features=1000, out_features=20, bias=True)
    (6): Linear(in_features=1000, out_features=20, bias=True)
    (7): Linear(in_features=1000, out_features=20, bias=True)
    (8): Linear(in_features=1000, out_features=20, bias=True)
    (9): Linear(in_features=1000, out_features=20, bias=True)
    (10): Linear(in_features=1000, out_features=20, bias=True)
  )
)
======

************************************************************************************************************
Task 11
************************************************************************************************************
| Epoch   1, time=  0.8s | Train: skip eval | Valid: time=  0.2s loss=5.147, TAw acc= 46.8% | *
| Epoch   2, time=  0.8s | Train: skip eval | Valid: time=  0.2s loss=3.282, TAw acc= 64.6% | *
…
>>> Test on task  6 : loss=0.997 | TAw acc= 97.2%, forg=  0.9%| TAg acc= 72.2%, forg=  8.3% <<<
>>> Test on task  7 : loss=1.165 | TAw acc= 93.9%, forg=  0.0%| TAg acc= 77.8%, forg= -2.0% <<<
>>> Test on task  8 : loss=1.184 | TAw acc= 94.3%, forg=  0.0%| TAg acc= 69.7%, forg= 13.1% <<<
>>> Test on task  9 : loss=1.489 | TAw acc= 94.4%, forg=  0.0%| TAg acc= 57.0%, forg= 13.1% <<<
>>> Test on task 10 : loss=1.034 | TAw acc= 98.0%, forg=  0.0%| TAg acc= 78.6%, forg=  3.1% <<<
>>> Test on task 11 : loss=1.126 | TAw acc= 93.5%, forg=  0.0%| TAg acc= 81.5%, forg=  0.0% <<<
Save at k=100/eeil_e20_wisdm_5/wisdm_flex_eeil
======
LLL_Net(
  (model): SimpleMLP(
    (fc1): Linear(in_features=91, out_features=1000, bias=True)
    (fc2): Sequential()
  )
  (heads): ModuleList(
    (0): Linear(in_features=1000, out_features=34, bias=True)
    (1): Linear(in_features=1000, out_features=20, bias=True)
    (2): Linear(in_features=1000, out_features=20, bias=True)
    (3): Linear(in_features=1000, out_features=20, bias=True)
    (4): Linear(in_features=1000, out_features=20, bias=True)
    (5): Linear(in_features=1000, out_features=20, bias=True)
    (6): Linear(in_features=1000, out_features=20, bias=True)
    (7): Linear(in_features=1000, out_features=20, bias=True)
    (8): Linear(in_features=1000, out_features=20, bias=True)
    (9): Linear(in_features=1000, out_features=20, bias=True)
    (10): Linear(in_features=1000, out_features=20, bias=True)
    (11): Linear(in_features=1000, out_features=20, bias=True)
  )
)
======

************************************************************************************************************
Task 12
************************************************************************************************************
| Epoch   1, time=  0.9s | Train: skip eval | Valid: time=  0.2s loss=5.263, TAw acc= 32.9% | *
| Epoch   2, time=  0.9s | Train: skip eval | Valid: time=  0.2s loss=3.475, TAw acc= 60.5% | *
…
>>> Test on task  7 : loss=1.170 | TAw acc= 92.9%, forg=  1.0%| TAg acc= 76.8%, forg=  1.0% <<<
>>> Test on task  8 : loss=1.184 | TAw acc= 95.1%, forg= -0.8%| TAg acc= 72.1%, forg= 10.7% <<<
>>> Test on task  9 : loss=1.401 | TAw acc= 94.4%, forg=  0.0%| TAg acc= 64.5%, forg=  5.6% <<<
>>> Test on task 10 : loss=0.925 | TAw acc= 98.0%, forg=  0.0%| TAg acc= 86.7%, forg= -5.1% <<<
>>> Test on task 11 : loss=1.438 | TAw acc= 93.5%, forg=  0.0%| TAg acc= 63.0%, forg= 18.5% <<<
>>> Test on task 12 : loss=1.073 | TAw acc= 94.2%, forg=  0.0%| TAg acc= 73.1%, forg=  0.0% <<<
Save at k=100/eeil_e20_wisdm_5/wisdm_flex_eeil
======
LLL_Net(
  (model): SimpleMLP(
    (fc1): Linear(in_features=91, out_features=1000, bias=True)
    (fc2): Sequential()
  )
  (heads): ModuleList(
    (0): Linear(in_features=1000, out_features=34, bias=True)
    (1): Linear(in_features=1000, out_features=20, bias=True)
    (2): Linear(in_features=1000, out_features=20, bias=True)
    (3): Linear(in_features=1000, out_features=20, bias=True)
    (4): Linear(in_features=1000, out_features=20, bias=True)
    (5): Linear(in_features=1000, out_features=20, bias=True)
    (6): Linear(in_features=1000, out_features=20, bias=True)
    (7): Linear(in_features=1000, out_features=20, bias=True)
    (8): Linear(in_features=1000, out_features=20, bias=True)
    (9): Linear(in_features=1000, out_features=20, bias=True)
    (10): Linear(in_features=1000, out_features=20, bias=True)
    (11): Linear(in_features=1000, out_features=20, bias=True)
    (12): Linear(in_features=1000, out_features=20, bias=True)
  )
)
======

************************************************************************************************************
Task 13
************************************************************************************************************
| Epoch   1, time=  1.0s | Train: skip eval | Valid: time=  0.2s loss=4.455, TAw acc= 42.7% | *
| Epoch   2, time=  1.0s | Train: skip eval | Valid: time=  0.2s loss=2.503, TAw acc= 68.5% | *
…
>>> Test on task  8 : loss=1.130 | TAw acc= 95.1%, forg=  0.0%| TAg acc= 73.0%, forg=  9.8% <<<
>>> Test on task  9 : loss=1.402 | TAw acc= 94.4%, forg=  0.0%| TAg acc= 61.7%, forg=  8.4% <<<
>>> Test on task 10 : loss=0.959 | TAw acc= 98.0%, forg=  0.0%| TAg acc= 81.6%, forg=  5.1% <<<
>>> Test on task 11 : loss=1.264 | TAw acc= 94.4%, forg= -0.9%| TAg acc= 73.1%, forg=  8.3% <<<
>>> Test on task 12 : loss=1.159 | TAw acc= 94.2%, forg=  0.0%| TAg acc= 71.2%, forg=  1.9% <<<
>>> Test on task 13 : loss=1.045 | TAw acc= 93.2%, forg=  0.0%| TAg acc= 77.1%, forg=  0.0% <<<
Save at k=100/eeil_e20_wisdm_5/wisdm_flex_eeil
======
LLL_Net(
  (model): SimpleMLP(
    (fc1): Linear(in_features=91, out_features=1000, bias=True)
    (fc2): Sequential()
  )
  (heads): ModuleList(
    (0): Linear(in_features=1000, out_features=34, bias=True)
    (1): Linear(in_features=1000, out_features=20, bias=True)
    (2): Linear(in_features=1000, out_features=20, bias=True)
    (3): Linear(in_features=1000, out_features=20, bias=True)
    (4): Linear(in_features=1000, out_features=20, bias=True)
    (5): Linear(in_features=1000, out_features=20, bias=True)
    (6): Linear(in_features=1000, out_features=20, bias=True)
    (7): Linear(in_features=1000, out_features=20, bias=True)
    (8): Linear(in_features=1000, out_features=20, bias=True)
    (9): Linear(in_features=1000, out_features=20, bias=True)
    (10): Linear(in_features=1000, out_features=20, bias=True)
    (11): Linear(in_features=1000, out_features=20, bias=True)
    (12): Linear(in_features=1000, out_features=20, bias=True)
    (13): Linear(in_features=1000, out_features=20, bias=True)
  )
)
======

************************************************************************************************************
Task 14
************************************************************************************************************
| Epoch   1, time=  1.1s | Train: skip eval | Valid: time=  0.2s loss=4.687, TAw acc= 54.0% | *
| Epoch   2, time=  1.1s | Train: skip eval | Valid: time=  0.2s loss=2.644, TAw acc= 60.9% | *
…
>>> Test on task  9 : loss=1.343 | TAw acc= 94.4%, forg=  0.0%| TAg acc= 68.2%, forg=  1.9% <<<
>>> Test on task 10 : loss=0.862 | TAw acc= 98.0%, forg=  0.0%| TAg acc= 84.7%, forg=  2.0% <<<
>>> Test on task 11 : loss=1.181 | TAw acc= 94.4%, forg=  0.0%| TAg acc= 78.7%, forg=  2.8% <<<
>>> Test on task 12 : loss=1.137 | TAw acc= 95.2%, forg= -1.0%| TAg acc= 71.2%, forg=  1.9% <<<
>>> Test on task 13 : loss=1.417 | TAw acc= 94.1%, forg= -0.8%| TAg acc= 53.4%, forg= 23.7% <<<
>>> Test on task 14 : loss=0.991 | TAw acc= 95.7%, forg=  0.0%| TAg acc= 76.7%, forg=  0.0% <<<
Save at k=100/eeil_e20_wisdm_5/wisdm_flex_eeil
======
LLL_Net(
  (model): SimpleMLP(
    (fc1): Linear(in_features=91, out_features=1000, bias=True)
    (fc2): Sequential()
  )
  (heads): ModuleList(
    (0): Linear(in_features=1000, out_features=34, bias=True)
    (1): Linear(in_features=1000, out_features=20, bias=True)
    (2): Linear(in_features=1000, out_features=20, bias=True)
    (3): Linear(in_features=1000, out_features=20, bias=True)
    (4): Linear(in_features=1000, out_features=20, bias=True)
    (5): Linear(in_features=1000, out_features=20, bias=True)
    (6): Linear(in_features=1000, out_features=20, bias=True)
    (7): Linear(in_features=1000, out_features=20, bias=True)
    (8): Linear(in_features=1000, out_features=20, bias=True)
    (9): Linear(in_features=1000, out_features=20, bias=True)
    (10): Linear(in_features=1000, out_features=20, bias=True)
    (11): Linear(in_features=1000, out_features=20, bias=True)
    (12): Linear(in_features=1000, out_features=20, bias=True)
    (13): Linear(in_features=1000, out_features=20, bias=True)
    (14): Linear(in_features=1000, out_features=20, bias=True)
  )
)
======

************************************************************************************************************
Task 15
************************************************************************************************************
| Epoch   1, time=  1.2s | Train: skip eval | Valid: time=  0.2s loss=5.711, TAw acc= 41.6% | *
| Epoch   2, time=  1.2s | Train: skip eval | Valid: time=  0.2s loss=3.105, TAw acc= 59.7% | *
…
>>> Test on task 10 : loss=0.829 | TAw acc= 98.0%, forg=  0.0%| TAg acc= 82.7%, forg=  4.1% <<<
>>> Test on task 11 : loss=1.138 | TAw acc= 94.4%, forg=  0.0%| TAg acc= 77.8%, forg=  3.7% <<<
>>> Test on task 12 : loss=1.054 | TAw acc= 95.2%, forg=  0.0%| TAg acc= 71.2%, forg=  1.9% <<<
>>> Test on task 13 : loss=1.446 | TAw acc= 93.2%, forg=  0.8%| TAg acc= 49.2%, forg= 28.0% <<<
>>> Test on task 14 : loss=1.315 | TAw acc= 98.3%, forg= -2.6%| TAg acc= 61.2%, forg= 15.5% <<<
>>> Test on task 15 : loss=1.051 | TAw acc= 94.3%, forg=  0.0%| TAg acc= 81.0%, forg=  0.0% <<<
Save at k=100/eeil_e20_wisdm_5/wisdm_flex_eeil
======
LLL_Net(
  (model): SimpleMLP(
    (fc1): Linear(in_features=91, out_features=1000, bias=True)
    (fc2): Sequential()
  )
  (heads): ModuleList(
    (0): Linear(in_features=1000, out_features=34, bias=True)
    (1): Linear(in_features=1000, out_features=20, bias=True)
    (2): Linear(in_features=1000, out_features=20, bias=True)
    (3): Linear(in_features=1000, out_features=20, bias=True)
    (4): Linear(in_features=1000, out_features=20, bias=True)
    (5): Linear(in_features=1000, out_features=20, bias=True)
    (6): Linear(in_features=1000, out_features=20, bias=True)
    (7): Linear(in_features=1000, out_features=20, bias=True)
    (8): Linear(in_features=1000, out_features=20, bias=True)
    (9): Linear(in_features=1000, out_features=20, bias=True)
    (10): Linear(in_features=1000, out_features=20, bias=True)
    (11): Linear(in_features=1000, out_features=20, bias=True)
    (12): Linear(in_features=1000, out_features=20, bias=True)
    (13): Linear(in_features=1000, out_features=20, bias=True)
    (14): Linear(in_features=1000, out_features=20, bias=True)
    (15): Linear(in_features=1000, out_features=20, bias=True)
  )
)
======

************************************************************************************************************
Task 16
************************************************************************************************************
| Epoch   1, time=  1.3s | Train: skip eval | Valid: time=  0.2s loss=5.656, TAw acc= 38.4% | *
| Epoch   2, time=  1.3s | Train: skip eval | Valid: time=  0.2s loss=3.336, TAw acc= 61.6% | *
…
>>> Test on task 11 : loss=1.088 | TAw acc= 94.4%, forg=  0.0%| TAg acc= 78.7%, forg=  2.8% <<<
>>> Test on task 12 : loss=1.017 | TAw acc= 95.2%, forg=  0.0%| TAg acc= 73.1%, forg=  0.0% <<<
>>> Test on task 13 : loss=1.318 | TAw acc= 93.2%, forg=  0.8%| TAg acc= 56.8%, forg= 20.3% <<<
>>> Test on task 14 : loss=1.138 | TAw acc= 98.3%, forg=  0.0%| TAg acc= 73.3%, forg=  3.4% <<<
>>> Test on task 15 : loss=1.397 | TAw acc= 95.2%, forg= -1.0%| TAg acc= 62.9%, forg= 18.1% <<<
>>> Test on task 16 : loss=1.042 | TAw acc= 96.5%, forg=  0.0%| TAg acc= 84.3%, forg=  0.0% <<<
Save at k=100/eeil_e20_wisdm_5/wisdm_flex_eeil
======
LLL_Net(
  (model): SimpleMLP(
    (fc1): Linear(in_features=91, out_features=1000, bias=True)
    (fc2): Sequential()
  )
  (heads): ModuleList(
    (0): Linear(in_features=1000, out_features=34, bias=True)
    (1): Linear(in_features=1000, out_features=20, bias=True)
    (2): Linear(in_features=1000, out_features=20, bias=True)
    (3): Linear(in_features=1000, out_features=20, bias=True)
    (4): Linear(in_features=1000, out_features=20, bias=True)
    (5): Linear(in_features=1000, out_features=20, bias=True)
    (6): Linear(in_features=1000, out_features=20, bias=True)
    (7): Linear(in_features=1000, out_features=20, bias=True)
    (8): Linear(in_features=1000, out_features=20, bias=True)
    (9): Linear(in_features=1000, out_features=20, bias=True)
    (10): Linear(in_features=1000, out_features=20, bias=True)
    (11): Linear(in_features=1000, out_features=20, bias=True)
    (12): Linear(in_features=1000, out_features=20, bias=True)
    (13): Linear(in_features=1000, out_features=20, bias=True)
    (14): Linear(in_features=1000, out_features=20, bias=True)
    (15): Linear(in_features=1000, out_features=20, bias=True)
    (16): Linear(in_features=1000, out_features=20, bias=True)
  )
)
======

************************************************************************************************************
Task 17
************************************************************************************************************
| Epoch   1, time=  1.4s | Train: skip eval | Valid: time=  0.2s loss=5.540, TAw acc= 44.4% | *
| Epoch   2, time=  1.5s | Train: skip eval | Valid: time=  0.2s loss=3.356, TAw acc= 67.9% | *
…
>>> Test on task 12 : loss=0.970 | TAw acc= 96.2%, forg= -1.0%| TAg acc= 73.1%, forg=  0.0% <<<
>>> Test on task 13 : loss=1.498 | TAw acc= 89.0%, forg=  5.1%| TAg acc= 51.7%, forg= 25.4% <<<
>>> Test on task 14 : loss=1.090 | TAw acc= 98.3%, forg=  0.0%| TAg acc= 76.7%, forg=  0.0% <<<
>>> Test on task 15 : loss=1.375 | TAw acc= 94.3%, forg=  1.0%| TAg acc= 70.5%, forg= 10.5% <<<
>>> Test on task 16 : loss=1.297 | TAw acc= 96.5%, forg=  0.0%| TAg acc= 67.8%, forg= 16.5% <<<
>>> Test on task 17 : loss=1.036 | TAw acc= 90.9%, forg=  0.0%| TAg acc= 76.4%, forg=  0.0% <<<
Save at k=100/eeil_e20_wisdm_5/wisdm_flex_eeil
======
LLL_Net(
  (model): SimpleMLP(
    (fc1): Linear(in_features=91, out_features=1000, bias=True)
    (fc2): Sequential()
  )
  (heads): ModuleList(
    (0): Linear(in_features=1000, out_features=34, bias=True)
    (1): Linear(in_features=1000, out_features=20, bias=True)
    (2): Linear(in_features=1000, out_features=20, bias=True)
    (3): Linear(in_features=1000, out_features=20, bias=True)
    (4): Linear(in_features=1000, out_features=20, bias=True)
    (5): Linear(in_features=1000, out_features=20, bias=True)
    (6): Linear(in_features=1000, out_features=20, bias=True)
    (7): Linear(in_features=1000, out_features=20, bias=True)
    (8): Linear(in_features=1000, out_features=20, bias=True)
    (9): Linear(in_features=1000, out_features=20, bias=True)
    (10): Linear(in_features=1000, out_features=20, bias=True)
    (11): Linear(in_features=1000, out_features=20, bias=True)
    (12): Linear(in_features=1000, out_features=20, bias=True)
    (13): Linear(in_features=1000, out_features=20, bias=True)
    (14): Linear(in_features=1000, out_features=20, bias=True)
    (15): Linear(in_features=1000, out_features=20, bias=True)
    (16): Linear(in_features=1000, out_features=20, bias=True)
    (17): Linear(in_features=1000, out_features=20, bias=True)
  )
)
======

************************************************************************************************************
Task 18
************************************************************************************************************
| Epoch   1, time=  2.1s | Train: skip eval | Valid: time=  0.4s loss=4.262, TAw acc= 53.0% | *
| Epoch   2, time=  2.0s | Train: skip eval | Valid: time=  0.2s loss=2.220, TAw acc= 78.0% | *
…
>>> Test on task 13 : loss=1.348 | TAw acc= 91.5%, forg=  2.5%| TAg acc= 51.7%, forg= 25.4% <<<
>>> Test on task 14 : loss=1.062 | TAw acc= 98.3%, forg=  0.0%| TAg acc= 74.1%, forg=  2.6% <<<
>>> Test on task 15 : loss=1.257 | TAw acc= 96.2%, forg= -1.0%| TAg acc= 72.4%, forg=  8.6% <<<
>>> Test on task 16 : loss=1.234 | TAw acc= 96.5%, forg=  0.0%| TAg acc= 73.0%, forg= 11.3% <<<
>>> Test on task 17 : loss=1.301 | TAw acc= 95.5%, forg= -4.5%| TAg acc= 63.6%, forg= 12.7% <<<
>>> Test on task 18 : loss=1.021 | TAw acc= 96.2%, forg=  0.0%| TAg acc= 75.0%, forg=  0.0% <<<
Save at k=100/eeil_e20_wisdm_5/wisdm_flex_eeil
======
LLL_Net(
  (model): SimpleMLP(
    (fc1): Linear(in_features=91, out_features=1000, bias=True)
    (fc2): Sequential()
  )
  (heads): ModuleList(
    (0): Linear(in_features=1000, out_features=34, bias=True)
    (1): Linear(in_features=1000, out_features=20, bias=True)
    (2): Linear(in_features=1000, out_features=20, bias=True)
    (3): Linear(in_features=1000, out_features=20, bias=True)
    (4): Linear(in_features=1000, out_features=20, bias=True)
    (5): Linear(in_features=1000, out_features=20, bias=True)
    (6): Linear(in_features=1000, out_features=20, bias=True)
    (7): Linear(in_features=1000, out_features=20, bias=True)
    (8): Linear(in_features=1000, out_features=20, bias=True)
    (9): Linear(in_features=1000, out_features=20, bias=True)
    (10): Linear(in_features=1000, out_features=20, bias=True)
    (11): Linear(in_features=1000, out_features=20, bias=True)
    (12): Linear(in_features=1000, out_features=20, bias=True)
    (13): Linear(in_features=1000, out_features=20, bias=True)
    (14): Linear(in_features=1000, out_features=20, bias=True)
    (15): Linear(in_features=1000, out_features=20, bias=True)
    (16): Linear(in_features=1000, out_features=20, bias=True)
    (17): Linear(in_features=1000, out_features=20, bias=True)
    (18): Linear(in_features=1000, out_features=20, bias=True)
  )
)
======

************************************************************************************************************
Task 19
************************************************************************************************************
| Epoch   1, time=  1.6s | Train: skip eval | Valid: time=  0.2s loss=6.120, TAw acc= 35.7% | *
| Epoch   2, time=  1.7s | Train: skip eval | Valid: time=  0.2s loss=3.298, TAw acc= 65.5% | *
…
>>> Test on task 14 : loss=1.036 | TAw acc= 98.3%, forg=  0.0%| TAg acc= 75.9%, forg=  0.9% <<<
>>> Test on task 15 : loss=1.237 | TAw acc= 95.2%, forg=  1.0%| TAg acc= 79.0%, forg=  1.9% <<<
>>> Test on task 16 : loss=1.244 | TAw acc= 96.5%, forg=  0.0%| TAg acc= 74.8%, forg=  9.6% <<<
>>> Test on task 17 : loss=1.247 | TAw acc= 92.7%, forg=  2.7%| TAg acc= 62.7%, forg= 13.6% <<<
>>> Test on task 18 : loss=1.458 | TAw acc= 96.2%, forg=  0.0%| TAg acc= 59.1%, forg= 15.9% <<<
>>> Test on task 19 : loss=1.391 | TAw acc= 86.8%, forg=  0.0%| TAg acc= 57.0%, forg=  0.0% <<<
Save at k=100/eeil_e20_wisdm_5/wisdm_flex_eeil
======
LLL_Net(
  (model): SimpleMLP(
    (fc1): Linear(in_features=91, out_features=1000, bias=True)
    (fc2): Sequential()
  )
  (heads): ModuleList(
    (0): Linear(in_features=1000, out_features=34, bias=True)
    (1): Linear(in_features=1000, out_features=20, bias=True)
    (2): Linear(in_features=1000, out_features=20, bias=True)
    (3): Linear(in_features=1000, out_features=20, bias=True)
    (4): Linear(in_features=1000, out_features=20, bias=True)
    (5): Linear(in_features=1000, out_features=20, bias=True)
    (6): Linear(in_features=1000, out_features=20, bias=True)
    (7): Linear(in_features=1000, out_features=20, bias=True)
    (8): Linear(in_features=1000, out_features=20, bias=True)
    (9): Linear(in_features=1000, out_features=20, bias=True)
    (10): Linear(in_features=1000, out_features=20, bias=True)
    (11): Linear(in_features=1000, out_features=20, bias=True)
    (12): Linear(in_features=1000, out_features=20, bias=True)
    (13): Linear(in_features=1000, out_features=20, bias=True)
    (14): Linear(in_features=1000, out_features=20, bias=True)
    (15): Linear(in_features=1000, out_features=20, bias=True)
    (16): Linear(in_features=1000, out_features=20, bias=True)
    (17): Linear(in_features=1000, out_features=20, bias=True)
    (18): Linear(in_features=1000, out_features=20, bias=True)
    (19): Linear(in_features=1000, out_features=20, bias=True)
  )
)
======

************************************************************************************************************
Task 20
************************************************************************************************************
| Epoch   1, time=  1.8s | Train: skip eval | Valid: time=  0.2s loss=5.574, TAw acc= 62.1% | *
| Epoch   2, time=  1.8s | Train: skip eval | Valid: time=  0.2s loss=2.504, TAw acc= 67.8% | *
…
>>> Test on task 15 : loss=1.167 | TAw acc= 95.2%, forg=  1.0%| TAg acc= 82.9%, forg= -1.9% <<<
>>> Test on task 16 : loss=1.252 | TAw acc= 95.7%, forg=  0.9%| TAg acc= 70.4%, forg= 13.9% <<<
>>> Test on task 17 : loss=1.248 | TAw acc= 95.5%, forg=  0.0%| TAg acc= 64.5%, forg= 11.8% <<<
>>> Test on task 18 : loss=1.407 | TAw acc= 95.5%, forg=  0.8%| TAg acc= 65.9%, forg=  9.1% <<<
>>> Test on task 19 : loss=1.683 | TAw acc= 86.8%, forg=  0.0%| TAg acc= 37.7%, forg= 19.3% <<<
>>> Test on task 20 : loss=0.905 | TAw acc= 95.7%, forg=  0.0%| TAg acc= 80.0%, forg=  0.0% <<<
Save at k=100/eeil_e20_wisdm_5/wisdm_flex_eeil
======
LLL_Net(
  (model): SimpleMLP(
    (fc1): Linear(in_features=91, out_features=1000, bias=True)
    (fc2): Sequential()
  )
  (heads): ModuleList(
    (0): Linear(in_features=1000, out_features=34, bias=True)
    (1): Linear(in_features=1000, out_features=20, bias=True)
    (2): Linear(in_features=1000, out_features=20, bias=True)
    (3): Linear(in_features=1000, out_features=20, bias=True)
    (4): Linear(in_features=1000, out_features=20, bias=True)
    (5): Linear(in_features=1000, out_features=20, bias=True)
    (6): Linear(in_features=1000, out_features=20, bias=True)
    (7): Linear(in_features=1000, out_features=20, bias=True)
    (8): Linear(in_features=1000, out_features=20, bias=True)
    (9): Linear(in_features=1000, out_features=20, bias=True)
    (10): Linear(in_features=1000, out_features=20, bias=True)
    (11): Linear(in_features=1000, out_features=20, bias=True)
    (12): Linear(in_features=1000, out_features=20, bias=True)
    (13): Linear(in_features=1000, out_features=20, bias=True)
    (14): Linear(in_features=1000, out_features=20, bias=True)
    (15): Linear(in_features=1000, out_features=20, bias=True)
    (16): Linear(in_features=1000, out_features=20, bias=True)
    (17): Linear(in_features=1000, out_features=20, bias=True)
    (18): Linear(in_features=1000, out_features=20, bias=True)
    (19): Linear(in_features=1000, out_features=20, bias=True)
    (20): Linear(in_features=1000, out_features=20, bias=True)
  )
)
======

************************************************************************************************************
Task 21
************************************************************************************************************
| Epoch   1, time=  2.0s | Train: skip eval | Valid: time=  0.2s loss=6.631, TAw acc= 49.3% | *
| Epoch   2, time=  1.9s | Train: skip eval | Valid: time=  0.2s loss=3.172, TAw acc= 78.9% | *
…
>>> Test on task 16 : loss=1.182 | TAw acc= 95.7%, forg=  0.9%| TAg acc= 76.5%, forg=  7.8% <<<
>>> Test on task 17 : loss=1.158 | TAw acc= 95.5%, forg=  0.0%| TAg acc= 68.2%, forg=  8.2% <<<
>>> Test on task 18 : loss=1.280 | TAw acc= 95.5%, forg=  0.8%| TAg acc= 69.7%, forg=  5.3% <<<
>>> Test on task 19 : loss=1.827 | TAw acc= 86.0%, forg=  0.9%| TAg acc= 36.8%, forg= 20.2% <<<
>>> Test on task 20 : loss=1.172 | TAw acc= 95.7%, forg=  0.0%| TAg acc= 69.6%, forg= 10.4% <<<
>>> Test on task 21 : loss=1.087 | TAw acc= 95.9%, forg=  0.0%| TAg acc= 71.4%, forg=  0.0% <<<
Save at k=100/eeil_e20_wisdm_5/wisdm_flex_eeil
======
LLL_Net(
  (model): SimpleMLP(
    (fc1): Linear(in_features=91, out_features=1000, bias=True)
    (fc2): Sequential()
  )
  (heads): ModuleList(
    (0): Linear(in_features=1000, out_features=34, bias=True)
    (1): Linear(in_features=1000, out_features=20, bias=True)
    (2): Linear(in_features=1000, out_features=20, bias=True)
    (3): Linear(in_features=1000, out_features=20, bias=True)
    (4): Linear(in_features=1000, out_features=20, bias=True)
    (5): Linear(in_features=1000, out_features=20, bias=True)
    (6): Linear(in_features=1000, out_features=20, bias=True)
    (7): Linear(in_features=1000, out_features=20, bias=True)
    (8): Linear(in_features=1000, out_features=20, bias=True)
    (9): Linear(in_features=1000, out_features=20, bias=True)
    (10): Linear(in_features=1000, out_features=20, bias=True)
    (11): Linear(in_features=1000, out_features=20, bias=True)
    (12): Linear(in_features=1000, out_features=20, bias=True)
    (13): Linear(in_features=1000, out_features=20, bias=True)
    (14): Linear(in_features=1000, out_features=20, bias=True)
    (15): Linear(in_features=1000, out_features=20, bias=True)
    (16): Linear(in_features=1000, out_features=20, bias=True)
    (17): Linear(in_features=1000, out_features=20, bias=True)
    (18): Linear(in_features=1000, out_features=20, bias=True)
    (19): Linear(in_features=1000, out_features=20, bias=True)
    (20): Linear(in_features=1000, out_features=20, bias=True)
    (21): Linear(in_features=1000, out_features=20, bias=True)
  )
)
======

************************************************************************************************************
Task 22
************************************************************************************************************
| Epoch   1, time=  2.2s | Train: skip eval | Valid: time=  0.2s loss=5.593, TAw acc= 46.0% | *
| Epoch   2, time=  2.1s | Train: skip eval | Valid: time=  0.2s loss=2.966, TAw acc= 70.1% | *
…
>>> Test on task 17 : loss=1.096 | TAw acc= 94.5%, forg=  0.9%| TAg acc= 66.4%, forg= 10.0% <<<
>>> Test on task 18 : loss=1.450 | TAw acc= 96.2%, forg=  0.0%| TAg acc= 62.9%, forg= 12.1% <<<
>>> Test on task 19 : loss=1.600 | TAw acc= 86.8%, forg=  0.0%| TAg acc= 48.2%, forg=  8.8% <<<
>>> Test on task 20 : loss=1.104 | TAw acc= 95.7%, forg=  0.0%| TAg acc= 66.1%, forg= 13.9% <<<
>>> Test on task 21 : loss=1.333 | TAw acc= 98.0%, forg= -2.0%| TAg acc= 60.2%, forg= 11.2% <<<
>>> Test on task 22 : loss=0.972 | TAw acc= 96.6%, forg=  0.0%| TAg acc= 70.1%, forg=  0.0% <<<
Save at k=100/eeil_e20_wisdm_5/wisdm_flex_eeil
======
LLL_Net(
  (model): SimpleMLP(
    (fc1): Linear(in_features=91, out_features=1000, bias=True)
    (fc2): Sequential()
  )
  (heads): ModuleList(
    (0): Linear(in_features=1000, out_features=34, bias=True)
    (1): Linear(in_features=1000, out_features=20, bias=True)
    (2): Linear(in_features=1000, out_features=20, bias=True)
    (3): Linear(in_features=1000, out_features=20, bias=True)
    (4): Linear(in_features=1000, out_features=20, bias=True)
    (5): Linear(in_features=1000, out_features=20, bias=True)
    (6): Linear(in_features=1000, out_features=20, bias=True)
    (7): Linear(in_features=1000, out_features=20, bias=True)
    (8): Linear(in_features=1000, out_features=20, bias=True)
    (9): Linear(in_features=1000, out_features=20, bias=True)
    (10): Linear(in_features=1000, out_features=20, bias=True)
    (11): Linear(in_features=1000, out_features=20, bias=True)
    (12): Linear(in_features=1000, out_features=20, bias=True)
    (13): Linear(in_features=1000, out_features=20, bias=True)
    (14): Linear(in_features=1000, out_features=20, bias=True)
    (15): Linear(in_features=1000, out_features=20, bias=True)
    (16): Linear(in_features=1000, out_features=20, bias=True)
    (17): Linear(in_features=1000, out_features=20, bias=True)
    (18): Linear(in_features=1000, out_features=20, bias=True)
    (19): Linear(in_features=1000, out_features=20, bias=True)
    (20): Linear(in_features=1000, out_features=20, bias=True)
    (21): Linear(in_features=1000, out_features=20, bias=True)
    (22): Linear(in_features=1000, out_features=20, bias=True)
  )
)
======

************************************************************************************************************
Task 23
************************************************************************************************************
| Epoch   1, time=  2.2s | Train: skip eval | Valid: time=  0.2s loss=5.187, TAw acc= 42.4% | *
| Epoch   2, time=  2.1s | Train: skip eval | Valid: time=  0.2s loss=2.715, TAw acc= 73.9% | *
…
>>> Test on task 18 : loss=1.320 | TAw acc= 96.2%, forg=  0.0%| TAg acc= 71.2%, forg=  3.8% <<<
>>> Test on task 19 : loss=1.545 | TAw acc= 87.7%, forg= -0.9%| TAg acc= 50.9%, forg=  6.1% <<<
>>> Test on task 20 : loss=1.037 | TAw acc= 96.5%, forg= -0.9%| TAg acc= 70.4%, forg=  9.6% <<<
>>> Test on task 21 : loss=1.235 | TAw acc= 98.0%, forg=  0.0%| TAg acc= 62.2%, forg=  9.2% <<<
>>> Test on task 22 : loss=1.298 | TAw acc= 94.9%, forg=  1.7%| TAg acc= 59.0%, forg= 11.1% <<<
>>> Test on task 23 : loss=0.966 | TAw acc= 93.4%, forg=  0.0%| TAg acc= 75.4%, forg=  0.0% <<<
Save at k=100/eeil_e20_wisdm_5/wisdm_flex_eeil
======
LLL_Net(
  (model): SimpleMLP(
    (fc1): Linear(in_features=91, out_features=1000, bias=True)
    (fc2): Sequential()
  )
  (heads): ModuleList(
    (0): Linear(in_features=1000, out_features=34, bias=True)
    (1): Linear(in_features=1000, out_features=20, bias=True)
    (2): Linear(in_features=1000, out_features=20, bias=True)
    (3): Linear(in_features=1000, out_features=20, bias=True)
    (4): Linear(in_features=1000, out_features=20, bias=True)
    (5): Linear(in_features=1000, out_features=20, bias=True)
    (6): Linear(in_features=1000, out_features=20, bias=True)
    (7): Linear(in_features=1000, out_features=20, bias=True)
    (8): Linear(in_features=1000, out_features=20, bias=True)
    (9): Linear(in_features=1000, out_features=20, bias=True)
    (10): Linear(in_features=1000, out_features=20, bias=True)
    (11): Linear(in_features=1000, out_features=20, bias=True)
    (12): Linear(in_features=1000, out_features=20, bias=True)
    (13): Linear(in_features=1000, out_features=20, bias=True)
    (14): Linear(in_features=1000, out_features=20, bias=True)
    (15): Linear(in_features=1000, out_features=20, bias=True)
    (16): Linear(in_features=1000, out_features=20, bias=True)
    (17): Linear(in_features=1000, out_features=20, bias=True)
    (18): Linear(in_features=1000, out_features=20, bias=True)
    (19): Linear(in_features=1000, out_features=20, bias=True)
    (20): Linear(in_features=1000, out_features=20, bias=True)
    (21): Linear(in_features=1000, out_features=20, bias=True)
    (22): Linear(in_features=1000, out_features=20, bias=True)
    (23): Linear(in_features=1000, out_features=20, bias=True)
  )
)
======

************************************************************************************************************
Task 24
************************************************************************************************************
| Epoch   1, time=  2.5s | Train: skip eval | Valid: time=  0.2s loss=5.372, TAw acc= 51.7% | *
| Epoch   2, time=  2.5s | Train: skip eval | Valid: time=  0.2s loss=2.793, TAw acc= 77.0% | *
…
>>> Test on task 19 : loss=1.548 | TAw acc= 86.8%, forg=  0.9%| TAg acc= 50.9%, forg=  6.1% <<<
>>> Test on task 20 : loss=0.977 | TAw acc= 96.5%, forg=  0.0%| TAg acc= 75.7%, forg=  4.3% <<<
>>> Test on task 21 : loss=1.184 | TAw acc= 98.0%, forg=  0.0%| TAg acc= 63.3%, forg=  8.2% <<<
>>> Test on task 22 : loss=1.232 | TAw acc= 94.0%, forg=  2.6%| TAg acc= 60.7%, forg=  9.4% <<<
>>> Test on task 23 : loss=1.193 | TAw acc= 94.3%, forg= -0.8%| TAg acc= 68.9%, forg=  6.6% <<<
>>> Test on task 24 : loss=0.971 | TAw acc= 97.4%, forg=  0.0%| TAg acc= 75.0%, forg=  0.0% <<<
Save at k=100/eeil_e20_wisdm_5/wisdm_flex_eeil
======
LLL_Net(
  (model): SimpleMLP(
    (fc1): Linear(in_features=91, out_features=1000, bias=True)
    (fc2): Sequential()
  )
  (heads): ModuleList(
    (0): Linear(in_features=1000, out_features=34, bias=True)
    (1): Linear(in_features=1000, out_features=20, bias=True)
    (2): Linear(in_features=1000, out_features=20, bias=True)
    (3): Linear(in_features=1000, out_features=20, bias=True)
    (4): Linear(in_features=1000, out_features=20, bias=True)
    (5): Linear(in_features=1000, out_features=20, bias=True)
    (6): Linear(in_features=1000, out_features=20, bias=True)
    (7): Linear(in_features=1000, out_features=20, bias=True)
    (8): Linear(in_features=1000, out_features=20, bias=True)
    (9): Linear(in_features=1000, out_features=20, bias=True)
    (10): Linear(in_features=1000, out_features=20, bias=True)
    (11): Linear(in_features=1000, out_features=20, bias=True)
    (12): Linear(in_features=1000, out_features=20, bias=True)
    (13): Linear(in_features=1000, out_features=20, bias=True)
    (14): Linear(in_features=1000, out_features=20, bias=True)
    (15): Linear(in_features=1000, out_features=20, bias=True)
    (16): Linear(in_features=1000, out_features=20, bias=True)
    (17): Linear(in_features=1000, out_features=20, bias=True)
    (18): Linear(in_features=1000, out_features=20, bias=True)
    (19): Linear(in_features=1000, out_features=20, bias=True)
    (20): Linear(in_features=1000, out_features=20, bias=True)
    (21): Linear(in_features=1000, out_features=20, bias=True)
    (22): Linear(in_features=1000, out_features=20, bias=True)
    (23): Linear(in_features=1000, out_features=20, bias=True)
    (24): Linear(in_features=1000, out_features=20, bias=True)
  )
)
======

************************************************************************************************************
Task 25
************************************************************************************************************
| Epoch   1, time=  2.5s | Train: skip eval | Valid: time=  0.2s loss=6.853, TAw acc= 32.9% | *
| Epoch   2, time=  2.6s | Train: skip eval | Valid: time=  0.2s loss=4.075, TAw acc= 61.4% | *
…
>>> Test on task 20 : loss=0.969 | TAw acc= 97.4%, forg= -0.9%| TAg acc= 78.3%, forg=  1.7% <<<
>>> Test on task 21 : loss=1.250 | TAw acc= 98.0%, forg=  0.0%| TAg acc= 61.2%, forg= 10.2% <<<
>>> Test on task 22 : loss=1.379 | TAw acc= 94.9%, forg=  1.7%| TAg acc= 52.1%, forg= 17.9% <<<
>>> Test on task 23 : loss=1.100 | TAw acc= 95.1%, forg= -0.8%| TAg acc= 68.9%, forg=  6.6% <<<
>>> Test on task 24 : loss=1.180 | TAw acc= 98.3%, forg= -0.9%| TAg acc= 62.1%, forg= 12.9% <<<
>>> Test on task 25 : loss=1.353 | TAw acc= 90.6%, forg=  0.0%| TAg acc= 70.8%, forg=  0.0% <<<
Save at k=100/eeil_e20_wisdm_5/wisdm_flex_eeil
======
LLL_Net(
  (model): SimpleMLP(
    (fc1): Linear(in_features=91, out_features=1000, bias=True)
    (fc2): Sequential()
  )
  (heads): ModuleList(
    (0): Linear(in_features=1000, out_features=34, bias=True)
    (1): Linear(in_features=1000, out_features=20, bias=True)
    (2): Linear(in_features=1000, out_features=20, bias=True)
    (3): Linear(in_features=1000, out_features=20, bias=True)
    (4): Linear(in_features=1000, out_features=20, bias=True)
    (5): Linear(in_features=1000, out_features=20, bias=True)
    (6): Linear(in_features=1000, out_features=20, bias=True)
    (7): Linear(in_features=1000, out_features=20, bias=True)
    (8): Linear(in_features=1000, out_features=20, bias=True)
    (9): Linear(in_features=1000, out_features=20, bias=True)
    (10): Linear(in_features=1000, out_features=20, bias=True)
    (11): Linear(in_features=1000, out_features=20, bias=True)
    (12): Linear(in_features=1000, out_features=20, bias=True)
    (13): Linear(in_features=1000, out_features=20, bias=True)
    (14): Linear(in_features=1000, out_features=20, bias=True)
    (15): Linear(in_features=1000, out_features=20, bias=True)
    (16): Linear(in_features=1000, out_features=20, bias=True)
    (17): Linear(in_features=1000, out_features=20, bias=True)
    (18): Linear(in_features=1000, out_features=20, bias=True)
    (19): Linear(in_features=1000, out_features=20, bias=True)
    (20): Linear(in_features=1000, out_features=20, bias=True)
    (21): Linear(in_features=1000, out_features=20, bias=True)
    (22): Linear(in_features=1000, out_features=20, bias=True)
    (23): Linear(in_features=1000, out_features=20, bias=True)
    (24): Linear(in_features=1000, out_features=20, bias=True)
    (25): Linear(in_features=1000, out_features=20, bias=True)
  )
)
======

************************************************************************************************************
Task 26
************************************************************************************************************
| Epoch   1, time=  2.8s | Train: skip eval | Valid: time=  0.2s loss=4.948, TAw acc= 64.4% | *
| Epoch   2, time=  2.6s | Train: skip eval | Valid: time=  0.2s loss=2.206, TAw acc= 86.2% | *
…
>>> Test on task 21 : loss=1.215 | TAw acc= 98.0%, forg=  0.0%| TAg acc= 63.3%, forg=  8.2% <<<
>>> Test on task 22 : loss=1.262 | TAw acc= 95.7%, forg=  0.9%| TAg acc= 63.2%, forg=  6.8% <<<
>>> Test on task 23 : loss=1.075 | TAw acc= 95.1%, forg=  0.0%| TAg acc= 73.8%, forg=  1.6% <<<
>>> Test on task 24 : loss=1.190 | TAw acc= 98.3%, forg=  0.0%| TAg acc= 68.1%, forg=  6.9% <<<
>>> Test on task 25 : loss=1.690 | TAw acc= 92.7%, forg= -2.1%| TAg acc= 47.9%, forg= 22.9% <<<
>>> Test on task 26 : loss=1.077 | TAw acc= 96.6%, forg=  0.0%| TAg acc= 73.3%, forg=  0.0% <<<
Save at k=100/eeil_e20_wisdm_5/wisdm_flex_eeil
======
LLL_Net(
  (model): SimpleMLP(
    (fc1): Linear(in_features=91, out_features=1000, bias=True)
    (fc2): Sequential()
  )
  (heads): ModuleList(
    (0): Linear(in_features=1000, out_features=34, bias=True)
    (1): Linear(in_features=1000, out_features=20, bias=True)
    (2): Linear(in_features=1000, out_features=20, bias=True)
    (3): Linear(in_features=1000, out_features=20, bias=True)
    (4): Linear(in_features=1000, out_features=20, bias=True)
    (5): Linear(in_features=1000, out_features=20, bias=True)
    (6): Linear(in_features=1000, out_features=20, bias=True)
    (7): Linear(in_features=1000, out_features=20, bias=True)
    (8): Linear(in_features=1000, out_features=20, bias=True)
    (9): Linear(in_features=1000, out_features=20, bias=True)
    (10): Linear(in_features=1000, out_features=20, bias=True)
    (11): Linear(in_features=1000, out_features=20, bias=True)
    (12): Linear(in_features=1000, out_features=20, bias=True)
    (13): Linear(in_features=1000, out_features=20, bias=True)
    (14): Linear(in_features=1000, out_features=20, bias=True)
    (15): Linear(in_features=1000, out_features=20, bias=True)
    (16): Linear(in_features=1000, out_features=20, bias=True)
    (17): Linear(in_features=1000, out_features=20, bias=True)
    (18): Linear(in_features=1000, out_features=20, bias=True)
    (19): Linear(in_features=1000, out_features=20, bias=True)
    (20): Linear(in_features=1000, out_features=20, bias=True)
    (21): Linear(in_features=1000, out_features=20, bias=True)
    (22): Linear(in_features=1000, out_features=20, bias=True)
    (23): Linear(in_features=1000, out_features=20, bias=True)
    (24): Linear(in_features=1000, out_features=20, bias=True)
    (25): Linear(in_features=1000, out_features=20, bias=True)
    (26): Linear(in_features=1000, out_features=20, bias=True)
  )
)
======

************************************************************************************************************
Task 27
************************************************************************************************************
| Epoch   1, time=  2.9s | Train: skip eval | Valid: time=  0.2s loss=6.234, TAw acc= 45.8% | *
| Epoch   2, time=  2.9s | Train: skip eval | Valid: time=  0.2s loss=3.273, TAw acc= 61.1% | *
…
>>> Test on task 22 : loss=1.194 | TAw acc= 95.7%, forg=  0.9%| TAg acc= 68.4%, forg=  1.7% <<<
>>> Test on task 23 : loss=1.018 | TAw acc= 93.4%, forg=  1.6%| TAg acc= 74.6%, forg=  0.8% <<<
>>> Test on task 24 : loss=1.114 | TAw acc= 98.3%, forg=  0.0%| TAg acc= 66.4%, forg=  8.6% <<<
>>> Test on task 25 : loss=1.627 | TAw acc= 92.7%, forg=  0.0%| TAg acc= 55.2%, forg= 15.6% <<<
>>> Test on task 26 : loss=1.437 | TAw acc= 97.4%, forg= -0.9%| TAg acc= 59.5%, forg= 13.8% <<<
>>> Test on task 27 : loss=1.196 | TAw acc= 97.0%, forg=  0.0%| TAg acc= 70.0%, forg=  0.0% <<<
Save at k=100/eeil_e20_wisdm_5/wisdm_flex_eeil
======
LLL_Net(
  (model): SimpleMLP(
    (fc1): Linear(in_features=91, out_features=1000, bias=True)
    (fc2): Sequential()
  )
  (heads): ModuleList(
    (0): Linear(in_features=1000, out_features=34, bias=True)
    (1): Linear(in_features=1000, out_features=20, bias=True)
    (2): Linear(in_features=1000, out_features=20, bias=True)
    (3): Linear(in_features=1000, out_features=20, bias=True)
    (4): Linear(in_features=1000, out_features=20, bias=True)
    (5): Linear(in_features=1000, out_features=20, bias=True)
    (6): Linear(in_features=1000, out_features=20, bias=True)
    (7): Linear(in_features=1000, out_features=20, bias=True)
    (8): Linear(in_features=1000, out_features=20, bias=True)
    (9): Linear(in_features=1000, out_features=20, bias=True)
    (10): Linear(in_features=1000, out_features=20, bias=True)
    (11): Linear(in_features=1000, out_features=20, bias=True)
    (12): Linear(in_features=1000, out_features=20, bias=True)
    (13): Linear(in_features=1000, out_features=20, bias=True)
    (14): Linear(in_features=1000, out_features=20, bias=True)
    (15): Linear(in_features=1000, out_features=20, bias=True)
    (16): Linear(in_features=1000, out_features=20, bias=True)
    (17): Linear(in_features=1000, out_features=20, bias=True)
    (18): Linear(in_features=1000, out_features=20, bias=True)
    (19): Linear(in_features=1000, out_features=20, bias=True)
    (20): Linear(in_features=1000, out_features=20, bias=True)
    (21): Linear(in_features=1000, out_features=20, bias=True)
    (22): Linear(in_features=1000, out_features=20, bias=True)
    (23): Linear(in_features=1000, out_features=20, bias=True)
    (24): Linear(in_features=1000, out_features=20, bias=True)
    (25): Linear(in_features=1000, out_features=20, bias=True)
    (26): Linear(in_features=1000, out_features=20, bias=True)
    (27): Linear(in_features=1000, out_features=20, bias=True)
  )
)
======

************************************************************************************************************
Task 28
************************************************************************************************************
| Epoch   1, time=  3.1s | Train: skip eval | Valid: time=  0.2s loss=5.834, TAw acc= 53.8% | *
| Epoch   2, time=  3.1s | Train: skip eval | Valid: time=  0.2s loss=2.822, TAw acc= 79.5% | *
…
>>> Test on task 23 : loss=0.990 | TAw acc= 93.4%, forg=  1.6%| TAg acc= 77.9%, forg= -2.5% <<<
>>> Test on task 24 : loss=1.114 | TAw acc= 98.3%, forg=  0.0%| TAg acc= 71.6%, forg=  3.4% <<<
>>> Test on task 25 : loss=1.499 | TAw acc= 93.8%, forg= -1.0%| TAg acc= 57.3%, forg= 13.5% <<<
>>> Test on task 26 : loss=1.469 | TAw acc= 97.4%, forg=  0.0%| TAg acc= 53.4%, forg= 19.8% <<<
>>> Test on task 27 : loss=1.484 | TAw acc= 96.0%, forg=  1.0%| TAg acc= 57.0%, forg= 13.0% <<<
>>> Test on task 28 : loss=1.070 | TAw acc= 98.1%, forg=  0.0%| TAg acc= 73.8%, forg=  0.0% <<<
Save at k=100/eeil_e20_wisdm_5/wisdm_flex_eeil
======
LLL_Net(
  (model): SimpleMLP(
    (fc1): Linear(in_features=91, out_features=1000, bias=True)
    (fc2): Sequential()
  )
  (heads): ModuleList(
    (0): Linear(in_features=1000, out_features=34, bias=True)
    (1): Linear(in_features=1000, out_features=20, bias=True)
    (2): Linear(in_features=1000, out_features=20, bias=True)
    (3): Linear(in_features=1000, out_features=20, bias=True)
    (4): Linear(in_features=1000, out_features=20, bias=True)
    (5): Linear(in_features=1000, out_features=20, bias=True)
    (6): Linear(in_features=1000, out_features=20, bias=True)
    (7): Linear(in_features=1000, out_features=20, bias=True)
    (8): Linear(in_features=1000, out_features=20, bias=True)
    (9): Linear(in_features=1000, out_features=20, bias=True)
    (10): Linear(in_features=1000, out_features=20, bias=True)
    (11): Linear(in_features=1000, out_features=20, bias=True)
    (12): Linear(in_features=1000, out_features=20, bias=True)
    (13): Linear(in_features=1000, out_features=20, bias=True)
    (14): Linear(in_features=1000, out_features=20, bias=True)
    (15): Linear(in_features=1000, out_features=20, bias=True)
    (16): Linear(in_features=1000, out_features=20, bias=True)
    (17): Linear(in_features=1000, out_features=20, bias=True)
    (18): Linear(in_features=1000, out_features=20, bias=True)
    (19): Linear(in_features=1000, out_features=20, bias=True)
    (20): Linear(in_features=1000, out_features=20, bias=True)
    (21): Linear(in_features=1000, out_features=20, bias=True)
    (22): Linear(in_features=1000, out_features=20, bias=True)
    (23): Linear(in_features=1000, out_features=20, bias=True)
    (24): Linear(in_features=1000, out_features=20, bias=True)
    (25): Linear(in_features=1000, out_features=20, bias=True)
    (26): Linear(in_features=1000, out_features=20, bias=True)
    (27): Linear(in_features=1000, out_features=20, bias=True)
    (28): Linear(in_features=1000, out_features=20, bias=True)
  )
)
======

************************************************************************************************************
Task 29
************************************************************************************************************
| Epoch   1, time=  3.2s | Train: skip eval | Valid: time=  0.2s loss=5.203, TAw acc= 57.6% | *
| Epoch   2, time=  3.1s | Train: skip eval | Valid: time=  0.2s loss=2.328, TAw acc= 82.4% | *
…
>>> Test on task 24 : loss=1.098 | TAw acc= 98.3%, forg=  0.0%| TAg acc= 70.7%, forg=  4.3% <<<
>>> Test on task 25 : loss=1.570 | TAw acc= 93.8%, forg=  0.0%| TAg acc= 54.2%, forg= 16.7% <<<
>>> Test on task 26 : loss=1.586 | TAw acc= 97.4%, forg=  0.0%| TAg acc= 50.9%, forg= 22.4% <<<
>>> Test on task 27 : loss=1.486 | TAw acc= 98.0%, forg= -1.0%| TAg acc= 50.0%, forg= 20.0% <<<
>>> Test on task 28 : loss=1.360 | TAw acc= 96.3%, forg=  1.9%| TAg acc= 54.2%, forg= 19.6% <<<
>>> Test on task 29 : loss=0.827 | TAw acc= 96.5%, forg=  0.0%| TAg acc= 72.8%, forg=  0.0% <<<
Save at k=100/eeil_e20_wisdm_5/wisdm_flex_eeil
======
LLL_Net(
  (model): SimpleMLP(
    (fc1): Linear(in_features=91, out_features=1000, bias=True)
    (fc2): Sequential()
  )
  (heads): ModuleList(
    (0): Linear(in_features=1000, out_features=34, bias=True)
    (1): Linear(in_features=1000, out_features=20, bias=True)
    (2): Linear(in_features=1000, out_features=20, bias=True)
    (3): Linear(in_features=1000, out_features=20, bias=True)
    (4): Linear(in_features=1000, out_features=20, bias=True)
    (5): Linear(in_features=1000, out_features=20, bias=True)
    (6): Linear(in_features=1000, out_features=20, bias=True)
    (7): Linear(in_features=1000, out_features=20, bias=True)
    (8): Linear(in_features=1000, out_features=20, bias=True)
    (9): Linear(in_features=1000, out_features=20, bias=True)
    (10): Linear(in_features=1000, out_features=20, bias=True)
    (11): Linear(in_features=1000, out_features=20, bias=True)
    (12): Linear(in_features=1000, out_features=20, bias=True)
    (13): Linear(in_features=1000, out_features=20, bias=True)
    (14): Linear(in_features=1000, out_features=20, bias=True)
    (15): Linear(in_features=1000, out_features=20, bias=True)
    (16): Linear(in_features=1000, out_features=20, bias=True)
    (17): Linear(in_features=1000, out_features=20, bias=True)
    (18): Linear(in_features=1000, out_features=20, bias=True)
    (19): Linear(in_features=1000, out_features=20, bias=True)
    (20): Linear(in_features=1000, out_features=20, bias=True)
    (21): Linear(in_features=1000, out_features=20, bias=True)
    (22): Linear(in_features=1000, out_features=20, bias=True)
    (23): Linear(in_features=1000, out_features=20, bias=True)
    (24): Linear(in_features=1000, out_features=20, bias=True)
    (25): Linear(in_features=1000, out_features=20, bias=True)
    (26): Linear(in_features=1000, out_features=20, bias=True)
    (27): Linear(in_features=1000, out_features=20, bias=True)
    (28): Linear(in_features=1000, out_features=20, bias=True)
    (29): Linear(in_features=1000, out_features=20, bias=True)
  )
)
======

************************************************************************************************************
Task 30
************************************************************************************************************
| Epoch   1, time=  3.5s | Train: skip eval | Valid: time=  0.2s loss=4.915, TAw acc= 57.8% | *
| Epoch   2, time=  3.5s | Train: skip eval | Valid: time=  0.2s loss=2.674, TAw acc= 79.5% | *
…
>>> Test on task 25 : loss=1.540 | TAw acc= 93.8%, forg=  0.0%| TAg acc= 57.3%, forg= 13.5% <<<
>>> Test on task 26 : loss=1.399 | TAw acc= 97.4%, forg=  0.0%| TAg acc= 53.4%, forg= 19.8% <<<
>>> Test on task 27 : loss=1.512 | TAw acc= 95.0%, forg=  3.0%| TAg acc= 52.0%, forg= 18.0% <<<
>>> Test on task 28 : loss=1.324 | TAw acc= 99.1%, forg= -0.9%| TAg acc= 60.7%, forg= 13.1% <<<
>>> Test on task 29 : loss=1.088 | TAw acc= 95.6%, forg=  0.9%| TAg acc= 65.8%, forg=  7.0% <<<
>>> Test on task 30 : loss=1.151 | TAw acc= 93.8%, forg=  0.0%| TAg acc= 69.6%, forg=  0.0% <<<
Save at k=100/eeil_e20_wisdm_5/wisdm_flex_eeil
======
LLL_Net(
  (model): SimpleMLP(
    (fc1): Linear(in_features=91, out_features=1000, bias=True)
    (fc2): Sequential()
  )
  (heads): ModuleList(
    (0): Linear(in_features=1000, out_features=34, bias=True)
    (1): Linear(in_features=1000, out_features=20, bias=True)
    (2): Linear(in_features=1000, out_features=20, bias=True)
    (3): Linear(in_features=1000, out_features=20, bias=True)
    (4): Linear(in_features=1000, out_features=20, bias=True)
    (5): Linear(in_features=1000, out_features=20, bias=True)
    (6): Linear(in_features=1000, out_features=20, bias=True)
    (7): Linear(in_features=1000, out_features=20, bias=True)
    (8): Linear(in_features=1000, out_features=20, bias=True)
    (9): Linear(in_features=1000, out_features=20, bias=True)
    (10): Linear(in_features=1000, out_features=20, bias=True)
    (11): Linear(in_features=1000, out_features=20, bias=True)
    (12): Linear(in_features=1000, out_features=20, bias=True)
    (13): Linear(in_features=1000, out_features=20, bias=True)
    (14): Linear(in_features=1000, out_features=20, bias=True)
    (15): Linear(in_features=1000, out_features=20, bias=True)
    (16): Linear(in_features=1000, out_features=20, bias=True)
    (17): Linear(in_features=1000, out_features=20, bias=True)
    (18): Linear(in_features=1000, out_features=20, bias=True)
    (19): Linear(in_features=1000, out_features=20, bias=True)
    (20): Linear(in_features=1000, out_features=20, bias=True)
    (21): Linear(in_features=1000, out_features=20, bias=True)
    (22): Linear(in_features=1000, out_features=20, bias=True)
    (23): Linear(in_features=1000, out_features=20, bias=True)
    (24): Linear(in_features=1000, out_features=20, bias=True)
    (25): Linear(in_features=1000, out_features=20, bias=True)
    (26): Linear(in_features=1000, out_features=20, bias=True)
    (27): Linear(in_features=1000, out_features=20, bias=True)
    (28): Linear(in_features=1000, out_features=20, bias=True)
    (29): Linear(in_features=1000, out_features=20, bias=True)
    (30): Linear(in_features=1000, out_features=20, bias=True)
  )
)
======

************************************************************************************************************
Task 31
************************************************************************************************************
| Epoch   1, time=  3.5s | Train: skip eval | Valid: time=  0.2s loss=6.067, TAw acc= 47.0% | *
| Epoch   2, time=  3.7s | Train: skip eval | Valid: time=  0.2s loss=2.935, TAw acc= 78.3% | *
…
>>> Test on task 26 : loss=1.463 | TAw acc= 97.4%, forg=  0.0%| TAg acc= 55.2%, forg= 18.1% <<<
>>> Test on task 27 : loss=1.455 | TAw acc= 95.0%, forg=  3.0%| TAg acc= 63.0%, forg=  7.0% <<<
>>> Test on task 28 : loss=1.267 | TAw acc= 98.1%, forg=  0.9%| TAg acc= 61.7%, forg= 12.1% <<<
>>> Test on task 29 : loss=1.040 | TAw acc= 96.5%, forg=  0.0%| TAg acc= 68.4%, forg=  4.4% <<<
>>> Test on task 30 : loss=1.384 | TAw acc= 95.5%, forg= -1.8%| TAg acc= 57.1%, forg= 12.5% <<<
>>> Test on task 31 : loss=0.968 | TAw acc= 97.3%, forg=  0.0%| TAg acc= 77.9%, forg=  0.0% <<<
Save at k=100/eeil_e20_wisdm_5/wisdm_flex_eeil
======
LLL_Net(
  (model): SimpleMLP(
    (fc1): Linear(in_features=91, out_features=1000, bias=True)
    (fc2): Sequential()
  )
  (heads): ModuleList(
    (0): Linear(in_features=1000, out_features=34, bias=True)
    (1): Linear(in_features=1000, out_features=20, bias=True)
    (2): Linear(in_features=1000, out_features=20, bias=True)
    (3): Linear(in_features=1000, out_features=20, bias=True)
    (4): Linear(in_features=1000, out_features=20, bias=True)
    (5): Linear(in_features=1000, out_features=20, bias=True)
    (6): Linear(in_features=1000, out_features=20, bias=True)
    (7): Linear(in_features=1000, out_features=20, bias=True)
    (8): Linear(in_features=1000, out_features=20, bias=True)
    (9): Linear(in_features=1000, out_features=20, bias=True)
    (10): Linear(in_features=1000, out_features=20, bias=True)
    (11): Linear(in_features=1000, out_features=20, bias=True)
    (12): Linear(in_features=1000, out_features=20, bias=True)
    (13): Linear(in_features=1000, out_features=20, bias=True)
    (14): Linear(in_features=1000, out_features=20, bias=True)
    (15): Linear(in_features=1000, out_features=20, bias=True)
    (16): Linear(in_features=1000, out_features=20, bias=True)
    (17): Linear(in_features=1000, out_features=20, bias=True)
    (18): Linear(in_features=1000, out_features=20, bias=True)
    (19): Linear(in_features=1000, out_features=20, bias=True)
    (20): Linear(in_features=1000, out_features=20, bias=True)
    (21): Linear(in_features=1000, out_features=20, bias=True)
    (22): Linear(in_features=1000, out_features=20, bias=True)
    (23): Linear(in_features=1000, out_features=20, bias=True)
    (24): Linear(in_features=1000, out_features=20, bias=True)
    (25): Linear(in_features=1000, out_features=20, bias=True)
    (26): Linear(in_features=1000, out_features=20, bias=True)
    (27): Linear(in_features=1000, out_features=20, bias=True)
    (28): Linear(in_features=1000, out_features=20, bias=True)
    (29): Linear(in_features=1000, out_features=20, bias=True)
    (30): Linear(in_features=1000, out_features=20, bias=True)
    (31): Linear(in_features=1000, out_features=20, bias=True)
  )
)
======

************************************************************************************************************
Task 32
************************************************************************************************************
| Epoch   1, time=  3.9s | Train: skip eval | Valid: time=  0.2s loss=5.415, TAw acc= 65.1% | *
| Epoch   2, time=  4.4s | Train: skip eval | Valid: time=  0.2s loss=2.607, TAw acc= 78.3% | *
…
>>> Test on task 27 : loss=1.535 | TAw acc= 97.0%, forg=  1.0%| TAg acc= 60.0%, forg= 10.0% <<<
>>> Test on task 28 : loss=1.173 | TAw acc= 99.1%, forg=  0.0%| TAg acc= 67.3%, forg=  6.5% <<<
>>> Test on task 29 : loss=0.973 | TAw acc= 96.5%, forg=  0.0%| TAg acc= 71.9%, forg=  0.9% <<<
>>> Test on task 30 : loss=1.411 | TAw acc= 96.4%, forg= -0.9%| TAg acc= 58.9%, forg= 10.7% <<<
>>> Test on task 31 : loss=1.225 | TAw acc= 98.2%, forg= -0.9%| TAg acc= 65.5%, forg= 12.4% <<<
>>> Test on task 32 : loss=1.261 | TAw acc= 96.4%, forg=  0.0%| TAg acc= 68.8%, forg=  0.0% <<<
Save at k=100/eeil_e20_wisdm_5/wisdm_flex_eeil
======
LLL_Net(
  (model): SimpleMLP(
    (fc1): Linear(in_features=91, out_features=1000, bias=True)
    (fc2): Sequential()
  )
  (heads): ModuleList(
    (0): Linear(in_features=1000, out_features=34, bias=True)
    (1): Linear(in_features=1000, out_features=20, bias=True)
    (2): Linear(in_features=1000, out_features=20, bias=True)
    (3): Linear(in_features=1000, out_features=20, bias=True)
    (4): Linear(in_features=1000, out_features=20, bias=True)
    (5): Linear(in_features=1000, out_features=20, bias=True)
    (6): Linear(in_features=1000, out_features=20, bias=True)
    (7): Linear(in_features=1000, out_features=20, bias=True)
    (8): Linear(in_features=1000, out_features=20, bias=True)
    (9): Linear(in_features=1000, out_features=20, bias=True)
    (10): Linear(in_features=1000, out_features=20, bias=True)
    (11): Linear(in_features=1000, out_features=20, bias=True)
    (12): Linear(in_features=1000, out_features=20, bias=True)
    (13): Linear(in_features=1000, out_features=20, bias=True)
    (14): Linear(in_features=1000, out_features=20, bias=True)
    (15): Linear(in_features=1000, out_features=20, bias=True)
    (16): Linear(in_features=1000, out_features=20, bias=True)
    (17): Linear(in_features=1000, out_features=20, bias=True)
    (18): Linear(in_features=1000, out_features=20, bias=True)
    (19): Linear(in_features=1000, out_features=20, bias=True)
    (20): Linear(in_features=1000, out_features=20, bias=True)
    (21): Linear(in_features=1000, out_features=20, bias=True)
    (22): Linear(in_features=1000, out_features=20, bias=True)
    (23): Linear(in_features=1000, out_features=20, bias=True)
    (24): Linear(in_features=1000, out_features=20, bias=True)
    (25): Linear(in_features=1000, out_features=20, bias=True)
    (26): Linear(in_features=1000, out_features=20, bias=True)
    (27): Linear(in_features=1000, out_features=20, bias=True)
    (28): Linear(in_features=1000, out_features=20, bias=True)
    (29): Linear(in_features=1000, out_features=20, bias=True)
    (30): Linear(in_features=1000, out_features=20, bias=True)
    (31): Linear(in_features=1000, out_features=20, bias=True)
    (32): Linear(in_features=1000, out_features=20, bias=True)
  )
)
======

************************************************************************************************************
Task 33
************************************************************************************************************
| Epoch   1, time=  4.2s | Train: skip eval | Valid: time=  0.2s loss=7.341, TAw acc= 47.4% | *
| Epoch   2, time=  3.9s | Train: skip eval | Valid: time=  0.2s loss=3.431, TAw acc= 77.6% | *
…
>>> Test on task 28 : loss=1.135 | TAw acc= 99.1%, forg=  0.0%| TAg acc= 70.1%, forg=  3.7% <<<
>>> Test on task 29 : loss=1.027 | TAw acc= 97.4%, forg= -0.9%| TAg acc= 68.4%, forg=  4.4% <<<
>>> Test on task 30 : loss=1.343 | TAw acc= 95.5%, forg=  0.9%| TAg acc= 62.5%, forg=  7.1% <<<
>>> Test on task 31 : loss=1.149 | TAw acc= 98.2%, forg=  0.0%| TAg acc= 66.4%, forg= 11.5% <<<
>>> Test on task 32 : loss=1.762 | TAw acc= 96.4%, forg=  0.0%| TAg acc= 45.5%, forg= 23.2% <<<
>>> Test on task 33 : loss=0.949 | TAw acc= 96.2%, forg=  0.0%| TAg acc= 76.9%, forg=  0.0% <<<
Save at k=100/eeil_e20_wisdm_5/wisdm_flex_eeil
======
LLL_Net(
  (model): SimpleMLP(
    (fc1): Linear(in_features=91, out_features=1000, bias=True)
    (fc2): Sequential()
  )
  (heads): ModuleList(
    (0): Linear(in_features=1000, out_features=34, bias=True)
    (1): Linear(in_features=1000, out_features=20, bias=True)
    (2): Linear(in_features=1000, out_features=20, bias=True)
    (3): Linear(in_features=1000, out_features=20, bias=True)
    (4): Linear(in_features=1000, out_features=20, bias=True)
    (5): Linear(in_features=1000, out_features=20, bias=True)
    (6): Linear(in_features=1000, out_features=20, bias=True)
    (7): Linear(in_features=1000, out_features=20, bias=True)
    (8): Linear(in_features=1000, out_features=20, bias=True)
    (9): Linear(in_features=1000, out_features=20, bias=True)
    (10): Linear(in_features=1000, out_features=20, bias=True)
    (11): Linear(in_features=1000, out_features=20, bias=True)
    (12): Linear(in_features=1000, out_features=20, bias=True)
    (13): Linear(in_features=1000, out_features=20, bias=True)
    (14): Linear(in_features=1000, out_features=20, bias=True)
    (15): Linear(in_features=1000, out_features=20, bias=True)
    (16): Linear(in_features=1000, out_features=20, bias=True)
    (17): Linear(in_features=1000, out_features=20, bias=True)
    (18): Linear(in_features=1000, out_features=20, bias=True)
    (19): Linear(in_features=1000, out_features=20, bias=True)
    (20): Linear(in_features=1000, out_features=20, bias=True)
    (21): Linear(in_features=1000, out_features=20, bias=True)
    (22): Linear(in_features=1000, out_features=20, bias=True)
    (23): Linear(in_features=1000, out_features=20, bias=True)
    (24): Linear(in_features=1000, out_features=20, bias=True)
    (25): Linear(in_features=1000, out_features=20, bias=True)
    (26): Linear(in_features=1000, out_features=20, bias=True)
    (27): Linear(in_features=1000, out_features=20, bias=True)
    (28): Linear(in_features=1000, out_features=20, bias=True)
    (29): Linear(in_features=1000, out_features=20, bias=True)
    (30): Linear(in_features=1000, out_features=20, bias=True)
    (31): Linear(in_features=1000, out_features=20, bias=True)
    (32): Linear(in_features=1000, out_features=20, bias=True)
    (33): Linear(in_features=1000, out_features=20, bias=True)
  )
)
======

************************************************************************************************************
Task 34
************************************************************************************************************
| Epoch   1, time=  4.1s | Train: skip eval | Valid: time=  0.2s loss=8.109, TAw acc= 34.8% | *
| Epoch   2, time=  4.0s | Train: skip eval | Valid: time=  0.2s loss=3.983, TAw acc= 69.6% | *
…
>>> Test on task 29 : loss=0.926 | TAw acc= 96.5%, forg=  0.9%| TAg acc= 72.8%, forg=  0.0% <<<
>>> Test on task 30 : loss=1.290 | TAw acc= 95.5%, forg=  0.9%| TAg acc= 61.6%, forg=  8.0% <<<
>>> Test on task 31 : loss=1.172 | TAw acc= 98.2%, forg=  0.0%| TAg acc= 68.1%, forg=  9.7% <<<
>>> Test on task 32 : loss=1.668 | TAw acc= 96.4%, forg=  0.0%| TAg acc= 51.8%, forg= 17.0% <<<
>>> Test on task 33 : loss=1.186 | TAw acc= 98.1%, forg= -1.9%| TAg acc= 58.7%, forg= 18.3% <<<
>>> Test on task 34 : loss=1.084 | TAw acc= 96.9%, forg=  0.0%| TAg acc= 70.8%, forg=  0.0% <<<
Save at k=100/eeil_e20_wisdm_5/wisdm_flex_eeil
======
LLL_Net(
  (model): SimpleMLP(
    (fc1): Linear(in_features=91, out_features=1000, bias=True)
    (fc2): Sequential()
  )
  (heads): ModuleList(
    (0): Linear(in_features=1000, out_features=34, bias=True)
    (1): Linear(in_features=1000, out_features=20, bias=True)
    (2): Linear(in_features=1000, out_features=20, bias=True)
    (3): Linear(in_features=1000, out_features=20, bias=True)
    (4): Linear(in_features=1000, out_features=20, bias=True)
    (5): Linear(in_features=1000, out_features=20, bias=True)
    (6): Linear(in_features=1000, out_features=20, bias=True)
    (7): Linear(in_features=1000, out_features=20, bias=True)
    (8): Linear(in_features=1000, out_features=20, bias=True)
    (9): Linear(in_features=1000, out_features=20, bias=True)
    (10): Linear(in_features=1000, out_features=20, bias=True)
    (11): Linear(in_features=1000, out_features=20, bias=True)
    (12): Linear(in_features=1000, out_features=20, bias=True)
    (13): Linear(in_features=1000, out_features=20, bias=True)
    (14): Linear(in_features=1000, out_features=20, bias=True)
    (15): Linear(in_features=1000, out_features=20, bias=True)
    (16): Linear(in_features=1000, out_features=20, bias=True)
    (17): Linear(in_features=1000, out_features=20, bias=True)
    (18): Linear(in_features=1000, out_features=20, bias=True)
    (19): Linear(in_features=1000, out_features=20, bias=True)
    (20): Linear(in_features=1000, out_features=20, bias=True)
    (21): Linear(in_features=1000, out_features=20, bias=True)
    (22): Linear(in_features=1000, out_features=20, bias=True)
    (23): Linear(in_features=1000, out_features=20, bias=True)
    (24): Linear(in_features=1000, out_features=20, bias=True)
    (25): Linear(in_features=1000, out_features=20, bias=True)
    (26): Linear(in_features=1000, out_features=20, bias=True)
    (27): Linear(in_features=1000, out_features=20, bias=True)
    (28): Linear(in_features=1000, out_features=20, bias=True)
    (29): Linear(in_features=1000, out_features=20, bias=True)
    (30): Linear(in_features=1000, out_features=20, bias=True)
    (31): Linear(in_features=1000, out_features=20, bias=True)
    (32): Linear(in_features=1000, out_features=20, bias=True)
    (33): Linear(in_features=1000, out_features=20, bias=True)
    (34): Linear(in_features=1000, out_features=20, bias=True)
  )
)
======

************************************************************************************************************
Task 35
************************************************************************************************************
| Epoch   1, time=  4.7s | Train: skip eval | Valid: time=  0.2s loss=5.767, TAw acc= 55.4% | *
| Epoch   2, time=  4.4s | Train: skip eval | Valid: time=  0.2s loss=2.611, TAw acc= 73.5% | *
…
>>> Test on task 30 : loss=1.348 | TAw acc= 96.4%, forg=  0.0%| TAg acc= 65.2%, forg=  4.5% <<<
>>> Test on task 31 : loss=1.150 | TAw acc= 98.2%, forg=  0.0%| TAg acc= 69.0%, forg=  8.8% <<<
>>> Test on task 32 : loss=1.589 | TAw acc= 96.4%, forg=  0.0%| TAg acc= 57.1%, forg= 11.6% <<<
>>> Test on task 33 : loss=1.142 | TAw acc= 98.1%, forg=  0.0%| TAg acc= 59.6%, forg= 17.3% <<<
>>> Test on task 34 : loss=1.315 | TAw acc= 96.9%, forg=  0.0%| TAg acc= 61.5%, forg=  9.4% <<<
>>> Test on task 35 : loss=1.009 | TAw acc= 92.9%, forg=  0.0%| TAg acc= 71.4%, forg=  0.0% <<<
Save at k=100/eeil_e20_wisdm_5/wisdm_flex_eeil
======
LLL_Net(
  (model): SimpleMLP(
    (fc1): Linear(in_features=91, out_features=1000, bias=True)
    (fc2): Sequential()
  )
  (heads): ModuleList(
    (0): Linear(in_features=1000, out_features=34, bias=True)
    (1): Linear(in_features=1000, out_features=20, bias=True)
    (2): Linear(in_features=1000, out_features=20, bias=True)
    (3): Linear(in_features=1000, out_features=20, bias=True)
    (4): Linear(in_features=1000, out_features=20, bias=True)
    (5): Linear(in_features=1000, out_features=20, bias=True)
    (6): Linear(in_features=1000, out_features=20, bias=True)
    (7): Linear(in_features=1000, out_features=20, bias=True)
    (8): Linear(in_features=1000, out_features=20, bias=True)
    (9): Linear(in_features=1000, out_features=20, bias=True)
    (10): Linear(in_features=1000, out_features=20, bias=True)
    (11): Linear(in_features=1000, out_features=20, bias=True)
    (12): Linear(in_features=1000, out_features=20, bias=True)
    (13): Linear(in_features=1000, out_features=20, bias=True)
    (14): Linear(in_features=1000, out_features=20, bias=True)
    (15): Linear(in_features=1000, out_features=20, bias=True)
    (16): Linear(in_features=1000, out_features=20, bias=True)
    (17): Linear(in_features=1000, out_features=20, bias=True)
    (18): Linear(in_features=1000, out_features=20, bias=True)
    (19): Linear(in_features=1000, out_features=20, bias=True)
    (20): Linear(in_features=1000, out_features=20, bias=True)
    (21): Linear(in_features=1000, out_features=20, bias=True)
    (22): Linear(in_features=1000, out_features=20, bias=True)
    (23): Linear(in_features=1000, out_features=20, bias=True)
    (24): Linear(in_features=1000, out_features=20, bias=True)
    (25): Linear(in_features=1000, out_features=20, bias=True)
    (26): Linear(in_features=1000, out_features=20, bias=True)
    (27): Linear(in_features=1000, out_features=20, bias=True)
    (28): Linear(in_features=1000, out_features=20, bias=True)
    (29): Linear(in_features=1000, out_features=20, bias=True)
    (30): Linear(in_features=1000, out_features=20, bias=True)
    (31): Linear(in_features=1000, out_features=20, bias=True)
    (32): Linear(in_features=1000, out_features=20, bias=True)
    (33): Linear(in_features=1000, out_features=20, bias=True)
    (34): Linear(in_features=1000, out_features=20, bias=True)
    (35): Linear(in_features=1000, out_features=20, bias=True)
  )
)
======

************************************************************************************************************
Task 36
************************************************************************************************************
| Epoch   1, time=  4.5s | Train: skip eval | Valid: time=  0.2s loss=6.904, TAw acc= 48.7% | *
| Epoch   2, time=  4.4s | Train: skip eval | Valid: time=  0.2s loss=3.124, TAw acc= 79.5% | *
…
>>> Test on task 31 : loss=1.125 | TAw acc= 98.2%, forg=  0.0%| TAg acc= 71.7%, forg=  6.2% <<<
>>> Test on task 32 : loss=1.527 | TAw acc= 96.4%, forg=  0.0%| TAg acc= 60.7%, forg=  8.0% <<<
>>> Test on task 33 : loss=1.069 | TAw acc= 98.1%, forg=  0.0%| TAg acc= 64.4%, forg= 12.5% <<<
>>> Test on task 34 : loss=1.188 | TAw acc= 96.9%, forg=  0.0%| TAg acc= 66.7%, forg=  4.2% <<<
>>> Test on task 35 : loss=1.377 | TAw acc= 93.8%, forg= -0.9%| TAg acc= 58.0%, forg= 13.4% <<<
>>> Test on task 36 : loss=0.912 | TAw acc= 94.4%, forg=  0.0%| TAg acc= 78.5%, forg=  0.0% <<<
Save at k=100/eeil_e20_wisdm_5/wisdm_flex_eeil
======
LLL_Net(
  (model): SimpleMLP(
    (fc1): Linear(in_features=91, out_features=1000, bias=True)
    (fc2): Sequential()
  )
  (heads): ModuleList(
    (0): Linear(in_features=1000, out_features=34, bias=True)
    (1): Linear(in_features=1000, out_features=20, bias=True)
    (2): Linear(in_features=1000, out_features=20, bias=True)
    (3): Linear(in_features=1000, out_features=20, bias=True)
    (4): Linear(in_features=1000, out_features=20, bias=True)
    (5): Linear(in_features=1000, out_features=20, bias=True)
    (6): Linear(in_features=1000, out_features=20, bias=True)
    (7): Linear(in_features=1000, out_features=20, bias=True)
    (8): Linear(in_features=1000, out_features=20, bias=True)
    (9): Linear(in_features=1000, out_features=20, bias=True)
    (10): Linear(in_features=1000, out_features=20, bias=True)
    (11): Linear(in_features=1000, out_features=20, bias=True)
    (12): Linear(in_features=1000, out_features=20, bias=True)
    (13): Linear(in_features=1000, out_features=20, bias=True)
    (14): Linear(in_features=1000, out_features=20, bias=True)
    (15): Linear(in_features=1000, out_features=20, bias=True)
    (16): Linear(in_features=1000, out_features=20, bias=True)
    (17): Linear(in_features=1000, out_features=20, bias=True)
    (18): Linear(in_features=1000, out_features=20, bias=True)
    (19): Linear(in_features=1000, out_features=20, bias=True)
    (20): Linear(in_features=1000, out_features=20, bias=True)
    (21): Linear(in_features=1000, out_features=20, bias=True)
    (22): Linear(in_features=1000, out_features=20, bias=True)
    (23): Linear(in_features=1000, out_features=20, bias=True)
    (24): Linear(in_features=1000, out_features=20, bias=True)
    (25): Linear(in_features=1000, out_features=20, bias=True)
    (26): Linear(in_features=1000, out_features=20, bias=True)
    (27): Linear(in_features=1000, out_features=20, bias=True)
    (28): Linear(in_features=1000, out_features=20, bias=True)
    (29): Linear(in_features=1000, out_features=20, bias=True)
    (30): Linear(in_features=1000, out_features=20, bias=True)
    (31): Linear(in_features=1000, out_features=20, bias=True)
    (32): Linear(in_features=1000, out_features=20, bias=True)
    (33): Linear(in_features=1000, out_features=20, bias=True)
    (34): Linear(in_features=1000, out_features=20, bias=True)
    (35): Linear(in_features=1000, out_features=20, bias=True)
    (36): Linear(in_features=1000, out_features=20, bias=True)
  )
)
======

************************************************************************************************************
Task 37
************************************************************************************************************
| Epoch   1, time=  4.9s | Train: skip eval | Valid: time=  0.2s loss=6.646, TAw acc= 46.2% | *
| Epoch   2, time=  4.6s | Train: skip eval | Valid: time=  0.2s loss=2.683, TAw acc= 75.0% | *
…
>>> Test on task 32 : loss=1.571 | TAw acc= 96.4%, forg=  0.0%| TAg acc= 58.0%, forg= 10.7% <<<
>>> Test on task 33 : loss=0.996 | TAw acc= 98.1%, forg=  0.0%| TAg acc= 74.0%, forg=  2.9% <<<
>>> Test on task 34 : loss=1.215 | TAw acc= 96.9%, forg=  0.0%| TAg acc= 62.5%, forg=  8.3% <<<
>>> Test on task 35 : loss=1.316 | TAw acc= 92.9%, forg=  0.9%| TAg acc= 59.8%, forg= 11.6% <<<
>>> Test on task 36 : loss=1.378 | TAw acc= 95.3%, forg= -0.9%| TAg acc= 59.8%, forg= 18.7% <<<
>>> Test on task 37 : loss=0.925 | TAw acc=100.0%, forg=  0.0%| TAg acc= 71.6%, forg=  0.0% <<<
Save at k=100/eeil_e20_wisdm_5/wisdm_flex_eeil
======
LLL_Net(
  (model): SimpleMLP(
    (fc1): Linear(in_features=91, out_features=1000, bias=True)
    (fc2): Sequential()
  )
  (heads): ModuleList(
    (0): Linear(in_features=1000, out_features=34, bias=True)
    (1): Linear(in_features=1000, out_features=20, bias=True)
    (2): Linear(in_features=1000, out_features=20, bias=True)
    (3): Linear(in_features=1000, out_features=20, bias=True)
    (4): Linear(in_features=1000, out_features=20, bias=True)
    (5): Linear(in_features=1000, out_features=20, bias=True)
    (6): Linear(in_features=1000, out_features=20, bias=True)
    (7): Linear(in_features=1000, out_features=20, bias=True)
    (8): Linear(in_features=1000, out_features=20, bias=True)
    (9): Linear(in_features=1000, out_features=20, bias=True)
    (10): Linear(in_features=1000, out_features=20, bias=True)
    (11): Linear(in_features=1000, out_features=20, bias=True)
    (12): Linear(in_features=1000, out_features=20, bias=True)
    (13): Linear(in_features=1000, out_features=20, bias=True)
    (14): Linear(in_features=1000, out_features=20, bias=True)
    (15): Linear(in_features=1000, out_features=20, bias=True)
    (16): Linear(in_features=1000, out_features=20, bias=True)
    (17): Linear(in_features=1000, out_features=20, bias=True)
    (18): Linear(in_features=1000, out_features=20, bias=True)
    (19): Linear(in_features=1000, out_features=20, bias=True)
    (20): Linear(in_features=1000, out_features=20, bias=True)
    (21): Linear(in_features=1000, out_features=20, bias=True)
    (22): Linear(in_features=1000, out_features=20, bias=True)
    (23): Linear(in_features=1000, out_features=20, bias=True)
    (24): Linear(in_features=1000, out_features=20, bias=True)
    (25): Linear(in_features=1000, out_features=20, bias=True)
    (26): Linear(in_features=1000, out_features=20, bias=True)
    (27): Linear(in_features=1000, out_features=20, bias=True)
    (28): Linear(in_features=1000, out_features=20, bias=True)
    (29): Linear(in_features=1000, out_features=20, bias=True)
    (30): Linear(in_features=1000, out_features=20, bias=True)
    (31): Linear(in_features=1000, out_features=20, bias=True)
    (32): Linear(in_features=1000, out_features=20, bias=True)
    (33): Linear(in_features=1000, out_features=20, bias=True)
    (34): Linear(in_features=1000, out_features=20, bias=True)
    (35): Linear(in_features=1000, out_features=20, bias=True)
    (36): Linear(in_features=1000, out_features=20, bias=True)
    (37): Linear(in_features=1000, out_features=20, bias=True)
  )
)
======

************************************************************************************************************
Task 38
************************************************************************************************************
| Epoch   1, time=  5.3s | Train: skip eval | Valid: time=  0.2s loss=5.206, TAw acc= 63.5% | *
| Epoch   2, time=  5.2s | Train: skip eval | Valid: time=  0.2s loss=2.424, TAw acc= 80.0% | *
…
>>> Test on task 33 : loss=1.062 | TAw acc= 99.0%, forg= -1.0%| TAg acc= 66.3%, forg= 10.6% <<<
>>> Test on task 34 : loss=1.240 | TAw acc= 96.9%, forg=  0.0%| TAg acc= 65.6%, forg=  5.2% <<<
>>> Test on task 35 : loss=1.364 | TAw acc= 93.8%, forg=  0.0%| TAg acc= 59.8%, forg= 11.6% <<<
>>> Test on task 36 : loss=1.295 | TAw acc= 95.3%, forg=  0.0%| TAg acc= 63.6%, forg= 15.0% <<<
>>> Test on task 37 : loss=1.231 | TAw acc= 99.1%, forg=  0.9%| TAg acc= 59.6%, forg= 11.9% <<<
>>> Test on task 38 : loss=0.995 | TAw acc= 93.9%, forg=  0.0%| TAg acc= 71.9%, forg=  0.0% <<<
Save at k=100/eeil_e20_wisdm_5/wisdm_flex_eeil
======
LLL_Net(
  (model): SimpleMLP(
    (fc1): Linear(in_features=91, out_features=1000, bias=True)
    (fc2): Sequential()
  )
  (heads): ModuleList(
    (0): Linear(in_features=1000, out_features=34, bias=True)
    (1): Linear(in_features=1000, out_features=20, bias=True)
    (2): Linear(in_features=1000, out_features=20, bias=True)
    (3): Linear(in_features=1000, out_features=20, bias=True)
    (4): Linear(in_features=1000, out_features=20, bias=True)
    (5): Linear(in_features=1000, out_features=20, bias=True)
    (6): Linear(in_features=1000, out_features=20, bias=True)
    (7): Linear(in_features=1000, out_features=20, bias=True)
    (8): Linear(in_features=1000, out_features=20, bias=True)
    (9): Linear(in_features=1000, out_features=20, bias=True)
    (10): Linear(in_features=1000, out_features=20, bias=True)
    (11): Linear(in_features=1000, out_features=20, bias=True)
    (12): Linear(in_features=1000, out_features=20, bias=True)
    (13): Linear(in_features=1000, out_features=20, bias=True)
    (14): Linear(in_features=1000, out_features=20, bias=True)
    (15): Linear(in_features=1000, out_features=20, bias=True)
    (16): Linear(in_features=1000, out_features=20, bias=True)
    (17): Linear(in_features=1000, out_features=20, bias=True)
    (18): Linear(in_features=1000, out_features=20, bias=True)
    (19): Linear(in_features=1000, out_features=20, bias=True)
    (20): Linear(in_features=1000, out_features=20, bias=True)
    (21): Linear(in_features=1000, out_features=20, bias=True)
    (22): Linear(in_features=1000, out_features=20, bias=True)
    (23): Linear(in_features=1000, out_features=20, bias=True)
    (24): Linear(in_features=1000, out_features=20, bias=True)
    (25): Linear(in_features=1000, out_features=20, bias=True)
    (26): Linear(in_features=1000, out_features=20, bias=True)
    (27): Linear(in_features=1000, out_features=20, bias=True)
    (28): Linear(in_features=1000, out_features=20, bias=True)
    (29): Linear(in_features=1000, out_features=20, bias=True)
    (30): Linear(in_features=1000, out_features=20, bias=True)
    (31): Linear(in_features=1000, out_features=20, bias=True)
    (32): Linear(in_features=1000, out_features=20, bias=True)
    (33): Linear(in_features=1000, out_features=20, bias=True)
    (34): Linear(in_features=1000, out_features=20, bias=True)
    (35): Linear(in_features=1000, out_features=20, bias=True)
    (36): Linear(in_features=1000, out_features=20, bias=True)
    (37): Linear(in_features=1000, out_features=20, bias=True)
    (38): Linear(in_features=1000, out_features=20, bias=True)
  )
)
======

************************************************************************************************************
Task 39
************************************************************************************************************
| Epoch   1, time=  5.1s | Train: skip eval | Valid: time=  0.2s loss=5.175, TAw acc= 56.8% | *
| Epoch   2, time=  5.2s | Train: skip eval | Valid: time=  0.2s loss=2.713, TAw acc= 76.1% | *
…
>>> Test on task 34 : loss=1.211 | TAw acc= 96.9%, forg=  0.0%| TAg acc= 67.7%, forg=  3.1% <<<
>>> Test on task 35 : loss=1.342 | TAw acc= 93.8%, forg=  0.0%| TAg acc= 61.6%, forg=  9.8% <<<
>>> Test on task 36 : loss=1.209 | TAw acc= 95.3%, forg=  0.0%| TAg acc= 68.2%, forg= 10.3% <<<
>>> Test on task 37 : loss=1.226 | TAw acc= 98.2%, forg=  1.8%| TAg acc= 67.0%, forg=  4.6% <<<
>>> Test on task 38 : loss=1.419 | TAw acc= 93.9%, forg=  0.0%| TAg acc= 52.6%, forg= 19.3% <<<
>>> Test on task 39 : loss=1.012 | TAw acc= 94.1%, forg=  0.0%| TAg acc= 79.7%, forg=  0.0% <<<
Save at k=100/eeil_e20_wisdm_5/wisdm_flex_eeil
======
LLL_Net(
  (model): SimpleMLP(
    (fc1): Linear(in_features=91, out_features=1000, bias=True)
    (fc2): Sequential()
  )
  (heads): ModuleList(
    (0): Linear(in_features=1000, out_features=34, bias=True)
    (1): Linear(in_features=1000, out_features=20, bias=True)
    (2): Linear(in_features=1000, out_features=20, bias=True)
    (3): Linear(in_features=1000, out_features=20, bias=True)
    (4): Linear(in_features=1000, out_features=20, bias=True)
    (5): Linear(in_features=1000, out_features=20, bias=True)
    (6): Linear(in_features=1000, out_features=20, bias=True)
    (7): Linear(in_features=1000, out_features=20, bias=True)
    (8): Linear(in_features=1000, out_features=20, bias=True)
    (9): Linear(in_features=1000, out_features=20, bias=True)
    (10): Linear(in_features=1000, out_features=20, bias=True)
    (11): Linear(in_features=1000, out_features=20, bias=True)
    (12): Linear(in_features=1000, out_features=20, bias=True)
    (13): Linear(in_features=1000, out_features=20, bias=True)
    (14): Linear(in_features=1000, out_features=20, bias=True)
    (15): Linear(in_features=1000, out_features=20, bias=True)
    (16): Linear(in_features=1000, out_features=20, bias=True)
    (17): Linear(in_features=1000, out_features=20, bias=True)
    (18): Linear(in_features=1000, out_features=20, bias=True)
    (19): Linear(in_features=1000, out_features=20, bias=True)
    (20): Linear(in_features=1000, out_features=20, bias=True)
    (21): Linear(in_features=1000, out_features=20, bias=True)
    (22): Linear(in_features=1000, out_features=20, bias=True)
    (23): Linear(in_features=1000, out_features=20, bias=True)
    (24): Linear(in_features=1000, out_features=20, bias=True)
    (25): Linear(in_features=1000, out_features=20, bias=True)
    (26): Linear(in_features=1000, out_features=20, bias=True)
    (27): Linear(in_features=1000, out_features=20, bias=True)
    (28): Linear(in_features=1000, out_features=20, bias=True)
    (29): Linear(in_features=1000, out_features=20, bias=True)
    (30): Linear(in_features=1000, out_features=20, bias=True)
    (31): Linear(in_features=1000, out_features=20, bias=True)
    (32): Linear(in_features=1000, out_features=20, bias=True)
    (33): Linear(in_features=1000, out_features=20, bias=True)
    (34): Linear(in_features=1000, out_features=20, bias=True)
    (35): Linear(in_features=1000, out_features=20, bias=True)
    (36): Linear(in_features=1000, out_features=20, bias=True)
    (37): Linear(in_features=1000, out_features=20, bias=True)
    (38): Linear(in_features=1000, out_features=20, bias=True)
    (39): Linear(in_features=1000, out_features=20, bias=True)
  )
)
======

************************************************************************************************************
Task 40
************************************************************************************************************
| Epoch   1, time=  5.5s | Train: skip eval | Valid: time=  0.2s loss=7.953, TAw acc= 37.1% | *
| Epoch   2, time=  5.5s | Train: skip eval | Valid: time=  0.2s loss=3.229, TAw acc= 68.6% | *
…
>>> Test on task 35 : loss=1.368 | TAw acc= 92.9%, forg=  0.9%| TAg acc= 61.6%, forg=  9.8% <<<
>>> Test on task 36 : loss=1.220 | TAw acc= 96.3%, forg= -0.9%| TAg acc= 70.1%, forg=  8.4% <<<
>>> Test on task 37 : loss=1.170 | TAw acc= 97.2%, forg=  2.8%| TAg acc= 67.0%, forg=  4.6% <<<
>>> Test on task 38 : loss=1.384 | TAw acc= 94.7%, forg= -0.9%| TAg acc= 51.8%, forg= 20.2% <<<
>>> Test on task 39 : loss=1.287 | TAw acc= 94.1%, forg=  0.0%| TAg acc= 72.9%, forg=  6.8% <<<
>>> Test on task 40 : loss=1.301 | TAw acc= 95.9%, forg=  0.0%| TAg acc= 65.3%, forg=  0.0% <<<
Save at k=100/eeil_e20_wisdm_5/wisdm_flex_eeil
======
LLL_Net(
  (model): SimpleMLP(
    (fc1): Linear(in_features=91, out_features=1000, bias=True)
    (fc2): Sequential()
  )
  (heads): ModuleList(
    (0): Linear(in_features=1000, out_features=34, bias=True)
    (1): Linear(in_features=1000, out_features=20, bias=True)
    (2): Linear(in_features=1000, out_features=20, bias=True)
    (3): Linear(in_features=1000, out_features=20, bias=True)
    (4): Linear(in_features=1000, out_features=20, bias=True)
    (5): Linear(in_features=1000, out_features=20, bias=True)
    (6): Linear(in_features=1000, out_features=20, bias=True)
    (7): Linear(in_features=1000, out_features=20, bias=True)
    (8): Linear(in_features=1000, out_features=20, bias=True)
    (9): Linear(in_features=1000, out_features=20, bias=True)
    (10): Linear(in_features=1000, out_features=20, bias=True)
    (11): Linear(in_features=1000, out_features=20, bias=True)
    (12): Linear(in_features=1000, out_features=20, bias=True)
    (13): Linear(in_features=1000, out_features=20, bias=True)
    (14): Linear(in_features=1000, out_features=20, bias=True)
    (15): Linear(in_features=1000, out_features=20, bias=True)
    (16): Linear(in_features=1000, out_features=20, bias=True)
    (17): Linear(in_features=1000, out_features=20, bias=True)
    (18): Linear(in_features=1000, out_features=20, bias=True)
    (19): Linear(in_features=1000, out_features=20, bias=True)
    (20): Linear(in_features=1000, out_features=20, bias=True)
    (21): Linear(in_features=1000, out_features=20, bias=True)
    (22): Linear(in_features=1000, out_features=20, bias=True)
    (23): Linear(in_features=1000, out_features=20, bias=True)
    (24): Linear(in_features=1000, out_features=20, bias=True)
    (25): Linear(in_features=1000, out_features=20, bias=True)
    (26): Linear(in_features=1000, out_features=20, bias=True)
    (27): Linear(in_features=1000, out_features=20, bias=True)
    (28): Linear(in_features=1000, out_features=20, bias=True)
    (29): Linear(in_features=1000, out_features=20, bias=True)
    (30): Linear(in_features=1000, out_features=20, bias=True)
    (31): Linear(in_features=1000, out_features=20, bias=True)
    (32): Linear(in_features=1000, out_features=20, bias=True)
    (33): Linear(in_features=1000, out_features=20, bias=True)
    (34): Linear(in_features=1000, out_features=20, bias=True)
    (35): Linear(in_features=1000, out_features=20, bias=True)
    (36): Linear(in_features=1000, out_features=20, bias=True)
    (37): Linear(in_features=1000, out_features=20, bias=True)
    (38): Linear(in_features=1000, out_features=20, bias=True)
    (39): Linear(in_features=1000, out_features=20, bias=True)
    (40): Linear(in_features=1000, out_features=20, bias=True)
  )
)
======

************************************************************************************************************
Task 41
************************************************************************************************************
| Epoch   1, time=  5.5s | Train: skip eval | Valid: time=  0.2s loss=6.000, TAw acc= 53.0% | *
| Epoch   2, time=  5.8s | Train: skip eval | Valid: time=  0.2s loss=2.514, TAw acc= 83.1% | *
…
>>> Test on task 36 : loss=1.210 | TAw acc= 97.2%, forg= -0.9%| TAg acc= 74.8%, forg=  3.7% <<<
>>> Test on task 37 : loss=1.124 | TAw acc= 98.2%, forg=  1.8%| TAg acc= 72.5%, forg= -0.9% <<<
>>> Test on task 38 : loss=1.557 | TAw acc= 93.9%, forg=  0.9%| TAg acc= 48.2%, forg= 23.7% <<<
>>> Test on task 39 : loss=1.320 | TAw acc= 94.1%, forg=  0.0%| TAg acc= 72.0%, forg=  7.6% <<<
>>> Test on task 40 : loss=1.743 | TAw acc= 95.9%, forg=  0.0%| TAg acc= 45.9%, forg= 19.4% <<<
>>> Test on task 41 : loss=0.818 | TAw acc= 98.2%, forg=  0.0%| TAg acc= 81.1%, forg=  0.0% <<<
Save at k=100/eeil_e20_wisdm_5/wisdm_flex_eeil
======
LLL_Net(
  (model): SimpleMLP(
    (fc1): Linear(in_features=91, out_features=1000, bias=True)
    (fc2): Sequential()
  )
  (heads): ModuleList(
    (0): Linear(in_features=1000, out_features=34, bias=True)
    (1): Linear(in_features=1000, out_features=20, bias=True)
    (2): Linear(in_features=1000, out_features=20, bias=True)
    (3): Linear(in_features=1000, out_features=20, bias=True)
    (4): Linear(in_features=1000, out_features=20, bias=True)
    (5): Linear(in_features=1000, out_features=20, bias=True)
    (6): Linear(in_features=1000, out_features=20, bias=True)
    (7): Linear(in_features=1000, out_features=20, bias=True)
    (8): Linear(in_features=1000, out_features=20, bias=True)
    (9): Linear(in_features=1000, out_features=20, bias=True)
    (10): Linear(in_features=1000, out_features=20, bias=True)
    (11): Linear(in_features=1000, out_features=20, bias=True)
    (12): Linear(in_features=1000, out_features=20, bias=True)
    (13): Linear(in_features=1000, out_features=20, bias=True)
    (14): Linear(in_features=1000, out_features=20, bias=True)
    (15): Linear(in_features=1000, out_features=20, bias=True)
    (16): Linear(in_features=1000, out_features=20, bias=True)
    (17): Linear(in_features=1000, out_features=20, bias=True)
    (18): Linear(in_features=1000, out_features=20, bias=True)
    (19): Linear(in_features=1000, out_features=20, bias=True)
    (20): Linear(in_features=1000, out_features=20, bias=True)
    (21): Linear(in_features=1000, out_features=20, bias=True)
    (22): Linear(in_features=1000, out_features=20, bias=True)
    (23): Linear(in_features=1000, out_features=20, bias=True)
    (24): Linear(in_features=1000, out_features=20, bias=True)
    (25): Linear(in_features=1000, out_features=20, bias=True)
    (26): Linear(in_features=1000, out_features=20, bias=True)
    (27): Linear(in_features=1000, out_features=20, bias=True)
    (28): Linear(in_features=1000, out_features=20, bias=True)
    (29): Linear(in_features=1000, out_features=20, bias=True)
    (30): Linear(in_features=1000, out_features=20, bias=True)
    (31): Linear(in_features=1000, out_features=20, bias=True)
    (32): Linear(in_features=1000, out_features=20, bias=True)
    (33): Linear(in_features=1000, out_features=20, bias=True)
    (34): Linear(in_features=1000, out_features=20, bias=True)
    (35): Linear(in_features=1000, out_features=20, bias=True)
    (36): Linear(in_features=1000, out_features=20, bias=True)
    (37): Linear(in_features=1000, out_features=20, bias=True)
    (38): Linear(in_features=1000, out_features=20, bias=True)
    (39): Linear(in_features=1000, out_features=20, bias=True)
    (40): Linear(in_features=1000, out_features=20, bias=True)
    (41): Linear(in_features=1000, out_features=20, bias=True)
  )
)
======

************************************************************************************************************
Task 42
************************************************************************************************************
| Epoch   1, time=  5.8s | Train: skip eval | Valid: time=  0.2s loss=5.405, TAw acc= 48.1% | *
| Epoch   2, time=  5.8s | Train: skip eval | Valid: time=  0.2s loss=2.461, TAw acc= 84.4% | *
…
>>> Test on task 37 : loss=1.194 | TAw acc= 97.2%, forg=  2.8%| TAg acc= 67.9%, forg=  4.6% <<<
>>> Test on task 38 : loss=1.458 | TAw acc= 94.7%, forg=  0.0%| TAg acc= 50.0%, forg= 21.9% <<<
>>> Test on task 39 : loss=1.334 | TAw acc= 94.1%, forg=  0.0%| TAg acc= 72.0%, forg=  7.6% <<<
>>> Test on task 40 : loss=1.599 | TAw acc= 95.9%, forg=  0.0%| TAg acc= 52.0%, forg= 13.3% <<<
>>> Test on task 41 : loss=1.228 | TAw acc= 98.2%, forg=  0.0%| TAg acc= 63.1%, forg= 18.0% <<<
>>> Test on task 42 : loss=1.096 | TAw acc= 95.3%, forg=  0.0%| TAg acc= 67.0%, forg=  0.0% <<<
Save at k=100/eeil_e20_wisdm_5/wisdm_flex_eeil
======
LLL_Net(
  (model): SimpleMLP(
    (fc1): Linear(in_features=91, out_features=1000, bias=True)
    (fc2): Sequential()
  )
  (heads): ModuleList(
    (0): Linear(in_features=1000, out_features=34, bias=True)
    (1): Linear(in_features=1000, out_features=20, bias=True)
    (2): Linear(in_features=1000, out_features=20, bias=True)
    (3): Linear(in_features=1000, out_features=20, bias=True)
    (4): Linear(in_features=1000, out_features=20, bias=True)
    (5): Linear(in_features=1000, out_features=20, bias=True)
    (6): Linear(in_features=1000, out_features=20, bias=True)
    (7): Linear(in_features=1000, out_features=20, bias=True)
    (8): Linear(in_features=1000, out_features=20, bias=True)
    (9): Linear(in_features=1000, out_features=20, bias=True)
    (10): Linear(in_features=1000, out_features=20, bias=True)
    (11): Linear(in_features=1000, out_features=20, bias=True)
    (12): Linear(in_features=1000, out_features=20, bias=True)
    (13): Linear(in_features=1000, out_features=20, bias=True)
    (14): Linear(in_features=1000, out_features=20, bias=True)
    (15): Linear(in_features=1000, out_features=20, bias=True)
    (16): Linear(in_features=1000, out_features=20, bias=True)
    (17): Linear(in_features=1000, out_features=20, bias=True)
    (18): Linear(in_features=1000, out_features=20, bias=True)
    (19): Linear(in_features=1000, out_features=20, bias=True)
    (20): Linear(in_features=1000, out_features=20, bias=True)
    (21): Linear(in_features=1000, out_features=20, bias=True)
    (22): Linear(in_features=1000, out_features=20, bias=True)
    (23): Linear(in_features=1000, out_features=20, bias=True)
    (24): Linear(in_features=1000, out_features=20, bias=True)
    (25): Linear(in_features=1000, out_features=20, bias=True)
    (26): Linear(in_features=1000, out_features=20, bias=True)
    (27): Linear(in_features=1000, out_features=20, bias=True)
    (28): Linear(in_features=1000, out_features=20, bias=True)
    (29): Linear(in_features=1000, out_features=20, bias=True)
    (30): Linear(in_features=1000, out_features=20, bias=True)
    (31): Linear(in_features=1000, out_features=20, bias=True)
    (32): Linear(in_features=1000, out_features=20, bias=True)
    (33): Linear(in_features=1000, out_features=20, bias=True)
    (34): Linear(in_features=1000, out_features=20, bias=True)
    (35): Linear(in_features=1000, out_features=20, bias=True)
    (36): Linear(in_features=1000, out_features=20, bias=True)
    (37): Linear(in_features=1000, out_features=20, bias=True)
    (38): Linear(in_features=1000, out_features=20, bias=True)
    (39): Linear(in_features=1000, out_features=20, bias=True)
    (40): Linear(in_features=1000, out_features=20, bias=True)
    (41): Linear(in_features=1000, out_features=20, bias=True)
    (42): Linear(in_features=1000, out_features=20, bias=True)
  )
)
======

************************************************************************************************************
Task 43
************************************************************************************************************
| Epoch   1, time=  6.2s | Train: skip eval | Valid: time=  0.2s loss=7.039, TAw acc= 50.0% | *
| Epoch   2, time=  6.0s | Train: skip eval | Valid: time=  0.2s loss=2.869, TAw acc= 80.8% | *
…
