…
| Selected 768 train exemplars, time=  0.4s
768
------------------------------------------------------------------------------------------------------------
>>> Test on task  0 : loss=2.708 | TAw acc= 92.3%, forg=  0.0%| TAg acc= 88.3%, forg=  4.1% <<<
>>> Test on task  1 : loss=25.524 | TAw acc= 92.2%, forg=  0.0%| TAg acc= 83.5%, forg=  3.9% <<<
>>> Test on task  2 : loss=38.491 | TAw acc= 94.8%, forg=  0.0%| TAg acc= 87.8%, forg=  0.0% <<<
>>> Test on task  3 : loss=51.212 | TAw acc= 95.5%, forg=  0.0%| TAg acc= 80.4%, forg=  0.0% <<<
Save at k=100/icarl_wisdm_1/wisdm_flex_icarl
======
LLL_Net(
  (model): SimpleMLP(
    (fc1): Linear(in_features=91, out_features=1000, bias=True)
    (fc2): Sequential()
  )
  (heads): ModuleList(
    (0): Linear(in_features=1000, out_features=34, bias=True)
    (1): Linear(in_features=1000, out_features=20, bias=True)
    (2): Linear(in_features=1000, out_features=20, bias=True)
    (3): Linear(in_features=1000, out_features=20, bias=True)
  )
)
======

************************************************************************************************************
Task  4
************************************************************************************************************
| Epoch   1, time=  0.9s | Train: skip eval | Valid: time=  0.2s loss=66.743, TAw acc=  0.0% | *
| Epoch   2, time=  0.9s | Train: skip eval | Valid: time=  0.2s loss=66.731, TAw acc=  0.0% | *
…
------------------------------------------------------------------------------------------------------------
>>> Test on task  0 : loss=2.678 | TAw acc= 92.3%, forg=  0.0%| TAg acc= 86.2%, forg=  6.1% <<<
>>> Test on task  1 : loss=25.350 | TAw acc= 92.2%, forg=  0.0%| TAg acc= 82.5%, forg=  4.9% <<<
>>> Test on task  2 : loss=38.229 | TAw acc= 94.8%, forg=  0.0%| TAg acc= 84.3%, forg=  3.5% <<<
>>> Test on task  3 : loss=50.854 | TAw acc= 95.5%, forg=  0.0%| TAg acc= 80.4%, forg=  0.0% <<<
>>> Test on task  4 : loss=64.401 | TAw acc= 97.1%, forg=  0.0%| TAg acc= 91.3%, forg=  0.0% <<<
Save at k=100/icarl_wisdm_1/wisdm_flex_icarl
======
LLL_Net(
  (model): SimpleMLP(
    (fc1): Linear(in_features=91, out_features=1000, bias=True)
    (fc2): Sequential()
  )
  (heads): ModuleList(
    (0): Linear(in_features=1000, out_features=34, bias=True)
    (1): Linear(in_features=1000, out_features=20, bias=True)
    (2): Linear(in_features=1000, out_features=20, bias=True)
    (3): Linear(in_features=1000, out_features=20, bias=True)
    (4): Linear(in_features=1000, out_features=20, bias=True)
  )
)
======

************************************************************************************************************
Task  5
************************************************************************************************************
| Epoch   1, time=  1.1s | Train: skip eval | Valid: time=  0.2s loss=80.075, TAw acc=  4.8% | *
| Epoch   2, time=  1.2s | Train: skip eval | Valid: time=  0.2s loss=80.065, TAw acc=  6.0% | *
…
>>> Test on task  0 : loss=2.613 | TAw acc= 92.3%, forg=  0.0%| TAg acc= 86.2%, forg=  6.1% <<<
>>> Test on task  1 : loss=25.141 | TAw acc= 92.2%, forg=  0.0%| TAg acc= 75.7%, forg= 11.7% <<<
>>> Test on task  2 : loss=37.926 | TAw acc= 94.8%, forg=  0.0%| TAg acc= 84.3%, forg=  3.5% <<<
>>> Test on task  3 : loss=50.435 | TAw acc= 95.5%, forg=  0.0%| TAg acc= 80.4%, forg=  0.0% <<<
>>> Test on task  4 : loss=63.981 | TAw acc= 97.1%, forg=  0.0%| TAg acc= 91.3%, forg=  0.0% <<<
>>> Test on task  5 : loss=77.777 | TAw acc= 88.4%, forg=  0.0%| TAg acc= 81.2%, forg=  0.0% <<<
Save at k=100/icarl_wisdm_1/wisdm_flex_icarl
======
LLL_Net(
  (model): SimpleMLP(
    (fc1): Linear(in_features=91, out_features=1000, bias=True)
    (fc2): Sequential()
  )
  (heads): ModuleList(
    (0): Linear(in_features=1000, out_features=34, bias=True)
    (1): Linear(in_features=1000, out_features=20, bias=True)
    (2): Linear(in_features=1000, out_features=20, bias=True)
    (3): Linear(in_features=1000, out_features=20, bias=True)
    (4): Linear(in_features=1000, out_features=20, bias=True)
    (5): Linear(in_features=1000, out_features=20, bias=True)
  )
)
======

************************************************************************************************************
Task  6
************************************************************************************************************
| Epoch   1, time=  1.5s | Train: skip eval | Valid: time=  0.2s loss=91.326, TAw acc=  2.5% | *
| Epoch   2, time=  1.5s | Train: skip eval | Valid: time=  0.2s loss=91.305, TAw acc=  3.7% | *
…
>>> Test on task  1 : loss=24.971 | TAw acc= 92.2%, forg=  0.0%| TAg acc= 69.9%, forg= 17.5% <<<
>>> Test on task  2 : loss=37.604 | TAw acc= 94.8%, forg=  0.0%| TAg acc= 83.5%, forg=  4.3% <<<
>>> Test on task  3 : loss=50.014 | TAw acc= 95.5%, forg=  0.0%| TAg acc= 80.4%, forg=  0.0% <<<
>>> Test on task  4 : loss=63.492 | TAw acc= 97.1%, forg=  0.0%| TAg acc= 91.3%, forg=  0.0% <<<
>>> Test on task  5 : loss=77.414 | TAw acc= 88.4%, forg=  0.0%| TAg acc= 81.2%, forg=  0.0% <<<
>>> Test on task  6 : loss=88.564 | TAw acc= 97.3%, forg=  0.0%| TAg acc= 79.1%, forg=  0.0% <<<
Save at k=100/icarl_wisdm_1/wisdm_flex_icarl
======
LLL_Net(
  (model): SimpleMLP(
    (fc1): Linear(in_features=91, out_features=1000, bias=True)
    (fc2): Sequential()
  )
  (heads): ModuleList(
    (0): Linear(in_features=1000, out_features=34, bias=True)
    (1): Linear(in_features=1000, out_features=20, bias=True)
    (2): Linear(in_features=1000, out_features=20, bias=True)
    (3): Linear(in_features=1000, out_features=20, bias=True)
    (4): Linear(in_features=1000, out_features=20, bias=True)
    (5): Linear(in_features=1000, out_features=20, bias=True)
    (6): Linear(in_features=1000, out_features=20, bias=True)
  )
)
======

************************************************************************************************************
Task  7
************************************************************************************************************
| Epoch   1, time=  1.8s | Train: skip eval | Valid: time=  0.2s loss=102.172, TAw acc=  0.0% | *
| Epoch   2, time=  1.8s | Train: skip eval | Valid: time=  0.2s loss=102.134, TAw acc=  0.0% | *
…
>>> Test on task  2 : loss=37.285 | TAw acc= 94.8%, forg=  0.0%| TAg acc= 82.6%, forg=  5.2% <<<
>>> Test on task  3 : loss=49.519 | TAw acc= 95.5%, forg=  0.0%| TAg acc= 80.4%, forg=  0.0% <<<
>>> Test on task  4 : loss=63.047 | TAw acc= 97.1%, forg=  0.0%| TAg acc= 91.3%, forg=  0.0% <<<
>>> Test on task  5 : loss=77.046 | TAw acc= 88.4%, forg=  0.0%| TAg acc= 80.4%, forg=  0.9% <<<
>>> Test on task  6 : loss=88.113 | TAw acc= 97.3%, forg=  0.0%| TAg acc= 79.1%, forg=  0.0% <<<
>>> Test on task  7 : loss=99.973 | TAw acc= 89.3%, forg=  0.0%| TAg acc= 81.2%, forg=  0.0% <<<
Save at k=100/icarl_wisdm_1/wisdm_flex_icarl
======
LLL_Net(
  (model): SimpleMLP(
    (fc1): Linear(in_features=91, out_features=1000, bias=True)
    (fc2): Sequential()
  )
  (heads): ModuleList(
    (0): Linear(in_features=1000, out_features=34, bias=True)
    (1): Linear(in_features=1000, out_features=20, bias=True)
    (2): Linear(in_features=1000, out_features=20, bias=True)
    (3): Linear(in_features=1000, out_features=20, bias=True)
    (4): Linear(in_features=1000, out_features=20, bias=True)
    (5): Linear(in_features=1000, out_features=20, bias=True)
    (6): Linear(in_features=1000, out_features=20, bias=True)
    (7): Linear(in_features=1000, out_features=20, bias=True)
  )
)
======

************************************************************************************************************
Task  8
************************************************************************************************************
| Epoch   1, time=  2.1s | Train: skip eval | Valid: time=  0.2s loss=113.473, TAw acc=  5.1% | *
| Epoch   2, time=  2.2s | Train: skip eval | Valid: time=  0.2s loss=113.443, TAw acc=  5.1% | *
…
>>> Test on task  3 : loss=49.005 | TAw acc= 95.5%, forg=  0.0%| TAg acc= 80.4%, forg=  0.0% <<<
>>> Test on task  4 : loss=62.563 | TAw acc= 97.1%, forg=  0.0%| TAg acc= 89.4%, forg=  1.9% <<<
>>> Test on task  5 : loss=76.579 | TAw acc= 88.4%, forg=  0.0%| TAg acc= 78.6%, forg=  2.7% <<<
>>> Test on task  6 : loss=87.533 | TAw acc= 97.3%, forg=  0.0%| TAg acc= 79.1%, forg=  0.0% <<<
>>> Test on task  7 : loss=99.575 | TAw acc= 89.3%, forg=  0.0%| TAg acc= 80.4%, forg=  0.9% <<<
>>> Test on task  8 : loss=111.259 | TAw acc= 97.2%, forg=  0.0%| TAg acc= 86.1%, forg=  0.0% <<<
Save at k=100/icarl_wisdm_1/wisdm_flex_icarl
======
LLL_Net(
  (model): SimpleMLP(
    (fc1): Linear(in_features=91, out_features=1000, bias=True)
    (fc2): Sequential()
  )
  (heads): ModuleList(
    (0): Linear(in_features=1000, out_features=34, bias=True)
    (1): Linear(in_features=1000, out_features=20, bias=True)
    (2): Linear(in_features=1000, out_features=20, bias=True)
    (3): Linear(in_features=1000, out_features=20, bias=True)
    (4): Linear(in_features=1000, out_features=20, bias=True)
    (5): Linear(in_features=1000, out_features=20, bias=True)
    (6): Linear(in_features=1000, out_features=20, bias=True)
    (7): Linear(in_features=1000, out_features=20, bias=True)
    (8): Linear(in_features=1000, out_features=20, bias=True)
  )
)
======

************************************************************************************************************
Task  9
************************************************************************************************************
| Epoch   1, time=  2.4s | Train: skip eval | Valid: time=  0.2s loss=126.177, TAw acc=  0.0% | *
| Epoch   2, time=  2.4s | Train: skip eval | Valid: time=  0.2s loss=126.157, TAw acc=  0.0% | *
…
>>> Test on task  4 : loss=62.045 | TAw acc= 97.1%, forg=  0.0%| TAg acc= 89.4%, forg=  1.9% <<<
>>> Test on task  5 : loss=76.076 | TAw acc= 88.4%, forg=  0.0%| TAg acc= 78.6%, forg=  2.7% <<<
>>> Test on task  6 : loss=86.929 | TAw acc= 97.3%, forg=  0.0%| TAg acc= 79.1%, forg=  0.0% <<<
>>> Test on task  7 : loss=99.051 | TAw acc= 89.3%, forg=  0.0%| TAg acc= 80.4%, forg=  0.9% <<<
>>> Test on task  8 : loss=110.804 | TAw acc= 97.2%, forg=  0.0%| TAg acc= 86.1%, forg=  0.0% <<<
>>> Test on task  9 : loss=124.026 | TAw acc=100.0%, forg=  0.0%| TAg acc= 87.6%, forg=  0.0% <<<
Save at k=100/icarl_wisdm_1/wisdm_flex_icarl
======
LLL_Net(
  (model): SimpleMLP(
    (fc1): Linear(in_features=91, out_features=1000, bias=True)
    (fc2): Sequential()
  )
  (heads): ModuleList(
    (0): Linear(in_features=1000, out_features=34, bias=True)
    (1): Linear(in_features=1000, out_features=20, bias=True)
    (2): Linear(in_features=1000, out_features=20, bias=True)
    (3): Linear(in_features=1000, out_features=20, bias=True)
    (4): Linear(in_features=1000, out_features=20, bias=True)
    (5): Linear(in_features=1000, out_features=20, bias=True)
    (6): Linear(in_features=1000, out_features=20, bias=True)
    (7): Linear(in_features=1000, out_features=20, bias=True)
    (8): Linear(in_features=1000, out_features=20, bias=True)
    (9): Linear(in_features=1000, out_features=20, bias=True)
  )
)
======

************************************************************************************************************
Task 10
************************************************************************************************************
| Epoch   1, time=  2.9s | Train: skip eval | Valid: time=  0.2s loss=139.329, TAw acc=  1.2% | *
| Epoch   2, time=  2.8s | Train: skip eval | Valid: time=  0.2s loss=139.307, TAw acc=  1.2% | *
…
>>> Test on task  5 : loss=75.681 | TAw acc= 88.4%, forg=  0.0%| TAg acc= 78.6%, forg=  2.7% <<<
>>> Test on task  6 : loss=86.403 | TAw acc= 97.3%, forg=  0.0%| TAg acc= 79.1%, forg=  0.0% <<<
>>> Test on task  7 : loss=98.585 | TAw acc= 89.3%, forg=  0.0%| TAg acc= 80.4%, forg=  0.9% <<<
>>> Test on task  8 : loss=110.249 | TAw acc= 97.2%, forg=  0.0%| TAg acc= 86.1%, forg=  0.0% <<<
>>> Test on task  9 : loss=123.431 | TAw acc=100.0%, forg=  0.0%| TAg acc= 87.6%, forg=  0.0% <<<
>>> Test on task 10 : loss=135.553 | TAw acc= 97.3%, forg=  0.0%| TAg acc= 83.6%, forg=  0.0% <<<
Save at k=100/icarl_wisdm_1/wisdm_flex_icarl
======
LLL_Net(
  (model): SimpleMLP(
    (fc1): Linear(in_features=91, out_features=1000, bias=True)
    (fc2): Sequential()
  )
  (heads): ModuleList(
    (0): Linear(in_features=1000, out_features=34, bias=True)
    (1): Linear(in_features=1000, out_features=20, bias=True)
    (2): Linear(in_features=1000, out_features=20, bias=True)
    (3): Linear(in_features=1000, out_features=20, bias=True)
    (4): Linear(in_features=1000, out_features=20, bias=True)
    (5): Linear(in_features=1000, out_features=20, bias=True)
    (6): Linear(in_features=1000, out_features=20, bias=True)
    (7): Linear(in_features=1000, out_features=20, bias=True)
    (8): Linear(in_features=1000, out_features=20, bias=True)
    (9): Linear(in_features=1000, out_features=20, bias=True)
    (10): Linear(in_features=1000, out_features=20, bias=True)
  )
)
======

************************************************************************************************************
Task 11
************************************************************************************************************
| Epoch   1, time=  3.4s | Train: skip eval | Valid: time=  0.2s loss=150.879, TAw acc=  2.7% | *
| Epoch   2, time=  3.3s | Train: skip eval | Valid: time=  0.2s loss=150.858, TAw acc=  6.8% | *
…
>>> Test on task  6 : loss=85.831 | TAw acc= 97.3%, forg=  0.0%| TAg acc= 78.2%, forg=  0.9% <<<
>>> Test on task  7 : loss=98.131 | TAw acc= 89.3%, forg=  0.0%| TAg acc= 80.4%, forg=  0.9% <<<
>>> Test on task  8 : loss=109.632 | TAw acc= 97.2%, forg=  0.0%| TAg acc= 86.1%, forg=  0.0% <<<
>>> Test on task  9 : loss=122.790 | TAw acc=100.0%, forg=  0.0%| TAg acc= 87.6%, forg=  0.0% <<<
>>> Test on task 10 : loss=134.980 | TAw acc= 97.3%, forg=  0.0%| TAg acc= 82.7%, forg=  0.9% <<<
>>> Test on task 11 : loss=147.188 | TAw acc= 99.0%, forg=  0.0%| TAg acc= 88.1%, forg=  0.0% <<<
Save at k=100/icarl_wisdm_1/wisdm_flex_icarl
======
LLL_Net(
  (model): SimpleMLP(
    (fc1): Linear(in_features=91, out_features=1000, bias=True)
    (fc2): Sequential()
  )
  (heads): ModuleList(
    (0): Linear(in_features=1000, out_features=34, bias=True)
    (1): Linear(in_features=1000, out_features=20, bias=True)
    (2): Linear(in_features=1000, out_features=20, bias=True)
    (3): Linear(in_features=1000, out_features=20, bias=True)
    (4): Linear(in_features=1000, out_features=20, bias=True)
    (5): Linear(in_features=1000, out_features=20, bias=True)
    (6): Linear(in_features=1000, out_features=20, bias=True)
    (7): Linear(in_features=1000, out_features=20, bias=True)
    (8): Linear(in_features=1000, out_features=20, bias=True)
    (9): Linear(in_features=1000, out_features=20, bias=True)
    (10): Linear(in_features=1000, out_features=20, bias=True)
    (11): Linear(in_features=1000, out_features=20, bias=True)
  )
)
======

************************************************************************************************************
Task 12
************************************************************************************************************
| Epoch   1, time=  3.9s | Train: skip eval | Valid: time=  0.2s loss=159.728, TAw acc=  0.0% | *
| Epoch   2, time=  3.9s | Train: skip eval | Valid: time=  0.2s loss=159.691, TAw acc=  0.0% | *
…
>>> Test on task  7 : loss=97.716 | TAw acc= 89.3%, forg=  0.0%| TAg acc= 79.5%, forg=  1.8% <<<
>>> Test on task  8 : loss=109.094 | TAw acc= 97.2%, forg=  0.0%| TAg acc= 84.3%, forg=  1.9% <<<
>>> Test on task  9 : loss=122.170 | TAw acc=100.0%, forg=  0.0%| TAg acc= 87.6%, forg=  0.0% <<<
>>> Test on task 10 : loss=134.356 | TAw acc= 97.3%, forg=  0.0%| TAg acc= 82.7%, forg=  0.9% <<<
>>> Test on task 11 : loss=146.626 | TAw acc= 99.0%, forg=  0.0%| TAg acc= 88.1%, forg=  0.0% <<<
>>> Test on task 12 : loss=156.424 | TAw acc= 87.3%, forg=  0.0%| TAg acc= 74.6%, forg=  0.0% <<<
Save at k=100/icarl_wisdm_1/wisdm_flex_icarl
======
LLL_Net(
  (model): SimpleMLP(
    (fc1): Linear(in_features=91, out_features=1000, bias=True)
    (fc2): Sequential()
  )
  (heads): ModuleList(
    (0): Linear(in_features=1000, out_features=34, bias=True)
    (1): Linear(in_features=1000, out_features=20, bias=True)
    (2): Linear(in_features=1000, out_features=20, bias=True)
    (3): Linear(in_features=1000, out_features=20, bias=True)
    (4): Linear(in_features=1000, out_features=20, bias=True)
    (5): Linear(in_features=1000, out_features=20, bias=True)
    (6): Linear(in_features=1000, out_features=20, bias=True)
    (7): Linear(in_features=1000, out_features=20, bias=True)
    (8): Linear(in_features=1000, out_features=20, bias=True)
    (9): Linear(in_features=1000, out_features=20, bias=True)
    (10): Linear(in_features=1000, out_features=20, bias=True)
    (11): Linear(in_features=1000, out_features=20, bias=True)
    (12): Linear(in_features=1000, out_features=20, bias=True)
  )
)
======

************************************************************************************************************
Task 13
************************************************************************************************************
| Epoch   1, time=  4.5s | Train: skip eval | Valid: time=  0.2s loss=174.299, TAw acc=  2.2% | *
| Epoch   2, time=  4.2s | Train: skip eval | Valid: time=  0.2s loss=174.278, TAw acc=  3.2% | *
…
>>> Test on task  8 : loss=108.514 | TAw acc= 97.2%, forg=  0.0%| TAg acc= 83.3%, forg=  2.8% <<<
>>> Test on task  9 : loss=121.545 | TAw acc=100.0%, forg=  0.0%| TAg acc= 86.6%, forg=  1.0% <<<
>>> Test on task 10 : loss=133.686 | TAw acc= 97.3%, forg=  0.0%| TAg acc= 82.7%, forg=  0.9% <<<
>>> Test on task 11 : loss=145.926 | TAw acc= 99.0%, forg=  0.0%| TAg acc= 87.1%, forg=  1.0% <<<
>>> Test on task 12 : loss=155.924 | TAw acc= 87.3%, forg=  0.0%| TAg acc= 72.9%, forg=  1.7% <<<
>>> Test on task 13 : loss=170.452 | TAw acc= 86.3%, forg=  0.0%| TAg acc= 62.9%, forg=  0.0% <<<
Save at k=100/icarl_wisdm_1/wisdm_flex_icarl
======
LLL_Net(
  (model): SimpleMLP(
    (fc1): Linear(in_features=91, out_features=1000, bias=True)
    (fc2): Sequential()
  )
  (heads): ModuleList(
    (0): Linear(in_features=1000, out_features=34, bias=True)
    (1): Linear(in_features=1000, out_features=20, bias=True)
    (2): Linear(in_features=1000, out_features=20, bias=True)
    (3): Linear(in_features=1000, out_features=20, bias=True)
    (4): Linear(in_features=1000, out_features=20, bias=True)
    (5): Linear(in_features=1000, out_features=20, bias=True)
    (6): Linear(in_features=1000, out_features=20, bias=True)
    (7): Linear(in_features=1000, out_features=20, bias=True)
    (8): Linear(in_features=1000, out_features=20, bias=True)
    (9): Linear(in_features=1000, out_features=20, bias=True)
    (10): Linear(in_features=1000, out_features=20, bias=True)
    (11): Linear(in_features=1000, out_features=20, bias=True)
    (12): Linear(in_features=1000, out_features=20, bias=True)
    (13): Linear(in_features=1000, out_features=20, bias=True)
  )
)
======

************************************************************************************************************
Task 14
************************************************************************************************************
| Epoch   1, time=  4.5s | Train: skip eval | Valid: time=  0.2s loss=187.571, TAw acc=  1.3% | *
| Epoch   2, time=  4.6s | Train: skip eval | Valid: time=  0.2s loss=187.555, TAw acc=  2.6% | *
…
>>> Test on task  9 : loss=120.891 | TAw acc=100.0%, forg=  0.0%| TAg acc= 86.6%, forg=  1.0% <<<
>>> Test on task 10 : loss=132.991 | TAw acc= 97.3%, forg=  0.0%| TAg acc= 79.1%, forg=  4.5% <<<
>>> Test on task 11 : loss=145.213 | TAw acc= 99.0%, forg=  0.0%| TAg acc= 87.1%, forg=  1.0% <<<
>>> Test on task 12 : loss=155.321 | TAw acc= 87.3%, forg=  0.0%| TAg acc= 72.9%, forg=  1.7% <<<
>>> Test on task 13 : loss=169.725 | TAw acc= 86.3%, forg=  0.0%| TAg acc= 62.1%, forg=  0.8% <<<
>>> Test on task 14 : loss=184.183 | TAw acc= 96.2%, forg=  0.0%| TAg acc= 67.3%, forg=  0.0% <<<
Save at k=100/icarl_wisdm_1/wisdm_flex_icarl
======
LLL_Net(
  (model): SimpleMLP(
    (fc1): Linear(in_features=91, out_features=1000, bias=True)
    (fc2): Sequential()
  )
  (heads): ModuleList(
    (0): Linear(in_features=1000, out_features=34, bias=True)
    (1): Linear(in_features=1000, out_features=20, bias=True)
    (2): Linear(in_features=1000, out_features=20, bias=True)
    (3): Linear(in_features=1000, out_features=20, bias=True)
    (4): Linear(in_features=1000, out_features=20, bias=True)
    (5): Linear(in_features=1000, out_features=20, bias=True)
    (6): Linear(in_features=1000, out_features=20, bias=True)
    (7): Linear(in_features=1000, out_features=20, bias=True)
    (8): Linear(in_features=1000, out_features=20, bias=True)
    (9): Linear(in_features=1000, out_features=20, bias=True)
    (10): Linear(in_features=1000, out_features=20, bias=True)
    (11): Linear(in_features=1000, out_features=20, bias=True)
    (12): Linear(in_features=1000, out_features=20, bias=True)
    (13): Linear(in_features=1000, out_features=20, bias=True)
    (14): Linear(in_features=1000, out_features=20, bias=True)
  )
)
======

************************************************************************************************************
Task 15
************************************************************************************************************
| Epoch   1, time=  5.5s | Train: skip eval | Valid: time=  0.2s loss=190.036, TAw acc=  4.3% | *
| Epoch   2, time=  5.2s | Train: skip eval | Valid: time=  0.2s loss=189.996, TAw acc=  5.3% | *
…
>>> Test on task 10 : loss=132.413 | TAw acc= 97.3%, forg=  0.0%| TAg acc= 77.3%, forg=  6.4% <<<
>>> Test on task 11 : loss=144.595 | TAw acc= 99.0%, forg=  0.0%| TAg acc= 87.1%, forg=  1.0% <<<
>>> Test on task 12 : loss=154.812 | TAw acc= 87.3%, forg=  0.0%| TAg acc= 72.9%, forg=  1.7% <<<
>>> Test on task 13 : loss=169.082 | TAw acc= 86.3%, forg=  0.0%| TAg acc= 56.5%, forg=  6.5% <<<
>>> Test on task 14 : loss=183.480 | TAw acc= 96.2%, forg=  0.0%| TAg acc= 67.3%, forg=  0.0% <<<
>>> Test on task 15 : loss=186.161 | TAw acc= 92.7%, forg=  0.0%| TAg acc= 78.0%, forg=  0.0% <<<
Save at k=100/icarl_wisdm_1/wisdm_flex_icarl
======
LLL_Net(
  (model): SimpleMLP(
    (fc1): Linear(in_features=91, out_features=1000, bias=True)
    (fc2): Sequential()
  )
  (heads): ModuleList(
    (0): Linear(in_features=1000, out_features=34, bias=True)
    (1): Linear(in_features=1000, out_features=20, bias=True)
    (2): Linear(in_features=1000, out_features=20, bias=True)
    (3): Linear(in_features=1000, out_features=20, bias=True)
    (4): Linear(in_features=1000, out_features=20, bias=True)
    (5): Linear(in_features=1000, out_features=20, bias=True)
    (6): Linear(in_features=1000, out_features=20, bias=True)
    (7): Linear(in_features=1000, out_features=20, bias=True)
    (8): Linear(in_features=1000, out_features=20, bias=True)
    (9): Linear(in_features=1000, out_features=20, bias=True)
    (10): Linear(in_features=1000, out_features=20, bias=True)
    (11): Linear(in_features=1000, out_features=20, bias=True)
    (12): Linear(in_features=1000, out_features=20, bias=True)
    (13): Linear(in_features=1000, out_features=20, bias=True)
    (14): Linear(in_features=1000, out_features=20, bias=True)
    (15): Linear(in_features=1000, out_features=20, bias=True)
  )
)
======

************************************************************************************************************
Task 16
************************************************************************************************************
| Epoch   1, time=  6.7s | Train: skip eval | Valid: time=  0.2s loss=206.646, TAw acc=  4.5% | *
| Epoch   2, time=  6.1s | Train: skip eval | Valid: time=  0.2s loss=206.619, TAw acc=  4.5% | *
…
>>> Test on task 11 : loss=143.896 | TAw acc= 99.0%, forg=  0.0%| TAg acc= 87.1%, forg=  1.0% <<<
>>> Test on task 12 : loss=154.158 | TAw acc= 87.3%, forg=  0.0%| TAg acc= 72.9%, forg=  1.7% <<<
>>> Test on task 13 : loss=168.329 | TAw acc= 86.3%, forg=  0.0%| TAg acc= 53.2%, forg=  9.7% <<<
>>> Test on task 14 : loss=182.655 | TAw acc= 96.2%, forg=  0.0%| TAg acc= 64.4%, forg=  2.9% <<<
>>> Test on task 15 : loss=185.677 | TAw acc= 92.7%, forg=  0.0%| TAg acc= 78.0%, forg=  0.0% <<<
>>> Test on task 16 : loss=204.275 | TAw acc= 97.4%, forg=  0.0%| TAg acc= 74.4%, forg=  0.0% <<<
Save at k=100/icarl_wisdm_1/wisdm_flex_icarl
======
LLL_Net(
  (model): SimpleMLP(
    (fc1): Linear(in_features=91, out_features=1000, bias=True)
    (fc2): Sequential()
  )
  (heads): ModuleList(
    (0): Linear(in_features=1000, out_features=34, bias=True)
    (1): Linear(in_features=1000, out_features=20, bias=True)
    (2): Linear(in_features=1000, out_features=20, bias=True)
    (3): Linear(in_features=1000, out_features=20, bias=True)
    (4): Linear(in_features=1000, out_features=20, bias=True)
    (5): Linear(in_features=1000, out_features=20, bias=True)
    (6): Linear(in_features=1000, out_features=20, bias=True)
    (7): Linear(in_features=1000, out_features=20, bias=True)
    (8): Linear(in_features=1000, out_features=20, bias=True)
    (9): Linear(in_features=1000, out_features=20, bias=True)
    (10): Linear(in_features=1000, out_features=20, bias=True)
    (11): Linear(in_features=1000, out_features=20, bias=True)
    (12): Linear(in_features=1000, out_features=20, bias=True)
    (13): Linear(in_features=1000, out_features=20, bias=True)
    (14): Linear(in_features=1000, out_features=20, bias=True)
    (15): Linear(in_features=1000, out_features=20, bias=True)
    (16): Linear(in_features=1000, out_features=20, bias=True)
  )
)
======

************************************************************************************************************
Task 17
************************************************************************************************************
| Epoch   1, time=  6.6s | Train: skip eval | Valid: time=  0.2s loss=216.685, TAw acc=  3.8% | *
| Epoch   2, time=  6.6s | Train: skip eval | Valid: time=  0.2s loss=216.660, TAw acc=  3.8% | *
…
>>> Test on task 12 : loss=153.620 | TAw acc= 87.3%, forg=  0.0%| TAg acc= 72.9%, forg=  1.7% <<<
>>> Test on task 13 : loss=167.567 | TAw acc= 86.3%, forg=  0.0%| TAg acc= 53.2%, forg=  9.7% <<<
>>> Test on task 14 : loss=181.809 | TAw acc= 96.2%, forg=  0.0%| TAg acc= 64.4%, forg=  2.9% <<<
>>> Test on task 15 : loss=185.010 | TAw acc= 92.7%, forg=  0.0%| TAg acc= 78.0%, forg=  0.0% <<<
>>> Test on task 16 : loss=203.614 | TAw acc= 97.4%, forg=  0.0%| TAg acc= 73.5%, forg=  0.9% <<<
>>> Test on task 17 : loss=210.371 | TAw acc= 92.5%, forg=  0.0%| TAg acc= 75.5%, forg=  0.0% <<<
Save at k=100/icarl_wisdm_1/wisdm_flex_icarl
======
LLL_Net(
  (model): SimpleMLP(
    (fc1): Linear(in_features=91, out_features=1000, bias=True)
    (fc2): Sequential()
  )
  (heads): ModuleList(
    (0): Linear(in_features=1000, out_features=34, bias=True)
    (1): Linear(in_features=1000, out_features=20, bias=True)
    (2): Linear(in_features=1000, out_features=20, bias=True)
    (3): Linear(in_features=1000, out_features=20, bias=True)
    (4): Linear(in_features=1000, out_features=20, bias=True)
    (5): Linear(in_features=1000, out_features=20, bias=True)
    (6): Linear(in_features=1000, out_features=20, bias=True)
    (7): Linear(in_features=1000, out_features=20, bias=True)
    (8): Linear(in_features=1000, out_features=20, bias=True)
    (9): Linear(in_features=1000, out_features=20, bias=True)
    (10): Linear(in_features=1000, out_features=20, bias=True)
    (11): Linear(in_features=1000, out_features=20, bias=True)
    (12): Linear(in_features=1000, out_features=20, bias=True)
    (13): Linear(in_features=1000, out_features=20, bias=True)
    (14): Linear(in_features=1000, out_features=20, bias=True)
    (15): Linear(in_features=1000, out_features=20, bias=True)
    (16): Linear(in_features=1000, out_features=20, bias=True)
    (17): Linear(in_features=1000, out_features=20, bias=True)
  )
)
======

************************************************************************************************************
Task 18
************************************************************************************************************
| Epoch   1, time=  7.0s | Train: skip eval | Valid: time=  0.2s loss=227.482, TAw acc=  5.6% | *
| Epoch   2, time=  7.3s | Train: skip eval | Valid: time=  0.3s loss=227.448, TAw acc=  6.7% | *
…
>>> Test on task 13 : loss=166.856 | TAw acc= 86.3%, forg=  0.0%| TAg acc= 53.2%, forg=  9.7% <<<
>>> Test on task 14 : loss=180.994 | TAw acc= 96.2%, forg=  0.0%| TAg acc= 64.4%, forg=  2.9% <<<
>>> Test on task 15 : loss=184.327 | TAw acc= 92.7%, forg=  0.0%| TAg acc= 78.0%, forg=  0.0% <<<
>>> Test on task 16 : loss=202.919 | TAw acc= 97.4%, forg=  0.0%| TAg acc= 73.5%, forg=  0.9% <<<
>>> Test on task 17 : loss=209.818 | TAw acc= 92.5%, forg=  0.0%| TAg acc= 75.5%, forg=  0.0% <<<
>>> Test on task 18 : loss=220.603 | TAw acc= 94.1%, forg=  0.0%| TAg acc= 82.4%, forg=  0.0% <<<
Save at k=100/icarl_wisdm_1/wisdm_flex_icarl
======
LLL_Net(
  (model): SimpleMLP(
    (fc1): Linear(in_features=91, out_features=1000, bias=True)
    (fc2): Sequential()
  )
  (heads): ModuleList(
    (0): Linear(in_features=1000, out_features=34, bias=True)
    (1): Linear(in_features=1000, out_features=20, bias=True)
    (2): Linear(in_features=1000, out_features=20, bias=True)
    (3): Linear(in_features=1000, out_features=20, bias=True)
    (4): Linear(in_features=1000, out_features=20, bias=True)
    (5): Linear(in_features=1000, out_features=20, bias=True)
    (6): Linear(in_features=1000, out_features=20, bias=True)
    (7): Linear(in_features=1000, out_features=20, bias=True)
    (8): Linear(in_features=1000, out_features=20, bias=True)
    (9): Linear(in_features=1000, out_features=20, bias=True)
    (10): Linear(in_features=1000, out_features=20, bias=True)
    (11): Linear(in_features=1000, out_features=20, bias=True)
    (12): Linear(in_features=1000, out_features=20, bias=True)
    (13): Linear(in_features=1000, out_features=20, bias=True)
    (14): Linear(in_features=1000, out_features=20, bias=True)
    (15): Linear(in_features=1000, out_features=20, bias=True)
    (16): Linear(in_features=1000, out_features=20, bias=True)
    (17): Linear(in_features=1000, out_features=20, bias=True)
    (18): Linear(in_features=1000, out_features=20, bias=True)
  )
)
======

************************************************************************************************************
Task 19
************************************************************************************************************
| Epoch   1, time=  8.0s | Train: skip eval | Valid: time=  0.3s loss=238.236, TAw acc=  2.4% | *
| Epoch   2, time=  8.0s | Train: skip eval | Valid: time=  0.2s loss=238.212, TAw acc=  4.8% | *
…
>>> Test on task 14 : loss=180.224 | TAw acc= 96.2%, forg=  0.0%| TAg acc= 64.4%, forg=  2.9% <<<
>>> Test on task 15 : loss=183.645 | TAw acc= 92.7%, forg=  0.0%| TAg acc= 77.2%, forg=  0.8% <<<
>>> Test on task 16 : loss=202.181 | TAw acc= 97.4%, forg=  0.0%| TAg acc= 73.5%, forg=  0.9% <<<
>>> Test on task 17 : loss=209.105 | TAw acc= 92.5%, forg=  0.0%| TAg acc= 75.5%, forg=  0.0% <<<
>>> Test on task 18 : loss=219.959 | TAw acc= 94.1%, forg=  0.0%| TAg acc= 82.4%, forg=  0.0% <<<
>>> Test on task 19 : loss=235.192 | TAw acc= 90.4%, forg=  0.0%| TAg acc= 72.8%, forg=  0.0% <<<
Save at k=100/icarl_wisdm_1/wisdm_flex_icarl
======
LLL_Net(
  (model): SimpleMLP(
    (fc1): Linear(in_features=91, out_features=1000, bias=True)
    (fc2): Sequential()
  )
  (heads): ModuleList(
    (0): Linear(in_features=1000, out_features=34, bias=True)
    (1): Linear(in_features=1000, out_features=20, bias=True)
    (2): Linear(in_features=1000, out_features=20, bias=True)
    (3): Linear(in_features=1000, out_features=20, bias=True)
    (4): Linear(in_features=1000, out_features=20, bias=True)
    (5): Linear(in_features=1000, out_features=20, bias=True)
    (6): Linear(in_features=1000, out_features=20, bias=True)
    (7): Linear(in_features=1000, out_features=20, bias=True)
    (8): Linear(in_features=1000, out_features=20, bias=True)
    (9): Linear(in_features=1000, out_features=20, bias=True)
    (10): Linear(in_features=1000, out_features=20, bias=True)
    (11): Linear(in_features=1000, out_features=20, bias=True)
    (12): Linear(in_features=1000, out_features=20, bias=True)
    (13): Linear(in_features=1000, out_features=20, bias=True)
    (14): Linear(in_features=1000, out_features=20, bias=True)
    (15): Linear(in_features=1000, out_features=20, bias=True)
    (16): Linear(in_features=1000, out_features=20, bias=True)
    (17): Linear(in_features=1000, out_features=20, bias=True)
    (18): Linear(in_features=1000, out_features=20, bias=True)
    (19): Linear(in_features=1000, out_features=20, bias=True)
  )
)
======

************************************************************************************************************
Task 20
************************************************************************************************************
| Epoch   1, time=  8.7s | Train: skip eval | Valid: time=  0.2s loss=241.677, TAw acc=  6.3% | *
| Epoch   2, time=  8.2s | Train: skip eval | Valid: time=  0.3s loss=241.639, TAw acc=  6.3% | *
…
>>> Test on task 15 : loss=182.978 | TAw acc= 92.7%, forg=  0.0%| TAg acc= 74.8%, forg=  3.3% <<<
>>> Test on task 16 : loss=201.485 | TAw acc= 97.4%, forg=  0.0%| TAg acc= 73.5%, forg=  0.9% <<<
>>> Test on task 17 : loss=208.386 | TAw acc= 92.5%, forg=  0.0%| TAg acc= 75.5%, forg=  0.0% <<<
>>> Test on task 18 : loss=219.241 | TAw acc= 94.1%, forg=  0.0%| TAg acc= 81.5%, forg=  0.8% <<<
>>> Test on task 19 : loss=234.345 | TAw acc= 90.4%, forg=  0.0%| TAg acc= 71.1%, forg=  1.8% <<<
>>> Test on task 20 : loss=237.190 | TAw acc= 97.2%, forg=  0.0%| TAg acc= 71.3%, forg=  0.0% <<<
Save at k=100/icarl_wisdm_1/wisdm_flex_icarl
======
LLL_Net(
  (model): SimpleMLP(
    (fc1): Linear(in_features=91, out_features=1000, bias=True)
    (fc2): Sequential()
  )
  (heads): ModuleList(
    (0): Linear(in_features=1000, out_features=34, bias=True)
    (1): Linear(in_features=1000, out_features=20, bias=True)
    (2): Linear(in_features=1000, out_features=20, bias=True)
    (3): Linear(in_features=1000, out_features=20, bias=True)
    (4): Linear(in_features=1000, out_features=20, bias=True)
    (5): Linear(in_features=1000, out_features=20, bias=True)
    (6): Linear(in_features=1000, out_features=20, bias=True)
    (7): Linear(in_features=1000, out_features=20, bias=True)
    (8): Linear(in_features=1000, out_features=20, bias=True)
    (9): Linear(in_features=1000, out_features=20, bias=True)
    (10): Linear(in_features=1000, out_features=20, bias=True)
    (11): Linear(in_features=1000, out_features=20, bias=True)
    (12): Linear(in_features=1000, out_features=20, bias=True)
    (13): Linear(in_features=1000, out_features=20, bias=True)
    (14): Linear(in_features=1000, out_features=20, bias=True)
    (15): Linear(in_features=1000, out_features=20, bias=True)
    (16): Linear(in_features=1000, out_features=20, bias=True)
    (17): Linear(in_features=1000, out_features=20, bias=True)
    (18): Linear(in_features=1000, out_features=20, bias=True)
    (19): Linear(in_features=1000, out_features=20, bias=True)
    (20): Linear(in_features=1000, out_features=20, bias=True)
  )
)
======

************************************************************************************************************
Task 21
************************************************************************************************************
| Epoch   1, time=  9.6s | Train: skip eval | Valid: time=  0.3s loss=246.439, TAw acc=  5.6% | *
| Epoch   2, time=  9.5s | Train: skip eval | Valid: time=  0.3s loss=246.378, TAw acc= 10.1% | *
…
>>> Test on task 16 : loss=200.756 | TAw acc= 97.4%, forg=  0.0%| TAg acc= 73.5%, forg=  0.9% <<<
>>> Test on task 17 : loss=207.687 | TAw acc= 92.5%, forg=  0.0%| TAg acc= 75.5%, forg=  0.0% <<<
>>> Test on task 18 : loss=218.490 | TAw acc= 94.1%, forg=  0.0%| TAg acc= 81.5%, forg=  0.8% <<<
>>> Test on task 19 : loss=233.473 | TAw acc= 90.4%, forg=  0.0%| TAg acc= 71.1%, forg=  1.8% <<<
>>> Test on task 20 : loss=236.596 | TAw acc= 97.2%, forg=  0.0%| TAg acc= 70.4%, forg=  0.9% <<<
>>> Test on task 21 : loss=239.037 | TAw acc= 91.5%, forg=  0.0%| TAg acc= 74.6%, forg=  0.0% <<<
Save at k=100/icarl_wisdm_1/wisdm_flex_icarl
======
LLL_Net(
  (model): SimpleMLP(
    (fc1): Linear(in_features=91, out_features=1000, bias=True)
    (fc2): Sequential()
  )
  (heads): ModuleList(
    (0): Linear(in_features=1000, out_features=34, bias=True)
    (1): Linear(in_features=1000, out_features=20, bias=True)
    (2): Linear(in_features=1000, out_features=20, bias=True)
    (3): Linear(in_features=1000, out_features=20, bias=True)
    (4): Linear(in_features=1000, out_features=20, bias=True)
    (5): Linear(in_features=1000, out_features=20, bias=True)
    (6): Linear(in_features=1000, out_features=20, bias=True)
    (7): Linear(in_features=1000, out_features=20, bias=True)
    (8): Linear(in_features=1000, out_features=20, bias=True)
    (9): Linear(in_features=1000, out_features=20, bias=True)
    (10): Linear(in_features=1000, out_features=20, bias=True)
    (11): Linear(in_features=1000, out_features=20, bias=True)
    (12): Linear(in_features=1000, out_features=20, bias=True)
    (13): Linear(in_features=1000, out_features=20, bias=True)
    (14): Linear(in_features=1000, out_features=20, bias=True)
    (15): Linear(in_features=1000, out_features=20, bias=True)
    (16): Linear(in_features=1000, out_features=20, bias=True)
    (17): Linear(in_features=1000, out_features=20, bias=True)
    (18): Linear(in_features=1000, out_features=20, bias=True)
    (19): Linear(in_features=1000, out_features=20, bias=True)
    (20): Linear(in_features=1000, out_features=20, bias=True)
    (21): Linear(in_features=1000, out_features=20, bias=True)
  )
)
======

************************************************************************************************************
Task 22
************************************************************************************************************
| Epoch   1, time= 10.3s | Train: skip eval | Valid: time=  0.3s loss=255.812, TAw acc=  1.2% | *
| Epoch   2, time=  9.7s | Train: skip eval | Valid: time=  0.3s loss=255.734, TAw acc=  1.2% | *
…
>>> Test on task 17 : loss=206.952 | TAw acc= 92.5%, forg=  0.0%| TAg acc= 75.5%, forg=  0.0% <<<
>>> Test on task 18 : loss=217.770 | TAw acc= 94.1%, forg=  0.0%| TAg acc= 81.5%, forg=  0.8% <<<
>>> Test on task 19 : loss=232.587 | TAw acc= 90.4%, forg=  0.0%| TAg acc= 71.1%, forg=  1.8% <<<
>>> Test on task 20 : loss=235.786 | TAw acc= 97.2%, forg=  0.0%| TAg acc= 70.4%, forg=  0.9% <<<
>>> Test on task 21 : loss=238.449 | TAw acc= 91.5%, forg=  0.0%| TAg acc= 74.6%, forg=  0.0% <<<
>>> Test on task 22 : loss=249.774 | TAw acc= 98.2%, forg=  0.0%| TAg acc= 67.6%, forg=  0.0% <<<
Save at k=100/icarl_wisdm_1/wisdm_flex_icarl
======
LLL_Net(
  (model): SimpleMLP(
    (fc1): Linear(in_features=91, out_features=1000, bias=True)
    (fc2): Sequential()
  )
  (heads): ModuleList(
    (0): Linear(in_features=1000, out_features=34, bias=True)
    (1): Linear(in_features=1000, out_features=20, bias=True)
    (2): Linear(in_features=1000, out_features=20, bias=True)
    (3): Linear(in_features=1000, out_features=20, bias=True)
    (4): Linear(in_features=1000, out_features=20, bias=True)
    (5): Linear(in_features=1000, out_features=20, bias=True)
    (6): Linear(in_features=1000, out_features=20, bias=True)
    (7): Linear(in_features=1000, out_features=20, bias=True)
    (8): Linear(in_features=1000, out_features=20, bias=True)
    (9): Linear(in_features=1000, out_features=20, bias=True)
    (10): Linear(in_features=1000, out_features=20, bias=True)
    (11): Linear(in_features=1000, out_features=20, bias=True)
    (12): Linear(in_features=1000, out_features=20, bias=True)
    (13): Linear(in_features=1000, out_features=20, bias=True)
    (14): Linear(in_features=1000, out_features=20, bias=True)
    (15): Linear(in_features=1000, out_features=20, bias=True)
    (16): Linear(in_features=1000, out_features=20, bias=True)
    (17): Linear(in_features=1000, out_features=20, bias=True)
    (18): Linear(in_features=1000, out_features=20, bias=True)
    (19): Linear(in_features=1000, out_features=20, bias=True)
    (20): Linear(in_features=1000, out_features=20, bias=True)
    (21): Linear(in_features=1000, out_features=20, bias=True)
    (22): Linear(in_features=1000, out_features=20, bias=True)
  )
)
======

************************************************************************************************************
Task 23
************************************************************************************************************
| Epoch   1, time= 11.0s | Train: skip eval | Valid: time=  0.2s loss=263.765, TAw acc=  0.0% | *
| Epoch   2, time= 11.0s | Train: skip eval | Valid: time=  0.3s loss=263.701, TAw acc=  0.0% | *
…
>>> Test on task 18 : loss=216.975 | TAw acc= 94.1%, forg=  0.0%| TAg acc= 81.5%, forg=  0.8% <<<
>>> Test on task 19 : loss=231.723 | TAw acc= 90.4%, forg=  0.0%| TAg acc= 71.1%, forg=  1.8% <<<
>>> Test on task 20 : loss=235.027 | TAw acc= 97.2%, forg=  0.0%| TAg acc= 70.4%, forg=  0.9% <<<
>>> Test on task 21 : loss=237.655 | TAw acc= 91.5%, forg=  0.0%| TAg acc= 73.7%, forg=  0.8% <<<
>>> Test on task 22 : loss=249.142 | TAw acc= 98.2%, forg=  0.0%| TAg acc= 64.0%, forg=  3.6% <<<
>>> Test on task 23 : loss=257.776 | TAw acc= 90.6%, forg=  0.0%| TAg acc= 67.9%, forg=  0.0% <<<
Save at k=100/icarl_wisdm_1/wisdm_flex_icarl
======
LLL_Net(
  (model): SimpleMLP(
    (fc1): Linear(in_features=91, out_features=1000, bias=True)
    (fc2): Sequential()
  )
  (heads): ModuleList(
    (0): Linear(in_features=1000, out_features=34, bias=True)
    (1): Linear(in_features=1000, out_features=20, bias=True)
    (2): Linear(in_features=1000, out_features=20, bias=True)
    (3): Linear(in_features=1000, out_features=20, bias=True)
    (4): Linear(in_features=1000, out_features=20, bias=True)
    (5): Linear(in_features=1000, out_features=20, bias=True)
    (6): Linear(in_features=1000, out_features=20, bias=True)
    (7): Linear(in_features=1000, out_features=20, bias=True)
    (8): Linear(in_features=1000, out_features=20, bias=True)
    (9): Linear(in_features=1000, out_features=20, bias=True)
    (10): Linear(in_features=1000, out_features=20, bias=True)
    (11): Linear(in_features=1000, out_features=20, bias=True)
    (12): Linear(in_features=1000, out_features=20, bias=True)
    (13): Linear(in_features=1000, out_features=20, bias=True)
    (14): Linear(in_features=1000, out_features=20, bias=True)
    (15): Linear(in_features=1000, out_features=20, bias=True)
    (16): Linear(in_features=1000, out_features=20, bias=True)
    (17): Linear(in_features=1000, out_features=20, bias=True)
    (18): Linear(in_features=1000, out_features=20, bias=True)
    (19): Linear(in_features=1000, out_features=20, bias=True)
    (20): Linear(in_features=1000, out_features=20, bias=True)
    (21): Linear(in_features=1000, out_features=20, bias=True)
    (22): Linear(in_features=1000, out_features=20, bias=True)
    (23): Linear(in_features=1000, out_features=20, bias=True)
  )
)
======

************************************************************************************************************
Task 24
************************************************************************************************************
| Epoch   1, time= 11.3s | Train: skip eval | Valid: time=  0.3s loss=280.553, TAw acc=  2.6% | *
| Epoch   2, time= 11.8s | Train: skip eval | Valid: time=  0.2s loss=280.513, TAw acc=  5.2% | *
…
>>> Test on task 19 : loss=230.916 | TAw acc= 90.4%, forg=  0.0%| TAg acc= 71.1%, forg=  1.8% <<<
>>> Test on task 20 : loss=234.241 | TAw acc= 97.2%, forg=  0.0%| TAg acc= 70.4%, forg=  0.9% <<<
>>> Test on task 21 : loss=236.903 | TAw acc= 91.5%, forg=  0.0%| TAg acc= 73.7%, forg=  0.8% <<<
>>> Test on task 22 : loss=248.388 | TAw acc= 98.2%, forg=  0.0%| TAg acc= 64.0%, forg=  3.6% <<<
>>> Test on task 23 : loss=257.201 | TAw acc= 90.6%, forg=  0.0%| TAg acc= 66.0%, forg=  1.9% <<<
>>> Test on task 24 : loss=274.796 | TAw acc= 89.5%, forg=  0.0%| TAg acc= 61.0%, forg=  0.0% <<<
Save at k=100/icarl_wisdm_1/wisdm_flex_icarl
======
LLL_Net(
  (model): SimpleMLP(
    (fc1): Linear(in_features=91, out_features=1000, bias=True)
    (fc2): Sequential()
  )
  (heads): ModuleList(
    (0): Linear(in_features=1000, out_features=34, bias=True)
    (1): Linear(in_features=1000, out_features=20, bias=True)
    (2): Linear(in_features=1000, out_features=20, bias=True)
    (3): Linear(in_features=1000, out_features=20, bias=True)
    (4): Linear(in_features=1000, out_features=20, bias=True)
    (5): Linear(in_features=1000, out_features=20, bias=True)
    (6): Linear(in_features=1000, out_features=20, bias=True)
    (7): Linear(in_features=1000, out_features=20, bias=True)
    (8): Linear(in_features=1000, out_features=20, bias=True)
    (9): Linear(in_features=1000, out_features=20, bias=True)
    (10): Linear(in_features=1000, out_features=20, bias=True)
    (11): Linear(in_features=1000, out_features=20, bias=True)
    (12): Linear(in_features=1000, out_features=20, bias=True)
    (13): Linear(in_features=1000, out_features=20, bias=True)
    (14): Linear(in_features=1000, out_features=20, bias=True)
    (15): Linear(in_features=1000, out_features=20, bias=True)
    (16): Linear(in_features=1000, out_features=20, bias=True)
    (17): Linear(in_features=1000, out_features=20, bias=True)
    (18): Linear(in_features=1000, out_features=20, bias=True)
    (19): Linear(in_features=1000, out_features=20, bias=True)
    (20): Linear(in_features=1000, out_features=20, bias=True)
    (21): Linear(in_features=1000, out_features=20, bias=True)
    (22): Linear(in_features=1000, out_features=20, bias=True)
    (23): Linear(in_features=1000, out_features=20, bias=True)
    (24): Linear(in_features=1000, out_features=20, bias=True)
  )
)
======

************************************************************************************************************
Task 25
************************************************************************************************************
| Epoch   1, time= 11.9s | Train: skip eval | Valid: time=  0.3s loss=289.601, TAw acc=  7.5% | *
| Epoch   2, time= 12.6s | Train: skip eval | Valid: time=  0.3s loss=289.569, TAw acc=  9.0% | *
…
>>> Test on task 20 : loss=233.569 | TAw acc= 97.2%, forg=  0.0%| TAg acc= 70.4%, forg=  0.9% <<<
>>> Test on task 21 : loss=236.173 | TAw acc= 91.5%, forg=  0.0%| TAg acc= 72.9%, forg=  1.7% <<<
>>> Test on task 22 : loss=247.615 | TAw acc= 98.2%, forg=  0.0%| TAg acc= 64.0%, forg=  3.6% <<<
>>> Test on task 23 : loss=256.529 | TAw acc= 90.6%, forg=  0.0%| TAg acc= 66.0%, forg=  1.9% <<<
>>> Test on task 24 : loss=274.162 | TAw acc= 89.5%, forg=  0.0%| TAg acc= 59.0%, forg=  1.9% <<<
>>> Test on task 25 : loss=283.469 | TAw acc= 96.8%, forg=  0.0%| TAg acc= 60.6%, forg=  0.0% <<<
Save at k=100/icarl_wisdm_1/wisdm_flex_icarl
======
LLL_Net(
  (model): SimpleMLP(
    (fc1): Linear(in_features=91, out_features=1000, bias=True)
    (fc2): Sequential()
  )
  (heads): ModuleList(
    (0): Linear(in_features=1000, out_features=34, bias=True)
    (1): Linear(in_features=1000, out_features=20, bias=True)
    (2): Linear(in_features=1000, out_features=20, bias=True)
    (3): Linear(in_features=1000, out_features=20, bias=True)
    (4): Linear(in_features=1000, out_features=20, bias=True)
    (5): Linear(in_features=1000, out_features=20, bias=True)
    (6): Linear(in_features=1000, out_features=20, bias=True)
    (7): Linear(in_features=1000, out_features=20, bias=True)
    (8): Linear(in_features=1000, out_features=20, bias=True)
    (9): Linear(in_features=1000, out_features=20, bias=True)
    (10): Linear(in_features=1000, out_features=20, bias=True)
    (11): Linear(in_features=1000, out_features=20, bias=True)
    (12): Linear(in_features=1000, out_features=20, bias=True)
    (13): Linear(in_features=1000, out_features=20, bias=True)
    (14): Linear(in_features=1000, out_features=20, bias=True)
    (15): Linear(in_features=1000, out_features=20, bias=True)
    (16): Linear(in_features=1000, out_features=20, bias=True)
    (17): Linear(in_features=1000, out_features=20, bias=True)
    (18): Linear(in_features=1000, out_features=20, bias=True)
    (19): Linear(in_features=1000, out_features=20, bias=True)
    (20): Linear(in_features=1000, out_features=20, bias=True)
    (21): Linear(in_features=1000, out_features=20, bias=True)
    (22): Linear(in_features=1000, out_features=20, bias=True)
    (23): Linear(in_features=1000, out_features=20, bias=True)
    (24): Linear(in_features=1000, out_features=20, bias=True)
    (25): Linear(in_features=1000, out_features=20, bias=True)
  )
)
======

************************************************************************************************************
Task 26
************************************************************************************************************
| Epoch   1, time= 12.9s | Train: skip eval | Valid: time=  0.3s loss=288.576, TAw acc=  9.5% | *
| Epoch   2, time= 13.0s | Train: skip eval | Valid: time=  0.3s loss=288.505, TAw acc=  9.5% | *
…
>>> Test on task 21 : loss=235.612 | TAw acc= 91.5%, forg=  0.0%| TAg acc= 70.3%, forg=  4.2% <<<
>>> Test on task 22 : loss=246.925 | TAw acc= 98.2%, forg=  0.0%| TAg acc= 64.0%, forg=  3.6% <<<
>>> Test on task 23 : loss=255.892 | TAw acc= 90.6%, forg=  0.0%| TAg acc= 66.0%, forg=  1.9% <<<
>>> Test on task 24 : loss=273.423 | TAw acc= 89.5%, forg=  0.0%| TAg acc= 58.1%, forg=  2.9% <<<
>>> Test on task 25 : loss=282.709 | TAw acc= 96.8%, forg=  0.0%| TAg acc= 60.6%, forg=  0.0% <<<
>>> Test on task 26 : loss=285.596 | TAw acc= 89.3%, forg=  0.0%| TAg acc= 59.8%, forg=  0.0% <<<
Save at k=100/icarl_wisdm_1/wisdm_flex_icarl
======
LLL_Net(
  (model): SimpleMLP(
    (fc1): Linear(in_features=91, out_features=1000, bias=True)
    (fc2): Sequential()
  )
  (heads): ModuleList(
    (0): Linear(in_features=1000, out_features=34, bias=True)
    (1): Linear(in_features=1000, out_features=20, bias=True)
    (2): Linear(in_features=1000, out_features=20, bias=True)
    (3): Linear(in_features=1000, out_features=20, bias=True)
    (4): Linear(in_features=1000, out_features=20, bias=True)
    (5): Linear(in_features=1000, out_features=20, bias=True)
    (6): Linear(in_features=1000, out_features=20, bias=True)
    (7): Linear(in_features=1000, out_features=20, bias=True)
    (8): Linear(in_features=1000, out_features=20, bias=True)
    (9): Linear(in_features=1000, out_features=20, bias=True)
    (10): Linear(in_features=1000, out_features=20, bias=True)
    (11): Linear(in_features=1000, out_features=20, bias=True)
    (12): Linear(in_features=1000, out_features=20, bias=True)
    (13): Linear(in_features=1000, out_features=20, bias=True)
    (14): Linear(in_features=1000, out_features=20, bias=True)
    (15): Linear(in_features=1000, out_features=20, bias=True)
    (16): Linear(in_features=1000, out_features=20, bias=True)
    (17): Linear(in_features=1000, out_features=20, bias=True)
    (18): Linear(in_features=1000, out_features=20, bias=True)
    (19): Linear(in_features=1000, out_features=20, bias=True)
    (20): Linear(in_features=1000, out_features=20, bias=True)
    (21): Linear(in_features=1000, out_features=20, bias=True)
    (22): Linear(in_features=1000, out_features=20, bias=True)
    (23): Linear(in_features=1000, out_features=20, bias=True)
    (24): Linear(in_features=1000, out_features=20, bias=True)
    (25): Linear(in_features=1000, out_features=20, bias=True)
    (26): Linear(in_features=1000, out_features=20, bias=True)
  )
)
======

************************************************************************************************************
Task 27
************************************************************************************************************
| Epoch   1, time= 14.5s | Train: skip eval | Valid: time=  0.3s loss=311.922, TAw acc=  5.4% | *
| Epoch   2, time= 14.5s | Train: skip eval | Valid: time=  0.3s loss=311.881, TAw acc=  5.4% | *
…
>>> Test on task 22 : loss=246.240 | TAw acc= 98.2%, forg=  0.0%| TAg acc= 61.3%, forg=  6.3% <<<
>>> Test on task 23 : loss=255.224 | TAw acc= 90.6%, forg=  0.0%| TAg acc= 66.0%, forg=  1.9% <<<
>>> Test on task 24 : loss=272.746 | TAw acc= 89.5%, forg=  0.0%| TAg acc= 57.1%, forg=  3.8% <<<
>>> Test on task 25 : loss=281.880 | TAw acc= 96.8%, forg=  0.0%| TAg acc= 58.5%, forg=  2.1% <<<
>>> Test on task 26 : loss=285.056 | TAw acc= 89.3%, forg=  0.0%| TAg acc= 59.8%, forg=  0.0% <<<
>>> Test on task 27 : loss=304.469 | TAw acc= 86.1%, forg=  0.0%| TAg acc= 51.5%, forg=  0.0% <<<
Save at k=100/icarl_wisdm_1/wisdm_flex_icarl
======
LLL_Net(
  (model): SimpleMLP(
    (fc1): Linear(in_features=91, out_features=1000, bias=True)
    (fc2): Sequential()
  )
  (heads): ModuleList(
    (0): Linear(in_features=1000, out_features=34, bias=True)
    (1): Linear(in_features=1000, out_features=20, bias=True)
    (2): Linear(in_features=1000, out_features=20, bias=True)
    (3): Linear(in_features=1000, out_features=20, bias=True)
    (4): Linear(in_features=1000, out_features=20, bias=True)
    (5): Linear(in_features=1000, out_features=20, bias=True)
    (6): Linear(in_features=1000, out_features=20, bias=True)
    (7): Linear(in_features=1000, out_features=20, bias=True)
    (8): Linear(in_features=1000, out_features=20, bias=True)
    (9): Linear(in_features=1000, out_features=20, bias=True)
    (10): Linear(in_features=1000, out_features=20, bias=True)
    (11): Linear(in_features=1000, out_features=20, bias=True)
    (12): Linear(in_features=1000, out_features=20, bias=True)
    (13): Linear(in_features=1000, out_features=20, bias=True)
    (14): Linear(in_features=1000, out_features=20, bias=True)
    (15): Linear(in_features=1000, out_features=20, bias=True)
    (16): Linear(in_features=1000, out_features=20, bias=True)
    (17): Linear(in_features=1000, out_features=20, bias=True)
    (18): Linear(in_features=1000, out_features=20, bias=True)
    (19): Linear(in_features=1000, out_features=20, bias=True)
    (20): Linear(in_features=1000, out_features=20, bias=True)
    (21): Linear(in_features=1000, out_features=20, bias=True)
    (22): Linear(in_features=1000, out_features=20, bias=True)
    (23): Linear(in_features=1000, out_features=20, bias=True)
    (24): Linear(in_features=1000, out_features=20, bias=True)
    (25): Linear(in_features=1000, out_features=20, bias=True)
    (26): Linear(in_features=1000, out_features=20, bias=True)
    (27): Linear(in_features=1000, out_features=20, bias=True)
  )
)
======

************************************************************************************************************
Task 28
************************************************************************************************************
| Epoch   1, time= 15.1s | Train: skip eval | Valid: time=  0.3s loss=310.864, TAw acc=  4.0% | *
| Epoch   2, time= 15.7s | Train: skip eval | Valid: time=  0.3s loss=310.790, TAw acc=  6.1% | *
…
>>> Test on task 23 : loss=254.621 | TAw acc= 90.6%, forg=  0.0%| TAg acc= 66.0%, forg=  1.9% <<<
>>> Test on task 24 : loss=271.998 | TAw acc= 89.5%, forg=  0.0%| TAg acc= 57.1%, forg=  3.8% <<<
>>> Test on task 25 : loss=281.083 | TAw acc= 96.8%, forg=  0.0%| TAg acc= 58.5%, forg=  2.1% <<<
>>> Test on task 26 : loss=284.391 | TAw acc= 89.3%, forg=  0.0%| TAg acc= 59.8%, forg=  0.0% <<<
>>> Test on task 27 : loss=303.718 | TAw acc= 86.1%, forg=  0.0%| TAg acc= 51.5%, forg=  0.0% <<<
>>> Test on task 28 : loss=301.262 | TAw acc= 93.9%, forg=  0.0%| TAg acc= 61.1%, forg=  0.0% <<<
Save at k=100/icarl_wisdm_1/wisdm_flex_icarl
======
LLL_Net(
  (model): SimpleMLP(
    (fc1): Linear(in_features=91, out_features=1000, bias=True)
    (fc2): Sequential()
  )
  (heads): ModuleList(
    (0): Linear(in_features=1000, out_features=34, bias=True)
    (1): Linear(in_features=1000, out_features=20, bias=True)
    (2): Linear(in_features=1000, out_features=20, bias=True)
    (3): Linear(in_features=1000, out_features=20, bias=True)
    (4): Linear(in_features=1000, out_features=20, bias=True)
    (5): Linear(in_features=1000, out_features=20, bias=True)
    (6): Linear(in_features=1000, out_features=20, bias=True)
    (7): Linear(in_features=1000, out_features=20, bias=True)
    (8): Linear(in_features=1000, out_features=20, bias=True)
    (9): Linear(in_features=1000, out_features=20, bias=True)
    (10): Linear(in_features=1000, out_features=20, bias=True)
    (11): Linear(in_features=1000, out_features=20, bias=True)
    (12): Linear(in_features=1000, out_features=20, bias=True)
    (13): Linear(in_features=1000, out_features=20, bias=True)
    (14): Linear(in_features=1000, out_features=20, bias=True)
    (15): Linear(in_features=1000, out_features=20, bias=True)
    (16): Linear(in_features=1000, out_features=20, bias=True)
    (17): Linear(in_features=1000, out_features=20, bias=True)
    (18): Linear(in_features=1000, out_features=20, bias=True)
    (19): Linear(in_features=1000, out_features=20, bias=True)
    (20): Linear(in_features=1000, out_features=20, bias=True)
    (21): Linear(in_features=1000, out_features=20, bias=True)
    (22): Linear(in_features=1000, out_features=20, bias=True)
    (23): Linear(in_features=1000, out_features=20, bias=True)
    (24): Linear(in_features=1000, out_features=20, bias=True)
    (25): Linear(in_features=1000, out_features=20, bias=True)
    (26): Linear(in_features=1000, out_features=20, bias=True)
    (27): Linear(in_features=1000, out_features=20, bias=True)
    (28): Linear(in_features=1000, out_features=20, bias=True)
  )
)
======

************************************************************************************************************
Task 29
************************************************************************************************************
| Epoch   1, time= 16.4s | Train: skip eval | Valid: time=  0.3s loss=324.077, TAw acc= 12.3% | *
| Epoch   2, time= 15.6s | Train: skip eval | Valid: time=  0.3s loss=324.030, TAw acc= 12.3% | *
…
>>> Test on task 24 : loss=271.323 | TAw acc= 89.5%, forg=  0.0%| TAg acc= 56.2%, forg=  4.8% <<<
>>> Test on task 25 : loss=280.304 | TAw acc= 96.8%, forg=  0.0%| TAg acc= 57.4%, forg=  3.2% <<<
>>> Test on task 26 : loss=283.671 | TAw acc= 89.3%, forg=  0.0%| TAg acc= 59.8%, forg=  0.0% <<<
>>> Test on task 27 : loss=302.948 | TAw acc= 86.1%, forg=  0.0%| TAg acc= 51.5%, forg=  0.0% <<<
>>> Test on task 28 : loss=300.679 | TAw acc= 93.9%, forg=  0.0%| TAg acc= 61.1%, forg=  0.0% <<<
>>> Test on task 29 : loss=316.337 | TAw acc= 91.7%, forg=  0.0%| TAg acc= 56.0%, forg=  0.0% <<<
Save at k=100/icarl_wisdm_1/wisdm_flex_icarl
======
LLL_Net(
  (model): SimpleMLP(
    (fc1): Linear(in_features=91, out_features=1000, bias=True)
    (fc2): Sequential()
  )
  (heads): ModuleList(
    (0): Linear(in_features=1000, out_features=34, bias=True)
    (1): Linear(in_features=1000, out_features=20, bias=True)
    (2): Linear(in_features=1000, out_features=20, bias=True)
    (3): Linear(in_features=1000, out_features=20, bias=True)
    (4): Linear(in_features=1000, out_features=20, bias=True)
    (5): Linear(in_features=1000, out_features=20, bias=True)
    (6): Linear(in_features=1000, out_features=20, bias=True)
    (7): Linear(in_features=1000, out_features=20, bias=True)
    (8): Linear(in_features=1000, out_features=20, bias=True)
    (9): Linear(in_features=1000, out_features=20, bias=True)
    (10): Linear(in_features=1000, out_features=20, bias=True)
    (11): Linear(in_features=1000, out_features=20, bias=True)
    (12): Linear(in_features=1000, out_features=20, bias=True)
    (13): Linear(in_features=1000, out_features=20, bias=True)
    (14): Linear(in_features=1000, out_features=20, bias=True)
    (15): Linear(in_features=1000, out_features=20, bias=True)
    (16): Linear(in_features=1000, out_features=20, bias=True)
    (17): Linear(in_features=1000, out_features=20, bias=True)
    (18): Linear(in_features=1000, out_features=20, bias=True)
    (19): Linear(in_features=1000, out_features=20, bias=True)
    (20): Linear(in_features=1000, out_features=20, bias=True)
    (21): Linear(in_features=1000, out_features=20, bias=True)
    (22): Linear(in_features=1000, out_features=20, bias=True)
    (23): Linear(in_features=1000, out_features=20, bias=True)
    (24): Linear(in_features=1000, out_features=20, bias=True)
    (25): Linear(in_features=1000, out_features=20, bias=True)
    (26): Linear(in_features=1000, out_features=20, bias=True)
    (27): Linear(in_features=1000, out_features=20, bias=True)
    (28): Linear(in_features=1000, out_features=20, bias=True)
    (29): Linear(in_features=1000, out_features=20, bias=True)
  )
)
======

************************************************************************************************************
Task 30
************************************************************************************************************
| Epoch   1, time= 17.5s | Train: skip eval | Valid: time=  0.3s loss=326.451, TAw acc=  1.3% | *
| Epoch   2, time= 17.5s | Train: skip eval | Valid: time=  0.3s loss=326.397, TAw acc=  1.3% | *
…
>>> Test on task 25 : loss=279.534 | TAw acc= 96.8%, forg=  0.0%| TAg acc= 55.3%, forg=  5.3% <<<
>>> Test on task 26 : loss=282.981 | TAw acc= 89.3%, forg=  0.0%| TAg acc= 59.8%, forg=  0.0% <<<
>>> Test on task 27 : loss=302.052 | TAw acc= 86.1%, forg=  0.0%| TAg acc= 51.5%, forg=  0.0% <<<
>>> Test on task 28 : loss=299.956 | TAw acc= 93.9%, forg=  0.0%| TAg acc= 60.3%, forg=  0.8% <<<
>>> Test on task 29 : loss=315.708 | TAw acc= 91.7%, forg=  0.0%| TAg acc= 55.0%, forg=  0.9% <<<
>>> Test on task 30 : loss=322.575 | TAw acc= 94.2%, forg=  0.0%| TAg acc= 66.0%, forg=  0.0% <<<
Save at k=100/icarl_wisdm_1/wisdm_flex_icarl
======
LLL_Net(
  (model): SimpleMLP(
    (fc1): Linear(in_features=91, out_features=1000, bias=True)
    (fc2): Sequential()
  )
  (heads): ModuleList(
    (0): Linear(in_features=1000, out_features=34, bias=True)
    (1): Linear(in_features=1000, out_features=20, bias=True)
    (2): Linear(in_features=1000, out_features=20, bias=True)
    (3): Linear(in_features=1000, out_features=20, bias=True)
    (4): Linear(in_features=1000, out_features=20, bias=True)
    (5): Linear(in_features=1000, out_features=20, bias=True)
    (6): Linear(in_features=1000, out_features=20, bias=True)
    (7): Linear(in_features=1000, out_features=20, bias=True)
    (8): Linear(in_features=1000, out_features=20, bias=True)
    (9): Linear(in_features=1000, out_features=20, bias=True)
    (10): Linear(in_features=1000, out_features=20, bias=True)
    (11): Linear(in_features=1000, out_features=20, bias=True)
    (12): Linear(in_features=1000, out_features=20, bias=True)
    (13): Linear(in_features=1000, out_features=20, bias=True)
    (14): Linear(in_features=1000, out_features=20, bias=True)
    (15): Linear(in_features=1000, out_features=20, bias=True)
    (16): Linear(in_features=1000, out_features=20, bias=True)
    (17): Linear(in_features=1000, out_features=20, bias=True)
    (18): Linear(in_features=1000, out_features=20, bias=True)
    (19): Linear(in_features=1000, out_features=20, bias=True)
    (20): Linear(in_features=1000, out_features=20, bias=True)
    (21): Linear(in_features=1000, out_features=20, bias=True)
    (22): Linear(in_features=1000, out_features=20, bias=True)
    (23): Linear(in_features=1000, out_features=20, bias=True)
    (24): Linear(in_features=1000, out_features=20, bias=True)
    (25): Linear(in_features=1000, out_features=20, bias=True)
    (26): Linear(in_features=1000, out_features=20, bias=True)
    (27): Linear(in_features=1000, out_features=20, bias=True)
    (28): Linear(in_features=1000, out_features=20, bias=True)
    (29): Linear(in_features=1000, out_features=20, bias=True)
    (30): Linear(in_features=1000, out_features=20, bias=True)
  )
)
======

************************************************************************************************************
Task 31
************************************************************************************************************
| Epoch   1, time= 18.5s | Train: skip eval | Valid: time=  0.3s loss=345.490, TAw acc=  4.2% | *
| Epoch   2, time= 17.5s | Train: skip eval | Valid: time=  0.3s loss=345.455, TAw acc=  2.8% | *
…
>>> Test on task 26 : loss=282.305 | TAw acc= 89.3%, forg=  0.0%| TAg acc= 58.0%, forg=  1.8% <<<
>>> Test on task 27 : loss=301.319 | TAw acc= 86.1%, forg=  0.0%| TAg acc= 51.5%, forg=  0.0% <<<
>>> Test on task 28 : loss=299.194 | TAw acc= 93.9%, forg=  0.0%| TAg acc= 60.3%, forg=  0.8% <<<
>>> Test on task 29 : loss=314.961 | TAw acc= 91.7%, forg=  0.0%| TAg acc= 55.0%, forg=  0.9% <<<
>>> Test on task 30 : loss=321.789 | TAw acc= 94.2%, forg=  0.0%| TAg acc= 66.0%, forg=  0.0% <<<
>>> Test on task 31 : loss=339.605 | TAw acc= 88.9%, forg=  0.0%| TAg acc= 57.6%, forg=  0.0% <<<
Save at k=100/icarl_wisdm_1/wisdm_flex_icarl
======
LLL_Net(
  (model): SimpleMLP(
    (fc1): Linear(in_features=91, out_features=1000, bias=True)
    (fc2): Sequential()
  )
  (heads): ModuleList(
    (0): Linear(in_features=1000, out_features=34, bias=True)
    (1): Linear(in_features=1000, out_features=20, bias=True)
    (2): Linear(in_features=1000, out_features=20, bias=True)
    (3): Linear(in_features=1000, out_features=20, bias=True)
    (4): Linear(in_features=1000, out_features=20, bias=True)
    (5): Linear(in_features=1000, out_features=20, bias=True)
    (6): Linear(in_features=1000, out_features=20, bias=True)
    (7): Linear(in_features=1000, out_features=20, bias=True)
    (8): Linear(in_features=1000, out_features=20, bias=True)
    (9): Linear(in_features=1000, out_features=20, bias=True)
    (10): Linear(in_features=1000, out_features=20, bias=True)
    (11): Linear(in_features=1000, out_features=20, bias=True)
    (12): Linear(in_features=1000, out_features=20, bias=True)
    (13): Linear(in_features=1000, out_features=20, bias=True)
    (14): Linear(in_features=1000, out_features=20, bias=True)
    (15): Linear(in_features=1000, out_features=20, bias=True)
    (16): Linear(in_features=1000, out_features=20, bias=True)
    (17): Linear(in_features=1000, out_features=20, bias=True)
    (18): Linear(in_features=1000, out_features=20, bias=True)
    (19): Linear(in_features=1000, out_features=20, bias=True)
    (20): Linear(in_features=1000, out_features=20, bias=True)
    (21): Linear(in_features=1000, out_features=20, bias=True)
    (22): Linear(in_features=1000, out_features=20, bias=True)
    (23): Linear(in_features=1000, out_features=20, bias=True)
    (24): Linear(in_features=1000, out_features=20, bias=True)
    (25): Linear(in_features=1000, out_features=20, bias=True)
    (26): Linear(in_features=1000, out_features=20, bias=True)
    (27): Linear(in_features=1000, out_features=20, bias=True)
    (28): Linear(in_features=1000, out_features=20, bias=True)
    (29): Linear(in_features=1000, out_features=20, bias=True)
    (30): Linear(in_features=1000, out_features=20, bias=True)
    (31): Linear(in_features=1000, out_features=20, bias=True)
  )
)
======

************************************************************************************************************
Task 32
************************************************************************************************************
| Epoch   1, time= 19.4s | Train: skip eval | Valid: time=  0.3s loss=351.902, TAw acc=  0.0% | *
| Epoch   2, time= 18.7s | Train: skip eval | Valid: time=  0.3s loss=351.862, TAw acc=  0.0% | *
…
>>> Test on task 27 : loss=300.586 | TAw acc= 86.1%, forg=  0.0%| TAg acc= 51.5%, forg=  0.0% <<<
>>> Test on task 28 : loss=298.510 | TAw acc= 93.9%, forg=  0.0%| TAg acc= 60.3%, forg=  0.8% <<<
>>> Test on task 29 : loss=314.198 | TAw acc= 91.7%, forg=  0.0%| TAg acc= 55.0%, forg=  0.9% <<<
>>> Test on task 30 : loss=320.900 | TAw acc= 94.2%, forg=  0.0%| TAg acc= 66.0%, forg=  0.0% <<<
>>> Test on task 31 : loss=338.873 | TAw acc= 88.9%, forg=  0.0%| TAg acc= 57.6%, forg=  0.0% <<<
>>> Test on task 32 : loss=348.504 | TAw acc= 93.2%, forg=  0.0%| TAg acc= 57.3%, forg=  0.0% <<<
Save at k=100/icarl_wisdm_1/wisdm_flex_icarl
======
LLL_Net(
  (model): SimpleMLP(
    (fc1): Linear(in_features=91, out_features=1000, bias=True)
    (fc2): Sequential()
  )
  (heads): ModuleList(
    (0): Linear(in_features=1000, out_features=34, bias=True)
    (1): Linear(in_features=1000, out_features=20, bias=True)
    (2): Linear(in_features=1000, out_features=20, bias=True)
    (3): Linear(in_features=1000, out_features=20, bias=True)
    (4): Linear(in_features=1000, out_features=20, bias=True)
    (5): Linear(in_features=1000, out_features=20, bias=True)
    (6): Linear(in_features=1000, out_features=20, bias=True)
    (7): Linear(in_features=1000, out_features=20, bias=True)
    (8): Linear(in_features=1000, out_features=20, bias=True)
    (9): Linear(in_features=1000, out_features=20, bias=True)
    (10): Linear(in_features=1000, out_features=20, bias=True)
    (11): Linear(in_features=1000, out_features=20, bias=True)
    (12): Linear(in_features=1000, out_features=20, bias=True)
    (13): Linear(in_features=1000, out_features=20, bias=True)
    (14): Linear(in_features=1000, out_features=20, bias=True)
    (15): Linear(in_features=1000, out_features=20, bias=True)
    (16): Linear(in_features=1000, out_features=20, bias=True)
    (17): Linear(in_features=1000, out_features=20, bias=True)
    (18): Linear(in_features=1000, out_features=20, bias=True)
    (19): Linear(in_features=1000, out_features=20, bias=True)
    (20): Linear(in_features=1000, out_features=20, bias=True)
    (21): Linear(in_features=1000, out_features=20, bias=True)
    (22): Linear(in_features=1000, out_features=20, bias=True)
    (23): Linear(in_features=1000, out_features=20, bias=True)
    (24): Linear(in_features=1000, out_features=20, bias=True)
    (25): Linear(in_features=1000, out_features=20, bias=True)
    (26): Linear(in_features=1000, out_features=20, bias=True)
    (27): Linear(in_features=1000, out_features=20, bias=True)
    (28): Linear(in_features=1000, out_features=20, bias=True)
    (29): Linear(in_features=1000, out_features=20, bias=True)
    (30): Linear(in_features=1000, out_features=20, bias=True)
    (31): Linear(in_features=1000, out_features=20, bias=True)
    (32): Linear(in_features=1000, out_features=20, bias=True)
  )
)
======

************************************************************************************************************
Task 33
************************************************************************************************************
| Epoch   1, time= 20.2s | Train: skip eval | Valid: time=  0.3s loss=370.583, TAw acc=  4.0% | *
| Epoch   2, time= 20.3s | Train: skip eval | Valid: time=  0.3s loss=370.550, TAw acc=  4.0% | *
…
>>> Test on task 28 : loss=297.892 | TAw acc= 93.9%, forg=  0.0%| TAg acc= 60.3%, forg=  0.8% <<<
>>> Test on task 29 : loss=313.438 | TAw acc= 91.7%, forg=  0.0%| TAg acc= 55.0%, forg=  0.9% <<<
>>> Test on task 30 : loss=320.024 | TAw acc= 94.2%, forg=  0.0%| TAg acc= 66.0%, forg=  0.0% <<<
>>> Test on task 31 : loss=338.043 | TAw acc= 88.9%, forg=  0.0%| TAg acc= 57.6%, forg=  0.0% <<<
>>> Test on task 32 : loss=347.878 | TAw acc= 93.2%, forg=  0.0%| TAg acc= 57.3%, forg=  0.0% <<<
>>> Test on task 33 : loss=361.025 | TAw acc= 94.1%, forg=  0.0%| TAg acc= 51.0%, forg=  0.0% <<<
Save at k=100/icarl_wisdm_1/wisdm_flex_icarl
======
LLL_Net(
  (model): SimpleMLP(
    (fc1): Linear(in_features=91, out_features=1000, bias=True)
    (fc2): Sequential()
  )
  (heads): ModuleList(
    (0): Linear(in_features=1000, out_features=34, bias=True)
    (1): Linear(in_features=1000, out_features=20, bias=True)
    (2): Linear(in_features=1000, out_features=20, bias=True)
    (3): Linear(in_features=1000, out_features=20, bias=True)
    (4): Linear(in_features=1000, out_features=20, bias=True)
    (5): Linear(in_features=1000, out_features=20, bias=True)
    (6): Linear(in_features=1000, out_features=20, bias=True)
    (7): Linear(in_features=1000, out_features=20, bias=True)
    (8): Linear(in_features=1000, out_features=20, bias=True)
    (9): Linear(in_features=1000, out_features=20, bias=True)
    (10): Linear(in_features=1000, out_features=20, bias=True)
    (11): Linear(in_features=1000, out_features=20, bias=True)
    (12): Linear(in_features=1000, out_features=20, bias=True)
    (13): Linear(in_features=1000, out_features=20, bias=True)
    (14): Linear(in_features=1000, out_features=20, bias=True)
    (15): Linear(in_features=1000, out_features=20, bias=True)
    (16): Linear(in_features=1000, out_features=20, bias=True)
    (17): Linear(in_features=1000, out_features=20, bias=True)
    (18): Linear(in_features=1000, out_features=20, bias=True)
    (19): Linear(in_features=1000, out_features=20, bias=True)
    (20): Linear(in_features=1000, out_features=20, bias=True)
    (21): Linear(in_features=1000, out_features=20, bias=True)
    (22): Linear(in_features=1000, out_features=20, bias=True)
    (23): Linear(in_features=1000, out_features=20, bias=True)
    (24): Linear(in_features=1000, out_features=20, bias=True)
    (25): Linear(in_features=1000, out_features=20, bias=True)
    (26): Linear(in_features=1000, out_features=20, bias=True)
    (27): Linear(in_features=1000, out_features=20, bias=True)
    (28): Linear(in_features=1000, out_features=20, bias=True)
    (29): Linear(in_features=1000, out_features=20, bias=True)
    (30): Linear(in_features=1000, out_features=20, bias=True)
    (31): Linear(in_features=1000, out_features=20, bias=True)
    (32): Linear(in_features=1000, out_features=20, bias=True)
    (33): Linear(in_features=1000, out_features=20, bias=True)
  )
)
======

************************************************************************************************************
Task 34
************************************************************************************************************
| Epoch   1, time= 21.2s | Train: skip eval | Valid: time=  0.3s loss=376.490, TAw acc= 15.3% | *
| Epoch   2, time= 21.4s | Train: skip eval | Valid: time=  0.3s loss=376.453, TAw acc= 15.3% | *
…
>>> Test on task 29 : loss=312.761 | TAw acc= 91.7%, forg=  0.0%| TAg acc= 55.0%, forg=  0.9% <<<
>>> Test on task 30 : loss=319.196 | TAw acc= 94.2%, forg=  0.0%| TAg acc= 66.0%, forg=  0.0% <<<
>>> Test on task 31 : loss=337.240 | TAw acc= 88.9%, forg=  0.0%| TAg acc= 57.6%, forg=  0.0% <<<
>>> Test on task 32 : loss=347.156 | TAw acc= 93.2%, forg=  0.0%| TAg acc= 57.3%, forg=  0.0% <<<
>>> Test on task 33 : loss=360.261 | TAw acc= 94.1%, forg=  0.0%| TAg acc= 50.0%, forg=  1.0% <<<
>>> Test on task 34 : loss=366.019 | TAw acc= 94.0%, forg=  0.0%| TAg acc= 72.0%, forg=  0.0% <<<
Save at k=100/icarl_wisdm_1/wisdm_flex_icarl
======
LLL_Net(
  (model): SimpleMLP(
    (fc1): Linear(in_features=91, out_features=1000, bias=True)
    (fc2): Sequential()
  )
  (heads): ModuleList(
    (0): Linear(in_features=1000, out_features=34, bias=True)
    (1): Linear(in_features=1000, out_features=20, bias=True)
    (2): Linear(in_features=1000, out_features=20, bias=True)
    (3): Linear(in_features=1000, out_features=20, bias=True)
    (4): Linear(in_features=1000, out_features=20, bias=True)
    (5): Linear(in_features=1000, out_features=20, bias=True)
    (6): Linear(in_features=1000, out_features=20, bias=True)
    (7): Linear(in_features=1000, out_features=20, bias=True)
    (8): Linear(in_features=1000, out_features=20, bias=True)
    (9): Linear(in_features=1000, out_features=20, bias=True)
    (10): Linear(in_features=1000, out_features=20, bias=True)
    (11): Linear(in_features=1000, out_features=20, bias=True)
    (12): Linear(in_features=1000, out_features=20, bias=True)
    (13): Linear(in_features=1000, out_features=20, bias=True)
    (14): Linear(in_features=1000, out_features=20, bias=True)
    (15): Linear(in_features=1000, out_features=20, bias=True)
    (16): Linear(in_features=1000, out_features=20, bias=True)
    (17): Linear(in_features=1000, out_features=20, bias=True)
    (18): Linear(in_features=1000, out_features=20, bias=True)
    (19): Linear(in_features=1000, out_features=20, bias=True)
    (20): Linear(in_features=1000, out_features=20, bias=True)
    (21): Linear(in_features=1000, out_features=20, bias=True)
    (22): Linear(in_features=1000, out_features=20, bias=True)
    (23): Linear(in_features=1000, out_features=20, bias=True)
    (24): Linear(in_features=1000, out_features=20, bias=True)
    (25): Linear(in_features=1000, out_features=20, bias=True)
    (26): Linear(in_features=1000, out_features=20, bias=True)
    (27): Linear(in_features=1000, out_features=20, bias=True)
    (28): Linear(in_features=1000, out_features=20, bias=True)
    (29): Linear(in_features=1000, out_features=20, bias=True)
    (30): Linear(in_features=1000, out_features=20, bias=True)
    (31): Linear(in_features=1000, out_features=20, bias=True)
    (32): Linear(in_features=1000, out_features=20, bias=True)
    (33): Linear(in_features=1000, out_features=20, bias=True)
    (34): Linear(in_features=1000, out_features=20, bias=True)
  )
)
======

************************************************************************************************************
Task 35
************************************************************************************************************
| Epoch   1, time= 23.7s | Train: skip eval | Valid: time=  0.3s loss=357.737, TAw acc=  5.6% | *
| Epoch   2, time= 24.0s | Train: skip eval | Valid: time=  0.3s loss=357.639, TAw acc=  5.6% | *
…
>>> Test on task 30 : loss=318.456 | TAw acc= 94.2%, forg=  0.0%| TAg acc= 65.0%, forg=  1.0% <<<
>>> Test on task 31 : loss=336.531 | TAw acc= 88.9%, forg=  0.0%| TAg acc= 56.6%, forg=  1.0% <<<
>>> Test on task 32 : loss=346.415 | TAw acc= 93.2%, forg=  0.0%| TAg acc= 57.3%, forg=  0.0% <<<
>>> Test on task 33 : loss=359.429 | TAw acc= 94.1%, forg=  0.0%| TAg acc= 49.0%, forg=  2.0% <<<
>>> Test on task 34 : loss=365.191 | TAw acc= 94.0%, forg=  0.0%| TAg acc= 72.0%, forg=  0.0% <<<
>>> Test on task 35 : loss=350.600 | TAw acc= 94.1%, forg=  0.0%| TAg acc= 78.2%, forg=  0.0% <<<
Save at k=100/icarl_wisdm_1/wisdm_flex_icarl
======
LLL_Net(
  (model): SimpleMLP(
    (fc1): Linear(in_features=91, out_features=1000, bias=True)
    (fc2): Sequential()
  )
  (heads): ModuleList(
    (0): Linear(in_features=1000, out_features=34, bias=True)
    (1): Linear(in_features=1000, out_features=20, bias=True)
    (2): Linear(in_features=1000, out_features=20, bias=True)
    (3): Linear(in_features=1000, out_features=20, bias=True)
    (4): Linear(in_features=1000, out_features=20, bias=True)
    (5): Linear(in_features=1000, out_features=20, bias=True)
    (6): Linear(in_features=1000, out_features=20, bias=True)
    (7): Linear(in_features=1000, out_features=20, bias=True)
    (8): Linear(in_features=1000, out_features=20, bias=True)
    (9): Linear(in_features=1000, out_features=20, bias=True)
    (10): Linear(in_features=1000, out_features=20, bias=True)
    (11): Linear(in_features=1000, out_features=20, bias=True)
    (12): Linear(in_features=1000, out_features=20, bias=True)
    (13): Linear(in_features=1000, out_features=20, bias=True)
    (14): Linear(in_features=1000, out_features=20, bias=True)
    (15): Linear(in_features=1000, out_features=20, bias=True)
    (16): Linear(in_features=1000, out_features=20, bias=True)
    (17): Linear(in_features=1000, out_features=20, bias=True)
    (18): Linear(in_features=1000, out_features=20, bias=True)
    (19): Linear(in_features=1000, out_features=20, bias=True)
    (20): Linear(in_features=1000, out_features=20, bias=True)
    (21): Linear(in_features=1000, out_features=20, bias=True)
    (22): Linear(in_features=1000, out_features=20, bias=True)
    (23): Linear(in_features=1000, out_features=20, bias=True)
    (24): Linear(in_features=1000, out_features=20, bias=True)
    (25): Linear(in_features=1000, out_features=20, bias=True)
    (26): Linear(in_features=1000, out_features=20, bias=True)
    (27): Linear(in_features=1000, out_features=20, bias=True)
    (28): Linear(in_features=1000, out_features=20, bias=True)
    (29): Linear(in_features=1000, out_features=20, bias=True)
    (30): Linear(in_features=1000, out_features=20, bias=True)
    (31): Linear(in_features=1000, out_features=20, bias=True)
    (32): Linear(in_features=1000, out_features=20, bias=True)
    (33): Linear(in_features=1000, out_features=20, bias=True)
    (34): Linear(in_features=1000, out_features=20, bias=True)
    (35): Linear(in_features=1000, out_features=20, bias=True)
  )
)
======

************************************************************************************************************
Task 36
************************************************************************************************************
| Epoch   1, time= 24.8s | Train: skip eval | Valid: time=  0.4s loss=379.448, TAw acc=  0.0% | *
| Epoch   2, time= 24.6s | Train: skip eval | Valid: time=  0.3s loss=379.378, TAw acc=  0.0% | *
…
>>> Test on task 31 : loss=335.805 | TAw acc= 88.9%, forg=  0.0%| TAg acc= 56.6%, forg=  1.0% <<<
>>> Test on task 32 : loss=345.688 | TAw acc= 93.2%, forg=  0.0%| TAg acc= 57.3%, forg=  0.0% <<<
>>> Test on task 33 : loss=358.545 | TAw acc= 94.1%, forg=  0.0%| TAg acc= 49.0%, forg=  2.0% <<<
>>> Test on task 34 : loss=364.225 | TAw acc= 94.0%, forg=  0.0%| TAg acc= 72.0%, forg=  0.0% <<<
>>> Test on task 35 : loss=350.097 | TAw acc= 94.1%, forg=  0.0%| TAg acc= 77.3%, forg=  0.8% <<<
>>> Test on task 36 : loss=357.746 | TAw acc= 81.0%, forg=  0.0%| TAg acc= 48.3%, forg=  0.0% <<<
Save at k=100/icarl_wisdm_1/wisdm_flex_icarl
======
LLL_Net(
  (model): SimpleMLP(
    (fc1): Linear(in_features=91, out_features=1000, bias=True)
    (fc2): Sequential()
  )
  (heads): ModuleList(
    (0): Linear(in_features=1000, out_features=34, bias=True)
    (1): Linear(in_features=1000, out_features=20, bias=True)
    (2): Linear(in_features=1000, out_features=20, bias=True)
    (3): Linear(in_features=1000, out_features=20, bias=True)
    (4): Linear(in_features=1000, out_features=20, bias=True)
    (5): Linear(in_features=1000, out_features=20, bias=True)
    (6): Linear(in_features=1000, out_features=20, bias=True)
    (7): Linear(in_features=1000, out_features=20, bias=True)
    (8): Linear(in_features=1000, out_features=20, bias=True)
    (9): Linear(in_features=1000, out_features=20, bias=True)
    (10): Linear(in_features=1000, out_features=20, bias=True)
    (11): Linear(in_features=1000, out_features=20, bias=True)
    (12): Linear(in_features=1000, out_features=20, bias=True)
    (13): Linear(in_features=1000, out_features=20, bias=True)
    (14): Linear(in_features=1000, out_features=20, bias=True)
    (15): Linear(in_features=1000, out_features=20, bias=True)
    (16): Linear(in_features=1000, out_features=20, bias=True)
    (17): Linear(in_features=1000, out_features=20, bias=True)
    (18): Linear(in_features=1000, out_features=20, bias=True)
    (19): Linear(in_features=1000, out_features=20, bias=True)
    (20): Linear(in_features=1000, out_features=20, bias=True)
    (21): Linear(in_features=1000, out_features=20, bias=True)
    (22): Linear(in_features=1000, out_features=20, bias=True)
    (23): Linear(in_features=1000, out_features=20, bias=True)
    (24): Linear(in_features=1000, out_features=20, bias=True)
    (25): Linear(in_features=1000, out_features=20, bias=True)
    (26): Linear(in_features=1000, out_features=20, bias=True)
    (27): Linear(in_features=1000, out_features=20, bias=True)
    (28): Linear(in_features=1000, out_features=20, bias=True)
    (29): Linear(in_features=1000, out_features=20, bias=True)
    (30): Linear(in_features=1000, out_features=20, bias=True)
    (31): Linear(in_features=1000, out_features=20, bias=True)
    (32): Linear(in_features=1000, out_features=20, bias=True)
    (33): Linear(in_features=1000, out_features=20, bias=True)
    (34): Linear(in_features=1000, out_features=20, bias=True)
    (35): Linear(in_features=1000, out_features=20, bias=True)
    (36): Linear(in_features=1000, out_features=20, bias=True)
  )
)
======

************************************************************************************************************
Task 37
************************************************************************************************************
| Epoch   1, time= 25.6s | Train: skip eval | Valid: time=  0.3s loss=391.043, TAw acc= 11.8% | *
| Epoch   2, time= 25.5s | Train: skip eval | Valid: time=  0.4s loss=390.963, TAw acc= 15.3% | *
…
>>> Test on task 32 : loss=344.963 | TAw acc= 93.2%, forg=  0.0%| TAg acc= 57.3%, forg=  0.0% <<<
>>> Test on task 33 : loss=357.732 | TAw acc= 94.1%, forg=  0.0%| TAg acc= 49.0%, forg=  2.0% <<<
>>> Test on task 34 : loss=363.335 | TAw acc= 94.0%, forg=  0.0%| TAg acc= 72.0%, forg=  0.0% <<<
>>> Test on task 35 : loss=349.548 | TAw acc= 94.1%, forg=  0.0%| TAg acc= 72.3%, forg=  5.9% <<<
>>> Test on task 36 : loss=357.486 | TAw acc= 81.0%, forg=  0.0%| TAg acc= 48.3%, forg=  0.0% <<<
>>> Test on task 37 : loss=381.062 | TAw acc= 94.7%, forg=  0.0%| TAg acc= 61.4%, forg=  0.0% <<<
Save at k=100/icarl_wisdm_1/wisdm_flex_icarl
======
LLL_Net(
  (model): SimpleMLP(
    (fc1): Linear(in_features=91, out_features=1000, bias=True)
    (fc2): Sequential()
  )
  (heads): ModuleList(
    (0): Linear(in_features=1000, out_features=34, bias=True)
    (1): Linear(in_features=1000, out_features=20, bias=True)
    (2): Linear(in_features=1000, out_features=20, bias=True)
    (3): Linear(in_features=1000, out_features=20, bias=True)
    (4): Linear(in_features=1000, out_features=20, bias=True)
    (5): Linear(in_features=1000, out_features=20, bias=True)
    (6): Linear(in_features=1000, out_features=20, bias=True)
    (7): Linear(in_features=1000, out_features=20, bias=True)
    (8): Linear(in_features=1000, out_features=20, bias=True)
    (9): Linear(in_features=1000, out_features=20, bias=True)
    (10): Linear(in_features=1000, out_features=20, bias=True)
    (11): Linear(in_features=1000, out_features=20, bias=True)
    (12): Linear(in_features=1000, out_features=20, bias=True)
    (13): Linear(in_features=1000, out_features=20, bias=True)
    (14): Linear(in_features=1000, out_features=20, bias=True)
    (15): Linear(in_features=1000, out_features=20, bias=True)
    (16): Linear(in_features=1000, out_features=20, bias=True)
    (17): Linear(in_features=1000, out_features=20, bias=True)
    (18): Linear(in_features=1000, out_features=20, bias=True)
    (19): Linear(in_features=1000, out_features=20, bias=True)
    (20): Linear(in_features=1000, out_features=20, bias=True)
    (21): Linear(in_features=1000, out_features=20, bias=True)
    (22): Linear(in_features=1000, out_features=20, bias=True)
    (23): Linear(in_features=1000, out_features=20, bias=True)
    (24): Linear(in_features=1000, out_features=20, bias=True)
    (25): Linear(in_features=1000, out_features=20, bias=True)
    (26): Linear(in_features=1000, out_features=20, bias=True)
    (27): Linear(in_features=1000, out_features=20, bias=True)
    (28): Linear(in_features=1000, out_features=20, bias=True)
    (29): Linear(in_features=1000, out_features=20, bias=True)
    (30): Linear(in_features=1000, out_features=20, bias=True)
    (31): Linear(in_features=1000, out_features=20, bias=True)
    (32): Linear(in_features=1000, out_features=20, bias=True)
    (33): Linear(in_features=1000, out_features=20, bias=True)
    (34): Linear(in_features=1000, out_features=20, bias=True)
    (35): Linear(in_features=1000, out_features=20, bias=True)
    (36): Linear(in_features=1000, out_features=20, bias=True)
    (37): Linear(in_features=1000, out_features=20, bias=True)
  )
)
======

************************************************************************************************************
Task 38
************************************************************************************************************
| Epoch   1, time= 26.9s | Train: skip eval | Valid: time=  0.3s loss=400.711, TAw acc=  6.9% | *
| Epoch   2, time= 26.5s | Train: skip eval | Valid: time=  0.3s loss=400.658, TAw acc=  6.9% | *
…
>>> Test on task 33 : loss=357.013 | TAw acc= 94.1%, forg=  0.0%| TAg acc= 49.0%, forg=  2.0% <<<
>>> Test on task 34 : loss=362.544 | TAw acc= 94.0%, forg=  0.0%| TAg acc= 72.0%, forg=  0.0% <<<
>>> Test on task 35 : loss=348.852 | TAw acc= 94.1%, forg=  0.0%| TAg acc= 72.3%, forg=  5.9% <<<
>>> Test on task 36 : loss=356.910 | TAw acc= 81.0%, forg=  0.0%| TAg acc= 47.4%, forg=  0.9% <<<
>>> Test on task 37 : loss=380.498 | TAw acc= 94.7%, forg=  0.0%| TAg acc= 60.5%, forg=  0.9% <<<
>>> Test on task 38 : loss=399.566 | TAw acc= 91.5%, forg=  0.0%| TAg acc= 53.0%, forg=  0.0% <<<
Save at k=100/icarl_wisdm_1/wisdm_flex_icarl
======
LLL_Net(
  (model): SimpleMLP(
    (fc1): Linear(in_features=91, out_features=1000, bias=True)
    (fc2): Sequential()
  )
  (heads): ModuleList(
    (0): Linear(in_features=1000, out_features=34, bias=True)
    (1): Linear(in_features=1000, out_features=20, bias=True)
    (2): Linear(in_features=1000, out_features=20, bias=True)
    (3): Linear(in_features=1000, out_features=20, bias=True)
    (4): Linear(in_features=1000, out_features=20, bias=True)
    (5): Linear(in_features=1000, out_features=20, bias=True)
    (6): Linear(in_features=1000, out_features=20, bias=True)
    (7): Linear(in_features=1000, out_features=20, bias=True)
    (8): Linear(in_features=1000, out_features=20, bias=True)
    (9): Linear(in_features=1000, out_features=20, bias=True)
    (10): Linear(in_features=1000, out_features=20, bias=True)
    (11): Linear(in_features=1000, out_features=20, bias=True)
    (12): Linear(in_features=1000, out_features=20, bias=True)
    (13): Linear(in_features=1000, out_features=20, bias=True)
    (14): Linear(in_features=1000, out_features=20, bias=True)
    (15): Linear(in_features=1000, out_features=20, bias=True)
    (16): Linear(in_features=1000, out_features=20, bias=True)
    (17): Linear(in_features=1000, out_features=20, bias=True)
    (18): Linear(in_features=1000, out_features=20, bias=True)
    (19): Linear(in_features=1000, out_features=20, bias=True)
    (20): Linear(in_features=1000, out_features=20, bias=True)
    (21): Linear(in_features=1000, out_features=20, bias=True)
    (22): Linear(in_features=1000, out_features=20, bias=True)
    (23): Linear(in_features=1000, out_features=20, bias=True)
    (24): Linear(in_features=1000, out_features=20, bias=True)
    (25): Linear(in_features=1000, out_features=20, bias=True)
    (26): Linear(in_features=1000, out_features=20, bias=True)
    (27): Linear(in_features=1000, out_features=20, bias=True)
    (28): Linear(in_features=1000, out_features=20, bias=True)
    (29): Linear(in_features=1000, out_features=20, bias=True)
    (30): Linear(in_features=1000, out_features=20, bias=True)
    (31): Linear(in_features=1000, out_features=20, bias=True)
    (32): Linear(in_features=1000, out_features=20, bias=True)
    (33): Linear(in_features=1000, out_features=20, bias=True)
    (34): Linear(in_features=1000, out_features=20, bias=True)
    (35): Linear(in_features=1000, out_features=20, bias=True)
    (36): Linear(in_features=1000, out_features=20, bias=True)
    (37): Linear(in_features=1000, out_features=20, bias=True)
    (38): Linear(in_features=1000, out_features=20, bias=True)
  )
)
======

************************************************************************************************************
Task 39
************************************************************************************************************
| Epoch   1, time= 28.1s | Train: skip eval | Valid: time=  0.3s loss=383.545, TAw acc=  4.2% | *
| Epoch   2, time= 27.0s | Train: skip eval | Valid: time=  0.3s loss=383.474, TAw acc=  4.2% | *
…
>>> Test on task 34 : loss=361.778 | TAw acc= 94.0%, forg=  0.0%| TAg acc= 72.0%, forg=  0.0% <<<
>>> Test on task 35 : loss=348.228 | TAw acc= 94.1%, forg=  0.0%| TAg acc= 72.3%, forg=  5.9% <<<
>>> Test on task 36 : loss=356.295 | TAw acc= 81.0%, forg=  0.0%| TAg acc= 47.4%, forg=  0.9% <<<
>>> Test on task 37 : loss=379.716 | TAw acc= 94.7%, forg=  0.0%| TAg acc= 60.5%, forg=  0.9% <<<
>>> Test on task 38 : loss=398.771 | TAw acc= 91.5%, forg=  0.0%| TAg acc= 53.0%, forg=  0.0% <<<
>>> Test on task 39 : loss=371.274 | TAw acc= 98.0%, forg=  0.0%| TAg acc= 53.0%, forg=  0.0% <<<
Save at k=100/icarl_wisdm_1/wisdm_flex_icarl
======
LLL_Net(
  (model): SimpleMLP(
    (fc1): Linear(in_features=91, out_features=1000, bias=True)
    (fc2): Sequential()
  )
  (heads): ModuleList(
    (0): Linear(in_features=1000, out_features=34, bias=True)
    (1): Linear(in_features=1000, out_features=20, bias=True)
    (2): Linear(in_features=1000, out_features=20, bias=True)
    (3): Linear(in_features=1000, out_features=20, bias=True)
    (4): Linear(in_features=1000, out_features=20, bias=True)
    (5): Linear(in_features=1000, out_features=20, bias=True)
    (6): Linear(in_features=1000, out_features=20, bias=True)
    (7): Linear(in_features=1000, out_features=20, bias=True)
    (8): Linear(in_features=1000, out_features=20, bias=True)
    (9): Linear(in_features=1000, out_features=20, bias=True)
    (10): Linear(in_features=1000, out_features=20, bias=True)
    (11): Linear(in_features=1000, out_features=20, bias=True)
    (12): Linear(in_features=1000, out_features=20, bias=True)
    (13): Linear(in_features=1000, out_features=20, bias=True)
    (14): Linear(in_features=1000, out_features=20, bias=True)
    (15): Linear(in_features=1000, out_features=20, bias=True)
    (16): Linear(in_features=1000, out_features=20, bias=True)
    (17): Linear(in_features=1000, out_features=20, bias=True)
    (18): Linear(in_features=1000, out_features=20, bias=True)
    (19): Linear(in_features=1000, out_features=20, bias=True)
    (20): Linear(in_features=1000, out_features=20, bias=True)
    (21): Linear(in_features=1000, out_features=20, bias=True)
    (22): Linear(in_features=1000, out_features=20, bias=True)
    (23): Linear(in_features=1000, out_features=20, bias=True)
    (24): Linear(in_features=1000, out_features=20, bias=True)
    (25): Linear(in_features=1000, out_features=20, bias=True)
    (26): Linear(in_features=1000, out_features=20, bias=True)
    (27): Linear(in_features=1000, out_features=20, bias=True)
    (28): Linear(in_features=1000, out_features=20, bias=True)
    (29): Linear(in_features=1000, out_features=20, bias=True)
    (30): Linear(in_features=1000, out_features=20, bias=True)
    (31): Linear(in_features=1000, out_features=20, bias=True)
    (32): Linear(in_features=1000, out_features=20, bias=True)
    (33): Linear(in_features=1000, out_features=20, bias=True)
    (34): Linear(in_features=1000, out_features=20, bias=True)
    (35): Linear(in_features=1000, out_features=20, bias=True)
    (36): Linear(in_features=1000, out_features=20, bias=True)
    (37): Linear(in_features=1000, out_features=20, bias=True)
    (38): Linear(in_features=1000, out_features=20, bias=True)
    (39): Linear(in_features=1000, out_features=20, bias=True)
  )
)
======

************************************************************************************************************
Task 40
************************************************************************************************************
| Epoch   1, time= 29.5s | Train: skip eval | Valid: time=  0.3s loss=379.515, TAw acc=  4.2% | *
| Epoch   2, time= 28.2s | Train: skip eval | Valid: time=  0.3s loss=379.423, TAw acc=  5.6% | *
…
>>> Test on task 35 : loss=347.629 | TAw acc= 94.1%, forg=  0.0%| TAg acc= 72.3%, forg=  5.9% <<<
>>> Test on task 36 : loss=355.681 | TAw acc= 81.0%, forg=  0.0%| TAg acc= 47.4%, forg=  0.9% <<<
>>> Test on task 37 : loss=378.923 | TAw acc= 94.7%, forg=  0.0%| TAg acc= 60.5%, forg=  0.9% <<<
>>> Test on task 38 : loss=397.841 | TAw acc= 91.5%, forg=  0.0%| TAg acc= 53.0%, forg=  0.0% <<<
>>> Test on task 39 : loss=370.749 | TAw acc= 98.0%, forg=  0.0%| TAg acc= 53.0%, forg=  0.0% <<<
>>> Test on task 40 : loss=377.464 | TAw acc= 90.9%, forg=  0.0%| TAg acc= 62.6%, forg=  0.0% <<<
Save at k=100/icarl_wisdm_1/wisdm_flex_icarl
======
LLL_Net(
  (model): SimpleMLP(
    (fc1): Linear(in_features=91, out_features=1000, bias=True)
    (fc2): Sequential()
  )
  (heads): ModuleList(
    (0): Linear(in_features=1000, out_features=34, bias=True)
    (1): Linear(in_features=1000, out_features=20, bias=True)
    (2): Linear(in_features=1000, out_features=20, bias=True)
    (3): Linear(in_features=1000, out_features=20, bias=True)
    (4): Linear(in_features=1000, out_features=20, bias=True)
    (5): Linear(in_features=1000, out_features=20, bias=True)
    (6): Linear(in_features=1000, out_features=20, bias=True)
    (7): Linear(in_features=1000, out_features=20, bias=True)
    (8): Linear(in_features=1000, out_features=20, bias=True)
    (9): Linear(in_features=1000, out_features=20, bias=True)
    (10): Linear(in_features=1000, out_features=20, bias=True)
    (11): Linear(in_features=1000, out_features=20, bias=True)
    (12): Linear(in_features=1000, out_features=20, bias=True)
    (13): Linear(in_features=1000, out_features=20, bias=True)
    (14): Linear(in_features=1000, out_features=20, bias=True)
    (15): Linear(in_features=1000, out_features=20, bias=True)
    (16): Linear(in_features=1000, out_features=20, bias=True)
    (17): Linear(in_features=1000, out_features=20, bias=True)
    (18): Linear(in_features=1000, out_features=20, bias=True)
    (19): Linear(in_features=1000, out_features=20, bias=True)
    (20): Linear(in_features=1000, out_features=20, bias=True)
    (21): Linear(in_features=1000, out_features=20, bias=True)
    (22): Linear(in_features=1000, out_features=20, bias=True)
    (23): Linear(in_features=1000, out_features=20, bias=True)
    (24): Linear(in_features=1000, out_features=20, bias=True)
    (25): Linear(in_features=1000, out_features=20, bias=True)
    (26): Linear(in_features=1000, out_features=20, bias=True)
    (27): Linear(in_features=1000, out_features=20, bias=True)
    (28): Linear(in_features=1000, out_features=20, bias=True)
    (29): Linear(in_features=1000, out_features=20, bias=True)
    (30): Linear(in_features=1000, out_features=20, bias=True)
    (31): Linear(in_features=1000, out_features=20, bias=True)
    (32): Linear(in_features=1000, out_features=20, bias=True)
    (33): Linear(in_features=1000, out_features=20, bias=True)
    (34): Linear(in_features=1000, out_features=20, bias=True)
    (35): Linear(in_features=1000, out_features=20, bias=True)
    (36): Linear(in_features=1000, out_features=20, bias=True)
    (37): Linear(in_features=1000, out_features=20, bias=True)
    (38): Linear(in_features=1000, out_features=20, bias=True)
    (39): Linear(in_features=1000, out_features=20, bias=True)
    (40): Linear(in_features=1000, out_features=20, bias=True)
  )
)
======

************************************************************************************************************
Task 41
************************************************************************************************************
| Epoch   1, time= 29.8s | Train: skip eval | Valid: time=  0.4s loss=420.356, TAw acc=  0.0% | *
| Epoch   2, time= 29.9s | Train: skip eval | Valid: time=  0.4s loss=420.294, TAw acc=  1.2% | *
…
>>> Test on task 36 : loss=355.117 | TAw acc= 81.0%, forg=  0.0%| TAg acc= 47.4%, forg=  0.9% <<<
>>> Test on task 37 : loss=378.235 | TAw acc= 94.7%, forg=  0.0%| TAg acc= 60.5%, forg=  0.9% <<<
>>> Test on task 38 : loss=396.983 | TAw acc= 91.5%, forg=  0.0%| TAg acc= 52.1%, forg=  0.9% <<<
>>> Test on task 39 : loss=370.059 | TAw acc= 98.0%, forg=  0.0%| TAg acc= 53.0%, forg=  0.0% <<<
>>> Test on task 40 : loss=376.885 | TAw acc= 90.9%, forg=  0.0%| TAg acc= 61.6%, forg=  1.0% <<<
>>> Test on task 41 : loss=410.765 | TAw acc= 78.1%, forg=  0.0%| TAg acc= 50.0%, forg=  0.0% <<<
Save at k=100/icarl_wisdm_1/wisdm_flex_icarl
======
LLL_Net(
  (model): SimpleMLP(
    (fc1): Linear(in_features=91, out_features=1000, bias=True)
    (fc2): Sequential()
  )
  (heads): ModuleList(
    (0): Linear(in_features=1000, out_features=34, bias=True)
    (1): Linear(in_features=1000, out_features=20, bias=True)
    (2): Linear(in_features=1000, out_features=20, bias=True)
    (3): Linear(in_features=1000, out_features=20, bias=True)
    (4): Linear(in_features=1000, out_features=20, bias=True)
    (5): Linear(in_features=1000, out_features=20, bias=True)
    (6): Linear(in_features=1000, out_features=20, bias=True)
    (7): Linear(in_features=1000, out_features=20, bias=True)
    (8): Linear(in_features=1000, out_features=20, bias=True)
    (9): Linear(in_features=1000, out_features=20, bias=True)
    (10): Linear(in_features=1000, out_features=20, bias=True)
    (11): Linear(in_features=1000, out_features=20, bias=True)
    (12): Linear(in_features=1000, out_features=20, bias=True)
    (13): Linear(in_features=1000, out_features=20, bias=True)
    (14): Linear(in_features=1000, out_features=20, bias=True)
    (15): Linear(in_features=1000, out_features=20, bias=True)
    (16): Linear(in_features=1000, out_features=20, bias=True)
    (17): Linear(in_features=1000, out_features=20, bias=True)
    (18): Linear(in_features=1000, out_features=20, bias=True)
    (19): Linear(in_features=1000, out_features=20, bias=True)
    (20): Linear(in_features=1000, out_features=20, bias=True)
    (21): Linear(in_features=1000, out_features=20, bias=True)
    (22): Linear(in_features=1000, out_features=20, bias=True)
    (23): Linear(in_features=1000, out_features=20, bias=True)
    (24): Linear(in_features=1000, out_features=20, bias=True)
    (25): Linear(in_features=1000, out_features=20, bias=True)
    (26): Linear(in_features=1000, out_features=20, bias=True)
    (27): Linear(in_features=1000, out_features=20, bias=True)
    (28): Linear(in_features=1000, out_features=20, bias=True)
    (29): Linear(in_features=1000, out_features=20, bias=True)
    (30): Linear(in_features=1000, out_features=20, bias=True)
    (31): Linear(in_features=1000, out_features=20, bias=True)
    (32): Linear(in_features=1000, out_features=20, bias=True)
    (33): Linear(in_features=1000, out_features=20, bias=True)
    (34): Linear(in_features=1000, out_features=20, bias=True)
    (35): Linear(in_features=1000, out_features=20, bias=True)
    (36): Linear(in_features=1000, out_features=20, bias=True)
    (37): Linear(in_features=1000, out_features=20, bias=True)
    (38): Linear(in_features=1000, out_features=20, bias=True)
    (39): Linear(in_features=1000, out_features=20, bias=True)
    (40): Linear(in_features=1000, out_features=20, bias=True)
    (41): Linear(in_features=1000, out_features=20, bias=True)
  )
)
======

************************************************************************************************************
Task 42
************************************************************************************************************
| Epoch   1, time= 32.6s | Train: skip eval | Valid: time=  0.4s loss=408.931, TAw acc= 14.8% | *
| Epoch   2, time= 32.8s | Train: skip eval | Valid: time=  0.3s loss=408.843, TAw acc= 15.9% | *
…
>>> Test on task 37 : loss=377.541 | TAw acc= 94.7%, forg=  0.0%| TAg acc= 60.5%, forg=  0.9% <<<
>>> Test on task 38 : loss=396.134 | TAw acc= 91.5%, forg=  0.0%| TAg acc= 52.1%, forg=  0.9% <<<
>>> Test on task 39 : loss=369.383 | TAw acc= 98.0%, forg=  0.0%| TAg acc= 53.0%, forg=  0.0% <<<
>>> Test on task 40 : loss=376.150 | TAw acc= 90.9%, forg=  0.0%| TAg acc= 61.6%, forg=  1.0% <<<
>>> Test on task 41 : loss=410.396 | TAw acc= 78.1%, forg=  0.0%| TAg acc= 50.0%, forg=  0.0% <<<
>>> Test on task 42 : loss=405.730 | TAw acc= 97.4%, forg=  0.0%| TAg acc= 58.6%, forg=  0.0% <<<
Save at k=100/icarl_wisdm_1/wisdm_flex_icarl
======
LLL_Net(
  (model): SimpleMLP(
    (fc1): Linear(in_features=91, out_features=1000, bias=True)
    (fc2): Sequential()
  )
  (heads): ModuleList(
    (0): Linear(in_features=1000, out_features=34, bias=True)
    (1): Linear(in_features=1000, out_features=20, bias=True)
    (2): Linear(in_features=1000, out_features=20, bias=True)
    (3): Linear(in_features=1000, out_features=20, bias=True)
    (4): Linear(in_features=1000, out_features=20, bias=True)
    (5): Linear(in_features=1000, out_features=20, bias=True)
    (6): Linear(in_features=1000, out_features=20, bias=True)
    (7): Linear(in_features=1000, out_features=20, bias=True)
    (8): Linear(in_features=1000, out_features=20, bias=True)
    (9): Linear(in_features=1000, out_features=20, bias=True)
    (10): Linear(in_features=1000, out_features=20, bias=True)
    (11): Linear(in_features=1000, out_features=20, bias=True)
    (12): Linear(in_features=1000, out_features=20, bias=True)
    (13): Linear(in_features=1000, out_features=20, bias=True)
    (14): Linear(in_features=1000, out_features=20, bias=True)
    (15): Linear(in_features=1000, out_features=20, bias=True)
    (16): Linear(in_features=1000, out_features=20, bias=True)
    (17): Linear(in_features=1000, out_features=20, bias=True)
    (18): Linear(in_features=1000, out_features=20, bias=True)
    (19): Linear(in_features=1000, out_features=20, bias=True)
    (20): Linear(in_features=1000, out_features=20, bias=True)
    (21): Linear(in_features=1000, out_features=20, bias=True)
    (22): Linear(in_features=1000, out_features=20, bias=True)
    (23): Linear(in_features=1000, out_features=20, bias=True)
    (24): Linear(in_features=1000, out_features=20, bias=True)
    (25): Linear(in_features=1000, out_features=20, bias=True)
    (26): Linear(in_features=1000, out_features=20, bias=True)
    (27): Linear(in_features=1000, out_features=20, bias=True)
    (28): Linear(in_features=1000, out_features=20, bias=True)
    (29): Linear(in_features=1000, out_features=20, bias=True)
    (30): Linear(in_features=1000, out_features=20, bias=True)
    (31): Linear(in_features=1000, out_features=20, bias=True)
    (32): Linear(in_features=1000, out_features=20, bias=True)
    (33): Linear(in_features=1000, out_features=20, bias=True)
    (34): Linear(in_features=1000, out_features=20, bias=True)
    (35): Linear(in_features=1000, out_features=20, bias=True)
    (36): Linear(in_features=1000, out_features=20, bias=True)
    (37): Linear(in_features=1000, out_features=20, bias=True)
    (38): Linear(in_features=1000, out_features=20, bias=True)
    (39): Linear(in_features=1000, out_features=20, bias=True)
    (40): Linear(in_features=1000, out_features=20, bias=True)
    (41): Linear(in_features=1000, out_features=20, bias=True)
    (42): Linear(in_features=1000, out_features=20, bias=True)
  )
)
======

************************************************************************************************************
Task 43
************************************************************************************************************
| Epoch   1, time= 32.5s | Train: skip eval | Valid: time=  0.4s loss=412.774, TAw acc=  5.9% | *
| Epoch   2, time= 32.5s | Train: skip eval | Valid: time=  0.4s loss=412.687, TAw acc=  8.2% | *
…
