…
mmoth')
Namespace(alpha=0.3, backbone_type='whole', batch_size=20, buffer_size=10, conf_host='elquinto', conf_jobnum='27f4b371-1fbc-405b-9eae-775dd2dda71a', conf_timestamp='2023-08-09 14:07:24.339797', dataid=4, dataset='mod-har', debug_mode=0, disable_log=0, distributed='no', ignore_other_metrics=0, load_data='', lr=0.0001, minibatch_size=20, model='der_har', n_epochs=200, non_verbose=0, notes=None, nowand=0, ntask=15, optim_mom=0.0, optim_nesterov=0, optim_wd=0.0001, save_path='', seed=None, validation=0, wandb_entity='frahman', wandb_project='mammoth')
====TRAINING TASK: 0
SimpleMLP(
  (fc1): Linear(in_features=405, out_features=1000, bias=True)
  (fc2): Linear(in_features=1000, out_features=152, bias=True)
  (_features): Identity()
  (classifier): Sequential(
    (0): Linear(in_features=405, out_features=1000, bias=True)
    (1): ReLU()
    (2): Linear(in_features=1000, out_features=152, bias=True)
  )
  (net): Sequential(
    (0): Identity()
    (1): Sequential(
      (0): Linear(in_features=405, out_features=1000, bias=True)
      (1): ReLU()
      (2): Linear(in_features=1000, out_features=152, bias=True)
    )
  )
)

Accuracy for 1 task(s): 	 [Class-IL]: 21.53 % 	 [Task-IL]: 16.67 %

====TRAINING TASK: 1
SimpleMLP(
  (fc1): Linear(in_features=405, out_features=1000, bias=True)
  (fc2): Linear(in_features=1000, out_features=152, bias=True)
  (_features): Identity()
  (classifier): Sequential(
    (0): Linear(in_features=405, out_features=1000, bias=True)
    (1): ReLU()
    (2): Linear(in_features=1000, out_features=152, bias=True)
  )
  (net): Sequential(
    (0): Identity()
    (1): Sequential(
      (0): Linear(in_features=405, out_features=1000, bias=True)
      (1): ReLU()
      (2): Linear(in_features=1000, out_features=152, bias=True)
    )
  )
)

Accuracy for 2 task(s): 	 [Class-IL]: 16.53 % 	 [Task-IL]: 20.28 %

====TRAINING TASK: 2
SimpleMLP(
  (fc1): Linear(in_features=405, out_features=1000, bias=True)
  (fc2): Linear(in_features=1000, out_features=152, bias=True)
  (_features): Identity()
  (classifier): Sequential(
    (0): Linear(in_features=405, out_features=1000, bias=True)
    (1): ReLU()
    (2): Linear(in_features=1000, out_features=152, bias=True)
  )
  (net): Sequential(
    (0): Identity()
    (1): Sequential(
      (0): Linear(in_features=405, out_features=1000, bias=True)
      (1): ReLU()
      (2): Linear(in_features=1000, out_features=152, bias=True)
    )
  )
)

Accuracy for 3 task(s): 	 [Class-IL]: 9.07 % 	 [Task-IL]: 21.34 %

====TRAINING TASK: 3
SimpleMLP(
  (fc1): Linear(in_features=405, out_features=1000, bias=True)
  (fc2): Linear(in_features=1000, out_features=152, bias=True)
  (_features): Identity()
  (classifier): Sequential(
    (0): Linear(in_features=405, out_features=1000, bias=True)
    (1): ReLU()
    (2): Linear(in_features=1000, out_features=152, bias=True)
  )
  (net): Sequential(
    (0): Identity()
    (1): Sequential(
      (0): Linear(in_features=405, out_features=1000, bias=True)
      (1): ReLU()
      (2): Linear(in_features=1000, out_features=152, bias=True)
    )
  )
)

Accuracy for 4 task(s): 	 [Class-IL]: 2.64 % 	 [Task-IL]: 19.1 %

====TRAINING TASK: 4
SimpleMLP(
  (fc1): Linear(in_features=405, out_features=1000, bias=True)
  (fc2): Linear(in_features=1000, out_features=152, bias=True)
  (_features): Identity()
  (classifier): Sequential(
    (0): Linear(in_features=405, out_features=1000, bias=True)
    (1): ReLU()
    (2): Linear(in_features=1000, out_features=152, bias=True)
  )
  (net): Sequential(
    (0): Identity()
    (1): Sequential(
      (0): Linear(in_features=405, out_features=1000, bias=True)
      (1): ReLU()
      (2): Linear(in_features=1000, out_features=152, bias=True)
    )
  )
)

Accuracy for 5 task(s): 	 [Class-IL]: 6.22 % 	 [Task-IL]: 19.22 %

====TRAINING TASK: 5
SimpleMLP(
  (fc1): Linear(in_features=405, out_features=1000, bias=True)
  (fc2): Linear(in_features=1000, out_features=152, bias=True)
  (_features): Identity()
  (classifier): Sequential(
    (0): Linear(in_features=405, out_features=1000, bias=True)
    (1): ReLU()
    (2): Linear(in_features=1000, out_features=152, bias=True)
  )
  (net): Sequential(
    (0): Identity()
    (1): Sequential(
      (0): Linear(in_features=405, out_features=1000, bias=True)
      (1): ReLU()
      (2): Linear(in_features=1000, out_features=152, bias=True)
    )
  )
)

Accuracy for 6 task(s): 	 [Class-IL]: 5.56 % 	 [Task-IL]: 18.15 %

====TRAINING TASK: 6
SimpleMLP(
  (fc1): Linear(in_features=405, out_features=1000, bias=True)
  (fc2): Linear(in_features=1000, out_features=152, bias=True)
  (_features): Identity()
  (classifier): Sequential(
    (0): Linear(in_features=405, out_features=1000, bias=True)
    (1): ReLU()
    (2): Linear(in_features=1000, out_features=152, bias=True)
  )
  (net): Sequential(
    (0): Identity()
    (1): Sequential(
      (0): Linear(in_features=405, out_features=1000, bias=True)
      (1): ReLU()
      (2): Linear(in_features=1000, out_features=152, bias=True)
    )
  )
)

Accuracy for 7 task(s): 	 [Class-IL]: 4.4 % 	 [Task-IL]: 18.77 %

====TRAINING TASK: 7
SimpleMLP(
  (fc1): Linear(in_features=405, out_features=1000, bias=True)
  (fc2): Linear(in_features=1000, out_features=152, bias=True)
  (_features): Identity()
  (classifier): Sequential(
    (0): Linear(in_features=405, out_features=1000, bias=True)
    (1): ReLU()
    (2): Linear(in_features=1000, out_features=152, bias=True)
  )
  (net): Sequential(
    (0): Identity()
    (1): Sequential(
      (0): Linear(in_features=405, out_features=1000, bias=True)
      (1): ReLU()
      (2): Linear(in_features=1000, out_features=152, bias=True)
    )
  )
)

Accuracy for 8 task(s): 	 [Class-IL]: 4.31 % 	 [Task-IL]: 18.7 %

====TRAINING TASK: 8
SimpleMLP(
  (fc1): Linear(in_features=405, out_features=1000, bias=True)
  (fc2): Linear(in_features=1000, out_features=152, bias=True)
  (_features): Identity()
  (classifier): Sequential(
    (0): Linear(in_features=405, out_features=1000, bias=True)
    (1): ReLU()
    (2): Linear(in_features=1000, out_features=152, bias=True)
  )
  (net): Sequential(
    (0): Identity()
    (1): Sequential(
      (0): Linear(in_features=405, out_features=1000, bias=True)
      (1): ReLU()
      (2): Linear(in_features=1000, out_features=152, bias=True)
    )
  )
)

Accuracy for 9 task(s): 	 [Class-IL]: 3.75 % 	 [Task-IL]: 18.72 %

====TRAINING TASK: 9
SimpleMLP(
  (fc1): Linear(in_features=405, out_features=1000, bias=True)
  (fc2): Linear(in_features=1000, out_features=152, bias=True)
  (_features): Identity()
  (classifier): Sequential(
    (0): Linear(in_features=405, out_features=1000, bias=True)
    (1): ReLU()
    (2): Linear(in_features=1000, out_features=152, bias=True)
  )
  (net): Sequential(
    (0): Identity()
    (1): Sequential(
      (0): Linear(in_features=405, out_features=1000, bias=True)
      (1): ReLU()
      (2): Linear(in_features=1000, out_features=152, bias=True)
    )
  )
)

Accuracy for 10 task(s): 	 [Class-IL]: 3.12 % 	 [Task-IL]: 17.08 %

====TRAINING TASK: 10
SimpleMLP(
  (fc1): Linear(in_features=405, out_features=1000, bias=True)
  (fc2): Linear(in_features=1000, out_features=152, bias=True)
  (_features): Identity()
  (classifier): Sequential(
    (0): Linear(in_features=405, out_features=1000, bias=True)
    (1): ReLU()
    (2): Linear(in_features=1000, out_features=152, bias=True)
  )
  (net): Sequential(
    (0): Identity()
    (1): Sequential(
      (0): Linear(in_features=405, out_features=1000, bias=True)
      (1): ReLU()
      (2): Linear(in_features=1000, out_features=152, bias=True)
    )
  )
)

Accuracy for 11 task(s): 	 [Class-IL]: 3.89 % 	 [Task-IL]: 18.4 %

====TRAINING TASK: 11
SimpleMLP(
  (fc1): Linear(in_features=405, out_features=1000, bias=True)
  (fc2): Linear(in_features=1000, out_features=152, bias=True)
  (_features): Identity()
  (classifier): Sequential(
    (0): Linear(in_features=405, out_features=1000, bias=True)
    (1): ReLU()
    (2): Linear(in_features=1000, out_features=152, bias=True)
  )
  (net): Sequential(
    (0): Identity()
    (1): Sequential(
      (0): Linear(in_features=405, out_features=1000, bias=True)
      (1): ReLU()
      (2): Linear(in_features=1000, out_features=152, bias=True)
    )
  )
)

Accuracy for 12 task(s): 	 [Class-IL]: 3.68 % 	 [Task-IL]: 17.7 %

====TRAINING TASK: 12
SimpleMLP(
  (fc1): Linear(in_features=405, out_features=1000, bias=True)
  (fc2): Linear(in_features=1000, out_features=152, bias=True)
  (_features): Identity()
  (classifier): Sequential(
    (0): Linear(in_features=405, out_features=1000, bias=True)
    (1): ReLU()
    (2): Linear(in_features=1000, out_features=152, bias=True)
  )
  (net): Sequential(
    (0): Identity()
    (1): Sequential(
      (0): Linear(in_features=405, out_features=1000, bias=True)
      (1): ReLU()
      (2): Linear(in_features=1000, out_features=152, bias=True)
    )
  )
)

Accuracy for 13 task(s): 	 [Class-IL]: 2.76 % 	 [Task-IL]: 17.18 %

====TRAINING TASK: 13
SimpleMLP(
  (fc1): Linear(in_features=405, out_features=1000, bias=True)
  (fc2): Linear(in_features=1000, out_features=152, bias=True)
  (_features): Identity()
  (classifier): Sequential(
    (0): Linear(in_features=405, out_features=1000, bias=True)
    (1): ReLU()
    (2): Linear(in_features=1000, out_features=152, bias=True)
  )
  (net): Sequential(
    (0): Identity()
    (1): Sequential(
      (0): Linear(in_features=405, out_features=1000, bias=True)
      (1): ReLU()
      (2): Linear(in_features=1000, out_features=152, bias=True)
    )
  )
)

Accuracy for 14 task(s): 	 [Class-IL]: 2.14 % 	 [Task-IL]: 18.21 %

====TRAINING TASK: 14
SimpleMLP(
  (fc1): Linear(in_features=405, out_features=1000, bias=True)
  (fc2): Linear(in_features=1000, out_features=152, bias=True)
  (_features): Identity()
  (classifier): Sequential(
    (0): Linear(in_features=405, out_features=1000, bias=True)
    (1): ReLU()
    (2): Linear(in_features=1000, out_features=152, bias=True)
  )
  (net): Sequential(
    (0): Identity()
    (1): Sequential(
      (0): Linear(in_features=405, out_features=1000, bias=True)
      (1): ReLU()
      (2): Linear(in_features=1000, out_features=152, bias=True)
    )
  )
)

Accuracy for 15 task(s): 	 [Class-IL]: 1.88 % 	 [Task-IL]: 2.94 %

CLASS_IL_ACC: 
	[0.6944444444444444, 0.0, 0.0, 0.0, 8.333333333333332, 0.0, 0.0, 0.0, 0.0, 0.0, 0.0, 5.833333333333333, 0.8333333333333334, 3.3333333333333335, 9.166666666666666]
TASK_IL_ACC: 
	[4.166666666666666, 0.0, 0.0, 0.0, 10.0, 0.0, 0.0, 3.3333333333333335, 0.0, 0.0, 0.0, 6.666666666666667, 0.8333333333333334, 2.5, 16.666666666666664]
…
