…
	Task-12	val_accuracy: 83.3333	gate_accuracy: 77.0833
	Task-13	val_accuracy: 76.0417	gate_accuracy: 69.7917
	Task-14	val_accuracy: 88.5417	gate_accuracy: 79.1667
CALCULATING GATE ACCURACY ON VALIDATION DATA
	GATE_ACCURACY: 71.9671


DynamicExpert(
  (relu): ReLU()
  (bias_layers): ModuleList(
    (0): BiasLayer()
    (1): BiasLayer()
    (2): BiasLayer()
    (3): BiasLayer()
    (4): BiasLayer()
    (5): BiasLayer()
    (6): BiasLayer()
    (7): BiasLayer()
    (8): BiasLayer()
    (9): BiasLayer()
    (10): BiasLayer()
    (11): BiasLayer()
    (12): BiasLayer()
    (13): BiasLayer()
    (14): BiasLayer()
  )
  (gate): Sequential(
    (0): Linear(in_features=405, out_features=405, bias=True)
    (1): ReLU()
    (2): Linear(in_features=405, out_features=405, bias=True)
    (3): ReLU()
    (4): Linear(in_features=405, out_features=15, bias=True)
  )
  (experts): ModuleList(
    (0): Expert(
      (fc1): Linear(in_features=405, out_features=50, bias=True)
      (fc2): Linear(in_features=50, out_features=12, bias=True)
      (mapper): Linear(in_features=12, out_features=152, bias=False)
      (batchnorm): InstanceNorm1d(50, eps=1e-05, momentum=0.1, affine=False, track_running_stats=False)
    )
    (1): Expert(
      (fc1): Linear(in_features=405, out_features=50, bias=True)
      (fc2): Linear(in_features=50, out_features=10, bias=True)
      (mapper): Linear(in_features=10, out_features=152, bias=False)
      (batchnorm): InstanceNorm1d(50, eps=1e-05, momentum=0.1, affine=False, track_running_stats=False)
    )
    (2): Expert(
      (fc1): Linear(in_features=405, out_features=50, bias=True)
      (fc2): Linear(in_features=50, out_features=10, bias=True)
      (mapper): Linear(in_features=10, out_features=152, bias=False)
      (batchnorm): InstanceNorm1d(50, eps=1e-05, momentum=0.1, affine=False, track_running_stats=False)
    )
    (3): Expert(
      (fc1): Linear(in_features=405, out_features=50, bias=True)
      (fc2): Linear(in_features=50, out_features=10, bias=True)
      (mapper): Linear(in_features=10, out_features=152, bias=False)
      (batchnorm): InstanceNorm1d(50, eps=1e-05, momentum=0.1, affine=False, track_running_stats=False)
    )
    (4): Expert(
      (fc1): Linear(in_features=405, out_features=50, bias=True)
      (fc2): Linear(in_features=50, out_features=10, bias=True)
      (mapper): Linear(in_features=10, out_features=152, bias=False)
      (batchnorm): InstanceNorm1d(50, eps=1e-05, momentum=0.1, affine=False, track_running_stats=False)
    )
    (5): Expert(
      (fc1): Linear(in_features=405, out_features=50, bias=True)
      (fc2): Linear(in_features=50, out_features=10, bias=True)
      (mapper): Linear(in_features=10, out_features=152, bias=False)
      (batchnorm): InstanceNorm1d(50, eps=1e-05, momentum=0.1, affine=False, track_running_stats=False)
    )
    (6): Expert(
      (fc1): Linear(in_features=405, out_features=50, bias=True)
      (fc2): Linear(in_features=50, out_features=10, bias=True)
      (mapper): Linear(in_features=10, out_features=152, bias=False)
      (batchnorm): InstanceNorm1d(50, eps=1e-05, momentum=0.1, affine=False, track_running_stats=False)
    )
    (7): Expert(
      (fc1): Linear(in_features=405, out_features=50, bias=True)
      (fc2): Linear(in_features=50, out_features=10, bias=True)
      (mapper): Linear(in_features=10, out_features=152, bias=False)
      (batchnorm): InstanceNorm1d(50, eps=1e-05, momentum=0.1, affine=False, track_running_stats=False)
    )
    (8): Expert(
      (fc1): Linear(in_features=405, out_features=50, bias=True)
      (fc2): Linear(in_features=50, out_features=10, bias=True)
      (mapper): Linear(in_features=10, out_features=152, bias=False)
      (batchnorm): InstanceNorm1d(50, eps=1e-05, momentum=0.1, affine=False, track_running_stats=False)
    )
    (9): Expert(
      (fc1): Linear(in_features=405, out_features=50, bias=True)
      (fc2): Linear(in_features=50, out_features=10, bias=True)
      (mapper): Linear(in_features=10, out_features=152, bias=False)
      (batchnorm): InstanceNorm1d(50, eps=1e-05, momentum=0.1, affine=False, track_running_stats=False)
    )
    (10): Expert(
      (fc1): Linear(in_features=405, out_features=50, bias=True)
      (fc2): Linear(in_features=50, out_features=10, bias=True)
      (mapper): Linear(in_features=10, out_features=152, bias=False)
      (batchnorm): InstanceNorm1d(50, eps=1e-05, momentum=0.1, affine=False, track_running_stats=False)
    )
    (11): Expert(
      (fc1): Linear(in_features=405, out_features=50, bias=True)
      (fc2): Linear(in_features=50, out_features=10, bias=True)
      (mapper): Linear(in_features=10, out_features=152, bias=False)
      (batchnorm): InstanceNorm1d(50, eps=1e-05, momentum=0.1, affine=False, track_running_stats=False)
    )
    (12): Expert(
      (fc1): Linear(in_features=405, out_features=50, bias=True)
      (fc2): Linear(in_features=50, out_features=10, bias=True)
      (mapper): Linear(in_features=10, out_features=152, bias=False)
      (batchnorm): InstanceNorm1d(50, eps=1e-05, momentum=0.1, affine=False, track_running_stats=False)
    )
    (13): Expert(
      (fc1): Linear(in_features=405, out_features=50, bias=True)
      (fc2): Linear(in_features=50, out_features=10, bias=True)
      (mapper): Linear(in_features=10, out_features=152, bias=False)
      (batchnorm): InstanceNorm1d(50, eps=1e-05, momentum=0.1, affine=False, track_running_stats=False)
    )
    (14): Expert(
      (fc1): Linear(in_features=405, out_features=50, bias=True)
      (fc2): Linear(in_features=50, out_features=10, bias=True)
      (mapper): Linear(in_features=10, out_features=152, bias=False)
      (batchnorm): InstanceNorm1d(50, eps=1e-05, momentum=0.1, affine=False, track_running_stats=False)
    )
  )
)
Execution time:
CPU time: 00:44:03	Wall time: 00:10:41
CPU time: 2643.848887262	Wall time: 641.9555866718292
FAA: 86.53864734299516
FF: 30.61292270531401

TRAINER.METRIC.ACCURACY
0: [93.91304347826087]
1: [86.95652173913044, 96.875]
2: [78.26086956521739, 89.58333333333334, 93.75]
…
