…
	Task-12	val_accuracy: 87.5000	gate_accuracy: 85.4167
	Task-13	val_accuracy: 92.7083	gate_accuracy: 92.7083
	Task-14	val_accuracy: 79.1667	gate_accuracy: 79.1667
CALCULATING GATE ACCURACY ON VALIDATION DATA
	GATE_ACCURACY: 86.5661


DynamicExpert(
  (relu): ReLU()
  (bias_layers): ModuleList(
    (0): BiasLayer()
    (1): BiasLayer()
    (2): BiasLayer()
    (3): BiasLayer()
    (4): BiasLayer()
    (5): BiasLayer()
    (6): BiasLayer()
    (7): BiasLayer()
    (8): BiasLayer()
    (9): BiasLayer()
    (10): BiasLayer()
    (11): BiasLayer()
    (12): BiasLayer()
    (13): BiasLayer()
    (14): BiasLayer()
  )
  (gate): Sequential(
    (0): Linear(in_features=405, out_features=405, bias=True)
    (1): ReLU()
    (2): Linear(in_features=405, out_features=405, bias=True)
    (3): ReLU()
    (4): Linear(in_features=405, out_features=15, bias=True)
  )
  (experts): ModuleList(
    (0): Expert(
      (fc1): Linear(in_features=405, out_features=50, bias=True)
      (fc2): Linear(in_features=50, out_features=12, bias=True)
      (mapper): Linear(in_features=12, out_features=152, bias=False)
      (batchnorm): InstanceNorm1d(50, eps=1e-05, momentum=0.1, affine=False, track_running_stats=False)
    )
    (1): Expert(
      (fc1): Linear(in_features=405, out_features=50, bias=True)
      (fc2): Linear(in_features=50, out_features=10, bias=True)
      (mapper): Linear(in_features=10, out_features=152, bias=False)
      (batchnorm): InstanceNorm1d(50, eps=1e-05, momentum=0.1, affine=False, track_running_stats=False)
    )
    (2): Expert(
      (fc1): Linear(in_features=405, out_features=50, bias=True)
      (fc2): Linear(in_features=50, out_features=10, bias=True)
      (mapper): Linear(in_features=10, out_features=152, bias=False)
      (batchnorm): InstanceNorm1d(50, eps=1e-05, momentum=0.1, affine=False, track_running_stats=False)
    )
    (3): Expert(
      (fc1): Linear(in_features=405, out_features=50, bias=True)
      (fc2): Linear(in_features=50, out_features=10, bias=True)
      (mapper): Linear(in_features=10, out_features=152, bias=False)
      (batchnorm): InstanceNorm1d(50, eps=1e-05, momentum=0.1, affine=False, track_running_stats=False)
    )
    (4): Expert(
      (fc1): Linear(in_features=405, out_features=50, bias=True)
      (fc2): Linear(in_features=50, out_features=10, bias=True)
      (mapper): Linear(in_features=10, out_features=152, bias=False)
      (batchnorm): InstanceNorm1d(50, eps=1e-05, momentum=0.1, affine=False, track_running_stats=False)
    )
    (5): Expert(
      (fc1): Linear(in_features=405, out_features=50, bias=True)
      (fc2): Linear(in_features=50, out_features=10, bias=True)
      (mapper): Linear(in_features=10, out_features=152, bias=False)
      (batchnorm): InstanceNorm1d(50, eps=1e-05, momentum=0.1, affine=False, track_running_stats=False)
    )
    (6): Expert(
      (fc1): Linear(in_features=405, out_features=50, bias=True)
      (fc2): Linear(in_features=50, out_features=10, bias=True)
      (mapper): Linear(in_features=10, out_features=152, bias=False)
      (batchnorm): InstanceNorm1d(50, eps=1e-05, momentum=0.1, affine=False, track_running_stats=False)
    )
    (7): Expert(
      (fc1): Linear(in_features=405, out_features=50, bias=True)
      (fc2): Linear(in_features=50, out_features=10, bias=True)
      (mapper): Linear(in_features=10, out_features=152, bias=False)
      (batchnorm): InstanceNorm1d(50, eps=1e-05, momentum=0.1, affine=False, track_running_stats=False)
    )
    (8): Expert(
      (fc1): Linear(in_features=405, out_features=50, bias=True)
      (fc2): Linear(in_features=50, out_features=10, bias=True)
      (mapper): Linear(in_features=10, out_features=152, bias=False)
      (batchnorm): InstanceNorm1d(50, eps=1e-05, momentum=0.1, affine=False, track_running_stats=False)
    )
    (9): Expert(
      (fc1): Linear(in_features=405, out_features=50, bias=True)
      (fc2): Linear(in_features=50, out_features=10, bias=True)
      (mapper): Linear(in_features=10, out_features=152, bias=False)
      (batchnorm): InstanceNorm1d(50, eps=1e-05, momentum=0.1, affine=False, track_running_stats=False)
    )
    (10): Expert(
      (fc1): Linear(in_features=405, out_features=50, bias=True)
      (fc2): Linear(in_features=50, out_features=10, bias=True)
      (mapper): Linear(in_features=10, out_features=152, bias=False)
      (batchnorm): InstanceNorm1d(50, eps=1e-05, momentum=0.1, affine=False, track_running_stats=False)
    )
    (11): Expert(
      (fc1): Linear(in_features=405, out_features=50, bias=True)
      (fc2): Linear(in_features=50, out_features=10, bias=True)
      (mapper): Linear(in_features=10, out_features=152, bias=False)
      (batchnorm): InstanceNorm1d(50, eps=1e-05, momentum=0.1, affine=False, track_running_stats=False)
    )
    (12): Expert(
      (fc1): Linear(in_features=405, out_features=50, bias=True)
      (fc2): Linear(in_features=50, out_features=10, bias=True)
      (mapper): Linear(in_features=10, out_features=152, bias=False)
      (batchnorm): InstanceNorm1d(50, eps=1e-05, momentum=0.1, affine=False, track_running_stats=False)
    )
    (13): Expert(
      (fc1): Linear(in_features=405, out_features=50, bias=True)
      (fc2): Linear(in_features=50, out_features=10, bias=True)
      (mapper): Linear(in_features=10, out_features=152, bias=False)
      (batchnorm): InstanceNorm1d(50, eps=1e-05, momentum=0.1, affine=False, track_running_stats=False)
    )
    (14): Expert(
      (fc1): Linear(in_features=405, out_features=50, bias=True)
      (fc2): Linear(in_features=50, out_features=10, bias=True)
      (mapper): Linear(in_features=10, out_features=152, bias=False)
      (batchnorm): InstanceNorm1d(50, eps=1e-05, momentum=0.1, affine=False, track_running_stats=False)
    )
  )
)
Execution time:
CPU time: 01:20:07	Wall time: 00:46:06
CPU time: 4807.052996134	Wall time: 2766.8674132823944
FAA: 89.5018115942029
FF: 21.74698067632851

TRAINER.METRIC.ACCURACY
0: [95.65217391304348]
1: [92.17391304347827, 84.375]
2: [89.56521739130436, 82.29166666666666, 95.83333333333334]
…
