…
	Task-12	val_accuracy: 82.2917	gate_accuracy: 81.2500
	Task-13	val_accuracy: 86.4583	gate_accuracy: 82.2917
	Task-14	val_accuracy: 82.2917	gate_accuracy: 85.4167
CALCULATING GATE ACCURACY ON VALIDATION DATA
	GATE_ACCURACY: 85.3324


DynamicExpert(
  (relu): ReLU()
  (bias_layers): ModuleList(
    (0): BiasLayer()
    (1): BiasLayer()
    (2): BiasLayer()
    (3): BiasLayer()
    (4): BiasLayer()
    (5): BiasLayer()
    (6): BiasLayer()
    (7): BiasLayer()
    (8): BiasLayer()
    (9): BiasLayer()
    (10): BiasLayer()
    (11): BiasLayer()
    (12): BiasLayer()
    (13): BiasLayer()
    (14): BiasLayer()
  )
  (gate): Sequential(
    (0): Linear(in_features=405, out_features=405, bias=True)
    (1): ReLU()
    (2): Linear(in_features=405, out_features=405, bias=True)
    (3): ReLU()
    (4): Linear(in_features=405, out_features=15, bias=True)
  )
  (experts): ModuleList(
    (0): Expert(
      (fc1): Linear(in_features=405, out_features=50, bias=True)
      (fc2): Linear(in_features=50, out_features=12, bias=True)
      (mapper): Linear(in_features=12, out_features=152, bias=False)
      (batchnorm): InstanceNorm1d(50, eps=1e-05, momentum=0.1, affine=False, track_running_stats=False)
    )
    (1): Expert(
      (fc1): Linear(in_features=405, out_features=50, bias=True)
      (fc2): Linear(in_features=50, out_features=10, bias=True)
      (mapper): Linear(in_features=10, out_features=152, bias=False)
      (batchnorm): InstanceNorm1d(50, eps=1e-05, momentum=0.1, affine=False, track_running_stats=False)
    )
    (2): Expert(
      (fc1): Linear(in_features=405, out_features=50, bias=True)
      (fc2): Linear(in_features=50, out_features=10, bias=True)
      (mapper): Linear(in_features=10, out_features=152, bias=False)
      (batchnorm): InstanceNorm1d(50, eps=1e-05, momentum=0.1, affine=False, track_running_stats=False)
    )
    (3): Expert(
      (fc1): Linear(in_features=405, out_features=50, bias=True)
      (fc2): Linear(in_features=50, out_features=10, bias=True)
      (mapper): Linear(in_features=10, out_features=152, bias=False)
      (batchnorm): InstanceNorm1d(50, eps=1e-05, momentum=0.1, affine=False, track_running_stats=False)
    )
    (4): Expert(
      (fc1): Linear(in_features=405, out_features=50, bias=True)
      (fc2): Linear(in_features=50, out_features=10, bias=True)
      (mapper): Linear(in_features=10, out_features=152, bias=False)
      (batchnorm): InstanceNorm1d(50, eps=1e-05, momentum=0.1, affine=False, track_running_stats=False)
    )
    (5): Expert(
      (fc1): Linear(in_features=405, out_features=50, bias=True)
      (fc2): Linear(in_features=50, out_features=10, bias=True)
      (mapper): Linear(in_features=10, out_features=152, bias=False)
      (batchnorm): InstanceNorm1d(50, eps=1e-05, momentum=0.1, affine=False, track_running_stats=False)
    )
    (6): Expert(
      (fc1): Linear(in_features=405, out_features=50, bias=True)
      (fc2): Linear(in_features=50, out_features=10, bias=True)
      (mapper): Linear(in_features=10, out_features=152, bias=False)
      (batchnorm): InstanceNorm1d(50, eps=1e-05, momentum=0.1, affine=False, track_running_stats=False)
    )
    (7): Expert(
      (fc1): Linear(in_features=405, out_features=50, bias=True)
      (fc2): Linear(in_features=50, out_features=10, bias=True)
      (mapper): Linear(in_features=10, out_features=152, bias=False)
      (batchnorm): InstanceNorm1d(50, eps=1e-05, momentum=0.1, affine=False, track_running_stats=False)
    )
    (8): Expert(
      (fc1): Linear(in_features=405, out_features=50, bias=True)
      (fc2): Linear(in_features=50, out_features=10, bias=True)
      (mapper): Linear(in_features=10, out_features=152, bias=False)
      (batchnorm): InstanceNorm1d(50, eps=1e-05, momentum=0.1, affine=False, track_running_stats=False)
    )
    (9): Expert(
      (fc1): Linear(in_features=405, out_features=50, bias=True)
      (fc2): Linear(in_features=50, out_features=10, bias=True)
      (mapper): Linear(in_features=10, out_features=152, bias=False)
      (batchnorm): InstanceNorm1d(50, eps=1e-05, momentum=0.1, affine=False, track_running_stats=False)
    )
    (10): Expert(
      (fc1): Linear(in_features=405, out_features=50, bias=True)
      (fc2): Linear(in_features=50, out_features=10, bias=True)
      (mapper): Linear(in_features=10, out_features=152, bias=False)
      (batchnorm): InstanceNorm1d(50, eps=1e-05, momentum=0.1, affine=False, track_running_stats=False)
    )
    (11): Expert(
      (fc1): Linear(in_features=405, out_features=50, bias=True)
      (fc2): Linear(in_features=50, out_features=10, bias=True)
      (mapper): Linear(in_features=10, out_features=152, bias=False)
      (batchnorm): InstanceNorm1d(50, eps=1e-05, momentum=0.1, affine=False, track_running_stats=False)
    )
    (12): Expert(
      (fc1): Linear(in_features=405, out_features=50, bias=True)
      (fc2): Linear(in_features=50, out_features=10, bias=True)
      (mapper): Linear(in_features=10, out_features=152, bias=False)
      (batchnorm): InstanceNorm1d(50, eps=1e-05, momentum=0.1, affine=False, track_running_stats=False)
    )
    (13): Expert(
      (fc1): Linear(in_features=405, out_features=50, bias=True)
      (fc2): Linear(in_features=50, out_features=10, bias=True)
      (mapper): Linear(in_features=10, out_features=152, bias=False)
      (batchnorm): InstanceNorm1d(50, eps=1e-05, momentum=0.1, affine=False, track_running_stats=False)
    )
    (14): Expert(
      (fc1): Linear(in_features=405, out_features=50, bias=True)
      (fc2): Linear(in_features=50, out_features=10, bias=True)
      (mapper): Linear(in_features=10, out_features=152, bias=False)
      (batchnorm): InstanceNorm1d(50, eps=1e-05, momentum=0.1, affine=False, track_running_stats=False)
    )
  )
)
Execution time:
CPU time: 01:19:02	Wall time: 00:45:09
CPU time: 4742.913259464	Wall time: 2709.639251947403
FAA: 86.84903381642513
FF: 29.913043478260875

TRAINER.METRIC.ACCURACY
0: [75.65217391304347]
1: [73.04347826086956, 94.79166666666666]
…
