…
    (18): BiasLayer()
    (19): BiasLayer()
    (20): BiasLayer()
    (21): BiasLayer()
    (22): BiasLayer()
    (23): BiasLayer()
    (24): BiasLayer()
    (25): BiasLayer()
    (26): BiasLayer()
    (27): BiasLayer()
    (28): BiasLayer()
    (29): BiasLayer()
    (30): BiasLayer()
    (31): BiasLayer()
    (32): BiasLayer()
    (33): BiasLayer()
    (34): BiasLayer()
    (35): BiasLayer()
    (36): BiasLayer()
    (37): BiasLayer()
    (38): BiasLayer()
    (39): BiasLayer()
    (40): BiasLayer()
    (41): BiasLayer()
    (42): BiasLayer()
    (43): BiasLayer()
  )
  (gate): Sequential(
    (0): Linear(in_features=91, out_features=91, bias=True)
    (1): ReLU()
    (2): Linear(in_features=91, out_features=91, bias=True)
    (3): ReLU()
    (4): Linear(in_features=91, out_features=44, bias=True)
  )
  (experts): ModuleList(
    (0): Expert(
      (fc1): Linear(in_features=91, out_features=50, bias=True)
      (fc2): Linear(in_features=50, out_features=34, bias=True)
      (mapper): Linear(in_features=34, out_features=894, bias=False)
      (batchnorm): InstanceNorm1d(50, eps=1e-05, momentum=0.1, affine=False, track_running_stats=False)
    )
    (1): Expert(
      (fc1): Linear(in_features=91, out_features=50, bias=True)
      (fc2): Linear(in_features=50, out_features=20, bias=True)
      (mapper): Linear(in_features=20, out_features=894, bias=False)
      (batchnorm): InstanceNorm1d(50, eps=1e-05, momentum=0.1, affine=False, track_running_stats=False)
    )
    (2): Expert(
      (fc1): Linear(in_features=91, out_features=50, bias=True)
      (fc2): Linear(in_features=50, out_features=20, bias=True)
      (mapper): Linear(in_features=20, out_features=894, bias=False)
      (batchnorm): InstanceNorm1d(50, eps=1e-05, momentum=0.1, affine=False, track_running_stats=False)
    )
    (3): Expert(
      (fc1): Linear(in_features=91, out_features=50, bias=True)
      (fc2): Linear(in_features=50, out_features=20, bias=True)
      (mapper): Linear(in_features=20, out_features=894, bias=False)
      (batchnorm): InstanceNorm1d(50, eps=1e-05, momentum=0.1, affine=False, track_running_stats=False)
    )
    (4): Expert(
      (fc1): Linear(in_features=91, out_features=50, bias=True)
      (fc2): Linear(in_features=50, out_features=20, bias=True)
      (mapper): Linear(in_features=20, out_features=894, bias=False)
      (batchnorm): InstanceNorm1d(50, eps=1e-05, momentum=0.1, affine=False, track_running_stats=False)
    )
    (5): Expert(
      (fc1): Linear(in_features=91, out_features=50, bias=True)
      (fc2): Linear(in_features=50, out_features=20, bias=True)
      (mapper): Linear(in_features=20, out_features=894, bias=False)
      (batchnorm): InstanceNorm1d(50, eps=1e-05, momentum=0.1, affine=False, track_running_stats=False)
    )
    (6): Expert(
      (fc1): Linear(in_features=91, out_features=50, bias=True)
      (fc2): Linear(in_features=50, out_features=20, bias=True)
      (mapper): Linear(in_features=20, out_features=894, bias=False)
      (batchnorm): InstanceNorm1d(50, eps=1e-05, momentum=0.1, affine=False, track_running_stats=False)
    )
    (7): Expert(
      (fc1): Linear(in_features=91, out_features=50, bias=True)
      (fc2): Linear(in_features=50, out_features=20, bias=True)
      (mapper): Linear(in_features=20, out_features=894, bias=False)
      (batchnorm): InstanceNorm1d(50, eps=1e-05, momentum=0.1, affine=False, track_running_stats=False)
    )
    (8): Expert(
      (fc1): Linear(in_features=91, out_features=50, bias=True)
      (fc2): Linear(in_features=50, out_features=20, bias=True)
      (mapper): Linear(in_features=20, out_features=894, bias=False)
      (batchnorm): InstanceNorm1d(50, eps=1e-05, momentum=0.1, affine=False, track_running_stats=False)
    )
    (9): Expert(
      (fc1): Linear(in_features=91, out_features=50, bias=True)
      (fc2): Linear(in_features=50, out_features=20, bias=True)
      (mapper): Linear(in_features=20, out_features=894, bias=False)
      (batchnorm): InstanceNorm1d(50, eps=1e-05, momentum=0.1, affine=False, track_running_stats=False)
    )
    (10): Expert(
      (fc1): Linear(in_features=91, out_features=50, bias=True)
      (fc2): Linear(in_features=50, out_features=20, bias=True)
      (mapper): Linear(in_features=20, out_features=894, bias=False)
      (batchnorm): InstanceNorm1d(50, eps=1e-05, momentum=0.1, affine=False, track_running_stats=False)
    )
    (11): Expert(
      (fc1): Linear(in_features=91, out_features=50, bias=True)
      (fc2): Linear(in_features=50, out_features=20, bias=True)
      (mapper): Linear(in_features=20, out_features=894, bias=False)
      (batchnorm): InstanceNorm1d(50, eps=1e-05, momentum=0.1, affine=False, track_running_stats=False)
    )
    (12): Expert(
      (fc1): Linear(in_features=91, out_features=50, bias=True)
      (fc2): Linear(in_features=50, out_features=20, bias=True)
      (mapper): Linear(in_features=20, out_features=894, bias=False)
      (batchnorm): InstanceNorm1d(50, eps=1e-05, momentum=0.1, affine=False, track_running_stats=False)
    )
    (13): Expert(
      (fc1): Linear(in_features=91, out_features=50, bias=True)
      (fc2): Linear(in_features=50, out_features=20, bias=True)
      (mapper): Linear(in_features=20, out_features=894, bias=False)
      (batchnorm): InstanceNorm1d(50, eps=1e-05, momentum=0.1, affine=False, track_running_stats=False)
    )
    (14): Expert(
      (fc1): Linear(in_features=91, out_features=50, bias=True)
      (fc2): Linear(in_features=50, out_features=20, bias=True)
      (mapper): Linear(in_features=20, out_features=894, bias=False)
      (batchnorm): InstanceNorm1d(50, eps=1e-05, momentum=0.1, affine=False, track_running_stats=False)
    )
    (15): Expert(
      (fc1): Linear(in_features=91, out_features=50, bias=True)
      (fc2): Linear(in_features=50, out_features=20, bias=True)
      (mapper): Linear(in_features=20, out_features=894, bias=False)
      (batchnorm): InstanceNorm1d(50, eps=1e-05, momentum=0.1, affine=False, track_running_stats=False)
    )
    (16): Expert(
      (fc1): Linear(in_features=91, out_features=50, bias=True)
      (fc2): Linear(in_features=50, out_features=20, bias=True)
      (mapper): Linear(in_features=20, out_features=894, bias=False)
      (batchnorm): InstanceNorm1d(50, eps=1e-05, momentum=0.1, affine=False, track_running_stats=False)
    )
    (17): Expert(
      (fc1): Linear(in_features=91, out_features=50, bias=True)
      (fc2): Linear(in_features=50, out_features=20, bias=True)
      (mapper): Linear(in_features=20, out_features=894, bias=False)
      (batchnorm): InstanceNorm1d(50, eps=1e-05, momentum=0.1, affine=False, track_running_stats=False)
    )
    (18): Expert(
      (fc1): Linear(in_features=91, out_features=50, bias=True)
      (fc2): Linear(in_features=50, out_features=20, bias=True)
      (mapper): Linear(in_features=20, out_features=894, bias=False)
      (batchnorm): InstanceNorm1d(50, eps=1e-05, momentum=0.1, affine=False, track_running_stats=False)
    )
    (19): Expert(
      (fc1): Linear(in_features=91, out_features=50, bias=True)
      (fc2): Linear(in_features=50, out_features=20, bias=True)
      (mapper): Linear(in_features=20, out_features=894, bias=False)
      (batchnorm): InstanceNorm1d(50, eps=1e-05, momentum=0.1, affine=False, track_running_stats=False)
    )
    (20): Expert(
      (fc1): Linear(in_features=91, out_features=50, bias=True)
      (fc2): Linear(in_features=50, out_features=20, bias=True)
      (mapper): Linear(in_features=20, out_features=894, bias=False)
      (batchnorm): InstanceNorm1d(50, eps=1e-05, momentum=0.1, affine=False, track_running_stats=False)
    )
    (21): Expert(
      (fc1): Linear(in_features=91, out_features=50, bias=True)
      (fc2): Linear(in_features=50, out_features=20, bias=True)
      (mapper): Linear(in_features=20, out_features=894, bias=False)
      (batchnorm): InstanceNorm1d(50, eps=1e-05, momentum=0.1, affine=False, track_running_stats=False)
    )
    (22): Expert(
      (fc1): Linear(in_features=91, out_features=50, bias=True)
      (fc2): Linear(in_features=50, out_features=20, bias=True)
      (mapper): Linear(in_features=20, out_features=894, bias=False)
      (batchnorm): InstanceNorm1d(50, eps=1e-05, momentum=0.1, affine=False, track_running_stats=False)
    )
    (23): Expert(
      (fc1): Linear(in_features=91, out_features=50, bias=True)
      (fc2): Linear(in_features=50, out_features=20, bias=True)
      (mapper): Linear(in_features=20, out_features=894, bias=False)
      (batchnorm): InstanceNorm1d(50, eps=1e-05, momentum=0.1, affine=False, track_running_stats=False)
    )
    (24): Expert(
      (fc1): Linear(in_features=91, out_features=50, bias=True)
      (fc2): Linear(in_features=50, out_features=20, bias=True)
      (mapper): Linear(in_features=20, out_features=894, bias=False)
      (batchnorm): InstanceNorm1d(50, eps=1e-05, momentum=0.1, affine=False, track_running_stats=False)
    )
    (25): Expert(
      (fc1): Linear(in_features=91, out_features=50, bias=True)
      (fc2): Linear(in_features=50, out_features=20, bias=True)
      (mapper): Linear(in_features=20, out_features=894, bias=False)
      (batchnorm): InstanceNorm1d(50, eps=1e-05, momentum=0.1, affine=False, track_running_stats=False)
    )
    (26): Expert(
      (fc1): Linear(in_features=91, out_features=50, bias=True)
      (fc2): Linear(in_features=50, out_features=20, bias=True)
      (mapper): Linear(in_features=20, out_features=894, bias=False)
      (batchnorm): InstanceNorm1d(50, eps=1e-05, momentum=0.1, affine=False, track_running_stats=False)
    )
    (27): Expert(
      (fc1): Linear(in_features=91, out_features=50, bias=True)
      (fc2): Linear(in_features=50, out_features=20, bias=True)
      (mapper): Linear(in_features=20, out_features=894, bias=False)
      (batchnorm): InstanceNorm1d(50, eps=1e-05, momentum=0.1, affine=False, track_running_stats=False)
    )
    (28): Expert(
      (fc1): Linear(in_features=91, out_features=50, bias=True)
      (fc2): Linear(in_features=50, out_features=20, bias=True)
      (mapper): Linear(in_features=20, out_features=894, bias=False)
      (batchnorm): InstanceNorm1d(50, eps=1e-05, momentum=0.1, affine=False, track_running_stats=False)
    )
    (29): Expert(
      (fc1): Linear(in_features=91, out_features=50, bias=True)
      (fc2): Linear(in_features=50, out_features=20, bias=True)
      (mapper): Linear(in_features=20, out_features=894, bias=False)
      (batchnorm): InstanceNorm1d(50, eps=1e-05, momentum=0.1, affine=False, track_running_stats=False)
    )
    (30): Expert(
      (fc1): Linear(in_features=91, out_features=50, bias=True)
      (fc2): Linear(in_features=50, out_features=20, bias=True)
      (mapper): Linear(in_features=20, out_features=894, bias=False)
      (batchnorm): InstanceNorm1d(50, eps=1e-05, momentum=0.1, affine=False, track_running_stats=False)
    )
    (31): Expert(
      (fc1): Linear(in_features=91, out_features=50, bias=True)
      (fc2): Linear(in_features=50, out_features=20, bias=True)
      (mapper): Linear(in_features=20, out_features=894, bias=False)
      (batchnorm): InstanceNorm1d(50, eps=1e-05, momentum=0.1, affine=False, track_running_stats=False)
    )
    (32): Expert(
      (fc1): Linear(in_features=91, out_features=50, bias=True)
      (fc2): Linear(in_features=50, out_features=20, bias=True)
      (mapper): Linear(in_features=20, out_features=894, bias=False)
      (batchnorm): InstanceNorm1d(50, eps=1e-05, momentum=0.1, affine=False, track_running_stats=False)
    )
    (33): Expert(
      (fc1): Linear(in_features=91, out_features=50, bias=True)
      (fc2): Linear(in_features=50, out_features=20, bias=True)
      (mapper): Linear(in_features=20, out_features=894, bias=False)
      (batchnorm): InstanceNorm1d(50, eps=1e-05, momentum=0.1, affine=False, track_running_stats=False)
    )
    (34): Expert(
      (fc1): Linear(in_features=91, out_features=50, bias=True)
      (fc2): Linear(in_features=50, out_features=20, bias=True)
      (mapper): Linear(in_features=20, out_features=894, bias=False)
      (batchnorm): InstanceNorm1d(50, eps=1e-05, momentum=0.1, affine=False, track_running_stats=False)
    )
    (35): Expert(
      (fc1): Linear(in_features=91, out_features=50, bias=True)
      (fc2): Linear(in_features=50, out_features=20, bias=True)
      (mapper): Linear(in_features=20, out_features=894, bias=False)
      (batchnorm): InstanceNorm1d(50, eps=1e-05, momentum=0.1, affine=False, track_running_stats=False)
    )
    (36): Expert(
      (fc1): Linear(in_features=91, out_features=50, bias=True)
      (fc2): Linear(in_features=50, out_features=20, bias=True)
      (mapper): Linear(in_features=20, out_features=894, bias=False)
      (batchnorm): InstanceNorm1d(50, eps=1e-05, momentum=0.1, affine=False, track_running_stats=False)
    )
    (37): Expert(
      (fc1): Linear(in_features=91, out_features=50, bias=True)
      (fc2): Linear(in_features=50, out_features=20, bias=True)
      (mapper): Linear(in_features=20, out_features=894, bias=False)
      (batchnorm): InstanceNorm1d(50, eps=1e-05, momentum=0.1, affine=False, track_running_stats=False)
    )
    (38): Expert(
      (fc1): Linear(in_features=91, out_features=50, bias=True)
      (fc2): Linear(in_features=50, out_features=20, bias=True)
      (mapper): Linear(in_features=20, out_features=894, bias=False)
      (batchnorm): InstanceNorm1d(50, eps=1e-05, momentum=0.1, affine=False, track_running_stats=False)
    )
    (39): Expert(
      (fc1): Linear(in_features=91, out_features=50, bias=True)
      (fc2): Linear(in_features=50, out_features=20, bias=True)
      (mapper): Linear(in_features=20, out_features=894, bias=False)
      (batchnorm): InstanceNorm1d(50, eps=1e-05, momentum=0.1, affine=False, track_running_stats=False)
    )
    (40): Expert(
      (fc1): Linear(in_features=91, out_features=50, bias=True)
      (fc2): Linear(in_features=50, out_features=20, bias=True)
      (mapper): Linear(in_features=20, out_features=894, bias=False)
      (batchnorm): InstanceNorm1d(50, eps=1e-05, momentum=0.1, affine=False, track_running_stats=False)
    )
    (41): Expert(
      (fc1): Linear(in_features=91, out_features=50, bias=True)
      (fc2): Linear(in_features=50, out_features=20, bias=True)
      (mapper): Linear(in_features=20, out_features=894, bias=False)
      (batchnorm): InstanceNorm1d(50, eps=1e-05, momentum=0.1, affine=False, track_running_stats=False)
    )
    (42): Expert(
      (fc1): Linear(in_features=91, out_features=50, bias=True)
      (fc2): Linear(in_features=50, out_features=20, bias=True)
      (mapper): Linear(in_features=20, out_features=894, bias=False)
      (batchnorm): InstanceNorm1d(50, eps=1e-05, momentum=0.1, affine=False, track_running_stats=False)
    )
    (43): Expert(
      (fc1): Linear(in_features=91, out_features=50, bias=True)
      (fc2): Linear(in_features=50, out_features=20, bias=True)
      (mapper): Linear(in_features=20, out_features=894, bias=False)
      (batchnorm): InstanceNorm1d(50, eps=1e-05, momentum=0.1, affine=False, track_running_stats=False)
    )
  )
)
Execution time:
CPU time: 06:33:27	Wall time: 05:46:54
CPU time: 23607.194188251	Wall time: 20814.662655830383
FAA: 73.68145856327412
FF: 31.48956381937199

TRAINER.METRIC.ACCURACY
0: [90.60402684563759]
1: [87.24832214765101, 92.3913043478261]
…
