…
| Selected 778 train exemplars, time=  0.0s
778
------------------------------------------------------------------------------------------------------------
>>> Test on task  0 : loss=0.911 | TAw acc= 94.9%, forg= -2.2%| TAg acc= 83.7%, forg=  2.2% <<<
>>> Test on task  1 : loss=1.066 | TAw acc= 98.0%, forg=  0.0%| TAg acc= 82.0%, forg=  1.0% <<<
>>> Test on task  2 : loss=1.261 | TAw acc= 95.7%, forg= -4.3%| TAg acc= 78.6%, forg= 12.0% <<<
>>> Test on task  3 : loss=0.963 | TAw acc= 91.2%, forg=  0.0%| TAg acc= 81.6%, forg=  0.0% <<<
Save at k=100/eeil_e20_wisdm_1/wisdm_flex_eeil
======
LLL_Net(
  (model): SimpleMLP(
    (fc1): Linear(in_features=91, out_features=1000, bias=True)
    (fc2): Sequential()
  )
  (heads): ModuleList(
    (0): Linear(in_features=1000, out_features=34, bias=True)
    (1): Linear(in_features=1000, out_features=20, bias=True)
    (2): Linear(in_features=1000, out_features=20, bias=True)
    (3): Linear(in_features=1000, out_features=20, bias=True)
  )
)
======

************************************************************************************************************
Task  4
************************************************************************************************************
| Epoch   1, time=  0.3s | Train: skip eval | Valid: time=  0.2s loss=3.779, TAw acc= 62.6% | *
| Epoch   2, time=  0.3s | Train: skip eval | Valid: time=  0.2s loss=2.480, TAw acc= 63.7% | *
…
------------------------------------------------------------------------------------------------------------
>>> Test on task  0 : loss=0.822 | TAw acc= 97.2%, forg= -2.2%| TAg acc= 89.9%, forg= -3.9% <<<
>>> Test on task  1 : loss=0.950 | TAw acc= 98.0%, forg=  0.0%| TAg acc= 84.0%, forg= -1.0% <<<
>>> Test on task  2 : loss=1.165 | TAw acc= 97.4%, forg= -1.7%| TAg acc= 78.6%, forg= 12.0% <<<
>>> Test on task  3 : loss=1.194 | TAw acc= 96.5%, forg= -5.3%| TAg acc= 76.3%, forg=  5.3% <<<
>>> Test on task  4 : loss=1.191 | TAw acc= 90.0%, forg=  0.0%| TAg acc= 75.8%, forg=  0.0% <<<
Save at k=100/eeil_e20_wisdm_1/wisdm_flex_eeil
======
LLL_Net(
  (model): SimpleMLP(
    (fc1): Linear(in_features=91, out_features=1000, bias=True)
    (fc2): Sequential()
  )
  (heads): ModuleList(
    (0): Linear(in_features=1000, out_features=34, bias=True)
    (1): Linear(in_features=1000, out_features=20, bias=True)
    (2): Linear(in_features=1000, out_features=20, bias=True)
    (3): Linear(in_features=1000, out_features=20, bias=True)
    (4): Linear(in_features=1000, out_features=20, bias=True)
  )
)
======

************************************************************************************************************
Task  5
************************************************************************************************************
| Epoch   1, time=  0.4s | Train: skip eval | Valid: time=  0.2s loss=4.132, TAw acc= 60.6% | *
| Epoch   2, time=  0.4s | Train: skip eval | Valid: time=  0.2s loss=2.765, TAw acc= 68.7% | *
…
>>> Test on task  0 : loss=0.771 | TAw acc= 97.2%, forg=  0.0%| TAg acc= 89.9%, forg=  0.0% <<<
>>> Test on task  1 : loss=0.964 | TAw acc= 98.0%, forg=  0.0%| TAg acc= 80.0%, forg=  4.0% <<<
>>> Test on task  2 : loss=1.094 | TAw acc= 98.3%, forg= -0.9%| TAg acc= 82.1%, forg=  8.5% <<<
>>> Test on task  3 : loss=1.141 | TAw acc= 97.4%, forg= -0.9%| TAg acc= 65.8%, forg= 15.8% <<<
>>> Test on task  4 : loss=1.316 | TAw acc= 93.3%, forg= -3.3%| TAg acc= 75.8%, forg=  0.0% <<<
>>> Test on task  5 : loss=1.150 | TAw acc= 90.1%, forg=  0.0%| TAg acc= 83.2%, forg=  0.0% <<<
Save at k=100/eeil_e20_wisdm_1/wisdm_flex_eeil
======
LLL_Net(
  (model): SimpleMLP(
    (fc1): Linear(in_features=91, out_features=1000, bias=True)
    (fc2): Sequential()
  )
  (heads): ModuleList(
    (0): Linear(in_features=1000, out_features=34, bias=True)
    (1): Linear(in_features=1000, out_features=20, bias=True)
    (2): Linear(in_features=1000, out_features=20, bias=True)
    (3): Linear(in_features=1000, out_features=20, bias=True)
    (4): Linear(in_features=1000, out_features=20, bias=True)
    (5): Linear(in_features=1000, out_features=20, bias=True)
  )
)
======

************************************************************************************************************
Task  6
************************************************************************************************************
| Epoch   1, time=  0.4s | Train: skip eval | Valid: time=  0.2s loss=4.960, TAw acc= 27.6% | *
| Epoch   2, time=  0.5s | Train: skip eval | Valid: time=  0.1s loss=3.585, TAw acc= 36.8% | *
…
>>> Test on task  1 : loss=0.895 | TAw acc= 98.0%, forg=  0.0%| TAg acc= 88.0%, forg= -4.0% <<<
>>> Test on task  2 : loss=0.987 | TAw acc= 97.4%, forg=  0.9%| TAg acc= 80.3%, forg= 10.3% <<<
>>> Test on task  3 : loss=0.941 | TAw acc= 97.4%, forg=  0.0%| TAg acc= 84.2%, forg= -2.6% <<<
>>> Test on task  4 : loss=1.192 | TAw acc= 93.3%, forg=  0.0%| TAg acc= 83.3%, forg= -7.5% <<<
>>> Test on task  5 : loss=1.346 | TAw acc= 93.9%, forg= -3.8%| TAg acc= 70.2%, forg= 13.0% <<<
>>> Test on task  6 : loss=1.159 | TAw acc= 89.5%, forg=  0.0%| TAg acc= 68.6%, forg=  0.0% <<<
Save at k=100/eeil_e20_wisdm_1/wisdm_flex_eeil
======
LLL_Net(
  (model): SimpleMLP(
    (fc1): Linear(in_features=91, out_features=1000, bias=True)
    (fc2): Sequential()
  )
  (heads): ModuleList(
    (0): Linear(in_features=1000, out_features=34, bias=True)
    (1): Linear(in_features=1000, out_features=20, bias=True)
    (2): Linear(in_features=1000, out_features=20, bias=True)
    (3): Linear(in_features=1000, out_features=20, bias=True)
    (4): Linear(in_features=1000, out_features=20, bias=True)
    (5): Linear(in_features=1000, out_features=20, bias=True)
    (6): Linear(in_features=1000, out_features=20, bias=True)
  )
)
======

************************************************************************************************************
Task  7
************************************************************************************************************
| Epoch   1, time=  0.5s | Train: skip eval | Valid: time=  0.2s loss=4.680, TAw acc= 32.0% | *
| Epoch   2, time=  0.5s | Train: skip eval | Valid: time=  0.3s loss=3.010, TAw acc= 50.7% | *
…
>>> Test on task  2 : loss=0.978 | TAw acc= 98.3%, forg=  0.0%| TAg acc= 79.5%, forg= 11.1% <<<
>>> Test on task  3 : loss=0.876 | TAw acc= 98.2%, forg= -0.9%| TAg acc= 84.2%, forg=  0.0% <<<
>>> Test on task  4 : loss=1.167 | TAw acc= 93.3%, forg=  0.0%| TAg acc= 81.7%, forg=  1.7% <<<
>>> Test on task  5 : loss=1.183 | TAw acc= 93.9%, forg=  0.0%| TAg acc= 79.4%, forg=  3.8% <<<
>>> Test on task  6 : loss=1.224 | TAw acc= 95.2%, forg= -5.7%| TAg acc= 66.7%, forg=  1.9% <<<
>>> Test on task  7 : loss=1.154 | TAw acc= 87.5%, forg=  0.0%| TAg acc= 76.9%, forg=  0.0% <<<
Save at k=100/eeil_e20_wisdm_1/wisdm_flex_eeil
======
LLL_Net(
  (model): SimpleMLP(
    (fc1): Linear(in_features=91, out_features=1000, bias=True)
    (fc2): Sequential()
  )
  (heads): ModuleList(
    (0): Linear(in_features=1000, out_features=34, bias=True)
    (1): Linear(in_features=1000, out_features=20, bias=True)
    (2): Linear(in_features=1000, out_features=20, bias=True)
    (3): Linear(in_features=1000, out_features=20, bias=True)
    (4): Linear(in_features=1000, out_features=20, bias=True)
    (5): Linear(in_features=1000, out_features=20, bias=True)
    (6): Linear(in_features=1000, out_features=20, bias=True)
    (7): Linear(in_features=1000, out_features=20, bias=True)
  )
)
======

************************************************************************************************************
Task  8
************************************************************************************************************
| Epoch   1, time=  0.6s | Train: skip eval | Valid: time=  0.2s loss=3.902, TAw acc= 59.3% | *
| Epoch   2, time=  0.6s | Train: skip eval | Valid: time=  0.2s loss=2.014, TAw acc= 78.0% | *
…
>>> Test on task  3 : loss=0.854 | TAw acc= 98.2%, forg=  0.0%| TAg acc= 82.5%, forg=  1.8% <<<
>>> Test on task  4 : loss=1.124 | TAw acc= 93.3%, forg=  0.0%| TAg acc= 85.8%, forg= -2.5% <<<
>>> Test on task  5 : loss=1.113 | TAw acc= 93.1%, forg=  0.8%| TAg acc= 79.4%, forg=  3.8% <<<
>>> Test on task  6 : loss=1.118 | TAw acc= 95.2%, forg=  0.0%| TAg acc= 70.5%, forg= -1.9% <<<
>>> Test on task  7 : loss=1.250 | TAw acc= 90.4%, forg= -2.9%| TAg acc= 73.1%, forg=  3.8% <<<
>>> Test on task  8 : loss=0.769 | TAw acc= 95.9%, forg=  0.0%| TAg acc= 82.6%, forg=  0.0% <<<
Save at k=100/eeil_e20_wisdm_1/wisdm_flex_eeil
======
LLL_Net(
  (model): SimpleMLP(
    (fc1): Linear(in_features=91, out_features=1000, bias=True)
    (fc2): Sequential()
  )
  (heads): ModuleList(
    (0): Linear(in_features=1000, out_features=34, bias=True)
    (1): Linear(in_features=1000, out_features=20, bias=True)
    (2): Linear(in_features=1000, out_features=20, bias=True)
    (3): Linear(in_features=1000, out_features=20, bias=True)
    (4): Linear(in_features=1000, out_features=20, bias=True)
    (5): Linear(in_features=1000, out_features=20, bias=True)
    (6): Linear(in_features=1000, out_features=20, bias=True)
    (7): Linear(in_features=1000, out_features=20, bias=True)
    (8): Linear(in_features=1000, out_features=20, bias=True)
  )
)
======

************************************************************************************************************
Task  9
************************************************************************************************************
| Epoch   1, time=  0.7s | Train: skip eval | Valid: time=  0.2s loss=5.445, TAw acc= 40.0% | *
| Epoch   2, time=  0.6s | Train: skip eval | Valid: time=  0.2s loss=3.732, TAw acc= 64.0% | *
…
>>> Test on task  4 : loss=1.067 | TAw acc= 93.3%, forg=  0.0%| TAg acc= 85.0%, forg=  0.8% <<<
>>> Test on task  5 : loss=1.050 | TAw acc= 93.1%, forg=  0.8%| TAg acc= 78.6%, forg=  4.6% <<<
>>> Test on task  6 : loss=1.032 | TAw acc= 92.4%, forg=  2.9%| TAg acc= 73.3%, forg= -2.9% <<<
>>> Test on task  7 : loss=1.136 | TAw acc= 92.3%, forg= -1.9%| TAg acc= 74.0%, forg=  2.9% <<<
>>> Test on task  8 : loss=1.258 | TAw acc= 95.9%, forg=  0.0%| TAg acc= 57.9%, forg= 24.8% <<<
>>> Test on task  9 : loss=1.389 | TAw acc= 93.1%, forg=  0.0%| TAg acc= 68.6%, forg=  0.0% <<<
Save at k=100/eeil_e20_wisdm_1/wisdm_flex_eeil
======
LLL_Net(
  (model): SimpleMLP(
    (fc1): Linear(in_features=91, out_features=1000, bias=True)
    (fc2): Sequential()
  )
  (heads): ModuleList(
    (0): Linear(in_features=1000, out_features=34, bias=True)
    (1): Linear(in_features=1000, out_features=20, bias=True)
    (2): Linear(in_features=1000, out_features=20, bias=True)
    (3): Linear(in_features=1000, out_features=20, bias=True)
    (4): Linear(in_features=1000, out_features=20, bias=True)
    (5): Linear(in_features=1000, out_features=20, bias=True)
    (6): Linear(in_features=1000, out_features=20, bias=True)
    (7): Linear(in_features=1000, out_features=20, bias=True)
    (8): Linear(in_features=1000, out_features=20, bias=True)
    (9): Linear(in_features=1000, out_features=20, bias=True)
  )
)
======

************************************************************************************************************
Task 10
************************************************************************************************************
| Epoch   1, time=  0.8s | Train: skip eval | Valid: time=  0.2s loss=5.009, TAw acc= 44.4% | *
| Epoch   2, time=  0.7s | Train: skip eval | Valid: time=  0.2s loss=3.113, TAw acc= 56.8% | *
…
>>> Test on task  5 : loss=1.066 | TAw acc= 92.4%, forg=  1.5%| TAg acc= 80.2%, forg=  3.1% <<<
>>> Test on task  6 : loss=0.977 | TAw acc= 95.2%, forg=  0.0%| TAg acc= 78.1%, forg= -4.8% <<<
>>> Test on task  7 : loss=1.040 | TAw acc= 90.4%, forg=  1.9%| TAg acc= 81.7%, forg= -4.8% <<<
>>> Test on task  8 : loss=1.193 | TAw acc= 97.5%, forg= -1.7%| TAg acc= 65.3%, forg= 17.4% <<<
>>> Test on task  9 : loss=1.448 | TAw acc= 94.1%, forg= -1.0%| TAg acc= 63.7%, forg=  4.9% <<<
>>> Test on task 10 : loss=1.019 | TAw acc= 98.2%, forg=  0.0%| TAg acc= 81.7%, forg=  0.0% <<<
Save at k=100/eeil_e20_wisdm_1/wisdm_flex_eeil
======
LLL_Net(
  (model): SimpleMLP(
    (fc1): Linear(in_features=91, out_features=1000, bias=True)
    (fc2): Sequential()
  )
  (heads): ModuleList(
    (0): Linear(in_features=1000, out_features=34, bias=True)
    (1): Linear(in_features=1000, out_features=20, bias=True)
    (2): Linear(in_features=1000, out_features=20, bias=True)
    (3): Linear(in_features=1000, out_features=20, bias=True)
    (4): Linear(in_features=1000, out_features=20, bias=True)
    (5): Linear(in_features=1000, out_features=20, bias=True)
    (6): Linear(in_features=1000, out_features=20, bias=True)
    (7): Linear(in_features=1000, out_features=20, bias=True)
    (8): Linear(in_features=1000, out_features=20, bias=True)
    (9): Linear(in_features=1000, out_features=20, bias=True)
    (10): Linear(in_features=1000, out_features=20, bias=True)
  )
)
======

************************************************************************************************************
Task 11
************************************************************************************************************
| Epoch   1, time=  0.8s | Train: skip eval | Valid: time=  0.2s loss=5.874, TAw acc= 53.5% | *
| Epoch   2, time=  0.8s | Train: skip eval | Valid: time=  0.1s loss=3.610, TAw acc= 57.7% | *
…
>>> Test on task  6 : loss=1.022 | TAw acc= 95.2%, forg=  0.0%| TAg acc= 75.2%, forg=  2.9% <<<
>>> Test on task  7 : loss=0.963 | TAw acc= 91.3%, forg=  1.0%| TAg acc= 82.7%, forg= -1.0% <<<
>>> Test on task  8 : loss=1.058 | TAw acc= 97.5%, forg=  0.0%| TAg acc= 68.6%, forg= 14.0% <<<
>>> Test on task  9 : loss=1.434 | TAw acc= 94.1%, forg=  0.0%| TAg acc= 57.8%, forg= 10.8% <<<
>>> Test on task 10 : loss=1.215 | TAw acc= 98.2%, forg=  0.0%| TAg acc= 61.5%, forg= 20.2% <<<
>>> Test on task 11 : loss=1.066 | TAw acc= 98.0%, forg=  0.0%| TAg acc= 71.4%, forg=  0.0% <<<
Save at k=100/eeil_e20_wisdm_1/wisdm_flex_eeil
======
LLL_Net(
  (model): SimpleMLP(
    (fc1): Linear(in_features=91, out_features=1000, bias=True)
    (fc2): Sequential()
  )
  (heads): ModuleList(
    (0): Linear(in_features=1000, out_features=34, bias=True)
    (1): Linear(in_features=1000, out_features=20, bias=True)
    (2): Linear(in_features=1000, out_features=20, bias=True)
    (3): Linear(in_features=1000, out_features=20, bias=True)
    (4): Linear(in_features=1000, out_features=20, bias=True)
    (5): Linear(in_features=1000, out_features=20, bias=True)
    (6): Linear(in_features=1000, out_features=20, bias=True)
    (7): Linear(in_features=1000, out_features=20, bias=True)
    (8): Linear(in_features=1000, out_features=20, bias=True)
    (9): Linear(in_features=1000, out_features=20, bias=True)
    (10): Linear(in_features=1000, out_features=20, bias=True)
    (11): Linear(in_features=1000, out_features=20, bias=True)
  )
)
======

************************************************************************************************************
Task 12
************************************************************************************************************
| Epoch   1, time=  0.9s | Train: skip eval | Valid: time=  0.2s loss=4.282, TAw acc= 51.5% | *
| Epoch   2, time=  0.9s | Train: skip eval | Valid: time=  0.2s loss=2.340, TAw acc= 71.7% | *
…
>>> Test on task  7 : loss=0.988 | TAw acc= 91.3%, forg=  1.0%| TAg acc= 82.7%, forg=  0.0% <<<
>>> Test on task  8 : loss=1.005 | TAw acc= 98.3%, forg= -0.8%| TAg acc= 75.2%, forg=  7.4% <<<
>>> Test on task  9 : loss=1.425 | TAw acc= 94.1%, forg=  0.0%| TAg acc= 57.8%, forg= 10.8% <<<
>>> Test on task 10 : loss=1.031 | TAw acc=100.0%, forg= -1.8%| TAg acc= 75.2%, forg=  6.4% <<<
>>> Test on task 11 : loss=1.241 | TAw acc= 99.0%, forg= -1.0%| TAg acc= 66.3%, forg=  5.1% <<<
>>> Test on task 12 : loss=0.867 | TAw acc= 95.4%, forg=  0.0%| TAg acc= 78.5%, forg=  0.0% <<<
Save at k=100/eeil_e20_wisdm_1/wisdm_flex_eeil
======
LLL_Net(
  (model): SimpleMLP(
    (fc1): Linear(in_features=91, out_features=1000, bias=True)
    (fc2): Sequential()
  )
  (heads): ModuleList(
    (0): Linear(in_features=1000, out_features=34, bias=True)
    (1): Linear(in_features=1000, out_features=20, bias=True)
    (2): Linear(in_features=1000, out_features=20, bias=True)
    (3): Linear(in_features=1000, out_features=20, bias=True)
    (4): Linear(in_features=1000, out_features=20, bias=True)
    (5): Linear(in_features=1000, out_features=20, bias=True)
    (6): Linear(in_features=1000, out_features=20, bias=True)
    (7): Linear(in_features=1000, out_features=20, bias=True)
    (8): Linear(in_features=1000, out_features=20, bias=True)
    (9): Linear(in_features=1000, out_features=20, bias=True)
    (10): Linear(in_features=1000, out_features=20, bias=True)
    (11): Linear(in_features=1000, out_features=20, bias=True)
    (12): Linear(in_features=1000, out_features=20, bias=True)
  )
)
======

************************************************************************************************************
Task 13
************************************************************************************************************
| Epoch   1, time=  1.0s | Train: skip eval | Valid: time=  0.2s loss=4.709, TAw acc= 53.2% | *
| Epoch   2, time=  1.1s | Train: skip eval | Valid: time=  0.2s loss=2.453, TAw acc= 67.0% | *
…
>>> Test on task  8 : loss=0.965 | TAw acc= 98.3%, forg=  0.0%| TAg acc= 78.5%, forg=  4.1% <<<
>>> Test on task  9 : loss=1.289 | TAw acc= 97.1%, forg= -2.9%| TAg acc= 65.7%, forg=  2.9% <<<
>>> Test on task 10 : loss=0.937 | TAw acc=100.0%, forg=  0.0%| TAg acc= 77.1%, forg=  4.6% <<<
>>> Test on task 11 : loss=1.117 | TAw acc= 99.0%, forg=  0.0%| TAg acc= 75.5%, forg= -4.1% <<<
>>> Test on task 12 : loss=1.334 | TAw acc= 96.2%, forg= -0.8%| TAg acc= 57.7%, forg= 20.8% <<<
>>> Test on task 13 : loss=0.935 | TAw acc= 97.6%, forg=  0.0%| TAg acc= 88.8%, forg=  0.0% <<<
Save at k=100/eeil_e20_wisdm_1/wisdm_flex_eeil
======
LLL_Net(
  (model): SimpleMLP(
    (fc1): Linear(in_features=91, out_features=1000, bias=True)
    (fc2): Sequential()
  )
  (heads): ModuleList(
    (0): Linear(in_features=1000, out_features=34, bias=True)
    (1): Linear(in_features=1000, out_features=20, bias=True)
    (2): Linear(in_features=1000, out_features=20, bias=True)
    (3): Linear(in_features=1000, out_features=20, bias=True)
    (4): Linear(in_features=1000, out_features=20, bias=True)
    (5): Linear(in_features=1000, out_features=20, bias=True)
    (6): Linear(in_features=1000, out_features=20, bias=True)
    (7): Linear(in_features=1000, out_features=20, bias=True)
    (8): Linear(in_features=1000, out_features=20, bias=True)
    (9): Linear(in_features=1000, out_features=20, bias=True)
    (10): Linear(in_features=1000, out_features=20, bias=True)
    (11): Linear(in_features=1000, out_features=20, bias=True)
    (12): Linear(in_features=1000, out_features=20, bias=True)
    (13): Linear(in_features=1000, out_features=20, bias=True)
  )
)
======

************************************************************************************************************
Task 14
************************************************************************************************************
| Epoch   1, time=  1.1s | Train: skip eval | Valid: time=  0.2s loss=5.685, TAw acc= 31.2% | *
| Epoch   2, time=  1.1s | Train: skip eval | Valid: time=  0.2s loss=3.993, TAw acc= 33.8% | *
…
>>> Test on task  9 : loss=1.289 | TAw acc= 95.1%, forg=  2.0%| TAg acc= 64.7%, forg=  3.9% <<<
>>> Test on task 10 : loss=0.863 | TAw acc=100.0%, forg=  0.0%| TAg acc= 76.1%, forg=  5.5% <<<
>>> Test on task 11 : loss=1.110 | TAw acc= 99.0%, forg=  0.0%| TAg acc= 76.5%, forg= -1.0% <<<
>>> Test on task 12 : loss=1.208 | TAw acc= 94.6%, forg=  1.5%| TAg acc= 62.3%, forg= 16.2% <<<
>>> Test on task 13 : loss=1.217 | TAw acc= 97.6%, forg=  0.0%| TAg acc= 69.6%, forg= 19.2% <<<
>>> Test on task 14 : loss=1.252 | TAw acc= 91.4%, forg=  0.0%| TAg acc= 64.8%, forg=  0.0% <<<
Save at k=100/eeil_e20_wisdm_1/wisdm_flex_eeil
======
LLL_Net(
  (model): SimpleMLP(
    (fc1): Linear(in_features=91, out_features=1000, bias=True)
    (fc2): Sequential()
  )
  (heads): ModuleList(
    (0): Linear(in_features=1000, out_features=34, bias=True)
    (1): Linear(in_features=1000, out_features=20, bias=True)
    (2): Linear(in_features=1000, out_features=20, bias=True)
    (3): Linear(in_features=1000, out_features=20, bias=True)
    (4): Linear(in_features=1000, out_features=20, bias=True)
    (5): Linear(in_features=1000, out_features=20, bias=True)
    (6): Linear(in_features=1000, out_features=20, bias=True)
    (7): Linear(in_features=1000, out_features=20, bias=True)
    (8): Linear(in_features=1000, out_features=20, bias=True)
    (9): Linear(in_features=1000, out_features=20, bias=True)
    (10): Linear(in_features=1000, out_features=20, bias=True)
    (11): Linear(in_features=1000, out_features=20, bias=True)
    (12): Linear(in_features=1000, out_features=20, bias=True)
    (13): Linear(in_features=1000, out_features=20, bias=True)
    (14): Linear(in_features=1000, out_features=20, bias=True)
  )
)
======

************************************************************************************************************
Task 15
************************************************************************************************************
| Epoch   1, time=  1.2s | Train: skip eval | Valid: time=  0.2s loss=4.067, TAw acc= 65.3% | *
| Epoch   2, time=  1.2s | Train: skip eval | Valid: time=  0.2s loss=2.251, TAw acc= 73.3% | *
…
>>> Test on task 10 : loss=0.882 | TAw acc=100.0%, forg=  0.0%| TAg acc= 71.6%, forg= 10.1% <<<
>>> Test on task 11 : loss=1.070 | TAw acc= 99.0%, forg=  0.0%| TAg acc= 74.5%, forg=  2.0% <<<
>>> Test on task 12 : loss=1.156 | TAw acc= 93.8%, forg=  2.3%| TAg acc= 61.5%, forg= 16.9% <<<
>>> Test on task 13 : loss=1.148 | TAw acc= 99.2%, forg= -1.6%| TAg acc= 73.6%, forg= 15.2% <<<
>>> Test on task 14 : loss=1.463 | TAw acc= 91.4%, forg=  0.0%| TAg acc= 60.0%, forg=  4.8% <<<
>>> Test on task 15 : loss=0.931 | TAw acc= 94.7%, forg=  0.0%| TAg acc= 78.0%, forg=  0.0% <<<
Save at k=100/eeil_e20_wisdm_1/wisdm_flex_eeil
======
LLL_Net(
  (model): SimpleMLP(
    (fc1): Linear(in_features=91, out_features=1000, bias=True)
    (fc2): Sequential()
  )
  (heads): ModuleList(
    (0): Linear(in_features=1000, out_features=34, bias=True)
    (1): Linear(in_features=1000, out_features=20, bias=True)
    (2): Linear(in_features=1000, out_features=20, bias=True)
    (3): Linear(in_features=1000, out_features=20, bias=True)
    (4): Linear(in_features=1000, out_features=20, bias=True)
    (5): Linear(in_features=1000, out_features=20, bias=True)
    (6): Linear(in_features=1000, out_features=20, bias=True)
    (7): Linear(in_features=1000, out_features=20, bias=True)
    (8): Linear(in_features=1000, out_features=20, bias=True)
    (9): Linear(in_features=1000, out_features=20, bias=True)
    (10): Linear(in_features=1000, out_features=20, bias=True)
    (11): Linear(in_features=1000, out_features=20, bias=True)
    (12): Linear(in_features=1000, out_features=20, bias=True)
    (13): Linear(in_features=1000, out_features=20, bias=True)
    (14): Linear(in_features=1000, out_features=20, bias=True)
    (15): Linear(in_features=1000, out_features=20, bias=True)
  )
)
======

************************************************************************************************************
Task 16
************************************************************************************************************
| Epoch   1, time=  1.3s | Train: skip eval | Valid: time=  0.2s loss=5.762, TAw acc= 46.6% | *
| Epoch   2, time=  1.3s | Train: skip eval | Valid: time=  0.2s loss=2.893, TAw acc= 67.1% | *
…
>>> Test on task 11 : loss=0.988 | TAw acc= 99.0%, forg=  0.0%| TAg acc= 77.6%, forg= -1.0% <<<
>>> Test on task 12 : loss=1.140 | TAw acc= 93.8%, forg=  2.3%| TAg acc= 63.1%, forg= 15.4% <<<
>>> Test on task 13 : loss=1.163 | TAw acc= 99.2%, forg=  0.0%| TAg acc= 73.6%, forg= 15.2% <<<
>>> Test on task 14 : loss=1.343 | TAw acc= 91.4%, forg=  0.0%| TAg acc= 64.8%, forg=  0.0% <<<
>>> Test on task 15 : loss=1.305 | TAw acc= 94.7%, forg=  0.0%| TAg acc= 62.1%, forg= 15.9% <<<
>>> Test on task 16 : loss=1.048 | TAw acc= 97.1%, forg=  0.0%| TAg acc= 75.5%, forg=  0.0% <<<
Save at k=100/eeil_e20_wisdm_1/wisdm_flex_eeil
======
LLL_Net(
  (model): SimpleMLP(
    (fc1): Linear(in_features=91, out_features=1000, bias=True)
    (fc2): Sequential()
  )
  (heads): ModuleList(
    (0): Linear(in_features=1000, out_features=34, bias=True)
    (1): Linear(in_features=1000, out_features=20, bias=True)
    (2): Linear(in_features=1000, out_features=20, bias=True)
    (3): Linear(in_features=1000, out_features=20, bias=True)
    (4): Linear(in_features=1000, out_features=20, bias=True)
    (5): Linear(in_features=1000, out_features=20, bias=True)
    (6): Linear(in_features=1000, out_features=20, bias=True)
    (7): Linear(in_features=1000, out_features=20, bias=True)
    (8): Linear(in_features=1000, out_features=20, bias=True)
    (9): Linear(in_features=1000, out_features=20, bias=True)
    (10): Linear(in_features=1000, out_features=20, bias=True)
    (11): Linear(in_features=1000, out_features=20, bias=True)
    (12): Linear(in_features=1000, out_features=20, bias=True)
    (13): Linear(in_features=1000, out_features=20, bias=True)
    (14): Linear(in_features=1000, out_features=20, bias=True)
    (15): Linear(in_features=1000, out_features=20, bias=True)
    (16): Linear(in_features=1000, out_features=20, bias=True)
  )
)
======

************************************************************************************************************
Task 17
************************************************************************************************************
| Epoch   1, time=  1.6s | Train: skip eval | Valid: time=  0.2s loss=5.750, TAw acc= 38.6% | *
| Epoch   2, time=  1.6s | Train: skip eval | Valid: time=  0.2s loss=3.617, TAw acc= 54.3% | *
…
>>> Test on task 12 : loss=1.072 | TAw acc= 96.2%, forg=  0.0%| TAg acc= 68.5%, forg= 10.0% <<<
>>> Test on task 13 : loss=1.037 | TAw acc= 99.2%, forg=  0.0%| TAg acc= 75.2%, forg= 13.6% <<<
>>> Test on task 14 : loss=1.276 | TAw acc= 92.4%, forg= -1.0%| TAg acc= 68.6%, forg= -3.8% <<<
>>> Test on task 15 : loss=1.230 | TAw acc= 93.9%, forg=  0.8%| TAg acc= 69.7%, forg=  8.3% <<<
>>> Test on task 16 : loss=1.203 | TAw acc= 98.0%, forg= -1.0%| TAg acc= 61.8%, forg= 13.7% <<<
>>> Test on task 17 : loss=1.136 | TAw acc= 93.8%, forg=  0.0%| TAg acc= 63.9%, forg=  0.0% <<<
Save at k=100/eeil_e20_wisdm_1/wisdm_flex_eeil
======
LLL_Net(
  (model): SimpleMLP(
    (fc1): Linear(in_features=91, out_features=1000, bias=True)
    (fc2): Sequential()
  )
  (heads): ModuleList(
    (0): Linear(in_features=1000, out_features=34, bias=True)
    (1): Linear(in_features=1000, out_features=20, bias=True)
    (2): Linear(in_features=1000, out_features=20, bias=True)
    (3): Linear(in_features=1000, out_features=20, bias=True)
    (4): Linear(in_features=1000, out_features=20, bias=True)
    (5): Linear(in_features=1000, out_features=20, bias=True)
    (6): Linear(in_features=1000, out_features=20, bias=True)
    (7): Linear(in_features=1000, out_features=20, bias=True)
    (8): Linear(in_features=1000, out_features=20, bias=True)
    (9): Linear(in_features=1000, out_features=20, bias=True)
    (10): Linear(in_features=1000, out_features=20, bias=True)
    (11): Linear(in_features=1000, out_features=20, bias=True)
    (12): Linear(in_features=1000, out_features=20, bias=True)
    (13): Linear(in_features=1000, out_features=20, bias=True)
    (14): Linear(in_features=1000, out_features=20, bias=True)
    (15): Linear(in_features=1000, out_features=20, bias=True)
    (16): Linear(in_features=1000, out_features=20, bias=True)
    (17): Linear(in_features=1000, out_features=20, bias=True)
  )
)
======

************************************************************************************************************
Task 18
************************************************************************************************************
| Epoch   1, time=  1.5s | Train: skip eval | Valid: time=  0.2s loss=4.322, TAw acc= 52.0% | *
| Epoch   2, time=  1.6s | Train: skip eval | Valid: time=  0.2s loss=2.410, TAw acc= 64.7% | *
…
>>> Test on task 13 : loss=1.010 | TAw acc= 99.2%, forg=  0.0%| TAg acc= 74.4%, forg= 14.4% <<<
>>> Test on task 14 : loss=1.283 | TAw acc= 91.4%, forg=  1.0%| TAg acc= 63.8%, forg=  4.8% <<<
>>> Test on task 15 : loss=1.234 | TAw acc= 93.2%, forg=  1.5%| TAg acc= 62.1%, forg= 15.9% <<<
>>> Test on task 16 : loss=1.092 | TAw acc= 97.1%, forg=  1.0%| TAg acc= 66.7%, forg=  8.8% <<<
>>> Test on task 17 : loss=1.240 | TAw acc= 93.8%, forg=  0.0%| TAg acc= 63.9%, forg=  0.0% <<<
>>> Test on task 18 : loss=0.935 | TAw acc= 92.5%, forg=  0.0%| TAg acc= 76.9%, forg=  0.0% <<<
Save at k=100/eeil_e20_wisdm_1/wisdm_flex_eeil
======
LLL_Net(
  (model): SimpleMLP(
    (fc1): Linear(in_features=91, out_features=1000, bias=True)
    (fc2): Sequential()
  )
  (heads): ModuleList(
    (0): Linear(in_features=1000, out_features=34, bias=True)
    (1): Linear(in_features=1000, out_features=20, bias=True)
    (2): Linear(in_features=1000, out_features=20, bias=True)
    (3): Linear(in_features=1000, out_features=20, bias=True)
    (4): Linear(in_features=1000, out_features=20, bias=True)
    (5): Linear(in_features=1000, out_features=20, bias=True)
    (6): Linear(in_features=1000, out_features=20, bias=True)
    (7): Linear(in_features=1000, out_features=20, bias=True)
    (8): Linear(in_features=1000, out_features=20, bias=True)
    (9): Linear(in_features=1000, out_features=20, bias=True)
    (10): Linear(in_features=1000, out_features=20, bias=True)
    (11): Linear(in_features=1000, out_features=20, bias=True)
    (12): Linear(in_features=1000, out_features=20, bias=True)
    (13): Linear(in_features=1000, out_features=20, bias=True)
    (14): Linear(in_features=1000, out_features=20, bias=True)
    (15): Linear(in_features=1000, out_features=20, bias=True)
    (16): Linear(in_features=1000, out_features=20, bias=True)
    (17): Linear(in_features=1000, out_features=20, bias=True)
    (18): Linear(in_features=1000, out_features=20, bias=True)
  )
)
======

************************************************************************************************************
Task 19
************************************************************************************************************
| Epoch   1, time=  1.7s | Train: skip eval | Valid: time=  0.2s loss=6.388, TAw acc= 30.7% | *
| Epoch   2, time=  1.7s | Train: skip eval | Valid: time=  0.2s loss=3.558, TAw acc= 73.3% | *
…
>>> Test on task 14 : loss=1.189 | TAw acc= 91.4%, forg=  1.0%| TAg acc= 68.6%, forg=  0.0% <<<
>>> Test on task 15 : loss=1.171 | TAw acc= 93.9%, forg=  0.8%| TAg acc= 72.0%, forg=  6.1% <<<
>>> Test on task 16 : loss=1.036 | TAw acc= 98.0%, forg=  0.0%| TAg acc= 68.6%, forg=  6.9% <<<
>>> Test on task 17 : loss=1.125 | TAw acc= 94.8%, forg= -1.0%| TAg acc= 68.0%, forg= -4.1% <<<
>>> Test on task 18 : loss=1.195 | TAw acc= 89.6%, forg=  3.0%| TAg acc= 64.9%, forg= 11.9% <<<
>>> Test on task 19 : loss=1.083 | TAw acc= 95.1%, forg=  0.0%| TAg acc= 72.8%, forg=  0.0% <<<
Save at k=100/eeil_e20_wisdm_1/wisdm_flex_eeil
======
LLL_Net(
  (model): SimpleMLP(
    (fc1): Linear(in_features=91, out_features=1000, bias=True)
    (fc2): Sequential()
  )
  (heads): ModuleList(
    (0): Linear(in_features=1000, out_features=34, bias=True)
    (1): Linear(in_features=1000, out_features=20, bias=True)
    (2): Linear(in_features=1000, out_features=20, bias=True)
    (3): Linear(in_features=1000, out_features=20, bias=True)
    (4): Linear(in_features=1000, out_features=20, bias=True)
    (5): Linear(in_features=1000, out_features=20, bias=True)
    (6): Linear(in_features=1000, out_features=20, bias=True)
    (7): Linear(in_features=1000, out_features=20, bias=True)
    (8): Linear(in_features=1000, out_features=20, bias=True)
    (9): Linear(in_features=1000, out_features=20, bias=True)
    (10): Linear(in_features=1000, out_features=20, bias=True)
    (11): Linear(in_features=1000, out_features=20, bias=True)
    (12): Linear(in_features=1000, out_features=20, bias=True)
    (13): Linear(in_features=1000, out_features=20, bias=True)
    (14): Linear(in_features=1000, out_features=20, bias=True)
    (15): Linear(in_features=1000, out_features=20, bias=True)
    (16): Linear(in_features=1000, out_features=20, bias=True)
    (17): Linear(in_features=1000, out_features=20, bias=True)
    (18): Linear(in_features=1000, out_features=20, bias=True)
    (19): Linear(in_features=1000, out_features=20, bias=True)
  )
)
======

************************************************************************************************************
Task 20
************************************************************************************************************
| Epoch   1, time=  1.8s | Train: skip eval | Valid: time=  0.2s loss=5.233, TAw acc= 55.2% | *
| Epoch   2, time=  1.9s | Train: skip eval | Valid: time=  0.2s loss=2.764, TAw acc= 78.2% | *
…
>>> Test on task 15 : loss=1.177 | TAw acc= 93.9%, forg=  0.8%| TAg acc= 71.2%, forg=  6.8% <<<
>>> Test on task 16 : loss=0.992 | TAw acc= 98.0%, forg=  0.0%| TAg acc= 68.6%, forg=  6.9% <<<
>>> Test on task 17 : loss=1.068 | TAw acc= 94.8%, forg=  0.0%| TAg acc= 72.2%, forg= -4.1% <<<
>>> Test on task 18 : loss=1.253 | TAw acc= 91.0%, forg=  1.5%| TAg acc= 59.7%, forg= 17.2% <<<
>>> Test on task 19 : loss=1.345 | TAw acc= 95.1%, forg=  0.0%| TAg acc= 57.3%, forg= 15.5% <<<
>>> Test on task 20 : loss=0.965 | TAw acc= 97.4%, forg=  0.0%| TAg acc= 76.7%, forg=  0.0% <<<
Save at k=100/eeil_e20_wisdm_1/wisdm_flex_eeil
======
LLL_Net(
  (model): SimpleMLP(
    (fc1): Linear(in_features=91, out_features=1000, bias=True)
    (fc2): Sequential()
  )
  (heads): ModuleList(
    (0): Linear(in_features=1000, out_features=34, bias=True)
    (1): Linear(in_features=1000, out_features=20, bias=True)
    (2): Linear(in_features=1000, out_features=20, bias=True)
    (3): Linear(in_features=1000, out_features=20, bias=True)
    (4): Linear(in_features=1000, out_features=20, bias=True)
    (5): Linear(in_features=1000, out_features=20, bias=True)
    (6): Linear(in_features=1000, out_features=20, bias=True)
    (7): Linear(in_features=1000, out_features=20, bias=True)
    (8): Linear(in_features=1000, out_features=20, bias=True)
    (9): Linear(in_features=1000, out_features=20, bias=True)
    (10): Linear(in_features=1000, out_features=20, bias=True)
    (11): Linear(in_features=1000, out_features=20, bias=True)
    (12): Linear(in_features=1000, out_features=20, bias=True)
    (13): Linear(in_features=1000, out_features=20, bias=True)
    (14): Linear(in_features=1000, out_features=20, bias=True)
    (15): Linear(in_features=1000, out_features=20, bias=True)
    (16): Linear(in_features=1000, out_features=20, bias=True)
    (17): Linear(in_features=1000, out_features=20, bias=True)
    (18): Linear(in_features=1000, out_features=20, bias=True)
    (19): Linear(in_features=1000, out_features=20, bias=True)
    (20): Linear(in_features=1000, out_features=20, bias=True)
  )
)
======

************************************************************************************************************
Task 21
************************************************************************************************************
| Epoch   1, time=  2.0s | Train: skip eval | Valid: time=  0.2s loss=6.057, TAw acc= 48.3% | *
| Epoch   2, time=  2.0s | Train: skip eval | Valid: time=  0.2s loss=2.596, TAw acc= 77.0% | *
…
>>> Test on task 16 : loss=1.067 | TAw acc= 98.0%, forg=  0.0%| TAg acc= 68.6%, forg=  6.9% <<<
>>> Test on task 17 : loss=1.050 | TAw acc= 93.8%, forg=  1.0%| TAg acc= 66.0%, forg=  6.2% <<<
>>> Test on task 18 : loss=1.122 | TAw acc= 91.8%, forg=  0.7%| TAg acc= 69.4%, forg=  7.5% <<<
>>> Test on task 19 : loss=1.263 | TAw acc= 95.1%, forg=  0.0%| TAg acc= 62.1%, forg= 10.7% <<<
>>> Test on task 20 : loss=1.353 | TAw acc= 97.4%, forg=  0.0%| TAg acc= 57.8%, forg= 19.0% <<<
>>> Test on task 21 : loss=1.027 | TAw acc= 94.0%, forg=  0.0%| TAg acc= 69.8%, forg=  0.0% <<<
Save at k=100/eeil_e20_wisdm_1/wisdm_flex_eeil
======
LLL_Net(
  (model): SimpleMLP(
    (fc1): Linear(in_features=91, out_features=1000, bias=True)
    (fc2): Sequential()
  )
  (heads): ModuleList(
    (0): Linear(in_features=1000, out_features=34, bias=True)
    (1): Linear(in_features=1000, out_features=20, bias=True)
    (2): Linear(in_features=1000, out_features=20, bias=True)
    (3): Linear(in_features=1000, out_features=20, bias=True)
    (4): Linear(in_features=1000, out_features=20, bias=True)
    (5): Linear(in_features=1000, out_features=20, bias=True)
    (6): Linear(in_features=1000, out_features=20, bias=True)
    (7): Linear(in_features=1000, out_features=20, bias=True)
    (8): Linear(in_features=1000, out_features=20, bias=True)
    (9): Linear(in_features=1000, out_features=20, bias=True)
    (10): Linear(in_features=1000, out_features=20, bias=True)
    (11): Linear(in_features=1000, out_features=20, bias=True)
    (12): Linear(in_features=1000, out_features=20, bias=True)
    (13): Linear(in_features=1000, out_features=20, bias=True)
    (14): Linear(in_features=1000, out_features=20, bias=True)
    (15): Linear(in_features=1000, out_features=20, bias=True)
    (16): Linear(in_features=1000, out_features=20, bias=True)
    (17): Linear(in_features=1000, out_features=20, bias=True)
    (18): Linear(in_features=1000, out_features=20, bias=True)
    (19): Linear(in_features=1000, out_features=20, bias=True)
    (20): Linear(in_features=1000, out_features=20, bias=True)
    (21): Linear(in_features=1000, out_features=20, bias=True)
  )
)
======

************************************************************************************************************
Task 22
************************************************************************************************************
| Epoch   1, time=  2.0s | Train: skip eval | Valid: time=  0.2s loss=6.442, TAw acc= 27.6% | *
| Epoch   2, time=  2.0s | Train: skip eval | Valid: time=  0.2s loss=2.988, TAw acc= 68.4% | *
…
>>> Test on task 17 : loss=0.980 | TAw acc= 93.8%, forg=  1.0%| TAg acc= 71.1%, forg=  1.0% <<<
>>> Test on task 18 : loss=1.180 | TAw acc= 90.3%, forg=  2.2%| TAg acc= 62.7%, forg= 14.2% <<<
>>> Test on task 19 : loss=1.217 | TAw acc= 95.1%, forg=  0.0%| TAg acc= 66.0%, forg=  6.8% <<<
>>> Test on task 20 : loss=1.316 | TAw acc= 97.4%, forg=  0.0%| TAg acc= 63.8%, forg= 12.9% <<<
>>> Test on task 21 : loss=1.365 | TAw acc= 94.0%, forg=  0.0%| TAg acc= 54.3%, forg= 15.5% <<<
>>> Test on task 22 : loss=1.085 | TAw acc= 91.3%, forg=  0.0%| TAg acc= 71.2%, forg=  0.0% <<<
Save at k=100/eeil_e20_wisdm_1/wisdm_flex_eeil
======
LLL_Net(
  (model): SimpleMLP(
    (fc1): Linear(in_features=91, out_features=1000, bias=True)
    (fc2): Sequential()
  )
  (heads): ModuleList(
    (0): Linear(in_features=1000, out_features=34, bias=True)
    (1): Linear(in_features=1000, out_features=20, bias=True)
    (2): Linear(in_features=1000, out_features=20, bias=True)
    (3): Linear(in_features=1000, out_features=20, bias=True)
    (4): Linear(in_features=1000, out_features=20, bias=True)
    (5): Linear(in_features=1000, out_features=20, bias=True)
    (6): Linear(in_features=1000, out_features=20, bias=True)
    (7): Linear(in_features=1000, out_features=20, bias=True)
    (8): Linear(in_features=1000, out_features=20, bias=True)
    (9): Linear(in_features=1000, out_features=20, bias=True)
    (10): Linear(in_features=1000, out_features=20, bias=True)
    (11): Linear(in_features=1000, out_features=20, bias=True)
    (12): Linear(in_features=1000, out_features=20, bias=True)
    (13): Linear(in_features=1000, out_features=20, bias=True)
    (14): Linear(in_features=1000, out_features=20, bias=True)
    (15): Linear(in_features=1000, out_features=20, bias=True)
    (16): Linear(in_features=1000, out_features=20, bias=True)
    (17): Linear(in_features=1000, out_features=20, bias=True)
    (18): Linear(in_features=1000, out_features=20, bias=True)
    (19): Linear(in_features=1000, out_features=20, bias=True)
    (20): Linear(in_features=1000, out_features=20, bias=True)
    (21): Linear(in_features=1000, out_features=20, bias=True)
    (22): Linear(in_features=1000, out_features=20, bias=True)
  )
)
======

************************************************************************************************************
Task 23
************************************************************************************************************
| Epoch   1, time=  2.3s | Train: skip eval | Valid: time=  0.2s loss=6.374, TAw acc= 56.9% | *
| Epoch   2, time=  2.4s | Train: skip eval | Valid: time=  0.2s loss=2.692, TAw acc= 79.2% | *
…
>>> Test on task 18 : loss=1.059 | TAw acc= 91.8%, forg=  0.7%| TAg acc= 70.9%, forg=  6.0% <<<
>>> Test on task 19 : loss=1.249 | TAw acc= 95.1%, forg=  0.0%| TAg acc= 66.0%, forg=  6.8% <<<
>>> Test on task 20 : loss=1.241 | TAw acc= 97.4%, forg=  0.0%| TAg acc= 64.7%, forg= 12.1% <<<
>>> Test on task 21 : loss=1.312 | TAw acc= 95.7%, forg= -1.7%| TAg acc= 59.5%, forg= 10.3% <<<
>>> Test on task 22 : loss=1.462 | TAw acc= 84.6%, forg=  6.7%| TAg acc= 50.0%, forg= 21.2% <<<
>>> Test on task 23 : loss=1.201 | TAw acc= 86.0%, forg=  0.0%| TAg acc= 75.0%, forg=  0.0% <<<
Save at k=100/eeil_e20_wisdm_1/wisdm_flex_eeil
======
LLL_Net(
  (model): SimpleMLP(
    (fc1): Linear(in_features=91, out_features=1000, bias=True)
    (fc2): Sequential()
  )
  (heads): ModuleList(
    (0): Linear(in_features=1000, out_features=34, bias=True)
    (1): Linear(in_features=1000, out_features=20, bias=True)
    (2): Linear(in_features=1000, out_features=20, bias=True)
    (3): Linear(in_features=1000, out_features=20, bias=True)
    (4): Linear(in_features=1000, out_features=20, bias=True)
    (5): Linear(in_features=1000, out_features=20, bias=True)
    (6): Linear(in_features=1000, out_features=20, bias=True)
    (7): Linear(in_features=1000, out_features=20, bias=True)
    (8): Linear(in_features=1000, out_features=20, bias=True)
    (9): Linear(in_features=1000, out_features=20, bias=True)
    (10): Linear(in_features=1000, out_features=20, bias=True)
    (11): Linear(in_features=1000, out_features=20, bias=True)
    (12): Linear(in_features=1000, out_features=20, bias=True)
    (13): Linear(in_features=1000, out_features=20, bias=True)
    (14): Linear(in_features=1000, out_features=20, bias=True)
    (15): Linear(in_features=1000, out_features=20, bias=True)
    (16): Linear(in_features=1000, out_features=20, bias=True)
    (17): Linear(in_features=1000, out_features=20, bias=True)
    (18): Linear(in_features=1000, out_features=20, bias=True)
    (19): Linear(in_features=1000, out_features=20, bias=True)
    (20): Linear(in_features=1000, out_features=20, bias=True)
    (21): Linear(in_features=1000, out_features=20, bias=True)
    (22): Linear(in_features=1000, out_features=20, bias=True)
    (23): Linear(in_features=1000, out_features=20, bias=True)
  )
)
======

************************************************************************************************************
Task 24
************************************************************************************************************
| Epoch   1, time=  2.3s | Train: skip eval | Valid: time=  0.2s loss=6.558, TAw acc= 53.5% | *
| Epoch   2, time=  2.4s | Train: skip eval | Valid: time=  0.2s loss=3.318, TAw acc= 70.4% | *
…
>>> Test on task 19 : loss=1.171 | TAw acc= 95.1%, forg=  0.0%| TAg acc= 70.9%, forg=  1.9% <<<
>>> Test on task 20 : loss=1.274 | TAw acc= 97.4%, forg=  0.0%| TAg acc= 64.7%, forg= 12.1% <<<
>>> Test on task 21 : loss=1.283 | TAw acc= 95.7%, forg=  0.0%| TAg acc= 62.9%, forg=  6.9% <<<
>>> Test on task 22 : loss=1.336 | TAw acc= 86.5%, forg=  4.8%| TAg acc= 52.9%, forg= 18.3% <<<
>>> Test on task 23 : loss=1.408 | TAw acc= 86.0%, forg=  0.0%| TAg acc= 62.0%, forg= 13.0% <<<
>>> Test on task 24 : loss=1.065 | TAw acc= 96.9%, forg=  0.0%| TAg acc= 79.6%, forg=  0.0% <<<
Save at k=100/eeil_e20_wisdm_1/wisdm_flex_eeil
======
LLL_Net(
  (model): SimpleMLP(
    (fc1): Linear(in_features=91, out_features=1000, bias=True)
    (fc2): Sequential()
  )
  (heads): ModuleList(
    (0): Linear(in_features=1000, out_features=34, bias=True)
    (1): Linear(in_features=1000, out_features=20, bias=True)
    (2): Linear(in_features=1000, out_features=20, bias=True)
    (3): Linear(in_features=1000, out_features=20, bias=True)
    (4): Linear(in_features=1000, out_features=20, bias=True)
    (5): Linear(in_features=1000, out_features=20, bias=True)
    (6): Linear(in_features=1000, out_features=20, bias=True)
    (7): Linear(in_features=1000, out_features=20, bias=True)
    (8): Linear(in_features=1000, out_features=20, bias=True)
    (9): Linear(in_features=1000, out_features=20, bias=True)
    (10): Linear(in_features=1000, out_features=20, bias=True)
    (11): Linear(in_features=1000, out_features=20, bias=True)
    (12): Linear(in_features=1000, out_features=20, bias=True)
    (13): Linear(in_features=1000, out_features=20, bias=True)
    (14): Linear(in_features=1000, out_features=20, bias=True)
    (15): Linear(in_features=1000, out_features=20, bias=True)
    (16): Linear(in_features=1000, out_features=20, bias=True)
    (17): Linear(in_features=1000, out_features=20, bias=True)
    (18): Linear(in_features=1000, out_features=20, bias=True)
    (19): Linear(in_features=1000, out_features=20, bias=True)
    (20): Linear(in_features=1000, out_features=20, bias=True)
    (21): Linear(in_features=1000, out_features=20, bias=True)
    (22): Linear(in_features=1000, out_features=20, bias=True)
    (23): Linear(in_features=1000, out_features=20, bias=True)
    (24): Linear(in_features=1000, out_features=20, bias=True)
  )
)
======

************************************************************************************************************
Task 25
************************************************************************************************************
| Epoch   1, time=  2.6s | Train: skip eval | Valid: time=  0.2s loss=5.341, TAw acc= 62.9% | *
| Epoch   2, time=  2.6s | Train: skip eval | Valid: time=  0.2s loss=2.661, TAw acc= 70.8% | *
…
>>> Test on task 20 : loss=1.191 | TAw acc= 97.4%, forg=  0.0%| TAg acc= 68.1%, forg=  8.6% <<<
>>> Test on task 21 : loss=1.384 | TAw acc= 94.8%, forg=  0.9%| TAg acc= 59.5%, forg= 10.3% <<<
>>> Test on task 22 : loss=1.285 | TAw acc= 89.4%, forg=  1.9%| TAg acc= 54.8%, forg= 16.3% <<<
>>> Test on task 23 : loss=1.406 | TAw acc= 85.0%, forg=  1.0%| TAg acc= 67.0%, forg=  8.0% <<<
>>> Test on task 24 : loss=1.353 | TAw acc= 96.9%, forg=  0.0%| TAg acc= 66.3%, forg= 13.3% <<<
>>> Test on task 25 : loss=0.848 | TAw acc= 95.0%, forg=  0.0%| TAg acc= 81.5%, forg=  0.0% <<<
Save at k=100/eeil_e20_wisdm_1/wisdm_flex_eeil
======
LLL_Net(
  (model): SimpleMLP(
    (fc1): Linear(in_features=91, out_features=1000, bias=True)
    (fc2): Sequential()
  )
  (heads): ModuleList(
    (0): Linear(in_features=1000, out_features=34, bias=True)
    (1): Linear(in_features=1000, out_features=20, bias=True)
    (2): Linear(in_features=1000, out_features=20, bias=True)
    (3): Linear(in_features=1000, out_features=20, bias=True)
    (4): Linear(in_features=1000, out_features=20, bias=True)
    (5): Linear(in_features=1000, out_features=20, bias=True)
    (6): Linear(in_features=1000, out_features=20, bias=True)
    (7): Linear(in_features=1000, out_features=20, bias=True)
    (8): Linear(in_features=1000, out_features=20, bias=True)
    (9): Linear(in_features=1000, out_features=20, bias=True)
    (10): Linear(in_features=1000, out_features=20, bias=True)
    (11): Linear(in_features=1000, out_features=20, bias=True)
    (12): Linear(in_features=1000, out_features=20, bias=True)
    (13): Linear(in_features=1000, out_features=20, bias=True)
    (14): Linear(in_features=1000, out_features=20, bias=True)
    (15): Linear(in_features=1000, out_features=20, bias=True)
    (16): Linear(in_features=1000, out_features=20, bias=True)
    (17): Linear(in_features=1000, out_features=20, bias=True)
    (18): Linear(in_features=1000, out_features=20, bias=True)
    (19): Linear(in_features=1000, out_features=20, bias=True)
    (20): Linear(in_features=1000, out_features=20, bias=True)
    (21): Linear(in_features=1000, out_features=20, bias=True)
    (22): Linear(in_features=1000, out_features=20, bias=True)
    (23): Linear(in_features=1000, out_features=20, bias=True)
    (24): Linear(in_features=1000, out_features=20, bias=True)
    (25): Linear(in_features=1000, out_features=20, bias=True)
  )
)
======

************************************************************************************************************
Task 26
************************************************************************************************************
| Epoch   1, time=  2.7s | Train: skip eval | Valid: time=  0.2s loss=6.463, TAw acc= 42.3% | *
| Epoch   2, time=  2.8s | Train: skip eval | Valid: time=  0.2s loss=3.152, TAw acc= 57.7% | *
…
>>> Test on task 21 : loss=1.288 | TAw acc= 94.0%, forg=  1.7%| TAg acc= 66.4%, forg=  3.4% <<<
>>> Test on task 22 : loss=1.230 | TAw acc= 88.5%, forg=  2.9%| TAg acc= 58.7%, forg= 12.5% <<<
>>> Test on task 23 : loss=1.390 | TAw acc= 87.0%, forg= -1.0%| TAg acc= 67.0%, forg=  8.0% <<<
>>> Test on task 24 : loss=1.220 | TAw acc= 98.0%, forg= -1.0%| TAg acc= 71.4%, forg=  8.2% <<<
>>> Test on task 25 : loss=1.185 | TAw acc= 96.6%, forg= -1.7%| TAg acc= 68.1%, forg= 13.4% <<<
>>> Test on task 26 : loss=1.213 | TAw acc= 92.8%, forg=  0.0%| TAg acc= 72.2%, forg=  0.0% <<<
Save at k=100/eeil_e20_wisdm_1/wisdm_flex_eeil
======
LLL_Net(
  (model): SimpleMLP(
    (fc1): Linear(in_features=91, out_features=1000, bias=True)
    (fc2): Sequential()
  )
  (heads): ModuleList(
    (0): Linear(in_features=1000, out_features=34, bias=True)
    (1): Linear(in_features=1000, out_features=20, bias=True)
    (2): Linear(in_features=1000, out_features=20, bias=True)
    (3): Linear(in_features=1000, out_features=20, bias=True)
    (4): Linear(in_features=1000, out_features=20, bias=True)
    (5): Linear(in_features=1000, out_features=20, bias=True)
    (6): Linear(in_features=1000, out_features=20, bias=True)
    (7): Linear(in_features=1000, out_features=20, bias=True)
    (8): Linear(in_features=1000, out_features=20, bias=True)
    (9): Linear(in_features=1000, out_features=20, bias=True)
    (10): Linear(in_features=1000, out_features=20, bias=True)
    (11): Linear(in_features=1000, out_features=20, bias=True)
    (12): Linear(in_features=1000, out_features=20, bias=True)
    (13): Linear(in_features=1000, out_features=20, bias=True)
    (14): Linear(in_features=1000, out_features=20, bias=True)
    (15): Linear(in_features=1000, out_features=20, bias=True)
    (16): Linear(in_features=1000, out_features=20, bias=True)
    (17): Linear(in_features=1000, out_features=20, bias=True)
    (18): Linear(in_features=1000, out_features=20, bias=True)
    (19): Linear(in_features=1000, out_features=20, bias=True)
    (20): Linear(in_features=1000, out_features=20, bias=True)
    (21): Linear(in_features=1000, out_features=20, bias=True)
    (22): Linear(in_features=1000, out_features=20, bias=True)
    (23): Linear(in_features=1000, out_features=20, bias=True)
    (24): Linear(in_features=1000, out_features=20, bias=True)
    (25): Linear(in_features=1000, out_features=20, bias=True)
    (26): Linear(in_features=1000, out_features=20, bias=True)
  )
)
======

************************************************************************************************************
Task 27
************************************************************************************************************
| Epoch   1, time=  3.0s | Train: skip eval | Valid: time=  0.2s loss=6.406, TAw acc= 47.1% | *
| Epoch   2, time=  2.9s | Train: skip eval | Valid: time=  0.2s loss=3.585, TAw acc= 81.4% | *
…
>>> Test on task 22 : loss=1.189 | TAw acc= 88.5%, forg=  2.9%| TAg acc= 61.5%, forg=  9.6% <<<
>>> Test on task 23 : loss=1.388 | TAw acc= 83.0%, forg=  4.0%| TAg acc= 70.0%, forg=  5.0% <<<
>>> Test on task 24 : loss=1.166 | TAw acc= 96.9%, forg=  1.0%| TAg acc= 67.3%, forg= 12.2% <<<
>>> Test on task 25 : loss=1.137 | TAw acc= 95.8%, forg=  0.8%| TAg acc= 67.2%, forg= 14.3% <<<
>>> Test on task 26 : loss=1.467 | TAw acc= 91.8%, forg=  1.0%| TAg acc= 54.6%, forg= 17.5% <<<
>>> Test on task 27 : loss=1.094 | TAw acc= 94.8%, forg=  0.0%| TAg acc= 78.4%, forg=  0.0% <<<
Save at k=100/eeil_e20_wisdm_1/wisdm_flex_eeil
======
LLL_Net(
  (model): SimpleMLP(
    (fc1): Linear(in_features=91, out_features=1000, bias=True)
    (fc2): Sequential()
  )
  (heads): ModuleList(
    (0): Linear(in_features=1000, out_features=34, bias=True)
    (1): Linear(in_features=1000, out_features=20, bias=True)
    (2): Linear(in_features=1000, out_features=20, bias=True)
    (3): Linear(in_features=1000, out_features=20, bias=True)
    (4): Linear(in_features=1000, out_features=20, bias=True)
    (5): Linear(in_features=1000, out_features=20, bias=True)
    (6): Linear(in_features=1000, out_features=20, bias=True)
    (7): Linear(in_features=1000, out_features=20, bias=True)
    (8): Linear(in_features=1000, out_features=20, bias=True)
    (9): Linear(in_features=1000, out_features=20, bias=True)
    (10): Linear(in_features=1000, out_features=20, bias=True)
    (11): Linear(in_features=1000, out_features=20, bias=True)
    (12): Linear(in_features=1000, out_features=20, bias=True)
    (13): Linear(in_features=1000, out_features=20, bias=True)
    (14): Linear(in_features=1000, out_features=20, bias=True)
    (15): Linear(in_features=1000, out_features=20, bias=True)
    (16): Linear(in_features=1000, out_features=20, bias=True)
    (17): Linear(in_features=1000, out_features=20, bias=True)
    (18): Linear(in_features=1000, out_features=20, bias=True)
    (19): Linear(in_features=1000, out_features=20, bias=True)
    (20): Linear(in_features=1000, out_features=20, bias=True)
    (21): Linear(in_features=1000, out_features=20, bias=True)
    (22): Linear(in_features=1000, out_features=20, bias=True)
    (23): Linear(in_features=1000, out_features=20, bias=True)
    (24): Linear(in_features=1000, out_features=20, bias=True)
    (25): Linear(in_features=1000, out_features=20, bias=True)
    (26): Linear(in_features=1000, out_features=20, bias=True)
    (27): Linear(in_features=1000, out_features=20, bias=True)
  )
)
======

************************************************************************************************************
Task 28
************************************************************************************************************
| Epoch   1, time=  3.1s | Train: skip eval | Valid: time=  0.2s loss=6.352, TAw acc= 53.2% | *
| Epoch   2, time=  3.5s | Train: skip eval | Valid: time=  0.2s loss=3.001, TAw acc= 76.6% | *
…
>>> Test on task 23 : loss=1.335 | TAw acc= 87.0%, forg=  0.0%| TAg acc= 72.0%, forg=  3.0% <<<
>>> Test on task 24 : loss=1.186 | TAw acc= 96.9%, forg=  1.0%| TAg acc= 68.4%, forg= 11.2% <<<
>>> Test on task 25 : loss=1.128 | TAw acc= 95.0%, forg=  1.7%| TAg acc= 68.9%, forg= 12.6% <<<
>>> Test on task 26 : loss=1.415 | TAw acc= 93.8%, forg= -1.0%| TAg acc= 51.5%, forg= 20.6% <<<
>>> Test on task 27 : loss=1.576 | TAw acc= 96.9%, forg= -2.1%| TAg acc= 52.6%, forg= 25.8% <<<
>>> Test on task 28 : loss=1.154 | TAw acc=100.0%, forg=  0.0%| TAg acc= 64.8%, forg=  0.0% <<<
Save at k=100/eeil_e20_wisdm_1/wisdm_flex_eeil
======
LLL_Net(
  (model): SimpleMLP(
    (fc1): Linear(in_features=91, out_features=1000, bias=True)
    (fc2): Sequential()
  )
  (heads): ModuleList(
    (0): Linear(in_features=1000, out_features=34, bias=True)
    (1): Linear(in_features=1000, out_features=20, bias=True)
    (2): Linear(in_features=1000, out_features=20, bias=True)
    (3): Linear(in_features=1000, out_features=20, bias=True)
    (4): Linear(in_features=1000, out_features=20, bias=True)
    (5): Linear(in_features=1000, out_features=20, bias=True)
    (6): Linear(in_features=1000, out_features=20, bias=True)
    (7): Linear(in_features=1000, out_features=20, bias=True)
    (8): Linear(in_features=1000, out_features=20, bias=True)
    (9): Linear(in_features=1000, out_features=20, bias=True)
    (10): Linear(in_features=1000, out_features=20, bias=True)
    (11): Linear(in_features=1000, out_features=20, bias=True)
    (12): Linear(in_features=1000, out_features=20, bias=True)
    (13): Linear(in_features=1000, out_features=20, bias=True)
    (14): Linear(in_features=1000, out_features=20, bias=True)
    (15): Linear(in_features=1000, out_features=20, bias=True)
    (16): Linear(in_features=1000, out_features=20, bias=True)
    (17): Linear(in_features=1000, out_features=20, bias=True)
    (18): Linear(in_features=1000, out_features=20, bias=True)
    (19): Linear(in_features=1000, out_features=20, bias=True)
    (20): Linear(in_features=1000, out_features=20, bias=True)
    (21): Linear(in_features=1000, out_features=20, bias=True)
    (22): Linear(in_features=1000, out_features=20, bias=True)
    (23): Linear(in_features=1000, out_features=20, bias=True)
    (24): Linear(in_features=1000, out_features=20, bias=True)
    (25): Linear(in_features=1000, out_features=20, bias=True)
    (26): Linear(in_features=1000, out_features=20, bias=True)
    (27): Linear(in_features=1000, out_features=20, bias=True)
    (28): Linear(in_features=1000, out_features=20, bias=True)
  )
)
======

************************************************************************************************************
Task 29
************************************************************************************************************
| Epoch   1, time=  3.3s | Train: skip eval | Valid: time=  0.2s loss=6.897, TAw acc= 59.0% | *
| Epoch   2, time=  3.3s | Train: skip eval | Valid: time=  0.2s loss=3.216, TAw acc= 73.1% | *
…
>>> Test on task 24 : loss=1.137 | TAw acc= 98.0%, forg=  0.0%| TAg acc= 70.4%, forg=  9.2% <<<
>>> Test on task 25 : loss=1.166 | TAw acc= 96.6%, forg=  0.0%| TAg acc= 64.7%, forg= 16.8% <<<
>>> Test on task 26 : loss=1.361 | TAw acc= 90.7%, forg=  3.1%| TAg acc= 58.8%, forg= 13.4% <<<
>>> Test on task 27 : loss=1.520 | TAw acc= 97.9%, forg= -1.0%| TAg acc= 58.8%, forg= 19.6% <<<
>>> Test on task 28 : loss=1.426 | TAw acc= 99.0%, forg=  1.0%| TAg acc= 60.0%, forg=  4.8% <<<
>>> Test on task 29 : loss=0.971 | TAw acc= 98.1%, forg=  0.0%| TAg acc= 82.2%, forg=  0.0% <<<
Save at k=100/eeil_e20_wisdm_1/wisdm_flex_eeil
======
LLL_Net(
  (model): SimpleMLP(
    (fc1): Linear(in_features=91, out_features=1000, bias=True)
    (fc2): Sequential()
  )
  (heads): ModuleList(
    (0): Linear(in_features=1000, out_features=34, bias=True)
    (1): Linear(in_features=1000, out_features=20, bias=True)
    (2): Linear(in_features=1000, out_features=20, bias=True)
    (3): Linear(in_features=1000, out_features=20, bias=True)
    (4): Linear(in_features=1000, out_features=20, bias=True)
    (5): Linear(in_features=1000, out_features=20, bias=True)
    (6): Linear(in_features=1000, out_features=20, bias=True)
    (7): Linear(in_features=1000, out_features=20, bias=True)
    (8): Linear(in_features=1000, out_features=20, bias=True)
    (9): Linear(in_features=1000, out_features=20, bias=True)
    (10): Linear(in_features=1000, out_features=20, bias=True)
    (11): Linear(in_features=1000, out_features=20, bias=True)
    (12): Linear(in_features=1000, out_features=20, bias=True)
    (13): Linear(in_features=1000, out_features=20, bias=True)
    (14): Linear(in_features=1000, out_features=20, bias=True)
    (15): Linear(in_features=1000, out_features=20, bias=True)
    (16): Linear(in_features=1000, out_features=20, bias=True)
    (17): Linear(in_features=1000, out_features=20, bias=True)
    (18): Linear(in_features=1000, out_features=20, bias=True)
    (19): Linear(in_features=1000, out_features=20, bias=True)
    (20): Linear(in_features=1000, out_features=20, bias=True)
    (21): Linear(in_features=1000, out_features=20, bias=True)
    (22): Linear(in_features=1000, out_features=20, bias=True)
    (23): Linear(in_features=1000, out_features=20, bias=True)
    (24): Linear(in_features=1000, out_features=20, bias=True)
    (25): Linear(in_features=1000, out_features=20, bias=True)
    (26): Linear(in_features=1000, out_features=20, bias=True)
    (27): Linear(in_features=1000, out_features=20, bias=True)
    (28): Linear(in_features=1000, out_features=20, bias=True)
    (29): Linear(in_features=1000, out_features=20, bias=True)
  )
)
======

************************************************************************************************************
Task 30
************************************************************************************************************
| Epoch   1, time=  3.5s | Train: skip eval | Valid: time=  0.2s loss=6.412, TAw acc= 56.3% | *
| Epoch   2, time=  3.3s | Train: skip eval | Valid: time=  0.2s loss=2.764, TAw acc= 66.7% | *
…
>>> Test on task 25 : loss=1.128 | TAw acc= 96.6%, forg=  0.0%| TAg acc= 67.2%, forg= 14.3% <<<
>>> Test on task 26 : loss=1.325 | TAw acc= 90.7%, forg=  3.1%| TAg acc= 62.9%, forg=  9.3% <<<
>>> Test on task 27 : loss=1.627 | TAw acc= 97.9%, forg=  0.0%| TAg acc= 61.9%, forg= 16.5% <<<
>>> Test on task 28 : loss=1.299 | TAw acc= 99.0%, forg=  1.0%| TAg acc= 63.8%, forg=  1.0% <<<
>>> Test on task 29 : loss=1.137 | TAw acc= 97.2%, forg=  0.9%| TAg acc= 74.8%, forg=  7.5% <<<
>>> Test on task 30 : loss=1.012 | TAw acc= 92.3%, forg=  0.0%| TAg acc= 68.4%, forg=  0.0% <<<
Save at k=100/eeil_e20_wisdm_1/wisdm_flex_eeil
======
LLL_Net(
  (model): SimpleMLP(
    (fc1): Linear(in_features=91, out_features=1000, bias=True)
    (fc2): Sequential()
  )
  (heads): ModuleList(
    (0): Linear(in_features=1000, out_features=34, bias=True)
    (1): Linear(in_features=1000, out_features=20, bias=True)
    (2): Linear(in_features=1000, out_features=20, bias=True)
    (3): Linear(in_features=1000, out_features=20, bias=True)
    (4): Linear(in_features=1000, out_features=20, bias=True)
    (5): Linear(in_features=1000, out_features=20, bias=True)
    (6): Linear(in_features=1000, out_features=20, bias=True)
    (7): Linear(in_features=1000, out_features=20, bias=True)
    (8): Linear(in_features=1000, out_features=20, bias=True)
    (9): Linear(in_features=1000, out_features=20, bias=True)
    (10): Linear(in_features=1000, out_features=20, bias=True)
    (11): Linear(in_features=1000, out_features=20, bias=True)
    (12): Linear(in_features=1000, out_features=20, bias=True)
    (13): Linear(in_features=1000, out_features=20, bias=True)
    (14): Linear(in_features=1000, out_features=20, bias=True)
    (15): Linear(in_features=1000, out_features=20, bias=True)
    (16): Linear(in_features=1000, out_features=20, bias=True)
    (17): Linear(in_features=1000, out_features=20, bias=True)
    (18): Linear(in_features=1000, out_features=20, bias=True)
    (19): Linear(in_features=1000, out_features=20, bias=True)
    (20): Linear(in_features=1000, out_features=20, bias=True)
    (21): Linear(in_features=1000, out_features=20, bias=True)
    (22): Linear(in_features=1000, out_features=20, bias=True)
    (23): Linear(in_features=1000, out_features=20, bias=True)
    (24): Linear(in_features=1000, out_features=20, bias=True)
    (25): Linear(in_features=1000, out_features=20, bias=True)
    (26): Linear(in_features=1000, out_features=20, bias=True)
    (27): Linear(in_features=1000, out_features=20, bias=True)
    (28): Linear(in_features=1000, out_features=20, bias=True)
    (29): Linear(in_features=1000, out_features=20, bias=True)
    (30): Linear(in_features=1000, out_features=20, bias=True)
  )
)
======

************************************************************************************************************
Task 31
************************************************************************************************************
| Epoch   1, time=  3.5s | Train: skip eval | Valid: time=  0.2s loss=6.521, TAw acc= 46.5% | *
| Epoch   2, time=  3.6s | Train: skip eval | Valid: time=  0.2s loss=3.147, TAw acc= 76.1% | *
…
>>> Test on task 26 : loss=1.341 | TAw acc= 90.7%, forg=  3.1%| TAg acc= 60.8%, forg= 11.3% <<<
>>> Test on task 27 : loss=1.578 | TAw acc= 96.9%, forg=  1.0%| TAg acc= 62.9%, forg= 15.5% <<<
>>> Test on task 28 : loss=1.261 | TAw acc= 99.0%, forg=  1.0%| TAg acc= 60.0%, forg=  4.8% <<<
>>> Test on task 29 : loss=1.110 | TAw acc= 97.2%, forg=  0.9%| TAg acc= 74.8%, forg=  7.5% <<<
>>> Test on task 30 : loss=1.294 | TAw acc= 93.2%, forg= -0.9%| TAg acc= 53.8%, forg= 14.5% <<<
>>> Test on task 31 : loss=1.215 | TAw acc= 92.8%, forg=  0.0%| TAg acc= 62.9%, forg=  0.0% <<<
Save at k=100/eeil_e20_wisdm_1/wisdm_flex_eeil
======
LLL_Net(
  (model): SimpleMLP(
    (fc1): Linear(in_features=91, out_features=1000, bias=True)
    (fc2): Sequential()
  )
  (heads): ModuleList(
    (0): Linear(in_features=1000, out_features=34, bias=True)
    (1): Linear(in_features=1000, out_features=20, bias=True)
    (2): Linear(in_features=1000, out_features=20, bias=True)
    (3): Linear(in_features=1000, out_features=20, bias=True)
    (4): Linear(in_features=1000, out_features=20, bias=True)
    (5): Linear(in_features=1000, out_features=20, bias=True)
    (6): Linear(in_features=1000, out_features=20, bias=True)
    (7): Linear(in_features=1000, out_features=20, bias=True)
    (8): Linear(in_features=1000, out_features=20, bias=True)
    (9): Linear(in_features=1000, out_features=20, bias=True)
    (10): Linear(in_features=1000, out_features=20, bias=True)
    (11): Linear(in_features=1000, out_features=20, bias=True)
    (12): Linear(in_features=1000, out_features=20, bias=True)
    (13): Linear(in_features=1000, out_features=20, bias=True)
    (14): Linear(in_features=1000, out_features=20, bias=True)
    (15): Linear(in_features=1000, out_features=20, bias=True)
    (16): Linear(in_features=1000, out_features=20, bias=True)
    (17): Linear(in_features=1000, out_features=20, bias=True)
    (18): Linear(in_features=1000, out_features=20, bias=True)
    (19): Linear(in_features=1000, out_features=20, bias=True)
    (20): Linear(in_features=1000, out_features=20, bias=True)
    (21): Linear(in_features=1000, out_features=20, bias=True)
    (22): Linear(in_features=1000, out_features=20, bias=True)
    (23): Linear(in_features=1000, out_features=20, bias=True)
    (24): Linear(in_features=1000, out_features=20, bias=True)
    (25): Linear(in_features=1000, out_features=20, bias=True)
    (26): Linear(in_features=1000, out_features=20, bias=True)
    (27): Linear(in_features=1000, out_features=20, bias=True)
    (28): Linear(in_features=1000, out_features=20, bias=True)
    (29): Linear(in_features=1000, out_features=20, bias=True)
    (30): Linear(in_features=1000, out_features=20, bias=True)
    (31): Linear(in_features=1000, out_features=20, bias=True)
  )
)
======

************************************************************************************************************
Task 32
************************************************************************************************************
| Epoch   1, time=  4.0s | Train: skip eval | Valid: time=  0.2s loss=4.764, TAw acc= 59.8% | *
| Epoch   2, time=  3.8s | Train: skip eval | Valid: time=  0.2s loss=2.632, TAw acc= 76.1% | *
…
>>> Test on task 27 : loss=1.600 | TAw acc= 96.9%, forg=  1.0%| TAg acc= 58.8%, forg= 19.6% <<<
>>> Test on task 28 : loss=1.291 | TAw acc= 99.0%, forg=  1.0%| TAg acc= 61.9%, forg=  2.9% <<<
>>> Test on task 29 : loss=1.099 | TAw acc= 97.2%, forg=  0.9%| TAg acc= 77.6%, forg=  4.7% <<<
>>> Test on task 30 : loss=1.239 | TAw acc= 93.2%, forg=  0.0%| TAg acc= 56.4%, forg= 12.0% <<<
>>> Test on task 31 : loss=1.418 | TAw acc= 90.7%, forg=  2.1%| TAg acc= 56.7%, forg=  6.2% <<<
>>> Test on task 32 : loss=1.070 | TAw acc= 92.6%, forg=  0.0%| TAg acc= 74.6%, forg=  0.0% <<<
Save at k=100/eeil_e20_wisdm_1/wisdm_flex_eeil
======
LLL_Net(
  (model): SimpleMLP(
    (fc1): Linear(in_features=91, out_features=1000, bias=True)
    (fc2): Sequential()
  )
  (heads): ModuleList(
    (0): Linear(in_features=1000, out_features=34, bias=True)
    (1): Linear(in_features=1000, out_features=20, bias=True)
    (2): Linear(in_features=1000, out_features=20, bias=True)
    (3): Linear(in_features=1000, out_features=20, bias=True)
    (4): Linear(in_features=1000, out_features=20, bias=True)
    (5): Linear(in_features=1000, out_features=20, bias=True)
    (6): Linear(in_features=1000, out_features=20, bias=True)
    (7): Linear(in_features=1000, out_features=20, bias=True)
    (8): Linear(in_features=1000, out_features=20, bias=True)
    (9): Linear(in_features=1000, out_features=20, bias=True)
    (10): Linear(in_features=1000, out_features=20, bias=True)
    (11): Linear(in_features=1000, out_features=20, bias=True)
    (12): Linear(in_features=1000, out_features=20, bias=True)
    (13): Linear(in_features=1000, out_features=20, bias=True)
    (14): Linear(in_features=1000, out_features=20, bias=True)
    (15): Linear(in_features=1000, out_features=20, bias=True)
    (16): Linear(in_features=1000, out_features=20, bias=True)
    (17): Linear(in_features=1000, out_features=20, bias=True)
    (18): Linear(in_features=1000, out_features=20, bias=True)
    (19): Linear(in_features=1000, out_features=20, bias=True)
    (20): Linear(in_features=1000, out_features=20, bias=True)
    (21): Linear(in_features=1000, out_features=20, bias=True)
    (22): Linear(in_features=1000, out_features=20, bias=True)
    (23): Linear(in_features=1000, out_features=20, bias=True)
    (24): Linear(in_features=1000, out_features=20, bias=True)
    (25): Linear(in_features=1000, out_features=20, bias=True)
    (26): Linear(in_features=1000, out_features=20, bias=True)
    (27): Linear(in_features=1000, out_features=20, bias=True)
    (28): Linear(in_features=1000, out_features=20, bias=True)
    (29): Linear(in_features=1000, out_features=20, bias=True)
    (30): Linear(in_features=1000, out_features=20, bias=True)
    (31): Linear(in_features=1000, out_features=20, bias=True)
    (32): Linear(in_features=1000, out_features=20, bias=True)
  )
)
======

************************************************************************************************************
Task 33
************************************************************************************************************
| Epoch   1, time=  4.2s | Train: skip eval | Valid: time=  0.2s loss=7.725, TAw acc= 39.7% | *
| Epoch   2, time=  4.2s | Train: skip eval | Valid: time=  0.2s loss=4.282, TAw acc= 61.5% | *
…
>>> Test on task 28 : loss=1.313 | TAw acc= 99.0%, forg=  1.0%| TAg acc= 61.0%, forg=  3.8% <<<
>>> Test on task 29 : loss=1.087 | TAw acc= 97.2%, forg=  0.9%| TAg acc= 79.4%, forg=  2.8% <<<
>>> Test on task 30 : loss=1.235 | TAw acc= 94.0%, forg= -0.9%| TAg acc= 58.1%, forg= 10.3% <<<
>>> Test on task 31 : loss=1.417 | TAw acc= 92.8%, forg=  0.0%| TAg acc= 60.8%, forg=  2.1% <<<
>>> Test on task 32 : loss=1.481 | TAw acc= 91.8%, forg=  0.8%| TAg acc= 60.7%, forg= 13.9% <<<
>>> Test on task 33 : loss=1.406 | TAw acc= 95.3%, forg=  0.0%| TAg acc= 58.5%, forg=  0.0% <<<
Save at k=100/eeil_e20_wisdm_1/wisdm_flex_eeil
======
LLL_Net(
  (model): SimpleMLP(
    (fc1): Linear(in_features=91, out_features=1000, bias=True)
    (fc2): Sequential()
  )
  (heads): ModuleList(
    (0): Linear(in_features=1000, out_features=34, bias=True)
    (1): Linear(in_features=1000, out_features=20, bias=True)
    (2): Linear(in_features=1000, out_features=20, bias=True)
    (3): Linear(in_features=1000, out_features=20, bias=True)
    (4): Linear(in_features=1000, out_features=20, bias=True)
    (5): Linear(in_features=1000, out_features=20, bias=True)
    (6): Linear(in_features=1000, out_features=20, bias=True)
    (7): Linear(in_features=1000, out_features=20, bias=True)
    (8): Linear(in_features=1000, out_features=20, bias=True)
    (9): Linear(in_features=1000, out_features=20, bias=True)
    (10): Linear(in_features=1000, out_features=20, bias=True)
    (11): Linear(in_features=1000, out_features=20, bias=True)
    (12): Linear(in_features=1000, out_features=20, bias=True)
    (13): Linear(in_features=1000, out_features=20, bias=True)
    (14): Linear(in_features=1000, out_features=20, bias=True)
    (15): Linear(in_features=1000, out_features=20, bias=True)
    (16): Linear(in_features=1000, out_features=20, bias=True)
    (17): Linear(in_features=1000, out_features=20, bias=True)
    (18): Linear(in_features=1000, out_features=20, bias=True)
    (19): Linear(in_features=1000, out_features=20, bias=True)
    (20): Linear(in_features=1000, out_features=20, bias=True)
    (21): Linear(in_features=1000, out_features=20, bias=True)
    (22): Linear(in_features=1000, out_features=20, bias=True)
    (23): Linear(in_features=1000, out_features=20, bias=True)
    (24): Linear(in_features=1000, out_features=20, bias=True)
    (25): Linear(in_features=1000, out_features=20, bias=True)
    (26): Linear(in_features=1000, out_features=20, bias=True)
    (27): Linear(in_features=1000, out_features=20, bias=True)
    (28): Linear(in_features=1000, out_features=20, bias=True)
    (29): Linear(in_features=1000, out_features=20, bias=True)
    (30): Linear(in_features=1000, out_features=20, bias=True)
    (31): Linear(in_features=1000, out_features=20, bias=True)
    (32): Linear(in_features=1000, out_features=20, bias=True)
    (33): Linear(in_features=1000, out_features=20, bias=True)
  )
)
======

************************************************************************************************************
Task 34
************************************************************************************************************
| Epoch   1, time=  4.1s | Train: skip eval | Valid: time=  0.2s loss=5.666, TAw acc= 65.9% | *
| Epoch   2, time=  4.2s | Train: skip eval | Valid: time=  0.2s loss=2.575, TAw acc= 78.8% | *
…
>>> Test on task 29 : loss=1.121 | TAw acc= 97.2%, forg=  0.9%| TAg acc= 76.6%, forg=  5.6% <<<
>>> Test on task 30 : loss=1.278 | TAw acc= 94.0%, forg=  0.0%| TAg acc= 53.0%, forg= 15.4% <<<
>>> Test on task 31 : loss=1.354 | TAw acc= 93.8%, forg= -1.0%| TAg acc= 61.9%, forg=  1.0% <<<
>>> Test on task 32 : loss=1.407 | TAw acc= 91.0%, forg=  1.6%| TAg acc= 64.8%, forg=  9.8% <<<
>>> Test on task 33 : loss=1.804 | TAw acc= 95.3%, forg=  0.0%| TAg acc= 43.4%, forg= 15.1% <<<
>>> Test on task 34 : loss=1.198 | TAw acc= 96.5%, forg=  0.0%| TAg acc= 68.4%, forg=  0.0% <<<
Save at k=100/eeil_e20_wisdm_1/wisdm_flex_eeil
======
LLL_Net(
  (model): SimpleMLP(
    (fc1): Linear(in_features=91, out_features=1000, bias=True)
    (fc2): Sequential()
  )
  (heads): ModuleList(
    (0): Linear(in_features=1000, out_features=34, bias=True)
    (1): Linear(in_features=1000, out_features=20, bias=True)
    (2): Linear(in_features=1000, out_features=20, bias=True)
    (3): Linear(in_features=1000, out_features=20, bias=True)
    (4): Linear(in_features=1000, out_features=20, bias=True)
    (5): Linear(in_features=1000, out_features=20, bias=True)
    (6): Linear(in_features=1000, out_features=20, bias=True)
    (7): Linear(in_features=1000, out_features=20, bias=True)
    (8): Linear(in_features=1000, out_features=20, bias=True)
    (9): Linear(in_features=1000, out_features=20, bias=True)
    (10): Linear(in_features=1000, out_features=20, bias=True)
    (11): Linear(in_features=1000, out_features=20, bias=True)
    (12): Linear(in_features=1000, out_features=20, bias=True)
    (13): Linear(in_features=1000, out_features=20, bias=True)
    (14): Linear(in_features=1000, out_features=20, bias=True)
    (15): Linear(in_features=1000, out_features=20, bias=True)
    (16): Linear(in_features=1000, out_features=20, bias=True)
    (17): Linear(in_features=1000, out_features=20, bias=True)
    (18): Linear(in_features=1000, out_features=20, bias=True)
    (19): Linear(in_features=1000, out_features=20, bias=True)
    (20): Linear(in_features=1000, out_features=20, bias=True)
    (21): Linear(in_features=1000, out_features=20, bias=True)
    (22): Linear(in_features=1000, out_features=20, bias=True)
    (23): Linear(in_features=1000, out_features=20, bias=True)
    (24): Linear(in_features=1000, out_features=20, bias=True)
    (25): Linear(in_features=1000, out_features=20, bias=True)
    (26): Linear(in_features=1000, out_features=20, bias=True)
    (27): Linear(in_features=1000, out_features=20, bias=True)
    (28): Linear(in_features=1000, out_features=20, bias=True)
    (29): Linear(in_features=1000, out_features=20, bias=True)
    (30): Linear(in_features=1000, out_features=20, bias=True)
    (31): Linear(in_features=1000, out_features=20, bias=True)
    (32): Linear(in_features=1000, out_features=20, bias=True)
    (33): Linear(in_features=1000, out_features=20, bias=True)
    (34): Linear(in_features=1000, out_features=20, bias=True)
  )
)
======

************************************************************************************************************
Task 35
************************************************************************************************************
| Epoch   1, time=  4.6s | Train: skip eval | Valid: time=  0.2s loss=6.228, TAw acc= 43.2% | *
| Epoch   2, time=  4.5s | Train: skip eval | Valid: time=  0.2s loss=3.784, TAw acc= 65.4% | *
…
>>> Test on task 30 : loss=1.166 | TAw acc= 93.2%, forg=  0.9%| TAg acc= 61.5%, forg=  6.8% <<<
>>> Test on task 31 : loss=1.332 | TAw acc= 92.8%, forg=  1.0%| TAg acc= 63.9%, forg= -1.0% <<<
>>> Test on task 32 : loss=1.458 | TAw acc= 91.0%, forg=  1.6%| TAg acc= 59.8%, forg= 14.8% <<<
>>> Test on task 33 : loss=1.803 | TAw acc= 95.3%, forg=  0.0%| TAg acc= 42.5%, forg= 16.0% <<<
>>> Test on task 34 : loss=1.478 | TAw acc= 95.6%, forg=  0.9%| TAg acc= 57.0%, forg= 11.4% <<<
>>> Test on task 35 : loss=0.829 | TAw acc= 99.1%, forg=  0.0%| TAg acc= 80.0%, forg=  0.0% <<<
Save at k=100/eeil_e20_wisdm_1/wisdm_flex_eeil
======
LLL_Net(
  (model): SimpleMLP(
    (fc1): Linear(in_features=91, out_features=1000, bias=True)
    (fc2): Sequential()
  )
  (heads): ModuleList(
    (0): Linear(in_features=1000, out_features=34, bias=True)
    (1): Linear(in_features=1000, out_features=20, bias=True)
    (2): Linear(in_features=1000, out_features=20, bias=True)
    (3): Linear(in_features=1000, out_features=20, bias=True)
    (4): Linear(in_features=1000, out_features=20, bias=True)
    (5): Linear(in_features=1000, out_features=20, bias=True)
    (6): Linear(in_features=1000, out_features=20, bias=True)
    (7): Linear(in_features=1000, out_features=20, bias=True)
    (8): Linear(in_features=1000, out_features=20, bias=True)
    (9): Linear(in_features=1000, out_features=20, bias=True)
    (10): Linear(in_features=1000, out_features=20, bias=True)
    (11): Linear(in_features=1000, out_features=20, bias=True)
    (12): Linear(in_features=1000, out_features=20, bias=True)
    (13): Linear(in_features=1000, out_features=20, bias=True)
    (14): Linear(in_features=1000, out_features=20, bias=True)
    (15): Linear(in_features=1000, out_features=20, bias=True)
    (16): Linear(in_features=1000, out_features=20, bias=True)
    (17): Linear(in_features=1000, out_features=20, bias=True)
    (18): Linear(in_features=1000, out_features=20, bias=True)
    (19): Linear(in_features=1000, out_features=20, bias=True)
    (20): Linear(in_features=1000, out_features=20, bias=True)
    (21): Linear(in_features=1000, out_features=20, bias=True)
    (22): Linear(in_features=1000, out_features=20, bias=True)
    (23): Linear(in_features=1000, out_features=20, bias=True)
    (24): Linear(in_features=1000, out_features=20, bias=True)
    (25): Linear(in_features=1000, out_features=20, bias=True)
    (26): Linear(in_features=1000, out_features=20, bias=True)
    (27): Linear(in_features=1000, out_features=20, bias=True)
    (28): Linear(in_features=1000, out_features=20, bias=True)
    (29): Linear(in_features=1000, out_features=20, bias=True)
    (30): Linear(in_features=1000, out_features=20, bias=True)
    (31): Linear(in_features=1000, out_features=20, bias=True)
    (32): Linear(in_features=1000, out_features=20, bias=True)
    (33): Linear(in_features=1000, out_features=20, bias=True)
    (34): Linear(in_features=1000, out_features=20, bias=True)
    (35): Linear(in_features=1000, out_features=20, bias=True)
  )
)
======

************************************************************************************************************
Task 36
************************************************************************************************************
| Epoch   1, time=  4.8s | Train: skip eval | Valid: time=  0.2s loss=5.644, TAw acc= 57.1% | *
| Epoch   2, time=  4.5s | Train: skip eval | Valid: time=  0.2s loss=2.604, TAw acc= 81.8% | *
…
>>> Test on task 31 : loss=1.345 | TAw acc= 92.8%, forg=  1.0%| TAg acc= 63.9%, forg=  0.0% <<<
>>> Test on task 32 : loss=1.623 | TAw acc= 91.8%, forg=  0.8%| TAg acc= 63.1%, forg= 11.5% <<<
>>> Test on task 33 : loss=1.691 | TAw acc= 95.3%, forg=  0.0%| TAg acc= 52.8%, forg=  5.7% <<<
>>> Test on task 34 : loss=1.549 | TAw acc= 94.7%, forg=  1.8%| TAg acc= 54.4%, forg= 14.0% <<<
>>> Test on task 35 : loss=1.041 | TAw acc= 98.2%, forg=  0.9%| TAg acc= 79.1%, forg=  0.9% <<<
>>> Test on task 36 : loss=1.268 | TAw acc= 89.5%, forg=  0.0%| TAg acc= 65.7%, forg=  0.0% <<<
Save at k=100/eeil_e20_wisdm_1/wisdm_flex_eeil
======
LLL_Net(
  (model): SimpleMLP(
    (fc1): Linear(in_features=91, out_features=1000, bias=True)
    (fc2): Sequential()
  )
  (heads): ModuleList(
    (0): Linear(in_features=1000, out_features=34, bias=True)
    (1): Linear(in_features=1000, out_features=20, bias=True)
    (2): Linear(in_features=1000, out_features=20, bias=True)
    (3): Linear(in_features=1000, out_features=20, bias=True)
    (4): Linear(in_features=1000, out_features=20, bias=True)
    (5): Linear(in_features=1000, out_features=20, bias=True)
    (6): Linear(in_features=1000, out_features=20, bias=True)
    (7): Linear(in_features=1000, out_features=20, bias=True)
    (8): Linear(in_features=1000, out_features=20, bias=True)
    (9): Linear(in_features=1000, out_features=20, bias=True)
    (10): Linear(in_features=1000, out_features=20, bias=True)
    (11): Linear(in_features=1000, out_features=20, bias=True)
    (12): Linear(in_features=1000, out_features=20, bias=True)
    (13): Linear(in_features=1000, out_features=20, bias=True)
    (14): Linear(in_features=1000, out_features=20, bias=True)
    (15): Linear(in_features=1000, out_features=20, bias=True)
    (16): Linear(in_features=1000, out_features=20, bias=True)
    (17): Linear(in_features=1000, out_features=20, bias=True)
    (18): Linear(in_features=1000, out_features=20, bias=True)
    (19): Linear(in_features=1000, out_features=20, bias=True)
    (20): Linear(in_features=1000, out_features=20, bias=True)
    (21): Linear(in_features=1000, out_features=20, bias=True)
    (22): Linear(in_features=1000, out_features=20, bias=True)
    (23): Linear(in_features=1000, out_features=20, bias=True)
    (24): Linear(in_features=1000, out_features=20, bias=True)
    (25): Linear(in_features=1000, out_features=20, bias=True)
    (26): Linear(in_features=1000, out_features=20, bias=True)
    (27): Linear(in_features=1000, out_features=20, bias=True)
    (28): Linear(in_features=1000, out_features=20, bias=True)
    (29): Linear(in_features=1000, out_features=20, bias=True)
    (30): Linear(in_features=1000, out_features=20, bias=True)
    (31): Linear(in_features=1000, out_features=20, bias=True)
    (32): Linear(in_features=1000, out_features=20, bias=True)
    (33): Linear(in_features=1000, out_features=20, bias=True)
    (34): Linear(in_features=1000, out_features=20, bias=True)
    (35): Linear(in_features=1000, out_features=20, bias=True)
    (36): Linear(in_features=1000, out_features=20, bias=True)
  )
)
======

************************************************************************************************************
Task 37
************************************************************************************************************
| Epoch   1, time=  4.7s | Train: skip eval | Valid: time=  0.2s loss=5.012, TAw acc= 55.3% | *
| Epoch   2, time=  4.9s | Train: skip eval | Valid: time=  0.2s loss=2.068, TAw acc= 85.1% | *
…
>>> Test on task 32 : loss=1.552 | TAw acc= 94.3%, forg= -1.6%| TAg acc= 63.9%, forg= 10.7% <<<
>>> Test on task 33 : loss=1.673 | TAw acc= 94.3%, forg=  0.9%| TAg acc= 57.5%, forg=  0.9% <<<
>>> Test on task 34 : loss=1.462 | TAw acc= 95.6%, forg=  0.9%| TAg acc= 57.0%, forg= 11.4% <<<
>>> Test on task 35 : loss=0.966 | TAw acc= 98.2%, forg=  0.9%| TAg acc= 78.2%, forg=  1.8% <<<
>>> Test on task 36 : loss=1.607 | TAw acc= 88.6%, forg=  1.0%| TAg acc= 51.4%, forg= 14.3% <<<
>>> Test on task 37 : loss=0.849 | TAw acc= 98.4%, forg=  0.0%| TAg acc= 81.6%, forg=  0.0% <<<
Save at k=100/eeil_e20_wisdm_1/wisdm_flex_eeil
======
LLL_Net(
  (model): SimpleMLP(
    (fc1): Linear(in_features=91, out_features=1000, bias=True)
    (fc2): Sequential()
  )
  (heads): ModuleList(
    (0): Linear(in_features=1000, out_features=34, bias=True)
    (1): Linear(in_features=1000, out_features=20, bias=True)
    (2): Linear(in_features=1000, out_features=20, bias=True)
    (3): Linear(in_features=1000, out_features=20, bias=True)
    (4): Linear(in_features=1000, out_features=20, bias=True)
    (5): Linear(in_features=1000, out_features=20, bias=True)
    (6): Linear(in_features=1000, out_features=20, bias=True)
    (7): Linear(in_features=1000, out_features=20, bias=True)
    (8): Linear(in_features=1000, out_features=20, bias=True)
    (9): Linear(in_features=1000, out_features=20, bias=True)
    (10): Linear(in_features=1000, out_features=20, bias=True)
    (11): Linear(in_features=1000, out_features=20, bias=True)
    (12): Linear(in_features=1000, out_features=20, bias=True)
    (13): Linear(in_features=1000, out_features=20, bias=True)
    (14): Linear(in_features=1000, out_features=20, bias=True)
    (15): Linear(in_features=1000, out_features=20, bias=True)
    (16): Linear(in_features=1000, out_features=20, bias=True)
    (17): Linear(in_features=1000, out_features=20, bias=True)
    (18): Linear(in_features=1000, out_features=20, bias=True)
    (19): Linear(in_features=1000, out_features=20, bias=True)
    (20): Linear(in_features=1000, out_features=20, bias=True)
    (21): Linear(in_features=1000, out_features=20, bias=True)
    (22): Linear(in_features=1000, out_features=20, bias=True)
    (23): Linear(in_features=1000, out_features=20, bias=True)
    (24): Linear(in_features=1000, out_features=20, bias=True)
    (25): Linear(in_features=1000, out_features=20, bias=True)
    (26): Linear(in_features=1000, out_features=20, bias=True)
    (27): Linear(in_features=1000, out_features=20, bias=True)
    (28): Linear(in_features=1000, out_features=20, bias=True)
    (29): Linear(in_features=1000, out_features=20, bias=True)
    (30): Linear(in_features=1000, out_features=20, bias=True)
    (31): Linear(in_features=1000, out_features=20, bias=True)
    (32): Linear(in_features=1000, out_features=20, bias=True)
    (33): Linear(in_features=1000, out_features=20, bias=True)
    (34): Linear(in_features=1000, out_features=20, bias=True)
    (35): Linear(in_features=1000, out_features=20, bias=True)
    (36): Linear(in_features=1000, out_features=20, bias=True)
    (37): Linear(in_features=1000, out_features=20, bias=True)
  )
)
======

************************************************************************************************************
Task 38
************************************************************************************************************
| Epoch   1, time=  5.3s | Train: skip eval | Valid: time=  0.2s loss=4.497, TAw acc= 64.6% | *
| Epoch   2, time=  4.9s | Train: skip eval | Valid: time=  0.2s loss=1.986, TAw acc= 84.4% | *
…
>>> Test on task 33 : loss=1.834 | TAw acc= 95.3%, forg=  0.0%| TAg acc= 53.8%, forg=  4.7% <<<
>>> Test on task 34 : loss=1.520 | TAw acc= 95.6%, forg=  0.9%| TAg acc= 51.8%, forg= 16.7% <<<
>>> Test on task 35 : loss=0.936 | TAw acc= 98.2%, forg=  0.9%| TAg acc= 76.4%, forg=  3.6% <<<
>>> Test on task 36 : loss=1.637 | TAw acc= 88.6%, forg=  1.0%| TAg acc= 48.6%, forg= 17.1% <<<
>>> Test on task 37 : loss=1.299 | TAw acc= 97.6%, forg=  0.8%| TAg acc= 64.0%, forg= 17.6% <<<
>>> Test on task 38 : loss=0.743 | TAw acc= 99.2%, forg=  0.0%| TAg acc= 85.0%, forg=  0.0% <<<
Save at k=100/eeil_e20_wisdm_1/wisdm_flex_eeil
======
LLL_Net(
  (model): SimpleMLP(
    (fc1): Linear(in_features=91, out_features=1000, bias=True)
    (fc2): Sequential()
  )
  (heads): ModuleList(
    (0): Linear(in_features=1000, out_features=34, bias=True)
    (1): Linear(in_features=1000, out_features=20, bias=True)
    (2): Linear(in_features=1000, out_features=20, bias=True)
    (3): Linear(in_features=1000, out_features=20, bias=True)
    (4): Linear(in_features=1000, out_features=20, bias=True)
    (5): Linear(in_features=1000, out_features=20, bias=True)
    (6): Linear(in_features=1000, out_features=20, bias=True)
    (7): Linear(in_features=1000, out_features=20, bias=True)
    (8): Linear(in_features=1000, out_features=20, bias=True)
    (9): Linear(in_features=1000, out_features=20, bias=True)
    (10): Linear(in_features=1000, out_features=20, bias=True)
    (11): Linear(in_features=1000, out_features=20, bias=True)
    (12): Linear(in_features=1000, out_features=20, bias=True)
    (13): Linear(in_features=1000, out_features=20, bias=True)
    (14): Linear(in_features=1000, out_features=20, bias=True)
    (15): Linear(in_features=1000, out_features=20, bias=True)
    (16): Linear(in_features=1000, out_features=20, bias=True)
    (17): Linear(in_features=1000, out_features=20, bias=True)
    (18): Linear(in_features=1000, out_features=20, bias=True)
    (19): Linear(in_features=1000, out_features=20, bias=True)
    (20): Linear(in_features=1000, out_features=20, bias=True)
    (21): Linear(in_features=1000, out_features=20, bias=True)
    (22): Linear(in_features=1000, out_features=20, bias=True)
    (23): Linear(in_features=1000, out_features=20, bias=True)
    (24): Linear(in_features=1000, out_features=20, bias=True)
    (25): Linear(in_features=1000, out_features=20, bias=True)
    (26): Linear(in_features=1000, out_features=20, bias=True)
    (27): Linear(in_features=1000, out_features=20, bias=True)
    (28): Linear(in_features=1000, out_features=20, bias=True)
    (29): Linear(in_features=1000, out_features=20, bias=True)
    (30): Linear(in_features=1000, out_features=20, bias=True)
    (31): Linear(in_features=1000, out_features=20, bias=True)
    (32): Linear(in_features=1000, out_features=20, bias=True)
    (33): Linear(in_features=1000, out_features=20, bias=True)
    (34): Linear(in_features=1000, out_features=20, bias=True)
    (35): Linear(in_features=1000, out_features=20, bias=True)
    (36): Linear(in_features=1000, out_features=20, bias=True)
    (37): Linear(in_features=1000, out_features=20, bias=True)
    (38): Linear(in_features=1000, out_features=20, bias=True)
  )
)
======

************************************************************************************************************
Task 39
************************************************************************************************************
| Epoch   1, time=  5.4s | Train: skip eval | Valid: time=  0.2s loss=5.266, TAw acc= 52.1% | *
| Epoch   2, time=  5.5s | Train: skip eval | Valid: time=  0.2s loss=2.499, TAw acc= 81.7% | *
…
>>> Test on task 34 : loss=1.423 | TAw acc= 95.6%, forg=  0.9%| TAg acc= 61.4%, forg=  7.0% <<<
>>> Test on task 35 : loss=0.871 | TAw acc= 98.2%, forg=  0.9%| TAg acc= 80.0%, forg=  0.0% <<<
>>> Test on task 36 : loss=1.671 | TAw acc= 88.6%, forg=  1.0%| TAg acc= 51.4%, forg= 14.3% <<<
>>> Test on task 37 : loss=1.164 | TAw acc= 97.6%, forg=  0.8%| TAg acc= 67.2%, forg= 14.4% <<<
>>> Test on task 38 : loss=1.213 | TAw acc= 97.6%, forg=  1.6%| TAg acc= 60.6%, forg= 24.4% <<<
>>> Test on task 39 : loss=1.052 | TAw acc= 98.0%, forg=  0.0%| TAg acc= 69.7%, forg=  0.0% <<<
Save at k=100/eeil_e20_wisdm_1/wisdm_flex_eeil
======
LLL_Net(
  (model): SimpleMLP(
    (fc1): Linear(in_features=91, out_features=1000, bias=True)
    (fc2): Sequential()
  )
  (heads): ModuleList(
    (0): Linear(in_features=1000, out_features=34, bias=True)
    (1): Linear(in_features=1000, out_features=20, bias=True)
    (2): Linear(in_features=1000, out_features=20, bias=True)
    (3): Linear(in_features=1000, out_features=20, bias=True)
    (4): Linear(in_features=1000, out_features=20, bias=True)
    (5): Linear(in_features=1000, out_features=20, bias=True)
    (6): Linear(in_features=1000, out_features=20, bias=True)
    (7): Linear(in_features=1000, out_features=20, bias=True)
    (8): Linear(in_features=1000, out_features=20, bias=True)
    (9): Linear(in_features=1000, out_features=20, bias=True)
    (10): Linear(in_features=1000, out_features=20, bias=True)
    (11): Linear(in_features=1000, out_features=20, bias=True)
    (12): Linear(in_features=1000, out_features=20, bias=True)
    (13): Linear(in_features=1000, out_features=20, bias=True)
    (14): Linear(in_features=1000, out_features=20, bias=True)
    (15): Linear(in_features=1000, out_features=20, bias=True)
    (16): Linear(in_features=1000, out_features=20, bias=True)
    (17): Linear(in_features=1000, out_features=20, bias=True)
    (18): Linear(in_features=1000, out_features=20, bias=True)
    (19): Linear(in_features=1000, out_features=20, bias=True)
    (20): Linear(in_features=1000, out_features=20, bias=True)
    (21): Linear(in_features=1000, out_features=20, bias=True)
    (22): Linear(in_features=1000, out_features=20, bias=True)
    (23): Linear(in_features=1000, out_features=20, bias=True)
    (24): Linear(in_features=1000, out_features=20, bias=True)
    (25): Linear(in_features=1000, out_features=20, bias=True)
    (26): Linear(in_features=1000, out_features=20, bias=True)
    (27): Linear(in_features=1000, out_features=20, bias=True)
    (28): Linear(in_features=1000, out_features=20, bias=True)
    (29): Linear(in_features=1000, out_features=20, bias=True)
    (30): Linear(in_features=1000, out_features=20, bias=True)
    (31): Linear(in_features=1000, out_features=20, bias=True)
    (32): Linear(in_features=1000, out_features=20, bias=True)
    (33): Linear(in_features=1000, out_features=20, bias=True)
    (34): Linear(in_features=1000, out_features=20, bias=True)
    (35): Linear(in_features=1000, out_features=20, bias=True)
    (36): Linear(in_features=1000, out_features=20, bias=True)
    (37): Linear(in_features=1000, out_features=20, bias=True)
    (38): Linear(in_features=1000, out_features=20, bias=True)
    (39): Linear(in_features=1000, out_features=20, bias=True)
  )
)
======

************************************************************************************************************
Task 40
************************************************************************************************************
| Epoch   1, time=  5.7s | Train: skip eval | Valid: time=  0.1s loss=6.316, TAw acc= 56.4% | *
| Epoch   2, time=  5.4s | Train: skip eval | Valid: time=  0.2s loss=2.966, TAw acc= 88.5% | *
…
>>> Test on task 35 : loss=0.883 | TAw acc= 98.2%, forg=  0.9%| TAg acc= 79.1%, forg=  0.9% <<<
>>> Test on task 36 : loss=1.809 | TAw acc= 87.6%, forg=  1.9%| TAg acc= 50.5%, forg= 15.2% <<<
>>> Test on task 37 : loss=1.204 | TAw acc= 98.4%, forg=  0.0%| TAg acc= 68.0%, forg= 13.6% <<<
>>> Test on task 38 : loss=1.166 | TAw acc= 97.6%, forg=  1.6%| TAg acc= 63.8%, forg= 21.3% <<<
>>> Test on task 39 : loss=1.262 | TAw acc= 99.0%, forg= -1.0%| TAg acc= 66.7%, forg=  3.0% <<<
>>> Test on task 40 : loss=1.069 | TAw acc= 98.1%, forg=  0.0%| TAg acc= 74.5%, forg=  0.0% <<<
Save at k=100/eeil_e20_wisdm_1/wisdm_flex_eeil
======
LLL_Net(
  (model): SimpleMLP(
    (fc1): Linear(in_features=91, out_features=1000, bias=True)
    (fc2): Sequential()
  )
  (heads): ModuleList(
    (0): Linear(in_features=1000, out_features=34, bias=True)
    (1): Linear(in_features=1000, out_features=20, bias=True)
    (2): Linear(in_features=1000, out_features=20, bias=True)
    (3): Linear(in_features=1000, out_features=20, bias=True)
    (4): Linear(in_features=1000, out_features=20, bias=True)
    (5): Linear(in_features=1000, out_features=20, bias=True)
    (6): Linear(in_features=1000, out_features=20, bias=True)
    (7): Linear(in_features=1000, out_features=20, bias=True)
    (8): Linear(in_features=1000, out_features=20, bias=True)
    (9): Linear(in_features=1000, out_features=20, bias=True)
    (10): Linear(in_features=1000, out_features=20, bias=True)
    (11): Linear(in_features=1000, out_features=20, bias=True)
    (12): Linear(in_features=1000, out_features=20, bias=True)
    (13): Linear(in_features=1000, out_features=20, bias=True)
    (14): Linear(in_features=1000, out_features=20, bias=True)
    (15): Linear(in_features=1000, out_features=20, bias=True)
    (16): Linear(in_features=1000, out_features=20, bias=True)
    (17): Linear(in_features=1000, out_features=20, bias=True)
    (18): Linear(in_features=1000, out_features=20, bias=True)
    (19): Linear(in_features=1000, out_features=20, bias=True)
    (20): Linear(in_features=1000, out_features=20, bias=True)
    (21): Linear(in_features=1000, out_features=20, bias=True)
    (22): Linear(in_features=1000, out_features=20, bias=True)
    (23): Linear(in_features=1000, out_features=20, bias=True)
    (24): Linear(in_features=1000, out_features=20, bias=True)
    (25): Linear(in_features=1000, out_features=20, bias=True)
    (26): Linear(in_features=1000, out_features=20, bias=True)
    (27): Linear(in_features=1000, out_features=20, bias=True)
    (28): Linear(in_features=1000, out_features=20, bias=True)
    (29): Linear(in_features=1000, out_features=20, bias=True)
    (30): Linear(in_features=1000, out_features=20, bias=True)
    (31): Linear(in_features=1000, out_features=20, bias=True)
    (32): Linear(in_features=1000, out_features=20, bias=True)
    (33): Linear(in_features=1000, out_features=20, bias=True)
    (34): Linear(in_features=1000, out_features=20, bias=True)
    (35): Linear(in_features=1000, out_features=20, bias=True)
    (36): Linear(in_features=1000, out_features=20, bias=True)
    (37): Linear(in_features=1000, out_features=20, bias=True)
    (38): Linear(in_features=1000, out_features=20, bias=True)
    (39): Linear(in_features=1000, out_features=20, bias=True)
    (40): Linear(in_features=1000, out_features=20, bias=True)
  )
)
======

************************************************************************************************************
Task 41
************************************************************************************************************
| Epoch   1, time=  5.4s | Train: skip eval | Valid: time=  0.2s loss=7.806, TAw acc= 30.9% | *
| Epoch   2, time=  5.8s | Train: skip eval | Valid: time=  0.2s loss=4.004, TAw acc= 70.6% | *
…
>>> Test on task 36 : loss=1.715 | TAw acc= 87.6%, forg=  1.9%| TAg acc= 50.5%, forg= 15.2% <<<
>>> Test on task 37 : loss=1.196 | TAw acc= 98.4%, forg=  0.0%| TAg acc= 65.6%, forg= 16.0% <<<
>>> Test on task 38 : loss=1.058 | TAw acc= 97.6%, forg=  1.6%| TAg acc= 67.7%, forg= 17.3% <<<
>>> Test on task 39 : loss=1.256 | TAw acc= 99.0%, forg=  0.0%| TAg acc= 66.7%, forg=  3.0% <<<
>>> Test on task 40 : loss=1.479 | TAw acc= 98.1%, forg=  0.0%| TAg acc= 56.6%, forg= 17.9% <<<
>>> Test on task 41 : loss=1.386 | TAw acc= 93.7%, forg=  0.0%| TAg acc= 69.5%, forg=  0.0% <<<
Save at k=100/eeil_e20_wisdm_1/wisdm_flex_eeil
======
LLL_Net(
  (model): SimpleMLP(
    (fc1): Linear(in_features=91, out_features=1000, bias=True)
    (fc2): Sequential()
  )
  (heads): ModuleList(
    (0): Linear(in_features=1000, out_features=34, bias=True)
    (1): Linear(in_features=1000, out_features=20, bias=True)
    (2): Linear(in_features=1000, out_features=20, bias=True)
    (3): Linear(in_features=1000, out_features=20, bias=True)
    (4): Linear(in_features=1000, out_features=20, bias=True)
    (5): Linear(in_features=1000, out_features=20, bias=True)
    (6): Linear(in_features=1000, out_features=20, bias=True)
    (7): Linear(in_features=1000, out_features=20, bias=True)
    (8): Linear(in_features=1000, out_features=20, bias=True)
    (9): Linear(in_features=1000, out_features=20, bias=True)
    (10): Linear(in_features=1000, out_features=20, bias=True)
    (11): Linear(in_features=1000, out_features=20, bias=True)
    (12): Linear(in_features=1000, out_features=20, bias=True)
    (13): Linear(in_features=1000, out_features=20, bias=True)
    (14): Linear(in_features=1000, out_features=20, bias=True)
    (15): Linear(in_features=1000, out_features=20, bias=True)
    (16): Linear(in_features=1000, out_features=20, bias=True)
    (17): Linear(in_features=1000, out_features=20, bias=True)
    (18): Linear(in_features=1000, out_features=20, bias=True)
    (19): Linear(in_features=1000, out_features=20, bias=True)
    (20): Linear(in_features=1000, out_features=20, bias=True)
    (21): Linear(in_features=1000, out_features=20, bias=True)
    (22): Linear(in_features=1000, out_features=20, bias=True)
    (23): Linear(in_features=1000, out_features=20, bias=True)
    (24): Linear(in_features=1000, out_features=20, bias=True)
    (25): Linear(in_features=1000, out_features=20, bias=True)
    (26): Linear(in_features=1000, out_features=20, bias=True)
    (27): Linear(in_features=1000, out_features=20, bias=True)
    (28): Linear(in_features=1000, out_features=20, bias=True)
    (29): Linear(in_features=1000, out_features=20, bias=True)
    (30): Linear(in_features=1000, out_features=20, bias=True)
    (31): Linear(in_features=1000, out_features=20, bias=True)
    (32): Linear(in_features=1000, out_features=20, bias=True)
    (33): Linear(in_features=1000, out_features=20, bias=True)
    (34): Linear(in_features=1000, out_features=20, bias=True)
    (35): Linear(in_features=1000, out_features=20, bias=True)
    (36): Linear(in_features=1000, out_features=20, bias=True)
    (37): Linear(in_features=1000, out_features=20, bias=True)
    (38): Linear(in_features=1000, out_features=20, bias=True)
    (39): Linear(in_features=1000, out_features=20, bias=True)
    (40): Linear(in_features=1000, out_features=20, bias=True)
    (41): Linear(in_features=1000, out_features=20, bias=True)
  )
)
======

************************************************************************************************************
Task 42
************************************************************************************************************
| Epoch   1, time=  6.0s | Train: skip eval | Valid: time=  0.2s loss=5.771, TAw acc= 63.4% | *
| Epoch   2, time=  6.1s | Train: skip eval | Valid: time=  0.2s loss=2.754, TAw acc= 84.1% | *
…
>>> Test on task 37 : loss=1.194 | TAw acc= 98.4%, forg=  0.0%| TAg acc= 72.0%, forg=  9.6% <<<
>>> Test on task 38 : loss=1.231 | TAw acc= 96.9%, forg=  2.4%| TAg acc= 60.6%, forg= 24.4% <<<
>>> Test on task 39 : loss=1.241 | TAw acc= 98.0%, forg=  1.0%| TAg acc= 67.7%, forg=  2.0% <<<
>>> Test on task 40 : loss=1.419 | TAw acc= 98.1%, forg=  0.0%| TAg acc= 60.4%, forg= 14.2% <<<
>>> Test on task 41 : loss=1.827 | TAw acc= 93.7%, forg=  0.0%| TAg acc= 40.0%, forg= 29.5% <<<
>>> Test on task 42 : loss=1.230 | TAw acc= 97.3%, forg=  0.0%| TAg acc= 71.4%, forg=  0.0% <<<
Save at k=100/eeil_e20_wisdm_1/wisdm_flex_eeil
======
LLL_Net(
  (model): SimpleMLP(
    (fc1): Linear(in_features=91, out_features=1000, bias=True)
    (fc2): Sequential()
  )
  (heads): ModuleList(
    (0): Linear(in_features=1000, out_features=34, bias=True)
    (1): Linear(in_features=1000, out_features=20, bias=True)
    (2): Linear(in_features=1000, out_features=20, bias=True)
    (3): Linear(in_features=1000, out_features=20, bias=True)
    (4): Linear(in_features=1000, out_features=20, bias=True)
    (5): Linear(in_features=1000, out_features=20, bias=True)
    (6): Linear(in_features=1000, out_features=20, bias=True)
    (7): Linear(in_features=1000, out_features=20, bias=True)
    (8): Linear(in_features=1000, out_features=20, bias=True)
    (9): Linear(in_features=1000, out_features=20, bias=True)
    (10): Linear(in_features=1000, out_features=20, bias=True)
    (11): Linear(in_features=1000, out_features=20, bias=True)
    (12): Linear(in_features=1000, out_features=20, bias=True)
    (13): Linear(in_features=1000, out_features=20, bias=True)
    (14): Linear(in_features=1000, out_features=20, bias=True)
    (15): Linear(in_features=1000, out_features=20, bias=True)
    (16): Linear(in_features=1000, out_features=20, bias=True)
    (17): Linear(in_features=1000, out_features=20, bias=True)
    (18): Linear(in_features=1000, out_features=20, bias=True)
    (19): Linear(in_features=1000, out_features=20, bias=True)
    (20): Linear(in_features=1000, out_features=20, bias=True)
    (21): Linear(in_features=1000, out_features=20, bias=True)
    (22): Linear(in_features=1000, out_features=20, bias=True)
    (23): Linear(in_features=1000, out_features=20, bias=True)
    (24): Linear(in_features=1000, out_features=20, bias=True)
    (25): Linear(in_features=1000, out_features=20, bias=True)
    (26): Linear(in_features=1000, out_features=20, bias=True)
    (27): Linear(in_features=1000, out_features=20, bias=True)
    (28): Linear(in_features=1000, out_features=20, bias=True)
    (29): Linear(in_features=1000, out_features=20, bias=True)
    (30): Linear(in_features=1000, out_features=20, bias=True)
    (31): Linear(in_features=1000, out_features=20, bias=True)
    (32): Linear(in_features=1000, out_features=20, bias=True)
    (33): Linear(in_features=1000, out_features=20, bias=True)
    (34): Linear(in_features=1000, out_features=20, bias=True)
    (35): Linear(in_features=1000, out_features=20, bias=True)
    (36): Linear(in_features=1000, out_features=20, bias=True)
    (37): Linear(in_features=1000, out_features=20, bias=True)
    (38): Linear(in_features=1000, out_features=20, bias=True)
    (39): Linear(in_features=1000, out_features=20, bias=True)
    (40): Linear(in_features=1000, out_features=20, bias=True)
    (41): Linear(in_features=1000, out_features=20, bias=True)
    (42): Linear(in_features=1000, out_features=20, bias=True)
  )
)
======

************************************************************************************************************
Task 43
************************************************************************************************************
| Epoch   1, time=  6.7s | Train: skip eval | Valid: time=  0.1s loss=6.811, TAw acc= 60.0% | *
| Epoch   2, time=  6.3s | Train: skip eval | Valid: time=  0.2s loss=2.970, TAw acc= 72.9% | *
…
