…
| Selected 789 train exemplars, time=  0.0s
789
------------------------------------------------------------------------------------------------------------
>>> Test on task  0 : loss=1.272 | TAw acc= 92.5%, forg=  0.0%| TAg acc= 78.6%, forg= 11.6% <<<
>>> Test on task  1 : loss=1.491 | TAw acc= 95.7%, forg=  0.0%| TAg acc= 72.0%, forg= -5.4% <<<
>>> Test on task  2 : loss=1.641 | TAw acc= 97.0%, forg=-12.1%| TAg acc= 75.8%, forg=-11.1% <<<
>>> Test on task  3 : loss=1.565 | TAw acc= 89.5%, forg=  0.0%| TAg acc= 74.3%, forg=  0.0% <<<
Save at eeil_e5_wisdm_1/wisdm_flex_eeil
======
LLL_Net(
  (model): SimpleMLP(
    (fc1): Linear(in_features=91, out_features=1000, bias=True)
    (fc2): Sequential()
  )
  (heads): ModuleList(
    (0): Linear(in_features=1000, out_features=34, bias=True)
    (1): Linear(in_features=1000, out_features=20, bias=True)
    (2): Linear(in_features=1000, out_features=20, bias=True)
    (3): Linear(in_features=1000, out_features=20, bias=True)
  )
)
======

************************************************************************************************************
Task  4
************************************************************************************************************
| Epoch   1, time=  0.4s | Train: skip eval | Valid: time=  0.2s loss=3.683, TAw acc= 33.7% | *
| Epoch   2, time=  0.4s | Train: skip eval | Valid: time=  0.2s loss=2.762, TAw acc= 54.2% | *
…
------------------------------------------------------------------------------------------------------------
>>> Test on task  0 : loss=1.185 | TAw acc= 92.5%, forg=  0.0%| TAg acc= 82.1%, forg=  8.1% <<<
>>> Test on task  1 : loss=1.252 | TAw acc= 95.7%, forg=  0.0%| TAg acc= 84.9%, forg=-12.9% <<<
>>> Test on task  2 : loss=1.390 | TAw acc= 97.0%, forg=  0.0%| TAg acc= 76.8%, forg= -1.0% <<<
>>> Test on task  3 : loss=1.551 | TAw acc= 98.1%, forg= -8.6%| TAg acc= 75.2%, forg= -1.0% <<<
>>> Test on task  4 : loss=1.464 | TAw acc= 91.1%, forg=  0.0%| TAg acc= 78.6%, forg=  0.0% <<<
Save at eeil_e5_wisdm_1/wisdm_flex_eeil
======
LLL_Net(
  (model): SimpleMLP(
    (fc1): Linear(in_features=91, out_features=1000, bias=True)
    (fc2): Sequential()
  )
  (heads): ModuleList(
    (0): Linear(in_features=1000, out_features=34, bias=True)
    (1): Linear(in_features=1000, out_features=20, bias=True)
    (2): Linear(in_features=1000, out_features=20, bias=True)
    (3): Linear(in_features=1000, out_features=20, bias=True)
    (4): Linear(in_features=1000, out_features=20, bias=True)
  )
)
======

************************************************************************************************************
Task  5
************************************************************************************************************
| Epoch   1, time=  0.5s | Train: skip eval | Valid: time=  0.2s loss=3.973, TAw acc= 28.7% | *
| Epoch   2, time=  0.4s | Train: skip eval | Valid: time=  0.2s loss=2.841, TAw acc= 52.5% | *
…
>>> Test on task  0 : loss=1.190 | TAw acc= 94.2%, forg= -1.7%| TAg acc= 82.7%, forg=  7.5% <<<
>>> Test on task  1 : loss=1.131 | TAw acc= 97.8%, forg= -2.2%| TAg acc= 80.6%, forg=  4.3% <<<
>>> Test on task  2 : loss=1.210 | TAw acc= 99.0%, forg= -2.0%| TAg acc= 75.8%, forg=  1.0% <<<
>>> Test on task  3 : loss=1.335 | TAw acc= 98.1%, forg=  0.0%| TAg acc= 82.9%, forg= -7.6% <<<
>>> Test on task  4 : loss=1.539 | TAw acc= 94.6%, forg= -3.6%| TAg acc= 67.9%, forg= 10.7% <<<
>>> Test on task  5 : loss=1.540 | TAw acc= 79.8%, forg=  0.0%| TAg acc= 67.0%, forg=  0.0% <<<
Save at eeil_e5_wisdm_1/wisdm_flex_eeil
======
LLL_Net(
  (model): SimpleMLP(
    (fc1): Linear(in_features=91, out_features=1000, bias=True)
    (fc2): Sequential()
  )
  (heads): ModuleList(
    (0): Linear(in_features=1000, out_features=34, bias=True)
    (1): Linear(in_features=1000, out_features=20, bias=True)
    (2): Linear(in_features=1000, out_features=20, bias=True)
    (3): Linear(in_features=1000, out_features=20, bias=True)
    (4): Linear(in_features=1000, out_features=20, bias=True)
    (5): Linear(in_features=1000, out_features=20, bias=True)
  )
)
======

************************************************************************************************************
Task  6
************************************************************************************************************
| Epoch   1, time=  0.5s | Train: skip eval | Valid: time=  0.2s loss=3.823, TAw acc= 34.0% | *
| Epoch   2, time=  0.6s | Train: skip eval | Valid: time=  0.2s loss=2.634, TAw acc= 60.6% | *
…
>>> Test on task  1 : loss=1.056 | TAw acc= 97.8%, forg=  0.0%| TAg acc= 87.1%, forg= -2.2% <<<
>>> Test on task  2 : loss=1.184 | TAw acc= 99.0%, forg=  0.0%| TAg acc= 77.8%, forg= -1.0% <<<
>>> Test on task  3 : loss=1.265 | TAw acc= 98.1%, forg=  0.0%| TAg acc= 77.1%, forg=  5.7% <<<
>>> Test on task  4 : loss=1.310 | TAw acc= 98.2%, forg= -3.6%| TAg acc= 75.9%, forg=  2.7% <<<
>>> Test on task  5 : loss=1.794 | TAw acc= 91.7%, forg=-11.9%| TAg acc= 60.6%, forg=  6.4% <<<
>>> Test on task  6 : loss=1.419 | TAw acc= 88.0%, forg=  0.0%| TAg acc= 71.2%, forg=  0.0% <<<
Save at eeil_e5_wisdm_1/wisdm_flex_eeil
======
LLL_Net(
  (model): SimpleMLP(
    (fc1): Linear(in_features=91, out_features=1000, bias=True)
    (fc2): Sequential()
  )
  (heads): ModuleList(
    (0): Linear(in_features=1000, out_features=34, bias=True)
    (1): Linear(in_features=1000, out_features=20, bias=True)
    (2): Linear(in_features=1000, out_features=20, bias=True)
    (3): Linear(in_features=1000, out_features=20, bias=True)
    (4): Linear(in_features=1000, out_features=20, bias=True)
    (5): Linear(in_features=1000, out_features=20, bias=True)
    (6): Linear(in_features=1000, out_features=20, bias=True)
  )
)
======

************************************************************************************************************
Task  7
************************************************************************************************************
| Epoch   1, time=  0.6s | Train: skip eval | Valid: time=  0.2s loss=4.707, TAw acc= 55.7% | *
| Epoch   2, time=  0.6s | Train: skip eval | Valid: time=  0.2s loss=3.327, TAw acc= 53.2% | *
…
>>> Test on task  2 : loss=0.994 | TAw acc= 99.0%, forg=  0.0%| TAg acc= 84.8%, forg= -7.1% <<<
>>> Test on task  3 : loss=1.084 | TAw acc= 98.1%, forg=  0.0%| TAg acc= 84.8%, forg= -1.9% <<<
>>> Test on task  4 : loss=1.148 | TAw acc= 98.2%, forg=  0.0%| TAg acc= 84.8%, forg= -6.2% <<<
>>> Test on task  5 : loss=1.575 | TAw acc= 92.7%, forg= -0.9%| TAg acc= 67.9%, forg= -0.9% <<<
>>> Test on task  6 : loss=1.659 | TAw acc= 89.6%, forg= -1.6%| TAg acc= 64.8%, forg=  6.4% <<<
>>> Test on task  7 : loss=1.784 | TAw acc= 85.0%, forg=  0.0%| TAg acc= 59.8%, forg=  0.0% <<<
Save at eeil_e5_wisdm_1/wisdm_flex_eeil
======
LLL_Net(
  (model): SimpleMLP(
    (fc1): Linear(in_features=91, out_features=1000, bias=True)
    (fc2): Sequential()
  )
  (heads): ModuleList(
    (0): Linear(in_features=1000, out_features=34, bias=True)
    (1): Linear(in_features=1000, out_features=20, bias=True)
    (2): Linear(in_features=1000, out_features=20, bias=True)
    (3): Linear(in_features=1000, out_features=20, bias=True)
    (4): Linear(in_features=1000, out_features=20, bias=True)
    (5): Linear(in_features=1000, out_features=20, bias=True)
    (6): Linear(in_features=1000, out_features=20, bias=True)
    (7): Linear(in_features=1000, out_features=20, bias=True)
  )
)
======

************************************************************************************************************
Task  8
************************************************************************************************************
| Epoch   1, time=  0.7s | Train: skip eval | Valid: time=  0.2s loss=4.828, TAw acc= 28.2% | *
| Epoch   2, time=  0.6s | Train: skip eval | Valid: time=  0.2s loss=3.458, TAw acc= 46.2% | *
…
>>> Test on task  3 : loss=1.006 | TAw acc= 98.1%, forg=  0.0%| TAg acc= 85.7%, forg= -1.0% <<<
>>> Test on task  4 : loss=1.073 | TAw acc= 98.2%, forg=  0.0%| TAg acc= 83.9%, forg=  0.9% <<<
>>> Test on task  5 : loss=1.477 | TAw acc= 90.8%, forg=  1.8%| TAg acc= 69.7%, forg= -1.8% <<<
>>> Test on task  6 : loss=1.529 | TAw acc= 94.4%, forg= -4.8%| TAg acc= 69.6%, forg=  1.6% <<<
>>> Test on task  7 : loss=1.959 | TAw acc= 91.6%, forg= -6.5%| TAg acc= 44.9%, forg= 15.0% <<<
>>> Test on task  8 : loss=1.633 | TAw acc= 84.0%, forg=  0.0%| TAg acc= 51.9%, forg=  0.0% <<<
Save at eeil_e5_wisdm_1/wisdm_flex_eeil
======
LLL_Net(
  (model): SimpleMLP(
    (fc1): Linear(in_features=91, out_features=1000, bias=True)
    (fc2): Sequential()
  )
  (heads): ModuleList(
    (0): Linear(in_features=1000, out_features=34, bias=True)
    (1): Linear(in_features=1000, out_features=20, bias=True)
    (2): Linear(in_features=1000, out_features=20, bias=True)
    (3): Linear(in_features=1000, out_features=20, bias=True)
    (4): Linear(in_features=1000, out_features=20, bias=True)
    (5): Linear(in_features=1000, out_features=20, bias=True)
    (6): Linear(in_features=1000, out_features=20, bias=True)
    (7): Linear(in_features=1000, out_features=20, bias=True)
    (8): Linear(in_features=1000, out_features=20, bias=True)
  )
)
======

************************************************************************************************************
Task  9
************************************************************************************************************
| Epoch   1, time=  0.7s | Train: skip eval | Valid: time=  0.2s loss=5.177, TAw acc= 29.1% | *
| Epoch   2, time=  0.7s | Train: skip eval | Valid: time=  0.2s loss=3.647, TAw acc= 43.0% | *
…
>>> Test on task  4 : loss=0.958 | TAw acc= 98.2%, forg=  0.0%| TAg acc= 85.7%, forg= -0.9% <<<
>>> Test on task  5 : loss=1.300 | TAw acc= 95.4%, forg= -2.8%| TAg acc= 74.3%, forg= -4.6% <<<
>>> Test on task  6 : loss=1.377 | TAw acc= 94.4%, forg=  0.0%| TAg acc= 77.6%, forg= -6.4% <<<
>>> Test on task  7 : loss=1.855 | TAw acc= 91.6%, forg=  0.0%| TAg acc= 46.7%, forg= 13.1% <<<
>>> Test on task  8 : loss=1.941 | TAw acc= 89.6%, forg= -5.7%| TAg acc= 37.7%, forg= 14.2% <<<
>>> Test on task  9 : loss=1.749 | TAw acc= 84.3%, forg=  0.0%| TAg acc= 56.5%, forg=  0.0% <<<
Save at eeil_e5_wisdm_1/wisdm_flex_eeil
======
LLL_Net(
  (model): SimpleMLP(
    (fc1): Linear(in_features=91, out_features=1000, bias=True)
    (fc2): Sequential()
  )
  (heads): ModuleList(
    (0): Linear(in_features=1000, out_features=34, bias=True)
    (1): Linear(in_features=1000, out_features=20, bias=True)
    (2): Linear(in_features=1000, out_features=20, bias=True)
    (3): Linear(in_features=1000, out_features=20, bias=True)
    (4): Linear(in_features=1000, out_features=20, bias=True)
    (5): Linear(in_features=1000, out_features=20, bias=True)
    (6): Linear(in_features=1000, out_features=20, bias=True)
    (7): Linear(in_features=1000, out_features=20, bias=True)
    (8): Linear(in_features=1000, out_features=20, bias=True)
    (9): Linear(in_features=1000, out_features=20, bias=True)
  )
)
======

************************************************************************************************************
Task 10
************************************************************************************************************
| Epoch   1, time=  0.8s | Train: skip eval | Valid: time=  0.4s loss=4.121, TAw acc= 42.5% | *
| Epoch   2, time=  1.3s | Train: skip eval | Valid: time=  0.4s loss=2.741, TAw acc= 66.7% | *
…
>>> Test on task  5 : loss=1.263 | TAw acc= 94.5%, forg=  0.9%| TAg acc= 78.0%, forg= -3.7% <<<
>>> Test on task  6 : loss=1.318 | TAw acc= 94.4%, forg=  0.0%| TAg acc= 80.0%, forg= -2.4% <<<
>>> Test on task  7 : loss=1.689 | TAw acc= 91.6%, forg=  0.0%| TAg acc= 53.3%, forg=  6.5% <<<
>>> Test on task  8 : loss=1.829 | TAw acc= 86.8%, forg=  2.8%| TAg acc= 35.8%, forg= 16.0% <<<
>>> Test on task  9 : loss=1.965 | TAw acc= 86.1%, forg= -1.9%| TAg acc= 39.8%, forg= 16.7% <<<
>>> Test on task 10 : loss=1.389 | TAw acc= 84.6%, forg=  0.0%| TAg acc= 59.8%, forg=  0.0% <<<
Save at eeil_e5_wisdm_1/wisdm_flex_eeil
======
LLL_Net(
  (model): SimpleMLP(
    (fc1): Linear(in_features=91, out_features=1000, bias=True)
    (fc2): Sequential()
  )
  (heads): ModuleList(
    (0): Linear(in_features=1000, out_features=34, bias=True)
    (1): Linear(in_features=1000, out_features=20, bias=True)
    (2): Linear(in_features=1000, out_features=20, bias=True)
    (3): Linear(in_features=1000, out_features=20, bias=True)
    (4): Linear(in_features=1000, out_features=20, bias=True)
    (5): Linear(in_features=1000, out_features=20, bias=True)
    (6): Linear(in_features=1000, out_features=20, bias=True)
    (7): Linear(in_features=1000, out_features=20, bias=True)
    (8): Linear(in_features=1000, out_features=20, bias=True)
    (9): Linear(in_features=1000, out_features=20, bias=True)
    (10): Linear(in_features=1000, out_features=20, bias=True)
  )
)
======

************************************************************************************************************
Task 11
************************************************************************************************************
| Epoch   1, time=  0.9s | Train: skip eval | Valid: time=  0.3s loss=4.385, TAw acc= 49.0% | *
| Epoch   2, time=  0.9s | Train: skip eval | Valid: time=  0.2s loss=2.635, TAw acc= 76.0% | *
…
>>> Test on task  6 : loss=1.239 | TAw acc= 95.2%, forg= -0.8%| TAg acc= 81.6%, forg= -1.6% <<<
>>> Test on task  7 : loss=1.632 | TAw acc= 91.6%, forg=  0.0%| TAg acc= 56.1%, forg=  3.7% <<<
>>> Test on task  8 : loss=1.771 | TAw acc= 87.7%, forg=  1.9%| TAg acc= 39.6%, forg= 12.3% <<<
>>> Test on task  9 : loss=1.728 | TAw acc= 86.1%, forg=  0.0%| TAg acc= 48.1%, forg=  8.3% <<<
>>> Test on task 10 : loss=1.664 | TAw acc= 97.4%, forg=-12.8%| TAg acc= 47.9%, forg= 12.0% <<<
>>> Test on task 11 : loss=1.261 | TAw acc= 94.7%, forg=  0.0%| TAg acc= 72.0%, forg=  0.0% <<<
Save at eeil_e5_wisdm_1/wisdm_flex_eeil
======
LLL_Net(
  (model): SimpleMLP(
    (fc1): Linear(in_features=91, out_features=1000, bias=True)
    (fc2): Sequential()
  )
  (heads): ModuleList(
    (0): Linear(in_features=1000, out_features=34, bias=True)
    (1): Linear(in_features=1000, out_features=20, bias=True)
    (2): Linear(in_features=1000, out_features=20, bias=True)
    (3): Linear(in_features=1000, out_features=20, bias=True)
    (4): Linear(in_features=1000, out_features=20, bias=True)
    (5): Linear(in_features=1000, out_features=20, bias=True)
    (6): Linear(in_features=1000, out_features=20, bias=True)
    (7): Linear(in_features=1000, out_features=20, bias=True)
    (8): Linear(in_features=1000, out_features=20, bias=True)
    (9): Linear(in_features=1000, out_features=20, bias=True)
    (10): Linear(in_features=1000, out_features=20, bias=True)
    (11): Linear(in_features=1000, out_features=20, bias=True)
  )
)
======

************************************************************************************************************
Task 12
************************************************************************************************************
| Epoch   1, time=  0.9s | Train: skip eval | Valid: time=  0.2s loss=5.423, TAw acc= 36.7% | *
| Epoch   2, time=  0.9s | Train: skip eval | Valid: time=  0.2s loss=3.651, TAw acc= 41.8% | *
…
>>> Test on task  7 : loss=1.590 | TAw acc= 91.6%, forg=  0.0%| TAg acc= 63.6%, forg= -3.7% <<<
>>> Test on task  8 : loss=1.674 | TAw acc= 90.6%, forg= -0.9%| TAg acc= 52.8%, forg= -0.9% <<<
>>> Test on task  9 : loss=1.672 | TAw acc= 87.0%, forg= -0.9%| TAg acc= 54.6%, forg=  1.9% <<<
>>> Test on task 10 : loss=1.476 | TAw acc= 95.7%, forg=  1.7%| TAg acc= 57.3%, forg=  2.6% <<<
>>> Test on task 11 : loss=1.686 | TAw acc= 98.5%, forg= -3.8%| TAg acc= 59.1%, forg= 12.9% <<<
>>> Test on task 12 : loss=1.689 | TAw acc= 86.0%, forg=  0.0%| TAg acc= 57.9%, forg=  0.0% <<<
Save at eeil_e5_wisdm_1/wisdm_flex_eeil
======
LLL_Net(
  (model): SimpleMLP(
    (fc1): Linear(in_features=91, out_features=1000, bias=True)
    (fc2): Sequential()
  )
  (heads): ModuleList(
    (0): Linear(in_features=1000, out_features=34, bias=True)
    (1): Linear(in_features=1000, out_features=20, bias=True)
    (2): Linear(in_features=1000, out_features=20, bias=True)
    (3): Linear(in_features=1000, out_features=20, bias=True)
    (4): Linear(in_features=1000, out_features=20, bias=True)
    (5): Linear(in_features=1000, out_features=20, bias=True)
    (6): Linear(in_features=1000, out_features=20, bias=True)
    (7): Linear(in_features=1000, out_features=20, bias=True)
    (8): Linear(in_features=1000, out_features=20, bias=True)
    (9): Linear(in_features=1000, out_features=20, bias=True)
    (10): Linear(in_features=1000, out_features=20, bias=True)
    (11): Linear(in_features=1000, out_features=20, bias=True)
    (12): Linear(in_features=1000, out_features=20, bias=True)
  )
)
======

************************************************************************************************************
Task 13
************************************************************************************************************
| Epoch   1, time=  1.1s | Train: skip eval | Valid: time=  0.2s loss=4.226, TAw acc= 54.8% | *
| Epoch   2, time=  1.1s | Train: skip eval | Valid: time=  0.2s loss=2.389, TAw acc= 68.3% | *
…
>>> Test on task  8 : loss=1.680 | TAw acc= 88.7%, forg=  1.9%| TAg acc= 44.3%, forg=  8.5% <<<
>>> Test on task  9 : loss=1.509 | TAw acc= 87.0%, forg=  0.0%| TAg acc= 61.1%, forg= -4.6% <<<
>>> Test on task 10 : loss=1.311 | TAw acc= 95.7%, forg=  1.7%| TAg acc= 73.5%, forg=-13.7% <<<
>>> Test on task 11 : loss=1.538 | TAw acc= 97.7%, forg=  0.8%| TAg acc= 56.1%, forg= 15.9% <<<
>>> Test on task 12 : loss=1.966 | TAw acc= 92.5%, forg= -6.5%| TAg acc= 37.4%, forg= 20.6% <<<
>>> Test on task 13 : loss=1.143 | TAw acc= 95.6%, forg=  0.0%| TAg acc= 74.3%, forg=  0.0% <<<
Save at eeil_e5_wisdm_1/wisdm_flex_eeil
======
LLL_Net(
  (model): SimpleMLP(
    (fc1): Linear(in_features=91, out_features=1000, bias=True)
    (fc2): Sequential()
  )
  (heads): ModuleList(
    (0): Linear(in_features=1000, out_features=34, bias=True)
    (1): Linear(in_features=1000, out_features=20, bias=True)
    (2): Linear(in_features=1000, out_features=20, bias=True)
    (3): Linear(in_features=1000, out_features=20, bias=True)
    (4): Linear(in_features=1000, out_features=20, bias=True)
    (5): Linear(in_features=1000, out_features=20, bias=True)
    (6): Linear(in_features=1000, out_features=20, bias=True)
    (7): Linear(in_features=1000, out_features=20, bias=True)
    (8): Linear(in_features=1000, out_features=20, bias=True)
    (9): Linear(in_features=1000, out_features=20, bias=True)
    (10): Linear(in_features=1000, out_features=20, bias=True)
    (11): Linear(in_features=1000, out_features=20, bias=True)
    (12): Linear(in_features=1000, out_features=20, bias=True)
    (13): Linear(in_features=1000, out_features=20, bias=True)
  )
)
======

************************************************************************************************************
Task 14
************************************************************************************************************
| Epoch   1, time=  1.2s | Train: skip eval | Valid: time=  0.2s loss=4.498, TAw acc= 50.0% | *
| Epoch   2, time=  1.2s | Train: skip eval | Valid: time=  0.2s loss=2.839, TAw acc= 63.0% | *
…
>>> Test on task  9 : loss=1.421 | TAw acc= 88.0%, forg= -0.9%| TAg acc= 63.9%, forg= -2.8% <<<
>>> Test on task 10 : loss=1.319 | TAw acc= 96.6%, forg=  0.9%| TAg acc= 65.0%, forg=  8.5% <<<
>>> Test on task 11 : loss=1.402 | TAw acc= 97.7%, forg=  0.8%| TAg acc= 64.4%, forg=  7.6% <<<
>>> Test on task 12 : loss=1.756 | TAw acc= 94.4%, forg= -1.9%| TAg acc= 45.8%, forg= 12.1% <<<
>>> Test on task 13 : loss=1.651 | TAw acc= 95.6%, forg=  0.0%| TAg acc= 50.7%, forg= 23.5% <<<
>>> Test on task 14 : loss=1.387 | TAw acc= 89.3%, forg=  0.0%| TAg acc= 63.1%, forg=  0.0% <<<
Save at eeil_e5_wisdm_1/wisdm_flex_eeil
======
LLL_Net(
  (model): SimpleMLP(
    (fc1): Linear(in_features=91, out_features=1000, bias=True)
    (fc2): Sequential()
  )
  (heads): ModuleList(
    (0): Linear(in_features=1000, out_features=34, bias=True)
    (1): Linear(in_features=1000, out_features=20, bias=True)
    (2): Linear(in_features=1000, out_features=20, bias=True)
    (3): Linear(in_features=1000, out_features=20, bias=True)
    (4): Linear(in_features=1000, out_features=20, bias=True)
    (5): Linear(in_features=1000, out_features=20, bias=True)
    (6): Linear(in_features=1000, out_features=20, bias=True)
    (7): Linear(in_features=1000, out_features=20, bias=True)
    (8): Linear(in_features=1000, out_features=20, bias=True)
    (9): Linear(in_features=1000, out_features=20, bias=True)
    (10): Linear(in_features=1000, out_features=20, bias=True)
    (11): Linear(in_features=1000, out_features=20, bias=True)
    (12): Linear(in_features=1000, out_features=20, bias=True)
    (13): Linear(in_features=1000, out_features=20, bias=True)
    (14): Linear(in_features=1000, out_features=20, bias=True)
  )
)
======

************************************************************************************************************
Task 15
************************************************************************************************************
| Epoch   1, time=  1.3s | Train: skip eval | Valid: time=  0.2s loss=4.975, TAw acc= 54.5% | *
| Epoch   2, time=  1.3s | Train: skip eval | Valid: time=  0.2s loss=2.684, TAw acc= 70.5% | *
…
>>> Test on task 10 : loss=1.220 | TAw acc= 99.1%, forg= -1.7%| TAg acc= 67.5%, forg=  6.0% <<<
>>> Test on task 11 : loss=1.266 | TAw acc= 97.7%, forg=  0.8%| TAg acc= 69.7%, forg=  2.3% <<<
>>> Test on task 12 : loss=1.633 | TAw acc= 92.5%, forg=  1.9%| TAg acc= 57.9%, forg=  0.0% <<<
>>> Test on task 13 : loss=1.528 | TAw acc= 95.6%, forg=  0.0%| TAg acc= 55.9%, forg= 18.4% <<<
>>> Test on task 14 : loss=1.701 | TAw acc= 95.1%, forg= -5.7%| TAg acc= 50.0%, forg= 13.1% <<<
>>> Test on task 15 : loss=1.322 | TAw acc= 89.8%, forg=  0.0%| TAg acc= 71.2%, forg=  0.0% <<<
Save at eeil_e5_wisdm_1/wisdm_flex_eeil
======
LLL_Net(
  (model): SimpleMLP(
    (fc1): Linear(in_features=91, out_features=1000, bias=True)
    (fc2): Sequential()
  )
  (heads): ModuleList(
    (0): Linear(in_features=1000, out_features=34, bias=True)
    (1): Linear(in_features=1000, out_features=20, bias=True)
    (2): Linear(in_features=1000, out_features=20, bias=True)
    (3): Linear(in_features=1000, out_features=20, bias=True)
    (4): Linear(in_features=1000, out_features=20, bias=True)
    (5): Linear(in_features=1000, out_features=20, bias=True)
    (6): Linear(in_features=1000, out_features=20, bias=True)
    (7): Linear(in_features=1000, out_features=20, bias=True)
    (8): Linear(in_features=1000, out_features=20, bias=True)
    (9): Linear(in_features=1000, out_features=20, bias=True)
    (10): Linear(in_features=1000, out_features=20, bias=True)
    (11): Linear(in_features=1000, out_features=20, bias=True)
    (12): Linear(in_features=1000, out_features=20, bias=True)
    (13): Linear(in_features=1000, out_features=20, bias=True)
    (14): Linear(in_features=1000, out_features=20, bias=True)
    (15): Linear(in_features=1000, out_features=20, bias=True)
  )
)
======

************************************************************************************************************
Task 16
************************************************************************************************************
| Epoch   1, time=  1.3s | Train: skip eval | Valid: time=  0.2s loss=5.767, TAw acc= 42.7% | *
| Epoch   2, time=  1.3s | Train: skip eval | Valid: time=  0.2s loss=3.587, TAw acc= 64.0% | *
…
>>> Test on task 11 : loss=1.262 | TAw acc= 98.5%, forg=  0.0%| TAg acc= 66.7%, forg=  5.3% <<<
>>> Test on task 12 : loss=1.584 | TAw acc= 92.5%, forg=  1.9%| TAg acc= 51.4%, forg=  6.5% <<<
>>> Test on task 13 : loss=1.361 | TAw acc= 96.3%, forg= -0.7%| TAg acc= 67.6%, forg=  6.6% <<<
>>> Test on task 14 : loss=1.558 | TAw acc= 95.9%, forg= -0.8%| TAg acc= 57.4%, forg=  5.7% <<<
>>> Test on task 15 : loss=1.605 | TAw acc= 94.9%, forg= -5.1%| TAg acc= 50.8%, forg= 20.3% <<<
>>> Test on task 16 : loss=1.732 | TAw acc= 90.2%, forg=  0.0%| TAg acc= 58.8%, forg=  0.0% <<<
Save at eeil_e5_wisdm_1/wisdm_flex_eeil
======
LLL_Net(
  (model): SimpleMLP(
    (fc1): Linear(in_features=91, out_features=1000, bias=True)
    (fc2): Sequential()
  )
  (heads): ModuleList(
    (0): Linear(in_features=1000, out_features=34, bias=True)
    (1): Linear(in_features=1000, out_features=20, bias=True)
    (2): Linear(in_features=1000, out_features=20, bias=True)
    (3): Linear(in_features=1000, out_features=20, bias=True)
    (4): Linear(in_features=1000, out_features=20, bias=True)
    (5): Linear(in_features=1000, out_features=20, bias=True)
    (6): Linear(in_features=1000, out_features=20, bias=True)
    (7): Linear(in_features=1000, out_features=20, bias=True)
    (8): Linear(in_features=1000, out_features=20, bias=True)
    (9): Linear(in_features=1000, out_features=20, bias=True)
    (10): Linear(in_features=1000, out_features=20, bias=True)
    (11): Linear(in_features=1000, out_features=20, bias=True)
    (12): Linear(in_features=1000, out_features=20, bias=True)
    (13): Linear(in_features=1000, out_features=20, bias=True)
    (14): Linear(in_features=1000, out_features=20, bias=True)
    (15): Linear(in_features=1000, out_features=20, bias=True)
    (16): Linear(in_features=1000, out_features=20, bias=True)
  )
)
======

************************************************************************************************************
Task 17
************************************************************************************************************
| Epoch   1, time=  1.5s | Train: skip eval | Valid: time=  0.2s loss=4.573, TAw acc= 61.4% | *
| Epoch   2, time=  1.5s | Train: skip eval | Valid: time=  0.2s loss=2.553, TAw acc= 69.9% | *
…
>>> Test on task 12 : loss=1.584 | TAw acc= 95.3%, forg= -0.9%| TAg acc= 53.3%, forg=  4.7% <<<
>>> Test on task 13 : loss=1.353 | TAw acc= 96.3%, forg=  0.0%| TAg acc= 60.3%, forg= 14.0% <<<
>>> Test on task 14 : loss=1.502 | TAw acc= 95.9%, forg=  0.0%| TAg acc= 57.4%, forg=  5.7% <<<
>>> Test on task 15 : loss=1.626 | TAw acc= 93.2%, forg=  1.7%| TAg acc= 40.7%, forg= 30.5% <<<
>>> Test on task 16 : loss=1.921 | TAw acc= 91.2%, forg= -1.0%| TAg acc= 45.1%, forg= 13.7% <<<
>>> Test on task 17 : loss=1.510 | TAw acc= 90.2%, forg=  0.0%| TAg acc= 57.1%, forg=  0.0% <<<
Save at eeil_e5_wisdm_1/wisdm_flex_eeil
======
LLL_Net(
  (model): SimpleMLP(
    (fc1): Linear(in_features=91, out_features=1000, bias=True)
    (fc2): Sequential()
  )
  (heads): ModuleList(
    (0): Linear(in_features=1000, out_features=34, bias=True)
    (1): Linear(in_features=1000, out_features=20, bias=True)
    (2): Linear(in_features=1000, out_features=20, bias=True)
    (3): Linear(in_features=1000, out_features=20, bias=True)
    (4): Linear(in_features=1000, out_features=20, bias=True)
    (5): Linear(in_features=1000, out_features=20, bias=True)
    (6): Linear(in_features=1000, out_features=20, bias=True)
    (7): Linear(in_features=1000, out_features=20, bias=True)
    (8): Linear(in_features=1000, out_features=20, bias=True)
    (9): Linear(in_features=1000, out_features=20, bias=True)
    (10): Linear(in_features=1000, out_features=20, bias=True)
    (11): Linear(in_features=1000, out_features=20, bias=True)
    (12): Linear(in_features=1000, out_features=20, bias=True)
    (13): Linear(in_features=1000, out_features=20, bias=True)
    (14): Linear(in_features=1000, out_features=20, bias=True)
    (15): Linear(in_features=1000, out_features=20, bias=True)
    (16): Linear(in_features=1000, out_features=20, bias=True)
    (17): Linear(in_features=1000, out_features=20, bias=True)
  )
)
======

************************************************************************************************************
Task 18
************************************************************************************************************
| Epoch   1, time=  1.6s | Train: skip eval | Valid: time=  0.2s loss=4.694, TAw acc= 46.7% | *
| Epoch   2, time=  1.6s | Train: skip eval | Valid: time=  0.2s loss=3.010, TAw acc= 64.4% | *
…
>>> Test on task 13 : loss=1.305 | TAw acc= 96.3%, forg=  0.0%| TAg acc= 69.1%, forg=  5.1% <<<
>>> Test on task 14 : loss=1.392 | TAw acc= 95.9%, forg=  0.0%| TAg acc= 63.9%, forg= -0.8% <<<
>>> Test on task 15 : loss=1.413 | TAw acc= 94.1%, forg=  0.8%| TAg acc= 61.9%, forg=  9.3% <<<
>>> Test on task 16 : loss=1.802 | TAw acc= 89.2%, forg=  2.0%| TAg acc= 50.0%, forg=  8.8% <<<
>>> Test on task 17 : loss=1.858 | TAw acc= 98.2%, forg= -8.0%| TAg acc= 44.6%, forg= 12.5% <<<
>>> Test on task 18 : loss=1.470 | TAw acc= 85.8%, forg=  0.0%| TAg acc= 74.2%, forg=  0.0% <<<
Save at eeil_e5_wisdm_1/wisdm_flex_eeil
======
LLL_Net(
  (model): SimpleMLP(
    (fc1): Linear(in_features=91, out_features=1000, bias=True)
    (fc2): Sequential()
  )
  (heads): ModuleList(
    (0): Linear(in_features=1000, out_features=34, bias=True)
    (1): Linear(in_features=1000, out_features=20, bias=True)
    (2): Linear(in_features=1000, out_features=20, bias=True)
    (3): Linear(in_features=1000, out_features=20, bias=True)
    (4): Linear(in_features=1000, out_features=20, bias=True)
    (5): Linear(in_features=1000, out_features=20, bias=True)
    (6): Linear(in_features=1000, out_features=20, bias=True)
    (7): Linear(in_features=1000, out_features=20, bias=True)
    (8): Linear(in_features=1000, out_features=20, bias=True)
    (9): Linear(in_features=1000, out_features=20, bias=True)
    (10): Linear(in_features=1000, out_features=20, bias=True)
    (11): Linear(in_features=1000, out_features=20, bias=True)
    (12): Linear(in_features=1000, out_features=20, bias=True)
    (13): Linear(in_features=1000, out_features=20, bias=True)
    (14): Linear(in_features=1000, out_features=20, bias=True)
    (15): Linear(in_features=1000, out_features=20, bias=True)
    (16): Linear(in_features=1000, out_features=20, bias=True)
    (17): Linear(in_features=1000, out_features=20, bias=True)
    (18): Linear(in_features=1000, out_features=20, bias=True)
  )
)
======

************************************************************************************************************
Task 19
************************************************************************************************************
| Epoch   1, time=  1.7s | Train: skip eval | Valid: time=  0.2s loss=5.777, TAw acc= 50.0% | *
| Epoch   2, time=  1.6s | Train: skip eval | Valid: time=  0.2s loss=3.387, TAw acc= 63.1% | *
…
>>> Test on task 14 : loss=1.323 | TAw acc= 96.7%, forg= -0.8%| TAg acc= 68.9%, forg= -4.9% <<<
>>> Test on task 15 : loss=1.398 | TAw acc= 94.1%, forg=  0.8%| TAg acc= 56.8%, forg= 14.4% <<<
>>> Test on task 16 : loss=1.713 | TAw acc= 91.2%, forg=  0.0%| TAg acc= 54.9%, forg=  3.9% <<<
>>> Test on task 17 : loss=1.594 | TAw acc= 98.2%, forg=  0.0%| TAg acc= 59.8%, forg= -2.7% <<<
>>> Test on task 18 : loss=1.739 | TAw acc= 92.5%, forg= -6.7%| TAg acc= 61.7%, forg= 12.5% <<<
>>> Test on task 19 : loss=1.507 | TAw acc= 92.9%, forg=  0.0%| TAg acc= 57.5%, forg=  0.0% <<<
Save at eeil_e5_wisdm_1/wisdm_flex_eeil
======
LLL_Net(
  (model): SimpleMLP(
    (fc1): Linear(in_features=91, out_features=1000, bias=True)
    (fc2): Sequential()
  )
  (heads): ModuleList(
    (0): Linear(in_features=1000, out_features=34, bias=True)
    (1): Linear(in_features=1000, out_features=20, bias=True)
    (2): Linear(in_features=1000, out_features=20, bias=True)
    (3): Linear(in_features=1000, out_features=20, bias=True)
    (4): Linear(in_features=1000, out_features=20, bias=True)
    (5): Linear(in_features=1000, out_features=20, bias=True)
    (6): Linear(in_features=1000, out_features=20, bias=True)
    (7): Linear(in_features=1000, out_features=20, bias=True)
    (8): Linear(in_features=1000, out_features=20, bias=True)
    (9): Linear(in_features=1000, out_features=20, bias=True)
    (10): Linear(in_features=1000, out_features=20, bias=True)
    (11): Linear(in_features=1000, out_features=20, bias=True)
    (12): Linear(in_features=1000, out_features=20, bias=True)
    (13): Linear(in_features=1000, out_features=20, bias=True)
    (14): Linear(in_features=1000, out_features=20, bias=True)
    (15): Linear(in_features=1000, out_features=20, bias=True)
    (16): Linear(in_features=1000, out_features=20, bias=True)
    (17): Linear(in_features=1000, out_features=20, bias=True)
    (18): Linear(in_features=1000, out_features=20, bias=True)
    (19): Linear(in_features=1000, out_features=20, bias=True)
  )
)
======

************************************************************************************************************
Task 20
************************************************************************************************************
| Epoch   1, time=  1.9s | Train: skip eval | Valid: time=  0.2s loss=6.173, TAw acc= 18.2% | *
| Epoch   2, time=  1.9s | Train: skip eval | Valid: time=  0.2s loss=3.387, TAw acc= 66.2% | *
…
>>> Test on task 15 : loss=1.312 | TAw acc= 93.2%, forg=  1.7%| TAg acc= 64.4%, forg=  6.8% <<<
>>> Test on task 16 : loss=1.597 | TAw acc= 91.2%, forg=  0.0%| TAg acc= 55.9%, forg=  2.9% <<<
>>> Test on task 17 : loss=1.462 | TAw acc= 99.1%, forg= -0.9%| TAg acc= 65.2%, forg= -5.4% <<<
>>> Test on task 18 : loss=1.597 | TAw acc= 92.5%, forg=  0.0%| TAg acc= 71.7%, forg=  2.5% <<<
>>> Test on task 19 : loss=1.849 | TAw acc= 94.7%, forg= -1.8%| TAg acc= 41.6%, forg= 15.9% <<<
>>> Test on task 20 : loss=1.221 | TAw acc= 96.2%, forg=  0.0%| TAg acc= 59.6%, forg=  0.0% <<<
Save at eeil_e5_wisdm_1/wisdm_flex_eeil
======
LLL_Net(
  (model): SimpleMLP(
    (fc1): Linear(in_features=91, out_features=1000, bias=True)
    (fc2): Sequential()
  )
  (heads): ModuleList(
    (0): Linear(in_features=1000, out_features=34, bias=True)
    (1): Linear(in_features=1000, out_features=20, bias=True)
    (2): Linear(in_features=1000, out_features=20, bias=True)
    (3): Linear(in_features=1000, out_features=20, bias=True)
    (4): Linear(in_features=1000, out_features=20, bias=True)
    (5): Linear(in_features=1000, out_features=20, bias=True)
    (6): Linear(in_features=1000, out_features=20, bias=True)
    (7): Linear(in_features=1000, out_features=20, bias=True)
    (8): Linear(in_features=1000, out_features=20, bias=True)
    (9): Linear(in_features=1000, out_features=20, bias=True)
    (10): Linear(in_features=1000, out_features=20, bias=True)
    (11): Linear(in_features=1000, out_features=20, bias=True)
    (12): Linear(in_features=1000, out_features=20, bias=True)
    (13): Linear(in_features=1000, out_features=20, bias=True)
    (14): Linear(in_features=1000, out_features=20, bias=True)
    (15): Linear(in_features=1000, out_features=20, bias=True)
    (16): Linear(in_features=1000, out_features=20, bias=True)
    (17): Linear(in_features=1000, out_features=20, bias=True)
    (18): Linear(in_features=1000, out_features=20, bias=True)
    (19): Linear(in_features=1000, out_features=20, bias=True)
    (20): Linear(in_features=1000, out_features=20, bias=True)
  )
)
======

************************************************************************************************************
Task 21
************************************************************************************************************
| Epoch   1, time=  1.9s | Train: skip eval | Valid: time=  0.2s loss=6.428, TAw acc= 49.2% | *
| Epoch   2, time=  1.9s | Train: skip eval | Valid: time=  0.2s loss=3.657, TAw acc= 72.3% | *
…
>>> Test on task 16 : loss=1.595 | TAw acc= 90.2%, forg=  1.0%| TAg acc= 55.9%, forg=  2.9% <<<
>>> Test on task 17 : loss=1.360 | TAw acc= 99.1%, forg=  0.0%| TAg acc= 67.9%, forg= -2.7% <<<
>>> Test on task 18 : loss=1.454 | TAw acc= 92.5%, forg=  0.0%| TAg acc= 76.7%, forg= -2.5% <<<
>>> Test on task 19 : loss=1.693 | TAw acc= 96.5%, forg= -1.8%| TAg acc= 51.3%, forg=  6.2% <<<
>>> Test on task 20 : loss=1.401 | TAw acc= 99.0%, forg= -2.9%| TAg acc= 59.6%, forg=  0.0% <<<
>>> Test on task 21 : loss=1.440 | TAw acc= 84.8%, forg=  0.0%| TAg acc= 64.1%, forg=  0.0% <<<
Save at eeil_e5_wisdm_1/wisdm_flex_eeil
======
LLL_Net(
  (model): SimpleMLP(
    (fc1): Linear(in_features=91, out_features=1000, bias=True)
    (fc2): Sequential()
  )
  (heads): ModuleList(
    (0): Linear(in_features=1000, out_features=34, bias=True)
    (1): Linear(in_features=1000, out_features=20, bias=True)
    (2): Linear(in_features=1000, out_features=20, bias=True)
    (3): Linear(in_features=1000, out_features=20, bias=True)
    (4): Linear(in_features=1000, out_features=20, bias=True)
    (5): Linear(in_features=1000, out_features=20, bias=True)
    (6): Linear(in_features=1000, out_features=20, bias=True)
    (7): Linear(in_features=1000, out_features=20, bias=True)
    (8): Linear(in_features=1000, out_features=20, bias=True)
    (9): Linear(in_features=1000, out_features=20, bias=True)
    (10): Linear(in_features=1000, out_features=20, bias=True)
    (11): Linear(in_features=1000, out_features=20, bias=True)
    (12): Linear(in_features=1000, out_features=20, bias=True)
    (13): Linear(in_features=1000, out_features=20, bias=True)
    (14): Linear(in_features=1000, out_features=20, bias=True)
    (15): Linear(in_features=1000, out_features=20, bias=True)
    (16): Linear(in_features=1000, out_features=20, bias=True)
    (17): Linear(in_features=1000, out_features=20, bias=True)
    (18): Linear(in_features=1000, out_features=20, bias=True)
    (19): Linear(in_features=1000, out_features=20, bias=True)
    (20): Linear(in_features=1000, out_features=20, bias=True)
    (21): Linear(in_features=1000, out_features=20, bias=True)
  )
)
======

************************************************************************************************************
Task 22
************************************************************************************************************
| Epoch   1, time=  2.1s | Train: skip eval | Valid: time=  0.3s loss=6.367, TAw acc= 59.2% | *
| Epoch   2, time=  2.1s | Train: skip eval | Valid: time=  0.2s loss=3.380, TAw acc= 78.9% | *
…
>>> Test on task 17 : loss=1.370 | TAw acc= 99.1%, forg=  0.0%| TAg acc= 65.2%, forg=  2.7% <<<
>>> Test on task 18 : loss=1.451 | TAw acc= 92.5%, forg=  0.0%| TAg acc= 75.0%, forg=  1.7% <<<
>>> Test on task 19 : loss=1.567 | TAw acc= 97.3%, forg= -0.9%| TAg acc= 60.2%, forg= -2.7% <<<
>>> Test on task 20 : loss=1.345 | TAw acc= 99.0%, forg=  0.0%| TAg acc= 59.6%, forg=  0.0% <<<
>>> Test on task 21 : loss=1.524 | TAw acc= 91.3%, forg= -6.5%| TAg acc= 50.0%, forg= 14.1% <<<
>>> Test on task 22 : loss=1.470 | TAw acc= 94.2%, forg=  0.0%| TAg acc= 57.7%, forg=  0.0% <<<
Save at eeil_e5_wisdm_1/wisdm_flex_eeil
======
LLL_Net(
  (model): SimpleMLP(
    (fc1): Linear(in_features=91, out_features=1000, bias=True)
    (fc2): Sequential()
  )
  (heads): ModuleList(
    (0): Linear(in_features=1000, out_features=34, bias=True)
    (1): Linear(in_features=1000, out_features=20, bias=True)
    (2): Linear(in_features=1000, out_features=20, bias=True)
    (3): Linear(in_features=1000, out_features=20, bias=True)
    (4): Linear(in_features=1000, out_features=20, bias=True)
    (5): Linear(in_features=1000, out_features=20, bias=True)
    (6): Linear(in_features=1000, out_features=20, bias=True)
    (7): Linear(in_features=1000, out_features=20, bias=True)
    (8): Linear(in_features=1000, out_features=20, bias=True)
    (9): Linear(in_features=1000, out_features=20, bias=True)
    (10): Linear(in_features=1000, out_features=20, bias=True)
    (11): Linear(in_features=1000, out_features=20, bias=True)
    (12): Linear(in_features=1000, out_features=20, bias=True)
    (13): Linear(in_features=1000, out_features=20, bias=True)
    (14): Linear(in_features=1000, out_features=20, bias=True)
    (15): Linear(in_features=1000, out_features=20, bias=True)
    (16): Linear(in_features=1000, out_features=20, bias=True)
    (17): Linear(in_features=1000, out_features=20, bias=True)
    (18): Linear(in_features=1000, out_features=20, bias=True)
    (19): Linear(in_features=1000, out_features=20, bias=True)
    (20): Linear(in_features=1000, out_features=20, bias=True)
    (21): Linear(in_features=1000, out_features=20, bias=True)
    (22): Linear(in_features=1000, out_features=20, bias=True)
  )
)
======

************************************************************************************************************
Task 23
************************************************************************************************************
| Epoch   1, time=  2.5s | Train: skip eval | Valid: time=  0.2s loss=4.967, TAw acc= 55.3% | *
| Epoch   2, time=  2.3s | Train: skip eval | Valid: time=  0.2s loss=3.037, TAw acc= 59.2% | *
…
>>> Test on task 18 : loss=1.402 | TAw acc= 92.5%, forg=  0.0%| TAg acc= 78.3%, forg= -1.7% <<<
>>> Test on task 19 : loss=1.534 | TAw acc= 97.3%, forg=  0.0%| TAg acc= 56.6%, forg=  3.5% <<<
>>> Test on task 20 : loss=1.243 | TAw acc= 99.0%, forg=  0.0%| TAg acc= 62.5%, forg= -2.9% <<<
>>> Test on task 21 : loss=1.503 | TAw acc= 88.0%, forg=  3.3%| TAg acc= 51.1%, forg= 13.0% <<<
>>> Test on task 22 : loss=1.737 | TAw acc= 99.0%, forg= -4.8%| TAg acc= 49.0%, forg=  8.7% <<<
>>> Test on task 23 : loss=1.465 | TAw acc= 88.5%, forg=  0.0%| TAg acc= 67.3%, forg=  0.0% <<<
Save at eeil_e5_wisdm_1/wisdm_flex_eeil
======
LLL_Net(
  (model): SimpleMLP(
    (fc1): Linear(in_features=91, out_features=1000, bias=True)
    (fc2): Sequential()
  )
  (heads): ModuleList(
    (0): Linear(in_features=1000, out_features=34, bias=True)
    (1): Linear(in_features=1000, out_features=20, bias=True)
    (2): Linear(in_features=1000, out_features=20, bias=True)
    (3): Linear(in_features=1000, out_features=20, bias=True)
    (4): Linear(in_features=1000, out_features=20, bias=True)
    (5): Linear(in_features=1000, out_features=20, bias=True)
    (6): Linear(in_features=1000, out_features=20, bias=True)
    (7): Linear(in_features=1000, out_features=20, bias=True)
    (8): Linear(in_features=1000, out_features=20, bias=True)
    (9): Linear(in_features=1000, out_features=20, bias=True)
    (10): Linear(in_features=1000, out_features=20, bias=True)
    (11): Linear(in_features=1000, out_features=20, bias=True)
    (12): Linear(in_features=1000, out_features=20, bias=True)
    (13): Linear(in_features=1000, out_features=20, bias=True)
    (14): Linear(in_features=1000, out_features=20, bias=True)
    (15): Linear(in_features=1000, out_features=20, bias=True)
    (16): Linear(in_features=1000, out_features=20, bias=True)
    (17): Linear(in_features=1000, out_features=20, bias=True)
    (18): Linear(in_features=1000, out_features=20, bias=True)
    (19): Linear(in_features=1000, out_features=20, bias=True)
    (20): Linear(in_features=1000, out_features=20, bias=True)
    (21): Linear(in_features=1000, out_features=20, bias=True)
    (22): Linear(in_features=1000, out_features=20, bias=True)
    (23): Linear(in_features=1000, out_features=20, bias=True)
  )
)
======

************************************************************************************************************
Task 24
************************************************************************************************************
| Epoch   1, time=  2.3s | Train: skip eval | Valid: time=  0.2s loss=5.142, TAw acc= 47.7% | *
| Epoch   2, time=  2.4s | Train: skip eval | Valid: time=  0.2s loss=3.008, TAw acc= 59.3% | *
…
>>> Test on task 19 : loss=1.477 | TAw acc= 97.3%, forg=  0.0%| TAg acc= 61.1%, forg= -0.9% <<<
>>> Test on task 20 : loss=1.254 | TAw acc= 98.1%, forg=  1.0%| TAg acc= 60.6%, forg=  1.9% <<<
>>> Test on task 21 : loss=1.320 | TAw acc= 87.0%, forg=  4.3%| TAg acc= 57.6%, forg=  6.5% <<<
>>> Test on task 22 : loss=1.730 | TAw acc= 99.0%, forg=  0.0%| TAg acc= 43.3%, forg= 14.4% <<<
>>> Test on task 23 : loss=1.647 | TAw acc= 93.3%, forg= -4.8%| TAg acc= 50.0%, forg= 17.3% <<<
>>> Test on task 24 : loss=1.215 | TAw acc= 95.7%, forg=  0.0%| TAg acc= 73.3%, forg=  0.0% <<<
Save at eeil_e5_wisdm_1/wisdm_flex_eeil
======
LLL_Net(
  (model): SimpleMLP(
    (fc1): Linear(in_features=91, out_features=1000, bias=True)
    (fc2): Sequential()
  )
  (heads): ModuleList(
    (0): Linear(in_features=1000, out_features=34, bias=True)
    (1): Linear(in_features=1000, out_features=20, bias=True)
    (2): Linear(in_features=1000, out_features=20, bias=True)
    (3): Linear(in_features=1000, out_features=20, bias=True)
    (4): Linear(in_features=1000, out_features=20, bias=True)
    (5): Linear(in_features=1000, out_features=20, bias=True)
    (6): Linear(in_features=1000, out_features=20, bias=True)
    (7): Linear(in_features=1000, out_features=20, bias=True)
    (8): Linear(in_features=1000, out_features=20, bias=True)
    (9): Linear(in_features=1000, out_features=20, bias=True)
    (10): Linear(in_features=1000, out_features=20, bias=True)
    (11): Linear(in_features=1000, out_features=20, bias=True)
    (12): Linear(in_features=1000, out_features=20, bias=True)
    (13): Linear(in_features=1000, out_features=20, bias=True)
    (14): Linear(in_features=1000, out_features=20, bias=True)
    (15): Linear(in_features=1000, out_features=20, bias=True)
    (16): Linear(in_features=1000, out_features=20, bias=True)
    (17): Linear(in_features=1000, out_features=20, bias=True)
    (18): Linear(in_features=1000, out_features=20, bias=True)
    (19): Linear(in_features=1000, out_features=20, bias=True)
    (20): Linear(in_features=1000, out_features=20, bias=True)
    (21): Linear(in_features=1000, out_features=20, bias=True)
    (22): Linear(in_features=1000, out_features=20, bias=True)
    (23): Linear(in_features=1000, out_features=20, bias=True)
    (24): Linear(in_features=1000, out_features=20, bias=True)
  )
)
======

************************************************************************************************************
Task 25
************************************************************************************************************
| Epoch   1, time=  2.6s | Train: skip eval | Valid: time=  0.2s loss=7.395, TAw acc= 42.4% | *
| Epoch   2, time=  2.5s | Train: skip eval | Valid: time=  0.2s loss=4.034, TAw acc= 60.6% | *
…
>>> Test on task 20 : loss=1.173 | TAw acc= 98.1%, forg=  1.0%| TAg acc= 72.1%, forg= -9.6% <<<
>>> Test on task 21 : loss=1.260 | TAw acc= 91.3%, forg=  0.0%| TAg acc= 65.2%, forg= -1.1% <<<
>>> Test on task 22 : loss=1.643 | TAw acc= 99.0%, forg=  0.0%| TAg acc= 51.0%, forg=  6.7% <<<
>>> Test on task 23 : loss=1.467 | TAw acc= 93.3%, forg=  0.0%| TAg acc= 62.5%, forg=  4.8% <<<
>>> Test on task 24 : loss=1.533 | TAw acc= 98.3%, forg= -2.6%| TAg acc= 56.9%, forg= 16.4% <<<
>>> Test on task 25 : loss=1.562 | TAw acc= 95.7%, forg=  0.0%| TAg acc= 56.5%, forg=  0.0% <<<
Save at eeil_e5_wisdm_1/wisdm_flex_eeil
======
LLL_Net(
  (model): SimpleMLP(
    (fc1): Linear(in_features=91, out_features=1000, bias=True)
    (fc2): Sequential()
  )
  (heads): ModuleList(
    (0): Linear(in_features=1000, out_features=34, bias=True)
    (1): Linear(in_features=1000, out_features=20, bias=True)
    (2): Linear(in_features=1000, out_features=20, bias=True)
    (3): Linear(in_features=1000, out_features=20, bias=True)
    (4): Linear(in_features=1000, out_features=20, bias=True)
    (5): Linear(in_features=1000, out_features=20, bias=True)
    (6): Linear(in_features=1000, out_features=20, bias=True)
    (7): Linear(in_features=1000, out_features=20, bias=True)
    (8): Linear(in_features=1000, out_features=20, bias=True)
    (9): Linear(in_features=1000, out_features=20, bias=True)
    (10): Linear(in_features=1000, out_features=20, bias=True)
    (11): Linear(in_features=1000, out_features=20, bias=True)
    (12): Linear(in_features=1000, out_features=20, bias=True)
    (13): Linear(in_features=1000, out_features=20, bias=True)
    (14): Linear(in_features=1000, out_features=20, bias=True)
    (15): Linear(in_features=1000, out_features=20, bias=True)
    (16): Linear(in_features=1000, out_features=20, bias=True)
    (17): Linear(in_features=1000, out_features=20, bias=True)
    (18): Linear(in_features=1000, out_features=20, bias=True)
    (19): Linear(in_features=1000, out_features=20, bias=True)
    (20): Linear(in_features=1000, out_features=20, bias=True)
    (21): Linear(in_features=1000, out_features=20, bias=True)
    (22): Linear(in_features=1000, out_features=20, bias=True)
    (23): Linear(in_features=1000, out_features=20, bias=True)
    (24): Linear(in_features=1000, out_features=20, bias=True)
    (25): Linear(in_features=1000, out_features=20, bias=True)
  )
)
======

************************************************************************************************************
Task 26
************************************************************************************************************
| Epoch   1, time=  2.7s | Train: skip eval | Valid: time=  0.3s loss=4.986, TAw acc= 53.9% | *
| Epoch   2, time=  2.7s | Train: skip eval | Valid: time=  0.2s loss=2.950, TAw acc= 75.0% | *
…
>>> Test on task 21 : loss=1.270 | TAw acc= 93.5%, forg= -2.2%| TAg acc= 64.1%, forg=  1.1% <<<
>>> Test on task 22 : loss=1.531 | TAw acc= 99.0%, forg=  0.0%| TAg acc= 58.7%, forg= -1.0% <<<
>>> Test on task 23 : loss=1.414 | TAw acc= 96.2%, forg= -2.9%| TAg acc= 70.2%, forg= -2.9% <<<
>>> Test on task 24 : loss=1.361 | TAw acc= 99.1%, forg= -0.9%| TAg acc= 63.8%, forg=  9.5% <<<
>>> Test on task 25 : loss=1.782 | TAw acc= 96.7%, forg= -1.1%| TAg acc= 34.8%, forg= 21.7% <<<
>>> Test on task 26 : loss=1.491 | TAw acc= 97.1%, forg=  0.0%| TAg acc= 65.7%, forg=  0.0% <<<
Save at eeil_e5_wisdm_1/wisdm_flex_eeil
======
LLL_Net(
  (model): SimpleMLP(
    (fc1): Linear(in_features=91, out_features=1000, bias=True)
    (fc2): Sequential()
  )
  (heads): ModuleList(
    (0): Linear(in_features=1000, out_features=34, bias=True)
    (1): Linear(in_features=1000, out_features=20, bias=True)
    (2): Linear(in_features=1000, out_features=20, bias=True)
    (3): Linear(in_features=1000, out_features=20, bias=True)
    (4): Linear(in_features=1000, out_features=20, bias=True)
    (5): Linear(in_features=1000, out_features=20, bias=True)
    (6): Linear(in_features=1000, out_features=20, bias=True)
    (7): Linear(in_features=1000, out_features=20, bias=True)
    (8): Linear(in_features=1000, out_features=20, bias=True)
    (9): Linear(in_features=1000, out_features=20, bias=True)
    (10): Linear(in_features=1000, out_features=20, bias=True)
    (11): Linear(in_features=1000, out_features=20, bias=True)
    (12): Linear(in_features=1000, out_features=20, bias=True)
    (13): Linear(in_features=1000, out_features=20, bias=True)
    (14): Linear(in_features=1000, out_features=20, bias=True)
    (15): Linear(in_features=1000, out_features=20, bias=True)
    (16): Linear(in_features=1000, out_features=20, bias=True)
    (17): Linear(in_features=1000, out_features=20, bias=True)
    (18): Linear(in_features=1000, out_features=20, bias=True)
    (19): Linear(in_features=1000, out_features=20, bias=True)
    (20): Linear(in_features=1000, out_features=20, bias=True)
    (21): Linear(in_features=1000, out_features=20, bias=True)
    (22): Linear(in_features=1000, out_features=20, bias=True)
    (23): Linear(in_features=1000, out_features=20, bias=True)
    (24): Linear(in_features=1000, out_features=20, bias=True)
    (25): Linear(in_features=1000, out_features=20, bias=True)
    (26): Linear(in_features=1000, out_features=20, bias=True)
  )
)
======

************************************************************************************************************
Task 27
************************************************************************************************************
| Epoch   1, time=  2.9s | Train: skip eval | Valid: time=  0.2s loss=4.486, TAw acc= 51.2% | *
| Epoch   2, time=  2.9s | Train: skip eval | Valid: time=  0.2s loss=2.411, TAw acc= 77.4% | *
…
>>> Test on task 22 : loss=1.524 | TAw acc= 97.1%, forg=  1.9%| TAg acc= 54.8%, forg=  3.8% <<<
>>> Test on task 23 : loss=1.345 | TAw acc= 97.1%, forg= -1.0%| TAg acc= 72.1%, forg= -1.9% <<<
>>> Test on task 24 : loss=1.326 | TAw acc= 99.1%, forg=  0.0%| TAg acc= 63.8%, forg=  9.5% <<<
>>> Test on task 25 : loss=1.651 | TAw acc= 96.7%, forg=  0.0%| TAg acc= 46.7%, forg=  9.8% <<<
>>> Test on task 26 : loss=1.641 | TAw acc= 96.2%, forg=  1.0%| TAg acc= 59.0%, forg=  6.7% <<<
>>> Test on task 27 : loss=1.092 | TAw acc= 97.3%, forg=  0.0%| TAg acc= 73.5%, forg=  0.0% <<<
Save at eeil_e5_wisdm_1/wisdm_flex_eeil
======
LLL_Net(
  (model): SimpleMLP(
    (fc1): Linear(in_features=91, out_features=1000, bias=True)
    (fc2): Sequential()
  )
  (heads): ModuleList(
    (0): Linear(in_features=1000, out_features=34, bias=True)
    (1): Linear(in_features=1000, out_features=20, bias=True)
    (2): Linear(in_features=1000, out_features=20, bias=True)
    (3): Linear(in_features=1000, out_features=20, bias=True)
    (4): Linear(in_features=1000, out_features=20, bias=True)
    (5): Linear(in_features=1000, out_features=20, bias=True)
    (6): Linear(in_features=1000, out_features=20, bias=True)
    (7): Linear(in_features=1000, out_features=20, bias=True)
    (8): Linear(in_features=1000, out_features=20, bias=True)
    (9): Linear(in_features=1000, out_features=20, bias=True)
    (10): Linear(in_features=1000, out_features=20, bias=True)
    (11): Linear(in_features=1000, out_features=20, bias=True)
    (12): Linear(in_features=1000, out_features=20, bias=True)
    (13): Linear(in_features=1000, out_features=20, bias=True)
    (14): Linear(in_features=1000, out_features=20, bias=True)
    (15): Linear(in_features=1000, out_features=20, bias=True)
    (16): Linear(in_features=1000, out_features=20, bias=True)
    (17): Linear(in_features=1000, out_features=20, bias=True)
    (18): Linear(in_features=1000, out_features=20, bias=True)
    (19): Linear(in_features=1000, out_features=20, bias=True)
    (20): Linear(in_features=1000, out_features=20, bias=True)
    (21): Linear(in_features=1000, out_features=20, bias=True)
    (22): Linear(in_features=1000, out_features=20, bias=True)
    (23): Linear(in_features=1000, out_features=20, bias=True)
    (24): Linear(in_features=1000, out_features=20, bias=True)
    (25): Linear(in_features=1000, out_features=20, bias=True)
    (26): Linear(in_features=1000, out_features=20, bias=True)
    (27): Linear(in_features=1000, out_features=20, bias=True)
  )
)
======

************************************************************************************************************
Task 28
************************************************************************************************************
| Epoch   1, time=  3.2s | Train: skip eval | Valid: time=  0.2s loss=5.399, TAw acc= 59.3% | *
| Epoch   2, time=  4.1s | Train: skip eval | Valid: time=  0.3s loss=2.629, TAw acc= 77.8% | *
…
>>> Test on task 23 : loss=1.241 | TAw acc= 96.2%, forg=  1.0%| TAg acc= 74.0%, forg= -1.9% <<<
>>> Test on task 24 : loss=1.277 | TAw acc= 99.1%, forg=  0.0%| TAg acc= 66.4%, forg=  6.9% <<<
>>> Test on task 25 : loss=1.615 | TAw acc= 96.7%, forg=  0.0%| TAg acc= 53.3%, forg=  3.3% <<<
>>> Test on task 26 : loss=1.642 | TAw acc= 96.2%, forg=  1.0%| TAg acc= 52.4%, forg= 13.3% <<<
>>> Test on task 27 : loss=1.304 | TAw acc= 98.2%, forg= -0.9%| TAg acc= 62.8%, forg= 10.6% <<<
>>> Test on task 28 : loss=1.323 | TAw acc= 93.6%, forg=  0.0%| TAg acc= 67.3%, forg=  0.0% <<<
Save at eeil_e5_wisdm_1/wisdm_flex_eeil
======
LLL_Net(
  (model): SimpleMLP(
    (fc1): Linear(in_features=91, out_features=1000, bias=True)
    (fc2): Sequential()
  )
  (heads): ModuleList(
    (0): Linear(in_features=1000, out_features=34, bias=True)
    (1): Linear(in_features=1000, out_features=20, bias=True)
    (2): Linear(in_features=1000, out_features=20, bias=True)
    (3): Linear(in_features=1000, out_features=20, bias=True)
    (4): Linear(in_features=1000, out_features=20, bias=True)
    (5): Linear(in_features=1000, out_features=20, bias=True)
    (6): Linear(in_features=1000, out_features=20, bias=True)
    (7): Linear(in_features=1000, out_features=20, bias=True)
    (8): Linear(in_features=1000, out_features=20, bias=True)
    (9): Linear(in_features=1000, out_features=20, bias=True)
    (10): Linear(in_features=1000, out_features=20, bias=True)
    (11): Linear(in_features=1000, out_features=20, bias=True)
    (12): Linear(in_features=1000, out_features=20, bias=True)
    (13): Linear(in_features=1000, out_features=20, bias=True)
    (14): Linear(in_features=1000, out_features=20, bias=True)
    (15): Linear(in_features=1000, out_features=20, bias=True)
    (16): Linear(in_features=1000, out_features=20, bias=True)
    (17): Linear(in_features=1000, out_features=20, bias=True)
    (18): Linear(in_features=1000, out_features=20, bias=True)
    (19): Linear(in_features=1000, out_features=20, bias=True)
    (20): Linear(in_features=1000, out_features=20, bias=True)
    (21): Linear(in_features=1000, out_features=20, bias=True)
    (22): Linear(in_features=1000, out_features=20, bias=True)
    (23): Linear(in_features=1000, out_features=20, bias=True)
    (24): Linear(in_features=1000, out_features=20, bias=True)
    (25): Linear(in_features=1000, out_features=20, bias=True)
    (26): Linear(in_features=1000, out_features=20, bias=True)
    (27): Linear(in_features=1000, out_features=20, bias=True)
    (28): Linear(in_features=1000, out_features=20, bias=True)
  )
)
======

************************************************************************************************************
Task 29
************************************************************************************************************
| Epoch   1, time=  3.4s | Train: skip eval | Valid: time=  0.3s loss=4.319, TAw acc= 63.5% | *
| Epoch   2, time=  3.3s | Train: skip eval | Valid: time=  0.2s loss=2.273, TAw acc= 67.3% | *
…
>>> Test on task 24 : loss=1.234 | TAw acc= 98.3%, forg=  0.9%| TAg acc= 73.3%, forg=  0.0% <<<
>>> Test on task 25 : loss=1.608 | TAw acc= 97.8%, forg= -1.1%| TAg acc= 50.0%, forg=  6.5% <<<
>>> Test on task 26 : loss=1.568 | TAw acc= 96.2%, forg=  1.0%| TAg acc= 60.0%, forg=  5.7% <<<
>>> Test on task 27 : loss=1.342 | TAw acc= 97.3%, forg=  0.9%| TAg acc= 66.4%, forg=  7.1% <<<
>>> Test on task 28 : loss=1.675 | TAw acc= 93.6%, forg=  0.0%| TAg acc= 49.1%, forg= 18.2% <<<
>>> Test on task 29 : loss=1.379 | TAw acc= 88.1%, forg=  0.0%| TAg acc= 69.6%, forg=  0.0% <<<
Save at eeil_e5_wisdm_1/wisdm_flex_eeil
======
LLL_Net(
  (model): SimpleMLP(
    (fc1): Linear(in_features=91, out_features=1000, bias=True)
    (fc2): Sequential()
  )
  (heads): ModuleList(
    (0): Linear(in_features=1000, out_features=34, bias=True)
    (1): Linear(in_features=1000, out_features=20, bias=True)
    (2): Linear(in_features=1000, out_features=20, bias=True)
    (3): Linear(in_features=1000, out_features=20, bias=True)
    (4): Linear(in_features=1000, out_features=20, bias=True)
    (5): Linear(in_features=1000, out_features=20, bias=True)
    (6): Linear(in_features=1000, out_features=20, bias=True)
    (7): Linear(in_features=1000, out_features=20, bias=True)
    (8): Linear(in_features=1000, out_features=20, bias=True)
    (9): Linear(in_features=1000, out_features=20, bias=True)
    (10): Linear(in_features=1000, out_features=20, bias=True)
    (11): Linear(in_features=1000, out_features=20, bias=True)
    (12): Linear(in_features=1000, out_features=20, bias=True)
    (13): Linear(in_features=1000, out_features=20, bias=True)
    (14): Linear(in_features=1000, out_features=20, bias=True)
    (15): Linear(in_features=1000, out_features=20, bias=True)
    (16): Linear(in_features=1000, out_features=20, bias=True)
    (17): Linear(in_features=1000, out_features=20, bias=True)
    (18): Linear(in_features=1000, out_features=20, bias=True)
    (19): Linear(in_features=1000, out_features=20, bias=True)
    (20): Linear(in_features=1000, out_features=20, bias=True)
    (21): Linear(in_features=1000, out_features=20, bias=True)
    (22): Linear(in_features=1000, out_features=20, bias=True)
    (23): Linear(in_features=1000, out_features=20, bias=True)
    (24): Linear(in_features=1000, out_features=20, bias=True)
    (25): Linear(in_features=1000, out_features=20, bias=True)
    (26): Linear(in_features=1000, out_features=20, bias=True)
    (27): Linear(in_features=1000, out_features=20, bias=True)
    (28): Linear(in_features=1000, out_features=20, bias=True)
    (29): Linear(in_features=1000, out_features=20, bias=True)
  )
)
======

************************************************************************************************************
Task 30
************************************************************************************************************
| Epoch   1, time=  3.5s | Train: skip eval | Valid: time=  0.2s loss=5.786, TAw acc= 43.2% | *
| Epoch   2, time=  3.6s | Train: skip eval | Valid: time=  0.2s loss=3.535, TAw acc= 68.9% | *
…
>>> Test on task 25 : loss=1.539 | TAw acc= 96.7%, forg=  1.1%| TAg acc= 56.5%, forg=  0.0% <<<
>>> Test on task 26 : loss=1.496 | TAw acc= 96.2%, forg=  1.0%| TAg acc= 60.0%, forg=  5.7% <<<
>>> Test on task 27 : loss=1.191 | TAw acc= 97.3%, forg=  0.9%| TAg acc= 71.7%, forg=  1.8% <<<
>>> Test on task 28 : loss=1.509 | TAw acc= 92.7%, forg=  0.9%| TAg acc= 56.4%, forg= 10.9% <<<
>>> Test on task 29 : loss=2.031 | TAw acc= 89.6%, forg= -1.5%| TAg acc= 38.5%, forg= 31.1% <<<
>>> Test on task 30 : loss=1.764 | TAw acc= 87.3%, forg=  0.0%| TAg acc= 50.0%, forg=  0.0% <<<
Save at eeil_e5_wisdm_1/wisdm_flex_eeil
======
LLL_Net(
  (model): SimpleMLP(
    (fc1): Linear(in_features=91, out_features=1000, bias=True)
    (fc2): Sequential()
  )
  (heads): ModuleList(
    (0): Linear(in_features=1000, out_features=34, bias=True)
    (1): Linear(in_features=1000, out_features=20, bias=True)
    (2): Linear(in_features=1000, out_features=20, bias=True)
    (3): Linear(in_features=1000, out_features=20, bias=True)
    (4): Linear(in_features=1000, out_features=20, bias=True)
    (5): Linear(in_features=1000, out_features=20, bias=True)
    (6): Linear(in_features=1000, out_features=20, bias=True)
    (7): Linear(in_features=1000, out_features=20, bias=True)
    (8): Linear(in_features=1000, out_features=20, bias=True)
    (9): Linear(in_features=1000, out_features=20, bias=True)
    (10): Linear(in_features=1000, out_features=20, bias=True)
    (11): Linear(in_features=1000, out_features=20, bias=True)
    (12): Linear(in_features=1000, out_features=20, bias=True)
    (13): Linear(in_features=1000, out_features=20, bias=True)
    (14): Linear(in_features=1000, out_features=20, bias=True)
    (15): Linear(in_features=1000, out_features=20, bias=True)
    (16): Linear(in_features=1000, out_features=20, bias=True)
    (17): Linear(in_features=1000, out_features=20, bias=True)
    (18): Linear(in_features=1000, out_features=20, bias=True)
    (19): Linear(in_features=1000, out_features=20, bias=True)
    (20): Linear(in_features=1000, out_features=20, bias=True)
    (21): Linear(in_features=1000, out_features=20, bias=True)
    (22): Linear(in_features=1000, out_features=20, bias=True)
    (23): Linear(in_features=1000, out_features=20, bias=True)
    (24): Linear(in_features=1000, out_features=20, bias=True)
    (25): Linear(in_features=1000, out_features=20, bias=True)
    (26): Linear(in_features=1000, out_features=20, bias=True)
    (27): Linear(in_features=1000, out_features=20, bias=True)
    (28): Linear(in_features=1000, out_features=20, bias=True)
    (29): Linear(in_features=1000, out_features=20, bias=True)
    (30): Linear(in_features=1000, out_features=20, bias=True)
  )
)
======

************************************************************************************************************
Task 31
************************************************************************************************************
| Epoch   1, time=  3.7s | Train: skip eval | Valid: time=  0.2s loss=6.019, TAw acc= 52.3% | *
| Epoch   2, time=  4.0s | Train: skip eval | Valid: time=  0.2s loss=3.162, TAw acc= 68.2% | *
…
>>> Test on task 26 : loss=1.511 | TAw acc= 96.2%, forg=  1.0%| TAg acc= 63.8%, forg=  1.9% <<<
>>> Test on task 27 : loss=1.211 | TAw acc= 96.5%, forg=  1.8%| TAg acc= 68.1%, forg=  5.3% <<<
>>> Test on task 28 : loss=1.525 | TAw acc= 91.8%, forg=  1.8%| TAg acc= 58.2%, forg=  9.1% <<<
>>> Test on task 29 : loss=1.875 | TAw acc= 88.9%, forg=  0.7%| TAg acc= 39.3%, forg= 30.4% <<<
>>> Test on task 30 : loss=2.112 | TAw acc= 87.3%, forg=  0.0%| TAg acc= 26.5%, forg= 23.5% <<<
>>> Test on task 31 : loss=1.589 | TAw acc= 92.4%, forg=  0.0%| TAg acc= 62.7%, forg=  0.0% <<<
Save at eeil_e5_wisdm_1/wisdm_flex_eeil
======
LLL_Net(
  (model): SimpleMLP(
    (fc1): Linear(in_features=91, out_features=1000, bias=True)
    (fc2): Sequential()
  )
  (heads): ModuleList(
    (0): Linear(in_features=1000, out_features=34, bias=True)
    (1): Linear(in_features=1000, out_features=20, bias=True)
    (2): Linear(in_features=1000, out_features=20, bias=True)
    (3): Linear(in_features=1000, out_features=20, bias=True)
    (4): Linear(in_features=1000, out_features=20, bias=True)
    (5): Linear(in_features=1000, out_features=20, bias=True)
    (6): Linear(in_features=1000, out_features=20, bias=True)
    (7): Linear(in_features=1000, out_features=20, bias=True)
    (8): Linear(in_features=1000, out_features=20, bias=True)
    (9): Linear(in_features=1000, out_features=20, bias=True)
    (10): Linear(in_features=1000, out_features=20, bias=True)
    (11): Linear(in_features=1000, out_features=20, bias=True)
    (12): Linear(in_features=1000, out_features=20, bias=True)
    (13): Linear(in_features=1000, out_features=20, bias=True)
    (14): Linear(in_features=1000, out_features=20, bias=True)
    (15): Linear(in_features=1000, out_features=20, bias=True)
    (16): Linear(in_features=1000, out_features=20, bias=True)
    (17): Linear(in_features=1000, out_features=20, bias=True)
    (18): Linear(in_features=1000, out_features=20, bias=True)
    (19): Linear(in_features=1000, out_features=20, bias=True)
    (20): Linear(in_features=1000, out_features=20, bias=True)
    (21): Linear(in_features=1000, out_features=20, bias=True)
    (22): Linear(in_features=1000, out_features=20, bias=True)
    (23): Linear(in_features=1000, out_features=20, bias=True)
    (24): Linear(in_features=1000, out_features=20, bias=True)
    (25): Linear(in_features=1000, out_features=20, bias=True)
    (26): Linear(in_features=1000, out_features=20, bias=True)
    (27): Linear(in_features=1000, out_features=20, bias=True)
    (28): Linear(in_features=1000, out_features=20, bias=True)
    (29): Linear(in_features=1000, out_features=20, bias=True)
    (30): Linear(in_features=1000, out_features=20, bias=True)
    (31): Linear(in_features=1000, out_features=20, bias=True)
  )
)
======

************************************************************************************************************
Task 32
************************************************************************************************************
| Epoch   1, time=  3.9s | Train: skip eval | Valid: time=  0.2s loss=6.101, TAw acc= 41.4% | *
| Epoch   2, time=  3.8s | Train: skip eval | Valid: time=  0.2s loss=3.260, TAw acc= 72.9% | *
…
>>> Test on task 27 : loss=1.152 | TAw acc= 96.5%, forg=  1.8%| TAg acc= 71.7%, forg=  1.8% <<<
>>> Test on task 28 : loss=1.415 | TAw acc= 91.8%, forg=  1.8%| TAg acc= 67.3%, forg=  0.0% <<<
>>> Test on task 29 : loss=1.861 | TAw acc= 88.9%, forg=  0.7%| TAg acc= 40.0%, forg= 29.6% <<<
>>> Test on task 30 : loss=1.973 | TAw acc= 87.3%, forg=  0.0%| TAg acc= 30.4%, forg= 19.6% <<<
>>> Test on task 31 : loss=1.807 | TAw acc= 91.5%, forg=  0.8%| TAg acc= 55.1%, forg=  7.6% <<<
>>> Test on task 32 : loss=1.495 | TAw acc= 85.6%, forg=  0.0%| TAg acc= 53.6%, forg=  0.0% <<<
Save at eeil_e5_wisdm_1/wisdm_flex_eeil
======
LLL_Net(
  (model): SimpleMLP(
    (fc1): Linear(in_features=91, out_features=1000, bias=True)
    (fc2): Sequential()
  )
  (heads): ModuleList(
    (0): Linear(in_features=1000, out_features=34, bias=True)
    (1): Linear(in_features=1000, out_features=20, bias=True)
    (2): Linear(in_features=1000, out_features=20, bias=True)
    (3): Linear(in_features=1000, out_features=20, bias=True)
    (4): Linear(in_features=1000, out_features=20, bias=True)
    (5): Linear(in_features=1000, out_features=20, bias=True)
    (6): Linear(in_features=1000, out_features=20, bias=True)
    (7): Linear(in_features=1000, out_features=20, bias=True)
    (8): Linear(in_features=1000, out_features=20, bias=True)
    (9): Linear(in_features=1000, out_features=20, bias=True)
    (10): Linear(in_features=1000, out_features=20, bias=True)
    (11): Linear(in_features=1000, out_features=20, bias=True)
    (12): Linear(in_features=1000, out_features=20, bias=True)
    (13): Linear(in_features=1000, out_features=20, bias=True)
    (14): Linear(in_features=1000, out_features=20, bias=True)
    (15): Linear(in_features=1000, out_features=20, bias=True)
    (16): Linear(in_features=1000, out_features=20, bias=True)
    (17): Linear(in_features=1000, out_features=20, bias=True)
    (18): Linear(in_features=1000, out_features=20, bias=True)
    (19): Linear(in_features=1000, out_features=20, bias=True)
    (20): Linear(in_features=1000, out_features=20, bias=True)
    (21): Linear(in_features=1000, out_features=20, bias=True)
    (22): Linear(in_features=1000, out_features=20, bias=True)
    (23): Linear(in_features=1000, out_features=20, bias=True)
    (24): Linear(in_features=1000, out_features=20, bias=True)
    (25): Linear(in_features=1000, out_features=20, bias=True)
    (26): Linear(in_features=1000, out_features=20, bias=True)
    (27): Linear(in_features=1000, out_features=20, bias=True)
    (28): Linear(in_features=1000, out_features=20, bias=True)
    (29): Linear(in_features=1000, out_features=20, bias=True)
    (30): Linear(in_features=1000, out_features=20, bias=True)
    (31): Linear(in_features=1000, out_features=20, bias=True)
    (32): Linear(in_features=1000, out_features=20, bias=True)
  )
)
======

************************************************************************************************************
Task 33
************************************************************************************************************
| Epoch   1, time=  3.9s | Train: skip eval | Valid: time=  0.2s loss=6.057, TAw acc= 50.6% | *
| Epoch   2, time=  4.0s | Train: skip eval | Valid: time=  0.2s loss=3.375, TAw acc= 69.6% | *
…
>>> Test on task 28 : loss=1.406 | TAw acc= 91.8%, forg=  1.8%| TAg acc= 71.8%, forg= -4.5% <<<
>>> Test on task 29 : loss=1.841 | TAw acc= 88.9%, forg=  0.7%| TAg acc= 40.7%, forg= 28.9% <<<
>>> Test on task 30 : loss=1.954 | TAw acc= 90.2%, forg= -2.9%| TAg acc= 39.2%, forg= 10.8% <<<
>>> Test on task 31 : loss=1.737 | TAw acc= 89.8%, forg=  2.5%| TAg acc= 58.5%, forg=  4.2% <<<
>>> Test on task 32 : loss=1.721 | TAw acc= 84.5%, forg=  1.0%| TAg acc= 49.5%, forg=  4.1% <<<
>>> Test on task 33 : loss=1.412 | TAw acc= 94.4%, forg=  0.0%| TAg acc= 63.0%, forg=  0.0% <<<
Save at eeil_e5_wisdm_1/wisdm_flex_eeil
======
LLL_Net(
  (model): SimpleMLP(
    (fc1): Linear(in_features=91, out_features=1000, bias=True)
    (fc2): Sequential()
  )
  (heads): ModuleList(
    (0): Linear(in_features=1000, out_features=34, bias=True)
    (1): Linear(in_features=1000, out_features=20, bias=True)
    (2): Linear(in_features=1000, out_features=20, bias=True)
    (3): Linear(in_features=1000, out_features=20, bias=True)
    (4): Linear(in_features=1000, out_features=20, bias=True)
    (5): Linear(in_features=1000, out_features=20, bias=True)
    (6): Linear(in_features=1000, out_features=20, bias=True)
    (7): Linear(in_features=1000, out_features=20, bias=True)
    (8): Linear(in_features=1000, out_features=20, bias=True)
    (9): Linear(in_features=1000, out_features=20, bias=True)
    (10): Linear(in_features=1000, out_features=20, bias=True)
    (11): Linear(in_features=1000, out_features=20, bias=True)
    (12): Linear(in_features=1000, out_features=20, bias=True)
    (13): Linear(in_features=1000, out_features=20, bias=True)
    (14): Linear(in_features=1000, out_features=20, bias=True)
    (15): Linear(in_features=1000, out_features=20, bias=True)
    (16): Linear(in_features=1000, out_features=20, bias=True)
    (17): Linear(in_features=1000, out_features=20, bias=True)
    (18): Linear(in_features=1000, out_features=20, bias=True)
    (19): Linear(in_features=1000, out_features=20, bias=True)
    (20): Linear(in_features=1000, out_features=20, bias=True)
    (21): Linear(in_features=1000, out_features=20, bias=True)
    (22): Linear(in_features=1000, out_features=20, bias=True)
    (23): Linear(in_features=1000, out_features=20, bias=True)
    (24): Linear(in_features=1000, out_features=20, bias=True)
    (25): Linear(in_features=1000, out_features=20, bias=True)
    (26): Linear(in_features=1000, out_features=20, bias=True)
    (27): Linear(in_features=1000, out_features=20, bias=True)
    (28): Linear(in_features=1000, out_features=20, bias=True)
    (29): Linear(in_features=1000, out_features=20, bias=True)
    (30): Linear(in_features=1000, out_features=20, bias=True)
    (31): Linear(in_features=1000, out_features=20, bias=True)
    (32): Linear(in_features=1000, out_features=20, bias=True)
    (33): Linear(in_features=1000, out_features=20, bias=True)
  )
)
======

************************************************************************************************************
Task 34
************************************************************************************************************
| Epoch   1, time=  4.2s | Train: skip eval | Valid: time=  0.2s loss=5.320, TAw acc= 52.9% | *
| Epoch   2, time=  4.3s | Train: skip eval | Valid: time=  0.2s loss=2.746, TAw acc= 82.4% | *
…
>>> Test on task 29 : loss=1.788 | TAw acc= 88.1%, forg=  1.5%| TAg acc= 43.0%, forg= 26.7% <<<
>>> Test on task 30 : loss=1.796 | TAw acc= 86.3%, forg=  3.9%| TAg acc= 44.1%, forg=  5.9% <<<
>>> Test on task 31 : loss=1.760 | TAw acc= 90.7%, forg=  1.7%| TAg acc= 56.8%, forg=  5.9% <<<
>>> Test on task 32 : loss=1.622 | TAw acc= 85.6%, forg=  0.0%| TAg acc= 48.5%, forg=  5.2% <<<
>>> Test on task 33 : loss=1.856 | TAw acc= 97.2%, forg= -2.8%| TAg acc= 46.3%, forg= 16.7% <<<
>>> Test on task 34 : loss=1.303 | TAw acc= 97.3%, forg=  0.0%| TAg acc= 66.4%, forg=  0.0% <<<
Save at eeil_e5_wisdm_1/wisdm_flex_eeil
======
LLL_Net(
  (model): SimpleMLP(
    (fc1): Linear(in_features=91, out_features=1000, bias=True)
    (fc2): Sequential()
  )
  (heads): ModuleList(
    (0): Linear(in_features=1000, out_features=34, bias=True)
    (1): Linear(in_features=1000, out_features=20, bias=True)
    (2): Linear(in_features=1000, out_features=20, bias=True)
    (3): Linear(in_features=1000, out_features=20, bias=True)
    (4): Linear(in_features=1000, out_features=20, bias=True)
    (5): Linear(in_features=1000, out_features=20, bias=True)
    (6): Linear(in_features=1000, out_features=20, bias=True)
    (7): Linear(in_features=1000, out_features=20, bias=True)
    (8): Linear(in_features=1000, out_features=20, bias=True)
    (9): Linear(in_features=1000, out_features=20, bias=True)
    (10): Linear(in_features=1000, out_features=20, bias=True)
    (11): Linear(in_features=1000, out_features=20, bias=True)
    (12): Linear(in_features=1000, out_features=20, bias=True)
    (13): Linear(in_features=1000, out_features=20, bias=True)
    (14): Linear(in_features=1000, out_features=20, bias=True)
    (15): Linear(in_features=1000, out_features=20, bias=True)
    (16): Linear(in_features=1000, out_features=20, bias=True)
    (17): Linear(in_features=1000, out_features=20, bias=True)
    (18): Linear(in_features=1000, out_features=20, bias=True)
    (19): Linear(in_features=1000, out_features=20, bias=True)
    (20): Linear(in_features=1000, out_features=20, bias=True)
    (21): Linear(in_features=1000, out_features=20, bias=True)
    (22): Linear(in_features=1000, out_features=20, bias=True)
    (23): Linear(in_features=1000, out_features=20, bias=True)
    (24): Linear(in_features=1000, out_features=20, bias=True)
    (25): Linear(in_features=1000, out_features=20, bias=True)
    (26): Linear(in_features=1000, out_features=20, bias=True)
    (27): Linear(in_features=1000, out_features=20, bias=True)
    (28): Linear(in_features=1000, out_features=20, bias=True)
    (29): Linear(in_features=1000, out_features=20, bias=True)
    (30): Linear(in_features=1000, out_features=20, bias=True)
    (31): Linear(in_features=1000, out_features=20, bias=True)
    (32): Linear(in_features=1000, out_features=20, bias=True)
    (33): Linear(in_features=1000, out_features=20, bias=True)
    (34): Linear(in_features=1000, out_features=20, bias=True)
  )
)
======

************************************************************************************************************
Task 35
************************************************************************************************************
| Epoch   1, time=  4.4s | Train: skip eval | Valid: time=  0.2s loss=6.113, TAw acc= 50.7% | *
| Epoch   2, time=  4.4s | Train: skip eval | Valid: time=  0.2s loss=3.019, TAw acc= 81.7% | *
…
>>> Test on task 30 : loss=1.875 | TAw acc= 89.2%, forg=  1.0%| TAg acc= 44.1%, forg=  5.9% <<<
>>> Test on task 31 : loss=1.652 | TAw acc= 88.1%, forg=  4.2%| TAg acc= 60.2%, forg=  2.5% <<<
>>> Test on task 32 : loss=1.522 | TAw acc= 86.6%, forg= -1.0%| TAg acc= 54.6%, forg= -1.0% <<<
>>> Test on task 33 : loss=1.765 | TAw acc= 98.1%, forg= -0.9%| TAg acc= 45.4%, forg= 17.6% <<<
>>> Test on task 34 : loss=1.891 | TAw acc= 97.3%, forg=  0.0%| TAg acc= 42.5%, forg= 23.9% <<<
>>> Test on task 35 : loss=1.416 | TAw acc= 93.9%, forg=  0.0%| TAg acc= 63.3%, forg=  0.0% <<<
Save at eeil_e5_wisdm_1/wisdm_flex_eeil
======
LLL_Net(
  (model): SimpleMLP(
    (fc1): Linear(in_features=91, out_features=1000, bias=True)
    (fc2): Sequential()
  )
  (heads): ModuleList(
    (0): Linear(in_features=1000, out_features=34, bias=True)
    (1): Linear(in_features=1000, out_features=20, bias=True)
    (2): Linear(in_features=1000, out_features=20, bias=True)
    (3): Linear(in_features=1000, out_features=20, bias=True)
    (4): Linear(in_features=1000, out_features=20, bias=True)
    (5): Linear(in_features=1000, out_features=20, bias=True)
    (6): Linear(in_features=1000, out_features=20, bias=True)
    (7): Linear(in_features=1000, out_features=20, bias=True)
    (8): Linear(in_features=1000, out_features=20, bias=True)
    (9): Linear(in_features=1000, out_features=20, bias=True)
    (10): Linear(in_features=1000, out_features=20, bias=True)
    (11): Linear(in_features=1000, out_features=20, bias=True)
    (12): Linear(in_features=1000, out_features=20, bias=True)
    (13): Linear(in_features=1000, out_features=20, bias=True)
    (14): Linear(in_features=1000, out_features=20, bias=True)
    (15): Linear(in_features=1000, out_features=20, bias=True)
    (16): Linear(in_features=1000, out_features=20, bias=True)
    (17): Linear(in_features=1000, out_features=20, bias=True)
    (18): Linear(in_features=1000, out_features=20, bias=True)
    (19): Linear(in_features=1000, out_features=20, bias=True)
    (20): Linear(in_features=1000, out_features=20, bias=True)
    (21): Linear(in_features=1000, out_features=20, bias=True)
    (22): Linear(in_features=1000, out_features=20, bias=True)
    (23): Linear(in_features=1000, out_features=20, bias=True)
    (24): Linear(in_features=1000, out_features=20, bias=True)
    (25): Linear(in_features=1000, out_features=20, bias=True)
    (26): Linear(in_features=1000, out_features=20, bias=True)
    (27): Linear(in_features=1000, out_features=20, bias=True)
    (28): Linear(in_features=1000, out_features=20, bias=True)
    (29): Linear(in_features=1000, out_features=20, bias=True)
    (30): Linear(in_features=1000, out_features=20, bias=True)
    (31): Linear(in_features=1000, out_features=20, bias=True)
    (32): Linear(in_features=1000, out_features=20, bias=True)
    (33): Linear(in_features=1000, out_features=20, bias=True)
    (34): Linear(in_features=1000, out_features=20, bias=True)
    (35): Linear(in_features=1000, out_features=20, bias=True)
  )
)
======

************************************************************************************************************
Task 36
************************************************************************************************************
| Epoch   1, time=  4.6s | Train: skip eval | Valid: time=  0.2s loss=5.404, TAw acc= 50.0% | *
| Epoch   2, time=  4.7s | Train: skip eval | Valid: time=  0.2s loss=2.767, TAw acc= 70.2% | *
…
>>> Test on task 31 : loss=1.659 | TAw acc= 89.8%, forg=  2.5%| TAg acc= 55.9%, forg=  6.8% <<<
>>> Test on task 32 : loss=1.466 | TAw acc= 86.6%, forg=  0.0%| TAg acc= 58.8%, forg= -4.1% <<<
>>> Test on task 33 : loss=1.740 | TAw acc= 97.2%, forg=  0.9%| TAg acc= 48.1%, forg= 14.8% <<<
>>> Test on task 34 : loss=1.768 | TAw acc= 97.3%, forg=  0.0%| TAg acc= 46.9%, forg= 19.5% <<<
>>> Test on task 35 : loss=1.801 | TAw acc= 92.9%, forg=  1.0%| TAg acc= 46.9%, forg= 16.3% <<<
>>> Test on task 36 : loss=1.099 | TAw acc= 99.1%, forg=  0.0%| TAg acc= 78.9%, forg=  0.0% <<<
Save at eeil_e5_wisdm_1/wisdm_flex_eeil
======
LLL_Net(
  (model): SimpleMLP(
    (fc1): Linear(in_features=91, out_features=1000, bias=True)
    (fc2): Sequential()
  )
  (heads): ModuleList(
    (0): Linear(in_features=1000, out_features=34, bias=True)
    (1): Linear(in_features=1000, out_features=20, bias=True)
    (2): Linear(in_features=1000, out_features=20, bias=True)
    (3): Linear(in_features=1000, out_features=20, bias=True)
    (4): Linear(in_features=1000, out_features=20, bias=True)
    (5): Linear(in_features=1000, out_features=20, bias=True)
    (6): Linear(in_features=1000, out_features=20, bias=True)
    (7): Linear(in_features=1000, out_features=20, bias=True)
    (8): Linear(in_features=1000, out_features=20, bias=True)
    (9): Linear(in_features=1000, out_features=20, bias=True)
    (10): Linear(in_features=1000, out_features=20, bias=True)
    (11): Linear(in_features=1000, out_features=20, bias=True)
    (12): Linear(in_features=1000, out_features=20, bias=True)
    (13): Linear(in_features=1000, out_features=20, bias=True)
    (14): Linear(in_features=1000, out_features=20, bias=True)
    (15): Linear(in_features=1000, out_features=20, bias=True)
    (16): Linear(in_features=1000, out_features=20, bias=True)
    (17): Linear(in_features=1000, out_features=20, bias=True)
    (18): Linear(in_features=1000, out_features=20, bias=True)
    (19): Linear(in_features=1000, out_features=20, bias=True)
    (20): Linear(in_features=1000, out_features=20, bias=True)
    (21): Linear(in_features=1000, out_features=20, bias=True)
    (22): Linear(in_features=1000, out_features=20, bias=True)
    (23): Linear(in_features=1000, out_features=20, bias=True)
    (24): Linear(in_features=1000, out_features=20, bias=True)
    (25): Linear(in_features=1000, out_features=20, bias=True)
    (26): Linear(in_features=1000, out_features=20, bias=True)
    (27): Linear(in_features=1000, out_features=20, bias=True)
    (28): Linear(in_features=1000, out_features=20, bias=True)
    (29): Linear(in_features=1000, out_features=20, bias=True)
    (30): Linear(in_features=1000, out_features=20, bias=True)
    (31): Linear(in_features=1000, out_features=20, bias=True)
    (32): Linear(in_features=1000, out_features=20, bias=True)
    (33): Linear(in_features=1000, out_features=20, bias=True)
    (34): Linear(in_features=1000, out_features=20, bias=True)
    (35): Linear(in_features=1000, out_features=20, bias=True)
    (36): Linear(in_features=1000, out_features=20, bias=True)
  )
)
======

************************************************************************************************************
Task 37
************************************************************************************************************
| Epoch   1, time=  4.9s | Train: skip eval | Valid: time=  0.2s loss=4.542, TAw acc= 67.5% | *
| Epoch   2, time=  5.1s | Train: skip eval | Valid: time=  0.2s loss=2.371, TAw acc= 83.1% | *
…
>>> Test on task 32 : loss=1.520 | TAw acc= 86.6%, forg=  0.0%| TAg acc= 55.7%, forg=  3.1% <<<
>>> Test on task 33 : loss=1.643 | TAw acc= 98.1%, forg=  0.0%| TAg acc= 56.5%, forg=  6.5% <<<
>>> Test on task 34 : loss=1.728 | TAw acc= 97.3%, forg=  0.0%| TAg acc= 50.4%, forg= 15.9% <<<
>>> Test on task 35 : loss=1.833 | TAw acc= 91.8%, forg=  2.0%| TAg acc= 44.9%, forg= 18.4% <<<
>>> Test on task 36 : loss=1.474 | TAw acc=100.0%, forg= -0.9%| TAg acc= 57.0%, forg= 21.9% <<<
>>> Test on task 37 : loss=1.321 | TAw acc= 96.4%, forg=  0.0%| TAg acc= 67.0%, forg=  0.0% <<<
Save at eeil_e5_wisdm_1/wisdm_flex_eeil
======
LLL_Net(
  (model): SimpleMLP(
    (fc1): Linear(in_features=91, out_features=1000, bias=True)
    (fc2): Sequential()
  )
  (heads): ModuleList(
    (0): Linear(in_features=1000, out_features=34, bias=True)
    (1): Linear(in_features=1000, out_features=20, bias=True)
    (2): Linear(in_features=1000, out_features=20, bias=True)
    (3): Linear(in_features=1000, out_features=20, bias=True)
    (4): Linear(in_features=1000, out_features=20, bias=True)
    (5): Linear(in_features=1000, out_features=20, bias=True)
    (6): Linear(in_features=1000, out_features=20, bias=True)
    (7): Linear(in_features=1000, out_features=20, bias=True)
    (8): Linear(in_features=1000, out_features=20, bias=True)
    (9): Linear(in_features=1000, out_features=20, bias=True)
    (10): Linear(in_features=1000, out_features=20, bias=True)
    (11): Linear(in_features=1000, out_features=20, bias=True)
    (12): Linear(in_features=1000, out_features=20, bias=True)
    (13): Linear(in_features=1000, out_features=20, bias=True)
    (14): Linear(in_features=1000, out_features=20, bias=True)
    (15): Linear(in_features=1000, out_features=20, bias=True)
    (16): Linear(in_features=1000, out_features=20, bias=True)
    (17): Linear(in_features=1000, out_features=20, bias=True)
    (18): Linear(in_features=1000, out_features=20, bias=True)
    (19): Linear(in_features=1000, out_features=20, bias=True)
    (20): Linear(in_features=1000, out_features=20, bias=True)
    (21): Linear(in_features=1000, out_features=20, bias=True)
    (22): Linear(in_features=1000, out_features=20, bias=True)
    (23): Linear(in_features=1000, out_features=20, bias=True)
    (24): Linear(in_features=1000, out_features=20, bias=True)
    (25): Linear(in_features=1000, out_features=20, bias=True)
    (26): Linear(in_features=1000, out_features=20, bias=True)
    (27): Linear(in_features=1000, out_features=20, bias=True)
    (28): Linear(in_features=1000, out_features=20, bias=True)
    (29): Linear(in_features=1000, out_features=20, bias=True)
    (30): Linear(in_features=1000, out_features=20, bias=True)
    (31): Linear(in_features=1000, out_features=20, bias=True)
    (32): Linear(in_features=1000, out_features=20, bias=True)
    (33): Linear(in_features=1000, out_features=20, bias=True)
    (34): Linear(in_features=1000, out_features=20, bias=True)
    (35): Linear(in_features=1000, out_features=20, bias=True)
    (36): Linear(in_features=1000, out_features=20, bias=True)
    (37): Linear(in_features=1000, out_features=20, bias=True)
  )
)
======

************************************************************************************************************
Task 38
************************************************************************************************************
| Epoch   1, time=  5.6s | Train: skip eval | Valid: time=  0.2s loss=5.313, TAw acc= 53.2% | *
| Epoch   2, time=  4.8s | Train: skip eval | Valid: time=  0.2s loss=2.496, TAw acc= 78.5% | *
…
>>> Test on task 33 : loss=1.721 | TAw acc= 98.1%, forg=  0.0%| TAg acc= 51.9%, forg= 11.1% <<<
>>> Test on task 34 : loss=1.747 | TAw acc= 97.3%, forg=  0.0%| TAg acc= 48.7%, forg= 17.7% <<<
>>> Test on task 35 : loss=1.628 | TAw acc= 94.9%, forg= -1.0%| TAg acc= 61.2%, forg=  2.0% <<<
>>> Test on task 36 : loss=1.473 | TAw acc=100.0%, forg=  0.0%| TAg acc= 54.4%, forg= 24.6% <<<
>>> Test on task 37 : loss=2.070 | TAw acc= 96.4%, forg=  0.0%| TAg acc= 31.2%, forg= 35.7% <<<
>>> Test on task 38 : loss=1.100 | TAw acc= 91.7%, forg=  0.0%| TAg acc= 72.2%, forg=  0.0% <<<
Save at eeil_e5_wisdm_1/wisdm_flex_eeil
======
LLL_Net(
  (model): SimpleMLP(
    (fc1): Linear(in_features=91, out_features=1000, bias=True)
    (fc2): Sequential()
  )
  (heads): ModuleList(
    (0): Linear(in_features=1000, out_features=34, bias=True)
    (1): Linear(in_features=1000, out_features=20, bias=True)
    (2): Linear(in_features=1000, out_features=20, bias=True)
    (3): Linear(in_features=1000, out_features=20, bias=True)
    (4): Linear(in_features=1000, out_features=20, bias=True)
    (5): Linear(in_features=1000, out_features=20, bias=True)
    (6): Linear(in_features=1000, out_features=20, bias=True)
    (7): Linear(in_features=1000, out_features=20, bias=True)
    (8): Linear(in_features=1000, out_features=20, bias=True)
    (9): Linear(in_features=1000, out_features=20, bias=True)
    (10): Linear(in_features=1000, out_features=20, bias=True)
    (11): Linear(in_features=1000, out_features=20, bias=True)
    (12): Linear(in_features=1000, out_features=20, bias=True)
    (13): Linear(in_features=1000, out_features=20, bias=True)
    (14): Linear(in_features=1000, out_features=20, bias=True)
    (15): Linear(in_features=1000, out_features=20, bias=True)
    (16): Linear(in_features=1000, out_features=20, bias=True)
    (17): Linear(in_features=1000, out_features=20, bias=True)
    (18): Linear(in_features=1000, out_features=20, bias=True)
    (19): Linear(in_features=1000, out_features=20, bias=True)
    (20): Linear(in_features=1000, out_features=20, bias=True)
    (21): Linear(in_features=1000, out_features=20, bias=True)
    (22): Linear(in_features=1000, out_features=20, bias=True)
    (23): Linear(in_features=1000, out_features=20, bias=True)
    (24): Linear(in_features=1000, out_features=20, bias=True)
    (25): Linear(in_features=1000, out_features=20, bias=True)
    (26): Linear(in_features=1000, out_features=20, bias=True)
    (27): Linear(in_features=1000, out_features=20, bias=True)
    (28): Linear(in_features=1000, out_features=20, bias=True)
    (29): Linear(in_features=1000, out_features=20, bias=True)
    (30): Linear(in_features=1000, out_features=20, bias=True)
    (31): Linear(in_features=1000, out_features=20, bias=True)
    (32): Linear(in_features=1000, out_features=20, bias=True)
    (33): Linear(in_features=1000, out_features=20, bias=True)
    (34): Linear(in_features=1000, out_features=20, bias=True)
    (35): Linear(in_features=1000, out_features=20, bias=True)
    (36): Linear(in_features=1000, out_features=20, bias=True)
    (37): Linear(in_features=1000, out_features=20, bias=True)
    (38): Linear(in_features=1000, out_features=20, bias=True)
  )
)
======

************************************************************************************************************
Task 39
************************************************************************************************************
| Epoch   1, time=  5.3s | Train: skip eval | Valid: time=  0.2s loss=3.745, TAw acc= 75.0% | *
| Epoch   2, time=  5.2s | Train: skip eval | Valid: time=  0.2s loss=1.594, TAw acc= 78.1% | *
…
>>> Test on task 34 : loss=1.714 | TAw acc= 97.3%, forg=  0.0%| TAg acc= 51.3%, forg= 15.0% <<<
>>> Test on task 35 : loss=1.660 | TAw acc= 95.9%, forg= -1.0%| TAg acc= 57.1%, forg=  6.1% <<<
>>> Test on task 36 : loss=1.339 | TAw acc=100.0%, forg=  0.0%| TAg acc= 64.9%, forg= 14.0% <<<
>>> Test on task 37 : loss=2.107 | TAw acc= 95.5%, forg=  0.9%| TAg acc= 28.6%, forg= 38.4% <<<
>>> Test on task 38 : loss=1.752 | TAw acc= 91.7%, forg=  0.0%| TAg acc= 49.1%, forg= 23.1% <<<
>>> Test on task 39 : loss=0.919 | TAw acc= 96.9%, forg=  0.0%| TAg acc= 85.2%, forg=  0.0% <<<
Save at eeil_e5_wisdm_1/wisdm_flex_eeil
======
LLL_Net(
  (model): SimpleMLP(
    (fc1): Linear(in_features=91, out_features=1000, bias=True)
    (fc2): Sequential()
  )
  (heads): ModuleList(
    (0): Linear(in_features=1000, out_features=34, bias=True)
    (1): Linear(in_features=1000, out_features=20, bias=True)
    (2): Linear(in_features=1000, out_features=20, bias=True)
    (3): Linear(in_features=1000, out_features=20, bias=True)
    (4): Linear(in_features=1000, out_features=20, bias=True)
    (5): Linear(in_features=1000, out_features=20, bias=True)
    (6): Linear(in_features=1000, out_features=20, bias=True)
    (7): Linear(in_features=1000, out_features=20, bias=True)
    (8): Linear(in_features=1000, out_features=20, bias=True)
    (9): Linear(in_features=1000, out_features=20, bias=True)
    (10): Linear(in_features=1000, out_features=20, bias=True)
    (11): Linear(in_features=1000, out_features=20, bias=True)
    (12): Linear(in_features=1000, out_features=20, bias=True)
    (13): Linear(in_features=1000, out_features=20, bias=True)
    (14): Linear(in_features=1000, out_features=20, bias=True)
    (15): Linear(in_features=1000, out_features=20, bias=True)
    (16): Linear(in_features=1000, out_features=20, bias=True)
    (17): Linear(in_features=1000, out_features=20, bias=True)
    (18): Linear(in_features=1000, out_features=20, bias=True)
    (19): Linear(in_features=1000, out_features=20, bias=True)
    (20): Linear(in_features=1000, out_features=20, bias=True)
    (21): Linear(in_features=1000, out_features=20, bias=True)
    (22): Linear(in_features=1000, out_features=20, bias=True)
    (23): Linear(in_features=1000, out_features=20, bias=True)
    (24): Linear(in_features=1000, out_features=20, bias=True)
    (25): Linear(in_features=1000, out_features=20, bias=True)
    (26): Linear(in_features=1000, out_features=20, bias=True)
    (27): Linear(in_features=1000, out_features=20, bias=True)
    (28): Linear(in_features=1000, out_features=20, bias=True)
    (29): Linear(in_features=1000, out_features=20, bias=True)
    (30): Linear(in_features=1000, out_features=20, bias=True)
    (31): Linear(in_features=1000, out_features=20, bias=True)
    (32): Linear(in_features=1000, out_features=20, bias=True)
    (33): Linear(in_features=1000, out_features=20, bias=True)
    (34): Linear(in_features=1000, out_features=20, bias=True)
    (35): Linear(in_features=1000, out_features=20, bias=True)
    (36): Linear(in_features=1000, out_features=20, bias=True)
    (37): Linear(in_features=1000, out_features=20, bias=True)
    (38): Linear(in_features=1000, out_features=20, bias=True)
    (39): Linear(in_features=1000, out_features=20, bias=True)
  )
)
======

************************************************************************************************************
Task 40
************************************************************************************************************
| Epoch   1, time=  5.2s | Train: skip eval | Valid: time=  0.2s loss=5.255, TAw acc= 54.5% | *
| Epoch   2, time=  5.8s | Train: skip eval | Valid: time=  0.2s loss=2.467, TAw acc= 83.1% | *
…
>>> Test on task 35 : loss=1.675 | TAw acc= 95.9%, forg=  0.0%| TAg acc= 53.1%, forg= 10.2% <<<
>>> Test on task 36 : loss=1.273 | TAw acc= 99.1%, forg=  0.9%| TAg acc= 67.5%, forg= 11.4% <<<
>>> Test on task 37 : loss=1.893 | TAw acc= 96.4%, forg=  0.0%| TAg acc= 41.1%, forg= 25.9% <<<
>>> Test on task 38 : loss=1.585 | TAw acc= 90.7%, forg=  0.9%| TAg acc= 59.3%, forg= 13.0% <<<
>>> Test on task 39 : loss=1.446 | TAw acc= 98.4%, forg= -1.6%| TAg acc= 57.0%, forg= 28.1% <<<
>>> Test on task 40 : loss=1.320 | TAw acc= 92.4%, forg=  0.0%| TAg acc= 64.8%, forg=  0.0% <<<
Save at eeil_e5_wisdm_1/wisdm_flex_eeil
======
LLL_Net(
  (model): SimpleMLP(
    (fc1): Linear(in_features=91, out_features=1000, bias=True)
    (fc2): Sequential()
  )
  (heads): ModuleList(
    (0): Linear(in_features=1000, out_features=34, bias=True)
    (1): Linear(in_features=1000, out_features=20, bias=True)
    (2): Linear(in_features=1000, out_features=20, bias=True)
    (3): Linear(in_features=1000, out_features=20, bias=True)
    (4): Linear(in_features=1000, out_features=20, bias=True)
    (5): Linear(in_features=1000, out_features=20, bias=True)
    (6): Linear(in_features=1000, out_features=20, bias=True)
    (7): Linear(in_features=1000, out_features=20, bias=True)
    (8): Linear(in_features=1000, out_features=20, bias=True)
    (9): Linear(in_features=1000, out_features=20, bias=True)
    (10): Linear(in_features=1000, out_features=20, bias=True)
    (11): Linear(in_features=1000, out_features=20, bias=True)
    (12): Linear(in_features=1000, out_features=20, bias=True)
    (13): Linear(in_features=1000, out_features=20, bias=True)
    (14): Linear(in_features=1000, out_features=20, bias=True)
    (15): Linear(in_features=1000, out_features=20, bias=True)
    (16): Linear(in_features=1000, out_features=20, bias=True)
    (17): Linear(in_features=1000, out_features=20, bias=True)
    (18): Linear(in_features=1000, out_features=20, bias=True)
    (19): Linear(in_features=1000, out_features=20, bias=True)
    (20): Linear(in_features=1000, out_features=20, bias=True)
    (21): Linear(in_features=1000, out_features=20, bias=True)
    (22): Linear(in_features=1000, out_features=20, bias=True)
    (23): Linear(in_features=1000, out_features=20, bias=True)
    (24): Linear(in_features=1000, out_features=20, bias=True)
    (25): Linear(in_features=1000, out_features=20, bias=True)
    (26): Linear(in_features=1000, out_features=20, bias=True)
    (27): Linear(in_features=1000, out_features=20, bias=True)
    (28): Linear(in_features=1000, out_features=20, bias=True)
    (29): Linear(in_features=1000, out_features=20, bias=True)
    (30): Linear(in_features=1000, out_features=20, bias=True)
    (31): Linear(in_features=1000, out_features=20, bias=True)
    (32): Linear(in_features=1000, out_features=20, bias=True)
    (33): Linear(in_features=1000, out_features=20, bias=True)
    (34): Linear(in_features=1000, out_features=20, bias=True)
    (35): Linear(in_features=1000, out_features=20, bias=True)
    (36): Linear(in_features=1000, out_features=20, bias=True)
    (37): Linear(in_features=1000, out_features=20, bias=True)
    (38): Linear(in_features=1000, out_features=20, bias=True)
    (39): Linear(in_features=1000, out_features=20, bias=True)
    (40): Linear(in_features=1000, out_features=20, bias=True)
  )
)
======

************************************************************************************************************
Task 41
************************************************************************************************************
| Epoch   1, time=  5.4s | Train: skip eval | Valid: time=  0.2s loss=7.240, TAw acc= 38.8% | *
| Epoch   2, time=  5.7s | Train: skip eval | Valid: time=  0.2s loss=3.511, TAw acc= 67.5% | *
…
>>> Test on task 36 : loss=1.192 | TAw acc=100.0%, forg=  0.0%| TAg acc= 68.4%, forg= 10.5% <<<
>>> Test on task 37 : loss=2.000 | TAw acc= 96.4%, forg=  0.0%| TAg acc= 35.7%, forg= 31.2% <<<
>>> Test on task 38 : loss=1.523 | TAw acc= 90.7%, forg=  0.9%| TAg acc= 67.6%, forg=  4.6% <<<
>>> Test on task 39 : loss=1.347 | TAw acc= 98.4%, forg=  0.0%| TAg acc= 62.5%, forg= 22.7% <<<
>>> Test on task 40 : loss=1.694 | TAw acc= 92.4%, forg=  0.0%| TAg acc= 54.3%, forg= 10.5% <<<
>>> Test on task 41 : loss=1.633 | TAw acc= 93.5%, forg=  0.0%| TAg acc= 51.9%, forg=  0.0% <<<
Save at eeil_e5_wisdm_1/wisdm_flex_eeil
======
LLL_Net(
  (model): SimpleMLP(
    (fc1): Linear(in_features=91, out_features=1000, bias=True)
    (fc2): Sequential()
  )
  (heads): ModuleList(
    (0): Linear(in_features=1000, out_features=34, bias=True)
    (1): Linear(in_features=1000, out_features=20, bias=True)
    (2): Linear(in_features=1000, out_features=20, bias=True)
    (3): Linear(in_features=1000, out_features=20, bias=True)
    (4): Linear(in_features=1000, out_features=20, bias=True)
    (5): Linear(in_features=1000, out_features=20, bias=True)
    (6): Linear(in_features=1000, out_features=20, bias=True)
    (7): Linear(in_features=1000, out_features=20, bias=True)
    (8): Linear(in_features=1000, out_features=20, bias=True)
    (9): Linear(in_features=1000, out_features=20, bias=True)
    (10): Linear(in_features=1000, out_features=20, bias=True)
    (11): Linear(in_features=1000, out_features=20, bias=True)
    (12): Linear(in_features=1000, out_features=20, bias=True)
    (13): Linear(in_features=1000, out_features=20, bias=True)
    (14): Linear(in_features=1000, out_features=20, bias=True)
    (15): Linear(in_features=1000, out_features=20, bias=True)
    (16): Linear(in_features=1000, out_features=20, bias=True)
    (17): Linear(in_features=1000, out_features=20, bias=True)
    (18): Linear(in_features=1000, out_features=20, bias=True)
    (19): Linear(in_features=1000, out_features=20, bias=True)
    (20): Linear(in_features=1000, out_features=20, bias=True)
    (21): Linear(in_features=1000, out_features=20, bias=True)
    (22): Linear(in_features=1000, out_features=20, bias=True)
    (23): Linear(in_features=1000, out_features=20, bias=True)
    (24): Linear(in_features=1000, out_features=20, bias=True)
    (25): Linear(in_features=1000, out_features=20, bias=True)
    (26): Linear(in_features=1000, out_features=20, bias=True)
    (27): Linear(in_features=1000, out_features=20, bias=True)
    (28): Linear(in_features=1000, out_features=20, bias=True)
    (29): Linear(in_features=1000, out_features=20, bias=True)
    (30): Linear(in_features=1000, out_features=20, bias=True)
    (31): Linear(in_features=1000, out_features=20, bias=True)
    (32): Linear(in_features=1000, out_features=20, bias=True)
    (33): Linear(in_features=1000, out_features=20, bias=True)
    (34): Linear(in_features=1000, out_features=20, bias=True)
    (35): Linear(in_features=1000, out_features=20, bias=True)
    (36): Linear(in_features=1000, out_features=20, bias=True)
    (37): Linear(in_features=1000, out_features=20, bias=True)
    (38): Linear(in_features=1000, out_features=20, bias=True)
    (39): Linear(in_features=1000, out_features=20, bias=True)
    (40): Linear(in_features=1000, out_features=20, bias=True)
    (41): Linear(in_features=1000, out_features=20, bias=True)
  )
)
======

************************************************************************************************************
Task 42
************************************************************************************************************
| Epoch   1, time=  6.0s | Train: skip eval | Valid: time=  0.2s loss=5.173, TAw acc= 67.1% | *
| Epoch   2, time=  6.0s | Train: skip eval | Valid: time=  0.2s loss=1.766, TAw acc= 89.5% | *
…
>>> Test on task 37 : loss=2.081 | TAw acc= 95.5%, forg=  0.9%| TAg acc= 32.1%, forg= 34.8% <<<
>>> Test on task 38 : loss=1.475 | TAw acc= 90.7%, forg=  0.9%| TAg acc= 64.8%, forg=  7.4% <<<
>>> Test on task 39 : loss=1.308 | TAw acc= 98.4%, forg=  0.0%| TAg acc= 67.2%, forg= 18.0% <<<
>>> Test on task 40 : loss=1.644 | TAw acc= 92.4%, forg=  0.0%| TAg acc= 55.2%, forg=  9.5% <<<
>>> Test on task 41 : loss=2.364 | TAw acc= 93.5%, forg=  0.0%| TAg acc= 24.1%, forg= 27.8% <<<
>>> Test on task 42 : loss=1.332 | TAw acc= 92.4%, forg=  0.0%| TAg acc= 74.3%, forg=  0.0% <<<
Save at eeil_e5_wisdm_1/wisdm_flex_eeil
======
LLL_Net(
  (model): SimpleMLP(
    (fc1): Linear(in_features=91, out_features=1000, bias=True)
    (fc2): Sequential()
  )
  (heads): ModuleList(
    (0): Linear(in_features=1000, out_features=34, bias=True)
    (1): Linear(in_features=1000, out_features=20, bias=True)
    (2): Linear(in_features=1000, out_features=20, bias=True)
    (3): Linear(in_features=1000, out_features=20, bias=True)
    (4): Linear(in_features=1000, out_features=20, bias=True)
    (5): Linear(in_features=1000, out_features=20, bias=True)
    (6): Linear(in_features=1000, out_features=20, bias=True)
    (7): Linear(in_features=1000, out_features=20, bias=True)
    (8): Linear(in_features=1000, out_features=20, bias=True)
    (9): Linear(in_features=1000, out_features=20, bias=True)
    (10): Linear(in_features=1000, out_features=20, bias=True)
    (11): Linear(in_features=1000, out_features=20, bias=True)
    (12): Linear(in_features=1000, out_features=20, bias=True)
    (13): Linear(in_features=1000, out_features=20, bias=True)
    (14): Linear(in_features=1000, out_features=20, bias=True)
    (15): Linear(in_features=1000, out_features=20, bias=True)
    (16): Linear(in_features=1000, out_features=20, bias=True)
    (17): Linear(in_features=1000, out_features=20, bias=True)
    (18): Linear(in_features=1000, out_features=20, bias=True)
    (19): Linear(in_features=1000, out_features=20, bias=True)
    (20): Linear(in_features=1000, out_features=20, bias=True)
    (21): Linear(in_features=1000, out_features=20, bias=True)
    (22): Linear(in_features=1000, out_features=20, bias=True)
    (23): Linear(in_features=1000, out_features=20, bias=True)
    (24): Linear(in_features=1000, out_features=20, bias=True)
    (25): Linear(in_features=1000, out_features=20, bias=True)
    (26): Linear(in_features=1000, out_features=20, bias=True)
    (27): Linear(in_features=1000, out_features=20, bias=True)
    (28): Linear(in_features=1000, out_features=20, bias=True)
    (29): Linear(in_features=1000, out_features=20, bias=True)
    (30): Linear(in_features=1000, out_features=20, bias=True)
    (31): Linear(in_features=1000, out_features=20, bias=True)
    (32): Linear(in_features=1000, out_features=20, bias=True)
    (33): Linear(in_features=1000, out_features=20, bias=True)
    (34): Linear(in_features=1000, out_features=20, bias=True)
    (35): Linear(in_features=1000, out_features=20, bias=True)
    (36): Linear(in_features=1000, out_features=20, bias=True)
    (37): Linear(in_features=1000, out_features=20, bias=True)
    (38): Linear(in_features=1000, out_features=20, bias=True)
    (39): Linear(in_features=1000, out_features=20, bias=True)
    (40): Linear(in_features=1000, out_features=20, bias=True)
    (41): Linear(in_features=1000, out_features=20, bias=True)
    (42): Linear(in_features=1000, out_features=20, bias=True)
  )
)
======

************************************************************************************************************
Task 43
************************************************************************************************************
| Epoch   1, time=  6.2s | Train: skip eval | Valid: time=  0.2s loss=5.812, TAw acc= 43.2% | *
| Epoch   2, time=  6.1s | Train: skip eval | Valid: time=  0.2s loss=2.570, TAw acc= 77.8% | *
…
