…
| Selected 1451 train exemplars, time=  1.1s
1451
------------------------------------------------------------------------------------------------------------
>>> Test on task  0 : loss=0.234 | TAw acc=100.0%, forg=  0.0%| TAg acc= 96.5%, forg=  3.5% <<<
>>> Test on task  1 : loss=4.153 | TAw acc= 98.3%, forg=  0.0%| TAg acc= 94.2%, forg=  3.3% <<<
>>> Test on task  2 : loss=6.336 | TAw acc= 91.7%, forg=  0.0%| TAg acc= 90.0%, forg=  0.0% <<<
>>> Test on task  3 : loss=9.066 | TAw acc= 95.0%, forg=  0.0%| TAg acc= 91.7%, forg=  0.0% <<<
Save at k=100/icarl_dsads_5/har_flex_icarl
======
LLL_Net(
  (model): SimpleMLP(
    (fc1): Linear(in_features=405, out_features=66, bias=True)
    (fc2): Sequential()
  )
  (heads): ModuleList(
    (0): Linear(in_features=66, out_features=12, bias=True)
    (1): Linear(in_features=66, out_features=10, bias=True)
    (2): Linear(in_features=66, out_features=10, bias=True)
    (3): Linear(in_features=66, out_features=10, bias=True)
  )
)
======

************************************************************************************************************
Task  4
************************************************************************************************************
| Epoch   1, time=  0.8s | Train: skip eval | Valid: time=  0.2s loss=17.472, TAw acc= 15.6% | *
| Epoch   2, time=  0.8s | Train: skip eval | Valid: time=  0.2s loss=14.036, TAw acc= 33.3% | *
…
------------------------------------------------------------------------------------------------------------
>>> Test on task  0 : loss=0.318 | TAw acc=100.0%, forg=  0.0%| TAg acc= 96.5%, forg=  3.5% <<<
>>> Test on task  1 : loss=4.166 | TAw acc= 98.3%, forg=  0.0%| TAg acc= 89.2%, forg=  8.3% <<<
>>> Test on task  2 : loss=6.309 | TAw acc= 91.7%, forg=  0.0%| TAg acc= 86.7%, forg=  3.3% <<<
>>> Test on task  3 : loss=8.990 | TAw acc= 95.0%, forg=  0.0%| TAg acc= 86.7%, forg=  5.0% <<<
>>> Test on task  4 : loss=11.574 | TAw acc= 95.0%, forg=  0.0%| TAg acc= 80.0%, forg=  0.0% <<<
Save at k=100/icarl_dsads_5/har_flex_icarl
======
LLL_Net(
  (model): SimpleMLP(
    (fc1): Linear(in_features=405, out_features=66, bias=True)
    (fc2): Sequential()
  )
  (heads): ModuleList(
    (0): Linear(in_features=66, out_features=12, bias=True)
    (1): Linear(in_features=66, out_features=10, bias=True)
    (2): Linear(in_features=66, out_features=10, bias=True)
    (3): Linear(in_features=66, out_features=10, bias=True)
    (4): Linear(in_features=66, out_features=10, bias=True)
  )
)
======

************************************************************************************************************
Task  5
************************************************************************************************************
| Epoch   1, time=  1.1s | Train: skip eval | Valid: time=  0.2s loss=20.111, TAw acc= 30.2% | *
| Epoch   2, time=  1.1s | Train: skip eval | Valid: time=  0.1s loss=16.689, TAw acc= 90.6% | *
…
>>> Test on task  0 : loss=0.303 | TAw acc=100.0%, forg=  0.0%| TAg acc= 96.5%, forg=  3.5% <<<
>>> Test on task  1 : loss=4.032 | TAw acc= 98.3%, forg=  0.0%| TAg acc= 88.3%, forg=  9.2% <<<
>>> Test on task  2 : loss=5.994 | TAw acc= 91.7%, forg=  0.0%| TAg acc= 85.0%, forg=  5.0% <<<
>>> Test on task  3 : loss=8.635 | TAw acc= 95.0%, forg=  0.0%| TAg acc= 85.8%, forg=  5.8% <<<
>>> Test on task  4 : loss=11.181 | TAw acc= 95.0%, forg=  0.0%| TAg acc= 80.0%, forg=  0.0% <<<
>>> Test on task  5 : loss=13.698 | TAw acc= 98.3%, forg=  0.0%| TAg acc= 91.7%, forg=  0.0% <<<
Save at k=100/icarl_dsads_5/har_flex_icarl
======
LLL_Net(
  (model): SimpleMLP(
    (fc1): Linear(in_features=405, out_features=66, bias=True)
    (fc2): Sequential()
  )
  (heads): ModuleList(
    (0): Linear(in_features=66, out_features=12, bias=True)
    (1): Linear(in_features=66, out_features=10, bias=True)
    (2): Linear(in_features=66, out_features=10, bias=True)
    (3): Linear(in_features=66, out_features=10, bias=True)
    (4): Linear(in_features=66, out_features=10, bias=True)
    (5): Linear(in_features=66, out_features=10, bias=True)
  )
)
======

************************************************************************************************************
Task  6
************************************************************************************************************
| Epoch   1, time=  1.5s | Train: skip eval | Valid: time=  0.2s loss=21.470, TAw acc= 35.4% | *
| Epoch   2, time=  1.4s | Train: skip eval | Valid: time=  0.2s loss=17.485, TAw acc= 68.8% | *
…
>>> Test on task  1 : loss=3.937 | TAw acc= 98.3%, forg=  0.0%| TAg acc= 85.0%, forg= 12.5% <<<
>>> Test on task  2 : loss=5.798 | TAw acc= 91.7%, forg=  0.0%| TAg acc= 85.0%, forg=  5.0% <<<
>>> Test on task  3 : loss=8.462 | TAw acc= 95.0%, forg=  0.0%| TAg acc= 84.2%, forg=  7.5% <<<
>>> Test on task  4 : loss=10.893 | TAw acc= 95.0%, forg=  0.0%| TAg acc= 77.5%, forg=  2.5% <<<
>>> Test on task  5 : loss=13.350 | TAw acc= 98.3%, forg=  0.0%| TAg acc= 90.8%, forg=  0.8% <<<
>>> Test on task  6 : loss=14.677 | TAw acc= 96.7%, forg=  0.0%| TAg acc= 84.2%, forg=  0.0% <<<
Save at k=100/icarl_dsads_5/har_flex_icarl
======
LLL_Net(
  (model): SimpleMLP(
    (fc1): Linear(in_features=405, out_features=66, bias=True)
    (fc2): Sequential()
  )
  (heads): ModuleList(
    (0): Linear(in_features=66, out_features=12, bias=True)
    (1): Linear(in_features=66, out_features=10, bias=True)
    (2): Linear(in_features=66, out_features=10, bias=True)
    (3): Linear(in_features=66, out_features=10, bias=True)
    (4): Linear(in_features=66, out_features=10, bias=True)
    (5): Linear(in_features=66, out_features=10, bias=True)
    (6): Linear(in_features=66, out_features=10, bias=True)
  )
)
======

************************************************************************************************************
Task  7
************************************************************************************************************
| Epoch   1, time=  1.7s | Train: skip eval | Valid: time=  0.2s loss=24.734, TAw acc= 40.6% | *
| Epoch   2, time=  1.8s | Train: skip eval | Valid: time=  0.2s loss=20.171, TAw acc= 78.1% | *
…
>>> Test on task  2 : loss=5.742 | TAw acc= 91.7%, forg=  0.0%| TAg acc= 81.7%, forg=  8.3% <<<
>>> Test on task  3 : loss=8.321 | TAw acc= 95.0%, forg=  0.0%| TAg acc= 84.2%, forg=  7.5% <<<
>>> Test on task  4 : loss=10.587 | TAw acc= 95.0%, forg=  0.0%| TAg acc= 77.5%, forg=  2.5% <<<
>>> Test on task  5 : loss=13.011 | TAw acc= 98.3%, forg=  0.0%| TAg acc= 90.0%, forg=  1.7% <<<
>>> Test on task  6 : loss=14.432 | TAw acc= 96.7%, forg=  0.0%| TAg acc= 84.2%, forg=  0.0% <<<
>>> Test on task  7 : loss=17.548 | TAw acc= 96.7%, forg=  0.0%| TAg acc= 80.8%, forg=  0.0% <<<
Save at k=100/icarl_dsads_5/har_flex_icarl
======
LLL_Net(
  (model): SimpleMLP(
    (fc1): Linear(in_features=405, out_features=66, bias=True)
    (fc2): Sequential()
  )
  (heads): ModuleList(
    (0): Linear(in_features=66, out_features=12, bias=True)
    (1): Linear(in_features=66, out_features=10, bias=True)
    (2): Linear(in_features=66, out_features=10, bias=True)
    (3): Linear(in_features=66, out_features=10, bias=True)
    (4): Linear(in_features=66, out_features=10, bias=True)
    (5): Linear(in_features=66, out_features=10, bias=True)
    (6): Linear(in_features=66, out_features=10, bias=True)
    (7): Linear(in_features=66, out_features=10, bias=True)
  )
)
======

************************************************************************************************************
Task  8
************************************************************************************************************
| Epoch   1, time=  2.1s | Train: skip eval | Valid: time=  0.2s loss=26.240, TAw acc= 24.0% | *
| Epoch   2, time=  2.3s | Train: skip eval | Valid: time=  0.2s loss=22.449, TAw acc= 55.2% | *
…
>>> Test on task  3 : loss=8.178 | TAw acc= 95.0%, forg=  0.0%| TAg acc= 84.2%, forg=  7.5% <<<
>>> Test on task  4 : loss=10.515 | TAw acc= 95.0%, forg=  0.0%| TAg acc= 73.3%, forg=  6.7% <<<
>>> Test on task  5 : loss=12.796 | TAw acc= 98.3%, forg=  0.0%| TAg acc= 90.0%, forg=  1.7% <<<
>>> Test on task  6 : loss=14.207 | TAw acc= 96.7%, forg=  0.0%| TAg acc= 81.7%, forg=  2.5% <<<
>>> Test on task  7 : loss=17.363 | TAw acc= 96.7%, forg=  0.0%| TAg acc= 80.8%, forg=  0.0% <<<
>>> Test on task  8 : loss=20.131 | TAw acc= 95.0%, forg=  0.0%| TAg acc= 85.8%, forg=  0.0% <<<
Save at k=100/icarl_dsads_5/har_flex_icarl
======
LLL_Net(
  (model): SimpleMLP(
    (fc1): Linear(in_features=405, out_features=66, bias=True)
    (fc2): Sequential()
  )
  (heads): ModuleList(
    (0): Linear(in_features=66, out_features=12, bias=True)
    (1): Linear(in_features=66, out_features=10, bias=True)
    (2): Linear(in_features=66, out_features=10, bias=True)
    (3): Linear(in_features=66, out_features=10, bias=True)
    (4): Linear(in_features=66, out_features=10, bias=True)
    (5): Linear(in_features=66, out_features=10, bias=True)
    (6): Linear(in_features=66, out_features=10, bias=True)
    (7): Linear(in_features=66, out_features=10, bias=True)
    (8): Linear(in_features=66, out_features=10, bias=True)
  )
)
======

************************************************************************************************************
Task  9
************************************************************************************************************
| Epoch   1, time=  2.7s | Train: skip eval | Valid: time=  0.2s loss=24.648, TAw acc= 27.1% | *
| Epoch   2, time=  2.7s | Train: skip eval | Valid: time=  0.2s loss=20.201, TAw acc= 62.5% | *
…
>>> Test on task  4 : loss=10.310 | TAw acc= 95.0%, forg=  0.0%| TAg acc= 71.7%, forg=  8.3% <<<
>>> Test on task  5 : loss=12.589 | TAw acc= 98.3%, forg=  0.0%| TAg acc= 83.3%, forg=  8.3% <<<
>>> Test on task  6 : loss=13.878 | TAw acc= 96.7%, forg=  0.0%| TAg acc= 81.7%, forg=  2.5% <<<
>>> Test on task  7 : loss=16.931 | TAw acc= 96.7%, forg=  0.0%| TAg acc= 80.0%, forg=  0.8% <<<
>>> Test on task  8 : loss=19.642 | TAw acc= 95.0%, forg=  0.0%| TAg acc= 85.0%, forg=  0.8% <<<
>>> Test on task  9 : loss=17.896 | TAw acc= 85.0%, forg=  0.0%| TAg acc= 66.7%, forg=  0.0% <<<
Save at k=100/icarl_dsads_5/har_flex_icarl
======
LLL_Net(
  (model): SimpleMLP(
    (fc1): Linear(in_features=405, out_features=66, bias=True)
    (fc2): Sequential()
  )
  (heads): ModuleList(
    (0): Linear(in_features=66, out_features=12, bias=True)
    (1): Linear(in_features=66, out_features=10, bias=True)
    (2): Linear(in_features=66, out_features=10, bias=True)
    (3): Linear(in_features=66, out_features=10, bias=True)
    (4): Linear(in_features=66, out_features=10, bias=True)
    (5): Linear(in_features=66, out_features=10, bias=True)
    (6): Linear(in_features=66, out_features=10, bias=True)
    (7): Linear(in_features=66, out_features=10, bias=True)
    (8): Linear(in_features=66, out_features=10, bias=True)
    (9): Linear(in_features=66, out_features=10, bias=True)
  )
)
======

************************************************************************************************************
Task 10
************************************************************************************************************
| Epoch   1, time=  3.0s | Train: skip eval | Valid: time=  0.2s loss=28.027, TAw acc= 33.3% | *
| Epoch   2, time=  3.2s | Train: skip eval | Valid: time=  0.2s loss=23.232, TAw acc= 60.4% | *
…
>>> Test on task  5 : loss=12.314 | TAw acc= 98.3%, forg=  0.0%| TAg acc= 83.3%, forg=  8.3% <<<
>>> Test on task  6 : loss=13.613 | TAw acc= 96.7%, forg=  0.0%| TAg acc= 79.2%, forg=  5.0% <<<
>>> Test on task  7 : loss=16.604 | TAw acc= 96.7%, forg=  0.0%| TAg acc= 79.2%, forg=  1.7% <<<
>>> Test on task  8 : loss=19.106 | TAw acc= 95.0%, forg=  0.0%| TAg acc= 85.0%, forg=  0.8% <<<
>>> Test on task  9 : loss=17.494 | TAw acc= 85.0%, forg=  0.0%| TAg acc= 65.8%, forg=  0.8% <<<
>>> Test on task 10 : loss=20.729 | TAw acc= 91.7%, forg=  0.0%| TAg acc= 73.3%, forg=  0.0% <<<
Save at k=100/icarl_dsads_5/har_flex_icarl
======
LLL_Net(
  (model): SimpleMLP(
    (fc1): Linear(in_features=405, out_features=66, bias=True)
    (fc2): Sequential()
  )
  (heads): ModuleList(
    (0): Linear(in_features=66, out_features=12, bias=True)
    (1): Linear(in_features=66, out_features=10, bias=True)
    (2): Linear(in_features=66, out_features=10, bias=True)
    (3): Linear(in_features=66, out_features=10, bias=True)
    (4): Linear(in_features=66, out_features=10, bias=True)
    (5): Linear(in_features=66, out_features=10, bias=True)
    (6): Linear(in_features=66, out_features=10, bias=True)
    (7): Linear(in_features=66, out_features=10, bias=True)
    (8): Linear(in_features=66, out_features=10, bias=True)
    (9): Linear(in_features=66, out_features=10, bias=True)
    (10): Linear(in_features=66, out_features=10, bias=True)
  )
)
======

************************************************************************************************************
Task 11
************************************************************************************************************
| Epoch   1, time=  3.8s | Train: skip eval | Valid: time=  0.2s loss=28.534, TAw acc= 34.4% | *
| Epoch   2, time=  3.7s | Train: skip eval | Valid: time=  0.2s loss=23.409, TAw acc= 75.0% | *
…
>>> Test on task  6 : loss=13.448 | TAw acc= 96.7%, forg=  0.0%| TAg acc= 79.2%, forg=  5.0% <<<
>>> Test on task  7 : loss=16.355 | TAw acc= 96.7%, forg=  0.0%| TAg acc= 79.2%, forg=  1.7% <<<
>>> Test on task  8 : loss=18.807 | TAw acc= 95.0%, forg=  0.0%| TAg acc= 85.0%, forg=  0.8% <<<
>>> Test on task  9 : loss=17.277 | TAw acc= 85.0%, forg=  0.0%| TAg acc= 65.8%, forg=  0.8% <<<
>>> Test on task 10 : loss=20.541 | TAw acc= 91.7%, forg=  0.0%| TAg acc= 72.5%, forg=  0.8% <<<
>>> Test on task 11 : loss=21.211 | TAw acc=100.0%, forg=  0.0%| TAg acc= 78.3%, forg=  0.0% <<<
Save at k=100/icarl_dsads_5/har_flex_icarl
======
LLL_Net(
  (model): SimpleMLP(
    (fc1): Linear(in_features=405, out_features=66, bias=True)
    (fc2): Sequential()
  )
  (heads): ModuleList(
    (0): Linear(in_features=66, out_features=12, bias=True)
    (1): Linear(in_features=66, out_features=10, bias=True)
    (2): Linear(in_features=66, out_features=10, bias=True)
    (3): Linear(in_features=66, out_features=10, bias=True)
    (4): Linear(in_features=66, out_features=10, bias=True)
    (5): Linear(in_features=66, out_features=10, bias=True)
    (6): Linear(in_features=66, out_features=10, bias=True)
    (7): Linear(in_features=66, out_features=10, bias=True)
    (8): Linear(in_features=66, out_features=10, bias=True)
    (9): Linear(in_features=66, out_features=10, bias=True)
    (10): Linear(in_features=66, out_features=10, bias=True)
    (11): Linear(in_features=66, out_features=10, bias=True)
  )
)
======

************************************************************************************************************
Task 12
************************************************************************************************************
| Epoch   1, time=  4.4s | Train: skip eval | Valid: time=  0.2s loss=29.527, TAw acc= 34.4% | *
| Epoch   2, time=  4.3s | Train: skip eval | Valid: time=  0.2s loss=23.608, TAw acc= 62.5% | *
…
>>> Test on task  7 : loss=16.068 | TAw acc= 96.7%, forg=  0.0%| TAg acc= 79.2%, forg=  1.7% <<<
>>> Test on task  8 : loss=18.394 | TAw acc= 95.0%, forg=  0.0%| TAg acc= 84.2%, forg=  1.7% <<<
>>> Test on task  9 : loss=16.950 | TAw acc= 85.0%, forg=  0.0%| TAg acc= 65.0%, forg=  1.7% <<<
>>> Test on task 10 : loss=20.152 | TAw acc= 91.7%, forg=  0.0%| TAg acc= 71.7%, forg=  1.7% <<<
>>> Test on task 11 : loss=20.865 | TAw acc=100.0%, forg=  0.0%| TAg acc= 78.3%, forg=  0.0% <<<
>>> Test on task 12 : loss=21.449 | TAw acc= 96.7%, forg=  0.0%| TAg acc= 83.3%, forg=  0.0% <<<
Save at k=100/icarl_dsads_5/har_flex_icarl
======
LLL_Net(
  (model): SimpleMLP(
    (fc1): Linear(in_features=405, out_features=66, bias=True)
    (fc2): Sequential()
  )
  (heads): ModuleList(
    (0): Linear(in_features=66, out_features=12, bias=True)
    (1): Linear(in_features=66, out_features=10, bias=True)
    (2): Linear(in_features=66, out_features=10, bias=True)
    (3): Linear(in_features=66, out_features=10, bias=True)
    (4): Linear(in_features=66, out_features=10, bias=True)
    (5): Linear(in_features=66, out_features=10, bias=True)
    (6): Linear(in_features=66, out_features=10, bias=True)
    (7): Linear(in_features=66, out_features=10, bias=True)
    (8): Linear(in_features=66, out_features=10, bias=True)
    (9): Linear(in_features=66, out_features=10, bias=True)
    (10): Linear(in_features=66, out_features=10, bias=True)
    (11): Linear(in_features=66, out_features=10, bias=True)
    (12): Linear(in_features=66, out_features=10, bias=True)
  )
)
======

************************************************************************************************************
Task 13
************************************************************************************************************
| Epoch   1, time=  4.8s | Train: skip eval | Valid: time=  0.2s loss=32.292, TAw acc= 37.5% | *
| Epoch   2, time=  4.9s | Train: skip eval | Valid: time=  0.2s loss=27.500, TAw acc= 71.9% | *
…
>>> Test on task  8 : loss=18.058 | TAw acc= 95.0%, forg=  0.0%| TAg acc= 84.2%, forg=  1.7% <<<
>>> Test on task  9 : loss=16.667 | TAw acc= 85.0%, forg=  0.0%| TAg acc= 65.0%, forg=  1.7% <<<
>>> Test on task 10 : loss=19.751 | TAw acc= 91.7%, forg=  0.0%| TAg acc= 71.7%, forg=  1.7% <<<
>>> Test on task 11 : loss=20.377 | TAw acc=100.0%, forg=  0.0%| TAg acc= 78.3%, forg=  0.0% <<<
>>> Test on task 12 : loss=21.071 | TAw acc= 96.7%, forg=  0.0%| TAg acc= 82.5%, forg=  0.8% <<<
>>> Test on task 13 : loss=25.036 | TAw acc= 99.2%, forg=  0.0%| TAg acc= 89.2%, forg=  0.0% <<<
Save at k=100/icarl_dsads_5/har_flex_icarl
======
LLL_Net(
  (model): SimpleMLP(
    (fc1): Linear(in_features=405, out_features=66, bias=True)
    (fc2): Sequential()
  )
  (heads): ModuleList(
    (0): Linear(in_features=66, out_features=12, bias=True)
    (1): Linear(in_features=66, out_features=10, bias=True)
    (2): Linear(in_features=66, out_features=10, bias=True)
    (3): Linear(in_features=66, out_features=10, bias=True)
    (4): Linear(in_features=66, out_features=10, bias=True)
    (5): Linear(in_features=66, out_features=10, bias=True)
    (6): Linear(in_features=66, out_features=10, bias=True)
    (7): Linear(in_features=66, out_features=10, bias=True)
    (8): Linear(in_features=66, out_features=10, bias=True)
    (9): Linear(in_features=66, out_features=10, bias=True)
    (10): Linear(in_features=66, out_features=10, bias=True)
    (11): Linear(in_features=66, out_features=10, bias=True)
    (12): Linear(in_features=66, out_features=10, bias=True)
    (13): Linear(in_features=66, out_features=10, bias=True)
  )
)
======

************************************************************************************************************
Task 14
************************************************************************************************************
| Epoch   1, time=  5.6s | Train: skip eval | Valid: time=  0.2s loss=33.685, TAw acc= 29.2% | *
| Epoch   2, time=  5.2s | Train: skip eval | Valid: time=  0.2s loss=27.867, TAw acc= 63.5% | *
…
