…
| Selected 801 train exemplars, time=  0.0s
801
------------------------------------------------------------------------------------------------------------
>>> Test on task  0 : loss=2.103 | TAw acc= 85.6%, forg= -1.7%| TAg acc= 77.3%, forg=  0.6% <<<
>>> Test on task  1 : loss=2.773 | TAw acc= 83.2%, forg=  0.0%| TAg acc= 55.1%, forg= -9.3% <<<
>>> Test on task  2 : loss=2.980 | TAw acc= 81.6%, forg=-26.2%| TAg acc= 46.6%, forg= -6.8% <<<
>>> Test on task  3 : loss=2.880 | TAw acc= 55.4%, forg=  0.0%| TAg acc= 26.1%, forg=  0.0% <<<
Save at k=100/eeil_e20_wisdm_3/wisdm_flex_eeil
======
LLL_Net(
  (model): SimpleMLP(
    (fc1): Linear(in_features=91, out_features=1000, bias=True)
    (fc2): Sequential()
  )
  (heads): ModuleList(
    (0): Linear(in_features=1000, out_features=34, bias=True)
    (1): Linear(in_features=1000, out_features=20, bias=True)
    (2): Linear(in_features=1000, out_features=20, bias=True)
    (3): Linear(in_features=1000, out_features=20, bias=True)
  )
)
======

************************************************************************************************************
Task  4
************************************************************************************************************
| Epoch   1, time=  0.4s | Train: skip eval | Valid: time=  0.2s loss=5.081, TAw acc=  5.9% | *
| Epoch   2, time=  0.4s | Train: skip eval | Valid: time=  0.3s loss=5.064, TAw acc=  4.7% | *
…
------------------------------------------------------------------------------------------------------------
>>> Test on task  0 : loss=2.051 | TAw acc= 84.5%, forg=  1.1%| TAg acc= 76.2%, forg=  1.7% <<<
>>> Test on task  1 : loss=2.685 | TAw acc= 87.9%, forg= -4.7%| TAg acc= 62.6%, forg= -7.5% <<<
>>> Test on task  2 : loss=2.838 | TAw acc= 87.4%, forg= -5.8%| TAg acc= 48.5%, forg= -1.9% <<<
>>> Test on task  3 : loss=2.813 | TAw acc= 87.0%, forg=-31.5%| TAg acc= 29.3%, forg= -3.3% <<<
>>> Test on task  4 : loss=2.958 | TAw acc= 58.8%, forg=  0.0%| TAg acc= 36.0%, forg=  0.0% <<<
Save at k=100/eeil_e20_wisdm_3/wisdm_flex_eeil
======
LLL_Net(
  (model): SimpleMLP(
    (fc1): Linear(in_features=91, out_features=1000, bias=True)
    (fc2): Sequential()
  )
  (heads): ModuleList(
    (0): Linear(in_features=1000, out_features=34, bias=True)
    (1): Linear(in_features=1000, out_features=20, bias=True)
    (2): Linear(in_features=1000, out_features=20, bias=True)
    (3): Linear(in_features=1000, out_features=20, bias=True)
    (4): Linear(in_features=1000, out_features=20, bias=True)
  )
)
======

************************************************************************************************************
Task  5
************************************************************************************************************
| Epoch   1, time=  0.5s | Train: skip eval | Valid: time=  0.2s loss=5.138, TAw acc=  9.9% | *
| Epoch   2, time=  0.4s | Train: skip eval | Valid: time=  0.2s loss=5.129, TAw acc=  9.9% | *
…
>>> Test on task  0 : loss=1.891 | TAw acc= 85.6%, forg=  0.0%| TAg acc= 78.5%, forg= -0.6% <<<
>>> Test on task  1 : loss=2.560 | TAw acc= 89.7%, forg= -1.9%| TAg acc= 63.6%, forg= -0.9% <<<
>>> Test on task  2 : loss=2.642 | TAw acc= 90.3%, forg= -2.9%| TAg acc= 58.3%, forg= -9.7% <<<
>>> Test on task  3 : loss=2.615 | TAw acc= 88.0%, forg= -1.1%| TAg acc= 40.2%, forg=-10.9% <<<
>>> Test on task  4 : loss=2.893 | TAw acc= 77.2%, forg=-18.4%| TAg acc= 37.7%, forg= -1.8% <<<
>>> Test on task  5 : loss=3.566 | TAw acc= 53.6%, forg=  0.0%| TAg acc= 21.4%, forg=  0.0% <<<
Save at k=100/eeil_e20_wisdm_3/wisdm_flex_eeil
======
LLL_Net(
  (model): SimpleMLP(
    (fc1): Linear(in_features=91, out_features=1000, bias=True)
    (fc2): Sequential()
  )
  (heads): ModuleList(
    (0): Linear(in_features=1000, out_features=34, bias=True)
    (1): Linear(in_features=1000, out_features=20, bias=True)
    (2): Linear(in_features=1000, out_features=20, bias=True)
    (3): Linear(in_features=1000, out_features=20, bias=True)
    (4): Linear(in_features=1000, out_features=20, bias=True)
    (5): Linear(in_features=1000, out_features=20, bias=True)
  )
)
======

************************************************************************************************************
Task  6
************************************************************************************************************
| Epoch   1, time=  0.6s | Train: skip eval | Valid: time=  0.2s loss=5.521, TAw acc=  2.3% | *
| Epoch   2, time=  0.5s | Train: skip eval | Valid: time=  0.2s loss=5.499, TAw acc=  2.3% | *
…
>>> Test on task  1 : loss=2.426 | TAw acc= 90.7%, forg= -0.9%| TAg acc= 71.0%, forg= -7.5% <<<
>>> Test on task  2 : loss=2.464 | TAw acc= 90.3%, forg=  0.0%| TAg acc= 59.2%, forg= -1.0% <<<
>>> Test on task  3 : loss=2.473 | TAw acc= 89.1%, forg= -1.1%| TAg acc= 45.7%, forg= -5.4% <<<
>>> Test on task  4 : loss=2.767 | TAw acc= 86.0%, forg= -8.8%| TAg acc= 39.5%, forg= -1.8% <<<
>>> Test on task  5 : loss=3.618 | TAw acc= 78.6%, forg=-25.0%| TAg acc=  9.8%, forg= 11.6% <<<
>>> Test on task  6 : loss=3.088 | TAw acc= 63.8%, forg=  0.0%| TAg acc= 46.6%, forg=  0.0% <<<
Save at k=100/eeil_e20_wisdm_3/wisdm_flex_eeil
======
LLL_Net(
  (model): SimpleMLP(
    (fc1): Linear(in_features=91, out_features=1000, bias=True)
    (fc2): Sequential()
  )
  (heads): ModuleList(
    (0): Linear(in_features=1000, out_features=34, bias=True)
    (1): Linear(in_features=1000, out_features=20, bias=True)
    (2): Linear(in_features=1000, out_features=20, bias=True)
    (3): Linear(in_features=1000, out_features=20, bias=True)
    (4): Linear(in_features=1000, out_features=20, bias=True)
    (5): Linear(in_features=1000, out_features=20, bias=True)
    (6): Linear(in_features=1000, out_features=20, bias=True)
  )
)
======

************************************************************************************************************
Task  7
************************************************************************************************************
| Epoch   1, time=  0.6s | Train: skip eval | Valid: time=  0.2s loss=5.698, TAw acc= 17.5% | *
| Epoch   2, time=  0.6s | Train: skip eval | Valid: time=  0.3s loss=5.674, TAw acc= 17.5% | *
…
>>> Test on task  2 : loss=2.261 | TAw acc= 90.3%, forg=  0.0%| TAg acc= 60.2%, forg= -1.0% <<<
>>> Test on task  3 : loss=2.315 | TAw acc= 91.3%, forg= -2.2%| TAg acc= 48.9%, forg= -3.3% <<<
>>> Test on task  4 : loss=2.594 | TAw acc= 91.2%, forg= -5.3%| TAg acc= 41.2%, forg= -1.8% <<<
>>> Test on task  5 : loss=3.489 | TAw acc= 85.7%, forg= -7.1%| TAg acc=  8.9%, forg= 12.5% <<<
>>> Test on task  6 : loss=3.365 | TAw acc= 81.0%, forg=-17.2%| TAg acc= 11.2%, forg= 35.3% <<<
>>> Test on task  7 : loss=3.058 | TAw acc= 53.2%, forg=  0.0%| TAg acc= 38.5%, forg=  0.0% <<<
Save at k=100/eeil_e20_wisdm_3/wisdm_flex_eeil
======
LLL_Net(
  (model): SimpleMLP(
    (fc1): Linear(in_features=91, out_features=1000, bias=True)
    (fc2): Sequential()
  )
  (heads): ModuleList(
    (0): Linear(in_features=1000, out_features=34, bias=True)
    (1): Linear(in_features=1000, out_features=20, bias=True)
    (2): Linear(in_features=1000, out_features=20, bias=True)
    (3): Linear(in_features=1000, out_features=20, bias=True)
    (4): Linear(in_features=1000, out_features=20, bias=True)
    (5): Linear(in_features=1000, out_features=20, bias=True)
    (6): Linear(in_features=1000, out_features=20, bias=True)
    (7): Linear(in_features=1000, out_features=20, bias=True)
  )
)
======

************************************************************************************************************
Task  8
************************************************************************************************************
| Epoch   1, time=  0.7s | Train: skip eval | Valid: time=  0.2s loss=5.747, TAw acc=  7.4% | *
| Epoch   2, time=  0.6s | Train: skip eval | Valid: time=  0.2s loss=5.733, TAw acc=  8.6% | *
…
>>> Test on task  3 : loss=2.144 | TAw acc= 93.5%, forg= -2.2%| TAg acc= 55.4%, forg= -6.5% <<<
>>> Test on task  4 : loss=2.389 | TAw acc= 91.2%, forg=  0.0%| TAg acc= 51.8%, forg=-10.5% <<<
>>> Test on task  5 : loss=3.315 | TAw acc= 89.3%, forg= -3.6%| TAg acc= 15.2%, forg=  6.2% <<<
>>> Test on task  6 : loss=3.239 | TAw acc= 84.5%, forg= -3.4%| TAg acc= 15.5%, forg= 31.0% <<<
>>> Test on task  7 : loss=3.128 | TAw acc= 69.7%, forg=-16.5%| TAg acc= 23.9%, forg= 14.7% <<<
>>> Test on task  8 : loss=3.418 | TAw acc= 54.1%, forg=  0.0%| TAg acc= 23.9%, forg=  0.0% <<<
Save at k=100/eeil_e20_wisdm_3/wisdm_flex_eeil
======
LLL_Net(
  (model): SimpleMLP(
    (fc1): Linear(in_features=91, out_features=1000, bias=True)
    (fc2): Sequential()
  )
  (heads): ModuleList(
    (0): Linear(in_features=1000, out_features=34, bias=True)
    (1): Linear(in_features=1000, out_features=20, bias=True)
    (2): Linear(in_features=1000, out_features=20, bias=True)
    (3): Linear(in_features=1000, out_features=20, bias=True)
    (4): Linear(in_features=1000, out_features=20, bias=True)
    (5): Linear(in_features=1000, out_features=20, bias=True)
    (6): Linear(in_features=1000, out_features=20, bias=True)
    (7): Linear(in_features=1000, out_features=20, bias=True)
    (8): Linear(in_features=1000, out_features=20, bias=True)
  )
)
======

************************************************************************************************************
Task  9
************************************************************************************************************
| Epoch   1, time=  0.7s | Train: skip eval | Valid: time=  0.3s loss=6.580, TAw acc=  0.0% | *
| Epoch   2, time=  0.7s | Train: skip eval | Valid: time=  0.2s loss=6.546, TAw acc=  2.2% | *
…
>>> Test on task  4 : loss=2.311 | TAw acc= 93.0%, forg= -1.8%| TAg acc= 58.8%, forg= -7.0% <<<
>>> Test on task  5 : loss=3.143 | TAw acc= 92.0%, forg= -2.7%| TAg acc= 18.8%, forg=  2.7% <<<
>>> Test on task  6 : loss=3.157 | TAw acc= 89.7%, forg= -5.2%| TAg acc= 10.3%, forg= 36.2% <<<
>>> Test on task  7 : loss=3.133 | TAw acc= 78.0%, forg= -8.3%| TAg acc= 22.0%, forg= 16.5% <<<
>>> Test on task  8 : loss=3.508 | TAw acc= 76.1%, forg=-22.0%| TAg acc=  8.3%, forg= 15.6% <<<
>>> Test on task  9 : loss=2.375 | TAw acc= 74.6%, forg=  0.0%| TAg acc= 50.8%, forg=  0.0% <<<
Save at k=100/eeil_e20_wisdm_3/wisdm_flex_eeil
======
LLL_Net(
  (model): SimpleMLP(
    (fc1): Linear(in_features=91, out_features=1000, bias=True)
    (fc2): Sequential()
  )
  (heads): ModuleList(
    (0): Linear(in_features=1000, out_features=34, bias=True)
    (1): Linear(in_features=1000, out_features=20, bias=True)
    (2): Linear(in_features=1000, out_features=20, bias=True)
    (3): Linear(in_features=1000, out_features=20, bias=True)
    (4): Linear(in_features=1000, out_features=20, bias=True)
    (5): Linear(in_features=1000, out_features=20, bias=True)
    (6): Linear(in_features=1000, out_features=20, bias=True)
    (7): Linear(in_features=1000, out_features=20, bias=True)
    (8): Linear(in_features=1000, out_features=20, bias=True)
    (9): Linear(in_features=1000, out_features=20, bias=True)
  )
)
======

************************************************************************************************************
Task 10
************************************************************************************************************
| Epoch   1, time=  0.7s | Train: skip eval | Valid: time=  0.2s loss=6.567, TAw acc=  3.6% | *
| Epoch   2, time=  0.8s | Train: skip eval | Valid: time=  0.2s loss=6.538, TAw acc=  3.6% | *
…
>>> Test on task  5 : loss=2.928 | TAw acc= 94.6%, forg= -2.7%| TAg acc= 32.1%, forg=-10.7% <<<
>>> Test on task  6 : loss=2.957 | TAw acc= 90.5%, forg= -0.9%| TAg acc= 18.1%, forg= 28.4% <<<
>>> Test on task  7 : loss=2.923 | TAw acc= 84.4%, forg= -6.4%| TAg acc= 27.5%, forg= 11.0% <<<
>>> Test on task  8 : loss=3.265 | TAw acc= 84.4%, forg= -8.3%| TAg acc= 21.1%, forg=  2.8% <<<
>>> Test on task  9 : loss=2.661 | TAw acc= 85.6%, forg=-11.0%| TAg acc= 40.7%, forg= 10.2% <<<
>>> Test on task 10 : loss=3.208 | TAw acc= 51.3%, forg=  0.0%| TAg acc= 25.7%, forg=  0.0% <<<
Save at k=100/eeil_e20_wisdm_3/wisdm_flex_eeil
======
LLL_Net(
  (model): SimpleMLP(
    (fc1): Linear(in_features=91, out_features=1000, bias=True)
    (fc2): Sequential()
  )
  (heads): ModuleList(
    (0): Linear(in_features=1000, out_features=34, bias=True)
    (1): Linear(in_features=1000, out_features=20, bias=True)
    (2): Linear(in_features=1000, out_features=20, bias=True)
    (3): Linear(in_features=1000, out_features=20, bias=True)
    (4): Linear(in_features=1000, out_features=20, bias=True)
    (5): Linear(in_features=1000, out_features=20, bias=True)
    (6): Linear(in_features=1000, out_features=20, bias=True)
    (7): Linear(in_features=1000, out_features=20, bias=True)
    (8): Linear(in_features=1000, out_features=20, bias=True)
    (9): Linear(in_features=1000, out_features=20, bias=True)
    (10): Linear(in_features=1000, out_features=20, bias=True)
  )
)
======

************************************************************************************************************
Task 11
************************************************************************************************************
| Epoch   1, time=  0.8s | Train: skip eval | Valid: time=  0.2s loss=6.733, TAw acc=  8.4% | *
| Epoch   2, time=  0.8s | Train: skip eval | Valid: time=  0.2s loss=6.704, TAw acc=  8.4% | *
…
>>> Test on task  6 : loss=2.839 | TAw acc= 91.4%, forg= -0.9%| TAg acc= 19.8%, forg= 26.7% <<<
>>> Test on task  7 : loss=2.810 | TAw acc= 89.0%, forg= -4.6%| TAg acc= 33.9%, forg=  4.6% <<<
>>> Test on task  8 : loss=3.049 | TAw acc= 88.1%, forg= -3.7%| TAg acc= 22.0%, forg=  1.8% <<<
>>> Test on task  9 : loss=2.537 | TAw acc= 93.2%, forg= -7.6%| TAg acc= 39.0%, forg= 11.9% <<<
>>> Test on task 10 : loss=3.276 | TAw acc= 83.2%, forg=-31.9%| TAg acc= 16.8%, forg=  8.8% <<<
>>> Test on task 11 : loss=2.933 | TAw acc= 49.1%, forg=  0.0%| TAg acc= 35.7%, forg=  0.0% <<<
Save at k=100/eeil_e20_wisdm_3/wisdm_flex_eeil
======
LLL_Net(
  (model): SimpleMLP(
    (fc1): Linear(in_features=91, out_features=1000, bias=True)
    (fc2): Sequential()
  )
  (heads): ModuleList(
    (0): Linear(in_features=1000, out_features=34, bias=True)
    (1): Linear(in_features=1000, out_features=20, bias=True)
    (2): Linear(in_features=1000, out_features=20, bias=True)
    (3): Linear(in_features=1000, out_features=20, bias=True)
    (4): Linear(in_features=1000, out_features=20, bias=True)
    (5): Linear(in_features=1000, out_features=20, bias=True)
    (6): Linear(in_features=1000, out_features=20, bias=True)
    (7): Linear(in_features=1000, out_features=20, bias=True)
    (8): Linear(in_features=1000, out_features=20, bias=True)
    (9): Linear(in_features=1000, out_features=20, bias=True)
    (10): Linear(in_features=1000, out_features=20, bias=True)
    (11): Linear(in_features=1000, out_features=20, bias=True)
  )
)
======

************************************************************************************************************
Task 12
************************************************************************************************************
| Epoch   1, time=  0.9s | Train: skip eval | Valid: time=  0.2s loss=6.591, TAw acc=  7.5% | *
| Epoch   2, time=  0.9s | Train: skip eval | Valid: time=  0.2s loss=6.572, TAw acc=  9.0% | *
…
>>> Test on task  7 : loss=2.667 | TAw acc= 91.7%, forg= -2.8%| TAg acc= 41.3%, forg= -2.8% <<<
>>> Test on task  8 : loss=2.826 | TAw acc= 89.9%, forg= -1.8%| TAg acc= 26.6%, forg= -2.8% <<<
>>> Test on task  9 : loss=2.347 | TAw acc= 94.9%, forg= -1.7%| TAg acc= 40.7%, forg= 10.2% <<<
>>> Test on task 10 : loss=3.098 | TAw acc= 85.0%, forg= -1.8%| TAg acc= 19.5%, forg=  6.2% <<<
>>> Test on task 11 : loss=3.118 | TAw acc= 92.0%, forg=-42.9%| TAg acc= 19.6%, forg= 16.1% <<<
>>> Test on task 12 : loss=3.717 | TAw acc= 55.3%, forg=  0.0%| TAg acc=  6.4%, forg=  0.0% <<<
Save at k=100/eeil_e20_wisdm_3/wisdm_flex_eeil
======
LLL_Net(
  (model): SimpleMLP(
    (fc1): Linear(in_features=91, out_features=1000, bias=True)
    (fc2): Sequential()
  )
  (heads): ModuleList(
    (0): Linear(in_features=1000, out_features=34, bias=True)
    (1): Linear(in_features=1000, out_features=20, bias=True)
    (2): Linear(in_features=1000, out_features=20, bias=True)
    (3): Linear(in_features=1000, out_features=20, bias=True)
    (4): Linear(in_features=1000, out_features=20, bias=True)
    (5): Linear(in_features=1000, out_features=20, bias=True)
    (6): Linear(in_features=1000, out_features=20, bias=True)
    (7): Linear(in_features=1000, out_features=20, bias=True)
    (8): Linear(in_features=1000, out_features=20, bias=True)
    (9): Linear(in_features=1000, out_features=20, bias=True)
    (10): Linear(in_features=1000, out_features=20, bias=True)
    (11): Linear(in_features=1000, out_features=20, bias=True)
    (12): Linear(in_features=1000, out_features=20, bias=True)
  )
)
======

************************************************************************************************************
Task 13
************************************************************************************************************
| Epoch   1, time=  1.0s | Train: skip eval | Valid: time=  0.3s loss=6.583, TAw acc=  3.4% | *
| Epoch   2, time=  1.0s | Train: skip eval | Valid: time=  0.2s loss=6.563, TAw acc=  3.4% | *
…
>>> Test on task  8 : loss=2.653 | TAw acc= 91.7%, forg= -1.8%| TAg acc= 33.9%, forg= -7.3% <<<
>>> Test on task  9 : loss=2.208 | TAw acc= 95.8%, forg= -0.8%| TAg acc= 40.7%, forg= 10.2% <<<
>>> Test on task 10 : loss=2.898 | TAw acc= 90.3%, forg= -5.3%| TAg acc= 25.7%, forg=  0.0% <<<
>>> Test on task 11 : loss=2.984 | TAw acc= 96.4%, forg= -4.5%| TAg acc= 18.8%, forg= 17.0% <<<
>>> Test on task 12 : loss=3.648 | TAw acc= 85.1%, forg=-29.8%| TAg acc=  0.0%, forg=  6.4% <<<
>>> Test on task 13 : loss=3.525 | TAw acc= 66.7%, forg=  0.0%| TAg acc= 30.8%, forg=  0.0% <<<
Save at k=100/eeil_e20_wisdm_3/wisdm_flex_eeil
======
LLL_Net(
  (model): SimpleMLP(
    (fc1): Linear(in_features=91, out_features=1000, bias=True)
    (fc2): Sequential()
  )
  (heads): ModuleList(
    (0): Linear(in_features=1000, out_features=34, bias=True)
    (1): Linear(in_features=1000, out_features=20, bias=True)
    (2): Linear(in_features=1000, out_features=20, bias=True)
    (3): Linear(in_features=1000, out_features=20, bias=True)
    (4): Linear(in_features=1000, out_features=20, bias=True)
    (5): Linear(in_features=1000, out_features=20, bias=True)
    (6): Linear(in_features=1000, out_features=20, bias=True)
    (7): Linear(in_features=1000, out_features=20, bias=True)
    (8): Linear(in_features=1000, out_features=20, bias=True)
    (9): Linear(in_features=1000, out_features=20, bias=True)
    (10): Linear(in_features=1000, out_features=20, bias=True)
    (11): Linear(in_features=1000, out_features=20, bias=True)
    (12): Linear(in_features=1000, out_features=20, bias=True)
    (13): Linear(in_features=1000, out_features=20, bias=True)
  )
)
======

************************************************************************************************************
Task 14
************************************************************************************************************
| Epoch   1, time=  1.1s | Train: skip eval | Valid: time=  0.2s loss=7.184, TAw acc=  0.0% | *
| Epoch   2, time=  1.0s | Train: skip eval | Valid: time=  0.2s loss=7.150, TAw acc=  0.0% | *
…
>>> Test on task  9 : loss=2.076 | TAw acc= 95.8%, forg=  0.0%| TAg acc= 38.1%, forg= 12.7% <<<
>>> Test on task 10 : loss=2.754 | TAw acc= 91.2%, forg= -0.9%| TAg acc= 27.4%, forg= -1.8% <<<
>>> Test on task 11 : loss=2.816 | TAw acc= 94.6%, forg=  1.8%| TAg acc= 22.3%, forg= 13.4% <<<
>>> Test on task 12 : loss=3.424 | TAw acc= 94.7%, forg= -9.6%| TAg acc=  4.3%, forg=  2.1% <<<
>>> Test on task 13 : loss=3.714 | TAw acc= 89.7%, forg=-23.1%| TAg acc=  0.0%, forg= 30.8% <<<
>>> Test on task 14 : loss=3.003 | TAw acc= 70.2%, forg=  0.0%| TAg acc= 29.8%, forg=  0.0% <<<
Save at k=100/eeil_e20_wisdm_3/wisdm_flex_eeil
======
LLL_Net(
  (model): SimpleMLP(
    (fc1): Linear(in_features=91, out_features=1000, bias=True)
    (fc2): Sequential()
  )
  (heads): ModuleList(
    (0): Linear(in_features=1000, out_features=34, bias=True)
    (1): Linear(in_features=1000, out_features=20, bias=True)
    (2): Linear(in_features=1000, out_features=20, bias=True)
    (3): Linear(in_features=1000, out_features=20, bias=True)
    (4): Linear(in_features=1000, out_features=20, bias=True)
    (5): Linear(in_features=1000, out_features=20, bias=True)
    (6): Linear(in_features=1000, out_features=20, bias=True)
    (7): Linear(in_features=1000, out_features=20, bias=True)
    (8): Linear(in_features=1000, out_features=20, bias=True)
    (9): Linear(in_features=1000, out_features=20, bias=True)
    (10): Linear(in_features=1000, out_features=20, bias=True)
    (11): Linear(in_features=1000, out_features=20, bias=True)
    (12): Linear(in_features=1000, out_features=20, bias=True)
    (13): Linear(in_features=1000, out_features=20, bias=True)
    (14): Linear(in_features=1000, out_features=20, bias=True)
  )
)
======

************************************************************************************************************
Task 15
************************************************************************************************************
| Epoch   1, time=  1.1s | Train: skip eval | Valid: time=  0.3s loss=6.908, TAw acc=  8.1% | *
| Epoch   2, time=  1.1s | Train: skip eval | Valid: time=  0.2s loss=6.888, TAw acc=  8.1% | *
…
>>> Test on task 10 : loss=2.612 | TAw acc= 91.2%, forg=  0.0%| TAg acc= 32.7%, forg= -5.3% <<<
>>> Test on task 11 : loss=2.663 | TAw acc= 92.0%, forg=  4.5%| TAg acc= 28.6%, forg=  7.1% <<<
>>> Test on task 12 : loss=3.210 | TAw acc= 94.7%, forg=  0.0%| TAg acc=  6.4%, forg=  0.0% <<<
>>> Test on task 13 : loss=3.535 | TAw acc= 95.7%, forg= -6.0%| TAg acc=  6.8%, forg= 23.9% <<<
>>> Test on task 14 : loss=3.179 | TAw acc= 89.5%, forg=-19.3%| TAg acc=  8.8%, forg= 21.1% <<<
>>> Test on task 15 : loss=3.451 | TAw acc= 59.8%, forg=  0.0%| TAg acc= 23.5%, forg=  0.0% <<<
Save at k=100/eeil_e20_wisdm_3/wisdm_flex_eeil
======
LLL_Net(
  (model): SimpleMLP(
    (fc1): Linear(in_features=91, out_features=1000, bias=True)
    (fc2): Sequential()
  )
  (heads): ModuleList(
    (0): Linear(in_features=1000, out_features=34, bias=True)
    (1): Linear(in_features=1000, out_features=20, bias=True)
    (2): Linear(in_features=1000, out_features=20, bias=True)
    (3): Linear(in_features=1000, out_features=20, bias=True)
    (4): Linear(in_features=1000, out_features=20, bias=True)
    (5): Linear(in_features=1000, out_features=20, bias=True)
    (6): Linear(in_features=1000, out_features=20, bias=True)
    (7): Linear(in_features=1000, out_features=20, bias=True)
    (8): Linear(in_features=1000, out_features=20, bias=True)
    (9): Linear(in_features=1000, out_features=20, bias=True)
    (10): Linear(in_features=1000, out_features=20, bias=True)
    (11): Linear(in_features=1000, out_features=20, bias=True)
    (12): Linear(in_features=1000, out_features=20, bias=True)
    (13): Linear(in_features=1000, out_features=20, bias=True)
    (14): Linear(in_features=1000, out_features=20, bias=True)
    (15): Linear(in_features=1000, out_features=20, bias=True)
  )
)
======

************************************************************************************************************
Task 16
************************************************************************************************************
| Epoch   1, time=  1.2s | Train: skip eval | Valid: time=  0.2s loss=7.665, TAw acc= 15.3% | *
| Epoch   2, time=  1.2s | Train: skip eval | Valid: time=  0.2s loss=7.620, TAw acc= 17.6% | *
…
>>> Test on task 11 : loss=2.587 | TAw acc= 92.0%, forg=  4.5%| TAg acc= 25.9%, forg=  9.8% <<<
>>> Test on task 12 : loss=3.050 | TAw acc= 94.7%, forg=  0.0%| TAg acc=  6.4%, forg=  0.0% <<<
>>> Test on task 13 : loss=3.345 | TAw acc= 96.6%, forg= -0.9%| TAg acc=  8.5%, forg= 22.2% <<<
>>> Test on task 14 : loss=3.034 | TAw acc= 93.0%, forg= -3.5%| TAg acc=  8.8%, forg= 21.1% <<<
>>> Test on task 15 : loss=3.465 | TAw acc= 82.4%, forg=-22.5%| TAg acc=  4.9%, forg= 18.6% <<<
>>> Test on task 16 : loss=2.875 | TAw acc= 75.4%, forg=  0.0%| TAg acc= 42.1%, forg=  0.0% <<<
Save at k=100/eeil_e20_wisdm_3/wisdm_flex_eeil
======
LLL_Net(
  (model): SimpleMLP(
    (fc1): Linear(in_features=91, out_features=1000, bias=True)
    (fc2): Sequential()
  )
  (heads): ModuleList(
    (0): Linear(in_features=1000, out_features=34, bias=True)
    (1): Linear(in_features=1000, out_features=20, bias=True)
    (2): Linear(in_features=1000, out_features=20, bias=True)
    (3): Linear(in_features=1000, out_features=20, bias=True)
    (4): Linear(in_features=1000, out_features=20, bias=True)
    (5): Linear(in_features=1000, out_features=20, bias=True)
    (6): Linear(in_features=1000, out_features=20, bias=True)
    (7): Linear(in_features=1000, out_features=20, bias=True)
    (8): Linear(in_features=1000, out_features=20, bias=True)
    (9): Linear(in_features=1000, out_features=20, bias=True)
    (10): Linear(in_features=1000, out_features=20, bias=True)
    (11): Linear(in_features=1000, out_features=20, bias=True)
    (12): Linear(in_features=1000, out_features=20, bias=True)
    (13): Linear(in_features=1000, out_features=20, bias=True)
    (14): Linear(in_features=1000, out_features=20, bias=True)
    (15): Linear(in_features=1000, out_features=20, bias=True)
    (16): Linear(in_features=1000, out_features=20, bias=True)
  )
)
======

************************************************************************************************************
Task 17
************************************************************************************************************
| Epoch   1, time=  1.3s | Train: skip eval | Valid: time=  0.3s loss=7.621, TAw acc=  8.1% | *
| Epoch   2, time=  1.4s | Train: skip eval | Valid: time=  0.2s loss=7.580, TAw acc= 10.8% | *
…
>>> Test on task 12 : loss=2.849 | TAw acc= 94.7%, forg=  0.0%| TAg acc= 11.7%, forg= -5.3% <<<
>>> Test on task 13 : loss=3.165 | TAw acc= 97.4%, forg= -0.9%| TAg acc= 14.5%, forg= 16.2% <<<
>>> Test on task 14 : loss=2.859 | TAw acc= 92.1%, forg=  0.9%| TAg acc=  8.8%, forg= 21.1% <<<
>>> Test on task 15 : loss=3.210 | TAw acc= 92.2%, forg= -9.8%| TAg acc=  7.8%, forg= 15.7% <<<
>>> Test on task 16 : loss=3.248 | TAw acc= 93.0%, forg=-17.5%| TAg acc=  5.3%, forg= 36.8% <<<
>>> Test on task 17 : loss=3.103 | TAw acc= 65.7%, forg=  0.0%| TAg acc= 41.2%, forg=  0.0% <<<
Save at k=100/eeil_e20_wisdm_3/wisdm_flex_eeil
======
LLL_Net(
  (model): SimpleMLP(
    (fc1): Linear(in_features=91, out_features=1000, bias=True)
    (fc2): Sequential()
  )
  (heads): ModuleList(
    (0): Linear(in_features=1000, out_features=34, bias=True)
    (1): Linear(in_features=1000, out_features=20, bias=True)
    (2): Linear(in_features=1000, out_features=20, bias=True)
    (3): Linear(in_features=1000, out_features=20, bias=True)
    (4): Linear(in_features=1000, out_features=20, bias=True)
    (5): Linear(in_features=1000, out_features=20, bias=True)
    (6): Linear(in_features=1000, out_features=20, bias=True)
    (7): Linear(in_features=1000, out_features=20, bias=True)
    (8): Linear(in_features=1000, out_features=20, bias=True)
    (9): Linear(in_features=1000, out_features=20, bias=True)
    (10): Linear(in_features=1000, out_features=20, bias=True)
    (11): Linear(in_features=1000, out_features=20, bias=True)
    (12): Linear(in_features=1000, out_features=20, bias=True)
    (13): Linear(in_features=1000, out_features=20, bias=True)
    (14): Linear(in_features=1000, out_features=20, bias=True)
    (15): Linear(in_features=1000, out_features=20, bias=True)
    (16): Linear(in_features=1000, out_features=20, bias=True)
    (17): Linear(in_features=1000, out_features=20, bias=True)
  )
)
======

************************************************************************************************************
Task 18
************************************************************************************************************
| Epoch   1, time=  1.4s | Train: skip eval | Valid: time=  0.2s loss=8.062, TAw acc=  4.4% | *
| Epoch   2, time=  1.4s | Train: skip eval | Valid: time=  0.2s loss=8.021, TAw acc=  4.4% | *
…
>>> Test on task 13 : loss=2.950 | TAw acc= 97.4%, forg=  0.0%| TAg acc= 22.2%, forg=  8.5% <<<
>>> Test on task 14 : loss=2.713 | TAw acc= 93.0%, forg=  0.0%| TAg acc=  9.6%, forg= 20.2% <<<
>>> Test on task 15 : loss=2.955 | TAw acc= 94.1%, forg= -2.0%| TAg acc= 12.7%, forg= 10.8% <<<
>>> Test on task 16 : loss=3.009 | TAw acc= 97.4%, forg= -4.4%| TAg acc=  7.9%, forg= 34.2% <<<
>>> Test on task 17 : loss=3.337 | TAw acc= 87.3%, forg=-21.6%| TAg acc= 12.7%, forg= 28.4% <<<
>>> Test on task 18 : loss=3.220 | TAw acc= 68.4%, forg=  0.0%| TAg acc= 23.2%, forg=  0.0% <<<
Save at k=100/eeil_e20_wisdm_3/wisdm_flex_eeil
======
LLL_Net(
  (model): SimpleMLP(
    (fc1): Linear(in_features=91, out_features=1000, bias=True)
    (fc2): Sequential()
  )
  (heads): ModuleList(
    (0): Linear(in_features=1000, out_features=34, bias=True)
    (1): Linear(in_features=1000, out_features=20, bias=True)
    (2): Linear(in_features=1000, out_features=20, bias=True)
    (3): Linear(in_features=1000, out_features=20, bias=True)
    (4): Linear(in_features=1000, out_features=20, bias=True)
    (5): Linear(in_features=1000, out_features=20, bias=True)
    (6): Linear(in_features=1000, out_features=20, bias=True)
    (7): Linear(in_features=1000, out_features=20, bias=True)
    (8): Linear(in_features=1000, out_features=20, bias=True)
    (9): Linear(in_features=1000, out_features=20, bias=True)
    (10): Linear(in_features=1000, out_features=20, bias=True)
    (11): Linear(in_features=1000, out_features=20, bias=True)
    (12): Linear(in_features=1000, out_features=20, bias=True)
    (13): Linear(in_features=1000, out_features=20, bias=True)
    (14): Linear(in_features=1000, out_features=20, bias=True)
    (15): Linear(in_features=1000, out_features=20, bias=True)
    (16): Linear(in_features=1000, out_features=20, bias=True)
    (17): Linear(in_features=1000, out_features=20, bias=True)
    (18): Linear(in_features=1000, out_features=20, bias=True)
  )
)
======

************************************************************************************************************
Task 19
************************************************************************************************************
| Epoch   1, time=  1.4s | Train: skip eval | Valid: time=  0.2s loss=8.012, TAw acc=  0.0% | *
| Epoch   2, time=  1.6s | Train: skip eval | Valid: time=  0.2s loss=7.982, TAw acc=  0.0% | *
…
>>> Test on task 14 : loss=2.606 | TAw acc= 93.0%, forg=  0.0%| TAg acc= 11.4%, forg= 18.4% <<<
>>> Test on task 15 : loss=2.773 | TAw acc= 96.1%, forg= -2.0%| TAg acc= 16.7%, forg=  6.9% <<<
>>> Test on task 16 : loss=2.836 | TAw acc= 98.2%, forg= -0.9%| TAg acc= 11.4%, forg= 30.7% <<<
>>> Test on task 17 : loss=3.089 | TAw acc= 92.2%, forg= -4.9%| TAg acc= 17.6%, forg= 23.5% <<<
>>> Test on task 18 : loss=3.118 | TAw acc= 89.5%, forg=-21.1%| TAg acc= 14.7%, forg=  8.4% <<<
>>> Test on task 19 : loss=3.307 | TAw acc= 68.5%, forg=  0.0%| TAg acc= 23.1%, forg=  0.0% <<<
Save at k=100/eeil_e20_wisdm_3/wisdm_flex_eeil
======
LLL_Net(
  (model): SimpleMLP(
    (fc1): Linear(in_features=91, out_features=1000, bias=True)
    (fc2): Sequential()
  )
  (heads): ModuleList(
    (0): Linear(in_features=1000, out_features=34, bias=True)
    (1): Linear(in_features=1000, out_features=20, bias=True)
    (2): Linear(in_features=1000, out_features=20, bias=True)
    (3): Linear(in_features=1000, out_features=20, bias=True)
    (4): Linear(in_features=1000, out_features=20, bias=True)
    (5): Linear(in_features=1000, out_features=20, bias=True)
    (6): Linear(in_features=1000, out_features=20, bias=True)
    (7): Linear(in_features=1000, out_features=20, bias=True)
    (8): Linear(in_features=1000, out_features=20, bias=True)
    (9): Linear(in_features=1000, out_features=20, bias=True)
    (10): Linear(in_features=1000, out_features=20, bias=True)
    (11): Linear(in_features=1000, out_features=20, bias=True)
    (12): Linear(in_features=1000, out_features=20, bias=True)
    (13): Linear(in_features=1000, out_features=20, bias=True)
    (14): Linear(in_features=1000, out_features=20, bias=True)
    (15): Linear(in_features=1000, out_features=20, bias=True)
    (16): Linear(in_features=1000, out_features=20, bias=True)
    (17): Linear(in_features=1000, out_features=20, bias=True)
    (18): Linear(in_features=1000, out_features=20, bias=True)
    (19): Linear(in_features=1000, out_features=20, bias=True)
  )
)
======

************************************************************************************************************
Task 20
************************************************************************************************************
| Epoch   1, time=  1.6s | Train: skip eval | Valid: time=  0.2s loss=8.084, TAw acc= 10.2% | *
| Epoch   2, time=  1.5s | Train: skip eval | Valid: time=  0.2s loss=8.040, TAw acc= 10.2% | *
…
>>> Test on task 15 : loss=2.578 | TAw acc= 96.1%, forg=  0.0%| TAg acc= 25.5%, forg= -2.0% <<<
>>> Test on task 16 : loss=2.677 | TAw acc= 98.2%, forg=  0.0%| TAg acc= 14.0%, forg= 28.1% <<<
>>> Test on task 17 : loss=2.891 | TAw acc= 93.1%, forg= -1.0%| TAg acc= 25.5%, forg= 15.7% <<<
>>> Test on task 18 : loss=2.881 | TAw acc= 91.6%, forg= -2.1%| TAg acc= 24.2%, forg= -1.1% <<<
>>> Test on task 19 : loss=3.329 | TAw acc= 83.3%, forg=-14.8%| TAg acc= 10.2%, forg= 13.0% <<<
>>> Test on task 20 : loss=2.619 | TAw acc= 81.4%, forg=  0.0%| TAg acc= 45.8%, forg=  0.0% <<<
Save at k=100/eeil_e20_wisdm_3/wisdm_flex_eeil
======
LLL_Net(
  (model): SimpleMLP(
    (fc1): Linear(in_features=91, out_features=1000, bias=True)
    (fc2): Sequential()
  )
  (heads): ModuleList(
    (0): Linear(in_features=1000, out_features=34, bias=True)
    (1): Linear(in_features=1000, out_features=20, bias=True)
    (2): Linear(in_features=1000, out_features=20, bias=True)
    (3): Linear(in_features=1000, out_features=20, bias=True)
    (4): Linear(in_features=1000, out_features=20, bias=True)
    (5): Linear(in_features=1000, out_features=20, bias=True)
    (6): Linear(in_features=1000, out_features=20, bias=True)
    (7): Linear(in_features=1000, out_features=20, bias=True)
    (8): Linear(in_features=1000, out_features=20, bias=True)
    (9): Linear(in_features=1000, out_features=20, bias=True)
    (10): Linear(in_features=1000, out_features=20, bias=True)
    (11): Linear(in_features=1000, out_features=20, bias=True)
    (12): Linear(in_features=1000, out_features=20, bias=True)
    (13): Linear(in_features=1000, out_features=20, bias=True)
    (14): Linear(in_features=1000, out_features=20, bias=True)
    (15): Linear(in_features=1000, out_features=20, bias=True)
    (16): Linear(in_features=1000, out_features=20, bias=True)
    (17): Linear(in_features=1000, out_features=20, bias=True)
    (18): Linear(in_features=1000, out_features=20, bias=True)
    (19): Linear(in_features=1000, out_features=20, bias=True)
    (20): Linear(in_features=1000, out_features=20, bias=True)
  )
)
======

************************************************************************************************************
Task 21
************************************************************************************************************
| Epoch   1, time=  1.7s | Train: skip eval | Valid: time=  0.2s loss=8.337, TAw acc=  3.6% | *
| Epoch   2, time=  1.7s | Train: skip eval | Valid: time=  0.3s loss=8.293, TAw acc=  3.6% | *
…
>>> Test on task 16 : loss=2.514 | TAw acc= 98.2%, forg=  0.0%| TAg acc= 16.7%, forg= 25.4% <<<
>>> Test on task 17 : loss=2.734 | TAw acc= 94.1%, forg= -1.0%| TAg acc= 36.3%, forg=  4.9% <<<
>>> Test on task 18 : loss=2.654 | TAw acc= 93.7%, forg= -2.1%| TAg acc= 29.5%, forg= -5.3% <<<
>>> Test on task 19 : loss=3.113 | TAw acc= 91.7%, forg= -8.3%| TAg acc= 13.0%, forg= 10.2% <<<
>>> Test on task 20 : loss=2.929 | TAw acc= 92.4%, forg=-11.0%| TAg acc= 19.5%, forg= 26.3% <<<
>>> Test on task 21 : loss=3.113 | TAw acc= 67.9%, forg=  0.0%| TAg acc= 42.0%, forg=  0.0% <<<
Save at k=100/eeil_e20_wisdm_3/wisdm_flex_eeil
======
LLL_Net(
  (model): SimpleMLP(
    (fc1): Linear(in_features=91, out_features=1000, bias=True)
    (fc2): Sequential()
  )
  (heads): ModuleList(
    (0): Linear(in_features=1000, out_features=34, bias=True)
    (1): Linear(in_features=1000, out_features=20, bias=True)
    (2): Linear(in_features=1000, out_features=20, bias=True)
    (3): Linear(in_features=1000, out_features=20, bias=True)
    (4): Linear(in_features=1000, out_features=20, bias=True)
    (5): Linear(in_features=1000, out_features=20, bias=True)
    (6): Linear(in_features=1000, out_features=20, bias=True)
    (7): Linear(in_features=1000, out_features=20, bias=True)
    (8): Linear(in_features=1000, out_features=20, bias=True)
    (9): Linear(in_features=1000, out_features=20, bias=True)
    (10): Linear(in_features=1000, out_features=20, bias=True)
    (11): Linear(in_features=1000, out_features=20, bias=True)
    (12): Linear(in_features=1000, out_features=20, bias=True)
    (13): Linear(in_features=1000, out_features=20, bias=True)
    (14): Linear(in_features=1000, out_features=20, bias=True)
    (15): Linear(in_features=1000, out_features=20, bias=True)
    (16): Linear(in_features=1000, out_features=20, bias=True)
    (17): Linear(in_features=1000, out_features=20, bias=True)
    (18): Linear(in_features=1000, out_features=20, bias=True)
    (19): Linear(in_features=1000, out_features=20, bias=True)
    (20): Linear(in_features=1000, out_features=20, bias=True)
    (21): Linear(in_features=1000, out_features=20, bias=True)
  )
)
======

************************************************************************************************************
Task 22
************************************************************************************************************
| Epoch   1, time=  1.8s | Train: skip eval | Valid: time=  0.3s loss=8.553, TAw acc= 10.3% | *
| Epoch   2, time=  2.0s | Train: skip eval | Valid: time=  0.3s loss=8.505, TAw acc= 10.3% | *
…
>>> Test on task 17 : loss=2.604 | TAw acc= 94.1%, forg=  0.0%| TAg acc= 34.3%, forg=  6.9% <<<
>>> Test on task 18 : loss=2.496 | TAw acc= 95.8%, forg= -2.1%| TAg acc= 28.4%, forg=  1.1% <<<
>>> Test on task 19 : loss=2.886 | TAw acc= 95.4%, forg= -3.7%| TAg acc= 13.9%, forg=  9.3% <<<
>>> Test on task 20 : loss=2.741 | TAw acc= 96.6%, forg= -4.2%| TAg acc= 23.7%, forg= 22.0% <<<
>>> Test on task 21 : loss=3.329 | TAw acc= 92.0%, forg=-24.1%| TAg acc=  5.4%, forg= 36.6% <<<
>>> Test on task 22 : loss=2.910 | TAw acc= 70.1%, forg=  0.0%| TAg acc= 43.0%, forg=  0.0% <<<
Save at k=100/eeil_e20_wisdm_3/wisdm_flex_eeil
======
LLL_Net(
  (model): SimpleMLP(
    (fc1): Linear(in_features=91, out_features=1000, bias=True)
    (fc2): Sequential()
  )
  (heads): ModuleList(
    (0): Linear(in_features=1000, out_features=34, bias=True)
    (1): Linear(in_features=1000, out_features=20, bias=True)
    (2): Linear(in_features=1000, out_features=20, bias=True)
    (3): Linear(in_features=1000, out_features=20, bias=True)
    (4): Linear(in_features=1000, out_features=20, bias=True)
    (5): Linear(in_features=1000, out_features=20, bias=True)
    (6): Linear(in_features=1000, out_features=20, bias=True)
    (7): Linear(in_features=1000, out_features=20, bias=True)
    (8): Linear(in_features=1000, out_features=20, bias=True)
    (9): Linear(in_features=1000, out_features=20, bias=True)
    (10): Linear(in_features=1000, out_features=20, bias=True)
    (11): Linear(in_features=1000, out_features=20, bias=True)
    (12): Linear(in_features=1000, out_features=20, bias=True)
    (13): Linear(in_features=1000, out_features=20, bias=True)
    (14): Linear(in_features=1000, out_features=20, bias=True)
    (15): Linear(in_features=1000, out_features=20, bias=True)
    (16): Linear(in_features=1000, out_features=20, bias=True)
    (17): Linear(in_features=1000, out_features=20, bias=True)
    (18): Linear(in_features=1000, out_features=20, bias=True)
    (19): Linear(in_features=1000, out_features=20, bias=True)
    (20): Linear(in_features=1000, out_features=20, bias=True)
    (21): Linear(in_features=1000, out_features=20, bias=True)
    (22): Linear(in_features=1000, out_features=20, bias=True)
  )
)
======

************************************************************************************************************
Task 23
************************************************************************************************************
| Epoch   1, time=  1.9s | Train: skip eval | Valid: time=  0.2s loss=8.506, TAw acc= 20.0% | *
| Epoch   2, time=  1.9s | Train: skip eval | Valid: time=  0.2s loss=8.468, TAw acc= 21.5% | *
…
>>> Test on task 18 : loss=2.333 | TAw acc= 97.9%, forg= -2.1%| TAg acc= 34.7%, forg= -5.3% <<<
>>> Test on task 19 : loss=2.644 | TAw acc= 93.5%, forg=  1.9%| TAg acc= 18.5%, forg=  4.6% <<<
>>> Test on task 20 : loss=2.560 | TAw acc= 96.6%, forg=  0.0%| TAg acc= 30.5%, forg= 15.3% <<<
>>> Test on task 21 : loss=3.040 | TAw acc= 97.3%, forg= -5.4%| TAg acc= 18.8%, forg= 23.2% <<<
>>> Test on task 22 : loss=3.163 | TAw acc= 89.7%, forg=-19.6%| TAg acc=  7.5%, forg= 35.5% <<<
>>> Test on task 23 : loss=3.810 | TAw acc= 57.1%, forg=  0.0%| TAg acc= 25.3%, forg=  0.0% <<<
Save at k=100/eeil_e20_wisdm_3/wisdm_flex_eeil
======
LLL_Net(
  (model): SimpleMLP(
    (fc1): Linear(in_features=91, out_features=1000, bias=True)
    (fc2): Sequential()
  )
  (heads): ModuleList(
    (0): Linear(in_features=1000, out_features=34, bias=True)
    (1): Linear(in_features=1000, out_features=20, bias=True)
    (2): Linear(in_features=1000, out_features=20, bias=True)
    (3): Linear(in_features=1000, out_features=20, bias=True)
    (4): Linear(in_features=1000, out_features=20, bias=True)
    (5): Linear(in_features=1000, out_features=20, bias=True)
    (6): Linear(in_features=1000, out_features=20, bias=True)
    (7): Linear(in_features=1000, out_features=20, bias=True)
    (8): Linear(in_features=1000, out_features=20, bias=True)
    (9): Linear(in_features=1000, out_features=20, bias=True)
    (10): Linear(in_features=1000, out_features=20, bias=True)
    (11): Linear(in_features=1000, out_features=20, bias=True)
    (12): Linear(in_features=1000, out_features=20, bias=True)
    (13): Linear(in_features=1000, out_features=20, bias=True)
    (14): Linear(in_features=1000, out_features=20, bias=True)
    (15): Linear(in_features=1000, out_features=20, bias=True)
    (16): Linear(in_features=1000, out_features=20, bias=True)
    (17): Linear(in_features=1000, out_features=20, bias=True)
    (18): Linear(in_features=1000, out_features=20, bias=True)
    (19): Linear(in_features=1000, out_features=20, bias=True)
    (20): Linear(in_features=1000, out_features=20, bias=True)
    (21): Linear(in_features=1000, out_features=20, bias=True)
    (22): Linear(in_features=1000, out_features=20, bias=True)
    (23): Linear(in_features=1000, out_features=20, bias=True)
  )
)
======

************************************************************************************************************
Task 24
************************************************************************************************************
| Epoch   1, time=  2.0s | Train: skip eval | Valid: time=  0.2s loss=8.971, TAw acc= 10.7% | *
| Epoch   2, time=  2.1s | Train: skip eval | Valid: time=  0.3s loss=8.910, TAw acc= 10.7% | *
…
>>> Test on task 19 : loss=2.553 | TAw acc= 90.7%, forg=  4.6%| TAg acc= 18.5%, forg=  4.6% <<<
>>> Test on task 20 : loss=2.394 | TAw acc= 94.9%, forg=  1.7%| TAg acc= 39.0%, forg=  6.8% <<<
>>> Test on task 21 : loss=2.904 | TAw acc= 98.2%, forg= -0.9%| TAg acc= 17.0%, forg= 25.0% <<<
>>> Test on task 22 : loss=3.075 | TAw acc= 91.6%, forg= -1.9%| TAg acc=  8.4%, forg= 34.6% <<<
>>> Test on task 23 : loss=3.684 | TAw acc= 87.9%, forg=-30.8%| TAg acc=  2.2%, forg= 23.1% <<<
>>> Test on task 24 : loss=3.188 | TAw acc= 69.9%, forg=  0.0%| TAg acc= 34.0%, forg=  0.0% <<<
Save at k=100/eeil_e20_wisdm_3/wisdm_flex_eeil
======
LLL_Net(
  (model): SimpleMLP(
    (fc1): Linear(in_features=91, out_features=1000, bias=True)
    (fc2): Sequential()
  )
  (heads): ModuleList(
    (0): Linear(in_features=1000, out_features=34, bias=True)
    (1): Linear(in_features=1000, out_features=20, bias=True)
    (2): Linear(in_features=1000, out_features=20, bias=True)
    (3): Linear(in_features=1000, out_features=20, bias=True)
    (4): Linear(in_features=1000, out_features=20, bias=True)
    (5): Linear(in_features=1000, out_features=20, bias=True)
    (6): Linear(in_features=1000, out_features=20, bias=True)
    (7): Linear(in_features=1000, out_features=20, bias=True)
    (8): Linear(in_features=1000, out_features=20, bias=True)
    (9): Linear(in_features=1000, out_features=20, bias=True)
    (10): Linear(in_features=1000, out_features=20, bias=True)
    (11): Linear(in_features=1000, out_features=20, bias=True)
    (12): Linear(in_features=1000, out_features=20, bias=True)
    (13): Linear(in_features=1000, out_features=20, bias=True)
    (14): Linear(in_features=1000, out_features=20, bias=True)
    (15): Linear(in_features=1000, out_features=20, bias=True)
    (16): Linear(in_features=1000, out_features=20, bias=True)
    (17): Linear(in_features=1000, out_features=20, bias=True)
    (18): Linear(in_features=1000, out_features=20, bias=True)
    (19): Linear(in_features=1000, out_features=20, bias=True)
    (20): Linear(in_features=1000, out_features=20, bias=True)
    (21): Linear(in_features=1000, out_features=20, bias=True)
    (22): Linear(in_features=1000, out_features=20, bias=True)
    (23): Linear(in_features=1000, out_features=20, bias=True)
    (24): Linear(in_features=1000, out_features=20, bias=True)
  )
)
======

************************************************************************************************************
Task 25
************************************************************************************************************
| Epoch   1, time=  2.2s | Train: skip eval | Valid: time=  0.2s loss=9.220, TAw acc=  1.4% | *
| Epoch   2, time=  2.3s | Train: skip eval | Valid: time=  0.2s loss=9.170, TAw acc=  1.4% | *
…
>>> Test on task 20 : loss=2.255 | TAw acc= 94.9%, forg=  1.7%| TAg acc= 40.7%, forg=  5.1% <<<
>>> Test on task 21 : loss=2.706 | TAw acc= 99.1%, forg= -0.9%| TAg acc= 25.9%, forg= 16.1% <<<
>>> Test on task 22 : loss=2.842 | TAw acc= 91.6%, forg=  0.0%| TAg acc= 11.2%, forg= 31.8% <<<
>>> Test on task 23 : loss=3.496 | TAw acc= 89.0%, forg= -1.1%| TAg acc=  3.3%, forg= 22.0% <<<
>>> Test on task 24 : loss=3.271 | TAw acc= 84.5%, forg=-14.6%| TAg acc= 23.3%, forg= 10.7% <<<
>>> Test on task 25 : loss=3.379 | TAw acc= 55.1%, forg=  0.0%| TAg acc= 17.3%, forg=  0.0% <<<
Save at k=100/eeil_e20_wisdm_3/wisdm_flex_eeil
======
LLL_Net(
  (model): SimpleMLP(
    (fc1): Linear(in_features=91, out_features=1000, bias=True)
    (fc2): Sequential()
  )
  (heads): ModuleList(
    (0): Linear(in_features=1000, out_features=34, bias=True)
    (1): Linear(in_features=1000, out_features=20, bias=True)
    (2): Linear(in_features=1000, out_features=20, bias=True)
    (3): Linear(in_features=1000, out_features=20, bias=True)
    (4): Linear(in_features=1000, out_features=20, bias=True)
    (5): Linear(in_features=1000, out_features=20, bias=True)
    (6): Linear(in_features=1000, out_features=20, bias=True)
    (7): Linear(in_features=1000, out_features=20, bias=True)
    (8): Linear(in_features=1000, out_features=20, bias=True)
    (9): Linear(in_features=1000, out_features=20, bias=True)
    (10): Linear(in_features=1000, out_features=20, bias=True)
    (11): Linear(in_features=1000, out_features=20, bias=True)
    (12): Linear(in_features=1000, out_features=20, bias=True)
    (13): Linear(in_features=1000, out_features=20, bias=True)
    (14): Linear(in_features=1000, out_features=20, bias=True)
    (15): Linear(in_features=1000, out_features=20, bias=True)
    (16): Linear(in_features=1000, out_features=20, bias=True)
    (17): Linear(in_features=1000, out_features=20, bias=True)
    (18): Linear(in_features=1000, out_features=20, bias=True)
    (19): Linear(in_features=1000, out_features=20, bias=True)
    (20): Linear(in_features=1000, out_features=20, bias=True)
    (21): Linear(in_features=1000, out_features=20, bias=True)
    (22): Linear(in_features=1000, out_features=20, bias=True)
    (23): Linear(in_features=1000, out_features=20, bias=True)
    (24): Linear(in_features=1000, out_features=20, bias=True)
    (25): Linear(in_features=1000, out_features=20, bias=True)
  )
)
======

************************************************************************************************************
Task 26
************************************************************************************************************
| Epoch   1, time=  2.4s | Train: skip eval | Valid: time=  0.2s loss=10.069, TAw acc=  1.2% | *
| Epoch   2, time=  2.4s | Train: skip eval | Valid: time=  0.2s loss=9.977, TAw acc=  1.2% | *
…
>>> Test on task 21 : loss=2.593 | TAw acc= 99.1%, forg=  0.0%| TAg acc= 26.8%, forg= 15.2% <<<
>>> Test on task 22 : loss=2.714 | TAw acc= 95.3%, forg= -3.7%| TAg acc= 16.8%, forg= 26.2% <<<
>>> Test on task 23 : loss=3.310 | TAw acc= 91.2%, forg= -2.2%| TAg acc=  8.8%, forg= 16.5% <<<
>>> Test on task 24 : loss=3.163 | TAw acc= 88.3%, forg= -3.9%| TAg acc= 16.5%, forg= 17.5% <<<
>>> Test on task 25 : loss=3.384 | TAw acc= 84.7%, forg=-29.6%| TAg acc= 13.3%, forg=  4.1% <<<
>>> Test on task 26 : loss=2.930 | TAw acc= 73.9%, forg=  0.0%| TAg acc= 43.2%, forg=  0.0% <<<
Save at k=100/eeil_e20_wisdm_3/wisdm_flex_eeil
======
LLL_Net(
  (model): SimpleMLP(
    (fc1): Linear(in_features=91, out_features=1000, bias=True)
    (fc2): Sequential()
  )
  (heads): ModuleList(
    (0): Linear(in_features=1000, out_features=34, bias=True)
    (1): Linear(in_features=1000, out_features=20, bias=True)
    (2): Linear(in_features=1000, out_features=20, bias=True)
    (3): Linear(in_features=1000, out_features=20, bias=True)
    (4): Linear(in_features=1000, out_features=20, bias=True)
    (5): Linear(in_features=1000, out_features=20, bias=True)
    (6): Linear(in_features=1000, out_features=20, bias=True)
    (7): Linear(in_features=1000, out_features=20, bias=True)
    (8): Linear(in_features=1000, out_features=20, bias=True)
    (9): Linear(in_features=1000, out_features=20, bias=True)
    (10): Linear(in_features=1000, out_features=20, bias=True)
    (11): Linear(in_features=1000, out_features=20, bias=True)
    (12): Linear(in_features=1000, out_features=20, bias=True)
    (13): Linear(in_features=1000, out_features=20, bias=True)
    (14): Linear(in_features=1000, out_features=20, bias=True)
    (15): Linear(in_features=1000, out_features=20, bias=True)
    (16): Linear(in_features=1000, out_features=20, bias=True)
    (17): Linear(in_features=1000, out_features=20, bias=True)
    (18): Linear(in_features=1000, out_features=20, bias=True)
    (19): Linear(in_features=1000, out_features=20, bias=True)
    (20): Linear(in_features=1000, out_features=20, bias=True)
    (21): Linear(in_features=1000, out_features=20, bias=True)
    (22): Linear(in_features=1000, out_features=20, bias=True)
    (23): Linear(in_features=1000, out_features=20, bias=True)
    (24): Linear(in_features=1000, out_features=20, bias=True)
    (25): Linear(in_features=1000, out_features=20, bias=True)
    (26): Linear(in_features=1000, out_features=20, bias=True)
  )
)
======

************************************************************************************************************
Task 27
************************************************************************************************************
| Epoch   1, time=  2.4s | Train: skip eval | Valid: time=  0.2s loss=9.331, TAw acc=  8.5% | *
| Epoch   2, time=  2.5s | Train: skip eval | Valid: time=  0.2s loss=9.277, TAw acc=  8.5% | *
…
>>> Test on task 22 : loss=2.634 | TAw acc= 95.3%, forg=  0.0%| TAg acc= 22.4%, forg= 20.6% <<<
>>> Test on task 23 : loss=3.143 | TAw acc= 93.4%, forg= -2.2%| TAg acc= 15.4%, forg=  9.9% <<<
>>> Test on task 24 : loss=2.951 | TAw acc= 90.3%, forg= -1.9%| TAg acc= 22.3%, forg= 11.7% <<<
>>> Test on task 25 : loss=3.143 | TAw acc= 87.8%, forg= -3.1%| TAg acc= 16.3%, forg=  1.0% <<<
>>> Test on task 26 : loss=3.289 | TAw acc= 89.2%, forg=-15.3%| TAg acc= 13.5%, forg= 29.7% <<<
>>> Test on task 27 : loss=2.783 | TAw acc= 82.0%, forg=  0.0%| TAg acc= 36.0%, forg=  0.0% <<<
Save at k=100/eeil_e20_wisdm_3/wisdm_flex_eeil
======
LLL_Net(
  (model): SimpleMLP(
    (fc1): Linear(in_features=91, out_features=1000, bias=True)
    (fc2): Sequential()
  )
  (heads): ModuleList(
    (0): Linear(in_features=1000, out_features=34, bias=True)
    (1): Linear(in_features=1000, out_features=20, bias=True)
    (2): Linear(in_features=1000, out_features=20, bias=True)
    (3): Linear(in_features=1000, out_features=20, bias=True)
    (4): Linear(in_features=1000, out_features=20, bias=True)
    (5): Linear(in_features=1000, out_features=20, bias=True)
    (6): Linear(in_features=1000, out_features=20, bias=True)
    (7): Linear(in_features=1000, out_features=20, bias=True)
    (8): Linear(in_features=1000, out_features=20, bias=True)
    (9): Linear(in_features=1000, out_features=20, bias=True)
    (10): Linear(in_features=1000, out_features=20, bias=True)
    (11): Linear(in_features=1000, out_features=20, bias=True)
    (12): Linear(in_features=1000, out_features=20, bias=True)
    (13): Linear(in_features=1000, out_features=20, bias=True)
    (14): Linear(in_features=1000, out_features=20, bias=True)
    (15): Linear(in_features=1000, out_features=20, bias=True)
    (16): Linear(in_features=1000, out_features=20, bias=True)
    (17): Linear(in_features=1000, out_features=20, bias=True)
    (18): Linear(in_features=1000, out_features=20, bias=True)
    (19): Linear(in_features=1000, out_features=20, bias=True)
    (20): Linear(in_features=1000, out_features=20, bias=True)
    (21): Linear(in_features=1000, out_features=20, bias=True)
    (22): Linear(in_features=1000, out_features=20, bias=True)
    (23): Linear(in_features=1000, out_features=20, bias=True)
    (24): Linear(in_features=1000, out_features=20, bias=True)
    (25): Linear(in_features=1000, out_features=20, bias=True)
    (26): Linear(in_features=1000, out_features=20, bias=True)
    (27): Linear(in_features=1000, out_features=20, bias=True)
  )
)
======

************************************************************************************************************
Task 28
************************************************************************************************************
| Epoch   1, time=  2.7s | Train: skip eval | Valid: time=  0.2s loss=9.174, TAw acc=  1.2% | *
| Epoch   2, time=  2.6s | Train: skip eval | Valid: time=  0.2s loss=9.125, TAw acc=  8.8% | *
…
>>> Test on task 23 : loss=3.046 | TAw acc= 94.5%, forg= -1.1%| TAg acc= 18.7%, forg=  6.6% <<<
>>> Test on task 24 : loss=2.769 | TAw acc= 90.3%, forg=  0.0%| TAg acc= 27.2%, forg=  6.8% <<<
>>> Test on task 25 : loss=2.928 | TAw acc= 91.8%, forg= -4.1%| TAg acc= 17.3%, forg=  0.0% <<<
>>> Test on task 26 : loss=3.108 | TAw acc= 89.2%, forg=  0.0%| TAg acc= 15.3%, forg= 27.9% <<<
>>> Test on task 27 : loss=3.096 | TAw acc= 87.4%, forg= -5.4%| TAg acc= 12.6%, forg= 23.4% <<<
>>> Test on task 28 : loss=2.836 | TAw acc= 66.7%, forg=  0.0%| TAg acc= 43.5%, forg=  0.0% <<<
Save at k=100/eeil_e20_wisdm_3/wisdm_flex_eeil
======
LLL_Net(
  (model): SimpleMLP(
    (fc1): Linear(in_features=91, out_features=1000, bias=True)
    (fc2): Sequential()
  )
  (heads): ModuleList(
    (0): Linear(in_features=1000, out_features=34, bias=True)
    (1): Linear(in_features=1000, out_features=20, bias=True)
    (2): Linear(in_features=1000, out_features=20, bias=True)
    (3): Linear(in_features=1000, out_features=20, bias=True)
    (4): Linear(in_features=1000, out_features=20, bias=True)
    (5): Linear(in_features=1000, out_features=20, bias=True)
    (6): Linear(in_features=1000, out_features=20, bias=True)
    (7): Linear(in_features=1000, out_features=20, bias=True)
    (8): Linear(in_features=1000, out_features=20, bias=True)
    (9): Linear(in_features=1000, out_features=20, bias=True)
    (10): Linear(in_features=1000, out_features=20, bias=True)
    (11): Linear(in_features=1000, out_features=20, bias=True)
    (12): Linear(in_features=1000, out_features=20, bias=True)
    (13): Linear(in_features=1000, out_features=20, bias=True)
    (14): Linear(in_features=1000, out_features=20, bias=True)
    (15): Linear(in_features=1000, out_features=20, bias=True)
    (16): Linear(in_features=1000, out_features=20, bias=True)
    (17): Linear(in_features=1000, out_features=20, bias=True)
    (18): Linear(in_features=1000, out_features=20, bias=True)
    (19): Linear(in_features=1000, out_features=20, bias=True)
    (20): Linear(in_features=1000, out_features=20, bias=True)
    (21): Linear(in_features=1000, out_features=20, bias=True)
    (22): Linear(in_features=1000, out_features=20, bias=True)
    (23): Linear(in_features=1000, out_features=20, bias=True)
    (24): Linear(in_features=1000, out_features=20, bias=True)
    (25): Linear(in_features=1000, out_features=20, bias=True)
    (26): Linear(in_features=1000, out_features=20, bias=True)
    (27): Linear(in_features=1000, out_features=20, bias=True)
    (28): Linear(in_features=1000, out_features=20, bias=True)
  )
)
======

************************************************************************************************************
Task 29
************************************************************************************************************
| Epoch   1, time=  2.7s | Train: skip eval | Valid: time=  0.2s loss=10.392, TAw acc=  7.7% | *
| Epoch   2, time=  2.7s | Train: skip eval | Valid: time=  0.2s loss=10.315, TAw acc= 10.3% | *
…
>>> Test on task 24 : loss=2.661 | TAw acc= 89.3%, forg=  1.0%| TAg acc= 31.1%, forg=  2.9% <<<
>>> Test on task 25 : loss=2.761 | TAw acc= 91.8%, forg=  0.0%| TAg acc= 23.5%, forg= -6.1% <<<
>>> Test on task 26 : loss=2.920 | TAw acc= 89.2%, forg=  0.0%| TAg acc= 19.8%, forg= 23.4% <<<
>>> Test on task 27 : loss=2.892 | TAw acc= 91.9%, forg= -4.5%| TAg acc= 17.1%, forg= 18.9% <<<
>>> Test on task 28 : loss=3.100 | TAw acc= 85.2%, forg=-18.5%| TAg acc= 14.8%, forg= 28.7% <<<
>>> Test on task 29 : loss=3.031 | TAw acc= 71.7%, forg=  0.0%| TAg acc= 31.1%, forg=  0.0% <<<
Save at k=100/eeil_e20_wisdm_3/wisdm_flex_eeil
======
LLL_Net(
  (model): SimpleMLP(
    (fc1): Linear(in_features=91, out_features=1000, bias=True)
    (fc2): Sequential()
  )
  (heads): ModuleList(
    (0): Linear(in_features=1000, out_features=34, bias=True)
    (1): Linear(in_features=1000, out_features=20, bias=True)
    (2): Linear(in_features=1000, out_features=20, bias=True)
    (3): Linear(in_features=1000, out_features=20, bias=True)
    (4): Linear(in_features=1000, out_features=20, bias=True)
    (5): Linear(in_features=1000, out_features=20, bias=True)
    (6): Linear(in_features=1000, out_features=20, bias=True)
    (7): Linear(in_features=1000, out_features=20, bias=True)
    (8): Linear(in_features=1000, out_features=20, bias=True)
    (9): Linear(in_features=1000, out_features=20, bias=True)
    (10): Linear(in_features=1000, out_features=20, bias=True)
    (11): Linear(in_features=1000, out_features=20, bias=True)
    (12): Linear(in_features=1000, out_features=20, bias=True)
    (13): Linear(in_features=1000, out_features=20, bias=True)
    (14): Linear(in_features=1000, out_features=20, bias=True)
    (15): Linear(in_features=1000, out_features=20, bias=True)
    (16): Linear(in_features=1000, out_features=20, bias=True)
    (17): Linear(in_features=1000, out_features=20, bias=True)
    (18): Linear(in_features=1000, out_features=20, bias=True)
    (19): Linear(in_features=1000, out_features=20, bias=True)
    (20): Linear(in_features=1000, out_features=20, bias=True)
    (21): Linear(in_features=1000, out_features=20, bias=True)
    (22): Linear(in_features=1000, out_features=20, bias=True)
    (23): Linear(in_features=1000, out_features=20, bias=True)
    (24): Linear(in_features=1000, out_features=20, bias=True)
    (25): Linear(in_features=1000, out_features=20, bias=True)
    (26): Linear(in_features=1000, out_features=20, bias=True)
    (27): Linear(in_features=1000, out_features=20, bias=True)
    (28): Linear(in_features=1000, out_features=20, bias=True)
    (29): Linear(in_features=1000, out_features=20, bias=True)
  )
)
======

************************************************************************************************************
Task 30
************************************************************************************************************
| Epoch   1, time=  2.9s | Train: skip eval | Valid: time=  0.2s loss=10.038, TAw acc=  4.0% | *
| Epoch   2, time=  2.9s | Train: skip eval | Valid: time=  0.2s loss=9.955, TAw acc=  8.0% | *
…
>>> Test on task 25 : loss=2.611 | TAw acc= 91.8%, forg=  0.0%| TAg acc= 25.5%, forg= -2.0% <<<
>>> Test on task 26 : loss=2.835 | TAw acc= 90.1%, forg= -0.9%| TAg acc= 22.5%, forg= 20.7% <<<
>>> Test on task 27 : loss=2.706 | TAw acc= 92.8%, forg= -0.9%| TAg acc= 21.6%, forg= 14.4% <<<
>>> Test on task 28 : loss=2.895 | TAw acc= 91.7%, forg= -6.5%| TAg acc= 25.0%, forg= 18.5% <<<
>>> Test on task 29 : loss=3.236 | TAw acc= 92.5%, forg=-20.8%| TAg acc= 16.0%, forg= 15.1% <<<
>>> Test on task 30 : loss=2.750 | TAw acc= 83.5%, forg=  0.0%| TAg acc= 42.7%, forg=  0.0% <<<
Save at k=100/eeil_e20_wisdm_3/wisdm_flex_eeil
======
LLL_Net(
  (model): SimpleMLP(
    (fc1): Linear(in_features=91, out_features=1000, bias=True)
    (fc2): Sequential()
  )
  (heads): ModuleList(
    (0): Linear(in_features=1000, out_features=34, bias=True)
    (1): Linear(in_features=1000, out_features=20, bias=True)
    (2): Linear(in_features=1000, out_features=20, bias=True)
    (3): Linear(in_features=1000, out_features=20, bias=True)
    (4): Linear(in_features=1000, out_features=20, bias=True)
    (5): Linear(in_features=1000, out_features=20, bias=True)
    (6): Linear(in_features=1000, out_features=20, bias=True)
    (7): Linear(in_features=1000, out_features=20, bias=True)
    (8): Linear(in_features=1000, out_features=20, bias=True)
    (9): Linear(in_features=1000, out_features=20, bias=True)
    (10): Linear(in_features=1000, out_features=20, bias=True)
    (11): Linear(in_features=1000, out_features=20, bias=True)
    (12): Linear(in_features=1000, out_features=20, bias=True)
    (13): Linear(in_features=1000, out_features=20, bias=True)
    (14): Linear(in_features=1000, out_features=20, bias=True)
    (15): Linear(in_features=1000, out_features=20, bias=True)
    (16): Linear(in_features=1000, out_features=20, bias=True)
    (17): Linear(in_features=1000, out_features=20, bias=True)
    (18): Linear(in_features=1000, out_features=20, bias=True)
    (19): Linear(in_features=1000, out_features=20, bias=True)
    (20): Linear(in_features=1000, out_features=20, bias=True)
    (21): Linear(in_features=1000, out_features=20, bias=True)
    (22): Linear(in_features=1000, out_features=20, bias=True)
    (23): Linear(in_features=1000, out_features=20, bias=True)
    (24): Linear(in_features=1000, out_features=20, bias=True)
    (25): Linear(in_features=1000, out_features=20, bias=True)
    (26): Linear(in_features=1000, out_features=20, bias=True)
    (27): Linear(in_features=1000, out_features=20, bias=True)
    (28): Linear(in_features=1000, out_features=20, bias=True)
    (29): Linear(in_features=1000, out_features=20, bias=True)
    (30): Linear(in_features=1000, out_features=20, bias=True)
  )
)
======

************************************************************************************************************
Task 31
************************************************************************************************************
| Epoch   1, time=  3.3s | Train: skip eval | Valid: time=  0.2s loss=9.866, TAw acc=  2.9% | *
| Epoch   2, time=  3.0s | Train: skip eval | Valid: time=  0.2s loss=9.812, TAw acc=  2.9% | *
…
>>> Test on task 26 : loss=2.792 | TAw acc= 89.2%, forg=  0.9%| TAg acc= 28.8%, forg= 14.4% <<<
>>> Test on task 27 : loss=2.566 | TAw acc= 92.8%, forg=  0.0%| TAg acc= 30.6%, forg=  5.4% <<<
>>> Test on task 28 : loss=2.661 | TAw acc= 92.6%, forg= -0.9%| TAg acc= 34.3%, forg=  9.3% <<<
>>> Test on task 29 : loss=2.969 | TAw acc= 93.4%, forg= -0.9%| TAg acc= 19.8%, forg= 11.3% <<<
>>> Test on task 30 : loss=2.872 | TAw acc= 93.2%, forg= -9.7%| TAg acc= 20.4%, forg= 22.3% <<<
>>> Test on task 31 : loss=3.461 | TAw acc= 69.1%, forg=  0.0%| TAg acc= 18.6%, forg=  0.0% <<<
Save at k=100/eeil_e20_wisdm_3/wisdm_flex_eeil
======
LLL_Net(
  (model): SimpleMLP(
    (fc1): Linear(in_features=91, out_features=1000, bias=True)
    (fc2): Sequential()
  )
  (heads): ModuleList(
    (0): Linear(in_features=1000, out_features=34, bias=True)
    (1): Linear(in_features=1000, out_features=20, bias=True)
    (2): Linear(in_features=1000, out_features=20, bias=True)
    (3): Linear(in_features=1000, out_features=20, bias=True)
    (4): Linear(in_features=1000, out_features=20, bias=True)
    (5): Linear(in_features=1000, out_features=20, bias=True)
    (6): Linear(in_features=1000, out_features=20, bias=True)
    (7): Linear(in_features=1000, out_features=20, bias=True)
    (8): Linear(in_features=1000, out_features=20, bias=True)
    (9): Linear(in_features=1000, out_features=20, bias=True)
    (10): Linear(in_features=1000, out_features=20, bias=True)
    (11): Linear(in_features=1000, out_features=20, bias=True)
    (12): Linear(in_features=1000, out_features=20, bias=True)
    (13): Linear(in_features=1000, out_features=20, bias=True)
    (14): Linear(in_features=1000, out_features=20, bias=True)
    (15): Linear(in_features=1000, out_features=20, bias=True)
    (16): Linear(in_features=1000, out_features=20, bias=True)
    (17): Linear(in_features=1000, out_features=20, bias=True)
    (18): Linear(in_features=1000, out_features=20, bias=True)
    (19): Linear(in_features=1000, out_features=20, bias=True)
    (20): Linear(in_features=1000, out_features=20, bias=True)
    (21): Linear(in_features=1000, out_features=20, bias=True)
    (22): Linear(in_features=1000, out_features=20, bias=True)
    (23): Linear(in_features=1000, out_features=20, bias=True)
    (24): Linear(in_features=1000, out_features=20, bias=True)
    (25): Linear(in_features=1000, out_features=20, bias=True)
    (26): Linear(in_features=1000, out_features=20, bias=True)
    (27): Linear(in_features=1000, out_features=20, bias=True)
    (28): Linear(in_features=1000, out_features=20, bias=True)
    (29): Linear(in_features=1000, out_features=20, bias=True)
    (30): Linear(in_features=1000, out_features=20, bias=True)
    (31): Linear(in_features=1000, out_features=20, bias=True)
  )
)
======

************************************************************************************************************
Task 32
************************************************************************************************************
| Epoch   1, time=  3.1s | Train: skip eval | Valid: time=  0.2s loss=10.569, TAw acc=  6.7% | *
| Epoch   2, time=  3.3s | Train: skip eval | Valid: time=  0.3s loss=10.451, TAw acc=  9.0% | *
…
>>> Test on task 27 : loss=2.480 | TAw acc= 91.9%, forg=  0.9%| TAg acc= 34.2%, forg=  1.8% <<<
>>> Test on task 28 : loss=2.554 | TAw acc= 91.7%, forg=  0.9%| TAg acc= 34.3%, forg=  9.3% <<<
>>> Test on task 29 : loss=2.795 | TAw acc= 93.4%, forg=  0.0%| TAg acc= 22.6%, forg=  8.5% <<<
>>> Test on task 30 : loss=2.727 | TAw acc= 94.2%, forg= -1.0%| TAg acc= 24.3%, forg= 18.4% <<<
>>> Test on task 31 : loss=3.438 | TAw acc= 76.3%, forg= -7.2%| TAg acc=  7.2%, forg= 11.3% <<<
>>> Test on task 32 : loss=2.607 | TAw acc= 77.3%, forg=  0.0%| TAg acc= 50.4%, forg=  0.0% <<<
Save at k=100/eeil_e20_wisdm_3/wisdm_flex_eeil
======
LLL_Net(
  (model): SimpleMLP(
    (fc1): Linear(in_features=91, out_features=1000, bias=True)
    (fc2): Sequential()
  )
  (heads): ModuleList(
    (0): Linear(in_features=1000, out_features=34, bias=True)
    (1): Linear(in_features=1000, out_features=20, bias=True)
    (2): Linear(in_features=1000, out_features=20, bias=True)
    (3): Linear(in_features=1000, out_features=20, bias=True)
    (4): Linear(in_features=1000, out_features=20, bias=True)
    (5): Linear(in_features=1000, out_features=20, bias=True)
    (6): Linear(in_features=1000, out_features=20, bias=True)
    (7): Linear(in_features=1000, out_features=20, bias=True)
    (8): Linear(in_features=1000, out_features=20, bias=True)
    (9): Linear(in_features=1000, out_features=20, bias=True)
    (10): Linear(in_features=1000, out_features=20, bias=True)
    (11): Linear(in_features=1000, out_features=20, bias=True)
    (12): Linear(in_features=1000, out_features=20, bias=True)
    (13): Linear(in_features=1000, out_features=20, bias=True)
    (14): Linear(in_features=1000, out_features=20, bias=True)
    (15): Linear(in_features=1000, out_features=20, bias=True)
    (16): Linear(in_features=1000, out_features=20, bias=True)
    (17): Linear(in_features=1000, out_features=20, bias=True)
    (18): Linear(in_features=1000, out_features=20, bias=True)
    (19): Linear(in_features=1000, out_features=20, bias=True)
    (20): Linear(in_features=1000, out_features=20, bias=True)
    (21): Linear(in_features=1000, out_features=20, bias=True)
    (22): Linear(in_features=1000, out_features=20, bias=True)
    (23): Linear(in_features=1000, out_features=20, bias=True)
    (24): Linear(in_features=1000, out_features=20, bias=True)
    (25): Linear(in_features=1000, out_features=20, bias=True)
    (26): Linear(in_features=1000, out_features=20, bias=True)
    (27): Linear(in_features=1000, out_features=20, bias=True)
    (28): Linear(in_features=1000, out_features=20, bias=True)
    (29): Linear(in_features=1000, out_features=20, bias=True)
    (30): Linear(in_features=1000, out_features=20, bias=True)
    (31): Linear(in_features=1000, out_features=20, bias=True)
    (32): Linear(in_features=1000, out_features=20, bias=True)
  )
)
======

************************************************************************************************************
Task 33
************************************************************************************************************
| Epoch   1, time=  3.3s | Train: skip eval | Valid: time=  0.2s loss=10.191, TAw acc=  2.3% | *
| Epoch   2, time=  3.4s | Train: skip eval | Valid: time=  0.2s loss=10.121, TAw acc=  2.3% | *
…
>>> Test on task 28 : loss=2.398 | TAw acc= 92.6%, forg=  0.0%| TAg acc= 38.9%, forg=  4.6% <<<
>>> Test on task 29 : loss=2.646 | TAw acc= 94.3%, forg= -0.9%| TAg acc= 28.3%, forg=  2.8% <<<
>>> Test on task 30 : loss=2.508 | TAw acc= 95.1%, forg= -1.0%| TAg acc= 24.3%, forg= 18.4% <<<
>>> Test on task 31 : loss=3.105 | TAw acc= 83.5%, forg= -7.2%| TAg acc= 17.5%, forg=  1.0% <<<
>>> Test on task 32 : loss=2.784 | TAw acc= 88.2%, forg=-10.9%| TAg acc= 20.2%, forg= 30.3% <<<
>>> Test on task 33 : loss=2.914 | TAw acc= 66.7%, forg=  0.0%| TAg acc= 37.6%, forg=  0.0% <<<
Save at k=100/eeil_e20_wisdm_3/wisdm_flex_eeil
======
LLL_Net(
  (model): SimpleMLP(
    (fc1): Linear(in_features=91, out_features=1000, bias=True)
    (fc2): Sequential()
  )
  (heads): ModuleList(
    (0): Linear(in_features=1000, out_features=34, bias=True)
    (1): Linear(in_features=1000, out_features=20, bias=True)
    (2): Linear(in_features=1000, out_features=20, bias=True)
    (3): Linear(in_features=1000, out_features=20, bias=True)
    (4): Linear(in_features=1000, out_features=20, bias=True)
    (5): Linear(in_features=1000, out_features=20, bias=True)
    (6): Linear(in_features=1000, out_features=20, bias=True)
    (7): Linear(in_features=1000, out_features=20, bias=True)
    (8): Linear(in_features=1000, out_features=20, bias=True)
    (9): Linear(in_features=1000, out_features=20, bias=True)
    (10): Linear(in_features=1000, out_features=20, bias=True)
    (11): Linear(in_features=1000, out_features=20, bias=True)
    (12): Linear(in_features=1000, out_features=20, bias=True)
    (13): Linear(in_features=1000, out_features=20, bias=True)
    (14): Linear(in_features=1000, out_features=20, bias=True)
    (15): Linear(in_features=1000, out_features=20, bias=True)
    (16): Linear(in_features=1000, out_features=20, bias=True)
    (17): Linear(in_features=1000, out_features=20, bias=True)
    (18): Linear(in_features=1000, out_features=20, bias=True)
    (19): Linear(in_features=1000, out_features=20, bias=True)
    (20): Linear(in_features=1000, out_features=20, bias=True)
    (21): Linear(in_features=1000, out_features=20, bias=True)
    (22): Linear(in_features=1000, out_features=20, bias=True)
    (23): Linear(in_features=1000, out_features=20, bias=True)
    (24): Linear(in_features=1000, out_features=20, bias=True)
    (25): Linear(in_features=1000, out_features=20, bias=True)
    (26): Linear(in_features=1000, out_features=20, bias=True)
    (27): Linear(in_features=1000, out_features=20, bias=True)
    (28): Linear(in_features=1000, out_features=20, bias=True)
    (29): Linear(in_features=1000, out_features=20, bias=True)
    (30): Linear(in_features=1000, out_features=20, bias=True)
    (31): Linear(in_features=1000, out_features=20, bias=True)
    (32): Linear(in_features=1000, out_features=20, bias=True)
    (33): Linear(in_features=1000, out_features=20, bias=True)
  )
)
======

************************************************************************************************************
Task 34
************************************************************************************************************
| Epoch   1, time=  3.6s | Train: skip eval | Valid: time=  0.2s loss=10.094, TAw acc=  1.1% | *
| Epoch   2, time=  3.5s | Train: skip eval | Valid: time=  0.2s loss=10.029, TAw acc=  1.1% | *
…
>>> Test on task 29 : loss=2.513 | TAw acc= 96.2%, forg= -1.9%| TAg acc= 31.1%, forg=  0.0% <<<
>>> Test on task 30 : loss=2.449 | TAw acc= 95.1%, forg=  0.0%| TAg acc= 25.2%, forg= 17.5% <<<
>>> Test on task 31 : loss=2.969 | TAw acc= 89.7%, forg= -6.2%| TAg acc= 13.4%, forg=  5.2% <<<
>>> Test on task 32 : loss=2.566 | TAw acc= 94.1%, forg= -5.9%| TAg acc= 26.9%, forg= 23.5% <<<
>>> Test on task 33 : loss=3.300 | TAw acc= 85.5%, forg=-18.8%| TAg acc=  4.3%, forg= 33.3% <<<
>>> Test on task 34 : loss=2.816 | TAw acc= 76.5%, forg=  0.0%| TAg acc= 43.7%, forg=  0.0% <<<
Save at k=100/eeil_e20_wisdm_3/wisdm_flex_eeil
======
LLL_Net(
  (model): SimpleMLP(
    (fc1): Linear(in_features=91, out_features=1000, bias=True)
    (fc2): Sequential()
  )
  (heads): ModuleList(
    (0): Linear(in_features=1000, out_features=34, bias=True)
    (1): Linear(in_features=1000, out_features=20, bias=True)
    (2): Linear(in_features=1000, out_features=20, bias=True)
    (3): Linear(in_features=1000, out_features=20, bias=True)
    (4): Linear(in_features=1000, out_features=20, bias=True)
    (5): Linear(in_features=1000, out_features=20, bias=True)
    (6): Linear(in_features=1000, out_features=20, bias=True)
    (7): Linear(in_features=1000, out_features=20, bias=True)
    (8): Linear(in_features=1000, out_features=20, bias=True)
    (9): Linear(in_features=1000, out_features=20, bias=True)
    (10): Linear(in_features=1000, out_features=20, bias=True)
    (11): Linear(in_features=1000, out_features=20, bias=True)
    (12): Linear(in_features=1000, out_features=20, bias=True)
    (13): Linear(in_features=1000, out_features=20, bias=True)
    (14): Linear(in_features=1000, out_features=20, bias=True)
    (15): Linear(in_features=1000, out_features=20, bias=True)
    (16): Linear(in_features=1000, out_features=20, bias=True)
    (17): Linear(in_features=1000, out_features=20, bias=True)
    (18): Linear(in_features=1000, out_features=20, bias=True)
    (19): Linear(in_features=1000, out_features=20, bias=True)
    (20): Linear(in_features=1000, out_features=20, bias=True)
    (21): Linear(in_features=1000, out_features=20, bias=True)
    (22): Linear(in_features=1000, out_features=20, bias=True)
    (23): Linear(in_features=1000, out_features=20, bias=True)
    (24): Linear(in_features=1000, out_features=20, bias=True)
    (25): Linear(in_features=1000, out_features=20, bias=True)
    (26): Linear(in_features=1000, out_features=20, bias=True)
    (27): Linear(in_features=1000, out_features=20, bias=True)
    (28): Linear(in_features=1000, out_features=20, bias=True)
    (29): Linear(in_features=1000, out_features=20, bias=True)
    (30): Linear(in_features=1000, out_features=20, bias=True)
    (31): Linear(in_features=1000, out_features=20, bias=True)
    (32): Linear(in_features=1000, out_features=20, bias=True)
    (33): Linear(in_features=1000, out_features=20, bias=True)
    (34): Linear(in_features=1000, out_features=20, bias=True)
  )
)
======

************************************************************************************************************
Task 35
************************************************************************************************************
| Epoch   1, time=  3.8s | Train: skip eval | Valid: time=  0.2s loss=10.890, TAw acc=  7.1% | *
| Epoch   2, time=  3.6s | Train: skip eval | Valid: time=  0.2s loss=10.808, TAw acc=  6.0% | *
…
>>> Test on task 30 : loss=2.305 | TAw acc= 96.1%, forg= -1.0%| TAg acc= 28.2%, forg= 14.6% <<<
>>> Test on task 31 : loss=2.775 | TAw acc= 90.7%, forg= -1.0%| TAg acc= 19.6%, forg= -1.0% <<<
>>> Test on task 32 : loss=2.387 | TAw acc= 95.0%, forg= -0.8%| TAg acc= 29.4%, forg= 21.0% <<<
>>> Test on task 33 : loss=3.139 | TAw acc= 85.5%, forg=  0.0%| TAg acc=  4.3%, forg= 33.3% <<<
>>> Test on task 34 : loss=3.162 | TAw acc= 86.6%, forg=-10.1%| TAg acc= 16.0%, forg= 27.7% <<<
>>> Test on task 35 : loss=2.591 | TAw acc= 82.3%, forg=  0.0%| TAg acc= 48.7%, forg=  0.0% <<<
Save at k=100/eeil_e20_wisdm_3/wisdm_flex_eeil
======
LLL_Net(
  (model): SimpleMLP(
    (fc1): Linear(in_features=91, out_features=1000, bias=True)
    (fc2): Sequential()
  )
  (heads): ModuleList(
    (0): Linear(in_features=1000, out_features=34, bias=True)
    (1): Linear(in_features=1000, out_features=20, bias=True)
    (2): Linear(in_features=1000, out_features=20, bias=True)
    (3): Linear(in_features=1000, out_features=20, bias=True)
    (4): Linear(in_features=1000, out_features=20, bias=True)
    (5): Linear(in_features=1000, out_features=20, bias=True)
    (6): Linear(in_features=1000, out_features=20, bias=True)
    (7): Linear(in_features=1000, out_features=20, bias=True)
    (8): Linear(in_features=1000, out_features=20, bias=True)
    (9): Linear(in_features=1000, out_features=20, bias=True)
    (10): Linear(in_features=1000, out_features=20, bias=True)
    (11): Linear(in_features=1000, out_features=20, bias=True)
    (12): Linear(in_features=1000, out_features=20, bias=True)
    (13): Linear(in_features=1000, out_features=20, bias=True)
    (14): Linear(in_features=1000, out_features=20, bias=True)
    (15): Linear(in_features=1000, out_features=20, bias=True)
    (16): Linear(in_features=1000, out_features=20, bias=True)
    (17): Linear(in_features=1000, out_features=20, bias=True)
    (18): Linear(in_features=1000, out_features=20, bias=True)
    (19): Linear(in_features=1000, out_features=20, bias=True)
    (20): Linear(in_features=1000, out_features=20, bias=True)
    (21): Linear(in_features=1000, out_features=20, bias=True)
    (22): Linear(in_features=1000, out_features=20, bias=True)
    (23): Linear(in_features=1000, out_features=20, bias=True)
    (24): Linear(in_features=1000, out_features=20, bias=True)
    (25): Linear(in_features=1000, out_features=20, bias=True)
    (26): Linear(in_features=1000, out_features=20, bias=True)
    (27): Linear(in_features=1000, out_features=20, bias=True)
    (28): Linear(in_features=1000, out_features=20, bias=True)
    (29): Linear(in_features=1000, out_features=20, bias=True)
    (30): Linear(in_features=1000, out_features=20, bias=True)
    (31): Linear(in_features=1000, out_features=20, bias=True)
    (32): Linear(in_features=1000, out_features=20, bias=True)
    (33): Linear(in_features=1000, out_features=20, bias=True)
    (34): Linear(in_features=1000, out_features=20, bias=True)
    (35): Linear(in_features=1000, out_features=20, bias=True)
  )
)
======

************************************************************************************************************
Task 36
************************************************************************************************************
| Epoch   1, time=  3.7s | Train: skip eval | Valid: time=  0.2s loss=10.846, TAw acc=  0.0% | *
| Epoch   2, time=  3.7s | Train: skip eval | Valid: time=  0.2s loss=10.762, TAw acc=  1.3% | *
…
>>> Test on task 31 : loss=2.615 | TAw acc= 90.7%, forg=  0.0%| TAg acc= 25.8%, forg= -6.2% <<<
>>> Test on task 32 : loss=2.276 | TAw acc= 98.3%, forg= -3.4%| TAg acc= 30.3%, forg= 20.2% <<<
>>> Test on task 33 : loss=2.934 | TAw acc= 85.5%, forg=  0.0%| TAg acc=  5.1%, forg= 32.5% <<<
>>> Test on task 34 : loss=3.005 | TAw acc= 88.2%, forg= -1.7%| TAg acc= 16.8%, forg= 26.9% <<<
>>> Test on task 35 : loss=2.956 | TAw acc= 96.5%, forg=-14.2%| TAg acc= 14.2%, forg= 34.5% <<<
>>> Test on task 36 : loss=2.836 | TAw acc= 78.6%, forg=  0.0%| TAg acc= 35.0%, forg=  0.0% <<<
Save at k=100/eeil_e20_wisdm_3/wisdm_flex_eeil
======
LLL_Net(
  (model): SimpleMLP(
    (fc1): Linear(in_features=91, out_features=1000, bias=True)
    (fc2): Sequential()
  )
  (heads): ModuleList(
    (0): Linear(in_features=1000, out_features=34, bias=True)
    (1): Linear(in_features=1000, out_features=20, bias=True)
    (2): Linear(in_features=1000, out_features=20, bias=True)
    (3): Linear(in_features=1000, out_features=20, bias=True)
    (4): Linear(in_features=1000, out_features=20, bias=True)
    (5): Linear(in_features=1000, out_features=20, bias=True)
    (6): Linear(in_features=1000, out_features=20, bias=True)
    (7): Linear(in_features=1000, out_features=20, bias=True)
    (8): Linear(in_features=1000, out_features=20, bias=True)
    (9): Linear(in_features=1000, out_features=20, bias=True)
    (10): Linear(in_features=1000, out_features=20, bias=True)
    (11): Linear(in_features=1000, out_features=20, bias=True)
    (12): Linear(in_features=1000, out_features=20, bias=True)
    (13): Linear(in_features=1000, out_features=20, bias=True)
    (14): Linear(in_features=1000, out_features=20, bias=True)
    (15): Linear(in_features=1000, out_features=20, bias=True)
    (16): Linear(in_features=1000, out_features=20, bias=True)
    (17): Linear(in_features=1000, out_features=20, bias=True)
    (18): Linear(in_features=1000, out_features=20, bias=True)
    (19): Linear(in_features=1000, out_features=20, bias=True)
    (20): Linear(in_features=1000, out_features=20, bias=True)
    (21): Linear(in_features=1000, out_features=20, bias=True)
    (22): Linear(in_features=1000, out_features=20, bias=True)
    (23): Linear(in_features=1000, out_features=20, bias=True)
    (24): Linear(in_features=1000, out_features=20, bias=True)
    (25): Linear(in_features=1000, out_features=20, bias=True)
    (26): Linear(in_features=1000, out_features=20, bias=True)
    (27): Linear(in_features=1000, out_features=20, bias=True)
    (28): Linear(in_features=1000, out_features=20, bias=True)
    (29): Linear(in_features=1000, out_features=20, bias=True)
    (30): Linear(in_features=1000, out_features=20, bias=True)
    (31): Linear(in_features=1000, out_features=20, bias=True)
    (32): Linear(in_features=1000, out_features=20, bias=True)
    (33): Linear(in_features=1000, out_features=20, bias=True)
    (34): Linear(in_features=1000, out_features=20, bias=True)
    (35): Linear(in_features=1000, out_features=20, bias=True)
    (36): Linear(in_features=1000, out_features=20, bias=True)
  )
)
======

************************************************************************************************************
Task 37
************************************************************************************************************
| Epoch   1, time=  4.0s | Train: skip eval | Valid: time=  0.2s loss=10.606, TAw acc=  0.0% | *
| Epoch   2, time=  4.1s | Train: skip eval | Valid: time=  0.2s loss=10.537, TAw acc=  0.0% | *
…
>>> Test on task 32 : loss=2.237 | TAw acc= 98.3%, forg=  0.0%| TAg acc= 29.4%, forg= 21.0% <<<
>>> Test on task 33 : loss=2.788 | TAw acc= 87.2%, forg= -1.7%| TAg acc=  9.4%, forg= 28.2% <<<
>>> Test on task 34 : loss=2.898 | TAw acc= 89.1%, forg= -0.8%| TAg acc= 19.3%, forg= 24.4% <<<
>>> Test on task 35 : loss=2.715 | TAw acc= 99.1%, forg= -2.7%| TAg acc= 23.0%, forg= 25.7% <<<
>>> Test on task 36 : loss=3.141 | TAw acc= 98.1%, forg=-19.4%| TAg acc= 10.7%, forg= 24.3% <<<
>>> Test on task 37 : loss=2.475 | TAw acc= 88.4%, forg=  0.0%| TAg acc= 53.7%, forg=  0.0% <<<
Save at k=100/eeil_e20_wisdm_3/wisdm_flex_eeil
======
LLL_Net(
  (model): SimpleMLP(
    (fc1): Linear(in_features=91, out_features=1000, bias=True)
    (fc2): Sequential()
  )
  (heads): ModuleList(
    (0): Linear(in_features=1000, out_features=34, bias=True)
    (1): Linear(in_features=1000, out_features=20, bias=True)
    (2): Linear(in_features=1000, out_features=20, bias=True)
    (3): Linear(in_features=1000, out_features=20, bias=True)
    (4): Linear(in_features=1000, out_features=20, bias=True)
    (5): Linear(in_features=1000, out_features=20, bias=True)
    (6): Linear(in_features=1000, out_features=20, bias=True)
    (7): Linear(in_features=1000, out_features=20, bias=True)
    (8): Linear(in_features=1000, out_features=20, bias=True)
    (9): Linear(in_features=1000, out_features=20, bias=True)
    (10): Linear(in_features=1000, out_features=20, bias=True)
    (11): Linear(in_features=1000, out_features=20, bias=True)
    (12): Linear(in_features=1000, out_features=20, bias=True)
    (13): Linear(in_features=1000, out_features=20, bias=True)
    (14): Linear(in_features=1000, out_features=20, bias=True)
    (15): Linear(in_features=1000, out_features=20, bias=True)
    (16): Linear(in_features=1000, out_features=20, bias=True)
    (17): Linear(in_features=1000, out_features=20, bias=True)
    (18): Linear(in_features=1000, out_features=20, bias=True)
    (19): Linear(in_features=1000, out_features=20, bias=True)
    (20): Linear(in_features=1000, out_features=20, bias=True)
    (21): Linear(in_features=1000, out_features=20, bias=True)
    (22): Linear(in_features=1000, out_features=20, bias=True)
    (23): Linear(in_features=1000, out_features=20, bias=True)
    (24): Linear(in_features=1000, out_features=20, bias=True)
    (25): Linear(in_features=1000, out_features=20, bias=True)
    (26): Linear(in_features=1000, out_features=20, bias=True)
    (27): Linear(in_features=1000, out_features=20, bias=True)
    (28): Linear(in_features=1000, out_features=20, bias=True)
    (29): Linear(in_features=1000, out_features=20, bias=True)
    (30): Linear(in_features=1000, out_features=20, bias=True)
    (31): Linear(in_features=1000, out_features=20, bias=True)
    (32): Linear(in_features=1000, out_features=20, bias=True)
    (33): Linear(in_features=1000, out_features=20, bias=True)
    (34): Linear(in_features=1000, out_features=20, bias=True)
    (35): Linear(in_features=1000, out_features=20, bias=True)
    (36): Linear(in_features=1000, out_features=20, bias=True)
    (37): Linear(in_features=1000, out_features=20, bias=True)
  )
)
======

************************************************************************************************************
Task 38
************************************************************************************************************
| Epoch   1, time=  4.2s | Train: skip eval | Valid: time=  0.2s loss=10.415, TAw acc= 16.7% | *
| Epoch   2, time=  4.3s | Train: skip eval | Valid: time=  0.2s loss=10.342, TAw acc= 20.2% | *
…
>>> Test on task 33 : loss=2.675 | TAw acc= 88.0%, forg= -0.9%| TAg acc= 12.8%, forg= 24.8% <<<
>>> Test on task 34 : loss=2.830 | TAw acc= 86.6%, forg=  2.5%| TAg acc=  8.4%, forg= 35.3% <<<
>>> Test on task 35 : loss=2.560 | TAw acc= 97.3%, forg=  1.8%| TAg acc= 25.7%, forg= 23.0% <<<
>>> Test on task 36 : loss=2.870 | TAw acc= 98.1%, forg=  0.0%| TAg acc= 10.7%, forg= 24.3% <<<
>>> Test on task 37 : loss=2.745 | TAw acc= 93.4%, forg= -5.0%| TAg acc= 12.4%, forg= 41.3% <<<
>>> Test on task 38 : loss=2.415 | TAw acc= 85.1%, forg=  0.0%| TAg acc= 52.6%, forg=  0.0% <<<
Save at k=100/eeil_e20_wisdm_3/wisdm_flex_eeil
======
LLL_Net(
  (model): SimpleMLP(
    (fc1): Linear(in_features=91, out_features=1000, bias=True)
    (fc2): Sequential()
  )
  (heads): ModuleList(
    (0): Linear(in_features=1000, out_features=34, bias=True)
    (1): Linear(in_features=1000, out_features=20, bias=True)
    (2): Linear(in_features=1000, out_features=20, bias=True)
    (3): Linear(in_features=1000, out_features=20, bias=True)
    (4): Linear(in_features=1000, out_features=20, bias=True)
    (5): Linear(in_features=1000, out_features=20, bias=True)
    (6): Linear(in_features=1000, out_features=20, bias=True)
    (7): Linear(in_features=1000, out_features=20, bias=True)
    (8): Linear(in_features=1000, out_features=20, bias=True)
    (9): Linear(in_features=1000, out_features=20, bias=True)
    (10): Linear(in_features=1000, out_features=20, bias=True)
    (11): Linear(in_features=1000, out_features=20, bias=True)
    (12): Linear(in_features=1000, out_features=20, bias=True)
    (13): Linear(in_features=1000, out_features=20, bias=True)
    (14): Linear(in_features=1000, out_features=20, bias=True)
    (15): Linear(in_features=1000, out_features=20, bias=True)
    (16): Linear(in_features=1000, out_features=20, bias=True)
    (17): Linear(in_features=1000, out_features=20, bias=True)
    (18): Linear(in_features=1000, out_features=20, bias=True)
    (19): Linear(in_features=1000, out_features=20, bias=True)
    (20): Linear(in_features=1000, out_features=20, bias=True)
    (21): Linear(in_features=1000, out_features=20, bias=True)
    (22): Linear(in_features=1000, out_features=20, bias=True)
    (23): Linear(in_features=1000, out_features=20, bias=True)
    (24): Linear(in_features=1000, out_features=20, bias=True)
    (25): Linear(in_features=1000, out_features=20, bias=True)
    (26): Linear(in_features=1000, out_features=20, bias=True)
    (27): Linear(in_features=1000, out_features=20, bias=True)
    (28): Linear(in_features=1000, out_features=20, bias=True)
    (29): Linear(in_features=1000, out_features=20, bias=True)
    (30): Linear(in_features=1000, out_features=20, bias=True)
    (31): Linear(in_features=1000, out_features=20, bias=True)
    (32): Linear(in_features=1000, out_features=20, bias=True)
    (33): Linear(in_features=1000, out_features=20, bias=True)
    (34): Linear(in_features=1000, out_features=20, bias=True)
    (35): Linear(in_features=1000, out_features=20, bias=True)
    (36): Linear(in_features=1000, out_features=20, bias=True)
    (37): Linear(in_features=1000, out_features=20, bias=True)
    (38): Linear(in_features=1000, out_features=20, bias=True)
  )
)
======

************************************************************************************************************
Task 39
************************************************************************************************************
| Epoch   1, time=  4.2s | Train: skip eval | Valid: time=  0.2s loss=11.083, TAw acc=  8.2% | *
| Epoch   2, time=  4.3s | Train: skip eval | Valid: time=  0.2s loss=10.961, TAw acc=  9.2% | *
…
>>> Test on task 34 : loss=2.675 | TAw acc= 86.6%, forg=  2.5%| TAg acc= 26.9%, forg= 16.8% <<<
>>> Test on task 35 : loss=2.444 | TAw acc= 97.3%, forg=  1.8%| TAg acc= 32.7%, forg= 15.9% <<<
>>> Test on task 36 : loss=2.717 | TAw acc= 98.1%, forg=  0.0%| TAg acc= 12.6%, forg= 22.3% <<<
>>> Test on task 37 : loss=2.600 | TAw acc= 95.9%, forg= -2.5%| TAg acc= 13.2%, forg= 40.5% <<<
>>> Test on task 38 : loss=2.916 | TAw acc= 97.4%, forg=-12.3%| TAg acc= 10.5%, forg= 42.1% <<<
>>> Test on task 39 : loss=2.143 | TAw acc= 76.6%, forg=  0.0%| TAg acc= 51.6%, forg=  0.0% <<<
Save at k=100/eeil_e20_wisdm_3/wisdm_flex_eeil
======
LLL_Net(
  (model): SimpleMLP(
    (fc1): Linear(in_features=91, out_features=1000, bias=True)
    (fc2): Sequential()
  )
  (heads): ModuleList(
    (0): Linear(in_features=1000, out_features=34, bias=True)
    (1): Linear(in_features=1000, out_features=20, bias=True)
    (2): Linear(in_features=1000, out_features=20, bias=True)
    (3): Linear(in_features=1000, out_features=20, bias=True)
    (4): Linear(in_features=1000, out_features=20, bias=True)
    (5): Linear(in_features=1000, out_features=20, bias=True)
    (6): Linear(in_features=1000, out_features=20, bias=True)
    (7): Linear(in_features=1000, out_features=20, bias=True)
    (8): Linear(in_features=1000, out_features=20, bias=True)
    (9): Linear(in_features=1000, out_features=20, bias=True)
    (10): Linear(in_features=1000, out_features=20, bias=True)
    (11): Linear(in_features=1000, out_features=20, bias=True)
    (12): Linear(in_features=1000, out_features=20, bias=True)
    (13): Linear(in_features=1000, out_features=20, bias=True)
    (14): Linear(in_features=1000, out_features=20, bias=True)
    (15): Linear(in_features=1000, out_features=20, bias=True)
    (16): Linear(in_features=1000, out_features=20, bias=True)
    (17): Linear(in_features=1000, out_features=20, bias=True)
    (18): Linear(in_features=1000, out_features=20, bias=True)
    (19): Linear(in_features=1000, out_features=20, bias=True)
    (20): Linear(in_features=1000, out_features=20, bias=True)
    (21): Linear(in_features=1000, out_features=20, bias=True)
    (22): Linear(in_features=1000, out_features=20, bias=True)
    (23): Linear(in_features=1000, out_features=20, bias=True)
    (24): Linear(in_features=1000, out_features=20, bias=True)
    (25): Linear(in_features=1000, out_features=20, bias=True)
    (26): Linear(in_features=1000, out_features=20, bias=True)
    (27): Linear(in_features=1000, out_features=20, bias=True)
    (28): Linear(in_features=1000, out_features=20, bias=True)
    (29): Linear(in_features=1000, out_features=20, bias=True)
    (30): Linear(in_features=1000, out_features=20, bias=True)
    (31): Linear(in_features=1000, out_features=20, bias=True)
    (32): Linear(in_features=1000, out_features=20, bias=True)
    (33): Linear(in_features=1000, out_features=20, bias=True)
    (34): Linear(in_features=1000, out_features=20, bias=True)
    (35): Linear(in_features=1000, out_features=20, bias=True)
    (36): Linear(in_features=1000, out_features=20, bias=True)
    (37): Linear(in_features=1000, out_features=20, bias=True)
    (38): Linear(in_features=1000, out_features=20, bias=True)
    (39): Linear(in_features=1000, out_features=20, bias=True)
  )
)
======

************************************************************************************************************
Task 40
************************************************************************************************************
| Epoch   1, time=  4.6s | Train: skip eval | Valid: time=  0.3s loss=11.109, TAw acc=  1.9% | *
| Epoch   2, time=  4.4s | Train: skip eval | Valid: time=  0.3s loss=11.010, TAw acc=  1.9% | *
…
