…
| Selected 1436 train exemplars, time=  1.1s
1436
------------------------------------------------------------------------------------------------------------
>>> Test on task  0 : loss=0.297 | TAw acc= 95.8%, forg=  0.0%| TAg acc= 84.0%, forg= 11.8% <<<
>>> Test on task  1 : loss=3.230 | TAw acc= 97.5%, forg=  0.0%| TAg acc= 92.5%, forg=  0.8% <<<
>>> Test on task  2 : loss=5.890 | TAw acc= 91.7%, forg=  0.0%| TAg acc= 81.7%, forg=  0.0% <<<
>>> Test on task  3 : loss=7.203 | TAw acc= 87.5%, forg=  0.0%| TAg acc= 82.5%, forg=  0.0% <<<
Save at k=100/icarl_dsads_2/har_flex_icarl
======
LLL_Net(
  (model): SimpleMLP(
    (fc1): Linear(in_features=405, out_features=66, bias=True)
    (fc2): Sequential()
  )
  (heads): ModuleList(
    (0): Linear(in_features=66, out_features=12, bias=True)
    (1): Linear(in_features=66, out_features=10, bias=True)
    (2): Linear(in_features=66, out_features=10, bias=True)
    (3): Linear(in_features=66, out_features=10, bias=True)
  )
)
======

************************************************************************************************************
Task  4
************************************************************************************************************
| Epoch   1, time=  0.8s | Train: skip eval | Valid: time=  0.2s loss=15.372, TAw acc= 14.6% | *
| Epoch   2, time=  0.8s | Train: skip eval | Valid: time=  0.1s loss=11.970, TAw acc= 61.5% | *
…
------------------------------------------------------------------------------------------------------------
>>> Test on task  0 : loss=0.392 | TAw acc= 95.8%, forg=  0.0%| TAg acc= 79.9%, forg= 16.0% <<<
>>> Test on task  1 : loss=3.268 | TAw acc= 97.5%, forg=  0.0%| TAg acc= 91.7%, forg=  1.7% <<<
>>> Test on task  2 : loss=5.833 | TAw acc= 91.7%, forg=  0.0%| TAg acc= 75.8%, forg=  5.8% <<<
>>> Test on task  3 : loss=7.057 | TAw acc= 87.5%, forg=  0.0%| TAg acc= 80.8%, forg=  1.7% <<<
>>> Test on task  4 : loss=10.018 | TAw acc= 89.2%, forg=  0.0%| TAg acc= 75.8%, forg=  0.0% <<<
Save at k=100/icarl_dsads_2/har_flex_icarl
======
LLL_Net(
  (model): SimpleMLP(
    (fc1): Linear(in_features=405, out_features=66, bias=True)
    (fc2): Sequential()
  )
  (heads): ModuleList(
    (0): Linear(in_features=66, out_features=12, bias=True)
    (1): Linear(in_features=66, out_features=10, bias=True)
    (2): Linear(in_features=66, out_features=10, bias=True)
    (3): Linear(in_features=66, out_features=10, bias=True)
    (4): Linear(in_features=66, out_features=10, bias=True)
  )
)
======

************************************************************************************************************
Task  5
************************************************************************************************************
| Epoch   1, time=  1.1s | Train: skip eval | Valid: time=  0.1s loss=17.462, TAw acc= 24.0% | *
| Epoch   2, time=  1.1s | Train: skip eval | Valid: time=  0.1s loss=15.088, TAw acc= 54.2% | *
…
>>> Test on task  0 : loss=0.411 | TAw acc= 95.8%, forg=  0.0%| TAg acc= 79.9%, forg= 16.0% <<<
>>> Test on task  1 : loss=3.167 | TAw acc= 97.5%, forg=  0.0%| TAg acc= 90.8%, forg=  2.5% <<<
>>> Test on task  2 : loss=5.705 | TAw acc= 91.7%, forg=  0.0%| TAg acc= 74.2%, forg=  7.5% <<<
>>> Test on task  3 : loss=6.878 | TAw acc= 87.5%, forg=  0.0%| TAg acc= 80.8%, forg=  1.7% <<<
>>> Test on task  4 : loss=9.837 | TAw acc= 89.2%, forg=  0.0%| TAg acc= 74.2%, forg=  1.7% <<<
>>> Test on task  5 : loss=12.705 | TAw acc= 96.7%, forg=  0.0%| TAg acc= 81.7%, forg=  0.0% <<<
Save at k=100/icarl_dsads_2/har_flex_icarl
======
LLL_Net(
  (model): SimpleMLP(
    (fc1): Linear(in_features=405, out_features=66, bias=True)
    (fc2): Sequential()
  )
  (heads): ModuleList(
    (0): Linear(in_features=66, out_features=12, bias=True)
    (1): Linear(in_features=66, out_features=10, bias=True)
    (2): Linear(in_features=66, out_features=10, bias=True)
    (3): Linear(in_features=66, out_features=10, bias=True)
    (4): Linear(in_features=66, out_features=10, bias=True)
    (5): Linear(in_features=66, out_features=10, bias=True)
  )
)
======

************************************************************************************************************
Task  6
************************************************************************************************************
| Epoch   1, time=  1.5s | Train: skip eval | Valid: time=  0.1s loss=18.950, TAw acc= 30.2% | *
| Epoch   2, time=  1.4s | Train: skip eval | Valid: time=  0.1s loss=16.079, TAw acc= 69.8% | *
…
>>> Test on task  1 : loss=3.127 | TAw acc= 97.5%, forg=  0.0%| TAg acc= 90.8%, forg=  2.5% <<<
>>> Test on task  2 : loss=5.589 | TAw acc= 91.7%, forg=  0.0%| TAg acc= 73.3%, forg=  8.3% <<<
>>> Test on task  3 : loss=6.755 | TAw acc= 87.5%, forg=  0.0%| TAg acc= 78.3%, forg=  4.2% <<<
>>> Test on task  4 : loss=9.589 | TAw acc= 89.2%, forg=  0.0%| TAg acc= 74.2%, forg=  1.7% <<<
>>> Test on task  5 : loss=12.458 | TAw acc= 96.7%, forg=  0.0%| TAg acc= 80.8%, forg=  0.8% <<<
>>> Test on task  6 : loss=13.915 | TAw acc=100.0%, forg=  0.0%| TAg acc= 85.0%, forg=  0.0% <<<
Save at k=100/icarl_dsads_2/har_flex_icarl
======
LLL_Net(
  (model): SimpleMLP(
    (fc1): Linear(in_features=405, out_features=66, bias=True)
    (fc2): Sequential()
  )
  (heads): ModuleList(
    (0): Linear(in_features=66, out_features=12, bias=True)
    (1): Linear(in_features=66, out_features=10, bias=True)
    (2): Linear(in_features=66, out_features=10, bias=True)
    (3): Linear(in_features=66, out_features=10, bias=True)
    (4): Linear(in_features=66, out_features=10, bias=True)
    (5): Linear(in_features=66, out_features=10, bias=True)
    (6): Linear(in_features=66, out_features=10, bias=True)
  )
)
======

************************************************************************************************************
Task  7
************************************************************************************************************
| Epoch   1, time=  1.7s | Train: skip eval | Valid: time=  0.1s loss=22.405, TAw acc= 20.8% | *
| Epoch   2, time=  1.8s | Train: skip eval | Valid: time=  0.2s loss=18.149, TAw acc= 56.2% | *
…
>>> Test on task  2 : loss=5.401 | TAw acc= 91.7%, forg=  0.0%| TAg acc= 73.3%, forg=  8.3% <<<
>>> Test on task  3 : loss=6.584 | TAw acc= 87.5%, forg=  0.0%| TAg acc= 76.7%, forg=  5.8% <<<
>>> Test on task  4 : loss=9.427 | TAw acc= 89.2%, forg=  0.0%| TAg acc= 72.5%, forg=  3.3% <<<
>>> Test on task  5 : loss=12.095 | TAw acc= 96.7%, forg=  0.0%| TAg acc= 80.0%, forg=  1.7% <<<
>>> Test on task  6 : loss=13.647 | TAw acc=100.0%, forg=  0.0%| TAg acc= 84.2%, forg=  0.8% <<<
>>> Test on task  7 : loss=15.190 | TAw acc= 95.8%, forg=  0.0%| TAg acc= 75.8%, forg=  0.0% <<<
Save at k=100/icarl_dsads_2/har_flex_icarl
======
LLL_Net(
  (model): SimpleMLP(
    (fc1): Linear(in_features=405, out_features=66, bias=True)
    (fc2): Sequential()
  )
  (heads): ModuleList(
    (0): Linear(in_features=66, out_features=12, bias=True)
    (1): Linear(in_features=66, out_features=10, bias=True)
    (2): Linear(in_features=66, out_features=10, bias=True)
    (3): Linear(in_features=66, out_features=10, bias=True)
    (4): Linear(in_features=66, out_features=10, bias=True)
    (5): Linear(in_features=66, out_features=10, bias=True)
    (6): Linear(in_features=66, out_features=10, bias=True)
    (7): Linear(in_features=66, out_features=10, bias=True)
  )
)
======

************************************************************************************************************
Task  8
************************************************************************************************************
| Epoch   1, time=  2.2s | Train: skip eval | Valid: time=  0.2s loss=20.556, TAw acc= 20.8% | *
| Epoch   2, time=  2.3s | Train: skip eval | Valid: time=  0.2s loss=16.850, TAw acc= 65.6% | *
…
>>> Test on task  3 : loss=6.331 | TAw acc= 87.5%, forg=  0.0%| TAg acc= 75.0%, forg=  7.5% <<<
>>> Test on task  4 : loss=9.107 | TAw acc= 89.2%, forg=  0.0%| TAg acc= 72.5%, forg=  3.3% <<<
>>> Test on task  5 : loss=11.683 | TAw acc= 96.7%, forg=  0.0%| TAg acc= 80.0%, forg=  1.7% <<<
>>> Test on task  6 : loss=13.274 | TAw acc=100.0%, forg=  0.0%| TAg acc= 84.2%, forg=  0.8% <<<
>>> Test on task  7 : loss=14.739 | TAw acc= 95.8%, forg=  0.0%| TAg acc= 75.8%, forg=  0.0% <<<
>>> Test on task  8 : loss=14.661 | TAw acc= 95.8%, forg=  0.0%| TAg acc= 85.8%, forg=  0.0% <<<
Save at k=100/icarl_dsads_2/har_flex_icarl
======
LLL_Net(
  (model): SimpleMLP(
    (fc1): Linear(in_features=405, out_features=66, bias=True)
    (fc2): Sequential()
  )
  (heads): ModuleList(
    (0): Linear(in_features=66, out_features=12, bias=True)
    (1): Linear(in_features=66, out_features=10, bias=True)
    (2): Linear(in_features=66, out_features=10, bias=True)
    (3): Linear(in_features=66, out_features=10, bias=True)
    (4): Linear(in_features=66, out_features=10, bias=True)
    (5): Linear(in_features=66, out_features=10, bias=True)
    (6): Linear(in_features=66, out_features=10, bias=True)
    (7): Linear(in_features=66, out_features=10, bias=True)
    (8): Linear(in_features=66, out_features=10, bias=True)
  )
)
======

************************************************************************************************************
Task  9
************************************************************************************************************
| Epoch   1, time=  2.6s | Train: skip eval | Valid: time=  0.2s loss=21.710, TAw acc= 31.2% | *
| Epoch   2, time=  2.6s | Train: skip eval | Valid: time=  0.1s loss=18.221, TAw acc= 74.0% | *
…
>>> Test on task  4 : loss=8.884 | TAw acc= 89.2%, forg=  0.0%| TAg acc= 71.7%, forg=  4.2% <<<
>>> Test on task  5 : loss=11.432 | TAw acc= 96.7%, forg=  0.0%| TAg acc= 78.3%, forg=  3.3% <<<
>>> Test on task  6 : loss=13.053 | TAw acc=100.0%, forg=  0.0%| TAg acc= 82.5%, forg=  2.5% <<<
>>> Test on task  7 : loss=14.432 | TAw acc= 95.8%, forg=  0.0%| TAg acc= 75.8%, forg=  0.0% <<<
>>> Test on task  8 : loss=14.371 | TAw acc= 95.8%, forg=  0.0%| TAg acc= 85.8%, forg=  0.0% <<<
>>> Test on task  9 : loss=16.076 | TAw acc= 97.5%, forg=  0.0%| TAg acc= 85.0%, forg=  0.0% <<<
Save at k=100/icarl_dsads_2/har_flex_icarl
======
LLL_Net(
  (model): SimpleMLP(
    (fc1): Linear(in_features=405, out_features=66, bias=True)
    (fc2): Sequential()
  )
  (heads): ModuleList(
    (0): Linear(in_features=66, out_features=12, bias=True)
    (1): Linear(in_features=66, out_features=10, bias=True)
    (2): Linear(in_features=66, out_features=10, bias=True)
    (3): Linear(in_features=66, out_features=10, bias=True)
    (4): Linear(in_features=66, out_features=10, bias=True)
    (5): Linear(in_features=66, out_features=10, bias=True)
    (6): Linear(in_features=66, out_features=10, bias=True)
    (7): Linear(in_features=66, out_features=10, bias=True)
    (8): Linear(in_features=66, out_features=10, bias=True)
    (9): Linear(in_features=66, out_features=10, bias=True)
  )
)
======

************************************************************************************************************
Task 10
************************************************************************************************************
| Epoch   1, time=  3.2s | Train: skip eval | Valid: time=  0.2s loss=23.520, TAw acc= 38.5% | *
| Epoch   2, time=  3.2s | Train: skip eval | Valid: time=  0.2s loss=18.838, TAw acc= 65.6% | *
…
>>> Test on task  5 : loss=11.175 | TAw acc= 96.7%, forg=  0.0%| TAg acc= 77.5%, forg=  4.2% <<<
>>> Test on task  6 : loss=12.725 | TAw acc=100.0%, forg=  0.0%| TAg acc= 82.5%, forg=  2.5% <<<
>>> Test on task  7 : loss=14.042 | TAw acc= 95.8%, forg=  0.0%| TAg acc= 75.8%, forg=  0.0% <<<
>>> Test on task  8 : loss=14.045 | TAw acc= 95.8%, forg=  0.0%| TAg acc= 85.0%, forg=  0.8% <<<
>>> Test on task  9 : loss=15.673 | TAw acc= 97.5%, forg=  0.0%| TAg acc= 85.0%, forg=  0.0% <<<
>>> Test on task 10 : loss=16.711 | TAw acc= 99.2%, forg=  0.0%| TAg acc= 93.3%, forg=  0.0% <<<
Save at k=100/icarl_dsads_2/har_flex_icarl
======
LLL_Net(
  (model): SimpleMLP(
    (fc1): Linear(in_features=405, out_features=66, bias=True)
    (fc2): Sequential()
  )
  (heads): ModuleList(
    (0): Linear(in_features=66, out_features=12, bias=True)
    (1): Linear(in_features=66, out_features=10, bias=True)
    (2): Linear(in_features=66, out_features=10, bias=True)
    (3): Linear(in_features=66, out_features=10, bias=True)
    (4): Linear(in_features=66, out_features=10, bias=True)
    (5): Linear(in_features=66, out_features=10, bias=True)
    (6): Linear(in_features=66, out_features=10, bias=True)
    (7): Linear(in_features=66, out_features=10, bias=True)
    (8): Linear(in_features=66, out_features=10, bias=True)
    (9): Linear(in_features=66, out_features=10, bias=True)
    (10): Linear(in_features=66, out_features=10, bias=True)
  )
)
======

************************************************************************************************************
Task 11
************************************************************************************************************
| Epoch   1, time=  3.5s | Train: skip eval | Valid: time=  0.2s loss=26.742, TAw acc= 18.8% | *
| Epoch   2, time=  3.5s | Train: skip eval | Valid: time=  0.2s loss=21.243, TAw acc= 72.9% | *
…
>>> Test on task  6 : loss=12.515 | TAw acc=100.0%, forg=  0.0%| TAg acc= 82.5%, forg=  2.5% <<<
>>> Test on task  7 : loss=13.779 | TAw acc= 95.8%, forg=  0.0%| TAg acc= 75.8%, forg=  0.0% <<<
>>> Test on task  8 : loss=13.756 | TAw acc= 95.8%, forg=  0.0%| TAg acc= 85.0%, forg=  0.8% <<<
>>> Test on task  9 : loss=15.375 | TAw acc= 97.5%, forg=  0.0%| TAg acc= 85.0%, forg=  0.0% <<<
>>> Test on task 10 : loss=16.385 | TAw acc= 99.2%, forg=  0.0%| TAg acc= 93.3%, forg=  0.0% <<<
>>> Test on task 11 : loss=18.199 | TAw acc=100.0%, forg=  0.0%| TAg acc= 87.5%, forg=  0.0% <<<
Save at k=100/icarl_dsads_2/har_flex_icarl
======
LLL_Net(
  (model): SimpleMLP(
    (fc1): Linear(in_features=405, out_features=66, bias=True)
    (fc2): Sequential()
  )
  (heads): ModuleList(
    (0): Linear(in_features=66, out_features=12, bias=True)
    (1): Linear(in_features=66, out_features=10, bias=True)
    (2): Linear(in_features=66, out_features=10, bias=True)
    (3): Linear(in_features=66, out_features=10, bias=True)
    (4): Linear(in_features=66, out_features=10, bias=True)
    (5): Linear(in_features=66, out_features=10, bias=True)
    (6): Linear(in_features=66, out_features=10, bias=True)
    (7): Linear(in_features=66, out_features=10, bias=True)
    (8): Linear(in_features=66, out_features=10, bias=True)
    (9): Linear(in_features=66, out_features=10, bias=True)
    (10): Linear(in_features=66, out_features=10, bias=True)
    (11): Linear(in_features=66, out_features=10, bias=True)
  )
)
======

************************************************************************************************************
Task 12
************************************************************************************************************
| Epoch   1, time=  4.4s | Train: skip eval | Valid: time=  0.2s loss=25.542, TAw acc= 11.5% | *
| Epoch   2, time=  4.3s | Train: skip eval | Valid: time=  0.2s loss=20.583, TAw acc= 51.0% | *
…
>>> Test on task  7 : loss=13.577 | TAw acc= 95.8%, forg=  0.0%| TAg acc= 69.2%, forg=  6.7% <<<
>>> Test on task  8 : loss=13.510 | TAw acc= 95.8%, forg=  0.0%| TAg acc= 85.0%, forg=  0.8% <<<
>>> Test on task  9 : loss=15.003 | TAw acc= 97.5%, forg=  0.0%| TAg acc= 85.0%, forg=  0.0% <<<
>>> Test on task 10 : loss=15.976 | TAw acc= 99.2%, forg=  0.0%| TAg acc= 91.7%, forg=  1.7% <<<
>>> Test on task 11 : loss=17.724 | TAw acc=100.0%, forg=  0.0%| TAg acc= 87.5%, forg=  0.0% <<<
>>> Test on task 12 : loss=18.330 | TAw acc= 95.8%, forg=  0.0%| TAg acc= 80.8%, forg=  0.0% <<<
Save at k=100/icarl_dsads_2/har_flex_icarl
======
LLL_Net(
  (model): SimpleMLP(
    (fc1): Linear(in_features=405, out_features=66, bias=True)
    (fc2): Sequential()
  )
  (heads): ModuleList(
    (0): Linear(in_features=66, out_features=12, bias=True)
    (1): Linear(in_features=66, out_features=10, bias=True)
    (2): Linear(in_features=66, out_features=10, bias=True)
    (3): Linear(in_features=66, out_features=10, bias=True)
    (4): Linear(in_features=66, out_features=10, bias=True)
    (5): Linear(in_features=66, out_features=10, bias=True)
    (6): Linear(in_features=66, out_features=10, bias=True)
    (7): Linear(in_features=66, out_features=10, bias=True)
    (8): Linear(in_features=66, out_features=10, bias=True)
    (9): Linear(in_features=66, out_features=10, bias=True)
    (10): Linear(in_features=66, out_features=10, bias=True)
    (11): Linear(in_features=66, out_features=10, bias=True)
    (12): Linear(in_features=66, out_features=10, bias=True)
  )
)
======

************************************************************************************************************
Task 13
************************************************************************************************************
| Epoch   1, time=  5.0s | Train: skip eval | Valid: time=  0.2s loss=26.854, TAw acc= 39.6% | *
| Epoch   2, time=  4.6s | Train: skip eval | Valid: time=  0.2s loss=21.073, TAw acc= 80.2% | *
…
>>> Test on task  8 : loss=13.352 | TAw acc= 95.8%, forg=  0.0%| TAg acc= 85.0%, forg=  0.8% <<<
>>> Test on task  9 : loss=14.870 | TAw acc= 97.5%, forg=  0.0%| TAg acc= 84.2%, forg=  0.8% <<<
>>> Test on task 10 : loss=15.710 | TAw acc= 99.2%, forg=  0.0%| TAg acc= 91.7%, forg=  1.7% <<<
>>> Test on task 11 : loss=17.475 | TAw acc=100.0%, forg=  0.0%| TAg acc= 87.5%, forg=  0.0% <<<
>>> Test on task 12 : loss=18.145 | TAw acc= 95.8%, forg=  0.0%| TAg acc= 79.2%, forg=  1.7% <<<
>>> Test on task 13 : loss=19.667 | TAw acc= 98.3%, forg=  0.0%| TAg acc= 88.3%, forg=  0.0% <<<
Save at k=100/icarl_dsads_2/har_flex_icarl
======
LLL_Net(
  (model): SimpleMLP(
    (fc1): Linear(in_features=405, out_features=66, bias=True)
    (fc2): Sequential()
  )
  (heads): ModuleList(
    (0): Linear(in_features=66, out_features=12, bias=True)
    (1): Linear(in_features=66, out_features=10, bias=True)
    (2): Linear(in_features=66, out_features=10, bias=True)
    (3): Linear(in_features=66, out_features=10, bias=True)
    (4): Linear(in_features=66, out_features=10, bias=True)
    (5): Linear(in_features=66, out_features=10, bias=True)
    (6): Linear(in_features=66, out_features=10, bias=True)
    (7): Linear(in_features=66, out_features=10, bias=True)
    (8): Linear(in_features=66, out_features=10, bias=True)
    (9): Linear(in_features=66, out_features=10, bias=True)
    (10): Linear(in_features=66, out_features=10, bias=True)
    (11): Linear(in_features=66, out_features=10, bias=True)
    (12): Linear(in_features=66, out_features=10, bias=True)
    (13): Linear(in_features=66, out_features=10, bias=True)
  )
)
======

************************************************************************************************************
Task 14
************************************************************************************************************
| Epoch   1, time=  5.3s | Train: skip eval | Valid: time=  0.2s loss=26.881, TAw acc= 29.2% | *
| Epoch   2, time=  5.2s | Train: skip eval | Valid: time=  0.2s loss=21.183, TAw acc= 62.5% | *
…
