…
| Selected 420 train exemplars, time=  0.0s
420
------------------------------------------------------------------------------------------------------------
>>> Test on task  0 : loss=0.645 | TAw acc= 97.9%, forg=  0.0%| TAg acc= 77.1%, forg= 20.8% <<<
>>> Test on task  1 : loss=0.459 | TAw acc=100.0%, forg=  0.0%| TAg acc= 87.5%, forg= 11.7% <<<
>>> Test on task  2 : loss=0.712 | TAw acc= 98.3%, forg=  0.0%| TAg acc= 73.3%, forg= 25.0% <<<
>>> Test on task  3 : loss=0.414 | TAw acc= 96.7%, forg=  0.0%| TAg acc= 94.2%, forg=  0.0% <<<
Save at k=10/eeil_dsads_4/har_flex_eeil
======
LLL_Net(
  (model): SimpleMLP(
    (fc1): Linear(in_features=405, out_features=66, bias=True)
    (fc2): Sequential()
  )
  (heads): ModuleList(
    (0): Linear(in_features=66, out_features=12, bias=True)
    (1): Linear(in_features=66, out_features=10, bias=True)
    (2): Linear(in_features=66, out_features=10, bias=True)
    (3): Linear(in_features=66, out_features=10, bias=True)
  )
)
======

************************************************************************************************************
Task  4
************************************************************************************************************
| Epoch   1, time=  0.4s | Train: skip eval | Valid: time=  0.2s loss=3.959, TAw acc= 24.0% | *
| Epoch   2, time=  0.3s | Train: skip eval | Valid: time=  0.2s loss=2.179, TAw acc= 51.0% | *
…
------------------------------------------------------------------------------------------------------------
>>> Test on task  0 : loss=0.670 | TAw acc= 97.9%, forg=  0.0%| TAg acc= 81.9%, forg= 16.0% <<<
>>> Test on task  1 : loss=0.601 | TAw acc=100.0%, forg=  0.0%| TAg acc= 85.0%, forg= 14.2% <<<
>>> Test on task  2 : loss=0.743 | TAw acc= 97.5%, forg=  0.8%| TAg acc= 73.3%, forg= 25.0% <<<
>>> Test on task  3 : loss=0.930 | TAw acc= 98.3%, forg= -1.7%| TAg acc= 78.3%, forg= 15.8% <<<
>>> Test on task  4 : loss=0.471 | TAw acc= 94.2%, forg=  0.0%| TAg acc= 93.3%, forg=  0.0% <<<
Save at k=10/eeil_dsads_4/har_flex_eeil
======
LLL_Net(
  (model): SimpleMLP(
    (fc1): Linear(in_features=405, out_features=66, bias=True)
    (fc2): Sequential()
  )
  (heads): ModuleList(
    (0): Linear(in_features=66, out_features=12, bias=True)
    (1): Linear(in_features=66, out_features=10, bias=True)
    (2): Linear(in_features=66, out_features=10, bias=True)
    (3): Linear(in_features=66, out_features=10, bias=True)
    (4): Linear(in_features=66, out_features=10, bias=True)
  )
)
======

************************************************************************************************************
Task  5
************************************************************************************************************
| Epoch   1, time=  0.4s | Train: skip eval | Valid: time=  0.2s loss=3.558, TAw acc= 39.6% | *
| Epoch   2, time=  0.4s | Train: skip eval | Valid: time=  0.2s loss=1.696, TAw acc= 54.2% | *
…
>>> Test on task  0 : loss=0.693 | TAw acc= 97.9%, forg=  0.0%| TAg acc= 82.6%, forg= 15.3% <<<
>>> Test on task  1 : loss=0.757 | TAw acc= 99.2%, forg=  0.8%| TAg acc= 82.5%, forg= 16.7% <<<
>>> Test on task  2 : loss=0.609 | TAw acc= 99.2%, forg= -0.8%| TAg acc= 89.2%, forg=  9.2% <<<
>>> Test on task  3 : loss=1.055 | TAw acc= 97.5%, forg=  0.8%| TAg acc= 70.0%, forg= 24.2% <<<
>>> Test on task  4 : loss=0.877 | TAw acc= 94.2%, forg=  0.0%| TAg acc= 86.7%, forg=  6.7% <<<
>>> Test on task  5 : loss=0.734 | TAw acc= 90.0%, forg=  0.0%| TAg acc= 85.8%, forg=  0.0% <<<
Save at k=10/eeil_dsads_4/har_flex_eeil
======
LLL_Net(
  (model): SimpleMLP(
    (fc1): Linear(in_features=405, out_features=66, bias=True)
    (fc2): Sequential()
  )
  (heads): ModuleList(
    (0): Linear(in_features=66, out_features=12, bias=True)
    (1): Linear(in_features=66, out_features=10, bias=True)
    (2): Linear(in_features=66, out_features=10, bias=True)
    (3): Linear(in_features=66, out_features=10, bias=True)
    (4): Linear(in_features=66, out_features=10, bias=True)
    (5): Linear(in_features=66, out_features=10, bias=True)
  )
)
======

************************************************************************************************************
Task  6
************************************************************************************************************
| Epoch   1, time=  0.4s | Train: skip eval | Valid: time=  0.2s loss=3.605, TAw acc= 39.6% | *
| Epoch   2, time=  0.4s | Train: skip eval | Valid: time=  0.2s loss=1.838, TAw acc= 59.4% | *
…
>>> Test on task  1 : loss=0.871 | TAw acc= 99.2%, forg=  0.8%| TAg acc= 76.7%, forg= 22.5% <<<
>>> Test on task  2 : loss=0.619 | TAw acc= 97.5%, forg=  1.7%| TAg acc= 90.0%, forg=  8.3% <<<
>>> Test on task  3 : loss=0.999 | TAw acc= 96.7%, forg=  1.7%| TAg acc= 74.2%, forg= 20.0% <<<
>>> Test on task  4 : loss=0.937 | TAw acc= 94.2%, forg=  0.0%| TAg acc= 83.3%, forg= 10.0% <<<
>>> Test on task  5 : loss=1.272 | TAw acc= 91.7%, forg= -1.7%| TAg acc= 62.5%, forg= 23.3% <<<
>>> Test on task  6 : loss=0.338 | TAw acc=100.0%, forg=  0.0%| TAg acc= 98.3%, forg=  0.0% <<<
Save at k=10/eeil_dsads_4/har_flex_eeil
======
LLL_Net(
  (model): SimpleMLP(
    (fc1): Linear(in_features=405, out_features=66, bias=True)
    (fc2): Sequential()
  )
  (heads): ModuleList(
    (0): Linear(in_features=66, out_features=12, bias=True)
    (1): Linear(in_features=66, out_features=10, bias=True)
    (2): Linear(in_features=66, out_features=10, bias=True)
    (3): Linear(in_features=66, out_features=10, bias=True)
    (4): Linear(in_features=66, out_features=10, bias=True)
    (5): Linear(in_features=66, out_features=10, bias=True)
    (6): Linear(in_features=66, out_features=10, bias=True)
  )
)
======

************************************************************************************************************
Task  7
************************************************************************************************************
| Epoch   1, time=  0.4s | Train: skip eval | Valid: time=  0.2s loss=3.322, TAw acc= 46.9% | *
| Epoch   2, time=  0.5s | Train: skip eval | Valid: time=  0.3s loss=1.707, TAw acc= 77.1% | *
…
>>> Test on task  2 : loss=0.637 | TAw acc= 99.2%, forg=  0.0%| TAg acc= 86.7%, forg= 11.7% <<<
>>> Test on task  3 : loss=0.906 | TAw acc= 97.5%, forg=  0.8%| TAg acc= 78.3%, forg= 15.8% <<<
>>> Test on task  4 : loss=1.020 | TAw acc= 94.2%, forg=  0.0%| TAg acc= 75.8%, forg= 17.5% <<<
>>> Test on task  5 : loss=1.383 | TAw acc= 91.7%, forg=  0.0%| TAg acc= 50.0%, forg= 35.8% <<<
>>> Test on task  6 : loss=0.761 | TAw acc=100.0%, forg=  0.0%| TAg acc= 83.3%, forg= 15.0% <<<
>>> Test on task  7 : loss=0.527 | TAw acc= 94.2%, forg=  0.0%| TAg acc= 87.5%, forg=  0.0% <<<
Save at k=10/eeil_dsads_4/har_flex_eeil
======
LLL_Net(
  (model): SimpleMLP(
    (fc1): Linear(in_features=405, out_features=66, bias=True)
    (fc2): Sequential()
  )
  (heads): ModuleList(
    (0): Linear(in_features=66, out_features=12, bias=True)
    (1): Linear(in_features=66, out_features=10, bias=True)
    (2): Linear(in_features=66, out_features=10, bias=True)
    (3): Linear(in_features=66, out_features=10, bias=True)
    (4): Linear(in_features=66, out_features=10, bias=True)
    (5): Linear(in_features=66, out_features=10, bias=True)
    (6): Linear(in_features=66, out_features=10, bias=True)
    (7): Linear(in_features=66, out_features=10, bias=True)
  )
)
======

************************************************************************************************************
Task  8
************************************************************************************************************
| Epoch   1, time=  0.5s | Train: skip eval | Valid: time=  0.3s loss=3.622, TAw acc= 49.0% | *
| Epoch   2, time=  0.5s | Train: skip eval | Valid: time=  0.2s loss=1.904, TAw acc= 68.8% | *
…
>>> Test on task  3 : loss=1.008 | TAw acc= 96.7%, forg=  1.7%| TAg acc= 80.0%, forg= 14.2% <<<
>>> Test on task  4 : loss=0.986 | TAw acc= 94.2%, forg=  0.0%| TAg acc= 80.0%, forg= 13.3% <<<
>>> Test on task  5 : loss=1.347 | TAw acc= 91.7%, forg=  0.0%| TAg acc= 55.8%, forg= 30.0% <<<
>>> Test on task  6 : loss=0.717 | TAw acc=100.0%, forg=  0.0%| TAg acc= 85.8%, forg= 12.5% <<<
>>> Test on task  7 : loss=1.217 | TAw acc= 92.5%, forg=  1.7%| TAg acc= 57.5%, forg= 30.0% <<<
>>> Test on task  8 : loss=0.589 | TAw acc= 97.5%, forg=  0.0%| TAg acc= 95.0%, forg=  0.0% <<<
Save at k=10/eeil_dsads_4/har_flex_eeil
======
LLL_Net(
  (model): SimpleMLP(
    (fc1): Linear(in_features=405, out_features=66, bias=True)
    (fc2): Sequential()
  )
  (heads): ModuleList(
    (0): Linear(in_features=66, out_features=12, bias=True)
    (1): Linear(in_features=66, out_features=10, bias=True)
    (2): Linear(in_features=66, out_features=10, bias=True)
    (3): Linear(in_features=66, out_features=10, bias=True)
    (4): Linear(in_features=66, out_features=10, bias=True)
    (5): Linear(in_features=66, out_features=10, bias=True)
    (6): Linear(in_features=66, out_features=10, bias=True)
    (7): Linear(in_features=66, out_features=10, bias=True)
    (8): Linear(in_features=66, out_features=10, bias=True)
  )
)
======

************************************************************************************************************
Task  9
************************************************************************************************************
| Epoch   1, time=  0.5s | Train: skip eval | Valid: time=  0.3s loss=3.378, TAw acc= 31.2% | *
| Epoch   2, time=  0.6s | Train: skip eval | Valid: time=  0.2s loss=1.989, TAw acc= 50.0% | *
…
>>> Test on task  4 : loss=0.970 | TAw acc= 94.2%, forg=  0.0%| TAg acc= 76.7%, forg= 16.7% <<<
>>> Test on task  5 : loss=1.403 | TAw acc= 92.5%, forg= -0.8%| TAg acc= 54.2%, forg= 31.7% <<<
>>> Test on task  6 : loss=0.856 | TAw acc=100.0%, forg=  0.0%| TAg acc= 75.0%, forg= 23.3% <<<
>>> Test on task  7 : loss=1.260 | TAw acc= 89.2%, forg=  5.0%| TAg acc= 60.0%, forg= 27.5% <<<
>>> Test on task  8 : loss=1.028 | TAw acc= 98.3%, forg= -0.8%| TAg acc= 69.2%, forg= 25.8% <<<
>>> Test on task  9 : loss=0.769 | TAw acc= 90.8%, forg=  0.0%| TAg acc= 89.2%, forg=  0.0% <<<
Save at k=10/eeil_dsads_4/har_flex_eeil
======
LLL_Net(
  (model): SimpleMLP(
    (fc1): Linear(in_features=405, out_features=66, bias=True)
    (fc2): Sequential()
  )
  (heads): ModuleList(
    (0): Linear(in_features=66, out_features=12, bias=True)
    (1): Linear(in_features=66, out_features=10, bias=True)
    (2): Linear(in_features=66, out_features=10, bias=True)
    (3): Linear(in_features=66, out_features=10, bias=True)
    (4): Linear(in_features=66, out_features=10, bias=True)
    (5): Linear(in_features=66, out_features=10, bias=True)
    (6): Linear(in_features=66, out_features=10, bias=True)
    (7): Linear(in_features=66, out_features=10, bias=True)
    (8): Linear(in_features=66, out_features=10, bias=True)
    (9): Linear(in_features=66, out_features=10, bias=True)
  )
)
======

************************************************************************************************************
Task 10
************************************************************************************************************
| Epoch   1, time=  0.7s | Train: skip eval | Valid: time=  0.3s loss=2.857, TAw acc= 45.8% | *
| Epoch   2, time=  0.7s | Train: skip eval | Valid: time=  0.2s loss=1.297, TAw acc= 80.2% | *
…
>>> Test on task  5 : loss=1.337 | TAw acc= 93.3%, forg= -0.8%| TAg acc= 61.7%, forg= 24.2% <<<
>>> Test on task  6 : loss=0.745 | TAw acc=100.0%, forg=  0.0%| TAg acc= 76.7%, forg= 21.7% <<<
>>> Test on task  7 : loss=1.076 | TAw acc= 90.8%, forg=  3.3%| TAg acc= 69.2%, forg= 18.3% <<<
>>> Test on task  8 : loss=0.950 | TAw acc= 96.7%, forg=  1.7%| TAg acc= 79.2%, forg= 15.8% <<<
>>> Test on task  9 : loss=1.339 | TAw acc= 93.3%, forg= -2.5%| TAg acc= 65.0%, forg= 24.2% <<<
>>> Test on task 10 : loss=0.405 | TAw acc= 99.2%, forg=  0.0%| TAg acc= 99.2%, forg=  0.0% <<<
Save at k=10/eeil_dsads_4/har_flex_eeil
======
LLL_Net(
  (model): SimpleMLP(
    (fc1): Linear(in_features=405, out_features=66, bias=True)
    (fc2): Sequential()
  )
  (heads): ModuleList(
    (0): Linear(in_features=66, out_features=12, bias=True)
    (1): Linear(in_features=66, out_features=10, bias=True)
    (2): Linear(in_features=66, out_features=10, bias=True)
    (3): Linear(in_features=66, out_features=10, bias=True)
    (4): Linear(in_features=66, out_features=10, bias=True)
    (5): Linear(in_features=66, out_features=10, bias=True)
    (6): Linear(in_features=66, out_features=10, bias=True)
    (7): Linear(in_features=66, out_features=10, bias=True)
    (8): Linear(in_features=66, out_features=10, bias=True)
    (9): Linear(in_features=66, out_features=10, bias=True)
    (10): Linear(in_features=66, out_features=10, bias=True)
  )
)
======

************************************************************************************************************
Task 11
************************************************************************************************************
| Epoch   1, time=  0.7s | Train: skip eval | Valid: time=  0.3s loss=3.177, TAw acc= 36.5% | *
| Epoch   2, time=  0.7s | Train: skip eval | Valid: time=  0.3s loss=1.975, TAw acc= 69.8% | *
…
>>> Test on task  6 : loss=0.765 | TAw acc=100.0%, forg=  0.0%| TAg acc= 80.8%, forg= 17.5% <<<
>>> Test on task  7 : loss=1.134 | TAw acc= 89.2%, forg=  5.0%| TAg acc= 66.7%, forg= 20.8% <<<
>>> Test on task  8 : loss=1.114 | TAw acc= 98.3%, forg=  0.0%| TAg acc= 74.2%, forg= 20.8% <<<
>>> Test on task  9 : loss=1.218 | TAw acc= 93.3%, forg=  0.0%| TAg acc= 75.8%, forg= 13.3% <<<
>>> Test on task 10 : loss=0.856 | TAw acc= 99.2%, forg=  0.0%| TAg acc= 85.0%, forg= 14.2% <<<
>>> Test on task 11 : loss=0.947 | TAw acc= 80.8%, forg=  0.0%| TAg acc= 72.5%, forg=  0.0% <<<
Save at k=10/eeil_dsads_4/har_flex_eeil
======
LLL_Net(
  (model): SimpleMLP(
    (fc1): Linear(in_features=405, out_features=66, bias=True)
    (fc2): Sequential()
  )
  (heads): ModuleList(
    (0): Linear(in_features=66, out_features=12, bias=True)
    (1): Linear(in_features=66, out_features=10, bias=True)
    (2): Linear(in_features=66, out_features=10, bias=True)
    (3): Linear(in_features=66, out_features=10, bias=True)
    (4): Linear(in_features=66, out_features=10, bias=True)
    (5): Linear(in_features=66, out_features=10, bias=True)
    (6): Linear(in_features=66, out_features=10, bias=True)
    (7): Linear(in_features=66, out_features=10, bias=True)
    (8): Linear(in_features=66, out_features=10, bias=True)
    (9): Linear(in_features=66, out_features=10, bias=True)
    (10): Linear(in_features=66, out_features=10, bias=True)
    (11): Linear(in_features=66, out_features=10, bias=True)
  )
)
======

************************************************************************************************************
Task 12
************************************************************************************************************
| Epoch   1, time=  0.8s | Train: skip eval | Valid: time=  0.2s loss=3.810, TAw acc= 41.7% | *
| Epoch   2, time=  0.8s | Train: skip eval | Valid: time=  0.3s loss=2.121, TAw acc= 56.2% | *
…
>>> Test on task  7 : loss=1.360 | TAw acc= 90.8%, forg=  3.3%| TAg acc= 56.7%, forg= 30.8% <<<
>>> Test on task  8 : loss=1.006 | TAw acc= 98.3%, forg=  0.0%| TAg acc= 68.3%, forg= 26.7% <<<
>>> Test on task  9 : loss=1.026 | TAw acc= 95.0%, forg= -1.7%| TAg acc= 80.0%, forg=  9.2% <<<
>>> Test on task 10 : loss=0.638 | TAw acc= 99.2%, forg=  0.0%| TAg acc= 90.0%, forg=  9.2% <<<
>>> Test on task 11 : loss=1.602 | TAw acc= 80.0%, forg=  0.8%| TAg acc= 57.5%, forg= 15.0% <<<
>>> Test on task 12 : loss=0.516 | TAw acc= 95.0%, forg=  0.0%| TAg acc= 92.5%, forg=  0.0% <<<
Save at k=10/eeil_dsads_4/har_flex_eeil
======
LLL_Net(
  (model): SimpleMLP(
    (fc1): Linear(in_features=405, out_features=66, bias=True)
    (fc2): Sequential()
  )
  (heads): ModuleList(
    (0): Linear(in_features=66, out_features=12, bias=True)
    (1): Linear(in_features=66, out_features=10, bias=True)
    (2): Linear(in_features=66, out_features=10, bias=True)
    (3): Linear(in_features=66, out_features=10, bias=True)
    (4): Linear(in_features=66, out_features=10, bias=True)
    (5): Linear(in_features=66, out_features=10, bias=True)
    (6): Linear(in_features=66, out_features=10, bias=True)
    (7): Linear(in_features=66, out_features=10, bias=True)
    (8): Linear(in_features=66, out_features=10, bias=True)
    (9): Linear(in_features=66, out_features=10, bias=True)
    (10): Linear(in_features=66, out_features=10, bias=True)
    (11): Linear(in_features=66, out_features=10, bias=True)
    (12): Linear(in_features=66, out_features=10, bias=True)
  )
)
======

************************************************************************************************************
Task 13
************************************************************************************************************
| Epoch   1, time=  0.8s | Train: skip eval | Valid: time=  0.3s loss=2.915, TAw acc= 60.4% | *
| Epoch   2, time=  0.9s | Train: skip eval | Valid: time=  0.3s loss=2.019, TAw acc= 66.7% | *
…
>>> Test on task  8 : loss=0.970 | TAw acc= 98.3%, forg=  0.0%| TAg acc= 69.2%, forg= 25.8% <<<
>>> Test on task  9 : loss=1.058 | TAw acc= 94.2%, forg=  0.8%| TAg acc= 73.3%, forg= 15.8% <<<
>>> Test on task 10 : loss=0.677 | TAw acc= 99.2%, forg=  0.0%| TAg acc= 90.8%, forg=  8.3% <<<
>>> Test on task 11 : loss=1.666 | TAw acc= 79.2%, forg=  1.7%| TAg acc= 43.3%, forg= 29.2% <<<
>>> Test on task 12 : loss=1.261 | TAw acc= 98.3%, forg= -3.3%| TAg acc= 55.8%, forg= 36.7% <<<
>>> Test on task 13 : loss=0.641 | TAw acc=100.0%, forg=  0.0%| TAg acc= 95.0%, forg=  0.0% <<<
Save at k=10/eeil_dsads_4/har_flex_eeil
======
LLL_Net(
  (model): SimpleMLP(
    (fc1): Linear(in_features=405, out_features=66, bias=True)
    (fc2): Sequential()
  )
  (heads): ModuleList(
    (0): Linear(in_features=66, out_features=12, bias=True)
    (1): Linear(in_features=66, out_features=10, bias=True)
    (2): Linear(in_features=66, out_features=10, bias=True)
    (3): Linear(in_features=66, out_features=10, bias=True)
    (4): Linear(in_features=66, out_features=10, bias=True)
    (5): Linear(in_features=66, out_features=10, bias=True)
    (6): Linear(in_features=66, out_features=10, bias=True)
    (7): Linear(in_features=66, out_features=10, bias=True)
    (8): Linear(in_features=66, out_features=10, bias=True)
    (9): Linear(in_features=66, out_features=10, bias=True)
    (10): Linear(in_features=66, out_features=10, bias=True)
    (11): Linear(in_features=66, out_features=10, bias=True)
    (12): Linear(in_features=66, out_features=10, bias=True)
    (13): Linear(in_features=66, out_features=10, bias=True)
  )
)
======

************************************************************************************************************
Task 14
************************************************************************************************************
| Epoch   1, time=  0.9s | Train: skip eval | Valid: time=  0.2s loss=2.844, TAw acc= 35.4% | *
| Epoch   2, time=  0.9s | Train: skip eval | Valid: time=  0.3s loss=1.904, TAw acc= 59.4% | *
…
