…
| Selected 420 train exemplars, time=  0.0s
420
------------------------------------------------------------------------------------------------------------
>>> Test on task  0 : loss=0.290 | TAw acc= 98.6%, forg=  0.0%| TAg acc= 95.8%, forg=  2.1% <<<
>>> Test on task  1 : loss=0.428 | TAw acc= 97.5%, forg=  1.7%| TAg acc= 80.8%, forg= 18.3% <<<
>>> Test on task  2 : loss=0.265 | TAw acc=100.0%, forg=  0.0%| TAg acc= 98.3%, forg=  1.7% <<<
>>> Test on task  3 : loss=0.161 | TAw acc=100.0%, forg=  0.0%| TAg acc= 99.2%, forg=  0.0% <<<
Save at k=10/eeil_dsads_4/har_flex_eeil
======
LLL_Net(
  (model): SimpleMLP(
    (fc1): Linear(in_features=405, out_features=66, bias=True)
    (fc2): Sequential()
  )
  (heads): ModuleList(
    (0): Linear(in_features=66, out_features=12, bias=True)
    (1): Linear(in_features=66, out_features=10, bias=True)
    (2): Linear(in_features=66, out_features=10, bias=True)
    (3): Linear(in_features=66, out_features=10, bias=True)
  )
)
======

************************************************************************************************************
Task  4
************************************************************************************************************
| Epoch   1, time=  0.3s | Train: skip eval | Valid: time=  0.2s loss=3.380, TAw acc= 33.3% | *
| Epoch   2, time=  0.3s | Train: skip eval | Valid: time=  0.2s loss=1.917, TAw acc= 49.0% | *
…
------------------------------------------------------------------------------------------------------------
>>> Test on task  0 : loss=0.526 | TAw acc= 97.9%, forg=  0.7%| TAg acc= 88.9%, forg=  9.0% <<<
>>> Test on task  1 : loss=0.539 | TAw acc= 98.3%, forg=  0.8%| TAg acc= 83.3%, forg= 15.8% <<<
>>> Test on task  2 : loss=0.424 | TAw acc=100.0%, forg=  0.0%| TAg acc= 93.3%, forg=  6.7% <<<
>>> Test on task  3 : loss=0.499 | TAw acc= 99.2%, forg=  0.8%| TAg acc= 88.3%, forg= 10.8% <<<
>>> Test on task  4 : loss=0.633 | TAw acc= 84.2%, forg=  0.0%| TAg acc= 81.7%, forg=  0.0% <<<
Save at k=10/eeil_dsads_4/har_flex_eeil
======
LLL_Net(
  (model): SimpleMLP(
    (fc1): Linear(in_features=405, out_features=66, bias=True)
    (fc2): Sequential()
  )
  (heads): ModuleList(
    (0): Linear(in_features=66, out_features=12, bias=True)
    (1): Linear(in_features=66, out_features=10, bias=True)
    (2): Linear(in_features=66, out_features=10, bias=True)
    (3): Linear(in_features=66, out_features=10, bias=True)
    (4): Linear(in_features=66, out_features=10, bias=True)
  )
)
======

************************************************************************************************************
Task  5
************************************************************************************************************
| Epoch   1, time=  0.4s | Train: skip eval | Valid: time=  0.3s loss=3.506, TAw acc= 33.3% | *
| Epoch   2, time=  0.4s | Train: skip eval | Valid: time=  0.2s loss=1.893, TAw acc= 53.1% | *
…
>>> Test on task  0 : loss=0.548 | TAw acc= 97.9%, forg=  0.7%| TAg acc= 87.5%, forg= 10.4% <<<
>>> Test on task  1 : loss=0.452 | TAw acc= 98.3%, forg=  0.8%| TAg acc= 87.5%, forg= 11.7% <<<
>>> Test on task  2 : loss=0.450 | TAw acc=100.0%, forg=  0.0%| TAg acc= 91.7%, forg=  8.3% <<<
>>> Test on task  3 : loss=0.654 | TAw acc=100.0%, forg=  0.0%| TAg acc= 72.5%, forg= 26.7% <<<
>>> Test on task  4 : loss=1.181 | TAw acc= 81.7%, forg=  2.5%| TAg acc= 55.0%, forg= 26.7% <<<
>>> Test on task  5 : loss=0.505 | TAw acc= 97.5%, forg=  0.0%| TAg acc= 93.3%, forg=  0.0% <<<
Save at k=10/eeil_dsads_4/har_flex_eeil
======
LLL_Net(
  (model): SimpleMLP(
    (fc1): Linear(in_features=405, out_features=66, bias=True)
    (fc2): Sequential()
  )
  (heads): ModuleList(
    (0): Linear(in_features=66, out_features=12, bias=True)
    (1): Linear(in_features=66, out_features=10, bias=True)
    (2): Linear(in_features=66, out_features=10, bias=True)
    (3): Linear(in_features=66, out_features=10, bias=True)
    (4): Linear(in_features=66, out_features=10, bias=True)
    (5): Linear(in_features=66, out_features=10, bias=True)
  )
)
======

************************************************************************************************************
Task  6
************************************************************************************************************
| Epoch   1, time=  0.4s | Train: skip eval | Valid: time=  0.2s loss=3.013, TAw acc= 44.8% | *
| Epoch   2, time=  0.4s | Train: skip eval | Valid: time=  0.3s loss=1.754, TAw acc= 65.6% | *
…
>>> Test on task  1 : loss=0.485 | TAw acc= 98.3%, forg=  0.8%| TAg acc= 84.2%, forg= 15.0% <<<
>>> Test on task  2 : loss=0.504 | TAw acc=100.0%, forg=  0.0%| TAg acc= 90.0%, forg= 10.0% <<<
>>> Test on task  3 : loss=0.718 | TAw acc=100.0%, forg=  0.0%| TAg acc= 83.3%, forg= 15.8% <<<
>>> Test on task  4 : loss=1.152 | TAw acc= 81.7%, forg=  2.5%| TAg acc= 61.7%, forg= 20.0% <<<
>>> Test on task  5 : loss=1.306 | TAw acc= 95.0%, forg=  2.5%| TAg acc= 47.5%, forg= 45.8% <<<
>>> Test on task  6 : loss=0.529 | TAw acc= 94.2%, forg=  0.0%| TAg acc= 93.3%, forg=  0.0% <<<
Save at k=10/eeil_dsads_4/har_flex_eeil
======
LLL_Net(
  (model): SimpleMLP(
    (fc1): Linear(in_features=405, out_features=66, bias=True)
    (fc2): Sequential()
  )
  (heads): ModuleList(
    (0): Linear(in_features=66, out_features=12, bias=True)
    (1): Linear(in_features=66, out_features=10, bias=True)
    (2): Linear(in_features=66, out_features=10, bias=True)
    (3): Linear(in_features=66, out_features=10, bias=True)
    (4): Linear(in_features=66, out_features=10, bias=True)
    (5): Linear(in_features=66, out_features=10, bias=True)
    (6): Linear(in_features=66, out_features=10, bias=True)
  )
)
======

************************************************************************************************************
Task  7
************************************************************************************************************
| Epoch   1, time=  0.5s | Train: skip eval | Valid: time=  0.3s loss=3.401, TAw acc= 49.0% | *
| Epoch   2, time=  0.5s | Train: skip eval | Valid: time=  0.3s loss=2.031, TAw acc= 62.5% | *
…
>>> Test on task  2 : loss=0.439 | TAw acc=100.0%, forg=  0.0%| TAg acc= 91.7%, forg=  8.3% <<<
>>> Test on task  3 : loss=0.682 | TAw acc=100.0%, forg=  0.0%| TAg acc= 81.7%, forg= 17.5% <<<
>>> Test on task  4 : loss=1.342 | TAw acc= 80.8%, forg=  3.3%| TAg acc= 56.7%, forg= 25.0% <<<
>>> Test on task  5 : loss=1.266 | TAw acc= 95.8%, forg=  1.7%| TAg acc= 59.2%, forg= 34.2% <<<
>>> Test on task  6 : loss=0.999 | TAw acc= 95.0%, forg= -0.8%| TAg acc= 71.7%, forg= 21.7% <<<
>>> Test on task  7 : loss=0.401 | TAw acc= 97.5%, forg=  0.0%| TAg acc= 95.8%, forg=  0.0% <<<
Save at k=10/eeil_dsads_4/har_flex_eeil
======
LLL_Net(
  (model): SimpleMLP(
    (fc1): Linear(in_features=405, out_features=66, bias=True)
    (fc2): Sequential()
  )
  (heads): ModuleList(
    (0): Linear(in_features=66, out_features=12, bias=True)
    (1): Linear(in_features=66, out_features=10, bias=True)
    (2): Linear(in_features=66, out_features=10, bias=True)
    (3): Linear(in_features=66, out_features=10, bias=True)
    (4): Linear(in_features=66, out_features=10, bias=True)
    (5): Linear(in_features=66, out_features=10, bias=True)
    (6): Linear(in_features=66, out_features=10, bias=True)
    (7): Linear(in_features=66, out_features=10, bias=True)
  )
)
======

************************************************************************************************************
Task  8
************************************************************************************************************
| Epoch   1, time=  0.5s | Train: skip eval | Valid: time=  0.2s loss=4.043, TAw acc= 16.7% | *
| Epoch   2, time=  0.5s | Train: skip eval | Valid: time=  0.2s loss=1.950, TAw acc= 43.8% | *
…
>>> Test on task  3 : loss=0.688 | TAw acc=100.0%, forg=  0.0%| TAg acc= 82.5%, forg= 16.7% <<<
>>> Test on task  4 : loss=1.106 | TAw acc= 81.7%, forg=  2.5%| TAg acc= 65.0%, forg= 16.7% <<<
>>> Test on task  5 : loss=1.149 | TAw acc= 95.0%, forg=  2.5%| TAg acc= 65.8%, forg= 27.5% <<<
>>> Test on task  6 : loss=0.975 | TAw acc= 95.0%, forg=  0.0%| TAg acc= 74.2%, forg= 19.2% <<<
>>> Test on task  7 : loss=1.097 | TAw acc= 98.3%, forg= -0.8%| TAg acc= 69.2%, forg= 26.7% <<<
>>> Test on task  8 : loss=0.490 | TAw acc= 99.2%, forg=  0.0%| TAg acc= 98.3%, forg=  0.0% <<<
Save at k=10/eeil_dsads_4/har_flex_eeil
======
LLL_Net(
  (model): SimpleMLP(
    (fc1): Linear(in_features=405, out_features=66, bias=True)
    (fc2): Sequential()
  )
  (heads): ModuleList(
    (0): Linear(in_features=66, out_features=12, bias=True)
    (1): Linear(in_features=66, out_features=10, bias=True)
    (2): Linear(in_features=66, out_features=10, bias=True)
    (3): Linear(in_features=66, out_features=10, bias=True)
    (4): Linear(in_features=66, out_features=10, bias=True)
    (5): Linear(in_features=66, out_features=10, bias=True)
    (6): Linear(in_features=66, out_features=10, bias=True)
    (7): Linear(in_features=66, out_features=10, bias=True)
    (8): Linear(in_features=66, out_features=10, bias=True)
  )
)
======

************************************************************************************************************
Task  9
************************************************************************************************************
| Epoch   1, time=  0.6s | Train: skip eval | Valid: time=  0.2s loss=2.724, TAw acc= 60.4% | *
| Epoch   2, time=  0.6s | Train: skip eval | Valid: time=  0.2s loss=1.581, TAw acc= 66.7% | *
…
>>> Test on task  4 : loss=1.072 | TAw acc= 80.8%, forg=  3.3%| TAg acc= 65.8%, forg= 15.8% <<<
>>> Test on task  5 : loss=1.181 | TAw acc= 96.7%, forg=  0.8%| TAg acc= 72.5%, forg= 20.8% <<<
>>> Test on task  6 : loss=1.076 | TAw acc= 96.7%, forg= -1.7%| TAg acc= 60.8%, forg= 32.5% <<<
>>> Test on task  7 : loss=0.916 | TAw acc= 98.3%, forg=  0.0%| TAg acc= 78.3%, forg= 17.5% <<<
>>> Test on task  8 : loss=0.894 | TAw acc= 98.3%, forg=  0.8%| TAg acc= 79.2%, forg= 19.2% <<<
>>> Test on task  9 : loss=0.463 | TAw acc= 96.7%, forg=  0.0%| TAg acc= 96.7%, forg=  0.0% <<<
Save at k=10/eeil_dsads_4/har_flex_eeil
======
LLL_Net(
  (model): SimpleMLP(
    (fc1): Linear(in_features=405, out_features=66, bias=True)
    (fc2): Sequential()
  )
  (heads): ModuleList(
    (0): Linear(in_features=66, out_features=12, bias=True)
    (1): Linear(in_features=66, out_features=10, bias=True)
    (2): Linear(in_features=66, out_features=10, bias=True)
    (3): Linear(in_features=66, out_features=10, bias=True)
    (4): Linear(in_features=66, out_features=10, bias=True)
    (5): Linear(in_features=66, out_features=10, bias=True)
    (6): Linear(in_features=66, out_features=10, bias=True)
    (7): Linear(in_features=66, out_features=10, bias=True)
    (8): Linear(in_features=66, out_features=10, bias=True)
    (9): Linear(in_features=66, out_features=10, bias=True)
  )
)
======

************************************************************************************************************
Task 10
************************************************************************************************************
| Epoch   1, time=  0.6s | Train: skip eval | Valid: time=  0.2s loss=3.021, TAw acc= 58.3% | *
| Epoch   2, time=  0.6s | Train: skip eval | Valid: time=  0.2s loss=1.747, TAw acc= 72.9% | *
…
>>> Test on task  5 : loss=1.432 | TAw acc= 95.8%, forg=  1.7%| TAg acc= 56.7%, forg= 36.7% <<<
>>> Test on task  6 : loss=1.111 | TAw acc= 96.7%, forg=  0.0%| TAg acc= 72.5%, forg= 20.8% <<<
>>> Test on task  7 : loss=1.016 | TAw acc= 98.3%, forg=  0.0%| TAg acc= 73.3%, forg= 22.5% <<<
>>> Test on task  8 : loss=0.872 | TAw acc= 99.2%, forg=  0.0%| TAg acc= 82.5%, forg= 15.8% <<<
>>> Test on task  9 : loss=0.875 | TAw acc= 96.7%, forg=  0.0%| TAg acc= 80.0%, forg= 16.7% <<<
>>> Test on task 10 : loss=0.527 | TAw acc= 97.5%, forg=  0.0%| TAg acc= 94.2%, forg=  0.0% <<<
Save at k=10/eeil_dsads_4/har_flex_eeil
======
LLL_Net(
  (model): SimpleMLP(
    (fc1): Linear(in_features=405, out_features=66, bias=True)
    (fc2): Sequential()
  )
  (heads): ModuleList(
    (0): Linear(in_features=66, out_features=12, bias=True)
    (1): Linear(in_features=66, out_features=10, bias=True)
    (2): Linear(in_features=66, out_features=10, bias=True)
    (3): Linear(in_features=66, out_features=10, bias=True)
    (4): Linear(in_features=66, out_features=10, bias=True)
    (5): Linear(in_features=66, out_features=10, bias=True)
    (6): Linear(in_features=66, out_features=10, bias=True)
    (7): Linear(in_features=66, out_features=10, bias=True)
    (8): Linear(in_features=66, out_features=10, bias=True)
    (9): Linear(in_features=66, out_features=10, bias=True)
    (10): Linear(in_features=66, out_features=10, bias=True)
  )
)
======

************************************************************************************************************
Task 11
************************************************************************************************************
| Epoch   1, time=  0.7s | Train: skip eval | Valid: time=  0.2s loss=3.823, TAw acc= 44.8% | *
| Epoch   2, time=  0.7s | Train: skip eval | Valid: time=  0.2s loss=2.137, TAw acc= 64.6% | *
…
>>> Test on task  6 : loss=1.207 | TAw acc= 95.8%, forg=  0.8%| TAg acc= 62.5%, forg= 30.8% <<<
>>> Test on task  7 : loss=1.135 | TAw acc= 98.3%, forg=  0.0%| TAg acc= 66.7%, forg= 29.2% <<<
>>> Test on task  8 : loss=0.977 | TAw acc= 99.2%, forg=  0.0%| TAg acc= 75.8%, forg= 22.5% <<<
>>> Test on task  9 : loss=0.952 | TAw acc= 96.7%, forg=  0.0%| TAg acc= 81.7%, forg= 15.0% <<<
>>> Test on task 10 : loss=1.368 | TAw acc= 98.3%, forg= -0.8%| TAg acc= 51.7%, forg= 42.5% <<<
>>> Test on task 11 : loss=0.774 | TAw acc= 88.3%, forg=  0.0%| TAg acc= 84.2%, forg=  0.0% <<<
Save at k=10/eeil_dsads_4/har_flex_eeil
======
LLL_Net(
  (model): SimpleMLP(
    (fc1): Linear(in_features=405, out_features=66, bias=True)
    (fc2): Sequential()
  )
  (heads): ModuleList(
    (0): Linear(in_features=66, out_features=12, bias=True)
    (1): Linear(in_features=66, out_features=10, bias=True)
    (2): Linear(in_features=66, out_features=10, bias=True)
    (3): Linear(in_features=66, out_features=10, bias=True)
    (4): Linear(in_features=66, out_features=10, bias=True)
    (5): Linear(in_features=66, out_features=10, bias=True)
    (6): Linear(in_features=66, out_features=10, bias=True)
    (7): Linear(in_features=66, out_features=10, bias=True)
    (8): Linear(in_features=66, out_features=10, bias=True)
    (9): Linear(in_features=66, out_features=10, bias=True)
    (10): Linear(in_features=66, out_features=10, bias=True)
    (11): Linear(in_features=66, out_features=10, bias=True)
  )
)
======

************************************************************************************************************
Task 12
************************************************************************************************************
| Epoch   1, time=  0.8s | Train: skip eval | Valid: time=  0.3s loss=3.813, TAw acc= 58.3% | *
| Epoch   2, time=  0.8s | Train: skip eval | Valid: time=  0.2s loss=2.120, TAw acc= 69.8% | *
…
>>> Test on task  7 : loss=0.956 | TAw acc= 98.3%, forg=  0.0%| TAg acc= 76.7%, forg= 19.2% <<<
>>> Test on task  8 : loss=0.696 | TAw acc= 99.2%, forg=  0.0%| TAg acc= 90.8%, forg=  7.5% <<<
>>> Test on task  9 : loss=0.897 | TAw acc= 98.3%, forg= -1.7%| TAg acc= 72.5%, forg= 24.2% <<<
>>> Test on task 10 : loss=1.236 | TAw acc= 97.5%, forg=  0.8%| TAg acc= 52.5%, forg= 41.7% <<<
>>> Test on task 11 : loss=1.299 | TAw acc= 90.8%, forg= -2.5%| TAg acc= 67.5%, forg= 16.7% <<<
>>> Test on task 12 : loss=0.705 | TAw acc= 93.3%, forg=  0.0%| TAg acc= 90.8%, forg=  0.0% <<<
Save at k=10/eeil_dsads_4/har_flex_eeil
======
LLL_Net(
  (model): SimpleMLP(
    (fc1): Linear(in_features=405, out_features=66, bias=True)
    (fc2): Sequential()
  )
  (heads): ModuleList(
    (0): Linear(in_features=66, out_features=12, bias=True)
    (1): Linear(in_features=66, out_features=10, bias=True)
    (2): Linear(in_features=66, out_features=10, bias=True)
    (3): Linear(in_features=66, out_features=10, bias=True)
    (4): Linear(in_features=66, out_features=10, bias=True)
    (5): Linear(in_features=66, out_features=10, bias=True)
    (6): Linear(in_features=66, out_features=10, bias=True)
    (7): Linear(in_features=66, out_features=10, bias=True)
    (8): Linear(in_features=66, out_features=10, bias=True)
    (9): Linear(in_features=66, out_features=10, bias=True)
    (10): Linear(in_features=66, out_features=10, bias=True)
    (11): Linear(in_features=66, out_features=10, bias=True)
    (12): Linear(in_features=66, out_features=10, bias=True)
  )
)
======

************************************************************************************************************
Task 13
************************************************************************************************************
| Epoch   1, time=  0.8s | Train: skip eval | Valid: time=  0.2s loss=3.248, TAw acc= 45.8% | *
| Epoch   2, time=  0.8s | Train: skip eval | Valid: time=  0.2s loss=2.195, TAw acc= 74.0% | *
…
>>> Test on task  8 : loss=0.707 | TAw acc= 99.2%, forg=  0.0%| TAg acc= 83.3%, forg= 15.0% <<<
>>> Test on task  9 : loss=0.848 | TAw acc= 97.5%, forg=  0.8%| TAg acc= 80.0%, forg= 16.7% <<<
>>> Test on task 10 : loss=1.150 | TAw acc= 97.5%, forg=  0.8%| TAg acc= 59.2%, forg= 35.0% <<<
>>> Test on task 11 : loss=1.130 | TAw acc= 90.0%, forg=  0.8%| TAg acc= 68.3%, forg= 15.8% <<<
>>> Test on task 12 : loss=1.424 | TAw acc= 92.5%, forg=  0.8%| TAg acc= 61.7%, forg= 29.2% <<<
>>> Test on task 13 : loss=0.758 | TAw acc= 95.0%, forg=  0.0%| TAg acc= 86.7%, forg=  0.0% <<<
Save at k=10/eeil_dsads_4/har_flex_eeil
======
LLL_Net(
  (model): SimpleMLP(
    (fc1): Linear(in_features=405, out_features=66, bias=True)
    (fc2): Sequential()
  )
  (heads): ModuleList(
    (0): Linear(in_features=66, out_features=12, bias=True)
    (1): Linear(in_features=66, out_features=10, bias=True)
    (2): Linear(in_features=66, out_features=10, bias=True)
    (3): Linear(in_features=66, out_features=10, bias=True)
    (4): Linear(in_features=66, out_features=10, bias=True)
    (5): Linear(in_features=66, out_features=10, bias=True)
    (6): Linear(in_features=66, out_features=10, bias=True)
    (7): Linear(in_features=66, out_features=10, bias=True)
    (8): Linear(in_features=66, out_features=10, bias=True)
    (9): Linear(in_features=66, out_features=10, bias=True)
    (10): Linear(in_features=66, out_features=10, bias=True)
    (11): Linear(in_features=66, out_features=10, bias=True)
    (12): Linear(in_features=66, out_features=10, bias=True)
    (13): Linear(in_features=66, out_features=10, bias=True)
  )
)
======

************************************************************************************************************
Task 14
************************************************************************************************************
| Epoch   1, time=  0.9s | Train: skip eval | Valid: time=  0.3s loss=3.226, TAw acc= 43.8% | *
| Epoch   2, time=  0.9s | Train: skip eval | Valid: time=  0.2s loss=1.781, TAw acc= 69.8% | *
…
