…
| Selected 420 train exemplars, time=  0.3s
420
------------------------------------------------------------------------------------------------------------
>>> Test on task  0 : loss=0.559 | TAw acc= 95.1%, forg=  0.0%| TAg acc= 92.4%, forg=  2.8% <<<
>>> Test on task  1 : loss=4.434 | TAw acc= 94.2%, forg=  0.0%| TAg acc= 80.0%, forg=  8.3% <<<
>>> Test on task  2 : loss=6.166 | TAw acc= 97.5%, forg=  0.0%| TAg acc= 92.5%, forg=  0.8% <<<
>>> Test on task  3 : loss=7.370 | TAw acc= 96.7%, forg=  0.0%| TAg acc= 87.5%, forg=  0.0% <<<
Save at k=10/icarl_dsads_5/har_flex_icarl
======
LLL_Net(
  (model): SimpleMLP(
    (fc1): Linear(in_features=405, out_features=66, bias=True)
    (fc2): Sequential()
  )
  (heads): ModuleList(
    (0): Linear(in_features=66, out_features=12, bias=True)
    (1): Linear(in_features=66, out_features=10, bias=True)
    (2): Linear(in_features=66, out_features=10, bias=True)
    (3): Linear(in_features=66, out_features=10, bias=True)
  )
)
======

************************************************************************************************************
Task  4
************************************************************************************************************
| Epoch   1, time=  0.5s | Train: skip eval | Valid: time=  0.2s loss=13.822, TAw acc= 33.3% | *
| Epoch   2, time=  0.5s | Train: skip eval | Valid: time=  0.2s loss=9.989, TAw acc= 59.4% | *
…
------------------------------------------------------------------------------------------------------------
>>> Test on task  0 : loss=0.758 | TAw acc= 95.1%, forg=  0.0%| TAg acc= 89.6%, forg=  5.6% <<<
>>> Test on task  1 : loss=4.478 | TAw acc= 94.2%, forg=  0.0%| TAg acc= 77.5%, forg= 10.8% <<<
>>> Test on task  2 : loss=5.967 | TAw acc= 97.5%, forg=  0.0%| TAg acc= 92.5%, forg=  0.8% <<<
>>> Test on task  3 : loss=7.624 | TAw acc= 96.7%, forg=  0.0%| TAg acc= 86.7%, forg=  0.8% <<<
>>> Test on task  4 : loss=8.692 | TAw acc= 91.7%, forg=  0.0%| TAg acc= 81.7%, forg=  0.0% <<<
Save at k=10/icarl_dsads_5/har_flex_icarl
======
LLL_Net(
  (model): SimpleMLP(
    (fc1): Linear(in_features=405, out_features=66, bias=True)
    (fc2): Sequential()
  )
  (heads): ModuleList(
    (0): Linear(in_features=66, out_features=12, bias=True)
    (1): Linear(in_features=66, out_features=10, bias=True)
    (2): Linear(in_features=66, out_features=10, bias=True)
    (3): Linear(in_features=66, out_features=10, bias=True)
    (4): Linear(in_features=66, out_features=10, bias=True)
  )
)
======

************************************************************************************************************
Task  5
************************************************************************************************************
| Epoch   1, time=  0.6s | Train: skip eval | Valid: time=  0.2s loss=15.816, TAw acc= 18.8% | *
| Epoch   2, time=  0.6s | Train: skip eval | Valid: time=  0.2s loss=12.969, TAw acc= 56.2% | *
…
>>> Test on task  0 : loss=0.658 | TAw acc= 95.1%, forg=  0.0%| TAg acc= 87.5%, forg=  7.6% <<<
>>> Test on task  1 : loss=4.319 | TAw acc= 94.2%, forg=  0.0%| TAg acc= 77.5%, forg= 10.8% <<<
>>> Test on task  2 : loss=5.910 | TAw acc= 97.5%, forg=  0.0%| TAg acc= 88.3%, forg=  5.0% <<<
>>> Test on task  3 : loss=7.250 | TAw acc= 96.7%, forg=  0.0%| TAg acc= 86.7%, forg=  0.8% <<<
>>> Test on task  4 : loss=9.211 | TAw acc= 91.7%, forg=  0.0%| TAg acc= 79.2%, forg=  2.5% <<<
>>> Test on task  5 : loss=11.066 | TAw acc=100.0%, forg=  0.0%| TAg acc= 83.3%, forg=  0.0% <<<
Save at k=10/icarl_dsads_5/har_flex_icarl
======
LLL_Net(
  (model): SimpleMLP(
    (fc1): Linear(in_features=405, out_features=66, bias=True)
    (fc2): Sequential()
  )
  (heads): ModuleList(
    (0): Linear(in_features=66, out_features=12, bias=True)
    (1): Linear(in_features=66, out_features=10, bias=True)
    (2): Linear(in_features=66, out_features=10, bias=True)
    (3): Linear(in_features=66, out_features=10, bias=True)
    (4): Linear(in_features=66, out_features=10, bias=True)
    (5): Linear(in_features=66, out_features=10, bias=True)
  )
)
======

************************************************************************************************************
Task  6
************************************************************************************************************
| Epoch   1, time=  0.7s | Train: skip eval | Valid: time=  0.2s loss=16.055, TAw acc= 47.9% | *
| Epoch   2, time=  0.7s | Train: skip eval | Valid: time=  0.2s loss=12.615, TAw acc= 51.0% | *
…
>>> Test on task  1 : loss=4.222 | TAw acc= 94.2%, forg=  0.0%| TAg acc= 71.7%, forg= 16.7% <<<
>>> Test on task  2 : loss=5.622 | TAw acc= 97.5%, forg=  0.0%| TAg acc= 87.5%, forg=  5.8% <<<
>>> Test on task  3 : loss=7.022 | TAw acc= 96.7%, forg=  0.0%| TAg acc= 86.7%, forg=  0.8% <<<
>>> Test on task  4 : loss=8.898 | TAw acc= 91.7%, forg=  0.0%| TAg acc= 79.2%, forg=  2.5% <<<
>>> Test on task  5 : loss=11.688 | TAw acc=100.0%, forg=  0.0%| TAg acc= 81.7%, forg=  1.7% <<<
>>> Test on task  6 : loss=10.691 | TAw acc= 97.5%, forg=  0.0%| TAg acc= 91.7%, forg=  0.0% <<<
Save at k=10/icarl_dsads_5/har_flex_icarl
======
LLL_Net(
  (model): SimpleMLP(
    (fc1): Linear(in_features=405, out_features=66, bias=True)
    (fc2): Sequential()
  )
  (heads): ModuleList(
    (0): Linear(in_features=66, out_features=12, bias=True)
    (1): Linear(in_features=66, out_features=10, bias=True)
    (2): Linear(in_features=66, out_features=10, bias=True)
    (3): Linear(in_features=66, out_features=10, bias=True)
    (4): Linear(in_features=66, out_features=10, bias=True)
    (5): Linear(in_features=66, out_features=10, bias=True)
    (6): Linear(in_features=66, out_features=10, bias=True)
  )
)
======

************************************************************************************************************
Task  7
************************************************************************************************************
| Epoch   1, time=  0.8s | Train: skip eval | Valid: time=  0.2s loss=18.433, TAw acc= 16.7% | *
| Epoch   2, time=  0.8s | Train: skip eval | Valid: time=  0.2s loss=14.009, TAw acc= 67.7% | *
…
>>> Test on task  2 : loss=5.372 | TAw acc= 97.5%, forg=  0.0%| TAg acc= 87.5%, forg=  5.8% <<<
>>> Test on task  3 : loss=6.723 | TAw acc= 96.7%, forg=  0.0%| TAg acc= 85.0%, forg=  2.5% <<<
>>> Test on task  4 : loss=8.414 | TAw acc= 91.7%, forg=  0.0%| TAg acc= 77.5%, forg=  4.2% <<<
>>> Test on task  5 : loss=10.954 | TAw acc=100.0%, forg=  0.0%| TAg acc= 81.7%, forg=  1.7% <<<
>>> Test on task  6 : loss=10.941 | TAw acc= 97.5%, forg=  0.0%| TAg acc= 91.7%, forg=  0.0% <<<
>>> Test on task  7 : loss=11.561 | TAw acc= 98.3%, forg=  0.0%| TAg acc= 86.7%, forg=  0.0% <<<
Save at k=10/icarl_dsads_5/har_flex_icarl
======
LLL_Net(
  (model): SimpleMLP(
    (fc1): Linear(in_features=405, out_features=66, bias=True)
    (fc2): Sequential()
  )
  (heads): ModuleList(
    (0): Linear(in_features=66, out_features=12, bias=True)
    (1): Linear(in_features=66, out_features=10, bias=True)
    (2): Linear(in_features=66, out_features=10, bias=True)
    (3): Linear(in_features=66, out_features=10, bias=True)
    (4): Linear(in_features=66, out_features=10, bias=True)
    (5): Linear(in_features=66, out_features=10, bias=True)
    (6): Linear(in_features=66, out_features=10, bias=True)
    (7): Linear(in_features=66, out_features=10, bias=True)
  )
)
======

************************************************************************************************************
Task  8
************************************************************************************************************
| Epoch   1, time=  0.9s | Train: skip eval | Valid: time=  0.2s loss=17.525, TAw acc= 33.3% | *
| Epoch   2, time=  0.9s | Train: skip eval | Valid: time=  0.2s loss=13.227, TAw acc= 69.8% | *
…
>>> Test on task  3 : loss=6.631 | TAw acc= 96.7%, forg=  0.0%| TAg acc= 85.0%, forg=  2.5% <<<
>>> Test on task  4 : loss=8.176 | TAw acc= 91.7%, forg=  0.0%| TAg acc= 76.7%, forg=  5.0% <<<
>>> Test on task  5 : loss=10.851 | TAw acc=100.0%, forg=  0.0%| TAg acc= 81.7%, forg=  1.7% <<<
>>> Test on task  6 : loss=10.592 | TAw acc= 97.5%, forg=  0.0%| TAg acc= 91.7%, forg=  0.0% <<<
>>> Test on task  7 : loss=11.793 | TAw acc= 98.3%, forg=  0.0%| TAg acc= 85.8%, forg=  0.8% <<<
>>> Test on task  8 : loss=11.410 | TAw acc= 93.3%, forg=  0.0%| TAg acc= 75.0%, forg=  0.0% <<<
Save at k=10/icarl_dsads_5/har_flex_icarl
======
LLL_Net(
  (model): SimpleMLP(
    (fc1): Linear(in_features=405, out_features=66, bias=True)
    (fc2): Sequential()
  )
  (heads): ModuleList(
    (0): Linear(in_features=66, out_features=12, bias=True)
    (1): Linear(in_features=66, out_features=10, bias=True)
    (2): Linear(in_features=66, out_features=10, bias=True)
    (3): Linear(in_features=66, out_features=10, bias=True)
    (4): Linear(in_features=66, out_features=10, bias=True)
    (5): Linear(in_features=66, out_features=10, bias=True)
    (6): Linear(in_features=66, out_features=10, bias=True)
    (7): Linear(in_features=66, out_features=10, bias=True)
    (8): Linear(in_features=66, out_features=10, bias=True)
  )
)
======

************************************************************************************************************
Task  9
************************************************************************************************************
| Epoch   1, time=  1.1s | Train: skip eval | Valid: time=  0.2s loss=17.983, TAw acc= 25.0% | *
| Epoch   2, time=  1.0s | Train: skip eval | Valid: time=  0.2s loss=14.045, TAw acc= 72.9% | *
…
>>> Test on task  4 : loss=8.007 | TAw acc= 91.7%, forg=  0.0%| TAg acc= 76.7%, forg=  5.0% <<<
>>> Test on task  5 : loss=10.501 | TAw acc=100.0%, forg=  0.0%| TAg acc= 80.8%, forg=  2.5% <<<
>>> Test on task  6 : loss=10.428 | TAw acc= 97.5%, forg=  0.0%| TAg acc= 88.3%, forg=  3.3% <<<
>>> Test on task  7 : loss=11.588 | TAw acc= 98.3%, forg=  0.0%| TAg acc= 83.3%, forg=  3.3% <<<
>>> Test on task  8 : loss=11.830 | TAw acc= 93.3%, forg=  0.0%| TAg acc= 74.2%, forg=  0.8% <<<
>>> Test on task  9 : loss=12.343 | TAw acc= 92.5%, forg=  0.0%| TAg acc= 78.3%, forg=  0.0% <<<
Save at k=10/icarl_dsads_5/har_flex_icarl
======
LLL_Net(
  (model): SimpleMLP(
    (fc1): Linear(in_features=405, out_features=66, bias=True)
    (fc2): Sequential()
  )
  (heads): ModuleList(
    (0): Linear(in_features=66, out_features=12, bias=True)
    (1): Linear(in_features=66, out_features=10, bias=True)
    (2): Linear(in_features=66, out_features=10, bias=True)
    (3): Linear(in_features=66, out_features=10, bias=True)
    (4): Linear(in_features=66, out_features=10, bias=True)
    (5): Linear(in_features=66, out_features=10, bias=True)
    (6): Linear(in_features=66, out_features=10, bias=True)
    (7): Linear(in_features=66, out_features=10, bias=True)
    (8): Linear(in_features=66, out_features=10, bias=True)
    (9): Linear(in_features=66, out_features=10, bias=True)
  )
)
======

************************************************************************************************************
Task 10
************************************************************************************************************
| Epoch   1, time=  1.2s | Train: skip eval | Valid: time=  0.2s loss=19.663, TAw acc= 30.2% | *
| Epoch   2, time=  1.3s | Train: skip eval | Valid: time=  0.2s loss=14.659, TAw acc= 65.6% | *
…
>>> Test on task  5 : loss=10.256 | TAw acc=100.0%, forg=  0.0%| TAg acc= 80.8%, forg=  2.5% <<<
>>> Test on task  6 : loss=10.058 | TAw acc= 97.5%, forg=  0.0%| TAg acc= 87.5%, forg=  4.2% <<<
>>> Test on task  7 : loss=11.436 | TAw acc= 98.3%, forg=  0.0%| TAg acc= 83.3%, forg=  3.3% <<<
>>> Test on task  8 : loss=11.558 | TAw acc= 93.3%, forg=  0.0%| TAg acc= 74.2%, forg=  0.8% <<<
>>> Test on task  9 : loss=12.519 | TAw acc= 92.5%, forg=  0.0%| TAg acc= 77.5%, forg=  0.8% <<<
>>> Test on task 10 : loss=12.782 | TAw acc=100.0%, forg=  0.0%| TAg acc= 86.7%, forg=  0.0% <<<
Save at k=10/icarl_dsads_5/har_flex_icarl
======
LLL_Net(
  (model): SimpleMLP(
    (fc1): Linear(in_features=405, out_features=66, bias=True)
    (fc2): Sequential()
  )
  (heads): ModuleList(
    (0): Linear(in_features=66, out_features=12, bias=True)
    (1): Linear(in_features=66, out_features=10, bias=True)
    (2): Linear(in_features=66, out_features=10, bias=True)
    (3): Linear(in_features=66, out_features=10, bias=True)
    (4): Linear(in_features=66, out_features=10, bias=True)
    (5): Linear(in_features=66, out_features=10, bias=True)
    (6): Linear(in_features=66, out_features=10, bias=True)
    (7): Linear(in_features=66, out_features=10, bias=True)
    (8): Linear(in_features=66, out_features=10, bias=True)
    (9): Linear(in_features=66, out_features=10, bias=True)
    (10): Linear(in_features=66, out_features=10, bias=True)
  )
)
======

************************************************************************************************************
Task 11
************************************************************************************************************
| Epoch   1, time=  1.4s | Train: skip eval | Valid: time=  0.2s loss=19.882, TAw acc= 35.4% | *
| Epoch   2, time=  1.4s | Train: skip eval | Valid: time=  0.2s loss=14.623, TAw acc= 65.6% | *
…
>>> Test on task  6 : loss=9.783 | TAw acc= 97.5%, forg=  0.0%| TAg acc= 87.5%, forg=  4.2% <<<
>>> Test on task  7 : loss=10.932 | TAw acc= 98.3%, forg=  0.0%| TAg acc= 83.3%, forg=  3.3% <<<
>>> Test on task  8 : loss=11.223 | TAw acc= 93.3%, forg=  0.0%| TAg acc= 74.2%, forg=  0.8% <<<
>>> Test on task  9 : loss=12.399 | TAw acc= 92.5%, forg=  0.0%| TAg acc= 76.7%, forg=  1.7% <<<
>>> Test on task 10 : loss=13.066 | TAw acc=100.0%, forg=  0.0%| TAg acc= 86.7%, forg=  0.0% <<<
>>> Test on task 11 : loss=12.830 | TAw acc= 99.2%, forg=  0.0%| TAg acc= 81.7%, forg=  0.0% <<<
Save at k=10/icarl_dsads_5/har_flex_icarl
======
LLL_Net(
  (model): SimpleMLP(
    (fc1): Linear(in_features=405, out_features=66, bias=True)
    (fc2): Sequential()
  )
  (heads): ModuleList(
    (0): Linear(in_features=66, out_features=12, bias=True)
    (1): Linear(in_features=66, out_features=10, bias=True)
    (2): Linear(in_features=66, out_features=10, bias=True)
    (3): Linear(in_features=66, out_features=10, bias=True)
    (4): Linear(in_features=66, out_features=10, bias=True)
    (5): Linear(in_features=66, out_features=10, bias=True)
    (6): Linear(in_features=66, out_features=10, bias=True)
    (7): Linear(in_features=66, out_features=10, bias=True)
    (8): Linear(in_features=66, out_features=10, bias=True)
    (9): Linear(in_features=66, out_features=10, bias=True)
    (10): Linear(in_features=66, out_features=10, bias=True)
    (11): Linear(in_features=66, out_features=10, bias=True)
  )
)
======

************************************************************************************************************
Task 12
************************************************************************************************************
| Epoch   1, time=  1.7s | Train: skip eval | Valid: time=  0.2s loss=21.656, TAw acc= 45.8% | *
| Epoch   2, time=  1.7s | Train: skip eval | Valid: time=  0.2s loss=15.655, TAw acc= 62.5% | *
…
>>> Test on task  7 : loss=10.873 | TAw acc= 98.3%, forg=  0.0%| TAg acc= 81.7%, forg=  5.0% <<<
>>> Test on task  8 : loss=11.032 | TAw acc= 93.3%, forg=  0.0%| TAg acc= 73.3%, forg=  1.7% <<<
>>> Test on task  9 : loss=12.153 | TAw acc= 92.5%, forg=  0.0%| TAg acc= 75.8%, forg=  2.5% <<<
>>> Test on task 10 : loss=12.925 | TAw acc=100.0%, forg=  0.0%| TAg acc= 86.7%, forg=  0.0% <<<
>>> Test on task 11 : loss=13.613 | TAw acc= 99.2%, forg=  0.0%| TAg acc= 77.5%, forg=  4.2% <<<
>>> Test on task 12 : loss=13.915 | TAw acc= 89.2%, forg=  0.0%| TAg acc= 71.7%, forg=  0.0% <<<
Save at k=10/icarl_dsads_5/har_flex_icarl
======
LLL_Net(
  (model): SimpleMLP(
    (fc1): Linear(in_features=405, out_features=66, bias=True)
    (fc2): Sequential()
  )
  (heads): ModuleList(
    (0): Linear(in_features=66, out_features=12, bias=True)
    (1): Linear(in_features=66, out_features=10, bias=True)
    (2): Linear(in_features=66, out_features=10, bias=True)
    (3): Linear(in_features=66, out_features=10, bias=True)
    (4): Linear(in_features=66, out_features=10, bias=True)
    (5): Linear(in_features=66, out_features=10, bias=True)
    (6): Linear(in_features=66, out_features=10, bias=True)
    (7): Linear(in_features=66, out_features=10, bias=True)
    (8): Linear(in_features=66, out_features=10, bias=True)
    (9): Linear(in_features=66, out_features=10, bias=True)
    (10): Linear(in_features=66, out_features=10, bias=True)
    (11): Linear(in_features=66, out_features=10, bias=True)
    (12): Linear(in_features=66, out_features=10, bias=True)
  )
)
======

************************************************************************************************************
Task 13
************************************************************************************************************
| Epoch   1, time=  1.9s | Train: skip eval | Valid: time=  0.2s loss=21.339, TAw acc= 26.0% | *
| Epoch   2, time=  1.8s | Train: skip eval | Valid: time=  0.2s loss=15.991, TAw acc= 76.0% | *
…
>>> Test on task  8 : loss=10.852 | TAw acc= 93.3%, forg=  0.0%| TAg acc= 72.5%, forg=  2.5% <<<
>>> Test on task  9 : loss=11.795 | TAw acc= 92.5%, forg=  0.0%| TAg acc= 75.8%, forg=  2.5% <<<
>>> Test on task 10 : loss=12.662 | TAw acc=100.0%, forg=  0.0%| TAg acc= 86.7%, forg=  0.0% <<<
>>> Test on task 11 : loss=13.176 | TAw acc= 99.2%, forg=  0.0%| TAg acc= 76.7%, forg=  5.0% <<<
>>> Test on task 12 : loss=14.389 | TAw acc= 89.2%, forg=  0.0%| TAg acc= 71.7%, forg=  0.0% <<<
>>> Test on task 13 : loss=14.307 | TAw acc= 91.7%, forg=  0.0%| TAg acc= 72.5%, forg=  0.0% <<<
Save at k=10/icarl_dsads_5/har_flex_icarl
======
LLL_Net(
  (model): SimpleMLP(
    (fc1): Linear(in_features=405, out_features=66, bias=True)
    (fc2): Sequential()
  )
  (heads): ModuleList(
    (0): Linear(in_features=66, out_features=12, bias=True)
    (1): Linear(in_features=66, out_features=10, bias=True)
    (2): Linear(in_features=66, out_features=10, bias=True)
    (3): Linear(in_features=66, out_features=10, bias=True)
    (4): Linear(in_features=66, out_features=10, bias=True)
    (5): Linear(in_features=66, out_features=10, bias=True)
    (6): Linear(in_features=66, out_features=10, bias=True)
    (7): Linear(in_features=66, out_features=10, bias=True)
    (8): Linear(in_features=66, out_features=10, bias=True)
    (9): Linear(in_features=66, out_features=10, bias=True)
    (10): Linear(in_features=66, out_features=10, bias=True)
    (11): Linear(in_features=66, out_features=10, bias=True)
    (12): Linear(in_features=66, out_features=10, bias=True)
    (13): Linear(in_features=66, out_features=10, bias=True)
  )
)
======

************************************************************************************************************
Task 14
************************************************************************************************************
| Epoch   1, time=  2.2s | Train: skip eval | Valid: time=  0.2s loss=21.892, TAw acc= 27.1% | *
| Epoch   2, time=  2.0s | Train: skip eval | Valid: time=  0.2s loss=15.796, TAw acc= 63.5% | *
…
