…
| Selected 1435 train exemplars, time=  1.1s
1435
------------------------------------------------------------------------------------------------------------
>>> Test on task  0 : loss=0.419 | TAw acc= 93.1%, forg=  0.0%| TAg acc= 88.9%, forg=  4.2% <<<
>>> Test on task  1 : loss=3.442 | TAw acc= 98.3%, forg=  0.0%| TAg acc= 94.2%, forg=  3.3% <<<
>>> Test on task  2 : loss=5.724 | TAw acc= 95.8%, forg=  0.0%| TAg acc= 89.2%, forg=  1.7% <<<
>>> Test on task  3 : loss=8.840 | TAw acc=100.0%, forg=  0.0%| TAg acc= 87.5%, forg=  0.0% <<<
Save at k=100/icarl_dsads_3/har_flex_icarl
======
LLL_Net(
  (model): SimpleMLP(
    (fc1): Linear(in_features=405, out_features=66, bias=True)
    (fc2): Sequential()
  )
  (heads): ModuleList(
    (0): Linear(in_features=66, out_features=12, bias=True)
    (1): Linear(in_features=66, out_features=10, bias=True)
    (2): Linear(in_features=66, out_features=10, bias=True)
    (3): Linear(in_features=66, out_features=10, bias=True)
  )
)
======

************************************************************************************************************
Task  4
************************************************************************************************************
| Epoch   1, time=  0.8s | Train: skip eval | Valid: time=  0.2s loss=16.857, TAw acc= 32.3% | *
| Epoch   2, time=  0.8s | Train: skip eval | Valid: time=  0.2s loss=14.622, TAw acc= 57.3% | *
…
------------------------------------------------------------------------------------------------------------
>>> Test on task  0 : loss=0.414 | TAw acc= 93.1%, forg=  0.0%| TAg acc= 88.2%, forg=  4.9% <<<
>>> Test on task  1 : loss=3.355 | TAw acc= 98.3%, forg=  0.0%| TAg acc= 94.2%, forg=  3.3% <<<
>>> Test on task  2 : loss=5.539 | TAw acc= 95.8%, forg=  0.0%| TAg acc= 86.7%, forg=  4.2% <<<
>>> Test on task  3 : loss=8.657 | TAw acc=100.0%, forg=  0.0%| TAg acc= 80.8%, forg=  6.7% <<<
>>> Test on task  4 : loss=12.330 | TAw acc=100.0%, forg=  0.0%| TAg acc= 93.3%, forg=  0.0% <<<
Save at k=100/icarl_dsads_3/har_flex_icarl
======
LLL_Net(
  (model): SimpleMLP(
    (fc1): Linear(in_features=405, out_features=66, bias=True)
    (fc2): Sequential()
  )
  (heads): ModuleList(
    (0): Linear(in_features=66, out_features=12, bias=True)
    (1): Linear(in_features=66, out_features=10, bias=True)
    (2): Linear(in_features=66, out_features=10, bias=True)
    (3): Linear(in_features=66, out_features=10, bias=True)
    (4): Linear(in_features=66, out_features=10, bias=True)
  )
)
======

************************************************************************************************************
Task  5
************************************************************************************************************
| Epoch   1, time=  1.1s | Train: skip eval | Valid: time=  0.2s loss=19.347, TAw acc= 46.9% | *
| Epoch   2, time=  1.2s | Train: skip eval | Valid: time=  0.2s loss=16.714, TAw acc= 71.9% | *
…
>>> Test on task  0 : loss=0.475 | TAw acc= 93.1%, forg=  0.0%| TAg acc= 88.2%, forg=  4.9% <<<
>>> Test on task  1 : loss=3.381 | TAw acc= 98.3%, forg=  0.0%| TAg acc= 94.2%, forg=  3.3% <<<
>>> Test on task  2 : loss=5.609 | TAw acc= 95.8%, forg=  0.0%| TAg acc= 85.0%, forg=  5.8% <<<
>>> Test on task  3 : loss=8.474 | TAw acc=100.0%, forg=  0.0%| TAg acc= 80.0%, forg=  7.5% <<<
>>> Test on task  4 : loss=12.106 | TAw acc=100.0%, forg=  0.0%| TAg acc= 93.3%, forg=  0.0% <<<
>>> Test on task  5 : loss=14.540 | TAw acc=100.0%, forg=  0.0%| TAg acc= 96.7%, forg=  0.0% <<<
Save at k=100/icarl_dsads_3/har_flex_icarl
======
LLL_Net(
  (model): SimpleMLP(
    (fc1): Linear(in_features=405, out_features=66, bias=True)
    (fc2): Sequential()
  )
  (heads): ModuleList(
    (0): Linear(in_features=66, out_features=12, bias=True)
    (1): Linear(in_features=66, out_features=10, bias=True)
    (2): Linear(in_features=66, out_features=10, bias=True)
    (3): Linear(in_features=66, out_features=10, bias=True)
    (4): Linear(in_features=66, out_features=10, bias=True)
    (5): Linear(in_features=66, out_features=10, bias=True)
  )
)
======

************************************************************************************************************
Task  6
************************************************************************************************************
| Epoch   1, time=  1.4s | Train: skip eval | Valid: time=  0.2s loss=18.621, TAw acc= 41.7% | *
| Epoch   2, time=  1.5s | Train: skip eval | Valid: time=  0.2s loss=15.535, TAw acc= 58.3% | *
…
>>> Test on task  1 : loss=3.308 | TAw acc= 98.3%, forg=  0.0%| TAg acc= 94.2%, forg=  3.3% <<<
>>> Test on task  2 : loss=5.308 | TAw acc= 95.8%, forg=  0.0%| TAg acc= 80.0%, forg= 10.8% <<<
>>> Test on task  3 : loss=8.168 | TAw acc=100.0%, forg=  0.0%| TAg acc= 78.3%, forg=  9.2% <<<
>>> Test on task  4 : loss=11.569 | TAw acc=100.0%, forg=  0.0%| TAg acc= 93.3%, forg=  0.0% <<<
>>> Test on task  5 : loss=13.938 | TAw acc=100.0%, forg=  0.0%| TAg acc= 96.7%, forg=  0.0% <<<
>>> Test on task  6 : loss=12.987 | TAw acc= 93.3%, forg=  0.0%| TAg acc= 80.8%, forg=  0.0% <<<
Save at k=100/icarl_dsads_3/har_flex_icarl
======
LLL_Net(
  (model): SimpleMLP(
    (fc1): Linear(in_features=405, out_features=66, bias=True)
    (fc2): Sequential()
  )
  (heads): ModuleList(
    (0): Linear(in_features=66, out_features=12, bias=True)
    (1): Linear(in_features=66, out_features=10, bias=True)
    (2): Linear(in_features=66, out_features=10, bias=True)
    (3): Linear(in_features=66, out_features=10, bias=True)
    (4): Linear(in_features=66, out_features=10, bias=True)
    (5): Linear(in_features=66, out_features=10, bias=True)
    (6): Linear(in_features=66, out_features=10, bias=True)
  )
)
======

************************************************************************************************************
Task  7
************************************************************************************************************
| Epoch   1, time=  1.8s | Train: skip eval | Valid: time=  0.2s loss=22.919, TAw acc= 31.2% | *
| Epoch   2, time=  1.8s | Train: skip eval | Valid: time=  0.2s loss=19.720, TAw acc= 58.3% | *
…
>>> Test on task  2 : loss=5.194 | TAw acc= 95.8%, forg=  0.0%| TAg acc= 80.0%, forg= 10.8% <<<
>>> Test on task  3 : loss=7.961 | TAw acc=100.0%, forg=  0.0%| TAg acc= 78.3%, forg=  9.2% <<<
>>> Test on task  4 : loss=11.298 | TAw acc=100.0%, forg=  0.0%| TAg acc= 92.5%, forg=  0.8% <<<
>>> Test on task  5 : loss=13.634 | TAw acc=100.0%, forg=  0.0%| TAg acc= 94.2%, forg=  2.5% <<<
>>> Test on task  6 : loss=12.848 | TAw acc= 93.3%, forg=  0.0%| TAg acc= 79.2%, forg=  1.7% <<<
>>> Test on task  7 : loss=17.443 | TAw acc= 96.7%, forg=  0.0%| TAg acc= 85.0%, forg=  0.0% <<<
Save at k=100/icarl_dsads_3/har_flex_icarl
======
LLL_Net(
  (model): SimpleMLP(
    (fc1): Linear(in_features=405, out_features=66, bias=True)
    (fc2): Sequential()
  )
  (heads): ModuleList(
    (0): Linear(in_features=66, out_features=12, bias=True)
    (1): Linear(in_features=66, out_features=10, bias=True)
    (2): Linear(in_features=66, out_features=10, bias=True)
    (3): Linear(in_features=66, out_features=10, bias=True)
    (4): Linear(in_features=66, out_features=10, bias=True)
    (5): Linear(in_features=66, out_features=10, bias=True)
    (6): Linear(in_features=66, out_features=10, bias=True)
    (7): Linear(in_features=66, out_features=10, bias=True)
  )
)
======

************************************************************************************************************
Task  8
************************************************************************************************************
| Epoch   1, time=  2.2s | Train: skip eval | Valid: time=  0.2s loss=22.865, TAw acc= 46.9% | *
| Epoch   2, time=  2.3s | Train: skip eval | Valid: time=  0.2s loss=19.087, TAw acc= 64.6% | *
…
>>> Test on task  3 : loss=7.844 | TAw acc=100.0%, forg=  0.0%| TAg acc= 71.7%, forg= 15.8% <<<
>>> Test on task  4 : loss=11.011 | TAw acc=100.0%, forg=  0.0%| TAg acc= 92.5%, forg=  0.8% <<<
>>> Test on task  5 : loss=13.312 | TAw acc=100.0%, forg=  0.0%| TAg acc= 93.3%, forg=  3.3% <<<
>>> Test on task  6 : loss=12.573 | TAw acc= 93.3%, forg=  0.0%| TAg acc= 78.3%, forg=  2.5% <<<
>>> Test on task  7 : loss=17.041 | TAw acc= 96.7%, forg=  0.0%| TAg acc= 85.0%, forg=  0.0% <<<
>>> Test on task  8 : loss=17.057 | TAw acc= 97.5%, forg=  0.0%| TAg acc= 76.7%, forg=  0.0% <<<
Save at k=100/icarl_dsads_3/har_flex_icarl
======
LLL_Net(
  (model): SimpleMLP(
    (fc1): Linear(in_features=405, out_features=66, bias=True)
    (fc2): Sequential()
  )
  (heads): ModuleList(
    (0): Linear(in_features=66, out_features=12, bias=True)
    (1): Linear(in_features=66, out_features=10, bias=True)
    (2): Linear(in_features=66, out_features=10, bias=True)
    (3): Linear(in_features=66, out_features=10, bias=True)
    (4): Linear(in_features=66, out_features=10, bias=True)
    (5): Linear(in_features=66, out_features=10, bias=True)
    (6): Linear(in_features=66, out_features=10, bias=True)
    (7): Linear(in_features=66, out_features=10, bias=True)
    (8): Linear(in_features=66, out_features=10, bias=True)
  )
)
======

************************************************************************************************************
Task  9
************************************************************************************************************
| Epoch   1, time=  2.6s | Train: skip eval | Valid: time=  0.2s loss=24.998, TAw acc= 26.0% | *
| Epoch   2, time=  2.6s | Train: skip eval | Valid: time=  0.2s loss=20.812, TAw acc= 76.0% | *
…
>>> Test on task  4 : loss=10.729 | TAw acc=100.0%, forg=  0.0%| TAg acc= 92.5%, forg=  0.8% <<<
>>> Test on task  5 : loss=12.989 | TAw acc=100.0%, forg=  0.0%| TAg acc= 93.3%, forg=  3.3% <<<
>>> Test on task  6 : loss=12.295 | TAw acc= 93.3%, forg=  0.0%| TAg acc= 78.3%, forg=  2.5% <<<
>>> Test on task  7 : loss=16.602 | TAw acc= 96.7%, forg=  0.0%| TAg acc= 85.0%, forg=  0.0% <<<
>>> Test on task  8 : loss=16.734 | TAw acc= 97.5%, forg=  0.0%| TAg acc= 74.2%, forg=  2.5% <<<
>>> Test on task  9 : loss=18.051 | TAw acc=100.0%, forg=  0.0%| TAg acc= 88.3%, forg=  0.0% <<<
Save at k=100/icarl_dsads_3/har_flex_icarl
======
LLL_Net(
  (model): SimpleMLP(
    (fc1): Linear(in_features=405, out_features=66, bias=True)
    (fc2): Sequential()
  )
  (heads): ModuleList(
    (0): Linear(in_features=66, out_features=12, bias=True)
    (1): Linear(in_features=66, out_features=10, bias=True)
    (2): Linear(in_features=66, out_features=10, bias=True)
    (3): Linear(in_features=66, out_features=10, bias=True)
    (4): Linear(in_features=66, out_features=10, bias=True)
    (5): Linear(in_features=66, out_features=10, bias=True)
    (6): Linear(in_features=66, out_features=10, bias=True)
    (7): Linear(in_features=66, out_features=10, bias=True)
    (8): Linear(in_features=66, out_features=10, bias=True)
    (9): Linear(in_features=66, out_features=10, bias=True)
  )
)
======

************************************************************************************************************
Task 10
************************************************************************************************************
| Epoch   1, time=  3.3s | Train: skip eval | Valid: time=  0.2s loss=27.949, TAw acc= 10.4% | *
| Epoch   2, time=  3.1s | Train: skip eval | Valid: time=  0.1s loss=23.792, TAw acc= 69.8% | *
…
>>> Test on task  5 : loss=12.737 | TAw acc=100.0%, forg=  0.0%| TAg acc= 93.3%, forg=  3.3% <<<
>>> Test on task  6 : loss=12.114 | TAw acc= 93.3%, forg=  0.0%| TAg acc= 78.3%, forg=  2.5% <<<
>>> Test on task  7 : loss=16.299 | TAw acc= 96.7%, forg=  0.0%| TAg acc= 85.0%, forg=  0.0% <<<
>>> Test on task  8 : loss=16.371 | TAw acc= 97.5%, forg=  0.0%| TAg acc= 74.2%, forg=  2.5% <<<
>>> Test on task  9 : loss=17.702 | TAw acc=100.0%, forg=  0.0%| TAg acc= 87.5%, forg=  0.8% <<<
>>> Test on task 10 : loss=21.379 | TAw acc= 92.5%, forg=  0.0%| TAg acc= 79.2%, forg=  0.0% <<<
Save at k=100/icarl_dsads_3/har_flex_icarl
======
LLL_Net(
  (model): SimpleMLP(
    (fc1): Linear(in_features=405, out_features=66, bias=True)
    (fc2): Sequential()
  )
  (heads): ModuleList(
    (0): Linear(in_features=66, out_features=12, bias=True)
    (1): Linear(in_features=66, out_features=10, bias=True)
    (2): Linear(in_features=66, out_features=10, bias=True)
    (3): Linear(in_features=66, out_features=10, bias=True)
    (4): Linear(in_features=66, out_features=10, bias=True)
    (5): Linear(in_features=66, out_features=10, bias=True)
    (6): Linear(in_features=66, out_features=10, bias=True)
    (7): Linear(in_features=66, out_features=10, bias=True)
    (8): Linear(in_features=66, out_features=10, bias=True)
    (9): Linear(in_features=66, out_features=10, bias=True)
    (10): Linear(in_features=66, out_features=10, bias=True)
  )
)
======

************************************************************************************************************
Task 11
************************************************************************************************************
| Epoch   1, time=  3.8s | Train: skip eval | Valid: time=  0.2s loss=29.134, TAw acc= 41.7% | *
| Epoch   2, time=  3.7s | Train: skip eval | Valid: time=  0.2s loss=24.034, TAw acc= 77.1% | *
…
>>> Test on task  6 : loss=12.025 | TAw acc= 93.3%, forg=  0.0%| TAg acc= 76.7%, forg=  4.2% <<<
>>> Test on task  7 : loss=16.123 | TAw acc= 96.7%, forg=  0.0%| TAg acc= 85.0%, forg=  0.0% <<<
>>> Test on task  8 : loss=16.259 | TAw acc= 97.5%, forg=  0.0%| TAg acc= 74.2%, forg=  2.5% <<<
>>> Test on task  9 : loss=17.548 | TAw acc=100.0%, forg=  0.0%| TAg acc= 81.7%, forg=  6.7% <<<
>>> Test on task 10 : loss=21.250 | TAw acc= 92.5%, forg=  0.0%| TAg acc= 76.7%, forg=  2.5% <<<
>>> Test on task 11 : loss=22.202 | TAw acc= 96.7%, forg=  0.0%| TAg acc= 80.0%, forg=  0.0% <<<
Save at k=100/icarl_dsads_3/har_flex_icarl
======
LLL_Net(
  (model): SimpleMLP(
    (fc1): Linear(in_features=405, out_features=66, bias=True)
    (fc2): Sequential()
  )
  (heads): ModuleList(
    (0): Linear(in_features=66, out_features=12, bias=True)
    (1): Linear(in_features=66, out_features=10, bias=True)
    (2): Linear(in_features=66, out_features=10, bias=True)
    (3): Linear(in_features=66, out_features=10, bias=True)
    (4): Linear(in_features=66, out_features=10, bias=True)
    (5): Linear(in_features=66, out_features=10, bias=True)
    (6): Linear(in_features=66, out_features=10, bias=True)
    (7): Linear(in_features=66, out_features=10, bias=True)
    (8): Linear(in_features=66, out_features=10, bias=True)
    (9): Linear(in_features=66, out_features=10, bias=True)
    (10): Linear(in_features=66, out_features=10, bias=True)
    (11): Linear(in_features=66, out_features=10, bias=True)
  )
)
======

************************************************************************************************************
Task 12
************************************************************************************************************
| Epoch   1, time=  4.4s | Train: skip eval | Valid: time=  0.2s loss=29.934, TAw acc= 33.3% | *
| Epoch   2, time=  4.5s | Train: skip eval | Valid: time=  0.2s loss=25.114, TAw acc= 47.9% | *
…
>>> Test on task  7 : loss=15.738 | TAw acc= 96.7%, forg=  0.0%| TAg acc= 85.0%, forg=  0.0% <<<
>>> Test on task  8 : loss=16.019 | TAw acc= 97.5%, forg=  0.0%| TAg acc= 72.5%, forg=  4.2% <<<
>>> Test on task  9 : loss=17.130 | TAw acc=100.0%, forg=  0.0%| TAg acc= 80.8%, forg=  7.5% <<<
>>> Test on task 10 : loss=20.677 | TAw acc= 92.5%, forg=  0.0%| TAg acc= 76.7%, forg=  2.5% <<<
>>> Test on task 11 : loss=21.701 | TAw acc= 96.7%, forg=  0.0%| TAg acc= 76.7%, forg=  3.3% <<<
>>> Test on task 12 : loss=21.768 | TAw acc= 98.3%, forg=  0.0%| TAg acc= 87.5%, forg=  0.0% <<<
Save at k=100/icarl_dsads_3/har_flex_icarl
======
LLL_Net(
  (model): SimpleMLP(
    (fc1): Linear(in_features=405, out_features=66, bias=True)
    (fc2): Sequential()
  )
  (heads): ModuleList(
    (0): Linear(in_features=66, out_features=12, bias=True)
    (1): Linear(in_features=66, out_features=10, bias=True)
    (2): Linear(in_features=66, out_features=10, bias=True)
    (3): Linear(in_features=66, out_features=10, bias=True)
    (4): Linear(in_features=66, out_features=10, bias=True)
    (5): Linear(in_features=66, out_features=10, bias=True)
    (6): Linear(in_features=66, out_features=10, bias=True)
    (7): Linear(in_features=66, out_features=10, bias=True)
    (8): Linear(in_features=66, out_features=10, bias=True)
    (9): Linear(in_features=66, out_features=10, bias=True)
    (10): Linear(in_features=66, out_features=10, bias=True)
    (11): Linear(in_features=66, out_features=10, bias=True)
    (12): Linear(in_features=66, out_features=10, bias=True)
  )
)
======

************************************************************************************************************
Task 13
************************************************************************************************************
| Epoch   1, time=  5.1s | Train: skip eval | Valid: time=  0.2s loss=26.392, TAw acc= 43.8% | *
| Epoch   2, time=  5.0s | Train: skip eval | Valid: time=  0.2s loss=21.473, TAw acc= 64.6% | *
…
>>> Test on task  8 : loss=15.657 | TAw acc= 97.5%, forg=  0.0%| TAg acc= 70.8%, forg=  5.8% <<<
>>> Test on task  9 : loss=16.813 | TAw acc=100.0%, forg=  0.0%| TAg acc= 79.2%, forg=  9.2% <<<
>>> Test on task 10 : loss=20.279 | TAw acc= 92.5%, forg=  0.0%| TAg acc= 76.7%, forg=  2.5% <<<
>>> Test on task 11 : loss=21.232 | TAw acc= 96.7%, forg=  0.0%| TAg acc= 75.8%, forg=  4.2% <<<
>>> Test on task 12 : loss=21.569 | TAw acc= 98.3%, forg=  0.0%| TAg acc= 85.8%, forg=  1.7% <<<
>>> Test on task 13 : loss=19.588 | TAw acc= 92.5%, forg=  0.0%| TAg acc= 61.7%, forg=  0.0% <<<
Save at k=100/icarl_dsads_3/har_flex_icarl
======
LLL_Net(
  (model): SimpleMLP(
    (fc1): Linear(in_features=405, out_features=66, bias=True)
    (fc2): Sequential()
  )
  (heads): ModuleList(
    (0): Linear(in_features=66, out_features=12, bias=True)
    (1): Linear(in_features=66, out_features=10, bias=True)
    (2): Linear(in_features=66, out_features=10, bias=True)
    (3): Linear(in_features=66, out_features=10, bias=True)
    (4): Linear(in_features=66, out_features=10, bias=True)
    (5): Linear(in_features=66, out_features=10, bias=True)
    (6): Linear(in_features=66, out_features=10, bias=True)
    (7): Linear(in_features=66, out_features=10, bias=True)
    (8): Linear(in_features=66, out_features=10, bias=True)
    (9): Linear(in_features=66, out_features=10, bias=True)
    (10): Linear(in_features=66, out_features=10, bias=True)
    (11): Linear(in_features=66, out_features=10, bias=True)
    (12): Linear(in_features=66, out_features=10, bias=True)
    (13): Linear(in_features=66, out_features=10, bias=True)
  )
)
======

************************************************************************************************************
Task 14
************************************************************************************************************
| Epoch   1, time=  5.4s | Train: skip eval | Valid: time=  0.2s loss=30.088, TAw acc= 33.3% | *
| Epoch   2, time=  5.5s | Train: skip eval | Valid: time=  0.2s loss=24.660, TAw acc= 67.7% | *
…
