…
Namespace(alpha=0.3, backbone_type='whole', batch_size=20, buffer_size=10, conf_host='elquinto', conf_jobnum='5969555f-ac89-4426-b585-0d8d819e7b0f', conf_timestamp='2023-08-02 10:21:06.543400', dataid=3, dataset='mod-har', debug_mode=0, disable_log=0, distributed='no', ignore_other_metrics=0, load_data='/home/fr27/Documents/pyscript/har_experiments/for_paper_2/heatmap/wisdm_10_12.pkl', lr=0.0001, minibatch_size=20, model='der_mod', n_epochs=200, non_verbose=0, notes=None, nowand=0, ntask=9, optim_mom=0.0, optim_nesterov=0, optim_wd=0.0001, save_path='../har_experiments/for_paper_2/heatmap/der_wisdm.pkl', seed=None, validation=0, wandb_entity='frahman', wandb_project='mammoth')
LOADING PREVIOUSLY SAVED DATA
====TRAINING TASK: 0
SimpleMLP(
  (fc1): Linear(in_features=91, out_features=1000, bias=True)
  (fc2): Linear(in_features=1000, out_features=18, bias=True)
  (_features): Identity()
  (classifier): Sequential(
    (0): Linear(in_features=91, out_features=1000, bias=True)
    (1): ReLU()
    (2): Linear(in_features=1000, out_features=18, bias=True)
  )
  (net): Sequential(
    (0): Identity()
    (1): Sequential(
      (0): Linear(in_features=91, out_features=1000, bias=True)
      (1): ReLU()
      (2): Linear(in_features=1000, out_features=18, bias=True)
    )
  )
)

Accuracy for 1 task(s): 	 [Class-IL]: 90.33 % 	 [Task-IL]: 90.33 %

====TRAINING TASK: 1
SimpleMLP(
  (fc1): Linear(in_features=91, out_features=1000, bias=True)
  (fc2): Linear(in_features=1000, out_features=18, bias=True)
  (_features): Identity()
  (classifier): Sequential(
    (0): Linear(in_features=91, out_features=1000, bias=True)
    (1): ReLU()
    (2): Linear(in_features=1000, out_features=18, bias=True)
  )
  (net): Sequential(
    (0): Identity()
    (1): Sequential(
      (0): Linear(in_features=91, out_features=1000, bias=True)
      (1): ReLU()
      (2): Linear(in_features=1000, out_features=18, bias=True)
    )
  )
)

Accuracy for 2 task(s): 	 [Class-IL]: 72.96 % 	 [Task-IL]: 80.99 %

====TRAINING TASK: 2
SimpleMLP(
  (fc1): Linear(in_features=91, out_features=1000, bias=True)
  (fc2): Linear(in_features=1000, out_features=18, bias=True)
  (_features): Identity()
  (classifier): Sequential(
    (0): Linear(in_features=91, out_features=1000, bias=True)
    (1): ReLU()
    (2): Linear(in_features=1000, out_features=18, bias=True)
  )
  (net): Sequential(
    (0): Identity()
    (1): Sequential(
      (0): Linear(in_features=91, out_features=1000, bias=True)
      (1): ReLU()
      (2): Linear(in_features=1000, out_features=18, bias=True)
    )
  )
)

Accuracy for 3 task(s): 	 [Class-IL]: 58.68 % 	 [Task-IL]: 80.79 %

====TRAINING TASK: 3
SimpleMLP(
  (fc1): Linear(in_features=91, out_features=1000, bias=True)
  (fc2): Linear(in_features=1000, out_features=18, bias=True)
  (_features): Identity()
  (classifier): Sequential(
    (0): Linear(in_features=91, out_features=1000, bias=True)
    (1): ReLU()
    (2): Linear(in_features=1000, out_features=18, bias=True)
  )
  (net): Sequential(
    (0): Identity()
    (1): Sequential(
      (0): Linear(in_features=91, out_features=1000, bias=True)
      (1): ReLU()
      (2): Linear(in_features=1000, out_features=18, bias=True)
    )
  )
)

Accuracy for 4 task(s): 	 [Class-IL]: 33.19 % 	 [Task-IL]: 71.78 %

====TRAINING TASK: 4
SimpleMLP(
  (fc1): Linear(in_features=91, out_features=1000, bias=True)
  (fc2): Linear(in_features=1000, out_features=18, bias=True)
  (_features): Identity()
  (classifier): Sequential(
    (0): Linear(in_features=91, out_features=1000, bias=True)
    (1): ReLU()
    (2): Linear(in_features=1000, out_features=18, bias=True)
  )
  (net): Sequential(
    (0): Identity()
    (1): Sequential(
      (0): Linear(in_features=91, out_features=1000, bias=True)
      (1): ReLU()
      (2): Linear(in_features=1000, out_features=18, bias=True)
    )
  )
)

Accuracy for 5 task(s): 	 [Class-IL]: 24.44 % 	 [Task-IL]: 67.02 %

====TRAINING TASK: 5
SimpleMLP(
  (fc1): Linear(in_features=91, out_features=1000, bias=True)
  (fc2): Linear(in_features=1000, out_features=18, bias=True)
  (_features): Identity()
  (classifier): Sequential(
    (0): Linear(in_features=91, out_features=1000, bias=True)
    (1): ReLU()
    (2): Linear(in_features=1000, out_features=18, bias=True)
  )
  (net): Sequential(
    (0): Identity()
    (1): Sequential(
      (0): Linear(in_features=91, out_features=1000, bias=True)
      (1): ReLU()
      (2): Linear(in_features=1000, out_features=18, bias=True)
    )
  )
)

Accuracy for 6 task(s): 	 [Class-IL]: 23.61 % 	 [Task-IL]: 69.2 %

====TRAINING TASK: 6
SimpleMLP(
  (fc1): Linear(in_features=91, out_features=1000, bias=True)
  (fc2): Linear(in_features=1000, out_features=18, bias=True)
  (_features): Identity()
  (classifier): Sequential(
    (0): Linear(in_features=91, out_features=1000, bias=True)
    (1): ReLU()
    (2): Linear(in_features=1000, out_features=18, bias=True)
  )
  (net): Sequential(
    (0): Identity()
    (1): Sequential(
      (0): Linear(in_features=91, out_features=1000, bias=True)
      (1): ReLU()
      (2): Linear(in_features=1000, out_features=18, bias=True)
    )
  )
)

Accuracy for 7 task(s): 	 [Class-IL]: 22.4 % 	 [Task-IL]: 71.13 %

====TRAINING TASK: 7
SimpleMLP(
  (fc1): Linear(in_features=91, out_features=1000, bias=True)
  (fc2): Linear(in_features=1000, out_features=18, bias=True)
  (_features): Identity()
  (classifier): Sequential(
    (0): Linear(in_features=91, out_features=1000, bias=True)
    (1): ReLU()
    (2): Linear(in_features=1000, out_features=18, bias=True)
  )
  (net): Sequential(
    (0): Identity()
    (1): Sequential(
      (0): Linear(in_features=91, out_features=1000, bias=True)
      (1): ReLU()
      (2): Linear(in_features=1000, out_features=18, bias=True)
    )
  )
)

Accuracy for 8 task(s): 	 [Class-IL]: 14.92 % 	 [Task-IL]: 68.44 %

====TRAINING TASK: 8
SimpleMLP(
  (fc1): Linear(in_features=91, out_features=1000, bias=True)
  (fc2): Linear(in_features=1000, out_features=18, bias=True)
  (_features): Identity()
  (classifier): Sequential(
    (0): Linear(in_features=91, out_features=1000, bias=True)
    (1): ReLU()
    (2): Linear(in_features=1000, out_features=18, bias=True)
  )
  (net): Sequential(
    (0): Identity()
    (1): Sequential(
      (0): Linear(in_features=91, out_features=1000, bias=True)
      (1): ReLU()
      (2): Linear(in_features=1000, out_features=18, bias=True)
    )
  )
)

Accuracy for 9 task(s): 	 [Class-IL]: 13.76 % 	 [Task-IL]: 62.86 %

CLASS_IL_ACC: 
	[0.0, 12.269938650306749, 0.0, 0.0, 0.0, 9.044368600682594, 29.65964343598055, 1.015228426395939, 71.86440677966101]
TASK_IL_ACC: 
	[52.886115444617786, 90.79754601226993, 46.463022508038584, 50.67567567567568, 57.53676470588235, 47.098976109215016, 80.38897893030794, 67.34348561759728, 72.54237288135593]
…
