…
Namespace(alpha=0.3, backbone_type='whole', batch_size=20, buffer_size=10, conf_host='elquinto', conf_jobnum='6a85fd33-dbe4-4620-9b1e-fae149af80ce', conf_timestamp='2023-08-02 10:19:32.295483', dataid=2, dataset='mod-har', debug_mode=0, disable_log=0, distributed='no', ignore_other_metrics=0, load_data='/home/fr27/Documents/pyscript/har_experiments/for_paper_2/heatmap/hapt_10_4.pkl', lr=0.01, minibatch_size=20, model='der_mod', n_epochs=160, non_verbose=0, notes=None, nowand=0, ntask=6, optim_mom=0.0, optim_nesterov=0, optim_wd=0.0002, save_path='../har_experiments/for_paper_2/heatmap/der_hapt.pkl', seed=None, validation=0, wandb_entity='frahman', wandb_project='mammoth')
LOADING PREVIOUSLY SAVED DATA
====TRAINING TASK: 0
SimpleMLP(
  (fc1): Linear(in_features=561, out_features=1000, bias=True)
  (fc2): Linear(in_features=1000, out_features=12, bias=True)
  (_features): Identity()
  (classifier): Sequential(
    (0): Linear(in_features=561, out_features=1000, bias=True)
    (1): ReLU()
    (2): Linear(in_features=1000, out_features=12, bias=True)
  )
  (net): Sequential(
    (0): Identity()
    (1): Sequential(
      (0): Linear(in_features=561, out_features=1000, bias=True)
      (1): ReLU()
      (2): Linear(in_features=1000, out_features=12, bias=True)
    )
  )
)

Accuracy for 1 task(s): 	 [Class-IL]: 98.18 % 	 [Task-IL]: 98.18 %

====TRAINING TASK: 1
SimpleMLP(
  (fc1): Linear(in_features=561, out_features=1000, bias=True)
  (fc2): Linear(in_features=1000, out_features=12, bias=True)
  (_features): Identity()
  (classifier): Sequential(
    (0): Linear(in_features=561, out_features=1000, bias=True)
    (1): ReLU()
    (2): Linear(in_features=1000, out_features=12, bias=True)
  )
  (net): Sequential(
    (0): Identity()
    (1): Sequential(
      (0): Linear(in_features=561, out_features=1000, bias=True)
      (1): ReLU()
      (2): Linear(in_features=1000, out_features=12, bias=True)
    )
  )
)

Accuracy for 2 task(s): 	 [Class-IL]: 92.43 % 	 [Task-IL]: 98.89 %

====TRAINING TASK: 2
SimpleMLP(
  (fc1): Linear(in_features=561, out_features=1000, bias=True)
  (fc2): Linear(in_features=1000, out_features=12, bias=True)
  (_features): Identity()
  (classifier): Sequential(
    (0): Linear(in_features=561, out_features=1000, bias=True)
    (1): ReLU()
    (2): Linear(in_features=1000, out_features=12, bias=True)
  )
  (net): Sequential(
    (0): Identity()
    (1): Sequential(
      (0): Linear(in_features=561, out_features=1000, bias=True)
      (1): ReLU()
      (2): Linear(in_features=1000, out_features=12, bias=True)
    )
  )
)

Accuracy for 3 task(s): 	 [Class-IL]: 82.72 % 	 [Task-IL]: 98.72 %

====TRAINING TASK: 3
SimpleMLP(
  (fc1): Linear(in_features=561, out_features=1000, bias=True)
  (fc2): Linear(in_features=1000, out_features=12, bias=True)
  (_features): Identity()
  (classifier): Sequential(
    (0): Linear(in_features=561, out_features=1000, bias=True)
    (1): ReLU()
    (2): Linear(in_features=1000, out_features=12, bias=True)
  )
  (net): Sequential(
    (0): Identity()
    (1): Sequential(
      (0): Linear(in_features=561, out_features=1000, bias=True)
      (1): ReLU()
      (2): Linear(in_features=1000, out_features=12, bias=True)
    )
  )
)

Accuracy for 4 task(s): 	 [Class-IL]: 85.1 % 	 [Task-IL]: 99.04 %

====TRAINING TASK: 4
SimpleMLP(
  (fc1): Linear(in_features=561, out_features=1000, bias=True)
  (fc2): Linear(in_features=1000, out_features=12, bias=True)
  (_features): Identity()
  (classifier): Sequential(
    (0): Linear(in_features=561, out_features=1000, bias=True)
    (1): ReLU()
    (2): Linear(in_features=1000, out_features=12, bias=True)
  )
  (net): Sequential(
    (0): Identity()
    (1): Sequential(
      (0): Linear(in_features=561, out_features=1000, bias=True)
      (1): ReLU()
      (2): Linear(in_features=1000, out_features=12, bias=True)
    )
  )
)

Accuracy for 5 task(s): 	 [Class-IL]: 42.41 % 	 [Task-IL]: 95.63 %

====TRAINING TASK: 5
SimpleMLP(
  (fc1): Linear(in_features=561, out_features=1000, bias=True)
  (fc2): Linear(in_features=1000, out_features=12, bias=True)
  (_features): Identity()
  (classifier): Sequential(
    (0): Linear(in_features=561, out_features=1000, bias=True)
    (1): ReLU()
    (2): Linear(in_features=1000, out_features=12, bias=True)
  )
  (net): Sequential(
    (0): Identity()
    (1): Sequential(
      (0): Linear(in_features=561, out_features=1000, bias=True)
      (1): ReLU()
      (2): Linear(in_features=1000, out_features=12, bias=True)
    )
  )
)

Accuracy for 6 task(s): 	 [Class-IL]: 56.09 % 	 [Task-IL]: 98.38 %

CLASS_IL_ACC: 
	[0.0, 18.27309236947791, 70.46511627906978, 58.519793459552496, 90.43824701195219, 98.82154882154882]
TASK_IL_ACC: 
	[96.36363636363636, 99.3975903614458, 100.0, 95.18072289156626, 99.7011952191235, 99.66329966329967]
f1_micro: 70.4933586337761
f1_macro: 38.52463029205979
…
