…
Namespace(alpha=0.3, backbone_type='whole', batch_size=20, buffer_size=10, conf_host='elquinto', conf_jobnum='ced40702-ee66-4946-95ad-5d7b070473b2', conf_timestamp='2023-08-02 10:18:10.455846', dataid=0, dataset='mod-har', debug_mode=0, disable_log=0, distributed='no', ignore_other_metrics=0, load_data='/home/fr27/Documents/pyscript/har_experiments/for_paper_2/heatmap/pamap_10_8.pkl', lr=0.01, minibatch_size=20, model='der_mod', n_epochs=200, non_verbose=0, notes=None, nowand=0, ntask=6, optim_mom=0.0, optim_nesterov=0, optim_wd=0.0001, save_path='../har_experiments/for_paper_2/heatmap/der_pamap.pkl', seed=None, validation=0, wandb_entity='frahman', wandb_project='mammoth')
LOADING PREVIOUSLY SAVED DATA
====TRAINING TASK: 0
SimpleMLP(
  (fc1): Linear(in_features=243, out_features=1000, bias=True)
  (fc2): Linear(in_features=1000, out_features=12, bias=True)
  (_features): Identity()
  (classifier): Sequential(
    (0): Linear(in_features=243, out_features=1000, bias=True)
    (1): ReLU()
    (2): Linear(in_features=1000, out_features=12, bias=True)
  )
  (net): Sequential(
    (0): Identity()
    (1): Sequential(
      (0): Linear(in_features=243, out_features=1000, bias=True)
      (1): ReLU()
      (2): Linear(in_features=1000, out_features=12, bias=True)
    )
  )
)

Accuracy for 1 task(s): 	 [Class-IL]: 99.34 % 	 [Task-IL]: 99.34 %

====TRAINING TASK: 1
SimpleMLP(
  (fc1): Linear(in_features=243, out_features=1000, bias=True)
  (fc2): Linear(in_features=1000, out_features=12, bias=True)
  (_features): Identity()
  (classifier): Sequential(
    (0): Linear(in_features=243, out_features=1000, bias=True)
    (1): ReLU()
    (2): Linear(in_features=1000, out_features=12, bias=True)
  )
  (net): Sequential(
    (0): Identity()
    (1): Sequential(
      (0): Linear(in_features=243, out_features=1000, bias=True)
      (1): ReLU()
      (2): Linear(in_features=1000, out_features=12, bias=True)
    )
  )
)

Accuracy for 2 task(s): 	 [Class-IL]: 96.01 % 	 [Task-IL]: 97.91 %

====TRAINING TASK: 2
SimpleMLP(
  (fc1): Linear(in_features=243, out_features=1000, bias=True)
  (fc2): Linear(in_features=1000, out_features=12, bias=True)
  (_features): Identity()
  (classifier): Sequential(
    (0): Linear(in_features=243, out_features=1000, bias=True)
    (1): ReLU()
    (2): Linear(in_features=1000, out_features=12, bias=True)
  )
  (net): Sequential(
    (0): Identity()
    (1): Sequential(
      (0): Linear(in_features=243, out_features=1000, bias=True)
      (1): ReLU()
      (2): Linear(in_features=1000, out_features=12, bias=True)
    )
  )
)

Accuracy for 3 task(s): 	 [Class-IL]: 75.93 % 	 [Task-IL]: 91.27 %

====TRAINING TASK: 3
SimpleMLP(
  (fc1): Linear(in_features=243, out_features=1000, bias=True)
  (fc2): Linear(in_features=1000, out_features=12, bias=True)
  (_features): Identity()
  (classifier): Sequential(
    (0): Linear(in_features=243, out_features=1000, bias=True)
    (1): ReLU()
    (2): Linear(in_features=1000, out_features=12, bias=True)
  )
  (net): Sequential(
    (0): Identity()
    (1): Sequential(
      (0): Linear(in_features=243, out_features=1000, bias=True)
      (1): ReLU()
      (2): Linear(in_features=1000, out_features=12, bias=True)
    )
  )
)

Accuracy for 4 task(s): 	 [Class-IL]: 79.66 % 	 [Task-IL]: 93.8 %

====TRAINING TASK: 4
SimpleMLP(
  (fc1): Linear(in_features=243, out_features=1000, bias=True)
  (fc2): Linear(in_features=1000, out_features=12, bias=True)
  (_features): Identity()
  (classifier): Sequential(
    (0): Linear(in_features=243, out_features=1000, bias=True)
    (1): ReLU()
    (2): Linear(in_features=1000, out_features=12, bias=True)
  )
  (net): Sequential(
    (0): Identity()
    (1): Sequential(
      (0): Linear(in_features=243, out_features=1000, bias=True)
      (1): ReLU()
      (2): Linear(in_features=1000, out_features=12, bias=True)
    )
  )
)

Accuracy for 5 task(s): 	 [Class-IL]: 72.45 % 	 [Task-IL]: 93.25 %

====TRAINING TASK: 5
SimpleMLP(
  (fc1): Linear(in_features=243, out_features=1000, bias=True)
  (fc2): Linear(in_features=1000, out_features=12, bias=True)
  (_features): Identity()
  (classifier): Sequential(
    (0): Linear(in_features=243, out_features=1000, bias=True)
    (1): ReLU()
    (2): Linear(in_features=1000, out_features=12, bias=True)
  )
  (net): Sequential(
    (0): Identity()
    (1): Sequential(
      (0): Linear(in_features=243, out_features=1000, bias=True)
      (1): ReLU()
      (2): Linear(in_features=1000, out_features=12, bias=True)
    )
  )
)

Accuracy for 6 task(s): 	 [Class-IL]: 65.32 % 	 [Task-IL]: 93.88 %

CLASS_IL_ACC: 
	[34.21926910299003, 85.65737051792829, 40.72948328267477, 45.0, 88.40579710144928, 97.92099792099792]
TASK_IL_ACC: 
	[98.33887043189368, 98.00796812749005, 79.63525835866263, 92.5, 95.65217391304348, 99.16839916839916]
f1_micro: 64.89247311827957
f1_macro: 53.62913015544931
…
