…
| Selected 768 train exemplars, time=  0.0s
768
------------------------------------------------------------------------------------------------------------
>>> Test on task  0 : loss=1.102 | TAw acc= 87.7%, forg=  1.2%| TAg acc= 67.8%, forg= 14.0% <<<
>>> Test on task  1 : loss=1.510 | TAw acc= 88.9%, forg= -3.7%| TAg acc= 67.6%, forg=  8.3% <<<
>>> Test on task  2 : loss=1.227 | TAw acc= 95.4%, forg= -3.7%| TAg acc= 67.9%, forg= 19.3% <<<
>>> Test on task  3 : loss=1.027 | TAw acc= 94.1%, forg=  0.0%| TAg acc= 85.3%, forg=  0.0% <<<
Save at k=100/eeil_e20_wisdm_4/wisdm_flex_eeil
======
LLL_Net(
  (model): SimpleMLP(
    (fc1): Linear(in_features=91, out_features=1000, bias=True)
    (fc2): Sequential()
  )
  (heads): ModuleList(
    (0): Linear(in_features=1000, out_features=34, bias=True)
    (1): Linear(in_features=1000, out_features=20, bias=True)
    (2): Linear(in_features=1000, out_features=20, bias=True)
    (3): Linear(in_features=1000, out_features=20, bias=True)
  )
)
======

************************************************************************************************************
Task  4
************************************************************************************************************
| Epoch   1, time=  0.3s | Train: skip eval | Valid: time=  0.2s loss=4.069, TAw acc= 53.8% | *
| Epoch   2, time=  0.3s | Train: skip eval | Valid: time=  0.2s loss=2.904, TAw acc= 59.3% | *
…
------------------------------------------------------------------------------------------------------------
>>> Test on task  0 : loss=1.048 | TAw acc= 87.7%, forg=  1.2%| TAg acc= 77.2%, forg=  4.7% <<<
>>> Test on task  1 : loss=1.472 | TAw acc= 92.6%, forg= -3.7%| TAg acc= 63.9%, forg= 12.0% <<<
>>> Test on task  2 : loss=1.169 | TAw acc= 95.4%, forg=  0.0%| TAg acc= 77.1%, forg= 10.1% <<<
>>> Test on task  3 : loss=1.117 | TAw acc= 93.1%, forg=  1.0%| TAg acc= 68.6%, forg= 16.7% <<<
>>> Test on task  4 : loss=1.002 | TAw acc= 92.6%, forg=  0.0%| TAg acc= 74.4%, forg=  0.0% <<<
Save at k=100/eeil_e20_wisdm_4/wisdm_flex_eeil
======
LLL_Net(
  (model): SimpleMLP(
    (fc1): Linear(in_features=91, out_features=1000, bias=True)
    (fc2): Sequential()
  )
  (heads): ModuleList(
    (0): Linear(in_features=1000, out_features=34, bias=True)
    (1): Linear(in_features=1000, out_features=20, bias=True)
    (2): Linear(in_features=1000, out_features=20, bias=True)
    (3): Linear(in_features=1000, out_features=20, bias=True)
    (4): Linear(in_features=1000, out_features=20, bias=True)
  )
)
======

************************************************************************************************************
Task  5
************************************************************************************************************
| Epoch   1, time=  0.7s | Train: skip eval | Valid: time=  0.3s loss=4.465, TAw acc= 31.2% | *
| Epoch   2, time=  0.7s | Train: skip eval | Valid: time=  0.2s loss=3.204, TAw acc= 48.8% | *
…
>>> Test on task  0 : loss=1.002 | TAw acc= 87.1%, forg=  1.8%| TAg acc= 81.3%, forg=  0.6% <<<
>>> Test on task  1 : loss=1.356 | TAw acc= 88.0%, forg=  4.6%| TAg acc= 65.7%, forg= 10.2% <<<
>>> Test on task  2 : loss=1.089 | TAw acc= 95.4%, forg=  0.0%| TAg acc= 76.1%, forg= 11.0% <<<
>>> Test on task  3 : loss=1.027 | TAw acc= 93.1%, forg=  1.0%| TAg acc= 76.5%, forg=  8.8% <<<
>>> Test on task  4 : loss=1.146 | TAw acc= 95.9%, forg= -3.3%| TAg acc= 76.0%, forg= -1.7% <<<
>>> Test on task  5 : loss=1.080 | TAw acc= 91.7%, forg=  0.0%| TAg acc= 76.9%, forg=  0.0% <<<
Save at k=100/eeil_e20_wisdm_4/wisdm_flex_eeil
======
LLL_Net(
  (model): SimpleMLP(
    (fc1): Linear(in_features=91, out_features=1000, bias=True)
    (fc2): Sequential()
  )
  (heads): ModuleList(
    (0): Linear(in_features=1000, out_features=34, bias=True)
    (1): Linear(in_features=1000, out_features=20, bias=True)
    (2): Linear(in_features=1000, out_features=20, bias=True)
    (3): Linear(in_features=1000, out_features=20, bias=True)
    (4): Linear(in_features=1000, out_features=20, bias=True)
    (5): Linear(in_features=1000, out_features=20, bias=True)
  )
)
======

************************************************************************************************************
Task  6
************************************************************************************************************
| Epoch   1, time=  0.9s | Train: skip eval | Valid: time=  0.3s loss=4.306, TAw acc= 56.2% | *
| Epoch   2, time=  0.5s | Train: skip eval | Valid: time=  0.1s loss=2.836, TAw acc= 64.0% | *
…
>>> Test on task  1 : loss=1.340 | TAw acc= 90.7%, forg=  1.9%| TAg acc= 67.6%, forg=  8.3% <<<
>>> Test on task  2 : loss=0.948 | TAw acc= 96.3%, forg= -0.9%| TAg acc= 84.4%, forg=  2.8% <<<
>>> Test on task  3 : loss=0.960 | TAw acc= 93.1%, forg=  1.0%| TAg acc= 75.5%, forg=  9.8% <<<
>>> Test on task  4 : loss=1.081 | TAw acc= 95.9%, forg=  0.0%| TAg acc= 70.2%, forg=  5.8% <<<
>>> Test on task  5 : loss=1.333 | TAw acc= 95.4%, forg= -3.7%| TAg acc= 64.8%, forg= 12.0% <<<
>>> Test on task  6 : loss=1.011 | TAw acc= 98.3%, forg=  0.0%| TAg acc= 79.0%, forg=  0.0% <<<
Save at k=100/eeil_e20_wisdm_4/wisdm_flex_eeil
======
LLL_Net(
  (model): SimpleMLP(
    (fc1): Linear(in_features=91, out_features=1000, bias=True)
    (fc2): Sequential()
  )
  (heads): ModuleList(
    (0): Linear(in_features=1000, out_features=34, bias=True)
    (1): Linear(in_features=1000, out_features=20, bias=True)
    (2): Linear(in_features=1000, out_features=20, bias=True)
    (3): Linear(in_features=1000, out_features=20, bias=True)
    (4): Linear(in_features=1000, out_features=20, bias=True)
    (5): Linear(in_features=1000, out_features=20, bias=True)
    (6): Linear(in_features=1000, out_features=20, bias=True)
  )
)
======

************************************************************************************************************
Task  7
************************************************************************************************************
| Epoch   1, time=  0.8s | Train: skip eval | Valid: time=  0.3s loss=4.658, TAw acc= 52.3% | *
| Epoch   2, time=  0.9s | Train: skip eval | Valid: time=  0.3s loss=2.772, TAw acc= 56.8% | *
…
>>> Test on task  2 : loss=1.018 | TAw acc= 96.3%, forg=  0.0%| TAg acc= 79.8%, forg=  7.3% <<<
>>> Test on task  3 : loss=0.906 | TAw acc= 93.1%, forg=  1.0%| TAg acc= 78.4%, forg=  6.9% <<<
>>> Test on task  4 : loss=1.114 | TAw acc= 95.9%, forg=  0.0%| TAg acc= 71.1%, forg=  5.0% <<<
>>> Test on task  5 : loss=1.140 | TAw acc= 95.4%, forg=  0.0%| TAg acc= 75.9%, forg=  0.9% <<<
>>> Test on task  6 : loss=1.205 | TAw acc= 99.2%, forg= -0.8%| TAg acc= 63.9%, forg= 15.1% <<<
>>> Test on task  7 : loss=0.955 | TAw acc= 93.2%, forg=  0.0%| TAg acc= 87.2%, forg=  0.0% <<<
Save at k=100/eeil_e20_wisdm_4/wisdm_flex_eeil
======
LLL_Net(
  (model): SimpleMLP(
    (fc1): Linear(in_features=91, out_features=1000, bias=True)
    (fc2): Sequential()
  )
  (heads): ModuleList(
    (0): Linear(in_features=1000, out_features=34, bias=True)
    (1): Linear(in_features=1000, out_features=20, bias=True)
    (2): Linear(in_features=1000, out_features=20, bias=True)
    (3): Linear(in_features=1000, out_features=20, bias=True)
    (4): Linear(in_features=1000, out_features=20, bias=True)
    (5): Linear(in_features=1000, out_features=20, bias=True)
    (6): Linear(in_features=1000, out_features=20, bias=True)
    (7): Linear(in_features=1000, out_features=20, bias=True)
  )
)
======

************************************************************************************************************
Task  8
************************************************************************************************************
| Epoch   1, time=  0.8s | Train: skip eval | Valid: time=  0.3s loss=4.497, TAw acc= 55.7% | *
| Epoch   2, time=  0.9s | Train: skip eval | Valid: time=  0.2s loss=2.551, TAw acc= 69.3% | *
…
>>> Test on task  3 : loss=0.886 | TAw acc= 92.2%, forg=  2.0%| TAg acc= 73.5%, forg= 11.8% <<<
>>> Test on task  4 : loss=0.944 | TAw acc= 96.7%, forg= -0.8%| TAg acc= 80.2%, forg= -4.1% <<<
>>> Test on task  5 : loss=1.165 | TAw acc= 95.4%, forg=  0.0%| TAg acc= 72.2%, forg=  4.6% <<<
>>> Test on task  6 : loss=1.062 | TAw acc= 99.2%, forg=  0.0%| TAg acc= 74.8%, forg=  4.2% <<<
>>> Test on task  7 : loss=1.264 | TAw acc= 95.7%, forg= -2.6%| TAg acc= 70.9%, forg= 16.2% <<<
>>> Test on task  8 : loss=1.021 | TAw acc= 89.8%, forg=  0.0%| TAg acc= 82.2%, forg=  0.0% <<<
Save at k=100/eeil_e20_wisdm_4/wisdm_flex_eeil
======
LLL_Net(
  (model): SimpleMLP(
    (fc1): Linear(in_features=91, out_features=1000, bias=True)
    (fc2): Sequential()
  )
  (heads): ModuleList(
    (0): Linear(in_features=1000, out_features=34, bias=True)
    (1): Linear(in_features=1000, out_features=20, bias=True)
    (2): Linear(in_features=1000, out_features=20, bias=True)
    (3): Linear(in_features=1000, out_features=20, bias=True)
    (4): Linear(in_features=1000, out_features=20, bias=True)
    (5): Linear(in_features=1000, out_features=20, bias=True)
    (6): Linear(in_features=1000, out_features=20, bias=True)
    (7): Linear(in_features=1000, out_features=20, bias=True)
    (8): Linear(in_features=1000, out_features=20, bias=True)
  )
)
======

************************************************************************************************************
Task  9
************************************************************************************************************
| Epoch   1, time=  0.6s | Train: skip eval | Valid: time=  0.2s loss=5.477, TAw acc= 36.4% | *
| Epoch   2, time=  0.9s | Train: skip eval | Valid: time=  0.3s loss=3.424, TAw acc= 53.2% | *
…
>>> Test on task  4 : loss=0.920 | TAw acc= 96.7%, forg=  0.0%| TAg acc= 82.6%, forg= -2.5% <<<
>>> Test on task  5 : loss=1.084 | TAw acc= 95.4%, forg=  0.0%| TAg acc= 82.4%, forg= -5.6% <<<
>>> Test on task  6 : loss=0.933 | TAw acc= 99.2%, forg=  0.0%| TAg acc= 79.0%, forg=  0.0% <<<
>>> Test on task  7 : loss=1.188 | TAw acc= 94.0%, forg=  1.7%| TAg acc= 77.8%, forg=  9.4% <<<
>>> Test on task  8 : loss=1.381 | TAw acc= 92.4%, forg= -2.5%| TAg acc= 63.6%, forg= 18.6% <<<
>>> Test on task  9 : loss=1.076 | TAw acc= 94.2%, forg=  0.0%| TAg acc= 79.8%, forg=  0.0% <<<
Save at k=100/eeil_e20_wisdm_4/wisdm_flex_eeil
======
LLL_Net(
  (model): SimpleMLP(
    (fc1): Linear(in_features=91, out_features=1000, bias=True)
    (fc2): Sequential()
  )
  (heads): ModuleList(
    (0): Linear(in_features=1000, out_features=34, bias=True)
    (1): Linear(in_features=1000, out_features=20, bias=True)
    (2): Linear(in_features=1000, out_features=20, bias=True)
    (3): Linear(in_features=1000, out_features=20, bias=True)
    (4): Linear(in_features=1000, out_features=20, bias=True)
    (5): Linear(in_features=1000, out_features=20, bias=True)
    (6): Linear(in_features=1000, out_features=20, bias=True)
    (7): Linear(in_features=1000, out_features=20, bias=True)
    (8): Linear(in_features=1000, out_features=20, bias=True)
    (9): Linear(in_features=1000, out_features=20, bias=True)
  )
)
======

************************************************************************************************************
Task 10
************************************************************************************************************
| Epoch   1, time=  1.1s | Train: skip eval | Valid: time=  0.3s loss=4.790, TAw acc= 47.5% | *
| Epoch   2, time=  1.1s | Train: skip eval | Valid: time=  0.2s loss=2.943, TAw acc= 67.5% | *
…
>>> Test on task  5 : loss=1.024 | TAw acc= 95.4%, forg=  0.0%| TAg acc= 81.5%, forg=  0.9% <<<
>>> Test on task  6 : loss=0.848 | TAw acc= 99.2%, forg=  0.0%| TAg acc= 83.2%, forg= -4.2% <<<
>>> Test on task  7 : loss=1.093 | TAw acc= 94.9%, forg=  0.9%| TAg acc= 82.9%, forg=  4.3% <<<
>>> Test on task  8 : loss=1.222 | TAw acc= 91.5%, forg=  0.8%| TAg acc= 73.7%, forg=  8.5% <<<
>>> Test on task  9 : loss=1.332 | TAw acc= 97.1%, forg= -2.9%| TAg acc= 63.5%, forg= 16.3% <<<
>>> Test on task 10 : loss=1.136 | TAw acc= 93.6%, forg=  0.0%| TAg acc= 68.2%, forg=  0.0% <<<
Save at k=100/eeil_e20_wisdm_4/wisdm_flex_eeil
======
LLL_Net(
  (model): SimpleMLP(
    (fc1): Linear(in_features=91, out_features=1000, bias=True)
    (fc2): Sequential()
  )
  (heads): ModuleList(
    (0): Linear(in_features=1000, out_features=34, bias=True)
    (1): Linear(in_features=1000, out_features=20, bias=True)
    (2): Linear(in_features=1000, out_features=20, bias=True)
    (3): Linear(in_features=1000, out_features=20, bias=True)
    (4): Linear(in_features=1000, out_features=20, bias=True)
    (5): Linear(in_features=1000, out_features=20, bias=True)
    (6): Linear(in_features=1000, out_features=20, bias=True)
    (7): Linear(in_features=1000, out_features=20, bias=True)
    (8): Linear(in_features=1000, out_features=20, bias=True)
    (9): Linear(in_features=1000, out_features=20, bias=True)
    (10): Linear(in_features=1000, out_features=20, bias=True)
  )
)
======

************************************************************************************************************
Task 11
************************************************************************************************************
| Epoch   1, time=  1.0s | Train: skip eval | Valid: time=  0.3s loss=5.628, TAw acc= 37.1% | *
| Epoch   2, time=  1.3s | Train: skip eval | Valid: time=  0.3s loss=3.455, TAw acc= 41.4% | *
…
>>> Test on task  6 : loss=0.847 | TAw acc= 99.2%, forg=  0.0%| TAg acc= 83.2%, forg=  0.0% <<<
>>> Test on task  7 : loss=1.033 | TAw acc= 94.0%, forg=  1.7%| TAg acc= 79.5%, forg=  7.7% <<<
>>> Test on task  8 : loss=1.201 | TAw acc= 95.8%, forg= -3.4%| TAg acc= 80.5%, forg=  1.7% <<<
>>> Test on task  9 : loss=1.235 | TAw acc= 97.1%, forg=  0.0%| TAg acc= 69.2%, forg= 10.6% <<<
>>> Test on task 10 : loss=1.473 | TAw acc= 93.6%, forg=  0.0%| TAg acc= 61.8%, forg=  6.4% <<<
>>> Test on task 11 : loss=1.241 | TAw acc= 89.8%, forg=  0.0%| TAg acc= 79.6%, forg=  0.0% <<<
Save at k=100/eeil_e20_wisdm_4/wisdm_flex_eeil
======
LLL_Net(
  (model): SimpleMLP(
    (fc1): Linear(in_features=91, out_features=1000, bias=True)
    (fc2): Sequential()
  )
  (heads): ModuleList(
    (0): Linear(in_features=1000, out_features=34, bias=True)
    (1): Linear(in_features=1000, out_features=20, bias=True)
    (2): Linear(in_features=1000, out_features=20, bias=True)
    (3): Linear(in_features=1000, out_features=20, bias=True)
    (4): Linear(in_features=1000, out_features=20, bias=True)
    (5): Linear(in_features=1000, out_features=20, bias=True)
    (6): Linear(in_features=1000, out_features=20, bias=True)
    (7): Linear(in_features=1000, out_features=20, bias=True)
    (8): Linear(in_features=1000, out_features=20, bias=True)
    (9): Linear(in_features=1000, out_features=20, bias=True)
    (10): Linear(in_features=1000, out_features=20, bias=True)
    (11): Linear(in_features=1000, out_features=20, bias=True)
  )
)
======

************************************************************************************************************
Task 12
************************************************************************************************************
| Epoch   1, time=  0.9s | Train: skip eval | Valid: time=  0.3s loss=5.366, TAw acc= 38.7% | *
| Epoch   2, time=  1.5s | Train: skip eval | Valid: time=  0.3s loss=3.187, TAw acc= 53.3% | *
…
>>> Test on task  7 : loss=1.008 | TAw acc= 94.0%, forg=  1.7%| TAg acc= 76.9%, forg= 10.3% <<<
>>> Test on task  8 : loss=1.104 | TAw acc= 94.9%, forg=  0.8%| TAg acc= 79.7%, forg=  2.5% <<<
>>> Test on task  9 : loss=1.140 | TAw acc= 97.1%, forg=  0.0%| TAg acc= 66.3%, forg= 13.5% <<<
>>> Test on task 10 : loss=1.369 | TAw acc= 94.5%, forg= -0.9%| TAg acc= 65.5%, forg=  2.7% <<<
>>> Test on task 11 : loss=1.449 | TAw acc= 89.8%, forg=  0.0%| TAg acc= 65.3%, forg= 14.3% <<<
>>> Test on task 12 : loss=1.163 | TAw acc= 91.3%, forg=  0.0%| TAg acc= 78.6%, forg=  0.0% <<<
Save at k=100/eeil_e20_wisdm_4/wisdm_flex_eeil
======
LLL_Net(
  (model): SimpleMLP(
    (fc1): Linear(in_features=91, out_features=1000, bias=True)
    (fc2): Sequential()
  )
  (heads): ModuleList(
    (0): Linear(in_features=1000, out_features=34, bias=True)
    (1): Linear(in_features=1000, out_features=20, bias=True)
    (2): Linear(in_features=1000, out_features=20, bias=True)
    (3): Linear(in_features=1000, out_features=20, bias=True)
    (4): Linear(in_features=1000, out_features=20, bias=True)
    (5): Linear(in_features=1000, out_features=20, bias=True)
    (6): Linear(in_features=1000, out_features=20, bias=True)
    (7): Linear(in_features=1000, out_features=20, bias=True)
    (8): Linear(in_features=1000, out_features=20, bias=True)
    (9): Linear(in_features=1000, out_features=20, bias=True)
    (10): Linear(in_features=1000, out_features=20, bias=True)
    (11): Linear(in_features=1000, out_features=20, bias=True)
    (12): Linear(in_features=1000, out_features=20, bias=True)
  )
)
======

************************************************************************************************************
Task 13
************************************************************************************************************
| Epoch   1, time=  1.9s | Train: skip eval | Valid: time=  0.2s loss=4.810, TAw acc= 60.0% | *
| Epoch   2, time=  1.0s | Train: skip eval | Valid: time=  0.1s loss=2.791, TAw acc= 77.6% | *
…
>>> Test on task  8 : loss=0.993 | TAw acc= 96.6%, forg= -0.8%| TAg acc= 83.9%, forg= -1.7% <<<
>>> Test on task  9 : loss=1.213 | TAw acc= 97.1%, forg=  0.0%| TAg acc= 65.4%, forg= 14.4% <<<
>>> Test on task 10 : loss=1.252 | TAw acc= 94.5%, forg=  0.0%| TAg acc= 75.5%, forg= -7.3% <<<
>>> Test on task 11 : loss=1.382 | TAw acc= 91.8%, forg= -2.0%| TAg acc= 63.3%, forg= 16.3% <<<
>>> Test on task 12 : loss=1.317 | TAw acc= 90.3%, forg=  1.0%| TAg acc= 71.8%, forg=  6.8% <<<
>>> Test on task 13 : loss=1.076 | TAw acc= 92.1%, forg=  0.0%| TAg acc= 77.2%, forg=  0.0% <<<
Save at k=100/eeil_e20_wisdm_4/wisdm_flex_eeil
======
LLL_Net(
  (model): SimpleMLP(
    (fc1): Linear(in_features=91, out_features=1000, bias=True)
    (fc2): Sequential()
  )
  (heads): ModuleList(
    (0): Linear(in_features=1000, out_features=34, bias=True)
    (1): Linear(in_features=1000, out_features=20, bias=True)
    (2): Linear(in_features=1000, out_features=20, bias=True)
    (3): Linear(in_features=1000, out_features=20, bias=True)
    (4): Linear(in_features=1000, out_features=20, bias=True)
    (5): Linear(in_features=1000, out_features=20, bias=True)
    (6): Linear(in_features=1000, out_features=20, bias=True)
    (7): Linear(in_features=1000, out_features=20, bias=True)
    (8): Linear(in_features=1000, out_features=20, bias=True)
    (9): Linear(in_features=1000, out_features=20, bias=True)
    (10): Linear(in_features=1000, out_features=20, bias=True)
    (11): Linear(in_features=1000, out_features=20, bias=True)
    (12): Linear(in_features=1000, out_features=20, bias=True)
    (13): Linear(in_features=1000, out_features=20, bias=True)
  )
)
======

************************************************************************************************************
Task 14
************************************************************************************************************
| Epoch   1, time=  1.5s | Train: skip eval | Valid: time=  0.3s loss=5.768, TAw acc= 36.8% | *
| Epoch   2, time=  1.8s | Train: skip eval | Valid: time=  0.2s loss=3.560, TAw acc= 48.7% | *
…
>>> Test on task  9 : loss=1.156 | TAw acc= 98.1%, forg= -1.0%| TAg acc= 69.2%, forg= 10.6% <<<
>>> Test on task 10 : loss=1.215 | TAw acc= 94.5%, forg=  0.0%| TAg acc= 70.9%, forg=  4.5% <<<
>>> Test on task 11 : loss=1.294 | TAw acc= 92.9%, forg= -1.0%| TAg acc= 63.3%, forg= 16.3% <<<
>>> Test on task 12 : loss=1.311 | TAw acc= 89.3%, forg=  1.9%| TAg acc= 72.8%, forg=  5.8% <<<
>>> Test on task 13 : loss=1.294 | TAw acc= 95.6%, forg= -3.5%| TAg acc= 64.9%, forg= 12.3% <<<
>>> Test on task 14 : loss=1.189 | TAw acc= 94.2%, forg=  0.0%| TAg acc= 76.9%, forg=  0.0% <<<
Save at k=100/eeil_e20_wisdm_4/wisdm_flex_eeil
======
LLL_Net(
  (model): SimpleMLP(
    (fc1): Linear(in_features=91, out_features=1000, bias=True)
    (fc2): Sequential()
  )
  (heads): ModuleList(
    (0): Linear(in_features=1000, out_features=34, bias=True)
    (1): Linear(in_features=1000, out_features=20, bias=True)
    (2): Linear(in_features=1000, out_features=20, bias=True)
    (3): Linear(in_features=1000, out_features=20, bias=True)
    (4): Linear(in_features=1000, out_features=20, bias=True)
    (5): Linear(in_features=1000, out_features=20, bias=True)
    (6): Linear(in_features=1000, out_features=20, bias=True)
    (7): Linear(in_features=1000, out_features=20, bias=True)
    (8): Linear(in_features=1000, out_features=20, bias=True)
    (9): Linear(in_features=1000, out_features=20, bias=True)
    (10): Linear(in_features=1000, out_features=20, bias=True)
    (11): Linear(in_features=1000, out_features=20, bias=True)
    (12): Linear(in_features=1000, out_features=20, bias=True)
    (13): Linear(in_features=1000, out_features=20, bias=True)
    (14): Linear(in_features=1000, out_features=20, bias=True)
  )
)
======

************************************************************************************************************
Task 15
************************************************************************************************************
| Epoch   1, time=  1.6s | Train: skip eval | Valid: time=  0.2s loss=6.040, TAw acc= 28.2% | *
| Epoch   2, time=  1.5s | Train: skip eval | Valid: time=  0.1s loss=3.810, TAw acc= 43.7% | *
…
>>> Test on task 10 : loss=1.223 | TAw acc= 94.5%, forg=  0.0%| TAg acc= 75.5%, forg=  0.0% <<<
>>> Test on task 11 : loss=1.283 | TAw acc= 90.8%, forg=  2.0%| TAg acc= 62.2%, forg= 17.3% <<<
>>> Test on task 12 : loss=1.189 | TAw acc= 89.3%, forg=  1.9%| TAg acc= 74.8%, forg=  3.9% <<<
>>> Test on task 13 : loss=1.229 | TAw acc= 95.6%, forg=  0.0%| TAg acc= 64.0%, forg= 13.2% <<<
>>> Test on task 14 : loss=1.379 | TAw acc= 95.2%, forg= -1.0%| TAg acc= 63.5%, forg= 13.5% <<<
>>> Test on task 15 : loss=1.077 | TAw acc= 98.0%, forg=  0.0%| TAg acc= 78.8%, forg=  0.0% <<<
Save at k=100/eeil_e20_wisdm_4/wisdm_flex_eeil
======
LLL_Net(
  (model): SimpleMLP(
    (fc1): Linear(in_features=91, out_features=1000, bias=True)
    (fc2): Sequential()
  )
  (heads): ModuleList(
    (0): Linear(in_features=1000, out_features=34, bias=True)
    (1): Linear(in_features=1000, out_features=20, bias=True)
    (2): Linear(in_features=1000, out_features=20, bias=True)
    (3): Linear(in_features=1000, out_features=20, bias=True)
    (4): Linear(in_features=1000, out_features=20, bias=True)
    (5): Linear(in_features=1000, out_features=20, bias=True)
    (6): Linear(in_features=1000, out_features=20, bias=True)
    (7): Linear(in_features=1000, out_features=20, bias=True)
    (8): Linear(in_features=1000, out_features=20, bias=True)
    (9): Linear(in_features=1000, out_features=20, bias=True)
    (10): Linear(in_features=1000, out_features=20, bias=True)
    (11): Linear(in_features=1000, out_features=20, bias=True)
    (12): Linear(in_features=1000, out_features=20, bias=True)
    (13): Linear(in_features=1000, out_features=20, bias=True)
    (14): Linear(in_features=1000, out_features=20, bias=True)
    (15): Linear(in_features=1000, out_features=20, bias=True)
  )
)
======

************************************************************************************************************
Task 16
************************************************************************************************************
| Epoch   1, time=  1.7s | Train: skip eval | Valid: time=  0.2s loss=6.241, TAw acc= 45.0% | *
| Epoch   2, time=  1.5s | Train: skip eval | Valid: time=  0.3s loss=3.364, TAw acc= 62.5% | *
…
>>> Test on task 11 : loss=1.272 | TAw acc= 90.8%, forg=  2.0%| TAg acc= 63.3%, forg= 16.3% <<<
>>> Test on task 12 : loss=1.167 | TAw acc= 91.3%, forg=  0.0%| TAg acc= 79.6%, forg= -1.0% <<<
>>> Test on task 13 : loss=1.162 | TAw acc= 95.6%, forg=  0.0%| TAg acc= 69.3%, forg=  7.9% <<<
>>> Test on task 14 : loss=1.337 | TAw acc= 95.2%, forg=  0.0%| TAg acc= 63.5%, forg= 13.5% <<<
>>> Test on task 15 : loss=1.282 | TAw acc= 98.0%, forg=  0.0%| TAg acc= 62.6%, forg= 16.2% <<<
>>> Test on task 16 : loss=1.111 | TAw acc= 94.5%, forg=  0.0%| TAg acc= 67.0%, forg=  0.0% <<<
Save at k=100/eeil_e20_wisdm_4/wisdm_flex_eeil
======
LLL_Net(
  (model): SimpleMLP(
    (fc1): Linear(in_features=91, out_features=1000, bias=True)
    (fc2): Sequential()
  )
  (heads): ModuleList(
    (0): Linear(in_features=1000, out_features=34, bias=True)
    (1): Linear(in_features=1000, out_features=20, bias=True)
    (2): Linear(in_features=1000, out_features=20, bias=True)
    (3): Linear(in_features=1000, out_features=20, bias=True)
    (4): Linear(in_features=1000, out_features=20, bias=True)
    (5): Linear(in_features=1000, out_features=20, bias=True)
    (6): Linear(in_features=1000, out_features=20, bias=True)
    (7): Linear(in_features=1000, out_features=20, bias=True)
    (8): Linear(in_features=1000, out_features=20, bias=True)
    (9): Linear(in_features=1000, out_features=20, bias=True)
    (10): Linear(in_features=1000, out_features=20, bias=True)
    (11): Linear(in_features=1000, out_features=20, bias=True)
    (12): Linear(in_features=1000, out_features=20, bias=True)
    (13): Linear(in_features=1000, out_features=20, bias=True)
    (14): Linear(in_features=1000, out_features=20, bias=True)
    (15): Linear(in_features=1000, out_features=20, bias=True)
    (16): Linear(in_features=1000, out_features=20, bias=True)
  )
)
======

************************************************************************************************************
Task 17
************************************************************************************************************
| Epoch   1, time=  1.5s | Train: skip eval | Valid: time=  0.2s loss=5.683, TAw acc= 45.8% | *
| Epoch   2, time=  1.5s | Train: skip eval | Valid: time=  0.2s loss=3.006, TAw acc= 62.7% | *
…
>>> Test on task 12 : loss=1.139 | TAw acc= 89.3%, forg=  1.9%| TAg acc= 78.6%, forg=  1.0% <<<
>>> Test on task 13 : loss=1.079 | TAw acc= 95.6%, forg=  0.0%| TAg acc= 74.6%, forg=  2.6% <<<
>>> Test on task 14 : loss=1.254 | TAw acc= 94.2%, forg=  1.0%| TAg acc= 68.3%, forg=  8.7% <<<
>>> Test on task 15 : loss=1.169 | TAw acc= 97.0%, forg=  1.0%| TAg acc= 68.7%, forg= 10.1% <<<
>>> Test on task 16 : loss=1.449 | TAw acc= 96.3%, forg= -1.8%| TAg acc= 55.0%, forg= 11.9% <<<
>>> Test on task 17 : loss=0.733 | TAw acc= 99.1%, forg=  0.0%| TAg acc= 81.2%, forg=  0.0% <<<
Save at k=100/eeil_e20_wisdm_4/wisdm_flex_eeil
======
LLL_Net(
  (model): SimpleMLP(
    (fc1): Linear(in_features=91, out_features=1000, bias=True)
    (fc2): Sequential()
  )
  (heads): ModuleList(
    (0): Linear(in_features=1000, out_features=34, bias=True)
    (1): Linear(in_features=1000, out_features=20, bias=True)
    (2): Linear(in_features=1000, out_features=20, bias=True)
    (3): Linear(in_features=1000, out_features=20, bias=True)
    (4): Linear(in_features=1000, out_features=20, bias=True)
    (5): Linear(in_features=1000, out_features=20, bias=True)
    (6): Linear(in_features=1000, out_features=20, bias=True)
    (7): Linear(in_features=1000, out_features=20, bias=True)
    (8): Linear(in_features=1000, out_features=20, bias=True)
    (9): Linear(in_features=1000, out_features=20, bias=True)
    (10): Linear(in_features=1000, out_features=20, bias=True)
    (11): Linear(in_features=1000, out_features=20, bias=True)
    (12): Linear(in_features=1000, out_features=20, bias=True)
    (13): Linear(in_features=1000, out_features=20, bias=True)
    (14): Linear(in_features=1000, out_features=20, bias=True)
    (15): Linear(in_features=1000, out_features=20, bias=True)
    (16): Linear(in_features=1000, out_features=20, bias=True)
    (17): Linear(in_features=1000, out_features=20, bias=True)
  )
)
======

************************************************************************************************************
Task 18
************************************************************************************************************
| Epoch   1, time=  1.5s | Train: skip eval | Valid: time=  0.1s loss=5.505, TAw acc= 30.8% | *
| Epoch   2, time=  1.5s | Train: skip eval | Valid: time=  0.1s loss=3.554, TAw acc= 66.7% | *
…
>>> Test on task 13 : loss=1.058 | TAw acc= 95.6%, forg=  0.0%| TAg acc= 69.3%, forg=  7.9% <<<
>>> Test on task 14 : loss=1.290 | TAw acc= 96.2%, forg= -1.0%| TAg acc= 62.5%, forg= 14.4% <<<
>>> Test on task 15 : loss=1.050 | TAw acc= 98.0%, forg=  0.0%| TAg acc= 75.8%, forg=  3.0% <<<
>>> Test on task 16 : loss=1.336 | TAw acc= 95.4%, forg=  0.9%| TAg acc= 62.4%, forg=  4.6% <<<
>>> Test on task 17 : loss=1.057 | TAw acc= 99.1%, forg=  0.0%| TAg acc= 58.0%, forg= 23.2% <<<
>>> Test on task 18 : loss=0.989 | TAw acc= 98.1%, forg=  0.0%| TAg acc= 80.2%, forg=  0.0% <<<
Save at k=100/eeil_e20_wisdm_4/wisdm_flex_eeil
======
LLL_Net(
  (model): SimpleMLP(
    (fc1): Linear(in_features=91, out_features=1000, bias=True)
    (fc2): Sequential()
  )
  (heads): ModuleList(
    (0): Linear(in_features=1000, out_features=34, bias=True)
    (1): Linear(in_features=1000, out_features=20, bias=True)
    (2): Linear(in_features=1000, out_features=20, bias=True)
    (3): Linear(in_features=1000, out_features=20, bias=True)
    (4): Linear(in_features=1000, out_features=20, bias=True)
    (5): Linear(in_features=1000, out_features=20, bias=True)
    (6): Linear(in_features=1000, out_features=20, bias=True)
    (7): Linear(in_features=1000, out_features=20, bias=True)
    (8): Linear(in_features=1000, out_features=20, bias=True)
    (9): Linear(in_features=1000, out_features=20, bias=True)
    (10): Linear(in_features=1000, out_features=20, bias=True)
    (11): Linear(in_features=1000, out_features=20, bias=True)
    (12): Linear(in_features=1000, out_features=20, bias=True)
    (13): Linear(in_features=1000, out_features=20, bias=True)
    (14): Linear(in_features=1000, out_features=20, bias=True)
    (15): Linear(in_features=1000, out_features=20, bias=True)
    (16): Linear(in_features=1000, out_features=20, bias=True)
    (17): Linear(in_features=1000, out_features=20, bias=True)
    (18): Linear(in_features=1000, out_features=20, bias=True)
  )
)
======

************************************************************************************************************
Task 19
************************************************************************************************************
| Epoch   1, time=  1.5s | Train: skip eval | Valid: time=  0.2s loss=5.259, TAw acc= 37.6% | *
| Epoch   2, time=  1.5s | Train: skip eval | Valid: time=  0.2s loss=2.720, TAw acc= 84.9% | *
…
>>> Test on task 14 : loss=1.267 | TAw acc= 96.2%, forg=  0.0%| TAg acc= 66.3%, forg= 10.6% <<<
>>> Test on task 15 : loss=0.961 | TAw acc= 98.0%, forg=  0.0%| TAg acc= 76.8%, forg=  2.0% <<<
>>> Test on task 16 : loss=1.251 | TAw acc= 95.4%, forg=  0.9%| TAg acc= 66.1%, forg=  0.9% <<<
>>> Test on task 17 : loss=0.896 | TAw acc= 99.1%, forg=  0.0%| TAg acc= 73.2%, forg=  8.0% <<<
>>> Test on task 18 : loss=1.314 | TAw acc= 97.2%, forg=  0.9%| TAg acc= 64.2%, forg= 16.0% <<<
>>> Test on task 19 : loss=1.018 | TAw acc= 95.9%, forg=  0.0%| TAg acc= 78.0%, forg=  0.0% <<<
Save at k=100/eeil_e20_wisdm_4/wisdm_flex_eeil
======
LLL_Net(
  (model): SimpleMLP(
    (fc1): Linear(in_features=91, out_features=1000, bias=True)
    (fc2): Sequential()
  )
  (heads): ModuleList(
    (0): Linear(in_features=1000, out_features=34, bias=True)
    (1): Linear(in_features=1000, out_features=20, bias=True)
    (2): Linear(in_features=1000, out_features=20, bias=True)
    (3): Linear(in_features=1000, out_features=20, bias=True)
    (4): Linear(in_features=1000, out_features=20, bias=True)
    (5): Linear(in_features=1000, out_features=20, bias=True)
    (6): Linear(in_features=1000, out_features=20, bias=True)
    (7): Linear(in_features=1000, out_features=20, bias=True)
    (8): Linear(in_features=1000, out_features=20, bias=True)
    (9): Linear(in_features=1000, out_features=20, bias=True)
    (10): Linear(in_features=1000, out_features=20, bias=True)
    (11): Linear(in_features=1000, out_features=20, bias=True)
    (12): Linear(in_features=1000, out_features=20, bias=True)
    (13): Linear(in_features=1000, out_features=20, bias=True)
    (14): Linear(in_features=1000, out_features=20, bias=True)
    (15): Linear(in_features=1000, out_features=20, bias=True)
    (16): Linear(in_features=1000, out_features=20, bias=True)
    (17): Linear(in_features=1000, out_features=20, bias=True)
    (18): Linear(in_features=1000, out_features=20, bias=True)
    (19): Linear(in_features=1000, out_features=20, bias=True)
  )
)
======

************************************************************************************************************
Task 20
************************************************************************************************************
| Epoch   1, time=  1.7s | Train: skip eval | Valid: time=  0.1s loss=5.595, TAw acc= 53.5% | *
| Epoch   2, time=  1.8s | Train: skip eval | Valid: time=  0.1s loss=3.085, TAw acc= 62.8% | *
…
>>> Test on task 15 : loss=0.932 | TAw acc= 98.0%, forg=  0.0%| TAg acc= 77.8%, forg=  1.0% <<<
>>> Test on task 16 : loss=1.219 | TAw acc= 95.4%, forg=  0.9%| TAg acc= 65.1%, forg=  1.8% <<<
>>> Test on task 17 : loss=0.909 | TAw acc= 99.1%, forg=  0.0%| TAg acc= 69.6%, forg= 11.6% <<<
>>> Test on task 18 : loss=1.143 | TAw acc= 98.1%, forg=  0.0%| TAg acc= 72.6%, forg=  7.5% <<<
>>> Test on task 19 : loss=1.440 | TAw acc= 95.9%, forg=  0.0%| TAg acc= 57.7%, forg= 20.3% <<<
>>> Test on task 20 : loss=0.811 | TAw acc= 94.8%, forg=  0.0%| TAg acc= 82.6%, forg=  0.0% <<<
Save at k=100/eeil_e20_wisdm_4/wisdm_flex_eeil
======
LLL_Net(
  (model): SimpleMLP(
    (fc1): Linear(in_features=91, out_features=1000, bias=True)
    (fc2): Sequential()
  )
  (heads): ModuleList(
    (0): Linear(in_features=1000, out_features=34, bias=True)
    (1): Linear(in_features=1000, out_features=20, bias=True)
    (2): Linear(in_features=1000, out_features=20, bias=True)
    (3): Linear(in_features=1000, out_features=20, bias=True)
    (4): Linear(in_features=1000, out_features=20, bias=True)
    (5): Linear(in_features=1000, out_features=20, bias=True)
    (6): Linear(in_features=1000, out_features=20, bias=True)
    (7): Linear(in_features=1000, out_features=20, bias=True)
    (8): Linear(in_features=1000, out_features=20, bias=True)
    (9): Linear(in_features=1000, out_features=20, bias=True)
    (10): Linear(in_features=1000, out_features=20, bias=True)
    (11): Linear(in_features=1000, out_features=20, bias=True)
    (12): Linear(in_features=1000, out_features=20, bias=True)
    (13): Linear(in_features=1000, out_features=20, bias=True)
    (14): Linear(in_features=1000, out_features=20, bias=True)
    (15): Linear(in_features=1000, out_features=20, bias=True)
    (16): Linear(in_features=1000, out_features=20, bias=True)
    (17): Linear(in_features=1000, out_features=20, bias=True)
    (18): Linear(in_features=1000, out_features=20, bias=True)
    (19): Linear(in_features=1000, out_features=20, bias=True)
    (20): Linear(in_features=1000, out_features=20, bias=True)
  )
)
======

************************************************************************************************************
Task 21
************************************************************************************************************
| Epoch   1, time=  1.9s | Train: skip eval | Valid: time=  0.1s loss=5.929, TAw acc= 48.1% | *
| Epoch   2, time=  1.7s | Train: skip eval | Valid: time=  0.2s loss=3.105, TAw acc= 71.6% | *
…
>>> Test on task 16 : loss=1.178 | TAw acc= 95.4%, forg=  0.9%| TAg acc= 69.7%, forg= -2.8% <<<
>>> Test on task 17 : loss=0.860 | TAw acc= 99.1%, forg=  0.0%| TAg acc= 71.4%, forg=  9.8% <<<
>>> Test on task 18 : loss=1.087 | TAw acc= 97.2%, forg=  0.9%| TAg acc= 74.5%, forg=  5.7% <<<
>>> Test on task 19 : loss=1.491 | TAw acc= 95.1%, forg=  0.8%| TAg acc= 58.5%, forg= 19.5% <<<
>>> Test on task 20 : loss=1.214 | TAw acc= 97.4%, forg= -2.6%| TAg acc= 61.7%, forg= 20.9% <<<
>>> Test on task 21 : loss=1.038 | TAw acc= 95.4%, forg=  0.0%| TAg acc= 75.2%, forg=  0.0% <<<
Save at k=100/eeil_e20_wisdm_4/wisdm_flex_eeil
======
LLL_Net(
  (model): SimpleMLP(
    (fc1): Linear(in_features=91, out_features=1000, bias=True)
    (fc2): Sequential()
  )
  (heads): ModuleList(
    (0): Linear(in_features=1000, out_features=34, bias=True)
    (1): Linear(in_features=1000, out_features=20, bias=True)
    (2): Linear(in_features=1000, out_features=20, bias=True)
    (3): Linear(in_features=1000, out_features=20, bias=True)
    (4): Linear(in_features=1000, out_features=20, bias=True)
    (5): Linear(in_features=1000, out_features=20, bias=True)
    (6): Linear(in_features=1000, out_features=20, bias=True)
    (7): Linear(in_features=1000, out_features=20, bias=True)
    (8): Linear(in_features=1000, out_features=20, bias=True)
    (9): Linear(in_features=1000, out_features=20, bias=True)
    (10): Linear(in_features=1000, out_features=20, bias=True)
    (11): Linear(in_features=1000, out_features=20, bias=True)
    (12): Linear(in_features=1000, out_features=20, bias=True)
    (13): Linear(in_features=1000, out_features=20, bias=True)
    (14): Linear(in_features=1000, out_features=20, bias=True)
    (15): Linear(in_features=1000, out_features=20, bias=True)
    (16): Linear(in_features=1000, out_features=20, bias=True)
    (17): Linear(in_features=1000, out_features=20, bias=True)
    (18): Linear(in_features=1000, out_features=20, bias=True)
    (19): Linear(in_features=1000, out_features=20, bias=True)
    (20): Linear(in_features=1000, out_features=20, bias=True)
    (21): Linear(in_features=1000, out_features=20, bias=True)
  )
)
======

************************************************************************************************************
Task 22
************************************************************************************************************
| Epoch   1, time=  2.0s | Train: skip eval | Valid: time=  0.2s loss=5.007, TAw acc= 39.5% | *
| Epoch   2, time=  2.0s | Train: skip eval | Valid: time=  0.2s loss=2.439, TAw acc= 71.6% | *
…
>>> Test on task 17 : loss=0.850 | TAw acc= 99.1%, forg=  0.0%| TAg acc= 74.1%, forg=  7.1% <<<
>>> Test on task 18 : loss=1.120 | TAw acc= 98.1%, forg=  0.0%| TAg acc= 67.9%, forg= 12.3% <<<
>>> Test on task 19 : loss=1.396 | TAw acc= 95.1%, forg=  0.8%| TAg acc= 60.2%, forg= 17.9% <<<
>>> Test on task 20 : loss=1.130 | TAw acc= 98.3%, forg= -0.9%| TAg acc= 68.7%, forg= 13.9% <<<
>>> Test on task 21 : loss=1.452 | TAw acc= 97.2%, forg= -1.8%| TAg acc= 56.9%, forg= 18.3% <<<
>>> Test on task 22 : loss=0.919 | TAw acc= 96.4%, forg=  0.0%| TAg acc= 83.8%, forg=  0.0% <<<
Save at k=100/eeil_e20_wisdm_4/wisdm_flex_eeil
======
LLL_Net(
  (model): SimpleMLP(
    (fc1): Linear(in_features=91, out_features=1000, bias=True)
    (fc2): Sequential()
  )
  (heads): ModuleList(
    (0): Linear(in_features=1000, out_features=34, bias=True)
    (1): Linear(in_features=1000, out_features=20, bias=True)
    (2): Linear(in_features=1000, out_features=20, bias=True)
    (3): Linear(in_features=1000, out_features=20, bias=True)
    (4): Linear(in_features=1000, out_features=20, bias=True)
    (5): Linear(in_features=1000, out_features=20, bias=True)
    (6): Linear(in_features=1000, out_features=20, bias=True)
    (7): Linear(in_features=1000, out_features=20, bias=True)
    (8): Linear(in_features=1000, out_features=20, bias=True)
    (9): Linear(in_features=1000, out_features=20, bias=True)
    (10): Linear(in_features=1000, out_features=20, bias=True)
    (11): Linear(in_features=1000, out_features=20, bias=True)
    (12): Linear(in_features=1000, out_features=20, bias=True)
    (13): Linear(in_features=1000, out_features=20, bias=True)
    (14): Linear(in_features=1000, out_features=20, bias=True)
    (15): Linear(in_features=1000, out_features=20, bias=True)
    (16): Linear(in_features=1000, out_features=20, bias=True)
    (17): Linear(in_features=1000, out_features=20, bias=True)
    (18): Linear(in_features=1000, out_features=20, bias=True)
    (19): Linear(in_features=1000, out_features=20, bias=True)
    (20): Linear(in_features=1000, out_features=20, bias=True)
    (21): Linear(in_features=1000, out_features=20, bias=True)
    (22): Linear(in_features=1000, out_features=20, bias=True)
  )
)
======

************************************************************************************************************
Task 23
************************************************************************************************************
| Epoch   1, time=  2.2s | Train: skip eval | Valid: time=  0.2s loss=5.802, TAw acc= 41.1% | *
| Epoch   2, time=  2.2s | Train: skip eval | Valid: time=  0.1s loss=2.500, TAw acc= 74.4% | *
…
>>> Test on task 18 : loss=1.040 | TAw acc= 98.1%, forg=  0.0%| TAg acc= 71.7%, forg=  8.5% <<<
>>> Test on task 19 : loss=1.343 | TAw acc= 95.1%, forg=  0.8%| TAg acc= 64.2%, forg= 13.8% <<<
>>> Test on task 20 : loss=1.132 | TAw acc= 97.4%, forg=  0.9%| TAg acc= 69.6%, forg= 13.0% <<<
>>> Test on task 21 : loss=1.417 | TAw acc= 97.2%, forg=  0.0%| TAg acc= 60.6%, forg= 14.7% <<<
>>> Test on task 22 : loss=1.274 | TAw acc= 94.6%, forg=  1.8%| TAg acc= 69.4%, forg= 14.4% <<<
>>> Test on task 23 : loss=0.852 | TAw acc= 97.5%, forg=  0.0%| TAg acc= 75.8%, forg=  0.0% <<<
Save at k=100/eeil_e20_wisdm_4/wisdm_flex_eeil
======
LLL_Net(
  (model): SimpleMLP(
    (fc1): Linear(in_features=91, out_features=1000, bias=True)
    (fc2): Sequential()
  )
  (heads): ModuleList(
    (0): Linear(in_features=1000, out_features=34, bias=True)
    (1): Linear(in_features=1000, out_features=20, bias=True)
    (2): Linear(in_features=1000, out_features=20, bias=True)
    (3): Linear(in_features=1000, out_features=20, bias=True)
    (4): Linear(in_features=1000, out_features=20, bias=True)
    (5): Linear(in_features=1000, out_features=20, bias=True)
    (6): Linear(in_features=1000, out_features=20, bias=True)
    (7): Linear(in_features=1000, out_features=20, bias=True)
    (8): Linear(in_features=1000, out_features=20, bias=True)
    (9): Linear(in_features=1000, out_features=20, bias=True)
    (10): Linear(in_features=1000, out_features=20, bias=True)
    (11): Linear(in_features=1000, out_features=20, bias=True)
    (12): Linear(in_features=1000, out_features=20, bias=True)
    (13): Linear(in_features=1000, out_features=20, bias=True)
    (14): Linear(in_features=1000, out_features=20, bias=True)
    (15): Linear(in_features=1000, out_features=20, bias=True)
    (16): Linear(in_features=1000, out_features=20, bias=True)
    (17): Linear(in_features=1000, out_features=20, bias=True)
    (18): Linear(in_features=1000, out_features=20, bias=True)
    (19): Linear(in_features=1000, out_features=20, bias=True)
    (20): Linear(in_features=1000, out_features=20, bias=True)
    (21): Linear(in_features=1000, out_features=20, bias=True)
    (22): Linear(in_features=1000, out_features=20, bias=True)
    (23): Linear(in_features=1000, out_features=20, bias=True)
  )
)
======

************************************************************************************************************
Task 24
************************************************************************************************************
| Epoch   1, time=  2.1s | Train: skip eval | Valid: time=  0.1s loss=5.385, TAw acc= 48.1% | *
| Epoch   2, time=  2.3s | Train: skip eval | Valid: time=  0.1s loss=2.597, TAw acc= 76.5% | *
…
>>> Test on task 19 : loss=1.359 | TAw acc= 95.1%, forg=  0.8%| TAg acc= 60.2%, forg= 17.9% <<<
>>> Test on task 20 : loss=1.053 | TAw acc= 98.3%, forg=  0.0%| TAg acc= 75.7%, forg=  7.0% <<<
>>> Test on task 21 : loss=1.267 | TAw acc= 97.2%, forg=  0.0%| TAg acc= 66.1%, forg=  9.2% <<<
>>> Test on task 22 : loss=1.291 | TAw acc= 97.3%, forg= -0.9%| TAg acc= 67.6%, forg= 16.2% <<<
>>> Test on task 23 : loss=1.400 | TAw acc=100.0%, forg= -2.5%| TAg acc= 55.8%, forg= 20.0% <<<
>>> Test on task 24 : loss=0.764 | TAw acc=100.0%, forg=  0.0%| TAg acc= 81.7%, forg=  0.0% <<<
Save at k=100/eeil_e20_wisdm_4/wisdm_flex_eeil
======
LLL_Net(
  (model): SimpleMLP(
    (fc1): Linear(in_features=91, out_features=1000, bias=True)
    (fc2): Sequential()
  )
  (heads): ModuleList(
    (0): Linear(in_features=1000, out_features=34, bias=True)
    (1): Linear(in_features=1000, out_features=20, bias=True)
    (2): Linear(in_features=1000, out_features=20, bias=True)
    (3): Linear(in_features=1000, out_features=20, bias=True)
    (4): Linear(in_features=1000, out_features=20, bias=True)
    (5): Linear(in_features=1000, out_features=20, bias=True)
    (6): Linear(in_features=1000, out_features=20, bias=True)
    (7): Linear(in_features=1000, out_features=20, bias=True)
    (8): Linear(in_features=1000, out_features=20, bias=True)
    (9): Linear(in_features=1000, out_features=20, bias=True)
    (10): Linear(in_features=1000, out_features=20, bias=True)
    (11): Linear(in_features=1000, out_features=20, bias=True)
    (12): Linear(in_features=1000, out_features=20, bias=True)
    (13): Linear(in_features=1000, out_features=20, bias=True)
    (14): Linear(in_features=1000, out_features=20, bias=True)
    (15): Linear(in_features=1000, out_features=20, bias=True)
    (16): Linear(in_features=1000, out_features=20, bias=True)
    (17): Linear(in_features=1000, out_features=20, bias=True)
    (18): Linear(in_features=1000, out_features=20, bias=True)
    (19): Linear(in_features=1000, out_features=20, bias=True)
    (20): Linear(in_features=1000, out_features=20, bias=True)
    (21): Linear(in_features=1000, out_features=20, bias=True)
    (22): Linear(in_features=1000, out_features=20, bias=True)
    (23): Linear(in_features=1000, out_features=20, bias=True)
    (24): Linear(in_features=1000, out_features=20, bias=True)
  )
)
======

************************************************************************************************************
Task 25
************************************************************************************************************
| Epoch   1, time=  2.3s | Train: skip eval | Valid: time=  0.1s loss=5.828, TAw acc= 34.9% | *
| Epoch   2, time=  2.3s | Train: skip eval | Valid: time=  0.1s loss=3.480, TAw acc= 62.7% | *
…
>>> Test on task 20 : loss=1.152 | TAw acc= 98.3%, forg=  0.0%| TAg acc= 75.7%, forg=  7.0% <<<
>>> Test on task 21 : loss=1.266 | TAw acc= 96.3%, forg=  0.9%| TAg acc= 67.0%, forg=  8.3% <<<
>>> Test on task 22 : loss=1.197 | TAw acc= 96.4%, forg=  0.9%| TAg acc= 74.8%, forg=  9.0% <<<
>>> Test on task 23 : loss=1.404 | TAw acc= 99.2%, forg=  0.8%| TAg acc= 57.5%, forg= 18.3% <<<
>>> Test on task 24 : loss=1.168 | TAw acc= 99.1%, forg=  0.9%| TAg acc= 64.2%, forg= 17.4% <<<
>>> Test on task 25 : loss=1.060 | TAw acc= 93.7%, forg=  0.0%| TAg acc= 76.6%, forg=  0.0% <<<
Save at k=100/eeil_e20_wisdm_4/wisdm_flex_eeil
======
LLL_Net(
  (model): SimpleMLP(
    (fc1): Linear(in_features=91, out_features=1000, bias=True)
    (fc2): Sequential()
  )
  (heads): ModuleList(
    (0): Linear(in_features=1000, out_features=34, bias=True)
    (1): Linear(in_features=1000, out_features=20, bias=True)
    (2): Linear(in_features=1000, out_features=20, bias=True)
    (3): Linear(in_features=1000, out_features=20, bias=True)
    (4): Linear(in_features=1000, out_features=20, bias=True)
    (5): Linear(in_features=1000, out_features=20, bias=True)
    (6): Linear(in_features=1000, out_features=20, bias=True)
    (7): Linear(in_features=1000, out_features=20, bias=True)
    (8): Linear(in_features=1000, out_features=20, bias=True)
    (9): Linear(in_features=1000, out_features=20, bias=True)
    (10): Linear(in_features=1000, out_features=20, bias=True)
    (11): Linear(in_features=1000, out_features=20, bias=True)
    (12): Linear(in_features=1000, out_features=20, bias=True)
    (13): Linear(in_features=1000, out_features=20, bias=True)
    (14): Linear(in_features=1000, out_features=20, bias=True)
    (15): Linear(in_features=1000, out_features=20, bias=True)
    (16): Linear(in_features=1000, out_features=20, bias=True)
    (17): Linear(in_features=1000, out_features=20, bias=True)
    (18): Linear(in_features=1000, out_features=20, bias=True)
    (19): Linear(in_features=1000, out_features=20, bias=True)
    (20): Linear(in_features=1000, out_features=20, bias=True)
    (21): Linear(in_features=1000, out_features=20, bias=True)
    (22): Linear(in_features=1000, out_features=20, bias=True)
    (23): Linear(in_features=1000, out_features=20, bias=True)
    (24): Linear(in_features=1000, out_features=20, bias=True)
    (25): Linear(in_features=1000, out_features=20, bias=True)
  )
)
======

************************************************************************************************************
Task 26
************************************************************************************************************
| Epoch   1, time=  2.5s | Train: skip eval | Valid: time=  0.1s loss=7.203, TAw acc= 37.1% | *
| Epoch   2, time=  2.5s | Train: skip eval | Valid: time=  0.1s loss=3.479, TAw acc= 71.4% | *
…
>>> Test on task 21 : loss=1.235 | TAw acc= 97.2%, forg=  0.0%| TAg acc= 66.1%, forg=  9.2% <<<
>>> Test on task 22 : loss=1.300 | TAw acc= 96.4%, forg=  0.9%| TAg acc= 67.6%, forg= 16.2% <<<
>>> Test on task 23 : loss=1.302 | TAw acc= 97.5%, forg=  2.5%| TAg acc= 62.5%, forg= 13.3% <<<
>>> Test on task 24 : loss=0.929 | TAw acc= 99.1%, forg=  0.9%| TAg acc= 73.4%, forg=  8.3% <<<
>>> Test on task 25 : loss=1.573 | TAw acc= 92.8%, forg=  0.9%| TAg acc= 43.2%, forg= 33.3% <<<
>>> Test on task 26 : loss=0.846 | TAw acc= 97.9%, forg=  0.0%| TAg acc= 82.5%, forg=  0.0% <<<
Save at k=100/eeil_e20_wisdm_4/wisdm_flex_eeil
======
LLL_Net(
  (model): SimpleMLP(
    (fc1): Linear(in_features=91, out_features=1000, bias=True)
    (fc2): Sequential()
  )
  (heads): ModuleList(
    (0): Linear(in_features=1000, out_features=34, bias=True)
    (1): Linear(in_features=1000, out_features=20, bias=True)
    (2): Linear(in_features=1000, out_features=20, bias=True)
    (3): Linear(in_features=1000, out_features=20, bias=True)
    (4): Linear(in_features=1000, out_features=20, bias=True)
    (5): Linear(in_features=1000, out_features=20, bias=True)
    (6): Linear(in_features=1000, out_features=20, bias=True)
    (7): Linear(in_features=1000, out_features=20, bias=True)
    (8): Linear(in_features=1000, out_features=20, bias=True)
    (9): Linear(in_features=1000, out_features=20, bias=True)
    (10): Linear(in_features=1000, out_features=20, bias=True)
    (11): Linear(in_features=1000, out_features=20, bias=True)
    (12): Linear(in_features=1000, out_features=20, bias=True)
    (13): Linear(in_features=1000, out_features=20, bias=True)
    (14): Linear(in_features=1000, out_features=20, bias=True)
    (15): Linear(in_features=1000, out_features=20, bias=True)
    (16): Linear(in_features=1000, out_features=20, bias=True)
    (17): Linear(in_features=1000, out_features=20, bias=True)
    (18): Linear(in_features=1000, out_features=20, bias=True)
    (19): Linear(in_features=1000, out_features=20, bias=True)
    (20): Linear(in_features=1000, out_features=20, bias=True)
    (21): Linear(in_features=1000, out_features=20, bias=True)
    (22): Linear(in_features=1000, out_features=20, bias=True)
    (23): Linear(in_features=1000, out_features=20, bias=True)
    (24): Linear(in_features=1000, out_features=20, bias=True)
    (25): Linear(in_features=1000, out_features=20, bias=True)
    (26): Linear(in_features=1000, out_features=20, bias=True)
  )
)
======

************************************************************************************************************
Task 27
************************************************************************************************************
| Epoch   1, time=  2.6s | Train: skip eval | Valid: time=  0.2s loss=5.121, TAw acc= 69.8% | *
| Epoch   2, time=  2.6s | Train: skip eval | Valid: time=  0.2s loss=2.136, TAw acc= 85.4% | *
…
>>> Test on task 22 : loss=1.187 | TAw acc= 96.4%, forg=  0.9%| TAg acc= 80.2%, forg=  3.6% <<<
>>> Test on task 23 : loss=1.358 | TAw acc= 96.7%, forg=  3.3%| TAg acc= 59.2%, forg= 16.7% <<<
>>> Test on task 24 : loss=1.020 | TAw acc= 99.1%, forg=  0.9%| TAg acc= 63.3%, forg= 18.3% <<<
>>> Test on task 25 : loss=1.647 | TAw acc= 93.7%, forg=  0.0%| TAg acc= 39.6%, forg= 36.9% <<<
>>> Test on task 26 : loss=1.211 | TAw acc= 97.9%, forg=  0.0%| TAg acc= 70.1%, forg= 12.4% <<<
>>> Test on task 27 : loss=0.859 | TAw acc= 97.6%, forg=  0.0%| TAg acc= 87.4%, forg=  0.0% <<<
Save at k=100/eeil_e20_wisdm_4/wisdm_flex_eeil
======
LLL_Net(
  (model): SimpleMLP(
    (fc1): Linear(in_features=91, out_features=1000, bias=True)
    (fc2): Sequential()
  )
  (heads): ModuleList(
    (0): Linear(in_features=1000, out_features=34, bias=True)
    (1): Linear(in_features=1000, out_features=20, bias=True)
    (2): Linear(in_features=1000, out_features=20, bias=True)
    (3): Linear(in_features=1000, out_features=20, bias=True)
    (4): Linear(in_features=1000, out_features=20, bias=True)
    (5): Linear(in_features=1000, out_features=20, bias=True)
    (6): Linear(in_features=1000, out_features=20, bias=True)
    (7): Linear(in_features=1000, out_features=20, bias=True)
    (8): Linear(in_features=1000, out_features=20, bias=True)
    (9): Linear(in_features=1000, out_features=20, bias=True)
    (10): Linear(in_features=1000, out_features=20, bias=True)
    (11): Linear(in_features=1000, out_features=20, bias=True)
    (12): Linear(in_features=1000, out_features=20, bias=True)
    (13): Linear(in_features=1000, out_features=20, bias=True)
    (14): Linear(in_features=1000, out_features=20, bias=True)
    (15): Linear(in_features=1000, out_features=20, bias=True)
    (16): Linear(in_features=1000, out_features=20, bias=True)
    (17): Linear(in_features=1000, out_features=20, bias=True)
    (18): Linear(in_features=1000, out_features=20, bias=True)
    (19): Linear(in_features=1000, out_features=20, bias=True)
    (20): Linear(in_features=1000, out_features=20, bias=True)
    (21): Linear(in_features=1000, out_features=20, bias=True)
    (22): Linear(in_features=1000, out_features=20, bias=True)
    (23): Linear(in_features=1000, out_features=20, bias=True)
    (24): Linear(in_features=1000, out_features=20, bias=True)
    (25): Linear(in_features=1000, out_features=20, bias=True)
    (26): Linear(in_features=1000, out_features=20, bias=True)
    (27): Linear(in_features=1000, out_features=20, bias=True)
  )
)
======

************************************************************************************************************
Task 28
************************************************************************************************************
| Epoch   1, time=  4.1s | Train: skip eval | Valid: time=  0.3s loss=6.821, TAw acc= 54.8% | *
| Epoch   2, time=  3.9s | Train: skip eval | Valid: time=  0.1s loss=3.258, TAw acc= 79.5% | *
…
>>> Test on task 23 : loss=1.383 | TAw acc= 96.7%, forg=  3.3%| TAg acc= 61.7%, forg= 14.2% <<<
>>> Test on task 24 : loss=0.985 | TAw acc= 99.1%, forg=  0.9%| TAg acc= 71.6%, forg= 10.1% <<<
>>> Test on task 25 : loss=1.467 | TAw acc= 94.6%, forg= -0.9%| TAg acc= 49.5%, forg= 27.0% <<<
>>> Test on task 26 : loss=1.181 | TAw acc= 97.9%, forg=  0.0%| TAg acc= 63.9%, forg= 18.6% <<<
>>> Test on task 27 : loss=1.298 | TAw acc= 97.6%, forg=  0.0%| TAg acc= 69.3%, forg= 18.1% <<<
>>> Test on task 28 : loss=1.043 | TAw acc= 97.0%, forg=  0.0%| TAg acc= 74.0%, forg=  0.0% <<<
Save at k=100/eeil_e20_wisdm_4/wisdm_flex_eeil
======
LLL_Net(
  (model): SimpleMLP(
    (fc1): Linear(in_features=91, out_features=1000, bias=True)
    (fc2): Sequential()
  )
  (heads): ModuleList(
    (0): Linear(in_features=1000, out_features=34, bias=True)
    (1): Linear(in_features=1000, out_features=20, bias=True)
    (2): Linear(in_features=1000, out_features=20, bias=True)
    (3): Linear(in_features=1000, out_features=20, bias=True)
    (4): Linear(in_features=1000, out_features=20, bias=True)
    (5): Linear(in_features=1000, out_features=20, bias=True)
    (6): Linear(in_features=1000, out_features=20, bias=True)
    (7): Linear(in_features=1000, out_features=20, bias=True)
    (8): Linear(in_features=1000, out_features=20, bias=True)
    (9): Linear(in_features=1000, out_features=20, bias=True)
    (10): Linear(in_features=1000, out_features=20, bias=True)
    (11): Linear(in_features=1000, out_features=20, bias=True)
    (12): Linear(in_features=1000, out_features=20, bias=True)
    (13): Linear(in_features=1000, out_features=20, bias=True)
    (14): Linear(in_features=1000, out_features=20, bias=True)
    (15): Linear(in_features=1000, out_features=20, bias=True)
    (16): Linear(in_features=1000, out_features=20, bias=True)
    (17): Linear(in_features=1000, out_features=20, bias=True)
    (18): Linear(in_features=1000, out_features=20, bias=True)
    (19): Linear(in_features=1000, out_features=20, bias=True)
    (20): Linear(in_features=1000, out_features=20, bias=True)
    (21): Linear(in_features=1000, out_features=20, bias=True)
    (22): Linear(in_features=1000, out_features=20, bias=True)
    (23): Linear(in_features=1000, out_features=20, bias=True)
    (24): Linear(in_features=1000, out_features=20, bias=True)
    (25): Linear(in_features=1000, out_features=20, bias=True)
    (26): Linear(in_features=1000, out_features=20, bias=True)
    (27): Linear(in_features=1000, out_features=20, bias=True)
    (28): Linear(in_features=1000, out_features=20, bias=True)
  )
)
======

************************************************************************************************************
Task 29
************************************************************************************************************
| Epoch   1, time=  4.1s | Train: skip eval | Valid: time=  0.3s loss=5.629, TAw acc= 53.4% | *
| Epoch   2, time=  3.9s | Train: skip eval | Valid: time=  0.2s loss=3.027, TAw acc= 62.5% | *
…
>>> Test on task 24 : loss=0.882 | TAw acc=100.0%, forg=  0.0%| TAg acc= 74.3%, forg=  7.3% <<<
>>> Test on task 25 : loss=1.519 | TAw acc= 94.6%, forg=  0.0%| TAg acc= 46.8%, forg= 29.7% <<<
>>> Test on task 26 : loss=1.344 | TAw acc= 97.9%, forg=  0.0%| TAg acc= 61.9%, forg= 20.6% <<<
>>> Test on task 27 : loss=1.325 | TAw acc= 97.6%, forg=  0.0%| TAg acc= 67.7%, forg= 19.7% <<<
>>> Test on task 28 : loss=1.433 | TAw acc= 98.0%, forg= -1.0%| TAg acc= 49.0%, forg= 25.0% <<<
>>> Test on task 29 : loss=1.034 | TAw acc= 96.6%, forg=  0.0%| TAg acc= 73.5%, forg=  0.0% <<<
Save at k=100/eeil_e20_wisdm_4/wisdm_flex_eeil
======
LLL_Net(
  (model): SimpleMLP(
    (fc1): Linear(in_features=91, out_features=1000, bias=True)
    (fc2): Sequential()
  )
  (heads): ModuleList(
    (0): Linear(in_features=1000, out_features=34, bias=True)
    (1): Linear(in_features=1000, out_features=20, bias=True)
    (2): Linear(in_features=1000, out_features=20, bias=True)
    (3): Linear(in_features=1000, out_features=20, bias=True)
    (4): Linear(in_features=1000, out_features=20, bias=True)
    (5): Linear(in_features=1000, out_features=20, bias=True)
    (6): Linear(in_features=1000, out_features=20, bias=True)
    (7): Linear(in_features=1000, out_features=20, bias=True)
    (8): Linear(in_features=1000, out_features=20, bias=True)
    (9): Linear(in_features=1000, out_features=20, bias=True)
    (10): Linear(in_features=1000, out_features=20, bias=True)
    (11): Linear(in_features=1000, out_features=20, bias=True)
    (12): Linear(in_features=1000, out_features=20, bias=True)
    (13): Linear(in_features=1000, out_features=20, bias=True)
    (14): Linear(in_features=1000, out_features=20, bias=True)
    (15): Linear(in_features=1000, out_features=20, bias=True)
    (16): Linear(in_features=1000, out_features=20, bias=True)
    (17): Linear(in_features=1000, out_features=20, bias=True)
    (18): Linear(in_features=1000, out_features=20, bias=True)
    (19): Linear(in_features=1000, out_features=20, bias=True)
    (20): Linear(in_features=1000, out_features=20, bias=True)
    (21): Linear(in_features=1000, out_features=20, bias=True)
    (22): Linear(in_features=1000, out_features=20, bias=True)
    (23): Linear(in_features=1000, out_features=20, bias=True)
    (24): Linear(in_features=1000, out_features=20, bias=True)
    (25): Linear(in_features=1000, out_features=20, bias=True)
    (26): Linear(in_features=1000, out_features=20, bias=True)
    (27): Linear(in_features=1000, out_features=20, bias=True)
    (28): Linear(in_features=1000, out_features=20, bias=True)
    (29): Linear(in_features=1000, out_features=20, bias=True)
  )
)
======

************************************************************************************************************
Task 30
************************************************************************************************************
| Epoch   1, time=  3.6s | Train: skip eval | Valid: time=  0.1s loss=5.976, TAw acc= 47.3% | *
| Epoch   2, time=  3.8s | Train: skip eval | Valid: time=  0.3s loss=2.601, TAw acc= 73.0% | *
…
>>> Test on task 25 : loss=1.461 | TAw acc= 94.6%, forg=  0.0%| TAg acc= 48.6%, forg= 27.9% <<<
>>> Test on task 26 : loss=1.260 | TAw acc= 97.9%, forg=  0.0%| TAg acc= 61.9%, forg= 20.6% <<<
>>> Test on task 27 : loss=1.260 | TAw acc= 97.6%, forg=  0.0%| TAg acc= 71.7%, forg= 15.7% <<<
>>> Test on task 28 : loss=1.317 | TAw acc= 98.0%, forg=  0.0%| TAg acc= 63.0%, forg= 11.0% <<<
>>> Test on task 29 : loss=1.518 | TAw acc= 96.6%, forg=  0.0%| TAg acc= 52.1%, forg= 21.4% <<<
>>> Test on task 30 : loss=1.129 | TAw acc= 96.1%, forg=  0.0%| TAg acc= 76.5%, forg=  0.0% <<<
Save at k=100/eeil_e20_wisdm_4/wisdm_flex_eeil
======
LLL_Net(
  (model): SimpleMLP(
    (fc1): Linear(in_features=91, out_features=1000, bias=True)
    (fc2): Sequential()
  )
  (heads): ModuleList(
    (0): Linear(in_features=1000, out_features=34, bias=True)
    (1): Linear(in_features=1000, out_features=20, bias=True)
    (2): Linear(in_features=1000, out_features=20, bias=True)
    (3): Linear(in_features=1000, out_features=20, bias=True)
    (4): Linear(in_features=1000, out_features=20, bias=True)
    (5): Linear(in_features=1000, out_features=20, bias=True)
    (6): Linear(in_features=1000, out_features=20, bias=True)
    (7): Linear(in_features=1000, out_features=20, bias=True)
    (8): Linear(in_features=1000, out_features=20, bias=True)
    (9): Linear(in_features=1000, out_features=20, bias=True)
    (10): Linear(in_features=1000, out_features=20, bias=True)
    (11): Linear(in_features=1000, out_features=20, bias=True)
    (12): Linear(in_features=1000, out_features=20, bias=True)
    (13): Linear(in_features=1000, out_features=20, bias=True)
    (14): Linear(in_features=1000, out_features=20, bias=True)
    (15): Linear(in_features=1000, out_features=20, bias=True)
    (16): Linear(in_features=1000, out_features=20, bias=True)
    (17): Linear(in_features=1000, out_features=20, bias=True)
    (18): Linear(in_features=1000, out_features=20, bias=True)
    (19): Linear(in_features=1000, out_features=20, bias=True)
    (20): Linear(in_features=1000, out_features=20, bias=True)
    (21): Linear(in_features=1000, out_features=20, bias=True)
    (22): Linear(in_features=1000, out_features=20, bias=True)
    (23): Linear(in_features=1000, out_features=20, bias=True)
    (24): Linear(in_features=1000, out_features=20, bias=True)
    (25): Linear(in_features=1000, out_features=20, bias=True)
    (26): Linear(in_features=1000, out_features=20, bias=True)
    (27): Linear(in_features=1000, out_features=20, bias=True)
    (28): Linear(in_features=1000, out_features=20, bias=True)
    (29): Linear(in_features=1000, out_features=20, bias=True)
    (30): Linear(in_features=1000, out_features=20, bias=True)
  )
)
======

************************************************************************************************************
Task 31
************************************************************************************************************
| Epoch   1, time=  3.4s | Train: skip eval | Valid: time=  0.1s loss=6.949, TAw acc= 36.4% | *
| Epoch   2, time=  3.1s | Train: skip eval | Valid: time=  0.1s loss=3.381, TAw acc= 93.9% | *
…
>>> Test on task 26 : loss=1.213 | TAw acc= 97.9%, forg=  0.0%| TAg acc= 70.1%, forg= 12.4% <<<
>>> Test on task 27 : loss=1.260 | TAw acc= 97.6%, forg=  0.0%| TAg acc= 72.4%, forg= 15.0% <<<
>>> Test on task 28 : loss=1.255 | TAw acc= 98.0%, forg=  0.0%| TAg acc= 61.0%, forg= 13.0% <<<
>>> Test on task 29 : loss=1.462 | TAw acc= 96.6%, forg=  0.0%| TAg acc= 53.0%, forg= 20.5% <<<
>>> Test on task 30 : loss=1.496 | TAw acc= 96.1%, forg=  0.0%| TAg acc= 55.9%, forg= 20.6% <<<
>>> Test on task 31 : loss=1.176 | TAw acc= 98.9%, forg=  0.0%| TAg acc= 65.6%, forg=  0.0% <<<
Save at k=100/eeil_e20_wisdm_4/wisdm_flex_eeil
======
LLL_Net(
  (model): SimpleMLP(
    (fc1): Linear(in_features=91, out_features=1000, bias=True)
    (fc2): Sequential()
  )
  (heads): ModuleList(
    (0): Linear(in_features=1000, out_features=34, bias=True)
    (1): Linear(in_features=1000, out_features=20, bias=True)
    (2): Linear(in_features=1000, out_features=20, bias=True)
    (3): Linear(in_features=1000, out_features=20, bias=True)
    (4): Linear(in_features=1000, out_features=20, bias=True)
    (5): Linear(in_features=1000, out_features=20, bias=True)
    (6): Linear(in_features=1000, out_features=20, bias=True)
    (7): Linear(in_features=1000, out_features=20, bias=True)
    (8): Linear(in_features=1000, out_features=20, bias=True)
    (9): Linear(in_features=1000, out_features=20, bias=True)
    (10): Linear(in_features=1000, out_features=20, bias=True)
    (11): Linear(in_features=1000, out_features=20, bias=True)
    (12): Linear(in_features=1000, out_features=20, bias=True)
    (13): Linear(in_features=1000, out_features=20, bias=True)
    (14): Linear(in_features=1000, out_features=20, bias=True)
    (15): Linear(in_features=1000, out_features=20, bias=True)
    (16): Linear(in_features=1000, out_features=20, bias=True)
    (17): Linear(in_features=1000, out_features=20, bias=True)
    (18): Linear(in_features=1000, out_features=20, bias=True)
    (19): Linear(in_features=1000, out_features=20, bias=True)
    (20): Linear(in_features=1000, out_features=20, bias=True)
    (21): Linear(in_features=1000, out_features=20, bias=True)
    (22): Linear(in_features=1000, out_features=20, bias=True)
    (23): Linear(in_features=1000, out_features=20, bias=True)
    (24): Linear(in_features=1000, out_features=20, bias=True)
    (25): Linear(in_features=1000, out_features=20, bias=True)
    (26): Linear(in_features=1000, out_features=20, bias=True)
    (27): Linear(in_features=1000, out_features=20, bias=True)
    (28): Linear(in_features=1000, out_features=20, bias=True)
    (29): Linear(in_features=1000, out_features=20, bias=True)
    (30): Linear(in_features=1000, out_features=20, bias=True)
    (31): Linear(in_features=1000, out_features=20, bias=True)
  )
)
======

************************************************************************************************************
Task 32
************************************************************************************************************
| Epoch   1, time=  3.8s | Train: skip eval | Valid: time=  0.2s loss=5.794, TAw acc= 54.1% | *
| Epoch   2, time=  3.5s | Train: skip eval | Valid: time=  0.1s loss=3.020, TAw acc= 74.1% | *
…
>>> Test on task 27 : loss=1.356 | TAw acc= 97.6%, forg=  0.0%| TAg acc= 70.1%, forg= 17.3% <<<
>>> Test on task 28 : loss=1.300 | TAw acc= 98.0%, forg=  0.0%| TAg acc= 62.0%, forg= 12.0% <<<
>>> Test on task 29 : loss=1.513 | TAw acc= 97.4%, forg= -0.9%| TAg acc= 53.8%, forg= 19.7% <<<
>>> Test on task 30 : loss=1.478 | TAw acc= 97.1%, forg= -1.0%| TAg acc= 58.8%, forg= 17.6% <<<
>>> Test on task 31 : loss=1.468 | TAw acc= 97.8%, forg=  1.1%| TAg acc= 55.9%, forg=  9.7% <<<
>>> Test on task 32 : loss=1.099 | TAw acc= 94.8%, forg=  0.0%| TAg acc= 80.0%, forg=  0.0% <<<
Save at k=100/eeil_e20_wisdm_4/wisdm_flex_eeil
======
LLL_Net(
  (model): SimpleMLP(
    (fc1): Linear(in_features=91, out_features=1000, bias=True)
    (fc2): Sequential()
  )
  (heads): ModuleList(
    (0): Linear(in_features=1000, out_features=34, bias=True)
    (1): Linear(in_features=1000, out_features=20, bias=True)
    (2): Linear(in_features=1000, out_features=20, bias=True)
    (3): Linear(in_features=1000, out_features=20, bias=True)
    (4): Linear(in_features=1000, out_features=20, bias=True)
    (5): Linear(in_features=1000, out_features=20, bias=True)
    (6): Linear(in_features=1000, out_features=20, bias=True)
    (7): Linear(in_features=1000, out_features=20, bias=True)
    (8): Linear(in_features=1000, out_features=20, bias=True)
    (9): Linear(in_features=1000, out_features=20, bias=True)
    (10): Linear(in_features=1000, out_features=20, bias=True)
    (11): Linear(in_features=1000, out_features=20, bias=True)
    (12): Linear(in_features=1000, out_features=20, bias=True)
    (13): Linear(in_features=1000, out_features=20, bias=True)
    (14): Linear(in_features=1000, out_features=20, bias=True)
    (15): Linear(in_features=1000, out_features=20, bias=True)
    (16): Linear(in_features=1000, out_features=20, bias=True)
    (17): Linear(in_features=1000, out_features=20, bias=True)
    (18): Linear(in_features=1000, out_features=20, bias=True)
    (19): Linear(in_features=1000, out_features=20, bias=True)
    (20): Linear(in_features=1000, out_features=20, bias=True)
    (21): Linear(in_features=1000, out_features=20, bias=True)
    (22): Linear(in_features=1000, out_features=20, bias=True)
    (23): Linear(in_features=1000, out_features=20, bias=True)
    (24): Linear(in_features=1000, out_features=20, bias=True)
    (25): Linear(in_features=1000, out_features=20, bias=True)
    (26): Linear(in_features=1000, out_features=20, bias=True)
    (27): Linear(in_features=1000, out_features=20, bias=True)
    (28): Linear(in_features=1000, out_features=20, bias=True)
    (29): Linear(in_features=1000, out_features=20, bias=True)
    (30): Linear(in_features=1000, out_features=20, bias=True)
    (31): Linear(in_features=1000, out_features=20, bias=True)
    (32): Linear(in_features=1000, out_features=20, bias=True)
  )
)
======

************************************************************************************************************
Task 33
************************************************************************************************************
| Epoch   1, time=  3.6s | Train: skip eval | Valid: time=  0.1s loss=7.533, TAw acc= 33.8% | *
| Epoch   2, time=  3.5s | Train: skip eval | Valid: time=  0.1s loss=4.186, TAw acc= 57.7% | *
…
>>> Test on task 28 : loss=1.248 | TAw acc= 98.0%, forg=  0.0%| TAg acc= 64.0%, forg= 10.0% <<<
>>> Test on task 29 : loss=1.490 | TAw acc= 97.4%, forg=  0.0%| TAg acc= 56.4%, forg= 17.1% <<<
>>> Test on task 30 : loss=1.471 | TAw acc= 97.1%, forg=  0.0%| TAg acc= 60.8%, forg= 15.7% <<<
>>> Test on task 31 : loss=1.359 | TAw acc= 98.9%, forg=  0.0%| TAg acc= 60.2%, forg=  5.4% <<<
>>> Test on task 32 : loss=1.461 | TAw acc= 94.8%, forg=  0.0%| TAg acc= 59.1%, forg= 20.9% <<<
>>> Test on task 33 : loss=1.213 | TAw acc= 96.9%, forg=  0.0%| TAg acc= 61.2%, forg=  0.0% <<<
Save at k=100/eeil_e20_wisdm_4/wisdm_flex_eeil
======
LLL_Net(
  (model): SimpleMLP(
    (fc1): Linear(in_features=91, out_features=1000, bias=True)
    (fc2): Sequential()
  )
  (heads): ModuleList(
    (0): Linear(in_features=1000, out_features=34, bias=True)
    (1): Linear(in_features=1000, out_features=20, bias=True)
    (2): Linear(in_features=1000, out_features=20, bias=True)
    (3): Linear(in_features=1000, out_features=20, bias=True)
    (4): Linear(in_features=1000, out_features=20, bias=True)
    (5): Linear(in_features=1000, out_features=20, bias=True)
    (6): Linear(in_features=1000, out_features=20, bias=True)
    (7): Linear(in_features=1000, out_features=20, bias=True)
    (8): Linear(in_features=1000, out_features=20, bias=True)
    (9): Linear(in_features=1000, out_features=20, bias=True)
    (10): Linear(in_features=1000, out_features=20, bias=True)
    (11): Linear(in_features=1000, out_features=20, bias=True)
    (12): Linear(in_features=1000, out_features=20, bias=True)
    (13): Linear(in_features=1000, out_features=20, bias=True)
    (14): Linear(in_features=1000, out_features=20, bias=True)
    (15): Linear(in_features=1000, out_features=20, bias=True)
    (16): Linear(in_features=1000, out_features=20, bias=True)
    (17): Linear(in_features=1000, out_features=20, bias=True)
    (18): Linear(in_features=1000, out_features=20, bias=True)
    (19): Linear(in_features=1000, out_features=20, bias=True)
    (20): Linear(in_features=1000, out_features=20, bias=True)
    (21): Linear(in_features=1000, out_features=20, bias=True)
    (22): Linear(in_features=1000, out_features=20, bias=True)
    (23): Linear(in_features=1000, out_features=20, bias=True)
    (24): Linear(in_features=1000, out_features=20, bias=True)
    (25): Linear(in_features=1000, out_features=20, bias=True)
    (26): Linear(in_features=1000, out_features=20, bias=True)
    (27): Linear(in_features=1000, out_features=20, bias=True)
    (28): Linear(in_features=1000, out_features=20, bias=True)
    (29): Linear(in_features=1000, out_features=20, bias=True)
    (30): Linear(in_features=1000, out_features=20, bias=True)
    (31): Linear(in_features=1000, out_features=20, bias=True)
    (32): Linear(in_features=1000, out_features=20, bias=True)
    (33): Linear(in_features=1000, out_features=20, bias=True)
  )
)
======

************************************************************************************************************
Task 34
************************************************************************************************************
| Epoch   1, time=  3.9s | Train: skip eval | Valid: time=  0.2s loss=6.349, TAw acc= 47.9% | *
| Epoch   2, time=  3.7s | Train: skip eval | Valid: time=  0.2s loss=3.304, TAw acc= 74.6% | *
…
>>> Test on task 29 : loss=1.516 | TAw acc= 96.6%, forg=  0.9%| TAg acc= 57.3%, forg= 16.2% <<<
>>> Test on task 30 : loss=1.411 | TAw acc= 97.1%, forg=  0.0%| TAg acc= 64.7%, forg= 11.8% <<<
>>> Test on task 31 : loss=1.297 | TAw acc= 98.9%, forg=  0.0%| TAg acc= 60.2%, forg=  5.4% <<<
>>> Test on task 32 : loss=1.450 | TAw acc= 94.8%, forg=  0.0%| TAg acc= 60.0%, forg= 20.0% <<<
>>> Test on task 33 : loss=1.499 | TAw acc= 96.9%, forg=  0.0%| TAg acc= 57.1%, forg=  4.1% <<<
>>> Test on task 34 : loss=1.427 | TAw acc= 89.9%, forg=  0.0%| TAg acc= 64.6%, forg=  0.0% <<<
Save at k=100/eeil_e20_wisdm_4/wisdm_flex_eeil
======
LLL_Net(
  (model): SimpleMLP(
    (fc1): Linear(in_features=91, out_features=1000, bias=True)
    (fc2): Sequential()
  )
  (heads): ModuleList(
    (0): Linear(in_features=1000, out_features=34, bias=True)
    (1): Linear(in_features=1000, out_features=20, bias=True)
    (2): Linear(in_features=1000, out_features=20, bias=True)
    (3): Linear(in_features=1000, out_features=20, bias=True)
    (4): Linear(in_features=1000, out_features=20, bias=True)
    (5): Linear(in_features=1000, out_features=20, bias=True)
    (6): Linear(in_features=1000, out_features=20, bias=True)
    (7): Linear(in_features=1000, out_features=20, bias=True)
    (8): Linear(in_features=1000, out_features=20, bias=True)
    (9): Linear(in_features=1000, out_features=20, bias=True)
    (10): Linear(in_features=1000, out_features=20, bias=True)
    (11): Linear(in_features=1000, out_features=20, bias=True)
    (12): Linear(in_features=1000, out_features=20, bias=True)
    (13): Linear(in_features=1000, out_features=20, bias=True)
    (14): Linear(in_features=1000, out_features=20, bias=True)
    (15): Linear(in_features=1000, out_features=20, bias=True)
    (16): Linear(in_features=1000, out_features=20, bias=True)
    (17): Linear(in_features=1000, out_features=20, bias=True)
    (18): Linear(in_features=1000, out_features=20, bias=True)
    (19): Linear(in_features=1000, out_features=20, bias=True)
    (20): Linear(in_features=1000, out_features=20, bias=True)
    (21): Linear(in_features=1000, out_features=20, bias=True)
    (22): Linear(in_features=1000, out_features=20, bias=True)
    (23): Linear(in_features=1000, out_features=20, bias=True)
    (24): Linear(in_features=1000, out_features=20, bias=True)
    (25): Linear(in_features=1000, out_features=20, bias=True)
    (26): Linear(in_features=1000, out_features=20, bias=True)
    (27): Linear(in_features=1000, out_features=20, bias=True)
    (28): Linear(in_features=1000, out_features=20, bias=True)
    (29): Linear(in_features=1000, out_features=20, bias=True)
    (30): Linear(in_features=1000, out_features=20, bias=True)
    (31): Linear(in_features=1000, out_features=20, bias=True)
    (32): Linear(in_features=1000, out_features=20, bias=True)
    (33): Linear(in_features=1000, out_features=20, bias=True)
    (34): Linear(in_features=1000, out_features=20, bias=True)
  )
)
======

************************************************************************************************************
Task 35
************************************************************************************************************
| Epoch   1, time=  4.9s | Train: skip eval | Valid: time=  0.3s loss=5.959, TAw acc= 44.7% | *
| Epoch   2, time=  5.3s | Train: skip eval | Valid: time=  0.3s loss=2.541, TAw acc= 71.8% | *
…
>>> Test on task 30 : loss=1.552 | TAw acc= 97.1%, forg=  0.0%| TAg acc= 61.8%, forg= 14.7% <<<
>>> Test on task 31 : loss=1.309 | TAw acc= 98.9%, forg=  0.0%| TAg acc= 64.5%, forg=  1.1% <<<
>>> Test on task 32 : loss=1.405 | TAw acc= 94.8%, forg=  0.0%| TAg acc= 64.3%, forg= 15.7% <<<
>>> Test on task 33 : loss=1.616 | TAw acc= 95.9%, forg=  1.0%| TAg acc= 46.9%, forg= 14.3% <<<
>>> Test on task 34 : loss=1.747 | TAw acc= 88.9%, forg=  1.0%| TAg acc= 52.5%, forg= 12.1% <<<
>>> Test on task 35 : loss=1.033 | TAw acc= 94.8%, forg=  0.0%| TAg acc= 79.1%, forg=  0.0% <<<
Save at k=100/eeil_e20_wisdm_4/wisdm_flex_eeil
======
LLL_Net(
  (model): SimpleMLP(
    (fc1): Linear(in_features=91, out_features=1000, bias=True)
    (fc2): Sequential()
  )
  (heads): ModuleList(
    (0): Linear(in_features=1000, out_features=34, bias=True)
    (1): Linear(in_features=1000, out_features=20, bias=True)
    (2): Linear(in_features=1000, out_features=20, bias=True)
    (3): Linear(in_features=1000, out_features=20, bias=True)
    (4): Linear(in_features=1000, out_features=20, bias=True)
    (5): Linear(in_features=1000, out_features=20, bias=True)
    (6): Linear(in_features=1000, out_features=20, bias=True)
    (7): Linear(in_features=1000, out_features=20, bias=True)
    (8): Linear(in_features=1000, out_features=20, bias=True)
    (9): Linear(in_features=1000, out_features=20, bias=True)
    (10): Linear(in_features=1000, out_features=20, bias=True)
    (11): Linear(in_features=1000, out_features=20, bias=True)
    (12): Linear(in_features=1000, out_features=20, bias=True)
    (13): Linear(in_features=1000, out_features=20, bias=True)
    (14): Linear(in_features=1000, out_features=20, bias=True)
    (15): Linear(in_features=1000, out_features=20, bias=True)
    (16): Linear(in_features=1000, out_features=20, bias=True)
    (17): Linear(in_features=1000, out_features=20, bias=True)
    (18): Linear(in_features=1000, out_features=20, bias=True)
    (19): Linear(in_features=1000, out_features=20, bias=True)
    (20): Linear(in_features=1000, out_features=20, bias=True)
    (21): Linear(in_features=1000, out_features=20, bias=True)
    (22): Linear(in_features=1000, out_features=20, bias=True)
    (23): Linear(in_features=1000, out_features=20, bias=True)
    (24): Linear(in_features=1000, out_features=20, bias=True)
    (25): Linear(in_features=1000, out_features=20, bias=True)
    (26): Linear(in_features=1000, out_features=20, bias=True)
    (27): Linear(in_features=1000, out_features=20, bias=True)
    (28): Linear(in_features=1000, out_features=20, bias=True)
    (29): Linear(in_features=1000, out_features=20, bias=True)
    (30): Linear(in_features=1000, out_features=20, bias=True)
    (31): Linear(in_features=1000, out_features=20, bias=True)
    (32): Linear(in_features=1000, out_features=20, bias=True)
    (33): Linear(in_features=1000, out_features=20, bias=True)
    (34): Linear(in_features=1000, out_features=20, bias=True)
    (35): Linear(in_features=1000, out_features=20, bias=True)
  )
)
======

************************************************************************************************************
Task 36
************************************************************************************************************
| Epoch   1, time=  5.5s | Train: skip eval | Valid: time=  0.2s loss=5.631, TAw acc= 58.1% | *
| Epoch   2, time=  5.4s | Train: skip eval | Valid: time=  0.3s loss=2.539, TAw acc= 74.4% | *
…
>>> Test on task 31 : loss=1.305 | TAw acc= 98.9%, forg=  0.0%| TAg acc= 64.5%, forg=  1.1% <<<
>>> Test on task 32 : loss=1.472 | TAw acc= 94.8%, forg=  0.0%| TAg acc= 61.7%, forg= 18.3% <<<
>>> Test on task 33 : loss=1.402 | TAw acc= 95.9%, forg=  1.0%| TAg acc= 53.1%, forg=  8.2% <<<
>>> Test on task 34 : loss=1.725 | TAw acc= 89.9%, forg=  0.0%| TAg acc= 53.5%, forg= 11.1% <<<
>>> Test on task 35 : loss=1.362 | TAw acc= 95.7%, forg= -0.9%| TAg acc= 64.3%, forg= 14.8% <<<
>>> Test on task 36 : loss=1.031 | TAw acc= 95.7%, forg=  0.0%| TAg acc= 75.7%, forg=  0.0% <<<
Save at k=100/eeil_e20_wisdm_4/wisdm_flex_eeil
======
LLL_Net(
  (model): SimpleMLP(
    (fc1): Linear(in_features=91, out_features=1000, bias=True)
    (fc2): Sequential()
  )
  (heads): ModuleList(
    (0): Linear(in_features=1000, out_features=34, bias=True)
    (1): Linear(in_features=1000, out_features=20, bias=True)
    (2): Linear(in_features=1000, out_features=20, bias=True)
    (3): Linear(in_features=1000, out_features=20, bias=True)
    (4): Linear(in_features=1000, out_features=20, bias=True)
    (5): Linear(in_features=1000, out_features=20, bias=True)
    (6): Linear(in_features=1000, out_features=20, bias=True)
    (7): Linear(in_features=1000, out_features=20, bias=True)
    (8): Linear(in_features=1000, out_features=20, bias=True)
    (9): Linear(in_features=1000, out_features=20, bias=True)
    (10): Linear(in_features=1000, out_features=20, bias=True)
    (11): Linear(in_features=1000, out_features=20, bias=True)
    (12): Linear(in_features=1000, out_features=20, bias=True)
    (13): Linear(in_features=1000, out_features=20, bias=True)
    (14): Linear(in_features=1000, out_features=20, bias=True)
    (15): Linear(in_features=1000, out_features=20, bias=True)
    (16): Linear(in_features=1000, out_features=20, bias=True)
    (17): Linear(in_features=1000, out_features=20, bias=True)
    (18): Linear(in_features=1000, out_features=20, bias=True)
    (19): Linear(in_features=1000, out_features=20, bias=True)
    (20): Linear(in_features=1000, out_features=20, bias=True)
    (21): Linear(in_features=1000, out_features=20, bias=True)
    (22): Linear(in_features=1000, out_features=20, bias=True)
    (23): Linear(in_features=1000, out_features=20, bias=True)
    (24): Linear(in_features=1000, out_features=20, bias=True)
    (25): Linear(in_features=1000, out_features=20, bias=True)
    (26): Linear(in_features=1000, out_features=20, bias=True)
    (27): Linear(in_features=1000, out_features=20, bias=True)
    (28): Linear(in_features=1000, out_features=20, bias=True)
    (29): Linear(in_features=1000, out_features=20, bias=True)
    (30): Linear(in_features=1000, out_features=20, bias=True)
    (31): Linear(in_features=1000, out_features=20, bias=True)
    (32): Linear(in_features=1000, out_features=20, bias=True)
    (33): Linear(in_features=1000, out_features=20, bias=True)
    (34): Linear(in_features=1000, out_features=20, bias=True)
    (35): Linear(in_features=1000, out_features=20, bias=True)
    (36): Linear(in_features=1000, out_features=20, bias=True)
  )
)
======

************************************************************************************************************
Task 37
************************************************************************************************************
| Epoch   1, time=  6.4s | Train: skip eval | Valid: time=  0.2s loss=5.403, TAw acc= 63.6% | *
| Epoch   2, time=  5.4s | Train: skip eval | Valid: time=  0.3s loss=1.988, TAw acc= 87.5% | *
…
>>> Test on task 32 : loss=1.511 | TAw acc= 94.8%, forg=  0.0%| TAg acc= 62.6%, forg= 17.4% <<<
>>> Test on task 33 : loss=1.467 | TAw acc= 96.9%, forg=  0.0%| TAg acc= 55.1%, forg=  6.1% <<<
>>> Test on task 34 : loss=1.791 | TAw acc= 88.9%, forg=  1.0%| TAg acc= 56.6%, forg=  8.1% <<<
>>> Test on task 35 : loss=1.336 | TAw acc= 94.8%, forg=  0.9%| TAg acc= 60.9%, forg= 18.3% <<<
>>> Test on task 36 : loss=1.587 | TAw acc= 96.5%, forg= -0.9%| TAg acc= 47.8%, forg= 27.8% <<<
>>> Test on task 37 : loss=0.800 | TAw acc= 97.5%, forg=  0.0%| TAg acc= 83.9%, forg=  0.0% <<<
Save at k=100/eeil_e20_wisdm_4/wisdm_flex_eeil
======
LLL_Net(
  (model): SimpleMLP(
    (fc1): Linear(in_features=91, out_features=1000, bias=True)
    (fc2): Sequential()
  )
  (heads): ModuleList(
    (0): Linear(in_features=1000, out_features=34, bias=True)
    (1): Linear(in_features=1000, out_features=20, bias=True)
    (2): Linear(in_features=1000, out_features=20, bias=True)
    (3): Linear(in_features=1000, out_features=20, bias=True)
    (4): Linear(in_features=1000, out_features=20, bias=True)
    (5): Linear(in_features=1000, out_features=20, bias=True)
    (6): Linear(in_features=1000, out_features=20, bias=True)
    (7): Linear(in_features=1000, out_features=20, bias=True)
    (8): Linear(in_features=1000, out_features=20, bias=True)
    (9): Linear(in_features=1000, out_features=20, bias=True)
    (10): Linear(in_features=1000, out_features=20, bias=True)
    (11): Linear(in_features=1000, out_features=20, bias=True)
    (12): Linear(in_features=1000, out_features=20, bias=True)
    (13): Linear(in_features=1000, out_features=20, bias=True)
    (14): Linear(in_features=1000, out_features=20, bias=True)
    (15): Linear(in_features=1000, out_features=20, bias=True)
    (16): Linear(in_features=1000, out_features=20, bias=True)
    (17): Linear(in_features=1000, out_features=20, bias=True)
    (18): Linear(in_features=1000, out_features=20, bias=True)
    (19): Linear(in_features=1000, out_features=20, bias=True)
    (20): Linear(in_features=1000, out_features=20, bias=True)
    (21): Linear(in_features=1000, out_features=20, bias=True)
    (22): Linear(in_features=1000, out_features=20, bias=True)
    (23): Linear(in_features=1000, out_features=20, bias=True)
    (24): Linear(in_features=1000, out_features=20, bias=True)
    (25): Linear(in_features=1000, out_features=20, bias=True)
    (26): Linear(in_features=1000, out_features=20, bias=True)
    (27): Linear(in_features=1000, out_features=20, bias=True)
    (28): Linear(in_features=1000, out_features=20, bias=True)
    (29): Linear(in_features=1000, out_features=20, bias=True)
    (30): Linear(in_features=1000, out_features=20, bias=True)
    (31): Linear(in_features=1000, out_features=20, bias=True)
    (32): Linear(in_features=1000, out_features=20, bias=True)
    (33): Linear(in_features=1000, out_features=20, bias=True)
    (34): Linear(in_features=1000, out_features=20, bias=True)
    (35): Linear(in_features=1000, out_features=20, bias=True)
    (36): Linear(in_features=1000, out_features=20, bias=True)
    (37): Linear(in_features=1000, out_features=20, bias=True)
  )
)
======

************************************************************************************************************
Task 38
************************************************************************************************************
| Epoch   1, time=  4.8s | Train: skip eval | Valid: time=  0.2s loss=5.803, TAw acc= 50.7% | *
| Epoch   2, time=  4.7s | Train: skip eval | Valid: time=  0.2s loss=2.867, TAw acc= 77.3% | *
…
>>> Test on task 33 : loss=1.445 | TAw acc= 96.9%, forg=  0.0%| TAg acc= 52.0%, forg=  9.2% <<<
>>> Test on task 34 : loss=1.661 | TAw acc= 90.9%, forg= -1.0%| TAg acc= 60.6%, forg=  4.0% <<<
>>> Test on task 35 : loss=1.311 | TAw acc= 94.8%, forg=  0.9%| TAg acc= 67.8%, forg= 11.3% <<<
>>> Test on task 36 : loss=1.516 | TAw acc= 95.7%, forg=  0.9%| TAg acc= 50.4%, forg= 25.2% <<<
>>> Test on task 37 : loss=1.097 | TAw acc= 98.3%, forg= -0.8%| TAg acc= 74.6%, forg=  9.3% <<<
>>> Test on task 38 : loss=1.161 | TAw acc= 94.2%, forg=  0.0%| TAg acc= 64.4%, forg=  0.0% <<<
Save at k=100/eeil_e20_wisdm_4/wisdm_flex_eeil
======
LLL_Net(
  (model): SimpleMLP(
    (fc1): Linear(in_features=91, out_features=1000, bias=True)
    (fc2): Sequential()
  )
  (heads): ModuleList(
    (0): Linear(in_features=1000, out_features=34, bias=True)
    (1): Linear(in_features=1000, out_features=20, bias=True)
    (2): Linear(in_features=1000, out_features=20, bias=True)
    (3): Linear(in_features=1000, out_features=20, bias=True)
    (4): Linear(in_features=1000, out_features=20, bias=True)
    (5): Linear(in_features=1000, out_features=20, bias=True)
    (6): Linear(in_features=1000, out_features=20, bias=True)
    (7): Linear(in_features=1000, out_features=20, bias=True)
    (8): Linear(in_features=1000, out_features=20, bias=True)
    (9): Linear(in_features=1000, out_features=20, bias=True)
    (10): Linear(in_features=1000, out_features=20, bias=True)
    (11): Linear(in_features=1000, out_features=20, bias=True)
    (12): Linear(in_features=1000, out_features=20, bias=True)
    (13): Linear(in_features=1000, out_features=20, bias=True)
    (14): Linear(in_features=1000, out_features=20, bias=True)
    (15): Linear(in_features=1000, out_features=20, bias=True)
    (16): Linear(in_features=1000, out_features=20, bias=True)
    (17): Linear(in_features=1000, out_features=20, bias=True)
    (18): Linear(in_features=1000, out_features=20, bias=True)
    (19): Linear(in_features=1000, out_features=20, bias=True)
    (20): Linear(in_features=1000, out_features=20, bias=True)
    (21): Linear(in_features=1000, out_features=20, bias=True)
    (22): Linear(in_features=1000, out_features=20, bias=True)
    (23): Linear(in_features=1000, out_features=20, bias=True)
    (24): Linear(in_features=1000, out_features=20, bias=True)
    (25): Linear(in_features=1000, out_features=20, bias=True)
    (26): Linear(in_features=1000, out_features=20, bias=True)
    (27): Linear(in_features=1000, out_features=20, bias=True)
    (28): Linear(in_features=1000, out_features=20, bias=True)
    (29): Linear(in_features=1000, out_features=20, bias=True)
    (30): Linear(in_features=1000, out_features=20, bias=True)
    (31): Linear(in_features=1000, out_features=20, bias=True)
    (32): Linear(in_features=1000, out_features=20, bias=True)
    (33): Linear(in_features=1000, out_features=20, bias=True)
    (34): Linear(in_features=1000, out_features=20, bias=True)
    (35): Linear(in_features=1000, out_features=20, bias=True)
    (36): Linear(in_features=1000, out_features=20, bias=True)
    (37): Linear(in_features=1000, out_features=20, bias=True)
    (38): Linear(in_features=1000, out_features=20, bias=True)
  )
)
======

************************************************************************************************************
Task 39
************************************************************************************************************
| Epoch   1, time=  5.1s | Train: skip eval | Valid: time=  0.1s loss=4.905, TAw acc= 60.4% | *
| Epoch   2, time=  4.7s | Train: skip eval | Valid: time=  0.1s loss=2.495, TAw acc= 68.3% | *
…
>>> Test on task 34 : loss=1.751 | TAw acc= 87.9%, forg=  3.0%| TAg acc= 58.6%, forg=  6.1% <<<
>>> Test on task 35 : loss=1.294 | TAw acc= 94.8%, forg=  0.9%| TAg acc= 67.0%, forg= 12.2% <<<
>>> Test on task 36 : loss=1.577 | TAw acc= 95.7%, forg=  0.9%| TAg acc= 52.2%, forg= 23.5% <<<
>>> Test on task 37 : loss=1.146 | TAw acc= 97.5%, forg=  0.8%| TAg acc= 67.8%, forg= 16.1% <<<
>>> Test on task 38 : loss=1.527 | TAw acc= 94.2%, forg=  0.0%| TAg acc= 51.9%, forg= 12.5% <<<
>>> Test on task 39 : loss=0.760 | TAw acc= 94.7%, forg=  0.0%| TAg acc= 78.8%, forg=  0.0% <<<
Save at k=100/eeil_e20_wisdm_4/wisdm_flex_eeil
======
LLL_Net(
  (model): SimpleMLP(
    (fc1): Linear(in_features=91, out_features=1000, bias=True)
    (fc2): Sequential()
  )
  (heads): ModuleList(
    (0): Linear(in_features=1000, out_features=34, bias=True)
    (1): Linear(in_features=1000, out_features=20, bias=True)
    (2): Linear(in_features=1000, out_features=20, bias=True)
    (3): Linear(in_features=1000, out_features=20, bias=True)
    (4): Linear(in_features=1000, out_features=20, bias=True)
    (5): Linear(in_features=1000, out_features=20, bias=True)
    (6): Linear(in_features=1000, out_features=20, bias=True)
    (7): Linear(in_features=1000, out_features=20, bias=True)
    (8): Linear(in_features=1000, out_features=20, bias=True)
    (9): Linear(in_features=1000, out_features=20, bias=True)
    (10): Linear(in_features=1000, out_features=20, bias=True)
    (11): Linear(in_features=1000, out_features=20, bias=True)
    (12): Linear(in_features=1000, out_features=20, bias=True)
    (13): Linear(in_features=1000, out_features=20, bias=True)
    (14): Linear(in_features=1000, out_features=20, bias=True)
    (15): Linear(in_features=1000, out_features=20, bias=True)
    (16): Linear(in_features=1000, out_features=20, bias=True)
    (17): Linear(in_features=1000, out_features=20, bias=True)
    (18): Linear(in_features=1000, out_features=20, bias=True)
    (19): Linear(in_features=1000, out_features=20, bias=True)
    (20): Linear(in_features=1000, out_features=20, bias=True)
    (21): Linear(in_features=1000, out_features=20, bias=True)
    (22): Linear(in_features=1000, out_features=20, bias=True)
    (23): Linear(in_features=1000, out_features=20, bias=True)
    (24): Linear(in_features=1000, out_features=20, bias=True)
    (25): Linear(in_features=1000, out_features=20, bias=True)
    (26): Linear(in_features=1000, out_features=20, bias=True)
    (27): Linear(in_features=1000, out_features=20, bias=True)
    (28): Linear(in_features=1000, out_features=20, bias=True)
    (29): Linear(in_features=1000, out_features=20, bias=True)
    (30): Linear(in_features=1000, out_features=20, bias=True)
    (31): Linear(in_features=1000, out_features=20, bias=True)
    (32): Linear(in_features=1000, out_features=20, bias=True)
    (33): Linear(in_features=1000, out_features=20, bias=True)
    (34): Linear(in_features=1000, out_features=20, bias=True)
    (35): Linear(in_features=1000, out_features=20, bias=True)
    (36): Linear(in_features=1000, out_features=20, bias=True)
    (37): Linear(in_features=1000, out_features=20, bias=True)
    (38): Linear(in_features=1000, out_features=20, bias=True)
    (39): Linear(in_features=1000, out_features=20, bias=True)
  )
)
======

************************************************************************************************************
Task 40
************************************************************************************************************
| Epoch   1, time=  5.0s | Train: skip eval | Valid: time=  0.2s loss=7.396, TAw acc= 44.0% | *
| Epoch   2, time=  5.2s | Train: skip eval | Valid: time=  0.1s loss=3.563, TAw acc= 66.7% | *
…
>>> Test on task 35 : loss=1.288 | TAw acc= 94.8%, forg=  0.9%| TAg acc= 68.7%, forg= 10.4% <<<
>>> Test on task 36 : loss=1.622 | TAw acc= 95.7%, forg=  0.9%| TAg acc= 55.7%, forg= 20.0% <<<
>>> Test on task 37 : loss=1.101 | TAw acc= 98.3%, forg=  0.0%| TAg acc= 70.3%, forg= 13.6% <<<
>>> Test on task 38 : loss=1.388 | TAw acc= 93.3%, forg=  1.0%| TAg acc= 60.6%, forg=  3.8% <<<
>>> Test on task 39 : loss=1.095 | TAw acc= 93.9%, forg=  0.8%| TAg acc= 73.5%, forg=  5.3% <<<
>>> Test on task 40 : loss=1.175 | TAw acc= 93.2%, forg=  0.0%| TAg acc= 68.9%, forg=  0.0% <<<
Save at k=100/eeil_e20_wisdm_4/wisdm_flex_eeil
======
LLL_Net(
  (model): SimpleMLP(
    (fc1): Linear(in_features=91, out_features=1000, bias=True)
    (fc2): Sequential()
  )
  (heads): ModuleList(
    (0): Linear(in_features=1000, out_features=34, bias=True)
    (1): Linear(in_features=1000, out_features=20, bias=True)
    (2): Linear(in_features=1000, out_features=20, bias=True)
    (3): Linear(in_features=1000, out_features=20, bias=True)
    (4): Linear(in_features=1000, out_features=20, bias=True)
    (5): Linear(in_features=1000, out_features=20, bias=True)
    (6): Linear(in_features=1000, out_features=20, bias=True)
    (7): Linear(in_features=1000, out_features=20, bias=True)
    (8): Linear(in_features=1000, out_features=20, bias=True)
    (9): Linear(in_features=1000, out_features=20, bias=True)
    (10): Linear(in_features=1000, out_features=20, bias=True)
    (11): Linear(in_features=1000, out_features=20, bias=True)
    (12): Linear(in_features=1000, out_features=20, bias=True)
    (13): Linear(in_features=1000, out_features=20, bias=True)
    (14): Linear(in_features=1000, out_features=20, bias=True)
    (15): Linear(in_features=1000, out_features=20, bias=True)
    (16): Linear(in_features=1000, out_features=20, bias=True)
    (17): Linear(in_features=1000, out_features=20, bias=True)
    (18): Linear(in_features=1000, out_features=20, bias=True)
    (19): Linear(in_features=1000, out_features=20, bias=True)
    (20): Linear(in_features=1000, out_features=20, bias=True)
    (21): Linear(in_features=1000, out_features=20, bias=True)
    (22): Linear(in_features=1000, out_features=20, bias=True)
    (23): Linear(in_features=1000, out_features=20, bias=True)
    (24): Linear(in_features=1000, out_features=20, bias=True)
    (25): Linear(in_features=1000, out_features=20, bias=True)
    (26): Linear(in_features=1000, out_features=20, bias=True)
    (27): Linear(in_features=1000, out_features=20, bias=True)
    (28): Linear(in_features=1000, out_features=20, bias=True)
    (29): Linear(in_features=1000, out_features=20, bias=True)
    (30): Linear(in_features=1000, out_features=20, bias=True)
    (31): Linear(in_features=1000, out_features=20, bias=True)
    (32): Linear(in_features=1000, out_features=20, bias=True)
    (33): Linear(in_features=1000, out_features=20, bias=True)
    (34): Linear(in_features=1000, out_features=20, bias=True)
    (35): Linear(in_features=1000, out_features=20, bias=True)
    (36): Linear(in_features=1000, out_features=20, bias=True)
    (37): Linear(in_features=1000, out_features=20, bias=True)
    (38): Linear(in_features=1000, out_features=20, bias=True)
    (39): Linear(in_features=1000, out_features=20, bias=True)
    (40): Linear(in_features=1000, out_features=20, bias=True)
  )
)
======

************************************************************************************************************
Task 41
************************************************************************************************************
| Epoch   1, time=  5.2s | Train: skip eval | Valid: time=  0.1s loss=6.729, TAw acc= 61.3% | *
| Epoch   2, time=  5.1s | Train: skip eval | Valid: time=  0.1s loss=3.201, TAw acc= 76.2% | *
…
>>> Test on task 36 : loss=1.566 | TAw acc= 94.8%, forg=  1.7%| TAg acc= 55.7%, forg= 20.0% <<<
>>> Test on task 37 : loss=1.063 | TAw acc= 98.3%, forg=  0.0%| TAg acc= 77.1%, forg=  6.8% <<<
>>> Test on task 38 : loss=1.410 | TAw acc= 93.3%, forg=  1.0%| TAg acc= 59.6%, forg=  4.8% <<<
>>> Test on task 39 : loss=1.048 | TAw acc= 93.9%, forg=  0.8%| TAg acc= 74.2%, forg=  4.5% <<<
>>> Test on task 40 : loss=1.455 | TAw acc= 94.2%, forg= -1.0%| TAg acc= 59.2%, forg=  9.7% <<<
>>> Test on task 41 : loss=1.117 | TAw acc= 98.1%, forg=  0.0%| TAg acc= 64.5%, forg=  0.0% <<<
Save at k=100/eeil_e20_wisdm_4/wisdm_flex_eeil
======
LLL_Net(
  (model): SimpleMLP(
    (fc1): Linear(in_features=91, out_features=1000, bias=True)
    (fc2): Sequential()
  )
  (heads): ModuleList(
    (0): Linear(in_features=1000, out_features=34, bias=True)
    (1): Linear(in_features=1000, out_features=20, bias=True)
    (2): Linear(in_features=1000, out_features=20, bias=True)
    (3): Linear(in_features=1000, out_features=20, bias=True)
    (4): Linear(in_features=1000, out_features=20, bias=True)
    (5): Linear(in_features=1000, out_features=20, bias=True)
    (6): Linear(in_features=1000, out_features=20, bias=True)
    (7): Linear(in_features=1000, out_features=20, bias=True)
    (8): Linear(in_features=1000, out_features=20, bias=True)
    (9): Linear(in_features=1000, out_features=20, bias=True)
    (10): Linear(in_features=1000, out_features=20, bias=True)
    (11): Linear(in_features=1000, out_features=20, bias=True)
    (12): Linear(in_features=1000, out_features=20, bias=True)
    (13): Linear(in_features=1000, out_features=20, bias=True)
    (14): Linear(in_features=1000, out_features=20, bias=True)
    (15): Linear(in_features=1000, out_features=20, bias=True)
    (16): Linear(in_features=1000, out_features=20, bias=True)
    (17): Linear(in_features=1000, out_features=20, bias=True)
    (18): Linear(in_features=1000, out_features=20, bias=True)
    (19): Linear(in_features=1000, out_features=20, bias=True)
    (20): Linear(in_features=1000, out_features=20, bias=True)
    (21): Linear(in_features=1000, out_features=20, bias=True)
    (22): Linear(in_features=1000, out_features=20, bias=True)
    (23): Linear(in_features=1000, out_features=20, bias=True)
    (24): Linear(in_features=1000, out_features=20, bias=True)
    (25): Linear(in_features=1000, out_features=20, bias=True)
    (26): Linear(in_features=1000, out_features=20, bias=True)
    (27): Linear(in_features=1000, out_features=20, bias=True)
    (28): Linear(in_features=1000, out_features=20, bias=True)
    (29): Linear(in_features=1000, out_features=20, bias=True)
    (30): Linear(in_features=1000, out_features=20, bias=True)
    (31): Linear(in_features=1000, out_features=20, bias=True)
    (32): Linear(in_features=1000, out_features=20, bias=True)
    (33): Linear(in_features=1000, out_features=20, bias=True)
    (34): Linear(in_features=1000, out_features=20, bias=True)
    (35): Linear(in_features=1000, out_features=20, bias=True)
    (36): Linear(in_features=1000, out_features=20, bias=True)
    (37): Linear(in_features=1000, out_features=20, bias=True)
    (38): Linear(in_features=1000, out_features=20, bias=True)
    (39): Linear(in_features=1000, out_features=20, bias=True)
    (40): Linear(in_features=1000, out_features=20, bias=True)
    (41): Linear(in_features=1000, out_features=20, bias=True)
  )
)
======

************************************************************************************************************
Task 42
************************************************************************************************************
| Epoch   1, time=  5.5s | Train: skip eval | Valid: time=  0.2s loss=3.282, TAw acc= 71.6% | *
| Epoch   2, time=  5.7s | Train: skip eval | Valid: time=  0.2s loss=1.716, TAw acc= 82.4% | *
…
>>> Test on task 37 : loss=1.056 | TAw acc= 97.5%, forg=  0.8%| TAg acc= 73.7%, forg= 10.2% <<<
>>> Test on task 38 : loss=1.371 | TAw acc= 93.3%, forg=  1.0%| TAg acc= 60.6%, forg=  3.8% <<<
>>> Test on task 39 : loss=1.055 | TAw acc= 95.5%, forg= -0.8%| TAg acc= 75.8%, forg=  3.0% <<<
>>> Test on task 40 : loss=1.396 | TAw acc= 95.1%, forg= -1.0%| TAg acc= 57.3%, forg= 11.7% <<<
>>> Test on task 41 : loss=1.644 | TAw acc= 97.2%, forg=  0.9%| TAg acc= 43.0%, forg= 21.5% <<<
>>> Test on task 42 : loss=0.811 | TAw acc= 91.0%, forg=  0.0%| TAg acc= 77.6%, forg=  0.0% <<<
Save at k=100/eeil_e20_wisdm_4/wisdm_flex_eeil
======
LLL_Net(
  (model): SimpleMLP(
    (fc1): Linear(in_features=91, out_features=1000, bias=True)
    (fc2): Sequential()
  )
  (heads): ModuleList(
    (0): Linear(in_features=1000, out_features=34, bias=True)
    (1): Linear(in_features=1000, out_features=20, bias=True)
    (2): Linear(in_features=1000, out_features=20, bias=True)
    (3): Linear(in_features=1000, out_features=20, bias=True)
    (4): Linear(in_features=1000, out_features=20, bias=True)
    (5): Linear(in_features=1000, out_features=20, bias=True)
    (6): Linear(in_features=1000, out_features=20, bias=True)
    (7): Linear(in_features=1000, out_features=20, bias=True)
    (8): Linear(in_features=1000, out_features=20, bias=True)
    (9): Linear(in_features=1000, out_features=20, bias=True)
    (10): Linear(in_features=1000, out_features=20, bias=True)
    (11): Linear(in_features=1000, out_features=20, bias=True)
    (12): Linear(in_features=1000, out_features=20, bias=True)
    (13): Linear(in_features=1000, out_features=20, bias=True)
    (14): Linear(in_features=1000, out_features=20, bias=True)
    (15): Linear(in_features=1000, out_features=20, bias=True)
    (16): Linear(in_features=1000, out_features=20, bias=True)
    (17): Linear(in_features=1000, out_features=20, bias=True)
    (18): Linear(in_features=1000, out_features=20, bias=True)
    (19): Linear(in_features=1000, out_features=20, bias=True)
    (20): Linear(in_features=1000, out_features=20, bias=True)
    (21): Linear(in_features=1000, out_features=20, bias=True)
    (22): Linear(in_features=1000, out_features=20, bias=True)
    (23): Linear(in_features=1000, out_features=20, bias=True)
    (24): Linear(in_features=1000, out_features=20, bias=True)
    (25): Linear(in_features=1000, out_features=20, bias=True)
    (26): Linear(in_features=1000, out_features=20, bias=True)
    (27): Linear(in_features=1000, out_features=20, bias=True)
    (28): Linear(in_features=1000, out_features=20, bias=True)
    (29): Linear(in_features=1000, out_features=20, bias=True)
    (30): Linear(in_features=1000, out_features=20, bias=True)
    (31): Linear(in_features=1000, out_features=20, bias=True)
    (32): Linear(in_features=1000, out_features=20, bias=True)
    (33): Linear(in_features=1000, out_features=20, bias=True)
    (34): Linear(in_features=1000, out_features=20, bias=True)
    (35): Linear(in_features=1000, out_features=20, bias=True)
    (36): Linear(in_features=1000, out_features=20, bias=True)
    (37): Linear(in_features=1000, out_features=20, bias=True)
    (38): Linear(in_features=1000, out_features=20, bias=True)
    (39): Linear(in_features=1000, out_features=20, bias=True)
    (40): Linear(in_features=1000, out_features=20, bias=True)
    (41): Linear(in_features=1000, out_features=20, bias=True)
    (42): Linear(in_features=1000, out_features=20, bias=True)
  )
)
======

************************************************************************************************************
Task 43
************************************************************************************************************
| Epoch   1, time=  6.0s | Train: skip eval | Valid: time=  0.2s loss=6.269, TAw acc= 46.3% | *
| Epoch   2, time=  5.9s | Train: skip eval | Valid: time=  0.1s loss=2.566, TAw acc= 76.8% | *
…
