…
| Selected 806 train exemplars, time=  0.4s
806
------------------------------------------------------------------------------------------------------------
>>> Test on task  0 : loss=2.542 | TAw acc= 81.6%, forg=  0.0%| TAg acc= 76.2%, forg=  5.3% <<<
>>> Test on task  1 : loss=25.043 | TAw acc= 89.9%, forg=  0.0%| TAg acc= 74.3%, forg=  9.2% <<<
>>> Test on task  2 : loss=37.449 | TAw acc= 96.2%, forg=  0.0%| TAg acc= 95.3%, forg=  0.0% <<<
>>> Test on task  3 : loss=51.575 | TAw acc= 93.3%, forg=  0.0%| TAg acc= 77.8%, forg=  0.0% <<<
Save at k=100/icarl_wisdm_2/wisdm_flex_icarl
======
LLL_Net(
  (model): SimpleMLP(
    (fc1): Linear(in_features=91, out_features=1000, bias=True)
    (fc2): Sequential()
  )
  (heads): ModuleList(
    (0): Linear(in_features=1000, out_features=34, bias=True)
    (1): Linear(in_features=1000, out_features=20, bias=True)
    (2): Linear(in_features=1000, out_features=20, bias=True)
    (3): Linear(in_features=1000, out_features=20, bias=True)
  )
)
======

************************************************************************************************************
Task  4
************************************************************************************************************
| Epoch   1, time=  1.0s | Train: skip eval | Valid: time=  0.2s loss=66.617, TAw acc=  5.3% | *
| Epoch   2, time=  0.9s | Train: skip eval | Valid: time=  0.2s loss=66.605, TAw acc=  5.3% | *
…
------------------------------------------------------------------------------------------------------------
>>> Test on task  0 : loss=2.509 | TAw acc= 81.6%, forg=  0.0%| TAg acc= 74.3%, forg=  7.3% <<<
>>> Test on task  1 : loss=24.859 | TAw acc= 89.9%, forg=  0.0%| TAg acc= 74.3%, forg=  9.2% <<<
>>> Test on task  2 : loss=37.193 | TAw acc= 96.2%, forg=  0.0%| TAg acc= 90.6%, forg=  4.7% <<<
>>> Test on task  3 : loss=51.225 | TAw acc= 93.3%, forg=  0.0%| TAg acc= 77.8%, forg=  0.0% <<<
>>> Test on task  4 : loss=64.631 | TAw acc= 97.1%, forg=  0.0%| TAg acc= 81.7%, forg=  0.0% <<<
Save at k=100/icarl_wisdm_2/wisdm_flex_icarl
======
LLL_Net(
  (model): SimpleMLP(
    (fc1): Linear(in_features=91, out_features=1000, bias=True)
    (fc2): Sequential()
  )
  (heads): ModuleList(
    (0): Linear(in_features=1000, out_features=34, bias=True)
    (1): Linear(in_features=1000, out_features=20, bias=True)
    (2): Linear(in_features=1000, out_features=20, bias=True)
    (3): Linear(in_features=1000, out_features=20, bias=True)
    (4): Linear(in_features=1000, out_features=20, bias=True)
  )
)
======

************************************************************************************************************
Task  5
************************************************************************************************************
| Epoch   1, time=  1.3s | Train: skip eval | Valid: time=  0.2s loss=78.579, TAw acc=  5.3% | *
| Epoch   2, time=  1.3s | Train: skip eval | Valid: time=  0.2s loss=78.548, TAw acc=  5.3% | *
…
>>> Test on task  0 : loss=2.462 | TAw acc= 81.6%, forg=  0.0%| TAg acc= 70.4%, forg= 11.2% <<<
>>> Test on task  1 : loss=24.742 | TAw acc= 89.9%, forg=  0.0%| TAg acc= 73.4%, forg= 10.1% <<<
>>> Test on task  2 : loss=37.045 | TAw acc= 96.2%, forg=  0.0%| TAg acc= 90.6%, forg=  4.7% <<<
>>> Test on task  3 : loss=50.877 | TAw acc= 93.3%, forg=  0.0%| TAg acc= 72.2%, forg=  5.6% <<<
>>> Test on task  4 : loss=64.188 | TAw acc= 97.1%, forg=  0.0%| TAg acc= 81.7%, forg=  0.0% <<<
>>> Test on task  5 : loss=75.721 | TAw acc= 92.9%, forg=  0.0%| TAg acc= 77.0%, forg=  0.0% <<<
Save at k=100/icarl_wisdm_2/wisdm_flex_icarl
======
LLL_Net(
  (model): SimpleMLP(
    (fc1): Linear(in_features=91, out_features=1000, bias=True)
    (fc2): Sequential()
  )
  (heads): ModuleList(
    (0): Linear(in_features=1000, out_features=34, bias=True)
    (1): Linear(in_features=1000, out_features=20, bias=True)
    (2): Linear(in_features=1000, out_features=20, bias=True)
    (3): Linear(in_features=1000, out_features=20, bias=True)
    (4): Linear(in_features=1000, out_features=20, bias=True)
    (5): Linear(in_features=1000, out_features=20, bias=True)
  )
)
======

************************************************************************************************************
Task  6
************************************************************************************************************
| Epoch   1, time=  1.5s | Train: skip eval | Valid: time=  0.2s loss=91.630, TAw acc=  1.4% | *
| Epoch   2, time=  1.6s | Train: skip eval | Valid: time=  0.2s loss=91.615, TAw acc=  0.0% | *
…
>>> Test on task  1 : loss=24.512 | TAw acc= 89.9%, forg=  0.0%| TAg acc= 73.4%, forg= 10.1% <<<
>>> Test on task  2 : loss=36.708 | TAw acc= 96.2%, forg=  0.0%| TAg acc= 90.6%, forg=  4.7% <<<
>>> Test on task  3 : loss=50.475 | TAw acc= 93.3%, forg=  0.0%| TAg acc= 61.1%, forg= 16.7% <<<
>>> Test on task  4 : loss=63.697 | TAw acc= 97.1%, forg=  0.0%| TAg acc= 81.7%, forg=  0.0% <<<
>>> Test on task  5 : loss=75.395 | TAw acc= 92.9%, forg=  0.0%| TAg acc= 73.8%, forg=  3.2% <<<
>>> Test on task  6 : loss=89.101 | TAw acc= 89.2%, forg=  0.0%| TAg acc= 72.5%, forg=  0.0% <<<
Save at k=100/icarl_wisdm_2/wisdm_flex_icarl
======
LLL_Net(
  (model): SimpleMLP(
    (fc1): Linear(in_features=91, out_features=1000, bias=True)
    (fc2): Sequential()
  )
  (heads): ModuleList(
    (0): Linear(in_features=1000, out_features=34, bias=True)
    (1): Linear(in_features=1000, out_features=20, bias=True)
    (2): Linear(in_features=1000, out_features=20, bias=True)
    (3): Linear(in_features=1000, out_features=20, bias=True)
    (4): Linear(in_features=1000, out_features=20, bias=True)
    (5): Linear(in_features=1000, out_features=20, bias=True)
    (6): Linear(in_features=1000, out_features=20, bias=True)
  )
)
======

************************************************************************************************************
Task  7
************************************************************************************************************
| Epoch   1, time=  1.9s | Train: skip eval | Valid: time=  0.2s loss=103.931, TAw acc=  0.0% | *
| Epoch   2, time=  1.9s | Train: skip eval | Valid: time=  0.2s loss=103.916, TAw acc=  0.0% | *
…
>>> Test on task  2 : loss=36.408 | TAw acc= 96.2%, forg=  0.0%| TAg acc= 90.6%, forg=  4.7% <<<
>>> Test on task  3 : loss=50.052 | TAw acc= 93.3%, forg=  0.0%| TAg acc= 60.0%, forg= 17.8% <<<
>>> Test on task  4 : loss=63.160 | TAw acc= 97.1%, forg=  0.0%| TAg acc= 81.7%, forg=  0.0% <<<
>>> Test on task  5 : loss=74.975 | TAw acc= 92.9%, forg=  0.0%| TAg acc= 71.4%, forg=  5.6% <<<
>>> Test on task  6 : loss=88.592 | TAw acc= 89.2%, forg=  0.0%| TAg acc= 72.5%, forg=  0.0% <<<
>>> Test on task  7 : loss=101.912 | TAw acc= 90.7%, forg=  0.0%| TAg acc= 79.6%, forg=  0.0% <<<
Save at k=100/icarl_wisdm_2/wisdm_flex_icarl
======
LLL_Net(
  (model): SimpleMLP(
    (fc1): Linear(in_features=91, out_features=1000, bias=True)
    (fc2): Sequential()
  )
  (heads): ModuleList(
    (0): Linear(in_features=1000, out_features=34, bias=True)
    (1): Linear(in_features=1000, out_features=20, bias=True)
    (2): Linear(in_features=1000, out_features=20, bias=True)
    (3): Linear(in_features=1000, out_features=20, bias=True)
    (4): Linear(in_features=1000, out_features=20, bias=True)
    (5): Linear(in_features=1000, out_features=20, bias=True)
    (6): Linear(in_features=1000, out_features=20, bias=True)
    (7): Linear(in_features=1000, out_features=20, bias=True)
  )
)
======

************************************************************************************************************
Task  8
************************************************************************************************************
| Epoch   1, time=  2.3s | Train: skip eval | Valid: time=  0.2s loss=114.555, TAw acc=  1.2% | *
| Epoch   2, time=  2.3s | Train: skip eval | Valid: time=  0.2s loss=114.530, TAw acc=  1.2% | *
…
>>> Test on task  3 : loss=49.671 | TAw acc= 93.3%, forg=  0.0%| TAg acc= 60.0%, forg= 17.8% <<<
>>> Test on task  4 : loss=62.641 | TAw acc= 97.1%, forg=  0.0%| TAg acc= 81.7%, forg=  0.0% <<<
>>> Test on task  5 : loss=74.592 | TAw acc= 92.9%, forg=  0.0%| TAg acc= 70.6%, forg=  6.3% <<<
>>> Test on task  6 : loss=88.050 | TAw acc= 89.2%, forg=  0.0%| TAg acc= 71.6%, forg=  1.0% <<<
>>> Test on task  7 : loss=101.312 | TAw acc= 90.7%, forg=  0.0%| TAg acc= 79.6%, forg=  0.0% <<<
>>> Test on task  8 : loss=111.467 | TAw acc= 91.7%, forg=  0.0%| TAg acc= 80.7%, forg=  0.0% <<<
Save at k=100/icarl_wisdm_2/wisdm_flex_icarl
======
LLL_Net(
  (model): SimpleMLP(
    (fc1): Linear(in_features=91, out_features=1000, bias=True)
    (fc2): Sequential()
  )
  (heads): ModuleList(
    (0): Linear(in_features=1000, out_features=34, bias=True)
    (1): Linear(in_features=1000, out_features=20, bias=True)
    (2): Linear(in_features=1000, out_features=20, bias=True)
    (3): Linear(in_features=1000, out_features=20, bias=True)
    (4): Linear(in_features=1000, out_features=20, bias=True)
    (5): Linear(in_features=1000, out_features=20, bias=True)
    (6): Linear(in_features=1000, out_features=20, bias=True)
    (7): Linear(in_features=1000, out_features=20, bias=True)
    (8): Linear(in_features=1000, out_features=20, bias=True)
  )
)
======

************************************************************************************************************
Task  9
************************************************************************************************************
| Epoch   1, time=  2.9s | Train: skip eval | Valid: time=  0.2s loss=127.937, TAw acc= 13.3% | *
| Epoch   2, time=  2.8s | Train: skip eval | Valid: time=  0.3s loss=127.915, TAw acc= 14.3% | *
…
>>> Test on task  4 : loss=62.234 | TAw acc= 97.1%, forg=  0.0%| TAg acc= 81.7%, forg=  0.0% <<<
>>> Test on task  5 : loss=74.208 | TAw acc= 92.9%, forg=  0.0%| TAg acc= 65.9%, forg= 11.1% <<<
>>> Test on task  6 : loss=87.542 | TAw acc= 89.2%, forg=  0.0%| TAg acc= 71.6%, forg=  1.0% <<<
>>> Test on task  7 : loss=100.750 | TAw acc= 90.7%, forg=  0.0%| TAg acc= 75.0%, forg=  4.6% <<<
>>> Test on task  8 : loss=110.872 | TAw acc= 91.7%, forg=  0.0%| TAg acc= 78.9%, forg=  1.8% <<<
>>> Test on task  9 : loss=124.081 | TAw acc= 96.2%, forg=  0.0%| TAg acc= 83.8%, forg=  0.0% <<<
Save at k=100/icarl_wisdm_2/wisdm_flex_icarl
======
LLL_Net(
  (model): SimpleMLP(
    (fc1): Linear(in_features=91, out_features=1000, bias=True)
    (fc2): Sequential()
  )
  (heads): ModuleList(
    (0): Linear(in_features=1000, out_features=34, bias=True)
    (1): Linear(in_features=1000, out_features=20, bias=True)
    (2): Linear(in_features=1000, out_features=20, bias=True)
    (3): Linear(in_features=1000, out_features=20, bias=True)
    (4): Linear(in_features=1000, out_features=20, bias=True)
    (5): Linear(in_features=1000, out_features=20, bias=True)
    (6): Linear(in_features=1000, out_features=20, bias=True)
    (7): Linear(in_features=1000, out_features=20, bias=True)
    (8): Linear(in_features=1000, out_features=20, bias=True)
    (9): Linear(in_features=1000, out_features=20, bias=True)
  )
)
======

************************************************************************************************************
Task 10
************************************************************************************************************
| Epoch   1, time=  3.3s | Train: skip eval | Valid: time=  0.2s loss=136.656, TAw acc= 10.5% | *
| Epoch   2, time=  3.2s | Train: skip eval | Valid: time=  0.2s loss=136.622, TAw acc= 11.8% | *
…
>>> Test on task  5 : loss=73.773 | TAw acc= 92.9%, forg=  0.0%| TAg acc= 65.1%, forg= 11.9% <<<
>>> Test on task  6 : loss=86.966 | TAw acc= 89.2%, forg=  0.0%| TAg acc= 71.6%, forg=  1.0% <<<
>>> Test on task  7 : loss=100.078 | TAw acc= 90.7%, forg=  0.0%| TAg acc= 70.4%, forg=  9.3% <<<
>>> Test on task  8 : loss=110.186 | TAw acc= 91.7%, forg=  0.0%| TAg acc= 78.0%, forg=  2.8% <<<
>>> Test on task  9 : loss=123.418 | TAw acc= 96.2%, forg=  0.0%| TAg acc= 83.8%, forg=  0.0% <<<
>>> Test on task 10 : loss=131.949 | TAw acc= 88.5%, forg=  0.0%| TAg acc= 76.0%, forg=  0.0% <<<
Save at k=100/icarl_wisdm_2/wisdm_flex_icarl
======
LLL_Net(
  (model): SimpleMLP(
    (fc1): Linear(in_features=91, out_features=1000, bias=True)
    (fc2): Sequential()
  )
  (heads): ModuleList(
    (0): Linear(in_features=1000, out_features=34, bias=True)
    (1): Linear(in_features=1000, out_features=20, bias=True)
    (2): Linear(in_features=1000, out_features=20, bias=True)
    (3): Linear(in_features=1000, out_features=20, bias=True)
    (4): Linear(in_features=1000, out_features=20, bias=True)
    (5): Linear(in_features=1000, out_features=20, bias=True)
    (6): Linear(in_features=1000, out_features=20, bias=True)
    (7): Linear(in_features=1000, out_features=20, bias=True)
    (8): Linear(in_features=1000, out_features=20, bias=True)
    (9): Linear(in_features=1000, out_features=20, bias=True)
    (10): Linear(in_features=1000, out_features=20, bias=True)
  )
)
======

************************************************************************************************************
Task 11
************************************************************************************************************
| Epoch   1, time=  3.8s | Train: skip eval | Valid: time=  0.2s loss=148.271, TAw acc=  0.0% | *
| Epoch   2, time=  3.8s | Train: skip eval | Valid: time=  0.2s loss=148.235, TAw acc=  0.0% | *
…
>>> Test on task  6 : loss=86.417 | TAw acc= 89.2%, forg=  0.0%| TAg acc= 71.6%, forg=  1.0% <<<
>>> Test on task  7 : loss=99.440 | TAw acc= 90.7%, forg=  0.0%| TAg acc= 69.4%, forg= 10.2% <<<
>>> Test on task  8 : loss=109.475 | TAw acc= 91.7%, forg=  0.0%| TAg acc= 78.0%, forg=  2.8% <<<
>>> Test on task  9 : loss=122.717 | TAw acc= 96.2%, forg=  0.0%| TAg acc= 83.8%, forg=  0.0% <<<
>>> Test on task 10 : loss=131.315 | TAw acc= 88.5%, forg=  0.0%| TAg acc= 74.0%, forg=  1.9% <<<
>>> Test on task 11 : loss=146.038 | TAw acc= 89.3%, forg=  0.0%| TAg acc= 69.6%, forg=  0.0% <<<
Save at k=100/icarl_wisdm_2/wisdm_flex_icarl
======
LLL_Net(
  (model): SimpleMLP(
    (fc1): Linear(in_features=91, out_features=1000, bias=True)
    (fc2): Sequential()
  )
  (heads): ModuleList(
    (0): Linear(in_features=1000, out_features=34, bias=True)
    (1): Linear(in_features=1000, out_features=20, bias=True)
    (2): Linear(in_features=1000, out_features=20, bias=True)
    (3): Linear(in_features=1000, out_features=20, bias=True)
    (4): Linear(in_features=1000, out_features=20, bias=True)
    (5): Linear(in_features=1000, out_features=20, bias=True)
    (6): Linear(in_features=1000, out_features=20, bias=True)
    (7): Linear(in_features=1000, out_features=20, bias=True)
    (8): Linear(in_features=1000, out_features=20, bias=True)
    (9): Linear(in_features=1000, out_features=20, bias=True)
    (10): Linear(in_features=1000, out_features=20, bias=True)
    (11): Linear(in_features=1000, out_features=20, bias=True)
  )
)
======

************************************************************************************************************
Task 12
************************************************************************************************************
| Epoch   1, time=  4.3s | Train: skip eval | Valid: time=  0.2s loss=162.984, TAw acc=  8.3% | *
| Epoch   2, time=  4.4s | Train: skip eval | Valid: time=  0.2s loss=162.961, TAw acc=  8.3% | *
…
>>> Test on task  7 : loss=98.846 | TAw acc= 90.7%, forg=  0.0%| TAg acc= 69.4%, forg= 10.2% <<<
>>> Test on task  8 : loss=108.803 | TAw acc= 91.7%, forg=  0.0%| TAg acc= 78.0%, forg=  2.8% <<<
>>> Test on task  9 : loss=122.035 | TAw acc= 96.2%, forg=  0.0%| TAg acc= 83.1%, forg=  0.8% <<<
>>> Test on task 10 : loss=130.632 | TAw acc= 88.5%, forg=  0.0%| TAg acc= 74.0%, forg=  1.9% <<<
>>> Test on task 11 : loss=145.389 | TAw acc= 89.3%, forg=  0.0%| TAg acc= 68.8%, forg=  0.9% <<<
>>> Test on task 12 : loss=159.359 | TAw acc= 92.0%, forg=  0.0%| TAg acc= 68.1%, forg=  0.0% <<<
Save at k=100/icarl_wisdm_2/wisdm_flex_icarl
======
LLL_Net(
  (model): SimpleMLP(
    (fc1): Linear(in_features=91, out_features=1000, bias=True)
    (fc2): Sequential()
  )
  (heads): ModuleList(
    (0): Linear(in_features=1000, out_features=34, bias=True)
    (1): Linear(in_features=1000, out_features=20, bias=True)
    (2): Linear(in_features=1000, out_features=20, bias=True)
    (3): Linear(in_features=1000, out_features=20, bias=True)
    (4): Linear(in_features=1000, out_features=20, bias=True)
    (5): Linear(in_features=1000, out_features=20, bias=True)
    (6): Linear(in_features=1000, out_features=20, bias=True)
    (7): Linear(in_features=1000, out_features=20, bias=True)
    (8): Linear(in_features=1000, out_features=20, bias=True)
    (9): Linear(in_features=1000, out_features=20, bias=True)
    (10): Linear(in_features=1000, out_features=20, bias=True)
    (11): Linear(in_features=1000, out_features=20, bias=True)
    (12): Linear(in_features=1000, out_features=20, bias=True)
  )
)
======

************************************************************************************************************
Task 13
************************************************************************************************************
| Epoch   1, time=  5.0s | Train: skip eval | Valid: time=  0.2s loss=176.258, TAw acc=  5.7% | *
| Epoch   2, time=  5.0s | Train: skip eval | Valid: time=  0.2s loss=176.234, TAw acc=  6.8% | *
…
>>> Test on task  8 : loss=108.199 | TAw acc= 91.7%, forg=  0.0%| TAg acc= 74.3%, forg=  6.4% <<<
>>> Test on task  9 : loss=121.349 | TAw acc= 96.2%, forg=  0.0%| TAg acc= 81.5%, forg=  2.3% <<<
>>> Test on task 10 : loss=129.939 | TAw acc= 88.5%, forg=  0.0%| TAg acc= 74.0%, forg=  1.9% <<<
>>> Test on task 11 : loss=144.679 | TAw acc= 89.3%, forg=  0.0%| TAg acc= 68.8%, forg=  0.9% <<<
>>> Test on task 12 : loss=158.668 | TAw acc= 92.0%, forg=  0.0%| TAg acc= 68.1%, forg=  0.0% <<<
>>> Test on task 13 : loss=171.797 | TAw acc= 93.2%, forg=  0.0%| TAg acc= 67.5%, forg=  0.0% <<<
Save at k=100/icarl_wisdm_2/wisdm_flex_icarl
======
LLL_Net(
  (model): SimpleMLP(
    (fc1): Linear(in_features=91, out_features=1000, bias=True)
    (fc2): Sequential()
  )
  (heads): ModuleList(
    (0): Linear(in_features=1000, out_features=34, bias=True)
    (1): Linear(in_features=1000, out_features=20, bias=True)
    (2): Linear(in_features=1000, out_features=20, bias=True)
    (3): Linear(in_features=1000, out_features=20, bias=True)
    (4): Linear(in_features=1000, out_features=20, bias=True)
    (5): Linear(in_features=1000, out_features=20, bias=True)
    (6): Linear(in_features=1000, out_features=20, bias=True)
    (7): Linear(in_features=1000, out_features=20, bias=True)
    (8): Linear(in_features=1000, out_features=20, bias=True)
    (9): Linear(in_features=1000, out_features=20, bias=True)
    (10): Linear(in_features=1000, out_features=20, bias=True)
    (11): Linear(in_features=1000, out_features=20, bias=True)
    (12): Linear(in_features=1000, out_features=20, bias=True)
    (13): Linear(in_features=1000, out_features=20, bias=True)
  )
)
======

************************************************************************************************************
Task 14
************************************************************************************************************
| Epoch   1, time=  5.4s | Train: skip eval | Valid: time=  0.3s loss=185.351, TAw acc=  3.4% | *
| Epoch   2, time=  5.7s | Train: skip eval | Valid: time=  0.2s loss=185.324, TAw acc=  3.4% | *
…
>>> Test on task  9 : loss=120.732 | TAw acc= 96.2%, forg=  0.0%| TAg acc= 80.0%, forg=  3.8% <<<
>>> Test on task 10 : loss=129.293 | TAw acc= 88.5%, forg=  0.0%| TAg acc= 73.1%, forg=  2.9% <<<
>>> Test on task 11 : loss=143.956 | TAw acc= 89.3%, forg=  0.0%| TAg acc= 67.9%, forg=  1.8% <<<
>>> Test on task 12 : loss=157.907 | TAw acc= 92.0%, forg=  0.0%| TAg acc= 68.1%, forg=  0.0% <<<
>>> Test on task 13 : loss=171.166 | TAw acc= 93.2%, forg=  0.0%| TAg acc= 67.5%, forg=  0.0% <<<
>>> Test on task 14 : loss=180.973 | TAw acc= 89.9%, forg=  0.0%| TAg acc= 63.0%, forg=  0.0% <<<
Save at k=100/icarl_wisdm_2/wisdm_flex_icarl
======
LLL_Net(
  (model): SimpleMLP(
    (fc1): Linear(in_features=91, out_features=1000, bias=True)
    (fc2): Sequential()
  )
  (heads): ModuleList(
    (0): Linear(in_features=1000, out_features=34, bias=True)
    (1): Linear(in_features=1000, out_features=20, bias=True)
    (2): Linear(in_features=1000, out_features=20, bias=True)
    (3): Linear(in_features=1000, out_features=20, bias=True)
    (4): Linear(in_features=1000, out_features=20, bias=True)
    (5): Linear(in_features=1000, out_features=20, bias=True)
    (6): Linear(in_features=1000, out_features=20, bias=True)
    (7): Linear(in_features=1000, out_features=20, bias=True)
    (8): Linear(in_features=1000, out_features=20, bias=True)
    (9): Linear(in_features=1000, out_features=20, bias=True)
    (10): Linear(in_features=1000, out_features=20, bias=True)
    (11): Linear(in_features=1000, out_features=20, bias=True)
    (12): Linear(in_features=1000, out_features=20, bias=True)
    (13): Linear(in_features=1000, out_features=20, bias=True)
    (14): Linear(in_features=1000, out_features=20, bias=True)
  )
)
======

************************************************************************************************************
Task 15
************************************************************************************************************
| Epoch   1, time=  6.0s | Train: skip eval | Valid: time=  0.3s loss=193.135, TAw acc=  2.6% | *
| Epoch   2, time=  6.3s | Train: skip eval | Valid: time=  0.2s loss=193.100, TAw acc=  3.9% | *
…
>>> Test on task 10 : loss=128.685 | TAw acc= 88.5%, forg=  0.0%| TAg acc= 72.1%, forg=  3.8% <<<
>>> Test on task 11 : loss=143.265 | TAw acc= 89.3%, forg=  0.0%| TAg acc= 65.2%, forg=  4.5% <<<
>>> Test on task 12 : loss=157.123 | TAw acc= 92.0%, forg=  0.0%| TAg acc= 68.1%, forg=  0.0% <<<
>>> Test on task 13 : loss=170.420 | TAw acc= 93.2%, forg=  0.0%| TAg acc= 67.5%, forg=  0.0% <<<
>>> Test on task 14 : loss=180.238 | TAw acc= 89.9%, forg=  0.0%| TAg acc= 63.0%, forg=  0.0% <<<
>>> Test on task 15 : loss=187.001 | TAw acc= 99.0%, forg=  0.0%| TAg acc= 85.6%, forg=  0.0% <<<
Save at k=100/icarl_wisdm_2/wisdm_flex_icarl
======
LLL_Net(
  (model): SimpleMLP(
    (fc1): Linear(in_features=91, out_features=1000, bias=True)
    (fc2): Sequential()
  )
  (heads): ModuleList(
    (0): Linear(in_features=1000, out_features=34, bias=True)
    (1): Linear(in_features=1000, out_features=20, bias=True)
    (2): Linear(in_features=1000, out_features=20, bias=True)
    (3): Linear(in_features=1000, out_features=20, bias=True)
    (4): Linear(in_features=1000, out_features=20, bias=True)
    (5): Linear(in_features=1000, out_features=20, bias=True)
    (6): Linear(in_features=1000, out_features=20, bias=True)
    (7): Linear(in_features=1000, out_features=20, bias=True)
    (8): Linear(in_features=1000, out_features=20, bias=True)
    (9): Linear(in_features=1000, out_features=20, bias=True)
    (10): Linear(in_features=1000, out_features=20, bias=True)
    (11): Linear(in_features=1000, out_features=20, bias=True)
    (12): Linear(in_features=1000, out_features=20, bias=True)
    (13): Linear(in_features=1000, out_features=20, bias=True)
    (14): Linear(in_features=1000, out_features=20, bias=True)
    (15): Linear(in_features=1000, out_features=20, bias=True)
  )
)
======

************************************************************************************************************
Task 16
************************************************************************************************************
| Epoch   1, time=  6.8s | Train: skip eval | Valid: time=  0.3s loss=207.406, TAw acc=  6.0% | *
| Epoch   2, time=  7.1s | Train: skip eval | Valid: time=  0.3s loss=207.372, TAw acc=  6.0% | *
…
>>> Test on task 11 : loss=142.631 | TAw acc= 89.3%, forg=  0.0%| TAg acc= 65.2%, forg=  4.5% <<<
>>> Test on task 12 : loss=156.407 | TAw acc= 92.0%, forg=  0.0%| TAg acc= 68.1%, forg=  0.0% <<<
>>> Test on task 13 : loss=169.678 | TAw acc= 93.2%, forg=  0.0%| TAg acc= 67.5%, forg=  0.0% <<<
>>> Test on task 14 : loss=179.505 | TAw acc= 89.9%, forg=  0.0%| TAg acc= 63.0%, forg=  0.0% <<<
>>> Test on task 15 : loss=186.159 | TAw acc= 99.0%, forg=  0.0%| TAg acc= 85.6%, forg=  0.0% <<<
>>> Test on task 16 : loss=202.051 | TAw acc= 91.0%, forg=  0.0%| TAg acc= 67.6%, forg=  0.0% <<<
Save at k=100/icarl_wisdm_2/wisdm_flex_icarl
======
LLL_Net(
  (model): SimpleMLP(
    (fc1): Linear(in_features=91, out_features=1000, bias=True)
    (fc2): Sequential()
  )
  (heads): ModuleList(
    (0): Linear(in_features=1000, out_features=34, bias=True)
    (1): Linear(in_features=1000, out_features=20, bias=True)
    (2): Linear(in_features=1000, out_features=20, bias=True)
    (3): Linear(in_features=1000, out_features=20, bias=True)
    (4): Linear(in_features=1000, out_features=20, bias=True)
    (5): Linear(in_features=1000, out_features=20, bias=True)
    (6): Linear(in_features=1000, out_features=20, bias=True)
    (7): Linear(in_features=1000, out_features=20, bias=True)
    (8): Linear(in_features=1000, out_features=20, bias=True)
    (9): Linear(in_features=1000, out_features=20, bias=True)
    (10): Linear(in_features=1000, out_features=20, bias=True)
    (11): Linear(in_features=1000, out_features=20, bias=True)
    (12): Linear(in_features=1000, out_features=20, bias=True)
    (13): Linear(in_features=1000, out_features=20, bias=True)
    (14): Linear(in_features=1000, out_features=20, bias=True)
    (15): Linear(in_features=1000, out_features=20, bias=True)
    (16): Linear(in_features=1000, out_features=20, bias=True)
  )
)
======

************************************************************************************************************
Task 17
************************************************************************************************************
| Epoch   1, time=  7.6s | Train: skip eval | Valid: time=  0.3s loss=215.324, TAw acc=  8.8% | *
| Epoch   2, time=  8.0s | Train: skip eval | Valid: time=  0.3s loss=215.287, TAw acc= 13.2% | *
…
>>> Test on task 12 : loss=155.709 | TAw acc= 92.0%, forg=  0.0%| TAg acc= 67.3%, forg=  0.9% <<<
>>> Test on task 13 : loss=168.984 | TAw acc= 93.2%, forg=  0.0%| TAg acc= 67.5%, forg=  0.0% <<<
>>> Test on task 14 : loss=178.775 | TAw acc= 89.9%, forg=  0.0%| TAg acc= 63.0%, forg=  0.0% <<<
>>> Test on task 15 : loss=185.355 | TAw acc= 99.0%, forg=  0.0%| TAg acc= 84.6%, forg=  1.0% <<<
>>> Test on task 16 : loss=201.402 | TAw acc= 91.0%, forg=  0.0%| TAg acc= 67.6%, forg=  0.0% <<<
>>> Test on task 17 : loss=209.979 | TAw acc= 95.0%, forg=  0.0%| TAg acc= 67.5%, forg=  0.0% <<<
Save at k=100/icarl_wisdm_2/wisdm_flex_icarl
======
LLL_Net(
  (model): SimpleMLP(
    (fc1): Linear(in_features=91, out_features=1000, bias=True)
    (fc2): Sequential()
  )
  (heads): ModuleList(
    (0): Linear(in_features=1000, out_features=34, bias=True)
    (1): Linear(in_features=1000, out_features=20, bias=True)
    (2): Linear(in_features=1000, out_features=20, bias=True)
    (3): Linear(in_features=1000, out_features=20, bias=True)
    (4): Linear(in_features=1000, out_features=20, bias=True)
    (5): Linear(in_features=1000, out_features=20, bias=True)
    (6): Linear(in_features=1000, out_features=20, bias=True)
    (7): Linear(in_features=1000, out_features=20, bias=True)
    (8): Linear(in_features=1000, out_features=20, bias=True)
    (9): Linear(in_features=1000, out_features=20, bias=True)
    (10): Linear(in_features=1000, out_features=20, bias=True)
    (11): Linear(in_features=1000, out_features=20, bias=True)
    (12): Linear(in_features=1000, out_features=20, bias=True)
    (13): Linear(in_features=1000, out_features=20, bias=True)
    (14): Linear(in_features=1000, out_features=20, bias=True)
    (15): Linear(in_features=1000, out_features=20, bias=True)
    (16): Linear(in_features=1000, out_features=20, bias=True)
    (17): Linear(in_features=1000, out_features=20, bias=True)
  )
)
======

************************************************************************************************************
Task 18
************************************************************************************************************
| Epoch   1, time=  8.1s | Train: skip eval | Valid: time=  0.2s loss=222.994, TAw acc=  6.9% | *
| Epoch   2, time=  8.5s | Train: skip eval | Valid: time=  0.2s loss=222.962, TAw acc=  6.9% | *
…
>>> Test on task 13 : loss=168.297 | TAw acc= 93.2%, forg=  0.0%| TAg acc= 67.5%, forg=  0.0% <<<
>>> Test on task 14 : loss=178.091 | TAw acc= 89.9%, forg=  0.0%| TAg acc= 63.0%, forg=  0.0% <<<
>>> Test on task 15 : loss=184.540 | TAw acc= 99.0%, forg=  0.0%| TAg acc= 82.7%, forg=  2.9% <<<
>>> Test on task 16 : loss=200.678 | TAw acc= 91.0%, forg=  0.0%| TAg acc= 66.7%, forg=  0.9% <<<
>>> Test on task 17 : loss=209.104 | TAw acc= 95.0%, forg=  0.0%| TAg acc= 67.5%, forg=  0.0% <<<
>>> Test on task 18 : loss=215.556 | TAw acc= 97.0%, forg=  0.0%| TAg acc= 72.0%, forg=  0.0% <<<
Save at k=100/icarl_wisdm_2/wisdm_flex_icarl
======
LLL_Net(
  (model): SimpleMLP(
    (fc1): Linear(in_features=91, out_features=1000, bias=True)
    (fc2): Sequential()
  )
  (heads): ModuleList(
    (0): Linear(in_features=1000, out_features=34, bias=True)
    (1): Linear(in_features=1000, out_features=20, bias=True)
    (2): Linear(in_features=1000, out_features=20, bias=True)
    (3): Linear(in_features=1000, out_features=20, bias=True)
    (4): Linear(in_features=1000, out_features=20, bias=True)
    (5): Linear(in_features=1000, out_features=20, bias=True)
    (6): Linear(in_features=1000, out_features=20, bias=True)
    (7): Linear(in_features=1000, out_features=20, bias=True)
    (8): Linear(in_features=1000, out_features=20, bias=True)
    (9): Linear(in_features=1000, out_features=20, bias=True)
    (10): Linear(in_features=1000, out_features=20, bias=True)
    (11): Linear(in_features=1000, out_features=20, bias=True)
    (12): Linear(in_features=1000, out_features=20, bias=True)
    (13): Linear(in_features=1000, out_features=20, bias=True)
    (14): Linear(in_features=1000, out_features=20, bias=True)
    (15): Linear(in_features=1000, out_features=20, bias=True)
    (16): Linear(in_features=1000, out_features=20, bias=True)
    (17): Linear(in_features=1000, out_features=20, bias=True)
    (18): Linear(in_features=1000, out_features=20, bias=True)
  )
)
======

************************************************************************************************************
Task 19
************************************************************************************************************
| Epoch   1, time=  9.0s | Train: skip eval | Valid: time=  0.3s loss=228.404, TAw acc=  2.6% | *
| Epoch   2, time=  9.0s | Train: skip eval | Valid: time=  0.3s loss=228.364, TAw acc=  2.6% | *
…
>>> Test on task 14 : loss=177.442 | TAw acc= 89.9%, forg=  0.0%| TAg acc= 63.0%, forg=  0.0% <<<
>>> Test on task 15 : loss=183.789 | TAw acc= 99.0%, forg=  0.0%| TAg acc= 81.7%, forg=  3.8% <<<
>>> Test on task 16 : loss=199.926 | TAw acc= 91.0%, forg=  0.0%| TAg acc= 66.7%, forg=  0.9% <<<
>>> Test on task 17 : loss=208.269 | TAw acc= 95.0%, forg=  0.0%| TAg acc= 67.5%, forg=  0.0% <<<
>>> Test on task 18 : loss=214.793 | TAw acc= 97.0%, forg=  0.0%| TAg acc= 72.0%, forg=  0.0% <<<
>>> Test on task 19 : loss=224.354 | TAw acc= 98.1%, forg=  0.0%| TAg acc= 76.4%, forg=  0.0% <<<
Save at k=100/icarl_wisdm_2/wisdm_flex_icarl
======
LLL_Net(
  (model): SimpleMLP(
    (fc1): Linear(in_features=91, out_features=1000, bias=True)
    (fc2): Sequential()
  )
  (heads): ModuleList(
    (0): Linear(in_features=1000, out_features=34, bias=True)
    (1): Linear(in_features=1000, out_features=20, bias=True)
    (2): Linear(in_features=1000, out_features=20, bias=True)
    (3): Linear(in_features=1000, out_features=20, bias=True)
    (4): Linear(in_features=1000, out_features=20, bias=True)
    (5): Linear(in_features=1000, out_features=20, bias=True)
    (6): Linear(in_features=1000, out_features=20, bias=True)
    (7): Linear(in_features=1000, out_features=20, bias=True)
    (8): Linear(in_features=1000, out_features=20, bias=True)
    (9): Linear(in_features=1000, out_features=20, bias=True)
    (10): Linear(in_features=1000, out_features=20, bias=True)
    (11): Linear(in_features=1000, out_features=20, bias=True)
    (12): Linear(in_features=1000, out_features=20, bias=True)
    (13): Linear(in_features=1000, out_features=20, bias=True)
    (14): Linear(in_features=1000, out_features=20, bias=True)
    (15): Linear(in_features=1000, out_features=20, bias=True)
    (16): Linear(in_features=1000, out_features=20, bias=True)
    (17): Linear(in_features=1000, out_features=20, bias=True)
    (18): Linear(in_features=1000, out_features=20, bias=True)
    (19): Linear(in_features=1000, out_features=20, bias=True)
  )
)
======

************************************************************************************************************
Task 20
************************************************************************************************************
| Epoch   1, time=  9.8s | Train: skip eval | Valid: time=  0.3s loss=243.141, TAw acc=  5.9% | *
| Epoch   2, time= 10.0s | Train: skip eval | Valid: time=  0.3s loss=243.105, TAw acc=  5.9% | *
…
>>> Test on task 15 : loss=183.077 | TAw acc= 99.0%, forg=  0.0%| TAg acc= 81.7%, forg=  3.8% <<<
>>> Test on task 16 : loss=199.160 | TAw acc= 91.0%, forg=  0.0%| TAg acc= 66.7%, forg=  0.9% <<<
>>> Test on task 17 : loss=207.423 | TAw acc= 95.0%, forg=  0.0%| TAg acc= 67.5%, forg=  0.0% <<<
>>> Test on task 18 : loss=213.937 | TAw acc= 97.0%, forg=  0.0%| TAg acc= 71.0%, forg=  1.0% <<<
>>> Test on task 19 : loss=223.541 | TAw acc= 98.1%, forg=  0.0%| TAg acc= 76.4%, forg=  0.0% <<<
>>> Test on task 20 : loss=237.011 | TAw acc= 96.8%, forg=  0.0%| TAg acc= 76.8%, forg=  0.0% <<<
Save at k=100/icarl_wisdm_2/wisdm_flex_icarl
======
LLL_Net(
  (model): SimpleMLP(
    (fc1): Linear(in_features=91, out_features=1000, bias=True)
    (fc2): Sequential()
  )
  (heads): ModuleList(
    (0): Linear(in_features=1000, out_features=34, bias=True)
    (1): Linear(in_features=1000, out_features=20, bias=True)
    (2): Linear(in_features=1000, out_features=20, bias=True)
    (3): Linear(in_features=1000, out_features=20, bias=True)
    (4): Linear(in_features=1000, out_features=20, bias=True)
    (5): Linear(in_features=1000, out_features=20, bias=True)
    (6): Linear(in_features=1000, out_features=20, bias=True)
    (7): Linear(in_features=1000, out_features=20, bias=True)
    (8): Linear(in_features=1000, out_features=20, bias=True)
    (9): Linear(in_features=1000, out_features=20, bias=True)
    (10): Linear(in_features=1000, out_features=20, bias=True)
    (11): Linear(in_features=1000, out_features=20, bias=True)
    (12): Linear(in_features=1000, out_features=20, bias=True)
    (13): Linear(in_features=1000, out_features=20, bias=True)
    (14): Linear(in_features=1000, out_features=20, bias=True)
    (15): Linear(in_features=1000, out_features=20, bias=True)
    (16): Linear(in_features=1000, out_features=20, bias=True)
    (17): Linear(in_features=1000, out_features=20, bias=True)
    (18): Linear(in_features=1000, out_features=20, bias=True)
    (19): Linear(in_features=1000, out_features=20, bias=True)
    (20): Linear(in_features=1000, out_features=20, bias=True)
  )
)
======

************************************************************************************************************
Task 21
************************************************************************************************************
| Epoch   1, time= 11.2s | Train: skip eval | Valid: time=  0.3s loss=259.451, TAw acc=  5.2% | *
| Epoch   2, time= 11.2s | Train: skip eval | Valid: time=  0.3s loss=259.425, TAw acc=  7.8% | *
…
>>> Test on task 16 : loss=198.461 | TAw acc= 91.0%, forg=  0.0%| TAg acc= 66.7%, forg=  0.9% <<<
>>> Test on task 17 : loss=206.698 | TAw acc= 95.0%, forg=  0.0%| TAg acc= 62.5%, forg=  5.0% <<<
>>> Test on task 18 : loss=213.178 | TAw acc= 97.0%, forg=  0.0%| TAg acc= 70.0%, forg=  2.0% <<<
>>> Test on task 19 : loss=222.697 | TAw acc= 98.1%, forg=  0.0%| TAg acc= 75.5%, forg=  0.9% <<<
>>> Test on task 20 : loss=236.140 | TAw acc= 96.8%, forg=  0.0%| TAg acc= 76.8%, forg=  0.0% <<<
>>> Test on task 21 : loss=253.593 | TAw acc= 97.2%, forg=  0.0%| TAg acc= 77.4%, forg=  0.0% <<<
Save at k=100/icarl_wisdm_2/wisdm_flex_icarl
======
LLL_Net(
  (model): SimpleMLP(
    (fc1): Linear(in_features=91, out_features=1000, bias=True)
    (fc2): Sequential()
  )
  (heads): ModuleList(
    (0): Linear(in_features=1000, out_features=34, bias=True)
    (1): Linear(in_features=1000, out_features=20, bias=True)
    (2): Linear(in_features=1000, out_features=20, bias=True)
    (3): Linear(in_features=1000, out_features=20, bias=True)
    (4): Linear(in_features=1000, out_features=20, bias=True)
    (5): Linear(in_features=1000, out_features=20, bias=True)
    (6): Linear(in_features=1000, out_features=20, bias=True)
    (7): Linear(in_features=1000, out_features=20, bias=True)
    (8): Linear(in_features=1000, out_features=20, bias=True)
    (9): Linear(in_features=1000, out_features=20, bias=True)
    (10): Linear(in_features=1000, out_features=20, bias=True)
    (11): Linear(in_features=1000, out_features=20, bias=True)
    (12): Linear(in_features=1000, out_features=20, bias=True)
    (13): Linear(in_features=1000, out_features=20, bias=True)
    (14): Linear(in_features=1000, out_features=20, bias=True)
    (15): Linear(in_features=1000, out_features=20, bias=True)
    (16): Linear(in_features=1000, out_features=20, bias=True)
    (17): Linear(in_features=1000, out_features=20, bias=True)
    (18): Linear(in_features=1000, out_features=20, bias=True)
    (19): Linear(in_features=1000, out_features=20, bias=True)
    (20): Linear(in_features=1000, out_features=20, bias=True)
    (21): Linear(in_features=1000, out_features=20, bias=True)
  )
)
======

************************************************************************************************************
Task 22
************************************************************************************************************
| Epoch   1, time= 11.7s | Train: skip eval | Valid: time=  0.3s loss=258.958, TAw acc=  2.3% | *
| Epoch   2, time= 11.9s | Train: skip eval | Valid: time=  0.3s loss=258.904, TAw acc=  4.5% | *
…
>>> Test on task 17 : loss=206.008 | TAw acc= 95.0%, forg=  0.0%| TAg acc= 62.5%, forg=  5.0% <<<
>>> Test on task 18 : loss=212.395 | TAw acc= 97.0%, forg=  0.0%| TAg acc= 70.0%, forg=  2.0% <<<
>>> Test on task 19 : loss=221.917 | TAw acc= 98.1%, forg=  0.0%| TAg acc= 75.5%, forg=  0.9% <<<
>>> Test on task 20 : loss=235.301 | TAw acc= 96.8%, forg=  0.0%| TAg acc= 76.8%, forg=  0.0% <<<
>>> Test on task 21 : loss=252.732 | TAw acc= 97.2%, forg=  0.0%| TAg acc= 76.4%, forg=  0.9% <<<
>>> Test on task 22 : loss=253.634 | TAw acc= 93.2%, forg=  0.0%| TAg acc= 51.7%, forg=  0.0% <<<
Save at k=100/icarl_wisdm_2/wisdm_flex_icarl
======
LLL_Net(
  (model): SimpleMLP(
    (fc1): Linear(in_features=91, out_features=1000, bias=True)
    (fc2): Sequential()
  )
  (heads): ModuleList(
    (0): Linear(in_features=1000, out_features=34, bias=True)
    (1): Linear(in_features=1000, out_features=20, bias=True)
    (2): Linear(in_features=1000, out_features=20, bias=True)
    (3): Linear(in_features=1000, out_features=20, bias=True)
    (4): Linear(in_features=1000, out_features=20, bias=True)
    (5): Linear(in_features=1000, out_features=20, bias=True)
    (6): Linear(in_features=1000, out_features=20, bias=True)
    (7): Linear(in_features=1000, out_features=20, bias=True)
    (8): Linear(in_features=1000, out_features=20, bias=True)
    (9): Linear(in_features=1000, out_features=20, bias=True)
    (10): Linear(in_features=1000, out_features=20, bias=True)
    (11): Linear(in_features=1000, out_features=20, bias=True)
    (12): Linear(in_features=1000, out_features=20, bias=True)
    (13): Linear(in_features=1000, out_features=20, bias=True)
    (14): Linear(in_features=1000, out_features=20, bias=True)
    (15): Linear(in_features=1000, out_features=20, bias=True)
    (16): Linear(in_features=1000, out_features=20, bias=True)
    (17): Linear(in_features=1000, out_features=20, bias=True)
    (18): Linear(in_features=1000, out_features=20, bias=True)
    (19): Linear(in_features=1000, out_features=20, bias=True)
    (20): Linear(in_features=1000, out_features=20, bias=True)
    (21): Linear(in_features=1000, out_features=20, bias=True)
    (22): Linear(in_features=1000, out_features=20, bias=True)
  )
)
======

************************************************************************************************************
Task 23
************************************************************************************************************
| Epoch   1, time= 13.2s | Train: skip eval | Valid: time=  0.3s loss=272.697, TAw acc=  8.5% | *
| Epoch   2, time= 13.2s | Train: skip eval | Valid: time=  0.3s loss=272.649, TAw acc=  9.8% | *
…
>>> Test on task 18 : loss=211.709 | TAw acc= 97.0%, forg=  0.0%| TAg acc= 70.0%, forg=  2.0% <<<
>>> Test on task 19 : loss=221.112 | TAw acc= 98.1%, forg=  0.0%| TAg acc= 75.5%, forg=  0.9% <<<
>>> Test on task 20 : loss=234.432 | TAw acc= 96.8%, forg=  0.0%| TAg acc= 76.8%, forg=  0.0% <<<
>>> Test on task 21 : loss=251.842 | TAw acc= 97.2%, forg=  0.0%| TAg acc= 76.4%, forg=  0.9% <<<
>>> Test on task 22 : loss=253.041 | TAw acc= 93.2%, forg=  0.0%| TAg acc= 48.3%, forg=  3.4% <<<
>>> Test on task 23 : loss=266.167 | TAw acc= 85.6%, forg=  0.0%| TAg acc= 68.5%, forg=  0.0% <<<
Save at k=100/icarl_wisdm_2/wisdm_flex_icarl
======
LLL_Net(
  (model): SimpleMLP(
    (fc1): Linear(in_features=91, out_features=1000, bias=True)
    (fc2): Sequential()
  )
  (heads): ModuleList(
    (0): Linear(in_features=1000, out_features=34, bias=True)
    (1): Linear(in_features=1000, out_features=20, bias=True)
    (2): Linear(in_features=1000, out_features=20, bias=True)
    (3): Linear(in_features=1000, out_features=20, bias=True)
    (4): Linear(in_features=1000, out_features=20, bias=True)
    (5): Linear(in_features=1000, out_features=20, bias=True)
    (6): Linear(in_features=1000, out_features=20, bias=True)
    (7): Linear(in_features=1000, out_features=20, bias=True)
    (8): Linear(in_features=1000, out_features=20, bias=True)
    (9): Linear(in_features=1000, out_features=20, bias=True)
    (10): Linear(in_features=1000, out_features=20, bias=True)
    (11): Linear(in_features=1000, out_features=20, bias=True)
    (12): Linear(in_features=1000, out_features=20, bias=True)
    (13): Linear(in_features=1000, out_features=20, bias=True)
    (14): Linear(in_features=1000, out_features=20, bias=True)
    (15): Linear(in_features=1000, out_features=20, bias=True)
    (16): Linear(in_features=1000, out_features=20, bias=True)
    (17): Linear(in_features=1000, out_features=20, bias=True)
    (18): Linear(in_features=1000, out_features=20, bias=True)
    (19): Linear(in_features=1000, out_features=20, bias=True)
    (20): Linear(in_features=1000, out_features=20, bias=True)
    (21): Linear(in_features=1000, out_features=20, bias=True)
    (22): Linear(in_features=1000, out_features=20, bias=True)
    (23): Linear(in_features=1000, out_features=20, bias=True)
  )
)
======

************************************************************************************************************
Task 24
************************************************************************************************************
| Epoch   1, time= 14.4s | Train: skip eval | Valid: time=  0.3s loss=285.777, TAw acc=  3.3% | *
| Epoch   2, time= 13.6s | Train: skip eval | Valid: time=  0.3s loss=285.739, TAw acc=  3.3% | *
…
>>> Test on task 19 : loss=220.363 | TAw acc= 98.1%, forg=  0.0%| TAg acc= 75.5%, forg=  0.9% <<<
>>> Test on task 20 : loss=233.693 | TAw acc= 96.8%, forg=  0.0%| TAg acc= 76.8%, forg=  0.0% <<<
>>> Test on task 21 : loss=250.992 | TAw acc= 97.2%, forg=  0.0%| TAg acc= 76.4%, forg=  0.9% <<<
>>> Test on task 22 : loss=252.321 | TAw acc= 93.2%, forg=  0.0%| TAg acc= 48.3%, forg=  3.4% <<<
>>> Test on task 23 : loss=265.563 | TAw acc= 85.6%, forg=  0.0%| TAg acc= 68.5%, forg=  0.0% <<<
>>> Test on task 24 : loss=282.486 | TAw acc= 92.6%, forg=  0.0%| TAg acc= 42.6%, forg=  0.0% <<<
Save at k=100/icarl_wisdm_2/wisdm_flex_icarl
======
LLL_Net(
  (model): SimpleMLP(
    (fc1): Linear(in_features=91, out_features=1000, bias=True)
    (fc2): Sequential()
  )
  (heads): ModuleList(
    (0): Linear(in_features=1000, out_features=34, bias=True)
    (1): Linear(in_features=1000, out_features=20, bias=True)
    (2): Linear(in_features=1000, out_features=20, bias=True)
    (3): Linear(in_features=1000, out_features=20, bias=True)
    (4): Linear(in_features=1000, out_features=20, bias=True)
    (5): Linear(in_features=1000, out_features=20, bias=True)
    (6): Linear(in_features=1000, out_features=20, bias=True)
    (7): Linear(in_features=1000, out_features=20, bias=True)
    (8): Linear(in_features=1000, out_features=20, bias=True)
    (9): Linear(in_features=1000, out_features=20, bias=True)
    (10): Linear(in_features=1000, out_features=20, bias=True)
    (11): Linear(in_features=1000, out_features=20, bias=True)
    (12): Linear(in_features=1000, out_features=20, bias=True)
    (13): Linear(in_features=1000, out_features=20, bias=True)
    (14): Linear(in_features=1000, out_features=20, bias=True)
    (15): Linear(in_features=1000, out_features=20, bias=True)
    (16): Linear(in_features=1000, out_features=20, bias=True)
    (17): Linear(in_features=1000, out_features=20, bias=True)
    (18): Linear(in_features=1000, out_features=20, bias=True)
    (19): Linear(in_features=1000, out_features=20, bias=True)
    (20): Linear(in_features=1000, out_features=20, bias=True)
    (21): Linear(in_features=1000, out_features=20, bias=True)
    (22): Linear(in_features=1000, out_features=20, bias=True)
    (23): Linear(in_features=1000, out_features=20, bias=True)
    (24): Linear(in_features=1000, out_features=20, bias=True)
  )
)
======

************************************************************************************************************
Task 25
************************************************************************************************************
| Epoch   1, time= 15.3s | Train: skip eval | Valid: time=  0.3s loss=293.803, TAw acc=  1.2% | *
| Epoch   2, time= 14.7s | Train: skip eval | Valid: time=  0.3s loss=293.767, TAw acc=  1.2% | *
…
>>> Test on task 20 : loss=232.938 | TAw acc= 96.8%, forg=  0.0%| TAg acc= 76.8%, forg=  0.0% <<<
>>> Test on task 21 : loss=250.162 | TAw acc= 97.2%, forg=  0.0%| TAg acc= 76.4%, forg=  0.9% <<<
>>> Test on task 22 : loss=251.549 | TAw acc= 93.2%, forg=  0.0%| TAg acc= 48.3%, forg=  3.4% <<<
>>> Test on task 23 : loss=264.829 | TAw acc= 85.6%, forg=  0.0%| TAg acc= 68.5%, forg=  0.0% <<<
>>> Test on task 24 : loss=281.731 | TAw acc= 92.6%, forg=  0.0%| TAg acc= 42.6%, forg=  0.0% <<<
>>> Test on task 25 : loss=289.829 | TAw acc= 86.4%, forg=  0.0%| TAg acc= 55.5%, forg=  0.0% <<<
Save at k=100/icarl_wisdm_2/wisdm_flex_icarl
======
LLL_Net(
  (model): SimpleMLP(
    (fc1): Linear(in_features=91, out_features=1000, bias=True)
    (fc2): Sequential()
  )
  (heads): ModuleList(
    (0): Linear(in_features=1000, out_features=34, bias=True)
    (1): Linear(in_features=1000, out_features=20, bias=True)
    (2): Linear(in_features=1000, out_features=20, bias=True)
    (3): Linear(in_features=1000, out_features=20, bias=True)
    (4): Linear(in_features=1000, out_features=20, bias=True)
    (5): Linear(in_features=1000, out_features=20, bias=True)
    (6): Linear(in_features=1000, out_features=20, bias=True)
    (7): Linear(in_features=1000, out_features=20, bias=True)
    (8): Linear(in_features=1000, out_features=20, bias=True)
    (9): Linear(in_features=1000, out_features=20, bias=True)
    (10): Linear(in_features=1000, out_features=20, bias=True)
    (11): Linear(in_features=1000, out_features=20, bias=True)
    (12): Linear(in_features=1000, out_features=20, bias=True)
    (13): Linear(in_features=1000, out_features=20, bias=True)
    (14): Linear(in_features=1000, out_features=20, bias=True)
    (15): Linear(in_features=1000, out_features=20, bias=True)
    (16): Linear(in_features=1000, out_features=20, bias=True)
    (17): Linear(in_features=1000, out_features=20, bias=True)
    (18): Linear(in_features=1000, out_features=20, bias=True)
    (19): Linear(in_features=1000, out_features=20, bias=True)
    (20): Linear(in_features=1000, out_features=20, bias=True)
    (21): Linear(in_features=1000, out_features=20, bias=True)
    (22): Linear(in_features=1000, out_features=20, bias=True)
    (23): Linear(in_features=1000, out_features=20, bias=True)
    (24): Linear(in_features=1000, out_features=20, bias=True)
    (25): Linear(in_features=1000, out_features=20, bias=True)
  )
)
======

************************************************************************************************************
Task 26
************************************************************************************************************
| Epoch   1, time= 15.6s | Train: skip eval | Valid: time=  0.3s loss=298.324, TAw acc=  3.0% | *
| Epoch   2, time= 16.3s | Train: skip eval | Valid: time=  0.3s loss=298.285, TAw acc=  3.0% | *
…
>>> Test on task 21 : loss=249.384 | TAw acc= 97.2%, forg=  0.0%| TAg acc= 76.4%, forg=  0.9% <<<
>>> Test on task 22 : loss=250.786 | TAw acc= 93.2%, forg=  0.0%| TAg acc= 48.3%, forg=  3.4% <<<
>>> Test on task 23 : loss=264.103 | TAw acc= 85.6%, forg=  0.0%| TAg acc= 68.5%, forg=  0.0% <<<
>>> Test on task 24 : loss=280.885 | TAw acc= 92.6%, forg=  0.0%| TAg acc= 42.6%, forg=  0.0% <<<
>>> Test on task 25 : loss=289.144 | TAw acc= 86.4%, forg=  0.0%| TAg acc= 55.5%, forg=  0.0% <<<
>>> Test on task 26 : loss=292.173 | TAw acc= 93.5%, forg=  0.0%| TAg acc= 62.4%, forg=  0.0% <<<
Save at k=100/icarl_wisdm_2/wisdm_flex_icarl
======
LLL_Net(
  (model): SimpleMLP(
    (fc1): Linear(in_features=91, out_features=1000, bias=True)
    (fc2): Sequential()
  )
  (heads): ModuleList(
    (0): Linear(in_features=1000, out_features=34, bias=True)
    (1): Linear(in_features=1000, out_features=20, bias=True)
    (2): Linear(in_features=1000, out_features=20, bias=True)
    (3): Linear(in_features=1000, out_features=20, bias=True)
    (4): Linear(in_features=1000, out_features=20, bias=True)
    (5): Linear(in_features=1000, out_features=20, bias=True)
    (6): Linear(in_features=1000, out_features=20, bias=True)
    (7): Linear(in_features=1000, out_features=20, bias=True)
    (8): Linear(in_features=1000, out_features=20, bias=True)
    (9): Linear(in_features=1000, out_features=20, bias=True)
    (10): Linear(in_features=1000, out_features=20, bias=True)
    (11): Linear(in_features=1000, out_features=20, bias=True)
    (12): Linear(in_features=1000, out_features=20, bias=True)
    (13): Linear(in_features=1000, out_features=20, bias=True)
    (14): Linear(in_features=1000, out_features=20, bias=True)
    (15): Linear(in_features=1000, out_features=20, bias=True)
    (16): Linear(in_features=1000, out_features=20, bias=True)
    (17): Linear(in_features=1000, out_features=20, bias=True)
    (18): Linear(in_features=1000, out_features=20, bias=True)
    (19): Linear(in_features=1000, out_features=20, bias=True)
    (20): Linear(in_features=1000, out_features=20, bias=True)
    (21): Linear(in_features=1000, out_features=20, bias=True)
    (22): Linear(in_features=1000, out_features=20, bias=True)
    (23): Linear(in_features=1000, out_features=20, bias=True)
    (24): Linear(in_features=1000, out_features=20, bias=True)
    (25): Linear(in_features=1000, out_features=20, bias=True)
    (26): Linear(in_features=1000, out_features=20, bias=True)
  )
)
======

************************************************************************************************************
Task 27
************************************************************************************************************
| Epoch   1, time= 16.8s | Train: skip eval | Valid: time=  0.3s loss=308.334, TAw acc=  4.3% | *
| Epoch   2, time= 16.7s | Train: skip eval | Valid: time=  0.3s loss=308.285, TAw acc=  5.3% | *
…
>>> Test on task 22 : loss=250.157 | TAw acc= 93.2%, forg=  0.0%| TAg acc= 48.3%, forg=  3.4% <<<
>>> Test on task 23 : loss=263.475 | TAw acc= 85.6%, forg=  0.0%| TAg acc= 68.5%, forg=  0.0% <<<
>>> Test on task 24 : loss=280.127 | TAw acc= 92.6%, forg=  0.0%| TAg acc= 41.8%, forg=  0.8% <<<
>>> Test on task 25 : loss=288.399 | TAw acc= 86.4%, forg=  0.0%| TAg acc= 55.5%, forg=  0.0% <<<
>>> Test on task 26 : loss=291.372 | TAw acc= 93.5%, forg=  0.0%| TAg acc= 62.4%, forg=  0.0% <<<
>>> Test on task 27 : loss=303.084 | TAw acc= 93.5%, forg=  0.0%| TAg acc= 61.3%, forg=  0.0% <<<
Save at k=100/icarl_wisdm_2/wisdm_flex_icarl
======
LLL_Net(
  (model): SimpleMLP(
    (fc1): Linear(in_features=91, out_features=1000, bias=True)
    (fc2): Sequential()
  )
  (heads): ModuleList(
    (0): Linear(in_features=1000, out_features=34, bias=True)
    (1): Linear(in_features=1000, out_features=20, bias=True)
    (2): Linear(in_features=1000, out_features=20, bias=True)
    (3): Linear(in_features=1000, out_features=20, bias=True)
    (4): Linear(in_features=1000, out_features=20, bias=True)
    (5): Linear(in_features=1000, out_features=20, bias=True)
    (6): Linear(in_features=1000, out_features=20, bias=True)
    (7): Linear(in_features=1000, out_features=20, bias=True)
    (8): Linear(in_features=1000, out_features=20, bias=True)
    (9): Linear(in_features=1000, out_features=20, bias=True)
    (10): Linear(in_features=1000, out_features=20, bias=True)
    (11): Linear(in_features=1000, out_features=20, bias=True)
    (12): Linear(in_features=1000, out_features=20, bias=True)
    (13): Linear(in_features=1000, out_features=20, bias=True)
    (14): Linear(in_features=1000, out_features=20, bias=True)
    (15): Linear(in_features=1000, out_features=20, bias=True)
    (16): Linear(in_features=1000, out_features=20, bias=True)
    (17): Linear(in_features=1000, out_features=20, bias=True)
    (18): Linear(in_features=1000, out_features=20, bias=True)
    (19): Linear(in_features=1000, out_features=20, bias=True)
    (20): Linear(in_features=1000, out_features=20, bias=True)
    (21): Linear(in_features=1000, out_features=20, bias=True)
    (22): Linear(in_features=1000, out_features=20, bias=True)
    (23): Linear(in_features=1000, out_features=20, bias=True)
    (24): Linear(in_features=1000, out_features=20, bias=True)
    (25): Linear(in_features=1000, out_features=20, bias=True)
    (26): Linear(in_features=1000, out_features=20, bias=True)
    (27): Linear(in_features=1000, out_features=20, bias=True)
  )
)
======

************************************************************************************************************
Task 28
************************************************************************************************************
| Epoch   1, time= 17.7s | Train: skip eval | Valid: time=  0.3s loss=328.076, TAw acc=  2.5% | *
| Epoch   2, time= 17.7s | Train: skip eval | Valid: time=  0.3s loss=328.039, TAw acc=  3.8% | *
…
>>> Test on task 23 : loss=262.855 | TAw acc= 85.6%, forg=  0.0%| TAg acc= 67.6%, forg=  0.9% <<<
>>> Test on task 24 : loss=279.382 | TAw acc= 92.6%, forg=  0.0%| TAg acc= 41.8%, forg=  0.8% <<<
>>> Test on task 25 : loss=287.625 | TAw acc= 86.4%, forg=  0.0%| TAg acc= 55.5%, forg=  0.0% <<<
>>> Test on task 26 : loss=290.527 | TAw acc= 93.5%, forg=  0.0%| TAg acc= 62.4%, forg=  0.0% <<<
>>> Test on task 27 : loss=302.387 | TAw acc= 93.5%, forg=  0.0%| TAg acc= 60.5%, forg=  0.8% <<<
>>> Test on task 28 : loss=321.626 | TAw acc= 93.5%, forg=  0.0%| TAg acc= 64.5%, forg=  0.0% <<<
Save at k=100/icarl_wisdm_2/wisdm_flex_icarl
======
LLL_Net(
  (model): SimpleMLP(
    (fc1): Linear(in_features=91, out_features=1000, bias=True)
    (fc2): Sequential()
  )
  (heads): ModuleList(
    (0): Linear(in_features=1000, out_features=34, bias=True)
    (1): Linear(in_features=1000, out_features=20, bias=True)
    (2): Linear(in_features=1000, out_features=20, bias=True)
    (3): Linear(in_features=1000, out_features=20, bias=True)
    (4): Linear(in_features=1000, out_features=20, bias=True)
    (5): Linear(in_features=1000, out_features=20, bias=True)
    (6): Linear(in_features=1000, out_features=20, bias=True)
    (7): Linear(in_features=1000, out_features=20, bias=True)
    (8): Linear(in_features=1000, out_features=20, bias=True)
    (9): Linear(in_features=1000, out_features=20, bias=True)
    (10): Linear(in_features=1000, out_features=20, bias=True)
    (11): Linear(in_features=1000, out_features=20, bias=True)
    (12): Linear(in_features=1000, out_features=20, bias=True)
    (13): Linear(in_features=1000, out_features=20, bias=True)
    (14): Linear(in_features=1000, out_features=20, bias=True)
    (15): Linear(in_features=1000, out_features=20, bias=True)
    (16): Linear(in_features=1000, out_features=20, bias=True)
    (17): Linear(in_features=1000, out_features=20, bias=True)
    (18): Linear(in_features=1000, out_features=20, bias=True)
    (19): Linear(in_features=1000, out_features=20, bias=True)
    (20): Linear(in_features=1000, out_features=20, bias=True)
    (21): Linear(in_features=1000, out_features=20, bias=True)
    (22): Linear(in_features=1000, out_features=20, bias=True)
    (23): Linear(in_features=1000, out_features=20, bias=True)
    (24): Linear(in_features=1000, out_features=20, bias=True)
    (25): Linear(in_features=1000, out_features=20, bias=True)
    (26): Linear(in_features=1000, out_features=20, bias=True)
    (27): Linear(in_features=1000, out_features=20, bias=True)
    (28): Linear(in_features=1000, out_features=20, bias=True)
  )
)
======

************************************************************************************************************
Task 29
************************************************************************************************************
| Epoch   1, time= 19.5s | Train: skip eval | Valid: time=  0.3s loss=326.392, TAw acc=  0.0% | *
| Epoch   2, time= 18.5s | Train: skip eval | Valid: time=  0.3s loss=326.349, TAw acc=  0.0% | *
…
>>> Test on task 24 : loss=278.697 | TAw acc= 92.6%, forg=  0.0%| TAg acc= 41.8%, forg=  0.8% <<<
>>> Test on task 25 : loss=286.827 | TAw acc= 86.4%, forg=  0.0%| TAg acc= 55.5%, forg=  0.0% <<<
>>> Test on task 26 : loss=289.790 | TAw acc= 93.5%, forg=  0.0%| TAg acc= 62.4%, forg=  0.0% <<<
>>> Test on task 27 : loss=301.641 | TAw acc= 93.5%, forg=  0.0%| TAg acc= 60.5%, forg=  0.8% <<<
>>> Test on task 28 : loss=320.884 | TAw acc= 93.5%, forg=  0.0%| TAg acc= 61.7%, forg=  2.8% <<<
>>> Test on task 29 : loss=319.400 | TAw acc= 94.1%, forg=  0.0%| TAg acc= 70.6%, forg=  0.0% <<<
Save at k=100/icarl_wisdm_2/wisdm_flex_icarl
======
LLL_Net(
  (model): SimpleMLP(
    (fc1): Linear(in_features=91, out_features=1000, bias=True)
    (fc2): Sequential()
  )
  (heads): ModuleList(
    (0): Linear(in_features=1000, out_features=34, bias=True)
    (1): Linear(in_features=1000, out_features=20, bias=True)
    (2): Linear(in_features=1000, out_features=20, bias=True)
    (3): Linear(in_features=1000, out_features=20, bias=True)
    (4): Linear(in_features=1000, out_features=20, bias=True)
    (5): Linear(in_features=1000, out_features=20, bias=True)
    (6): Linear(in_features=1000, out_features=20, bias=True)
    (7): Linear(in_features=1000, out_features=20, bias=True)
    (8): Linear(in_features=1000, out_features=20, bias=True)
    (9): Linear(in_features=1000, out_features=20, bias=True)
    (10): Linear(in_features=1000, out_features=20, bias=True)
    (11): Linear(in_features=1000, out_features=20, bias=True)
    (12): Linear(in_features=1000, out_features=20, bias=True)
    (13): Linear(in_features=1000, out_features=20, bias=True)
    (14): Linear(in_features=1000, out_features=20, bias=True)
    (15): Linear(in_features=1000, out_features=20, bias=True)
    (16): Linear(in_features=1000, out_features=20, bias=True)
    (17): Linear(in_features=1000, out_features=20, bias=True)
    (18): Linear(in_features=1000, out_features=20, bias=True)
    (19): Linear(in_features=1000, out_features=20, bias=True)
    (20): Linear(in_features=1000, out_features=20, bias=True)
    (21): Linear(in_features=1000, out_features=20, bias=True)
    (22): Linear(in_features=1000, out_features=20, bias=True)
    (23): Linear(in_features=1000, out_features=20, bias=True)
    (24): Linear(in_features=1000, out_features=20, bias=True)
    (25): Linear(in_features=1000, out_features=20, bias=True)
    (26): Linear(in_features=1000, out_features=20, bias=True)
    (27): Linear(in_features=1000, out_features=20, bias=True)
    (28): Linear(in_features=1000, out_features=20, bias=True)
    (29): Linear(in_features=1000, out_features=20, bias=True)
  )
)
======

************************************************************************************************************
Task 30
************************************************************************************************************
| Epoch   1, time= 20.8s | Train: skip eval | Valid: time=  0.3s loss=311.128, TAw acc=  4.7% | *
| Epoch   2, time= 20.0s | Train: skip eval | Valid: time=  0.3s loss=310.999, TAw acc=  4.7% | *
…
>>> Test on task 25 : loss=286.090 | TAw acc= 86.4%, forg=  0.0%| TAg acc= 55.5%, forg=  0.0% <<<
>>> Test on task 26 : loss=289.137 | TAw acc= 93.5%, forg=  0.0%| TAg acc= 62.4%, forg=  0.0% <<<
>>> Test on task 27 : loss=300.857 | TAw acc= 93.5%, forg=  0.0%| TAg acc= 60.5%, forg=  0.8% <<<
>>> Test on task 28 : loss=320.053 | TAw acc= 93.5%, forg=  0.0%| TAg acc= 61.7%, forg=  2.8% <<<
>>> Test on task 29 : loss=318.634 | TAw acc= 94.1%, forg=  0.0%| TAg acc= 70.6%, forg=  0.0% <<<
>>> Test on task 30 : loss=308.530 | TAw acc= 93.0%, forg=  0.0%| TAg acc= 71.1%, forg=  0.0% <<<
Save at k=100/icarl_wisdm_2/wisdm_flex_icarl
======
LLL_Net(
  (model): SimpleMLP(
    (fc1): Linear(in_features=91, out_features=1000, bias=True)
    (fc2): Sequential()
  )
  (heads): ModuleList(
    (0): Linear(in_features=1000, out_features=34, bias=True)
    (1): Linear(in_features=1000, out_features=20, bias=True)
    (2): Linear(in_features=1000, out_features=20, bias=True)
    (3): Linear(in_features=1000, out_features=20, bias=True)
    (4): Linear(in_features=1000, out_features=20, bias=True)
    (5): Linear(in_features=1000, out_features=20, bias=True)
    (6): Linear(in_features=1000, out_features=20, bias=True)
    (7): Linear(in_features=1000, out_features=20, bias=True)
    (8): Linear(in_features=1000, out_features=20, bias=True)
    (9): Linear(in_features=1000, out_features=20, bias=True)
    (10): Linear(in_features=1000, out_features=20, bias=True)
    (11): Linear(in_features=1000, out_features=20, bias=True)
    (12): Linear(in_features=1000, out_features=20, bias=True)
    (13): Linear(in_features=1000, out_features=20, bias=True)
    (14): Linear(in_features=1000, out_features=20, bias=True)
    (15): Linear(in_features=1000, out_features=20, bias=True)
    (16): Linear(in_features=1000, out_features=20, bias=True)
    (17): Linear(in_features=1000, out_features=20, bias=True)
    (18): Linear(in_features=1000, out_features=20, bias=True)
    (19): Linear(in_features=1000, out_features=20, bias=True)
    (20): Linear(in_features=1000, out_features=20, bias=True)
    (21): Linear(in_features=1000, out_features=20, bias=True)
    (22): Linear(in_features=1000, out_features=20, bias=True)
    (23): Linear(in_features=1000, out_features=20, bias=True)
    (24): Linear(in_features=1000, out_features=20, bias=True)
    (25): Linear(in_features=1000, out_features=20, bias=True)
    (26): Linear(in_features=1000, out_features=20, bias=True)
    (27): Linear(in_features=1000, out_features=20, bias=True)
    (28): Linear(in_features=1000, out_features=20, bias=True)
    (29): Linear(in_features=1000, out_features=20, bias=True)
    (30): Linear(in_features=1000, out_features=20, bias=True)
  )
)
======

************************************************************************************************************
Task 31
************************************************************************************************************
| Epoch   1, time= 21.9s | Train: skip eval | Valid: time=  0.3s loss=344.006, TAw acc= 13.0% | *
| Epoch   2, time= 22.0s | Train: skip eval | Valid: time=  0.3s loss=343.948, TAw acc= 14.3% | *
…
>>> Test on task 26 : loss=288.506 | TAw acc= 93.5%, forg=  0.0%| TAg acc= 62.4%, forg=  0.0% <<<
>>> Test on task 27 : loss=300.102 | TAw acc= 93.5%, forg=  0.0%| TAg acc= 60.5%, forg=  0.8% <<<
>>> Test on task 28 : loss=319.192 | TAw acc= 93.5%, forg=  0.0%| TAg acc= 61.7%, forg=  2.8% <<<
>>> Test on task 29 : loss=317.859 | TAw acc= 94.1%, forg=  0.0%| TAg acc= 70.6%, forg=  0.0% <<<
>>> Test on task 30 : loss=307.997 | TAw acc= 93.0%, forg=  0.0%| TAg acc= 71.1%, forg=  0.0% <<<
>>> Test on task 31 : loss=337.005 | TAw acc= 95.2%, forg=  0.0%| TAg acc= 60.0%, forg=  0.0% <<<
Save at k=100/icarl_wisdm_2/wisdm_flex_icarl
======
LLL_Net(
  (model): SimpleMLP(
    (fc1): Linear(in_features=91, out_features=1000, bias=True)
    (fc2): Sequential()
  )
  (heads): ModuleList(
    (0): Linear(in_features=1000, out_features=34, bias=True)
    (1): Linear(in_features=1000, out_features=20, bias=True)
    (2): Linear(in_features=1000, out_features=20, bias=True)
    (3): Linear(in_features=1000, out_features=20, bias=True)
    (4): Linear(in_features=1000, out_features=20, bias=True)
    (5): Linear(in_features=1000, out_features=20, bias=True)
    (6): Linear(in_features=1000, out_features=20, bias=True)
    (7): Linear(in_features=1000, out_features=20, bias=True)
    (8): Linear(in_features=1000, out_features=20, bias=True)
    (9): Linear(in_features=1000, out_features=20, bias=True)
    (10): Linear(in_features=1000, out_features=20, bias=True)
    (11): Linear(in_features=1000, out_features=20, bias=True)
    (12): Linear(in_features=1000, out_features=20, bias=True)
    (13): Linear(in_features=1000, out_features=20, bias=True)
    (14): Linear(in_features=1000, out_features=20, bias=True)
    (15): Linear(in_features=1000, out_features=20, bias=True)
    (16): Linear(in_features=1000, out_features=20, bias=True)
    (17): Linear(in_features=1000, out_features=20, bias=True)
    (18): Linear(in_features=1000, out_features=20, bias=True)
    (19): Linear(in_features=1000, out_features=20, bias=True)
    (20): Linear(in_features=1000, out_features=20, bias=True)
    (21): Linear(in_features=1000, out_features=20, bias=True)
    (22): Linear(in_features=1000, out_features=20, bias=True)
    (23): Linear(in_features=1000, out_features=20, bias=True)
    (24): Linear(in_features=1000, out_features=20, bias=True)
    (25): Linear(in_features=1000, out_features=20, bias=True)
    (26): Linear(in_features=1000, out_features=20, bias=True)
    (27): Linear(in_features=1000, out_features=20, bias=True)
    (28): Linear(in_features=1000, out_features=20, bias=True)
    (29): Linear(in_features=1000, out_features=20, bias=True)
    (30): Linear(in_features=1000, out_features=20, bias=True)
    (31): Linear(in_features=1000, out_features=20, bias=True)
  )
)
======

************************************************************************************************************
Task 32
************************************************************************************************************
| Epoch   1, time= 22.3s | Train: skip eval | Valid: time=  0.3s loss=342.767, TAw acc=  7.7% | *
| Epoch   2, time= 23.3s | Train: skip eval | Valid: time=  0.3s loss=342.709, TAw acc=  7.7% | *
…
>>> Test on task 27 : loss=299.413 | TAw acc= 93.5%, forg=  0.0%| TAg acc= 60.5%, forg=  0.8% <<<
>>> Test on task 28 : loss=318.415 | TAw acc= 93.5%, forg=  0.0%| TAg acc= 61.7%, forg=  2.8% <<<
>>> Test on task 29 : loss=317.132 | TAw acc= 94.1%, forg=  0.0%| TAg acc= 70.6%, forg=  0.0% <<<
>>> Test on task 30 : loss=307.304 | TAw acc= 93.0%, forg=  0.0%| TAg acc= 71.1%, forg=  0.0% <<<
>>> Test on task 31 : loss=336.334 | TAw acc= 95.2%, forg=  0.0%| TAg acc= 60.0%, forg=  0.0% <<<
>>> Test on task 32 : loss=329.723 | TAw acc= 95.3%, forg=  0.0%| TAg acc= 73.8%, forg=  0.0% <<<
Save at k=100/icarl_wisdm_2/wisdm_flex_icarl
======
LLL_Net(
  (model): SimpleMLP(
    (fc1): Linear(in_features=91, out_features=1000, bias=True)
    (fc2): Sequential()
  )
  (heads): ModuleList(
    (0): Linear(in_features=1000, out_features=34, bias=True)
    (1): Linear(in_features=1000, out_features=20, bias=True)
    (2): Linear(in_features=1000, out_features=20, bias=True)
    (3): Linear(in_features=1000, out_features=20, bias=True)
    (4): Linear(in_features=1000, out_features=20, bias=True)
    (5): Linear(in_features=1000, out_features=20, bias=True)
    (6): Linear(in_features=1000, out_features=20, bias=True)
    (7): Linear(in_features=1000, out_features=20, bias=True)
    (8): Linear(in_features=1000, out_features=20, bias=True)
    (9): Linear(in_features=1000, out_features=20, bias=True)
    (10): Linear(in_features=1000, out_features=20, bias=True)
    (11): Linear(in_features=1000, out_features=20, bias=True)
    (12): Linear(in_features=1000, out_features=20, bias=True)
    (13): Linear(in_features=1000, out_features=20, bias=True)
    (14): Linear(in_features=1000, out_features=20, bias=True)
    (15): Linear(in_features=1000, out_features=20, bias=True)
    (16): Linear(in_features=1000, out_features=20, bias=True)
    (17): Linear(in_features=1000, out_features=20, bias=True)
    (18): Linear(in_features=1000, out_features=20, bias=True)
    (19): Linear(in_features=1000, out_features=20, bias=True)
    (20): Linear(in_features=1000, out_features=20, bias=True)
    (21): Linear(in_features=1000, out_features=20, bias=True)
    (22): Linear(in_features=1000, out_features=20, bias=True)
    (23): Linear(in_features=1000, out_features=20, bias=True)
    (24): Linear(in_features=1000, out_features=20, bias=True)
    (25): Linear(in_features=1000, out_features=20, bias=True)
    (26): Linear(in_features=1000, out_features=20, bias=True)
    (27): Linear(in_features=1000, out_features=20, bias=True)
    (28): Linear(in_features=1000, out_features=20, bias=True)
    (29): Linear(in_features=1000, out_features=20, bias=True)
    (30): Linear(in_features=1000, out_features=20, bias=True)
    (31): Linear(in_features=1000, out_features=20, bias=True)
    (32): Linear(in_features=1000, out_features=20, bias=True)
  )
)
======

************************************************************************************************************
Task 33
************************************************************************************************************
| Epoch   1, time= 24.7s | Train: skip eval | Valid: time=  0.3s loss=345.304, TAw acc=  2.4% | *
| Epoch   2, time= 24.8s | Train: skip eval | Valid: time=  0.3s loss=345.235, TAw acc=  4.8% | *
…
>>> Test on task 28 : loss=317.670 | TAw acc= 93.5%, forg=  0.0%| TAg acc= 60.7%, forg=  3.7% <<<
>>> Test on task 29 : loss=316.421 | TAw acc= 94.1%, forg=  0.0%| TAg acc= 69.6%, forg=  1.0% <<<
>>> Test on task 30 : loss=306.634 | TAw acc= 93.0%, forg=  0.0%| TAg acc= 71.1%, forg=  0.0% <<<
>>> Test on task 31 : loss=335.538 | TAw acc= 95.2%, forg=  0.0%| TAg acc= 60.0%, forg=  0.0% <<<
>>> Test on task 32 : loss=329.111 | TAw acc= 95.3%, forg=  0.0%| TAg acc= 73.8%, forg=  0.0% <<<
>>> Test on task 33 : loss=340.848 | TAw acc= 94.6%, forg=  0.0%| TAg acc= 56.2%, forg=  0.0% <<<
Save at k=100/icarl_wisdm_2/wisdm_flex_icarl
======
LLL_Net(
  (model): SimpleMLP(
    (fc1): Linear(in_features=91, out_features=1000, bias=True)
    (fc2): Sequential()
  )
  (heads): ModuleList(
    (0): Linear(in_features=1000, out_features=34, bias=True)
    (1): Linear(in_features=1000, out_features=20, bias=True)
    (2): Linear(in_features=1000, out_features=20, bias=True)
    (3): Linear(in_features=1000, out_features=20, bias=True)
    (4): Linear(in_features=1000, out_features=20, bias=True)
    (5): Linear(in_features=1000, out_features=20, bias=True)
    (6): Linear(in_features=1000, out_features=20, bias=True)
    (7): Linear(in_features=1000, out_features=20, bias=True)
    (8): Linear(in_features=1000, out_features=20, bias=True)
    (9): Linear(in_features=1000, out_features=20, bias=True)
    (10): Linear(in_features=1000, out_features=20, bias=True)
    (11): Linear(in_features=1000, out_features=20, bias=True)
    (12): Linear(in_features=1000, out_features=20, bias=True)
    (13): Linear(in_features=1000, out_features=20, bias=True)
    (14): Linear(in_features=1000, out_features=20, bias=True)
    (15): Linear(in_features=1000, out_features=20, bias=True)
    (16): Linear(in_features=1000, out_features=20, bias=True)
    (17): Linear(in_features=1000, out_features=20, bias=True)
    (18): Linear(in_features=1000, out_features=20, bias=True)
    (19): Linear(in_features=1000, out_features=20, bias=True)
    (20): Linear(in_features=1000, out_features=20, bias=True)
    (21): Linear(in_features=1000, out_features=20, bias=True)
    (22): Linear(in_features=1000, out_features=20, bias=True)
    (23): Linear(in_features=1000, out_features=20, bias=True)
    (24): Linear(in_features=1000, out_features=20, bias=True)
    (25): Linear(in_features=1000, out_features=20, bias=True)
    (26): Linear(in_features=1000, out_features=20, bias=True)
    (27): Linear(in_features=1000, out_features=20, bias=True)
    (28): Linear(in_features=1000, out_features=20, bias=True)
    (29): Linear(in_features=1000, out_features=20, bias=True)
    (30): Linear(in_features=1000, out_features=20, bias=True)
    (31): Linear(in_features=1000, out_features=20, bias=True)
    (32): Linear(in_features=1000, out_features=20, bias=True)
    (33): Linear(in_features=1000, out_features=20, bias=True)
  )
)
======

************************************************************************************************************
Task 34
************************************************************************************************************
| Epoch   1, time= 26.2s | Train: skip eval | Valid: time=  0.3s loss=355.951, TAw acc= 20.0% | *
| Epoch   2, time= 26.2s | Train: skip eval | Valid: time=  0.3s loss=355.882, TAw acc= 20.0% | *
…
>>> Test on task 29 : loss=315.760 | TAw acc= 94.1%, forg=  0.0%| TAg acc= 69.6%, forg=  1.0% <<<
>>> Test on task 30 : loss=305.986 | TAw acc= 93.0%, forg=  0.0%| TAg acc= 70.2%, forg=  0.9% <<<
>>> Test on task 31 : loss=334.708 | TAw acc= 95.2%, forg=  0.0%| TAg acc= 60.0%, forg=  0.0% <<<
>>> Test on task 32 : loss=328.365 | TAw acc= 95.3%, forg=  0.0%| TAg acc= 73.8%, forg=  0.0% <<<
>>> Test on task 33 : loss=340.438 | TAw acc= 94.6%, forg=  0.0%| TAg acc= 55.4%, forg=  0.9% <<<
>>> Test on task 34 : loss=346.276 | TAw acc= 95.1%, forg=  0.0%| TAg acc= 60.8%, forg=  0.0% <<<
Save at k=100/icarl_wisdm_2/wisdm_flex_icarl
======
LLL_Net(
  (model): SimpleMLP(
    (fc1): Linear(in_features=91, out_features=1000, bias=True)
    (fc2): Sequential()
  )
  (heads): ModuleList(
    (0): Linear(in_features=1000, out_features=34, bias=True)
    (1): Linear(in_features=1000, out_features=20, bias=True)
    (2): Linear(in_features=1000, out_features=20, bias=True)
    (3): Linear(in_features=1000, out_features=20, bias=True)
    (4): Linear(in_features=1000, out_features=20, bias=True)
    (5): Linear(in_features=1000, out_features=20, bias=True)
    (6): Linear(in_features=1000, out_features=20, bias=True)
    (7): Linear(in_features=1000, out_features=20, bias=True)
    (8): Linear(in_features=1000, out_features=20, bias=True)
    (9): Linear(in_features=1000, out_features=20, bias=True)
    (10): Linear(in_features=1000, out_features=20, bias=True)
    (11): Linear(in_features=1000, out_features=20, bias=True)
    (12): Linear(in_features=1000, out_features=20, bias=True)
    (13): Linear(in_features=1000, out_features=20, bias=True)
    (14): Linear(in_features=1000, out_features=20, bias=True)
    (15): Linear(in_features=1000, out_features=20, bias=True)
    (16): Linear(in_features=1000, out_features=20, bias=True)
    (17): Linear(in_features=1000, out_features=20, bias=True)
    (18): Linear(in_features=1000, out_features=20, bias=True)
    (19): Linear(in_features=1000, out_features=20, bias=True)
    (20): Linear(in_features=1000, out_features=20, bias=True)
    (21): Linear(in_features=1000, out_features=20, bias=True)
    (22): Linear(in_features=1000, out_features=20, bias=True)
    (23): Linear(in_features=1000, out_features=20, bias=True)
    (24): Linear(in_features=1000, out_features=20, bias=True)
    (25): Linear(in_features=1000, out_features=20, bias=True)
    (26): Linear(in_features=1000, out_features=20, bias=True)
    (27): Linear(in_features=1000, out_features=20, bias=True)
    (28): Linear(in_features=1000, out_features=20, bias=True)
    (29): Linear(in_features=1000, out_features=20, bias=True)
    (30): Linear(in_features=1000, out_features=20, bias=True)
    (31): Linear(in_features=1000, out_features=20, bias=True)
    (32): Linear(in_features=1000, out_features=20, bias=True)
    (33): Linear(in_features=1000, out_features=20, bias=True)
    (34): Linear(in_features=1000, out_features=20, bias=True)
  )
)
======

************************************************************************************************************
Task 35
************************************************************************************************************
| Epoch   1, time= 27.7s | Train: skip eval | Valid: time=  0.3s loss=364.453, TAw acc=  0.0% | *
| Epoch   2, time= 26.5s | Train: skip eval | Valid: time=  0.3s loss=364.364, TAw acc=  0.0% | *
…
>>> Test on task 30 : loss=305.409 | TAw acc= 93.0%, forg=  0.0%| TAg acc= 69.3%, forg=  1.8% <<<
>>> Test on task 31 : loss=333.956 | TAw acc= 95.2%, forg=  0.0%| TAg acc= 60.0%, forg=  0.0% <<<
>>> Test on task 32 : loss=327.682 | TAw acc= 95.3%, forg=  0.0%| TAg acc= 71.0%, forg=  2.8% <<<
>>> Test on task 33 : loss=339.837 | TAw acc= 94.6%, forg=  0.0%| TAg acc= 55.4%, forg=  0.9% <<<
>>> Test on task 34 : loss=345.736 | TAw acc= 95.1%, forg=  0.0%| TAg acc= 60.8%, forg=  0.0% <<<
>>> Test on task 35 : loss=351.768 | TAw acc= 97.2%, forg=  0.0%| TAg acc= 64.5%, forg=  0.0% <<<
Save at k=100/icarl_wisdm_2/wisdm_flex_icarl
======
LLL_Net(
  (model): SimpleMLP(
    (fc1): Linear(in_features=91, out_features=1000, bias=True)
    (fc2): Sequential()
  )
  (heads): ModuleList(
    (0): Linear(in_features=1000, out_features=34, bias=True)
    (1): Linear(in_features=1000, out_features=20, bias=True)
    (2): Linear(in_features=1000, out_features=20, bias=True)
    (3): Linear(in_features=1000, out_features=20, bias=True)
    (4): Linear(in_features=1000, out_features=20, bias=True)
    (5): Linear(in_features=1000, out_features=20, bias=True)
    (6): Linear(in_features=1000, out_features=20, bias=True)
    (7): Linear(in_features=1000, out_features=20, bias=True)
    (8): Linear(in_features=1000, out_features=20, bias=True)
    (9): Linear(in_features=1000, out_features=20, bias=True)
    (10): Linear(in_features=1000, out_features=20, bias=True)
    (11): Linear(in_features=1000, out_features=20, bias=True)
    (12): Linear(in_features=1000, out_features=20, bias=True)
    (13): Linear(in_features=1000, out_features=20, bias=True)
    (14): Linear(in_features=1000, out_features=20, bias=True)
    (15): Linear(in_features=1000, out_features=20, bias=True)
    (16): Linear(in_features=1000, out_features=20, bias=True)
    (17): Linear(in_features=1000, out_features=20, bias=True)
    (18): Linear(in_features=1000, out_features=20, bias=True)
    (19): Linear(in_features=1000, out_features=20, bias=True)
    (20): Linear(in_features=1000, out_features=20, bias=True)
    (21): Linear(in_features=1000, out_features=20, bias=True)
    (22): Linear(in_features=1000, out_features=20, bias=True)
    (23): Linear(in_features=1000, out_features=20, bias=True)
    (24): Linear(in_features=1000, out_features=20, bias=True)
    (25): Linear(in_features=1000, out_features=20, bias=True)
    (26): Linear(in_features=1000, out_features=20, bias=True)
    (27): Linear(in_features=1000, out_features=20, bias=True)
    (28): Linear(in_features=1000, out_features=20, bias=True)
    (29): Linear(in_features=1000, out_features=20, bias=True)
    (30): Linear(in_features=1000, out_features=20, bias=True)
    (31): Linear(in_features=1000, out_features=20, bias=True)
    (32): Linear(in_features=1000, out_features=20, bias=True)
    (33): Linear(in_features=1000, out_features=20, bias=True)
    (34): Linear(in_features=1000, out_features=20, bias=True)
    (35): Linear(in_features=1000, out_features=20, bias=True)
  )
)
======

************************************************************************************************************
Task 36
************************************************************************************************************
| Epoch   1, time= 28.9s | Train: skip eval | Valid: time=  0.4s loss=385.301, TAw acc=  7.4% | *
| Epoch   2, time= 27.7s | Train: skip eval | Valid: time=  0.4s loss=385.249, TAw acc=  8.6% | *
…
>>> Test on task 31 : loss=333.283 | TAw acc= 95.2%, forg=  0.0%| TAg acc= 60.0%, forg=  0.0% <<<
>>> Test on task 32 : loss=327.021 | TAw acc= 95.3%, forg=  0.0%| TAg acc= 70.1%, forg=  3.7% <<<
>>> Test on task 33 : loss=339.217 | TAw acc= 94.6%, forg=  0.0%| TAg acc= 54.5%, forg=  1.8% <<<
>>> Test on task 34 : loss=344.998 | TAw acc= 95.1%, forg=  0.0%| TAg acc= 60.8%, forg=  0.0% <<<
>>> Test on task 35 : loss=351.235 | TAw acc= 97.2%, forg=  0.0%| TAg acc= 64.5%, forg=  0.0% <<<
>>> Test on task 36 : loss=379.310 | TAw acc= 91.8%, forg=  0.0%| TAg acc= 48.2%, forg=  0.0% <<<
Save at k=100/icarl_wisdm_2/wisdm_flex_icarl
======
LLL_Net(
  (model): SimpleMLP(
    (fc1): Linear(in_features=91, out_features=1000, bias=True)
    (fc2): Sequential()
  )
  (heads): ModuleList(
    (0): Linear(in_features=1000, out_features=34, bias=True)
    (1): Linear(in_features=1000, out_features=20, bias=True)
    (2): Linear(in_features=1000, out_features=20, bias=True)
    (3): Linear(in_features=1000, out_features=20, bias=True)
    (4): Linear(in_features=1000, out_features=20, bias=True)
    (5): Linear(in_features=1000, out_features=20, bias=True)
    (6): Linear(in_features=1000, out_features=20, bias=True)
    (7): Linear(in_features=1000, out_features=20, bias=True)
    (8): Linear(in_features=1000, out_features=20, bias=True)
    (9): Linear(in_features=1000, out_features=20, bias=True)
    (10): Linear(in_features=1000, out_features=20, bias=True)
    (11): Linear(in_features=1000, out_features=20, bias=True)
    (12): Linear(in_features=1000, out_features=20, bias=True)
    (13): Linear(in_features=1000, out_features=20, bias=True)
    (14): Linear(in_features=1000, out_features=20, bias=True)
    (15): Linear(in_features=1000, out_features=20, bias=True)
    (16): Linear(in_features=1000, out_features=20, bias=True)
    (17): Linear(in_features=1000, out_features=20, bias=True)
    (18): Linear(in_features=1000, out_features=20, bias=True)
    (19): Linear(in_features=1000, out_features=20, bias=True)
    (20): Linear(in_features=1000, out_features=20, bias=True)
    (21): Linear(in_features=1000, out_features=20, bias=True)
    (22): Linear(in_features=1000, out_features=20, bias=True)
    (23): Linear(in_features=1000, out_features=20, bias=True)
    (24): Linear(in_features=1000, out_features=20, bias=True)
    (25): Linear(in_features=1000, out_features=20, bias=True)
    (26): Linear(in_features=1000, out_features=20, bias=True)
    (27): Linear(in_features=1000, out_features=20, bias=True)
    (28): Linear(in_features=1000, out_features=20, bias=True)
    (29): Linear(in_features=1000, out_features=20, bias=True)
    (30): Linear(in_features=1000, out_features=20, bias=True)
    (31): Linear(in_features=1000, out_features=20, bias=True)
    (32): Linear(in_features=1000, out_features=20, bias=True)
    (33): Linear(in_features=1000, out_features=20, bias=True)
    (34): Linear(in_features=1000, out_features=20, bias=True)
    (35): Linear(in_features=1000, out_features=20, bias=True)
    (36): Linear(in_features=1000, out_features=20, bias=True)
  )
)
======

************************************************************************************************************
Task 37
************************************************************************************************************
| Epoch   1, time= 28.9s | Train: skip eval | Valid: time=  0.3s loss=390.920, TAw acc= 13.8% | *
| Epoch   2, time= 30.0s | Train: skip eval | Valid: time=  0.3s loss=390.879, TAw acc= 13.8% | *
…
>>> Test on task 32 : loss=326.380 | TAw acc= 95.3%, forg=  0.0%| TAg acc= 70.1%, forg=  3.7% <<<
>>> Test on task 33 : loss=338.628 | TAw acc= 94.6%, forg=  0.0%| TAg acc= 54.5%, forg=  1.8% <<<
>>> Test on task 34 : loss=344.237 | TAw acc= 95.1%, forg=  0.0%| TAg acc= 60.8%, forg=  0.0% <<<
>>> Test on task 35 : loss=350.458 | TAw acc= 97.2%, forg=  0.0%| TAg acc= 64.5%, forg=  0.0% <<<
>>> Test on task 36 : loss=378.683 | TAw acc= 91.8%, forg=  0.0%| TAg acc= 46.4%, forg=  1.8% <<<
>>> Test on task 37 : loss=382.361 | TAw acc= 95.6%, forg=  0.0%| TAg acc= 76.9%, forg=  0.0% <<<
Save at k=100/icarl_wisdm_2/wisdm_flex_icarl
======
LLL_Net(
  (model): SimpleMLP(
    (fc1): Linear(in_features=91, out_features=1000, bias=True)
    (fc2): Sequential()
  )
  (heads): ModuleList(
    (0): Linear(in_features=1000, out_features=34, bias=True)
    (1): Linear(in_features=1000, out_features=20, bias=True)
    (2): Linear(in_features=1000, out_features=20, bias=True)
    (3): Linear(in_features=1000, out_features=20, bias=True)
    (4): Linear(in_features=1000, out_features=20, bias=True)
    (5): Linear(in_features=1000, out_features=20, bias=True)
    (6): Linear(in_features=1000, out_features=20, bias=True)
    (7): Linear(in_features=1000, out_features=20, bias=True)
    (8): Linear(in_features=1000, out_features=20, bias=True)
    (9): Linear(in_features=1000, out_features=20, bias=True)
    (10): Linear(in_features=1000, out_features=20, bias=True)
    (11): Linear(in_features=1000, out_features=20, bias=True)
    (12): Linear(in_features=1000, out_features=20, bias=True)
    (13): Linear(in_features=1000, out_features=20, bias=True)
    (14): Linear(in_features=1000, out_features=20, bias=True)
    (15): Linear(in_features=1000, out_features=20, bias=True)
    (16): Linear(in_features=1000, out_features=20, bias=True)
    (17): Linear(in_features=1000, out_features=20, bias=True)
    (18): Linear(in_features=1000, out_features=20, bias=True)
    (19): Linear(in_features=1000, out_features=20, bias=True)
    (20): Linear(in_features=1000, out_features=20, bias=True)
    (21): Linear(in_features=1000, out_features=20, bias=True)
    (22): Linear(in_features=1000, out_features=20, bias=True)
    (23): Linear(in_features=1000, out_features=20, bias=True)
    (24): Linear(in_features=1000, out_features=20, bias=True)
    (25): Linear(in_features=1000, out_features=20, bias=True)
    (26): Linear(in_features=1000, out_features=20, bias=True)
    (27): Linear(in_features=1000, out_features=20, bias=True)
    (28): Linear(in_features=1000, out_features=20, bias=True)
    (29): Linear(in_features=1000, out_features=20, bias=True)
    (30): Linear(in_features=1000, out_features=20, bias=True)
    (31): Linear(in_features=1000, out_features=20, bias=True)
    (32): Linear(in_features=1000, out_features=20, bias=True)
    (33): Linear(in_features=1000, out_features=20, bias=True)
    (34): Linear(in_features=1000, out_features=20, bias=True)
    (35): Linear(in_features=1000, out_features=20, bias=True)
    (36): Linear(in_features=1000, out_features=20, bias=True)
    (37): Linear(in_features=1000, out_features=20, bias=True)
  )
)
======

************************************************************************************************************
Task 38
************************************************************************************************************
| Epoch   1, time= 30.7s | Train: skip eval | Valid: time=  0.3s loss=390.689, TAw acc=  5.1% | *
| Epoch   2, time= 32.0s | Train: skip eval | Valid: time=  0.3s loss=390.625, TAw acc=  3.8% | *
…
>>> Test on task 33 : loss=338.083 | TAw acc= 94.6%, forg=  0.0%| TAg acc= 54.5%, forg=  1.8% <<<
>>> Test on task 34 : loss=343.556 | TAw acc= 95.1%, forg=  0.0%| TAg acc= 60.8%, forg=  0.0% <<<
>>> Test on task 35 : loss=349.748 | TAw acc= 97.2%, forg=  0.0%| TAg acc= 64.5%, forg=  0.0% <<<
>>> Test on task 36 : loss=377.948 | TAw acc= 91.8%, forg=  0.0%| TAg acc= 46.4%, forg=  1.8% <<<
>>> Test on task 37 : loss=381.631 | TAw acc= 95.6%, forg=  0.0%| TAg acc= 76.9%, forg=  0.0% <<<
>>> Test on task 38 : loss=385.835 | TAw acc= 98.1%, forg=  0.0%| TAg acc= 72.9%, forg=  0.0% <<<
Save at k=100/icarl_wisdm_2/wisdm_flex_icarl
======
LLL_Net(
  (model): SimpleMLP(
    (fc1): Linear(in_features=91, out_features=1000, bias=True)
    (fc2): Sequential()
  )
  (heads): ModuleList(
    (0): Linear(in_features=1000, out_features=34, bias=True)
    (1): Linear(in_features=1000, out_features=20, bias=True)
    (2): Linear(in_features=1000, out_features=20, bias=True)
    (3): Linear(in_features=1000, out_features=20, bias=True)
    (4): Linear(in_features=1000, out_features=20, bias=True)
    (5): Linear(in_features=1000, out_features=20, bias=True)
    (6): Linear(in_features=1000, out_features=20, bias=True)
    (7): Linear(in_features=1000, out_features=20, bias=True)
    (8): Linear(in_features=1000, out_features=20, bias=True)
    (9): Linear(in_features=1000, out_features=20, bias=True)
    (10): Linear(in_features=1000, out_features=20, bias=True)
    (11): Linear(in_features=1000, out_features=20, bias=True)
    (12): Linear(in_features=1000, out_features=20, bias=True)
    (13): Linear(in_features=1000, out_features=20, bias=True)
    (14): Linear(in_features=1000, out_features=20, bias=True)
    (15): Linear(in_features=1000, out_features=20, bias=True)
    (16): Linear(in_features=1000, out_features=20, bias=True)
    (17): Linear(in_features=1000, out_features=20, bias=True)
    (18): Linear(in_features=1000, out_features=20, bias=True)
    (19): Linear(in_features=1000, out_features=20, bias=True)
    (20): Linear(in_features=1000, out_features=20, bias=True)
    (21): Linear(in_features=1000, out_features=20, bias=True)
    (22): Linear(in_features=1000, out_features=20, bias=True)
    (23): Linear(in_features=1000, out_features=20, bias=True)
    (24): Linear(in_features=1000, out_features=20, bias=True)
    (25): Linear(in_features=1000, out_features=20, bias=True)
    (26): Linear(in_features=1000, out_features=20, bias=True)
    (27): Linear(in_features=1000, out_features=20, bias=True)
    (28): Linear(in_features=1000, out_features=20, bias=True)
    (29): Linear(in_features=1000, out_features=20, bias=True)
    (30): Linear(in_features=1000, out_features=20, bias=True)
    (31): Linear(in_features=1000, out_features=20, bias=True)
    (32): Linear(in_features=1000, out_features=20, bias=True)
    (33): Linear(in_features=1000, out_features=20, bias=True)
    (34): Linear(in_features=1000, out_features=20, bias=True)
    (35): Linear(in_features=1000, out_features=20, bias=True)
    (36): Linear(in_features=1000, out_features=20, bias=True)
    (37): Linear(in_features=1000, out_features=20, bias=True)
    (38): Linear(in_features=1000, out_features=20, bias=True)
  )
)
======

************************************************************************************************************
Task 39
************************************************************************************************************
| Epoch   1, time= 32.1s | Train: skip eval | Valid: time=  0.4s loss=384.792, TAw acc=  1.2% | *
| Epoch   2, time= 32.1s | Train: skip eval | Valid: time=  0.4s loss=384.698, TAw acc=  3.6% | *
…
>>> Test on task 34 : loss=342.921 | TAw acc= 95.1%, forg=  0.0%| TAg acc= 60.8%, forg=  0.0% <<<
>>> Test on task 35 : loss=349.087 | TAw acc= 97.2%, forg=  0.0%| TAg acc= 64.5%, forg=  0.0% <<<
>>> Test on task 36 : loss=377.190 | TAw acc= 91.8%, forg=  0.0%| TAg acc= 46.4%, forg=  1.8% <<<
>>> Test on task 37 : loss=380.814 | TAw acc= 95.6%, forg=  0.0%| TAg acc= 76.9%, forg=  0.0% <<<
>>> Test on task 38 : loss=385.017 | TAw acc= 98.1%, forg=  0.0%| TAg acc= 72.9%, forg=  0.0% <<<
>>> Test on task 39 : loss=375.068 | TAw acc= 95.5%, forg=  0.0%| TAg acc= 59.8%, forg=  0.0% <<<
Save at k=100/icarl_wisdm_2/wisdm_flex_icarl
======
LLL_Net(
  (model): SimpleMLP(
    (fc1): Linear(in_features=91, out_features=1000, bias=True)
    (fc2): Sequential()
  )
  (heads): ModuleList(
    (0): Linear(in_features=1000, out_features=34, bias=True)
    (1): Linear(in_features=1000, out_features=20, bias=True)
    (2): Linear(in_features=1000, out_features=20, bias=True)
    (3): Linear(in_features=1000, out_features=20, bias=True)
    (4): Linear(in_features=1000, out_features=20, bias=True)
    (5): Linear(in_features=1000, out_features=20, bias=True)
    (6): Linear(in_features=1000, out_features=20, bias=True)
    (7): Linear(in_features=1000, out_features=20, bias=True)
    (8): Linear(in_features=1000, out_features=20, bias=True)
    (9): Linear(in_features=1000, out_features=20, bias=True)
    (10): Linear(in_features=1000, out_features=20, bias=True)
    (11): Linear(in_features=1000, out_features=20, bias=True)
    (12): Linear(in_features=1000, out_features=20, bias=True)
    (13): Linear(in_features=1000, out_features=20, bias=True)
    (14): Linear(in_features=1000, out_features=20, bias=True)
    (15): Linear(in_features=1000, out_features=20, bias=True)
    (16): Linear(in_features=1000, out_features=20, bias=True)
    (17): Linear(in_features=1000, out_features=20, bias=True)
    (18): Linear(in_features=1000, out_features=20, bias=True)
    (19): Linear(in_features=1000, out_features=20, bias=True)
    (20): Linear(in_features=1000, out_features=20, bias=True)
    (21): Linear(in_features=1000, out_features=20, bias=True)
    (22): Linear(in_features=1000, out_features=20, bias=True)
    (23): Linear(in_features=1000, out_features=20, bias=True)
    (24): Linear(in_features=1000, out_features=20, bias=True)
    (25): Linear(in_features=1000, out_features=20, bias=True)
    (26): Linear(in_features=1000, out_features=20, bias=True)
    (27): Linear(in_features=1000, out_features=20, bias=True)
    (28): Linear(in_features=1000, out_features=20, bias=True)
    (29): Linear(in_features=1000, out_features=20, bias=True)
    (30): Linear(in_features=1000, out_features=20, bias=True)
    (31): Linear(in_features=1000, out_features=20, bias=True)
    (32): Linear(in_features=1000, out_features=20, bias=True)
    (33): Linear(in_features=1000, out_features=20, bias=True)
    (34): Linear(in_features=1000, out_features=20, bias=True)
    (35): Linear(in_features=1000, out_features=20, bias=True)
    (36): Linear(in_features=1000, out_features=20, bias=True)
    (37): Linear(in_features=1000, out_features=20, bias=True)
    (38): Linear(in_features=1000, out_features=20, bias=True)
    (39): Linear(in_features=1000, out_features=20, bias=True)
  )
)
======

************************************************************************************************************
Task 40
************************************************************************************************************
| Epoch   1, time= 35.1s | Train: skip eval | Valid: time=  0.4s loss=394.386, TAw acc=  1.1% | *
| Epoch   2, time= 35.4s | Train: skip eval | Valid: time=  0.4s loss=394.288, TAw acc=  2.2% | *
…
>>> Test on task 35 : loss=348.524 | TAw acc= 97.2%, forg=  0.0%| TAg acc= 64.5%, forg=  0.0% <<<
>>> Test on task 36 : loss=376.532 | TAw acc= 91.8%, forg=  0.0%| TAg acc= 46.4%, forg=  1.8% <<<
>>> Test on task 37 : loss=380.017 | TAw acc= 95.6%, forg=  0.0%| TAg acc= 75.8%, forg=  1.1% <<<
>>> Test on task 38 : loss=384.148 | TAw acc= 98.1%, forg=  0.0%| TAg acc= 72.9%, forg=  0.0% <<<
>>> Test on task 39 : loss=374.477 | TAw acc= 95.5%, forg=  0.0%| TAg acc= 59.8%, forg=  0.0% <<<
>>> Test on task 40 : loss=389.589 | TAw acc= 92.6%, forg=  0.0%| TAg acc= 71.3%, forg=  0.0% <<<
Save at k=100/icarl_wisdm_2/wisdm_flex_icarl
======
LLL_Net(
  (model): SimpleMLP(
    (fc1): Linear(in_features=91, out_features=1000, bias=True)
    (fc2): Sequential()
  )
  (heads): ModuleList(
    (0): Linear(in_features=1000, out_features=34, bias=True)
    (1): Linear(in_features=1000, out_features=20, bias=True)
    (2): Linear(in_features=1000, out_features=20, bias=True)
    (3): Linear(in_features=1000, out_features=20, bias=True)
    (4): Linear(in_features=1000, out_features=20, bias=True)
    (5): Linear(in_features=1000, out_features=20, bias=True)
    (6): Linear(in_features=1000, out_features=20, bias=True)
    (7): Linear(in_features=1000, out_features=20, bias=True)
    (8): Linear(in_features=1000, out_features=20, bias=True)
    (9): Linear(in_features=1000, out_features=20, bias=True)
    (10): Linear(in_features=1000, out_features=20, bias=True)
    (11): Linear(in_features=1000, out_features=20, bias=True)
    (12): Linear(in_features=1000, out_features=20, bias=True)
    (13): Linear(in_features=1000, out_features=20, bias=True)
    (14): Linear(in_features=1000, out_features=20, bias=True)
    (15): Linear(in_features=1000, out_features=20, bias=True)
    (16): Linear(in_features=1000, out_features=20, bias=True)
    (17): Linear(in_features=1000, out_features=20, bias=True)
    (18): Linear(in_features=1000, out_features=20, bias=True)
    (19): Linear(in_features=1000, out_features=20, bias=True)
    (20): Linear(in_features=1000, out_features=20, bias=True)
    (21): Linear(in_features=1000, out_features=20, bias=True)
    (22): Linear(in_features=1000, out_features=20, bias=True)
    (23): Linear(in_features=1000, out_features=20, bias=True)
    (24): Linear(in_features=1000, out_features=20, bias=True)
    (25): Linear(in_features=1000, out_features=20, bias=True)
    (26): Linear(in_features=1000, out_features=20, bias=True)
    (27): Linear(in_features=1000, out_features=20, bias=True)
    (28): Linear(in_features=1000, out_features=20, bias=True)
    (29): Linear(in_features=1000, out_features=20, bias=True)
    (30): Linear(in_features=1000, out_features=20, bias=True)
    (31): Linear(in_features=1000, out_features=20, bias=True)
    (32): Linear(in_features=1000, out_features=20, bias=True)
    (33): Linear(in_features=1000, out_features=20, bias=True)
    (34): Linear(in_features=1000, out_features=20, bias=True)
    (35): Linear(in_features=1000, out_features=20, bias=True)
    (36): Linear(in_features=1000, out_features=20, bias=True)
    (37): Linear(in_features=1000, out_features=20, bias=True)
    (38): Linear(in_features=1000, out_features=20, bias=True)
    (39): Linear(in_features=1000, out_features=20, bias=True)
    (40): Linear(in_features=1000, out_features=20, bias=True)
  )
)
======

************************************************************************************************************
Task 41
************************************************************************************************************
| Epoch   1, time= 37.0s | Train: skip eval | Valid: time=  0.4s loss=409.854, TAw acc=  4.8% | *
| Epoch   2, time= 35.3s | Train: skip eval | Valid: time=  0.4s loss=409.783, TAw acc=  6.0% | *
…
>>> Test on task 36 : loss=375.879 | TAw acc= 91.8%, forg=  0.0%| TAg acc= 46.4%, forg=  1.8% <<<
>>> Test on task 37 : loss=379.259 | TAw acc= 95.6%, forg=  0.0%| TAg acc= 75.8%, forg=  1.1% <<<
>>> Test on task 38 : loss=383.333 | TAw acc= 98.1%, forg=  0.0%| TAg acc= 72.9%, forg=  0.0% <<<
>>> Test on task 39 : loss=373.778 | TAw acc= 95.5%, forg=  0.0%| TAg acc= 59.8%, forg=  0.0% <<<
>>> Test on task 40 : loss=389.068 | TAw acc= 92.6%, forg=  0.0%| TAg acc= 71.3%, forg=  0.0% <<<
>>> Test on task 41 : loss=399.358 | TAw acc= 95.5%, forg=  0.0%| TAg acc= 68.8%, forg=  0.0% <<<
Save at k=100/icarl_wisdm_2/wisdm_flex_icarl
======
LLL_Net(
  (model): SimpleMLP(
    (fc1): Linear(in_features=91, out_features=1000, bias=True)
    (fc2): Sequential()
  )
  (heads): ModuleList(
    (0): Linear(in_features=1000, out_features=34, bias=True)
    (1): Linear(in_features=1000, out_features=20, bias=True)
    (2): Linear(in_features=1000, out_features=20, bias=True)
    (3): Linear(in_features=1000, out_features=20, bias=True)
    (4): Linear(in_features=1000, out_features=20, bias=True)
    (5): Linear(in_features=1000, out_features=20, bias=True)
    (6): Linear(in_features=1000, out_features=20, bias=True)
    (7): Linear(in_features=1000, out_features=20, bias=True)
    (8): Linear(in_features=1000, out_features=20, bias=True)
    (9): Linear(in_features=1000, out_features=20, bias=True)
    (10): Linear(in_features=1000, out_features=20, bias=True)
    (11): Linear(in_features=1000, out_features=20, bias=True)
    (12): Linear(in_features=1000, out_features=20, bias=True)
    (13): Linear(in_features=1000, out_features=20, bias=True)
    (14): Linear(in_features=1000, out_features=20, bias=True)
    (15): Linear(in_features=1000, out_features=20, bias=True)
    (16): Linear(in_features=1000, out_features=20, bias=True)
    (17): Linear(in_features=1000, out_features=20, bias=True)
    (18): Linear(in_features=1000, out_features=20, bias=True)
    (19): Linear(in_features=1000, out_features=20, bias=True)
    (20): Linear(in_features=1000, out_features=20, bias=True)
    (21): Linear(in_features=1000, out_features=20, bias=True)
    (22): Linear(in_features=1000, out_features=20, bias=True)
    (23): Linear(in_features=1000, out_features=20, bias=True)
    (24): Linear(in_features=1000, out_features=20, bias=True)
    (25): Linear(in_features=1000, out_features=20, bias=True)
    (26): Linear(in_features=1000, out_features=20, bias=True)
    (27): Linear(in_features=1000, out_features=20, bias=True)
    (28): Linear(in_features=1000, out_features=20, bias=True)
    (29): Linear(in_features=1000, out_features=20, bias=True)
    (30): Linear(in_features=1000, out_features=20, bias=True)
    (31): Linear(in_features=1000, out_features=20, bias=True)
    (32): Linear(in_features=1000, out_features=20, bias=True)
    (33): Linear(in_features=1000, out_features=20, bias=True)
    (34): Linear(in_features=1000, out_features=20, bias=True)
    (35): Linear(in_features=1000, out_features=20, bias=True)
    (36): Linear(in_features=1000, out_features=20, bias=True)
    (37): Linear(in_features=1000, out_features=20, bias=True)
    (38): Linear(in_features=1000, out_features=20, bias=True)
    (39): Linear(in_features=1000, out_features=20, bias=True)
    (40): Linear(in_features=1000, out_features=20, bias=True)
    (41): Linear(in_features=1000, out_features=20, bias=True)
  )
)
======

************************************************************************************************************
Task 42
************************************************************************************************************
| Epoch   1, time= 38.7s | Train: skip eval | Valid: time=  0.4s loss=432.864, TAw acc=  4.9% | *
| Epoch   2, time= 36.9s | Train: skip eval | Valid: time=  0.4s loss=432.805, TAw acc=  4.9% | *
…
>>> Test on task 37 : loss=378.585 | TAw acc= 95.6%, forg=  0.0%| TAg acc= 74.7%, forg=  2.2% <<<
>>> Test on task 38 : loss=382.588 | TAw acc= 98.1%, forg=  0.0%| TAg acc= 72.9%, forg=  0.0% <<<
>>> Test on task 39 : loss=373.103 | TAw acc= 95.5%, forg=  0.0%| TAg acc= 59.8%, forg=  0.0% <<<
>>> Test on task 40 : loss=388.344 | TAw acc= 92.6%, forg=  0.0%| TAg acc= 71.3%, forg=  0.0% <<<
>>> Test on task 41 : loss=398.530 | TAw acc= 95.5%, forg=  0.0%| TAg acc= 67.9%, forg=  0.9% <<<
>>> Test on task 42 : loss=420.145 | TAw acc= 91.0%, forg=  0.0%| TAg acc= 51.4%, forg=  0.0% <<<
Save at k=100/icarl_wisdm_2/wisdm_flex_icarl
======
LLL_Net(
  (model): SimpleMLP(
    (fc1): Linear(in_features=91, out_features=1000, bias=True)
    (fc2): Sequential()
  )
  (heads): ModuleList(
    (0): Linear(in_features=1000, out_features=34, bias=True)
    (1): Linear(in_features=1000, out_features=20, bias=True)
    (2): Linear(in_features=1000, out_features=20, bias=True)
    (3): Linear(in_features=1000, out_features=20, bias=True)
    (4): Linear(in_features=1000, out_features=20, bias=True)
    (5): Linear(in_features=1000, out_features=20, bias=True)
    (6): Linear(in_features=1000, out_features=20, bias=True)
    (7): Linear(in_features=1000, out_features=20, bias=True)
    (8): Linear(in_features=1000, out_features=20, bias=True)
    (9): Linear(in_features=1000, out_features=20, bias=True)
    (10): Linear(in_features=1000, out_features=20, bias=True)
    (11): Linear(in_features=1000, out_features=20, bias=True)
    (12): Linear(in_features=1000, out_features=20, bias=True)
    (13): Linear(in_features=1000, out_features=20, bias=True)
    (14): Linear(in_features=1000, out_features=20, bias=True)
    (15): Linear(in_features=1000, out_features=20, bias=True)
    (16): Linear(in_features=1000, out_features=20, bias=True)
    (17): Linear(in_features=1000, out_features=20, bias=True)
    (18): Linear(in_features=1000, out_features=20, bias=True)
    (19): Linear(in_features=1000, out_features=20, bias=True)
    (20): Linear(in_features=1000, out_features=20, bias=True)
    (21): Linear(in_features=1000, out_features=20, bias=True)
    (22): Linear(in_features=1000, out_features=20, bias=True)
    (23): Linear(in_features=1000, out_features=20, bias=True)
    (24): Linear(in_features=1000, out_features=20, bias=True)
    (25): Linear(in_features=1000, out_features=20, bias=True)
    (26): Linear(in_features=1000, out_features=20, bias=True)
    (27): Linear(in_features=1000, out_features=20, bias=True)
    (28): Linear(in_features=1000, out_features=20, bias=True)
    (29): Linear(in_features=1000, out_features=20, bias=True)
    (30): Linear(in_features=1000, out_features=20, bias=True)
    (31): Linear(in_features=1000, out_features=20, bias=True)
    (32): Linear(in_features=1000, out_features=20, bias=True)
    (33): Linear(in_features=1000, out_features=20, bias=True)
    (34): Linear(in_features=1000, out_features=20, bias=True)
    (35): Linear(in_features=1000, out_features=20, bias=True)
    (36): Linear(in_features=1000, out_features=20, bias=True)
    (37): Linear(in_features=1000, out_features=20, bias=True)
    (38): Linear(in_features=1000, out_features=20, bias=True)
    (39): Linear(in_features=1000, out_features=20, bias=True)
    (40): Linear(in_features=1000, out_features=20, bias=True)
    (41): Linear(in_features=1000, out_features=20, bias=True)
    (42): Linear(in_features=1000, out_features=20, bias=True)
  )
)
======

************************************************************************************************************
Task 43
************************************************************************************************************
| Epoch   1, time= 38.8s | Train: skip eval | Valid: time=  0.4s loss=396.260, TAw acc=  5.6% | *
| Epoch   2, time= 38.9s | Train: skip eval | Valid: time=  0.4s loss=396.123, TAw acc=  5.6% | *
…
