…
| Selected 1458 train exemplars, time=  1.1s
1458
------------------------------------------------------------------------------------------------------------
>>> Test on task  0 : loss=0.338 | TAw acc= 99.3%, forg=  0.0%| TAg acc= 95.8%, forg=  3.5% <<<
>>> Test on task  1 : loss=4.040 | TAw acc=100.0%, forg=  0.0%| TAg acc= 94.2%, forg=  5.8% <<<
>>> Test on task  2 : loss=6.497 | TAw acc= 98.3%, forg=  0.0%| TAg acc= 89.2%, forg=  0.0% <<<
>>> Test on task  3 : loss=8.446 | TAw acc= 98.3%, forg=  0.0%| TAg acc= 85.8%, forg=  0.0% <<<
Save at k=100/icarl_dsads_4/har_flex_icarl
======
LLL_Net(
  (model): SimpleMLP(
    (fc1): Linear(in_features=405, out_features=66, bias=True)
    (fc2): Sequential()
  )
  (heads): ModuleList(
    (0): Linear(in_features=66, out_features=12, bias=True)
    (1): Linear(in_features=66, out_features=10, bias=True)
    (2): Linear(in_features=66, out_features=10, bias=True)
    (3): Linear(in_features=66, out_features=10, bias=True)
  )
)
======

************************************************************************************************************
Task  4
************************************************************************************************************
| Epoch   1, time=  0.9s | Train: skip eval | Valid: time=  0.2s loss=16.399, TAw acc= 32.3% | *
| Epoch   2, time=  0.8s | Train: skip eval | Valid: time=  0.2s loss=13.943, TAw acc= 55.2% | *
…
------------------------------------------------------------------------------------------------------------
>>> Test on task  0 : loss=0.323 | TAw acc= 99.3%, forg=  0.0%| TAg acc= 95.1%, forg=  4.2% <<<
>>> Test on task  1 : loss=3.901 | TAw acc=100.0%, forg=  0.0%| TAg acc= 93.3%, forg=  6.7% <<<
>>> Test on task  2 : loss=6.313 | TAw acc= 98.3%, forg=  0.0%| TAg acc= 89.2%, forg=  0.0% <<<
>>> Test on task  3 : loss=8.149 | TAw acc= 98.3%, forg=  0.0%| TAg acc= 85.0%, forg=  0.8% <<<
>>> Test on task  4 : loss=11.201 | TAw acc=100.0%, forg=  0.0%| TAg acc= 98.3%, forg=  0.0% <<<
Save at k=100/icarl_dsads_4/har_flex_icarl
======
LLL_Net(
  (model): SimpleMLP(
    (fc1): Linear(in_features=405, out_features=66, bias=True)
    (fc2): Sequential()
  )
  (heads): ModuleList(
    (0): Linear(in_features=66, out_features=12, bias=True)
    (1): Linear(in_features=66, out_features=10, bias=True)
    (2): Linear(in_features=66, out_features=10, bias=True)
    (3): Linear(in_features=66, out_features=10, bias=True)
    (4): Linear(in_features=66, out_features=10, bias=True)
  )
)
======

************************************************************************************************************
Task  5
************************************************************************************************************
| Epoch   1, time=  1.2s | Train: skip eval | Valid: time=  0.2s loss=18.308, TAw acc= 34.4% | *
| Epoch   2, time=  1.2s | Train: skip eval | Valid: time=  0.2s loss=15.262, TAw acc= 49.0% | *
…
>>> Test on task  0 : loss=0.319 | TAw acc= 99.3%, forg=  0.0%| TAg acc= 95.1%, forg=  4.2% <<<
>>> Test on task  1 : loss=3.683 | TAw acc=100.0%, forg=  0.0%| TAg acc= 93.3%, forg=  6.7% <<<
>>> Test on task  2 : loss=5.955 | TAw acc= 98.3%, forg=  0.0%| TAg acc= 88.3%, forg=  0.8% <<<
>>> Test on task  3 : loss=7.672 | TAw acc= 98.3%, forg=  0.0%| TAg acc= 85.0%, forg=  0.8% <<<
>>> Test on task  4 : loss=10.796 | TAw acc=100.0%, forg=  0.0%| TAg acc= 98.3%, forg=  0.0% <<<
>>> Test on task  5 : loss=12.488 | TAw acc= 88.3%, forg=  0.0%| TAg acc= 83.3%, forg=  0.0% <<<
Save at k=100/icarl_dsads_4/har_flex_icarl
======
LLL_Net(
  (model): SimpleMLP(
    (fc1): Linear(in_features=405, out_features=66, bias=True)
    (fc2): Sequential()
  )
  (heads): ModuleList(
    (0): Linear(in_features=66, out_features=12, bias=True)
    (1): Linear(in_features=66, out_features=10, bias=True)
    (2): Linear(in_features=66, out_features=10, bias=True)
    (3): Linear(in_features=66, out_features=10, bias=True)
    (4): Linear(in_features=66, out_features=10, bias=True)
    (5): Linear(in_features=66, out_features=10, bias=True)
  )
)
======

************************************************************************************************************
Task  6
************************************************************************************************************
| Epoch   1, time=  1.4s | Train: skip eval | Valid: time=  0.2s loss=20.622, TAw acc= 16.7% | *
| Epoch   2, time=  1.4s | Train: skip eval | Valid: time=  0.2s loss=16.684, TAw acc= 60.4% | *
…
>>> Test on task  1 : loss=3.609 | TAw acc=100.0%, forg=  0.0%| TAg acc= 91.7%, forg=  8.3% <<<
>>> Test on task  2 : loss=5.770 | TAw acc= 98.3%, forg=  0.0%| TAg acc= 88.3%, forg=  0.8% <<<
>>> Test on task  3 : loss=7.473 | TAw acc= 98.3%, forg=  0.0%| TAg acc= 85.0%, forg=  0.8% <<<
>>> Test on task  4 : loss=10.489 | TAw acc=100.0%, forg=  0.0%| TAg acc= 98.3%, forg=  0.0% <<<
>>> Test on task  5 : loss=12.232 | TAw acc= 88.3%, forg=  0.0%| TAg acc= 81.7%, forg=  1.7% <<<
>>> Test on task  6 : loss=13.563 | TAw acc= 88.3%, forg=  0.0%| TAg acc= 71.7%, forg=  0.0% <<<
Save at k=100/icarl_dsads_4/har_flex_icarl
======
LLL_Net(
  (model): SimpleMLP(
    (fc1): Linear(in_features=405, out_features=66, bias=True)
    (fc2): Sequential()
  )
  (heads): ModuleList(
    (0): Linear(in_features=66, out_features=12, bias=True)
    (1): Linear(in_features=66, out_features=10, bias=True)
    (2): Linear(in_features=66, out_features=10, bias=True)
    (3): Linear(in_features=66, out_features=10, bias=True)
    (4): Linear(in_features=66, out_features=10, bias=True)
    (5): Linear(in_features=66, out_features=10, bias=True)
    (6): Linear(in_features=66, out_features=10, bias=True)
  )
)
======

************************************************************************************************************
Task  7
************************************************************************************************************
| Epoch   1, time=  1.8s | Train: skip eval | Valid: time=  0.2s loss=22.672, TAw acc= 28.1% | *
| Epoch   2, time=  1.9s | Train: skip eval | Valid: time=  0.2s loss=18.467, TAw acc= 54.2% | *
…
>>> Test on task  2 : loss=5.574 | TAw acc= 98.3%, forg=  0.0%| TAg acc= 88.3%, forg=  0.8% <<<
>>> Test on task  3 : loss=7.149 | TAw acc= 98.3%, forg=  0.0%| TAg acc= 85.0%, forg=  0.8% <<<
>>> Test on task  4 : loss=10.081 | TAw acc=100.0%, forg=  0.0%| TAg acc= 96.7%, forg=  1.7% <<<
>>> Test on task  5 : loss=11.840 | TAw acc= 88.3%, forg=  0.0%| TAg acc= 81.7%, forg=  1.7% <<<
>>> Test on task  6 : loss=13.093 | TAw acc= 88.3%, forg=  0.0%| TAg acc= 70.0%, forg=  1.7% <<<
>>> Test on task  7 : loss=15.795 | TAw acc= 96.7%, forg=  0.0%| TAg acc= 85.0%, forg=  0.0% <<<
Save at k=100/icarl_dsads_4/har_flex_icarl
======
LLL_Net(
  (model): SimpleMLP(
    (fc1): Linear(in_features=405, out_features=66, bias=True)
    (fc2): Sequential()
  )
  (heads): ModuleList(
    (0): Linear(in_features=66, out_features=12, bias=True)
    (1): Linear(in_features=66, out_features=10, bias=True)
    (2): Linear(in_features=66, out_features=10, bias=True)
    (3): Linear(in_features=66, out_features=10, bias=True)
    (4): Linear(in_features=66, out_features=10, bias=True)
    (5): Linear(in_features=66, out_features=10, bias=True)
    (6): Linear(in_features=66, out_features=10, bias=True)
    (7): Linear(in_features=66, out_features=10, bias=True)
  )
)
======

************************************************************************************************************
Task  8
************************************************************************************************************
| Epoch   1, time=  2.3s | Train: skip eval | Valid: time=  0.2s loss=23.886, TAw acc= 15.6% | *
| Epoch   2, time=  2.3s | Train: skip eval | Valid: time=  0.2s loss=18.624, TAw acc= 55.2% | *
…
>>> Test on task  3 : loss=7.027 | TAw acc= 98.3%, forg=  0.0%| TAg acc= 83.3%, forg=  2.5% <<<
>>> Test on task  4 : loss=9.910 | TAw acc=100.0%, forg=  0.0%| TAg acc= 95.8%, forg=  2.5% <<<
>>> Test on task  5 : loss=11.629 | TAw acc= 88.3%, forg=  0.0%| TAg acc= 80.8%, forg=  2.5% <<<
>>> Test on task  6 : loss=12.820 | TAw acc= 88.3%, forg=  0.0%| TAg acc= 70.0%, forg=  1.7% <<<
>>> Test on task  7 : loss=15.464 | TAw acc= 96.7%, forg=  0.0%| TAg acc= 85.0%, forg=  0.0% <<<
>>> Test on task  8 : loss=16.440 | TAw acc= 98.3%, forg=  0.0%| TAg acc= 95.0%, forg=  0.0% <<<
Save at k=100/icarl_dsads_4/har_flex_icarl
======
LLL_Net(
  (model): SimpleMLP(
    (fc1): Linear(in_features=405, out_features=66, bias=True)
    (fc2): Sequential()
  )
  (heads): ModuleList(
    (0): Linear(in_features=66, out_features=12, bias=True)
    (1): Linear(in_features=66, out_features=10, bias=True)
    (2): Linear(in_features=66, out_features=10, bias=True)
    (3): Linear(in_features=66, out_features=10, bias=True)
    (4): Linear(in_features=66, out_features=10, bias=True)
    (5): Linear(in_features=66, out_features=10, bias=True)
    (6): Linear(in_features=66, out_features=10, bias=True)
    (7): Linear(in_features=66, out_features=10, bias=True)
    (8): Linear(in_features=66, out_features=10, bias=True)
  )
)
======

************************************************************************************************************
Task  9
************************************************************************************************************
| Epoch   1, time=  2.7s | Train: skip eval | Valid: time=  0.2s loss=24.774, TAw acc= 25.0% | *
| Epoch   2, time=  2.7s | Train: skip eval | Valid: time=  0.2s loss=19.689, TAw acc= 49.0% | *
…
>>> Test on task  4 : loss=9.687 | TAw acc=100.0%, forg=  0.0%| TAg acc= 95.0%, forg=  3.3% <<<
>>> Test on task  5 : loss=11.434 | TAw acc= 88.3%, forg=  0.0%| TAg acc= 80.8%, forg=  2.5% <<<
>>> Test on task  6 : loss=12.628 | TAw acc= 88.3%, forg=  0.0%| TAg acc= 68.3%, forg=  3.3% <<<
>>> Test on task  7 : loss=15.159 | TAw acc= 96.7%, forg=  0.0%| TAg acc= 84.2%, forg=  0.8% <<<
>>> Test on task  8 : loss=16.130 | TAw acc= 98.3%, forg=  0.0%| TAg acc= 95.0%, forg=  0.0% <<<
>>> Test on task  9 : loss=16.811 | TAw acc= 92.5%, forg=  0.0%| TAg acc= 79.2%, forg=  0.0% <<<
Save at k=100/icarl_dsads_4/har_flex_icarl
======
LLL_Net(
  (model): SimpleMLP(
    (fc1): Linear(in_features=405, out_features=66, bias=True)
    (fc2): Sequential()
  )
  (heads): ModuleList(
    (0): Linear(in_features=66, out_features=12, bias=True)
    (1): Linear(in_features=66, out_features=10, bias=True)
    (2): Linear(in_features=66, out_features=10, bias=True)
    (3): Linear(in_features=66, out_features=10, bias=True)
    (4): Linear(in_features=66, out_features=10, bias=True)
    (5): Linear(in_features=66, out_features=10, bias=True)
    (6): Linear(in_features=66, out_features=10, bias=True)
    (7): Linear(in_features=66, out_features=10, bias=True)
    (8): Linear(in_features=66, out_features=10, bias=True)
    (9): Linear(in_features=66, out_features=10, bias=True)
  )
)
======

************************************************************************************************************
Task 10
************************************************************************************************************
| Epoch   1, time=  3.1s | Train: skip eval | Valid: time=  0.2s loss=24.765, TAw acc= 20.8% | *
| Epoch   2, time=  3.2s | Train: skip eval | Valid: time=  0.2s loss=19.525, TAw acc= 46.9% | *
…
>>> Test on task  5 : loss=11.169 | TAw acc= 88.3%, forg=  0.0%| TAg acc= 80.8%, forg=  2.5% <<<
>>> Test on task  6 : loss=12.339 | TAw acc= 88.3%, forg=  0.0%| TAg acc= 66.7%, forg=  5.0% <<<
>>> Test on task  7 : loss=14.784 | TAw acc= 96.7%, forg=  0.0%| TAg acc= 84.2%, forg=  0.8% <<<
>>> Test on task  8 : loss=15.701 | TAw acc= 98.3%, forg=  0.0%| TAg acc= 94.2%, forg=  0.8% <<<
>>> Test on task  9 : loss=16.436 | TAw acc= 92.5%, forg=  0.0%| TAg acc= 79.2%, forg=  0.0% <<<
>>> Test on task 10 : loss=17.060 | TAw acc= 98.3%, forg=  0.0%| TAg acc= 85.0%, forg=  0.0% <<<
Save at k=100/icarl_dsads_4/har_flex_icarl
======
LLL_Net(
  (model): SimpleMLP(
    (fc1): Linear(in_features=405, out_features=66, bias=True)
    (fc2): Sequential()
  )
  (heads): ModuleList(
    (0): Linear(in_features=66, out_features=12, bias=True)
    (1): Linear(in_features=66, out_features=10, bias=True)
    (2): Linear(in_features=66, out_features=10, bias=True)
    (3): Linear(in_features=66, out_features=10, bias=True)
    (4): Linear(in_features=66, out_features=10, bias=True)
    (5): Linear(in_features=66, out_features=10, bias=True)
    (6): Linear(in_features=66, out_features=10, bias=True)
    (7): Linear(in_features=66, out_features=10, bias=True)
    (8): Linear(in_features=66, out_features=10, bias=True)
    (9): Linear(in_features=66, out_features=10, bias=True)
    (10): Linear(in_features=66, out_features=10, bias=True)
  )
)
======

************************************************************************************************************
Task 11
************************************************************************************************************
| Epoch   1, time=  3.5s | Train: skip eval | Valid: time=  0.2s loss=26.438, TAw acc= 29.2% | *
| Epoch   2, time=  3.6s | Train: skip eval | Valid: time=  0.2s loss=20.474, TAw acc= 68.8% | *
…
>>> Test on task  6 : loss=12.267 | TAw acc= 88.3%, forg=  0.0%| TAg acc= 65.0%, forg=  6.7% <<<
>>> Test on task  7 : loss=14.538 | TAw acc= 96.7%, forg=  0.0%| TAg acc= 83.3%, forg=  1.7% <<<
>>> Test on task  8 : loss=15.386 | TAw acc= 98.3%, forg=  0.0%| TAg acc= 94.2%, forg=  0.8% <<<
>>> Test on task  9 : loss=16.204 | TAw acc= 92.5%, forg=  0.0%| TAg acc= 78.3%, forg=  0.8% <<<
>>> Test on task 10 : loss=16.725 | TAw acc= 98.3%, forg=  0.0%| TAg acc= 84.2%, forg=  0.8% <<<
>>> Test on task 11 : loss=17.575 | TAw acc= 84.2%, forg=  0.0%| TAg acc= 69.2%, forg=  0.0% <<<
Save at k=100/icarl_dsads_4/har_flex_icarl
======
LLL_Net(
  (model): SimpleMLP(
    (fc1): Linear(in_features=405, out_features=66, bias=True)
    (fc2): Sequential()
  )
  (heads): ModuleList(
    (0): Linear(in_features=66, out_features=12, bias=True)
    (1): Linear(in_features=66, out_features=10, bias=True)
    (2): Linear(in_features=66, out_features=10, bias=True)
    (3): Linear(in_features=66, out_features=10, bias=True)
    (4): Linear(in_features=66, out_features=10, bias=True)
    (5): Linear(in_features=66, out_features=10, bias=True)
    (6): Linear(in_features=66, out_features=10, bias=True)
    (7): Linear(in_features=66, out_features=10, bias=True)
    (8): Linear(in_features=66, out_features=10, bias=True)
    (9): Linear(in_features=66, out_features=10, bias=True)
    (10): Linear(in_features=66, out_features=10, bias=True)
    (11): Linear(in_features=66, out_features=10, bias=True)
  )
)
======

************************************************************************************************************
Task 12
************************************************************************************************************
| Epoch   1, time=  4.4s | Train: skip eval | Valid: time=  0.2s loss=27.345, TAw acc= 30.2% | *
| Epoch   2, time=  4.3s | Train: skip eval | Valid: time=  0.2s loss=20.904, TAw acc= 67.7% | *
…
>>> Test on task  7 : loss=14.235 | TAw acc= 96.7%, forg=  0.0%| TAg acc= 82.5%, forg=  2.5% <<<
>>> Test on task  8 : loss=15.054 | TAw acc= 98.3%, forg=  0.0%| TAg acc= 94.2%, forg=  0.8% <<<
>>> Test on task  9 : loss=15.806 | TAw acc= 92.5%, forg=  0.0%| TAg acc= 78.3%, forg=  0.8% <<<
>>> Test on task 10 : loss=16.357 | TAw acc= 98.3%, forg=  0.0%| TAg acc= 83.3%, forg=  1.7% <<<
>>> Test on task 11 : loss=17.252 | TAw acc= 84.2%, forg=  0.0%| TAg acc= 69.2%, forg=  0.0% <<<
>>> Test on task 12 : loss=18.354 | TAw acc= 95.8%, forg=  0.0%| TAg acc= 84.2%, forg=  0.0% <<<
Save at k=100/icarl_dsads_4/har_flex_icarl
======
LLL_Net(
  (model): SimpleMLP(
    (fc1): Linear(in_features=405, out_features=66, bias=True)
    (fc2): Sequential()
  )
  (heads): ModuleList(
    (0): Linear(in_features=66, out_features=12, bias=True)
    (1): Linear(in_features=66, out_features=10, bias=True)
    (2): Linear(in_features=66, out_features=10, bias=True)
    (3): Linear(in_features=66, out_features=10, bias=True)
    (4): Linear(in_features=66, out_features=10, bias=True)
    (5): Linear(in_features=66, out_features=10, bias=True)
    (6): Linear(in_features=66, out_features=10, bias=True)
    (7): Linear(in_features=66, out_features=10, bias=True)
    (8): Linear(in_features=66, out_features=10, bias=True)
    (9): Linear(in_features=66, out_features=10, bias=True)
    (10): Linear(in_features=66, out_features=10, bias=True)
    (11): Linear(in_features=66, out_features=10, bias=True)
    (12): Linear(in_features=66, out_features=10, bias=True)
  )
)
======

************************************************************************************************************
Task 13
************************************************************************************************************
| Epoch   1, time=  5.0s | Train: skip eval | Valid: time=  0.2s loss=28.508, TAw acc= 34.4% | *
| Epoch   2, time=  4.7s | Train: skip eval | Valid: time=  0.2s loss=21.617, TAw acc= 58.3% | *
…
>>> Test on task  8 : loss=14.841 | TAw acc= 98.3%, forg=  0.0%| TAg acc= 92.5%, forg=  2.5% <<<
>>> Test on task  9 : loss=15.527 | TAw acc= 92.5%, forg=  0.0%| TAg acc= 76.7%, forg=  2.5% <<<
>>> Test on task 10 : loss=16.021 | TAw acc= 98.3%, forg=  0.0%| TAg acc= 83.3%, forg=  1.7% <<<
>>> Test on task 11 : loss=16.925 | TAw acc= 84.2%, forg=  0.0%| TAg acc= 69.2%, forg=  0.0% <<<
>>> Test on task 12 : loss=18.165 | TAw acc= 95.8%, forg=  0.0%| TAg acc= 75.8%, forg=  8.3% <<<
>>> Test on task 13 : loss=19.503 | TAw acc= 98.3%, forg=  0.0%| TAg acc= 72.5%, forg=  0.0% <<<
Save at k=100/icarl_dsads_4/har_flex_icarl
======
LLL_Net(
  (model): SimpleMLP(
    (fc1): Linear(in_features=405, out_features=66, bias=True)
    (fc2): Sequential()
  )
  (heads): ModuleList(
    (0): Linear(in_features=66, out_features=12, bias=True)
    (1): Linear(in_features=66, out_features=10, bias=True)
    (2): Linear(in_features=66, out_features=10, bias=True)
    (3): Linear(in_features=66, out_features=10, bias=True)
    (4): Linear(in_features=66, out_features=10, bias=True)
    (5): Linear(in_features=66, out_features=10, bias=True)
    (6): Linear(in_features=66, out_features=10, bias=True)
    (7): Linear(in_features=66, out_features=10, bias=True)
    (8): Linear(in_features=66, out_features=10, bias=True)
    (9): Linear(in_features=66, out_features=10, bias=True)
    (10): Linear(in_features=66, out_features=10, bias=True)
    (11): Linear(in_features=66, out_features=10, bias=True)
    (12): Linear(in_features=66, out_features=10, bias=True)
    (13): Linear(in_features=66, out_features=10, bias=True)
  )
)
======

************************************************************************************************************
Task 14
************************************************************************************************************
| Epoch   1, time=  5.7s | Train: skip eval | Valid: time=  0.2s loss=29.252, TAw acc= 39.6% | *
| Epoch   2, time=  5.3s | Train: skip eval | Valid: time=  0.2s loss=22.733, TAw acc= 67.7% | *
…
