…
| Selected 420 train exemplars, time=  0.0s
420
------------------------------------------------------------------------------------------------------------
>>> Test on task  0 : loss=0.278 | TAw acc=100.0%, forg=  0.0%| TAg acc= 96.5%, forg=  3.5% <<<
>>> Test on task  1 : loss=0.833 | TAw acc= 97.5%, forg=  0.0%| TAg acc= 72.5%, forg= 24.2% <<<
>>> Test on task  2 : loss=0.797 | TAw acc= 95.8%, forg=  0.8%| TAg acc= 67.5%, forg= 28.3% <<<
>>> Test on task  3 : loss=0.276 | TAw acc=100.0%, forg=  0.0%| TAg acc= 99.2%, forg=  0.0% <<<
Save at k=10/eeil_dsads_5/har_flex_eeil
======
LLL_Net(
  (model): SimpleMLP(
    (fc1): Linear(in_features=405, out_features=66, bias=True)
    (fc2): Sequential()
  )
  (heads): ModuleList(
    (0): Linear(in_features=66, out_features=12, bias=True)
    (1): Linear(in_features=66, out_features=10, bias=True)
    (2): Linear(in_features=66, out_features=10, bias=True)
    (3): Linear(in_features=66, out_features=10, bias=True)
  )
)
======

************************************************************************************************************
Task  4
************************************************************************************************************
| Epoch   1, time=  0.4s | Train: skip eval | Valid: time=  0.2s loss=3.197, TAw acc= 34.4% | *
| Epoch   2, time=  0.4s | Train: skip eval | Valid: time=  0.2s loss=2.082, TAw acc= 43.8% | *
…
------------------------------------------------------------------------------------------------------------
>>> Test on task  0 : loss=0.525 | TAw acc=100.0%, forg=  0.0%| TAg acc= 83.3%, forg= 16.7% <<<
>>> Test on task  1 : loss=0.740 | TAw acc= 97.5%, forg=  0.0%| TAg acc= 77.5%, forg= 19.2% <<<
>>> Test on task  2 : loss=0.895 | TAw acc= 96.7%, forg=  0.0%| TAg acc= 79.2%, forg= 16.7% <<<
>>> Test on task  3 : loss=0.703 | TAw acc=100.0%, forg=  0.0%| TAg acc= 73.3%, forg= 25.8% <<<
>>> Test on task  4 : loss=0.453 | TAw acc=100.0%, forg=  0.0%| TAg acc= 99.2%, forg=  0.0% <<<
Save at k=10/eeil_dsads_5/har_flex_eeil
======
LLL_Net(
  (model): SimpleMLP(
    (fc1): Linear(in_features=405, out_features=66, bias=True)
    (fc2): Sequential()
  )
  (heads): ModuleList(
    (0): Linear(in_features=66, out_features=12, bias=True)
    (1): Linear(in_features=66, out_features=10, bias=True)
    (2): Linear(in_features=66, out_features=10, bias=True)
    (3): Linear(in_features=66, out_features=10, bias=True)
    (4): Linear(in_features=66, out_features=10, bias=True)
  )
)
======

************************************************************************************************************
Task  5
************************************************************************************************************
| Epoch   1, time=  0.4s | Train: skip eval | Valid: time=  0.2s loss=3.248, TAw acc= 31.2% | *
| Epoch   2, time=  0.4s | Train: skip eval | Valid: time=  0.2s loss=1.905, TAw acc= 58.3% | *
…
>>> Test on task  0 : loss=0.484 | TAw acc=100.0%, forg=  0.0%| TAg acc= 84.7%, forg= 15.3% <<<
>>> Test on task  1 : loss=0.837 | TAw acc= 97.5%, forg=  0.0%| TAg acc= 72.5%, forg= 24.2% <<<
>>> Test on task  2 : loss=0.875 | TAw acc= 95.0%, forg=  1.7%| TAg acc= 81.7%, forg= 14.2% <<<
>>> Test on task  3 : loss=0.628 | TAw acc=100.0%, forg=  0.0%| TAg acc= 84.2%, forg= 15.0% <<<
>>> Test on task  4 : loss=0.850 | TAw acc=100.0%, forg=  0.0%| TAg acc= 80.0%, forg= 19.2% <<<
>>> Test on task  5 : loss=0.452 | TAw acc= 95.8%, forg=  0.0%| TAg acc= 93.3%, forg=  0.0% <<<
Save at k=10/eeil_dsads_5/har_flex_eeil
======
LLL_Net(
  (model): SimpleMLP(
    (fc1): Linear(in_features=405, out_features=66, bias=True)
    (fc2): Sequential()
  )
  (heads): ModuleList(
    (0): Linear(in_features=66, out_features=12, bias=True)
    (1): Linear(in_features=66, out_features=10, bias=True)
    (2): Linear(in_features=66, out_features=10, bias=True)
    (3): Linear(in_features=66, out_features=10, bias=True)
    (4): Linear(in_features=66, out_features=10, bias=True)
    (5): Linear(in_features=66, out_features=10, bias=True)
  )
)
======

************************************************************************************************************
Task  6
************************************************************************************************************
| Epoch   1, time=  0.4s | Train: skip eval | Valid: time=  0.2s loss=3.175, TAw acc= 34.4% | *
| Epoch   2, time=  0.4s | Train: skip eval | Valid: time=  0.2s loss=1.918, TAw acc= 63.5% | *
…
>>> Test on task  1 : loss=1.014 | TAw acc= 97.5%, forg=  0.0%| TAg acc= 72.5%, forg= 24.2% <<<
>>> Test on task  2 : loss=0.804 | TAw acc= 95.0%, forg=  1.7%| TAg acc= 85.0%, forg= 10.8% <<<
>>> Test on task  3 : loss=0.735 | TAw acc=100.0%, forg=  0.0%| TAg acc= 80.8%, forg= 18.3% <<<
>>> Test on task  4 : loss=0.795 | TAw acc=100.0%, forg=  0.0%| TAg acc= 87.5%, forg= 11.7% <<<
>>> Test on task  5 : loss=0.982 | TAw acc= 95.8%, forg=  0.0%| TAg acc= 65.0%, forg= 28.3% <<<
>>> Test on task  6 : loss=0.475 | TAw acc= 96.7%, forg=  0.0%| TAg acc= 95.8%, forg=  0.0% <<<
Save at k=10/eeil_dsads_5/har_flex_eeil
======
LLL_Net(
  (model): SimpleMLP(
    (fc1): Linear(in_features=405, out_features=66, bias=True)
    (fc2): Sequential()
  )
  (heads): ModuleList(
    (0): Linear(in_features=66, out_features=12, bias=True)
    (1): Linear(in_features=66, out_features=10, bias=True)
    (2): Linear(in_features=66, out_features=10, bias=True)
    (3): Linear(in_features=66, out_features=10, bias=True)
    (4): Linear(in_features=66, out_features=10, bias=True)
    (5): Linear(in_features=66, out_features=10, bias=True)
    (6): Linear(in_features=66, out_features=10, bias=True)
  )
)
======

************************************************************************************************************
Task  7
************************************************************************************************************
| Epoch   1, time=  0.5s | Train: skip eval | Valid: time=  0.2s loss=3.186, TAw acc= 34.4% | *
| Epoch   2, time=  0.5s | Train: skip eval | Valid: time=  0.3s loss=1.994, TAw acc= 45.8% | *
…
>>> Test on task  2 : loss=0.972 | TAw acc= 96.7%, forg=  0.0%| TAg acc= 74.2%, forg= 21.7% <<<
>>> Test on task  3 : loss=0.928 | TAw acc=100.0%, forg=  0.0%| TAg acc= 65.8%, forg= 33.3% <<<
>>> Test on task  4 : loss=0.807 | TAw acc=100.0%, forg=  0.0%| TAg acc= 86.7%, forg= 12.5% <<<
>>> Test on task  5 : loss=1.092 | TAw acc= 95.8%, forg=  0.0%| TAg acc= 60.0%, forg= 33.3% <<<
>>> Test on task  6 : loss=1.063 | TAw acc= 96.7%, forg=  0.0%| TAg acc= 62.5%, forg= 33.3% <<<
>>> Test on task  7 : loss=0.548 | TAw acc= 96.7%, forg=  0.0%| TAg acc= 95.8%, forg=  0.0% <<<
Save at k=10/eeil_dsads_5/har_flex_eeil
======
LLL_Net(
  (model): SimpleMLP(
    (fc1): Linear(in_features=405, out_features=66, bias=True)
    (fc2): Sequential()
  )
  (heads): ModuleList(
    (0): Linear(in_features=66, out_features=12, bias=True)
    (1): Linear(in_features=66, out_features=10, bias=True)
    (2): Linear(in_features=66, out_features=10, bias=True)
    (3): Linear(in_features=66, out_features=10, bias=True)
    (4): Linear(in_features=66, out_features=10, bias=True)
    (5): Linear(in_features=66, out_features=10, bias=True)
    (6): Linear(in_features=66, out_features=10, bias=True)
    (7): Linear(in_features=66, out_features=10, bias=True)
  )
)
======

************************************************************************************************************
Task  8
************************************************************************************************************
| Epoch   1, time=  0.6s | Train: skip eval | Valid: time=  0.3s loss=3.497, TAw acc= 52.1% | *
| Epoch   2, time=  0.5s | Train: skip eval | Valid: time=  0.2s loss=2.145, TAw acc= 68.8% | *
…
>>> Test on task  3 : loss=0.772 | TAw acc=100.0%, forg=  0.0%| TAg acc= 85.0%, forg= 14.2% <<<
>>> Test on task  4 : loss=0.913 | TAw acc=100.0%, forg=  0.0%| TAg acc= 76.7%, forg= 22.5% <<<
>>> Test on task  5 : loss=0.911 | TAw acc= 95.8%, forg=  0.0%| TAg acc= 74.2%, forg= 19.2% <<<
>>> Test on task  6 : loss=1.078 | TAw acc= 96.7%, forg=  0.0%| TAg acc= 73.3%, forg= 22.5% <<<
>>> Test on task  7 : loss=1.246 | TAw acc= 95.8%, forg=  0.8%| TAg acc= 53.3%, forg= 42.5% <<<
>>> Test on task  8 : loss=0.743 | TAw acc= 95.0%, forg=  0.0%| TAg acc= 91.7%, forg=  0.0% <<<
Save at k=10/eeil_dsads_5/har_flex_eeil
======
LLL_Net(
  (model): SimpleMLP(
    (fc1): Linear(in_features=405, out_features=66, bias=True)
    (fc2): Sequential()
  )
  (heads): ModuleList(
    (0): Linear(in_features=66, out_features=12, bias=True)
    (1): Linear(in_features=66, out_features=10, bias=True)
    (2): Linear(in_features=66, out_features=10, bias=True)
    (3): Linear(in_features=66, out_features=10, bias=True)
    (4): Linear(in_features=66, out_features=10, bias=True)
    (5): Linear(in_features=66, out_features=10, bias=True)
    (6): Linear(in_features=66, out_features=10, bias=True)
    (7): Linear(in_features=66, out_features=10, bias=True)
    (8): Linear(in_features=66, out_features=10, bias=True)
  )
)
======

************************************************************************************************************
Task  9
************************************************************************************************************
| Epoch   1, time=  0.6s | Train: skip eval | Valid: time=  0.2s loss=3.251, TAw acc= 34.4% | *
| Epoch   2, time=  0.6s | Train: skip eval | Valid: time=  0.3s loss=2.268, TAw acc= 54.2% | *
…
>>> Test on task  4 : loss=0.895 | TAw acc= 99.2%, forg=  0.8%| TAg acc= 80.8%, forg= 18.3% <<<
>>> Test on task  5 : loss=1.034 | TAw acc= 95.8%, forg=  0.0%| TAg acc= 70.8%, forg= 22.5% <<<
>>> Test on task  6 : loss=1.048 | TAw acc= 97.5%, forg= -0.8%| TAg acc= 73.3%, forg= 22.5% <<<
>>> Test on task  7 : loss=1.397 | TAw acc= 94.2%, forg=  2.5%| TAg acc= 44.2%, forg= 51.7% <<<
>>> Test on task  8 : loss=1.359 | TAw acc= 93.3%, forg=  1.7%| TAg acc= 61.7%, forg= 30.0% <<<
>>> Test on task  9 : loss=0.729 | TAw acc= 93.3%, forg=  0.0%| TAg acc= 91.7%, forg=  0.0% <<<
Save at k=10/eeil_dsads_5/har_flex_eeil
======
LLL_Net(
  (model): SimpleMLP(
    (fc1): Linear(in_features=405, out_features=66, bias=True)
    (fc2): Sequential()
  )
  (heads): ModuleList(
    (0): Linear(in_features=66, out_features=12, bias=True)
    (1): Linear(in_features=66, out_features=10, bias=True)
    (2): Linear(in_features=66, out_features=10, bias=True)
    (3): Linear(in_features=66, out_features=10, bias=True)
    (4): Linear(in_features=66, out_features=10, bias=True)
    (5): Linear(in_features=66, out_features=10, bias=True)
    (6): Linear(in_features=66, out_features=10, bias=True)
    (7): Linear(in_features=66, out_features=10, bias=True)
    (8): Linear(in_features=66, out_features=10, bias=True)
    (9): Linear(in_features=66, out_features=10, bias=True)
  )
)
======

************************************************************************************************************
Task 10
************************************************************************************************************
| Epoch   1, time=  0.6s | Train: skip eval | Valid: time=  0.2s loss=3.294, TAw acc= 38.5% | *
| Epoch   2, time=  0.7s | Train: skip eval | Valid: time=  0.2s loss=2.167, TAw acc= 63.5% | *
…
>>> Test on task  5 : loss=0.954 | TAw acc= 95.8%, forg=  0.0%| TAg acc= 75.8%, forg= 17.5% <<<
>>> Test on task  6 : loss=1.160 | TAw acc= 97.5%, forg=  0.0%| TAg acc= 63.3%, forg= 32.5% <<<
>>> Test on task  7 : loss=1.211 | TAw acc= 94.2%, forg=  2.5%| TAg acc= 56.7%, forg= 39.2% <<<
>>> Test on task  8 : loss=1.352 | TAw acc= 93.3%, forg=  1.7%| TAg acc= 62.5%, forg= 29.2% <<<
>>> Test on task  9 : loss=1.660 | TAw acc= 93.3%, forg=  0.0%| TAg acc= 37.5%, forg= 54.2% <<<
>>> Test on task 10 : loss=0.830 | TAw acc= 85.0%, forg=  0.0%| TAg acc= 83.3%, forg=  0.0% <<<
Save at k=10/eeil_dsads_5/har_flex_eeil
======
LLL_Net(
  (model): SimpleMLP(
    (fc1): Linear(in_features=405, out_features=66, bias=True)
    (fc2): Sequential()
  )
  (heads): ModuleList(
    (0): Linear(in_features=66, out_features=12, bias=True)
    (1): Linear(in_features=66, out_features=10, bias=True)
    (2): Linear(in_features=66, out_features=10, bias=True)
    (3): Linear(in_features=66, out_features=10, bias=True)
    (4): Linear(in_features=66, out_features=10, bias=True)
    (5): Linear(in_features=66, out_features=10, bias=True)
    (6): Linear(in_features=66, out_features=10, bias=True)
    (7): Linear(in_features=66, out_features=10, bias=True)
    (8): Linear(in_features=66, out_features=10, bias=True)
    (9): Linear(in_features=66, out_features=10, bias=True)
    (10): Linear(in_features=66, out_features=10, bias=True)
  )
)
======

************************************************************************************************************
Task 11
************************************************************************************************************
| Epoch   1, time=  0.7s | Train: skip eval | Valid: time=  0.2s loss=3.679, TAw acc= 42.7% | *
| Epoch   2, time=  0.7s | Train: skip eval | Valid: time=  0.2s loss=1.685, TAw acc= 80.2% | *
…
>>> Test on task  6 : loss=1.085 | TAw acc= 97.5%, forg=  0.0%| TAg acc= 78.3%, forg= 17.5% <<<
>>> Test on task  7 : loss=1.628 | TAw acc= 94.2%, forg=  2.5%| TAg acc= 45.0%, forg= 50.8% <<<
>>> Test on task  8 : loss=1.461 | TAw acc= 93.3%, forg=  1.7%| TAg acc= 57.5%, forg= 34.2% <<<
>>> Test on task  9 : loss=1.752 | TAw acc= 94.2%, forg= -0.8%| TAg acc= 43.3%, forg= 48.3% <<<
>>> Test on task 10 : loss=1.697 | TAw acc= 89.2%, forg= -4.2%| TAg acc= 51.7%, forg= 31.7% <<<
>>> Test on task 11 : loss=0.835 | TAw acc= 88.3%, forg=  0.0%| TAg acc= 85.8%, forg=  0.0% <<<
Save at k=10/eeil_dsads_5/har_flex_eeil
======
LLL_Net(
  (model): SimpleMLP(
    (fc1): Linear(in_features=405, out_features=66, bias=True)
    (fc2): Sequential()
  )
  (heads): ModuleList(
    (0): Linear(in_features=66, out_features=12, bias=True)
    (1): Linear(in_features=66, out_features=10, bias=True)
    (2): Linear(in_features=66, out_features=10, bias=True)
    (3): Linear(in_features=66, out_features=10, bias=True)
    (4): Linear(in_features=66, out_features=10, bias=True)
    (5): Linear(in_features=66, out_features=10, bias=True)
    (6): Linear(in_features=66, out_features=10, bias=True)
    (7): Linear(in_features=66, out_features=10, bias=True)
    (8): Linear(in_features=66, out_features=10, bias=True)
    (9): Linear(in_features=66, out_features=10, bias=True)
    (10): Linear(in_features=66, out_features=10, bias=True)
    (11): Linear(in_features=66, out_features=10, bias=True)
  )
)
======

************************************************************************************************************
Task 12
************************************************************************************************************
| Epoch   1, time=  0.8s | Train: skip eval | Valid: time=  0.3s loss=4.015, TAw acc= 44.8% | *
| Epoch   2, time=  0.7s | Train: skip eval | Valid: time=  0.2s loss=1.833, TAw acc= 71.9% | *
…
>>> Test on task  7 : loss=1.361 | TAw acc= 95.0%, forg=  1.7%| TAg acc= 65.0%, forg= 30.8% <<<
>>> Test on task  8 : loss=1.393 | TAw acc= 93.3%, forg=  1.7%| TAg acc= 65.8%, forg= 25.8% <<<
>>> Test on task  9 : loss=1.638 | TAw acc= 95.0%, forg= -0.8%| TAg acc= 50.0%, forg= 41.7% <<<
>>> Test on task 10 : loss=1.517 | TAw acc= 90.8%, forg= -1.7%| TAg acc= 61.7%, forg= 21.7% <<<
>>> Test on task 11 : loss=1.585 | TAw acc= 94.2%, forg= -5.8%| TAg acc= 40.8%, forg= 45.0% <<<
>>> Test on task 12 : loss=0.771 | TAw acc= 99.2%, forg=  0.0%| TAg acc= 90.0%, forg=  0.0% <<<
Save at k=10/eeil_dsads_5/har_flex_eeil
======
LLL_Net(
  (model): SimpleMLP(
    (fc1): Linear(in_features=405, out_features=66, bias=True)
    (fc2): Sequential()
  )
  (heads): ModuleList(
    (0): Linear(in_features=66, out_features=12, bias=True)
    (1): Linear(in_features=66, out_features=10, bias=True)
    (2): Linear(in_features=66, out_features=10, bias=True)
    (3): Linear(in_features=66, out_features=10, bias=True)
    (4): Linear(in_features=66, out_features=10, bias=True)
    (5): Linear(in_features=66, out_features=10, bias=True)
    (6): Linear(in_features=66, out_features=10, bias=True)
    (7): Linear(in_features=66, out_features=10, bias=True)
    (8): Linear(in_features=66, out_features=10, bias=True)
    (9): Linear(in_features=66, out_features=10, bias=True)
    (10): Linear(in_features=66, out_features=10, bias=True)
    (11): Linear(in_features=66, out_features=10, bias=True)
    (12): Linear(in_features=66, out_features=10, bias=True)
  )
)
======

************************************************************************************************************
Task 13
************************************************************************************************************
| Epoch   1, time=  0.9s | Train: skip eval | Valid: time=  0.2s loss=3.236, TAw acc= 57.3% | *
| Epoch   2, time=  0.8s | Train: skip eval | Valid: time=  0.2s loss=2.044, TAw acc= 74.0% | *
…
>>> Test on task  8 : loss=1.476 | TAw acc= 95.0%, forg=  0.0%| TAg acc= 58.3%, forg= 33.3% <<<
>>> Test on task  9 : loss=1.662 | TAw acc= 94.2%, forg=  0.8%| TAg acc= 48.3%, forg= 43.3% <<<
>>> Test on task 10 : loss=1.605 | TAw acc= 88.3%, forg=  2.5%| TAg acc= 52.5%, forg= 30.8% <<<
>>> Test on task 11 : loss=1.631 | TAw acc= 94.2%, forg=  0.0%| TAg acc= 50.0%, forg= 35.8% <<<
>>> Test on task 12 : loss=1.453 | TAw acc= 96.7%, forg=  2.5%| TAg acc= 54.2%, forg= 35.8% <<<
>>> Test on task 13 : loss=0.708 | TAw acc= 99.2%, forg=  0.0%| TAg acc= 95.8%, forg=  0.0% <<<
Save at k=10/eeil_dsads_5/har_flex_eeil
======
LLL_Net(
  (model): SimpleMLP(
    (fc1): Linear(in_features=405, out_features=66, bias=True)
    (fc2): Sequential()
  )
  (heads): ModuleList(
    (0): Linear(in_features=66, out_features=12, bias=True)
    (1): Linear(in_features=66, out_features=10, bias=True)
    (2): Linear(in_features=66, out_features=10, bias=True)
    (3): Linear(in_features=66, out_features=10, bias=True)
    (4): Linear(in_features=66, out_features=10, bias=True)
    (5): Linear(in_features=66, out_features=10, bias=True)
    (6): Linear(in_features=66, out_features=10, bias=True)
    (7): Linear(in_features=66, out_features=10, bias=True)
    (8): Linear(in_features=66, out_features=10, bias=True)
    (9): Linear(in_features=66, out_features=10, bias=True)
    (10): Linear(in_features=66, out_features=10, bias=True)
    (11): Linear(in_features=66, out_features=10, bias=True)
    (12): Linear(in_features=66, out_features=10, bias=True)
    (13): Linear(in_features=66, out_features=10, bias=True)
  )
)
======

************************************************************************************************************
Task 14
************************************************************************************************************
| Epoch   1, time=  1.5s | Train: skip eval | Valid: time=  0.6s loss=3.216, TAw acc= 31.2% | *
| Epoch   2, time=  2.0s | Train: skip eval | Valid: time=  0.6s loss=2.118, TAw acc= 61.5% | *
…
