…
| Selected 420 train exemplars, time=  0.0s
420
------------------------------------------------------------------------------------------------------------
>>> Test on task  0 : loss=0.850 | TAw acc= 95.8%, forg=  0.0%| TAg acc= 76.4%, forg= 17.4% <<<
>>> Test on task  1 : loss=0.604 | TAw acc= 97.5%, forg=  0.0%| TAg acc= 87.5%, forg= 10.0% <<<
>>> Test on task  2 : loss=0.550 | TAw acc= 98.3%, forg=  0.0%| TAg acc= 95.0%, forg=  3.3% <<<
>>> Test on task  3 : loss=0.378 | TAw acc= 99.2%, forg=  0.0%| TAg acc= 98.3%, forg=  0.0% <<<
Save at k=10/eeil_dsads_5/har_flex_eeil
======
LLL_Net(
  (model): SimpleMLP(
    (fc1): Linear(in_features=405, out_features=66, bias=True)
    (fc2): Sequential()
  )
  (heads): ModuleList(
    (0): Linear(in_features=66, out_features=12, bias=True)
    (1): Linear(in_features=66, out_features=10, bias=True)
    (2): Linear(in_features=66, out_features=10, bias=True)
    (3): Linear(in_features=66, out_features=10, bias=True)
  )
)
======

************************************************************************************************************
Task  4
************************************************************************************************************
| Epoch   1, time=  0.3s | Train: skip eval | Valid: time=  0.2s loss=3.561, TAw acc= 19.8% | *
| Epoch   2, time=  0.4s | Train: skip eval | Valid: time=  0.2s loss=1.983, TAw acc= 37.5% | *
…
------------------------------------------------------------------------------------------------------------
>>> Test on task  0 : loss=0.972 | TAw acc= 95.8%, forg=  0.0%| TAg acc= 74.3%, forg= 19.4% <<<
>>> Test on task  1 : loss=0.849 | TAw acc= 97.5%, forg=  0.0%| TAg acc= 70.8%, forg= 26.7% <<<
>>> Test on task  2 : loss=0.547 | TAw acc= 97.5%, forg=  0.8%| TAg acc= 87.5%, forg= 10.8% <<<
>>> Test on task  3 : loss=1.073 | TAw acc= 99.2%, forg=  0.0%| TAg acc= 60.0%, forg= 38.3% <<<
>>> Test on task  4 : loss=0.601 | TAw acc= 96.7%, forg=  0.0%| TAg acc= 94.2%, forg=  0.0% <<<
Save at k=10/eeil_dsads_5/har_flex_eeil
======
LLL_Net(
  (model): SimpleMLP(
    (fc1): Linear(in_features=405, out_features=66, bias=True)
    (fc2): Sequential()
  )
  (heads): ModuleList(
    (0): Linear(in_features=66, out_features=12, bias=True)
    (1): Linear(in_features=66, out_features=10, bias=True)
    (2): Linear(in_features=66, out_features=10, bias=True)
    (3): Linear(in_features=66, out_features=10, bias=True)
    (4): Linear(in_features=66, out_features=10, bias=True)
  )
)
======

************************************************************************************************************
Task  5
************************************************************************************************************
| Epoch   1, time=  0.4s | Train: skip eval | Valid: time=  0.2s loss=2.986, TAw acc= 38.5% | *
| Epoch   2, time=  0.4s | Train: skip eval | Valid: time=  0.3s loss=1.781, TAw acc= 62.5% | *
…
>>> Test on task  0 : loss=0.845 | TAw acc= 96.5%, forg= -0.7%| TAg acc= 77.1%, forg= 16.7% <<<
>>> Test on task  1 : loss=0.713 | TAw acc= 97.5%, forg=  0.0%| TAg acc= 79.2%, forg= 18.3% <<<
>>> Test on task  2 : loss=0.318 | TAw acc= 97.5%, forg=  0.8%| TAg acc= 95.8%, forg=  2.5% <<<
>>> Test on task  3 : loss=0.699 | TAw acc= 99.2%, forg=  0.0%| TAg acc= 82.5%, forg= 15.8% <<<
>>> Test on task  4 : loss=0.749 | TAw acc= 97.5%, forg= -0.8%| TAg acc= 85.0%, forg=  9.2% <<<
>>> Test on task  5 : loss=0.249 | TAw acc= 97.5%, forg=  0.0%| TAg acc= 97.5%, forg=  0.0% <<<
Save at k=10/eeil_dsads_5/har_flex_eeil
======
LLL_Net(
  (model): SimpleMLP(
    (fc1): Linear(in_features=405, out_features=66, bias=True)
    (fc2): Sequential()
  )
  (heads): ModuleList(
    (0): Linear(in_features=66, out_features=12, bias=True)
    (1): Linear(in_features=66, out_features=10, bias=True)
    (2): Linear(in_features=66, out_features=10, bias=True)
    (3): Linear(in_features=66, out_features=10, bias=True)
    (4): Linear(in_features=66, out_features=10, bias=True)
    (5): Linear(in_features=66, out_features=10, bias=True)
  )
)
======

************************************************************************************************************
Task  6
************************************************************************************************************
| Epoch   1, time=  0.4s | Train: skip eval | Valid: time=  0.2s loss=3.802, TAw acc= 40.6% | *
| Epoch   2, time=  0.4s | Train: skip eval | Valid: time=  0.2s loss=2.022, TAw acc= 66.7% | *
…
>>> Test on task  1 : loss=0.962 | TAw acc= 96.7%, forg=  0.8%| TAg acc= 74.2%, forg= 23.3% <<<
>>> Test on task  2 : loss=0.490 | TAw acc= 98.3%, forg=  0.0%| TAg acc= 84.2%, forg= 14.2% <<<
>>> Test on task  3 : loss=0.678 | TAw acc= 99.2%, forg=  0.0%| TAg acc= 81.7%, forg= 16.7% <<<
>>> Test on task  4 : loss=1.129 | TAw acc= 97.5%, forg=  0.0%| TAg acc= 69.2%, forg= 25.0% <<<
>>> Test on task  5 : loss=0.639 | TAw acc= 97.5%, forg=  0.0%| TAg acc= 85.8%, forg= 11.7% <<<
>>> Test on task  6 : loss=0.843 | TAw acc= 86.7%, forg=  0.0%| TAg acc= 85.8%, forg=  0.0% <<<
Save at k=10/eeil_dsads_5/har_flex_eeil
======
LLL_Net(
  (model): SimpleMLP(
    (fc1): Linear(in_features=405, out_features=66, bias=True)
    (fc2): Sequential()
  )
  (heads): ModuleList(
    (0): Linear(in_features=66, out_features=12, bias=True)
    (1): Linear(in_features=66, out_features=10, bias=True)
    (2): Linear(in_features=66, out_features=10, bias=True)
    (3): Linear(in_features=66, out_features=10, bias=True)
    (4): Linear(in_features=66, out_features=10, bias=True)
    (5): Linear(in_features=66, out_features=10, bias=True)
    (6): Linear(in_features=66, out_features=10, bias=True)
  )
)
======

************************************************************************************************************
Task  7
************************************************************************************************************
| Epoch   1, time=  0.5s | Train: skip eval | Valid: time=  0.2s loss=3.097, TAw acc= 43.8% | *
| Epoch   2, time=  0.5s | Train: skip eval | Valid: time=  0.2s loss=1.763, TAw acc= 54.2% | *
…
>>> Test on task  2 : loss=0.344 | TAw acc= 98.3%, forg=  0.0%| TAg acc= 96.7%, forg=  1.7% <<<
>>> Test on task  3 : loss=0.807 | TAw acc= 99.2%, forg=  0.0%| TAg acc= 79.2%, forg= 19.2% <<<
>>> Test on task  4 : loss=1.069 | TAw acc= 98.3%, forg= -0.8%| TAg acc= 68.3%, forg= 25.8% <<<
>>> Test on task  5 : loss=0.698 | TAw acc= 97.5%, forg=  0.0%| TAg acc= 75.0%, forg= 22.5% <<<
>>> Test on task  6 : loss=1.475 | TAw acc= 86.7%, forg=  0.0%| TAg acc= 56.7%, forg= 29.2% <<<
>>> Test on task  7 : loss=0.636 | TAw acc= 95.0%, forg=  0.0%| TAg acc= 93.3%, forg=  0.0% <<<
Save at k=10/eeil_dsads_5/har_flex_eeil
======
LLL_Net(
  (model): SimpleMLP(
    (fc1): Linear(in_features=405, out_features=66, bias=True)
    (fc2): Sequential()
  )
  (heads): ModuleList(
    (0): Linear(in_features=66, out_features=12, bias=True)
    (1): Linear(in_features=66, out_features=10, bias=True)
    (2): Linear(in_features=66, out_features=10, bias=True)
    (3): Linear(in_features=66, out_features=10, bias=True)
    (4): Linear(in_features=66, out_features=10, bias=True)
    (5): Linear(in_features=66, out_features=10, bias=True)
    (6): Linear(in_features=66, out_features=10, bias=True)
    (7): Linear(in_features=66, out_features=10, bias=True)
  )
)
======

************************************************************************************************************
Task  8
************************************************************************************************************
| Epoch   1, time=  0.6s | Train: skip eval | Valid: time=  0.3s loss=3.993, TAw acc= 14.6% | *
| Epoch   2, time=  0.6s | Train: skip eval | Valid: time=  0.3s loss=2.217, TAw acc= 53.1% | *
…
>>> Test on task  3 : loss=0.759 | TAw acc= 99.2%, forg=  0.0%| TAg acc= 82.5%, forg= 15.8% <<<
>>> Test on task  4 : loss=1.098 | TAw acc= 99.2%, forg= -0.8%| TAg acc= 66.7%, forg= 27.5% <<<
>>> Test on task  5 : loss=0.829 | TAw acc= 97.5%, forg=  0.0%| TAg acc= 74.2%, forg= 23.3% <<<
>>> Test on task  6 : loss=1.699 | TAw acc= 86.7%, forg=  0.0%| TAg acc= 52.5%, forg= 33.3% <<<
>>> Test on task  7 : loss=1.315 | TAw acc= 90.0%, forg=  5.0%| TAg acc= 61.7%, forg= 31.7% <<<
>>> Test on task  8 : loss=0.799 | TAw acc= 93.3%, forg=  0.0%| TAg acc= 85.0%, forg=  0.0% <<<
Save at k=10/eeil_dsads_5/har_flex_eeil
======
LLL_Net(
  (model): SimpleMLP(
    (fc1): Linear(in_features=405, out_features=66, bias=True)
    (fc2): Sequential()
  )
  (heads): ModuleList(
    (0): Linear(in_features=66, out_features=12, bias=True)
    (1): Linear(in_features=66, out_features=10, bias=True)
    (2): Linear(in_features=66, out_features=10, bias=True)
    (3): Linear(in_features=66, out_features=10, bias=True)
    (4): Linear(in_features=66, out_features=10, bias=True)
    (5): Linear(in_features=66, out_features=10, bias=True)
    (6): Linear(in_features=66, out_features=10, bias=True)
    (7): Linear(in_features=66, out_features=10, bias=True)
    (8): Linear(in_features=66, out_features=10, bias=True)
  )
)
======

************************************************************************************************************
Task  9
************************************************************************************************************
| Epoch   1, time=  0.5s | Train: skip eval | Valid: time=  0.2s loss=3.141, TAw acc= 55.2% | *
| Epoch   2, time=  0.6s | Train: skip eval | Valid: time=  0.2s loss=1.641, TAw acc= 79.2% | *
…
>>> Test on task  4 : loss=1.018 | TAw acc= 99.2%, forg=  0.0%| TAg acc= 73.3%, forg= 20.8% <<<
>>> Test on task  5 : loss=0.812 | TAw acc= 97.5%, forg=  0.0%| TAg acc= 81.7%, forg= 15.8% <<<
>>> Test on task  6 : loss=1.690 | TAw acc= 86.7%, forg=  0.0%| TAg acc= 49.2%, forg= 36.7% <<<
>>> Test on task  7 : loss=1.064 | TAw acc= 95.8%, forg= -0.8%| TAg acc= 80.8%, forg= 12.5% <<<
>>> Test on task  8 : loss=1.294 | TAw acc= 91.7%, forg=  1.7%| TAg acc= 55.8%, forg= 29.2% <<<
>>> Test on task  9 : loss=0.431 | TAw acc= 99.2%, forg=  0.0%| TAg acc= 98.3%, forg=  0.0% <<<
Save at k=10/eeil_dsads_5/har_flex_eeil
======
LLL_Net(
  (model): SimpleMLP(
    (fc1): Linear(in_features=405, out_features=66, bias=True)
    (fc2): Sequential()
  )
  (heads): ModuleList(
    (0): Linear(in_features=66, out_features=12, bias=True)
    (1): Linear(in_features=66, out_features=10, bias=True)
    (2): Linear(in_features=66, out_features=10, bias=True)
    (3): Linear(in_features=66, out_features=10, bias=True)
    (4): Linear(in_features=66, out_features=10, bias=True)
    (5): Linear(in_features=66, out_features=10, bias=True)
    (6): Linear(in_features=66, out_features=10, bias=True)
    (7): Linear(in_features=66, out_features=10, bias=True)
    (8): Linear(in_features=66, out_features=10, bias=True)
    (9): Linear(in_features=66, out_features=10, bias=True)
  )
)
======

************************************************************************************************************
Task 10
************************************************************************************************************
| Epoch   1, time=  0.6s | Train: skip eval | Valid: time=  0.2s loss=3.576, TAw acc= 35.4% | *
| Epoch   2, time=  0.6s | Train: skip eval | Valid: time=  0.3s loss=2.262, TAw acc= 57.3% | *
…
>>> Test on task  5 : loss=0.650 | TAw acc= 95.8%, forg=  1.7%| TAg acc= 89.2%, forg=  8.3% <<<
>>> Test on task  6 : loss=1.551 | TAw acc= 86.7%, forg=  0.0%| TAg acc= 62.5%, forg= 23.3% <<<
>>> Test on task  7 : loss=1.082 | TAw acc= 95.8%, forg=  0.0%| TAg acc= 82.5%, forg= 10.8% <<<
>>> Test on task  8 : loss=1.509 | TAw acc= 91.7%, forg=  1.7%| TAg acc= 45.8%, forg= 39.2% <<<
>>> Test on task  9 : loss=0.908 | TAw acc= 99.2%, forg=  0.0%| TAg acc= 75.8%, forg= 22.5% <<<
>>> Test on task 10 : loss=0.662 | TAw acc= 94.2%, forg=  0.0%| TAg acc= 91.7%, forg=  0.0% <<<
Save at k=10/eeil_dsads_5/har_flex_eeil
======
LLL_Net(
  (model): SimpleMLP(
    (fc1): Linear(in_features=405, out_features=66, bias=True)
    (fc2): Sequential()
  )
  (heads): ModuleList(
    (0): Linear(in_features=66, out_features=12, bias=True)
    (1): Linear(in_features=66, out_features=10, bias=True)
    (2): Linear(in_features=66, out_features=10, bias=True)
    (3): Linear(in_features=66, out_features=10, bias=True)
    (4): Linear(in_features=66, out_features=10, bias=True)
    (5): Linear(in_features=66, out_features=10, bias=True)
    (6): Linear(in_features=66, out_features=10, bias=True)
    (7): Linear(in_features=66, out_features=10, bias=True)
    (8): Linear(in_features=66, out_features=10, bias=True)
    (9): Linear(in_features=66, out_features=10, bias=True)
    (10): Linear(in_features=66, out_features=10, bias=True)
  )
)
======

************************************************************************************************************
Task 11
************************************************************************************************************
| Epoch   1, time=  0.7s | Train: skip eval | Valid: time=  0.2s loss=3.484, TAw acc= 33.3% | *
| Epoch   2, time=  0.7s | Train: skip eval | Valid: time=  0.2s loss=1.588, TAw acc= 81.2% | *
…
>>> Test on task  6 : loss=1.461 | TAw acc= 87.5%, forg= -0.8%| TAg acc= 65.8%, forg= 20.0% <<<
>>> Test on task  7 : loss=0.920 | TAw acc= 95.8%, forg=  0.0%| TAg acc= 85.0%, forg=  8.3% <<<
>>> Test on task  8 : loss=1.093 | TAw acc= 90.0%, forg=  3.3%| TAg acc= 69.2%, forg= 15.8% <<<
>>> Test on task  9 : loss=0.722 | TAw acc= 99.2%, forg=  0.0%| TAg acc= 80.0%, forg= 18.3% <<<
>>> Test on task 10 : loss=0.999 | TAw acc= 96.7%, forg= -2.5%| TAg acc= 70.0%, forg= 21.7% <<<
>>> Test on task 11 : loss=0.192 | TAw acc=100.0%, forg=  0.0%| TAg acc= 99.2%, forg=  0.0% <<<
Save at k=10/eeil_dsads_5/har_flex_eeil
======
LLL_Net(
  (model): SimpleMLP(
    (fc1): Linear(in_features=405, out_features=66, bias=True)
    (fc2): Sequential()
  )
  (heads): ModuleList(
    (0): Linear(in_features=66, out_features=12, bias=True)
    (1): Linear(in_features=66, out_features=10, bias=True)
    (2): Linear(in_features=66, out_features=10, bias=True)
    (3): Linear(in_features=66, out_features=10, bias=True)
    (4): Linear(in_features=66, out_features=10, bias=True)
    (5): Linear(in_features=66, out_features=10, bias=True)
    (6): Linear(in_features=66, out_features=10, bias=True)
    (7): Linear(in_features=66, out_features=10, bias=True)
    (8): Linear(in_features=66, out_features=10, bias=True)
    (9): Linear(in_features=66, out_features=10, bias=True)
    (10): Linear(in_features=66, out_features=10, bias=True)
    (11): Linear(in_features=66, out_features=10, bias=True)
  )
)
======

************************************************************************************************************
Task 12
************************************************************************************************************
| Epoch   1, time=  0.7s | Train: skip eval | Valid: time=  0.3s loss=3.918, TAw acc= 36.5% | *
| Epoch   2, time=  0.8s | Train: skip eval | Valid: time=  0.2s loss=2.475, TAw acc= 52.1% | *
…
>>> Test on task  7 : loss=0.896 | TAw acc= 95.8%, forg=  0.0%| TAg acc= 88.3%, forg=  5.0% <<<
>>> Test on task  8 : loss=1.310 | TAw acc= 90.8%, forg=  2.5%| TAg acc= 60.0%, forg= 25.0% <<<
>>> Test on task  9 : loss=0.584 | TAw acc= 99.2%, forg=  0.0%| TAg acc= 86.7%, forg= 11.7% <<<
>>> Test on task 10 : loss=1.277 | TAw acc= 96.7%, forg=  0.0%| TAg acc= 51.7%, forg= 40.0% <<<
>>> Test on task 11 : loss=0.456 | TAw acc=100.0%, forg=  0.0%| TAg acc= 88.3%, forg= 10.8% <<<
>>> Test on task 12 : loss=0.794 | TAw acc= 92.5%, forg=  0.0%| TAg acc= 87.5%, forg=  0.0% <<<
Save at k=10/eeil_dsads_5/har_flex_eeil
======
LLL_Net(
  (model): SimpleMLP(
    (fc1): Linear(in_features=405, out_features=66, bias=True)
    (fc2): Sequential()
  )
  (heads): ModuleList(
    (0): Linear(in_features=66, out_features=12, bias=True)
    (1): Linear(in_features=66, out_features=10, bias=True)
    (2): Linear(in_features=66, out_features=10, bias=True)
    (3): Linear(in_features=66, out_features=10, bias=True)
    (4): Linear(in_features=66, out_features=10, bias=True)
    (5): Linear(in_features=66, out_features=10, bias=True)
    (6): Linear(in_features=66, out_features=10, bias=True)
    (7): Linear(in_features=66, out_features=10, bias=True)
    (8): Linear(in_features=66, out_features=10, bias=True)
    (9): Linear(in_features=66, out_features=10, bias=True)
    (10): Linear(in_features=66, out_features=10, bias=True)
    (11): Linear(in_features=66, out_features=10, bias=True)
    (12): Linear(in_features=66, out_features=10, bias=True)
  )
)
======

************************************************************************************************************
Task 13
************************************************************************************************************
| Epoch   1, time=  0.8s | Train: skip eval | Valid: time=  0.2s loss=2.700, TAw acc= 43.8% | *
| Epoch   2, time=  0.8s | Train: skip eval | Valid: time=  0.2s loss=1.918, TAw acc= 71.9% | *
…
>>> Test on task  8 : loss=1.326 | TAw acc= 90.8%, forg=  2.5%| TAg acc= 62.5%, forg= 22.5% <<<
>>> Test on task  9 : loss=0.595 | TAw acc= 99.2%, forg=  0.0%| TAg acc= 84.2%, forg= 14.2% <<<
>>> Test on task 10 : loss=1.132 | TAw acc= 97.5%, forg= -0.8%| TAg acc= 63.3%, forg= 28.3% <<<
>>> Test on task 11 : loss=0.375 | TAw acc=100.0%, forg=  0.0%| TAg acc= 95.8%, forg=  3.3% <<<
>>> Test on task 12 : loss=1.460 | TAw acc= 90.8%, forg=  1.7%| TAg acc= 57.5%, forg= 30.0% <<<
>>> Test on task 13 : loss=0.866 | TAw acc= 94.2%, forg=  0.0%| TAg acc= 82.5%, forg=  0.0% <<<
Save at k=10/eeil_dsads_5/har_flex_eeil
======
LLL_Net(
  (model): SimpleMLP(
    (fc1): Linear(in_features=405, out_features=66, bias=True)
    (fc2): Sequential()
  )
  (heads): ModuleList(
    (0): Linear(in_features=66, out_features=12, bias=True)
    (1): Linear(in_features=66, out_features=10, bias=True)
    (2): Linear(in_features=66, out_features=10, bias=True)
    (3): Linear(in_features=66, out_features=10, bias=True)
    (4): Linear(in_features=66, out_features=10, bias=True)
    (5): Linear(in_features=66, out_features=10, bias=True)
    (6): Linear(in_features=66, out_features=10, bias=True)
    (7): Linear(in_features=66, out_features=10, bias=True)
    (8): Linear(in_features=66, out_features=10, bias=True)
    (9): Linear(in_features=66, out_features=10, bias=True)
    (10): Linear(in_features=66, out_features=10, bias=True)
    (11): Linear(in_features=66, out_features=10, bias=True)
    (12): Linear(in_features=66, out_features=10, bias=True)
    (13): Linear(in_features=66, out_features=10, bias=True)
  )
)
======

************************************************************************************************************
Task 14
************************************************************************************************************
| Epoch   1, time=  0.8s | Train: skip eval | Valid: time=  0.3s loss=3.395, TAw acc= 27.1% | *
| Epoch   2, time=  0.9s | Train: skip eval | Valid: time=  0.2s loss=1.545, TAw acc= 88.5% | *
…
