…
| Selected 420 train exemplars, time=  0.0s
420
------------------------------------------------------------------------------------------------------------
>>> Test on task  0 : loss=0.758 | TAw acc= 94.4%, forg=  1.4%| TAg acc= 82.6%, forg= 13.2% <<<
>>> Test on task  1 : loss=0.644 | TAw acc= 97.5%, forg=  0.0%| TAg acc= 89.2%, forg=  6.7% <<<
>>> Test on task  2 : loss=0.753 | TAw acc= 99.2%, forg=  0.0%| TAg acc= 84.2%, forg= 15.0% <<<
>>> Test on task  3 : loss=0.445 | TAw acc= 96.7%, forg=  0.0%| TAg acc= 94.2%, forg=  0.0% <<<
Save at k=10/eeil_dsads_1/har_flex_eeil
======
LLL_Net(
  (model): SimpleMLP(
    (fc1): Linear(in_features=405, out_features=66, bias=True)
    (fc2): Sequential()
  )
  (heads): ModuleList(
    (0): Linear(in_features=66, out_features=12, bias=True)
    (1): Linear(in_features=66, out_features=10, bias=True)
    (2): Linear(in_features=66, out_features=10, bias=True)
    (3): Linear(in_features=66, out_features=10, bias=True)
  )
)
======

************************************************************************************************************
Task  4
************************************************************************************************************
| Epoch   1, time=  0.3s | Train: skip eval | Valid: time=  0.2s loss=3.794, TAw acc= 19.8% | *
| Epoch   2, time=  0.3s | Train: skip eval | Valid: time=  0.2s loss=1.919, TAw acc= 79.2% | *
…
------------------------------------------------------------------------------------------------------------
>>> Test on task  0 : loss=0.939 | TAw acc= 95.8%, forg=  0.0%| TAg acc= 76.4%, forg= 19.4% <<<
>>> Test on task  1 : loss=0.688 | TAw acc= 96.7%, forg=  0.8%| TAg acc= 77.5%, forg= 18.3% <<<
>>> Test on task  2 : loss=0.827 | TAw acc= 99.2%, forg=  0.0%| TAg acc= 75.0%, forg= 24.2% <<<
>>> Test on task  3 : loss=0.892 | TAw acc= 95.8%, forg=  0.8%| TAg acc= 71.7%, forg= 22.5% <<<
>>> Test on task  4 : loss=0.337 | TAw acc= 99.2%, forg=  0.0%| TAg acc= 97.5%, forg=  0.0% <<<
Save at k=10/eeil_dsads_1/har_flex_eeil
======
LLL_Net(
  (model): SimpleMLP(
    (fc1): Linear(in_features=405, out_features=66, bias=True)
    (fc2): Sequential()
  )
  (heads): ModuleList(
    (0): Linear(in_features=66, out_features=12, bias=True)
    (1): Linear(in_features=66, out_features=10, bias=True)
    (2): Linear(in_features=66, out_features=10, bias=True)
    (3): Linear(in_features=66, out_features=10, bias=True)
    (4): Linear(in_features=66, out_features=10, bias=True)
  )
)
======

************************************************************************************************************
Task  5
************************************************************************************************************
| Epoch   1, time=  0.3s | Train: skip eval | Valid: time=  0.2s loss=3.536, TAw acc= 47.9% | *
| Epoch   2, time=  0.4s | Train: skip eval | Valid: time=  0.2s loss=1.848, TAw acc= 59.4% | *
…
>>> Test on task  0 : loss=1.019 | TAw acc= 96.5%, forg= -0.7%| TAg acc= 77.1%, forg= 18.8% <<<
>>> Test on task  1 : loss=0.721 | TAw acc= 97.5%, forg=  0.0%| TAg acc= 83.3%, forg= 12.5% <<<
>>> Test on task  2 : loss=0.954 | TAw acc= 99.2%, forg=  0.0%| TAg acc= 72.5%, forg= 26.7% <<<
>>> Test on task  3 : loss=0.941 | TAw acc= 96.7%, forg=  0.0%| TAg acc= 73.3%, forg= 20.8% <<<
>>> Test on task  4 : loss=0.884 | TAw acc= 98.3%, forg=  0.8%| TAg acc= 75.0%, forg= 22.5% <<<
>>> Test on task  5 : loss=0.546 | TAw acc= 92.5%, forg=  0.0%| TAg acc= 89.2%, forg=  0.0% <<<
Save at k=10/eeil_dsads_1/har_flex_eeil
======
LLL_Net(
  (model): SimpleMLP(
    (fc1): Linear(in_features=405, out_features=66, bias=True)
    (fc2): Sequential()
  )
  (heads): ModuleList(
    (0): Linear(in_features=66, out_features=12, bias=True)
    (1): Linear(in_features=66, out_features=10, bias=True)
    (2): Linear(in_features=66, out_features=10, bias=True)
    (3): Linear(in_features=66, out_features=10, bias=True)
    (4): Linear(in_features=66, out_features=10, bias=True)
    (5): Linear(in_features=66, out_features=10, bias=True)
  )
)
======

************************************************************************************************************
Task  6
************************************************************************************************************
| Epoch   1, time=  0.3s | Train: skip eval | Valid: time=  0.2s loss=3.290, TAw acc= 36.5% | *
| Epoch   2, time=  0.4s | Train: skip eval | Valid: time=  0.2s loss=1.739, TAw acc= 72.9% | *
…
>>> Test on task  1 : loss=0.749 | TAw acc= 96.7%, forg=  0.8%| TAg acc= 82.5%, forg= 13.3% <<<
>>> Test on task  2 : loss=0.688 | TAw acc= 99.2%, forg=  0.0%| TAg acc= 87.5%, forg= 11.7% <<<
>>> Test on task  3 : loss=0.818 | TAw acc= 96.7%, forg=  0.0%| TAg acc= 80.8%, forg= 13.3% <<<
>>> Test on task  4 : loss=0.804 | TAw acc= 98.3%, forg=  0.8%| TAg acc= 75.0%, forg= 22.5% <<<
>>> Test on task  5 : loss=1.075 | TAw acc= 94.2%, forg= -1.7%| TAg acc= 71.7%, forg= 17.5% <<<
>>> Test on task  6 : loss=0.366 | TAw acc= 98.3%, forg=  0.0%| TAg acc= 95.8%, forg=  0.0% <<<
Save at k=10/eeil_dsads_1/har_flex_eeil
======
LLL_Net(
  (model): SimpleMLP(
    (fc1): Linear(in_features=405, out_features=66, bias=True)
    (fc2): Sequential()
  )
  (heads): ModuleList(
    (0): Linear(in_features=66, out_features=12, bias=True)
    (1): Linear(in_features=66, out_features=10, bias=True)
    (2): Linear(in_features=66, out_features=10, bias=True)
    (3): Linear(in_features=66, out_features=10, bias=True)
    (4): Linear(in_features=66, out_features=10, bias=True)
    (5): Linear(in_features=66, out_features=10, bias=True)
    (6): Linear(in_features=66, out_features=10, bias=True)
  )
)
======

************************************************************************************************************
Task  7
************************************************************************************************************
| Epoch   1, time=  0.4s | Train: skip eval | Valid: time=  0.2s loss=3.167, TAw acc= 38.5% | *
| Epoch   2, time=  0.4s | Train: skip eval | Valid: time=  0.2s loss=1.859, TAw acc= 64.6% | *
…
>>> Test on task  2 : loss=0.784 | TAw acc= 99.2%, forg=  0.0%| TAg acc= 84.2%, forg= 15.0% <<<
>>> Test on task  3 : loss=0.904 | TAw acc= 96.7%, forg=  0.0%| TAg acc= 84.2%, forg= 10.0% <<<
>>> Test on task  4 : loss=0.885 | TAw acc= 98.3%, forg=  0.8%| TAg acc= 76.7%, forg= 20.8% <<<
>>> Test on task  5 : loss=1.085 | TAw acc= 95.8%, forg= -1.7%| TAg acc= 68.3%, forg= 20.8% <<<
>>> Test on task  6 : loss=0.975 | TAw acc= 97.5%, forg=  0.8%| TAg acc= 74.2%, forg= 21.7% <<<
>>> Test on task  7 : loss=0.569 | TAw acc= 94.2%, forg=  0.0%| TAg acc= 90.0%, forg=  0.0% <<<
Save at k=10/eeil_dsads_1/har_flex_eeil
======
LLL_Net(
  (model): SimpleMLP(
    (fc1): Linear(in_features=405, out_features=66, bias=True)
    (fc2): Sequential()
  )
  (heads): ModuleList(
    (0): Linear(in_features=66, out_features=12, bias=True)
    (1): Linear(in_features=66, out_features=10, bias=True)
    (2): Linear(in_features=66, out_features=10, bias=True)
    (3): Linear(in_features=66, out_features=10, bias=True)
    (4): Linear(in_features=66, out_features=10, bias=True)
    (5): Linear(in_features=66, out_features=10, bias=True)
    (6): Linear(in_features=66, out_features=10, bias=True)
    (7): Linear(in_features=66, out_features=10, bias=True)
  )
)
======

************************************************************************************************************
Task  8
************************************************************************************************************
| Epoch   1, time=  0.4s | Train: skip eval | Valid: time=  0.2s loss=2.947, TAw acc= 43.8% | *
| Epoch   2, time=  0.4s | Train: skip eval | Valid: time=  0.2s loss=1.862, TAw acc= 57.3% | *
…
>>> Test on task  3 : loss=0.878 | TAw acc= 98.3%, forg= -1.7%| TAg acc= 79.2%, forg= 15.0% <<<
>>> Test on task  4 : loss=0.787 | TAw acc= 98.3%, forg=  0.8%| TAg acc= 80.8%, forg= 16.7% <<<
>>> Test on task  5 : loss=1.117 | TAw acc= 95.8%, forg=  0.0%| TAg acc= 64.2%, forg= 25.0% <<<
>>> Test on task  6 : loss=0.821 | TAw acc= 97.5%, forg=  0.8%| TAg acc= 81.7%, forg= 14.2% <<<
>>> Test on task  7 : loss=0.986 | TAw acc= 95.8%, forg= -1.7%| TAg acc= 77.5%, forg= 12.5% <<<
>>> Test on task  8 : loss=0.498 | TAw acc= 98.3%, forg=  0.0%| TAg acc= 95.0%, forg=  0.0% <<<
Save at k=10/eeil_dsads_1/har_flex_eeil
======
LLL_Net(
  (model): SimpleMLP(
    (fc1): Linear(in_features=405, out_features=66, bias=True)
    (fc2): Sequential()
  )
  (heads): ModuleList(
    (0): Linear(in_features=66, out_features=12, bias=True)
    (1): Linear(in_features=66, out_features=10, bias=True)
    (2): Linear(in_features=66, out_features=10, bias=True)
    (3): Linear(in_features=66, out_features=10, bias=True)
    (4): Linear(in_features=66, out_features=10, bias=True)
    (5): Linear(in_features=66, out_features=10, bias=True)
    (6): Linear(in_features=66, out_features=10, bias=True)
    (7): Linear(in_features=66, out_features=10, bias=True)
    (8): Linear(in_features=66, out_features=10, bias=True)
  )
)
======

************************************************************************************************************
Task  9
************************************************************************************************************
| Epoch   1, time=  0.5s | Train: skip eval | Valid: time=  0.2s loss=3.195, TAw acc= 54.2% | *
| Epoch   2, time=  0.5s | Train: skip eval | Valid: time=  0.2s loss=1.604, TAw acc= 63.5% | *
…
>>> Test on task  4 : loss=0.766 | TAw acc= 98.3%, forg=  0.8%| TAg acc= 78.3%, forg= 19.2% <<<
>>> Test on task  5 : loss=1.171 | TAw acc= 96.7%, forg= -0.8%| TAg acc= 55.8%, forg= 33.3% <<<
>>> Test on task  6 : loss=0.838 | TAw acc= 97.5%, forg=  0.8%| TAg acc= 78.3%, forg= 17.5% <<<
>>> Test on task  7 : loss=1.079 | TAw acc= 94.2%, forg=  1.7%| TAg acc= 64.2%, forg= 25.8% <<<
>>> Test on task  8 : loss=0.988 | TAw acc= 98.3%, forg=  0.0%| TAg acc= 76.7%, forg= 18.3% <<<
>>> Test on task  9 : loss=0.551 | TAw acc= 98.3%, forg=  0.0%| TAg acc= 92.5%, forg=  0.0% <<<
Save at k=10/eeil_dsads_1/har_flex_eeil
======
LLL_Net(
  (model): SimpleMLP(
    (fc1): Linear(in_features=405, out_features=66, bias=True)
    (fc2): Sequential()
  )
  (heads): ModuleList(
    (0): Linear(in_features=66, out_features=12, bias=True)
    (1): Linear(in_features=66, out_features=10, bias=True)
    (2): Linear(in_features=66, out_features=10, bias=True)
    (3): Linear(in_features=66, out_features=10, bias=True)
    (4): Linear(in_features=66, out_features=10, bias=True)
    (5): Linear(in_features=66, out_features=10, bias=True)
    (6): Linear(in_features=66, out_features=10, bias=True)
    (7): Linear(in_features=66, out_features=10, bias=True)
    (8): Linear(in_features=66, out_features=10, bias=True)
    (9): Linear(in_features=66, out_features=10, bias=True)
  )
)
======

************************************************************************************************************
Task 10
************************************************************************************************************
| Epoch   1, time=  0.6s | Train: skip eval | Valid: time=  0.2s loss=2.898, TAw acc= 34.4% | *
| Epoch   2, time=  0.6s | Train: skip eval | Valid: time=  0.2s loss=1.989, TAw acc= 68.8% | *
…
>>> Test on task  5 : loss=0.960 | TAw acc= 96.7%, forg=  0.0%| TAg acc= 77.5%, forg= 11.7% <<<
>>> Test on task  6 : loss=0.788 | TAw acc= 97.5%, forg=  0.8%| TAg acc= 84.2%, forg= 11.7% <<<
>>> Test on task  7 : loss=1.091 | TAw acc= 95.8%, forg=  0.0%| TAg acc= 72.5%, forg= 17.5% <<<
>>> Test on task  8 : loss=1.226 | TAw acc= 97.5%, forg=  0.8%| TAg acc= 67.5%, forg= 27.5% <<<
>>> Test on task  9 : loss=1.092 | TAw acc= 98.3%, forg=  0.0%| TAg acc= 76.7%, forg= 15.8% <<<
>>> Test on task 10 : loss=0.770 | TAw acc= 90.8%, forg=  0.0%| TAg acc= 87.5%, forg=  0.0% <<<
Save at k=10/eeil_dsads_1/har_flex_eeil
======
LLL_Net(
  (model): SimpleMLP(
    (fc1): Linear(in_features=405, out_features=66, bias=True)
    (fc2): Sequential()
  )
  (heads): ModuleList(
    (0): Linear(in_features=66, out_features=12, bias=True)
    (1): Linear(in_features=66, out_features=10, bias=True)
    (2): Linear(in_features=66, out_features=10, bias=True)
    (3): Linear(in_features=66, out_features=10, bias=True)
    (4): Linear(in_features=66, out_features=10, bias=True)
    (5): Linear(in_features=66, out_features=10, bias=True)
    (6): Linear(in_features=66, out_features=10, bias=True)
    (7): Linear(in_features=66, out_features=10, bias=True)
    (8): Linear(in_features=66, out_features=10, bias=True)
    (9): Linear(in_features=66, out_features=10, bias=True)
    (10): Linear(in_features=66, out_features=10, bias=True)
  )
)
======

************************************************************************************************************
Task 11
************************************************************************************************************
| Epoch   1, time=  0.6s | Train: skip eval | Valid: time=  0.2s loss=3.723, TAw acc= 36.5% | *
| Epoch   2, time=  0.6s | Train: skip eval | Valid: time=  0.2s loss=1.857, TAw acc= 76.0% | *
…
>>> Test on task  6 : loss=0.950 | TAw acc= 97.5%, forg=  0.8%| TAg acc= 75.8%, forg= 20.0% <<<
>>> Test on task  7 : loss=1.189 | TAw acc= 95.8%, forg=  0.0%| TAg acc= 69.2%, forg= 20.8% <<<
>>> Test on task  8 : loss=1.064 | TAw acc= 97.5%, forg=  0.8%| TAg acc= 76.7%, forg= 18.3% <<<
>>> Test on task  9 : loss=1.022 | TAw acc= 97.5%, forg=  0.8%| TAg acc= 71.7%, forg= 20.8% <<<
>>> Test on task 10 : loss=1.413 | TAw acc= 92.5%, forg= -1.7%| TAg acc= 50.0%, forg= 37.5% <<<
>>> Test on task 11 : loss=0.633 | TAw acc= 95.0%, forg=  0.0%| TAg acc= 90.0%, forg=  0.0% <<<
Save at k=10/eeil_dsads_1/har_flex_eeil
======
LLL_Net(
  (model): SimpleMLP(
    (fc1): Linear(in_features=405, out_features=66, bias=True)
    (fc2): Sequential()
  )
  (heads): ModuleList(
    (0): Linear(in_features=66, out_features=12, bias=True)
    (1): Linear(in_features=66, out_features=10, bias=True)
    (2): Linear(in_features=66, out_features=10, bias=True)
    (3): Linear(in_features=66, out_features=10, bias=True)
    (4): Linear(in_features=66, out_features=10, bias=True)
    (5): Linear(in_features=66, out_features=10, bias=True)
    (6): Linear(in_features=66, out_features=10, bias=True)
    (7): Linear(in_features=66, out_features=10, bias=True)
    (8): Linear(in_features=66, out_features=10, bias=True)
    (9): Linear(in_features=66, out_features=10, bias=True)
    (10): Linear(in_features=66, out_features=10, bias=True)
    (11): Linear(in_features=66, out_features=10, bias=True)
  )
)
======

************************************************************************************************************
Task 12
************************************************************************************************************
| Epoch   1, time=  0.7s | Train: skip eval | Valid: time=  0.2s loss=3.502, TAw acc= 56.2% | *
| Epoch   2, time=  0.7s | Train: skip eval | Valid: time=  0.2s loss=1.810, TAw acc= 76.0% | *
…
>>> Test on task  7 : loss=1.096 | TAw acc= 95.8%, forg=  0.0%| TAg acc= 68.3%, forg= 21.7% <<<
>>> Test on task  8 : loss=1.113 | TAw acc= 97.5%, forg=  0.8%| TAg acc= 70.8%, forg= 24.2% <<<
>>> Test on task  9 : loss=1.091 | TAw acc= 97.5%, forg=  0.8%| TAg acc= 66.7%, forg= 25.8% <<<
>>> Test on task 10 : loss=1.332 | TAw acc= 93.3%, forg= -0.8%| TAg acc= 58.3%, forg= 29.2% <<<
>>> Test on task 11 : loss=1.212 | TAw acc= 97.5%, forg= -2.5%| TAg acc= 60.0%, forg= 30.0% <<<
>>> Test on task 12 : loss=0.669 | TAw acc= 91.7%, forg=  0.0%| TAg acc= 85.8%, forg=  0.0% <<<
Save at k=10/eeil_dsads_1/har_flex_eeil
======
LLL_Net(
  (model): SimpleMLP(
    (fc1): Linear(in_features=405, out_features=66, bias=True)
    (fc2): Sequential()
  )
  (heads): ModuleList(
    (0): Linear(in_features=66, out_features=12, bias=True)
    (1): Linear(in_features=66, out_features=10, bias=True)
    (2): Linear(in_features=66, out_features=10, bias=True)
    (3): Linear(in_features=66, out_features=10, bias=True)
    (4): Linear(in_features=66, out_features=10, bias=True)
    (5): Linear(in_features=66, out_features=10, bias=True)
    (6): Linear(in_features=66, out_features=10, bias=True)
    (7): Linear(in_features=66, out_features=10, bias=True)
    (8): Linear(in_features=66, out_features=10, bias=True)
    (9): Linear(in_features=66, out_features=10, bias=True)
    (10): Linear(in_features=66, out_features=10, bias=True)
    (11): Linear(in_features=66, out_features=10, bias=True)
    (12): Linear(in_features=66, out_features=10, bias=True)
  )
)
======

************************************************************************************************************
Task 13
************************************************************************************************************
| Epoch   1, time=  0.9s | Train: skip eval | Valid: time=  0.2s loss=2.777, TAw acc= 25.0% | *
| Epoch   2, time=  0.8s | Train: skip eval | Valid: time=  0.2s loss=2.040, TAw acc= 80.2% | *
…
>>> Test on task  8 : loss=1.117 | TAw acc= 98.3%, forg=  0.0%| TAg acc= 73.3%, forg= 21.7% <<<
>>> Test on task  9 : loss=0.961 | TAw acc= 98.3%, forg=  0.0%| TAg acc= 74.2%, forg= 18.3% <<<
>>> Test on task 10 : loss=1.287 | TAw acc= 94.2%, forg= -0.8%| TAg acc= 61.7%, forg= 25.8% <<<
>>> Test on task 11 : loss=1.148 | TAw acc= 98.3%, forg= -0.8%| TAg acc= 62.5%, forg= 27.5% <<<
>>> Test on task 12 : loss=1.231 | TAw acc= 92.5%, forg= -0.8%| TAg acc= 60.0%, forg= 25.8% <<<
>>> Test on task 13 : loss=0.627 | TAw acc= 97.5%, forg=  0.0%| TAg acc= 95.0%, forg=  0.0% <<<
Save at k=10/eeil_dsads_1/har_flex_eeil
======
LLL_Net(
  (model): SimpleMLP(
    (fc1): Linear(in_features=405, out_features=66, bias=True)
    (fc2): Sequential()
  )
  (heads): ModuleList(
    (0): Linear(in_features=66, out_features=12, bias=True)
    (1): Linear(in_features=66, out_features=10, bias=True)
    (2): Linear(in_features=66, out_features=10, bias=True)
    (3): Linear(in_features=66, out_features=10, bias=True)
    (4): Linear(in_features=66, out_features=10, bias=True)
    (5): Linear(in_features=66, out_features=10, bias=True)
    (6): Linear(in_features=66, out_features=10, bias=True)
    (7): Linear(in_features=66, out_features=10, bias=True)
    (8): Linear(in_features=66, out_features=10, bias=True)
    (9): Linear(in_features=66, out_features=10, bias=True)
    (10): Linear(in_features=66, out_features=10, bias=True)
    (11): Linear(in_features=66, out_features=10, bias=True)
    (12): Linear(in_features=66, out_features=10, bias=True)
    (13): Linear(in_features=66, out_features=10, bias=True)
  )
)
======

************************************************************************************************************
Task 14
************************************************************************************************************
| Epoch   1, time=  0.9s | Train: skip eval | Valid: time=  0.2s loss=2.937, TAw acc= 50.0% | *
| Epoch   2, time=  0.8s | Train: skip eval | Valid: time=  0.2s loss=1.825, TAw acc= 72.9% | *
…
