…
| Selected 420 train exemplars, time=  0.0s
420
------------------------------------------------------------------------------------------------------------
>>> Test on task  0 : loss=0.624 | TAw acc= 96.5%, forg=  0.0%| TAg acc= 79.2%, forg= 16.0% <<<
>>> Test on task  1 : loss=1.022 | TAw acc= 97.5%, forg= -0.8%| TAg acc= 61.7%, forg= 32.5% <<<
>>> Test on task  2 : loss=0.893 | TAw acc= 94.2%, forg=  1.7%| TAg acc= 74.2%, forg= 18.3% <<<
>>> Test on task  3 : loss=0.465 | TAw acc= 95.8%, forg=  0.0%| TAg acc= 95.8%, forg=  0.0% <<<
Save at k=10/eeil_dsads_1/har_flex_eeil
======
LLL_Net(
  (model): SimpleMLP(
    (fc1): Linear(in_features=405, out_features=66, bias=True)
    (fc2): Sequential()
  )
  (heads): ModuleList(
    (0): Linear(in_features=66, out_features=12, bias=True)
    (1): Linear(in_features=66, out_features=10, bias=True)
    (2): Linear(in_features=66, out_features=10, bias=True)
    (3): Linear(in_features=66, out_features=10, bias=True)
  )
)
======

************************************************************************************************************
Task  4
************************************************************************************************************
| Epoch   1, time=  0.4s | Train: skip eval | Valid: time=  0.2s loss=3.623, TAw acc= 12.5% | *
| Epoch   2, time=  0.3s | Train: skip eval | Valid: time=  0.2s loss=2.051, TAw acc= 51.0% | *
…
------------------------------------------------------------------------------------------------------------
>>> Test on task  0 : loss=0.573 | TAw acc= 96.5%, forg=  0.0%| TAg acc= 85.4%, forg=  9.7% <<<
>>> Test on task  1 : loss=1.040 | TAw acc= 97.5%, forg=  0.0%| TAg acc= 70.0%, forg= 24.2% <<<
>>> Test on task  2 : loss=0.919 | TAw acc= 94.2%, forg=  1.7%| TAg acc= 77.5%, forg= 15.0% <<<
>>> Test on task  3 : loss=1.311 | TAw acc= 94.2%, forg=  1.7%| TAg acc= 55.0%, forg= 40.8% <<<
>>> Test on task  4 : loss=0.548 | TAw acc= 95.0%, forg=  0.0%| TAg acc= 95.0%, forg=  0.0% <<<
Save at k=10/eeil_dsads_1/har_flex_eeil
======
LLL_Net(
  (model): SimpleMLP(
    (fc1): Linear(in_features=405, out_features=66, bias=True)
    (fc2): Sequential()
  )
  (heads): ModuleList(
    (0): Linear(in_features=66, out_features=12, bias=True)
    (1): Linear(in_features=66, out_features=10, bias=True)
    (2): Linear(in_features=66, out_features=10, bias=True)
    (3): Linear(in_features=66, out_features=10, bias=True)
    (4): Linear(in_features=66, out_features=10, bias=True)
  )
)
======

************************************************************************************************************
Task  5
************************************************************************************************************
| Epoch   1, time=  0.4s | Train: skip eval | Valid: time=  0.3s loss=3.397, TAw acc= 31.2% | *
| Epoch   2, time=  0.4s | Train: skip eval | Valid: time=  0.2s loss=1.950, TAw acc= 64.6% | *
…
>>> Test on task  0 : loss=0.626 | TAw acc= 96.5%, forg=  0.0%| TAg acc= 81.2%, forg= 13.9% <<<
>>> Test on task  1 : loss=0.904 | TAw acc= 96.7%, forg=  0.8%| TAg acc= 73.3%, forg= 20.8% <<<
>>> Test on task  2 : loss=0.976 | TAw acc= 95.0%, forg=  0.8%| TAg acc= 68.3%, forg= 24.2% <<<
>>> Test on task  3 : loss=0.966 | TAw acc= 95.0%, forg=  0.8%| TAg acc= 70.8%, forg= 25.0% <<<
>>> Test on task  4 : loss=0.927 | TAw acc= 95.8%, forg= -0.8%| TAg acc= 73.3%, forg= 21.7% <<<
>>> Test on task  5 : loss=0.293 | TAw acc=100.0%, forg=  0.0%| TAg acc=100.0%, forg=  0.0% <<<
Save at k=10/eeil_dsads_1/har_flex_eeil
======
LLL_Net(
  (model): SimpleMLP(
    (fc1): Linear(in_features=405, out_features=66, bias=True)
    (fc2): Sequential()
  )
  (heads): ModuleList(
    (0): Linear(in_features=66, out_features=12, bias=True)
    (1): Linear(in_features=66, out_features=10, bias=True)
    (2): Linear(in_features=66, out_features=10, bias=True)
    (3): Linear(in_features=66, out_features=10, bias=True)
    (4): Linear(in_features=66, out_features=10, bias=True)
    (5): Linear(in_features=66, out_features=10, bias=True)
  )
)
======

************************************************************************************************************
Task  6
************************************************************************************************************
| Epoch   1, time=  0.5s | Train: skip eval | Valid: time=  0.2s loss=3.576, TAw acc= 49.0% | *
| Epoch   2, time=  0.4s | Train: skip eval | Valid: time=  0.2s loss=1.742, TAw acc= 63.5% | *
…
>>> Test on task  1 : loss=0.912 | TAw acc= 96.7%, forg=  0.8%| TAg acc= 70.8%, forg= 23.3% <<<
>>> Test on task  2 : loss=0.995 | TAw acc= 94.2%, forg=  1.7%| TAg acc= 75.0%, forg= 17.5% <<<
>>> Test on task  3 : loss=0.990 | TAw acc= 97.5%, forg= -1.7%| TAg acc= 70.0%, forg= 25.8% <<<
>>> Test on task  4 : loss=0.759 | TAw acc= 95.0%, forg=  0.8%| TAg acc= 73.3%, forg= 21.7% <<<
>>> Test on task  5 : loss=0.740 | TAw acc=100.0%, forg=  0.0%| TAg acc= 74.2%, forg= 25.8% <<<
>>> Test on task  6 : loss=0.389 | TAw acc= 95.8%, forg=  0.0%| TAg acc= 95.8%, forg=  0.0% <<<
Save at k=10/eeil_dsads_1/har_flex_eeil
======
LLL_Net(
  (model): SimpleMLP(
    (fc1): Linear(in_features=405, out_features=66, bias=True)
    (fc2): Sequential()
  )
  (heads): ModuleList(
    (0): Linear(in_features=66, out_features=12, bias=True)
    (1): Linear(in_features=66, out_features=10, bias=True)
    (2): Linear(in_features=66, out_features=10, bias=True)
    (3): Linear(in_features=66, out_features=10, bias=True)
    (4): Linear(in_features=66, out_features=10, bias=True)
    (5): Linear(in_features=66, out_features=10, bias=True)
    (6): Linear(in_features=66, out_features=10, bias=True)
  )
)
======

************************************************************************************************************
Task  7
************************************************************************************************************
| Epoch   1, time=  0.4s | Train: skip eval | Valid: time=  0.2s loss=4.072, TAw acc= 29.2% | *
| Epoch   2, time=  0.5s | Train: skip eval | Valid: time=  0.2s loss=2.094, TAw acc= 56.2% | *
…
>>> Test on task  2 : loss=1.140 | TAw acc= 94.2%, forg=  1.7%| TAg acc= 62.5%, forg= 30.0% <<<
>>> Test on task  3 : loss=0.874 | TAw acc= 98.3%, forg= -0.8%| TAg acc= 77.5%, forg= 18.3% <<<
>>> Test on task  4 : loss=0.684 | TAw acc= 95.8%, forg=  0.0%| TAg acc= 86.7%, forg=  8.3% <<<
>>> Test on task  5 : loss=0.690 | TAw acc=100.0%, forg=  0.0%| TAg acc= 85.8%, forg= 14.2% <<<
>>> Test on task  6 : loss=0.857 | TAw acc= 96.7%, forg= -0.8%| TAg acc= 81.7%, forg= 14.2% <<<
>>> Test on task  7 : loss=0.553 | TAw acc= 96.7%, forg=  0.0%| TAg acc= 92.5%, forg=  0.0% <<<
Save at k=10/eeil_dsads_1/har_flex_eeil
======
LLL_Net(
  (model): SimpleMLP(
    (fc1): Linear(in_features=405, out_features=66, bias=True)
    (fc2): Sequential()
  )
  (heads): ModuleList(
    (0): Linear(in_features=66, out_features=12, bias=True)
    (1): Linear(in_features=66, out_features=10, bias=True)
    (2): Linear(in_features=66, out_features=10, bias=True)
    (3): Linear(in_features=66, out_features=10, bias=True)
    (4): Linear(in_features=66, out_features=10, bias=True)
    (5): Linear(in_features=66, out_features=10, bias=True)
    (6): Linear(in_features=66, out_features=10, bias=True)
    (7): Linear(in_features=66, out_features=10, bias=True)
  )
)
======

************************************************************************************************************
Task  8
************************************************************************************************************
| Epoch   1, time=  0.5s | Train: skip eval | Valid: time=  0.3s loss=4.641, TAw acc= 41.7% | *
| Epoch   2, time=  0.5s | Train: skip eval | Valid: time=  0.2s loss=2.160, TAw acc= 80.2% | *
…
>>> Test on task  3 : loss=1.018 | TAw acc= 96.7%, forg=  1.7%| TAg acc= 74.2%, forg= 21.7% <<<
>>> Test on task  4 : loss=0.925 | TAw acc= 95.0%, forg=  0.8%| TAg acc= 79.2%, forg= 15.8% <<<
>>> Test on task  5 : loss=0.824 | TAw acc=100.0%, forg=  0.0%| TAg acc= 75.0%, forg= 25.0% <<<
>>> Test on task  6 : loss=1.262 | TAw acc= 98.3%, forg= -1.7%| TAg acc= 55.8%, forg= 40.0% <<<
>>> Test on task  7 : loss=1.153 | TAw acc= 99.2%, forg= -2.5%| TAg acc= 73.3%, forg= 19.2% <<<
>>> Test on task  8 : loss=0.774 | TAw acc= 96.7%, forg=  0.0%| TAg acc= 86.7%, forg=  0.0% <<<
Save at k=10/eeil_dsads_1/har_flex_eeil
======
LLL_Net(
  (model): SimpleMLP(
    (fc1): Linear(in_features=405, out_features=66, bias=True)
    (fc2): Sequential()
  )
  (heads): ModuleList(
    (0): Linear(in_features=66, out_features=12, bias=True)
    (1): Linear(in_features=66, out_features=10, bias=True)
    (2): Linear(in_features=66, out_features=10, bias=True)
    (3): Linear(in_features=66, out_features=10, bias=True)
    (4): Linear(in_features=66, out_features=10, bias=True)
    (5): Linear(in_features=66, out_features=10, bias=True)
    (6): Linear(in_features=66, out_features=10, bias=True)
    (7): Linear(in_features=66, out_features=10, bias=True)
    (8): Linear(in_features=66, out_features=10, bias=True)
  )
)
======

************************************************************************************************************
Task  9
************************************************************************************************************
| Epoch   1, time=  0.6s | Train: skip eval | Valid: time=  0.2s loss=3.736, TAw acc= 41.7% | *
| Epoch   2, time=  0.6s | Train: skip eval | Valid: time=  0.2s loss=1.798, TAw acc= 84.4% | *
…
>>> Test on task  4 : loss=0.639 | TAw acc= 95.8%, forg=  0.0%| TAg acc= 90.0%, forg=  5.0% <<<
>>> Test on task  5 : loss=0.803 | TAw acc=100.0%, forg=  0.0%| TAg acc= 75.0%, forg= 25.0% <<<
>>> Test on task  6 : loss=0.979 | TAw acc= 99.2%, forg= -0.8%| TAg acc= 80.0%, forg= 15.8% <<<
>>> Test on task  7 : loss=1.035 | TAw acc= 99.2%, forg=  0.0%| TAg acc= 72.5%, forg= 20.0% <<<
>>> Test on task  8 : loss=1.161 | TAw acc= 97.5%, forg= -0.8%| TAg acc= 66.7%, forg= 20.0% <<<
>>> Test on task  9 : loss=0.413 | TAw acc= 97.5%, forg=  0.0%| TAg acc= 97.5%, forg=  0.0% <<<
Save at k=10/eeil_dsads_1/har_flex_eeil
======
LLL_Net(
  (model): SimpleMLP(
    (fc1): Linear(in_features=405, out_features=66, bias=True)
    (fc2): Sequential()
  )
  (heads): ModuleList(
    (0): Linear(in_features=66, out_features=12, bias=True)
    (1): Linear(in_features=66, out_features=10, bias=True)
    (2): Linear(in_features=66, out_features=10, bias=True)
    (3): Linear(in_features=66, out_features=10, bias=True)
    (4): Linear(in_features=66, out_features=10, bias=True)
    (5): Linear(in_features=66, out_features=10, bias=True)
    (6): Linear(in_features=66, out_features=10, bias=True)
    (7): Linear(in_features=66, out_features=10, bias=True)
    (8): Linear(in_features=66, out_features=10, bias=True)
    (9): Linear(in_features=66, out_features=10, bias=True)
  )
)
======

************************************************************************************************************
Task 10
************************************************************************************************************
| Epoch   1, time=  0.6s | Train: skip eval | Valid: time=  0.3s loss=3.576, TAw acc= 37.5% | *
| Epoch   2, time=  0.6s | Train: skip eval | Valid: time=  0.2s loss=1.919, TAw acc= 61.5% | *
…
>>> Test on task  5 : loss=0.775 | TAw acc=100.0%, forg=  0.0%| TAg acc= 78.3%, forg= 21.7% <<<
>>> Test on task  6 : loss=0.868 | TAw acc= 99.2%, forg=  0.0%| TAg acc= 80.8%, forg= 15.0% <<<
>>> Test on task  7 : loss=0.891 | TAw acc= 99.2%, forg=  0.0%| TAg acc= 78.3%, forg= 14.2% <<<
>>> Test on task  8 : loss=1.101 | TAw acc= 98.3%, forg= -0.8%| TAg acc= 70.8%, forg= 15.8% <<<
>>> Test on task  9 : loss=0.801 | TAw acc= 97.5%, forg=  0.0%| TAg acc= 85.0%, forg= 12.5% <<<
>>> Test on task 10 : loss=0.425 | TAw acc= 98.3%, forg=  0.0%| TAg acc= 96.7%, forg=  0.0% <<<
Save at k=10/eeil_dsads_1/har_flex_eeil
======
LLL_Net(
  (model): SimpleMLP(
    (fc1): Linear(in_features=405, out_features=66, bias=True)
    (fc2): Sequential()
  )
  (heads): ModuleList(
    (0): Linear(in_features=66, out_features=12, bias=True)
    (1): Linear(in_features=66, out_features=10, bias=True)
    (2): Linear(in_features=66, out_features=10, bias=True)
    (3): Linear(in_features=66, out_features=10, bias=True)
    (4): Linear(in_features=66, out_features=10, bias=True)
    (5): Linear(in_features=66, out_features=10, bias=True)
    (6): Linear(in_features=66, out_features=10, bias=True)
    (7): Linear(in_features=66, out_features=10, bias=True)
    (8): Linear(in_features=66, out_features=10, bias=True)
    (9): Linear(in_features=66, out_features=10, bias=True)
    (10): Linear(in_features=66, out_features=10, bias=True)
  )
)
======

************************************************************************************************************
Task 11
************************************************************************************************************
| Epoch   1, time=  0.7s | Train: skip eval | Valid: time=  0.2s loss=4.088, TAw acc= 31.2% | *
| Epoch   2, time=  0.7s | Train: skip eval | Valid: time=  0.3s loss=2.028, TAw acc= 81.2% | *
…
>>> Test on task  6 : loss=0.848 | TAw acc= 99.2%, forg=  0.0%| TAg acc= 80.8%, forg= 15.0% <<<
>>> Test on task  7 : loss=1.066 | TAw acc= 99.2%, forg=  0.0%| TAg acc= 71.7%, forg= 20.8% <<<
>>> Test on task  8 : loss=1.063 | TAw acc= 97.5%, forg=  0.8%| TAg acc= 68.3%, forg= 18.3% <<<
>>> Test on task  9 : loss=0.919 | TAw acc= 97.5%, forg=  0.0%| TAg acc= 75.0%, forg= 22.5% <<<
>>> Test on task 10 : loss=1.009 | TAw acc= 98.3%, forg=  0.0%| TAg acc= 71.7%, forg= 25.0% <<<
>>> Test on task 11 : loss=0.606 | TAw acc= 95.8%, forg=  0.0%| TAg acc= 89.2%, forg=  0.0% <<<
Save at k=10/eeil_dsads_1/har_flex_eeil
======
LLL_Net(
  (model): SimpleMLP(
    (fc1): Linear(in_features=405, out_features=66, bias=True)
    (fc2): Sequential()
  )
  (heads): ModuleList(
    (0): Linear(in_features=66, out_features=12, bias=True)
    (1): Linear(in_features=66, out_features=10, bias=True)
    (2): Linear(in_features=66, out_features=10, bias=True)
    (3): Linear(in_features=66, out_features=10, bias=True)
    (4): Linear(in_features=66, out_features=10, bias=True)
    (5): Linear(in_features=66, out_features=10, bias=True)
    (6): Linear(in_features=66, out_features=10, bias=True)
    (7): Linear(in_features=66, out_features=10, bias=True)
    (8): Linear(in_features=66, out_features=10, bias=True)
    (9): Linear(in_features=66, out_features=10, bias=True)
    (10): Linear(in_features=66, out_features=10, bias=True)
    (11): Linear(in_features=66, out_features=10, bias=True)
  )
)
======

************************************************************************************************************
Task 12
************************************************************************************************************
| Epoch   1, time=  0.8s | Train: skip eval | Valid: time=  0.2s loss=4.327, TAw acc= 39.6% | *
| Epoch   2, time=  0.7s | Train: skip eval | Valid: time=  0.2s loss=1.834, TAw acc= 84.4% | *
…
>>> Test on task  7 : loss=0.967 | TAw acc= 99.2%, forg=  0.0%| TAg acc= 74.2%, forg= 18.3% <<<
>>> Test on task  8 : loss=0.862 | TAw acc= 97.5%, forg=  0.8%| TAg acc= 80.0%, forg=  6.7% <<<
>>> Test on task  9 : loss=0.857 | TAw acc= 98.3%, forg= -0.8%| TAg acc= 77.5%, forg= 20.0% <<<
>>> Test on task 10 : loss=0.932 | TAw acc= 99.2%, forg= -0.8%| TAg acc= 75.0%, forg= 21.7% <<<
>>> Test on task 11 : loss=1.169 | TAw acc= 95.0%, forg=  0.8%| TAg acc= 65.8%, forg= 23.3% <<<
>>> Test on task 12 : loss=0.567 | TAw acc= 99.2%, forg=  0.0%| TAg acc= 94.2%, forg=  0.0% <<<
Save at k=10/eeil_dsads_1/har_flex_eeil
======
LLL_Net(
  (model): SimpleMLP(
    (fc1): Linear(in_features=405, out_features=66, bias=True)
    (fc2): Sequential()
  )
  (heads): ModuleList(
    (0): Linear(in_features=66, out_features=12, bias=True)
    (1): Linear(in_features=66, out_features=10, bias=True)
    (2): Linear(in_features=66, out_features=10, bias=True)
    (3): Linear(in_features=66, out_features=10, bias=True)
    (4): Linear(in_features=66, out_features=10, bias=True)
    (5): Linear(in_features=66, out_features=10, bias=True)
    (6): Linear(in_features=66, out_features=10, bias=True)
    (7): Linear(in_features=66, out_features=10, bias=True)
    (8): Linear(in_features=66, out_features=10, bias=True)
    (9): Linear(in_features=66, out_features=10, bias=True)
    (10): Linear(in_features=66, out_features=10, bias=True)
    (11): Linear(in_features=66, out_features=10, bias=True)
    (12): Linear(in_features=66, out_features=10, bias=True)
  )
)
======

************************************************************************************************************
Task 13
************************************************************************************************************
| Epoch   1, time=  0.8s | Train: skip eval | Valid: time=  0.2s loss=3.797, TAw acc= 43.8% | *
| Epoch   2, time=  0.8s | Train: skip eval | Valid: time=  0.2s loss=1.802, TAw acc= 86.5% | *
…
>>> Test on task  8 : loss=0.957 | TAw acc= 96.7%, forg=  1.7%| TAg acc= 76.7%, forg= 10.0% <<<
>>> Test on task  9 : loss=0.846 | TAw acc= 97.5%, forg=  0.8%| TAg acc= 81.7%, forg= 15.8% <<<
>>> Test on task 10 : loss=1.013 | TAw acc= 99.2%, forg=  0.0%| TAg acc= 70.0%, forg= 26.7% <<<
>>> Test on task 11 : loss=1.296 | TAw acc= 95.8%, forg=  0.0%| TAg acc= 60.0%, forg= 29.2% <<<
>>> Test on task 12 : loss=1.327 | TAw acc= 99.2%, forg=  0.0%| TAg acc= 62.5%, forg= 31.7% <<<
>>> Test on task 13 : loss=0.894 | TAw acc= 97.5%, forg=  0.0%| TAg acc= 85.0%, forg=  0.0% <<<
Save at k=10/eeil_dsads_1/har_flex_eeil
======
LLL_Net(
  (model): SimpleMLP(
    (fc1): Linear(in_features=405, out_features=66, bias=True)
    (fc2): Sequential()
  )
  (heads): ModuleList(
    (0): Linear(in_features=66, out_features=12, bias=True)
    (1): Linear(in_features=66, out_features=10, bias=True)
    (2): Linear(in_features=66, out_features=10, bias=True)
    (3): Linear(in_features=66, out_features=10, bias=True)
    (4): Linear(in_features=66, out_features=10, bias=True)
    (5): Linear(in_features=66, out_features=10, bias=True)
    (6): Linear(in_features=66, out_features=10, bias=True)
    (7): Linear(in_features=66, out_features=10, bias=True)
    (8): Linear(in_features=66, out_features=10, bias=True)
    (9): Linear(in_features=66, out_features=10, bias=True)
    (10): Linear(in_features=66, out_features=10, bias=True)
    (11): Linear(in_features=66, out_features=10, bias=True)
    (12): Linear(in_features=66, out_features=10, bias=True)
    (13): Linear(in_features=66, out_features=10, bias=True)
  )
)
======

************************************************************************************************************
Task 14
************************************************************************************************************
| Epoch   1, time=  0.9s | Train: skip eval | Valid: time=  0.2s loss=4.172, TAw acc= 45.8% | *
| Epoch   2, time=  0.9s | Train: skip eval | Valid: time=  0.2s loss=2.118, TAw acc= 54.2% | *
…
