…
| Selected 1438 train exemplars, time=  0.0s
1438
------------------------------------------------------------------------------------------------------------
>>> Test on task  0 : loss=0.477 | TAw acc= 97.2%, forg=  0.7%| TAg acc= 83.3%, forg= 14.6% <<<
>>> Test on task  1 : loss=0.644 | TAw acc= 94.2%, forg=  0.8%| TAg acc= 82.5%, forg= 10.0% <<<
>>> Test on task  2 : loss=0.302 | TAw acc=100.0%, forg= -0.8%| TAg acc= 95.8%, forg= -1.7% <<<
>>> Test on task  3 : loss=0.388 | TAw acc= 97.5%, forg=  0.0%| TAg acc= 93.3%, forg=  0.0% <<<
Save at k=100/eeil_e5_dsads_2/har_flex_eeil
======
LLL_Net(
  (model): SimpleMLP(
    (fc1): Linear(in_features=405, out_features=66, bias=True)
    (fc2): Sequential()
  )
  (heads): ModuleList(
    (0): Linear(in_features=66, out_features=12, bias=True)
    (1): Linear(in_features=66, out_features=10, bias=True)
    (2): Linear(in_features=66, out_features=10, bias=True)
    (3): Linear(in_features=66, out_features=10, bias=True)
  )
)
======

************************************************************************************************************
Task  4
************************************************************************************************************
| Epoch   1, time=  0.5s | Train: skip eval | Valid: time=  0.2s loss=4.259, TAw acc= 47.9% | *
| Epoch   2, time=  0.5s | Train: skip eval | Valid: time=  0.2s loss=2.669, TAw acc= 67.7% | *
…
------------------------------------------------------------------------------------------------------------
>>> Test on task  0 : loss=0.472 | TAw acc= 97.2%, forg=  0.7%| TAg acc= 87.5%, forg= 10.4% <<<
>>> Test on task  1 : loss=0.636 | TAw acc= 96.7%, forg= -1.7%| TAg acc= 87.5%, forg=  5.0% <<<
>>> Test on task  2 : loss=0.440 | TAw acc=100.0%, forg=  0.0%| TAg acc= 90.0%, forg=  5.8% <<<
>>> Test on task  3 : loss=0.718 | TAw acc= 98.3%, forg= -0.8%| TAg acc= 76.7%, forg= 16.7% <<<
>>> Test on task  4 : loss=0.582 | TAw acc=100.0%, forg=  0.0%| TAg acc= 89.2%, forg=  0.0% <<<
Save at k=100/eeil_e5_dsads_2/har_flex_eeil
======
LLL_Net(
  (model): SimpleMLP(
    (fc1): Linear(in_features=405, out_features=66, bias=True)
    (fc2): Sequential()
  )
  (heads): ModuleList(
    (0): Linear(in_features=66, out_features=12, bias=True)
    (1): Linear(in_features=66, out_features=10, bias=True)
    (2): Linear(in_features=66, out_features=10, bias=True)
    (3): Linear(in_features=66, out_features=10, bias=True)
    (4): Linear(in_features=66, out_features=10, bias=True)
  )
)
======

************************************************************************************************************
Task  5
************************************************************************************************************
| Epoch   1, time=  0.7s | Train: skip eval | Valid: time=  0.2s loss=4.376, TAw acc= 32.3% | *
| Epoch   2, time=  0.7s | Train: skip eval | Valid: time=  0.2s loss=2.679, TAw acc= 72.9% | *
…
>>> Test on task  0 : loss=0.548 | TAw acc= 97.2%, forg=  0.7%| TAg acc= 81.2%, forg= 16.7% <<<
>>> Test on task  1 : loss=0.654 | TAw acc= 96.7%, forg=  0.0%| TAg acc= 85.8%, forg=  6.7% <<<
>>> Test on task  2 : loss=0.311 | TAw acc=100.0%, forg=  0.0%| TAg acc= 95.8%, forg=  0.0% <<<
>>> Test on task  3 : loss=0.454 | TAw acc= 98.3%, forg=  0.0%| TAg acc= 89.2%, forg=  4.2% <<<
>>> Test on task  4 : loss=0.528 | TAw acc=100.0%, forg=  0.0%| TAg acc= 89.2%, forg=  0.0% <<<
>>> Test on task  5 : loss=0.700 | TAw acc= 97.5%, forg=  0.0%| TAg acc= 84.2%, forg=  0.0% <<<
Save at k=100/eeil_e5_dsads_2/har_flex_eeil
======
LLL_Net(
  (model): SimpleMLP(
    (fc1): Linear(in_features=405, out_features=66, bias=True)
    (fc2): Sequential()
  )
  (heads): ModuleList(
    (0): Linear(in_features=66, out_features=12, bias=True)
    (1): Linear(in_features=66, out_features=10, bias=True)
    (2): Linear(in_features=66, out_features=10, bias=True)
    (3): Linear(in_features=66, out_features=10, bias=True)
    (4): Linear(in_features=66, out_features=10, bias=True)
    (5): Linear(in_features=66, out_features=10, bias=True)
  )
)
======

************************************************************************************************************
Task  6
************************************************************************************************************
| Epoch   1, time=  0.8s | Train: skip eval | Valid: time=  0.3s loss=5.440, TAw acc= 34.4% | *
| Epoch   2, time=  0.8s | Train: skip eval | Valid: time=  0.2s loss=2.578, TAw acc= 50.0% | *
…
>>> Test on task  1 : loss=0.810 | TAw acc= 95.8%, forg=  0.8%| TAg acc= 80.8%, forg= 11.7% <<<
>>> Test on task  2 : loss=0.313 | TAw acc=100.0%, forg=  0.0%| TAg acc= 90.0%, forg=  5.8% <<<
>>> Test on task  3 : loss=0.467 | TAw acc= 99.2%, forg= -0.8%| TAg acc= 87.5%, forg=  5.8% <<<
>>> Test on task  4 : loss=0.449 | TAw acc=100.0%, forg=  0.0%| TAg acc= 93.3%, forg= -4.2% <<<
>>> Test on task  5 : loss=0.942 | TAw acc= 97.5%, forg=  0.0%| TAg acc= 77.5%, forg=  6.7% <<<
>>> Test on task  6 : loss=0.927 | TAw acc= 93.3%, forg=  0.0%| TAg acc= 81.7%, forg=  0.0% <<<
Save at k=100/eeil_e5_dsads_2/har_flex_eeil
======
LLL_Net(
  (model): SimpleMLP(
    (fc1): Linear(in_features=405, out_features=66, bias=True)
    (fc2): Sequential()
  )
  (heads): ModuleList(
    (0): Linear(in_features=66, out_features=12, bias=True)
    (1): Linear(in_features=66, out_features=10, bias=True)
    (2): Linear(in_features=66, out_features=10, bias=True)
    (3): Linear(in_features=66, out_features=10, bias=True)
    (4): Linear(in_features=66, out_features=10, bias=True)
    (5): Linear(in_features=66, out_features=10, bias=True)
    (6): Linear(in_features=66, out_features=10, bias=True)
  )
)
======

************************************************************************************************************
Task  7
************************************************************************************************************
| Epoch   1, time=  0.9s | Train: skip eval | Valid: time=  0.2s loss=3.480, TAw acc= 43.8% | *
| Epoch   2, time=  0.9s | Train: skip eval | Valid: time=  0.2s loss=2.206, TAw acc= 69.8% | *
…
>>> Test on task  2 : loss=0.380 | TAw acc=100.0%, forg=  0.0%| TAg acc= 80.8%, forg= 15.0% <<<
>>> Test on task  3 : loss=0.381 | TAw acc=100.0%, forg= -0.8%| TAg acc= 95.0%, forg= -1.7% <<<
>>> Test on task  4 : loss=0.382 | TAw acc=100.0%, forg=  0.0%| TAg acc= 93.3%, forg=  0.0% <<<
>>> Test on task  5 : loss=0.700 | TAw acc= 97.5%, forg=  0.0%| TAg acc= 86.7%, forg= -2.5% <<<
>>> Test on task  6 : loss=0.820 | TAw acc= 94.2%, forg= -0.8%| TAg acc= 75.0%, forg=  6.7% <<<
>>> Test on task  7 : loss=0.369 | TAw acc= 99.2%, forg=  0.0%| TAg acc= 98.3%, forg=  0.0% <<<
Save at k=100/eeil_e5_dsads_2/har_flex_eeil
======
LLL_Net(
  (model): SimpleMLP(
    (fc1): Linear(in_features=405, out_features=66, bias=True)
    (fc2): Sequential()
  )
  (heads): ModuleList(
    (0): Linear(in_features=66, out_features=12, bias=True)
    (1): Linear(in_features=66, out_features=10, bias=True)
    (2): Linear(in_features=66, out_features=10, bias=True)
    (3): Linear(in_features=66, out_features=10, bias=True)
    (4): Linear(in_features=66, out_features=10, bias=True)
    (5): Linear(in_features=66, out_features=10, bias=True)
    (6): Linear(in_features=66, out_features=10, bias=True)
    (7): Linear(in_features=66, out_features=10, bias=True)
  )
)
======

************************************************************************************************************
Task  8
************************************************************************************************************
| Epoch   1, time=  1.0s | Train: skip eval | Valid: time=  0.2s loss=4.892, TAw acc= 27.1% | *
| Epoch   2, time=  1.0s | Train: skip eval | Valid: time=  0.2s loss=2.730, TAw acc= 53.1% | *
…
>>> Test on task  3 : loss=0.493 | TAw acc=100.0%, forg=  0.0%| TAg acc= 90.8%, forg=  4.2% <<<
>>> Test on task  4 : loss=0.396 | TAw acc=100.0%, forg=  0.0%| TAg acc= 92.5%, forg=  0.8% <<<
>>> Test on task  5 : loss=0.839 | TAw acc= 97.5%, forg=  0.0%| TAg acc= 84.2%, forg=  2.5% <<<
>>> Test on task  6 : loss=0.864 | TAw acc= 91.7%, forg=  2.5%| TAg acc= 78.3%, forg=  3.3% <<<
>>> Test on task  7 : loss=0.505 | TAw acc= 99.2%, forg=  0.0%| TAg acc= 89.2%, forg=  9.2% <<<
>>> Test on task  8 : loss=1.243 | TAw acc= 90.0%, forg=  0.0%| TAg acc= 67.5%, forg=  0.0% <<<
Save at k=100/eeil_e5_dsads_2/har_flex_eeil
======
LLL_Net(
  (model): SimpleMLP(
    (fc1): Linear(in_features=405, out_features=66, bias=True)
    (fc2): Sequential()
  )
  (heads): ModuleList(
    (0): Linear(in_features=66, out_features=12, bias=True)
    (1): Linear(in_features=66, out_features=10, bias=True)
    (2): Linear(in_features=66, out_features=10, bias=True)
    (3): Linear(in_features=66, out_features=10, bias=True)
    (4): Linear(in_features=66, out_features=10, bias=True)
    (5): Linear(in_features=66, out_features=10, bias=True)
    (6): Linear(in_features=66, out_features=10, bias=True)
    (7): Linear(in_features=66, out_features=10, bias=True)
    (8): Linear(in_features=66, out_features=10, bias=True)
  )
)
======

************************************************************************************************************
Task  9
************************************************************************************************************
| Epoch   1, time=  1.3s | Train: skip eval | Valid: time=  0.2s loss=4.184, TAw acc= 36.5% | *
| Epoch   2, time=  1.2s | Train: skip eval | Valid: time=  0.2s loss=2.320, TAw acc= 72.9% | *
…
>>> Test on task  4 : loss=0.409 | TAw acc=100.0%, forg=  0.0%| TAg acc= 91.7%, forg=  1.7% <<<
>>> Test on task  5 : loss=0.741 | TAw acc= 97.5%, forg=  0.0%| TAg acc= 84.2%, forg=  2.5% <<<
>>> Test on task  6 : loss=0.688 | TAw acc= 92.5%, forg=  1.7%| TAg acc= 83.3%, forg= -1.7% <<<
>>> Test on task  7 : loss=0.361 | TAw acc= 99.2%, forg=  0.0%| TAg acc= 98.3%, forg=  0.0% <<<
>>> Test on task  8 : loss=0.871 | TAw acc= 93.3%, forg= -3.3%| TAg acc= 79.2%, forg=-11.7% <<<
>>> Test on task  9 : loss=0.561 | TAw acc= 91.7%, forg=  0.0%| TAg acc= 90.0%, forg=  0.0% <<<
Save at k=100/eeil_e5_dsads_2/har_flex_eeil
======
LLL_Net(
  (model): SimpleMLP(
    (fc1): Linear(in_features=405, out_features=66, bias=True)
    (fc2): Sequential()
  )
  (heads): ModuleList(
    (0): Linear(in_features=66, out_features=12, bias=True)
    (1): Linear(in_features=66, out_features=10, bias=True)
    (2): Linear(in_features=66, out_features=10, bias=True)
    (3): Linear(in_features=66, out_features=10, bias=True)
    (4): Linear(in_features=66, out_features=10, bias=True)
    (5): Linear(in_features=66, out_features=10, bias=True)
    (6): Linear(in_features=66, out_features=10, bias=True)
    (7): Linear(in_features=66, out_features=10, bias=True)
    (8): Linear(in_features=66, out_features=10, bias=True)
    (9): Linear(in_features=66, out_features=10, bias=True)
  )
)
======

************************************************************************************************************
Task 10
************************************************************************************************************
| Epoch   1, time=  1.3s | Train: skip eval | Valid: time=  0.2s loss=4.109, TAw acc= 42.7% | *
| Epoch   2, time=  1.4s | Train: skip eval | Valid: time=  0.2s loss=2.306, TAw acc= 72.9% | *
…
>>> Test on task  5 : loss=0.722 | TAw acc= 97.5%, forg=  0.0%| TAg acc= 85.0%, forg=  1.7% <<<
>>> Test on task  6 : loss=0.731 | TAw acc= 94.2%, forg=  0.0%| TAg acc= 80.8%, forg=  2.5% <<<
>>> Test on task  7 : loss=0.359 | TAw acc= 99.2%, forg=  0.0%| TAg acc= 90.0%, forg=  8.3% <<<
>>> Test on task  8 : loss=0.825 | TAw acc= 93.3%, forg=  0.0%| TAg acc= 80.0%, forg= -0.8% <<<
>>> Test on task  9 : loss=0.526 | TAw acc= 94.2%, forg= -2.5%| TAg acc= 87.5%, forg=  2.5% <<<
>>> Test on task 10 : loss=0.906 | TAw acc= 96.7%, forg=  0.0%| TAg acc= 84.2%, forg=  0.0% <<<
Save at k=100/eeil_e5_dsads_2/har_flex_eeil
======
LLL_Net(
  (model): SimpleMLP(
    (fc1): Linear(in_features=405, out_features=66, bias=True)
    (fc2): Sequential()
  )
  (heads): ModuleList(
    (0): Linear(in_features=66, out_features=12, bias=True)
    (1): Linear(in_features=66, out_features=10, bias=True)
    (2): Linear(in_features=66, out_features=10, bias=True)
    (3): Linear(in_features=66, out_features=10, bias=True)
    (4): Linear(in_features=66, out_features=10, bias=True)
    (5): Linear(in_features=66, out_features=10, bias=True)
    (6): Linear(in_features=66, out_features=10, bias=True)
    (7): Linear(in_features=66, out_features=10, bias=True)
    (8): Linear(in_features=66, out_features=10, bias=True)
    (9): Linear(in_features=66, out_features=10, bias=True)
    (10): Linear(in_features=66, out_features=10, bias=True)
  )
)
======

************************************************************************************************************
Task 11
************************************************************************************************************
| Epoch   1, time=  1.5s | Train: skip eval | Valid: time=  0.2s loss=4.168, TAw acc= 40.6% | *
| Epoch   2, time=  1.5s | Train: skip eval | Valid: time=  0.2s loss=2.564, TAw acc= 81.2% | *
…
>>> Test on task  6 : loss=0.749 | TAw acc= 95.0%, forg= -0.8%| TAg acc= 80.8%, forg=  2.5% <<<
>>> Test on task  7 : loss=0.356 | TAw acc= 99.2%, forg=  0.0%| TAg acc= 98.3%, forg=  0.0% <<<
>>> Test on task  8 : loss=0.992 | TAw acc= 94.2%, forg= -0.8%| TAg acc= 74.2%, forg=  5.8% <<<
>>> Test on task  9 : loss=0.524 | TAw acc= 94.2%, forg=  0.0%| TAg acc= 90.0%, forg=  0.0% <<<
>>> Test on task 10 : loss=1.005 | TAw acc= 97.5%, forg= -0.8%| TAg acc= 75.8%, forg=  8.3% <<<
>>> Test on task 11 : loss=1.005 | TAw acc= 96.7%, forg=  0.0%| TAg acc= 79.2%, forg=  0.0% <<<
Save at k=100/eeil_e5_dsads_2/har_flex_eeil
======
LLL_Net(
  (model): SimpleMLP(
    (fc1): Linear(in_features=405, out_features=66, bias=True)
    (fc2): Sequential()
  )
  (heads): ModuleList(
    (0): Linear(in_features=66, out_features=12, bias=True)
    (1): Linear(in_features=66, out_features=10, bias=True)
    (2): Linear(in_features=66, out_features=10, bias=True)
    (3): Linear(in_features=66, out_features=10, bias=True)
    (4): Linear(in_features=66, out_features=10, bias=True)
    (5): Linear(in_features=66, out_features=10, bias=True)
    (6): Linear(in_features=66, out_features=10, bias=True)
    (7): Linear(in_features=66, out_features=10, bias=True)
    (8): Linear(in_features=66, out_features=10, bias=True)
    (9): Linear(in_features=66, out_features=10, bias=True)
    (10): Linear(in_features=66, out_features=10, bias=True)
    (11): Linear(in_features=66, out_features=10, bias=True)
  )
)
======

************************************************************************************************************
Task 12
************************************************************************************************************
| Epoch   1, time=  1.7s | Train: skip eval | Valid: time=  0.2s loss=4.553, TAw acc= 57.3% | *
| Epoch   2, time=  1.7s | Train: skip eval | Valid: time=  0.2s loss=2.332, TAw acc= 80.2% | *
…
>>> Test on task  7 : loss=0.285 | TAw acc=100.0%, forg= -0.8%| TAg acc= 98.3%, forg=  0.0% <<<
>>> Test on task  8 : loss=0.870 | TAw acc= 94.2%, forg=  0.0%| TAg acc= 79.2%, forg=  0.8% <<<
>>> Test on task  9 : loss=0.559 | TAw acc= 94.2%, forg=  0.0%| TAg acc= 84.2%, forg=  5.8% <<<
>>> Test on task 10 : loss=0.956 | TAw acc= 97.5%, forg=  0.0%| TAg acc= 76.7%, forg=  7.5% <<<
>>> Test on task 11 : loss=0.911 | TAw acc= 98.3%, forg= -1.7%| TAg acc= 81.7%, forg= -2.5% <<<
>>> Test on task 12 : loss=0.784 | TAw acc= 98.3%, forg=  0.0%| TAg acc= 81.7%, forg=  0.0% <<<
Save at k=100/eeil_e5_dsads_2/har_flex_eeil
======
LLL_Net(
  (model): SimpleMLP(
    (fc1): Linear(in_features=405, out_features=66, bias=True)
    (fc2): Sequential()
  )
  (heads): ModuleList(
    (0): Linear(in_features=66, out_features=12, bias=True)
    (1): Linear(in_features=66, out_features=10, bias=True)
    (2): Linear(in_features=66, out_features=10, bias=True)
    (3): Linear(in_features=66, out_features=10, bias=True)
    (4): Linear(in_features=66, out_features=10, bias=True)
    (5): Linear(in_features=66, out_features=10, bias=True)
    (6): Linear(in_features=66, out_features=10, bias=True)
    (7): Linear(in_features=66, out_features=10, bias=True)
    (8): Linear(in_features=66, out_features=10, bias=True)
    (9): Linear(in_features=66, out_features=10, bias=True)
    (10): Linear(in_features=66, out_features=10, bias=True)
    (11): Linear(in_features=66, out_features=10, bias=True)
    (12): Linear(in_features=66, out_features=10, bias=True)
  )
)
======

************************************************************************************************************
Task 13
************************************************************************************************************
| Epoch   1, time=  2.0s | Train: skip eval | Valid: time=  0.2s loss=4.081, TAw acc= 46.9% | *
| Epoch   2, time=  1.8s | Train: skip eval | Valid: time=  0.2s loss=2.553, TAw acc= 82.3% | *
…
>>> Test on task  8 : loss=0.790 | TAw acc= 95.0%, forg= -0.8%| TAg acc= 81.7%, forg= -1.7% <<<
>>> Test on task  9 : loss=0.444 | TAw acc= 95.8%, forg= -1.7%| TAg acc= 89.2%, forg=  0.8% <<<
>>> Test on task 10 : loss=0.761 | TAw acc= 98.3%, forg= -0.8%| TAg acc= 82.5%, forg=  1.7% <<<
>>> Test on task 11 : loss=0.773 | TAw acc= 99.2%, forg= -0.8%| TAg acc= 81.7%, forg=  0.0% <<<
>>> Test on task 12 : loss=0.707 | TAw acc= 97.5%, forg=  0.8%| TAg acc= 84.2%, forg= -2.5% <<<
>>> Test on task 13 : loss=0.605 | TAw acc=100.0%, forg=  0.0%| TAg acc= 89.2%, forg=  0.0% <<<
Save at k=100/eeil_e5_dsads_2/har_flex_eeil
======
LLL_Net(
  (model): SimpleMLP(
    (fc1): Linear(in_features=405, out_features=66, bias=True)
    (fc2): Sequential()
  )
  (heads): ModuleList(
    (0): Linear(in_features=66, out_features=12, bias=True)
    (1): Linear(in_features=66, out_features=10, bias=True)
    (2): Linear(in_features=66, out_features=10, bias=True)
    (3): Linear(in_features=66, out_features=10, bias=True)
    (4): Linear(in_features=66, out_features=10, bias=True)
    (5): Linear(in_features=66, out_features=10, bias=True)
    (6): Linear(in_features=66, out_features=10, bias=True)
    (7): Linear(in_features=66, out_features=10, bias=True)
    (8): Linear(in_features=66, out_features=10, bias=True)
    (9): Linear(in_features=66, out_features=10, bias=True)
    (10): Linear(in_features=66, out_features=10, bias=True)
    (11): Linear(in_features=66, out_features=10, bias=True)
    (12): Linear(in_features=66, out_features=10, bias=True)
    (13): Linear(in_features=66, out_features=10, bias=True)
  )
)
======

************************************************************************************************************
Task 14
************************************************************************************************************
| Epoch   1, time=  2.3s | Train: skip eval | Valid: time=  0.2s loss=3.815, TAw acc= 64.6% | *
| Epoch   2, time=  2.2s | Train: skip eval | Valid: time=  0.2s loss=2.229, TAw acc= 91.7% | *
…
