…
| Selected 865 train exemplars, time=  0.4s
865
------------------------------------------------------------------------------------------------------------
>>> Test on task  0 : loss=0.580 | TAw acc= 85.8%, forg=  0.0%| TAg acc= 79.7%, forg=  6.1% <<<
>>> Test on task  1 : loss=15.063 | TAw acc= 96.0%, forg=  0.0%| TAg acc= 95.0%, forg=  1.0% <<<
>>> Test on task  2 : loss=24.015 | TAw acc= 95.9%, forg=  0.0%| TAg acc= 89.3%, forg=  1.6% <<<
>>> Test on task  3 : loss=29.259 | TAw acc= 89.7%, forg=  0.0%| TAg acc= 81.2%, forg=  0.0% <<<
Save at icarl_wisdm_2/wisdm_flex_icarl
======
LLL_Net(
  (model): SimpleMLP(
    (fc1): Linear(in_features=91, out_features=1000, bias=True)
    (fc2): Sequential()
  )
  (heads): ModuleList(
    (0): Linear(in_features=1000, out_features=34, bias=True)
    (1): Linear(in_features=1000, out_features=20, bias=True)
    (2): Linear(in_features=1000, out_features=20, bias=True)
    (3): Linear(in_features=1000, out_features=20, bias=True)
  )
)
======

************************************************************************************************************
Task  4
************************************************************************************************************
| Epoch   1, time=  0.9s | Train: skip eval | Valid: time=  0.2s loss=42.113, TAw acc= 36.8% | *
| Epoch   2, time=  0.9s | Train: skip eval | Valid: time=  0.2s loss=38.951, TAw acc= 63.2% | *
…
------------------------------------------------------------------------------------------------------------
>>> Test on task  0 : loss=0.594 | TAw acc= 85.8%, forg=  0.0%| TAg acc= 77.2%, forg=  8.6% <<<
>>> Test on task  1 : loss=14.996 | TAw acc= 96.0%, forg=  0.0%| TAg acc= 94.1%, forg=  2.0% <<<
>>> Test on task  2 : loss=23.902 | TAw acc= 95.9%, forg=  0.0%| TAg acc= 88.5%, forg=  2.5% <<<
>>> Test on task  3 : loss=29.210 | TAw acc= 89.7%, forg=  0.0%| TAg acc= 80.3%, forg=  0.9% <<<
>>> Test on task  4 : loss=36.570 | TAw acc= 97.9%, forg=  0.0%| TAg acc= 85.3%, forg=  0.0% <<<
Save at icarl_wisdm_2/wisdm_flex_icarl
======
LLL_Net(
  (model): SimpleMLP(
    (fc1): Linear(in_features=91, out_features=1000, bias=True)
    (fc2): Sequential()
  )
  (heads): ModuleList(
    (0): Linear(in_features=1000, out_features=34, bias=True)
    (1): Linear(in_features=1000, out_features=20, bias=True)
    (2): Linear(in_features=1000, out_features=20, bias=True)
    (3): Linear(in_features=1000, out_features=20, bias=True)
    (4): Linear(in_features=1000, out_features=20, bias=True)
  )
)
======

************************************************************************************************************
Task  5
************************************************************************************************************
| Epoch   1, time=  1.2s | Train: skip eval | Valid: time=  0.2s loss=48.636, TAw acc= 33.3% | *
| Epoch   2, time=  1.2s | Train: skip eval | Valid: time=  0.2s loss=46.048, TAw acc= 36.1% | *
…
>>> Test on task  0 : loss=0.658 | TAw acc= 85.8%, forg=  0.0%| TAg acc= 76.1%, forg=  9.6% <<<
>>> Test on task  1 : loss=15.000 | TAw acc= 96.0%, forg=  0.0%| TAg acc= 89.1%, forg=  6.9% <<<
>>> Test on task  2 : loss=23.875 | TAw acc= 95.9%, forg=  0.0%| TAg acc= 85.2%, forg=  5.7% <<<
>>> Test on task  3 : loss=29.166 | TAw acc= 89.7%, forg=  0.0%| TAg acc= 79.5%, forg=  1.7% <<<
>>> Test on task  4 : loss=36.515 | TAw acc= 97.9%, forg=  0.0%| TAg acc= 85.3%, forg=  0.0% <<<
>>> Test on task  5 : loss=44.075 | TAw acc= 88.9%, forg=  0.0%| TAg acc= 71.7%, forg=  0.0% <<<
Save at icarl_wisdm_2/wisdm_flex_icarl
======
LLL_Net(
  (model): SimpleMLP(
    (fc1): Linear(in_features=91, out_features=1000, bias=True)
    (fc2): Sequential()
  )
  (heads): ModuleList(
    (0): Linear(in_features=1000, out_features=34, bias=True)
    (1): Linear(in_features=1000, out_features=20, bias=True)
    (2): Linear(in_features=1000, out_features=20, bias=True)
    (3): Linear(in_features=1000, out_features=20, bias=True)
    (4): Linear(in_features=1000, out_features=20, bias=True)
    (5): Linear(in_features=1000, out_features=20, bias=True)
  )
)
======

************************************************************************************************************
Task  6
************************************************************************************************************
| Epoch   1, time=  1.5s | Train: skip eval | Valid: time=  0.2s loss=56.256, TAw acc= 51.9% | *
| Epoch   2, time=  1.5s | Train: skip eval | Valid: time=  0.2s loss=53.180, TAw acc= 54.5% | *
…
>>> Test on task  1 : loss=14.991 | TAw acc= 96.0%, forg=  0.0%| TAg acc= 88.1%, forg=  7.9% <<<
>>> Test on task  2 : loss=23.827 | TAw acc= 95.9%, forg=  0.0%| TAg acc= 78.7%, forg= 12.3% <<<
>>> Test on task  3 : loss=29.068 | TAw acc= 89.7%, forg=  0.0%| TAg acc= 79.5%, forg=  1.7% <<<
>>> Test on task  4 : loss=36.458 | TAw acc= 97.9%, forg=  0.0%| TAg acc= 81.1%, forg=  4.2% <<<
>>> Test on task  5 : loss=44.052 | TAw acc= 88.9%, forg=  0.0%| TAg acc= 71.7%, forg=  0.0% <<<
>>> Test on task  6 : loss=48.340 | TAw acc= 97.2%, forg=  0.0%| TAg acc= 79.2%, forg=  0.0% <<<
Save at icarl_wisdm_2/wisdm_flex_icarl
======
LLL_Net(
  (model): SimpleMLP(
    (fc1): Linear(in_features=91, out_features=1000, bias=True)
    (fc2): Sequential()
  )
  (heads): ModuleList(
    (0): Linear(in_features=1000, out_features=34, bias=True)
    (1): Linear(in_features=1000, out_features=20, bias=True)
    (2): Linear(in_features=1000, out_features=20, bias=True)
    (3): Linear(in_features=1000, out_features=20, bias=True)
    (4): Linear(in_features=1000, out_features=20, bias=True)
    (5): Linear(in_features=1000, out_features=20, bias=True)
    (6): Linear(in_features=1000, out_features=20, bias=True)
  )
)
======

************************************************************************************************************
Task  7
************************************************************************************************************
| Epoch   1, time=  2.0s | Train: skip eval | Valid: time=  0.2s loss=62.270, TAw acc= 45.3% | *
| Epoch   2, time=  2.1s | Train: skip eval | Valid: time=  0.2s loss=58.813, TAw acc= 57.9% | *
…
>>> Test on task  2 : loss=23.875 | TAw acc= 95.9%, forg=  0.0%| TAg acc= 73.8%, forg= 17.2% <<<
>>> Test on task  3 : loss=29.026 | TAw acc= 89.7%, forg=  0.0%| TAg acc= 78.6%, forg=  2.6% <<<
>>> Test on task  4 : loss=36.339 | TAw acc= 97.9%, forg=  0.0%| TAg acc= 80.0%, forg=  5.3% <<<
>>> Test on task  5 : loss=43.939 | TAw acc= 88.9%, forg=  0.0%| TAg acc= 69.7%, forg=  2.0% <<<
>>> Test on task  6 : loss=48.352 | TAw acc= 97.2%, forg=  0.0%| TAg acc= 79.2%, forg=  0.0% <<<
>>> Test on task  7 : loss=55.605 | TAw acc= 93.7%, forg=  0.0%| TAg acc= 70.9%, forg=  0.0% <<<
Save at icarl_wisdm_2/wisdm_flex_icarl
======
LLL_Net(
  (model): SimpleMLP(
    (fc1): Linear(in_features=91, out_features=1000, bias=True)
    (fc2): Sequential()
  )
  (heads): ModuleList(
    (0): Linear(in_features=1000, out_features=34, bias=True)
    (1): Linear(in_features=1000, out_features=20, bias=True)
    (2): Linear(in_features=1000, out_features=20, bias=True)
    (3): Linear(in_features=1000, out_features=20, bias=True)
    (4): Linear(in_features=1000, out_features=20, bias=True)
    (5): Linear(in_features=1000, out_features=20, bias=True)
    (6): Linear(in_features=1000, out_features=20, bias=True)
    (7): Linear(in_features=1000, out_features=20, bias=True)
  )
)
======

************************************************************************************************************
Task  8
************************************************************************************************************
| Epoch   1, time=  2.4s | Train: skip eval | Valid: time=  0.2s loss=67.183, TAw acc= 52.9% | *
| Epoch   2, time=  2.4s | Train: skip eval | Valid: time=  0.2s loss=63.285, TAw acc= 52.9% | *
…
>>> Test on task  3 : loss=29.082 | TAw acc= 89.7%, forg=  0.0%| TAg acc= 77.8%, forg=  3.4% <<<
>>> Test on task  4 : loss=36.260 | TAw acc= 97.9%, forg=  0.0%| TAg acc= 76.8%, forg=  8.4% <<<
>>> Test on task  5 : loss=43.771 | TAw acc= 88.9%, forg=  0.0%| TAg acc= 68.7%, forg=  3.0% <<<
>>> Test on task  6 : loss=48.169 | TAw acc= 97.2%, forg=  0.0%| TAg acc= 78.3%, forg=  0.9% <<<
>>> Test on task  7 : loss=55.799 | TAw acc= 93.7%, forg=  0.0%| TAg acc= 66.9%, forg=  3.9% <<<
>>> Test on task  8 : loss=58.960 | TAw acc= 87.7%, forg=  0.0%| TAg acc= 65.8%, forg=  0.0% <<<
Save at icarl_wisdm_2/wisdm_flex_icarl
======
LLL_Net(
  (model): SimpleMLP(
    (fc1): Linear(in_features=91, out_features=1000, bias=True)
    (fc2): Sequential()
  )
  (heads): ModuleList(
    (0): Linear(in_features=1000, out_features=34, bias=True)
    (1): Linear(in_features=1000, out_features=20, bias=True)
    (2): Linear(in_features=1000, out_features=20, bias=True)
    (3): Linear(in_features=1000, out_features=20, bias=True)
    (4): Linear(in_features=1000, out_features=20, bias=True)
    (5): Linear(in_features=1000, out_features=20, bias=True)
    (6): Linear(in_features=1000, out_features=20, bias=True)
    (7): Linear(in_features=1000, out_features=20, bias=True)
    (8): Linear(in_features=1000, out_features=20, bias=True)
  )
)
======

************************************************************************************************************
Task  9
************************************************************************************************************
| Epoch   1, time=  3.0s | Train: skip eval | Valid: time=  0.4s loss=70.908, TAw acc= 36.7% | *
| Epoch   2, time=  3.4s | Train: skip eval | Valid: time=  0.2s loss=66.933, TAw acc= 59.5% | *
…
>>> Test on task  4 : loss=36.158 | TAw acc= 97.9%, forg=  0.0%| TAg acc= 75.8%, forg=  9.5% <<<
>>> Test on task  5 : loss=43.610 | TAw acc= 88.9%, forg=  0.0%| TAg acc= 68.7%, forg=  3.0% <<<
>>> Test on task  6 : loss=48.073 | TAw acc= 97.2%, forg=  0.0%| TAg acc= 75.5%, forg=  3.8% <<<
>>> Test on task  7 : loss=55.575 | TAw acc= 93.7%, forg=  0.0%| TAg acc= 66.1%, forg=  4.7% <<<
>>> Test on task  8 : loss=59.031 | TAw acc= 87.7%, forg=  0.0%| TAg acc= 65.8%, forg=  0.0% <<<
>>> Test on task  9 : loss=62.329 | TAw acc= 97.2%, forg=  0.0%| TAg acc= 76.6%, forg=  0.0% <<<
Save at icarl_wisdm_2/wisdm_flex_icarl
======
LLL_Net(
  (model): SimpleMLP(
    (fc1): Linear(in_features=91, out_features=1000, bias=True)
    (fc2): Sequential()
  )
  (heads): ModuleList(
    (0): Linear(in_features=1000, out_features=34, bias=True)
    (1): Linear(in_features=1000, out_features=20, bias=True)
    (2): Linear(in_features=1000, out_features=20, bias=True)
    (3): Linear(in_features=1000, out_features=20, bias=True)
    (4): Linear(in_features=1000, out_features=20, bias=True)
    (5): Linear(in_features=1000, out_features=20, bias=True)
    (6): Linear(in_features=1000, out_features=20, bias=True)
    (7): Linear(in_features=1000, out_features=20, bias=True)
    (8): Linear(in_features=1000, out_features=20, bias=True)
    (9): Linear(in_features=1000, out_features=20, bias=True)
  )
)
======

************************************************************************************************************
Task 10
************************************************************************************************************
| Epoch   1, time=  3.3s | Train: skip eval | Valid: time=  0.2s loss=71.218, TAw acc= 41.9% | *
| Epoch   2, time=  3.3s | Train: skip eval | Valid: time=  0.2s loss=67.314, TAw acc= 52.7% | *
…
>>> Test on task  5 : loss=43.561 | TAw acc= 88.9%, forg=  0.0%| TAg acc= 65.7%, forg=  6.1% <<<
>>> Test on task  6 : loss=47.946 | TAw acc= 97.2%, forg=  0.0%| TAg acc= 75.5%, forg=  3.8% <<<
>>> Test on task  7 : loss=55.423 | TAw acc= 93.7%, forg=  0.0%| TAg acc= 65.4%, forg=  5.5% <<<
>>> Test on task  8 : loss=58.833 | TAw acc= 87.7%, forg=  0.0%| TAg acc= 65.8%, forg=  0.0% <<<
>>> Test on task  9 : loss=62.327 | TAw acc= 97.2%, forg=  0.0%| TAg acc= 75.7%, forg=  0.9% <<<
>>> Test on task 10 : loss=64.948 | TAw acc= 88.2%, forg=  0.0%| TAg acc= 69.6%, forg=  0.0% <<<
Save at icarl_wisdm_2/wisdm_flex_icarl
======
LLL_Net(
  (model): SimpleMLP(
    (fc1): Linear(in_features=91, out_features=1000, bias=True)
    (fc2): Sequential()
  )
  (heads): ModuleList(
    (0): Linear(in_features=1000, out_features=34, bias=True)
    (1): Linear(in_features=1000, out_features=20, bias=True)
    (2): Linear(in_features=1000, out_features=20, bias=True)
    (3): Linear(in_features=1000, out_features=20, bias=True)
    (4): Linear(in_features=1000, out_features=20, bias=True)
    (5): Linear(in_features=1000, out_features=20, bias=True)
    (6): Linear(in_features=1000, out_features=20, bias=True)
    (7): Linear(in_features=1000, out_features=20, bias=True)
    (8): Linear(in_features=1000, out_features=20, bias=True)
    (9): Linear(in_features=1000, out_features=20, bias=True)
    (10): Linear(in_features=1000, out_features=20, bias=True)
  )
)
======

************************************************************************************************************
Task 11
************************************************************************************************************
| Epoch   1, time=  3.7s | Train: skip eval | Valid: time=  0.2s loss=78.918, TAw acc= 58.9% | *
| Epoch   2, time=  3.8s | Train: skip eval | Valid: time=  0.2s loss=74.601, TAw acc= 63.2% | *
…
>>> Test on task  6 : loss=47.865 | TAw acc= 97.2%, forg=  0.0%| TAg acc= 75.5%, forg=  3.8% <<<
>>> Test on task  7 : loss=55.241 | TAw acc= 93.7%, forg=  0.0%| TAg acc= 65.4%, forg=  5.5% <<<
>>> Test on task  8 : loss=58.572 | TAw acc= 87.7%, forg=  0.0%| TAg acc= 65.8%, forg=  0.0% <<<
>>> Test on task  9 : loss=62.173 | TAw acc= 97.2%, forg=  0.0%| TAg acc= 75.7%, forg=  0.9% <<<
>>> Test on task 10 : loss=64.837 | TAw acc= 88.2%, forg=  0.0%| TAg acc= 69.6%, forg=  0.0% <<<
>>> Test on task 11 : loss=70.957 | TAw acc= 98.4%, forg=  0.0%| TAg acc= 88.9%, forg=  0.0% <<<
Save at icarl_wisdm_2/wisdm_flex_icarl
======
LLL_Net(
  (model): SimpleMLP(
    (fc1): Linear(in_features=91, out_features=1000, bias=True)
    (fc2): Sequential()
  )
  (heads): ModuleList(
    (0): Linear(in_features=1000, out_features=34, bias=True)
    (1): Linear(in_features=1000, out_features=20, bias=True)
    (2): Linear(in_features=1000, out_features=20, bias=True)
    (3): Linear(in_features=1000, out_features=20, bias=True)
    (4): Linear(in_features=1000, out_features=20, bias=True)
    (5): Linear(in_features=1000, out_features=20, bias=True)
    (6): Linear(in_features=1000, out_features=20, bias=True)
    (7): Linear(in_features=1000, out_features=20, bias=True)
    (8): Linear(in_features=1000, out_features=20, bias=True)
    (9): Linear(in_features=1000, out_features=20, bias=True)
    (10): Linear(in_features=1000, out_features=20, bias=True)
    (11): Linear(in_features=1000, out_features=20, bias=True)
  )
)
======

************************************************************************************************************
Task 12
************************************************************************************************************
| Epoch   1, time=  4.5s | Train: skip eval | Valid: time=  0.2s loss=83.608, TAw acc= 36.0% | *
| Epoch   2, time=  4.3s | Train: skip eval | Valid: time=  0.2s loss=79.413, TAw acc= 46.7% | *
…
>>> Test on task  7 : loss=55.116 | TAw acc= 93.7%, forg=  0.0%| TAg acc= 65.4%, forg=  5.5% <<<
>>> Test on task  8 : loss=58.383 | TAw acc= 87.7%, forg=  0.0%| TAg acc= 64.0%, forg=  1.8% <<<
>>> Test on task  9 : loss=62.050 | TAw acc= 97.2%, forg=  0.0%| TAg acc= 74.8%, forg=  1.9% <<<
>>> Test on task 10 : loss=64.677 | TAw acc= 88.2%, forg=  0.0%| TAg acc= 69.6%, forg=  0.0% <<<
>>> Test on task 11 : loss=70.922 | TAw acc= 98.4%, forg=  0.0%| TAg acc= 88.1%, forg=  0.8% <<<
>>> Test on task 12 : loss=70.705 | TAw acc= 92.2%, forg=  0.0%| TAg acc= 80.4%, forg=  0.0% <<<
Save at icarl_wisdm_2/wisdm_flex_icarl
======
LLL_Net(
  (model): SimpleMLP(
    (fc1): Linear(in_features=91, out_features=1000, bias=True)
    (fc2): Sequential()
  )
  (heads): ModuleList(
    (0): Linear(in_features=1000, out_features=34, bias=True)
    (1): Linear(in_features=1000, out_features=20, bias=True)
    (2): Linear(in_features=1000, out_features=20, bias=True)
    (3): Linear(in_features=1000, out_features=20, bias=True)
    (4): Linear(in_features=1000, out_features=20, bias=True)
    (5): Linear(in_features=1000, out_features=20, bias=True)
    (6): Linear(in_features=1000, out_features=20, bias=True)
    (7): Linear(in_features=1000, out_features=20, bias=True)
    (8): Linear(in_features=1000, out_features=20, bias=True)
    (9): Linear(in_features=1000, out_features=20, bias=True)
    (10): Linear(in_features=1000, out_features=20, bias=True)
    (11): Linear(in_features=1000, out_features=20, bias=True)
    (12): Linear(in_features=1000, out_features=20, bias=True)
  )
)
======

************************************************************************************************************
Task 13
************************************************************************************************************
| Epoch   1, time=  5.1s | Train: skip eval | Valid: time=  0.2s loss=80.565, TAw acc= 63.4% | *
| Epoch   2, time=  4.8s | Train: skip eval | Valid: time=  0.2s loss=75.325, TAw acc= 64.6% | *
…
>>> Test on task  8 : loss=58.271 | TAw acc= 87.7%, forg=  0.0%| TAg acc= 64.0%, forg=  1.8% <<<
>>> Test on task  9 : loss=61.926 | TAw acc= 97.2%, forg=  0.0%| TAg acc= 74.8%, forg=  1.9% <<<
>>> Test on task 10 : loss=64.588 | TAw acc= 88.2%, forg=  0.0%| TAg acc= 69.6%, forg=  0.0% <<<
>>> Test on task 11 : loss=70.830 | TAw acc= 98.4%, forg=  0.0%| TAg acc= 88.1%, forg=  0.8% <<<
>>> Test on task 12 : loss=70.733 | TAw acc= 92.2%, forg=  0.0%| TAg acc= 80.4%, forg=  0.0% <<<
>>> Test on task 13 : loss=71.382 | TAw acc= 99.1%, forg=  0.0%| TAg acc= 70.5%, forg=  0.0% <<<
Save at icarl_wisdm_2/wisdm_flex_icarl
======
LLL_Net(
  (model): SimpleMLP(
    (fc1): Linear(in_features=91, out_features=1000, bias=True)
    (fc2): Sequential()
  )
  (heads): ModuleList(
    (0): Linear(in_features=1000, out_features=34, bias=True)
    (1): Linear(in_features=1000, out_features=20, bias=True)
    (2): Linear(in_features=1000, out_features=20, bias=True)
    (3): Linear(in_features=1000, out_features=20, bias=True)
    (4): Linear(in_features=1000, out_features=20, bias=True)
    (5): Linear(in_features=1000, out_features=20, bias=True)
    (6): Linear(in_features=1000, out_features=20, bias=True)
    (7): Linear(in_features=1000, out_features=20, bias=True)
    (8): Linear(in_features=1000, out_features=20, bias=True)
    (9): Linear(in_features=1000, out_features=20, bias=True)
    (10): Linear(in_features=1000, out_features=20, bias=True)
    (11): Linear(in_features=1000, out_features=20, bias=True)
    (12): Linear(in_features=1000, out_features=20, bias=True)
    (13): Linear(in_features=1000, out_features=20, bias=True)
  )
)
======

************************************************************************************************************
Task 14
************************************************************************************************************
| Epoch   1, time=  5.4s | Train: skip eval | Valid: time=  0.2s loss=85.529, TAw acc= 41.0% | *
| Epoch   2, time=  5.8s | Train: skip eval | Valid: time=  0.2s loss=80.887, TAw acc= 35.9% | *
…
>>> Test on task  9 : loss=61.744 | TAw acc= 97.2%, forg=  0.0%| TAg acc= 73.8%, forg=  2.8% <<<
>>> Test on task 10 : loss=64.401 | TAw acc= 88.2%, forg=  0.0%| TAg acc= 69.6%, forg=  0.0% <<<
>>> Test on task 11 : loss=70.685 | TAw acc= 98.4%, forg=  0.0%| TAg acc= 88.1%, forg=  0.8% <<<
>>> Test on task 12 : loss=70.542 | TAw acc= 92.2%, forg=  0.0%| TAg acc= 80.4%, forg=  0.0% <<<
>>> Test on task 13 : loss=71.378 | TAw acc= 99.1%, forg=  0.0%| TAg acc= 70.5%, forg=  0.0% <<<
>>> Test on task 14 : loss=74.777 | TAw acc= 89.7%, forg=  0.0%| TAg acc= 62.6%, forg=  0.0% <<<
Save at icarl_wisdm_2/wisdm_flex_icarl
======
LLL_Net(
  (model): SimpleMLP(
    (fc1): Linear(in_features=91, out_features=1000, bias=True)
    (fc2): Sequential()
  )
  (heads): ModuleList(
    (0): Linear(in_features=1000, out_features=34, bias=True)
    (1): Linear(in_features=1000, out_features=20, bias=True)
    (2): Linear(in_features=1000, out_features=20, bias=True)
    (3): Linear(in_features=1000, out_features=20, bias=True)
    (4): Linear(in_features=1000, out_features=20, bias=True)
    (5): Linear(in_features=1000, out_features=20, bias=True)
    (6): Linear(in_features=1000, out_features=20, bias=True)
    (7): Linear(in_features=1000, out_features=20, bias=True)
    (8): Linear(in_features=1000, out_features=20, bias=True)
    (9): Linear(in_features=1000, out_features=20, bias=True)
    (10): Linear(in_features=1000, out_features=20, bias=True)
    (11): Linear(in_features=1000, out_features=20, bias=True)
    (12): Linear(in_features=1000, out_features=20, bias=True)
    (13): Linear(in_features=1000, out_features=20, bias=True)
    (14): Linear(in_features=1000, out_features=20, bias=True)
  )
)
======

************************************************************************************************************
Task 15
************************************************************************************************************
| Epoch   1, time=  6.5s | Train: skip eval | Valid: time=  0.2s loss=85.501, TAw acc= 31.8% | *
| Epoch   2, time=  6.4s | Train: skip eval | Valid: time=  0.2s loss=81.164, TAw acc= 52.9% | *
…
>>> Test on task 10 : loss=64.203 | TAw acc= 88.2%, forg=  0.0%| TAg acc= 64.7%, forg=  4.9% <<<
>>> Test on task 11 : loss=70.425 | TAw acc= 98.4%, forg=  0.0%| TAg acc= 88.1%, forg=  0.8% <<<
>>> Test on task 12 : loss=70.301 | TAw acc= 92.2%, forg=  0.0%| TAg acc= 80.4%, forg=  0.0% <<<
>>> Test on task 13 : loss=71.123 | TAw acc= 99.1%, forg=  0.0%| TAg acc= 70.5%, forg=  0.0% <<<
>>> Test on task 14 : loss=74.705 | TAw acc= 89.7%, forg=  0.0%| TAg acc= 62.6%, forg=  0.0% <<<
>>> Test on task 15 : loss=73.549 | TAw acc= 96.5%, forg=  0.0%| TAg acc= 84.3%, forg=  0.0% <<<
Save at icarl_wisdm_2/wisdm_flex_icarl
======
LLL_Net(
  (model): SimpleMLP(
    (fc1): Linear(in_features=91, out_features=1000, bias=True)
    (fc2): Sequential()
  )
  (heads): ModuleList(
    (0): Linear(in_features=1000, out_features=34, bias=True)
    (1): Linear(in_features=1000, out_features=20, bias=True)
    (2): Linear(in_features=1000, out_features=20, bias=True)
    (3): Linear(in_features=1000, out_features=20, bias=True)
    (4): Linear(in_features=1000, out_features=20, bias=True)
    (5): Linear(in_features=1000, out_features=20, bias=True)
    (6): Linear(in_features=1000, out_features=20, bias=True)
    (7): Linear(in_features=1000, out_features=20, bias=True)
    (8): Linear(in_features=1000, out_features=20, bias=True)
    (9): Linear(in_features=1000, out_features=20, bias=True)
    (10): Linear(in_features=1000, out_features=20, bias=True)
    (11): Linear(in_features=1000, out_features=20, bias=True)
    (12): Linear(in_features=1000, out_features=20, bias=True)
    (13): Linear(in_features=1000, out_features=20, bias=True)
    (14): Linear(in_features=1000, out_features=20, bias=True)
    (15): Linear(in_features=1000, out_features=20, bias=True)
  )
)
======

************************************************************************************************************
Task 16
************************************************************************************************************
| Epoch   1, time=  7.2s | Train: skip eval | Valid: time=  0.2s loss=92.137, TAw acc= 42.1% | *
| Epoch   2, time=  7.2s | Train: skip eval | Valid: time=  0.2s loss=87.726, TAw acc= 39.5% | *
…
>>> Test on task 11 : loss=70.331 | TAw acc= 98.4%, forg=  0.0%| TAg acc= 88.1%, forg=  0.8% <<<
>>> Test on task 12 : loss=70.221 | TAw acc= 92.2%, forg=  0.0%| TAg acc= 80.4%, forg=  0.0% <<<
>>> Test on task 13 : loss=71.075 | TAw acc= 99.1%, forg=  0.0%| TAg acc= 70.5%, forg=  0.0% <<<
>>> Test on task 14 : loss=74.674 | TAw acc= 89.7%, forg=  0.0%| TAg acc= 62.6%, forg=  0.0% <<<
>>> Test on task 15 : loss=73.600 | TAw acc= 96.5%, forg=  0.0%| TAg acc= 84.3%, forg=  0.0% <<<
>>> Test on task 16 : loss=84.992 | TAw acc= 86.5%, forg=  0.0%| TAg acc= 73.1%, forg=  0.0% <<<
Save at icarl_wisdm_2/wisdm_flex_icarl
======
LLL_Net(
  (model): SimpleMLP(
    (fc1): Linear(in_features=91, out_features=1000, bias=True)
    (fc2): Sequential()
  )
  (heads): ModuleList(
    (0): Linear(in_features=1000, out_features=34, bias=True)
    (1): Linear(in_features=1000, out_features=20, bias=True)
    (2): Linear(in_features=1000, out_features=20, bias=True)
    (3): Linear(in_features=1000, out_features=20, bias=True)
    (4): Linear(in_features=1000, out_features=20, bias=True)
    (5): Linear(in_features=1000, out_features=20, bias=True)
    (6): Linear(in_features=1000, out_features=20, bias=True)
    (7): Linear(in_features=1000, out_features=20, bias=True)
    (8): Linear(in_features=1000, out_features=20, bias=True)
    (9): Linear(in_features=1000, out_features=20, bias=True)
    (10): Linear(in_features=1000, out_features=20, bias=True)
    (11): Linear(in_features=1000, out_features=20, bias=True)
    (12): Linear(in_features=1000, out_features=20, bias=True)
    (13): Linear(in_features=1000, out_features=20, bias=True)
    (14): Linear(in_features=1000, out_features=20, bias=True)
    (15): Linear(in_features=1000, out_features=20, bias=True)
    (16): Linear(in_features=1000, out_features=20, bias=True)
  )
)
======

************************************************************************************************************
Task 17
************************************************************************************************************
| Epoch   1, time=  7.6s | Train: skip eval | Valid: time=  0.2s loss=96.665, TAw acc= 63.6% | *
| Epoch   2, time=  8.2s | Train: skip eval | Valid: time=  0.2s loss=91.861, TAw acc= 67.0% | *
…
>>> Test on task 12 : loss=70.106 | TAw acc= 92.2%, forg=  0.0%| TAg acc= 76.5%, forg=  3.9% <<<
>>> Test on task 13 : loss=70.933 | TAw acc= 99.1%, forg=  0.0%| TAg acc= 69.6%, forg=  0.9% <<<
>>> Test on task 14 : loss=74.435 | TAw acc= 89.7%, forg=  0.0%| TAg acc= 62.6%, forg=  0.0% <<<
>>> Test on task 15 : loss=73.495 | TAw acc= 96.5%, forg=  0.0%| TAg acc= 83.5%, forg=  0.9% <<<
>>> Test on task 16 : loss=84.861 | TAw acc= 86.5%, forg=  0.0%| TAg acc= 73.1%, forg=  0.0% <<<
>>> Test on task 17 : loss=84.942 | TAw acc= 93.2%, forg=  0.0%| TAg acc= 76.3%, forg=  0.0% <<<
Save at icarl_wisdm_2/wisdm_flex_icarl
======
LLL_Net(
  (model): SimpleMLP(
    (fc1): Linear(in_features=91, out_features=1000, bias=True)
    (fc2): Sequential()
  )
  (heads): ModuleList(
    (0): Linear(in_features=1000, out_features=34, bias=True)
    (1): Linear(in_features=1000, out_features=20, bias=True)
    (2): Linear(in_features=1000, out_features=20, bias=True)
    (3): Linear(in_features=1000, out_features=20, bias=True)
    (4): Linear(in_features=1000, out_features=20, bias=True)
    (5): Linear(in_features=1000, out_features=20, bias=True)
    (6): Linear(in_features=1000, out_features=20, bias=True)
    (7): Linear(in_features=1000, out_features=20, bias=True)
    (8): Linear(in_features=1000, out_features=20, bias=True)
    (9): Linear(in_features=1000, out_features=20, bias=True)
    (10): Linear(in_features=1000, out_features=20, bias=True)
    (11): Linear(in_features=1000, out_features=20, bias=True)
    (12): Linear(in_features=1000, out_features=20, bias=True)
    (13): Linear(in_features=1000, out_features=20, bias=True)
    (14): Linear(in_features=1000, out_features=20, bias=True)
    (15): Linear(in_features=1000, out_features=20, bias=True)
    (16): Linear(in_features=1000, out_features=20, bias=True)
    (17): Linear(in_features=1000, out_features=20, bias=True)
  )
)
======

************************************************************************************************************
Task 18
************************************************************************************************************
| Epoch   1, time=  8.5s | Train: skip eval | Valid: time=  0.2s loss=94.816, TAw acc= 51.8% | *
| Epoch   2, time=  8.9s | Train: skip eval | Valid: time=  0.2s loss=89.201, TAw acc= 68.2% | *
…
>>> Test on task 13 : loss=70.829 | TAw acc= 99.1%, forg=  0.0%| TAg acc= 67.9%, forg=  2.7% <<<
>>> Test on task 14 : loss=74.364 | TAw acc= 89.7%, forg=  0.0%| TAg acc= 62.6%, forg=  0.0% <<<
>>> Test on task 15 : loss=73.421 | TAw acc= 96.5%, forg=  0.0%| TAg acc= 83.5%, forg=  0.9% <<<
>>> Test on task 16 : loss=84.691 | TAw acc= 86.5%, forg=  0.0%| TAg acc= 73.1%, forg=  0.0% <<<
>>> Test on task 17 : loss=84.970 | TAw acc= 93.2%, forg=  0.0%| TAg acc= 76.3%, forg=  0.0% <<<
>>> Test on task 18 : loss=83.321 | TAw acc= 93.9%, forg=  0.0%| TAg acc= 67.8%, forg=  0.0% <<<
Save at icarl_wisdm_2/wisdm_flex_icarl
======
LLL_Net(
  (model): SimpleMLP(
    (fc1): Linear(in_features=91, out_features=1000, bias=True)
    (fc2): Sequential()
  )
  (heads): ModuleList(
    (0): Linear(in_features=1000, out_features=34, bias=True)
    (1): Linear(in_features=1000, out_features=20, bias=True)
    (2): Linear(in_features=1000, out_features=20, bias=True)
    (3): Linear(in_features=1000, out_features=20, bias=True)
    (4): Linear(in_features=1000, out_features=20, bias=True)
    (5): Linear(in_features=1000, out_features=20, bias=True)
    (6): Linear(in_features=1000, out_features=20, bias=True)
    (7): Linear(in_features=1000, out_features=20, bias=True)
    (8): Linear(in_features=1000, out_features=20, bias=True)
    (9): Linear(in_features=1000, out_features=20, bias=True)
    (10): Linear(in_features=1000, out_features=20, bias=True)
    (11): Linear(in_features=1000, out_features=20, bias=True)
    (12): Linear(in_features=1000, out_features=20, bias=True)
    (13): Linear(in_features=1000, out_features=20, bias=True)
    (14): Linear(in_features=1000, out_features=20, bias=True)
    (15): Linear(in_features=1000, out_features=20, bias=True)
    (16): Linear(in_features=1000, out_features=20, bias=True)
    (17): Linear(in_features=1000, out_features=20, bias=True)
    (18): Linear(in_features=1000, out_features=20, bias=True)
  )
)
======

************************************************************************************************************
Task 19
************************************************************************************************************
| Epoch   1, time=  9.4s | Train: skip eval | Valid: time=  0.2s loss=91.107, TAw acc= 44.6% | *
| Epoch   2, time=  9.6s | Train: skip eval | Valid: time=  0.3s loss=86.744, TAw acc= 53.0% | *
…
>>> Test on task 14 : loss=74.240 | TAw acc= 89.7%, forg=  0.0%| TAg acc= 62.6%, forg=  0.0% <<<
>>> Test on task 15 : loss=73.324 | TAw acc= 96.5%, forg=  0.0%| TAg acc= 83.5%, forg=  0.9% <<<
>>> Test on task 16 : loss=84.586 | TAw acc= 86.5%, forg=  0.0%| TAg acc= 71.2%, forg=  1.9% <<<
>>> Test on task 17 : loss=84.862 | TAw acc= 93.2%, forg=  0.0%| TAg acc= 76.3%, forg=  0.0% <<<
>>> Test on task 18 : loss=83.527 | TAw acc= 93.9%, forg=  0.0%| TAg acc= 67.8%, forg=  0.0% <<<
>>> Test on task 19 : loss=80.206 | TAw acc= 92.0%, forg=  0.0%| TAg acc= 64.6%, forg=  0.0% <<<
Save at icarl_wisdm_2/wisdm_flex_icarl
======
LLL_Net(
  (model): SimpleMLP(
    (fc1): Linear(in_features=91, out_features=1000, bias=True)
    (fc2): Sequential()
  )
  (heads): ModuleList(
    (0): Linear(in_features=1000, out_features=34, bias=True)
    (1): Linear(in_features=1000, out_features=20, bias=True)
    (2): Linear(in_features=1000, out_features=20, bias=True)
    (3): Linear(in_features=1000, out_features=20, bias=True)
    (4): Linear(in_features=1000, out_features=20, bias=True)
    (5): Linear(in_features=1000, out_features=20, bias=True)
    (6): Linear(in_features=1000, out_features=20, bias=True)
    (7): Linear(in_features=1000, out_features=20, bias=True)
    (8): Linear(in_features=1000, out_features=20, bias=True)
    (9): Linear(in_features=1000, out_features=20, bias=True)
    (10): Linear(in_features=1000, out_features=20, bias=True)
    (11): Linear(in_features=1000, out_features=20, bias=True)
    (12): Linear(in_features=1000, out_features=20, bias=True)
    (13): Linear(in_features=1000, out_features=20, bias=True)
    (14): Linear(in_features=1000, out_features=20, bias=True)
    (15): Linear(in_features=1000, out_features=20, bias=True)
    (16): Linear(in_features=1000, out_features=20, bias=True)
    (17): Linear(in_features=1000, out_features=20, bias=True)
    (18): Linear(in_features=1000, out_features=20, bias=True)
    (19): Linear(in_features=1000, out_features=20, bias=True)
  )
)
======

************************************************************************************************************
Task 20
************************************************************************************************************
| Epoch   1, time= 10.6s | Train: skip eval | Valid: time=  0.2s loss=98.852, TAw acc= 54.5% | *
| Epoch   2, time= 10.7s | Train: skip eval | Valid: time=  0.2s loss=92.726, TAw acc= 62.5% | *
…
>>> Test on task 15 : loss=73.290 | TAw acc= 96.5%, forg=  0.0%| TAg acc= 82.6%, forg=  1.7% <<<
>>> Test on task 16 : loss=84.522 | TAw acc= 86.5%, forg=  0.0%| TAg acc= 70.2%, forg=  2.9% <<<
>>> Test on task 17 : loss=84.775 | TAw acc= 93.2%, forg=  0.0%| TAg acc= 75.4%, forg=  0.8% <<<
>>> Test on task 18 : loss=83.507 | TAw acc= 93.9%, forg=  0.0%| TAg acc= 66.1%, forg=  1.7% <<<
>>> Test on task 19 : loss=80.278 | TAw acc= 92.0%, forg=  0.0%| TAg acc= 63.7%, forg=  0.9% <<<
>>> Test on task 20 : loss=89.616 | TAw acc= 94.9%, forg=  0.0%| TAg acc= 66.9%, forg=  0.0% <<<
Save at icarl_wisdm_2/wisdm_flex_icarl
======
LLL_Net(
  (model): SimpleMLP(
    (fc1): Linear(in_features=91, out_features=1000, bias=True)
    (fc2): Sequential()
  )
  (heads): ModuleList(
    (0): Linear(in_features=1000, out_features=34, bias=True)
    (1): Linear(in_features=1000, out_features=20, bias=True)
    (2): Linear(in_features=1000, out_features=20, bias=True)
    (3): Linear(in_features=1000, out_features=20, bias=True)
    (4): Linear(in_features=1000, out_features=20, bias=True)
    (5): Linear(in_features=1000, out_features=20, bias=True)
    (6): Linear(in_features=1000, out_features=20, bias=True)
    (7): Linear(in_features=1000, out_features=20, bias=True)
    (8): Linear(in_features=1000, out_features=20, bias=True)
    (9): Linear(in_features=1000, out_features=20, bias=True)
    (10): Linear(in_features=1000, out_features=20, bias=True)
    (11): Linear(in_features=1000, out_features=20, bias=True)
    (12): Linear(in_features=1000, out_features=20, bias=True)
    (13): Linear(in_features=1000, out_features=20, bias=True)
    (14): Linear(in_features=1000, out_features=20, bias=True)
    (15): Linear(in_features=1000, out_features=20, bias=True)
    (16): Linear(in_features=1000, out_features=20, bias=True)
    (17): Linear(in_features=1000, out_features=20, bias=True)
    (18): Linear(in_features=1000, out_features=20, bias=True)
    (19): Linear(in_features=1000, out_features=20, bias=True)
    (20): Linear(in_features=1000, out_features=20, bias=True)
  )
)
======

************************************************************************************************************
Task 21
************************************************************************************************************
| Epoch   1, time= 11.7s | Train: skip eval | Valid: time=  0.3s loss=90.557, TAw acc= 60.2% | *
| Epoch   2, time= 11.4s | Train: skip eval | Valid: time=  0.3s loss=85.797, TAw acc= 64.5% | *
…
>>> Test on task 16 : loss=84.372 | TAw acc= 86.5%, forg=  0.0%| TAg acc= 70.2%, forg=  2.9% <<<
>>> Test on task 17 : loss=84.682 | TAw acc= 93.2%, forg=  0.0%| TAg acc= 75.4%, forg=  0.8% <<<
>>> Test on task 18 : loss=83.372 | TAw acc= 93.9%, forg=  0.0%| TAg acc= 66.1%, forg=  1.7% <<<
>>> Test on task 19 : loss=80.178 | TAw acc= 92.0%, forg=  0.0%| TAg acc= 63.7%, forg=  0.9% <<<
>>> Test on task 20 : loss=89.903 | TAw acc= 94.9%, forg=  0.0%| TAg acc= 66.9%, forg=  0.0% <<<
>>> Test on task 21 : loss=81.842 | TAw acc= 95.9%, forg=  0.0%| TAg acc= 76.2%, forg=  0.0% <<<
Save at icarl_wisdm_2/wisdm_flex_icarl
======
LLL_Net(
  (model): SimpleMLP(
    (fc1): Linear(in_features=91, out_features=1000, bias=True)
    (fc2): Sequential()
  )
  (heads): ModuleList(
    (0): Linear(in_features=1000, out_features=34, bias=True)
    (1): Linear(in_features=1000, out_features=20, bias=True)
    (2): Linear(in_features=1000, out_features=20, bias=True)
    (3): Linear(in_features=1000, out_features=20, bias=True)
    (4): Linear(in_features=1000, out_features=20, bias=True)
    (5): Linear(in_features=1000, out_features=20, bias=True)
    (6): Linear(in_features=1000, out_features=20, bias=True)
    (7): Linear(in_features=1000, out_features=20, bias=True)
    (8): Linear(in_features=1000, out_features=20, bias=True)
    (9): Linear(in_features=1000, out_features=20, bias=True)
    (10): Linear(in_features=1000, out_features=20, bias=True)
    (11): Linear(in_features=1000, out_features=20, bias=True)
    (12): Linear(in_features=1000, out_features=20, bias=True)
    (13): Linear(in_features=1000, out_features=20, bias=True)
    (14): Linear(in_features=1000, out_features=20, bias=True)
    (15): Linear(in_features=1000, out_features=20, bias=True)
    (16): Linear(in_features=1000, out_features=20, bias=True)
    (17): Linear(in_features=1000, out_features=20, bias=True)
    (18): Linear(in_features=1000, out_features=20, bias=True)
    (19): Linear(in_features=1000, out_features=20, bias=True)
    (20): Linear(in_features=1000, out_features=20, bias=True)
    (21): Linear(in_features=1000, out_features=20, bias=True)
  )
)
======

************************************************************************************************************
Task 22
************************************************************************************************************
| Epoch   1, time= 12.5s | Train: skip eval | Valid: time=  0.3s loss=102.763, TAw acc= 39.8% | *
| Epoch   2, time= 12.2s | Train: skip eval | Valid: time=  0.3s loss=97.337, TAw acc= 66.7% | *
…
>>> Test on task 17 : loss=84.446 | TAw acc= 93.2%, forg=  0.0%| TAg acc= 74.6%, forg=  1.7% <<<
>>> Test on task 18 : loss=83.225 | TAw acc= 93.9%, forg=  0.0%| TAg acc= 65.2%, forg=  2.6% <<<
>>> Test on task 19 : loss=80.009 | TAw acc= 92.0%, forg=  0.0%| TAg acc= 62.8%, forg=  1.8% <<<
>>> Test on task 20 : loss=89.653 | TAw acc= 94.9%, forg=  0.0%| TAg acc= 65.3%, forg=  1.7% <<<
>>> Test on task 21 : loss=82.063 | TAw acc= 95.9%, forg=  0.0%| TAg acc= 73.0%, forg=  3.3% <<<
>>> Test on task 22 : loss=94.745 | TAw acc= 96.8%, forg=  0.0%| TAg acc= 71.0%, forg=  0.0% <<<
Save at icarl_wisdm_2/wisdm_flex_icarl
======
LLL_Net(
  (model): SimpleMLP(
    (fc1): Linear(in_features=91, out_features=1000, bias=True)
    (fc2): Sequential()
  )
  (heads): ModuleList(
    (0): Linear(in_features=1000, out_features=34, bias=True)
    (1): Linear(in_features=1000, out_features=20, bias=True)
    (2): Linear(in_features=1000, out_features=20, bias=True)
    (3): Linear(in_features=1000, out_features=20, bias=True)
    (4): Linear(in_features=1000, out_features=20, bias=True)
    (5): Linear(in_features=1000, out_features=20, bias=True)
    (6): Linear(in_features=1000, out_features=20, bias=True)
    (7): Linear(in_features=1000, out_features=20, bias=True)
    (8): Linear(in_features=1000, out_features=20, bias=True)
    (9): Linear(in_features=1000, out_features=20, bias=True)
    (10): Linear(in_features=1000, out_features=20, bias=True)
    (11): Linear(in_features=1000, out_features=20, bias=True)
    (12): Linear(in_features=1000, out_features=20, bias=True)
    (13): Linear(in_features=1000, out_features=20, bias=True)
    (14): Linear(in_features=1000, out_features=20, bias=True)
    (15): Linear(in_features=1000, out_features=20, bias=True)
    (16): Linear(in_features=1000, out_features=20, bias=True)
    (17): Linear(in_features=1000, out_features=20, bias=True)
    (18): Linear(in_features=1000, out_features=20, bias=True)
    (19): Linear(in_features=1000, out_features=20, bias=True)
    (20): Linear(in_features=1000, out_features=20, bias=True)
    (21): Linear(in_features=1000, out_features=20, bias=True)
    (22): Linear(in_features=1000, out_features=20, bias=True)
  )
)
======

************************************************************************************************************
Task 23
************************************************************************************************************
| Epoch   1, time= 12.8s | Train: skip eval | Valid: time=  0.2s loss=96.805, TAw acc= 33.9% | *
| Epoch   2, time= 12.8s | Train: skip eval | Valid: time=  0.2s loss=91.925, TAw acc= 38.7% | *
…
>>> Test on task 18 : loss=83.131 | TAw acc= 93.9%, forg=  0.0%| TAg acc= 65.2%, forg=  2.6% <<<
>>> Test on task 19 : loss=79.921 | TAw acc= 92.0%, forg=  0.0%| TAg acc= 62.8%, forg=  1.8% <<<
>>> Test on task 20 : loss=89.511 | TAw acc= 94.9%, forg=  0.0%| TAg acc= 65.3%, forg=  1.7% <<<
>>> Test on task 21 : loss=81.838 | TAw acc= 95.9%, forg=  0.0%| TAg acc= 72.1%, forg=  4.1% <<<
>>> Test on task 22 : loss=94.897 | TAw acc= 96.8%, forg=  0.0%| TAg acc= 70.2%, forg=  0.8% <<<
>>> Test on task 23 : loss=85.691 | TAw acc= 90.8%, forg=  0.0%| TAg acc= 74.7%, forg=  0.0% <<<
Save at icarl_wisdm_2/wisdm_flex_icarl
======
LLL_Net(
  (model): SimpleMLP(
    (fc1): Linear(in_features=91, out_features=1000, bias=True)
    (fc2): Sequential()
  )
  (heads): ModuleList(
    (0): Linear(in_features=1000, out_features=34, bias=True)
    (1): Linear(in_features=1000, out_features=20, bias=True)
    (2): Linear(in_features=1000, out_features=20, bias=True)
    (3): Linear(in_features=1000, out_features=20, bias=True)
    (4): Linear(in_features=1000, out_features=20, bias=True)
    (5): Linear(in_features=1000, out_features=20, bias=True)
    (6): Linear(in_features=1000, out_features=20, bias=True)
    (7): Linear(in_features=1000, out_features=20, bias=True)
    (8): Linear(in_features=1000, out_features=20, bias=True)
    (9): Linear(in_features=1000, out_features=20, bias=True)
    (10): Linear(in_features=1000, out_features=20, bias=True)
    (11): Linear(in_features=1000, out_features=20, bias=True)
    (12): Linear(in_features=1000, out_features=20, bias=True)
    (13): Linear(in_features=1000, out_features=20, bias=True)
    (14): Linear(in_features=1000, out_features=20, bias=True)
    (15): Linear(in_features=1000, out_features=20, bias=True)
    (16): Linear(in_features=1000, out_features=20, bias=True)
    (17): Linear(in_features=1000, out_features=20, bias=True)
    (18): Linear(in_features=1000, out_features=20, bias=True)
    (19): Linear(in_features=1000, out_features=20, bias=True)
    (20): Linear(in_features=1000, out_features=20, bias=True)
    (21): Linear(in_features=1000, out_features=20, bias=True)
    (22): Linear(in_features=1000, out_features=20, bias=True)
    (23): Linear(in_features=1000, out_features=20, bias=True)
  )
)
======

************************************************************************************************************
Task 24
************************************************************************************************************
| Epoch   1, time= 14.3s | Train: skip eval | Valid: time=  0.3s loss=119.969, TAw acc= 47.0% | *
| Epoch   2, time= 14.4s | Train: skip eval | Valid: time=  0.3s loss=114.792, TAw acc= 60.2% | *
…
>>> Test on task 19 : loss=79.807 | TAw acc= 92.0%, forg=  0.0%| TAg acc= 62.8%, forg=  1.8% <<<
>>> Test on task 20 : loss=89.371 | TAw acc= 94.9%, forg=  0.0%| TAg acc= 65.3%, forg=  1.7% <<<
>>> Test on task 21 : loss=81.834 | TAw acc= 95.9%, forg=  0.0%| TAg acc= 68.9%, forg=  7.4% <<<
>>> Test on task 22 : loss=94.771 | TAw acc= 96.8%, forg=  0.0%| TAg acc= 70.2%, forg=  0.8% <<<
>>> Test on task 23 : loss=85.784 | TAw acc= 90.8%, forg=  0.0%| TAg acc= 74.7%, forg=  0.0% <<<
>>> Test on task 24 : loss=104.661 | TAw acc= 95.6%, forg=  0.0%| TAg acc= 71.7%, forg=  0.0% <<<
Save at icarl_wisdm_2/wisdm_flex_icarl
======
LLL_Net(
  (model): SimpleMLP(
    (fc1): Linear(in_features=91, out_features=1000, bias=True)
    (fc2): Sequential()
  )
  (heads): ModuleList(
    (0): Linear(in_features=1000, out_features=34, bias=True)
    (1): Linear(in_features=1000, out_features=20, bias=True)
    (2): Linear(in_features=1000, out_features=20, bias=True)
    (3): Linear(in_features=1000, out_features=20, bias=True)
    (4): Linear(in_features=1000, out_features=20, bias=True)
    (5): Linear(in_features=1000, out_features=20, bias=True)
    (6): Linear(in_features=1000, out_features=20, bias=True)
    (7): Linear(in_features=1000, out_features=20, bias=True)
    (8): Linear(in_features=1000, out_features=20, bias=True)
    (9): Linear(in_features=1000, out_features=20, bias=True)
    (10): Linear(in_features=1000, out_features=20, bias=True)
    (11): Linear(in_features=1000, out_features=20, bias=True)
    (12): Linear(in_features=1000, out_features=20, bias=True)
    (13): Linear(in_features=1000, out_features=20, bias=True)
    (14): Linear(in_features=1000, out_features=20, bias=True)
    (15): Linear(in_features=1000, out_features=20, bias=True)
    (16): Linear(in_features=1000, out_features=20, bias=True)
    (17): Linear(in_features=1000, out_features=20, bias=True)
    (18): Linear(in_features=1000, out_features=20, bias=True)
    (19): Linear(in_features=1000, out_features=20, bias=True)
    (20): Linear(in_features=1000, out_features=20, bias=True)
    (21): Linear(in_features=1000, out_features=20, bias=True)
    (22): Linear(in_features=1000, out_features=20, bias=True)
    (23): Linear(in_features=1000, out_features=20, bias=True)
    (24): Linear(in_features=1000, out_features=20, bias=True)
  )
)
======

************************************************************************************************************
Task 25
************************************************************************************************************
| Epoch   1, time= 14.6s | Train: skip eval | Valid: time=  0.3s loss=102.173, TAw acc= 42.6% | *
| Epoch   2, time= 14.6s | Train: skip eval | Valid: time=  0.3s loss=97.891, TAw acc= 62.8% | *
…
>>> Test on task 20 : loss=89.185 | TAw acc= 94.9%, forg=  0.0%| TAg acc= 65.3%, forg=  1.7% <<<
>>> Test on task 21 : loss=81.666 | TAw acc= 95.9%, forg=  0.0%| TAg acc= 68.9%, forg=  7.4% <<<
>>> Test on task 22 : loss=94.629 | TAw acc= 96.8%, forg=  0.0%| TAg acc= 70.2%, forg=  0.8% <<<
>>> Test on task 23 : loss=85.677 | TAw acc= 90.8%, forg=  0.0%| TAg acc= 74.7%, forg=  0.0% <<<
>>> Test on task 24 : loss=104.759 | TAw acc= 95.6%, forg=  0.0%| TAg acc= 71.7%, forg=  0.0% <<<
>>> Test on task 25 : loss=90.393 | TAw acc= 94.4%, forg=  0.0%| TAg acc= 82.3%, forg=  0.0% <<<
Save at icarl_wisdm_2/wisdm_flex_icarl
======
LLL_Net(
  (model): SimpleMLP(
    (fc1): Linear(in_features=91, out_features=1000, bias=True)
    (fc2): Sequential()
  )
  (heads): ModuleList(
    (0): Linear(in_features=1000, out_features=34, bias=True)
    (1): Linear(in_features=1000, out_features=20, bias=True)
    (2): Linear(in_features=1000, out_features=20, bias=True)
    (3): Linear(in_features=1000, out_features=20, bias=True)
    (4): Linear(in_features=1000, out_features=20, bias=True)
    (5): Linear(in_features=1000, out_features=20, bias=True)
    (6): Linear(in_features=1000, out_features=20, bias=True)
    (7): Linear(in_features=1000, out_features=20, bias=True)
    (8): Linear(in_features=1000, out_features=20, bias=True)
    (9): Linear(in_features=1000, out_features=20, bias=True)
    (10): Linear(in_features=1000, out_features=20, bias=True)
    (11): Linear(in_features=1000, out_features=20, bias=True)
    (12): Linear(in_features=1000, out_features=20, bias=True)
    (13): Linear(in_features=1000, out_features=20, bias=True)
    (14): Linear(in_features=1000, out_features=20, bias=True)
    (15): Linear(in_features=1000, out_features=20, bias=True)
    (16): Linear(in_features=1000, out_features=20, bias=True)
    (17): Linear(in_features=1000, out_features=20, bias=True)
    (18): Linear(in_features=1000, out_features=20, bias=True)
    (19): Linear(in_features=1000, out_features=20, bias=True)
    (20): Linear(in_features=1000, out_features=20, bias=True)
    (21): Linear(in_features=1000, out_features=20, bias=True)
    (22): Linear(in_features=1000, out_features=20, bias=True)
    (23): Linear(in_features=1000, out_features=20, bias=True)
    (24): Linear(in_features=1000, out_features=20, bias=True)
    (25): Linear(in_features=1000, out_features=20, bias=True)
  )
)
======

************************************************************************************************************
Task 26
************************************************************************************************************
| Epoch   1, time= 15.7s | Train: skip eval | Valid: time=  0.3s loss=97.362, TAw acc= 31.2% | *
| Epoch   2, time= 16.0s | Train: skip eval | Valid: time=  0.3s loss=92.658, TAw acc= 65.0% | *
…
>>> Test on task 21 : loss=81.665 | TAw acc= 95.9%, forg=  0.0%| TAg acc= 68.9%, forg=  7.4% <<<
>>> Test on task 22 : loss=94.464 | TAw acc= 96.8%, forg=  0.0%| TAg acc= 68.5%, forg=  2.4% <<<
>>> Test on task 23 : loss=85.581 | TAw acc= 90.8%, forg=  0.0%| TAg acc= 74.7%, forg=  0.0% <<<
>>> Test on task 24 : loss=104.690 | TAw acc= 95.6%, forg=  0.0%| TAg acc= 71.7%, forg=  0.0% <<<
>>> Test on task 25 : loss=90.557 | TAw acc= 94.4%, forg=  0.0%| TAg acc= 82.3%, forg=  0.0% <<<
>>> Test on task 26 : loss=87.494 | TAw acc= 93.5%, forg=  0.0%| TAg acc= 59.3%, forg=  0.0% <<<
Save at icarl_wisdm_2/wisdm_flex_icarl
======
LLL_Net(
  (model): SimpleMLP(
    (fc1): Linear(in_features=91, out_features=1000, bias=True)
    (fc2): Sequential()
  )
  (heads): ModuleList(
    (0): Linear(in_features=1000, out_features=34, bias=True)
    (1): Linear(in_features=1000, out_features=20, bias=True)
    (2): Linear(in_features=1000, out_features=20, bias=True)
    (3): Linear(in_features=1000, out_features=20, bias=True)
    (4): Linear(in_features=1000, out_features=20, bias=True)
    (5): Linear(in_features=1000, out_features=20, bias=True)
    (6): Linear(in_features=1000, out_features=20, bias=True)
    (7): Linear(in_features=1000, out_features=20, bias=True)
    (8): Linear(in_features=1000, out_features=20, bias=True)
    (9): Linear(in_features=1000, out_features=20, bias=True)
    (10): Linear(in_features=1000, out_features=20, bias=True)
    (11): Linear(in_features=1000, out_features=20, bias=True)
    (12): Linear(in_features=1000, out_features=20, bias=True)
    (13): Linear(in_features=1000, out_features=20, bias=True)
    (14): Linear(in_features=1000, out_features=20, bias=True)
    (15): Linear(in_features=1000, out_features=20, bias=True)
    (16): Linear(in_features=1000, out_features=20, bias=True)
    (17): Linear(in_features=1000, out_features=20, bias=True)
    (18): Linear(in_features=1000, out_features=20, bias=True)
    (19): Linear(in_features=1000, out_features=20, bias=True)
    (20): Linear(in_features=1000, out_features=20, bias=True)
    (21): Linear(in_features=1000, out_features=20, bias=True)
    (22): Linear(in_features=1000, out_features=20, bias=True)
    (23): Linear(in_features=1000, out_features=20, bias=True)
    (24): Linear(in_features=1000, out_features=20, bias=True)
    (25): Linear(in_features=1000, out_features=20, bias=True)
    (26): Linear(in_features=1000, out_features=20, bias=True)
  )
)
======

************************************************************************************************************
Task 27
************************************************************************************************************
| Epoch   1, time= 17.2s | Train: skip eval | Valid: time=  0.3s loss=116.897, TAw acc= 38.1% | *
| Epoch   2, time= 16.3s | Train: skip eval | Valid: time=  0.3s loss=111.348, TAw acc= 65.5% | *
…
>>> Test on task 22 : loss=94.370 | TAw acc= 96.8%, forg=  0.0%| TAg acc= 67.7%, forg=  3.2% <<<
>>> Test on task 23 : loss=85.591 | TAw acc= 90.8%, forg=  0.0%| TAg acc= 74.7%, forg=  0.0% <<<
>>> Test on task 24 : loss=104.688 | TAw acc= 95.6%, forg=  0.0%| TAg acc= 71.7%, forg=  0.0% <<<
>>> Test on task 25 : loss=90.477 | TAw acc= 94.4%, forg=  0.0%| TAg acc= 82.3%, forg=  0.0% <<<
>>> Test on task 26 : loss=87.845 | TAw acc= 93.5%, forg=  0.0%| TAg acc= 55.6%, forg=  3.7% <<<
>>> Test on task 27 : loss=104.930 | TAw acc= 95.5%, forg=  0.0%| TAg acc= 69.6%, forg=  0.0% <<<
Save at icarl_wisdm_2/wisdm_flex_icarl
======
LLL_Net(
  (model): SimpleMLP(
    (fc1): Linear(in_features=91, out_features=1000, bias=True)
    (fc2): Sequential()
  )
  (heads): ModuleList(
    (0): Linear(in_features=1000, out_features=34, bias=True)
    (1): Linear(in_features=1000, out_features=20, bias=True)
    (2): Linear(in_features=1000, out_features=20, bias=True)
    (3): Linear(in_features=1000, out_features=20, bias=True)
    (4): Linear(in_features=1000, out_features=20, bias=True)
    (5): Linear(in_features=1000, out_features=20, bias=True)
    (6): Linear(in_features=1000, out_features=20, bias=True)
    (7): Linear(in_features=1000, out_features=20, bias=True)
    (8): Linear(in_features=1000, out_features=20, bias=True)
    (9): Linear(in_features=1000, out_features=20, bias=True)
    (10): Linear(in_features=1000, out_features=20, bias=True)
    (11): Linear(in_features=1000, out_features=20, bias=True)
    (12): Linear(in_features=1000, out_features=20, bias=True)
    (13): Linear(in_features=1000, out_features=20, bias=True)
    (14): Linear(in_features=1000, out_features=20, bias=True)
    (15): Linear(in_features=1000, out_features=20, bias=True)
    (16): Linear(in_features=1000, out_features=20, bias=True)
    (17): Linear(in_features=1000, out_features=20, bias=True)
    (18): Linear(in_features=1000, out_features=20, bias=True)
    (19): Linear(in_features=1000, out_features=20, bias=True)
    (20): Linear(in_features=1000, out_features=20, bias=True)
    (21): Linear(in_features=1000, out_features=20, bias=True)
    (22): Linear(in_features=1000, out_features=20, bias=True)
    (23): Linear(in_features=1000, out_features=20, bias=True)
    (24): Linear(in_features=1000, out_features=20, bias=True)
    (25): Linear(in_features=1000, out_features=20, bias=True)
    (26): Linear(in_features=1000, out_features=20, bias=True)
    (27): Linear(in_features=1000, out_features=20, bias=True)
  )
)
======

************************************************************************************************************
Task 28
************************************************************************************************************
| Epoch   1, time= 16.9s | Train: skip eval | Valid: time=  0.3s loss=104.599, TAw acc= 37.9% | *
| Epoch   2, time= 16.8s | Train: skip eval | Valid: time=  0.3s loss=99.771, TAw acc= 60.6% | *
…
>>> Test on task 23 : loss=85.441 | TAw acc= 90.8%, forg=  0.0%| TAg acc= 74.7%, forg=  0.0% <<<
>>> Test on task 24 : loss=104.507 | TAw acc= 95.6%, forg=  0.0%| TAg acc= 70.8%, forg=  0.9% <<<
>>> Test on task 25 : loss=90.280 | TAw acc= 94.4%, forg=  0.0%| TAg acc= 82.3%, forg=  0.0% <<<
>>> Test on task 26 : loss=87.701 | TAw acc= 93.5%, forg=  0.0%| TAg acc= 55.6%, forg=  3.7% <<<
>>> Test on task 27 : loss=105.062 | TAw acc= 95.5%, forg=  0.0%| TAg acc= 69.6%, forg=  0.0% <<<
>>> Test on task 28 : loss=89.964 | TAw acc= 88.2%, forg=  0.0%| TAg acc= 57.0%, forg=  0.0% <<<
Save at icarl_wisdm_2/wisdm_flex_icarl
======
LLL_Net(
  (model): SimpleMLP(
    (fc1): Linear(in_features=91, out_features=1000, bias=True)
    (fc2): Sequential()
  )
  (heads): ModuleList(
    (0): Linear(in_features=1000, out_features=34, bias=True)
    (1): Linear(in_features=1000, out_features=20, bias=True)
    (2): Linear(in_features=1000, out_features=20, bias=True)
    (3): Linear(in_features=1000, out_features=20, bias=True)
    (4): Linear(in_features=1000, out_features=20, bias=True)
    (5): Linear(in_features=1000, out_features=20, bias=True)
    (6): Linear(in_features=1000, out_features=20, bias=True)
    (7): Linear(in_features=1000, out_features=20, bias=True)
    (8): Linear(in_features=1000, out_features=20, bias=True)
    (9): Linear(in_features=1000, out_features=20, bias=True)
    (10): Linear(in_features=1000, out_features=20, bias=True)
    (11): Linear(in_features=1000, out_features=20, bias=True)
    (12): Linear(in_features=1000, out_features=20, bias=True)
    (13): Linear(in_features=1000, out_features=20, bias=True)
    (14): Linear(in_features=1000, out_features=20, bias=True)
    (15): Linear(in_features=1000, out_features=20, bias=True)
    (16): Linear(in_features=1000, out_features=20, bias=True)
    (17): Linear(in_features=1000, out_features=20, bias=True)
    (18): Linear(in_features=1000, out_features=20, bias=True)
    (19): Linear(in_features=1000, out_features=20, bias=True)
    (20): Linear(in_features=1000, out_features=20, bias=True)
    (21): Linear(in_features=1000, out_features=20, bias=True)
    (22): Linear(in_features=1000, out_features=20, bias=True)
    (23): Linear(in_features=1000, out_features=20, bias=True)
    (24): Linear(in_features=1000, out_features=20, bias=True)
    (25): Linear(in_features=1000, out_features=20, bias=True)
    (26): Linear(in_features=1000, out_features=20, bias=True)
    (27): Linear(in_features=1000, out_features=20, bias=True)
    (28): Linear(in_features=1000, out_features=20, bias=True)
  )
)
======

************************************************************************************************************
Task 29
************************************************************************************************************
| Epoch   1, time= 18.2s | Train: skip eval | Valid: time=  0.3s loss=100.899, TAw acc= 62.4% | *
| Epoch   2, time= 18.4s | Train: skip eval | Valid: time=  0.3s loss=94.908, TAw acc= 76.5% | *
…
>>> Test on task 24 : loss=104.449 | TAw acc= 95.6%, forg=  0.0%| TAg acc= 69.9%, forg=  1.8% <<<
>>> Test on task 25 : loss=90.234 | TAw acc= 94.4%, forg=  0.0%| TAg acc= 82.3%, forg=  0.0% <<<
>>> Test on task 26 : loss=87.675 | TAw acc= 93.5%, forg=  0.0%| TAg acc= 50.9%, forg=  8.3% <<<
>>> Test on task 27 : loss=105.005 | TAw acc= 95.5%, forg=  0.0%| TAg acc= 69.6%, forg=  0.0% <<<
>>> Test on task 28 : loss=90.244 | TAw acc= 88.2%, forg=  0.0%| TAg acc= 52.7%, forg=  4.3% <<<
>>> Test on task 29 : loss=93.941 | TAw acc= 90.4%, forg=  0.0%| TAg acc= 57.0%, forg=  0.0% <<<
Save at icarl_wisdm_2/wisdm_flex_icarl
======
LLL_Net(
  (model): SimpleMLP(
    (fc1): Linear(in_features=91, out_features=1000, bias=True)
    (fc2): Sequential()
  )
  (heads): ModuleList(
    (0): Linear(in_features=1000, out_features=34, bias=True)
    (1): Linear(in_features=1000, out_features=20, bias=True)
    (2): Linear(in_features=1000, out_features=20, bias=True)
    (3): Linear(in_features=1000, out_features=20, bias=True)
    (4): Linear(in_features=1000, out_features=20, bias=True)
    (5): Linear(in_features=1000, out_features=20, bias=True)
    (6): Linear(in_features=1000, out_features=20, bias=True)
    (7): Linear(in_features=1000, out_features=20, bias=True)
    (8): Linear(in_features=1000, out_features=20, bias=True)
    (9): Linear(in_features=1000, out_features=20, bias=True)
    (10): Linear(in_features=1000, out_features=20, bias=True)
    (11): Linear(in_features=1000, out_features=20, bias=True)
    (12): Linear(in_features=1000, out_features=20, bias=True)
    (13): Linear(in_features=1000, out_features=20, bias=True)
    (14): Linear(in_features=1000, out_features=20, bias=True)
    (15): Linear(in_features=1000, out_features=20, bias=True)
    (16): Linear(in_features=1000, out_features=20, bias=True)
    (17): Linear(in_features=1000, out_features=20, bias=True)
    (18): Linear(in_features=1000, out_features=20, bias=True)
    (19): Linear(in_features=1000, out_features=20, bias=True)
    (20): Linear(in_features=1000, out_features=20, bias=True)
    (21): Linear(in_features=1000, out_features=20, bias=True)
    (22): Linear(in_features=1000, out_features=20, bias=True)
    (23): Linear(in_features=1000, out_features=20, bias=True)
    (24): Linear(in_features=1000, out_features=20, bias=True)
    (25): Linear(in_features=1000, out_features=20, bias=True)
    (26): Linear(in_features=1000, out_features=20, bias=True)
    (27): Linear(in_features=1000, out_features=20, bias=True)
    (28): Linear(in_features=1000, out_features=20, bias=True)
    (29): Linear(in_features=1000, out_features=20, bias=True)
  )
)
======

************************************************************************************************************
Task 30
************************************************************************************************************
| Epoch   1, time= 20.3s | Train: skip eval | Valid: time=  0.3s loss=113.138, TAw acc= 48.8% | *
| Epoch   2, time= 20.3s | Train: skip eval | Valid: time=  0.3s loss=108.099, TAw acc= 57.5% | *
…
>>> Test on task 25 : loss=90.149 | TAw acc= 94.4%, forg=  0.0%| TAg acc= 82.3%, forg=  0.0% <<<
>>> Test on task 26 : loss=87.605 | TAw acc= 93.5%, forg=  0.0%| TAg acc= 50.9%, forg=  8.3% <<<
>>> Test on task 27 : loss=104.851 | TAw acc= 95.5%, forg=  0.0%| TAg acc= 68.8%, forg=  0.9% <<<
>>> Test on task 28 : loss=90.080 | TAw acc= 88.2%, forg=  0.0%| TAg acc= 51.6%, forg=  5.4% <<<
>>> Test on task 29 : loss=94.370 | TAw acc= 90.4%, forg=  0.0%| TAg acc= 56.1%, forg=  0.9% <<<
>>> Test on task 30 : loss=104.860 | TAw acc= 92.7%, forg=  0.0%| TAg acc= 63.3%, forg=  0.0% <<<
Save at icarl_wisdm_2/wisdm_flex_icarl
======
LLL_Net(
  (model): SimpleMLP(
    (fc1): Linear(in_features=91, out_features=1000, bias=True)
    (fc2): Sequential()
  )
  (heads): ModuleList(
    (0): Linear(in_features=1000, out_features=34, bias=True)
    (1): Linear(in_features=1000, out_features=20, bias=True)
    (2): Linear(in_features=1000, out_features=20, bias=True)
    (3): Linear(in_features=1000, out_features=20, bias=True)
    (4): Linear(in_features=1000, out_features=20, bias=True)
    (5): Linear(in_features=1000, out_features=20, bias=True)
    (6): Linear(in_features=1000, out_features=20, bias=True)
    (7): Linear(in_features=1000, out_features=20, bias=True)
    (8): Linear(in_features=1000, out_features=20, bias=True)
    (9): Linear(in_features=1000, out_features=20, bias=True)
    (10): Linear(in_features=1000, out_features=20, bias=True)
    (11): Linear(in_features=1000, out_features=20, bias=True)
    (12): Linear(in_features=1000, out_features=20, bias=True)
    (13): Linear(in_features=1000, out_features=20, bias=True)
    (14): Linear(in_features=1000, out_features=20, bias=True)
    (15): Linear(in_features=1000, out_features=20, bias=True)
    (16): Linear(in_features=1000, out_features=20, bias=True)
    (17): Linear(in_features=1000, out_features=20, bias=True)
    (18): Linear(in_features=1000, out_features=20, bias=True)
    (19): Linear(in_features=1000, out_features=20, bias=True)
    (20): Linear(in_features=1000, out_features=20, bias=True)
    (21): Linear(in_features=1000, out_features=20, bias=True)
    (22): Linear(in_features=1000, out_features=20, bias=True)
    (23): Linear(in_features=1000, out_features=20, bias=True)
    (24): Linear(in_features=1000, out_features=20, bias=True)
    (25): Linear(in_features=1000, out_features=20, bias=True)
    (26): Linear(in_features=1000, out_features=20, bias=True)
    (27): Linear(in_features=1000, out_features=20, bias=True)
    (28): Linear(in_features=1000, out_features=20, bias=True)
    (29): Linear(in_features=1000, out_features=20, bias=True)
    (30): Linear(in_features=1000, out_features=20, bias=True)
  )
)
======

************************************************************************************************************
Task 31
************************************************************************************************************
| Epoch   1, time= 21.1s | Train: skip eval | Valid: time=  0.3s loss=104.063, TAw acc= 34.3% | *
| Epoch   2, time= 21.5s | Train: skip eval | Valid: time=  0.3s loss=96.845, TAw acc= 51.4% | *
…
>>> Test on task 26 : loss=87.482 | TAw acc= 93.5%, forg=  0.0%| TAg acc= 50.9%, forg=  8.3% <<<
>>> Test on task 27 : loss=104.745 | TAw acc= 95.5%, forg=  0.0%| TAg acc= 68.8%, forg=  0.9% <<<
>>> Test on task 28 : loss=89.964 | TAw acc= 88.2%, forg=  0.0%| TAg acc= 51.6%, forg=  5.4% <<<
>>> Test on task 29 : loss=94.210 | TAw acc= 90.4%, forg=  0.0%| TAg acc= 53.5%, forg=  3.5% <<<
>>> Test on task 30 : loss=104.979 | TAw acc= 92.7%, forg=  0.0%| TAg acc= 63.3%, forg=  0.0% <<<
>>> Test on task 31 : loss=92.704 | TAw acc= 94.8%, forg=  0.0%| TAg acc= 63.9%, forg=  0.0% <<<
Save at icarl_wisdm_2/wisdm_flex_icarl
======
LLL_Net(
  (model): SimpleMLP(
    (fc1): Linear(in_features=91, out_features=1000, bias=True)
    (fc2): Sequential()
  )
  (heads): ModuleList(
    (0): Linear(in_features=1000, out_features=34, bias=True)
    (1): Linear(in_features=1000, out_features=20, bias=True)
    (2): Linear(in_features=1000, out_features=20, bias=True)
    (3): Linear(in_features=1000, out_features=20, bias=True)
    (4): Linear(in_features=1000, out_features=20, bias=True)
    (5): Linear(in_features=1000, out_features=20, bias=True)
    (6): Linear(in_features=1000, out_features=20, bias=True)
    (7): Linear(in_features=1000, out_features=20, bias=True)
    (8): Linear(in_features=1000, out_features=20, bias=True)
    (9): Linear(in_features=1000, out_features=20, bias=True)
    (10): Linear(in_features=1000, out_features=20, bias=True)
    (11): Linear(in_features=1000, out_features=20, bias=True)
    (12): Linear(in_features=1000, out_features=20, bias=True)
    (13): Linear(in_features=1000, out_features=20, bias=True)
    (14): Linear(in_features=1000, out_features=20, bias=True)
    (15): Linear(in_features=1000, out_features=20, bias=True)
    (16): Linear(in_features=1000, out_features=20, bias=True)
    (17): Linear(in_features=1000, out_features=20, bias=True)
    (18): Linear(in_features=1000, out_features=20, bias=True)
    (19): Linear(in_features=1000, out_features=20, bias=True)
    (20): Linear(in_features=1000, out_features=20, bias=True)
    (21): Linear(in_features=1000, out_features=20, bias=True)
    (22): Linear(in_features=1000, out_features=20, bias=True)
    (23): Linear(in_features=1000, out_features=20, bias=True)
    (24): Linear(in_features=1000, out_features=20, bias=True)
    (25): Linear(in_features=1000, out_features=20, bias=True)
    (26): Linear(in_features=1000, out_features=20, bias=True)
    (27): Linear(in_features=1000, out_features=20, bias=True)
    (28): Linear(in_features=1000, out_features=20, bias=True)
    (29): Linear(in_features=1000, out_features=20, bias=True)
    (30): Linear(in_features=1000, out_features=20, bias=True)
    (31): Linear(in_features=1000, out_features=20, bias=True)
  )
)
======

************************************************************************************************************
Task 32
************************************************************************************************************
| Epoch   1, time= 21.6s | Train: skip eval | Valid: time=  0.3s loss=103.954, TAw acc= 39.3% | *
| Epoch   2, time= 22.8s | Train: skip eval | Valid: time=  0.3s loss=99.550, TAw acc= 61.9% | *
…
>>> Test on task 27 : loss=104.606 | TAw acc= 95.5%, forg=  0.0%| TAg acc= 68.8%, forg=  0.9% <<<
>>> Test on task 28 : loss=89.818 | TAw acc= 88.2%, forg=  0.0%| TAg acc= 51.6%, forg=  5.4% <<<
>>> Test on task 29 : loss=94.079 | TAw acc= 90.4%, forg=  0.0%| TAg acc= 53.5%, forg=  3.5% <<<
>>> Test on task 30 : loss=105.064 | TAw acc= 92.7%, forg=  0.0%| TAg acc= 61.5%, forg=  1.8% <<<
>>> Test on task 31 : loss=92.964 | TAw acc= 94.8%, forg=  0.0%| TAg acc= 63.9%, forg=  0.0% <<<
>>> Test on task 32 : loss=96.410 | TAw acc= 98.2%, forg=  0.0%| TAg acc= 63.7%, forg=  0.0% <<<
Save at icarl_wisdm_2/wisdm_flex_icarl
======
LLL_Net(
  (model): SimpleMLP(
    (fc1): Linear(in_features=91, out_features=1000, bias=True)
    (fc2): Sequential()
  )
  (heads): ModuleList(
    (0): Linear(in_features=1000, out_features=34, bias=True)
    (1): Linear(in_features=1000, out_features=20, bias=True)
    (2): Linear(in_features=1000, out_features=20, bias=True)
    (3): Linear(in_features=1000, out_features=20, bias=True)
    (4): Linear(in_features=1000, out_features=20, bias=True)
    (5): Linear(in_features=1000, out_features=20, bias=True)
    (6): Linear(in_features=1000, out_features=20, bias=True)
    (7): Linear(in_features=1000, out_features=20, bias=True)
    (8): Linear(in_features=1000, out_features=20, bias=True)
    (9): Linear(in_features=1000, out_features=20, bias=True)
    (10): Linear(in_features=1000, out_features=20, bias=True)
    (11): Linear(in_features=1000, out_features=20, bias=True)
    (12): Linear(in_features=1000, out_features=20, bias=True)
    (13): Linear(in_features=1000, out_features=20, bias=True)
    (14): Linear(in_features=1000, out_features=20, bias=True)
    (15): Linear(in_features=1000, out_features=20, bias=True)
    (16): Linear(in_features=1000, out_features=20, bias=True)
    (17): Linear(in_features=1000, out_features=20, bias=True)
    (18): Linear(in_features=1000, out_features=20, bias=True)
    (19): Linear(in_features=1000, out_features=20, bias=True)
    (20): Linear(in_features=1000, out_features=20, bias=True)
    (21): Linear(in_features=1000, out_features=20, bias=True)
    (22): Linear(in_features=1000, out_features=20, bias=True)
    (23): Linear(in_features=1000, out_features=20, bias=True)
    (24): Linear(in_features=1000, out_features=20, bias=True)
    (25): Linear(in_features=1000, out_features=20, bias=True)
    (26): Linear(in_features=1000, out_features=20, bias=True)
    (27): Linear(in_features=1000, out_features=20, bias=True)
    (28): Linear(in_features=1000, out_features=20, bias=True)
    (29): Linear(in_features=1000, out_features=20, bias=True)
    (30): Linear(in_features=1000, out_features=20, bias=True)
    (31): Linear(in_features=1000, out_features=20, bias=True)
    (32): Linear(in_features=1000, out_features=20, bias=True)
  )
)
======

************************************************************************************************************
Task 33
************************************************************************************************************
| Epoch   1, time= 22.4s | Train: skip eval | Valid: time=  0.3s loss=121.825, TAw acc= 45.1% | *
| Epoch   2, time= 23.3s | Train: skip eval | Valid: time=  0.3s loss=115.429, TAw acc= 50.7% | *
…
>>> Test on task 28 : loss=89.763 | TAw acc= 88.2%, forg=  0.0%| TAg acc= 51.6%, forg=  5.4% <<<
>>> Test on task 29 : loss=94.078 | TAw acc= 90.4%, forg=  0.0%| TAg acc= 53.5%, forg=  3.5% <<<
>>> Test on task 30 : loss=104.808 | TAw acc= 92.7%, forg=  0.0%| TAg acc= 61.5%, forg=  1.8% <<<
>>> Test on task 31 : loss=92.915 | TAw acc= 94.8%, forg=  0.0%| TAg acc= 61.9%, forg=  2.1% <<<
>>> Test on task 32 : loss=96.769 | TAw acc= 98.2%, forg=  0.0%| TAg acc= 63.7%, forg=  0.0% <<<
>>> Test on task 33 : loss=108.586 | TAw acc= 92.9%, forg=  0.0%| TAg acc= 58.2%, forg=  0.0% <<<
Save at icarl_wisdm_2/wisdm_flex_icarl
======
LLL_Net(
  (model): SimpleMLP(
    (fc1): Linear(in_features=91, out_features=1000, bias=True)
    (fc2): Sequential()
  )
  (heads): ModuleList(
    (0): Linear(in_features=1000, out_features=34, bias=True)
    (1): Linear(in_features=1000, out_features=20, bias=True)
    (2): Linear(in_features=1000, out_features=20, bias=True)
    (3): Linear(in_features=1000, out_features=20, bias=True)
    (4): Linear(in_features=1000, out_features=20, bias=True)
    (5): Linear(in_features=1000, out_features=20, bias=True)
    (6): Linear(in_features=1000, out_features=20, bias=True)
    (7): Linear(in_features=1000, out_features=20, bias=True)
    (8): Linear(in_features=1000, out_features=20, bias=True)
    (9): Linear(in_features=1000, out_features=20, bias=True)
    (10): Linear(in_features=1000, out_features=20, bias=True)
    (11): Linear(in_features=1000, out_features=20, bias=True)
    (12): Linear(in_features=1000, out_features=20, bias=True)
    (13): Linear(in_features=1000, out_features=20, bias=True)
    (14): Linear(in_features=1000, out_features=20, bias=True)
    (15): Linear(in_features=1000, out_features=20, bias=True)
    (16): Linear(in_features=1000, out_features=20, bias=True)
    (17): Linear(in_features=1000, out_features=20, bias=True)
    (18): Linear(in_features=1000, out_features=20, bias=True)
    (19): Linear(in_features=1000, out_features=20, bias=True)
    (20): Linear(in_features=1000, out_features=20, bias=True)
    (21): Linear(in_features=1000, out_features=20, bias=True)
    (22): Linear(in_features=1000, out_features=20, bias=True)
    (23): Linear(in_features=1000, out_features=20, bias=True)
    (24): Linear(in_features=1000, out_features=20, bias=True)
    (25): Linear(in_features=1000, out_features=20, bias=True)
    (26): Linear(in_features=1000, out_features=20, bias=True)
    (27): Linear(in_features=1000, out_features=20, bias=True)
    (28): Linear(in_features=1000, out_features=20, bias=True)
    (29): Linear(in_features=1000, out_features=20, bias=True)
    (30): Linear(in_features=1000, out_features=20, bias=True)
    (31): Linear(in_features=1000, out_features=20, bias=True)
    (32): Linear(in_features=1000, out_features=20, bias=True)
    (33): Linear(in_features=1000, out_features=20, bias=True)
  )
)
======

************************************************************************************************************
Task 34
************************************************************************************************************
| Epoch   1, time= 23.9s | Train: skip eval | Valid: time=  0.3s loss=103.873, TAw acc= 41.9% | *
| Epoch   2, time= 25.0s | Train: skip eval | Valid: time=  0.3s loss=98.536, TAw acc= 62.2% | *
…
>>> Test on task 29 : loss=93.955 | TAw acc= 90.4%, forg=  0.0%| TAg acc= 53.5%, forg=  3.5% <<<
>>> Test on task 30 : loss=104.586 | TAw acc= 92.7%, forg=  0.0%| TAg acc= 61.5%, forg=  1.8% <<<
>>> Test on task 31 : loss=92.890 | TAw acc= 94.8%, forg=  0.0%| TAg acc= 61.9%, forg=  2.1% <<<
>>> Test on task 32 : loss=96.610 | TAw acc= 98.2%, forg=  0.0%| TAg acc= 63.7%, forg=  0.0% <<<
>>> Test on task 33 : loss=108.836 | TAw acc= 92.9%, forg=  0.0%| TAg acc= 57.1%, forg=  1.0% <<<
>>> Test on task 34 : loss=94.366 | TAw acc= 94.1%, forg=  0.0%| TAg acc= 67.6%, forg=  0.0% <<<
Save at icarl_wisdm_2/wisdm_flex_icarl
======
LLL_Net(
  (model): SimpleMLP(
    (fc1): Linear(in_features=91, out_features=1000, bias=True)
    (fc2): Sequential()
  )
  (heads): ModuleList(
    (0): Linear(in_features=1000, out_features=34, bias=True)
    (1): Linear(in_features=1000, out_features=20, bias=True)
    (2): Linear(in_features=1000, out_features=20, bias=True)
    (3): Linear(in_features=1000, out_features=20, bias=True)
    (4): Linear(in_features=1000, out_features=20, bias=True)
    (5): Linear(in_features=1000, out_features=20, bias=True)
    (6): Linear(in_features=1000, out_features=20, bias=True)
    (7): Linear(in_features=1000, out_features=20, bias=True)
    (8): Linear(in_features=1000, out_features=20, bias=True)
    (9): Linear(in_features=1000, out_features=20, bias=True)
    (10): Linear(in_features=1000, out_features=20, bias=True)
    (11): Linear(in_features=1000, out_features=20, bias=True)
    (12): Linear(in_features=1000, out_features=20, bias=True)
    (13): Linear(in_features=1000, out_features=20, bias=True)
    (14): Linear(in_features=1000, out_features=20, bias=True)
    (15): Linear(in_features=1000, out_features=20, bias=True)
    (16): Linear(in_features=1000, out_features=20, bias=True)
    (17): Linear(in_features=1000, out_features=20, bias=True)
    (18): Linear(in_features=1000, out_features=20, bias=True)
    (19): Linear(in_features=1000, out_features=20, bias=True)
    (20): Linear(in_features=1000, out_features=20, bias=True)
    (21): Linear(in_features=1000, out_features=20, bias=True)
    (22): Linear(in_features=1000, out_features=20, bias=True)
    (23): Linear(in_features=1000, out_features=20, bias=True)
    (24): Linear(in_features=1000, out_features=20, bias=True)
    (25): Linear(in_features=1000, out_features=20, bias=True)
    (26): Linear(in_features=1000, out_features=20, bias=True)
    (27): Linear(in_features=1000, out_features=20, bias=True)
    (28): Linear(in_features=1000, out_features=20, bias=True)
    (29): Linear(in_features=1000, out_features=20, bias=True)
    (30): Linear(in_features=1000, out_features=20, bias=True)
    (31): Linear(in_features=1000, out_features=20, bias=True)
    (32): Linear(in_features=1000, out_features=20, bias=True)
    (33): Linear(in_features=1000, out_features=20, bias=True)
    (34): Linear(in_features=1000, out_features=20, bias=True)
  )
)
======

************************************************************************************************************
Task 35
************************************************************************************************************
| Epoch   1, time= 25.0s | Train: skip eval | Valid: time=  0.3s loss=116.824, TAw acc= 34.5% | *
| Epoch   2, time= 25.8s | Train: skip eval | Valid: time=  0.3s loss=109.586, TAw acc= 64.4% | *
…
>>> Test on task 30 : loss=104.487 | TAw acc= 92.7%, forg=  0.0%| TAg acc= 61.5%, forg=  1.8% <<<
>>> Test on task 31 : loss=92.741 | TAw acc= 94.8%, forg=  0.0%| TAg acc= 61.9%, forg=  2.1% <<<
>>> Test on task 32 : loss=96.524 | TAw acc= 98.2%, forg=  0.0%| TAg acc= 62.8%, forg=  0.9% <<<
>>> Test on task 33 : loss=108.731 | TAw acc= 92.9%, forg=  0.0%| TAg acc= 55.1%, forg=  3.1% <<<
>>> Test on task 34 : loss=94.497 | TAw acc= 94.1%, forg=  0.0%| TAg acc= 67.6%, forg=  0.0% <<<
>>> Test on task 35 : loss=107.967 | TAw acc= 95.7%, forg=  0.0%| TAg acc= 70.1%, forg=  0.0% <<<
Save at icarl_wisdm_2/wisdm_flex_icarl
======
LLL_Net(
  (model): SimpleMLP(
    (fc1): Linear(in_features=91, out_features=1000, bias=True)
    (fc2): Sequential()
  )
  (heads): ModuleList(
    (0): Linear(in_features=1000, out_features=34, bias=True)
    (1): Linear(in_features=1000, out_features=20, bias=True)
    (2): Linear(in_features=1000, out_features=20, bias=True)
    (3): Linear(in_features=1000, out_features=20, bias=True)
    (4): Linear(in_features=1000, out_features=20, bias=True)
    (5): Linear(in_features=1000, out_features=20, bias=True)
    (6): Linear(in_features=1000, out_features=20, bias=True)
    (7): Linear(in_features=1000, out_features=20, bias=True)
    (8): Linear(in_features=1000, out_features=20, bias=True)
    (9): Linear(in_features=1000, out_features=20, bias=True)
    (10): Linear(in_features=1000, out_features=20, bias=True)
    (11): Linear(in_features=1000, out_features=20, bias=True)
    (12): Linear(in_features=1000, out_features=20, bias=True)
    (13): Linear(in_features=1000, out_features=20, bias=True)
    (14): Linear(in_features=1000, out_features=20, bias=True)
    (15): Linear(in_features=1000, out_features=20, bias=True)
    (16): Linear(in_features=1000, out_features=20, bias=True)
    (17): Linear(in_features=1000, out_features=20, bias=True)
    (18): Linear(in_features=1000, out_features=20, bias=True)
    (19): Linear(in_features=1000, out_features=20, bias=True)
    (20): Linear(in_features=1000, out_features=20, bias=True)
    (21): Linear(in_features=1000, out_features=20, bias=True)
    (22): Linear(in_features=1000, out_features=20, bias=True)
    (23): Linear(in_features=1000, out_features=20, bias=True)
    (24): Linear(in_features=1000, out_features=20, bias=True)
    (25): Linear(in_features=1000, out_features=20, bias=True)
    (26): Linear(in_features=1000, out_features=20, bias=True)
    (27): Linear(in_features=1000, out_features=20, bias=True)
    (28): Linear(in_features=1000, out_features=20, bias=True)
    (29): Linear(in_features=1000, out_features=20, bias=True)
    (30): Linear(in_features=1000, out_features=20, bias=True)
    (31): Linear(in_features=1000, out_features=20, bias=True)
    (32): Linear(in_features=1000, out_features=20, bias=True)
    (33): Linear(in_features=1000, out_features=20, bias=True)
    (34): Linear(in_features=1000, out_features=20, bias=True)
    (35): Linear(in_features=1000, out_features=20, bias=True)
  )
)
======

************************************************************************************************************
Task 36
************************************************************************************************************
| Epoch   1, time= 27.7s | Train: skip eval | Valid: time=  0.3s loss=120.009, TAw acc= 36.8% | *
| Epoch   2, time= 27.6s | Train: skip eval | Valid: time=  0.3s loss=112.674, TAw acc= 53.9% | *
…
>>> Test on task 31 : loss=92.726 | TAw acc= 94.8%, forg=  0.0%| TAg acc= 61.9%, forg=  2.1% <<<
>>> Test on task 32 : loss=96.499 | TAw acc= 98.2%, forg=  0.0%| TAg acc= 62.8%, forg=  0.9% <<<
>>> Test on task 33 : loss=108.664 | TAw acc= 92.9%, forg=  0.0%| TAg acc= 55.1%, forg=  3.1% <<<
>>> Test on task 34 : loss=94.409 | TAw acc= 94.1%, forg=  0.0%| TAg acc= 67.6%, forg=  0.0% <<<
>>> Test on task 35 : loss=108.320 | TAw acc= 95.7%, forg=  0.0%| TAg acc= 68.4%, forg=  1.7% <<<
>>> Test on task 36 : loss=107.077 | TAw acc= 89.4%, forg=  0.0%| TAg acc= 51.9%, forg=  0.0% <<<
Save at icarl_wisdm_2/wisdm_flex_icarl
======
LLL_Net(
  (model): SimpleMLP(
    (fc1): Linear(in_features=91, out_features=1000, bias=True)
    (fc2): Sequential()
  )
  (heads): ModuleList(
    (0): Linear(in_features=1000, out_features=34, bias=True)
    (1): Linear(in_features=1000, out_features=20, bias=True)
    (2): Linear(in_features=1000, out_features=20, bias=True)
    (3): Linear(in_features=1000, out_features=20, bias=True)
    (4): Linear(in_features=1000, out_features=20, bias=True)
    (5): Linear(in_features=1000, out_features=20, bias=True)
    (6): Linear(in_features=1000, out_features=20, bias=True)
    (7): Linear(in_features=1000, out_features=20, bias=True)
    (8): Linear(in_features=1000, out_features=20, bias=True)
    (9): Linear(in_features=1000, out_features=20, bias=True)
    (10): Linear(in_features=1000, out_features=20, bias=True)
    (11): Linear(in_features=1000, out_features=20, bias=True)
    (12): Linear(in_features=1000, out_features=20, bias=True)
    (13): Linear(in_features=1000, out_features=20, bias=True)
    (14): Linear(in_features=1000, out_features=20, bias=True)
    (15): Linear(in_features=1000, out_features=20, bias=True)
    (16): Linear(in_features=1000, out_features=20, bias=True)
    (17): Linear(in_features=1000, out_features=20, bias=True)
    (18): Linear(in_features=1000, out_features=20, bias=True)
    (19): Linear(in_features=1000, out_features=20, bias=True)
    (20): Linear(in_features=1000, out_features=20, bias=True)
    (21): Linear(in_features=1000, out_features=20, bias=True)
    (22): Linear(in_features=1000, out_features=20, bias=True)
    (23): Linear(in_features=1000, out_features=20, bias=True)
    (24): Linear(in_features=1000, out_features=20, bias=True)
    (25): Linear(in_features=1000, out_features=20, bias=True)
    (26): Linear(in_features=1000, out_features=20, bias=True)
    (27): Linear(in_features=1000, out_features=20, bias=True)
    (28): Linear(in_features=1000, out_features=20, bias=True)
    (29): Linear(in_features=1000, out_features=20, bias=True)
    (30): Linear(in_features=1000, out_features=20, bias=True)
    (31): Linear(in_features=1000, out_features=20, bias=True)
    (32): Linear(in_features=1000, out_features=20, bias=True)
    (33): Linear(in_features=1000, out_features=20, bias=True)
    (34): Linear(in_features=1000, out_features=20, bias=True)
    (35): Linear(in_features=1000, out_features=20, bias=True)
    (36): Linear(in_features=1000, out_features=20, bias=True)
  )
)
======

************************************************************************************************************
Task 37
************************************************************************************************************
| Epoch   1, time= 28.0s | Train: skip eval | Valid: time=  0.3s loss=120.844, TAw acc= 43.0% | *
| Epoch   2, time= 27.8s | Train: skip eval | Valid: time=  0.3s loss=114.867, TAw acc= 54.8% | *
…
>>> Test on task 32 : loss=96.364 | TAw acc= 98.2%, forg=  0.0%| TAg acc= 62.8%, forg=  0.9% <<<
>>> Test on task 33 : loss=108.504 | TAw acc= 92.9%, forg=  0.0%| TAg acc= 55.1%, forg=  3.1% <<<
>>> Test on task 34 : loss=94.287 | TAw acc= 94.1%, forg=  0.0%| TAg acc= 67.6%, forg=  0.0% <<<
>>> Test on task 35 : loss=108.114 | TAw acc= 95.7%, forg=  0.0%| TAg acc= 68.4%, forg=  1.7% <<<
>>> Test on task 36 : loss=107.475 | TAw acc= 89.4%, forg=  0.0%| TAg acc= 51.9%, forg=  0.0% <<<
>>> Test on task 37 : loss=106.977 | TAw acc= 95.9%, forg=  0.0%| TAg acc= 65.9%, forg=  0.0% <<<
Save at icarl_wisdm_2/wisdm_flex_icarl
======
LLL_Net(
  (model): SimpleMLP(
    (fc1): Linear(in_features=91, out_features=1000, bias=True)
    (fc2): Sequential()
  )
  (heads): ModuleList(
    (0): Linear(in_features=1000, out_features=34, bias=True)
    (1): Linear(in_features=1000, out_features=20, bias=True)
    (2): Linear(in_features=1000, out_features=20, bias=True)
    (3): Linear(in_features=1000, out_features=20, bias=True)
    (4): Linear(in_features=1000, out_features=20, bias=True)
    (5): Linear(in_features=1000, out_features=20, bias=True)
    (6): Linear(in_features=1000, out_features=20, bias=True)
    (7): Linear(in_features=1000, out_features=20, bias=True)
    (8): Linear(in_features=1000, out_features=20, bias=True)
    (9): Linear(in_features=1000, out_features=20, bias=True)
    (10): Linear(in_features=1000, out_features=20, bias=True)
    (11): Linear(in_features=1000, out_features=20, bias=True)
    (12): Linear(in_features=1000, out_features=20, bias=True)
    (13): Linear(in_features=1000, out_features=20, bias=True)
    (14): Linear(in_features=1000, out_features=20, bias=True)
    (15): Linear(in_features=1000, out_features=20, bias=True)
    (16): Linear(in_features=1000, out_features=20, bias=True)
    (17): Linear(in_features=1000, out_features=20, bias=True)
    (18): Linear(in_features=1000, out_features=20, bias=True)
    (19): Linear(in_features=1000, out_features=20, bias=True)
    (20): Linear(in_features=1000, out_features=20, bias=True)
    (21): Linear(in_features=1000, out_features=20, bias=True)
    (22): Linear(in_features=1000, out_features=20, bias=True)
    (23): Linear(in_features=1000, out_features=20, bias=True)
    (24): Linear(in_features=1000, out_features=20, bias=True)
    (25): Linear(in_features=1000, out_features=20, bias=True)
    (26): Linear(in_features=1000, out_features=20, bias=True)
    (27): Linear(in_features=1000, out_features=20, bias=True)
    (28): Linear(in_features=1000, out_features=20, bias=True)
    (29): Linear(in_features=1000, out_features=20, bias=True)
    (30): Linear(in_features=1000, out_features=20, bias=True)
    (31): Linear(in_features=1000, out_features=20, bias=True)
    (32): Linear(in_features=1000, out_features=20, bias=True)
    (33): Linear(in_features=1000, out_features=20, bias=True)
    (34): Linear(in_features=1000, out_features=20, bias=True)
    (35): Linear(in_features=1000, out_features=20, bias=True)
    (36): Linear(in_features=1000, out_features=20, bias=True)
    (37): Linear(in_features=1000, out_features=20, bias=True)
  )
)
======

************************************************************************************************************
Task 38
************************************************************************************************************
| Epoch   1, time= 29.1s | Train: skip eval | Valid: time=  0.3s loss=108.057, TAw acc= 54.8% | *
| Epoch   2, time= 30.4s | Train: skip eval | Valid: time=  0.3s loss=101.751, TAw acc= 75.0% | *
…
>>> Test on task 33 : loss=108.370 | TAw acc= 92.9%, forg=  0.0%| TAg acc= 55.1%, forg=  3.1% <<<
>>> Test on task 34 : loss=94.187 | TAw acc= 94.1%, forg=  0.0%| TAg acc= 67.6%, forg=  0.0% <<<
>>> Test on task 35 : loss=108.039 | TAw acc= 95.7%, forg=  0.0%| TAg acc= 67.5%, forg=  2.6% <<<
>>> Test on task 36 : loss=107.505 | TAw acc= 89.4%, forg=  0.0%| TAg acc= 50.0%, forg=  1.9% <<<
>>> Test on task 37 : loss=107.284 | TAw acc= 95.9%, forg=  0.0%| TAg acc= 64.2%, forg=  1.6% <<<
>>> Test on task 38 : loss=106.875 | TAw acc= 93.0%, forg=  0.0%| TAg acc= 63.2%, forg=  0.0% <<<
Save at icarl_wisdm_2/wisdm_flex_icarl
======
LLL_Net(
  (model): SimpleMLP(
    (fc1): Linear(in_features=91, out_features=1000, bias=True)
    (fc2): Sequential()
  )
  (heads): ModuleList(
    (0): Linear(in_features=1000, out_features=34, bias=True)
    (1): Linear(in_features=1000, out_features=20, bias=True)
    (2): Linear(in_features=1000, out_features=20, bias=True)
    (3): Linear(in_features=1000, out_features=20, bias=True)
    (4): Linear(in_features=1000, out_features=20, bias=True)
    (5): Linear(in_features=1000, out_features=20, bias=True)
    (6): Linear(in_features=1000, out_features=20, bias=True)
    (7): Linear(in_features=1000, out_features=20, bias=True)
    (8): Linear(in_features=1000, out_features=20, bias=True)
    (9): Linear(in_features=1000, out_features=20, bias=True)
    (10): Linear(in_features=1000, out_features=20, bias=True)
    (11): Linear(in_features=1000, out_features=20, bias=True)
    (12): Linear(in_features=1000, out_features=20, bias=True)
    (13): Linear(in_features=1000, out_features=20, bias=True)
    (14): Linear(in_features=1000, out_features=20, bias=True)
    (15): Linear(in_features=1000, out_features=20, bias=True)
    (16): Linear(in_features=1000, out_features=20, bias=True)
    (17): Linear(in_features=1000, out_features=20, bias=True)
    (18): Linear(in_features=1000, out_features=20, bias=True)
    (19): Linear(in_features=1000, out_features=20, bias=True)
    (20): Linear(in_features=1000, out_features=20, bias=True)
    (21): Linear(in_features=1000, out_features=20, bias=True)
    (22): Linear(in_features=1000, out_features=20, bias=True)
    (23): Linear(in_features=1000, out_features=20, bias=True)
    (24): Linear(in_features=1000, out_features=20, bias=True)
    (25): Linear(in_features=1000, out_features=20, bias=True)
    (26): Linear(in_features=1000, out_features=20, bias=True)
    (27): Linear(in_features=1000, out_features=20, bias=True)
    (28): Linear(in_features=1000, out_features=20, bias=True)
    (29): Linear(in_features=1000, out_features=20, bias=True)
    (30): Linear(in_features=1000, out_features=20, bias=True)
    (31): Linear(in_features=1000, out_features=20, bias=True)
    (32): Linear(in_features=1000, out_features=20, bias=True)
    (33): Linear(in_features=1000, out_features=20, bias=True)
    (34): Linear(in_features=1000, out_features=20, bias=True)
    (35): Linear(in_features=1000, out_features=20, bias=True)
    (36): Linear(in_features=1000, out_features=20, bias=True)
    (37): Linear(in_features=1000, out_features=20, bias=True)
    (38): Linear(in_features=1000, out_features=20, bias=True)
  )
)
======

************************************************************************************************************
Task 39
************************************************************************************************************
| Epoch   1, time= 30.9s | Train: skip eval | Valid: time=  0.3s loss=100.819, TAw acc= 61.1% | *
| Epoch   2, time= 32.0s | Train: skip eval | Valid: time=  0.3s loss=95.987, TAw acc= 80.0% | *
…
>>> Test on task 34 : loss=94.119 | TAw acc= 94.1%, forg=  0.0%| TAg acc= 67.6%, forg=  0.0% <<<
>>> Test on task 35 : loss=108.130 | TAw acc= 95.7%, forg=  0.0%| TAg acc= 65.0%, forg=  5.1% <<<
>>> Test on task 36 : loss=107.319 | TAw acc= 89.4%, forg=  0.0%| TAg acc= 50.0%, forg=  1.9% <<<
>>> Test on task 37 : loss=107.243 | TAw acc= 95.9%, forg=  0.0%| TAg acc= 64.2%, forg=  1.6% <<<
>>> Test on task 38 : loss=107.275 | TAw acc= 93.0%, forg=  0.0%| TAg acc= 63.2%, forg=  0.0% <<<
>>> Test on task 39 : loss=97.792 | TAw acc= 91.7%, forg=  0.0%| TAg acc= 52.5%, forg=  0.0% <<<
Save at icarl_wisdm_2/wisdm_flex_icarl
======
LLL_Net(
  (model): SimpleMLP(
    (fc1): Linear(in_features=91, out_features=1000, bias=True)
    (fc2): Sequential()
  )
  (heads): ModuleList(
    (0): Linear(in_features=1000, out_features=34, bias=True)
    (1): Linear(in_features=1000, out_features=20, bias=True)
    (2): Linear(in_features=1000, out_features=20, bias=True)
    (3): Linear(in_features=1000, out_features=20, bias=True)
    (4): Linear(in_features=1000, out_features=20, bias=True)
    (5): Linear(in_features=1000, out_features=20, bias=True)
    (6): Linear(in_features=1000, out_features=20, bias=True)
    (7): Linear(in_features=1000, out_features=20, bias=True)
    (8): Linear(in_features=1000, out_features=20, bias=True)
    (9): Linear(in_features=1000, out_features=20, bias=True)
    (10): Linear(in_features=1000, out_features=20, bias=True)
    (11): Linear(in_features=1000, out_features=20, bias=True)
    (12): Linear(in_features=1000, out_features=20, bias=True)
    (13): Linear(in_features=1000, out_features=20, bias=True)
    (14): Linear(in_features=1000, out_features=20, bias=True)
    (15): Linear(in_features=1000, out_features=20, bias=True)
    (16): Linear(in_features=1000, out_features=20, bias=True)
    (17): Linear(in_features=1000, out_features=20, bias=True)
    (18): Linear(in_features=1000, out_features=20, bias=True)
    (19): Linear(in_features=1000, out_features=20, bias=True)
    (20): Linear(in_features=1000, out_features=20, bias=True)
    (21): Linear(in_features=1000, out_features=20, bias=True)
    (22): Linear(in_features=1000, out_features=20, bias=True)
    (23): Linear(in_features=1000, out_features=20, bias=True)
    (24): Linear(in_features=1000, out_features=20, bias=True)
    (25): Linear(in_features=1000, out_features=20, bias=True)
    (26): Linear(in_features=1000, out_features=20, bias=True)
    (27): Linear(in_features=1000, out_features=20, bias=True)
    (28): Linear(in_features=1000, out_features=20, bias=True)
    (29): Linear(in_features=1000, out_features=20, bias=True)
    (30): Linear(in_features=1000, out_features=20, bias=True)
    (31): Linear(in_features=1000, out_features=20, bias=True)
    (32): Linear(in_features=1000, out_features=20, bias=True)
    (33): Linear(in_features=1000, out_features=20, bias=True)
    (34): Linear(in_features=1000, out_features=20, bias=True)
    (35): Linear(in_features=1000, out_features=20, bias=True)
    (36): Linear(in_features=1000, out_features=20, bias=True)
    (37): Linear(in_features=1000, out_features=20, bias=True)
    (38): Linear(in_features=1000, out_features=20, bias=True)
    (39): Linear(in_features=1000, out_features=20, bias=True)
  )
)
======

************************************************************************************************************
Task 40
************************************************************************************************************
| Epoch   1, time= 32.9s | Train: skip eval | Valid: time=  0.3s loss=127.472, TAw acc= 27.5% | *
| Epoch   2, time= 32.2s | Train: skip eval | Valid: time=  0.3s loss=122.084, TAw acc= 46.4% | *
…
>>> Test on task 35 : loss=108.131 | TAw acc= 95.7%, forg=  0.0%| TAg acc= 65.0%, forg=  5.1% <<<
>>> Test on task 36 : loss=107.393 | TAw acc= 89.4%, forg=  0.0%| TAg acc= 50.0%, forg=  1.9% <<<
>>> Test on task 37 : loss=107.205 | TAw acc= 95.9%, forg=  0.0%| TAg acc= 64.2%, forg=  1.6% <<<
>>> Test on task 38 : loss=107.183 | TAw acc= 93.0%, forg=  0.0%| TAg acc= 62.3%, forg=  0.9% <<<
>>> Test on task 39 : loss=98.184 | TAw acc= 91.7%, forg=  0.0%| TAg acc= 52.5%, forg=  0.0% <<<
>>> Test on task 40 : loss=110.272 | TAw acc= 94.8%, forg=  0.0%| TAg acc= 49.0%, forg=  0.0% <<<
Save at icarl_wisdm_2/wisdm_flex_icarl
======
LLL_Net(
  (model): SimpleMLP(
    (fc1): Linear(in_features=91, out_features=1000, bias=True)
    (fc2): Sequential()
  )
  (heads): ModuleList(
    (0): Linear(in_features=1000, out_features=34, bias=True)
    (1): Linear(in_features=1000, out_features=20, bias=True)
    (2): Linear(in_features=1000, out_features=20, bias=True)
    (3): Linear(in_features=1000, out_features=20, bias=True)
    (4): Linear(in_features=1000, out_features=20, bias=True)
    (5): Linear(in_features=1000, out_features=20, bias=True)
    (6): Linear(in_features=1000, out_features=20, bias=True)
    (7): Linear(in_features=1000, out_features=20, bias=True)
    (8): Linear(in_features=1000, out_features=20, bias=True)
    (9): Linear(in_features=1000, out_features=20, bias=True)
    (10): Linear(in_features=1000, out_features=20, bias=True)
    (11): Linear(in_features=1000, out_features=20, bias=True)
    (12): Linear(in_features=1000, out_features=20, bias=True)
    (13): Linear(in_features=1000, out_features=20, bias=True)
    (14): Linear(in_features=1000, out_features=20, bias=True)
    (15): Linear(in_features=1000, out_features=20, bias=True)
    (16): Linear(in_features=1000, out_features=20, bias=True)
    (17): Linear(in_features=1000, out_features=20, bias=True)
    (18): Linear(in_features=1000, out_features=20, bias=True)
    (19): Linear(in_features=1000, out_features=20, bias=True)
    (20): Linear(in_features=1000, out_features=20, bias=True)
    (21): Linear(in_features=1000, out_features=20, bias=True)
    (22): Linear(in_features=1000, out_features=20, bias=True)
    (23): Linear(in_features=1000, out_features=20, bias=True)
    (24): Linear(in_features=1000, out_features=20, bias=True)
    (25): Linear(in_features=1000, out_features=20, bias=True)
    (26): Linear(in_features=1000, out_features=20, bias=True)
    (27): Linear(in_features=1000, out_features=20, bias=True)
    (28): Linear(in_features=1000, out_features=20, bias=True)
    (29): Linear(in_features=1000, out_features=20, bias=True)
    (30): Linear(in_features=1000, out_features=20, bias=True)
    (31): Linear(in_features=1000, out_features=20, bias=True)
    (32): Linear(in_features=1000, out_features=20, bias=True)
    (33): Linear(in_features=1000, out_features=20, bias=True)
    (34): Linear(in_features=1000, out_features=20, bias=True)
    (35): Linear(in_features=1000, out_features=20, bias=True)
    (36): Linear(in_features=1000, out_features=20, bias=True)
    (37): Linear(in_features=1000, out_features=20, bias=True)
    (38): Linear(in_features=1000, out_features=20, bias=True)
    (39): Linear(in_features=1000, out_features=20, bias=True)
    (40): Linear(in_features=1000, out_features=20, bias=True)
  )
)
======

************************************************************************************************************
Task 41
************************************************************************************************************
| Epoch   1, time= 34.4s | Train: skip eval | Valid: time=  0.3s loss=127.201, TAw acc= 41.5% | *
| Epoch   2, time= 34.3s | Train: skip eval | Valid: time=  0.3s loss=120.221, TAw acc= 44.6% | *
…
>>> Test on task 36 : loss=107.226 | TAw acc= 89.4%, forg=  0.0%| TAg acc= 50.0%, forg=  1.9% <<<
>>> Test on task 37 : loss=107.146 | TAw acc= 95.9%, forg=  0.0%| TAg acc= 64.2%, forg=  1.6% <<<
>>> Test on task 38 : loss=107.190 | TAw acc= 93.0%, forg=  0.0%| TAg acc= 62.3%, forg=  0.9% <<<
>>> Test on task 39 : loss=98.077 | TAw acc= 91.7%, forg=  0.0%| TAg acc= 52.5%, forg=  0.0% <<<
>>> Test on task 40 : loss=110.705 | TAw acc= 94.8%, forg=  0.0%| TAg acc= 49.0%, forg=  0.0% <<<
>>> Test on task 41 : loss=109.938 | TAw acc= 93.4%, forg=  0.0%| TAg acc= 67.0%, forg=  0.0% <<<
Save at icarl_wisdm_2/wisdm_flex_icarl
======
LLL_Net(
  (model): SimpleMLP(
    (fc1): Linear(in_features=91, out_features=1000, bias=True)
    (fc2): Sequential()
  )
  (heads): ModuleList(
    (0): Linear(in_features=1000, out_features=34, bias=True)
    (1): Linear(in_features=1000, out_features=20, bias=True)
    (2): Linear(in_features=1000, out_features=20, bias=True)
    (3): Linear(in_features=1000, out_features=20, bias=True)
    (4): Linear(in_features=1000, out_features=20, bias=True)
    (5): Linear(in_features=1000, out_features=20, bias=True)
    (6): Linear(in_features=1000, out_features=20, bias=True)
    (7): Linear(in_features=1000, out_features=20, bias=True)
    (8): Linear(in_features=1000, out_features=20, bias=True)
    (9): Linear(in_features=1000, out_features=20, bias=True)
    (10): Linear(in_features=1000, out_features=20, bias=True)
    (11): Linear(in_features=1000, out_features=20, bias=True)
    (12): Linear(in_features=1000, out_features=20, bias=True)
    (13): Linear(in_features=1000, out_features=20, bias=True)
    (14): Linear(in_features=1000, out_features=20, bias=True)
    (15): Linear(in_features=1000, out_features=20, bias=True)
    (16): Linear(in_features=1000, out_features=20, bias=True)
    (17): Linear(in_features=1000, out_features=20, bias=True)
    (18): Linear(in_features=1000, out_features=20, bias=True)
    (19): Linear(in_features=1000, out_features=20, bias=True)
    (20): Linear(in_features=1000, out_features=20, bias=True)
    (21): Linear(in_features=1000, out_features=20, bias=True)
    (22): Linear(in_features=1000, out_features=20, bias=True)
    (23): Linear(in_features=1000, out_features=20, bias=True)
    (24): Linear(in_features=1000, out_features=20, bias=True)
    (25): Linear(in_features=1000, out_features=20, bias=True)
    (26): Linear(in_features=1000, out_features=20, bias=True)
    (27): Linear(in_features=1000, out_features=20, bias=True)
    (28): Linear(in_features=1000, out_features=20, bias=True)
    (29): Linear(in_features=1000, out_features=20, bias=True)
    (30): Linear(in_features=1000, out_features=20, bias=True)
    (31): Linear(in_features=1000, out_features=20, bias=True)
    (32): Linear(in_features=1000, out_features=20, bias=True)
    (33): Linear(in_features=1000, out_features=20, bias=True)
    (34): Linear(in_features=1000, out_features=20, bias=True)
    (35): Linear(in_features=1000, out_features=20, bias=True)
    (36): Linear(in_features=1000, out_features=20, bias=True)
    (37): Linear(in_features=1000, out_features=20, bias=True)
    (38): Linear(in_features=1000, out_features=20, bias=True)
    (39): Linear(in_features=1000, out_features=20, bias=True)
    (40): Linear(in_features=1000, out_features=20, bias=True)
    (41): Linear(in_features=1000, out_features=20, bias=True)
  )
)
======

************************************************************************************************************
Task 42
************************************************************************************************************
| Epoch   1, time= 36.1s | Train: skip eval | Valid: time=  0.4s loss=114.095, TAw acc= 45.8% | *
| Epoch   2, time= 34.5s | Train: skip eval | Valid: time=  0.4s loss=109.864, TAw acc= 65.1% | *
…
>>> Test on task 37 : loss=106.991 | TAw acc= 95.9%, forg=  0.0%| TAg acc= 64.2%, forg=  1.6% <<<
>>> Test on task 38 : loss=107.033 | TAw acc= 93.0%, forg=  0.0%| TAg acc= 62.3%, forg=  0.9% <<<
>>> Test on task 39 : loss=98.161 | TAw acc= 91.7%, forg=  0.0%| TAg acc= 52.5%, forg=  0.0% <<<
>>> Test on task 40 : loss=110.502 | TAw acc= 94.8%, forg=  0.0%| TAg acc= 49.0%, forg=  0.0% <<<
>>> Test on task 41 : loss=110.061 | TAw acc= 93.4%, forg=  0.0%| TAg acc= 65.9%, forg=  1.1% <<<
>>> Test on task 42 : loss=102.046 | TAw acc= 93.8%, forg=  0.0%| TAg acc= 60.7%, forg=  0.0% <<<
Save at icarl_wisdm_2/wisdm_flex_icarl
======
LLL_Net(
  (model): SimpleMLP(
    (fc1): Linear(in_features=91, out_features=1000, bias=True)
    (fc2): Sequential()
  )
  (heads): ModuleList(
    (0): Linear(in_features=1000, out_features=34, bias=True)
    (1): Linear(in_features=1000, out_features=20, bias=True)
    (2): Linear(in_features=1000, out_features=20, bias=True)
    (3): Linear(in_features=1000, out_features=20, bias=True)
    (4): Linear(in_features=1000, out_features=20, bias=True)
    (5): Linear(in_features=1000, out_features=20, bias=True)
    (6): Linear(in_features=1000, out_features=20, bias=True)
    (7): Linear(in_features=1000, out_features=20, bias=True)
    (8): Linear(in_features=1000, out_features=20, bias=True)
    (9): Linear(in_features=1000, out_features=20, bias=True)
    (10): Linear(in_features=1000, out_features=20, bias=True)
    (11): Linear(in_features=1000, out_features=20, bias=True)
    (12): Linear(in_features=1000, out_features=20, bias=True)
    (13): Linear(in_features=1000, out_features=20, bias=True)
    (14): Linear(in_features=1000, out_features=20, bias=True)
    (15): Linear(in_features=1000, out_features=20, bias=True)
    (16): Linear(in_features=1000, out_features=20, bias=True)
    (17): Linear(in_features=1000, out_features=20, bias=True)
    (18): Linear(in_features=1000, out_features=20, bias=True)
    (19): Linear(in_features=1000, out_features=20, bias=True)
    (20): Linear(in_features=1000, out_features=20, bias=True)
    (21): Linear(in_features=1000, out_features=20, bias=True)
    (22): Linear(in_features=1000, out_features=20, bias=True)
    (23): Linear(in_features=1000, out_features=20, bias=True)
    (24): Linear(in_features=1000, out_features=20, bias=True)
    (25): Linear(in_features=1000, out_features=20, bias=True)
    (26): Linear(in_features=1000, out_features=20, bias=True)
    (27): Linear(in_features=1000, out_features=20, bias=True)
    (28): Linear(in_features=1000, out_features=20, bias=True)
    (29): Linear(in_features=1000, out_features=20, bias=True)
    (30): Linear(in_features=1000, out_features=20, bias=True)
    (31): Linear(in_features=1000, out_features=20, bias=True)
    (32): Linear(in_features=1000, out_features=20, bias=True)
    (33): Linear(in_features=1000, out_features=20, bias=True)
    (34): Linear(in_features=1000, out_features=20, bias=True)
    (35): Linear(in_features=1000, out_features=20, bias=True)
    (36): Linear(in_features=1000, out_features=20, bias=True)
    (37): Linear(in_features=1000, out_features=20, bias=True)
    (38): Linear(in_features=1000, out_features=20, bias=True)
    (39): Linear(in_features=1000, out_features=20, bias=True)
    (40): Linear(in_features=1000, out_features=20, bias=True)
    (41): Linear(in_features=1000, out_features=20, bias=True)
    (42): Linear(in_features=1000, out_features=20, bias=True)
  )
)
======

************************************************************************************************************
Task 43
************************************************************************************************************
| Epoch   1, time= 36.0s | Train: skip eval | Valid: time=  0.3s loss=120.945, TAw acc= 43.0% | *
| Epoch   2, time= 36.0s | Train: skip eval | Valid: time=  0.3s loss=115.754, TAw acc= 57.0% | *
…
