…
| Selected 807 train exemplars, time=  0.0s
807
------------------------------------------------------------------------------------------------------------
>>> Test on task  0 : loss=2.307 | TAw acc= 82.7%, forg= -3.2%| TAg acc= 74.1%, forg= -9.7% <<<
>>> Test on task  1 : loss=2.486 | TAw acc= 87.3%, forg= -1.8%| TAg acc= 48.2%, forg=  0.9% <<<
>>> Test on task  2 : loss=2.832 | TAw acc= 80.4%, forg=-22.5%| TAg acc= 35.3%, forg=  7.8% <<<
>>> Test on task  3 : loss=2.848 | TAw acc= 47.2%, forg=  0.0%| TAg acc= 44.4%, forg=  0.0% <<<
Save at k=100/eeil_e20_wisdm_1/wisdm_flex_eeil
======
LLL_Net(
  (model): SimpleMLP(
    (fc1): Linear(in_features=91, out_features=1000, bias=True)
    (fc2): Sequential()
  )
  (heads): ModuleList(
    (0): Linear(in_features=1000, out_features=34, bias=True)
    (1): Linear(in_features=1000, out_features=20, bias=True)
    (2): Linear(in_features=1000, out_features=20, bias=True)
    (3): Linear(in_features=1000, out_features=20, bias=True)
  )
)
======

************************************************************************************************************
Task  4
************************************************************************************************************
| Epoch   1, time=  0.4s | Train: skip eval | Valid: time=  0.2s loss=5.073, TAw acc=  5.4% | *
| Epoch   2, time=  0.4s | Train: skip eval | Valid: time=  0.2s loss=5.058, TAw acc=  5.4% | *
…
------------------------------------------------------------------------------------------------------------
>>> Test on task  0 : loss=2.190 | TAw acc= 85.4%, forg= -2.7%| TAg acc= 72.4%, forg=  1.6% <<<
>>> Test on task  1 : loss=2.371 | TAw acc= 90.0%, forg= -2.7%| TAg acc= 43.6%, forg=  5.5% <<<
>>> Test on task  2 : loss=2.695 | TAw acc= 83.3%, forg= -2.9%| TAg acc= 42.2%, forg=  1.0% <<<
>>> Test on task  3 : loss=2.852 | TAw acc= 81.5%, forg=-34.3%| TAg acc= 39.8%, forg=  4.6% <<<
>>> Test on task  4 : loss=3.151 | TAw acc= 57.4%, forg=  0.0%| TAg acc= 41.6%, forg=  0.0% <<<
Save at k=100/eeil_e20_wisdm_1/wisdm_flex_eeil
======
LLL_Net(
  (model): SimpleMLP(
    (fc1): Linear(in_features=91, out_features=1000, bias=True)
    (fc2): Sequential()
  )
  (heads): ModuleList(
    (0): Linear(in_features=1000, out_features=34, bias=True)
    (1): Linear(in_features=1000, out_features=20, bias=True)
    (2): Linear(in_features=1000, out_features=20, bias=True)
    (3): Linear(in_features=1000, out_features=20, bias=True)
    (4): Linear(in_features=1000, out_features=20, bias=True)
  )
)
======

************************************************************************************************************
Task  5
************************************************************************************************************
| Epoch   1, time=  0.4s | Train: skip eval | Valid: time=  0.3s loss=5.300, TAw acc=  1.3% | *
| Epoch   2, time=  0.5s | Train: skip eval | Valid: time=  0.2s loss=5.288, TAw acc=  2.7% | *
…
>>> Test on task  0 : loss=2.046 | TAw acc= 85.9%, forg= -0.5%| TAg acc= 82.2%, forg= -8.1% <<<
>>> Test on task  1 : loss=2.202 | TAw acc= 92.7%, forg= -2.7%| TAg acc= 57.3%, forg= -8.2% <<<
>>> Test on task  2 : loss=2.545 | TAw acc= 85.3%, forg= -2.0%| TAg acc= 55.9%, forg=-12.7% <<<
>>> Test on task  3 : loss=2.689 | TAw acc= 85.2%, forg= -3.7%| TAg acc= 55.6%, forg=-11.1% <<<
>>> Test on task  4 : loss=3.089 | TAw acc= 79.2%, forg=-21.8%| TAg acc= 39.6%, forg=  2.0% <<<
>>> Test on task  5 : loss=3.441 | TAw acc= 59.2%, forg=  0.0%| TAg acc= 24.3%, forg=  0.0% <<<
Save at k=100/eeil_e20_wisdm_1/wisdm_flex_eeil
======
LLL_Net(
  (model): SimpleMLP(
    (fc1): Linear(in_features=91, out_features=1000, bias=True)
    (fc2): Sequential()
  )
  (heads): ModuleList(
    (0): Linear(in_features=1000, out_features=34, bias=True)
    (1): Linear(in_features=1000, out_features=20, bias=True)
    (2): Linear(in_features=1000, out_features=20, bias=True)
    (3): Linear(in_features=1000, out_features=20, bias=True)
    (4): Linear(in_features=1000, out_features=20, bias=True)
    (5): Linear(in_features=1000, out_features=20, bias=True)
  )
)
======

************************************************************************************************************
Task  6
************************************************************************************************************
| Epoch   1, time=  0.5s | Train: skip eval | Valid: time=  0.3s loss=5.294, TAw acc=  5.0% | *
| Epoch   2, time=  0.5s | Train: skip eval | Valid: time=  0.2s loss=5.285, TAw acc=  5.0% | *
…
>>> Test on task  1 : loss=2.083 | TAw acc= 94.5%, forg= -1.8%| TAg acc= 58.2%, forg= -0.9% <<<
>>> Test on task  2 : loss=2.390 | TAw acc= 85.3%, forg=  0.0%| TAg acc= 60.8%, forg= -4.9% <<<
>>> Test on task  3 : loss=2.538 | TAw acc= 88.0%, forg= -2.8%| TAg acc= 56.5%, forg= -0.9% <<<
>>> Test on task  4 : loss=2.853 | TAw acc= 81.2%, forg= -2.0%| TAg acc= 43.6%, forg= -2.0% <<<
>>> Test on task  5 : loss=3.217 | TAw acc= 67.0%, forg= -7.8%| TAg acc= 17.5%, forg=  6.8% <<<
>>> Test on task  6 : loss=3.601 | TAw acc= 49.1%, forg=  0.0%| TAg acc= 25.0%, forg=  0.0% <<<
Save at k=100/eeil_e20_wisdm_1/wisdm_flex_eeil
======
LLL_Net(
  (model): SimpleMLP(
    (fc1): Linear(in_features=91, out_features=1000, bias=True)
    (fc2): Sequential()
  )
  (heads): ModuleList(
    (0): Linear(in_features=1000, out_features=34, bias=True)
    (1): Linear(in_features=1000, out_features=20, bias=True)
    (2): Linear(in_features=1000, out_features=20, bias=True)
    (3): Linear(in_features=1000, out_features=20, bias=True)
    (4): Linear(in_features=1000, out_features=20, bias=True)
    (5): Linear(in_features=1000, out_features=20, bias=True)
    (6): Linear(in_features=1000, out_features=20, bias=True)
  )
)
======

************************************************************************************************************
Task  7
************************************************************************************************************
| Epoch   1, time=  0.5s | Train: skip eval | Valid: time=  0.2s loss=5.551, TAw acc= 12.5% | *
| Epoch   2, time=  0.6s | Train: skip eval | Valid: time=  0.2s loss=5.538, TAw acc= 12.5% | *
…
>>> Test on task  2 : loss=2.265 | TAw acc= 89.2%, forg= -3.9%| TAg acc= 67.6%, forg= -6.9% <<<
>>> Test on task  3 : loss=2.403 | TAw acc= 89.8%, forg= -1.9%| TAg acc= 60.2%, forg= -3.7% <<<
>>> Test on task  4 : loss=2.598 | TAw acc= 83.2%, forg= -2.0%| TAg acc= 50.5%, forg= -6.9% <<<
>>> Test on task  5 : loss=2.938 | TAw acc= 77.7%, forg=-10.7%| TAg acc= 29.1%, forg= -4.9% <<<
>>> Test on task  6 : loss=3.454 | TAw acc= 66.7%, forg=-17.6%| TAg acc= 15.7%, forg=  9.3% <<<
>>> Test on task  7 : loss=3.394 | TAw acc= 61.6%, forg=  0.0%| TAg acc= 18.2%, forg=  0.0% <<<
Save at k=100/eeil_e20_wisdm_1/wisdm_flex_eeil
======
LLL_Net(
  (model): SimpleMLP(
    (fc1): Linear(in_features=91, out_features=1000, bias=True)
    (fc2): Sequential()
  )
  (heads): ModuleList(
    (0): Linear(in_features=1000, out_features=34, bias=True)
    (1): Linear(in_features=1000, out_features=20, bias=True)
    (2): Linear(in_features=1000, out_features=20, bias=True)
    (3): Linear(in_features=1000, out_features=20, bias=True)
    (4): Linear(in_features=1000, out_features=20, bias=True)
    (5): Linear(in_features=1000, out_features=20, bias=True)
    (6): Linear(in_features=1000, out_features=20, bias=True)
    (7): Linear(in_features=1000, out_features=20, bias=True)
  )
)
======

************************************************************************************************************
Task  8
************************************************************************************************************
| Epoch   1, time=  0.6s | Train: skip eval | Valid: time=  0.2s loss=6.165, TAw acc=  0.0% | *
| Epoch   2, time=  0.6s | Train: skip eval | Valid: time=  0.2s loss=6.129, TAw acc=  0.0% | *
…
>>> Test on task  3 : loss=2.342 | TAw acc= 90.7%, forg= -0.9%| TAg acc= 50.9%, forg=  9.3% <<<
>>> Test on task  4 : loss=2.402 | TAw acc= 90.1%, forg= -6.9%| TAg acc= 48.5%, forg=  2.0% <<<
>>> Test on task  5 : loss=2.717 | TAw acc= 79.6%, forg= -1.9%| TAg acc= 32.0%, forg= -2.9% <<<
>>> Test on task  6 : loss=3.263 | TAw acc= 77.8%, forg=-11.1%| TAg acc= 15.7%, forg=  9.3% <<<
>>> Test on task  7 : loss=3.181 | TAw acc= 94.9%, forg=-33.3%| TAg acc= 18.2%, forg=  0.0% <<<
>>> Test on task  8 : loss=3.283 | TAw acc= 56.5%, forg=  0.0%| TAg acc= 33.3%, forg=  0.0% <<<
Save at k=100/eeil_e20_wisdm_1/wisdm_flex_eeil
======
LLL_Net(
  (model): SimpleMLP(
    (fc1): Linear(in_features=91, out_features=1000, bias=True)
    (fc2): Sequential()
  )
  (heads): ModuleList(
    (0): Linear(in_features=1000, out_features=34, bias=True)
    (1): Linear(in_features=1000, out_features=20, bias=True)
    (2): Linear(in_features=1000, out_features=20, bias=True)
    (3): Linear(in_features=1000, out_features=20, bias=True)
    (4): Linear(in_features=1000, out_features=20, bias=True)
    (5): Linear(in_features=1000, out_features=20, bias=True)
    (6): Linear(in_features=1000, out_features=20, bias=True)
    (7): Linear(in_features=1000, out_features=20, bias=True)
    (8): Linear(in_features=1000, out_features=20, bias=True)
  )
)
======

************************************************************************************************************
Task  9
************************************************************************************************************
| Epoch   1, time=  0.7s | Train: skip eval | Valid: time=  0.2s loss=6.046, TAw acc=  5.7% | *
| Epoch   2, time=  0.8s | Train: skip eval | Valid: time=  0.2s loss=6.022, TAw acc=  5.7% | *
…
>>> Test on task  4 : loss=2.266 | TAw acc= 90.1%, forg=  0.0%| TAg acc= 63.4%, forg=-12.9% <<<
>>> Test on task  5 : loss=2.598 | TAw acc= 83.5%, forg= -3.9%| TAg acc= 39.8%, forg= -7.8% <<<
>>> Test on task  6 : loss=3.063 | TAw acc= 90.7%, forg=-13.0%| TAg acc= 21.3%, forg=  3.7% <<<
>>> Test on task  7 : loss=2.925 | TAw acc= 99.0%, forg= -4.0%| TAg acc= 20.2%, forg= -2.0% <<<
>>> Test on task  8 : loss=3.208 | TAw acc= 80.6%, forg=-24.1%| TAg acc= 25.0%, forg=  8.3% <<<
>>> Test on task  9 : loss=2.909 | TAw acc= 71.8%, forg=  0.0%| TAg acc= 47.9%, forg=  0.0% <<<
Save at k=100/eeil_e20_wisdm_1/wisdm_flex_eeil
======
LLL_Net(
  (model): SimpleMLP(
    (fc1): Linear(in_features=91, out_features=1000, bias=True)
    (fc2): Sequential()
  )
  (heads): ModuleList(
    (0): Linear(in_features=1000, out_features=34, bias=True)
    (1): Linear(in_features=1000, out_features=20, bias=True)
    (2): Linear(in_features=1000, out_features=20, bias=True)
    (3): Linear(in_features=1000, out_features=20, bias=True)
    (4): Linear(in_features=1000, out_features=20, bias=True)
    (5): Linear(in_features=1000, out_features=20, bias=True)
    (6): Linear(in_features=1000, out_features=20, bias=True)
    (7): Linear(in_features=1000, out_features=20, bias=True)
    (8): Linear(in_features=1000, out_features=20, bias=True)
    (9): Linear(in_features=1000, out_features=20, bias=True)
  )
)
======

************************************************************************************************************
Task 10
************************************************************************************************************
| Epoch   1, time=  0.8s | Train: skip eval | Valid: time=  0.2s loss=6.393, TAw acc=  1.1% | *
| Epoch   2, time=  0.8s | Train: skip eval | Valid: time=  0.2s loss=6.363, TAw acc=  3.3% | *
…
>>> Test on task  5 : loss=2.425 | TAw acc= 80.6%, forg=  2.9%| TAg acc= 49.5%, forg= -9.7% <<<
>>> Test on task  6 : loss=2.895 | TAw acc= 92.6%, forg= -1.9%| TAg acc= 14.8%, forg= 10.2% <<<
>>> Test on task  7 : loss=2.678 | TAw acc= 99.0%, forg=  0.0%| TAg acc= 31.3%, forg=-11.1% <<<
>>> Test on task  8 : loss=2.998 | TAw acc= 88.9%, forg= -8.3%| TAg acc= 16.7%, forg= 16.7% <<<
>>> Test on task  9 : loss=2.896 | TAw acc= 85.5%, forg=-13.7%| TAg acc= 25.6%, forg= 22.2% <<<
>>> Test on task 10 : loss=2.954 | TAw acc= 69.7%, forg=  0.0%| TAg acc= 38.5%, forg=  0.0% <<<
Save at k=100/eeil_e20_wisdm_1/wisdm_flex_eeil
======
LLL_Net(
  (model): SimpleMLP(
    (fc1): Linear(in_features=91, out_features=1000, bias=True)
    (fc2): Sequential()
  )
  (heads): ModuleList(
    (0): Linear(in_features=1000, out_features=34, bias=True)
    (1): Linear(in_features=1000, out_features=20, bias=True)
    (2): Linear(in_features=1000, out_features=20, bias=True)
    (3): Linear(in_features=1000, out_features=20, bias=True)
    (4): Linear(in_features=1000, out_features=20, bias=True)
    (5): Linear(in_features=1000, out_features=20, bias=True)
    (6): Linear(in_features=1000, out_features=20, bias=True)
    (7): Linear(in_features=1000, out_features=20, bias=True)
    (8): Linear(in_features=1000, out_features=20, bias=True)
    (9): Linear(in_features=1000, out_features=20, bias=True)
    (10): Linear(in_features=1000, out_features=20, bias=True)
  )
)
======

************************************************************************************************************
Task 11
************************************************************************************************************
| Epoch   1, time=  0.9s | Train: skip eval | Valid: time=  0.2s loss=6.279, TAw acc=  1.3% | *
| Epoch   2, time=  0.9s | Train: skip eval | Valid: time=  0.3s loss=6.263, TAw acc=  1.3% | *
…
>>> Test on task  6 : loss=2.676 | TAw acc= 93.5%, forg= -0.9%| TAg acc= 33.3%, forg= -8.3% <<<
>>> Test on task  7 : loss=2.437 | TAw acc= 99.0%, forg=  0.0%| TAg acc= 41.4%, forg=-10.1% <<<
>>> Test on task  8 : loss=2.658 | TAw acc= 91.7%, forg= -2.8%| TAg acc= 29.6%, forg=  3.7% <<<
>>> Test on task  9 : loss=2.671 | TAw acc= 92.3%, forg= -6.8%| TAg acc= 32.5%, forg= 15.4% <<<
>>> Test on task 10 : loss=2.973 | TAw acc= 83.6%, forg=-13.9%| TAg acc= 37.7%, forg=  0.8% <<<
>>> Test on task 11 : loss=3.674 | TAw acc= 68.0%, forg=  0.0%| TAg acc= 21.4%, forg=  0.0% <<<
Save at k=100/eeil_e20_wisdm_1/wisdm_flex_eeil
======
LLL_Net(
  (model): SimpleMLP(
    (fc1): Linear(in_features=91, out_features=1000, bias=True)
    (fc2): Sequential()
  )
  (heads): ModuleList(
    (0): Linear(in_features=1000, out_features=34, bias=True)
    (1): Linear(in_features=1000, out_features=20, bias=True)
    (2): Linear(in_features=1000, out_features=20, bias=True)
    (3): Linear(in_features=1000, out_features=20, bias=True)
    (4): Linear(in_features=1000, out_features=20, bias=True)
    (5): Linear(in_features=1000, out_features=20, bias=True)
    (6): Linear(in_features=1000, out_features=20, bias=True)
    (7): Linear(in_features=1000, out_features=20, bias=True)
    (8): Linear(in_features=1000, out_features=20, bias=True)
    (9): Linear(in_features=1000, out_features=20, bias=True)
    (10): Linear(in_features=1000, out_features=20, bias=True)
    (11): Linear(in_features=1000, out_features=20, bias=True)
  )
)
======

************************************************************************************************************
Task 12
************************************************************************************************************
| Epoch   1, time=  1.0s | Train: skip eval | Valid: time=  0.2s loss=6.999, TAw acc= 18.1% | *
| Epoch   2, time=  0.9s | Train: skip eval | Valid: time=  0.3s loss=6.972, TAw acc= 19.4% | *
…
>>> Test on task  7 : loss=2.294 | TAw acc= 99.0%, forg=  0.0%| TAg acc= 55.6%, forg=-14.1% <<<
>>> Test on task  8 : loss=2.447 | TAw acc= 93.5%, forg= -1.9%| TAg acc= 38.0%, forg= -4.6% <<<
>>> Test on task  9 : loss=2.492 | TAw acc= 95.7%, forg= -3.4%| TAg acc= 39.3%, forg=  8.5% <<<
>>> Test on task 10 : loss=2.745 | TAw acc= 93.4%, forg= -9.8%| TAg acc= 41.8%, forg= -3.3% <<<
>>> Test on task 11 : loss=3.366 | TAw acc= 86.4%, forg=-18.4%| TAg acc= 25.2%, forg= -3.9% <<<
>>> Test on task 12 : loss=3.398 | TAw acc= 45.0%, forg=  0.0%| TAg acc= 23.0%, forg=  0.0% <<<
Save at k=100/eeil_e20_wisdm_1/wisdm_flex_eeil
======
LLL_Net(
  (model): SimpleMLP(
    (fc1): Linear(in_features=91, out_features=1000, bias=True)
    (fc2): Sequential()
  )
  (heads): ModuleList(
    (0): Linear(in_features=1000, out_features=34, bias=True)
    (1): Linear(in_features=1000, out_features=20, bias=True)
    (2): Linear(in_features=1000, out_features=20, bias=True)
    (3): Linear(in_features=1000, out_features=20, bias=True)
    (4): Linear(in_features=1000, out_features=20, bias=True)
    (5): Linear(in_features=1000, out_features=20, bias=True)
    (6): Linear(in_features=1000, out_features=20, bias=True)
    (7): Linear(in_features=1000, out_features=20, bias=True)
    (8): Linear(in_features=1000, out_features=20, bias=True)
    (9): Linear(in_features=1000, out_features=20, bias=True)
    (10): Linear(in_features=1000, out_features=20, bias=True)
    (11): Linear(in_features=1000, out_features=20, bias=True)
    (12): Linear(in_features=1000, out_features=20, bias=True)
  )
)
======

************************************************************************************************************
Task 13
************************************************************************************************************
| Epoch   1, time=  1.2s | Train: skip eval | Valid: time=  0.2s loss=7.177, TAw acc= 10.0% | *
| Epoch   2, time=  1.1s | Train: skip eval | Valid: time=  0.2s loss=7.137, TAw acc= 10.0% | *
…
>>> Test on task  8 : loss=2.382 | TAw acc= 96.3%, forg= -2.8%| TAg acc= 28.7%, forg=  9.3% <<<
>>> Test on task  9 : loss=2.330 | TAw acc= 95.7%, forg=  0.0%| TAg acc= 44.4%, forg=  3.4% <<<
>>> Test on task 10 : loss=2.587 | TAw acc= 95.9%, forg= -2.5%| TAg acc= 36.1%, forg=  5.7% <<<
>>> Test on task 11 : loss=3.056 | TAw acc= 89.3%, forg= -2.9%| TAg acc= 24.3%, forg=  1.0% <<<
>>> Test on task 12 : loss=3.212 | TAw acc= 66.0%, forg=-21.0%| TAg acc= 13.0%, forg= 10.0% <<<
>>> Test on task 13 : loss=2.985 | TAw acc= 65.3%, forg=  0.0%| TAg acc= 41.3%, forg=  0.0% <<<
Save at k=100/eeil_e20_wisdm_1/wisdm_flex_eeil
======
LLL_Net(
  (model): SimpleMLP(
    (fc1): Linear(in_features=91, out_features=1000, bias=True)
    (fc2): Sequential()
  )
  (heads): ModuleList(
    (0): Linear(in_features=1000, out_features=34, bias=True)
    (1): Linear(in_features=1000, out_features=20, bias=True)
    (2): Linear(in_features=1000, out_features=20, bias=True)
    (3): Linear(in_features=1000, out_features=20, bias=True)
    (4): Linear(in_features=1000, out_features=20, bias=True)
    (5): Linear(in_features=1000, out_features=20, bias=True)
    (6): Linear(in_features=1000, out_features=20, bias=True)
    (7): Linear(in_features=1000, out_features=20, bias=True)
    (8): Linear(in_features=1000, out_features=20, bias=True)
    (9): Linear(in_features=1000, out_features=20, bias=True)
    (10): Linear(in_features=1000, out_features=20, bias=True)
    (11): Linear(in_features=1000, out_features=20, bias=True)
    (12): Linear(in_features=1000, out_features=20, bias=True)
    (13): Linear(in_features=1000, out_features=20, bias=True)
  )
)
======

************************************************************************************************************
Task 14
************************************************************************************************************
| Epoch   1, time=  1.2s | Train: skip eval | Valid: time=  0.2s loss=7.366, TAw acc=  0.0% | *
| Epoch   2, time=  1.2s | Train: skip eval | Valid: time=  0.2s loss=7.340, TAw acc=  1.3% | *
…
>>> Test on task  9 : loss=2.170 | TAw acc= 95.7%, forg=  0.0%| TAg acc= 49.6%, forg= -1.7% <<<
>>> Test on task 10 : loss=2.399 | TAw acc= 97.5%, forg= -1.6%| TAg acc= 39.3%, forg=  2.5% <<<
>>> Test on task 11 : loss=2.703 | TAw acc= 89.3%, forg=  0.0%| TAg acc= 35.0%, forg= -9.7% <<<
>>> Test on task 12 : loss=2.998 | TAw acc= 69.0%, forg= -3.0%| TAg acc= 20.0%, forg=  3.0% <<<
>>> Test on task 13 : loss=3.003 | TAw acc= 92.6%, forg=-27.3%| TAg acc= 10.7%, forg= 30.6% <<<
>>> Test on task 14 : loss=3.336 | TAw acc= 60.6%, forg=  0.0%| TAg acc= 26.6%, forg=  0.0% <<<
Save at k=100/eeil_e20_wisdm_1/wisdm_flex_eeil
======
LLL_Net(
  (model): SimpleMLP(
    (fc1): Linear(in_features=91, out_features=1000, bias=True)
    (fc2): Sequential()
  )
  (heads): ModuleList(
    (0): Linear(in_features=1000, out_features=34, bias=True)
    (1): Linear(in_features=1000, out_features=20, bias=True)
    (2): Linear(in_features=1000, out_features=20, bias=True)
    (3): Linear(in_features=1000, out_features=20, bias=True)
    (4): Linear(in_features=1000, out_features=20, bias=True)
    (5): Linear(in_features=1000, out_features=20, bias=True)
    (6): Linear(in_features=1000, out_features=20, bias=True)
    (7): Linear(in_features=1000, out_features=20, bias=True)
    (8): Linear(in_features=1000, out_features=20, bias=True)
    (9): Linear(in_features=1000, out_features=20, bias=True)
    (10): Linear(in_features=1000, out_features=20, bias=True)
    (11): Linear(in_features=1000, out_features=20, bias=True)
    (12): Linear(in_features=1000, out_features=20, bias=True)
    (13): Linear(in_features=1000, out_features=20, bias=True)
    (14): Linear(in_features=1000, out_features=20, bias=True)
  )
)
======

************************************************************************************************************
Task 15
************************************************************************************************************
| Epoch   1, time=  1.3s | Train: skip eval | Valid: time=  0.2s loss=7.349, TAw acc= 10.7% | *
| Epoch   2, time=  1.3s | Train: skip eval | Valid: time=  0.3s loss=7.321, TAw acc= 11.9% | *
…
>>> Test on task 10 : loss=2.327 | TAw acc= 98.4%, forg= -0.8%| TAg acc= 42.6%, forg= -0.8% <<<
>>> Test on task 11 : loss=2.431 | TAw acc= 89.3%, forg=  0.0%| TAg acc= 38.8%, forg= -3.9% <<<
>>> Test on task 12 : loss=2.786 | TAw acc= 74.0%, forg= -5.0%| TAg acc= 23.0%, forg=  0.0% <<<
>>> Test on task 13 : loss=2.755 | TAw acc= 92.6%, forg=  0.0%| TAg acc= 20.7%, forg= 20.7% <<<
>>> Test on task 14 : loss=3.213 | TAw acc= 79.8%, forg=-19.3%| TAg acc=  6.4%, forg= 20.2% <<<
>>> Test on task 15 : loss=3.135 | TAw acc= 68.4%, forg=  0.0%| TAg acc= 28.9%, forg=  0.0% <<<
Save at k=100/eeil_e20_wisdm_1/wisdm_flex_eeil
======
LLL_Net(
  (model): SimpleMLP(
    (fc1): Linear(in_features=91, out_features=1000, bias=True)
    (fc2): Sequential()
  )
  (heads): ModuleList(
    (0): Linear(in_features=1000, out_features=34, bias=True)
    (1): Linear(in_features=1000, out_features=20, bias=True)
    (2): Linear(in_features=1000, out_features=20, bias=True)
    (3): Linear(in_features=1000, out_features=20, bias=True)
    (4): Linear(in_features=1000, out_features=20, bias=True)
    (5): Linear(in_features=1000, out_features=20, bias=True)
    (6): Linear(in_features=1000, out_features=20, bias=True)
    (7): Linear(in_features=1000, out_features=20, bias=True)
    (8): Linear(in_features=1000, out_features=20, bias=True)
    (9): Linear(in_features=1000, out_features=20, bias=True)
    (10): Linear(in_features=1000, out_features=20, bias=True)
    (11): Linear(in_features=1000, out_features=20, bias=True)
    (12): Linear(in_features=1000, out_features=20, bias=True)
    (13): Linear(in_features=1000, out_features=20, bias=True)
    (14): Linear(in_features=1000, out_features=20, bias=True)
    (15): Linear(in_features=1000, out_features=20, bias=True)
  )
)
======

************************************************************************************************************
Task 16
************************************************************************************************************
| Epoch   1, time=  1.4s | Train: skip eval | Valid: time=  0.2s loss=7.704, TAw acc=  4.7% | *
| Epoch   2, time=  1.3s | Train: skip eval | Valid: time=  0.2s loss=7.678, TAw acc=  4.7% | *
…
>>> Test on task 11 : loss=2.197 | TAw acc= 90.3%, forg= -1.0%| TAg acc= 42.7%, forg= -3.9% <<<
>>> Test on task 12 : loss=2.615 | TAw acc= 73.0%, forg=  1.0%| TAg acc= 33.0%, forg=-10.0% <<<
>>> Test on task 13 : loss=2.503 | TAw acc= 92.6%, forg=  0.0%| TAg acc= 35.5%, forg=  5.8% <<<
>>> Test on task 14 : loss=2.974 | TAw acc= 88.1%, forg= -8.3%| TAg acc= 10.1%, forg= 16.5% <<<
>>> Test on task 15 : loss=3.005 | TAw acc= 79.8%, forg=-11.4%| TAg acc=  9.6%, forg= 19.3% <<<
>>> Test on task 16 : loss=3.763 | TAw acc= 72.5%, forg=  0.0%| TAg acc=  8.8%, forg=  0.0% <<<
Save at k=100/eeil_e20_wisdm_1/wisdm_flex_eeil
======
LLL_Net(
  (model): SimpleMLP(
    (fc1): Linear(in_features=91, out_features=1000, bias=True)
    (fc2): Sequential()
  )
  (heads): ModuleList(
    (0): Linear(in_features=1000, out_features=34, bias=True)
    (1): Linear(in_features=1000, out_features=20, bias=True)
    (2): Linear(in_features=1000, out_features=20, bias=True)
    (3): Linear(in_features=1000, out_features=20, bias=True)
    (4): Linear(in_features=1000, out_features=20, bias=True)
    (5): Linear(in_features=1000, out_features=20, bias=True)
    (6): Linear(in_features=1000, out_features=20, bias=True)
    (7): Linear(in_features=1000, out_features=20, bias=True)
    (8): Linear(in_features=1000, out_features=20, bias=True)
    (9): Linear(in_features=1000, out_features=20, bias=True)
    (10): Linear(in_features=1000, out_features=20, bias=True)
    (11): Linear(in_features=1000, out_features=20, bias=True)
    (12): Linear(in_features=1000, out_features=20, bias=True)
    (13): Linear(in_features=1000, out_features=20, bias=True)
    (14): Linear(in_features=1000, out_features=20, bias=True)
    (15): Linear(in_features=1000, out_features=20, bias=True)
    (16): Linear(in_features=1000, out_features=20, bias=True)
  )
)
======

************************************************************************************************************
Task 17
************************************************************************************************************
| Epoch   1, time=  1.5s | Train: skip eval | Valid: time=  0.2s loss=7.661, TAw acc=  0.0% | *
| Epoch   2, time=  1.6s | Train: skip eval | Valid: time=  0.2s loss=7.625, TAw acc=  0.0% | *
…
>>> Test on task 12 : loss=2.552 | TAw acc= 75.0%, forg= -1.0%| TAg acc= 29.0%, forg=  4.0% <<<
>>> Test on task 13 : loss=2.328 | TAw acc= 93.4%, forg= -0.8%| TAg acc= 43.0%, forg= -1.7% <<<
>>> Test on task 14 : loss=2.820 | TAw acc= 90.8%, forg= -2.8%| TAg acc= 13.8%, forg= 12.8% <<<
>>> Test on task 15 : loss=2.797 | TAw acc= 78.1%, forg=  1.8%| TAg acc= 13.2%, forg= 15.8% <<<
>>> Test on task 16 : loss=3.333 | TAw acc= 87.9%, forg=-15.4%| TAg acc=  9.9%, forg= -1.1% <<<
>>> Test on task 17 : loss=3.285 | TAw acc= 61.3%, forg=  0.0%| TAg acc= 31.9%, forg=  0.0% <<<
Save at k=100/eeil_e20_wisdm_1/wisdm_flex_eeil
======
LLL_Net(
  (model): SimpleMLP(
    (fc1): Linear(in_features=91, out_features=1000, bias=True)
    (fc2): Sequential()
  )
  (heads): ModuleList(
    (0): Linear(in_features=1000, out_features=34, bias=True)
    (1): Linear(in_features=1000, out_features=20, bias=True)
    (2): Linear(in_features=1000, out_features=20, bias=True)
    (3): Linear(in_features=1000, out_features=20, bias=True)
    (4): Linear(in_features=1000, out_features=20, bias=True)
    (5): Linear(in_features=1000, out_features=20, bias=True)
    (6): Linear(in_features=1000, out_features=20, bias=True)
    (7): Linear(in_features=1000, out_features=20, bias=True)
    (8): Linear(in_features=1000, out_features=20, bias=True)
    (9): Linear(in_features=1000, out_features=20, bias=True)
    (10): Linear(in_features=1000, out_features=20, bias=True)
    (11): Linear(in_features=1000, out_features=20, bias=True)
    (12): Linear(in_features=1000, out_features=20, bias=True)
    (13): Linear(in_features=1000, out_features=20, bias=True)
    (14): Linear(in_features=1000, out_features=20, bias=True)
    (15): Linear(in_features=1000, out_features=20, bias=True)
    (16): Linear(in_features=1000, out_features=20, bias=True)
    (17): Linear(in_features=1000, out_features=20, bias=True)
  )
)
======

************************************************************************************************************
Task 18
************************************************************************************************************
| Epoch   1, time=  1.6s | Train: skip eval | Valid: time=  0.2s loss=7.965, TAw acc=  5.6% | *
| Epoch   2, time=  1.6s | Train: skip eval | Valid: time=  0.2s loss=7.930, TAw acc=  5.6% | *
…
>>> Test on task 13 : loss=2.196 | TAw acc= 94.2%, forg= -0.8%| TAg acc= 44.6%, forg= -1.7% <<<
>>> Test on task 14 : loss=2.655 | TAw acc= 92.7%, forg= -1.8%| TAg acc= 25.7%, forg=  0.9% <<<
>>> Test on task 15 : loss=2.598 | TAw acc= 81.6%, forg= -1.8%| TAg acc= 22.8%, forg=  6.1% <<<
>>> Test on task 16 : loss=2.961 | TAw acc= 90.1%, forg= -2.2%| TAg acc= 15.4%, forg= -5.5% <<<
>>> Test on task 17 : loss=3.219 | TAw acc= 80.7%, forg=-19.3%| TAg acc= 12.6%, forg= 19.3% <<<
>>> Test on task 18 : loss=3.517 | TAw acc= 62.9%, forg=  0.0%| TAg acc= 21.6%, forg=  0.0% <<<
Save at k=100/eeil_e20_wisdm_1/wisdm_flex_eeil
======
LLL_Net(
  (model): SimpleMLP(
    (fc1): Linear(in_features=91, out_features=1000, bias=True)
    (fc2): Sequential()
  )
  (heads): ModuleList(
    (0): Linear(in_features=1000, out_features=34, bias=True)
    (1): Linear(in_features=1000, out_features=20, bias=True)
    (2): Linear(in_features=1000, out_features=20, bias=True)
    (3): Linear(in_features=1000, out_features=20, bias=True)
    (4): Linear(in_features=1000, out_features=20, bias=True)
    (5): Linear(in_features=1000, out_features=20, bias=True)
    (6): Linear(in_features=1000, out_features=20, bias=True)
    (7): Linear(in_features=1000, out_features=20, bias=True)
    (8): Linear(in_features=1000, out_features=20, bias=True)
    (9): Linear(in_features=1000, out_features=20, bias=True)
    (10): Linear(in_features=1000, out_features=20, bias=True)
    (11): Linear(in_features=1000, out_features=20, bias=True)
    (12): Linear(in_features=1000, out_features=20, bias=True)
    (13): Linear(in_features=1000, out_features=20, bias=True)
    (14): Linear(in_features=1000, out_features=20, bias=True)
    (15): Linear(in_features=1000, out_features=20, bias=True)
    (16): Linear(in_features=1000, out_features=20, bias=True)
    (17): Linear(in_features=1000, out_features=20, bias=True)
    (18): Linear(in_features=1000, out_features=20, bias=True)
  )
)
======

************************************************************************************************************
Task 19
************************************************************************************************************
| Epoch   1, time=  1.8s | Train: skip eval | Valid: time=  0.2s loss=8.518, TAw acc=  3.7% | *
| Epoch   2, time=  1.8s | Train: skip eval | Valid: time=  0.2s loss=8.471, TAw acc=  4.9% | *
…
>>> Test on task 14 : loss=2.570 | TAw acc= 92.7%, forg=  0.0%| TAg acc= 33.0%, forg= -6.4% <<<
>>> Test on task 15 : loss=2.460 | TAw acc= 86.0%, forg= -4.4%| TAg acc= 33.3%, forg= -4.4% <<<
>>> Test on task 16 : loss=2.723 | TAw acc= 93.4%, forg= -3.3%| TAg acc= 19.8%, forg= -4.4% <<<
>>> Test on task 17 : loss=2.992 | TAw acc= 87.4%, forg= -6.7%| TAg acc= 17.6%, forg= 14.3% <<<
>>> Test on task 18 : loss=3.446 | TAw acc= 86.6%, forg=-23.7%| TAg acc=  4.1%, forg= 17.5% <<<
>>> Test on task 19 : loss=3.146 | TAw acc= 55.5%, forg=  0.0%| TAg acc= 35.5%, forg=  0.0% <<<
Save at k=100/eeil_e20_wisdm_1/wisdm_flex_eeil
======
LLL_Net(
  (model): SimpleMLP(
    (fc1): Linear(in_features=91, out_features=1000, bias=True)
    (fc2): Sequential()
  )
  (heads): ModuleList(
    (0): Linear(in_features=1000, out_features=34, bias=True)
    (1): Linear(in_features=1000, out_features=20, bias=True)
    (2): Linear(in_features=1000, out_features=20, bias=True)
    (3): Linear(in_features=1000, out_features=20, bias=True)
    (4): Linear(in_features=1000, out_features=20, bias=True)
    (5): Linear(in_features=1000, out_features=20, bias=True)
    (6): Linear(in_features=1000, out_features=20, bias=True)
    (7): Linear(in_features=1000, out_features=20, bias=True)
    (8): Linear(in_features=1000, out_features=20, bias=True)
    (9): Linear(in_features=1000, out_features=20, bias=True)
    (10): Linear(in_features=1000, out_features=20, bias=True)
    (11): Linear(in_features=1000, out_features=20, bias=True)
    (12): Linear(in_features=1000, out_features=20, bias=True)
    (13): Linear(in_features=1000, out_features=20, bias=True)
    (14): Linear(in_features=1000, out_features=20, bias=True)
    (15): Linear(in_features=1000, out_features=20, bias=True)
    (16): Linear(in_features=1000, out_features=20, bias=True)
    (17): Linear(in_features=1000, out_features=20, bias=True)
    (18): Linear(in_features=1000, out_features=20, bias=True)
    (19): Linear(in_features=1000, out_features=20, bias=True)
  )
)
======

************************************************************************************************************
Task 20
************************************************************************************************************
| Epoch   1, time=  1.9s | Train: skip eval | Valid: time=  0.2s loss=8.838, TAw acc=  3.6% | *
| Epoch   2, time=  1.9s | Train: skip eval | Valid: time=  0.2s loss=8.773, TAw acc=  3.6% | *
…
>>> Test on task 15 : loss=2.333 | TAw acc= 89.5%, forg= -3.5%| TAg acc= 42.1%, forg= -8.8% <<<
>>> Test on task 16 : loss=2.568 | TAw acc= 94.5%, forg= -1.1%| TAg acc= 22.0%, forg= -2.2% <<<
>>> Test on task 17 : loss=2.777 | TAw acc= 89.9%, forg= -2.5%| TAg acc= 26.1%, forg=  5.9% <<<
>>> Test on task 18 : loss=3.044 | TAw acc= 94.8%, forg= -8.2%| TAg acc= 12.4%, forg=  9.3% <<<
>>> Test on task 19 : loss=3.107 | TAw acc= 66.4%, forg=-10.9%| TAg acc= 12.7%, forg= 22.7% <<<
>>> Test on task 20 : loss=2.710 | TAw acc= 67.3%, forg=  0.0%| TAg acc= 40.7%, forg=  0.0% <<<
Save at k=100/eeil_e20_wisdm_1/wisdm_flex_eeil
======
LLL_Net(
  (model): SimpleMLP(
    (fc1): Linear(in_features=91, out_features=1000, bias=True)
    (fc2): Sequential()
  )
  (heads): ModuleList(
    (0): Linear(in_features=1000, out_features=34, bias=True)
    (1): Linear(in_features=1000, out_features=20, bias=True)
    (2): Linear(in_features=1000, out_features=20, bias=True)
    (3): Linear(in_features=1000, out_features=20, bias=True)
    (4): Linear(in_features=1000, out_features=20, bias=True)
    (5): Linear(in_features=1000, out_features=20, bias=True)
    (6): Linear(in_features=1000, out_features=20, bias=True)
    (7): Linear(in_features=1000, out_features=20, bias=True)
    (8): Linear(in_features=1000, out_features=20, bias=True)
    (9): Linear(in_features=1000, out_features=20, bias=True)
    (10): Linear(in_features=1000, out_features=20, bias=True)
    (11): Linear(in_features=1000, out_features=20, bias=True)
    (12): Linear(in_features=1000, out_features=20, bias=True)
    (13): Linear(in_features=1000, out_features=20, bias=True)
    (14): Linear(in_features=1000, out_features=20, bias=True)
    (15): Linear(in_features=1000, out_features=20, bias=True)
    (16): Linear(in_features=1000, out_features=20, bias=True)
    (17): Linear(in_features=1000, out_features=20, bias=True)
    (18): Linear(in_features=1000, out_features=20, bias=True)
    (19): Linear(in_features=1000, out_features=20, bias=True)
    (20): Linear(in_features=1000, out_features=20, bias=True)
  )
)
======

************************************************************************************************************
Task 21
************************************************************************************************************
| Epoch   1, time=  2.0s | Train: skip eval | Valid: time=  0.2s loss=8.962, TAw acc=  9.5% | *
| Epoch   2, time=  2.0s | Train: skip eval | Valid: time=  0.2s loss=8.927, TAw acc=  9.5% | *
…
>>> Test on task 16 : loss=2.386 | TAw acc= 95.6%, forg= -1.1%| TAg acc= 28.6%, forg= -6.6% <<<
>>> Test on task 17 : loss=2.632 | TAw acc= 91.6%, forg= -1.7%| TAg acc= 33.6%, forg= -1.7% <<<
>>> Test on task 18 : loss=2.807 | TAw acc= 94.8%, forg=  0.0%| TAg acc= 12.4%, forg=  9.3% <<<
>>> Test on task 19 : loss=2.807 | TAw acc= 80.9%, forg=-14.5%| TAg acc= 20.9%, forg= 14.5% <<<
>>> Test on task 20 : loss=2.724 | TAw acc= 92.0%, forg=-24.8%| TAg acc= 23.0%, forg= 17.7% <<<
>>> Test on task 21 : loss=3.740 | TAw acc= 58.9%, forg=  0.0%| TAg acc= 11.1%, forg=  0.0% <<<
Save at k=100/eeil_e20_wisdm_1/wisdm_flex_eeil
======
LLL_Net(
  (model): SimpleMLP(
    (fc1): Linear(in_features=91, out_features=1000, bias=True)
    (fc2): Sequential()
  )
  (heads): ModuleList(
    (0): Linear(in_features=1000, out_features=34, bias=True)
    (1): Linear(in_features=1000, out_features=20, bias=True)
    (2): Linear(in_features=1000, out_features=20, bias=True)
    (3): Linear(in_features=1000, out_features=20, bias=True)
    (4): Linear(in_features=1000, out_features=20, bias=True)
    (5): Linear(in_features=1000, out_features=20, bias=True)
    (6): Linear(in_features=1000, out_features=20, bias=True)
    (7): Linear(in_features=1000, out_features=20, bias=True)
    (8): Linear(in_features=1000, out_features=20, bias=True)
    (9): Linear(in_features=1000, out_features=20, bias=True)
    (10): Linear(in_features=1000, out_features=20, bias=True)
    (11): Linear(in_features=1000, out_features=20, bias=True)
    (12): Linear(in_features=1000, out_features=20, bias=True)
    (13): Linear(in_features=1000, out_features=20, bias=True)
    (14): Linear(in_features=1000, out_features=20, bias=True)
    (15): Linear(in_features=1000, out_features=20, bias=True)
    (16): Linear(in_features=1000, out_features=20, bias=True)
    (17): Linear(in_features=1000, out_features=20, bias=True)
    (18): Linear(in_features=1000, out_features=20, bias=True)
    (19): Linear(in_features=1000, out_features=20, bias=True)
    (20): Linear(in_features=1000, out_features=20, bias=True)
    (21): Linear(in_features=1000, out_features=20, bias=True)
  )
)
======

************************************************************************************************************
Task 22
************************************************************************************************************
| Epoch   1, time=  2.2s | Train: skip eval | Valid: time=  0.2s loss=8.737, TAw acc=  4.9% | *
| Epoch   2, time=  2.2s | Train: skip eval | Valid: time=  0.2s loss=8.686, TAw acc=  4.9% | *
…
>>> Test on task 17 : loss=2.504 | TAw acc= 91.6%, forg=  0.0%| TAg acc= 35.3%, forg= -1.7% <<<
>>> Test on task 18 : loss=2.663 | TAw acc= 93.8%, forg=  1.0%| TAg acc= 19.6%, forg=  2.1% <<<
>>> Test on task 19 : loss=2.637 | TAw acc= 83.6%, forg= -2.7%| TAg acc= 24.5%, forg= 10.9% <<<
>>> Test on task 20 : loss=2.487 | TAw acc= 94.7%, forg= -2.7%| TAg acc= 35.4%, forg=  5.3% <<<
>>> Test on task 21 : loss=3.134 | TAw acc= 87.8%, forg=-28.9%| TAg acc= 21.1%, forg=-10.0% <<<
>>> Test on task 22 : loss=3.105 | TAw acc= 58.7%, forg=  0.0%| TAg acc= 27.5%, forg=  0.0% <<<
Save at k=100/eeil_e20_wisdm_1/wisdm_flex_eeil
======
LLL_Net(
  (model): SimpleMLP(
    (fc1): Linear(in_features=91, out_features=1000, bias=True)
    (fc2): Sequential()
  )
  (heads): ModuleList(
    (0): Linear(in_features=1000, out_features=34, bias=True)
    (1): Linear(in_features=1000, out_features=20, bias=True)
    (2): Linear(in_features=1000, out_features=20, bias=True)
    (3): Linear(in_features=1000, out_features=20, bias=True)
    (4): Linear(in_features=1000, out_features=20, bias=True)
    (5): Linear(in_features=1000, out_features=20, bias=True)
    (6): Linear(in_features=1000, out_features=20, bias=True)
    (7): Linear(in_features=1000, out_features=20, bias=True)
    (8): Linear(in_features=1000, out_features=20, bias=True)
    (9): Linear(in_features=1000, out_features=20, bias=True)
    (10): Linear(in_features=1000, out_features=20, bias=True)
    (11): Linear(in_features=1000, out_features=20, bias=True)
    (12): Linear(in_features=1000, out_features=20, bias=True)
    (13): Linear(in_features=1000, out_features=20, bias=True)
    (14): Linear(in_features=1000, out_features=20, bias=True)
    (15): Linear(in_features=1000, out_features=20, bias=True)
    (16): Linear(in_features=1000, out_features=20, bias=True)
    (17): Linear(in_features=1000, out_features=20, bias=True)
    (18): Linear(in_features=1000, out_features=20, bias=True)
    (19): Linear(in_features=1000, out_features=20, bias=True)
    (20): Linear(in_features=1000, out_features=20, bias=True)
    (21): Linear(in_features=1000, out_features=20, bias=True)
    (22): Linear(in_features=1000, out_features=20, bias=True)
  )
)
======

************************************************************************************************************
Task 23
************************************************************************************************************
| Epoch   1, time=  2.5s | Train: skip eval | Valid: time=  0.2s loss=8.610, TAw acc= 14.9% | *
| Epoch   2, time=  2.4s | Train: skip eval | Valid: time=  0.2s loss=8.565, TAw acc= 14.9% | *
…
>>> Test on task 18 : loss=2.574 | TAw acc= 93.8%, forg=  1.0%| TAg acc= 19.6%, forg=  2.1% <<<
>>> Test on task 19 : loss=2.540 | TAw acc= 85.5%, forg= -1.8%| TAg acc= 28.2%, forg=  7.3% <<<
>>> Test on task 20 : loss=2.287 | TAw acc= 95.6%, forg= -0.9%| TAg acc= 42.5%, forg= -1.8% <<<
>>> Test on task 21 : loss=2.785 | TAw acc= 90.0%, forg= -2.2%| TAg acc= 24.4%, forg= -3.3% <<<
>>> Test on task 22 : loss=3.008 | TAw acc= 82.6%, forg=-23.9%| TAg acc= 11.9%, forg= 15.6% <<<
>>> Test on task 23 : loss=3.214 | TAw acc= 73.5%, forg=  0.0%| TAg acc= 29.1%, forg=  0.0% <<<
Save at k=100/eeil_e20_wisdm_1/wisdm_flex_eeil
======
LLL_Net(
  (model): SimpleMLP(
    (fc1): Linear(in_features=91, out_features=1000, bias=True)
    (fc2): Sequential()
  )
  (heads): ModuleList(
    (0): Linear(in_features=1000, out_features=34, bias=True)
    (1): Linear(in_features=1000, out_features=20, bias=True)
    (2): Linear(in_features=1000, out_features=20, bias=True)
    (3): Linear(in_features=1000, out_features=20, bias=True)
    (4): Linear(in_features=1000, out_features=20, bias=True)
    (5): Linear(in_features=1000, out_features=20, bias=True)
    (6): Linear(in_features=1000, out_features=20, bias=True)
    (7): Linear(in_features=1000, out_features=20, bias=True)
    (8): Linear(in_features=1000, out_features=20, bias=True)
    (9): Linear(in_features=1000, out_features=20, bias=True)
    (10): Linear(in_features=1000, out_features=20, bias=True)
    (11): Linear(in_features=1000, out_features=20, bias=True)
    (12): Linear(in_features=1000, out_features=20, bias=True)
    (13): Linear(in_features=1000, out_features=20, bias=True)
    (14): Linear(in_features=1000, out_features=20, bias=True)
    (15): Linear(in_features=1000, out_features=20, bias=True)
    (16): Linear(in_features=1000, out_features=20, bias=True)
    (17): Linear(in_features=1000, out_features=20, bias=True)
    (18): Linear(in_features=1000, out_features=20, bias=True)
    (19): Linear(in_features=1000, out_features=20, bias=True)
    (20): Linear(in_features=1000, out_features=20, bias=True)
    (21): Linear(in_features=1000, out_features=20, bias=True)
    (22): Linear(in_features=1000, out_features=20, bias=True)
    (23): Linear(in_features=1000, out_features=20, bias=True)
  )
)
======

************************************************************************************************************
Task 24
************************************************************************************************************
| Epoch   1, time=  2.5s | Train: skip eval | Valid: time=  0.2s loss=9.006, TAw acc= 10.0% | *
| Epoch   2, time=  2.5s | Train: skip eval | Valid: time=  0.2s loss=8.944, TAw acc= 10.0% | *
…
>>> Test on task 19 : loss=2.397 | TAw acc= 86.4%, forg= -0.9%| TAg acc= 38.2%, forg= -2.7% <<<
>>> Test on task 20 : loss=2.139 | TAw acc= 95.6%, forg=  0.0%| TAg acc= 49.6%, forg= -7.1% <<<
>>> Test on task 21 : loss=2.525 | TAw acc= 92.2%, forg= -2.2%| TAg acc= 31.1%, forg= -6.7% <<<
>>> Test on task 22 : loss=2.727 | TAw acc= 84.4%, forg= -1.8%| TAg acc= 21.1%, forg=  6.4% <<<
>>> Test on task 23 : loss=3.060 | TAw acc= 94.0%, forg=-20.5%| TAg acc= 17.1%, forg= 12.0% <<<
>>> Test on task 24 : loss=3.271 | TAw acc= 80.6%, forg=  0.0%| TAg acc= 25.9%, forg=  0.0% <<<
Save at k=100/eeil_e20_wisdm_1/wisdm_flex_eeil
======
LLL_Net(
  (model): SimpleMLP(
    (fc1): Linear(in_features=91, out_features=1000, bias=True)
    (fc2): Sequential()
  )
  (heads): ModuleList(
    (0): Linear(in_features=1000, out_features=34, bias=True)
    (1): Linear(in_features=1000, out_features=20, bias=True)
    (2): Linear(in_features=1000, out_features=20, bias=True)
    (3): Linear(in_features=1000, out_features=20, bias=True)
    (4): Linear(in_features=1000, out_features=20, bias=True)
    (5): Linear(in_features=1000, out_features=20, bias=True)
    (6): Linear(in_features=1000, out_features=20, bias=True)
    (7): Linear(in_features=1000, out_features=20, bias=True)
    (8): Linear(in_features=1000, out_features=20, bias=True)
    (9): Linear(in_features=1000, out_features=20, bias=True)
    (10): Linear(in_features=1000, out_features=20, bias=True)
    (11): Linear(in_features=1000, out_features=20, bias=True)
    (12): Linear(in_features=1000, out_features=20, bias=True)
    (13): Linear(in_features=1000, out_features=20, bias=True)
    (14): Linear(in_features=1000, out_features=20, bias=True)
    (15): Linear(in_features=1000, out_features=20, bias=True)
    (16): Linear(in_features=1000, out_features=20, bias=True)
    (17): Linear(in_features=1000, out_features=20, bias=True)
    (18): Linear(in_features=1000, out_features=20, bias=True)
    (19): Linear(in_features=1000, out_features=20, bias=True)
    (20): Linear(in_features=1000, out_features=20, bias=True)
    (21): Linear(in_features=1000, out_features=20, bias=True)
    (22): Linear(in_features=1000, out_features=20, bias=True)
    (23): Linear(in_features=1000, out_features=20, bias=True)
    (24): Linear(in_features=1000, out_features=20, bias=True)
  )
)
======

************************************************************************************************************
Task 25
************************************************************************************************************
| Epoch   1, time=  2.6s | Train: skip eval | Valid: time=  0.2s loss=9.117, TAw acc=  2.4% | *
| Epoch   2, time=  2.7s | Train: skip eval | Valid: time=  0.2s loss=9.067, TAw acc=  2.4% | *
…
>>> Test on task 20 : loss=2.030 | TAw acc= 95.6%, forg=  0.0%| TAg acc= 51.3%, forg= -1.8% <<<
>>> Test on task 21 : loss=2.396 | TAw acc= 92.2%, forg=  0.0%| TAg acc= 35.6%, forg= -4.4% <<<
>>> Test on task 22 : loss=2.554 | TAw acc= 85.3%, forg= -0.9%| TAg acc= 23.9%, forg=  3.7% <<<
>>> Test on task 23 : loss=2.784 | TAw acc= 94.9%, forg= -0.9%| TAg acc= 23.9%, forg=  5.1% <<<
>>> Test on task 24 : loss=2.972 | TAw acc= 88.9%, forg= -8.3%| TAg acc= 10.2%, forg= 15.7% <<<
>>> Test on task 25 : loss=3.052 | TAw acc= 79.5%, forg=  0.0%| TAg acc= 33.9%, forg=  0.0% <<<
Save at k=100/eeil_e20_wisdm_1/wisdm_flex_eeil
======
LLL_Net(
  (model): SimpleMLP(
    (fc1): Linear(in_features=91, out_features=1000, bias=True)
    (fc2): Sequential()
  )
  (heads): ModuleList(
    (0): Linear(in_features=1000, out_features=34, bias=True)
    (1): Linear(in_features=1000, out_features=20, bias=True)
    (2): Linear(in_features=1000, out_features=20, bias=True)
    (3): Linear(in_features=1000, out_features=20, bias=True)
    (4): Linear(in_features=1000, out_features=20, bias=True)
    (5): Linear(in_features=1000, out_features=20, bias=True)
    (6): Linear(in_features=1000, out_features=20, bias=True)
    (7): Linear(in_features=1000, out_features=20, bias=True)
    (8): Linear(in_features=1000, out_features=20, bias=True)
    (9): Linear(in_features=1000, out_features=20, bias=True)
    (10): Linear(in_features=1000, out_features=20, bias=True)
    (11): Linear(in_features=1000, out_features=20, bias=True)
    (12): Linear(in_features=1000, out_features=20, bias=True)
    (13): Linear(in_features=1000, out_features=20, bias=True)
    (14): Linear(in_features=1000, out_features=20, bias=True)
    (15): Linear(in_features=1000, out_features=20, bias=True)
    (16): Linear(in_features=1000, out_features=20, bias=True)
    (17): Linear(in_features=1000, out_features=20, bias=True)
    (18): Linear(in_features=1000, out_features=20, bias=True)
    (19): Linear(in_features=1000, out_features=20, bias=True)
    (20): Linear(in_features=1000, out_features=20, bias=True)
    (21): Linear(in_features=1000, out_features=20, bias=True)
    (22): Linear(in_features=1000, out_features=20, bias=True)
    (23): Linear(in_features=1000, out_features=20, bias=True)
    (24): Linear(in_features=1000, out_features=20, bias=True)
    (25): Linear(in_features=1000, out_features=20, bias=True)
  )
)
======

************************************************************************************************************
Task 26
************************************************************************************************************
| Epoch   1, time=  2.8s | Train: skip eval | Valid: time=  0.2s loss=9.495, TAw acc=  0.0% | *
| Epoch   2, time=  2.9s | Train: skip eval | Valid: time=  0.2s loss=9.446, TAw acc=  4.7% | *
…
>>> Test on task 21 : loss=2.292 | TAw acc= 92.2%, forg=  0.0%| TAg acc= 38.9%, forg= -3.3% <<<
>>> Test on task 22 : loss=2.481 | TAw acc= 86.2%, forg= -0.9%| TAg acc= 22.9%, forg=  4.6% <<<
>>> Test on task 23 : loss=2.590 | TAw acc= 94.0%, forg=  0.9%| TAg acc= 30.8%, forg= -1.7% <<<
>>> Test on task 24 : loss=2.663 | TAw acc= 91.7%, forg= -2.8%| TAg acc= 14.8%, forg= 11.1% <<<
>>> Test on task 25 : loss=2.970 | TAw acc= 88.4%, forg= -8.9%| TAg acc= 10.7%, forg= 23.2% <<<
>>> Test on task 26 : loss=2.746 | TAw acc= 84.3%, forg=  0.0%| TAg acc= 45.2%, forg=  0.0% <<<
Save at k=100/eeil_e20_wisdm_1/wisdm_flex_eeil
======
LLL_Net(
  (model): SimpleMLP(
    (fc1): Linear(in_features=91, out_features=1000, bias=True)
    (fc2): Sequential()
  )
  (heads): ModuleList(
    (0): Linear(in_features=1000, out_features=34, bias=True)
    (1): Linear(in_features=1000, out_features=20, bias=True)
    (2): Linear(in_features=1000, out_features=20, bias=True)
    (3): Linear(in_features=1000, out_features=20, bias=True)
    (4): Linear(in_features=1000, out_features=20, bias=True)
    (5): Linear(in_features=1000, out_features=20, bias=True)
    (6): Linear(in_features=1000, out_features=20, bias=True)
    (7): Linear(in_features=1000, out_features=20, bias=True)
    (8): Linear(in_features=1000, out_features=20, bias=True)
    (9): Linear(in_features=1000, out_features=20, bias=True)
    (10): Linear(in_features=1000, out_features=20, bias=True)
    (11): Linear(in_features=1000, out_features=20, bias=True)
    (12): Linear(in_features=1000, out_features=20, bias=True)
    (13): Linear(in_features=1000, out_features=20, bias=True)
    (14): Linear(in_features=1000, out_features=20, bias=True)
    (15): Linear(in_features=1000, out_features=20, bias=True)
    (16): Linear(in_features=1000, out_features=20, bias=True)
    (17): Linear(in_features=1000, out_features=20, bias=True)
    (18): Linear(in_features=1000, out_features=20, bias=True)
    (19): Linear(in_features=1000, out_features=20, bias=True)
    (20): Linear(in_features=1000, out_features=20, bias=True)
    (21): Linear(in_features=1000, out_features=20, bias=True)
    (22): Linear(in_features=1000, out_features=20, bias=True)
    (23): Linear(in_features=1000, out_features=20, bias=True)
    (24): Linear(in_features=1000, out_features=20, bias=True)
    (25): Linear(in_features=1000, out_features=20, bias=True)
    (26): Linear(in_features=1000, out_features=20, bias=True)
  )
)
======

************************************************************************************************************
Task 27
************************************************************************************************************
| Epoch   1, time=  3.2s | Train: skip eval | Valid: time=  0.2s loss=10.183, TAw acc=  8.6% | *
| Epoch   2, time=  3.0s | Train: skip eval | Valid: time=  0.2s loss=10.105, TAw acc=  8.6% | *
…
>>> Test on task 22 : loss=2.329 | TAw acc= 88.1%, forg= -1.8%| TAg acc= 33.9%, forg= -6.4% <<<
>>> Test on task 23 : loss=2.420 | TAw acc= 94.9%, forg=  0.0%| TAg acc= 40.2%, forg= -9.4% <<<
>>> Test on task 24 : loss=2.445 | TAw acc= 96.3%, forg= -4.6%| TAg acc= 15.7%, forg= 10.2% <<<
>>> Test on task 25 : loss=2.749 | TAw acc= 88.4%, forg=  0.0%| TAg acc= 14.3%, forg= 19.6% <<<
>>> Test on task 26 : loss=2.856 | TAw acc= 93.9%, forg= -9.6%| TAg acc= 14.8%, forg= 30.4% <<<
>>> Test on task 27 : loss=2.538 | TAw acc= 72.7%, forg=  0.0%| TAg acc= 31.8%, forg=  0.0% <<<
Save at k=100/eeil_e20_wisdm_1/wisdm_flex_eeil
======
LLL_Net(
  (model): SimpleMLP(
    (fc1): Linear(in_features=91, out_features=1000, bias=True)
    (fc2): Sequential()
  )
  (heads): ModuleList(
    (0): Linear(in_features=1000, out_features=34, bias=True)
    (1): Linear(in_features=1000, out_features=20, bias=True)
    (2): Linear(in_features=1000, out_features=20, bias=True)
    (3): Linear(in_features=1000, out_features=20, bias=True)
    (4): Linear(in_features=1000, out_features=20, bias=True)
    (5): Linear(in_features=1000, out_features=20, bias=True)
    (6): Linear(in_features=1000, out_features=20, bias=True)
    (7): Linear(in_features=1000, out_features=20, bias=True)
    (8): Linear(in_features=1000, out_features=20, bias=True)
    (9): Linear(in_features=1000, out_features=20, bias=True)
    (10): Linear(in_features=1000, out_features=20, bias=True)
    (11): Linear(in_features=1000, out_features=20, bias=True)
    (12): Linear(in_features=1000, out_features=20, bias=True)
    (13): Linear(in_features=1000, out_features=20, bias=True)
    (14): Linear(in_features=1000, out_features=20, bias=True)
    (15): Linear(in_features=1000, out_features=20, bias=True)
    (16): Linear(in_features=1000, out_features=20, bias=True)
    (17): Linear(in_features=1000, out_features=20, bias=True)
    (18): Linear(in_features=1000, out_features=20, bias=True)
    (19): Linear(in_features=1000, out_features=20, bias=True)
    (20): Linear(in_features=1000, out_features=20, bias=True)
    (21): Linear(in_features=1000, out_features=20, bias=True)
    (22): Linear(in_features=1000, out_features=20, bias=True)
    (23): Linear(in_features=1000, out_features=20, bias=True)
    (24): Linear(in_features=1000, out_features=20, bias=True)
    (25): Linear(in_features=1000, out_features=20, bias=True)
    (26): Linear(in_features=1000, out_features=20, bias=True)
    (27): Linear(in_features=1000, out_features=20, bias=True)
  )
)
======

************************************************************************************************************
Task 28
************************************************************************************************************
| Epoch   1, time=  3.2s | Train: skip eval | Valid: time=  0.2s loss=10.332, TAw acc=  5.6% | *
| Epoch   2, time=  3.3s | Train: skip eval | Valid: time=  0.2s loss=10.247, TAw acc=  6.7% | *
…
>>> Test on task 23 : loss=2.296 | TAw acc= 94.0%, forg=  0.9%| TAg acc= 46.2%, forg= -6.0% <<<
>>> Test on task 24 : loss=2.307 | TAw acc= 96.3%, forg=  0.0%| TAg acc= 23.1%, forg=  2.8% <<<
>>> Test on task 25 : loss=2.574 | TAw acc= 88.4%, forg=  0.0%| TAg acc= 20.5%, forg= 13.4% <<<
>>> Test on task 26 : loss=2.624 | TAw acc= 94.8%, forg= -0.9%| TAg acc= 20.9%, forg= 24.3% <<<
>>> Test on task 27 : loss=2.565 | TAw acc= 93.6%, forg=-20.9%| TAg acc= 19.1%, forg= 12.7% <<<
>>> Test on task 28 : loss=2.359 | TAw acc= 83.9%, forg=  0.0%| TAg acc= 49.2%, forg=  0.0% <<<
Save at k=100/eeil_e20_wisdm_1/wisdm_flex_eeil
======
LLL_Net(
  (model): SimpleMLP(
    (fc1): Linear(in_features=91, out_features=1000, bias=True)
    (fc2): Sequential()
  )
  (heads): ModuleList(
    (0): Linear(in_features=1000, out_features=34, bias=True)
    (1): Linear(in_features=1000, out_features=20, bias=True)
    (2): Linear(in_features=1000, out_features=20, bias=True)
    (3): Linear(in_features=1000, out_features=20, bias=True)
    (4): Linear(in_features=1000, out_features=20, bias=True)
    (5): Linear(in_features=1000, out_features=20, bias=True)
    (6): Linear(in_features=1000, out_features=20, bias=True)
    (7): Linear(in_features=1000, out_features=20, bias=True)
    (8): Linear(in_features=1000, out_features=20, bias=True)
    (9): Linear(in_features=1000, out_features=20, bias=True)
    (10): Linear(in_features=1000, out_features=20, bias=True)
    (11): Linear(in_features=1000, out_features=20, bias=True)
    (12): Linear(in_features=1000, out_features=20, bias=True)
    (13): Linear(in_features=1000, out_features=20, bias=True)
    (14): Linear(in_features=1000, out_features=20, bias=True)
    (15): Linear(in_features=1000, out_features=20, bias=True)
    (16): Linear(in_features=1000, out_features=20, bias=True)
    (17): Linear(in_features=1000, out_features=20, bias=True)
    (18): Linear(in_features=1000, out_features=20, bias=True)
    (19): Linear(in_features=1000, out_features=20, bias=True)
    (20): Linear(in_features=1000, out_features=20, bias=True)
    (21): Linear(in_features=1000, out_features=20, bias=True)
    (22): Linear(in_features=1000, out_features=20, bias=True)
    (23): Linear(in_features=1000, out_features=20, bias=True)
    (24): Linear(in_features=1000, out_features=20, bias=True)
    (25): Linear(in_features=1000, out_features=20, bias=True)
    (26): Linear(in_features=1000, out_features=20, bias=True)
    (27): Linear(in_features=1000, out_features=20, bias=True)
    (28): Linear(in_features=1000, out_features=20, bias=True)
  )
)
======

************************************************************************************************************
Task 29
************************************************************************************************************
| Epoch   1, time=  3.4s | Train: skip eval | Valid: time=  0.2s loss=10.232, TAw acc=  2.7% | *
| Epoch   2, time=  3.3s | Train: skip eval | Valid: time=  0.3s loss=10.154, TAw acc=  4.1% | *
…
>>> Test on task 24 : loss=2.130 | TAw acc= 96.3%, forg=  0.0%| TAg acc= 34.3%, forg= -8.3% <<<
>>> Test on task 25 : loss=2.444 | TAw acc= 88.4%, forg=  0.0%| TAg acc= 26.8%, forg=  7.1% <<<
>>> Test on task 26 : loss=2.443 | TAw acc= 97.4%, forg= -2.6%| TAg acc= 24.3%, forg= 20.9% <<<
>>> Test on task 27 : loss=2.308 | TAw acc= 94.5%, forg= -0.9%| TAg acc= 30.9%, forg=  0.9% <<<
>>> Test on task 28 : loss=2.506 | TAw acc= 97.5%, forg=-13.6%| TAg acc= 17.8%, forg= 31.4% <<<
>>> Test on task 29 : loss=3.054 | TAw acc= 70.9%, forg=  0.0%| TAg acc= 37.9%, forg=  0.0% <<<
Save at k=100/eeil_e20_wisdm_1/wisdm_flex_eeil
======
LLL_Net(
  (model): SimpleMLP(
    (fc1): Linear(in_features=91, out_features=1000, bias=True)
    (fc2): Sequential()
  )
  (heads): ModuleList(
    (0): Linear(in_features=1000, out_features=34, bias=True)
    (1): Linear(in_features=1000, out_features=20, bias=True)
    (2): Linear(in_features=1000, out_features=20, bias=True)
    (3): Linear(in_features=1000, out_features=20, bias=True)
    (4): Linear(in_features=1000, out_features=20, bias=True)
    (5): Linear(in_features=1000, out_features=20, bias=True)
    (6): Linear(in_features=1000, out_features=20, bias=True)
    (7): Linear(in_features=1000, out_features=20, bias=True)
    (8): Linear(in_features=1000, out_features=20, bias=True)
    (9): Linear(in_features=1000, out_features=20, bias=True)
    (10): Linear(in_features=1000, out_features=20, bias=True)
    (11): Linear(in_features=1000, out_features=20, bias=True)
    (12): Linear(in_features=1000, out_features=20, bias=True)
    (13): Linear(in_features=1000, out_features=20, bias=True)
    (14): Linear(in_features=1000, out_features=20, bias=True)
    (15): Linear(in_features=1000, out_features=20, bias=True)
    (16): Linear(in_features=1000, out_features=20, bias=True)
    (17): Linear(in_features=1000, out_features=20, bias=True)
    (18): Linear(in_features=1000, out_features=20, bias=True)
    (19): Linear(in_features=1000, out_features=20, bias=True)
    (20): Linear(in_features=1000, out_features=20, bias=True)
    (21): Linear(in_features=1000, out_features=20, bias=True)
    (22): Linear(in_features=1000, out_features=20, bias=True)
    (23): Linear(in_features=1000, out_features=20, bias=True)
    (24): Linear(in_features=1000, out_features=20, bias=True)
    (25): Linear(in_features=1000, out_features=20, bias=True)
    (26): Linear(in_features=1000, out_features=20, bias=True)
    (27): Linear(in_features=1000, out_features=20, bias=True)
    (28): Linear(in_features=1000, out_features=20, bias=True)
    (29): Linear(in_features=1000, out_features=20, bias=True)
  )
)
======

************************************************************************************************************
Task 30
************************************************************************************************************
| Epoch   1, time=  3.5s | Train: skip eval | Valid: time=  0.2s loss=9.874, TAw acc= 15.5% | *
| Epoch   2, time=  3.6s | Train: skip eval | Valid: time=  0.2s loss=9.808, TAw acc= 16.7% | *
…
>>> Test on task 25 : loss=2.346 | TAw acc= 89.3%, forg= -0.9%| TAg acc= 33.0%, forg=  0.9% <<<
>>> Test on task 26 : loss=2.332 | TAw acc= 97.4%, forg=  0.0%| TAg acc= 33.9%, forg= 11.3% <<<
>>> Test on task 27 : loss=2.181 | TAw acc= 93.6%, forg=  0.9%| TAg acc= 38.2%, forg= -6.4% <<<
>>> Test on task 28 : loss=2.301 | TAw acc= 97.5%, forg=  0.0%| TAg acc= 31.4%, forg= 17.8% <<<
>>> Test on task 29 : loss=2.650 | TAw acc= 95.1%, forg=-24.3%| TAg acc= 33.0%, forg=  4.9% <<<
>>> Test on task 30 : loss=2.754 | TAw acc= 81.2%, forg=  0.0%| TAg acc= 42.0%, forg=  0.0% <<<
Save at k=100/eeil_e20_wisdm_1/wisdm_flex_eeil
======
LLL_Net(
  (model): SimpleMLP(
    (fc1): Linear(in_features=91, out_features=1000, bias=True)
    (fc2): Sequential()
  )
  (heads): ModuleList(
    (0): Linear(in_features=1000, out_features=34, bias=True)
    (1): Linear(in_features=1000, out_features=20, bias=True)
    (2): Linear(in_features=1000, out_features=20, bias=True)
    (3): Linear(in_features=1000, out_features=20, bias=True)
    (4): Linear(in_features=1000, out_features=20, bias=True)
    (5): Linear(in_features=1000, out_features=20, bias=True)
    (6): Linear(in_features=1000, out_features=20, bias=True)
    (7): Linear(in_features=1000, out_features=20, bias=True)
    (8): Linear(in_features=1000, out_features=20, bias=True)
    (9): Linear(in_features=1000, out_features=20, bias=True)
    (10): Linear(in_features=1000, out_features=20, bias=True)
    (11): Linear(in_features=1000, out_features=20, bias=True)
    (12): Linear(in_features=1000, out_features=20, bias=True)
    (13): Linear(in_features=1000, out_features=20, bias=True)
    (14): Linear(in_features=1000, out_features=20, bias=True)
    (15): Linear(in_features=1000, out_features=20, bias=True)
    (16): Linear(in_features=1000, out_features=20, bias=True)
    (17): Linear(in_features=1000, out_features=20, bias=True)
    (18): Linear(in_features=1000, out_features=20, bias=True)
    (19): Linear(in_features=1000, out_features=20, bias=True)
    (20): Linear(in_features=1000, out_features=20, bias=True)
    (21): Linear(in_features=1000, out_features=20, bias=True)
    (22): Linear(in_features=1000, out_features=20, bias=True)
    (23): Linear(in_features=1000, out_features=20, bias=True)
    (24): Linear(in_features=1000, out_features=20, bias=True)
    (25): Linear(in_features=1000, out_features=20, bias=True)
    (26): Linear(in_features=1000, out_features=20, bias=True)
    (27): Linear(in_features=1000, out_features=20, bias=True)
    (28): Linear(in_features=1000, out_features=20, bias=True)
    (29): Linear(in_features=1000, out_features=20, bias=True)
    (30): Linear(in_features=1000, out_features=20, bias=True)
  )
)
======

************************************************************************************************************
Task 31
************************************************************************************************************
| Epoch   1, time=  3.8s | Train: skip eval | Valid: time=  0.2s loss=10.681, TAw acc= 10.4% | *
| Epoch   2, time=  3.9s | Train: skip eval | Valid: time=  0.2s loss=10.593, TAw acc= 10.4% | *
…
>>> Test on task 26 : loss=2.269 | TAw acc= 97.4%, forg=  0.0%| TAg acc= 40.0%, forg=  5.2% <<<
>>> Test on task 27 : loss=2.081 | TAw acc= 93.6%, forg=  0.9%| TAg acc= 40.0%, forg= -1.8% <<<
>>> Test on task 28 : loss=2.217 | TAw acc= 97.5%, forg=  0.0%| TAg acc= 30.5%, forg= 18.6% <<<
>>> Test on task 29 : loss=2.349 | TAw acc= 96.1%, forg= -1.0%| TAg acc= 37.9%, forg=  0.0% <<<
>>> Test on task 30 : loss=2.754 | TAw acc= 88.4%, forg= -7.1%| TAg acc= 19.6%, forg= 22.3% <<<
>>> Test on task 31 : loss=2.002 | TAw acc= 82.7%, forg=  0.0%| TAg acc= 63.0%, forg=  0.0% <<<
Save at k=100/eeil_e20_wisdm_1/wisdm_flex_eeil
======
LLL_Net(
  (model): SimpleMLP(
    (fc1): Linear(in_features=91, out_features=1000, bias=True)
    (fc2): Sequential()
  )
  (heads): ModuleList(
    (0): Linear(in_features=1000, out_features=34, bias=True)
    (1): Linear(in_features=1000, out_features=20, bias=True)
    (2): Linear(in_features=1000, out_features=20, bias=True)
    (3): Linear(in_features=1000, out_features=20, bias=True)
    (4): Linear(in_features=1000, out_features=20, bias=True)
    (5): Linear(in_features=1000, out_features=20, bias=True)
    (6): Linear(in_features=1000, out_features=20, bias=True)
    (7): Linear(in_features=1000, out_features=20, bias=True)
    (8): Linear(in_features=1000, out_features=20, bias=True)
    (9): Linear(in_features=1000, out_features=20, bias=True)
    (10): Linear(in_features=1000, out_features=20, bias=True)
    (11): Linear(in_features=1000, out_features=20, bias=True)
    (12): Linear(in_features=1000, out_features=20, bias=True)
    (13): Linear(in_features=1000, out_features=20, bias=True)
    (14): Linear(in_features=1000, out_features=20, bias=True)
    (15): Linear(in_features=1000, out_features=20, bias=True)
    (16): Linear(in_features=1000, out_features=20, bias=True)
    (17): Linear(in_features=1000, out_features=20, bias=True)
    (18): Linear(in_features=1000, out_features=20, bias=True)
    (19): Linear(in_features=1000, out_features=20, bias=True)
    (20): Linear(in_features=1000, out_features=20, bias=True)
    (21): Linear(in_features=1000, out_features=20, bias=True)
    (22): Linear(in_features=1000, out_features=20, bias=True)
    (23): Linear(in_features=1000, out_features=20, bias=True)
    (24): Linear(in_features=1000, out_features=20, bias=True)
    (25): Linear(in_features=1000, out_features=20, bias=True)
    (26): Linear(in_features=1000, out_features=20, bias=True)
    (27): Linear(in_features=1000, out_features=20, bias=True)
    (28): Linear(in_features=1000, out_features=20, bias=True)
    (29): Linear(in_features=1000, out_features=20, bias=True)
    (30): Linear(in_features=1000, out_features=20, bias=True)
    (31): Linear(in_features=1000, out_features=20, bias=True)
  )
)
======

************************************************************************************************************
Task 32
************************************************************************************************************
| Epoch   1, time=  3.9s | Train: skip eval | Valid: time=  0.2s loss=10.660, TAw acc=  0.0% | *
| Epoch   2, time=  4.1s | Train: skip eval | Valid: time=  0.2s loss=10.582, TAw acc=  0.0% | *
…
>>> Test on task 27 : loss=1.960 | TAw acc= 93.6%, forg=  0.9%| TAg acc= 52.7%, forg=-12.7% <<<
>>> Test on task 28 : loss=1.990 | TAw acc= 96.6%, forg=  0.8%| TAg acc= 44.1%, forg=  5.1% <<<
>>> Test on task 29 : loss=2.125 | TAw acc= 97.1%, forg= -1.0%| TAg acc= 40.8%, forg= -2.9% <<<
>>> Test on task 30 : loss=2.467 | TAw acc= 89.3%, forg= -0.9%| TAg acc= 28.6%, forg= 13.4% <<<
>>> Test on task 31 : loss=2.335 | TAw acc= 95.3%, forg=-12.6%| TAg acc= 37.0%, forg= 26.0% <<<
>>> Test on task 32 : loss=3.339 | TAw acc= 67.3%, forg=  0.0%| TAg acc= 36.4%, forg=  0.0% <<<
Save at k=100/eeil_e20_wisdm_1/wisdm_flex_eeil
======
LLL_Net(
  (model): SimpleMLP(
    (fc1): Linear(in_features=91, out_features=1000, bias=True)
    (fc2): Sequential()
  )
  (heads): ModuleList(
    (0): Linear(in_features=1000, out_features=34, bias=True)
    (1): Linear(in_features=1000, out_features=20, bias=True)
    (2): Linear(in_features=1000, out_features=20, bias=True)
    (3): Linear(in_features=1000, out_features=20, bias=True)
    (4): Linear(in_features=1000, out_features=20, bias=True)
    (5): Linear(in_features=1000, out_features=20, bias=True)
    (6): Linear(in_features=1000, out_features=20, bias=True)
    (7): Linear(in_features=1000, out_features=20, bias=True)
    (8): Linear(in_features=1000, out_features=20, bias=True)
    (9): Linear(in_features=1000, out_features=20, bias=True)
    (10): Linear(in_features=1000, out_features=20, bias=True)
    (11): Linear(in_features=1000, out_features=20, bias=True)
    (12): Linear(in_features=1000, out_features=20, bias=True)
    (13): Linear(in_features=1000, out_features=20, bias=True)
    (14): Linear(in_features=1000, out_features=20, bias=True)
    (15): Linear(in_features=1000, out_features=20, bias=True)
    (16): Linear(in_features=1000, out_features=20, bias=True)
    (17): Linear(in_features=1000, out_features=20, bias=True)
    (18): Linear(in_features=1000, out_features=20, bias=True)
    (19): Linear(in_features=1000, out_features=20, bias=True)
    (20): Linear(in_features=1000, out_features=20, bias=True)
    (21): Linear(in_features=1000, out_features=20, bias=True)
    (22): Linear(in_features=1000, out_features=20, bias=True)
    (23): Linear(in_features=1000, out_features=20, bias=True)
    (24): Linear(in_features=1000, out_features=20, bias=True)
    (25): Linear(in_features=1000, out_features=20, bias=True)
    (26): Linear(in_features=1000, out_features=20, bias=True)
    (27): Linear(in_features=1000, out_features=20, bias=True)
    (28): Linear(in_features=1000, out_features=20, bias=True)
    (29): Linear(in_features=1000, out_features=20, bias=True)
    (30): Linear(in_features=1000, out_features=20, bias=True)
    (31): Linear(in_features=1000, out_features=20, bias=True)
    (32): Linear(in_features=1000, out_features=20, bias=True)
  )
)
======

************************************************************************************************************
Task 33
************************************************************************************************************
| Epoch   1, time=  4.3s | Train: skip eval | Valid: time=  0.2s loss=10.187, TAw acc=  0.0% | *
| Epoch   2, time=  4.3s | Train: skip eval | Valid: time=  0.2s loss=10.129, TAw acc=  1.1% | *
…
>>> Test on task 28 : loss=1.913 | TAw acc= 96.6%, forg=  0.8%| TAg acc= 46.6%, forg=  2.5% <<<
>>> Test on task 29 : loss=1.969 | TAw acc= 96.1%, forg=  1.0%| TAg acc= 52.4%, forg=-11.7% <<<
>>> Test on task 30 : loss=2.332 | TAw acc= 90.2%, forg= -0.9%| TAg acc= 30.4%, forg= 11.6% <<<
>>> Test on task 31 : loss=2.180 | TAw acc= 95.3%, forg=  0.0%| TAg acc= 32.3%, forg= 30.7% <<<
>>> Test on task 32 : loss=3.180 | TAw acc= 91.6%, forg=-24.3%| TAg acc=  9.3%, forg= 27.1% <<<
>>> Test on task 33 : loss=2.941 | TAw acc= 77.1%, forg=  0.0%| TAg acc= 41.5%, forg=  0.0% <<<
Save at k=100/eeil_e20_wisdm_1/wisdm_flex_eeil
======
LLL_Net(
  (model): SimpleMLP(
    (fc1): Linear(in_features=91, out_features=1000, bias=True)
    (fc2): Sequential()
  )
  (heads): ModuleList(
    (0): Linear(in_features=1000, out_features=34, bias=True)
    (1): Linear(in_features=1000, out_features=20, bias=True)
    (2): Linear(in_features=1000, out_features=20, bias=True)
    (3): Linear(in_features=1000, out_features=20, bias=True)
    (4): Linear(in_features=1000, out_features=20, bias=True)
    (5): Linear(in_features=1000, out_features=20, bias=True)
    (6): Linear(in_features=1000, out_features=20, bias=True)
    (7): Linear(in_features=1000, out_features=20, bias=True)
    (8): Linear(in_features=1000, out_features=20, bias=True)
    (9): Linear(in_features=1000, out_features=20, bias=True)
    (10): Linear(in_features=1000, out_features=20, bias=True)
    (11): Linear(in_features=1000, out_features=20, bias=True)
    (12): Linear(in_features=1000, out_features=20, bias=True)
    (13): Linear(in_features=1000, out_features=20, bias=True)
    (14): Linear(in_features=1000, out_features=20, bias=True)
    (15): Linear(in_features=1000, out_features=20, bias=True)
    (16): Linear(in_features=1000, out_features=20, bias=True)
    (17): Linear(in_features=1000, out_features=20, bias=True)
    (18): Linear(in_features=1000, out_features=20, bias=True)
    (19): Linear(in_features=1000, out_features=20, bias=True)
    (20): Linear(in_features=1000, out_features=20, bias=True)
    (21): Linear(in_features=1000, out_features=20, bias=True)
    (22): Linear(in_features=1000, out_features=20, bias=True)
    (23): Linear(in_features=1000, out_features=20, bias=True)
    (24): Linear(in_features=1000, out_features=20, bias=True)
    (25): Linear(in_features=1000, out_features=20, bias=True)
    (26): Linear(in_features=1000, out_features=20, bias=True)
    (27): Linear(in_features=1000, out_features=20, bias=True)
    (28): Linear(in_features=1000, out_features=20, bias=True)
    (29): Linear(in_features=1000, out_features=20, bias=True)
    (30): Linear(in_features=1000, out_features=20, bias=True)
    (31): Linear(in_features=1000, out_features=20, bias=True)
    (32): Linear(in_features=1000, out_features=20, bias=True)
    (33): Linear(in_features=1000, out_features=20, bias=True)
  )
)
======

************************************************************************************************************
Task 34
************************************************************************************************************
| Epoch   1, time=  4.6s | Train: skip eval | Valid: time=  0.2s loss=11.373, TAw acc=  0.0% | *
| Epoch   2, time=  4.4s | Train: skip eval | Valid: time=  0.2s loss=11.296, TAw acc=  1.3% | *
…
>>> Test on task 29 : loss=1.842 | TAw acc= 96.1%, forg=  1.0%| TAg acc= 55.3%, forg= -2.9% <<<
>>> Test on task 30 : loss=2.181 | TAw acc= 90.2%, forg=  0.0%| TAg acc= 38.4%, forg=  3.6% <<<
>>> Test on task 31 : loss=2.008 | TAw acc= 95.3%, forg=  0.0%| TAg acc= 44.1%, forg= 18.9% <<<
>>> Test on task 32 : loss=2.847 | TAw acc= 92.5%, forg= -0.9%| TAg acc= 21.5%, forg= 15.0% <<<
>>> Test on task 33 : loss=2.987 | TAw acc= 90.7%, forg=-13.6%| TAg acc= 16.9%, forg= 24.6% <<<
>>> Test on task 34 : loss=2.827 | TAw acc= 76.4%, forg=  0.0%| TAg acc= 44.3%, forg=  0.0% <<<
Save at k=100/eeil_e20_wisdm_1/wisdm_flex_eeil
======
LLL_Net(
  (model): SimpleMLP(
    (fc1): Linear(in_features=91, out_features=1000, bias=True)
    (fc2): Sequential()
  )
  (heads): ModuleList(
    (0): Linear(in_features=1000, out_features=34, bias=True)
    (1): Linear(in_features=1000, out_features=20, bias=True)
    (2): Linear(in_features=1000, out_features=20, bias=True)
    (3): Linear(in_features=1000, out_features=20, bias=True)
    (4): Linear(in_features=1000, out_features=20, bias=True)
    (5): Linear(in_features=1000, out_features=20, bias=True)
    (6): Linear(in_features=1000, out_features=20, bias=True)
    (7): Linear(in_features=1000, out_features=20, bias=True)
    (8): Linear(in_features=1000, out_features=20, bias=True)
    (9): Linear(in_features=1000, out_features=20, bias=True)
    (10): Linear(in_features=1000, out_features=20, bias=True)
    (11): Linear(in_features=1000, out_features=20, bias=True)
    (12): Linear(in_features=1000, out_features=20, bias=True)
    (13): Linear(in_features=1000, out_features=20, bias=True)
    (14): Linear(in_features=1000, out_features=20, bias=True)
    (15): Linear(in_features=1000, out_features=20, bias=True)
    (16): Linear(in_features=1000, out_features=20, bias=True)
    (17): Linear(in_features=1000, out_features=20, bias=True)
    (18): Linear(in_features=1000, out_features=20, bias=True)
    (19): Linear(in_features=1000, out_features=20, bias=True)
    (20): Linear(in_features=1000, out_features=20, bias=True)
    (21): Linear(in_features=1000, out_features=20, bias=True)
    (22): Linear(in_features=1000, out_features=20, bias=True)
    (23): Linear(in_features=1000, out_features=20, bias=True)
    (24): Linear(in_features=1000, out_features=20, bias=True)
    (25): Linear(in_features=1000, out_features=20, bias=True)
    (26): Linear(in_features=1000, out_features=20, bias=True)
    (27): Linear(in_features=1000, out_features=20, bias=True)
    (28): Linear(in_features=1000, out_features=20, bias=True)
    (29): Linear(in_features=1000, out_features=20, bias=True)
    (30): Linear(in_features=1000, out_features=20, bias=True)
    (31): Linear(in_features=1000, out_features=20, bias=True)
    (32): Linear(in_features=1000, out_features=20, bias=True)
    (33): Linear(in_features=1000, out_features=20, bias=True)
    (34): Linear(in_features=1000, out_features=20, bias=True)
  )
)
======

************************************************************************************************************
Task 35
************************************************************************************************************
| Epoch   1, time=  4.6s | Train: skip eval | Valid: time=  0.2s loss=11.442, TAw acc= 13.5% | *
| Epoch   2, time=  4.5s | Train: skip eval | Valid: time=  0.2s loss=11.328, TAw acc= 13.5% | *
…
>>> Test on task 30 : loss=2.121 | TAw acc= 91.1%, forg= -0.9%| TAg acc= 44.6%, forg= -2.7% <<<
>>> Test on task 31 : loss=1.948 | TAw acc= 95.3%, forg=  0.0%| TAg acc= 45.7%, forg= 17.3% <<<
>>> Test on task 32 : loss=2.642 | TAw acc= 90.7%, forg=  1.9%| TAg acc= 29.0%, forg=  7.5% <<<
>>> Test on task 33 : loss=2.727 | TAw acc= 94.1%, forg= -3.4%| TAg acc= 23.7%, forg= 17.8% <<<
>>> Test on task 34 : loss=2.734 | TAw acc= 91.5%, forg=-15.1%| TAg acc= 17.0%, forg= 27.4% <<<
>>> Test on task 35 : loss=2.432 | TAw acc= 89.1%, forg=  0.0%| TAg acc= 40.3%, forg=  0.0% <<<
Save at k=100/eeil_e20_wisdm_1/wisdm_flex_eeil
======
LLL_Net(
  (model): SimpleMLP(
    (fc1): Linear(in_features=91, out_features=1000, bias=True)
    (fc2): Sequential()
  )
  (heads): ModuleList(
    (0): Linear(in_features=1000, out_features=34, bias=True)
    (1): Linear(in_features=1000, out_features=20, bias=True)
    (2): Linear(in_features=1000, out_features=20, bias=True)
    (3): Linear(in_features=1000, out_features=20, bias=True)
    (4): Linear(in_features=1000, out_features=20, bias=True)
    (5): Linear(in_features=1000, out_features=20, bias=True)
    (6): Linear(in_features=1000, out_features=20, bias=True)
    (7): Linear(in_features=1000, out_features=20, bias=True)
    (8): Linear(in_features=1000, out_features=20, bias=True)
    (9): Linear(in_features=1000, out_features=20, bias=True)
    (10): Linear(in_features=1000, out_features=20, bias=True)
    (11): Linear(in_features=1000, out_features=20, bias=True)
    (12): Linear(in_features=1000, out_features=20, bias=True)
    (13): Linear(in_features=1000, out_features=20, bias=True)
    (14): Linear(in_features=1000, out_features=20, bias=True)
    (15): Linear(in_features=1000, out_features=20, bias=True)
    (16): Linear(in_features=1000, out_features=20, bias=True)
    (17): Linear(in_features=1000, out_features=20, bias=True)
    (18): Linear(in_features=1000, out_features=20, bias=True)
    (19): Linear(in_features=1000, out_features=20, bias=True)
    (20): Linear(in_features=1000, out_features=20, bias=True)
    (21): Linear(in_features=1000, out_features=20, bias=True)
    (22): Linear(in_features=1000, out_features=20, bias=True)
    (23): Linear(in_features=1000, out_features=20, bias=True)
    (24): Linear(in_features=1000, out_features=20, bias=True)
    (25): Linear(in_features=1000, out_features=20, bias=True)
    (26): Linear(in_features=1000, out_features=20, bias=True)
    (27): Linear(in_features=1000, out_features=20, bias=True)
    (28): Linear(in_features=1000, out_features=20, bias=True)
    (29): Linear(in_features=1000, out_features=20, bias=True)
    (30): Linear(in_features=1000, out_features=20, bias=True)
    (31): Linear(in_features=1000, out_features=20, bias=True)
    (32): Linear(in_features=1000, out_features=20, bias=True)
    (33): Linear(in_features=1000, out_features=20, bias=True)
    (34): Linear(in_features=1000, out_features=20, bias=True)
    (35): Linear(in_features=1000, out_features=20, bias=True)
  )
)
======

************************************************************************************************************
Task 36
************************************************************************************************************
| Epoch   1, time=  4.9s | Train: skip eval | Valid: time=  0.2s loss=11.235, TAw acc=  6.5% | *
| Epoch   2, time=  5.0s | Train: skip eval | Valid: time=  0.3s loss=11.133, TAw acc=  7.6% | *
…
>>> Test on task 31 : loss=1.851 | TAw acc= 96.1%, forg= -0.8%| TAg acc= 56.7%, forg=  6.3% <<<
>>> Test on task 32 : loss=2.507 | TAw acc= 89.7%, forg=  2.8%| TAg acc= 41.1%, forg= -4.7% <<<
>>> Test on task 33 : loss=2.508 | TAw acc= 92.4%, forg=  1.7%| TAg acc= 29.7%, forg= 11.9% <<<
>>> Test on task 34 : loss=2.400 | TAw acc= 91.5%, forg=  0.0%| TAg acc= 28.3%, forg= 16.0% <<<
>>> Test on task 35 : loss=2.664 | TAw acc= 95.0%, forg= -5.9%| TAg acc= 17.6%, forg= 22.7% <<<
>>> Test on task 36 : loss=2.405 | TAw acc= 86.1%, forg=  0.0%| TAg acc= 50.0%, forg=  0.0% <<<
Save at k=100/eeil_e20_wisdm_1/wisdm_flex_eeil
======
LLL_Net(
  (model): SimpleMLP(
    (fc1): Linear(in_features=91, out_features=1000, bias=True)
    (fc2): Sequential()
  )
  (heads): ModuleList(
    (0): Linear(in_features=1000, out_features=34, bias=True)
    (1): Linear(in_features=1000, out_features=20, bias=True)
    (2): Linear(in_features=1000, out_features=20, bias=True)
    (3): Linear(in_features=1000, out_features=20, bias=True)
    (4): Linear(in_features=1000, out_features=20, bias=True)
    (5): Linear(in_features=1000, out_features=20, bias=True)
    (6): Linear(in_features=1000, out_features=20, bias=True)
    (7): Linear(in_features=1000, out_features=20, bias=True)
    (8): Linear(in_features=1000, out_features=20, bias=True)
    (9): Linear(in_features=1000, out_features=20, bias=True)
    (10): Linear(in_features=1000, out_features=20, bias=True)
    (11): Linear(in_features=1000, out_features=20, bias=True)
    (12): Linear(in_features=1000, out_features=20, bias=True)
    (13): Linear(in_features=1000, out_features=20, bias=True)
    (14): Linear(in_features=1000, out_features=20, bias=True)
    (15): Linear(in_features=1000, out_features=20, bias=True)
    (16): Linear(in_features=1000, out_features=20, bias=True)
    (17): Linear(in_features=1000, out_features=20, bias=True)
    (18): Linear(in_features=1000, out_features=20, bias=True)
    (19): Linear(in_features=1000, out_features=20, bias=True)
    (20): Linear(in_features=1000, out_features=20, bias=True)
    (21): Linear(in_features=1000, out_features=20, bias=True)
    (22): Linear(in_features=1000, out_features=20, bias=True)
    (23): Linear(in_features=1000, out_features=20, bias=True)
    (24): Linear(in_features=1000, out_features=20, bias=True)
    (25): Linear(in_features=1000, out_features=20, bias=True)
    (26): Linear(in_features=1000, out_features=20, bias=True)
    (27): Linear(in_features=1000, out_features=20, bias=True)
    (28): Linear(in_features=1000, out_features=20, bias=True)
    (29): Linear(in_features=1000, out_features=20, bias=True)
    (30): Linear(in_features=1000, out_features=20, bias=True)
    (31): Linear(in_features=1000, out_features=20, bias=True)
    (32): Linear(in_features=1000, out_features=20, bias=True)
    (33): Linear(in_features=1000, out_features=20, bias=True)
    (34): Linear(in_features=1000, out_features=20, bias=True)
    (35): Linear(in_features=1000, out_features=20, bias=True)
    (36): Linear(in_features=1000, out_features=20, bias=True)
  )
)
======

************************************************************************************************************
Task 37
************************************************************************************************************
| Epoch   1, time=  5.1s | Train: skip eval | Valid: time=  0.2s loss=11.602, TAw acc=  3.5% | *
| Epoch   2, time=  5.1s | Train: skip eval | Valid: time=  0.2s loss=11.491, TAw acc=  3.5% | *
…
>>> Test on task 32 : loss=2.371 | TAw acc= 89.7%, forg=  2.8%| TAg acc= 45.8%, forg= -4.7% <<<
>>> Test on task 33 : loss=2.387 | TAw acc= 91.5%, forg=  2.5%| TAg acc= 36.4%, forg=  5.1% <<<
>>> Test on task 34 : loss=2.163 | TAw acc= 92.5%, forg= -0.9%| TAg acc= 39.6%, forg=  4.7% <<<
>>> Test on task 35 : loss=2.489 | TAw acc= 94.1%, forg=  0.8%| TAg acc= 16.8%, forg= 23.5% <<<
>>> Test on task 36 : loss=2.560 | TAw acc= 95.9%, forg= -9.8%| TAg acc= 21.3%, forg= 28.7% <<<
>>> Test on task 37 : loss=2.272 | TAw acc= 90.4%, forg=  0.0%| TAg acc= 47.8%, forg=  0.0% <<<
Save at k=100/eeil_e20_wisdm_1/wisdm_flex_eeil
======
LLL_Net(
  (model): SimpleMLP(
    (fc1): Linear(in_features=91, out_features=1000, bias=True)
    (fc2): Sequential()
  )
  (heads): ModuleList(
    (0): Linear(in_features=1000, out_features=34, bias=True)
    (1): Linear(in_features=1000, out_features=20, bias=True)
    (2): Linear(in_features=1000, out_features=20, bias=True)
    (3): Linear(in_features=1000, out_features=20, bias=True)
    (4): Linear(in_features=1000, out_features=20, bias=True)
    (5): Linear(in_features=1000, out_features=20, bias=True)
    (6): Linear(in_features=1000, out_features=20, bias=True)
    (7): Linear(in_features=1000, out_features=20, bias=True)
    (8): Linear(in_features=1000, out_features=20, bias=True)
    (9): Linear(in_features=1000, out_features=20, bias=True)
    (10): Linear(in_features=1000, out_features=20, bias=True)
    (11): Linear(in_features=1000, out_features=20, bias=True)
    (12): Linear(in_features=1000, out_features=20, bias=True)
    (13): Linear(in_features=1000, out_features=20, bias=True)
    (14): Linear(in_features=1000, out_features=20, bias=True)
    (15): Linear(in_features=1000, out_features=20, bias=True)
    (16): Linear(in_features=1000, out_features=20, bias=True)
    (17): Linear(in_features=1000, out_features=20, bias=True)
    (18): Linear(in_features=1000, out_features=20, bias=True)
    (19): Linear(in_features=1000, out_features=20, bias=True)
    (20): Linear(in_features=1000, out_features=20, bias=True)
    (21): Linear(in_features=1000, out_features=20, bias=True)
    (22): Linear(in_features=1000, out_features=20, bias=True)
    (23): Linear(in_features=1000, out_features=20, bias=True)
    (24): Linear(in_features=1000, out_features=20, bias=True)
    (25): Linear(in_features=1000, out_features=20, bias=True)
    (26): Linear(in_features=1000, out_features=20, bias=True)
    (27): Linear(in_features=1000, out_features=20, bias=True)
    (28): Linear(in_features=1000, out_features=20, bias=True)
    (29): Linear(in_features=1000, out_features=20, bias=True)
    (30): Linear(in_features=1000, out_features=20, bias=True)
    (31): Linear(in_features=1000, out_features=20, bias=True)
    (32): Linear(in_features=1000, out_features=20, bias=True)
    (33): Linear(in_features=1000, out_features=20, bias=True)
    (34): Linear(in_features=1000, out_features=20, bias=True)
    (35): Linear(in_features=1000, out_features=20, bias=True)
    (36): Linear(in_features=1000, out_features=20, bias=True)
    (37): Linear(in_features=1000, out_features=20, bias=True)
  )
)
======

************************************************************************************************************
Task 38
************************************************************************************************************
| Epoch   1, time=  5.4s | Train: skip eval | Valid: time=  0.2s loss=11.518, TAw acc=  4.5% | *
| Epoch   2, time=  5.4s | Train: skip eval | Valid: time=  0.2s loss=11.421, TAw acc=  5.7% | *
…
>>> Test on task 33 : loss=2.304 | TAw acc= 92.4%, forg=  1.7%| TAg acc= 40.7%, forg=  0.8% <<<
>>> Test on task 34 : loss=2.066 | TAw acc= 92.5%, forg=  0.0%| TAg acc= 43.4%, forg=  0.9% <<<
>>> Test on task 35 : loss=2.404 | TAw acc= 95.0%, forg=  0.0%| TAg acc= 20.2%, forg= 20.2% <<<
>>> Test on task 36 : loss=2.356 | TAw acc= 96.7%, forg= -0.8%| TAg acc= 22.1%, forg= 27.9% <<<
>>> Test on task 37 : loss=2.458 | TAw acc= 96.5%, forg= -6.1%| TAg acc= 20.0%, forg= 27.8% <<<
>>> Test on task 38 : loss=2.502 | TAw acc= 82.2%, forg=  0.0%| TAg acc= 41.5%, forg=  0.0% <<<
Save at k=100/eeil_e20_wisdm_1/wisdm_flex_eeil
======
LLL_Net(
  (model): SimpleMLP(
    (fc1): Linear(in_features=91, out_features=1000, bias=True)
    (fc2): Sequential()
  )
  (heads): ModuleList(
    (0): Linear(in_features=1000, out_features=34, bias=True)
    (1): Linear(in_features=1000, out_features=20, bias=True)
    (2): Linear(in_features=1000, out_features=20, bias=True)
    (3): Linear(in_features=1000, out_features=20, bias=True)
    (4): Linear(in_features=1000, out_features=20, bias=True)
    (5): Linear(in_features=1000, out_features=20, bias=True)
    (6): Linear(in_features=1000, out_features=20, bias=True)
    (7): Linear(in_features=1000, out_features=20, bias=True)
    (8): Linear(in_features=1000, out_features=20, bias=True)
    (9): Linear(in_features=1000, out_features=20, bias=True)
    (10): Linear(in_features=1000, out_features=20, bias=True)
    (11): Linear(in_features=1000, out_features=20, bias=True)
    (12): Linear(in_features=1000, out_features=20, bias=True)
    (13): Linear(in_features=1000, out_features=20, bias=True)
    (14): Linear(in_features=1000, out_features=20, bias=True)
    (15): Linear(in_features=1000, out_features=20, bias=True)
    (16): Linear(in_features=1000, out_features=20, bias=True)
    (17): Linear(in_features=1000, out_features=20, bias=True)
    (18): Linear(in_features=1000, out_features=20, bias=True)
    (19): Linear(in_features=1000, out_features=20, bias=True)
    (20): Linear(in_features=1000, out_features=20, bias=True)
    (21): Linear(in_features=1000, out_features=20, bias=True)
    (22): Linear(in_features=1000, out_features=20, bias=True)
    (23): Linear(in_features=1000, out_features=20, bias=True)
    (24): Linear(in_features=1000, out_features=20, bias=True)
    (25): Linear(in_features=1000, out_features=20, bias=True)
    (26): Linear(in_features=1000, out_features=20, bias=True)
    (27): Linear(in_features=1000, out_features=20, bias=True)
    (28): Linear(in_features=1000, out_features=20, bias=True)
    (29): Linear(in_features=1000, out_features=20, bias=True)
    (30): Linear(in_features=1000, out_features=20, bias=True)
    (31): Linear(in_features=1000, out_features=20, bias=True)
    (32): Linear(in_features=1000, out_features=20, bias=True)
    (33): Linear(in_features=1000, out_features=20, bias=True)
    (34): Linear(in_features=1000, out_features=20, bias=True)
    (35): Linear(in_features=1000, out_features=20, bias=True)
    (36): Linear(in_features=1000, out_features=20, bias=True)
    (37): Linear(in_features=1000, out_features=20, bias=True)
    (38): Linear(in_features=1000, out_features=20, bias=True)
  )
)
======

************************************************************************************************************
Task 39
************************************************************************************************************
| Epoch   1, time=  5.5s | Train: skip eval | Valid: time=  0.2s loss=11.442, TAw acc=  0.0% | *
| Epoch   2, time=  5.7s | Train: skip eval | Valid: time=  0.2s loss=11.357, TAw acc=  0.0% | *
…
>>> Test on task 34 : loss=1.958 | TAw acc= 92.5%, forg=  0.0%| TAg acc= 43.4%, forg=  0.9% <<<
>>> Test on task 35 : loss=2.285 | TAw acc= 94.1%, forg=  0.8%| TAg acc= 31.1%, forg=  9.2% <<<
>>> Test on task 36 : loss=2.232 | TAw acc= 96.7%, forg=  0.0%| TAg acc= 32.8%, forg= 17.2% <<<
>>> Test on task 37 : loss=2.220 | TAw acc= 95.7%, forg=  0.9%| TAg acc= 32.2%, forg= 15.7% <<<
>>> Test on task 38 : loss=2.781 | TAw acc= 96.6%, forg=-14.4%| TAg acc= 13.6%, forg= 28.0% <<<
>>> Test on task 39 : loss=2.954 | TAw acc= 82.7%, forg=  0.0%| TAg acc= 37.5%, forg=  0.0% <<<
Save at k=100/eeil_e20_wisdm_1/wisdm_flex_eeil
======
LLL_Net(
  (model): SimpleMLP(
    (fc1): Linear(in_features=91, out_features=1000, bias=True)
    (fc2): Sequential()
  )
  (heads): ModuleList(
    (0): Linear(in_features=1000, out_features=34, bias=True)
    (1): Linear(in_features=1000, out_features=20, bias=True)
    (2): Linear(in_features=1000, out_features=20, bias=True)
    (3): Linear(in_features=1000, out_features=20, bias=True)
    (4): Linear(in_features=1000, out_features=20, bias=True)
    (5): Linear(in_features=1000, out_features=20, bias=True)
    (6): Linear(in_features=1000, out_features=20, bias=True)
    (7): Linear(in_features=1000, out_features=20, bias=True)
    (8): Linear(in_features=1000, out_features=20, bias=True)
    (9): Linear(in_features=1000, out_features=20, bias=True)
    (10): Linear(in_features=1000, out_features=20, bias=True)
    (11): Linear(in_features=1000, out_features=20, bias=True)
    (12): Linear(in_features=1000, out_features=20, bias=True)
    (13): Linear(in_features=1000, out_features=20, bias=True)
    (14): Linear(in_features=1000, out_features=20, bias=True)
    (15): Linear(in_features=1000, out_features=20, bias=True)
    (16): Linear(in_features=1000, out_features=20, bias=True)
    (17): Linear(in_features=1000, out_features=20, bias=True)
    (18): Linear(in_features=1000, out_features=20, bias=True)
    (19): Linear(in_features=1000, out_features=20, bias=True)
    (20): Linear(in_features=1000, out_features=20, bias=True)
    (21): Linear(in_features=1000, out_features=20, bias=True)
    (22): Linear(in_features=1000, out_features=20, bias=True)
    (23): Linear(in_features=1000, out_features=20, bias=True)
    (24): Linear(in_features=1000, out_features=20, bias=True)
    (25): Linear(in_features=1000, out_features=20, bias=True)
    (26): Linear(in_features=1000, out_features=20, bias=True)
    (27): Linear(in_features=1000, out_features=20, bias=True)
    (28): Linear(in_features=1000, out_features=20, bias=True)
    (29): Linear(in_features=1000, out_features=20, bias=True)
    (30): Linear(in_features=1000, out_features=20, bias=True)
    (31): Linear(in_features=1000, out_features=20, bias=True)
    (32): Linear(in_features=1000, out_features=20, bias=True)
    (33): Linear(in_features=1000, out_features=20, bias=True)
    (34): Linear(in_features=1000, out_features=20, bias=True)
    (35): Linear(in_features=1000, out_features=20, bias=True)
    (36): Linear(in_features=1000, out_features=20, bias=True)
    (37): Linear(in_features=1000, out_features=20, bias=True)
    (38): Linear(in_features=1000, out_features=20, bias=True)
    (39): Linear(in_features=1000, out_features=20, bias=True)
  )
)
======

************************************************************************************************************
Task 40
************************************************************************************************************
| Epoch   1, time=  5.8s | Train: skip eval | Valid: time=  0.2s loss=13.550, TAw acc=  2.7% | *
| Epoch   2, time=  5.7s | Train: skip eval | Valid: time=  0.2s loss=13.399, TAw acc=  2.7% | *
…
>>> Test on task 35 : loss=2.193 | TAw acc= 94.1%, forg=  0.8%| TAg acc= 34.5%, forg=  5.9% <<<
>>> Test on task 36 : loss=2.119 | TAw acc= 96.7%, forg=  0.0%| TAg acc= 41.0%, forg=  9.0% <<<
>>> Test on task 37 : loss=2.051 | TAw acc= 95.7%, forg=  0.9%| TAg acc= 37.4%, forg= 10.4% <<<
>>> Test on task 38 : loss=2.514 | TAw acc= 96.6%, forg=  0.0%| TAg acc= 20.3%, forg= 21.2% <<<
>>> Test on task 39 : loss=2.920 | TAw acc= 91.3%, forg= -8.7%| TAg acc= 13.5%, forg= 24.0% <<<
>>> Test on task 40 : loss=2.662 | TAw acc= 87.4%, forg=  0.0%| TAg acc= 47.6%, forg=  0.0% <<<
Save at k=100/eeil_e20_wisdm_1/wisdm_flex_eeil
======
LLL_Net(
  (model): SimpleMLP(
    (fc1): Linear(in_features=91, out_features=1000, bias=True)
    (fc2): Sequential()
  )
  (heads): ModuleList(
    (0): Linear(in_features=1000, out_features=34, bias=True)
    (1): Linear(in_features=1000, out_features=20, bias=True)
    (2): Linear(in_features=1000, out_features=20, bias=True)
    (3): Linear(in_features=1000, out_features=20, bias=True)
    (4): Linear(in_features=1000, out_features=20, bias=True)
    (5): Linear(in_features=1000, out_features=20, bias=True)
    (6): Linear(in_features=1000, out_features=20, bias=True)
    (7): Linear(in_features=1000, out_features=20, bias=True)
    (8): Linear(in_features=1000, out_features=20, bias=True)
    (9): Linear(in_features=1000, out_features=20, bias=True)
    (10): Linear(in_features=1000, out_features=20, bias=True)
    (11): Linear(in_features=1000, out_features=20, bias=True)
    (12): Linear(in_features=1000, out_features=20, bias=True)
    (13): Linear(in_features=1000, out_features=20, bias=True)
    (14): Linear(in_features=1000, out_features=20, bias=True)
    (15): Linear(in_features=1000, out_features=20, bias=True)
    (16): Linear(in_features=1000, out_features=20, bias=True)
    (17): Linear(in_features=1000, out_features=20, bias=True)
    (18): Linear(in_features=1000, out_features=20, bias=True)
    (19): Linear(in_features=1000, out_features=20, bias=True)
    (20): Linear(in_features=1000, out_features=20, bias=True)
    (21): Linear(in_features=1000, out_features=20, bias=True)
    (22): Linear(in_features=1000, out_features=20, bias=True)
    (23): Linear(in_features=1000, out_features=20, bias=True)
    (24): Linear(in_features=1000, out_features=20, bias=True)
    (25): Linear(in_features=1000, out_features=20, bias=True)
    (26): Linear(in_features=1000, out_features=20, bias=True)
    (27): Linear(in_features=1000, out_features=20, bias=True)
    (28): Linear(in_features=1000, out_features=20, bias=True)
    (29): Linear(in_features=1000, out_features=20, bias=True)
    (30): Linear(in_features=1000, out_features=20, bias=True)
    (31): Linear(in_features=1000, out_features=20, bias=True)
    (32): Linear(in_features=1000, out_features=20, bias=True)
    (33): Linear(in_features=1000, out_features=20, bias=True)
    (34): Linear(in_features=1000, out_features=20, bias=True)
    (35): Linear(in_features=1000, out_features=20, bias=True)
    (36): Linear(in_features=1000, out_features=20, bias=True)
    (37): Linear(in_features=1000, out_features=20, bias=True)
    (38): Linear(in_features=1000, out_features=20, bias=True)
    (39): Linear(in_features=1000, out_features=20, bias=True)
    (40): Linear(in_features=1000, out_features=20, bias=True)
  )
)
======

************************************************************************************************************
Task 41
************************************************************************************************************
| Epoch   1, time=  6.0s | Train: skip eval | Valid: time=  0.2s loss=12.116, TAw acc=  9.7% | *
| Epoch   2, time=  6.1s | Train: skip eval | Valid: time=  0.2s loss=11.990, TAw acc= 16.1% | *
…
>>> Test on task 36 : loss=2.055 | TAw acc= 96.7%, forg=  0.0%| TAg acc= 45.9%, forg=  4.1% <<<
>>> Test on task 37 : loss=2.004 | TAw acc= 95.7%, forg=  0.9%| TAg acc= 40.0%, forg=  7.8% <<<
>>> Test on task 38 : loss=2.359 | TAw acc= 96.6%, forg=  0.0%| TAg acc= 28.8%, forg= 12.7% <<<
>>> Test on task 39 : loss=2.727 | TAw acc= 95.2%, forg= -3.8%| TAg acc= 17.3%, forg= 20.2% <<<
>>> Test on task 40 : loss=2.567 | TAw acc= 94.2%, forg= -6.8%| TAg acc= 18.4%, forg= 29.1% <<<
>>> Test on task 41 : loss=2.116 | TAw acc= 89.5%, forg=  0.0%| TAg acc= 57.3%, forg=  0.0% <<<
Save at k=100/eeil_e20_wisdm_1/wisdm_flex_eeil
======
LLL_Net(
  (model): SimpleMLP(
    (fc1): Linear(in_features=91, out_features=1000, bias=True)
    (fc2): Sequential()
  )
  (heads): ModuleList(
    (0): Linear(in_features=1000, out_features=34, bias=True)
    (1): Linear(in_features=1000, out_features=20, bias=True)
    (2): Linear(in_features=1000, out_features=20, bias=True)
    (3): Linear(in_features=1000, out_features=20, bias=True)
    (4): Linear(in_features=1000, out_features=20, bias=True)
    (5): Linear(in_features=1000, out_features=20, bias=True)
    (6): Linear(in_features=1000, out_features=20, bias=True)
    (7): Linear(in_features=1000, out_features=20, bias=True)
    (8): Linear(in_features=1000, out_features=20, bias=True)
    (9): Linear(in_features=1000, out_features=20, bias=True)
    (10): Linear(in_features=1000, out_features=20, bias=True)
    (11): Linear(in_features=1000, out_features=20, bias=True)
    (12): Linear(in_features=1000, out_features=20, bias=True)
    (13): Linear(in_features=1000, out_features=20, bias=True)
    (14): Linear(in_features=1000, out_features=20, bias=True)
    (15): Linear(in_features=1000, out_features=20, bias=True)
    (16): Linear(in_features=1000, out_features=20, bias=True)
    (17): Linear(in_features=1000, out_features=20, bias=True)
    (18): Linear(in_features=1000, out_features=20, bias=True)
    (19): Linear(in_features=1000, out_features=20, bias=True)
    (20): Linear(in_features=1000, out_features=20, bias=True)
    (21): Linear(in_features=1000, out_features=20, bias=True)
    (22): Linear(in_features=1000, out_features=20, bias=True)
    (23): Linear(in_features=1000, out_features=20, bias=True)
    (24): Linear(in_features=1000, out_features=20, bias=True)
    (25): Linear(in_features=1000, out_features=20, bias=True)
    (26): Linear(in_features=1000, out_features=20, bias=True)
    (27): Linear(in_features=1000, out_features=20, bias=True)
    (28): Linear(in_features=1000, out_features=20, bias=True)
    (29): Linear(in_features=1000, out_features=20, bias=True)
    (30): Linear(in_features=1000, out_features=20, bias=True)
    (31): Linear(in_features=1000, out_features=20, bias=True)
    (32): Linear(in_features=1000, out_features=20, bias=True)
    (33): Linear(in_features=1000, out_features=20, bias=True)
    (34): Linear(in_features=1000, out_features=20, bias=True)
    (35): Linear(in_features=1000, out_features=20, bias=True)
    (36): Linear(in_features=1000, out_features=20, bias=True)
    (37): Linear(in_features=1000, out_features=20, bias=True)
    (38): Linear(in_features=1000, out_features=20, bias=True)
    (39): Linear(in_features=1000, out_features=20, bias=True)
    (40): Linear(in_features=1000, out_features=20, bias=True)
    (41): Linear(in_features=1000, out_features=20, bias=True)
  )
)
======

************************************************************************************************************
Task 42
************************************************************************************************************
| Epoch   1, time=  6.0s | Train: skip eval | Valid: time=  0.2s loss=11.889, TAw acc=  0.0% | *
| Epoch   2, time=  6.1s | Train: skip eval | Valid: time=  0.2s loss=11.774, TAw acc=  0.0% | *
…
>>> Test on task 37 : loss=1.863 | TAw acc= 95.7%, forg=  0.9%| TAg acc= 48.7%, forg= -0.9% <<<
>>> Test on task 38 : loss=2.233 | TAw acc= 96.6%, forg=  0.0%| TAg acc= 29.7%, forg= 11.9% <<<
>>> Test on task 39 : loss=2.541 | TAw acc= 95.2%, forg=  0.0%| TAg acc= 28.8%, forg=  8.7% <<<
>>> Test on task 40 : loss=2.289 | TAw acc= 96.1%, forg= -1.9%| TAg acc= 31.1%, forg= 16.5% <<<
>>> Test on task 41 : loss=2.483 | TAw acc= 92.7%, forg= -3.2%| TAg acc= 14.5%, forg= 42.7% <<<
>>> Test on task 42 : loss=2.373 | TAw acc= 88.0%, forg=  0.0%| TAg acc= 43.5%, forg=  0.0% <<<
Save at k=100/eeil_e20_wisdm_1/wisdm_flex_eeil
======
LLL_Net(
  (model): SimpleMLP(
    (fc1): Linear(in_features=91, out_features=1000, bias=True)
    (fc2): Sequential()
  )
  (heads): ModuleList(
    (0): Linear(in_features=1000, out_features=34, bias=True)
    (1): Linear(in_features=1000, out_features=20, bias=True)
    (2): Linear(in_features=1000, out_features=20, bias=True)
    (3): Linear(in_features=1000, out_features=20, bias=True)
    (4): Linear(in_features=1000, out_features=20, bias=True)
    (5): Linear(in_features=1000, out_features=20, bias=True)
    (6): Linear(in_features=1000, out_features=20, bias=True)
    (7): Linear(in_features=1000, out_features=20, bias=True)
    (8): Linear(in_features=1000, out_features=20, bias=True)
    (9): Linear(in_features=1000, out_features=20, bias=True)
    (10): Linear(in_features=1000, out_features=20, bias=True)
    (11): Linear(in_features=1000, out_features=20, bias=True)
    (12): Linear(in_features=1000, out_features=20, bias=True)
    (13): Linear(in_features=1000, out_features=20, bias=True)
    (14): Linear(in_features=1000, out_features=20, bias=True)
    (15): Linear(in_features=1000, out_features=20, bias=True)
    (16): Linear(in_features=1000, out_features=20, bias=True)
    (17): Linear(in_features=1000, out_features=20, bias=True)
    (18): Linear(in_features=1000, out_features=20, bias=True)
    (19): Linear(in_features=1000, out_features=20, bias=True)
    (20): Linear(in_features=1000, out_features=20, bias=True)
    (21): Linear(in_features=1000, out_features=20, bias=True)
    (22): Linear(in_features=1000, out_features=20, bias=True)
    (23): Linear(in_features=1000, out_features=20, bias=True)
    (24): Linear(in_features=1000, out_features=20, bias=True)
    (25): Linear(in_features=1000, out_features=20, bias=True)
    (26): Linear(in_features=1000, out_features=20, bias=True)
    (27): Linear(in_features=1000, out_features=20, bias=True)
    (28): Linear(in_features=1000, out_features=20, bias=True)
    (29): Linear(in_features=1000, out_features=20, bias=True)
    (30): Linear(in_features=1000, out_features=20, bias=True)
    (31): Linear(in_features=1000, out_features=20, bias=True)
    (32): Linear(in_features=1000, out_features=20, bias=True)
    (33): Linear(in_features=1000, out_features=20, bias=True)
    (34): Linear(in_features=1000, out_features=20, bias=True)
    (35): Linear(in_features=1000, out_features=20, bias=True)
    (36): Linear(in_features=1000, out_features=20, bias=True)
    (37): Linear(in_features=1000, out_features=20, bias=True)
    (38): Linear(in_features=1000, out_features=20, bias=True)
    (39): Linear(in_features=1000, out_features=20, bias=True)
    (40): Linear(in_features=1000, out_features=20, bias=True)
    (41): Linear(in_features=1000, out_features=20, bias=True)
    (42): Linear(in_features=1000, out_features=20, bias=True)
  )
)
======

************************************************************************************************************
Task 43
************************************************************************************************************
| Epoch   1, time=  6.5s | Train: skip eval | Valid: time=  0.2s loss=12.929, TAw acc=  0.0% | *
| Epoch   2, time=  6.4s | Train: skip eval | Valid: time=  0.2s loss=12.800, TAw acc=  6.0% | *
…
