…
| Selected 684 train exemplars, time=  0.0s
684
------------------------------------------------------------------------------------------------------------
>>> Test on task  0 : loss=1.414 | TAw acc= 88.9%, forg= -1.1%| TAg acc= 82.2%, forg= -4.4% <<<
>>> Test on task  1 : loss=1.513 | TAw acc= 93.0%, forg=  0.0%| TAg acc= 80.9%, forg= -3.5% <<<
>>> Test on task  2 : loss=1.757 | TAw acc= 93.1%, forg=-12.1%| TAg acc= 61.2%, forg=  7.8% <<<
>>> Test on task  3 : loss=1.276 | TAw acc= 95.6%, forg=  0.0%| TAg acc= 72.6%, forg=  0.0% <<<
Save at eeil_e5_wisdm_1/wisdm_flex_eeil
======
LLL_Net(
  (model): SimpleMLP(
    (fc1): Linear(in_features=91, out_features=1000, bias=True)
    (fc2): Sequential()
  )
  (heads): ModuleList(
    (0): Linear(in_features=1000, out_features=34, bias=True)
    (1): Linear(in_features=1000, out_features=20, bias=True)
    (2): Linear(in_features=1000, out_features=20, bias=True)
    (3): Linear(in_features=1000, out_features=20, bias=True)
  )
)
======

************************************************************************************************************
Task  4
************************************************************************************************************
| Epoch   1, time=  0.3s | Train: skip eval | Valid: time=  0.2s loss=3.567, TAw acc= 40.7% | *
| Epoch   2, time=  0.4s | Train: skip eval | Valid: time=  0.2s loss=2.648, TAw acc= 51.9% | *
…
------------------------------------------------------------------------------------------------------------
>>> Test on task  0 : loss=1.297 | TAw acc= 90.0%, forg= -1.1%| TAg acc= 81.7%, forg=  0.6% <<<
>>> Test on task  1 : loss=1.366 | TAw acc= 93.0%, forg=  0.0%| TAg acc= 86.1%, forg= -5.2% <<<
>>> Test on task  2 : loss=1.657 | TAw acc= 96.6%, forg= -3.4%| TAg acc= 59.5%, forg=  9.5% <<<
>>> Test on task  3 : loss=1.385 | TAw acc= 96.5%, forg= -0.9%| TAg acc= 77.0%, forg= -4.4% <<<
>>> Test on task  4 : loss=1.570 | TAw acc= 88.1%, forg=  0.0%| TAg acc= 69.7%, forg=  0.0% <<<
Save at eeil_e5_wisdm_1/wisdm_flex_eeil
======
LLL_Net(
  (model): SimpleMLP(
    (fc1): Linear(in_features=91, out_features=1000, bias=True)
    (fc2): Sequential()
  )
  (heads): ModuleList(
    (0): Linear(in_features=1000, out_features=34, bias=True)
    (1): Linear(in_features=1000, out_features=20, bias=True)
    (2): Linear(in_features=1000, out_features=20, bias=True)
    (3): Linear(in_features=1000, out_features=20, bias=True)
    (4): Linear(in_features=1000, out_features=20, bias=True)
  )
)
======

************************************************************************************************************
Task  5
************************************************************************************************************
| Epoch   1, time=  0.4s | Train: skip eval | Valid: time=  0.2s loss=4.251, TAw acc= 53.2% | *
| Epoch   2, time=  0.4s | Train: skip eval | Valid: time=  0.2s loss=3.115, TAw acc= 61.0% | *
…
>>> Test on task  0 : loss=1.222 | TAw acc= 92.2%, forg= -2.2%| TAg acc= 85.6%, forg= -3.3% <<<
>>> Test on task  1 : loss=1.275 | TAw acc= 95.7%, forg= -2.6%| TAg acc= 84.3%, forg=  1.7% <<<
>>> Test on task  2 : loss=1.579 | TAw acc= 96.6%, forg=  0.0%| TAg acc= 62.1%, forg=  6.9% <<<
>>> Test on task  3 : loss=1.170 | TAw acc= 96.5%, forg=  0.0%| TAg acc= 83.2%, forg= -6.2% <<<
>>> Test on task  4 : loss=1.645 | TAw acc= 96.3%, forg= -8.3%| TAg acc= 62.4%, forg=  7.3% <<<
>>> Test on task  5 : loss=1.887 | TAw acc= 88.6%, forg=  0.0%| TAg acc= 58.1%, forg=  0.0% <<<
Save at eeil_e5_wisdm_1/wisdm_flex_eeil
======
LLL_Net(
  (model): SimpleMLP(
    (fc1): Linear(in_features=91, out_features=1000, bias=True)
    (fc2): Sequential()
  )
  (heads): ModuleList(
    (0): Linear(in_features=1000, out_features=34, bias=True)
    (1): Linear(in_features=1000, out_features=20, bias=True)
    (2): Linear(in_features=1000, out_features=20, bias=True)
    (3): Linear(in_features=1000, out_features=20, bias=True)
    (4): Linear(in_features=1000, out_features=20, bias=True)
    (5): Linear(in_features=1000, out_features=20, bias=True)
  )
)
======

************************************************************************************************************
Task  6
************************************************************************************************************
| Epoch   1, time=  0.5s | Train: skip eval | Valid: time=  0.2s loss=4.203, TAw acc= 39.6% | *
| Epoch   2, time=  0.5s | Train: skip eval | Valid: time=  0.2s loss=3.001, TAw acc= 60.4% | *
…
>>> Test on task  1 : loss=1.261 | TAw acc= 93.9%, forg=  1.7%| TAg acc= 83.5%, forg=  2.6% <<<
>>> Test on task  2 : loss=1.480 | TAw acc= 96.6%, forg=  0.0%| TAg acc= 66.4%, forg=  2.6% <<<
>>> Test on task  3 : loss=1.162 | TAw acc= 93.8%, forg=  2.7%| TAg acc= 74.3%, forg=  8.8% <<<
>>> Test on task  4 : loss=1.557 | TAw acc= 96.3%, forg=  0.0%| TAg acc= 66.1%, forg=  3.7% <<<
>>> Test on task  5 : loss=1.952 | TAw acc= 94.3%, forg= -5.7%| TAg acc= 54.3%, forg=  3.8% <<<
>>> Test on task  6 : loss=1.495 | TAw acc= 92.6%, forg=  0.0%| TAg acc= 72.1%, forg=  0.0% <<<
Save at eeil_e5_wisdm_1/wisdm_flex_eeil
======
LLL_Net(
  (model): SimpleMLP(
    (fc1): Linear(in_features=91, out_features=1000, bias=True)
    (fc2): Sequential()
  )
  (heads): ModuleList(
    (0): Linear(in_features=1000, out_features=34, bias=True)
    (1): Linear(in_features=1000, out_features=20, bias=True)
    (2): Linear(in_features=1000, out_features=20, bias=True)
    (3): Linear(in_features=1000, out_features=20, bias=True)
    (4): Linear(in_features=1000, out_features=20, bias=True)
    (5): Linear(in_features=1000, out_features=20, bias=True)
    (6): Linear(in_features=1000, out_features=20, bias=True)
  )
)
======

************************************************************************************************************
Task  7
************************************************************************************************************
| Epoch   1, time=  0.5s | Train: skip eval | Valid: time=  0.2s loss=4.863, TAw acc= 47.9% | *
| Epoch   2, time=  0.5s | Train: skip eval | Valid: time=  0.2s loss=3.496, TAw acc= 50.7% | *
…
>>> Test on task  2 : loss=1.334 | TAw acc= 97.4%, forg= -0.9%| TAg acc= 76.7%, forg= -7.8% <<<
>>> Test on task  3 : loss=0.990 | TAw acc= 95.6%, forg=  0.9%| TAg acc= 83.2%, forg=  0.0% <<<
>>> Test on task  4 : loss=1.387 | TAw acc= 96.3%, forg=  0.0%| TAg acc= 73.4%, forg= -3.7% <<<
>>> Test on task  5 : loss=1.678 | TAw acc= 92.4%, forg=  1.9%| TAg acc= 67.6%, forg= -9.5% <<<
>>> Test on task  6 : loss=1.683 | TAw acc= 95.9%, forg= -3.3%| TAg acc= 61.5%, forg= 10.7% <<<
>>> Test on task  7 : loss=1.914 | TAw acc= 82.2%, forg=  0.0%| TAg acc= 53.5%, forg=  0.0% <<<
Save at eeil_e5_wisdm_1/wisdm_flex_eeil
======
LLL_Net(
  (model): SimpleMLP(
    (fc1): Linear(in_features=91, out_features=1000, bias=True)
    (fc2): Sequential()
  )
  (heads): ModuleList(
    (0): Linear(in_features=1000, out_features=34, bias=True)
    (1): Linear(in_features=1000, out_features=20, bias=True)
    (2): Linear(in_features=1000, out_features=20, bias=True)
    (3): Linear(in_features=1000, out_features=20, bias=True)
    (4): Linear(in_features=1000, out_features=20, bias=True)
    (5): Linear(in_features=1000, out_features=20, bias=True)
    (6): Linear(in_features=1000, out_features=20, bias=True)
    (7): Linear(in_features=1000, out_features=20, bias=True)
  )
)
======

************************************************************************************************************
Task  8
************************************************************************************************************
| Epoch   1, time=  0.6s | Train: skip eval | Valid: time=  0.2s loss=3.668, TAw acc= 55.8% | *
| Epoch   2, time=  0.6s | Train: skip eval | Valid: time=  0.2s loss=2.547, TAw acc= 60.5% | *
…
>>> Test on task  3 : loss=0.927 | TAw acc= 93.8%, forg=  2.7%| TAg acc= 84.1%, forg= -0.9% <<<
>>> Test on task  4 : loss=1.450 | TAw acc= 95.4%, forg=  0.9%| TAg acc= 67.0%, forg=  6.4% <<<
>>> Test on task  5 : loss=1.551 | TAw acc= 95.2%, forg= -1.0%| TAg acc= 63.8%, forg=  3.8% <<<
>>> Test on task  6 : loss=1.562 | TAw acc= 95.9%, forg=  0.0%| TAg acc= 66.4%, forg=  5.7% <<<
>>> Test on task  7 : loss=2.040 | TAw acc= 92.1%, forg= -9.9%| TAg acc= 22.8%, forg= 30.7% <<<
>>> Test on task  8 : loss=1.477 | TAw acc= 93.0%, forg=  0.0%| TAg acc= 67.0%, forg=  0.0% <<<
Save at eeil_e5_wisdm_1/wisdm_flex_eeil
======
LLL_Net(
  (model): SimpleMLP(
    (fc1): Linear(in_features=91, out_features=1000, bias=True)
    (fc2): Sequential()
  )
  (heads): ModuleList(
    (0): Linear(in_features=1000, out_features=34, bias=True)
    (1): Linear(in_features=1000, out_features=20, bias=True)
    (2): Linear(in_features=1000, out_features=20, bias=True)
    (3): Linear(in_features=1000, out_features=20, bias=True)
    (4): Linear(in_features=1000, out_features=20, bias=True)
    (5): Linear(in_features=1000, out_features=20, bias=True)
    (6): Linear(in_features=1000, out_features=20, bias=True)
    (7): Linear(in_features=1000, out_features=20, bias=True)
    (8): Linear(in_features=1000, out_features=20, bias=True)
  )
)
======

************************************************************************************************************
Task  9
************************************************************************************************************
| Epoch   1, time=  0.7s | Train: skip eval | Valid: time=  0.2s loss=5.109, TAw acc= 38.0% | *
| Epoch   2, time=  0.6s | Train: skip eval | Valid: time=  0.2s loss=3.757, TAw acc= 43.7% | *
…
>>> Test on task  4 : loss=1.307 | TAw acc= 95.4%, forg=  0.9%| TAg acc= 77.1%, forg= -3.7% <<<
>>> Test on task  5 : loss=1.381 | TAw acc= 94.3%, forg=  1.0%| TAg acc= 79.0%, forg=-11.4% <<<
>>> Test on task  6 : loss=1.401 | TAw acc= 95.9%, forg=  0.0%| TAg acc= 69.7%, forg=  2.5% <<<
>>> Test on task  7 : loss=1.829 | TAw acc= 90.1%, forg=  2.0%| TAg acc= 47.5%, forg=  5.9% <<<
>>> Test on task  8 : loss=1.715 | TAw acc= 98.3%, forg= -5.2%| TAg acc= 60.0%, forg=  7.0% <<<
>>> Test on task  9 : loss=2.070 | TAw acc= 84.7%, forg=  0.0%| TAg acc= 48.0%, forg=  0.0% <<<
Save at eeil_e5_wisdm_1/wisdm_flex_eeil
======
LLL_Net(
  (model): SimpleMLP(
    (fc1): Linear(in_features=91, out_features=1000, bias=True)
    (fc2): Sequential()
  )
  (heads): ModuleList(
    (0): Linear(in_features=1000, out_features=34, bias=True)
    (1): Linear(in_features=1000, out_features=20, bias=True)
    (2): Linear(in_features=1000, out_features=20, bias=True)
    (3): Linear(in_features=1000, out_features=20, bias=True)
    (4): Linear(in_features=1000, out_features=20, bias=True)
    (5): Linear(in_features=1000, out_features=20, bias=True)
    (6): Linear(in_features=1000, out_features=20, bias=True)
    (7): Linear(in_features=1000, out_features=20, bias=True)
    (8): Linear(in_features=1000, out_features=20, bias=True)
    (9): Linear(in_features=1000, out_features=20, bias=True)
  )
)
======

************************************************************************************************************
Task 10
************************************************************************************************************
| Epoch   1, time=  0.7s | Train: skip eval | Valid: time=  0.2s loss=4.312, TAw acc= 46.4% | *
| Epoch   2, time=  0.7s | Train: skip eval | Valid: time=  0.2s loss=2.784, TAw acc= 58.3% | *
…
>>> Test on task  5 : loss=1.416 | TAw acc= 95.2%, forg=  0.0%| TAg acc= 66.7%, forg= 12.4% <<<
>>> Test on task  6 : loss=1.267 | TAw acc= 95.9%, forg=  0.0%| TAg acc= 73.0%, forg= -0.8% <<<
>>> Test on task  7 : loss=1.749 | TAw acc= 92.1%, forg=  0.0%| TAg acc= 53.5%, forg=  0.0% <<<
>>> Test on task  8 : loss=1.585 | TAw acc= 98.3%, forg=  0.0%| TAg acc= 70.4%, forg= -3.5% <<<
>>> Test on task  9 : loss=2.050 | TAw acc= 91.8%, forg= -7.1%| TAg acc= 36.7%, forg= 11.2% <<<
>>> Test on task 10 : loss=1.331 | TAw acc= 95.5%, forg=  0.0%| TAg acc= 73.2%, forg=  0.0% <<<
Save at eeil_e5_wisdm_1/wisdm_flex_eeil
======
LLL_Net(
  (model): SimpleMLP(
    (fc1): Linear(in_features=91, out_features=1000, bias=True)
    (fc2): Sequential()
  )
  (heads): ModuleList(
    (0): Linear(in_features=1000, out_features=34, bias=True)
    (1): Linear(in_features=1000, out_features=20, bias=True)
    (2): Linear(in_features=1000, out_features=20, bias=True)
    (3): Linear(in_features=1000, out_features=20, bias=True)
    (4): Linear(in_features=1000, out_features=20, bias=True)
    (5): Linear(in_features=1000, out_features=20, bias=True)
    (6): Linear(in_features=1000, out_features=20, bias=True)
    (7): Linear(in_features=1000, out_features=20, bias=True)
    (8): Linear(in_features=1000, out_features=20, bias=True)
    (9): Linear(in_features=1000, out_features=20, bias=True)
    (10): Linear(in_features=1000, out_features=20, bias=True)
  )
)
======

************************************************************************************************************
Task 11
************************************************************************************************************
| Epoch   1, time=  0.8s | Train: skip eval | Valid: time=  0.2s loss=4.539, TAw acc= 60.0% | *
| Epoch   2, time=  0.8s | Train: skip eval | Valid: time=  0.2s loss=2.770, TAw acc= 65.9% | *
…
>>> Test on task  6 : loss=1.279 | TAw acc= 95.9%, forg=  0.0%| TAg acc= 66.4%, forg=  6.6% <<<
>>> Test on task  7 : loss=1.671 | TAw acc= 95.0%, forg= -3.0%| TAg acc= 63.4%, forg= -9.9% <<<
>>> Test on task  8 : loss=1.447 | TAw acc= 98.3%, forg=  0.0%| TAg acc= 69.6%, forg=  0.9% <<<
>>> Test on task  9 : loss=1.804 | TAw acc= 96.9%, forg= -5.1%| TAg acc= 44.9%, forg=  3.1% <<<
>>> Test on task 10 : loss=1.529 | TAw acc= 98.2%, forg= -2.7%| TAg acc= 48.2%, forg= 25.0% <<<
>>> Test on task 11 : loss=1.464 | TAw acc= 89.6%, forg=  0.0%| TAg acc= 67.8%, forg=  0.0% <<<
Save at eeil_e5_wisdm_1/wisdm_flex_eeil
======
LLL_Net(
  (model): SimpleMLP(
    (fc1): Linear(in_features=91, out_features=1000, bias=True)
    (fc2): Sequential()
  )
  (heads): ModuleList(
    (0): Linear(in_features=1000, out_features=34, bias=True)
    (1): Linear(in_features=1000, out_features=20, bias=True)
    (2): Linear(in_features=1000, out_features=20, bias=True)
    (3): Linear(in_features=1000, out_features=20, bias=True)
    (4): Linear(in_features=1000, out_features=20, bias=True)
    (5): Linear(in_features=1000, out_features=20, bias=True)
    (6): Linear(in_features=1000, out_features=20, bias=True)
    (7): Linear(in_features=1000, out_features=20, bias=True)
    (8): Linear(in_features=1000, out_features=20, bias=True)
    (9): Linear(in_features=1000, out_features=20, bias=True)
    (10): Linear(in_features=1000, out_features=20, bias=True)
    (11): Linear(in_features=1000, out_features=20, bias=True)
  )
)
======

************************************************************************************************************
Task 12
************************************************************************************************************
| Epoch   1, time=  0.9s | Train: skip eval | Valid: time=  0.2s loss=5.000, TAw acc= 42.5% | *
| Epoch   2, time=  0.9s | Train: skip eval | Valid: time=  0.2s loss=3.122, TAw acc= 58.8% | *
…
>>> Test on task  7 : loss=1.608 | TAw acc= 93.1%, forg=  2.0%| TAg acc= 63.4%, forg=  0.0% <<<
>>> Test on task  8 : loss=1.455 | TAw acc= 97.4%, forg=  0.9%| TAg acc= 68.7%, forg=  1.7% <<<
>>> Test on task  9 : loss=1.737 | TAw acc= 96.9%, forg=  0.0%| TAg acc= 49.0%, forg= -1.0% <<<
>>> Test on task 10 : loss=1.461 | TAw acc= 99.1%, forg= -0.9%| TAg acc= 56.2%, forg= 17.0% <<<
>>> Test on task 11 : loss=1.770 | TAw acc= 88.7%, forg=  0.9%| TAg acc= 45.2%, forg= 22.6% <<<
>>> Test on task 12 : loss=1.588 | TAw acc= 92.7%, forg=  0.0%| TAg acc= 56.9%, forg=  0.0% <<<
Save at eeil_e5_wisdm_1/wisdm_flex_eeil
======
LLL_Net(
  (model): SimpleMLP(
    (fc1): Linear(in_features=91, out_features=1000, bias=True)
    (fc2): Sequential()
  )
  (heads): ModuleList(
    (0): Linear(in_features=1000, out_features=34, bias=True)
    (1): Linear(in_features=1000, out_features=20, bias=True)
    (2): Linear(in_features=1000, out_features=20, bias=True)
    (3): Linear(in_features=1000, out_features=20, bias=True)
    (4): Linear(in_features=1000, out_features=20, bias=True)
    (5): Linear(in_features=1000, out_features=20, bias=True)
    (6): Linear(in_features=1000, out_features=20, bias=True)
    (7): Linear(in_features=1000, out_features=20, bias=True)
    (8): Linear(in_features=1000, out_features=20, bias=True)
    (9): Linear(in_features=1000, out_features=20, bias=True)
    (10): Linear(in_features=1000, out_features=20, bias=True)
    (11): Linear(in_features=1000, out_features=20, bias=True)
    (12): Linear(in_features=1000, out_features=20, bias=True)
  )
)
======

************************************************************************************************************
Task 13
************************************************************************************************************
| Epoch   1, time=  1.0s | Train: skip eval | Valid: time=  0.2s loss=6.208, TAw acc= 20.0% | *
| Epoch   2, time=  0.9s | Train: skip eval | Valid: time=  0.2s loss=4.394, TAw acc= 53.8% | *
…
>>> Test on task  8 : loss=1.380 | TAw acc= 98.3%, forg=  0.0%| TAg acc= 70.4%, forg=  0.0% <<<
>>> Test on task  9 : loss=1.637 | TAw acc= 98.0%, forg= -1.0%| TAg acc= 57.1%, forg= -8.2% <<<
>>> Test on task 10 : loss=1.320 | TAw acc= 99.1%, forg=  0.0%| TAg acc= 67.0%, forg=  6.2% <<<
>>> Test on task 11 : loss=1.563 | TAw acc= 91.3%, forg= -1.7%| TAg acc= 53.0%, forg= 14.8% <<<
>>> Test on task 12 : loss=1.882 | TAw acc= 95.4%, forg= -2.8%| TAg acc= 33.9%, forg= 22.9% <<<
>>> Test on task 13 : loss=1.972 | TAw acc= 79.1%, forg=  0.0%| TAg acc= 44.0%, forg=  0.0% <<<
Save at eeil_e5_wisdm_1/wisdm_flex_eeil
======
LLL_Net(
  (model): SimpleMLP(
    (fc1): Linear(in_features=91, out_features=1000, bias=True)
    (fc2): Sequential()
  )
  (heads): ModuleList(
    (0): Linear(in_features=1000, out_features=34, bias=True)
    (1): Linear(in_features=1000, out_features=20, bias=True)
    (2): Linear(in_features=1000, out_features=20, bias=True)
    (3): Linear(in_features=1000, out_features=20, bias=True)
    (4): Linear(in_features=1000, out_features=20, bias=True)
    (5): Linear(in_features=1000, out_features=20, bias=True)
    (6): Linear(in_features=1000, out_features=20, bias=True)
    (7): Linear(in_features=1000, out_features=20, bias=True)
    (8): Linear(in_features=1000, out_features=20, bias=True)
    (9): Linear(in_features=1000, out_features=20, bias=True)
    (10): Linear(in_features=1000, out_features=20, bias=True)
    (11): Linear(in_features=1000, out_features=20, bias=True)
    (12): Linear(in_features=1000, out_features=20, bias=True)
    (13): Linear(in_features=1000, out_features=20, bias=True)
  )
)
======

************************************************************************************************************
Task 14
************************************************************************************************************
| Epoch   1, time=  1.1s | Train: skip eval | Valid: time=  0.2s loss=4.874, TAw acc= 78.4% | *
| Epoch   2, time=  1.1s | Train: skip eval | Valid: time=  0.2s loss=2.486, TAw acc= 86.4% | *
…
>>> Test on task  9 : loss=1.582 | TAw acc= 94.9%, forg=  3.1%| TAg acc= 58.2%, forg= -1.0% <<<
>>> Test on task 10 : loss=1.337 | TAw acc= 99.1%, forg=  0.0%| TAg acc= 65.2%, forg=  8.0% <<<
>>> Test on task 11 : loss=1.409 | TAw acc= 89.6%, forg=  1.7%| TAg acc= 57.4%, forg= 10.4% <<<
>>> Test on task 12 : loss=1.740 | TAw acc= 94.5%, forg=  0.9%| TAg acc= 52.3%, forg=  4.6% <<<
>>> Test on task 13 : loss=2.074 | TAw acc= 90.1%, forg=-11.0%| TAg acc= 29.7%, forg= 14.3% <<<
>>> Test on task 14 : loss=1.139 | TAw acc= 92.4%, forg=  0.0%| TAg acc= 79.8%, forg=  0.0% <<<
Save at eeil_e5_wisdm_1/wisdm_flex_eeil
======
LLL_Net(
  (model): SimpleMLP(
    (fc1): Linear(in_features=91, out_features=1000, bias=True)
    (fc2): Sequential()
  )
  (heads): ModuleList(
    (0): Linear(in_features=1000, out_features=34, bias=True)
    (1): Linear(in_features=1000, out_features=20, bias=True)
    (2): Linear(in_features=1000, out_features=20, bias=True)
    (3): Linear(in_features=1000, out_features=20, bias=True)
    (4): Linear(in_features=1000, out_features=20, bias=True)
    (5): Linear(in_features=1000, out_features=20, bias=True)
    (6): Linear(in_features=1000, out_features=20, bias=True)
    (7): Linear(in_features=1000, out_features=20, bias=True)
    (8): Linear(in_features=1000, out_features=20, bias=True)
    (9): Linear(in_features=1000, out_features=20, bias=True)
    (10): Linear(in_features=1000, out_features=20, bias=True)
    (11): Linear(in_features=1000, out_features=20, bias=True)
    (12): Linear(in_features=1000, out_features=20, bias=True)
    (13): Linear(in_features=1000, out_features=20, bias=True)
    (14): Linear(in_features=1000, out_features=20, bias=True)
  )
)
======

************************************************************************************************************
Task 15
************************************************************************************************************
| Epoch   1, time=  1.2s | Train: skip eval | Valid: time=  0.2s loss=4.575, TAw acc= 43.6% | *
| Epoch   2, time=  1.2s | Train: skip eval | Valid: time=  0.2s loss=2.805, TAw acc= 66.7% | *
…
>>> Test on task 10 : loss=1.294 | TAw acc= 99.1%, forg=  0.0%| TAg acc= 65.2%, forg=  8.0% <<<
>>> Test on task 11 : loss=1.251 | TAw acc= 89.6%, forg=  1.7%| TAg acc= 67.0%, forg=  0.9% <<<
>>> Test on task 12 : loss=1.690 | TAw acc= 95.4%, forg=  0.0%| TAg acc= 55.0%, forg=  1.8% <<<
>>> Test on task 13 : loss=1.943 | TAw acc= 85.7%, forg=  4.4%| TAg acc= 36.3%, forg=  7.7% <<<
>>> Test on task 14 : loss=1.479 | TAw acc= 92.4%, forg=  0.0%| TAg acc= 49.6%, forg= 30.3% <<<
>>> Test on task 15 : loss=1.413 | TAw acc= 95.3%, forg=  0.0%| TAg acc= 63.2%, forg=  0.0% <<<
Save at eeil_e5_wisdm_1/wisdm_flex_eeil
======
LLL_Net(
  (model): SimpleMLP(
    (fc1): Linear(in_features=91, out_features=1000, bias=True)
    (fc2): Sequential()
  )
  (heads): ModuleList(
    (0): Linear(in_features=1000, out_features=34, bias=True)
    (1): Linear(in_features=1000, out_features=20, bias=True)
    (2): Linear(in_features=1000, out_features=20, bias=True)
    (3): Linear(in_features=1000, out_features=20, bias=True)
    (4): Linear(in_features=1000, out_features=20, bias=True)
    (5): Linear(in_features=1000, out_features=20, bias=True)
    (6): Linear(in_features=1000, out_features=20, bias=True)
    (7): Linear(in_features=1000, out_features=20, bias=True)
    (8): Linear(in_features=1000, out_features=20, bias=True)
    (9): Linear(in_features=1000, out_features=20, bias=True)
    (10): Linear(in_features=1000, out_features=20, bias=True)
    (11): Linear(in_features=1000, out_features=20, bias=True)
    (12): Linear(in_features=1000, out_features=20, bias=True)
    (13): Linear(in_features=1000, out_features=20, bias=True)
    (14): Linear(in_features=1000, out_features=20, bias=True)
    (15): Linear(in_features=1000, out_features=20, bias=True)
  )
)
======

************************************************************************************************************
Task 16
************************************************************************************************************
| Epoch   1, time=  1.3s | Train: skip eval | Valid: time=  0.2s loss=4.788, TAw acc= 46.4% | *
| Epoch   2, time=  1.3s | Train: skip eval | Valid: time=  0.2s loss=2.829, TAw acc= 66.7% | *
…
>>> Test on task 11 : loss=1.242 | TAw acc= 91.3%, forg=  0.0%| TAg acc= 66.1%, forg=  1.7% <<<
>>> Test on task 12 : loss=1.567 | TAw acc= 95.4%, forg=  0.0%| TAg acc= 66.1%, forg= -9.2% <<<
>>> Test on task 13 : loss=1.885 | TAw acc= 87.9%, forg=  2.2%| TAg acc= 37.4%, forg=  6.6% <<<
>>> Test on task 14 : loss=1.415 | TAw acc= 95.0%, forg= -2.5%| TAg acc= 61.3%, forg= 18.5% <<<
>>> Test on task 15 : loss=1.507 | TAw acc= 95.3%, forg=  0.0%| TAg acc= 56.6%, forg=  6.6% <<<
>>> Test on task 16 : loss=1.610 | TAw acc= 87.6%, forg=  0.0%| TAg acc= 74.3%, forg=  0.0% <<<
Save at eeil_e5_wisdm_1/wisdm_flex_eeil
======
LLL_Net(
  (model): SimpleMLP(
    (fc1): Linear(in_features=91, out_features=1000, bias=True)
    (fc2): Sequential()
  )
  (heads): ModuleList(
    (0): Linear(in_features=1000, out_features=34, bias=True)
    (1): Linear(in_features=1000, out_features=20, bias=True)
    (2): Linear(in_features=1000, out_features=20, bias=True)
    (3): Linear(in_features=1000, out_features=20, bias=True)
    (4): Linear(in_features=1000, out_features=20, bias=True)
    (5): Linear(in_features=1000, out_features=20, bias=True)
    (6): Linear(in_features=1000, out_features=20, bias=True)
    (7): Linear(in_features=1000, out_features=20, bias=True)
    (8): Linear(in_features=1000, out_features=20, bias=True)
    (9): Linear(in_features=1000, out_features=20, bias=True)
    (10): Linear(in_features=1000, out_features=20, bias=True)
    (11): Linear(in_features=1000, out_features=20, bias=True)
    (12): Linear(in_features=1000, out_features=20, bias=True)
    (13): Linear(in_features=1000, out_features=20, bias=True)
    (14): Linear(in_features=1000, out_features=20, bias=True)
    (15): Linear(in_features=1000, out_features=20, bias=True)
    (16): Linear(in_features=1000, out_features=20, bias=True)
  )
)
======

************************************************************************************************************
Task 17
************************************************************************************************************
| Epoch   1, time=  1.4s | Train: skip eval | Valid: time=  0.2s loss=5.998, TAw acc= 37.3% | *
| Epoch   2, time=  1.3s | Train: skip eval | Valid: time=  0.3s loss=3.937, TAw acc= 44.0% | *
…
>>> Test on task 12 : loss=1.610 | TAw acc= 94.5%, forg=  0.9%| TAg acc= 59.6%, forg=  6.4% <<<
>>> Test on task 13 : loss=1.828 | TAw acc= 87.9%, forg=  2.2%| TAg acc= 40.7%, forg=  3.3% <<<
>>> Test on task 14 : loss=1.377 | TAw acc= 94.1%, forg=  0.8%| TAg acc= 61.3%, forg= 18.5% <<<
>>> Test on task 15 : loss=1.299 | TAw acc= 97.2%, forg= -1.9%| TAg acc= 61.3%, forg=  1.9% <<<
>>> Test on task 16 : loss=1.940 | TAw acc= 93.8%, forg= -6.2%| TAg acc= 45.1%, forg= 29.2% <<<
>>> Test on task 17 : loss=1.854 | TAw acc= 88.3%, forg=  0.0%| TAg acc= 51.5%, forg=  0.0% <<<
Save at eeil_e5_wisdm_1/wisdm_flex_eeil
======
LLL_Net(
  (model): SimpleMLP(
    (fc1): Linear(in_features=91, out_features=1000, bias=True)
    (fc2): Sequential()
  )
  (heads): ModuleList(
    (0): Linear(in_features=1000, out_features=34, bias=True)
    (1): Linear(in_features=1000, out_features=20, bias=True)
    (2): Linear(in_features=1000, out_features=20, bias=True)
    (3): Linear(in_features=1000, out_features=20, bias=True)
    (4): Linear(in_features=1000, out_features=20, bias=True)
    (5): Linear(in_features=1000, out_features=20, bias=True)
    (6): Linear(in_features=1000, out_features=20, bias=True)
    (7): Linear(in_features=1000, out_features=20, bias=True)
    (8): Linear(in_features=1000, out_features=20, bias=True)
    (9): Linear(in_features=1000, out_features=20, bias=True)
    (10): Linear(in_features=1000, out_features=20, bias=True)
    (11): Linear(in_features=1000, out_features=20, bias=True)
    (12): Linear(in_features=1000, out_features=20, bias=True)
    (13): Linear(in_features=1000, out_features=20, bias=True)
    (14): Linear(in_features=1000, out_features=20, bias=True)
    (15): Linear(in_features=1000, out_features=20, bias=True)
    (16): Linear(in_features=1000, out_features=20, bias=True)
    (17): Linear(in_features=1000, out_features=20, bias=True)
  )
)
======

************************************************************************************************************
Task 18
************************************************************************************************************
| Epoch   1, time=  1.5s | Train: skip eval | Valid: time=  0.2s loss=4.018, TAw acc= 54.8% | *
| Epoch   2, time=  1.5s | Train: skip eval | Valid: time=  0.2s loss=2.620, TAw acc= 77.4% | *
…
>>> Test on task 13 : loss=1.907 | TAw acc= 87.9%, forg=  2.2%| TAg acc= 40.7%, forg=  3.3% <<<
>>> Test on task 14 : loss=1.316 | TAw acc= 91.6%, forg=  3.4%| TAg acc= 66.4%, forg= 13.4% <<<
>>> Test on task 15 : loss=1.330 | TAw acc= 97.2%, forg=  0.0%| TAg acc= 64.2%, forg= -0.9% <<<
>>> Test on task 16 : loss=1.789 | TAw acc= 94.7%, forg= -0.9%| TAg acc= 60.2%, forg= 14.2% <<<
>>> Test on task 17 : loss=2.128 | TAw acc= 98.1%, forg= -9.7%| TAg acc= 30.1%, forg= 21.4% <<<
>>> Test on task 18 : loss=1.247 | TAw acc= 95.6%, forg=  0.0%| TAg acc= 70.8%, forg=  0.0% <<<
Save at eeil_e5_wisdm_1/wisdm_flex_eeil
======
LLL_Net(
  (model): SimpleMLP(
    (fc1): Linear(in_features=91, out_features=1000, bias=True)
    (fc2): Sequential()
  )
  (heads): ModuleList(
    (0): Linear(in_features=1000, out_features=34, bias=True)
    (1): Linear(in_features=1000, out_features=20, bias=True)
    (2): Linear(in_features=1000, out_features=20, bias=True)
    (3): Linear(in_features=1000, out_features=20, bias=True)
    (4): Linear(in_features=1000, out_features=20, bias=True)
    (5): Linear(in_features=1000, out_features=20, bias=True)
    (6): Linear(in_features=1000, out_features=20, bias=True)
    (7): Linear(in_features=1000, out_features=20, bias=True)
    (8): Linear(in_features=1000, out_features=20, bias=True)
    (9): Linear(in_features=1000, out_features=20, bias=True)
    (10): Linear(in_features=1000, out_features=20, bias=True)
    (11): Linear(in_features=1000, out_features=20, bias=True)
    (12): Linear(in_features=1000, out_features=20, bias=True)
    (13): Linear(in_features=1000, out_features=20, bias=True)
    (14): Linear(in_features=1000, out_features=20, bias=True)
    (15): Linear(in_features=1000, out_features=20, bias=True)
    (16): Linear(in_features=1000, out_features=20, bias=True)
    (17): Linear(in_features=1000, out_features=20, bias=True)
    (18): Linear(in_features=1000, out_features=20, bias=True)
  )
)
======

************************************************************************************************************
Task 19
************************************************************************************************************
| Epoch   1, time=  1.7s | Train: skip eval | Valid: time=  0.2s loss=5.110, TAw acc= 51.3% | *
| Epoch   2, time=  1.7s | Train: skip eval | Valid: time=  0.2s loss=2.946, TAw acc= 72.4% | *
…
>>> Test on task 14 : loss=1.254 | TAw acc= 94.1%, forg=  0.8%| TAg acc= 69.7%, forg= 10.1% <<<
>>> Test on task 15 : loss=1.196 | TAw acc= 97.2%, forg=  0.0%| TAg acc= 71.7%, forg= -7.5% <<<
>>> Test on task 16 : loss=1.744 | TAw acc= 94.7%, forg=  0.0%| TAg acc= 61.1%, forg= 13.3% <<<
>>> Test on task 17 : loss=1.780 | TAw acc= 98.1%, forg=  0.0%| TAg acc= 52.4%, forg= -1.0% <<<
>>> Test on task 18 : loss=1.460 | TAw acc= 96.5%, forg= -0.9%| TAg acc= 57.5%, forg= 13.3% <<<
>>> Test on task 19 : loss=1.357 | TAw acc= 96.2%, forg=  0.0%| TAg acc= 71.2%, forg=  0.0% <<<
Save at eeil_e5_wisdm_1/wisdm_flex_eeil
======
LLL_Net(
  (model): SimpleMLP(
    (fc1): Linear(in_features=91, out_features=1000, bias=True)
    (fc2): Sequential()
  )
  (heads): ModuleList(
    (0): Linear(in_features=1000, out_features=34, bias=True)
    (1): Linear(in_features=1000, out_features=20, bias=True)
    (2): Linear(in_features=1000, out_features=20, bias=True)
    (3): Linear(in_features=1000, out_features=20, bias=True)
    (4): Linear(in_features=1000, out_features=20, bias=True)
    (5): Linear(in_features=1000, out_features=20, bias=True)
    (6): Linear(in_features=1000, out_features=20, bias=True)
    (7): Linear(in_features=1000, out_features=20, bias=True)
    (8): Linear(in_features=1000, out_features=20, bias=True)
    (9): Linear(in_features=1000, out_features=20, bias=True)
    (10): Linear(in_features=1000, out_features=20, bias=True)
    (11): Linear(in_features=1000, out_features=20, bias=True)
    (12): Linear(in_features=1000, out_features=20, bias=True)
    (13): Linear(in_features=1000, out_features=20, bias=True)
    (14): Linear(in_features=1000, out_features=20, bias=True)
    (15): Linear(in_features=1000, out_features=20, bias=True)
    (16): Linear(in_features=1000, out_features=20, bias=True)
    (17): Linear(in_features=1000, out_features=20, bias=True)
    (18): Linear(in_features=1000, out_features=20, bias=True)
    (19): Linear(in_features=1000, out_features=20, bias=True)
  )
)
======

************************************************************************************************************
Task 20
************************************************************************************************************
| Epoch   1, time=  1.8s | Train: skip eval | Valid: time=  0.2s loss=4.900, TAw acc= 44.9% | *
| Epoch   2, time=  1.8s | Train: skip eval | Valid: time=  0.2s loss=2.679, TAw acc= 76.4% | *
…
>>> Test on task 15 : loss=1.218 | TAw acc= 97.2%, forg=  0.0%| TAg acc= 73.6%, forg= -1.9% <<<
>>> Test on task 16 : loss=1.565 | TAw acc= 95.6%, forg= -0.9%| TAg acc= 71.7%, forg=  2.7% <<<
>>> Test on task 17 : loss=1.695 | TAw acc= 97.1%, forg=  1.0%| TAg acc= 62.1%, forg= -9.7% <<<
>>> Test on task 18 : loss=1.370 | TAw acc= 96.5%, forg=  0.0%| TAg acc= 61.9%, forg=  8.8% <<<
>>> Test on task 19 : loss=1.522 | TAw acc= 99.0%, forg= -2.9%| TAg acc= 62.5%, forg=  8.7% <<<
>>> Test on task 20 : loss=1.385 | TAw acc= 93.3%, forg=  0.0%| TAg acc= 72.3%, forg=  0.0% <<<
Save at eeil_e5_wisdm_1/wisdm_flex_eeil
======
LLL_Net(
  (model): SimpleMLP(
    (fc1): Linear(in_features=91, out_features=1000, bias=True)
    (fc2): Sequential()
  )
  (heads): ModuleList(
    (0): Linear(in_features=1000, out_features=34, bias=True)
    (1): Linear(in_features=1000, out_features=20, bias=True)
    (2): Linear(in_features=1000, out_features=20, bias=True)
    (3): Linear(in_features=1000, out_features=20, bias=True)
    (4): Linear(in_features=1000, out_features=20, bias=True)
    (5): Linear(in_features=1000, out_features=20, bias=True)
    (6): Linear(in_features=1000, out_features=20, bias=True)
    (7): Linear(in_features=1000, out_features=20, bias=True)
    (8): Linear(in_features=1000, out_features=20, bias=True)
    (9): Linear(in_features=1000, out_features=20, bias=True)
    (10): Linear(in_features=1000, out_features=20, bias=True)
    (11): Linear(in_features=1000, out_features=20, bias=True)
    (12): Linear(in_features=1000, out_features=20, bias=True)
    (13): Linear(in_features=1000, out_features=20, bias=True)
    (14): Linear(in_features=1000, out_features=20, bias=True)
    (15): Linear(in_features=1000, out_features=20, bias=True)
    (16): Linear(in_features=1000, out_features=20, bias=True)
    (17): Linear(in_features=1000, out_features=20, bias=True)
    (18): Linear(in_features=1000, out_features=20, bias=True)
    (19): Linear(in_features=1000, out_features=20, bias=True)
    (20): Linear(in_features=1000, out_features=20, bias=True)
  )
)
======

************************************************************************************************************
Task 21
************************************************************************************************************
| Epoch   1, time=  1.9s | Train: skip eval | Valid: time=  0.2s loss=6.190, TAw acc= 46.8% | *
| Epoch   2, time=  2.0s | Train: skip eval | Valid: time=  0.2s loss=3.054, TAw acc= 77.2% | *
…
>>> Test on task 16 : loss=1.628 | TAw acc= 94.7%, forg=  0.9%| TAg acc= 66.4%, forg=  8.0% <<<
>>> Test on task 17 : loss=1.619 | TAw acc= 97.1%, forg=  1.0%| TAg acc= 56.3%, forg=  5.8% <<<
>>> Test on task 18 : loss=1.256 | TAw acc= 96.5%, forg=  0.0%| TAg acc= 66.4%, forg=  4.4% <<<
>>> Test on task 19 : loss=1.389 | TAw acc= 99.0%, forg=  0.0%| TAg acc= 62.5%, forg=  8.7% <<<
>>> Test on task 20 : loss=1.722 | TAw acc= 94.1%, forg= -0.8%| TAg acc= 52.9%, forg= 19.3% <<<
>>> Test on task 21 : loss=1.383 | TAw acc= 90.7%, forg=  0.0%| TAg acc= 69.2%, forg=  0.0% <<<
Save at eeil_e5_wisdm_1/wisdm_flex_eeil
======
LLL_Net(
  (model): SimpleMLP(
    (fc1): Linear(in_features=91, out_features=1000, bias=True)
    (fc2): Sequential()
  )
  (heads): ModuleList(
    (0): Linear(in_features=1000, out_features=34, bias=True)
    (1): Linear(in_features=1000, out_features=20, bias=True)
    (2): Linear(in_features=1000, out_features=20, bias=True)
    (3): Linear(in_features=1000, out_features=20, bias=True)
    (4): Linear(in_features=1000, out_features=20, bias=True)
    (5): Linear(in_features=1000, out_features=20, bias=True)
    (6): Linear(in_features=1000, out_features=20, bias=True)
    (7): Linear(in_features=1000, out_features=20, bias=True)
    (8): Linear(in_features=1000, out_features=20, bias=True)
    (9): Linear(in_features=1000, out_features=20, bias=True)
    (10): Linear(in_features=1000, out_features=20, bias=True)
    (11): Linear(in_features=1000, out_features=20, bias=True)
    (12): Linear(in_features=1000, out_features=20, bias=True)
    (13): Linear(in_features=1000, out_features=20, bias=True)
    (14): Linear(in_features=1000, out_features=20, bias=True)
    (15): Linear(in_features=1000, out_features=20, bias=True)
    (16): Linear(in_features=1000, out_features=20, bias=True)
    (17): Linear(in_features=1000, out_features=20, bias=True)
    (18): Linear(in_features=1000, out_features=20, bias=True)
    (19): Linear(in_features=1000, out_features=20, bias=True)
    (20): Linear(in_features=1000, out_features=20, bias=True)
    (21): Linear(in_features=1000, out_features=20, bias=True)
  )
)
======

************************************************************************************************************
Task 22
************************************************************************************************************
| Epoch   1, time=  2.0s | Train: skip eval | Valid: time=  0.2s loss=5.552, TAw acc= 51.2% | *
| Epoch   2, time=  2.0s | Train: skip eval | Valid: time=  0.2s loss=2.717, TAw acc= 78.6% | *
…
>>> Test on task 17 : loss=1.491 | TAw acc= 98.1%, forg=  0.0%| TAg acc= 66.0%, forg= -3.9% <<<
>>> Test on task 18 : loss=1.194 | TAw acc= 96.5%, forg=  0.0%| TAg acc= 65.5%, forg=  5.3% <<<
>>> Test on task 19 : loss=1.326 | TAw acc= 99.0%, forg=  0.0%| TAg acc= 69.2%, forg=  1.9% <<<
>>> Test on task 20 : loss=1.667 | TAw acc= 95.8%, forg= -1.7%| TAg acc= 53.8%, forg= 18.5% <<<
>>> Test on task 21 : loss=1.700 | TAw acc= 92.5%, forg= -1.9%| TAg acc= 55.1%, forg= 14.0% <<<
>>> Test on task 22 : loss=1.269 | TAw acc= 97.4%, forg=  0.0%| TAg acc= 71.1%, forg=  0.0% <<<
Save at eeil_e5_wisdm_1/wisdm_flex_eeil
======
LLL_Net(
  (model): SimpleMLP(
    (fc1): Linear(in_features=91, out_features=1000, bias=True)
    (fc2): Sequential()
  )
  (heads): ModuleList(
    (0): Linear(in_features=1000, out_features=34, bias=True)
    (1): Linear(in_features=1000, out_features=20, bias=True)
    (2): Linear(in_features=1000, out_features=20, bias=True)
    (3): Linear(in_features=1000, out_features=20, bias=True)
    (4): Linear(in_features=1000, out_features=20, bias=True)
    (5): Linear(in_features=1000, out_features=20, bias=True)
    (6): Linear(in_features=1000, out_features=20, bias=True)
    (7): Linear(in_features=1000, out_features=20, bias=True)
    (8): Linear(in_features=1000, out_features=20, bias=True)
    (9): Linear(in_features=1000, out_features=20, bias=True)
    (10): Linear(in_features=1000, out_features=20, bias=True)
    (11): Linear(in_features=1000, out_features=20, bias=True)
    (12): Linear(in_features=1000, out_features=20, bias=True)
    (13): Linear(in_features=1000, out_features=20, bias=True)
    (14): Linear(in_features=1000, out_features=20, bias=True)
    (15): Linear(in_features=1000, out_features=20, bias=True)
    (16): Linear(in_features=1000, out_features=20, bias=True)
    (17): Linear(in_features=1000, out_features=20, bias=True)
    (18): Linear(in_features=1000, out_features=20, bias=True)
    (19): Linear(in_features=1000, out_features=20, bias=True)
    (20): Linear(in_features=1000, out_features=20, bias=True)
    (21): Linear(in_features=1000, out_features=20, bias=True)
    (22): Linear(in_features=1000, out_features=20, bias=True)
  )
)
======

************************************************************************************************************
Task 23
************************************************************************************************************
| Epoch   1, time=  2.3s | Train: skip eval | Valid: time=  0.2s loss=4.899, TAw acc= 53.1% | *
| Epoch   2, time=  2.2s | Train: skip eval | Valid: time=  0.2s loss=2.535, TAw acc= 61.7% | *
…
>>> Test on task 18 : loss=1.212 | TAw acc= 96.5%, forg=  0.0%| TAg acc= 69.0%, forg=  1.8% <<<
>>> Test on task 19 : loss=1.202 | TAw acc= 99.0%, forg=  0.0%| TAg acc= 70.2%, forg=  1.0% <<<
>>> Test on task 20 : loss=1.616 | TAw acc= 96.6%, forg= -0.8%| TAg acc= 59.7%, forg= 12.6% <<<
>>> Test on task 21 : loss=1.572 | TAw acc= 92.5%, forg=  0.0%| TAg acc= 64.5%, forg=  4.7% <<<
>>> Test on task 22 : loss=1.565 | TAw acc= 98.2%, forg= -0.9%| TAg acc= 56.1%, forg= 14.9% <<<
>>> Test on task 23 : loss=1.289 | TAw acc= 90.0%, forg=  0.0%| TAg acc= 68.2%, forg=  0.0% <<<
Save at eeil_e5_wisdm_1/wisdm_flex_eeil
======
LLL_Net(
  (model): SimpleMLP(
    (fc1): Linear(in_features=91, out_features=1000, bias=True)
    (fc2): Sequential()
  )
  (heads): ModuleList(
    (0): Linear(in_features=1000, out_features=34, bias=True)
    (1): Linear(in_features=1000, out_features=20, bias=True)
    (2): Linear(in_features=1000, out_features=20, bias=True)
    (3): Linear(in_features=1000, out_features=20, bias=True)
    (4): Linear(in_features=1000, out_features=20, bias=True)
    (5): Linear(in_features=1000, out_features=20, bias=True)
    (6): Linear(in_features=1000, out_features=20, bias=True)
    (7): Linear(in_features=1000, out_features=20, bias=True)
    (8): Linear(in_features=1000, out_features=20, bias=True)
    (9): Linear(in_features=1000, out_features=20, bias=True)
    (10): Linear(in_features=1000, out_features=20, bias=True)
    (11): Linear(in_features=1000, out_features=20, bias=True)
    (12): Linear(in_features=1000, out_features=20, bias=True)
    (13): Linear(in_features=1000, out_features=20, bias=True)
    (14): Linear(in_features=1000, out_features=20, bias=True)
    (15): Linear(in_features=1000, out_features=20, bias=True)
    (16): Linear(in_features=1000, out_features=20, bias=True)
    (17): Linear(in_features=1000, out_features=20, bias=True)
    (18): Linear(in_features=1000, out_features=20, bias=True)
    (19): Linear(in_features=1000, out_features=20, bias=True)
    (20): Linear(in_features=1000, out_features=20, bias=True)
    (21): Linear(in_features=1000, out_features=20, bias=True)
    (22): Linear(in_features=1000, out_features=20, bias=True)
    (23): Linear(in_features=1000, out_features=20, bias=True)
  )
)
======

************************************************************************************************************
Task 24
************************************************************************************************************
| Epoch   1, time=  2.3s | Train: skip eval | Valid: time=  0.2s loss=4.841, TAw acc= 36.9% | *
| Epoch   2, time=  2.4s | Train: skip eval | Valid: time=  0.2s loss=2.909, TAw acc= 70.2% | *
…
>>> Test on task 19 : loss=1.188 | TAw acc= 99.0%, forg=  0.0%| TAg acc= 69.2%, forg=  1.9% <<<
>>> Test on task 20 : loss=1.581 | TAw acc= 96.6%, forg=  0.0%| TAg acc= 58.8%, forg= 13.4% <<<
>>> Test on task 21 : loss=1.501 | TAw acc= 91.6%, forg=  0.9%| TAg acc= 67.3%, forg=  1.9% <<<
>>> Test on task 22 : loss=1.506 | TAw acc= 98.2%, forg=  0.0%| TAg acc= 57.9%, forg= 13.2% <<<
>>> Test on task 23 : loss=1.712 | TAw acc= 98.2%, forg= -8.2%| TAg acc= 47.3%, forg= 20.9% <<<
>>> Test on task 24 : loss=1.499 | TAw acc= 92.0%, forg=  0.0%| TAg acc= 67.3%, forg=  0.0% <<<
Save at eeil_e5_wisdm_1/wisdm_flex_eeil
======
LLL_Net(
  (model): SimpleMLP(
    (fc1): Linear(in_features=91, out_features=1000, bias=True)
    (fc2): Sequential()
  )
  (heads): ModuleList(
    (0): Linear(in_features=1000, out_features=34, bias=True)
    (1): Linear(in_features=1000, out_features=20, bias=True)
    (2): Linear(in_features=1000, out_features=20, bias=True)
    (3): Linear(in_features=1000, out_features=20, bias=True)
    (4): Linear(in_features=1000, out_features=20, bias=True)
    (5): Linear(in_features=1000, out_features=20, bias=True)
    (6): Linear(in_features=1000, out_features=20, bias=True)
    (7): Linear(in_features=1000, out_features=20, bias=True)
    (8): Linear(in_features=1000, out_features=20, bias=True)
    (9): Linear(in_features=1000, out_features=20, bias=True)
    (10): Linear(in_features=1000, out_features=20, bias=True)
    (11): Linear(in_features=1000, out_features=20, bias=True)
    (12): Linear(in_features=1000, out_features=20, bias=True)
    (13): Linear(in_features=1000, out_features=20, bias=True)
    (14): Linear(in_features=1000, out_features=20, bias=True)
    (15): Linear(in_features=1000, out_features=20, bias=True)
    (16): Linear(in_features=1000, out_features=20, bias=True)
    (17): Linear(in_features=1000, out_features=20, bias=True)
    (18): Linear(in_features=1000, out_features=20, bias=True)
    (19): Linear(in_features=1000, out_features=20, bias=True)
    (20): Linear(in_features=1000, out_features=20, bias=True)
    (21): Linear(in_features=1000, out_features=20, bias=True)
    (22): Linear(in_features=1000, out_features=20, bias=True)
    (23): Linear(in_features=1000, out_features=20, bias=True)
    (24): Linear(in_features=1000, out_features=20, bias=True)
  )
)
======

************************************************************************************************************
Task 25
************************************************************************************************************
| Epoch   1, time=  2.6s | Train: skip eval | Valid: time=  0.2s loss=5.677, TAw acc= 39.7% | *
| Epoch   2, time=  2.5s | Train: skip eval | Valid: time=  0.2s loss=3.405, TAw acc= 66.7% | *
…
>>> Test on task 20 : loss=1.518 | TAw acc= 96.6%, forg=  0.0%| TAg acc= 63.9%, forg=  8.4% <<<
>>> Test on task 21 : loss=1.442 | TAw acc= 94.4%, forg= -1.9%| TAg acc= 73.8%, forg= -4.7% <<<
>>> Test on task 22 : loss=1.381 | TAw acc= 98.2%, forg=  0.0%| TAg acc= 62.3%, forg=  8.8% <<<
>>> Test on task 23 : loss=1.597 | TAw acc= 96.4%, forg=  1.8%| TAg acc= 53.6%, forg= 14.5% <<<
>>> Test on task 24 : loss=1.781 | TAw acc= 94.7%, forg= -2.7%| TAg acc= 61.9%, forg=  5.3% <<<
>>> Test on task 25 : loss=1.482 | TAw acc= 96.3%, forg=  0.0%| TAg acc= 59.8%, forg=  0.0% <<<
Save at eeil_e5_wisdm_1/wisdm_flex_eeil
======
LLL_Net(
  (model): SimpleMLP(
    (fc1): Linear(in_features=91, out_features=1000, bias=True)
    (fc2): Sequential()
  )
  (heads): ModuleList(
    (0): Linear(in_features=1000, out_features=34, bias=True)
    (1): Linear(in_features=1000, out_features=20, bias=True)
    (2): Linear(in_features=1000, out_features=20, bias=True)
    (3): Linear(in_features=1000, out_features=20, bias=True)
    (4): Linear(in_features=1000, out_features=20, bias=True)
    (5): Linear(in_features=1000, out_features=20, bias=True)
    (6): Linear(in_features=1000, out_features=20, bias=True)
    (7): Linear(in_features=1000, out_features=20, bias=True)
    (8): Linear(in_features=1000, out_features=20, bias=True)
    (9): Linear(in_features=1000, out_features=20, bias=True)
    (10): Linear(in_features=1000, out_features=20, bias=True)
    (11): Linear(in_features=1000, out_features=20, bias=True)
    (12): Linear(in_features=1000, out_features=20, bias=True)
    (13): Linear(in_features=1000, out_features=20, bias=True)
    (14): Linear(in_features=1000, out_features=20, bias=True)
    (15): Linear(in_features=1000, out_features=20, bias=True)
    (16): Linear(in_features=1000, out_features=20, bias=True)
    (17): Linear(in_features=1000, out_features=20, bias=True)
    (18): Linear(in_features=1000, out_features=20, bias=True)
    (19): Linear(in_features=1000, out_features=20, bias=True)
    (20): Linear(in_features=1000, out_features=20, bias=True)
    (21): Linear(in_features=1000, out_features=20, bias=True)
    (22): Linear(in_features=1000, out_features=20, bias=True)
    (23): Linear(in_features=1000, out_features=20, bias=True)
    (24): Linear(in_features=1000, out_features=20, bias=True)
    (25): Linear(in_features=1000, out_features=20, bias=True)
  )
)
======

************************************************************************************************************
Task 26
************************************************************************************************************
| Epoch   1, time=  2.6s | Train: skip eval | Valid: time=  0.2s loss=5.943, TAw acc= 48.1% | *
| Epoch   2, time=  2.6s | Train: skip eval | Valid: time=  0.2s loss=3.149, TAw acc= 61.7% | *
…
>>> Test on task 21 : loss=1.431 | TAw acc= 92.5%, forg=  1.9%| TAg acc= 73.8%, forg=  0.0% <<<
>>> Test on task 22 : loss=1.346 | TAw acc= 98.2%, forg=  0.0%| TAg acc= 64.0%, forg=  7.0% <<<
>>> Test on task 23 : loss=1.510 | TAw acc= 97.3%, forg=  0.9%| TAg acc= 55.5%, forg= 12.7% <<<
>>> Test on task 24 : loss=1.678 | TAw acc= 92.0%, forg=  2.7%| TAg acc= 67.3%, forg=  0.0% <<<
>>> Test on task 25 : loss=1.740 | TAw acc= 95.3%, forg=  0.9%| TAg acc= 48.6%, forg= 11.2% <<<
>>> Test on task 26 : loss=1.658 | TAw acc= 93.6%, forg=  0.0%| TAg acc= 53.2%, forg=  0.0% <<<
Save at eeil_e5_wisdm_1/wisdm_flex_eeil
======
LLL_Net(
  (model): SimpleMLP(
    (fc1): Linear(in_features=91, out_features=1000, bias=True)
    (fc2): Sequential()
  )
  (heads): ModuleList(
    (0): Linear(in_features=1000, out_features=34, bias=True)
    (1): Linear(in_features=1000, out_features=20, bias=True)
    (2): Linear(in_features=1000, out_features=20, bias=True)
    (3): Linear(in_features=1000, out_features=20, bias=True)
    (4): Linear(in_features=1000, out_features=20, bias=True)
    (5): Linear(in_features=1000, out_features=20, bias=True)
    (6): Linear(in_features=1000, out_features=20, bias=True)
    (7): Linear(in_features=1000, out_features=20, bias=True)
    (8): Linear(in_features=1000, out_features=20, bias=True)
    (9): Linear(in_features=1000, out_features=20, bias=True)
    (10): Linear(in_features=1000, out_features=20, bias=True)
    (11): Linear(in_features=1000, out_features=20, bias=True)
    (12): Linear(in_features=1000, out_features=20, bias=True)
    (13): Linear(in_features=1000, out_features=20, bias=True)
    (14): Linear(in_features=1000, out_features=20, bias=True)
    (15): Linear(in_features=1000, out_features=20, bias=True)
    (16): Linear(in_features=1000, out_features=20, bias=True)
    (17): Linear(in_features=1000, out_features=20, bias=True)
    (18): Linear(in_features=1000, out_features=20, bias=True)
    (19): Linear(in_features=1000, out_features=20, bias=True)
    (20): Linear(in_features=1000, out_features=20, bias=True)
    (21): Linear(in_features=1000, out_features=20, bias=True)
    (22): Linear(in_features=1000, out_features=20, bias=True)
    (23): Linear(in_features=1000, out_features=20, bias=True)
    (24): Linear(in_features=1000, out_features=20, bias=True)
    (25): Linear(in_features=1000, out_features=20, bias=True)
    (26): Linear(in_features=1000, out_features=20, bias=True)
  )
)
======

************************************************************************************************************
Task 27
************************************************************************************************************
| Epoch   1, time=  3.0s | Train: skip eval | Valid: time=  0.2s loss=6.079, TAw acc= 44.0% | *
| Epoch   2, time=  2.9s | Train: skip eval | Valid: time=  0.2s loss=3.541, TAw acc= 52.0% | *
…
>>> Test on task 22 : loss=1.269 | TAw acc= 98.2%, forg=  0.0%| TAg acc= 66.7%, forg=  4.4% <<<
>>> Test on task 23 : loss=1.432 | TAw acc= 97.3%, forg=  0.9%| TAg acc= 68.2%, forg=  0.0% <<<
>>> Test on task 24 : loss=1.547 | TAw acc= 92.9%, forg=  1.8%| TAg acc= 74.3%, forg= -7.1% <<<
>>> Test on task 25 : loss=1.596 | TAw acc= 95.3%, forg=  0.9%| TAg acc= 57.0%, forg=  2.8% <<<
>>> Test on task 26 : loss=2.186 | TAw acc= 95.4%, forg= -1.8%| TAg acc= 35.8%, forg= 17.4% <<<
>>> Test on task 27 : loss=1.319 | TAw acc= 94.2%, forg=  0.0%| TAg acc= 73.8%, forg=  0.0% <<<
Save at eeil_e5_wisdm_1/wisdm_flex_eeil
======
LLL_Net(
  (model): SimpleMLP(
    (fc1): Linear(in_features=91, out_features=1000, bias=True)
    (fc2): Sequential()
  )
  (heads): ModuleList(
    (0): Linear(in_features=1000, out_features=34, bias=True)
    (1): Linear(in_features=1000, out_features=20, bias=True)
    (2): Linear(in_features=1000, out_features=20, bias=True)
    (3): Linear(in_features=1000, out_features=20, bias=True)
    (4): Linear(in_features=1000, out_features=20, bias=True)
    (5): Linear(in_features=1000, out_features=20, bias=True)
    (6): Linear(in_features=1000, out_features=20, bias=True)
    (7): Linear(in_features=1000, out_features=20, bias=True)
    (8): Linear(in_features=1000, out_features=20, bias=True)
    (9): Linear(in_features=1000, out_features=20, bias=True)
    (10): Linear(in_features=1000, out_features=20, bias=True)
    (11): Linear(in_features=1000, out_features=20, bias=True)
    (12): Linear(in_features=1000, out_features=20, bias=True)
    (13): Linear(in_features=1000, out_features=20, bias=True)
    (14): Linear(in_features=1000, out_features=20, bias=True)
    (15): Linear(in_features=1000, out_features=20, bias=True)
    (16): Linear(in_features=1000, out_features=20, bias=True)
    (17): Linear(in_features=1000, out_features=20, bias=True)
    (18): Linear(in_features=1000, out_features=20, bias=True)
    (19): Linear(in_features=1000, out_features=20, bias=True)
    (20): Linear(in_features=1000, out_features=20, bias=True)
    (21): Linear(in_features=1000, out_features=20, bias=True)
    (22): Linear(in_features=1000, out_features=20, bias=True)
    (23): Linear(in_features=1000, out_features=20, bias=True)
    (24): Linear(in_features=1000, out_features=20, bias=True)
    (25): Linear(in_features=1000, out_features=20, bias=True)
    (26): Linear(in_features=1000, out_features=20, bias=True)
    (27): Linear(in_features=1000, out_features=20, bias=True)
  )
)
======

************************************************************************************************************
Task 28
************************************************************************************************************
| Epoch   1, time=  3.1s | Train: skip eval | Valid: time=  0.2s loss=5.779, TAw acc= 51.2% | *
| Epoch   2, time=  3.0s | Train: skip eval | Valid: time=  0.2s loss=3.111, TAw acc= 75.0% | *
…
>>> Test on task 23 : loss=1.356 | TAw acc= 97.3%, forg=  0.9%| TAg acc= 68.2%, forg=  0.0% <<<
>>> Test on task 24 : loss=1.626 | TAw acc= 95.6%, forg= -0.9%| TAg acc= 64.6%, forg=  9.7% <<<
>>> Test on task 25 : loss=1.628 | TAw acc= 97.2%, forg= -0.9%| TAg acc= 56.1%, forg=  3.7% <<<
>>> Test on task 26 : loss=2.160 | TAw acc= 96.3%, forg= -0.9%| TAg acc= 38.5%, forg= 14.7% <<<
>>> Test on task 27 : loss=1.376 | TAw acc= 94.2%, forg=  0.0%| TAg acc= 68.0%, forg=  5.8% <<<
>>> Test on task 28 : loss=1.371 | TAw acc= 95.6%, forg=  0.0%| TAg acc= 63.7%, forg=  0.0% <<<
Save at eeil_e5_wisdm_1/wisdm_flex_eeil
======
LLL_Net(
  (model): SimpleMLP(
    (fc1): Linear(in_features=91, out_features=1000, bias=True)
    (fc2): Sequential()
  )
  (heads): ModuleList(
    (0): Linear(in_features=1000, out_features=34, bias=True)
    (1): Linear(in_features=1000, out_features=20, bias=True)
    (2): Linear(in_features=1000, out_features=20, bias=True)
    (3): Linear(in_features=1000, out_features=20, bias=True)
    (4): Linear(in_features=1000, out_features=20, bias=True)
    (5): Linear(in_features=1000, out_features=20, bias=True)
    (6): Linear(in_features=1000, out_features=20, bias=True)
    (7): Linear(in_features=1000, out_features=20, bias=True)
    (8): Linear(in_features=1000, out_features=20, bias=True)
    (9): Linear(in_features=1000, out_features=20, bias=True)
    (10): Linear(in_features=1000, out_features=20, bias=True)
    (11): Linear(in_features=1000, out_features=20, bias=True)
    (12): Linear(in_features=1000, out_features=20, bias=True)
    (13): Linear(in_features=1000, out_features=20, bias=True)
    (14): Linear(in_features=1000, out_features=20, bias=True)
    (15): Linear(in_features=1000, out_features=20, bias=True)
    (16): Linear(in_features=1000, out_features=20, bias=True)
    (17): Linear(in_features=1000, out_features=20, bias=True)
    (18): Linear(in_features=1000, out_features=20, bias=True)
    (19): Linear(in_features=1000, out_features=20, bias=True)
    (20): Linear(in_features=1000, out_features=20, bias=True)
    (21): Linear(in_features=1000, out_features=20, bias=True)
    (22): Linear(in_features=1000, out_features=20, bias=True)
    (23): Linear(in_features=1000, out_features=20, bias=True)
    (24): Linear(in_features=1000, out_features=20, bias=True)
    (25): Linear(in_features=1000, out_features=20, bias=True)
    (26): Linear(in_features=1000, out_features=20, bias=True)
    (27): Linear(in_features=1000, out_features=20, bias=True)
    (28): Linear(in_features=1000, out_features=20, bias=True)
  )
)
======

************************************************************************************************************
Task 29
************************************************************************************************************
| Epoch   1, time=  3.4s | Train: skip eval | Valid: time=  0.2s loss=5.091, TAw acc= 48.3% | *
| Epoch   2, time=  3.2s | Train: skip eval | Valid: time=  0.2s loss=3.172, TAw acc= 60.7% | *
…
>>> Test on task 24 : loss=1.572 | TAw acc= 95.6%, forg=  0.0%| TAg acc= 66.4%, forg=  8.0% <<<
>>> Test on task 25 : loss=1.520 | TAw acc= 96.3%, forg=  0.9%| TAg acc= 59.8%, forg=  0.0% <<<
>>> Test on task 26 : loss=1.981 | TAw acc= 96.3%, forg=  0.0%| TAg acc= 51.4%, forg=  1.8% <<<
>>> Test on task 27 : loss=1.289 | TAw acc= 95.1%, forg= -1.0%| TAg acc= 72.8%, forg=  1.0% <<<
>>> Test on task 28 : loss=1.756 | TAw acc= 97.3%, forg= -1.8%| TAg acc= 49.6%, forg= 14.2% <<<
>>> Test on task 29 : loss=1.419 | TAw acc= 96.6%, forg=  0.0%| TAg acc= 68.9%, forg=  0.0% <<<
Save at eeil_e5_wisdm_1/wisdm_flex_eeil
======
LLL_Net(
  (model): SimpleMLP(
    (fc1): Linear(in_features=91, out_features=1000, bias=True)
    (fc2): Sequential()
  )
  (heads): ModuleList(
    (0): Linear(in_features=1000, out_features=34, bias=True)
    (1): Linear(in_features=1000, out_features=20, bias=True)
    (2): Linear(in_features=1000, out_features=20, bias=True)
    (3): Linear(in_features=1000, out_features=20, bias=True)
    (4): Linear(in_features=1000, out_features=20, bias=True)
    (5): Linear(in_features=1000, out_features=20, bias=True)
    (6): Linear(in_features=1000, out_features=20, bias=True)
    (7): Linear(in_features=1000, out_features=20, bias=True)
    (8): Linear(in_features=1000, out_features=20, bias=True)
    (9): Linear(in_features=1000, out_features=20, bias=True)
    (10): Linear(in_features=1000, out_features=20, bias=True)
    (11): Linear(in_features=1000, out_features=20, bias=True)
    (12): Linear(in_features=1000, out_features=20, bias=True)
    (13): Linear(in_features=1000, out_features=20, bias=True)
    (14): Linear(in_features=1000, out_features=20, bias=True)
    (15): Linear(in_features=1000, out_features=20, bias=True)
    (16): Linear(in_features=1000, out_features=20, bias=True)
    (17): Linear(in_features=1000, out_features=20, bias=True)
    (18): Linear(in_features=1000, out_features=20, bias=True)
    (19): Linear(in_features=1000, out_features=20, bias=True)
    (20): Linear(in_features=1000, out_features=20, bias=True)
    (21): Linear(in_features=1000, out_features=20, bias=True)
    (22): Linear(in_features=1000, out_features=20, bias=True)
    (23): Linear(in_features=1000, out_features=20, bias=True)
    (24): Linear(in_features=1000, out_features=20, bias=True)
    (25): Linear(in_features=1000, out_features=20, bias=True)
    (26): Linear(in_features=1000, out_features=20, bias=True)
    (27): Linear(in_features=1000, out_features=20, bias=True)
    (28): Linear(in_features=1000, out_features=20, bias=True)
    (29): Linear(in_features=1000, out_features=20, bias=True)
  )
)
======

************************************************************************************************************
Task 30
************************************************************************************************************
| Epoch   1, time=  3.6s | Train: skip eval | Valid: time=  0.2s loss=5.097, TAw acc= 50.6% | *
| Epoch   2, time=  3.4s | Train: skip eval | Valid: time=  0.2s loss=2.751, TAw acc= 72.4% | *
…
>>> Test on task 25 : loss=1.528 | TAw acc= 96.3%, forg=  0.9%| TAg acc= 52.3%, forg=  7.5% <<<
>>> Test on task 26 : loss=1.955 | TAw acc= 94.5%, forg=  1.8%| TAg acc= 52.3%, forg=  0.9% <<<
>>> Test on task 27 : loss=1.170 | TAw acc= 94.2%, forg=  1.0%| TAg acc= 72.8%, forg=  1.0% <<<
>>> Test on task 28 : loss=1.695 | TAw acc= 97.3%, forg=  0.0%| TAg acc= 48.7%, forg= 15.0% <<<
>>> Test on task 29 : loss=1.630 | TAw acc= 97.5%, forg= -0.8%| TAg acc= 60.5%, forg=  8.4% <<<
>>> Test on task 30 : loss=1.161 | TAw acc= 95.7%, forg=  0.0%| TAg acc= 71.6%, forg=  0.0% <<<
Save at eeil_e5_wisdm_1/wisdm_flex_eeil
======
LLL_Net(
  (model): SimpleMLP(
    (fc1): Linear(in_features=91, out_features=1000, bias=True)
    (fc2): Sequential()
  )
  (heads): ModuleList(
    (0): Linear(in_features=1000, out_features=34, bias=True)
    (1): Linear(in_features=1000, out_features=20, bias=True)
    (2): Linear(in_features=1000, out_features=20, bias=True)
    (3): Linear(in_features=1000, out_features=20, bias=True)
    (4): Linear(in_features=1000, out_features=20, bias=True)
    (5): Linear(in_features=1000, out_features=20, bias=True)
    (6): Linear(in_features=1000, out_features=20, bias=True)
    (7): Linear(in_features=1000, out_features=20, bias=True)
    (8): Linear(in_features=1000, out_features=20, bias=True)
    (9): Linear(in_features=1000, out_features=20, bias=True)
    (10): Linear(in_features=1000, out_features=20, bias=True)
    (11): Linear(in_features=1000, out_features=20, bias=True)
    (12): Linear(in_features=1000, out_features=20, bias=True)
    (13): Linear(in_features=1000, out_features=20, bias=True)
    (14): Linear(in_features=1000, out_features=20, bias=True)
    (15): Linear(in_features=1000, out_features=20, bias=True)
    (16): Linear(in_features=1000, out_features=20, bias=True)
    (17): Linear(in_features=1000, out_features=20, bias=True)
    (18): Linear(in_features=1000, out_features=20, bias=True)
    (19): Linear(in_features=1000, out_features=20, bias=True)
    (20): Linear(in_features=1000, out_features=20, bias=True)
    (21): Linear(in_features=1000, out_features=20, bias=True)
    (22): Linear(in_features=1000, out_features=20, bias=True)
    (23): Linear(in_features=1000, out_features=20, bias=True)
    (24): Linear(in_features=1000, out_features=20, bias=True)
    (25): Linear(in_features=1000, out_features=20, bias=True)
    (26): Linear(in_features=1000, out_features=20, bias=True)
    (27): Linear(in_features=1000, out_features=20, bias=True)
    (28): Linear(in_features=1000, out_features=20, bias=True)
    (29): Linear(in_features=1000, out_features=20, bias=True)
    (30): Linear(in_features=1000, out_features=20, bias=True)
  )
)
======

************************************************************************************************************
Task 31
************************************************************************************************************
| Epoch   1, time=  3.6s | Train: skip eval | Valid: time=  0.2s loss=6.757, TAw acc= 46.3% | *
| Epoch   2, time=  3.6s | Train: skip eval | Valid: time=  0.2s loss=3.297, TAw acc= 82.1% | *
…
>>> Test on task 26 : loss=1.870 | TAw acc= 93.6%, forg=  2.8%| TAg acc= 56.9%, forg= -3.7% <<<
>>> Test on task 27 : loss=1.109 | TAw acc= 95.1%, forg=  0.0%| TAg acc= 78.6%, forg= -4.9% <<<
>>> Test on task 28 : loss=1.569 | TAw acc= 97.3%, forg=  0.0%| TAg acc= 56.6%, forg=  7.1% <<<
>>> Test on task 29 : loss=1.471 | TAw acc= 97.5%, forg=  0.0%| TAg acc= 62.2%, forg=  6.7% <<<
>>> Test on task 30 : loss=1.437 | TAw acc= 98.3%, forg= -2.6%| TAg acc= 56.9%, forg= 14.7% <<<
>>> Test on task 31 : loss=1.323 | TAw acc= 94.6%, forg=  0.0%| TAg acc= 67.7%, forg=  0.0% <<<
Save at eeil_e5_wisdm_1/wisdm_flex_eeil
======
LLL_Net(
  (model): SimpleMLP(
    (fc1): Linear(in_features=91, out_features=1000, bias=True)
    (fc2): Sequential()
  )
  (heads): ModuleList(
    (0): Linear(in_features=1000, out_features=34, bias=True)
    (1): Linear(in_features=1000, out_features=20, bias=True)
    (2): Linear(in_features=1000, out_features=20, bias=True)
    (3): Linear(in_features=1000, out_features=20, bias=True)
    (4): Linear(in_features=1000, out_features=20, bias=True)
    (5): Linear(in_features=1000, out_features=20, bias=True)
    (6): Linear(in_features=1000, out_features=20, bias=True)
    (7): Linear(in_features=1000, out_features=20, bias=True)
    (8): Linear(in_features=1000, out_features=20, bias=True)
    (9): Linear(in_features=1000, out_features=20, bias=True)
    (10): Linear(in_features=1000, out_features=20, bias=True)
    (11): Linear(in_features=1000, out_features=20, bias=True)
    (12): Linear(in_features=1000, out_features=20, bias=True)
    (13): Linear(in_features=1000, out_features=20, bias=True)
    (14): Linear(in_features=1000, out_features=20, bias=True)
    (15): Linear(in_features=1000, out_features=20, bias=True)
    (16): Linear(in_features=1000, out_features=20, bias=True)
    (17): Linear(in_features=1000, out_features=20, bias=True)
    (18): Linear(in_features=1000, out_features=20, bias=True)
    (19): Linear(in_features=1000, out_features=20, bias=True)
    (20): Linear(in_features=1000, out_features=20, bias=True)
    (21): Linear(in_features=1000, out_features=20, bias=True)
    (22): Linear(in_features=1000, out_features=20, bias=True)
    (23): Linear(in_features=1000, out_features=20, bias=True)
    (24): Linear(in_features=1000, out_features=20, bias=True)
    (25): Linear(in_features=1000, out_features=20, bias=True)
    (26): Linear(in_features=1000, out_features=20, bias=True)
    (27): Linear(in_features=1000, out_features=20, bias=True)
    (28): Linear(in_features=1000, out_features=20, bias=True)
    (29): Linear(in_features=1000, out_features=20, bias=True)
    (30): Linear(in_features=1000, out_features=20, bias=True)
    (31): Linear(in_features=1000, out_features=20, bias=True)
  )
)
======

************************************************************************************************************
Task 32
************************************************************************************************************
| Epoch   1, time=  3.8s | Train: skip eval | Valid: time=  0.2s loss=5.838, TAw acc= 60.7% | *
| Epoch   2, time=  3.8s | Train: skip eval | Valid: time=  0.2s loss=2.490, TAw acc= 86.5% | *
…
>>> Test on task 27 : loss=1.043 | TAw acc= 95.1%, forg=  0.0%| TAg acc= 77.7%, forg=  1.0% <<<
>>> Test on task 28 : loss=1.611 | TAw acc= 97.3%, forg=  0.0%| TAg acc= 53.1%, forg= 10.6% <<<
>>> Test on task 29 : loss=1.426 | TAw acc= 97.5%, forg=  0.0%| TAg acc= 63.9%, forg=  5.0% <<<
>>> Test on task 30 : loss=1.260 | TAw acc= 98.3%, forg=  0.0%| TAg acc= 71.6%, forg=  0.0% <<<
>>> Test on task 31 : loss=1.589 | TAw acc= 94.6%, forg=  0.0%| TAg acc= 50.5%, forg= 17.2% <<<
>>> Test on task 32 : loss=1.198 | TAw acc= 96.6%, forg=  0.0%| TAg acc= 66.9%, forg=  0.0% <<<
Save at eeil_e5_wisdm_1/wisdm_flex_eeil
======
LLL_Net(
  (model): SimpleMLP(
    (fc1): Linear(in_features=91, out_features=1000, bias=True)
    (fc2): Sequential()
  )
  (heads): ModuleList(
    (0): Linear(in_features=1000, out_features=34, bias=True)
    (1): Linear(in_features=1000, out_features=20, bias=True)
    (2): Linear(in_features=1000, out_features=20, bias=True)
    (3): Linear(in_features=1000, out_features=20, bias=True)
    (4): Linear(in_features=1000, out_features=20, bias=True)
    (5): Linear(in_features=1000, out_features=20, bias=True)
    (6): Linear(in_features=1000, out_features=20, bias=True)
    (7): Linear(in_features=1000, out_features=20, bias=True)
    (8): Linear(in_features=1000, out_features=20, bias=True)
    (9): Linear(in_features=1000, out_features=20, bias=True)
    (10): Linear(in_features=1000, out_features=20, bias=True)
    (11): Linear(in_features=1000, out_features=20, bias=True)
    (12): Linear(in_features=1000, out_features=20, bias=True)
    (13): Linear(in_features=1000, out_features=20, bias=True)
    (14): Linear(in_features=1000, out_features=20, bias=True)
    (15): Linear(in_features=1000, out_features=20, bias=True)
    (16): Linear(in_features=1000, out_features=20, bias=True)
    (17): Linear(in_features=1000, out_features=20, bias=True)
    (18): Linear(in_features=1000, out_features=20, bias=True)
    (19): Linear(in_features=1000, out_features=20, bias=True)
    (20): Linear(in_features=1000, out_features=20, bias=True)
    (21): Linear(in_features=1000, out_features=20, bias=True)
    (22): Linear(in_features=1000, out_features=20, bias=True)
    (23): Linear(in_features=1000, out_features=20, bias=True)
    (24): Linear(in_features=1000, out_features=20, bias=True)
    (25): Linear(in_features=1000, out_features=20, bias=True)
    (26): Linear(in_features=1000, out_features=20, bias=True)
    (27): Linear(in_features=1000, out_features=20, bias=True)
    (28): Linear(in_features=1000, out_features=20, bias=True)
    (29): Linear(in_features=1000, out_features=20, bias=True)
    (30): Linear(in_features=1000, out_features=20, bias=True)
    (31): Linear(in_features=1000, out_features=20, bias=True)
    (32): Linear(in_features=1000, out_features=20, bias=True)
  )
)
======

************************************************************************************************************
Task 33
************************************************************************************************************
| Epoch   1, time=  4.2s | Train: skip eval | Valid: time=  0.2s loss=4.831, TAw acc= 71.9% | *
| Epoch   2, time=  4.0s | Train: skip eval | Valid: time=  0.2s loss=1.729, TAw acc= 92.1% | *
…
>>> Test on task 28 : loss=1.556 | TAw acc= 97.3%, forg=  0.0%| TAg acc= 53.1%, forg= 10.6% <<<
>>> Test on task 29 : loss=1.381 | TAw acc= 97.5%, forg=  0.0%| TAg acc= 62.2%, forg=  6.7% <<<
>>> Test on task 30 : loss=1.215 | TAw acc= 98.3%, forg=  0.0%| TAg acc= 75.9%, forg= -4.3% <<<
>>> Test on task 31 : loss=1.420 | TAw acc= 93.5%, forg=  1.1%| TAg acc= 52.7%, forg= 15.1% <<<
>>> Test on task 32 : loss=1.499 | TAw acc= 94.9%, forg=  1.7%| TAg acc= 56.8%, forg= 10.2% <<<
>>> Test on task 33 : loss=0.912 | TAw acc= 99.2%, forg=  0.0%| TAg acc= 83.9%, forg=  0.0% <<<
Save at eeil_e5_wisdm_1/wisdm_flex_eeil
======
LLL_Net(
  (model): SimpleMLP(
    (fc1): Linear(in_features=91, out_features=1000, bias=True)
    (fc2): Sequential()
  )
  (heads): ModuleList(
    (0): Linear(in_features=1000, out_features=34, bias=True)
    (1): Linear(in_features=1000, out_features=20, bias=True)
    (2): Linear(in_features=1000, out_features=20, bias=True)
    (3): Linear(in_features=1000, out_features=20, bias=True)
    (4): Linear(in_features=1000, out_features=20, bias=True)
    (5): Linear(in_features=1000, out_features=20, bias=True)
    (6): Linear(in_features=1000, out_features=20, bias=True)
    (7): Linear(in_features=1000, out_features=20, bias=True)
    (8): Linear(in_features=1000, out_features=20, bias=True)
    (9): Linear(in_features=1000, out_features=20, bias=True)
    (10): Linear(in_features=1000, out_features=20, bias=True)
    (11): Linear(in_features=1000, out_features=20, bias=True)
    (12): Linear(in_features=1000, out_features=20, bias=True)
    (13): Linear(in_features=1000, out_features=20, bias=True)
    (14): Linear(in_features=1000, out_features=20, bias=True)
    (15): Linear(in_features=1000, out_features=20, bias=True)
    (16): Linear(in_features=1000, out_features=20, bias=True)
    (17): Linear(in_features=1000, out_features=20, bias=True)
    (18): Linear(in_features=1000, out_features=20, bias=True)
    (19): Linear(in_features=1000, out_features=20, bias=True)
    (20): Linear(in_features=1000, out_features=20, bias=True)
    (21): Linear(in_features=1000, out_features=20, bias=True)
    (22): Linear(in_features=1000, out_features=20, bias=True)
    (23): Linear(in_features=1000, out_features=20, bias=True)
    (24): Linear(in_features=1000, out_features=20, bias=True)
    (25): Linear(in_features=1000, out_features=20, bias=True)
    (26): Linear(in_features=1000, out_features=20, bias=True)
    (27): Linear(in_features=1000, out_features=20, bias=True)
    (28): Linear(in_features=1000, out_features=20, bias=True)
    (29): Linear(in_features=1000, out_features=20, bias=True)
    (30): Linear(in_features=1000, out_features=20, bias=True)
    (31): Linear(in_features=1000, out_features=20, bias=True)
    (32): Linear(in_features=1000, out_features=20, bias=True)
    (33): Linear(in_features=1000, out_features=20, bias=True)
  )
)
======

************************************************************************************************************
Task 34
************************************************************************************************************
| Epoch   1, time=  4.3s | Train: skip eval | Valid: time=  0.2s loss=5.130, TAw acc= 58.1% | *
| Epoch   2, time=  4.2s | Train: skip eval | Valid: time=  0.2s loss=2.760, TAw acc= 75.6% | *
…
>>> Test on task 29 : loss=1.434 | TAw acc= 96.6%, forg=  0.8%| TAg acc= 55.5%, forg= 13.4% <<<
>>> Test on task 30 : loss=1.151 | TAw acc= 98.3%, forg=  0.0%| TAg acc= 79.3%, forg= -3.4% <<<
>>> Test on task 31 : loss=1.417 | TAw acc= 96.8%, forg= -2.2%| TAg acc= 60.2%, forg=  7.5% <<<
>>> Test on task 32 : loss=1.537 | TAw acc= 94.9%, forg=  1.7%| TAg acc= 55.1%, forg= 11.9% <<<
>>> Test on task 33 : loss=1.232 | TAw acc= 97.5%, forg=  1.7%| TAg acc= 65.3%, forg= 18.6% <<<
>>> Test on task 34 : loss=1.227 | TAw acc= 94.8%, forg=  0.0%| TAg acc= 70.4%, forg=  0.0% <<<
Save at eeil_e5_wisdm_1/wisdm_flex_eeil
======
LLL_Net(
  (model): SimpleMLP(
    (fc1): Linear(in_features=91, out_features=1000, bias=True)
    (fc2): Sequential()
  )
  (heads): ModuleList(
    (0): Linear(in_features=1000, out_features=34, bias=True)
    (1): Linear(in_features=1000, out_features=20, bias=True)
    (2): Linear(in_features=1000, out_features=20, bias=True)
    (3): Linear(in_features=1000, out_features=20, bias=True)
    (4): Linear(in_features=1000, out_features=20, bias=True)
    (5): Linear(in_features=1000, out_features=20, bias=True)
    (6): Linear(in_features=1000, out_features=20, bias=True)
    (7): Linear(in_features=1000, out_features=20, bias=True)
    (8): Linear(in_features=1000, out_features=20, bias=True)
    (9): Linear(in_features=1000, out_features=20, bias=True)
    (10): Linear(in_features=1000, out_features=20, bias=True)
    (11): Linear(in_features=1000, out_features=20, bias=True)
    (12): Linear(in_features=1000, out_features=20, bias=True)
    (13): Linear(in_features=1000, out_features=20, bias=True)
    (14): Linear(in_features=1000, out_features=20, bias=True)
    (15): Linear(in_features=1000, out_features=20, bias=True)
    (16): Linear(in_features=1000, out_features=20, bias=True)
    (17): Linear(in_features=1000, out_features=20, bias=True)
    (18): Linear(in_features=1000, out_features=20, bias=True)
    (19): Linear(in_features=1000, out_features=20, bias=True)
    (20): Linear(in_features=1000, out_features=20, bias=True)
    (21): Linear(in_features=1000, out_features=20, bias=True)
    (22): Linear(in_features=1000, out_features=20, bias=True)
    (23): Linear(in_features=1000, out_features=20, bias=True)
    (24): Linear(in_features=1000, out_features=20, bias=True)
    (25): Linear(in_features=1000, out_features=20, bias=True)
    (26): Linear(in_features=1000, out_features=20, bias=True)
    (27): Linear(in_features=1000, out_features=20, bias=True)
    (28): Linear(in_features=1000, out_features=20, bias=True)
    (29): Linear(in_features=1000, out_features=20, bias=True)
    (30): Linear(in_features=1000, out_features=20, bias=True)
    (31): Linear(in_features=1000, out_features=20, bias=True)
    (32): Linear(in_features=1000, out_features=20, bias=True)
    (33): Linear(in_features=1000, out_features=20, bias=True)
    (34): Linear(in_features=1000, out_features=20, bias=True)
  )
)
======

************************************************************************************************************
Task 35
************************************************************************************************************
| Epoch   1, time=  4.6s | Train: skip eval | Valid: time=  0.2s loss=5.777, TAw acc= 43.8% | *
| Epoch   2, time=  4.6s | Train: skip eval | Valid: time=  0.2s loss=2.995, TAw acc= 82.5% | *
…
>>> Test on task 30 : loss=1.124 | TAw acc= 98.3%, forg=  0.0%| TAg acc= 79.3%, forg=  0.0% <<<
>>> Test on task 31 : loss=1.413 | TAw acc= 96.8%, forg=  0.0%| TAg acc= 61.3%, forg=  6.5% <<<
>>> Test on task 32 : loss=1.436 | TAw acc= 95.8%, forg=  0.8%| TAg acc= 66.9%, forg=  0.0% <<<
>>> Test on task 33 : loss=1.137 | TAw acc= 97.5%, forg=  1.7%| TAg acc= 70.3%, forg= 13.6% <<<
>>> Test on task 34 : loss=1.572 | TAw acc= 95.7%, forg= -0.9%| TAg acc= 53.9%, forg= 16.5% <<<
>>> Test on task 35 : loss=1.126 | TAw acc= 99.1%, forg=  0.0%| TAg acc= 77.8%, forg=  0.0% <<<
Save at eeil_e5_wisdm_1/wisdm_flex_eeil
======
LLL_Net(
  (model): SimpleMLP(
    (fc1): Linear(in_features=91, out_features=1000, bias=True)
    (fc2): Sequential()
  )
  (heads): ModuleList(
    (0): Linear(in_features=1000, out_features=34, bias=True)
    (1): Linear(in_features=1000, out_features=20, bias=True)
    (2): Linear(in_features=1000, out_features=20, bias=True)
    (3): Linear(in_features=1000, out_features=20, bias=True)
    (4): Linear(in_features=1000, out_features=20, bias=True)
    (5): Linear(in_features=1000, out_features=20, bias=True)
    (6): Linear(in_features=1000, out_features=20, bias=True)
    (7): Linear(in_features=1000, out_features=20, bias=True)
    (8): Linear(in_features=1000, out_features=20, bias=True)
    (9): Linear(in_features=1000, out_features=20, bias=True)
    (10): Linear(in_features=1000, out_features=20, bias=True)
    (11): Linear(in_features=1000, out_features=20, bias=True)
    (12): Linear(in_features=1000, out_features=20, bias=True)
    (13): Linear(in_features=1000, out_features=20, bias=True)
    (14): Linear(in_features=1000, out_features=20, bias=True)
    (15): Linear(in_features=1000, out_features=20, bias=True)
    (16): Linear(in_features=1000, out_features=20, bias=True)
    (17): Linear(in_features=1000, out_features=20, bias=True)
    (18): Linear(in_features=1000, out_features=20, bias=True)
    (19): Linear(in_features=1000, out_features=20, bias=True)
    (20): Linear(in_features=1000, out_features=20, bias=True)
    (21): Linear(in_features=1000, out_features=20, bias=True)
    (22): Linear(in_features=1000, out_features=20, bias=True)
    (23): Linear(in_features=1000, out_features=20, bias=True)
    (24): Linear(in_features=1000, out_features=20, bias=True)
    (25): Linear(in_features=1000, out_features=20, bias=True)
    (26): Linear(in_features=1000, out_features=20, bias=True)
    (27): Linear(in_features=1000, out_features=20, bias=True)
    (28): Linear(in_features=1000, out_features=20, bias=True)
    (29): Linear(in_features=1000, out_features=20, bias=True)
    (30): Linear(in_features=1000, out_features=20, bias=True)
    (31): Linear(in_features=1000, out_features=20, bias=True)
    (32): Linear(in_features=1000, out_features=20, bias=True)
    (33): Linear(in_features=1000, out_features=20, bias=True)
    (34): Linear(in_features=1000, out_features=20, bias=True)
    (35): Linear(in_features=1000, out_features=20, bias=True)
  )
)
======

************************************************************************************************************
Task 36
************************************************************************************************************
| Epoch   1, time=  4.6s | Train: skip eval | Valid: time=  0.2s loss=6.682, TAw acc= 35.5% | *
| Epoch   2, time=  4.5s | Train: skip eval | Valid: time=  0.3s loss=3.509, TAw acc= 75.0% | *
…
>>> Test on task 31 : loss=1.365 | TAw acc= 96.8%, forg=  0.0%| TAg acc= 65.6%, forg=  2.2% <<<
>>> Test on task 32 : loss=1.397 | TAw acc= 95.8%, forg=  0.8%| TAg acc= 63.6%, forg=  3.4% <<<
>>> Test on task 33 : loss=1.083 | TAw acc= 96.6%, forg=  2.5%| TAg acc= 69.5%, forg= 14.4% <<<
>>> Test on task 34 : loss=1.395 | TAw acc= 95.7%, forg=  0.0%| TAg acc= 66.1%, forg=  4.3% <<<
>>> Test on task 35 : loss=1.588 | TAw acc=100.0%, forg= -0.9%| TAg acc= 46.3%, forg= 31.5% <<<
>>> Test on task 36 : loss=1.424 | TAw acc= 92.4%, forg=  0.0%| TAg acc= 58.1%, forg=  0.0% <<<
Save at eeil_e5_wisdm_1/wisdm_flex_eeil
======
LLL_Net(
  (model): SimpleMLP(
    (fc1): Linear(in_features=91, out_features=1000, bias=True)
    (fc2): Sequential()
  )
  (heads): ModuleList(
    (0): Linear(in_features=1000, out_features=34, bias=True)
    (1): Linear(in_features=1000, out_features=20, bias=True)
    (2): Linear(in_features=1000, out_features=20, bias=True)
    (3): Linear(in_features=1000, out_features=20, bias=True)
    (4): Linear(in_features=1000, out_features=20, bias=True)
    (5): Linear(in_features=1000, out_features=20, bias=True)
    (6): Linear(in_features=1000, out_features=20, bias=True)
    (7): Linear(in_features=1000, out_features=20, bias=True)
    (8): Linear(in_features=1000, out_features=20, bias=True)
    (9): Linear(in_features=1000, out_features=20, bias=True)
    (10): Linear(in_features=1000, out_features=20, bias=True)
    (11): Linear(in_features=1000, out_features=20, bias=True)
    (12): Linear(in_features=1000, out_features=20, bias=True)
    (13): Linear(in_features=1000, out_features=20, bias=True)
    (14): Linear(in_features=1000, out_features=20, bias=True)
    (15): Linear(in_features=1000, out_features=20, bias=True)
    (16): Linear(in_features=1000, out_features=20, bias=True)
    (17): Linear(in_features=1000, out_features=20, bias=True)
    (18): Linear(in_features=1000, out_features=20, bias=True)
    (19): Linear(in_features=1000, out_features=20, bias=True)
    (20): Linear(in_features=1000, out_features=20, bias=True)
    (21): Linear(in_features=1000, out_features=20, bias=True)
    (22): Linear(in_features=1000, out_features=20, bias=True)
    (23): Linear(in_features=1000, out_features=20, bias=True)
    (24): Linear(in_features=1000, out_features=20, bias=True)
    (25): Linear(in_features=1000, out_features=20, bias=True)
    (26): Linear(in_features=1000, out_features=20, bias=True)
    (27): Linear(in_features=1000, out_features=20, bias=True)
    (28): Linear(in_features=1000, out_features=20, bias=True)
    (29): Linear(in_features=1000, out_features=20, bias=True)
    (30): Linear(in_features=1000, out_features=20, bias=True)
    (31): Linear(in_features=1000, out_features=20, bias=True)
    (32): Linear(in_features=1000, out_features=20, bias=True)
    (33): Linear(in_features=1000, out_features=20, bias=True)
    (34): Linear(in_features=1000, out_features=20, bias=True)
    (35): Linear(in_features=1000, out_features=20, bias=True)
    (36): Linear(in_features=1000, out_features=20, bias=True)
  )
)
======

************************************************************************************************************
Task 37
************************************************************************************************************
| Epoch   1, time=  4.9s | Train: skip eval | Valid: time=  0.2s loss=6.579, TAw acc= 57.5% | *
| Epoch   2, time=  5.0s | Train: skip eval | Valid: time=  0.2s loss=3.095, TAw acc= 76.2% | *
…
>>> Test on task 32 : loss=1.399 | TAw acc= 94.9%, forg=  1.7%| TAg acc= 66.1%, forg=  0.8% <<<
>>> Test on task 33 : loss=1.044 | TAw acc= 96.6%, forg=  2.5%| TAg acc= 72.0%, forg= 11.9% <<<
>>> Test on task 34 : loss=1.332 | TAw acc= 95.7%, forg=  0.0%| TAg acc= 66.1%, forg=  4.3% <<<
>>> Test on task 35 : loss=1.506 | TAw acc= 99.1%, forg=  0.9%| TAg acc= 51.9%, forg= 25.9% <<<
>>> Test on task 36 : loss=1.757 | TAw acc= 89.5%, forg=  2.9%| TAg acc= 39.0%, forg= 19.0% <<<
>>> Test on task 37 : loss=1.300 | TAw acc= 95.4%, forg=  0.0%| TAg acc= 65.1%, forg=  0.0% <<<
Save at eeil_e5_wisdm_1/wisdm_flex_eeil
======
LLL_Net(
  (model): SimpleMLP(
    (fc1): Linear(in_features=91, out_features=1000, bias=True)
    (fc2): Sequential()
  )
  (heads): ModuleList(
    (0): Linear(in_features=1000, out_features=34, bias=True)
    (1): Linear(in_features=1000, out_features=20, bias=True)
    (2): Linear(in_features=1000, out_features=20, bias=True)
    (3): Linear(in_features=1000, out_features=20, bias=True)
    (4): Linear(in_features=1000, out_features=20, bias=True)
    (5): Linear(in_features=1000, out_features=20, bias=True)
    (6): Linear(in_features=1000, out_features=20, bias=True)
    (7): Linear(in_features=1000, out_features=20, bias=True)
    (8): Linear(in_features=1000, out_features=20, bias=True)
    (9): Linear(in_features=1000, out_features=20, bias=True)
    (10): Linear(in_features=1000, out_features=20, bias=True)
    (11): Linear(in_features=1000, out_features=20, bias=True)
    (12): Linear(in_features=1000, out_features=20, bias=True)
    (13): Linear(in_features=1000, out_features=20, bias=True)
    (14): Linear(in_features=1000, out_features=20, bias=True)
    (15): Linear(in_features=1000, out_features=20, bias=True)
    (16): Linear(in_features=1000, out_features=20, bias=True)
    (17): Linear(in_features=1000, out_features=20, bias=True)
    (18): Linear(in_features=1000, out_features=20, bias=True)
    (19): Linear(in_features=1000, out_features=20, bias=True)
    (20): Linear(in_features=1000, out_features=20, bias=True)
    (21): Linear(in_features=1000, out_features=20, bias=True)
    (22): Linear(in_features=1000, out_features=20, bias=True)
    (23): Linear(in_features=1000, out_features=20, bias=True)
    (24): Linear(in_features=1000, out_features=20, bias=True)
    (25): Linear(in_features=1000, out_features=20, bias=True)
    (26): Linear(in_features=1000, out_features=20, bias=True)
    (27): Linear(in_features=1000, out_features=20, bias=True)
    (28): Linear(in_features=1000, out_features=20, bias=True)
    (29): Linear(in_features=1000, out_features=20, bias=True)
    (30): Linear(in_features=1000, out_features=20, bias=True)
    (31): Linear(in_features=1000, out_features=20, bias=True)
    (32): Linear(in_features=1000, out_features=20, bias=True)
    (33): Linear(in_features=1000, out_features=20, bias=True)
    (34): Linear(in_features=1000, out_features=20, bias=True)
    (35): Linear(in_features=1000, out_features=20, bias=True)
    (36): Linear(in_features=1000, out_features=20, bias=True)
    (37): Linear(in_features=1000, out_features=20, bias=True)
  )
)
======

************************************************************************************************************
Task 38
************************************************************************************************************
| Epoch   1, time=  5.4s | Train: skip eval | Valid: time=  0.2s loss=4.723, TAw acc= 56.4% | *
| Epoch   2, time=  5.3s | Train: skip eval | Valid: time=  0.2s loss=1.850, TAw acc= 80.9% | *
…
>>> Test on task 33 : loss=1.020 | TAw acc= 97.5%, forg=  1.7%| TAg acc= 72.9%, forg= 11.0% <<<
>>> Test on task 34 : loss=1.361 | TAw acc= 96.5%, forg= -0.9%| TAg acc= 59.1%, forg= 11.3% <<<
>>> Test on task 35 : loss=1.456 | TAw acc=100.0%, forg=  0.0%| TAg acc= 50.9%, forg= 26.9% <<<
>>> Test on task 36 : loss=1.721 | TAw acc= 89.5%, forg=  2.9%| TAg acc= 42.9%, forg= 15.2% <<<
>>> Test on task 37 : loss=1.554 | TAw acc= 97.2%, forg= -1.8%| TAg acc= 52.3%, forg= 12.8% <<<
>>> Test on task 38 : loss=1.124 | TAw acc= 94.4%, forg=  0.0%| TAg acc= 71.8%, forg=  0.0% <<<
Save at eeil_e5_wisdm_1/wisdm_flex_eeil
======
LLL_Net(
  (model): SimpleMLP(
    (fc1): Linear(in_features=91, out_features=1000, bias=True)
    (fc2): Sequential()
  )
  (heads): ModuleList(
    (0): Linear(in_features=1000, out_features=34, bias=True)
    (1): Linear(in_features=1000, out_features=20, bias=True)
    (2): Linear(in_features=1000, out_features=20, bias=True)
    (3): Linear(in_features=1000, out_features=20, bias=True)
    (4): Linear(in_features=1000, out_features=20, bias=True)
    (5): Linear(in_features=1000, out_features=20, bias=True)
    (6): Linear(in_features=1000, out_features=20, bias=True)
    (7): Linear(in_features=1000, out_features=20, bias=True)
    (8): Linear(in_features=1000, out_features=20, bias=True)
    (9): Linear(in_features=1000, out_features=20, bias=True)
    (10): Linear(in_features=1000, out_features=20, bias=True)
    (11): Linear(in_features=1000, out_features=20, bias=True)
    (12): Linear(in_features=1000, out_features=20, bias=True)
    (13): Linear(in_features=1000, out_features=20, bias=True)
    (14): Linear(in_features=1000, out_features=20, bias=True)
    (15): Linear(in_features=1000, out_features=20, bias=True)
    (16): Linear(in_features=1000, out_features=20, bias=True)
    (17): Linear(in_features=1000, out_features=20, bias=True)
    (18): Linear(in_features=1000, out_features=20, bias=True)
    (19): Linear(in_features=1000, out_features=20, bias=True)
    (20): Linear(in_features=1000, out_features=20, bias=True)
    (21): Linear(in_features=1000, out_features=20, bias=True)
    (22): Linear(in_features=1000, out_features=20, bias=True)
    (23): Linear(in_features=1000, out_features=20, bias=True)
    (24): Linear(in_features=1000, out_features=20, bias=True)
    (25): Linear(in_features=1000, out_features=20, bias=True)
    (26): Linear(in_features=1000, out_features=20, bias=True)
    (27): Linear(in_features=1000, out_features=20, bias=True)
    (28): Linear(in_features=1000, out_features=20, bias=True)
    (29): Linear(in_features=1000, out_features=20, bias=True)
    (30): Linear(in_features=1000, out_features=20, bias=True)
    (31): Linear(in_features=1000, out_features=20, bias=True)
    (32): Linear(in_features=1000, out_features=20, bias=True)
    (33): Linear(in_features=1000, out_features=20, bias=True)
    (34): Linear(in_features=1000, out_features=20, bias=True)
    (35): Linear(in_features=1000, out_features=20, bias=True)
    (36): Linear(in_features=1000, out_features=20, bias=True)
    (37): Linear(in_features=1000, out_features=20, bias=True)
    (38): Linear(in_features=1000, out_features=20, bias=True)
  )
)
======

************************************************************************************************************
Task 39
************************************************************************************************************
| Epoch   1, time=  5.4s | Train: skip eval | Valid: time=  0.2s loss=5.868, TAw acc= 48.1% | *
| Epoch   2, time=  5.5s | Train: skip eval | Valid: time=  0.2s loss=2.664, TAw acc= 79.7% | *
…
>>> Test on task 34 : loss=1.347 | TAw acc= 97.4%, forg= -0.9%| TAg acc= 62.6%, forg=  7.8% <<<
>>> Test on task 35 : loss=1.404 | TAw acc=100.0%, forg=  0.0%| TAg acc= 55.6%, forg= 22.2% <<<
>>> Test on task 36 : loss=1.625 | TAw acc= 91.4%, forg=  1.0%| TAg acc= 51.4%, forg=  6.7% <<<
>>> Test on task 37 : loss=1.306 | TAw acc= 97.2%, forg=  0.0%| TAg acc= 67.0%, forg= -1.8% <<<
>>> Test on task 38 : loss=1.487 | TAw acc= 97.6%, forg= -3.2%| TAg acc= 58.1%, forg= 13.7% <<<
>>> Test on task 39 : loss=1.221 | TAw acc= 97.2%, forg=  0.0%| TAg acc= 75.0%, forg=  0.0% <<<
Save at eeil_e5_wisdm_1/wisdm_flex_eeil
======
LLL_Net(
  (model): SimpleMLP(
    (fc1): Linear(in_features=91, out_features=1000, bias=True)
    (fc2): Sequential()
  )
  (heads): ModuleList(
    (0): Linear(in_features=1000, out_features=34, bias=True)
    (1): Linear(in_features=1000, out_features=20, bias=True)
    (2): Linear(in_features=1000, out_features=20, bias=True)
    (3): Linear(in_features=1000, out_features=20, bias=True)
    (4): Linear(in_features=1000, out_features=20, bias=True)
    (5): Linear(in_features=1000, out_features=20, bias=True)
    (6): Linear(in_features=1000, out_features=20, bias=True)
    (7): Linear(in_features=1000, out_features=20, bias=True)
    (8): Linear(in_features=1000, out_features=20, bias=True)
    (9): Linear(in_features=1000, out_features=20, bias=True)
    (10): Linear(in_features=1000, out_features=20, bias=True)
    (11): Linear(in_features=1000, out_features=20, bias=True)
    (12): Linear(in_features=1000, out_features=20, bias=True)
    (13): Linear(in_features=1000, out_features=20, bias=True)
    (14): Linear(in_features=1000, out_features=20, bias=True)
    (15): Linear(in_features=1000, out_features=20, bias=True)
    (16): Linear(in_features=1000, out_features=20, bias=True)
    (17): Linear(in_features=1000, out_features=20, bias=True)
    (18): Linear(in_features=1000, out_features=20, bias=True)
    (19): Linear(in_features=1000, out_features=20, bias=True)
    (20): Linear(in_features=1000, out_features=20, bias=True)
    (21): Linear(in_features=1000, out_features=20, bias=True)
    (22): Linear(in_features=1000, out_features=20, bias=True)
    (23): Linear(in_features=1000, out_features=20, bias=True)
    (24): Linear(in_features=1000, out_features=20, bias=True)
    (25): Linear(in_features=1000, out_features=20, bias=True)
    (26): Linear(in_features=1000, out_features=20, bias=True)
    (27): Linear(in_features=1000, out_features=20, bias=True)
    (28): Linear(in_features=1000, out_features=20, bias=True)
    (29): Linear(in_features=1000, out_features=20, bias=True)
    (30): Linear(in_features=1000, out_features=20, bias=True)
    (31): Linear(in_features=1000, out_features=20, bias=True)
    (32): Linear(in_features=1000, out_features=20, bias=True)
    (33): Linear(in_features=1000, out_features=20, bias=True)
    (34): Linear(in_features=1000, out_features=20, bias=True)
    (35): Linear(in_features=1000, out_features=20, bias=True)
    (36): Linear(in_features=1000, out_features=20, bias=True)
    (37): Linear(in_features=1000, out_features=20, bias=True)
    (38): Linear(in_features=1000, out_features=20, bias=True)
    (39): Linear(in_features=1000, out_features=20, bias=True)
  )
)
======

************************************************************************************************************
Task 40
************************************************************************************************************
| Epoch   1, time=  5.6s | Train: skip eval | Valid: time=  0.2s loss=5.902, TAw acc= 43.4% | *
| Epoch   2, time=  5.6s | Train: skip eval | Valid: time=  0.2s loss=2.926, TAw acc= 68.4% | *
…
>>> Test on task 35 : loss=1.371 | TAw acc=100.0%, forg=  0.0%| TAg acc= 58.3%, forg= 19.4% <<<
>>> Test on task 36 : loss=1.638 | TAw acc= 91.4%, forg=  1.0%| TAg acc= 49.5%, forg=  8.6% <<<
>>> Test on task 37 : loss=1.299 | TAw acc= 97.2%, forg=  0.0%| TAg acc= 69.7%, forg= -2.8% <<<
>>> Test on task 38 : loss=1.438 | TAw acc= 98.4%, forg= -0.8%| TAg acc= 58.1%, forg= 13.7% <<<
>>> Test on task 39 : loss=1.473 | TAw acc= 96.3%, forg=  0.9%| TAg acc= 61.1%, forg= 13.9% <<<
>>> Test on task 40 : loss=1.463 | TAw acc= 96.2%, forg=  0.0%| TAg acc= 59.6%, forg=  0.0% <<<
Save at eeil_e5_wisdm_1/wisdm_flex_eeil
======
LLL_Net(
  (model): SimpleMLP(
    (fc1): Linear(in_features=91, out_features=1000, bias=True)
    (fc2): Sequential()
  )
  (heads): ModuleList(
    (0): Linear(in_features=1000, out_features=34, bias=True)
    (1): Linear(in_features=1000, out_features=20, bias=True)
    (2): Linear(in_features=1000, out_features=20, bias=True)
    (3): Linear(in_features=1000, out_features=20, bias=True)
    (4): Linear(in_features=1000, out_features=20, bias=True)
    (5): Linear(in_features=1000, out_features=20, bias=True)
    (6): Linear(in_features=1000, out_features=20, bias=True)
    (7): Linear(in_features=1000, out_features=20, bias=True)
    (8): Linear(in_features=1000, out_features=20, bias=True)
    (9): Linear(in_features=1000, out_features=20, bias=True)
    (10): Linear(in_features=1000, out_features=20, bias=True)
    (11): Linear(in_features=1000, out_features=20, bias=True)
    (12): Linear(in_features=1000, out_features=20, bias=True)
    (13): Linear(in_features=1000, out_features=20, bias=True)
    (14): Linear(in_features=1000, out_features=20, bias=True)
    (15): Linear(in_features=1000, out_features=20, bias=True)
    (16): Linear(in_features=1000, out_features=20, bias=True)
    (17): Linear(in_features=1000, out_features=20, bias=True)
    (18): Linear(in_features=1000, out_features=20, bias=True)
    (19): Linear(in_features=1000, out_features=20, bias=True)
    (20): Linear(in_features=1000, out_features=20, bias=True)
    (21): Linear(in_features=1000, out_features=20, bias=True)
    (22): Linear(in_features=1000, out_features=20, bias=True)
    (23): Linear(in_features=1000, out_features=20, bias=True)
    (24): Linear(in_features=1000, out_features=20, bias=True)
    (25): Linear(in_features=1000, out_features=20, bias=True)
    (26): Linear(in_features=1000, out_features=20, bias=True)
    (27): Linear(in_features=1000, out_features=20, bias=True)
    (28): Linear(in_features=1000, out_features=20, bias=True)
    (29): Linear(in_features=1000, out_features=20, bias=True)
    (30): Linear(in_features=1000, out_features=20, bias=True)
    (31): Linear(in_features=1000, out_features=20, bias=True)
    (32): Linear(in_features=1000, out_features=20, bias=True)
    (33): Linear(in_features=1000, out_features=20, bias=True)
    (34): Linear(in_features=1000, out_features=20, bias=True)
    (35): Linear(in_features=1000, out_features=20, bias=True)
    (36): Linear(in_features=1000, out_features=20, bias=True)
    (37): Linear(in_features=1000, out_features=20, bias=True)
    (38): Linear(in_features=1000, out_features=20, bias=True)
    (39): Linear(in_features=1000, out_features=20, bias=True)
    (40): Linear(in_features=1000, out_features=20, bias=True)
  )
)
======

************************************************************************************************************
Task 41
************************************************************************************************************
| Epoch   1, time=  5.6s | Train: skip eval | Valid: time=  0.2s loss=6.594, TAw acc= 36.6% | *
| Epoch   2, time=  5.9s | Train: skip eval | Valid: time=  0.2s loss=3.142, TAw acc= 83.1% | *
…
>>> Test on task 36 : loss=1.552 | TAw acc= 90.5%, forg=  1.9%| TAg acc= 59.0%, forg= -1.0% <<<
>>> Test on task 37 : loss=1.190 | TAw acc= 98.2%, forg= -0.9%| TAg acc= 73.4%, forg= -3.7% <<<
>>> Test on task 38 : loss=1.407 | TAw acc= 97.6%, forg=  0.8%| TAg acc= 62.1%, forg=  9.7% <<<
>>> Test on task 39 : loss=1.431 | TAw acc= 96.3%, forg=  0.9%| TAg acc= 68.5%, forg=  6.5% <<<
>>> Test on task 40 : loss=1.745 | TAw acc= 96.2%, forg=  0.0%| TAg acc= 52.9%, forg=  6.7% <<<
>>> Test on task 41 : loss=1.658 | TAw acc= 96.0%, forg=  0.0%| TAg acc= 51.5%, forg=  0.0% <<<
Save at eeil_e5_wisdm_1/wisdm_flex_eeil
======
LLL_Net(
  (model): SimpleMLP(
    (fc1): Linear(in_features=91, out_features=1000, bias=True)
    (fc2): Sequential()
  )
  (heads): ModuleList(
    (0): Linear(in_features=1000, out_features=34, bias=True)
    (1): Linear(in_features=1000, out_features=20, bias=True)
    (2): Linear(in_features=1000, out_features=20, bias=True)
    (3): Linear(in_features=1000, out_features=20, bias=True)
    (4): Linear(in_features=1000, out_features=20, bias=True)
    (5): Linear(in_features=1000, out_features=20, bias=True)
    (6): Linear(in_features=1000, out_features=20, bias=True)
    (7): Linear(in_features=1000, out_features=20, bias=True)
    (8): Linear(in_features=1000, out_features=20, bias=True)
    (9): Linear(in_features=1000, out_features=20, bias=True)
    (10): Linear(in_features=1000, out_features=20, bias=True)
    (11): Linear(in_features=1000, out_features=20, bias=True)
    (12): Linear(in_features=1000, out_features=20, bias=True)
    (13): Linear(in_features=1000, out_features=20, bias=True)
    (14): Linear(in_features=1000, out_features=20, bias=True)
    (15): Linear(in_features=1000, out_features=20, bias=True)
    (16): Linear(in_features=1000, out_features=20, bias=True)
    (17): Linear(in_features=1000, out_features=20, bias=True)
    (18): Linear(in_features=1000, out_features=20, bias=True)
    (19): Linear(in_features=1000, out_features=20, bias=True)
    (20): Linear(in_features=1000, out_features=20, bias=True)
    (21): Linear(in_features=1000, out_features=20, bias=True)
    (22): Linear(in_features=1000, out_features=20, bias=True)
    (23): Linear(in_features=1000, out_features=20, bias=True)
    (24): Linear(in_features=1000, out_features=20, bias=True)
    (25): Linear(in_features=1000, out_features=20, bias=True)
    (26): Linear(in_features=1000, out_features=20, bias=True)
    (27): Linear(in_features=1000, out_features=20, bias=True)
    (28): Linear(in_features=1000, out_features=20, bias=True)
    (29): Linear(in_features=1000, out_features=20, bias=True)
    (30): Linear(in_features=1000, out_features=20, bias=True)
    (31): Linear(in_features=1000, out_features=20, bias=True)
    (32): Linear(in_features=1000, out_features=20, bias=True)
    (33): Linear(in_features=1000, out_features=20, bias=True)
    (34): Linear(in_features=1000, out_features=20, bias=True)
    (35): Linear(in_features=1000, out_features=20, bias=True)
    (36): Linear(in_features=1000, out_features=20, bias=True)
    (37): Linear(in_features=1000, out_features=20, bias=True)
    (38): Linear(in_features=1000, out_features=20, bias=True)
    (39): Linear(in_features=1000, out_features=20, bias=True)
    (40): Linear(in_features=1000, out_features=20, bias=True)
    (41): Linear(in_features=1000, out_features=20, bias=True)
  )
)
======

************************************************************************************************************
Task 42
************************************************************************************************************
| Epoch   1, time=  6.3s | Train: skip eval | Valid: time=  0.2s loss=4.284, TAw acc= 80.2% | *
| Epoch   2, time=  6.2s | Train: skip eval | Valid: time=  0.2s loss=1.739, TAw acc= 88.5% | *
…
>>> Test on task 37 : loss=1.174 | TAw acc= 98.2%, forg=  0.0%| TAg acc= 74.3%, forg= -0.9% <<<
>>> Test on task 38 : loss=1.419 | TAw acc= 98.4%, forg=  0.0%| TAg acc= 58.1%, forg= 13.7% <<<
>>> Test on task 39 : loss=1.393 | TAw acc= 96.3%, forg=  0.9%| TAg acc= 66.7%, forg=  8.3% <<<
>>> Test on task 40 : loss=1.808 | TAw acc= 90.4%, forg=  5.8%| TAg acc= 51.0%, forg=  8.7% <<<
>>> Test on task 41 : loss=1.743 | TAw acc= 96.0%, forg=  0.0%| TAg acc= 49.5%, forg=  2.0% <<<
>>> Test on task 42 : loss=1.242 | TAw acc= 97.6%, forg=  0.0%| TAg acc= 74.0%, forg=  0.0% <<<
Save at eeil_e5_wisdm_1/wisdm_flex_eeil
======
LLL_Net(
  (model): SimpleMLP(
    (fc1): Linear(in_features=91, out_features=1000, bias=True)
    (fc2): Sequential()
  )
  (heads): ModuleList(
    (0): Linear(in_features=1000, out_features=34, bias=True)
    (1): Linear(in_features=1000, out_features=20, bias=True)
    (2): Linear(in_features=1000, out_features=20, bias=True)
    (3): Linear(in_features=1000, out_features=20, bias=True)
    (4): Linear(in_features=1000, out_features=20, bias=True)
    (5): Linear(in_features=1000, out_features=20, bias=True)
    (6): Linear(in_features=1000, out_features=20, bias=True)
    (7): Linear(in_features=1000, out_features=20, bias=True)
    (8): Linear(in_features=1000, out_features=20, bias=True)
    (9): Linear(in_features=1000, out_features=20, bias=True)
    (10): Linear(in_features=1000, out_features=20, bias=True)
    (11): Linear(in_features=1000, out_features=20, bias=True)
    (12): Linear(in_features=1000, out_features=20, bias=True)
    (13): Linear(in_features=1000, out_features=20, bias=True)
    (14): Linear(in_features=1000, out_features=20, bias=True)
    (15): Linear(in_features=1000, out_features=20, bias=True)
    (16): Linear(in_features=1000, out_features=20, bias=True)
    (17): Linear(in_features=1000, out_features=20, bias=True)
    (18): Linear(in_features=1000, out_features=20, bias=True)
    (19): Linear(in_features=1000, out_features=20, bias=True)
    (20): Linear(in_features=1000, out_features=20, bias=True)
    (21): Linear(in_features=1000, out_features=20, bias=True)
    (22): Linear(in_features=1000, out_features=20, bias=True)
    (23): Linear(in_features=1000, out_features=20, bias=True)
    (24): Linear(in_features=1000, out_features=20, bias=True)
    (25): Linear(in_features=1000, out_features=20, bias=True)
    (26): Linear(in_features=1000, out_features=20, bias=True)
    (27): Linear(in_features=1000, out_features=20, bias=True)
    (28): Linear(in_features=1000, out_features=20, bias=True)
    (29): Linear(in_features=1000, out_features=20, bias=True)
    (30): Linear(in_features=1000, out_features=20, bias=True)
    (31): Linear(in_features=1000, out_features=20, bias=True)
    (32): Linear(in_features=1000, out_features=20, bias=True)
    (33): Linear(in_features=1000, out_features=20, bias=True)
    (34): Linear(in_features=1000, out_features=20, bias=True)
    (35): Linear(in_features=1000, out_features=20, bias=True)
    (36): Linear(in_features=1000, out_features=20, bias=True)
    (37): Linear(in_features=1000, out_features=20, bias=True)
    (38): Linear(in_features=1000, out_features=20, bias=True)
    (39): Linear(in_features=1000, out_features=20, bias=True)
    (40): Linear(in_features=1000, out_features=20, bias=True)
    (41): Linear(in_features=1000, out_features=20, bias=True)
    (42): Linear(in_features=1000, out_features=20, bias=True)
  )
)
======

************************************************************************************************************
Task 43
************************************************************************************************************
| Epoch   1, time=  6.4s | Train: skip eval | Valid: time=  0.2s loss=6.906, TAw acc= 43.1% | *
| Epoch   2, time=  6.2s | Train: skip eval | Valid: time=  0.2s loss=2.984, TAw acc= 86.1% | *
…
