…
| Selected 770 train exemplars, time=  0.0s
770
------------------------------------------------------------------------------------------------------------
>>> Test on task  0 : loss=1.249 | TAw acc= 91.6%, forg=  0.0%| TAg acc= 81.0%, forg=  4.5% <<<
>>> Test on task  1 : loss=1.248 | TAw acc= 96.3%, forg=  0.0%| TAg acc= 88.8%, forg= -5.6% <<<
>>> Test on task  2 : loss=1.760 | TAw acc= 93.8%, forg= -1.8%| TAg acc= 62.5%, forg=  7.1% <<<
>>> Test on task  3 : loss=1.570 | TAw acc= 89.8%, forg=  0.0%| TAg acc= 70.4%, forg=  0.0% <<<
Save at eeil_e5_wisdm_2/wisdm_flex_eeil
======
LLL_Net(
  (model): SimpleMLP(
    (fc1): Linear(in_features=91, out_features=1000, bias=True)
    (fc2): Sequential()
  )
  (heads): ModuleList(
    (0): Linear(in_features=1000, out_features=34, bias=True)
    (1): Linear(in_features=1000, out_features=20, bias=True)
    (2): Linear(in_features=1000, out_features=20, bias=True)
    (3): Linear(in_features=1000, out_features=20, bias=True)
  )
)
======

************************************************************************************************************
Task  4
************************************************************************************************************
| Epoch   1, time=  0.4s | Train: skip eval | Valid: time=  0.2s loss=3.883, TAw acc= 56.2% | *
| Epoch   2, time=  0.4s | Train: skip eval | Valid: time=  0.2s loss=2.844, TAw acc= 63.5% | *
…
------------------------------------------------------------------------------------------------------------
>>> Test on task  0 : loss=1.097 | TAw acc= 91.6%, forg=  0.0%| TAg acc= 88.3%, forg= -2.8% <<<
>>> Test on task  1 : loss=1.104 | TAw acc= 96.3%, forg=  0.0%| TAg acc= 90.7%, forg= -1.9% <<<
>>> Test on task  2 : loss=1.590 | TAw acc= 95.5%, forg= -1.8%| TAg acc= 82.1%, forg=-12.5% <<<
>>> Test on task  3 : loss=1.624 | TAw acc= 92.6%, forg= -2.8%| TAg acc= 68.5%, forg=  1.9% <<<
>>> Test on task  4 : loss=1.448 | TAw acc= 87.4%, forg=  0.0%| TAg acc= 71.7%, forg=  0.0% <<<
Save at eeil_e5_wisdm_2/wisdm_flex_eeil
======
LLL_Net(
  (model): SimpleMLP(
    (fc1): Linear(in_features=91, out_features=1000, bias=True)
    (fc2): Sequential()
  )
  (heads): ModuleList(
    (0): Linear(in_features=1000, out_features=34, bias=True)
    (1): Linear(in_features=1000, out_features=20, bias=True)
    (2): Linear(in_features=1000, out_features=20, bias=True)
    (3): Linear(in_features=1000, out_features=20, bias=True)
    (4): Linear(in_features=1000, out_features=20, bias=True)
  )
)
======

************************************************************************************************************
Task  5
************************************************************************************************************
| Epoch   1, time=  0.4s | Train: skip eval | Valid: time=  0.2s loss=3.951, TAw acc= 45.1% | *
| Epoch   2, time=  0.4s | Train: skip eval | Valid: time=  0.2s loss=2.880, TAw acc= 50.5% | *
…
>>> Test on task  0 : loss=1.059 | TAw acc= 92.2%, forg= -0.6%| TAg acc= 83.2%, forg=  5.0% <<<
>>> Test on task  1 : loss=1.106 | TAw acc= 96.3%, forg=  0.0%| TAg acc= 78.5%, forg= 12.1% <<<
>>> Test on task  2 : loss=1.481 | TAw acc= 95.5%, forg=  0.0%| TAg acc= 67.9%, forg= 14.3% <<<
>>> Test on task  3 : loss=1.529 | TAw acc= 93.5%, forg= -0.9%| TAg acc= 63.0%, forg=  7.4% <<<
>>> Test on task  4 : loss=1.438 | TAw acc= 97.6%, forg=-10.2%| TAg acc= 73.2%, forg= -1.6% <<<
>>> Test on task  5 : loss=1.541 | TAw acc= 83.6%, forg=  0.0%| TAg acc= 71.3%, forg=  0.0% <<<
Save at eeil_e5_wisdm_2/wisdm_flex_eeil
======
LLL_Net(
  (model): SimpleMLP(
    (fc1): Linear(in_features=91, out_features=1000, bias=True)
    (fc2): Sequential()
  )
  (heads): ModuleList(
    (0): Linear(in_features=1000, out_features=34, bias=True)
    (1): Linear(in_features=1000, out_features=20, bias=True)
    (2): Linear(in_features=1000, out_features=20, bias=True)
    (3): Linear(in_features=1000, out_features=20, bias=True)
    (4): Linear(in_features=1000, out_features=20, bias=True)
    (5): Linear(in_features=1000, out_features=20, bias=True)
  )
)
======

************************************************************************************************************
Task  6
************************************************************************************************************
| Epoch   1, time=  0.5s | Train: skip eval | Valid: time=  0.2s loss=4.104, TAw acc= 47.2% | *
| Epoch   2, time=  0.5s | Train: skip eval | Valid: time=  0.2s loss=2.608, TAw acc= 68.5% | *
…
>>> Test on task  1 : loss=1.074 | TAw acc= 95.3%, forg=  0.9%| TAg acc= 81.3%, forg=  9.3% <<<
>>> Test on task  2 : loss=1.373 | TAw acc= 95.5%, forg=  0.0%| TAg acc= 67.9%, forg= 14.3% <<<
>>> Test on task  3 : loss=1.321 | TAw acc= 94.4%, forg= -0.9%| TAg acc= 80.6%, forg=-10.2% <<<
>>> Test on task  4 : loss=1.225 | TAw acc= 97.6%, forg=  0.0%| TAg acc= 80.3%, forg= -7.1% <<<
>>> Test on task  5 : loss=1.705 | TAw acc= 97.5%, forg=-13.9%| TAg acc= 62.3%, forg=  9.0% <<<
>>> Test on task  6 : loss=1.447 | TAw acc= 84.7%, forg=  0.0%| TAg acc= 78.0%, forg=  0.0% <<<
Save at eeil_e5_wisdm_2/wisdm_flex_eeil
======
LLL_Net(
  (model): SimpleMLP(
    (fc1): Linear(in_features=91, out_features=1000, bias=True)
    (fc2): Sequential()
  )
  (heads): ModuleList(
    (0): Linear(in_features=1000, out_features=34, bias=True)
    (1): Linear(in_features=1000, out_features=20, bias=True)
    (2): Linear(in_features=1000, out_features=20, bias=True)
    (3): Linear(in_features=1000, out_features=20, bias=True)
    (4): Linear(in_features=1000, out_features=20, bias=True)
    (5): Linear(in_features=1000, out_features=20, bias=True)
    (6): Linear(in_features=1000, out_features=20, bias=True)
  )
)
======

************************************************************************************************************
Task  7
************************************************************************************************************
| Epoch   1, time=  0.6s | Train: skip eval | Valid: time=  0.2s loss=4.235, TAw acc= 46.6% | *
| Epoch   2, time=  0.6s | Train: skip eval | Valid: time=  0.2s loss=3.068, TAw acc= 54.5% | *
…
>>> Test on task  2 : loss=1.207 | TAw acc= 95.5%, forg=  0.0%| TAg acc= 80.4%, forg=  1.8% <<<
>>> Test on task  3 : loss=1.283 | TAw acc= 94.4%, forg=  0.0%| TAg acc= 73.1%, forg=  7.4% <<<
>>> Test on task  4 : loss=1.035 | TAw acc= 97.6%, forg=  0.0%| TAg acc= 84.3%, forg= -3.9% <<<
>>> Test on task  5 : loss=1.485 | TAw acc= 98.4%, forg= -0.8%| TAg acc= 75.4%, forg= -4.1% <<<
>>> Test on task  6 : loss=1.782 | TAw acc= 89.8%, forg= -5.1%| TAg acc= 55.1%, forg= 22.9% <<<
>>> Test on task  7 : loss=1.628 | TAw acc= 74.6%, forg=  0.0%| TAg acc= 55.9%, forg=  0.0% <<<
Save at eeil_e5_wisdm_2/wisdm_flex_eeil
======
LLL_Net(
  (model): SimpleMLP(
    (fc1): Linear(in_features=91, out_features=1000, bias=True)
    (fc2): Sequential()
  )
  (heads): ModuleList(
    (0): Linear(in_features=1000, out_features=34, bias=True)
    (1): Linear(in_features=1000, out_features=20, bias=True)
    (2): Linear(in_features=1000, out_features=20, bias=True)
    (3): Linear(in_features=1000, out_features=20, bias=True)
    (4): Linear(in_features=1000, out_features=20, bias=True)
    (5): Linear(in_features=1000, out_features=20, bias=True)
    (6): Linear(in_features=1000, out_features=20, bias=True)
    (7): Linear(in_features=1000, out_features=20, bias=True)
  )
)
======

************************************************************************************************************
Task  8
************************************************************************************************************
| Epoch   1, time=  0.6s | Train: skip eval | Valid: time=  0.2s loss=4.315, TAw acc= 41.2% | *
| Epoch   2, time=  0.7s | Train: skip eval | Valid: time=  0.2s loss=2.968, TAw acc= 50.6% | *
…
>>> Test on task  3 : loss=1.165 | TAw acc= 95.4%, forg= -0.9%| TAg acc= 83.3%, forg= -2.8% <<<
>>> Test on task  4 : loss=0.925 | TAw acc= 98.4%, forg= -0.8%| TAg acc= 89.0%, forg= -4.7% <<<
>>> Test on task  5 : loss=1.342 | TAw acc= 98.4%, forg=  0.0%| TAg acc= 73.0%, forg=  2.5% <<<
>>> Test on task  6 : loss=1.668 | TAw acc= 91.5%, forg= -1.7%| TAg acc= 55.1%, forg= 22.9% <<<
>>> Test on task  7 : loss=1.874 | TAw acc= 88.1%, forg=-13.6%| TAg acc= 46.6%, forg=  9.3% <<<
>>> Test on task  8 : loss=1.429 | TAw acc= 93.8%, forg=  0.0%| TAg acc= 70.8%, forg=  0.0% <<<
Save at eeil_e5_wisdm_2/wisdm_flex_eeil
======
LLL_Net(
  (model): SimpleMLP(
    (fc1): Linear(in_features=91, out_features=1000, bias=True)
    (fc2): Sequential()
  )
  (heads): ModuleList(
    (0): Linear(in_features=1000, out_features=34, bias=True)
    (1): Linear(in_features=1000, out_features=20, bias=True)
    (2): Linear(in_features=1000, out_features=20, bias=True)
    (3): Linear(in_features=1000, out_features=20, bias=True)
    (4): Linear(in_features=1000, out_features=20, bias=True)
    (5): Linear(in_features=1000, out_features=20, bias=True)
    (6): Linear(in_features=1000, out_features=20, bias=True)
    (7): Linear(in_features=1000, out_features=20, bias=True)
    (8): Linear(in_features=1000, out_features=20, bias=True)
  )
)
======

************************************************************************************************************
Task  9
************************************************************************************************************
| Epoch   1, time=  0.7s | Train: skip eval | Valid: time=  0.2s loss=4.336, TAw acc= 37.5% | *
| Epoch   2, time=  0.7s | Train: skip eval | Valid: time=  0.2s loss=2.976, TAw acc= 58.8% | *
…
>>> Test on task  4 : loss=0.947 | TAw acc= 98.4%, forg=  0.0%| TAg acc= 87.4%, forg=  1.6% <<<
>>> Test on task  5 : loss=1.181 | TAw acc= 99.2%, forg= -0.8%| TAg acc= 82.0%, forg= -6.6% <<<
>>> Test on task  6 : loss=1.695 | TAw acc= 92.4%, forg= -0.8%| TAg acc= 57.6%, forg= 20.3% <<<
>>> Test on task  7 : loss=1.619 | TAw acc= 89.0%, forg= -0.8%| TAg acc= 54.2%, forg=  1.7% <<<
>>> Test on task  8 : loss=1.863 | TAw acc= 95.6%, forg= -1.8%| TAg acc= 42.5%, forg= 28.3% <<<
>>> Test on task  9 : loss=1.567 | TAw acc= 89.0%, forg=  0.0%| TAg acc= 59.6%, forg=  0.0% <<<
Save at eeil_e5_wisdm_2/wisdm_flex_eeil
======
LLL_Net(
  (model): SimpleMLP(
    (fc1): Linear(in_features=91, out_features=1000, bias=True)
    (fc2): Sequential()
  )
  (heads): ModuleList(
    (0): Linear(in_features=1000, out_features=34, bias=True)
    (1): Linear(in_features=1000, out_features=20, bias=True)
    (2): Linear(in_features=1000, out_features=20, bias=True)
    (3): Linear(in_features=1000, out_features=20, bias=True)
    (4): Linear(in_features=1000, out_features=20, bias=True)
    (5): Linear(in_features=1000, out_features=20, bias=True)
    (6): Linear(in_features=1000, out_features=20, bias=True)
    (7): Linear(in_features=1000, out_features=20, bias=True)
    (8): Linear(in_features=1000, out_features=20, bias=True)
    (9): Linear(in_features=1000, out_features=20, bias=True)
  )
)
======

************************************************************************************************************
Task 10
************************************************************************************************************
| Epoch   1, time=  0.8s | Train: skip eval | Valid: time=  0.2s loss=5.008, TAw acc= 46.1% | *
| Epoch   2, time=  0.8s | Train: skip eval | Valid: time=  0.2s loss=3.351, TAw acc= 63.2% | *
…
>>> Test on task  5 : loss=1.142 | TAw acc= 99.2%, forg=  0.0%| TAg acc= 80.3%, forg=  1.6% <<<
>>> Test on task  6 : loss=1.517 | TAw acc= 92.4%, forg=  0.0%| TAg acc= 69.5%, forg=  8.5% <<<
>>> Test on task  7 : loss=1.474 | TAw acc= 90.7%, forg= -1.7%| TAg acc= 62.7%, forg= -6.8% <<<
>>> Test on task  8 : loss=1.603 | TAw acc= 95.6%, forg=  0.0%| TAg acc= 51.3%, forg= 19.5% <<<
>>> Test on task  9 : loss=1.688 | TAw acc= 95.4%, forg= -6.4%| TAg acc= 44.0%, forg= 15.6% <<<
>>> Test on task 10 : loss=1.703 | TAw acc= 83.8%, forg=  0.0%| TAg acc= 59.0%, forg=  0.0% <<<
Save at eeil_e5_wisdm_2/wisdm_flex_eeil
======
LLL_Net(
  (model): SimpleMLP(
    (fc1): Linear(in_features=91, out_features=1000, bias=True)
    (fc2): Sequential()
  )
  (heads): ModuleList(
    (0): Linear(in_features=1000, out_features=34, bias=True)
    (1): Linear(in_features=1000, out_features=20, bias=True)
    (2): Linear(in_features=1000, out_features=20, bias=True)
    (3): Linear(in_features=1000, out_features=20, bias=True)
    (4): Linear(in_features=1000, out_features=20, bias=True)
    (5): Linear(in_features=1000, out_features=20, bias=True)
    (6): Linear(in_features=1000, out_features=20, bias=True)
    (7): Linear(in_features=1000, out_features=20, bias=True)
    (8): Linear(in_features=1000, out_features=20, bias=True)
    (9): Linear(in_features=1000, out_features=20, bias=True)
    (10): Linear(in_features=1000, out_features=20, bias=True)
  )
)
======

************************************************************************************************************
Task 11
************************************************************************************************************
| Epoch   1, time=  0.9s | Train: skip eval | Valid: time=  0.2s loss=5.475, TAw acc= 17.8% | *
| Epoch   2, time=  0.9s | Train: skip eval | Valid: time=  0.2s loss=3.680, TAw acc= 53.4% | *
…
>>> Test on task  6 : loss=1.458 | TAw acc= 94.9%, forg= -2.5%| TAg acc= 69.5%, forg=  8.5% <<<
>>> Test on task  7 : loss=1.384 | TAw acc= 90.7%, forg=  0.0%| TAg acc= 66.1%, forg= -3.4% <<<
>>> Test on task  8 : loss=1.430 | TAw acc= 95.6%, forg=  0.0%| TAg acc= 63.7%, forg=  7.1% <<<
>>> Test on task  9 : loss=1.604 | TAw acc= 96.3%, forg= -0.9%| TAg acc= 47.7%, forg= 11.9% <<<
>>> Test on task 10 : loss=1.772 | TAw acc= 87.6%, forg= -3.8%| TAg acc= 52.4%, forg=  6.7% <<<
>>> Test on task 11 : loss=1.572 | TAw acc= 95.0%, forg=  0.0%| TAg acc= 62.0%, forg=  0.0% <<<
Save at eeil_e5_wisdm_2/wisdm_flex_eeil
======
LLL_Net(
  (model): SimpleMLP(
    (fc1): Linear(in_features=91, out_features=1000, bias=True)
    (fc2): Sequential()
  )
  (heads): ModuleList(
    (0): Linear(in_features=1000, out_features=34, bias=True)
    (1): Linear(in_features=1000, out_features=20, bias=True)
    (2): Linear(in_features=1000, out_features=20, bias=True)
    (3): Linear(in_features=1000, out_features=20, bias=True)
    (4): Linear(in_features=1000, out_features=20, bias=True)
    (5): Linear(in_features=1000, out_features=20, bias=True)
    (6): Linear(in_features=1000, out_features=20, bias=True)
    (7): Linear(in_features=1000, out_features=20, bias=True)
    (8): Linear(in_features=1000, out_features=20, bias=True)
    (9): Linear(in_features=1000, out_features=20, bias=True)
    (10): Linear(in_features=1000, out_features=20, bias=True)
    (11): Linear(in_features=1000, out_features=20, bias=True)
  )
)
======

************************************************************************************************************
Task 12
************************************************************************************************************
| Epoch   1, time=  0.9s | Train: skip eval | Valid: time=  0.2s loss=5.262, TAw acc= 31.4% | *
| Epoch   2, time=  0.9s | Train: skip eval | Valid: time=  0.2s loss=3.834, TAw acc= 40.0% | *
…
>>> Test on task  7 : loss=1.330 | TAw acc= 89.8%, forg=  0.8%| TAg acc= 65.3%, forg=  0.8% <<<
>>> Test on task  8 : loss=1.325 | TAw acc= 96.5%, forg= -0.9%| TAg acc= 66.4%, forg=  4.4% <<<
>>> Test on task  9 : loss=1.447 | TAw acc= 96.3%, forg=  0.0%| TAg acc= 56.0%, forg=  3.7% <<<
>>> Test on task 10 : loss=1.663 | TAw acc= 89.5%, forg= -1.9%| TAg acc= 54.3%, forg=  4.8% <<<
>>> Test on task 11 : loss=1.648 | TAw acc= 98.0%, forg= -3.0%| TAg acc= 47.0%, forg= 15.0% <<<
>>> Test on task 12 : loss=1.880 | TAw acc= 90.7%, forg=  0.0%| TAg acc= 48.5%, forg=  0.0% <<<
Save at eeil_e5_wisdm_2/wisdm_flex_eeil
======
LLL_Net(
  (model): SimpleMLP(
    (fc1): Linear(in_features=91, out_features=1000, bias=True)
    (fc2): Sequential()
  )
  (heads): ModuleList(
    (0): Linear(in_features=1000, out_features=34, bias=True)
    (1): Linear(in_features=1000, out_features=20, bias=True)
    (2): Linear(in_features=1000, out_features=20, bias=True)
    (3): Linear(in_features=1000, out_features=20, bias=True)
    (4): Linear(in_features=1000, out_features=20, bias=True)
    (5): Linear(in_features=1000, out_features=20, bias=True)
    (6): Linear(in_features=1000, out_features=20, bias=True)
    (7): Linear(in_features=1000, out_features=20, bias=True)
    (8): Linear(in_features=1000, out_features=20, bias=True)
    (9): Linear(in_features=1000, out_features=20, bias=True)
    (10): Linear(in_features=1000, out_features=20, bias=True)
    (11): Linear(in_features=1000, out_features=20, bias=True)
    (12): Linear(in_features=1000, out_features=20, bias=True)
  )
)
======

************************************************************************************************************
Task 13
************************************************************************************************************
| Epoch   1, time=  1.0s | Train: skip eval | Valid: time=  0.2s loss=5.458, TAw acc= 34.3% | *
| Epoch   2, time=  1.0s | Train: skip eval | Valid: time=  0.2s loss=3.712, TAw acc= 55.2% | *
…
>>> Test on task  8 : loss=1.279 | TAw acc= 96.5%, forg=  0.0%| TAg acc= 68.1%, forg=  2.7% <<<
>>> Test on task  9 : loss=1.343 | TAw acc= 96.3%, forg=  0.0%| TAg acc= 58.7%, forg=  0.9% <<<
>>> Test on task 10 : loss=1.524 | TAw acc= 88.6%, forg=  1.0%| TAg acc= 64.8%, forg= -5.7% <<<
>>> Test on task 11 : loss=1.522 | TAw acc= 98.0%, forg=  0.0%| TAg acc= 58.0%, forg=  4.0% <<<
>>> Test on task 12 : loss=1.819 | TAw acc= 93.8%, forg= -3.1%| TAg acc= 51.5%, forg= -3.1% <<<
>>> Test on task 13 : loss=1.593 | TAw acc= 93.6%, forg=  0.0%| TAg acc= 62.8%, forg=  0.0% <<<
Save at eeil_e5_wisdm_2/wisdm_flex_eeil
======
LLL_Net(
  (model): SimpleMLP(
    (fc1): Linear(in_features=91, out_features=1000, bias=True)
    (fc2): Sequential()
  )
  (heads): ModuleList(
    (0): Linear(in_features=1000, out_features=34, bias=True)
    (1): Linear(in_features=1000, out_features=20, bias=True)
    (2): Linear(in_features=1000, out_features=20, bias=True)
    (3): Linear(in_features=1000, out_features=20, bias=True)
    (4): Linear(in_features=1000, out_features=20, bias=True)
    (5): Linear(in_features=1000, out_features=20, bias=True)
    (6): Linear(in_features=1000, out_features=20, bias=True)
    (7): Linear(in_features=1000, out_features=20, bias=True)
    (8): Linear(in_features=1000, out_features=20, bias=True)
    (9): Linear(in_features=1000, out_features=20, bias=True)
    (10): Linear(in_features=1000, out_features=20, bias=True)
    (11): Linear(in_features=1000, out_features=20, bias=True)
    (12): Linear(in_features=1000, out_features=20, bias=True)
    (13): Linear(in_features=1000, out_features=20, bias=True)
  )
)
======

************************************************************************************************************
Task 14
************************************************************************************************************
| Epoch   1, time=  1.1s | Train: skip eval | Valid: time=  0.2s loss=5.572, TAw acc= 38.6% | *
| Epoch   2, time=  1.1s | Train: skip eval | Valid: time=  0.2s loss=3.735, TAw acc= 52.9% | *
…
>>> Test on task  9 : loss=1.189 | TAw acc= 97.2%, forg= -0.9%| TAg acc= 67.9%, forg= -8.3% <<<
>>> Test on task 10 : loss=1.447 | TAw acc= 89.5%, forg=  0.0%| TAg acc= 68.6%, forg= -3.8% <<<
>>> Test on task 11 : loss=1.369 | TAw acc= 99.0%, forg= -1.0%| TAg acc= 65.0%, forg= -3.0% <<<
>>> Test on task 12 : loss=1.710 | TAw acc= 95.9%, forg= -2.1%| TAg acc= 52.6%, forg= -1.0% <<<
>>> Test on task 13 : loss=1.606 | TAw acc= 97.9%, forg= -4.3%| TAg acc= 46.8%, forg= 16.0% <<<
>>> Test on task 14 : loss=1.515 | TAw acc= 85.7%, forg=  0.0%| TAg acc= 54.1%, forg=  0.0% <<<
Save at eeil_e5_wisdm_2/wisdm_flex_eeil
======
LLL_Net(
  (model): SimpleMLP(
    (fc1): Linear(in_features=91, out_features=1000, bias=True)
    (fc2): Sequential()
  )
  (heads): ModuleList(
    (0): Linear(in_features=1000, out_features=34, bias=True)
    (1): Linear(in_features=1000, out_features=20, bias=True)
    (2): Linear(in_features=1000, out_features=20, bias=True)
    (3): Linear(in_features=1000, out_features=20, bias=True)
    (4): Linear(in_features=1000, out_features=20, bias=True)
    (5): Linear(in_features=1000, out_features=20, bias=True)
    (6): Linear(in_features=1000, out_features=20, bias=True)
    (7): Linear(in_features=1000, out_features=20, bias=True)
    (8): Linear(in_features=1000, out_features=20, bias=True)
    (9): Linear(in_features=1000, out_features=20, bias=True)
    (10): Linear(in_features=1000, out_features=20, bias=True)
    (11): Linear(in_features=1000, out_features=20, bias=True)
    (12): Linear(in_features=1000, out_features=20, bias=True)
    (13): Linear(in_features=1000, out_features=20, bias=True)
    (14): Linear(in_features=1000, out_features=20, bias=True)
  )
)
======

************************************************************************************************************
Task 15
************************************************************************************************************
| Epoch   1, time=  1.2s | Train: skip eval | Valid: time=  0.2s loss=5.102, TAw acc= 51.9% | *
| Epoch   2, time=  1.2s | Train: skip eval | Valid: time=  0.2s loss=3.184, TAw acc= 58.0% | *
…
>>> Test on task 10 : loss=1.445 | TAw acc= 89.5%, forg=  0.0%| TAg acc= 67.6%, forg=  1.0% <<<
>>> Test on task 11 : loss=1.313 | TAw acc= 99.0%, forg=  0.0%| TAg acc= 68.0%, forg= -3.0% <<<
>>> Test on task 12 : loss=1.587 | TAw acc= 94.8%, forg=  1.0%| TAg acc= 57.7%, forg= -5.2% <<<
>>> Test on task 13 : loss=1.411 | TAw acc= 97.9%, forg=  0.0%| TAg acc= 57.4%, forg=  5.3% <<<
>>> Test on task 14 : loss=1.599 | TAw acc= 96.9%, forg=-11.2%| TAg acc= 63.3%, forg= -9.2% <<<
>>> Test on task 15 : loss=1.520 | TAw acc= 88.2%, forg=  0.0%| TAg acc= 60.0%, forg=  0.0% <<<
Save at eeil_e5_wisdm_2/wisdm_flex_eeil
======
LLL_Net(
  (model): SimpleMLP(
    (fc1): Linear(in_features=91, out_features=1000, bias=True)
    (fc2): Sequential()
  )
  (heads): ModuleList(
    (0): Linear(in_features=1000, out_features=34, bias=True)
    (1): Linear(in_features=1000, out_features=20, bias=True)
    (2): Linear(in_features=1000, out_features=20, bias=True)
    (3): Linear(in_features=1000, out_features=20, bias=True)
    (4): Linear(in_features=1000, out_features=20, bias=True)
    (5): Linear(in_features=1000, out_features=20, bias=True)
    (6): Linear(in_features=1000, out_features=20, bias=True)
    (7): Linear(in_features=1000, out_features=20, bias=True)
    (8): Linear(in_features=1000, out_features=20, bias=True)
    (9): Linear(in_features=1000, out_features=20, bias=True)
    (10): Linear(in_features=1000, out_features=20, bias=True)
    (11): Linear(in_features=1000, out_features=20, bias=True)
    (12): Linear(in_features=1000, out_features=20, bias=True)
    (13): Linear(in_features=1000, out_features=20, bias=True)
    (14): Linear(in_features=1000, out_features=20, bias=True)
    (15): Linear(in_features=1000, out_features=20, bias=True)
  )
)
======

************************************************************************************************************
Task 16
************************************************************************************************************
| Epoch   1, time=  1.4s | Train: skip eval | Valid: time=  0.2s loss=6.018, TAw acc= 52.9% | *
| Epoch   2, time=  1.3s | Train: skip eval | Valid: time=  0.2s loss=3.581, TAw acc= 60.0% | *
…
>>> Test on task 11 : loss=1.274 | TAw acc= 99.0%, forg=  0.0%| TAg acc= 65.0%, forg=  3.0% <<<
>>> Test on task 12 : loss=1.509 | TAw acc= 96.9%, forg= -1.0%| TAg acc= 72.2%, forg=-14.4% <<<
>>> Test on task 13 : loss=1.293 | TAw acc= 97.9%, forg=  0.0%| TAg acc= 64.9%, forg= -2.1% <<<
>>> Test on task 14 : loss=1.513 | TAw acc= 96.9%, forg=  0.0%| TAg acc= 56.1%, forg=  7.1% <<<
>>> Test on task 15 : loss=1.700 | TAw acc= 98.2%, forg=-10.0%| TAg acc= 45.5%, forg= 14.5% <<<
>>> Test on task 16 : loss=1.718 | TAw acc= 93.8%, forg=  0.0%| TAg acc= 58.3%, forg=  0.0% <<<
Save at eeil_e5_wisdm_2/wisdm_flex_eeil
======
LLL_Net(
  (model): SimpleMLP(
    (fc1): Linear(in_features=91, out_features=1000, bias=True)
    (fc2): Sequential()
  )
  (heads): ModuleList(
    (0): Linear(in_features=1000, out_features=34, bias=True)
    (1): Linear(in_features=1000, out_features=20, bias=True)
    (2): Linear(in_features=1000, out_features=20, bias=True)
    (3): Linear(in_features=1000, out_features=20, bias=True)
    (4): Linear(in_features=1000, out_features=20, bias=True)
    (5): Linear(in_features=1000, out_features=20, bias=True)
    (6): Linear(in_features=1000, out_features=20, bias=True)
    (7): Linear(in_features=1000, out_features=20, bias=True)
    (8): Linear(in_features=1000, out_features=20, bias=True)
    (9): Linear(in_features=1000, out_features=20, bias=True)
    (10): Linear(in_features=1000, out_features=20, bias=True)
    (11): Linear(in_features=1000, out_features=20, bias=True)
    (12): Linear(in_features=1000, out_features=20, bias=True)
    (13): Linear(in_features=1000, out_features=20, bias=True)
    (14): Linear(in_features=1000, out_features=20, bias=True)
    (15): Linear(in_features=1000, out_features=20, bias=True)
    (16): Linear(in_features=1000, out_features=20, bias=True)
  )
)
======

************************************************************************************************************
Task 17
************************************************************************************************************
| Epoch   1, time=  1.4s | Train: skip eval | Valid: time=  0.2s loss=5.001, TAw acc= 39.5% | *
| Epoch   2, time=  1.5s | Train: skip eval | Valid: time=  0.2s loss=2.930, TAw acc= 71.6% | *
…
>>> Test on task 12 : loss=1.439 | TAw acc= 96.9%, forg=  0.0%| TAg acc= 75.3%, forg= -3.1% <<<
>>> Test on task 13 : loss=1.273 | TAw acc= 97.9%, forg=  0.0%| TAg acc= 62.8%, forg=  2.1% <<<
>>> Test on task 14 : loss=1.341 | TAw acc= 95.9%, forg=  1.0%| TAg acc= 72.4%, forg= -9.2% <<<
>>> Test on task 15 : loss=1.518 | TAw acc= 96.4%, forg=  1.8%| TAg acc= 56.4%, forg=  3.6% <<<
>>> Test on task 16 : loss=1.894 | TAw acc= 96.9%, forg= -3.1%| TAg acc= 39.6%, forg= 18.8% <<<
>>> Test on task 17 : loss=1.234 | TAw acc= 92.7%, forg=  0.0%| TAg acc= 69.7%, forg=  0.0% <<<
Save at eeil_e5_wisdm_2/wisdm_flex_eeil
======
LLL_Net(
  (model): SimpleMLP(
    (fc1): Linear(in_features=91, out_features=1000, bias=True)
    (fc2): Sequential()
  )
  (heads): ModuleList(
    (0): Linear(in_features=1000, out_features=34, bias=True)
    (1): Linear(in_features=1000, out_features=20, bias=True)
    (2): Linear(in_features=1000, out_features=20, bias=True)
    (3): Linear(in_features=1000, out_features=20, bias=True)
    (4): Linear(in_features=1000, out_features=20, bias=True)
    (5): Linear(in_features=1000, out_features=20, bias=True)
    (6): Linear(in_features=1000, out_features=20, bias=True)
    (7): Linear(in_features=1000, out_features=20, bias=True)
    (8): Linear(in_features=1000, out_features=20, bias=True)
    (9): Linear(in_features=1000, out_features=20, bias=True)
    (10): Linear(in_features=1000, out_features=20, bias=True)
    (11): Linear(in_features=1000, out_features=20, bias=True)
    (12): Linear(in_features=1000, out_features=20, bias=True)
    (13): Linear(in_features=1000, out_features=20, bias=True)
    (14): Linear(in_features=1000, out_features=20, bias=True)
    (15): Linear(in_features=1000, out_features=20, bias=True)
    (16): Linear(in_features=1000, out_features=20, bias=True)
    (17): Linear(in_features=1000, out_features=20, bias=True)
  )
)
======

************************************************************************************************************
Task 18
************************************************************************************************************
| Epoch   1, time=  1.6s | Train: skip eval | Valid: time=  0.2s loss=5.452, TAw acc= 43.5% | *
| Epoch   2, time=  1.6s | Train: skip eval | Valid: time=  0.2s loss=3.100, TAw acc= 60.0% | *
…
>>> Test on task 13 : loss=1.124 | TAw acc= 97.9%, forg=  0.0%| TAg acc= 67.0%, forg= -2.1% <<<
>>> Test on task 14 : loss=1.270 | TAw acc= 96.9%, forg=  0.0%| TAg acc= 75.5%, forg= -3.1% <<<
>>> Test on task 15 : loss=1.539 | TAw acc= 96.4%, forg=  1.8%| TAg acc= 54.5%, forg=  5.5% <<<
>>> Test on task 16 : loss=1.748 | TAw acc= 96.9%, forg=  0.0%| TAg acc= 45.8%, forg= 12.5% <<<
>>> Test on task 17 : loss=1.394 | TAw acc= 95.4%, forg= -2.8%| TAg acc= 66.1%, forg=  3.7% <<<
>>> Test on task 18 : loss=1.573 | TAw acc= 85.3%, forg=  0.0%| TAg acc= 64.7%, forg=  0.0% <<<
Save at eeil_e5_wisdm_2/wisdm_flex_eeil
======
LLL_Net(
  (model): SimpleMLP(
    (fc1): Linear(in_features=91, out_features=1000, bias=True)
    (fc2): Sequential()
  )
  (heads): ModuleList(
    (0): Linear(in_features=1000, out_features=34, bias=True)
    (1): Linear(in_features=1000, out_features=20, bias=True)
    (2): Linear(in_features=1000, out_features=20, bias=True)
    (3): Linear(in_features=1000, out_features=20, bias=True)
    (4): Linear(in_features=1000, out_features=20, bias=True)
    (5): Linear(in_features=1000, out_features=20, bias=True)
    (6): Linear(in_features=1000, out_features=20, bias=True)
    (7): Linear(in_features=1000, out_features=20, bias=True)
    (8): Linear(in_features=1000, out_features=20, bias=True)
    (9): Linear(in_features=1000, out_features=20, bias=True)
    (10): Linear(in_features=1000, out_features=20, bias=True)
    (11): Linear(in_features=1000, out_features=20, bias=True)
    (12): Linear(in_features=1000, out_features=20, bias=True)
    (13): Linear(in_features=1000, out_features=20, bias=True)
    (14): Linear(in_features=1000, out_features=20, bias=True)
    (15): Linear(in_features=1000, out_features=20, bias=True)
    (16): Linear(in_features=1000, out_features=20, bias=True)
    (17): Linear(in_features=1000, out_features=20, bias=True)
    (18): Linear(in_features=1000, out_features=20, bias=True)
  )
)
======

************************************************************************************************************
Task 19
************************************************************************************************************
| Epoch   1, time=  1.6s | Train: skip eval | Valid: time=  0.2s loss=5.930, TAw acc= 38.0% | *
| Epoch   2, time=  1.6s | Train: skip eval | Valid: time=  0.2s loss=3.309, TAw acc= 69.0% | *
…
>>> Test on task 14 : loss=1.260 | TAw acc= 95.9%, forg=  1.0%| TAg acc= 73.5%, forg=  2.0% <<<
>>> Test on task 15 : loss=1.398 | TAw acc=100.0%, forg= -1.8%| TAg acc= 65.5%, forg= -5.5% <<<
>>> Test on task 16 : loss=1.601 | TAw acc= 96.9%, forg=  0.0%| TAg acc= 58.3%, forg=  0.0% <<<
>>> Test on task 17 : loss=1.263 | TAw acc= 96.3%, forg= -0.9%| TAg acc= 68.8%, forg=  0.9% <<<
>>> Test on task 18 : loss=1.825 | TAw acc= 91.4%, forg= -6.0%| TAg acc= 50.0%, forg= 14.7% <<<
>>> Test on task 19 : loss=1.390 | TAw acc= 97.9%, forg=  0.0%| TAg acc= 71.1%, forg=  0.0% <<<
Save at eeil_e5_wisdm_2/wisdm_flex_eeil
======
LLL_Net(
  (model): SimpleMLP(
    (fc1): Linear(in_features=91, out_features=1000, bias=True)
    (fc2): Sequential()
  )
  (heads): ModuleList(
    (0): Linear(in_features=1000, out_features=34, bias=True)
    (1): Linear(in_features=1000, out_features=20, bias=True)
    (2): Linear(in_features=1000, out_features=20, bias=True)
    (3): Linear(in_features=1000, out_features=20, bias=True)
    (4): Linear(in_features=1000, out_features=20, bias=True)
    (5): Linear(in_features=1000, out_features=20, bias=True)
    (6): Linear(in_features=1000, out_features=20, bias=True)
    (7): Linear(in_features=1000, out_features=20, bias=True)
    (8): Linear(in_features=1000, out_features=20, bias=True)
    (9): Linear(in_features=1000, out_features=20, bias=True)
    (10): Linear(in_features=1000, out_features=20, bias=True)
    (11): Linear(in_features=1000, out_features=20, bias=True)
    (12): Linear(in_features=1000, out_features=20, bias=True)
    (13): Linear(in_features=1000, out_features=20, bias=True)
    (14): Linear(in_features=1000, out_features=20, bias=True)
    (15): Linear(in_features=1000, out_features=20, bias=True)
    (16): Linear(in_features=1000, out_features=20, bias=True)
    (17): Linear(in_features=1000, out_features=20, bias=True)
    (18): Linear(in_features=1000, out_features=20, bias=True)
    (19): Linear(in_features=1000, out_features=20, bias=True)
  )
)
======

************************************************************************************************************
Task 20
************************************************************************************************************
| Epoch   1, time=  1.8s | Train: skip eval | Valid: time=  0.2s loss=5.168, TAw acc= 51.3% | *
| Epoch   2, time=  1.8s | Train: skip eval | Valid: time=  0.2s loss=2.757, TAw acc= 69.7% | *
…
>>> Test on task 15 : loss=1.358 | TAw acc= 97.3%, forg=  2.7%| TAg acc= 65.5%, forg=  0.0% <<<
>>> Test on task 16 : loss=1.531 | TAw acc= 96.9%, forg=  0.0%| TAg acc= 61.5%, forg= -3.1% <<<
>>> Test on task 17 : loss=1.171 | TAw acc= 96.3%, forg=  0.0%| TAg acc= 70.6%, forg= -0.9% <<<
>>> Test on task 18 : loss=1.692 | TAw acc= 92.2%, forg= -0.9%| TAg acc= 59.5%, forg=  5.2% <<<
>>> Test on task 19 : loss=1.587 | TAw acc= 99.0%, forg= -1.0%| TAg acc= 54.6%, forg= 16.5% <<<
>>> Test on task 20 : loss=1.384 | TAw acc= 97.1%, forg=  0.0%| TAg acc= 66.7%, forg=  0.0% <<<
Save at eeil_e5_wisdm_2/wisdm_flex_eeil
======
LLL_Net(
  (model): SimpleMLP(
    (fc1): Linear(in_features=91, out_features=1000, bias=True)
    (fc2): Sequential()
  )
  (heads): ModuleList(
    (0): Linear(in_features=1000, out_features=34, bias=True)
    (1): Linear(in_features=1000, out_features=20, bias=True)
    (2): Linear(in_features=1000, out_features=20, bias=True)
    (3): Linear(in_features=1000, out_features=20, bias=True)
    (4): Linear(in_features=1000, out_features=20, bias=True)
    (5): Linear(in_features=1000, out_features=20, bias=True)
    (6): Linear(in_features=1000, out_features=20, bias=True)
    (7): Linear(in_features=1000, out_features=20, bias=True)
    (8): Linear(in_features=1000, out_features=20, bias=True)
    (9): Linear(in_features=1000, out_features=20, bias=True)
    (10): Linear(in_features=1000, out_features=20, bias=True)
    (11): Linear(in_features=1000, out_features=20, bias=True)
    (12): Linear(in_features=1000, out_features=20, bias=True)
    (13): Linear(in_features=1000, out_features=20, bias=True)
    (14): Linear(in_features=1000, out_features=20, bias=True)
    (15): Linear(in_features=1000, out_features=20, bias=True)
    (16): Linear(in_features=1000, out_features=20, bias=True)
    (17): Linear(in_features=1000, out_features=20, bias=True)
    (18): Linear(in_features=1000, out_features=20, bias=True)
    (19): Linear(in_features=1000, out_features=20, bias=True)
    (20): Linear(in_features=1000, out_features=20, bias=True)
  )
)
======

************************************************************************************************************
Task 21
************************************************************************************************************
| Epoch   1, time=  2.0s | Train: skip eval | Valid: time=  0.2s loss=4.869, TAw acc= 61.4% | *
| Epoch   2, time=  1.9s | Train: skip eval | Valid: time=  0.2s loss=2.595, TAw acc= 76.1% | *
…
>>> Test on task 16 : loss=1.457 | TAw acc= 96.9%, forg=  0.0%| TAg acc= 62.5%, forg= -1.0% <<<
>>> Test on task 17 : loss=1.123 | TAw acc= 96.3%, forg=  0.0%| TAg acc= 72.5%, forg= -1.8% <<<
>>> Test on task 18 : loss=1.654 | TAw acc= 89.7%, forg=  2.6%| TAg acc= 60.3%, forg=  4.3% <<<
>>> Test on task 19 : loss=1.407 | TAw acc= 99.0%, forg=  0.0%| TAg acc= 59.8%, forg= 11.3% <<<
>>> Test on task 20 : loss=1.566 | TAw acc= 98.1%, forg= -1.0%| TAg acc= 61.9%, forg=  4.8% <<<
>>> Test on task 21 : loss=1.209 | TAw acc= 95.8%, forg=  0.0%| TAg acc= 70.3%, forg=  0.0% <<<
Save at eeil_e5_wisdm_2/wisdm_flex_eeil
======
LLL_Net(
  (model): SimpleMLP(
    (fc1): Linear(in_features=91, out_features=1000, bias=True)
    (fc2): Sequential()
  )
  (heads): ModuleList(
    (0): Linear(in_features=1000, out_features=34, bias=True)
    (1): Linear(in_features=1000, out_features=20, bias=True)
    (2): Linear(in_features=1000, out_features=20, bias=True)
    (3): Linear(in_features=1000, out_features=20, bias=True)
    (4): Linear(in_features=1000, out_features=20, bias=True)
    (5): Linear(in_features=1000, out_features=20, bias=True)
    (6): Linear(in_features=1000, out_features=20, bias=True)
    (7): Linear(in_features=1000, out_features=20, bias=True)
    (8): Linear(in_features=1000, out_features=20, bias=True)
    (9): Linear(in_features=1000, out_features=20, bias=True)
    (10): Linear(in_features=1000, out_features=20, bias=True)
    (11): Linear(in_features=1000, out_features=20, bias=True)
    (12): Linear(in_features=1000, out_features=20, bias=True)
    (13): Linear(in_features=1000, out_features=20, bias=True)
    (14): Linear(in_features=1000, out_features=20, bias=True)
    (15): Linear(in_features=1000, out_features=20, bias=True)
    (16): Linear(in_features=1000, out_features=20, bias=True)
    (17): Linear(in_features=1000, out_features=20, bias=True)
    (18): Linear(in_features=1000, out_features=20, bias=True)
    (19): Linear(in_features=1000, out_features=20, bias=True)
    (20): Linear(in_features=1000, out_features=20, bias=True)
    (21): Linear(in_features=1000, out_features=20, bias=True)
  )
)
======

************************************************************************************************************
Task 22
************************************************************************************************************
| Epoch   1, time=  2.2s | Train: skip eval | Valid: time=  0.2s loss=5.384, TAw acc= 32.1% | *
| Epoch   2, time=  2.0s | Train: skip eval | Valid: time=  0.2s loss=2.969, TAw acc= 65.4% | *
…
>>> Test on task 17 : loss=1.027 | TAw acc= 96.3%, forg=  0.0%| TAg acc= 78.0%, forg= -5.5% <<<
>>> Test on task 18 : loss=1.538 | TAw acc= 90.5%, forg=  1.7%| TAg acc= 61.2%, forg=  3.4% <<<
>>> Test on task 19 : loss=1.258 | TAw acc= 99.0%, forg=  0.0%| TAg acc= 71.1%, forg=  0.0% <<<
>>> Test on task 20 : loss=1.361 | TAw acc= 98.1%, forg=  0.0%| TAg acc= 67.6%, forg= -1.0% <<<
>>> Test on task 21 : loss=1.467 | TAw acc= 95.8%, forg=  0.0%| TAg acc= 52.5%, forg= 17.8% <<<
>>> Test on task 22 : loss=1.219 | TAw acc= 97.2%, forg=  0.0%| TAg acc= 68.8%, forg=  0.0% <<<
Save at eeil_e5_wisdm_2/wisdm_flex_eeil
======
LLL_Net(
  (model): SimpleMLP(
    (fc1): Linear(in_features=91, out_features=1000, bias=True)
    (fc2): Sequential()
  )
  (heads): ModuleList(
    (0): Linear(in_features=1000, out_features=34, bias=True)
    (1): Linear(in_features=1000, out_features=20, bias=True)
    (2): Linear(in_features=1000, out_features=20, bias=True)
    (3): Linear(in_features=1000, out_features=20, bias=True)
    (4): Linear(in_features=1000, out_features=20, bias=True)
    (5): Linear(in_features=1000, out_features=20, bias=True)
    (6): Linear(in_features=1000, out_features=20, bias=True)
    (7): Linear(in_features=1000, out_features=20, bias=True)
    (8): Linear(in_features=1000, out_features=20, bias=True)
    (9): Linear(in_features=1000, out_features=20, bias=True)
    (10): Linear(in_features=1000, out_features=20, bias=True)
    (11): Linear(in_features=1000, out_features=20, bias=True)
    (12): Linear(in_features=1000, out_features=20, bias=True)
    (13): Linear(in_features=1000, out_features=20, bias=True)
    (14): Linear(in_features=1000, out_features=20, bias=True)
    (15): Linear(in_features=1000, out_features=20, bias=True)
    (16): Linear(in_features=1000, out_features=20, bias=True)
    (17): Linear(in_features=1000, out_features=20, bias=True)
    (18): Linear(in_features=1000, out_features=20, bias=True)
    (19): Linear(in_features=1000, out_features=20, bias=True)
    (20): Linear(in_features=1000, out_features=20, bias=True)
    (21): Linear(in_features=1000, out_features=20, bias=True)
    (22): Linear(in_features=1000, out_features=20, bias=True)
  )
)
======

************************************************************************************************************
Task 23
************************************************************************************************************
| Epoch   1, time=  2.1s | Train: skip eval | Valid: time=  0.2s loss=5.832, TAw acc= 43.8% | *
| Epoch   2, time=  2.3s | Train: skip eval | Valid: time=  0.2s loss=3.281, TAw acc= 57.5% | *
…
>>> Test on task 18 : loss=1.480 | TAw acc= 90.5%, forg=  1.7%| TAg acc= 65.5%, forg= -0.9% <<<
>>> Test on task 19 : loss=1.259 | TAw acc= 99.0%, forg=  0.0%| TAg acc= 69.1%, forg=  2.1% <<<
>>> Test on task 20 : loss=1.332 | TAw acc= 98.1%, forg=  0.0%| TAg acc= 61.9%, forg=  5.7% <<<
>>> Test on task 21 : loss=1.390 | TAw acc= 97.5%, forg= -1.7%| TAg acc= 55.1%, forg= 15.3% <<<
>>> Test on task 22 : loss=1.371 | TAw acc= 97.2%, forg=  0.0%| TAg acc= 59.6%, forg=  9.2% <<<
>>> Test on task 23 : loss=1.118 | TAw acc= 96.3%, forg=  0.0%| TAg acc= 74.3%, forg=  0.0% <<<
Save at eeil_e5_wisdm_2/wisdm_flex_eeil
======
LLL_Net(
  (model): SimpleMLP(
    (fc1): Linear(in_features=91, out_features=1000, bias=True)
    (fc2): Sequential()
  )
  (heads): ModuleList(
    (0): Linear(in_features=1000, out_features=34, bias=True)
    (1): Linear(in_features=1000, out_features=20, bias=True)
    (2): Linear(in_features=1000, out_features=20, bias=True)
    (3): Linear(in_features=1000, out_features=20, bias=True)
    (4): Linear(in_features=1000, out_features=20, bias=True)
    (5): Linear(in_features=1000, out_features=20, bias=True)
    (6): Linear(in_features=1000, out_features=20, bias=True)
    (7): Linear(in_features=1000, out_features=20, bias=True)
    (8): Linear(in_features=1000, out_features=20, bias=True)
    (9): Linear(in_features=1000, out_features=20, bias=True)
    (10): Linear(in_features=1000, out_features=20, bias=True)
    (11): Linear(in_features=1000, out_features=20, bias=True)
    (12): Linear(in_features=1000, out_features=20, bias=True)
    (13): Linear(in_features=1000, out_features=20, bias=True)
    (14): Linear(in_features=1000, out_features=20, bias=True)
    (15): Linear(in_features=1000, out_features=20, bias=True)
    (16): Linear(in_features=1000, out_features=20, bias=True)
    (17): Linear(in_features=1000, out_features=20, bias=True)
    (18): Linear(in_features=1000, out_features=20, bias=True)
    (19): Linear(in_features=1000, out_features=20, bias=True)
    (20): Linear(in_features=1000, out_features=20, bias=True)
    (21): Linear(in_features=1000, out_features=20, bias=True)
    (22): Linear(in_features=1000, out_features=20, bias=True)
    (23): Linear(in_features=1000, out_features=20, bias=True)
  )
)
======

************************************************************************************************************
Task 24
************************************************************************************************************
| Epoch   1, time=  2.5s | Train: skip eval | Valid: time=  0.2s loss=6.124, TAw acc= 55.1% | *
| Epoch   2, time=  2.5s | Train: skip eval | Valid: time=  0.2s loss=3.365, TAw acc= 75.6% | *
…
>>> Test on task 19 : loss=1.197 | TAw acc= 99.0%, forg=  0.0%| TAg acc= 71.1%, forg=  0.0% <<<
>>> Test on task 20 : loss=1.312 | TAw acc= 98.1%, forg=  0.0%| TAg acc= 71.4%, forg= -3.8% <<<
>>> Test on task 21 : loss=1.333 | TAw acc= 97.5%, forg=  0.0%| TAg acc= 55.1%, forg= 15.3% <<<
>>> Test on task 22 : loss=1.330 | TAw acc= 97.2%, forg=  0.0%| TAg acc= 65.1%, forg=  3.7% <<<
>>> Test on task 23 : loss=1.272 | TAw acc= 98.2%, forg= -1.8%| TAg acc= 55.0%, forg= 19.3% <<<
>>> Test on task 24 : loss=1.510 | TAw acc= 93.5%, forg=  0.0%| TAg acc= 58.3%, forg=  0.0% <<<
Save at eeil_e5_wisdm_2/wisdm_flex_eeil
======
LLL_Net(
  (model): SimpleMLP(
    (fc1): Linear(in_features=91, out_features=1000, bias=True)
    (fc2): Sequential()
  )
  (heads): ModuleList(
    (0): Linear(in_features=1000, out_features=34, bias=True)
    (1): Linear(in_features=1000, out_features=20, bias=True)
    (2): Linear(in_features=1000, out_features=20, bias=True)
    (3): Linear(in_features=1000, out_features=20, bias=True)
    (4): Linear(in_features=1000, out_features=20, bias=True)
    (5): Linear(in_features=1000, out_features=20, bias=True)
    (6): Linear(in_features=1000, out_features=20, bias=True)
    (7): Linear(in_features=1000, out_features=20, bias=True)
    (8): Linear(in_features=1000, out_features=20, bias=True)
    (9): Linear(in_features=1000, out_features=20, bias=True)
    (10): Linear(in_features=1000, out_features=20, bias=True)
    (11): Linear(in_features=1000, out_features=20, bias=True)
    (12): Linear(in_features=1000, out_features=20, bias=True)
    (13): Linear(in_features=1000, out_features=20, bias=True)
    (14): Linear(in_features=1000, out_features=20, bias=True)
    (15): Linear(in_features=1000, out_features=20, bias=True)
    (16): Linear(in_features=1000, out_features=20, bias=True)
    (17): Linear(in_features=1000, out_features=20, bias=True)
    (18): Linear(in_features=1000, out_features=20, bias=True)
    (19): Linear(in_features=1000, out_features=20, bias=True)
    (20): Linear(in_features=1000, out_features=20, bias=True)
    (21): Linear(in_features=1000, out_features=20, bias=True)
    (22): Linear(in_features=1000, out_features=20, bias=True)
    (23): Linear(in_features=1000, out_features=20, bias=True)
    (24): Linear(in_features=1000, out_features=20, bias=True)
  )
)
======

************************************************************************************************************
Task 25
************************************************************************************************************
| Epoch   1, time=  2.5s | Train: skip eval | Valid: time=  0.2s loss=5.492, TAw acc= 30.8% | *
| Epoch   2, time=  2.6s | Train: skip eval | Valid: time=  0.2s loss=3.277, TAw acc= 61.5% | *
…
>>> Test on task 20 : loss=1.277 | TAw acc= 98.1%, forg=  0.0%| TAg acc= 69.5%, forg=  1.9% <<<
>>> Test on task 21 : loss=1.237 | TAw acc= 97.5%, forg=  0.0%| TAg acc= 64.4%, forg=  5.9% <<<
>>> Test on task 22 : loss=1.170 | TAw acc= 98.2%, forg= -0.9%| TAg acc= 70.6%, forg= -1.8% <<<
>>> Test on task 23 : loss=1.065 | TAw acc= 98.2%, forg=  0.0%| TAg acc= 73.4%, forg=  0.9% <<<
>>> Test on task 24 : loss=1.743 | TAw acc= 95.4%, forg= -1.9%| TAg acc= 39.8%, forg= 18.5% <<<
>>> Test on task 25 : loss=1.516 | TAw acc= 94.3%, forg=  0.0%| TAg acc= 60.0%, forg=  0.0% <<<
Save at eeil_e5_wisdm_2/wisdm_flex_eeil
======
LLL_Net(
  (model): SimpleMLP(
    (fc1): Linear(in_features=91, out_features=1000, bias=True)
    (fc2): Sequential()
  )
  (heads): ModuleList(
    (0): Linear(in_features=1000, out_features=34, bias=True)
    (1): Linear(in_features=1000, out_features=20, bias=True)
    (2): Linear(in_features=1000, out_features=20, bias=True)
    (3): Linear(in_features=1000, out_features=20, bias=True)
    (4): Linear(in_features=1000, out_features=20, bias=True)
    (5): Linear(in_features=1000, out_features=20, bias=True)
    (6): Linear(in_features=1000, out_features=20, bias=True)
    (7): Linear(in_features=1000, out_features=20, bias=True)
    (8): Linear(in_features=1000, out_features=20, bias=True)
    (9): Linear(in_features=1000, out_features=20, bias=True)
    (10): Linear(in_features=1000, out_features=20, bias=True)
    (11): Linear(in_features=1000, out_features=20, bias=True)
    (12): Linear(in_features=1000, out_features=20, bias=True)
    (13): Linear(in_features=1000, out_features=20, bias=True)
    (14): Linear(in_features=1000, out_features=20, bias=True)
    (15): Linear(in_features=1000, out_features=20, bias=True)
    (16): Linear(in_features=1000, out_features=20, bias=True)
    (17): Linear(in_features=1000, out_features=20, bias=True)
    (18): Linear(in_features=1000, out_features=20, bias=True)
    (19): Linear(in_features=1000, out_features=20, bias=True)
    (20): Linear(in_features=1000, out_features=20, bias=True)
    (21): Linear(in_features=1000, out_features=20, bias=True)
    (22): Linear(in_features=1000, out_features=20, bias=True)
    (23): Linear(in_features=1000, out_features=20, bias=True)
    (24): Linear(in_features=1000, out_features=20, bias=True)
    (25): Linear(in_features=1000, out_features=20, bias=True)
  )
)
======

************************************************************************************************************
Task 26
************************************************************************************************************
| Epoch   1, time=  2.7s | Train: skip eval | Valid: time=  0.2s loss=5.061, TAw acc= 64.8% | *
| Epoch   2, time=  2.9s | Train: skip eval | Valid: time=  0.2s loss=2.326, TAw acc= 85.2% | *
…
>>> Test on task 21 : loss=1.206 | TAw acc= 97.5%, forg=  0.0%| TAg acc= 63.6%, forg=  6.8% <<<
>>> Test on task 22 : loss=1.182 | TAw acc= 98.2%, forg=  0.0%| TAg acc= 67.9%, forg=  2.8% <<<
>>> Test on task 23 : loss=1.035 | TAw acc= 99.1%, forg= -0.9%| TAg acc= 76.1%, forg= -1.8% <<<
>>> Test on task 24 : loss=1.601 | TAw acc= 96.3%, forg= -0.9%| TAg acc= 52.8%, forg=  5.6% <<<
>>> Test on task 25 : loss=1.898 | TAw acc= 96.2%, forg= -1.9%| TAg acc= 32.4%, forg= 27.6% <<<
>>> Test on task 26 : loss=1.251 | TAw acc= 92.3%, forg=  0.0%| TAg acc= 70.9%, forg=  0.0% <<<
Save at eeil_e5_wisdm_2/wisdm_flex_eeil
======
LLL_Net(
  (model): SimpleMLP(
    (fc1): Linear(in_features=91, out_features=1000, bias=True)
    (fc2): Sequential()
  )
  (heads): ModuleList(
    (0): Linear(in_features=1000, out_features=34, bias=True)
    (1): Linear(in_features=1000, out_features=20, bias=True)
    (2): Linear(in_features=1000, out_features=20, bias=True)
    (3): Linear(in_features=1000, out_features=20, bias=True)
    (4): Linear(in_features=1000, out_features=20, bias=True)
    (5): Linear(in_features=1000, out_features=20, bias=True)
    (6): Linear(in_features=1000, out_features=20, bias=True)
    (7): Linear(in_features=1000, out_features=20, bias=True)
    (8): Linear(in_features=1000, out_features=20, bias=True)
    (9): Linear(in_features=1000, out_features=20, bias=True)
    (10): Linear(in_features=1000, out_features=20, bias=True)
    (11): Linear(in_features=1000, out_features=20, bias=True)
    (12): Linear(in_features=1000, out_features=20, bias=True)
    (13): Linear(in_features=1000, out_features=20, bias=True)
    (14): Linear(in_features=1000, out_features=20, bias=True)
    (15): Linear(in_features=1000, out_features=20, bias=True)
    (16): Linear(in_features=1000, out_features=20, bias=True)
    (17): Linear(in_features=1000, out_features=20, bias=True)
    (18): Linear(in_features=1000, out_features=20, bias=True)
    (19): Linear(in_features=1000, out_features=20, bias=True)
    (20): Linear(in_features=1000, out_features=20, bias=True)
    (21): Linear(in_features=1000, out_features=20, bias=True)
    (22): Linear(in_features=1000, out_features=20, bias=True)
    (23): Linear(in_features=1000, out_features=20, bias=True)
    (24): Linear(in_features=1000, out_features=20, bias=True)
    (25): Linear(in_features=1000, out_features=20, bias=True)
    (26): Linear(in_features=1000, out_features=20, bias=True)
  )
)
======

************************************************************************************************************
Task 27
************************************************************************************************************
| Epoch   1, time=  2.8s | Train: skip eval | Valid: time=  0.2s loss=5.191, TAw acc= 55.1% | *
| Epoch   2, time=  3.0s | Train: skip eval | Valid: time=  0.2s loss=2.753, TAw acc= 68.5% | *
…
>>> Test on task 22 : loss=1.116 | TAw acc= 98.2%, forg=  0.0%| TAg acc= 69.7%, forg=  0.9% <<<
>>> Test on task 23 : loss=0.934 | TAw acc= 99.1%, forg=  0.0%| TAg acc= 78.9%, forg= -2.8% <<<
>>> Test on task 24 : loss=1.599 | TAw acc= 95.4%, forg=  0.9%| TAg acc= 49.1%, forg=  9.3% <<<
>>> Test on task 25 : loss=1.719 | TAw acc= 96.2%, forg=  0.0%| TAg acc= 46.7%, forg= 13.3% <<<
>>> Test on task 26 : loss=1.464 | TAw acc= 92.3%, forg=  0.0%| TAg acc= 62.4%, forg=  8.5% <<<
>>> Test on task 27 : loss=1.169 | TAw acc= 92.5%, forg=  0.0%| TAg acc= 75.0%, forg=  0.0% <<<
Save at eeil_e5_wisdm_2/wisdm_flex_eeil
======
LLL_Net(
  (model): SimpleMLP(
    (fc1): Linear(in_features=91, out_features=1000, bias=True)
    (fc2): Sequential()
  )
  (heads): ModuleList(
    (0): Linear(in_features=1000, out_features=34, bias=True)
    (1): Linear(in_features=1000, out_features=20, bias=True)
    (2): Linear(in_features=1000, out_features=20, bias=True)
    (3): Linear(in_features=1000, out_features=20, bias=True)
    (4): Linear(in_features=1000, out_features=20, bias=True)
    (5): Linear(in_features=1000, out_features=20, bias=True)
    (6): Linear(in_features=1000, out_features=20, bias=True)
    (7): Linear(in_features=1000, out_features=20, bias=True)
    (8): Linear(in_features=1000, out_features=20, bias=True)
    (9): Linear(in_features=1000, out_features=20, bias=True)
    (10): Linear(in_features=1000, out_features=20, bias=True)
    (11): Linear(in_features=1000, out_features=20, bias=True)
    (12): Linear(in_features=1000, out_features=20, bias=True)
    (13): Linear(in_features=1000, out_features=20, bias=True)
    (14): Linear(in_features=1000, out_features=20, bias=True)
    (15): Linear(in_features=1000, out_features=20, bias=True)
    (16): Linear(in_features=1000, out_features=20, bias=True)
    (17): Linear(in_features=1000, out_features=20, bias=True)
    (18): Linear(in_features=1000, out_features=20, bias=True)
    (19): Linear(in_features=1000, out_features=20, bias=True)
    (20): Linear(in_features=1000, out_features=20, bias=True)
    (21): Linear(in_features=1000, out_features=20, bias=True)
    (22): Linear(in_features=1000, out_features=20, bias=True)
    (23): Linear(in_features=1000, out_features=20, bias=True)
    (24): Linear(in_features=1000, out_features=20, bias=True)
    (25): Linear(in_features=1000, out_features=20, bias=True)
    (26): Linear(in_features=1000, out_features=20, bias=True)
    (27): Linear(in_features=1000, out_features=20, bias=True)
  )
)
======

************************************************************************************************************
Task 28
************************************************************************************************************
| Epoch   1, time=  3.2s | Train: skip eval | Valid: time=  0.2s loss=5.064, TAw acc= 62.0% | *
| Epoch   2, time=  3.2s | Train: skip eval | Valid: time=  0.2s loss=2.578, TAw acc= 79.3% | *
…
>>> Test on task 23 : loss=0.918 | TAw acc= 99.1%, forg=  0.0%| TAg acc= 80.7%, forg= -1.8% <<<
>>> Test on task 24 : loss=1.517 | TAw acc= 96.3%, forg=  0.0%| TAg acc= 50.9%, forg=  7.4% <<<
>>> Test on task 25 : loss=1.741 | TAw acc= 96.2%, forg=  0.0%| TAg acc= 50.5%, forg=  9.5% <<<
>>> Test on task 26 : loss=1.450 | TAw acc= 92.3%, forg=  0.0%| TAg acc= 69.2%, forg=  1.7% <<<
>>> Test on task 27 : loss=1.427 | TAw acc= 96.7%, forg= -4.2%| TAg acc= 64.2%, forg= 10.8% <<<
>>> Test on task 28 : loss=1.213 | TAw acc= 95.9%, forg=  0.0%| TAg acc= 69.7%, forg=  0.0% <<<
Save at eeil_e5_wisdm_2/wisdm_flex_eeil
======
LLL_Net(
  (model): SimpleMLP(
    (fc1): Linear(in_features=91, out_features=1000, bias=True)
    (fc2): Sequential()
  )
  (heads): ModuleList(
    (0): Linear(in_features=1000, out_features=34, bias=True)
    (1): Linear(in_features=1000, out_features=20, bias=True)
    (2): Linear(in_features=1000, out_features=20, bias=True)
    (3): Linear(in_features=1000, out_features=20, bias=True)
    (4): Linear(in_features=1000, out_features=20, bias=True)
    (5): Linear(in_features=1000, out_features=20, bias=True)
    (6): Linear(in_features=1000, out_features=20, bias=True)
    (7): Linear(in_features=1000, out_features=20, bias=True)
    (8): Linear(in_features=1000, out_features=20, bias=True)
    (9): Linear(in_features=1000, out_features=20, bias=True)
    (10): Linear(in_features=1000, out_features=20, bias=True)
    (11): Linear(in_features=1000, out_features=20, bias=True)
    (12): Linear(in_features=1000, out_features=20, bias=True)
    (13): Linear(in_features=1000, out_features=20, bias=True)
    (14): Linear(in_features=1000, out_features=20, bias=True)
    (15): Linear(in_features=1000, out_features=20, bias=True)
    (16): Linear(in_features=1000, out_features=20, bias=True)
    (17): Linear(in_features=1000, out_features=20, bias=True)
    (18): Linear(in_features=1000, out_features=20, bias=True)
    (19): Linear(in_features=1000, out_features=20, bias=True)
    (20): Linear(in_features=1000, out_features=20, bias=True)
    (21): Linear(in_features=1000, out_features=20, bias=True)
    (22): Linear(in_features=1000, out_features=20, bias=True)
    (23): Linear(in_features=1000, out_features=20, bias=True)
    (24): Linear(in_features=1000, out_features=20, bias=True)
    (25): Linear(in_features=1000, out_features=20, bias=True)
    (26): Linear(in_features=1000, out_features=20, bias=True)
    (27): Linear(in_features=1000, out_features=20, bias=True)
    (28): Linear(in_features=1000, out_features=20, bias=True)
  )
)
======

************************************************************************************************************
Task 29
************************************************************************************************************
| Epoch   1, time=  3.2s | Train: skip eval | Valid: time=  0.2s loss=6.031, TAw acc= 37.7% | *
| Epoch   2, time=  3.2s | Train: skip eval | Valid: time=  0.2s loss=3.284, TAw acc= 77.9% | *
…
>>> Test on task 24 : loss=1.486 | TAw acc= 95.4%, forg=  0.9%| TAg acc= 52.8%, forg=  5.6% <<<
>>> Test on task 25 : loss=1.582 | TAw acc= 95.2%, forg=  1.0%| TAg acc= 61.0%, forg= -1.0% <<<
>>> Test on task 26 : loss=1.375 | TAw acc= 93.2%, forg= -0.9%| TAg acc= 71.8%, forg= -0.9% <<<
>>> Test on task 27 : loss=1.358 | TAw acc= 95.8%, forg=  0.8%| TAg acc= 63.3%, forg= 11.7% <<<
>>> Test on task 28 : loss=1.550 | TAw acc= 95.9%, forg=  0.0%| TAg acc= 48.4%, forg= 21.3% <<<
>>> Test on task 29 : loss=1.340 | TAw acc= 97.1%, forg=  0.0%| TAg acc= 70.5%, forg=  0.0% <<<
Save at eeil_e5_wisdm_2/wisdm_flex_eeil
======
LLL_Net(
  (model): SimpleMLP(
    (fc1): Linear(in_features=91, out_features=1000, bias=True)
    (fc2): Sequential()
  )
  (heads): ModuleList(
    (0): Linear(in_features=1000, out_features=34, bias=True)
    (1): Linear(in_features=1000, out_features=20, bias=True)
    (2): Linear(in_features=1000, out_features=20, bias=True)
    (3): Linear(in_features=1000, out_features=20, bias=True)
    (4): Linear(in_features=1000, out_features=20, bias=True)
    (5): Linear(in_features=1000, out_features=20, bias=True)
    (6): Linear(in_features=1000, out_features=20, bias=True)
    (7): Linear(in_features=1000, out_features=20, bias=True)
    (8): Linear(in_features=1000, out_features=20, bias=True)
    (9): Linear(in_features=1000, out_features=20, bias=True)
    (10): Linear(in_features=1000, out_features=20, bias=True)
    (11): Linear(in_features=1000, out_features=20, bias=True)
    (12): Linear(in_features=1000, out_features=20, bias=True)
    (13): Linear(in_features=1000, out_features=20, bias=True)
    (14): Linear(in_features=1000, out_features=20, bias=True)
    (15): Linear(in_features=1000, out_features=20, bias=True)
    (16): Linear(in_features=1000, out_features=20, bias=True)
    (17): Linear(in_features=1000, out_features=20, bias=True)
    (18): Linear(in_features=1000, out_features=20, bias=True)
    (19): Linear(in_features=1000, out_features=20, bias=True)
    (20): Linear(in_features=1000, out_features=20, bias=True)
    (21): Linear(in_features=1000, out_features=20, bias=True)
    (22): Linear(in_features=1000, out_features=20, bias=True)
    (23): Linear(in_features=1000, out_features=20, bias=True)
    (24): Linear(in_features=1000, out_features=20, bias=True)
    (25): Linear(in_features=1000, out_features=20, bias=True)
    (26): Linear(in_features=1000, out_features=20, bias=True)
    (27): Linear(in_features=1000, out_features=20, bias=True)
    (28): Linear(in_features=1000, out_features=20, bias=True)
    (29): Linear(in_features=1000, out_features=20, bias=True)
  )
)
======

************************************************************************************************************
Task 30
************************************************************************************************************
| Epoch   1, time=  3.6s | Train: skip eval | Valid: time=  0.2s loss=4.919, TAw acc= 51.1% | *
| Epoch   2, time=  3.4s | Train: skip eval | Valid: time=  0.2s loss=2.130, TAw acc= 78.7% | *
…
>>> Test on task 25 : loss=1.637 | TAw acc= 96.2%, forg=  0.0%| TAg acc= 59.0%, forg=  1.9% <<<
>>> Test on task 26 : loss=1.421 | TAw acc= 93.2%, forg=  0.0%| TAg acc= 71.8%, forg=  0.0% <<<
>>> Test on task 27 : loss=1.337 | TAw acc= 96.7%, forg=  0.0%| TAg acc= 62.5%, forg= 12.5% <<<
>>> Test on task 28 : loss=1.532 | TAw acc= 95.9%, forg=  0.0%| TAg acc= 51.6%, forg= 18.0% <<<
>>> Test on task 29 : loss=1.672 | TAw acc= 97.1%, forg=  0.0%| TAg acc= 49.5%, forg= 21.0% <<<
>>> Test on task 30 : loss=1.265 | TAw acc= 94.4%, forg=  0.0%| TAg acc= 69.6%, forg=  0.0% <<<
Save at eeil_e5_wisdm_2/wisdm_flex_eeil
======
LLL_Net(
  (model): SimpleMLP(
    (fc1): Linear(in_features=91, out_features=1000, bias=True)
    (fc2): Sequential()
  )
  (heads): ModuleList(
    (0): Linear(in_features=1000, out_features=34, bias=True)
    (1): Linear(in_features=1000, out_features=20, bias=True)
    (2): Linear(in_features=1000, out_features=20, bias=True)
    (3): Linear(in_features=1000, out_features=20, bias=True)
    (4): Linear(in_features=1000, out_features=20, bias=True)
    (5): Linear(in_features=1000, out_features=20, bias=True)
    (6): Linear(in_features=1000, out_features=20, bias=True)
    (7): Linear(in_features=1000, out_features=20, bias=True)
    (8): Linear(in_features=1000, out_features=20, bias=True)
    (9): Linear(in_features=1000, out_features=20, bias=True)
    (10): Linear(in_features=1000, out_features=20, bias=True)
    (11): Linear(in_features=1000, out_features=20, bias=True)
    (12): Linear(in_features=1000, out_features=20, bias=True)
    (13): Linear(in_features=1000, out_features=20, bias=True)
    (14): Linear(in_features=1000, out_features=20, bias=True)
    (15): Linear(in_features=1000, out_features=20, bias=True)
    (16): Linear(in_features=1000, out_features=20, bias=True)
    (17): Linear(in_features=1000, out_features=20, bias=True)
    (18): Linear(in_features=1000, out_features=20, bias=True)
    (19): Linear(in_features=1000, out_features=20, bias=True)
    (20): Linear(in_features=1000, out_features=20, bias=True)
    (21): Linear(in_features=1000, out_features=20, bias=True)
    (22): Linear(in_features=1000, out_features=20, bias=True)
    (23): Linear(in_features=1000, out_features=20, bias=True)
    (24): Linear(in_features=1000, out_features=20, bias=True)
    (25): Linear(in_features=1000, out_features=20, bias=True)
    (26): Linear(in_features=1000, out_features=20, bias=True)
    (27): Linear(in_features=1000, out_features=20, bias=True)
    (28): Linear(in_features=1000, out_features=20, bias=True)
    (29): Linear(in_features=1000, out_features=20, bias=True)
    (30): Linear(in_features=1000, out_features=20, bias=True)
  )
)
======

************************************************************************************************************
Task 31
************************************************************************************************************
| Epoch   1, time=  3.8s | Train: skip eval | Valid: time=  0.2s loss=7.346, TAw acc= 43.8% | *
| Epoch   2, time=  3.8s | Train: skip eval | Valid: time=  0.2s loss=4.069, TAw acc= 56.2% | *
…
>>> Test on task 26 : loss=1.355 | TAw acc= 92.3%, forg=  0.9%| TAg acc= 73.5%, forg= -1.7% <<<
>>> Test on task 27 : loss=1.222 | TAw acc= 95.8%, forg=  0.8%| TAg acc= 70.0%, forg=  5.0% <<<
>>> Test on task 28 : loss=1.444 | TAw acc= 95.9%, forg=  0.0%| TAg acc= 56.6%, forg= 13.1% <<<
>>> Test on task 29 : loss=1.501 | TAw acc= 97.1%, forg=  0.0%| TAg acc= 61.0%, forg=  9.5% <<<
>>> Test on task 30 : loss=1.713 | TAw acc= 94.4%, forg=  0.0%| TAg acc= 48.8%, forg= 20.8% <<<
>>> Test on task 31 : loss=1.574 | TAw acc= 96.7%, forg=  0.0%| TAg acc= 52.2%, forg=  0.0% <<<
Save at eeil_e5_wisdm_2/wisdm_flex_eeil
======
LLL_Net(
  (model): SimpleMLP(
    (fc1): Linear(in_features=91, out_features=1000, bias=True)
    (fc2): Sequential()
  )
  (heads): ModuleList(
    (0): Linear(in_features=1000, out_features=34, bias=True)
    (1): Linear(in_features=1000, out_features=20, bias=True)
    (2): Linear(in_features=1000, out_features=20, bias=True)
    (3): Linear(in_features=1000, out_features=20, bias=True)
    (4): Linear(in_features=1000, out_features=20, bias=True)
    (5): Linear(in_features=1000, out_features=20, bias=True)
    (6): Linear(in_features=1000, out_features=20, bias=True)
    (7): Linear(in_features=1000, out_features=20, bias=True)
    (8): Linear(in_features=1000, out_features=20, bias=True)
    (9): Linear(in_features=1000, out_features=20, bias=True)
    (10): Linear(in_features=1000, out_features=20, bias=True)
    (11): Linear(in_features=1000, out_features=20, bias=True)
    (12): Linear(in_features=1000, out_features=20, bias=True)
    (13): Linear(in_features=1000, out_features=20, bias=True)
    (14): Linear(in_features=1000, out_features=20, bias=True)
    (15): Linear(in_features=1000, out_features=20, bias=True)
    (16): Linear(in_features=1000, out_features=20, bias=True)
    (17): Linear(in_features=1000, out_features=20, bias=True)
    (18): Linear(in_features=1000, out_features=20, bias=True)
    (19): Linear(in_features=1000, out_features=20, bias=True)
    (20): Linear(in_features=1000, out_features=20, bias=True)
    (21): Linear(in_features=1000, out_features=20, bias=True)
    (22): Linear(in_features=1000, out_features=20, bias=True)
    (23): Linear(in_features=1000, out_features=20, bias=True)
    (24): Linear(in_features=1000, out_features=20, bias=True)
    (25): Linear(in_features=1000, out_features=20, bias=True)
    (26): Linear(in_features=1000, out_features=20, bias=True)
    (27): Linear(in_features=1000, out_features=20, bias=True)
    (28): Linear(in_features=1000, out_features=20, bias=True)
    (29): Linear(in_features=1000, out_features=20, bias=True)
    (30): Linear(in_features=1000, out_features=20, bias=True)
    (31): Linear(in_features=1000, out_features=20, bias=True)
  )
)
======

************************************************************************************************************
Task 32
************************************************************************************************************
| Epoch   1, time=  4.0s | Train: skip eval | Valid: time=  0.2s loss=5.666, TAw acc= 51.8% | *
| Epoch   2, time=  4.0s | Train: skip eval | Valid: time=  0.2s loss=3.043, TAw acc= 78.8% | *
…
>>> Test on task 27 : loss=1.149 | TAw acc= 96.7%, forg=  0.0%| TAg acc= 75.0%, forg=  0.0% <<<
>>> Test on task 28 : loss=1.392 | TAw acc= 95.9%, forg=  0.0%| TAg acc= 59.0%, forg= 10.7% <<<
>>> Test on task 29 : loss=1.436 | TAw acc= 97.1%, forg=  0.0%| TAg acc= 64.8%, forg=  5.7% <<<
>>> Test on task 30 : loss=1.615 | TAw acc= 94.4%, forg=  0.0%| TAg acc= 50.4%, forg= 19.2% <<<
>>> Test on task 31 : loss=1.677 | TAw acc= 97.8%, forg= -1.1%| TAg acc= 44.4%, forg=  7.8% <<<
>>> Test on task 32 : loss=1.200 | TAw acc= 98.2%, forg=  0.0%| TAg acc= 70.2%, forg=  0.0% <<<
Save at eeil_e5_wisdm_2/wisdm_flex_eeil
======
LLL_Net(
  (model): SimpleMLP(
    (fc1): Linear(in_features=91, out_features=1000, bias=True)
    (fc2): Sequential()
  )
  (heads): ModuleList(
    (0): Linear(in_features=1000, out_features=34, bias=True)
    (1): Linear(in_features=1000, out_features=20, bias=True)
    (2): Linear(in_features=1000, out_features=20, bias=True)
    (3): Linear(in_features=1000, out_features=20, bias=True)
    (4): Linear(in_features=1000, out_features=20, bias=True)
    (5): Linear(in_features=1000, out_features=20, bias=True)
    (6): Linear(in_features=1000, out_features=20, bias=True)
    (7): Linear(in_features=1000, out_features=20, bias=True)
    (8): Linear(in_features=1000, out_features=20, bias=True)
    (9): Linear(in_features=1000, out_features=20, bias=True)
    (10): Linear(in_features=1000, out_features=20, bias=True)
    (11): Linear(in_features=1000, out_features=20, bias=True)
    (12): Linear(in_features=1000, out_features=20, bias=True)
    (13): Linear(in_features=1000, out_features=20, bias=True)
    (14): Linear(in_features=1000, out_features=20, bias=True)
    (15): Linear(in_features=1000, out_features=20, bias=True)
    (16): Linear(in_features=1000, out_features=20, bias=True)
    (17): Linear(in_features=1000, out_features=20, bias=True)
    (18): Linear(in_features=1000, out_features=20, bias=True)
    (19): Linear(in_features=1000, out_features=20, bias=True)
    (20): Linear(in_features=1000, out_features=20, bias=True)
    (21): Linear(in_features=1000, out_features=20, bias=True)
    (22): Linear(in_features=1000, out_features=20, bias=True)
    (23): Linear(in_features=1000, out_features=20, bias=True)
    (24): Linear(in_features=1000, out_features=20, bias=True)
    (25): Linear(in_features=1000, out_features=20, bias=True)
    (26): Linear(in_features=1000, out_features=20, bias=True)
    (27): Linear(in_features=1000, out_features=20, bias=True)
    (28): Linear(in_features=1000, out_features=20, bias=True)
    (29): Linear(in_features=1000, out_features=20, bias=True)
    (30): Linear(in_features=1000, out_features=20, bias=True)
    (31): Linear(in_features=1000, out_features=20, bias=True)
    (32): Linear(in_features=1000, out_features=20, bias=True)
  )
)
======

************************************************************************************************************
Task 33
************************************************************************************************************
| Epoch   1, time=  4.1s | Train: skip eval | Valid: time=  0.2s loss=5.268, TAw acc= 62.4% | *
| Epoch   2, time=  4.1s | Train: skip eval | Valid: time=  0.2s loss=2.898, TAw acc= 77.4% | *
…
>>> Test on task 28 : loss=1.406 | TAw acc= 95.9%, forg=  0.0%| TAg acc= 59.0%, forg= 10.7% <<<
>>> Test on task 29 : loss=1.426 | TAw acc= 97.1%, forg=  0.0%| TAg acc= 65.7%, forg=  4.8% <<<
>>> Test on task 30 : loss=1.596 | TAw acc= 94.4%, forg=  0.0%| TAg acc= 55.2%, forg= 14.4% <<<
>>> Test on task 31 : loss=1.462 | TAw acc= 97.8%, forg=  0.0%| TAg acc= 55.6%, forg= -3.3% <<<
>>> Test on task 32 : loss=1.576 | TAw acc= 98.2%, forg=  0.0%| TAg acc= 54.4%, forg= 15.8% <<<
>>> Test on task 33 : loss=1.085 | TAw acc= 95.1%, forg=  0.0%| TAg acc= 74.0%, forg=  0.0% <<<
Save at eeil_e5_wisdm_2/wisdm_flex_eeil
======
LLL_Net(
  (model): SimpleMLP(
    (fc1): Linear(in_features=91, out_features=1000, bias=True)
    (fc2): Sequential()
  )
  (heads): ModuleList(
    (0): Linear(in_features=1000, out_features=34, bias=True)
    (1): Linear(in_features=1000, out_features=20, bias=True)
    (2): Linear(in_features=1000, out_features=20, bias=True)
    (3): Linear(in_features=1000, out_features=20, bias=True)
    (4): Linear(in_features=1000, out_features=20, bias=True)
    (5): Linear(in_features=1000, out_features=20, bias=True)
    (6): Linear(in_features=1000, out_features=20, bias=True)
    (7): Linear(in_features=1000, out_features=20, bias=True)
    (8): Linear(in_features=1000, out_features=20, bias=True)
    (9): Linear(in_features=1000, out_features=20, bias=True)
    (10): Linear(in_features=1000, out_features=20, bias=True)
    (11): Linear(in_features=1000, out_features=20, bias=True)
    (12): Linear(in_features=1000, out_features=20, bias=True)
    (13): Linear(in_features=1000, out_features=20, bias=True)
    (14): Linear(in_features=1000, out_features=20, bias=True)
    (15): Linear(in_features=1000, out_features=20, bias=True)
    (16): Linear(in_features=1000, out_features=20, bias=True)
    (17): Linear(in_features=1000, out_features=20, bias=True)
    (18): Linear(in_features=1000, out_features=20, bias=True)
    (19): Linear(in_features=1000, out_features=20, bias=True)
    (20): Linear(in_features=1000, out_features=20, bias=True)
    (21): Linear(in_features=1000, out_features=20, bias=True)
    (22): Linear(in_features=1000, out_features=20, bias=True)
    (23): Linear(in_features=1000, out_features=20, bias=True)
    (24): Linear(in_features=1000, out_features=20, bias=True)
    (25): Linear(in_features=1000, out_features=20, bias=True)
    (26): Linear(in_features=1000, out_features=20, bias=True)
    (27): Linear(in_features=1000, out_features=20, bias=True)
    (28): Linear(in_features=1000, out_features=20, bias=True)
    (29): Linear(in_features=1000, out_features=20, bias=True)
    (30): Linear(in_features=1000, out_features=20, bias=True)
    (31): Linear(in_features=1000, out_features=20, bias=True)
    (32): Linear(in_features=1000, out_features=20, bias=True)
    (33): Linear(in_features=1000, out_features=20, bias=True)
  )
)
======

************************************************************************************************************
Task 34
************************************************************************************************************
| Epoch   1, time=  4.3s | Train: skip eval | Valid: time=  0.2s loss=5.479, TAw acc= 51.2% | *
| Epoch   2, time=  4.4s | Train: skip eval | Valid: time=  0.2s loss=2.648, TAw acc= 73.8% | *
…
>>> Test on task 29 : loss=1.417 | TAw acc= 97.1%, forg=  0.0%| TAg acc= 64.8%, forg=  5.7% <<<
>>> Test on task 30 : loss=1.586 | TAw acc= 94.4%, forg=  0.0%| TAg acc= 57.6%, forg= 12.0% <<<
>>> Test on task 31 : loss=1.408 | TAw acc= 98.9%, forg= -1.1%| TAg acc= 62.2%, forg= -6.7% <<<
>>> Test on task 32 : loss=1.485 | TAw acc= 96.5%, forg=  1.8%| TAg acc= 53.5%, forg= 16.7% <<<
>>> Test on task 33 : loss=1.280 | TAw acc= 95.1%, forg=  0.0%| TAg acc= 71.5%, forg=  2.4% <<<
>>> Test on task 34 : loss=1.397 | TAw acc= 94.7%, forg=  0.0%| TAg acc= 69.9%, forg=  0.0% <<<
Save at eeil_e5_wisdm_2/wisdm_flex_eeil
======
LLL_Net(
  (model): SimpleMLP(
    (fc1): Linear(in_features=91, out_features=1000, bias=True)
    (fc2): Sequential()
  )
  (heads): ModuleList(
    (0): Linear(in_features=1000, out_features=34, bias=True)
    (1): Linear(in_features=1000, out_features=20, bias=True)
    (2): Linear(in_features=1000, out_features=20, bias=True)
    (3): Linear(in_features=1000, out_features=20, bias=True)
    (4): Linear(in_features=1000, out_features=20, bias=True)
    (5): Linear(in_features=1000, out_features=20, bias=True)
    (6): Linear(in_features=1000, out_features=20, bias=True)
    (7): Linear(in_features=1000, out_features=20, bias=True)
    (8): Linear(in_features=1000, out_features=20, bias=True)
    (9): Linear(in_features=1000, out_features=20, bias=True)
    (10): Linear(in_features=1000, out_features=20, bias=True)
    (11): Linear(in_features=1000, out_features=20, bias=True)
    (12): Linear(in_features=1000, out_features=20, bias=True)
    (13): Linear(in_features=1000, out_features=20, bias=True)
    (14): Linear(in_features=1000, out_features=20, bias=True)
    (15): Linear(in_features=1000, out_features=20, bias=True)
    (16): Linear(in_features=1000, out_features=20, bias=True)
    (17): Linear(in_features=1000, out_features=20, bias=True)
    (18): Linear(in_features=1000, out_features=20, bias=True)
    (19): Linear(in_features=1000, out_features=20, bias=True)
    (20): Linear(in_features=1000, out_features=20, bias=True)
    (21): Linear(in_features=1000, out_features=20, bias=True)
    (22): Linear(in_features=1000, out_features=20, bias=True)
    (23): Linear(in_features=1000, out_features=20, bias=True)
    (24): Linear(in_features=1000, out_features=20, bias=True)
    (25): Linear(in_features=1000, out_features=20, bias=True)
    (26): Linear(in_features=1000, out_features=20, bias=True)
    (27): Linear(in_features=1000, out_features=20, bias=True)
    (28): Linear(in_features=1000, out_features=20, bias=True)
    (29): Linear(in_features=1000, out_features=20, bias=True)
    (30): Linear(in_features=1000, out_features=20, bias=True)
    (31): Linear(in_features=1000, out_features=20, bias=True)
    (32): Linear(in_features=1000, out_features=20, bias=True)
    (33): Linear(in_features=1000, out_features=20, bias=True)
    (34): Linear(in_features=1000, out_features=20, bias=True)
  )
)
======

************************************************************************************************************
Task 35
************************************************************************************************************
| Epoch   1, time=  4.3s | Train: skip eval | Valid: time=  0.3s loss=6.593, TAw acc= 42.9% | *
| Epoch   2, time=  4.6s | Train: skip eval | Valid: time=  0.2s loss=3.661, TAw acc= 68.6% | *
…
>>> Test on task 30 : loss=1.542 | TAw acc= 93.6%, forg=  0.8%| TAg acc= 63.2%, forg=  6.4% <<<
>>> Test on task 31 : loss=1.358 | TAw acc= 96.7%, forg=  2.2%| TAg acc= 65.6%, forg= -3.3% <<<
>>> Test on task 32 : loss=1.439 | TAw acc= 98.2%, forg=  0.0%| TAg acc= 53.5%, forg= 16.7% <<<
>>> Test on task 33 : loss=1.211 | TAw acc= 95.1%, forg=  0.0%| TAg acc= 71.5%, forg=  2.4% <<<
>>> Test on task 34 : loss=1.694 | TAw acc= 96.5%, forg= -1.8%| TAg acc= 62.8%, forg=  7.1% <<<
>>> Test on task 35 : loss=1.851 | TAw acc= 90.7%, forg=  0.0%| TAg acc= 48.5%, forg=  0.0% <<<
Save at eeil_e5_wisdm_2/wisdm_flex_eeil
======
LLL_Net(
  (model): SimpleMLP(
    (fc1): Linear(in_features=91, out_features=1000, bias=True)
    (fc2): Sequential()
  )
  (heads): ModuleList(
    (0): Linear(in_features=1000, out_features=34, bias=True)
    (1): Linear(in_features=1000, out_features=20, bias=True)
    (2): Linear(in_features=1000, out_features=20, bias=True)
    (3): Linear(in_features=1000, out_features=20, bias=True)
    (4): Linear(in_features=1000, out_features=20, bias=True)
    (5): Linear(in_features=1000, out_features=20, bias=True)
    (6): Linear(in_features=1000, out_features=20, bias=True)
    (7): Linear(in_features=1000, out_features=20, bias=True)
    (8): Linear(in_features=1000, out_features=20, bias=True)
    (9): Linear(in_features=1000, out_features=20, bias=True)
    (10): Linear(in_features=1000, out_features=20, bias=True)
    (11): Linear(in_features=1000, out_features=20, bias=True)
    (12): Linear(in_features=1000, out_features=20, bias=True)
    (13): Linear(in_features=1000, out_features=20, bias=True)
    (14): Linear(in_features=1000, out_features=20, bias=True)
    (15): Linear(in_features=1000, out_features=20, bias=True)
    (16): Linear(in_features=1000, out_features=20, bias=True)
    (17): Linear(in_features=1000, out_features=20, bias=True)
    (18): Linear(in_features=1000, out_features=20, bias=True)
    (19): Linear(in_features=1000, out_features=20, bias=True)
    (20): Linear(in_features=1000, out_features=20, bias=True)
    (21): Linear(in_features=1000, out_features=20, bias=True)
    (22): Linear(in_features=1000, out_features=20, bias=True)
    (23): Linear(in_features=1000, out_features=20, bias=True)
    (24): Linear(in_features=1000, out_features=20, bias=True)
    (25): Linear(in_features=1000, out_features=20, bias=True)
    (26): Linear(in_features=1000, out_features=20, bias=True)
    (27): Linear(in_features=1000, out_features=20, bias=True)
    (28): Linear(in_features=1000, out_features=20, bias=True)
    (29): Linear(in_features=1000, out_features=20, bias=True)
    (30): Linear(in_features=1000, out_features=20, bias=True)
    (31): Linear(in_features=1000, out_features=20, bias=True)
    (32): Linear(in_features=1000, out_features=20, bias=True)
    (33): Linear(in_features=1000, out_features=20, bias=True)
    (34): Linear(in_features=1000, out_features=20, bias=True)
    (35): Linear(in_features=1000, out_features=20, bias=True)
  )
)
======

************************************************************************************************************
Task 36
************************************************************************************************************
| Epoch   1, time=  4.7s | Train: skip eval | Valid: time=  0.2s loss=5.916, TAw acc= 52.0% | *
| Epoch   2, time=  4.8s | Train: skip eval | Valid: time=  0.2s loss=2.998, TAw acc= 73.3% | *
…
>>> Test on task 31 : loss=1.302 | TAw acc= 98.9%, forg=  0.0%| TAg acc= 71.1%, forg= -5.6% <<<
>>> Test on task 32 : loss=1.402 | TAw acc= 98.2%, forg=  0.0%| TAg acc= 60.5%, forg=  9.6% <<<
>>> Test on task 33 : loss=1.136 | TAw acc= 95.1%, forg=  0.0%| TAg acc= 73.2%, forg=  0.8% <<<
>>> Test on task 34 : loss=1.575 | TAw acc= 96.5%, forg=  0.0%| TAg acc= 64.6%, forg=  5.3% <<<
>>> Test on task 35 : loss=2.137 | TAw acc= 89.7%, forg=  1.0%| TAg acc= 30.9%, forg= 17.5% <<<
>>> Test on task 36 : loss=1.620 | TAw acc= 94.1%, forg=  0.0%| TAg acc= 55.9%, forg=  0.0% <<<
Save at eeil_e5_wisdm_2/wisdm_flex_eeil
======
LLL_Net(
  (model): SimpleMLP(
    (fc1): Linear(in_features=91, out_features=1000, bias=True)
    (fc2): Sequential()
  )
  (heads): ModuleList(
    (0): Linear(in_features=1000, out_features=34, bias=True)
    (1): Linear(in_features=1000, out_features=20, bias=True)
    (2): Linear(in_features=1000, out_features=20, bias=True)
    (3): Linear(in_features=1000, out_features=20, bias=True)
    (4): Linear(in_features=1000, out_features=20, bias=True)
    (5): Linear(in_features=1000, out_features=20, bias=True)
    (6): Linear(in_features=1000, out_features=20, bias=True)
    (7): Linear(in_features=1000, out_features=20, bias=True)
    (8): Linear(in_features=1000, out_features=20, bias=True)
    (9): Linear(in_features=1000, out_features=20, bias=True)
    (10): Linear(in_features=1000, out_features=20, bias=True)
    (11): Linear(in_features=1000, out_features=20, bias=True)
    (12): Linear(in_features=1000, out_features=20, bias=True)
    (13): Linear(in_features=1000, out_features=20, bias=True)
    (14): Linear(in_features=1000, out_features=20, bias=True)
    (15): Linear(in_features=1000, out_features=20, bias=True)
    (16): Linear(in_features=1000, out_features=20, bias=True)
    (17): Linear(in_features=1000, out_features=20, bias=True)
    (18): Linear(in_features=1000, out_features=20, bias=True)
    (19): Linear(in_features=1000, out_features=20, bias=True)
    (20): Linear(in_features=1000, out_features=20, bias=True)
    (21): Linear(in_features=1000, out_features=20, bias=True)
    (22): Linear(in_features=1000, out_features=20, bias=True)
    (23): Linear(in_features=1000, out_features=20, bias=True)
    (24): Linear(in_features=1000, out_features=20, bias=True)
    (25): Linear(in_features=1000, out_features=20, bias=True)
    (26): Linear(in_features=1000, out_features=20, bias=True)
    (27): Linear(in_features=1000, out_features=20, bias=True)
    (28): Linear(in_features=1000, out_features=20, bias=True)
    (29): Linear(in_features=1000, out_features=20, bias=True)
    (30): Linear(in_features=1000, out_features=20, bias=True)
    (31): Linear(in_features=1000, out_features=20, bias=True)
    (32): Linear(in_features=1000, out_features=20, bias=True)
    (33): Linear(in_features=1000, out_features=20, bias=True)
    (34): Linear(in_features=1000, out_features=20, bias=True)
    (35): Linear(in_features=1000, out_features=20, bias=True)
    (36): Linear(in_features=1000, out_features=20, bias=True)
  )
)
======

************************************************************************************************************
Task 37
************************************************************************************************************
| Epoch   1, time=  4.9s | Train: skip eval | Valid: time=  0.2s loss=6.595, TAw acc= 44.2% | *
| Epoch   2, time=  5.0s | Train: skip eval | Valid: time=  0.2s loss=3.470, TAw acc= 72.7% | *
…
>>> Test on task 32 : loss=1.433 | TAw acc= 98.2%, forg=  0.0%| TAg acc= 57.0%, forg= 13.2% <<<
>>> Test on task 33 : loss=1.186 | TAw acc= 95.1%, forg=  0.0%| TAg acc= 69.9%, forg=  4.1% <<<
>>> Test on task 34 : loss=1.510 | TAw acc= 96.5%, forg=  0.0%| TAg acc= 67.3%, forg=  2.7% <<<
>>> Test on task 35 : loss=2.093 | TAw acc= 92.8%, forg= -2.1%| TAg acc= 33.0%, forg= 15.5% <<<
>>> Test on task 36 : loss=1.895 | TAw acc= 95.1%, forg= -1.0%| TAg acc= 48.0%, forg=  7.8% <<<
>>> Test on task 37 : loss=1.507 | TAw acc= 92.5%, forg=  0.0%| TAg acc= 60.4%, forg=  0.0% <<<
Save at eeil_e5_wisdm_2/wisdm_flex_eeil
======
LLL_Net(
  (model): SimpleMLP(
    (fc1): Linear(in_features=91, out_features=1000, bias=True)
    (fc2): Sequential()
  )
  (heads): ModuleList(
    (0): Linear(in_features=1000, out_features=34, bias=True)
    (1): Linear(in_features=1000, out_features=20, bias=True)
    (2): Linear(in_features=1000, out_features=20, bias=True)
    (3): Linear(in_features=1000, out_features=20, bias=True)
    (4): Linear(in_features=1000, out_features=20, bias=True)
    (5): Linear(in_features=1000, out_features=20, bias=True)
    (6): Linear(in_features=1000, out_features=20, bias=True)
    (7): Linear(in_features=1000, out_features=20, bias=True)
    (8): Linear(in_features=1000, out_features=20, bias=True)
    (9): Linear(in_features=1000, out_features=20, bias=True)
    (10): Linear(in_features=1000, out_features=20, bias=True)
    (11): Linear(in_features=1000, out_features=20, bias=True)
    (12): Linear(in_features=1000, out_features=20, bias=True)
    (13): Linear(in_features=1000, out_features=20, bias=True)
    (14): Linear(in_features=1000, out_features=20, bias=True)
    (15): Linear(in_features=1000, out_features=20, bias=True)
    (16): Linear(in_features=1000, out_features=20, bias=True)
    (17): Linear(in_features=1000, out_features=20, bias=True)
    (18): Linear(in_features=1000, out_features=20, bias=True)
    (19): Linear(in_features=1000, out_features=20, bias=True)
    (20): Linear(in_features=1000, out_features=20, bias=True)
    (21): Linear(in_features=1000, out_features=20, bias=True)
    (22): Linear(in_features=1000, out_features=20, bias=True)
    (23): Linear(in_features=1000, out_features=20, bias=True)
    (24): Linear(in_features=1000, out_features=20, bias=True)
    (25): Linear(in_features=1000, out_features=20, bias=True)
    (26): Linear(in_features=1000, out_features=20, bias=True)
    (27): Linear(in_features=1000, out_features=20, bias=True)
    (28): Linear(in_features=1000, out_features=20, bias=True)
    (29): Linear(in_features=1000, out_features=20, bias=True)
    (30): Linear(in_features=1000, out_features=20, bias=True)
    (31): Linear(in_features=1000, out_features=20, bias=True)
    (32): Linear(in_features=1000, out_features=20, bias=True)
    (33): Linear(in_features=1000, out_features=20, bias=True)
    (34): Linear(in_features=1000, out_features=20, bias=True)
    (35): Linear(in_features=1000, out_features=20, bias=True)
    (36): Linear(in_features=1000, out_features=20, bias=True)
    (37): Linear(in_features=1000, out_features=20, bias=True)
  )
)
======

************************************************************************************************************
Task 38
************************************************************************************************************
| Epoch   1, time=  5.4s | Train: skip eval | Valid: time=  0.2s loss=4.984, TAw acc= 51.2% | *
| Epoch   2, time=  5.1s | Train: skip eval | Valid: time=  0.2s loss=2.679, TAw acc= 74.4% | *
…
>>> Test on task 33 : loss=1.121 | TAw acc= 95.1%, forg=  0.0%| TAg acc= 77.2%, forg= -3.3% <<<
>>> Test on task 34 : loss=1.476 | TAw acc= 96.5%, forg=  0.0%| TAg acc= 63.7%, forg=  6.2% <<<
>>> Test on task 35 : loss=1.990 | TAw acc= 89.7%, forg=  3.1%| TAg acc= 38.1%, forg= 10.3% <<<
>>> Test on task 36 : loss=1.927 | TAw acc= 95.1%, forg=  0.0%| TAg acc= 47.1%, forg=  8.8% <<<
>>> Test on task 37 : loss=1.949 | TAw acc= 92.5%, forg=  0.0%| TAg acc= 48.1%, forg= 12.3% <<<
>>> Test on task 38 : loss=1.380 | TAw acc= 92.2%, forg=  0.0%| TAg acc= 70.4%, forg=  0.0% <<<
Save at eeil_e5_wisdm_2/wisdm_flex_eeil
======
LLL_Net(
  (model): SimpleMLP(
    (fc1): Linear(in_features=91, out_features=1000, bias=True)
    (fc2): Sequential()
  )
  (heads): ModuleList(
    (0): Linear(in_features=1000, out_features=34, bias=True)
    (1): Linear(in_features=1000, out_features=20, bias=True)
    (2): Linear(in_features=1000, out_features=20, bias=True)
    (3): Linear(in_features=1000, out_features=20, bias=True)
    (4): Linear(in_features=1000, out_features=20, bias=True)
    (5): Linear(in_features=1000, out_features=20, bias=True)
    (6): Linear(in_features=1000, out_features=20, bias=True)
    (7): Linear(in_features=1000, out_features=20, bias=True)
    (8): Linear(in_features=1000, out_features=20, bias=True)
    (9): Linear(in_features=1000, out_features=20, bias=True)
    (10): Linear(in_features=1000, out_features=20, bias=True)
    (11): Linear(in_features=1000, out_features=20, bias=True)
    (12): Linear(in_features=1000, out_features=20, bias=True)
    (13): Linear(in_features=1000, out_features=20, bias=True)
    (14): Linear(in_features=1000, out_features=20, bias=True)
    (15): Linear(in_features=1000, out_features=20, bias=True)
    (16): Linear(in_features=1000, out_features=20, bias=True)
    (17): Linear(in_features=1000, out_features=20, bias=True)
    (18): Linear(in_features=1000, out_features=20, bias=True)
    (19): Linear(in_features=1000, out_features=20, bias=True)
    (20): Linear(in_features=1000, out_features=20, bias=True)
    (21): Linear(in_features=1000, out_features=20, bias=True)
    (22): Linear(in_features=1000, out_features=20, bias=True)
    (23): Linear(in_features=1000, out_features=20, bias=True)
    (24): Linear(in_features=1000, out_features=20, bias=True)
    (25): Linear(in_features=1000, out_features=20, bias=True)
    (26): Linear(in_features=1000, out_features=20, bias=True)
    (27): Linear(in_features=1000, out_features=20, bias=True)
    (28): Linear(in_features=1000, out_features=20, bias=True)
    (29): Linear(in_features=1000, out_features=20, bias=True)
    (30): Linear(in_features=1000, out_features=20, bias=True)
    (31): Linear(in_features=1000, out_features=20, bias=True)
    (32): Linear(in_features=1000, out_features=20, bias=True)
    (33): Linear(in_features=1000, out_features=20, bias=True)
    (34): Linear(in_features=1000, out_features=20, bias=True)
    (35): Linear(in_features=1000, out_features=20, bias=True)
    (36): Linear(in_features=1000, out_features=20, bias=True)
    (37): Linear(in_features=1000, out_features=20, bias=True)
    (38): Linear(in_features=1000, out_features=20, bias=True)
  )
)
======

************************************************************************************************************
Task 39
************************************************************************************************************
| Epoch   1, time=  5.6s | Train: skip eval | Valid: time=  0.2s loss=4.553, TAw acc= 55.6% | *
| Epoch   2, time=  5.6s | Train: skip eval | Valid: time=  0.2s loss=2.285, TAw acc= 80.8% | *
…
>>> Test on task 34 : loss=1.504 | TAw acc= 96.5%, forg=  0.0%| TAg acc= 63.7%, forg=  6.2% <<<
>>> Test on task 35 : loss=1.977 | TAw acc= 90.7%, forg=  2.1%| TAg acc= 42.3%, forg=  6.2% <<<
>>> Test on task 36 : loss=1.840 | TAw acc= 95.1%, forg=  0.0%| TAg acc= 52.9%, forg=  2.9% <<<
>>> Test on task 37 : loss=1.817 | TAw acc= 92.5%, forg=  0.0%| TAg acc= 54.7%, forg=  5.7% <<<
>>> Test on task 38 : loss=1.562 | TAw acc= 93.9%, forg= -1.7%| TAg acc= 57.4%, forg= 13.0% <<<
>>> Test on task 39 : loss=1.012 | TAw acc= 94.6%, forg=  0.0%| TAg acc= 76.9%, forg=  0.0% <<<
Save at eeil_e5_wisdm_2/wisdm_flex_eeil
======
LLL_Net(
  (model): SimpleMLP(
    (fc1): Linear(in_features=91, out_features=1000, bias=True)
    (fc2): Sequential()
  )
  (heads): ModuleList(
    (0): Linear(in_features=1000, out_features=34, bias=True)
    (1): Linear(in_features=1000, out_features=20, bias=True)
    (2): Linear(in_features=1000, out_features=20, bias=True)
    (3): Linear(in_features=1000, out_features=20, bias=True)
    (4): Linear(in_features=1000, out_features=20, bias=True)
    (5): Linear(in_features=1000, out_features=20, bias=True)
    (6): Linear(in_features=1000, out_features=20, bias=True)
    (7): Linear(in_features=1000, out_features=20, bias=True)
    (8): Linear(in_features=1000, out_features=20, bias=True)
    (9): Linear(in_features=1000, out_features=20, bias=True)
    (10): Linear(in_features=1000, out_features=20, bias=True)
    (11): Linear(in_features=1000, out_features=20, bias=True)
    (12): Linear(in_features=1000, out_features=20, bias=True)
    (13): Linear(in_features=1000, out_features=20, bias=True)
    (14): Linear(in_features=1000, out_features=20, bias=True)
    (15): Linear(in_features=1000, out_features=20, bias=True)
    (16): Linear(in_features=1000, out_features=20, bias=True)
    (17): Linear(in_features=1000, out_features=20, bias=True)
    (18): Linear(in_features=1000, out_features=20, bias=True)
    (19): Linear(in_features=1000, out_features=20, bias=True)
    (20): Linear(in_features=1000, out_features=20, bias=True)
    (21): Linear(in_features=1000, out_features=20, bias=True)
    (22): Linear(in_features=1000, out_features=20, bias=True)
    (23): Linear(in_features=1000, out_features=20, bias=True)
    (24): Linear(in_features=1000, out_features=20, bias=True)
    (25): Linear(in_features=1000, out_features=20, bias=True)
    (26): Linear(in_features=1000, out_features=20, bias=True)
    (27): Linear(in_features=1000, out_features=20, bias=True)
    (28): Linear(in_features=1000, out_features=20, bias=True)
    (29): Linear(in_features=1000, out_features=20, bias=True)
    (30): Linear(in_features=1000, out_features=20, bias=True)
    (31): Linear(in_features=1000, out_features=20, bias=True)
    (32): Linear(in_features=1000, out_features=20, bias=True)
    (33): Linear(in_features=1000, out_features=20, bias=True)
    (34): Linear(in_features=1000, out_features=20, bias=True)
    (35): Linear(in_features=1000, out_features=20, bias=True)
    (36): Linear(in_features=1000, out_features=20, bias=True)
    (37): Linear(in_features=1000, out_features=20, bias=True)
    (38): Linear(in_features=1000, out_features=20, bias=True)
    (39): Linear(in_features=1000, out_features=20, bias=True)
  )
)
======

************************************************************************************************************
Task 40
************************************************************************************************************
| Epoch   1, time=  5.5s | Train: skip eval | Valid: time=  0.2s loss=5.264, TAw acc= 48.2% | *
| Epoch   2, time=  5.4s | Train: skip eval | Valid: time=  0.2s loss=2.880, TAw acc= 78.8% | *
…
>>> Test on task 35 : loss=1.969 | TAw acc= 92.8%, forg=  0.0%| TAg acc= 43.3%, forg=  5.2% <<<
>>> Test on task 36 : loss=1.751 | TAw acc= 95.1%, forg=  0.0%| TAg acc= 55.9%, forg=  0.0% <<<
>>> Test on task 37 : loss=1.786 | TAw acc= 90.6%, forg=  1.9%| TAg acc= 56.6%, forg=  3.8% <<<
>>> Test on task 38 : loss=1.447 | TAw acc= 97.4%, forg= -3.5%| TAg acc= 65.2%, forg=  5.2% <<<
>>> Test on task 39 : loss=1.339 | TAw acc= 97.7%, forg= -3.1%| TAg acc= 63.1%, forg= 13.8% <<<
>>> Test on task 40 : loss=1.292 | TAw acc= 93.0%, forg=  0.0%| TAg acc= 63.2%, forg=  0.0% <<<
Save at eeil_e5_wisdm_2/wisdm_flex_eeil
======
LLL_Net(
  (model): SimpleMLP(
    (fc1): Linear(in_features=91, out_features=1000, bias=True)
    (fc2): Sequential()
  )
  (heads): ModuleList(
    (0): Linear(in_features=1000, out_features=34, bias=True)
    (1): Linear(in_features=1000, out_features=20, bias=True)
    (2): Linear(in_features=1000, out_features=20, bias=True)
    (3): Linear(in_features=1000, out_features=20, bias=True)
    (4): Linear(in_features=1000, out_features=20, bias=True)
    (5): Linear(in_features=1000, out_features=20, bias=True)
    (6): Linear(in_features=1000, out_features=20, bias=True)
    (7): Linear(in_features=1000, out_features=20, bias=True)
    (8): Linear(in_features=1000, out_features=20, bias=True)
    (9): Linear(in_features=1000, out_features=20, bias=True)
    (10): Linear(in_features=1000, out_features=20, bias=True)
    (11): Linear(in_features=1000, out_features=20, bias=True)
    (12): Linear(in_features=1000, out_features=20, bias=True)
    (13): Linear(in_features=1000, out_features=20, bias=True)
    (14): Linear(in_features=1000, out_features=20, bias=True)
    (15): Linear(in_features=1000, out_features=20, bias=True)
    (16): Linear(in_features=1000, out_features=20, bias=True)
    (17): Linear(in_features=1000, out_features=20, bias=True)
    (18): Linear(in_features=1000, out_features=20, bias=True)
    (19): Linear(in_features=1000, out_features=20, bias=True)
    (20): Linear(in_features=1000, out_features=20, bias=True)
    (21): Linear(in_features=1000, out_features=20, bias=True)
    (22): Linear(in_features=1000, out_features=20, bias=True)
    (23): Linear(in_features=1000, out_features=20, bias=True)
    (24): Linear(in_features=1000, out_features=20, bias=True)
    (25): Linear(in_features=1000, out_features=20, bias=True)
    (26): Linear(in_features=1000, out_features=20, bias=True)
    (27): Linear(in_features=1000, out_features=20, bias=True)
    (28): Linear(in_features=1000, out_features=20, bias=True)
    (29): Linear(in_features=1000, out_features=20, bias=True)
    (30): Linear(in_features=1000, out_features=20, bias=True)
    (31): Linear(in_features=1000, out_features=20, bias=True)
    (32): Linear(in_features=1000, out_features=20, bias=True)
    (33): Linear(in_features=1000, out_features=20, bias=True)
    (34): Linear(in_features=1000, out_features=20, bias=True)
    (35): Linear(in_features=1000, out_features=20, bias=True)
    (36): Linear(in_features=1000, out_features=20, bias=True)
    (37): Linear(in_features=1000, out_features=20, bias=True)
    (38): Linear(in_features=1000, out_features=20, bias=True)
    (39): Linear(in_features=1000, out_features=20, bias=True)
    (40): Linear(in_features=1000, out_features=20, bias=True)
  )
)
======

************************************************************************************************************
Task 41
************************************************************************************************************
| Epoch   1, time=  6.0s | Train: skip eval | Valid: time=  0.2s loss=5.918, TAw acc= 63.1% | *
| Epoch   2, time=  5.6s | Train: skip eval | Valid: time=  0.2s loss=2.560, TAw acc= 79.8% | *
…
>>> Test on task 36 : loss=1.810 | TAw acc= 95.1%, forg=  0.0%| TAg acc= 52.9%, forg=  2.9% <<<
>>> Test on task 37 : loss=1.775 | TAw acc= 88.7%, forg=  3.8%| TAg acc= 61.3%, forg= -0.9% <<<
>>> Test on task 38 : loss=1.456 | TAw acc= 95.7%, forg=  1.7%| TAg acc= 58.3%, forg= 12.2% <<<
>>> Test on task 39 : loss=1.215 | TAw acc= 96.9%, forg=  0.8%| TAg acc= 73.8%, forg=  3.1% <<<
>>> Test on task 40 : loss=1.561 | TAw acc= 94.7%, forg= -1.8%| TAg acc= 50.0%, forg= 13.2% <<<
>>> Test on task 41 : loss=1.478 | TAw acc= 92.9%, forg=  0.0%| TAg acc= 58.9%, forg=  0.0% <<<
Save at eeil_e5_wisdm_2/wisdm_flex_eeil
======
LLL_Net(
  (model): SimpleMLP(
    (fc1): Linear(in_features=91, out_features=1000, bias=True)
    (fc2): Sequential()
  )
  (heads): ModuleList(
    (0): Linear(in_features=1000, out_features=34, bias=True)
    (1): Linear(in_features=1000, out_features=20, bias=True)
    (2): Linear(in_features=1000, out_features=20, bias=True)
    (3): Linear(in_features=1000, out_features=20, bias=True)
    (4): Linear(in_features=1000, out_features=20, bias=True)
    (5): Linear(in_features=1000, out_features=20, bias=True)
    (6): Linear(in_features=1000, out_features=20, bias=True)
    (7): Linear(in_features=1000, out_features=20, bias=True)
    (8): Linear(in_features=1000, out_features=20, bias=True)
    (9): Linear(in_features=1000, out_features=20, bias=True)
    (10): Linear(in_features=1000, out_features=20, bias=True)
    (11): Linear(in_features=1000, out_features=20, bias=True)
    (12): Linear(in_features=1000, out_features=20, bias=True)
    (13): Linear(in_features=1000, out_features=20, bias=True)
    (14): Linear(in_features=1000, out_features=20, bias=True)
    (15): Linear(in_features=1000, out_features=20, bias=True)
    (16): Linear(in_features=1000, out_features=20, bias=True)
    (17): Linear(in_features=1000, out_features=20, bias=True)
    (18): Linear(in_features=1000, out_features=20, bias=True)
    (19): Linear(in_features=1000, out_features=20, bias=True)
    (20): Linear(in_features=1000, out_features=20, bias=True)
    (21): Linear(in_features=1000, out_features=20, bias=True)
    (22): Linear(in_features=1000, out_features=20, bias=True)
    (23): Linear(in_features=1000, out_features=20, bias=True)
    (24): Linear(in_features=1000, out_features=20, bias=True)
    (25): Linear(in_features=1000, out_features=20, bias=True)
    (26): Linear(in_features=1000, out_features=20, bias=True)
    (27): Linear(in_features=1000, out_features=20, bias=True)
    (28): Linear(in_features=1000, out_features=20, bias=True)
    (29): Linear(in_features=1000, out_features=20, bias=True)
    (30): Linear(in_features=1000, out_features=20, bias=True)
    (31): Linear(in_features=1000, out_features=20, bias=True)
    (32): Linear(in_features=1000, out_features=20, bias=True)
    (33): Linear(in_features=1000, out_features=20, bias=True)
    (34): Linear(in_features=1000, out_features=20, bias=True)
    (35): Linear(in_features=1000, out_features=20, bias=True)
    (36): Linear(in_features=1000, out_features=20, bias=True)
    (37): Linear(in_features=1000, out_features=20, bias=True)
    (38): Linear(in_features=1000, out_features=20, bias=True)
    (39): Linear(in_features=1000, out_features=20, bias=True)
    (40): Linear(in_features=1000, out_features=20, bias=True)
    (41): Linear(in_features=1000, out_features=20, bias=True)
  )
)
======

************************************************************************************************************
Task 42
************************************************************************************************************
| Epoch   1, time=  6.2s | Train: skip eval | Valid: time=  0.2s loss=5.708, TAw acc= 45.0% | *
| Epoch   2, time=  6.2s | Train: skip eval | Valid: time=  0.2s loss=2.645, TAw acc= 75.0% | *
…
>>> Test on task 37 : loss=1.744 | TAw acc= 89.6%, forg=  2.8%| TAg acc= 58.5%, forg=  2.8% <<<
>>> Test on task 38 : loss=1.507 | TAw acc= 94.8%, forg=  2.6%| TAg acc= 54.8%, forg= 15.7% <<<
>>> Test on task 39 : loss=1.137 | TAw acc= 96.9%, forg=  0.8%| TAg acc= 74.6%, forg=  2.3% <<<
>>> Test on task 40 : loss=1.576 | TAw acc= 95.6%, forg= -0.9%| TAg acc= 53.5%, forg=  9.6% <<<
>>> Test on task 41 : loss=1.891 | TAw acc= 93.8%, forg= -0.9%| TAg acc= 46.4%, forg= 12.5% <<<
>>> Test on task 42 : loss=1.332 | TAw acc= 98.1%, forg=  0.0%| TAg acc= 67.6%, forg=  0.0% <<<
Save at eeil_e5_wisdm_2/wisdm_flex_eeil
======
LLL_Net(
  (model): SimpleMLP(
    (fc1): Linear(in_features=91, out_features=1000, bias=True)
    (fc2): Sequential()
  )
  (heads): ModuleList(
    (0): Linear(in_features=1000, out_features=34, bias=True)
    (1): Linear(in_features=1000, out_features=20, bias=True)
    (2): Linear(in_features=1000, out_features=20, bias=True)
    (3): Linear(in_features=1000, out_features=20, bias=True)
    (4): Linear(in_features=1000, out_features=20, bias=True)
    (5): Linear(in_features=1000, out_features=20, bias=True)
    (6): Linear(in_features=1000, out_features=20, bias=True)
    (7): Linear(in_features=1000, out_features=20, bias=True)
    (8): Linear(in_features=1000, out_features=20, bias=True)
    (9): Linear(in_features=1000, out_features=20, bias=True)
    (10): Linear(in_features=1000, out_features=20, bias=True)
    (11): Linear(in_features=1000, out_features=20, bias=True)
    (12): Linear(in_features=1000, out_features=20, bias=True)
    (13): Linear(in_features=1000, out_features=20, bias=True)
    (14): Linear(in_features=1000, out_features=20, bias=True)
    (15): Linear(in_features=1000, out_features=20, bias=True)
    (16): Linear(in_features=1000, out_features=20, bias=True)
    (17): Linear(in_features=1000, out_features=20, bias=True)
    (18): Linear(in_features=1000, out_features=20, bias=True)
    (19): Linear(in_features=1000, out_features=20, bias=True)
    (20): Linear(in_features=1000, out_features=20, bias=True)
    (21): Linear(in_features=1000, out_features=20, bias=True)
    (22): Linear(in_features=1000, out_features=20, bias=True)
    (23): Linear(in_features=1000, out_features=20, bias=True)
    (24): Linear(in_features=1000, out_features=20, bias=True)
    (25): Linear(in_features=1000, out_features=20, bias=True)
    (26): Linear(in_features=1000, out_features=20, bias=True)
    (27): Linear(in_features=1000, out_features=20, bias=True)
    (28): Linear(in_features=1000, out_features=20, bias=True)
    (29): Linear(in_features=1000, out_features=20, bias=True)
    (30): Linear(in_features=1000, out_features=20, bias=True)
    (31): Linear(in_features=1000, out_features=20, bias=True)
    (32): Linear(in_features=1000, out_features=20, bias=True)
    (33): Linear(in_features=1000, out_features=20, bias=True)
    (34): Linear(in_features=1000, out_features=20, bias=True)
    (35): Linear(in_features=1000, out_features=20, bias=True)
    (36): Linear(in_features=1000, out_features=20, bias=True)
    (37): Linear(in_features=1000, out_features=20, bias=True)
    (38): Linear(in_features=1000, out_features=20, bias=True)
    (39): Linear(in_features=1000, out_features=20, bias=True)
    (40): Linear(in_features=1000, out_features=20, bias=True)
    (41): Linear(in_features=1000, out_features=20, bias=True)
    (42): Linear(in_features=1000, out_features=20, bias=True)
  )
)
======

************************************************************************************************************
Task 43
************************************************************************************************************
| Epoch   1, time=  6.7s | Train: skip eval | Valid: time=  0.2s loss=4.503, TAw acc= 58.1% | *
| Epoch   2, time=  6.5s | Train: skip eval | Valid: time=  0.2s loss=2.287, TAw acc= 89.5% | *
…
