…
| Selected 420 train exemplars, time=  0.3s
420
------------------------------------------------------------------------------------------------------------
>>> Test on task  0 : loss=1.136 | TAw acc= 83.3%, forg=  0.0%| TAg acc= 69.4%, forg= 13.9% <<<
>>> Test on task  1 : loss=3.894 | TAw acc= 89.2%, forg=  0.0%| TAg acc= 76.7%, forg=  3.3% <<<
>>> Test on task  2 : loss=6.983 | TAw acc= 99.2%, forg=  0.0%| TAg acc= 93.3%, forg=  0.0% <<<
>>> Test on task  3 : loss=8.095 | TAw acc=100.0%, forg=  0.0%| TAg acc= 95.0%, forg=  0.0% <<<
Save at k=10/icarl_dsads_2/har_flex_icarl
======
LLL_Net(
  (model): SimpleMLP(
    (fc1): Linear(in_features=405, out_features=66, bias=True)
    (fc2): Sequential()
  )
  (heads): ModuleList(
    (0): Linear(in_features=66, out_features=12, bias=True)
    (1): Linear(in_features=66, out_features=10, bias=True)
    (2): Linear(in_features=66, out_features=10, bias=True)
    (3): Linear(in_features=66, out_features=10, bias=True)
  )
)
======

************************************************************************************************************
Task  4
************************************************************************************************************
| Epoch   1, time=  0.4s | Train: skip eval | Valid: time=  0.2s loss=15.327, TAw acc= 15.6% | *
| Epoch   2, time=  0.4s | Train: skip eval | Valid: time=  0.1s loss=13.049, TAw acc= 27.1% | *
…
------------------------------------------------------------------------------------------------------------
>>> Test on task  0 : loss=1.153 | TAw acc= 83.3%, forg=  0.0%| TAg acc= 68.1%, forg= 15.3% <<<
>>> Test on task  1 : loss=3.889 | TAw acc= 89.2%, forg=  0.0%| TAg acc= 73.3%, forg=  6.7% <<<
>>> Test on task  2 : loss=6.737 | TAw acc= 99.2%, forg=  0.0%| TAg acc= 92.5%, forg=  0.8% <<<
>>> Test on task  3 : loss=8.291 | TAw acc=100.0%, forg=  0.0%| TAg acc= 95.0%, forg=  0.0% <<<
>>> Test on task  4 : loss=11.426 | TAw acc= 88.3%, forg=  0.0%| TAg acc= 82.5%, forg=  0.0% <<<
Save at k=10/icarl_dsads_2/har_flex_icarl
======
LLL_Net(
  (model): SimpleMLP(
    (fc1): Linear(in_features=405, out_features=66, bias=True)
    (fc2): Sequential()
  )
  (heads): ModuleList(
    (0): Linear(in_features=66, out_features=12, bias=True)
    (1): Linear(in_features=66, out_features=10, bias=True)
    (2): Linear(in_features=66, out_features=10, bias=True)
    (3): Linear(in_features=66, out_features=10, bias=True)
    (4): Linear(in_features=66, out_features=10, bias=True)
  )
)
======

************************************************************************************************************
Task  5
************************************************************************************************************
| Epoch   1, time=  0.5s | Train: skip eval | Valid: time=  0.2s loss=14.402, TAw acc= 12.5% | *
| Epoch   2, time=  0.5s | Train: skip eval | Valid: time=  0.2s loss=11.976, TAw acc= 35.4% | *
…
>>> Test on task  0 : loss=1.301 | TAw acc= 83.3%, forg=  0.0%| TAg acc= 66.0%, forg= 17.4% <<<
>>> Test on task  1 : loss=3.668 | TAw acc= 89.2%, forg=  0.0%| TAg acc= 72.5%, forg=  7.5% <<<
>>> Test on task  2 : loss=6.312 | TAw acc= 99.2%, forg=  0.0%| TAg acc= 91.7%, forg=  1.7% <<<
>>> Test on task  3 : loss=7.815 | TAw acc=100.0%, forg=  0.0%| TAg acc= 95.0%, forg=  0.0% <<<
>>> Test on task  4 : loss=11.549 | TAw acc= 88.3%, forg=  0.0%| TAg acc= 81.7%, forg=  0.8% <<<
>>> Test on task  5 : loss=9.847 | TAw acc= 94.2%, forg=  0.0%| TAg acc= 91.7%, forg=  0.0% <<<
Save at k=10/icarl_dsads_2/har_flex_icarl
======
LLL_Net(
  (model): SimpleMLP(
    (fc1): Linear(in_features=405, out_features=66, bias=True)
    (fc2): Sequential()
  )
  (heads): ModuleList(
    (0): Linear(in_features=66, out_features=12, bias=True)
    (1): Linear(in_features=66, out_features=10, bias=True)
    (2): Linear(in_features=66, out_features=10, bias=True)
    (3): Linear(in_features=66, out_features=10, bias=True)
    (4): Linear(in_features=66, out_features=10, bias=True)
    (5): Linear(in_features=66, out_features=10, bias=True)
  )
)
======

************************************************************************************************************
Task  6
************************************************************************************************************
| Epoch   1, time=  0.6s | Train: skip eval | Valid: time=  0.2s loss=17.374, TAw acc= 21.9% | *
| Epoch   2, time=  0.7s | Train: skip eval | Valid: time=  0.2s loss=14.403, TAw acc= 52.1% | *
…
>>> Test on task  1 : loss=3.478 | TAw acc= 89.2%, forg=  0.0%| TAg acc= 71.7%, forg=  8.3% <<<
>>> Test on task  2 : loss=6.158 | TAw acc= 99.2%, forg=  0.0%| TAg acc= 90.8%, forg=  2.5% <<<
>>> Test on task  3 : loss=7.623 | TAw acc=100.0%, forg=  0.0%| TAg acc= 95.0%, forg=  0.0% <<<
>>> Test on task  4 : loss=11.356 | TAw acc= 88.3%, forg=  0.0%| TAg acc= 81.7%, forg=  0.8% <<<
>>> Test on task  5 : loss=10.105 | TAw acc= 94.2%, forg=  0.0%| TAg acc= 88.3%, forg=  3.3% <<<
>>> Test on task  6 : loss=12.522 | TAw acc= 97.5%, forg=  0.0%| TAg acc= 88.3%, forg=  0.0% <<<
Save at k=10/icarl_dsads_2/har_flex_icarl
======
LLL_Net(
  (model): SimpleMLP(
    (fc1): Linear(in_features=405, out_features=66, bias=True)
    (fc2): Sequential()
  )
  (heads): ModuleList(
    (0): Linear(in_features=66, out_features=12, bias=True)
    (1): Linear(in_features=66, out_features=10, bias=True)
    (2): Linear(in_features=66, out_features=10, bias=True)
    (3): Linear(in_features=66, out_features=10, bias=True)
    (4): Linear(in_features=66, out_features=10, bias=True)
    (5): Linear(in_features=66, out_features=10, bias=True)
    (6): Linear(in_features=66, out_features=10, bias=True)
  )
)
======

************************************************************************************************************
Task  7
************************************************************************************************************
| Epoch   1, time=  0.8s | Train: skip eval | Valid: time=  0.2s loss=16.681, TAw acc= 37.5% | *
| Epoch   2, time=  0.8s | Train: skip eval | Valid: time=  0.2s loss=13.368, TAw acc= 69.8% | *
…
>>> Test on task  2 : loss=6.056 | TAw acc= 99.2%, forg=  0.0%| TAg acc= 86.7%, forg=  6.7% <<<
>>> Test on task  3 : loss=7.370 | TAw acc=100.0%, forg=  0.0%| TAg acc= 94.2%, forg=  0.8% <<<
>>> Test on task  4 : loss=10.908 | TAw acc= 88.3%, forg=  0.0%| TAg acc= 81.7%, forg=  0.8% <<<
>>> Test on task  5 : loss=9.663 | TAw acc= 94.2%, forg=  0.0%| TAg acc= 88.3%, forg=  3.3% <<<
>>> Test on task  6 : loss=12.672 | TAw acc= 97.5%, forg=  0.0%| TAg acc= 86.7%, forg=  1.7% <<<
>>> Test on task  7 : loss=11.596 | TAw acc= 95.8%, forg=  0.0%| TAg acc= 84.2%, forg=  0.0% <<<
Save at k=10/icarl_dsads_2/har_flex_icarl
======
LLL_Net(
  (model): SimpleMLP(
    (fc1): Linear(in_features=405, out_features=66, bias=True)
    (fc2): Sequential()
  )
  (heads): ModuleList(
    (0): Linear(in_features=66, out_features=12, bias=True)
    (1): Linear(in_features=66, out_features=10, bias=True)
    (2): Linear(in_features=66, out_features=10, bias=True)
    (3): Linear(in_features=66, out_features=10, bias=True)
    (4): Linear(in_features=66, out_features=10, bias=True)
    (5): Linear(in_features=66, out_features=10, bias=True)
    (6): Linear(in_features=66, out_features=10, bias=True)
    (7): Linear(in_features=66, out_features=10, bias=True)
  )
)
======

************************************************************************************************************
Task  8
************************************************************************************************************
| Epoch   1, time=  1.0s | Train: skip eval | Valid: time=  0.2s loss=19.538, TAw acc= 20.8% | *
| Epoch   2, time=  0.9s | Train: skip eval | Valid: time=  0.2s loss=15.240, TAw acc= 52.1% | *
…
>>> Test on task  3 : loss=7.059 | TAw acc=100.0%, forg=  0.0%| TAg acc= 92.5%, forg=  2.5% <<<
>>> Test on task  4 : loss=10.515 | TAw acc= 88.3%, forg=  0.0%| TAg acc= 80.0%, forg=  2.5% <<<
>>> Test on task  5 : loss=9.520 | TAw acc= 94.2%, forg=  0.0%| TAg acc= 85.0%, forg=  6.7% <<<
>>> Test on task  6 : loss=12.220 | TAw acc= 97.5%, forg=  0.0%| TAg acc= 85.8%, forg=  2.5% <<<
>>> Test on task  7 : loss=11.970 | TAw acc= 95.8%, forg=  0.0%| TAg acc= 83.3%, forg=  0.8% <<<
>>> Test on task  8 : loss=13.184 | TAw acc= 90.0%, forg=  0.0%| TAg acc= 68.3%, forg=  0.0% <<<
Save at k=10/icarl_dsads_2/har_flex_icarl
======
LLL_Net(
  (model): SimpleMLP(
    (fc1): Linear(in_features=405, out_features=66, bias=True)
    (fc2): Sequential()
  )
  (heads): ModuleList(
    (0): Linear(in_features=66, out_features=12, bias=True)
    (1): Linear(in_features=66, out_features=10, bias=True)
    (2): Linear(in_features=66, out_features=10, bias=True)
    (3): Linear(in_features=66, out_features=10, bias=True)
    (4): Linear(in_features=66, out_features=10, bias=True)
    (5): Linear(in_features=66, out_features=10, bias=True)
    (6): Linear(in_features=66, out_features=10, bias=True)
    (7): Linear(in_features=66, out_features=10, bias=True)
    (8): Linear(in_features=66, out_features=10, bias=True)
  )
)
======

************************************************************************************************************
Task  9
************************************************************************************************************
| Epoch   1, time=  1.1s | Train: skip eval | Valid: time=  0.2s loss=18.152, TAw acc= 38.5% | *
| Epoch   2, time=  1.1s | Train: skip eval | Valid: time=  0.2s loss=14.307, TAw acc= 69.8% | *
…
>>> Test on task  4 : loss=10.337 | TAw acc= 88.3%, forg=  0.0%| TAg acc= 80.0%, forg=  2.5% <<<
>>> Test on task  5 : loss=9.115 | TAw acc= 94.2%, forg=  0.0%| TAg acc= 83.3%, forg=  8.3% <<<
>>> Test on task  6 : loss=11.938 | TAw acc= 97.5%, forg=  0.0%| TAg acc= 85.8%, forg=  2.5% <<<
>>> Test on task  7 : loss=11.712 | TAw acc= 95.8%, forg=  0.0%| TAg acc= 82.5%, forg=  1.7% <<<
>>> Test on task  8 : loss=13.450 | TAw acc= 90.0%, forg=  0.0%| TAg acc= 68.3%, forg=  0.0% <<<
>>> Test on task  9 : loss=12.867 | TAw acc=100.0%, forg=  0.0%| TAg acc= 85.8%, forg=  0.0% <<<
Save at k=10/icarl_dsads_2/har_flex_icarl
======
LLL_Net(
  (model): SimpleMLP(
    (fc1): Linear(in_features=405, out_features=66, bias=True)
    (fc2): Sequential()
  )
  (heads): ModuleList(
    (0): Linear(in_features=66, out_features=12, bias=True)
    (1): Linear(in_features=66, out_features=10, bias=True)
    (2): Linear(in_features=66, out_features=10, bias=True)
    (3): Linear(in_features=66, out_features=10, bias=True)
    (4): Linear(in_features=66, out_features=10, bias=True)
    (5): Linear(in_features=66, out_features=10, bias=True)
    (6): Linear(in_features=66, out_features=10, bias=True)
    (7): Linear(in_features=66, out_features=10, bias=True)
    (8): Linear(in_features=66, out_features=10, bias=True)
    (9): Linear(in_features=66, out_features=10, bias=True)
  )
)
======

************************************************************************************************************
Task 10
************************************************************************************************************
| Epoch   1, time=  1.3s | Train: skip eval | Valid: time=  0.2s loss=18.371, TAw acc= 37.5% | *
| Epoch   2, time=  1.3s | Train: skip eval | Valid: time=  0.2s loss=14.494, TAw acc= 83.3% | *
…
>>> Test on task  5 : loss=8.678 | TAw acc= 94.2%, forg=  0.0%| TAg acc= 81.7%, forg= 10.0% <<<
>>> Test on task  6 : loss=11.469 | TAw acc= 97.5%, forg=  0.0%| TAg acc= 85.0%, forg=  3.3% <<<
>>> Test on task  7 : loss=11.302 | TAw acc= 95.8%, forg=  0.0%| TAg acc= 81.7%, forg=  2.5% <<<
>>> Test on task  8 : loss=12.979 | TAw acc= 90.0%, forg=  0.0%| TAg acc= 67.5%, forg=  0.8% <<<
>>> Test on task  9 : loss=13.106 | TAw acc=100.0%, forg=  0.0%| TAg acc= 85.0%, forg=  0.8% <<<
>>> Test on task 10 : loss=12.918 | TAw acc= 99.2%, forg=  0.0%| TAg acc= 95.0%, forg=  0.0% <<<
Save at k=10/icarl_dsads_2/har_flex_icarl
======
LLL_Net(
  (model): SimpleMLP(
    (fc1): Linear(in_features=405, out_features=66, bias=True)
    (fc2): Sequential()
  )
  (heads): ModuleList(
    (0): Linear(in_features=66, out_features=12, bias=True)
    (1): Linear(in_features=66, out_features=10, bias=True)
    (2): Linear(in_features=66, out_features=10, bias=True)
    (3): Linear(in_features=66, out_features=10, bias=True)
    (4): Linear(in_features=66, out_features=10, bias=True)
    (5): Linear(in_features=66, out_features=10, bias=True)
    (6): Linear(in_features=66, out_features=10, bias=True)
    (7): Linear(in_features=66, out_features=10, bias=True)
    (8): Linear(in_features=66, out_features=10, bias=True)
    (9): Linear(in_features=66, out_features=10, bias=True)
    (10): Linear(in_features=66, out_features=10, bias=True)
  )
)
======

************************************************************************************************************
Task 11
************************************************************************************************************
| Epoch   1, time=  1.4s | Train: skip eval | Valid: time=  0.2s loss=19.502, TAw acc= 17.7% | *
| Epoch   2, time=  1.5s | Train: skip eval | Valid: time=  0.2s loss=14.901, TAw acc= 43.8% | *
…
>>> Test on task  6 : loss=11.198 | TAw acc= 97.5%, forg=  0.0%| TAg acc= 83.3%, forg=  5.0% <<<
>>> Test on task  7 : loss=11.194 | TAw acc= 95.8%, forg=  0.0%| TAg acc= 78.3%, forg=  5.8% <<<
>>> Test on task  8 : loss=12.779 | TAw acc= 90.0%, forg=  0.0%| TAg acc= 66.7%, forg=  1.7% <<<
>>> Test on task  9 : loss=13.022 | TAw acc=100.0%, forg=  0.0%| TAg acc= 84.2%, forg=  1.7% <<<
>>> Test on task 10 : loss=13.321 | TAw acc= 99.2%, forg=  0.0%| TAg acc= 95.0%, forg=  0.0% <<<
>>> Test on task 11 : loss=13.102 | TAw acc= 96.7%, forg=  0.0%| TAg acc= 81.7%, forg=  0.0% <<<
Save at k=10/icarl_dsads_2/har_flex_icarl
======
LLL_Net(
  (model): SimpleMLP(
    (fc1): Linear(in_features=405, out_features=66, bias=True)
    (fc2): Sequential()
  )
  (heads): ModuleList(
    (0): Linear(in_features=66, out_features=12, bias=True)
    (1): Linear(in_features=66, out_features=10, bias=True)
    (2): Linear(in_features=66, out_features=10, bias=True)
    (3): Linear(in_features=66, out_features=10, bias=True)
    (4): Linear(in_features=66, out_features=10, bias=True)
    (5): Linear(in_features=66, out_features=10, bias=True)
    (6): Linear(in_features=66, out_features=10, bias=True)
    (7): Linear(in_features=66, out_features=10, bias=True)
    (8): Linear(in_features=66, out_features=10, bias=True)
    (9): Linear(in_features=66, out_features=10, bias=True)
    (10): Linear(in_features=66, out_features=10, bias=True)
    (11): Linear(in_features=66, out_features=10, bias=True)
  )
)
======

************************************************************************************************************
Task 12
************************************************************************************************************
| Epoch   1, time=  1.6s | Train: skip eval | Valid: time=  0.2s loss=19.229, TAw acc= 13.5% | *
| Epoch   2, time=  1.5s | Train: skip eval | Valid: time=  0.2s loss=14.775, TAw acc= 57.3% | *
…
>>> Test on task  7 : loss=10.620 | TAw acc= 95.8%, forg=  0.0%| TAg acc= 78.3%, forg=  5.8% <<<
>>> Test on task  8 : loss=12.121 | TAw acc= 90.0%, forg=  0.0%| TAg acc= 66.7%, forg=  1.7% <<<
>>> Test on task  9 : loss=12.336 | TAw acc=100.0%, forg=  0.0%| TAg acc= 84.2%, forg=  1.7% <<<
>>> Test on task 10 : loss=12.657 | TAw acc= 99.2%, forg=  0.0%| TAg acc= 95.0%, forg=  0.0% <<<
>>> Test on task 11 : loss=13.295 | TAw acc= 96.7%, forg=  0.0%| TAg acc= 73.3%, forg=  8.3% <<<
>>> Test on task 12 : loss=12.882 | TAw acc= 95.8%, forg=  0.0%| TAg acc= 89.2%, forg=  0.0% <<<
Save at k=10/icarl_dsads_2/har_flex_icarl
======
LLL_Net(
  (model): SimpleMLP(
    (fc1): Linear(in_features=405, out_features=66, bias=True)
    (fc2): Sequential()
  )
  (heads): ModuleList(
    (0): Linear(in_features=66, out_features=12, bias=True)
    (1): Linear(in_features=66, out_features=10, bias=True)
    (2): Linear(in_features=66, out_features=10, bias=True)
    (3): Linear(in_features=66, out_features=10, bias=True)
    (4): Linear(in_features=66, out_features=10, bias=True)
    (5): Linear(in_features=66, out_features=10, bias=True)
    (6): Linear(in_features=66, out_features=10, bias=True)
    (7): Linear(in_features=66, out_features=10, bias=True)
    (8): Linear(in_features=66, out_features=10, bias=True)
    (9): Linear(in_features=66, out_features=10, bias=True)
    (10): Linear(in_features=66, out_features=10, bias=True)
    (11): Linear(in_features=66, out_features=10, bias=True)
    (12): Linear(in_features=66, out_features=10, bias=True)
  )
)
======

************************************************************************************************************
Task 13
************************************************************************************************************
| Epoch   1, time=  1.9s | Train: skip eval | Valid: time=  0.2s loss=21.804, TAw acc= 33.3% | *
| Epoch   2, time=  1.8s | Train: skip eval | Valid: time=  0.2s loss=16.211, TAw acc= 57.3% | *
…
>>> Test on task  8 : loss=11.883 | TAw acc= 90.0%, forg=  0.0%| TAg acc= 66.7%, forg=  1.7% <<<
>>> Test on task  9 : loss=12.086 | TAw acc=100.0%, forg=  0.0%| TAg acc= 82.5%, forg=  3.3% <<<
>>> Test on task 10 : loss=12.306 | TAw acc= 99.2%, forg=  0.0%| TAg acc= 95.0%, forg=  0.0% <<<
>>> Test on task 11 : loss=13.027 | TAw acc= 96.7%, forg=  0.0%| TAg acc= 72.5%, forg=  9.2% <<<
>>> Test on task 12 : loss=13.085 | TAw acc= 95.8%, forg=  0.0%| TAg acc= 89.2%, forg=  0.0% <<<
>>> Test on task 13 : loss=14.735 | TAw acc= 84.2%, forg=  0.0%| TAg acc= 70.0%, forg=  0.0% <<<
Save at k=10/icarl_dsads_2/har_flex_icarl
======
LLL_Net(
  (model): SimpleMLP(
    (fc1): Linear(in_features=405, out_features=66, bias=True)
    (fc2): Sequential()
  )
  (heads): ModuleList(
    (0): Linear(in_features=66, out_features=12, bias=True)
    (1): Linear(in_features=66, out_features=10, bias=True)
    (2): Linear(in_features=66, out_features=10, bias=True)
    (3): Linear(in_features=66, out_features=10, bias=True)
    (4): Linear(in_features=66, out_features=10, bias=True)
    (5): Linear(in_features=66, out_features=10, bias=True)
    (6): Linear(in_features=66, out_features=10, bias=True)
    (7): Linear(in_features=66, out_features=10, bias=True)
    (8): Linear(in_features=66, out_features=10, bias=True)
    (9): Linear(in_features=66, out_features=10, bias=True)
    (10): Linear(in_features=66, out_features=10, bias=True)
    (11): Linear(in_features=66, out_features=10, bias=True)
    (12): Linear(in_features=66, out_features=10, bias=True)
    (13): Linear(in_features=66, out_features=10, bias=True)
  )
)
======

************************************************************************************************************
Task 14
************************************************************************************************************
| Epoch   1, time=  2.0s | Train: skip eval | Valid: time=  0.2s loss=20.870, TAw acc= 21.9% | *
| Epoch   2, time=  2.1s | Train: skip eval | Valid: time=  0.2s loss=15.560, TAw acc= 60.4% | *
…
