…
| Selected 1448 train exemplars, time=  0.0s
1448
------------------------------------------------------------------------------------------------------------
>>> Test on task  0 : loss=0.245 | TAw acc= 97.9%, forg=  0.7%| TAg acc= 95.1%, forg=  2.1% <<<
>>> Test on task  1 : loss=0.458 | TAw acc= 95.0%, forg=  0.8%| TAg acc= 89.2%, forg=  1.7% <<<
>>> Test on task  2 : loss=0.377 | TAw acc= 99.2%, forg= -0.8%| TAg acc= 86.7%, forg=  9.2% <<<
>>> Test on task  3 : loss=0.396 | TAw acc= 97.5%, forg=  0.0%| TAg acc= 95.0%, forg=  0.0% <<<
Save at k=100/eeil_e5_dsads_4/har_flex_eeil
======
LLL_Net(
  (model): SimpleMLP(
    (fc1): Linear(in_features=405, out_features=66, bias=True)
    (fc2): Sequential()
  )
  (heads): ModuleList(
    (0): Linear(in_features=66, out_features=12, bias=True)
    (1): Linear(in_features=66, out_features=10, bias=True)
    (2): Linear(in_features=66, out_features=10, bias=True)
    (3): Linear(in_features=66, out_features=10, bias=True)
  )
)
======

************************************************************************************************************
Task  4
************************************************************************************************************
| Epoch   1, time=  0.6s | Train: skip eval | Valid: time=  0.2s loss=4.004, TAw acc= 44.8% | *
| Epoch   2, time=  0.5s | Train: skip eval | Valid: time=  0.2s loss=2.218, TAw acc= 83.3% | *
…
------------------------------------------------------------------------------------------------------------
>>> Test on task  0 : loss=0.333 | TAw acc= 98.6%, forg=  0.0%| TAg acc= 91.0%, forg=  6.2% <<<
>>> Test on task  1 : loss=0.534 | TAw acc= 95.0%, forg=  0.8%| TAg acc= 89.2%, forg=  1.7% <<<
>>> Test on task  2 : loss=0.374 | TAw acc= 99.2%, forg=  0.0%| TAg acc= 92.5%, forg=  3.3% <<<
>>> Test on task  3 : loss=0.441 | TAw acc= 99.2%, forg= -1.7%| TAg acc= 86.7%, forg=  8.3% <<<
>>> Test on task  4 : loss=0.572 | TAw acc= 97.5%, forg=  0.0%| TAg acc= 90.0%, forg=  0.0% <<<
Save at k=100/eeil_e5_dsads_4/har_flex_eeil
======
LLL_Net(
  (model): SimpleMLP(
    (fc1): Linear(in_features=405, out_features=66, bias=True)
    (fc2): Sequential()
  )
  (heads): ModuleList(
    (0): Linear(in_features=66, out_features=12, bias=True)
    (1): Linear(in_features=66, out_features=10, bias=True)
    (2): Linear(in_features=66, out_features=10, bias=True)
    (3): Linear(in_features=66, out_features=10, bias=True)
    (4): Linear(in_features=66, out_features=10, bias=True)
  )
)
======

************************************************************************************************************
Task  5
************************************************************************************************************
| Epoch   1, time=  0.6s | Train: skip eval | Valid: time=  0.2s loss=3.378, TAw acc= 71.9% | *
| Epoch   2, time=  0.6s | Train: skip eval | Valid: time=  0.2s loss=2.155, TAw acc= 78.1% | *
…
>>> Test on task  0 : loss=0.322 | TAw acc= 98.6%, forg=  0.0%| TAg acc= 91.7%, forg=  5.6% <<<
>>> Test on task  1 : loss=0.520 | TAw acc= 95.8%, forg=  0.0%| TAg acc= 88.3%, forg=  2.5% <<<
>>> Test on task  2 : loss=0.397 | TAw acc= 99.2%, forg=  0.0%| TAg acc= 91.7%, forg=  4.2% <<<
>>> Test on task  3 : loss=0.380 | TAw acc= 99.2%, forg=  0.0%| TAg acc= 91.7%, forg=  3.3% <<<
>>> Test on task  4 : loss=0.554 | TAw acc=100.0%, forg= -2.5%| TAg acc= 89.2%, forg=  0.8% <<<
>>> Test on task  5 : loss=0.428 | TAw acc=100.0%, forg=  0.0%| TAg acc= 91.7%, forg=  0.0% <<<
Save at k=100/eeil_e5_dsads_4/har_flex_eeil
======
LLL_Net(
  (model): SimpleMLP(
    (fc1): Linear(in_features=405, out_features=66, bias=True)
    (fc2): Sequential()
  )
  (heads): ModuleList(
    (0): Linear(in_features=66, out_features=12, bias=True)
    (1): Linear(in_features=66, out_features=10, bias=True)
    (2): Linear(in_features=66, out_features=10, bias=True)
    (3): Linear(in_features=66, out_features=10, bias=True)
    (4): Linear(in_features=66, out_features=10, bias=True)
    (5): Linear(in_features=66, out_features=10, bias=True)
  )
)
======

************************************************************************************************************
Task  6
************************************************************************************************************
| Epoch   1, time=  0.8s | Train: skip eval | Valid: time=  0.3s loss=4.404, TAw acc= 71.9% | *
| Epoch   2, time=  0.7s | Train: skip eval | Valid: time=  0.2s loss=2.334, TAw acc= 85.4% | *
…
>>> Test on task  1 : loss=0.580 | TAw acc= 96.7%, forg= -0.8%| TAg acc= 88.3%, forg=  2.5% <<<
>>> Test on task  2 : loss=0.530 | TAw acc= 99.2%, forg=  0.0%| TAg acc= 87.5%, forg=  8.3% <<<
>>> Test on task  3 : loss=0.382 | TAw acc= 99.2%, forg=  0.0%| TAg acc= 91.7%, forg=  3.3% <<<
>>> Test on task  4 : loss=0.550 | TAw acc= 99.2%, forg=  0.8%| TAg acc= 89.2%, forg=  0.8% <<<
>>> Test on task  5 : loss=0.550 | TAw acc=100.0%, forg=  0.0%| TAg acc= 80.8%, forg= 10.8% <<<
>>> Test on task  6 : loss=0.830 | TAw acc= 95.0%, forg=  0.0%| TAg acc= 82.5%, forg=  0.0% <<<
Save at k=100/eeil_e5_dsads_4/har_flex_eeil
======
LLL_Net(
  (model): SimpleMLP(
    (fc1): Linear(in_features=405, out_features=66, bias=True)
    (fc2): Sequential()
  )
  (heads): ModuleList(
    (0): Linear(in_features=66, out_features=12, bias=True)
    (1): Linear(in_features=66, out_features=10, bias=True)
    (2): Linear(in_features=66, out_features=10, bias=True)
    (3): Linear(in_features=66, out_features=10, bias=True)
    (4): Linear(in_features=66, out_features=10, bias=True)
    (5): Linear(in_features=66, out_features=10, bias=True)
    (6): Linear(in_features=66, out_features=10, bias=True)
  )
)
======

************************************************************************************************************
Task  7
************************************************************************************************************
| Epoch   1, time=  0.9s | Train: skip eval | Valid: time=  0.3s loss=3.556, TAw acc= 47.9% | *
| Epoch   2, time=  1.0s | Train: skip eval | Valid: time=  0.3s loss=2.109, TAw acc= 76.0% | *
…
>>> Test on task  2 : loss=0.500 | TAw acc= 99.2%, forg=  0.0%| TAg acc= 87.5%, forg=  8.3% <<<
>>> Test on task  3 : loss=0.382 | TAw acc= 99.2%, forg=  0.0%| TAg acc= 92.5%, forg=  2.5% <<<
>>> Test on task  4 : loss=0.517 | TAw acc= 99.2%, forg=  0.8%| TAg acc= 85.8%, forg=  4.2% <<<
>>> Test on task  5 : loss=0.487 | TAw acc=100.0%, forg=  0.0%| TAg acc= 80.8%, forg= 10.8% <<<
>>> Test on task  6 : loss=0.855 | TAw acc= 95.8%, forg= -0.8%| TAg acc= 80.0%, forg=  2.5% <<<
>>> Test on task  7 : loss=0.538 | TAw acc= 97.5%, forg=  0.0%| TAg acc= 92.5%, forg=  0.0% <<<
Save at k=100/eeil_e5_dsads_4/har_flex_eeil
======
LLL_Net(
  (model): SimpleMLP(
    (fc1): Linear(in_features=405, out_features=66, bias=True)
    (fc2): Sequential()
  )
  (heads): ModuleList(
    (0): Linear(in_features=66, out_features=12, bias=True)
    (1): Linear(in_features=66, out_features=10, bias=True)
    (2): Linear(in_features=66, out_features=10, bias=True)
    (3): Linear(in_features=66, out_features=10, bias=True)
    (4): Linear(in_features=66, out_features=10, bias=True)
    (5): Linear(in_features=66, out_features=10, bias=True)
    (6): Linear(in_features=66, out_features=10, bias=True)
    (7): Linear(in_features=66, out_features=10, bias=True)
  )
)
======

************************************************************************************************************
Task  8
************************************************************************************************************
| Epoch   1, time=  1.0s | Train: skip eval | Valid: time=  0.2s loss=4.904, TAw acc= 42.7% | *
| Epoch   2, time=  1.1s | Train: skip eval | Valid: time=  0.3s loss=2.371, TAw acc= 86.5% | *
…
>>> Test on task  3 : loss=0.397 | TAw acc= 99.2%, forg=  0.0%| TAg acc= 90.0%, forg=  5.0% <<<
>>> Test on task  4 : loss=0.470 | TAw acc=100.0%, forg=  0.0%| TAg acc= 90.8%, forg= -0.8% <<<
>>> Test on task  5 : loss=0.471 | TAw acc=100.0%, forg=  0.0%| TAg acc= 85.8%, forg=  5.8% <<<
>>> Test on task  6 : loss=0.801 | TAw acc= 96.7%, forg= -0.8%| TAg acc= 78.3%, forg=  4.2% <<<
>>> Test on task  7 : loss=0.653 | TAw acc= 99.2%, forg= -1.7%| TAg acc= 73.3%, forg= 19.2% <<<
>>> Test on task  8 : loss=0.628 | TAw acc= 99.2%, forg=  0.0%| TAg acc= 87.5%, forg=  0.0% <<<
Save at k=100/eeil_e5_dsads_4/har_flex_eeil
======
LLL_Net(
  (model): SimpleMLP(
    (fc1): Linear(in_features=405, out_features=66, bias=True)
    (fc2): Sequential()
  )
  (heads): ModuleList(
    (0): Linear(in_features=66, out_features=12, bias=True)
    (1): Linear(in_features=66, out_features=10, bias=True)
    (2): Linear(in_features=66, out_features=10, bias=True)
    (3): Linear(in_features=66, out_features=10, bias=True)
    (4): Linear(in_features=66, out_features=10, bias=True)
    (5): Linear(in_features=66, out_features=10, bias=True)
    (6): Linear(in_features=66, out_features=10, bias=True)
    (7): Linear(in_features=66, out_features=10, bias=True)
    (8): Linear(in_features=66, out_features=10, bias=True)
  )
)
======

************************************************************************************************************
Task  9
************************************************************************************************************
| Epoch   1, time=  1.3s | Train: skip eval | Valid: time=  0.2s loss=4.195, TAw acc= 43.8% | *
| Epoch   2, time=  1.2s | Train: skip eval | Valid: time=  0.2s loss=2.496, TAw acc= 72.9% | *
…
>>> Test on task  4 : loss=0.438 | TAw acc=100.0%, forg=  0.0%| TAg acc= 92.5%, forg= -1.7% <<<
>>> Test on task  5 : loss=0.536 | TAw acc=100.0%, forg=  0.0%| TAg acc= 78.3%, forg= 13.3% <<<
>>> Test on task  6 : loss=0.731 | TAw acc= 96.7%, forg=  0.0%| TAg acc= 84.2%, forg= -1.7% <<<
>>> Test on task  7 : loss=0.518 | TAw acc=100.0%, forg= -0.8%| TAg acc= 85.0%, forg=  7.5% <<<
>>> Test on task  8 : loss=0.645 | TAw acc= 99.2%, forg=  0.0%| TAg acc= 85.0%, forg=  2.5% <<<
>>> Test on task  9 : loss=0.840 | TAw acc= 97.5%, forg=  0.0%| TAg acc= 80.8%, forg=  0.0% <<<
Save at k=100/eeil_e5_dsads_4/har_flex_eeil
======
LLL_Net(
  (model): SimpleMLP(
    (fc1): Linear(in_features=405, out_features=66, bias=True)
    (fc2): Sequential()
  )
  (heads): ModuleList(
    (0): Linear(in_features=66, out_features=12, bias=True)
    (1): Linear(in_features=66, out_features=10, bias=True)
    (2): Linear(in_features=66, out_features=10, bias=True)
    (3): Linear(in_features=66, out_features=10, bias=True)
    (4): Linear(in_features=66, out_features=10, bias=True)
    (5): Linear(in_features=66, out_features=10, bias=True)
    (6): Linear(in_features=66, out_features=10, bias=True)
    (7): Linear(in_features=66, out_features=10, bias=True)
    (8): Linear(in_features=66, out_features=10, bias=True)
    (9): Linear(in_features=66, out_features=10, bias=True)
  )
)
======

************************************************************************************************************
Task 10
************************************************************************************************************
| Epoch   1, time=  1.4s | Train: skip eval | Valid: time=  0.2s loss=3.392, TAw acc= 57.3% | *
| Epoch   2, time=  1.3s | Train: skip eval | Valid: time=  0.2s loss=2.284, TAw acc= 66.7% | *
…
>>> Test on task  5 : loss=0.482 | TAw acc=100.0%, forg=  0.0%| TAg acc= 80.8%, forg= 10.8% <<<
>>> Test on task  6 : loss=0.701 | TAw acc= 96.7%, forg=  0.0%| TAg acc= 81.7%, forg=  2.5% <<<
>>> Test on task  7 : loss=0.585 | TAw acc=100.0%, forg=  0.0%| TAg acc= 72.5%, forg= 20.0% <<<
>>> Test on task  8 : loss=0.439 | TAw acc=100.0%, forg= -0.8%| TAg acc= 90.8%, forg= -3.3% <<<
>>> Test on task  9 : loss=0.875 | TAw acc= 98.3%, forg= -0.8%| TAg acc= 77.5%, forg=  3.3% <<<
>>> Test on task 10 : loss=0.544 | TAw acc= 93.3%, forg=  0.0%| TAg acc= 88.3%, forg=  0.0% <<<
Save at k=100/eeil_e5_dsads_4/har_flex_eeil
======
LLL_Net(
  (model): SimpleMLP(
    (fc1): Linear(in_features=405, out_features=66, bias=True)
    (fc2): Sequential()
  )
  (heads): ModuleList(
    (0): Linear(in_features=66, out_features=12, bias=True)
    (1): Linear(in_features=66, out_features=10, bias=True)
    (2): Linear(in_features=66, out_features=10, bias=True)
    (3): Linear(in_features=66, out_features=10, bias=True)
    (4): Linear(in_features=66, out_features=10, bias=True)
    (5): Linear(in_features=66, out_features=10, bias=True)
    (6): Linear(in_features=66, out_features=10, bias=True)
    (7): Linear(in_features=66, out_features=10, bias=True)
    (8): Linear(in_features=66, out_features=10, bias=True)
    (9): Linear(in_features=66, out_features=10, bias=True)
    (10): Linear(in_features=66, out_features=10, bias=True)
  )
)
======

************************************************************************************************************
Task 11
************************************************************************************************************
| Epoch   1, time=  1.5s | Train: skip eval | Valid: time=  0.2s loss=3.068, TAw acc= 44.8% | *
| Epoch   2, time=  1.4s | Train: skip eval | Valid: time=  0.3s loss=2.046, TAw acc= 79.2% | *
…
>>> Test on task  6 : loss=0.644 | TAw acc= 98.3%, forg= -1.7%| TAg acc= 79.2%, forg=  5.0% <<<
>>> Test on task  7 : loss=0.382 | TAw acc=100.0%, forg=  0.0%| TAg acc= 88.3%, forg=  4.2% <<<
>>> Test on task  8 : loss=0.447 | TAw acc=100.0%, forg=  0.0%| TAg acc= 89.2%, forg=  1.7% <<<
>>> Test on task  9 : loss=0.737 | TAw acc= 98.3%, forg=  0.0%| TAg acc= 80.0%, forg=  0.8% <<<
>>> Test on task 10 : loss=0.485 | TAw acc= 95.0%, forg= -1.7%| TAg acc= 86.7%, forg=  1.7% <<<
>>> Test on task 11 : loss=0.355 | TAw acc= 99.2%, forg=  0.0%| TAg acc= 93.3%, forg=  0.0% <<<
Save at k=100/eeil_e5_dsads_4/har_flex_eeil
======
LLL_Net(
  (model): SimpleMLP(
    (fc1): Linear(in_features=405, out_features=66, bias=True)
    (fc2): Sequential()
  )
  (heads): ModuleList(
    (0): Linear(in_features=66, out_features=12, bias=True)
    (1): Linear(in_features=66, out_features=10, bias=True)
    (2): Linear(in_features=66, out_features=10, bias=True)
    (3): Linear(in_features=66, out_features=10, bias=True)
    (4): Linear(in_features=66, out_features=10, bias=True)
    (5): Linear(in_features=66, out_features=10, bias=True)
    (6): Linear(in_features=66, out_features=10, bias=True)
    (7): Linear(in_features=66, out_features=10, bias=True)
    (8): Linear(in_features=66, out_features=10, bias=True)
    (9): Linear(in_features=66, out_features=10, bias=True)
    (10): Linear(in_features=66, out_features=10, bias=True)
    (11): Linear(in_features=66, out_features=10, bias=True)
  )
)
======

************************************************************************************************************
Task 12
************************************************************************************************************
| Epoch   1, time=  1.7s | Train: skip eval | Valid: time=  0.2s loss=4.556, TAw acc= 49.0% | *
| Epoch   2, time=  1.7s | Train: skip eval | Valid: time=  0.2s loss=2.231, TAw acc= 87.5% | *
…
>>> Test on task  7 : loss=0.439 | TAw acc=100.0%, forg=  0.0%| TAg acc= 83.3%, forg=  9.2% <<<
>>> Test on task  8 : loss=0.489 | TAw acc=100.0%, forg=  0.0%| TAg acc= 89.2%, forg=  1.7% <<<
>>> Test on task  9 : loss=0.730 | TAw acc= 98.3%, forg=  0.0%| TAg acc= 81.7%, forg= -0.8% <<<
>>> Test on task 10 : loss=0.440 | TAw acc= 96.7%, forg= -1.7%| TAg acc= 88.3%, forg=  0.0% <<<
>>> Test on task 11 : loss=0.315 | TAw acc= 99.2%, forg=  0.0%| TAg acc= 90.8%, forg=  2.5% <<<
>>> Test on task 12 : loss=0.755 | TAw acc= 94.2%, forg=  0.0%| TAg acc= 79.2%, forg=  0.0% <<<
Save at k=100/eeil_e5_dsads_4/har_flex_eeil
======
LLL_Net(
  (model): SimpleMLP(
    (fc1): Linear(in_features=405, out_features=66, bias=True)
    (fc2): Sequential()
  )
  (heads): ModuleList(
    (0): Linear(in_features=66, out_features=12, bias=True)
    (1): Linear(in_features=66, out_features=10, bias=True)
    (2): Linear(in_features=66, out_features=10, bias=True)
    (3): Linear(in_features=66, out_features=10, bias=True)
    (4): Linear(in_features=66, out_features=10, bias=True)
    (5): Linear(in_features=66, out_features=10, bias=True)
    (6): Linear(in_features=66, out_features=10, bias=True)
    (7): Linear(in_features=66, out_features=10, bias=True)
    (8): Linear(in_features=66, out_features=10, bias=True)
    (9): Linear(in_features=66, out_features=10, bias=True)
    (10): Linear(in_features=66, out_features=10, bias=True)
    (11): Linear(in_features=66, out_features=10, bias=True)
    (12): Linear(in_features=66, out_features=10, bias=True)
  )
)
======

************************************************************************************************************
Task 13
************************************************************************************************************
| Epoch   1, time=  1.8s | Train: skip eval | Valid: time=  0.2s loss=3.692, TAw acc= 37.5% | *
| Epoch   2, time=  1.9s | Train: skip eval | Valid: time=  0.3s loss=2.430, TAw acc= 61.5% | *
…
>>> Test on task  8 : loss=0.504 | TAw acc=100.0%, forg=  0.0%| TAg acc= 85.8%, forg=  5.0% <<<
>>> Test on task  9 : loss=0.760 | TAw acc= 98.3%, forg=  0.0%| TAg acc= 82.5%, forg= -0.8% <<<
>>> Test on task 10 : loss=0.383 | TAw acc= 98.3%, forg= -1.7%| TAg acc= 92.5%, forg= -4.2% <<<
>>> Test on task 11 : loss=0.241 | TAw acc= 99.2%, forg=  0.0%| TAg acc= 93.3%, forg=  0.0% <<<
>>> Test on task 12 : loss=0.883 | TAw acc= 94.2%, forg=  0.0%| TAg acc= 75.8%, forg=  3.3% <<<
>>> Test on task 13 : loss=0.771 | TAw acc= 97.5%, forg=  0.0%| TAg acc= 82.5%, forg=  0.0% <<<
Save at k=100/eeil_e5_dsads_4/har_flex_eeil
======
LLL_Net(
  (model): SimpleMLP(
    (fc1): Linear(in_features=405, out_features=66, bias=True)
    (fc2): Sequential()
  )
  (heads): ModuleList(
    (0): Linear(in_features=66, out_features=12, bias=True)
    (1): Linear(in_features=66, out_features=10, bias=True)
    (2): Linear(in_features=66, out_features=10, bias=True)
    (3): Linear(in_features=66, out_features=10, bias=True)
    (4): Linear(in_features=66, out_features=10, bias=True)
    (5): Linear(in_features=66, out_features=10, bias=True)
    (6): Linear(in_features=66, out_features=10, bias=True)
    (7): Linear(in_features=66, out_features=10, bias=True)
    (8): Linear(in_features=66, out_features=10, bias=True)
    (9): Linear(in_features=66, out_features=10, bias=True)
    (10): Linear(in_features=66, out_features=10, bias=True)
    (11): Linear(in_features=66, out_features=10, bias=True)
    (12): Linear(in_features=66, out_features=10, bias=True)
    (13): Linear(in_features=66, out_features=10, bias=True)
  )
)
======

************************************************************************************************************
Task 14
************************************************************************************************************
| Epoch   1, time=  2.1s | Train: skip eval | Valid: time=  0.2s loss=4.204, TAw acc= 46.9% | *
| Epoch   2, time=  2.2s | Train: skip eval | Valid: time=  0.2s loss=2.715, TAw acc= 91.7% | *
…
