…
| Selected 1433 train exemplars, time=  0.0s
1433
------------------------------------------------------------------------------------------------------------
>>> Test on task  0 : loss=0.364 | TAw acc= 99.3%, forg=  0.0%| TAg acc= 91.0%, forg=  6.9% <<<
>>> Test on task  1 : loss=0.241 | TAw acc=100.0%, forg=  0.0%| TAg acc= 96.7%, forg=  2.5% <<<
>>> Test on task  2 : loss=0.483 | TAw acc= 97.5%, forg=  0.0%| TAg acc= 86.7%, forg=  7.5% <<<
>>> Test on task  3 : loss=0.378 | TAw acc=100.0%, forg=  0.0%| TAg acc= 95.8%, forg=  0.0% <<<
Save at k=100/eeil_e5_dsads_1/har_flex_eeil
======
LLL_Net(
  (model): SimpleMLP(
    (fc1): Linear(in_features=405, out_features=66, bias=True)
    (fc2): Sequential()
  )
  (heads): ModuleList(
    (0): Linear(in_features=66, out_features=12, bias=True)
    (1): Linear(in_features=66, out_features=10, bias=True)
    (2): Linear(in_features=66, out_features=10, bias=True)
    (3): Linear(in_features=66, out_features=10, bias=True)
  )
)
======

************************************************************************************************************
Task  4
************************************************************************************************************
| Epoch   1, time=  0.4s | Train: skip eval | Valid: time=  0.2s loss=3.448, TAw acc= 39.6% | *
| Epoch   2, time=  0.4s | Train: skip eval | Valid: time=  0.2s loss=2.463, TAw acc= 52.1% | *
…
------------------------------------------------------------------------------------------------------------
>>> Test on task  0 : loss=0.420 | TAw acc= 99.3%, forg=  0.0%| TAg acc= 90.3%, forg=  7.6% <<<
>>> Test on task  1 : loss=0.347 | TAw acc=100.0%, forg=  0.0%| TAg acc= 95.0%, forg=  4.2% <<<
>>> Test on task  2 : loss=0.654 | TAw acc= 96.7%, forg=  0.8%| TAg acc= 85.8%, forg=  8.3% <<<
>>> Test on task  3 : loss=0.467 | TAw acc=100.0%, forg=  0.0%| TAg acc= 89.2%, forg=  6.7% <<<
>>> Test on task  4 : loss=1.125 | TAw acc= 80.8%, forg=  0.0%| TAg acc= 63.3%, forg=  0.0% <<<
Save at k=100/eeil_e5_dsads_1/har_flex_eeil
======
LLL_Net(
  (model): SimpleMLP(
    (fc1): Linear(in_features=405, out_features=66, bias=True)
    (fc2): Sequential()
  )
  (heads): ModuleList(
    (0): Linear(in_features=66, out_features=12, bias=True)
    (1): Linear(in_features=66, out_features=10, bias=True)
    (2): Linear(in_features=66, out_features=10, bias=True)
    (3): Linear(in_features=66, out_features=10, bias=True)
    (4): Linear(in_features=66, out_features=10, bias=True)
  )
)
======

************************************************************************************************************
Task  5
************************************************************************************************************
| Epoch   1, time=  0.5s | Train: skip eval | Valid: time=  0.2s loss=3.694, TAw acc= 39.6% | *
| Epoch   2, time=  0.5s | Train: skip eval | Valid: time=  0.2s loss=2.504, TAw acc= 52.1% | *
…
>>> Test on task  0 : loss=0.386 | TAw acc= 99.3%, forg=  0.0%| TAg acc= 91.0%, forg=  6.9% <<<
>>> Test on task  1 : loss=0.275 | TAw acc=100.0%, forg=  0.0%| TAg acc= 96.7%, forg=  2.5% <<<
>>> Test on task  2 : loss=0.477 | TAw acc= 97.5%, forg=  0.0%| TAg acc= 91.7%, forg=  2.5% <<<
>>> Test on task  3 : loss=0.435 | TAw acc=100.0%, forg=  0.0%| TAg acc= 86.7%, forg=  9.2% <<<
>>> Test on task  4 : loss=0.941 | TAw acc= 87.5%, forg= -6.7%| TAg acc= 75.0%, forg=-11.7% <<<
>>> Test on task  5 : loss=0.477 | TAw acc=100.0%, forg=  0.0%| TAg acc= 92.5%, forg=  0.0% <<<
Save at k=100/eeil_e5_dsads_1/har_flex_eeil
======
LLL_Net(
  (model): SimpleMLP(
    (fc1): Linear(in_features=405, out_features=66, bias=True)
    (fc2): Sequential()
  )
  (heads): ModuleList(
    (0): Linear(in_features=66, out_features=12, bias=True)
    (1): Linear(in_features=66, out_features=10, bias=True)
    (2): Linear(in_features=66, out_features=10, bias=True)
    (3): Linear(in_features=66, out_features=10, bias=True)
    (4): Linear(in_features=66, out_features=10, bias=True)
    (5): Linear(in_features=66, out_features=10, bias=True)
  )
)
======

************************************************************************************************************
Task  6
************************************************************************************************************
| Epoch   1, time=  0.6s | Train: skip eval | Valid: time=  0.2s loss=3.810, TAw acc= 51.0% | *
| Epoch   2, time=  0.6s | Train: skip eval | Valid: time=  0.2s loss=1.930, TAw acc= 72.9% | *
…
>>> Test on task  1 : loss=0.316 | TAw acc=100.0%, forg=  0.0%| TAg acc= 93.3%, forg=  5.8% <<<
>>> Test on task  2 : loss=0.445 | TAw acc= 98.3%, forg= -0.8%| TAg acc= 90.0%, forg=  4.2% <<<
>>> Test on task  3 : loss=0.455 | TAw acc=100.0%, forg=  0.0%| TAg acc= 88.3%, forg=  7.5% <<<
>>> Test on task  4 : loss=0.775 | TAw acc= 89.2%, forg= -1.7%| TAg acc= 80.0%, forg= -5.0% <<<
>>> Test on task  5 : loss=0.555 | TAw acc=100.0%, forg=  0.0%| TAg acc= 82.5%, forg= 10.0% <<<
>>> Test on task  6 : loss=0.578 | TAw acc= 92.5%, forg=  0.0%| TAg acc= 84.2%, forg=  0.0% <<<
Save at k=100/eeil_e5_dsads_1/har_flex_eeil
======
LLL_Net(
  (model): SimpleMLP(
    (fc1): Linear(in_features=405, out_features=66, bias=True)
    (fc2): Sequential()
  )
  (heads): ModuleList(
    (0): Linear(in_features=66, out_features=12, bias=True)
    (1): Linear(in_features=66, out_features=10, bias=True)
    (2): Linear(in_features=66, out_features=10, bias=True)
    (3): Linear(in_features=66, out_features=10, bias=True)
    (4): Linear(in_features=66, out_features=10, bias=True)
    (5): Linear(in_features=66, out_features=10, bias=True)
    (6): Linear(in_features=66, out_features=10, bias=True)
  )
)
======

************************************************************************************************************
Task  7
************************************************************************************************************
| Epoch   1, time=  0.8s | Train: skip eval | Valid: time=  0.2s loss=3.251, TAw acc= 45.8% | *
| Epoch   2, time=  0.8s | Train: skip eval | Valid: time=  0.2s loss=2.028, TAw acc= 70.8% | *
…
>>> Test on task  2 : loss=0.379 | TAw acc= 98.3%, forg=  0.0%| TAg acc= 92.5%, forg=  1.7% <<<
>>> Test on task  3 : loss=0.288 | TAw acc=100.0%, forg=  0.0%| TAg acc= 91.7%, forg=  4.2% <<<
>>> Test on task  4 : loss=0.630 | TAw acc= 88.3%, forg=  0.8%| TAg acc= 81.7%, forg= -1.7% <<<
>>> Test on task  5 : loss=0.398 | TAw acc= 99.2%, forg=  0.8%| TAg acc= 91.7%, forg=  0.8% <<<
>>> Test on task  6 : loss=0.526 | TAw acc= 91.7%, forg=  0.8%| TAg acc= 74.2%, forg= 10.0% <<<
>>> Test on task  7 : loss=0.325 | TAw acc= 97.5%, forg=  0.0%| TAg acc= 96.7%, forg=  0.0% <<<
Save at k=100/eeil_e5_dsads_1/har_flex_eeil
======
LLL_Net(
  (model): SimpleMLP(
    (fc1): Linear(in_features=405, out_features=66, bias=True)
    (fc2): Sequential()
  )
  (heads): ModuleList(
    (0): Linear(in_features=66, out_features=12, bias=True)
    (1): Linear(in_features=66, out_features=10, bias=True)
    (2): Linear(in_features=66, out_features=10, bias=True)
    (3): Linear(in_features=66, out_features=10, bias=True)
    (4): Linear(in_features=66, out_features=10, bias=True)
    (5): Linear(in_features=66, out_features=10, bias=True)
    (6): Linear(in_features=66, out_features=10, bias=True)
    (7): Linear(in_features=66, out_features=10, bias=True)
  )
)
======

************************************************************************************************************
Task  8
************************************************************************************************************
| Epoch   1, time=  0.9s | Train: skip eval | Valid: time=  0.2s loss=4.636, TAw acc= 36.5% | *
| Epoch   2, time=  0.9s | Train: skip eval | Valid: time=  0.2s loss=2.866, TAw acc= 66.7% | *
…
>>> Test on task  3 : loss=0.309 | TAw acc=100.0%, forg=  0.0%| TAg acc= 90.0%, forg=  5.8% <<<
>>> Test on task  4 : loss=0.625 | TAw acc= 90.0%, forg= -0.8%| TAg acc= 85.0%, forg= -3.3% <<<
>>> Test on task  5 : loss=0.439 | TAw acc= 99.2%, forg=  0.8%| TAg acc= 85.8%, forg=  6.7% <<<
>>> Test on task  6 : loss=0.539 | TAw acc= 93.3%, forg= -0.8%| TAg acc= 85.0%, forg= -0.8% <<<
>>> Test on task  7 : loss=0.326 | TAw acc= 98.3%, forg= -0.8%| TAg acc= 96.7%, forg=  0.0% <<<
>>> Test on task  8 : loss=0.871 | TAw acc= 93.3%, forg=  0.0%| TAg acc= 79.2%, forg=  0.0% <<<
Save at k=100/eeil_e5_dsads_1/har_flex_eeil
======
LLL_Net(
  (model): SimpleMLP(
    (fc1): Linear(in_features=405, out_features=66, bias=True)
    (fc2): Sequential()
  )
  (heads): ModuleList(
    (0): Linear(in_features=66, out_features=12, bias=True)
    (1): Linear(in_features=66, out_features=10, bias=True)
    (2): Linear(in_features=66, out_features=10, bias=True)
    (3): Linear(in_features=66, out_features=10, bias=True)
    (4): Linear(in_features=66, out_features=10, bias=True)
    (5): Linear(in_features=66, out_features=10, bias=True)
    (6): Linear(in_features=66, out_features=10, bias=True)
    (7): Linear(in_features=66, out_features=10, bias=True)
    (8): Linear(in_features=66, out_features=10, bias=True)
  )
)
======

************************************************************************************************************
Task  9
************************************************************************************************************
| Epoch   1, time=  1.0s | Train: skip eval | Valid: time=  0.2s loss=4.560, TAw acc= 63.5% | *
| Epoch   2, time=  1.1s | Train: skip eval | Valid: time=  0.2s loss=2.458, TAw acc= 66.7% | *
…
>>> Test on task  4 : loss=0.754 | TAw acc= 88.3%, forg=  1.7%| TAg acc= 79.2%, forg=  5.8% <<<
>>> Test on task  5 : loss=0.449 | TAw acc= 99.2%, forg=  0.8%| TAg acc= 88.3%, forg=  4.2% <<<
>>> Test on task  6 : loss=0.534 | TAw acc= 94.2%, forg= -0.8%| TAg acc= 84.2%, forg=  0.8% <<<
>>> Test on task  7 : loss=0.316 | TAw acc= 98.3%, forg=  0.0%| TAg acc= 95.8%, forg=  0.8% <<<
>>> Test on task  8 : loss=0.876 | TAw acc= 92.5%, forg=  0.8%| TAg acc= 77.5%, forg=  1.7% <<<
>>> Test on task  9 : loss=0.825 | TAw acc= 96.7%, forg=  0.0%| TAg acc= 80.0%, forg=  0.0% <<<
Save at k=100/eeil_e5_dsads_1/har_flex_eeil
======
LLL_Net(
  (model): SimpleMLP(
    (fc1): Linear(in_features=405, out_features=66, bias=True)
    (fc2): Sequential()
  )
  (heads): ModuleList(
    (0): Linear(in_features=66, out_features=12, bias=True)
    (1): Linear(in_features=66, out_features=10, bias=True)
    (2): Linear(in_features=66, out_features=10, bias=True)
    (3): Linear(in_features=66, out_features=10, bias=True)
    (4): Linear(in_features=66, out_features=10, bias=True)
    (5): Linear(in_features=66, out_features=10, bias=True)
    (6): Linear(in_features=66, out_features=10, bias=True)
    (7): Linear(in_features=66, out_features=10, bias=True)
    (8): Linear(in_features=66, out_features=10, bias=True)
    (9): Linear(in_features=66, out_features=10, bias=True)
  )
)
======

************************************************************************************************************
Task 10
************************************************************************************************************
| Epoch   1, time=  1.2s | Train: skip eval | Valid: time=  0.2s loss=3.972, TAw acc= 56.2% | *
| Epoch   2, time=  1.2s | Train: skip eval | Valid: time=  0.2s loss=2.376, TAw acc= 58.3% | *
…
>>> Test on task  5 : loss=0.453 | TAw acc= 99.2%, forg=  0.8%| TAg acc= 89.2%, forg=  3.3% <<<
>>> Test on task  6 : loss=0.561 | TAw acc= 95.0%, forg= -0.8%| TAg acc= 80.8%, forg=  4.2% <<<
>>> Test on task  7 : loss=0.329 | TAw acc= 99.2%, forg= -0.8%| TAg acc= 96.7%, forg=  0.0% <<<
>>> Test on task  8 : loss=0.847 | TAw acc= 92.5%, forg=  0.8%| TAg acc= 81.7%, forg= -2.5% <<<
>>> Test on task  9 : loss=0.813 | TAw acc= 95.8%, forg=  0.8%| TAg acc= 79.2%, forg=  0.8% <<<
>>> Test on task 10 : loss=0.956 | TAw acc= 98.3%, forg=  0.0%| TAg acc= 76.7%, forg=  0.0% <<<
Save at k=100/eeil_e5_dsads_1/har_flex_eeil
======
LLL_Net(
  (model): SimpleMLP(
    (fc1): Linear(in_features=405, out_features=66, bias=True)
    (fc2): Sequential()
  )
  (heads): ModuleList(
    (0): Linear(in_features=66, out_features=12, bias=True)
    (1): Linear(in_features=66, out_features=10, bias=True)
    (2): Linear(in_features=66, out_features=10, bias=True)
    (3): Linear(in_features=66, out_features=10, bias=True)
    (4): Linear(in_features=66, out_features=10, bias=True)
    (5): Linear(in_features=66, out_features=10, bias=True)
    (6): Linear(in_features=66, out_features=10, bias=True)
    (7): Linear(in_features=66, out_features=10, bias=True)
    (8): Linear(in_features=66, out_features=10, bias=True)
    (9): Linear(in_features=66, out_features=10, bias=True)
    (10): Linear(in_features=66, out_features=10, bias=True)
  )
)
======

************************************************************************************************************
Task 11
************************************************************************************************************
| Epoch   1, time=  1.5s | Train: skip eval | Valid: time=  0.2s loss=3.861, TAw acc= 40.6% | *
| Epoch   2, time=  1.8s | Train: skip eval | Valid: time=  0.2s loss=2.314, TAw acc= 91.7% | *
…
>>> Test on task  6 : loss=0.596 | TAw acc= 95.0%, forg=  0.0%| TAg acc= 85.0%, forg=  0.0% <<<
>>> Test on task  7 : loss=0.351 | TAw acc= 99.2%, forg=  0.0%| TAg acc= 93.3%, forg=  3.3% <<<
>>> Test on task  8 : loss=0.925 | TAw acc= 95.0%, forg= -1.7%| TAg acc= 77.5%, forg=  4.2% <<<
>>> Test on task  9 : loss=0.768 | TAw acc= 94.2%, forg=  2.5%| TAg acc= 80.8%, forg= -0.8% <<<
>>> Test on task 10 : loss=1.046 | TAw acc= 99.2%, forg= -0.8%| TAg acc= 73.3%, forg=  3.3% <<<
>>> Test on task 11 : loss=0.564 | TAw acc= 98.3%, forg=  0.0%| TAg acc= 90.0%, forg=  0.0% <<<
Save at k=100/eeil_e5_dsads_1/har_flex_eeil
======
LLL_Net(
  (model): SimpleMLP(
    (fc1): Linear(in_features=405, out_features=66, bias=True)
    (fc2): Sequential()
  )
  (heads): ModuleList(
    (0): Linear(in_features=66, out_features=12, bias=True)
    (1): Linear(in_features=66, out_features=10, bias=True)
    (2): Linear(in_features=66, out_features=10, bias=True)
    (3): Linear(in_features=66, out_features=10, bias=True)
    (4): Linear(in_features=66, out_features=10, bias=True)
    (5): Linear(in_features=66, out_features=10, bias=True)
    (6): Linear(in_features=66, out_features=10, bias=True)
    (7): Linear(in_features=66, out_features=10, bias=True)
    (8): Linear(in_features=66, out_features=10, bias=True)
    (9): Linear(in_features=66, out_features=10, bias=True)
    (10): Linear(in_features=66, out_features=10, bias=True)
    (11): Linear(in_features=66, out_features=10, bias=True)
  )
)
======

************************************************************************************************************
Task 12
************************************************************************************************************
| Epoch   1, time=  1.9s | Train: skip eval | Valid: time=  0.2s loss=6.007, TAw acc= 34.4% | *
| Epoch   2, time=  1.8s | Train: skip eval | Valid: time=  0.2s loss=3.048, TAw acc= 77.1% | *
…
>>> Test on task  7 : loss=0.286 | TAw acc= 99.2%, forg=  0.0%| TAg acc= 94.2%, forg=  2.5% <<<
>>> Test on task  8 : loss=0.864 | TAw acc= 93.3%, forg=  1.7%| TAg acc= 78.3%, forg=  3.3% <<<
>>> Test on task  9 : loss=0.589 | TAw acc= 96.7%, forg=  0.0%| TAg acc= 84.2%, forg= -3.3% <<<
>>> Test on task 10 : loss=0.891 | TAw acc= 98.3%, forg=  0.8%| TAg acc= 74.2%, forg=  2.5% <<<
>>> Test on task 11 : loss=0.458 | TAw acc= 99.2%, forg= -0.8%| TAg acc= 90.0%, forg=  0.0% <<<
>>> Test on task 12 : loss=0.782 | TAw acc= 97.5%, forg=  0.0%| TAg acc= 85.8%, forg=  0.0% <<<
Save at k=100/eeil_e5_dsads_1/har_flex_eeil
======
LLL_Net(
  (model): SimpleMLP(
    (fc1): Linear(in_features=405, out_features=66, bias=True)
    (fc2): Sequential()
  )
  (heads): ModuleList(
    (0): Linear(in_features=66, out_features=12, bias=True)
    (1): Linear(in_features=66, out_features=10, bias=True)
    (2): Linear(in_features=66, out_features=10, bias=True)
    (3): Linear(in_features=66, out_features=10, bias=True)
    (4): Linear(in_features=66, out_features=10, bias=True)
    (5): Linear(in_features=66, out_features=10, bias=True)
    (6): Linear(in_features=66, out_features=10, bias=True)
    (7): Linear(in_features=66, out_features=10, bias=True)
    (8): Linear(in_features=66, out_features=10, bias=True)
    (9): Linear(in_features=66, out_features=10, bias=True)
    (10): Linear(in_features=66, out_features=10, bias=True)
    (11): Linear(in_features=66, out_features=10, bias=True)
    (12): Linear(in_features=66, out_features=10, bias=True)
  )
)
======

************************************************************************************************************
Task 13
************************************************************************************************************
| Epoch   1, time=  1.8s | Train: skip eval | Valid: time=  0.2s loss=4.608, TAw acc= 69.8% | *
| Epoch   2, time=  2.0s | Train: skip eval | Valid: time=  0.2s loss=2.427, TAw acc= 92.7% | *
…
>>> Test on task  8 : loss=0.756 | TAw acc= 95.8%, forg= -0.8%| TAg acc= 85.0%, forg= -3.3% <<<
>>> Test on task  9 : loss=0.556 | TAw acc= 97.5%, forg= -0.8%| TAg acc= 85.0%, forg= -0.8% <<<
>>> Test on task 10 : loss=0.883 | TAw acc= 98.3%, forg=  0.8%| TAg acc= 70.8%, forg=  5.8% <<<
>>> Test on task 11 : loss=0.400 | TAw acc= 99.2%, forg=  0.0%| TAg acc= 92.5%, forg= -2.5% <<<
>>> Test on task 12 : loss=0.834 | TAw acc= 97.5%, forg=  0.0%| TAg acc= 85.0%, forg=  0.8% <<<
>>> Test on task 13 : loss=0.400 | TAw acc=100.0%, forg=  0.0%| TAg acc= 95.0%, forg=  0.0% <<<
Save at k=100/eeil_e5_dsads_1/har_flex_eeil
======
LLL_Net(
  (model): SimpleMLP(
    (fc1): Linear(in_features=405, out_features=66, bias=True)
    (fc2): Sequential()
  )
  (heads): ModuleList(
    (0): Linear(in_features=66, out_features=12, bias=True)
    (1): Linear(in_features=66, out_features=10, bias=True)
    (2): Linear(in_features=66, out_features=10, bias=True)
    (3): Linear(in_features=66, out_features=10, bias=True)
    (4): Linear(in_features=66, out_features=10, bias=True)
    (5): Linear(in_features=66, out_features=10, bias=True)
    (6): Linear(in_features=66, out_features=10, bias=True)
    (7): Linear(in_features=66, out_features=10, bias=True)
    (8): Linear(in_features=66, out_features=10, bias=True)
    (9): Linear(in_features=66, out_features=10, bias=True)
    (10): Linear(in_features=66, out_features=10, bias=True)
    (11): Linear(in_features=66, out_features=10, bias=True)
    (12): Linear(in_features=66, out_features=10, bias=True)
    (13): Linear(in_features=66, out_features=10, bias=True)
  )
)
======

************************************************************************************************************
Task 14
************************************************************************************************************
| Epoch   1, time=  2.1s | Train: skip eval | Valid: time=  0.2s loss=4.475, TAw acc= 58.3% | *
| Epoch   2, time=  2.0s | Train: skip eval | Valid: time=  0.2s loss=2.480, TAw acc= 99.0% | *
…
