…
| Selected 800 train exemplars, time=  0.5s
800
------------------------------------------------------------------------------------------------------------
>>> Test on task  0 : loss=0.321 | TAw acc= 91.0%, forg=  0.0%| TAg acc= 85.1%, forg=  5.9% <<<
>>> Test on task  1 : loss=16.908 | TAw acc= 99.1%, forg=  0.0%| TAg acc= 95.7%, forg=  0.9% <<<
>>> Test on task  2 : loss=26.033 | TAw acc= 93.4%, forg=  0.0%| TAg acc= 91.7%, forg=  0.0% <<<
>>> Test on task  3 : loss=33.825 | TAw acc= 94.4%, forg=  0.0%| TAg acc= 89.7%, forg=  0.0% <<<
Save at icarl_wisdm_1/wisdm_flex_icarl
======
LLL_Net(
  (model): SimpleMLP(
    (fc1): Linear(in_features=91, out_features=1000, bias=True)
    (fc2): Sequential()
  )
  (heads): ModuleList(
    (0): Linear(in_features=1000, out_features=34, bias=True)
    (1): Linear(in_features=1000, out_features=20, bias=True)
    (2): Linear(in_features=1000, out_features=20, bias=True)
    (3): Linear(in_features=1000, out_features=20, bias=True)
  )
)
======

************************************************************************************************************
Task  4
************************************************************************************************************
| Epoch   1, time=  0.9s | Train: skip eval | Valid: time=  0.2s loss=48.793, TAw acc= 50.0% | *
| Epoch   2, time=  1.0s | Train: skip eval | Valid: time=  0.2s loss=46.395, TAw acc= 53.9% | *
…
------------------------------------------------------------------------------------------------------------
>>> Test on task  0 : loss=0.413 | TAw acc= 91.0%, forg=  0.0%| TAg acc= 83.5%, forg=  7.4% <<<
>>> Test on task  1 : loss=16.947 | TAw acc= 99.1%, forg=  0.0%| TAg acc= 95.7%, forg=  0.9% <<<
>>> Test on task  2 : loss=25.980 | TAw acc= 93.4%, forg=  0.0%| TAg acc= 91.7%, forg=  0.0% <<<
>>> Test on task  3 : loss=33.822 | TAw acc= 94.4%, forg=  0.0%| TAg acc= 87.9%, forg=  1.9% <<<
>>> Test on task  4 : loss=41.065 | TAw acc= 98.1%, forg=  0.0%| TAg acc= 89.5%, forg=  0.0% <<<
Save at icarl_wisdm_1/wisdm_flex_icarl
======
LLL_Net(
  (model): SimpleMLP(
    (fc1): Linear(in_features=91, out_features=1000, bias=True)
    (fc2): Sequential()
  )
  (heads): ModuleList(
    (0): Linear(in_features=1000, out_features=34, bias=True)
    (1): Linear(in_features=1000, out_features=20, bias=True)
    (2): Linear(in_features=1000, out_features=20, bias=True)
    (3): Linear(in_features=1000, out_features=20, bias=True)
    (4): Linear(in_features=1000, out_features=20, bias=True)
  )
)
======

************************************************************************************************************
Task  5
************************************************************************************************************
| Epoch   1, time=  1.3s | Train: skip eval | Valid: time=  0.2s loss=56.125, TAw acc= 62.6% | *
| Epoch   2, time=  1.3s | Train: skip eval | Valid: time=  0.2s loss=52.888, TAw acc= 69.2% | *
…
>>> Test on task  0 : loss=0.562 | TAw acc= 91.0%, forg=  0.0%| TAg acc= 77.7%, forg= 13.3% <<<
>>> Test on task  1 : loss=17.116 | TAw acc= 99.1%, forg=  0.0%| TAg acc= 88.0%, forg=  8.5% <<<
>>> Test on task  2 : loss=25.922 | TAw acc= 93.4%, forg=  0.0%| TAg acc= 91.7%, forg=  0.0% <<<
>>> Test on task  3 : loss=33.807 | TAw acc= 94.4%, forg=  0.0%| TAg acc= 84.1%, forg=  5.6% <<<
>>> Test on task  4 : loss=41.040 | TAw acc= 98.1%, forg=  0.0%| TAg acc= 85.7%, forg=  3.8% <<<
>>> Test on task  5 : loss=48.625 | TAw acc= 91.7%, forg=  0.0%| TAg acc= 78.5%, forg=  0.0% <<<
Save at icarl_wisdm_1/wisdm_flex_icarl
======
LLL_Net(
  (model): SimpleMLP(
    (fc1): Linear(in_features=91, out_features=1000, bias=True)
    (fc2): Sequential()
  )
  (heads): ModuleList(
    (0): Linear(in_features=1000, out_features=34, bias=True)
    (1): Linear(in_features=1000, out_features=20, bias=True)
    (2): Linear(in_features=1000, out_features=20, bias=True)
    (3): Linear(in_features=1000, out_features=20, bias=True)
    (4): Linear(in_features=1000, out_features=20, bias=True)
    (5): Linear(in_features=1000, out_features=20, bias=True)
  )
)
======

************************************************************************************************************
Task  6
************************************************************************************************************
| Epoch   1, time=  1.6s | Train: skip eval | Valid: time=  0.2s loss=57.557, TAw acc= 23.3% | *
| Epoch   2, time=  1.5s | Train: skip eval | Valid: time=  0.2s loss=54.783, TAw acc= 38.4% | *
…
>>> Test on task  1 : loss=16.920 | TAw acc= 99.1%, forg=  0.0%| TAg acc= 86.3%, forg= 10.3% <<<
>>> Test on task  2 : loss=25.824 | TAw acc= 93.4%, forg=  0.0%| TAg acc= 90.9%, forg=  0.8% <<<
>>> Test on task  3 : loss=33.666 | TAw acc= 94.4%, forg=  0.0%| TAg acc= 82.2%, forg=  7.5% <<<
>>> Test on task  4 : loss=40.785 | TAw acc= 98.1%, forg=  0.0%| TAg acc= 84.8%, forg=  4.8% <<<
>>> Test on task  5 : loss=48.604 | TAw acc= 91.7%, forg=  0.0%| TAg acc= 78.5%, forg=  0.0% <<<
>>> Test on task  6 : loss=49.359 | TAw acc= 97.1%, forg=  0.0%| TAg acc= 87.3%, forg=  0.0% <<<
Save at icarl_wisdm_1/wisdm_flex_icarl
======
LLL_Net(
  (model): SimpleMLP(
    (fc1): Linear(in_features=91, out_features=1000, bias=True)
    (fc2): Sequential()
  )
  (heads): ModuleList(
    (0): Linear(in_features=1000, out_features=34, bias=True)
    (1): Linear(in_features=1000, out_features=20, bias=True)
    (2): Linear(in_features=1000, out_features=20, bias=True)
    (3): Linear(in_features=1000, out_features=20, bias=True)
    (4): Linear(in_features=1000, out_features=20, bias=True)
    (5): Linear(in_features=1000, out_features=20, bias=True)
    (6): Linear(in_features=1000, out_features=20, bias=True)
  )
)
======

************************************************************************************************************
Task  7
************************************************************************************************************
| Epoch   1, time=  1.9s | Train: skip eval | Valid: time=  0.2s loss=60.123, TAw acc= 47.9% | *
| Epoch   2, time=  2.0s | Train: skip eval | Valid: time=  0.2s loss=57.039, TAw acc= 71.9% | *
…
>>> Test on task  2 : loss=25.788 | TAw acc= 93.4%, forg=  0.0%| TAg acc= 90.9%, forg=  0.8% <<<
>>> Test on task  3 : loss=33.598 | TAw acc= 94.4%, forg=  0.0%| TAg acc= 81.3%, forg=  8.4% <<<
>>> Test on task  4 : loss=40.657 | TAw acc= 98.1%, forg=  0.0%| TAg acc= 83.8%, forg=  5.7% <<<
>>> Test on task  5 : loss=48.514 | TAw acc= 91.7%, forg=  0.0%| TAg acc= 76.0%, forg=  2.5% <<<
>>> Test on task  6 : loss=49.254 | TAw acc= 97.1%, forg=  0.0%| TAg acc= 87.3%, forg=  0.0% <<<
>>> Test on task  7 : loss=54.867 | TAw acc= 97.6%, forg=  0.0%| TAg acc= 87.4%, forg=  0.0% <<<
Save at icarl_wisdm_1/wisdm_flex_icarl
======
LLL_Net(
  (model): SimpleMLP(
    (fc1): Linear(in_features=91, out_features=1000, bias=True)
    (fc2): Sequential()
  )
  (heads): ModuleList(
    (0): Linear(in_features=1000, out_features=34, bias=True)
    (1): Linear(in_features=1000, out_features=20, bias=True)
    (2): Linear(in_features=1000, out_features=20, bias=True)
    (3): Linear(in_features=1000, out_features=20, bias=True)
    (4): Linear(in_features=1000, out_features=20, bias=True)
    (5): Linear(in_features=1000, out_features=20, bias=True)
    (6): Linear(in_features=1000, out_features=20, bias=True)
    (7): Linear(in_features=1000, out_features=20, bias=True)
  )
)
======

************************************************************************************************************
Task  8
************************************************************************************************************
| Epoch   1, time=  2.2s | Train: skip eval | Valid: time=  0.2s loss=71.718, TAw acc= 60.0% | *
| Epoch   2, time=  2.3s | Train: skip eval | Valid: time=  0.2s loss=67.707, TAw acc= 66.7% | *
…
>>> Test on task  3 : loss=33.557 | TAw acc= 94.4%, forg=  0.0%| TAg acc= 77.6%, forg= 12.1% <<<
>>> Test on task  4 : loss=40.525 | TAw acc= 98.1%, forg=  0.0%| TAg acc= 83.8%, forg=  5.7% <<<
>>> Test on task  5 : loss=48.535 | TAw acc= 91.7%, forg=  0.0%| TAg acc= 75.2%, forg=  3.3% <<<
>>> Test on task  6 : loss=49.263 | TAw acc= 97.1%, forg=  0.0%| TAg acc= 81.4%, forg=  5.9% <<<
>>> Test on task  7 : loss=54.866 | TAw acc= 97.6%, forg=  0.0%| TAg acc= 87.4%, forg=  0.0% <<<
>>> Test on task  8 : loss=62.446 | TAw acc= 96.1%, forg=  0.0%| TAg acc= 72.8%, forg=  0.0% <<<
Save at icarl_wisdm_1/wisdm_flex_icarl
======
LLL_Net(
  (model): SimpleMLP(
    (fc1): Linear(in_features=91, out_features=1000, bias=True)
    (fc2): Sequential()
  )
  (heads): ModuleList(
    (0): Linear(in_features=1000, out_features=34, bias=True)
    (1): Linear(in_features=1000, out_features=20, bias=True)
    (2): Linear(in_features=1000, out_features=20, bias=True)
    (3): Linear(in_features=1000, out_features=20, bias=True)
    (4): Linear(in_features=1000, out_features=20, bias=True)
    (5): Linear(in_features=1000, out_features=20, bias=True)
    (6): Linear(in_features=1000, out_features=20, bias=True)
    (7): Linear(in_features=1000, out_features=20, bias=True)
    (8): Linear(in_features=1000, out_features=20, bias=True)
  )
)
======

************************************************************************************************************
Task  9
************************************************************************************************************
| Epoch   1, time=  2.9s | Train: skip eval | Valid: time=  0.2s loss=73.235, TAw acc= 56.0% | *
| Epoch   2, time=  2.6s | Train: skip eval | Valid: time=  0.2s loss=69.866, TAw acc= 54.8% | *
…
>>> Test on task  4 : loss=40.376 | TAw acc= 98.1%, forg=  0.0%| TAg acc= 81.9%, forg=  7.6% <<<
>>> Test on task  5 : loss=48.331 | TAw acc= 91.7%, forg=  0.0%| TAg acc= 75.2%, forg=  3.3% <<<
>>> Test on task  6 : loss=49.118 | TAw acc= 97.1%, forg=  0.0%| TAg acc= 80.4%, forg=  6.9% <<<
>>> Test on task  7 : loss=54.759 | TAw acc= 97.6%, forg=  0.0%| TAg acc= 85.0%, forg=  2.4% <<<
>>> Test on task  8 : loss=62.463 | TAw acc= 96.1%, forg=  0.0%| TAg acc= 72.8%, forg=  0.0% <<<
>>> Test on task  9 : loss=63.066 | TAw acc= 96.5%, forg=  0.0%| TAg acc= 85.0%, forg=  0.0% <<<
Save at icarl_wisdm_1/wisdm_flex_icarl
======
LLL_Net(
  (model): SimpleMLP(
    (fc1): Linear(in_features=91, out_features=1000, bias=True)
    (fc2): Sequential()
  )
  (heads): ModuleList(
    (0): Linear(in_features=1000, out_features=34, bias=True)
    (1): Linear(in_features=1000, out_features=20, bias=True)
    (2): Linear(in_features=1000, out_features=20, bias=True)
    (3): Linear(in_features=1000, out_features=20, bias=True)
    (4): Linear(in_features=1000, out_features=20, bias=True)
    (5): Linear(in_features=1000, out_features=20, bias=True)
    (6): Linear(in_features=1000, out_features=20, bias=True)
    (7): Linear(in_features=1000, out_features=20, bias=True)
    (8): Linear(in_features=1000, out_features=20, bias=True)
    (9): Linear(in_features=1000, out_features=20, bias=True)
  )
)
======

************************************************************************************************************
Task 10
************************************************************************************************************
| Epoch   1, time=  3.1s | Train: skip eval | Valid: time=  0.2s loss=73.845, TAw acc= 54.5% | *
| Epoch   2, time=  3.0s | Train: skip eval | Valid: time=  0.2s loss=70.141, TAw acc= 57.1% | *
…
>>> Test on task  5 : loss=48.225 | TAw acc= 91.7%, forg=  0.0%| TAg acc= 72.7%, forg=  5.8% <<<
>>> Test on task  6 : loss=49.005 | TAw acc= 97.1%, forg=  0.0%| TAg acc= 80.4%, forg=  6.9% <<<
>>> Test on task  7 : loss=54.593 | TAw acc= 97.6%, forg=  0.0%| TAg acc= 84.3%, forg=  3.1% <<<
>>> Test on task  8 : loss=62.403 | TAw acc= 96.1%, forg=  0.0%| TAg acc= 69.9%, forg=  2.9% <<<
>>> Test on task  9 : loss=63.043 | TAw acc= 96.5%, forg=  0.0%| TAg acc= 85.0%, forg=  0.0% <<<
>>> Test on task 10 : loss=66.088 | TAw acc= 98.1%, forg=  0.0%| TAg acc= 66.3%, forg=  0.0% <<<
Save at icarl_wisdm_1/wisdm_flex_icarl
======
LLL_Net(
  (model): SimpleMLP(
    (fc1): Linear(in_features=91, out_features=1000, bias=True)
    (fc2): Sequential()
  )
  (heads): ModuleList(
    (0): Linear(in_features=1000, out_features=34, bias=True)
    (1): Linear(in_features=1000, out_features=20, bias=True)
    (2): Linear(in_features=1000, out_features=20, bias=True)
    (3): Linear(in_features=1000, out_features=20, bias=True)
    (4): Linear(in_features=1000, out_features=20, bias=True)
    (5): Linear(in_features=1000, out_features=20, bias=True)
    (6): Linear(in_features=1000, out_features=20, bias=True)
    (7): Linear(in_features=1000, out_features=20, bias=True)
    (8): Linear(in_features=1000, out_features=20, bias=True)
    (9): Linear(in_features=1000, out_features=20, bias=True)
    (10): Linear(in_features=1000, out_features=20, bias=True)
  )
)
======

************************************************************************************************************
Task 11
************************************************************************************************************
| Epoch   1, time=  3.7s | Train: skip eval | Valid: time=  0.2s loss=74.639, TAw acc= 42.2% | *
| Epoch   2, time=  3.7s | Train: skip eval | Valid: time=  0.2s loss=70.551, TAw acc= 50.6% | *
…
>>> Test on task  6 : loss=48.885 | TAw acc= 97.1%, forg=  0.0%| TAg acc= 78.4%, forg=  8.8% <<<
>>> Test on task  7 : loss=54.503 | TAw acc= 97.6%, forg=  0.0%| TAg acc= 83.5%, forg=  3.9% <<<
>>> Test on task  8 : loss=62.247 | TAw acc= 96.1%, forg=  0.0%| TAg acc= 69.9%, forg=  2.9% <<<
>>> Test on task  9 : loss=62.895 | TAw acc= 96.5%, forg=  0.0%| TAg acc= 85.0%, forg=  0.0% <<<
>>> Test on task 10 : loss=66.201 | TAw acc= 98.1%, forg=  0.0%| TAg acc= 63.5%, forg=  2.9% <<<
>>> Test on task 11 : loss=65.859 | TAw acc= 96.5%, forg=  0.0%| TAg acc= 77.0%, forg=  0.0% <<<
Save at icarl_wisdm_1/wisdm_flex_icarl
======
LLL_Net(
  (model): SimpleMLP(
    (fc1): Linear(in_features=91, out_features=1000, bias=True)
    (fc2): Sequential()
  )
  (heads): ModuleList(
    (0): Linear(in_features=1000, out_features=34, bias=True)
    (1): Linear(in_features=1000, out_features=20, bias=True)
    (2): Linear(in_features=1000, out_features=20, bias=True)
    (3): Linear(in_features=1000, out_features=20, bias=True)
    (4): Linear(in_features=1000, out_features=20, bias=True)
    (5): Linear(in_features=1000, out_features=20, bias=True)
    (6): Linear(in_features=1000, out_features=20, bias=True)
    (7): Linear(in_features=1000, out_features=20, bias=True)
    (8): Linear(in_features=1000, out_features=20, bias=True)
    (9): Linear(in_features=1000, out_features=20, bias=True)
    (10): Linear(in_features=1000, out_features=20, bias=True)
    (11): Linear(in_features=1000, out_features=20, bias=True)
  )
)
======

************************************************************************************************************
Task 12
************************************************************************************************************
| Epoch   1, time=  4.5s | Train: skip eval | Valid: time=  0.2s loss=79.379, TAw acc= 37.8% | *
| Epoch   2, time=  4.4s | Train: skip eval | Valid: time=  0.2s loss=75.606, TAw acc= 57.1% | *
…
>>> Test on task  7 : loss=54.415 | TAw acc= 97.6%, forg=  0.0%| TAg acc= 83.5%, forg=  3.9% <<<
>>> Test on task  8 : loss=62.248 | TAw acc= 96.1%, forg=  0.0%| TAg acc= 69.9%, forg=  2.9% <<<
>>> Test on task  9 : loss=62.792 | TAw acc= 96.5%, forg=  0.0%| TAg acc= 85.0%, forg=  0.0% <<<
>>> Test on task 10 : loss=66.098 | TAw acc= 98.1%, forg=  0.0%| TAg acc= 62.5%, forg=  3.8% <<<
>>> Test on task 11 : loss=65.892 | TAw acc= 96.5%, forg=  0.0%| TAg acc= 76.1%, forg=  0.9% <<<
>>> Test on task 12 : loss=72.924 | TAw acc= 96.9%, forg=  0.0%| TAg acc= 79.1%, forg=  0.0% <<<
Save at icarl_wisdm_1/wisdm_flex_icarl
======
LLL_Net(
  (model): SimpleMLP(
    (fc1): Linear(in_features=91, out_features=1000, bias=True)
    (fc2): Sequential()
  )
  (heads): ModuleList(
    (0): Linear(in_features=1000, out_features=34, bias=True)
    (1): Linear(in_features=1000, out_features=20, bias=True)
    (2): Linear(in_features=1000, out_features=20, bias=True)
    (3): Linear(in_features=1000, out_features=20, bias=True)
    (4): Linear(in_features=1000, out_features=20, bias=True)
    (5): Linear(in_features=1000, out_features=20, bias=True)
    (6): Linear(in_features=1000, out_features=20, bias=True)
    (7): Linear(in_features=1000, out_features=20, bias=True)
    (8): Linear(in_features=1000, out_features=20, bias=True)
    (9): Linear(in_features=1000, out_features=20, bias=True)
    (10): Linear(in_features=1000, out_features=20, bias=True)
    (11): Linear(in_features=1000, out_features=20, bias=True)
    (12): Linear(in_features=1000, out_features=20, bias=True)
  )
)
======

************************************************************************************************************
Task 13
************************************************************************************************************
| Epoch   1, time=  4.9s | Train: skip eval | Valid: time=  0.2s loss=83.879, TAw acc= 35.4% | *
| Epoch   2, time=  4.9s | Train: skip eval | Valid: time=  0.2s loss=80.143, TAw acc= 47.6% | *
…
>>> Test on task  8 : loss=62.061 | TAw acc= 96.1%, forg=  0.0%| TAg acc= 69.9%, forg=  2.9% <<<
>>> Test on task  9 : loss=62.687 | TAw acc= 96.5%, forg=  0.0%| TAg acc= 85.0%, forg=  0.0% <<<
>>> Test on task 10 : loss=65.997 | TAw acc= 98.1%, forg=  0.0%| TAg acc= 59.6%, forg=  6.7% <<<
>>> Test on task 11 : loss=65.786 | TAw acc= 96.5%, forg=  0.0%| TAg acc= 74.3%, forg=  2.7% <<<
>>> Test on task 12 : loss=73.011 | TAw acc= 96.9%, forg=  0.0%| TAg acc= 78.3%, forg=  0.8% <<<
>>> Test on task 13 : loss=73.763 | TAw acc= 93.7%, forg=  0.0%| TAg acc= 76.6%, forg=  0.0% <<<
Save at icarl_wisdm_1/wisdm_flex_icarl
======
LLL_Net(
  (model): SimpleMLP(
    (fc1): Linear(in_features=91, out_features=1000, bias=True)
    (fc2): Sequential()
  )
  (heads): ModuleList(
    (0): Linear(in_features=1000, out_features=34, bias=True)
    (1): Linear(in_features=1000, out_features=20, bias=True)
    (2): Linear(in_features=1000, out_features=20, bias=True)
    (3): Linear(in_features=1000, out_features=20, bias=True)
    (4): Linear(in_features=1000, out_features=20, bias=True)
    (5): Linear(in_features=1000, out_features=20, bias=True)
    (6): Linear(in_features=1000, out_features=20, bias=True)
    (7): Linear(in_features=1000, out_features=20, bias=True)
    (8): Linear(in_features=1000, out_features=20, bias=True)
    (9): Linear(in_features=1000, out_features=20, bias=True)
    (10): Linear(in_features=1000, out_features=20, bias=True)
    (11): Linear(in_features=1000, out_features=20, bias=True)
    (12): Linear(in_features=1000, out_features=20, bias=True)
    (13): Linear(in_features=1000, out_features=20, bias=True)
  )
)
======

************************************************************************************************************
Task 14
************************************************************************************************************
| Epoch   1, time=  5.2s | Train: skip eval | Valid: time=  0.2s loss=87.625, TAw acc= 54.9% | *
| Epoch   2, time=  5.5s | Train: skip eval | Valid: time=  0.2s loss=83.387, TAw acc= 73.6% | *
…
>>> Test on task  9 : loss=62.645 | TAw acc= 96.5%, forg=  0.0%| TAg acc= 84.1%, forg=  0.9% <<<
>>> Test on task 10 : loss=65.968 | TAw acc= 98.1%, forg=  0.0%| TAg acc= 58.7%, forg=  7.7% <<<
>>> Test on task 11 : loss=65.778 | TAw acc= 96.5%, forg=  0.0%| TAg acc= 74.3%, forg=  2.7% <<<
>>> Test on task 12 : loss=72.931 | TAw acc= 96.9%, forg=  0.0%| TAg acc= 75.2%, forg=  3.9% <<<
>>> Test on task 13 : loss=73.787 | TAw acc= 93.7%, forg=  0.0%| TAg acc= 76.6%, forg=  0.0% <<<
>>> Test on task 14 : loss=78.638 | TAw acc= 95.1%, forg=  0.0%| TAg acc= 72.1%, forg=  0.0% <<<
Save at icarl_wisdm_1/wisdm_flex_icarl
======
LLL_Net(
  (model): SimpleMLP(
    (fc1): Linear(in_features=91, out_features=1000, bias=True)
    (fc2): Sequential()
  )
  (heads): ModuleList(
    (0): Linear(in_features=1000, out_features=34, bias=True)
    (1): Linear(in_features=1000, out_features=20, bias=True)
    (2): Linear(in_features=1000, out_features=20, bias=True)
    (3): Linear(in_features=1000, out_features=20, bias=True)
    (4): Linear(in_features=1000, out_features=20, bias=True)
    (5): Linear(in_features=1000, out_features=20, bias=True)
    (6): Linear(in_features=1000, out_features=20, bias=True)
    (7): Linear(in_features=1000, out_features=20, bias=True)
    (8): Linear(in_features=1000, out_features=20, bias=True)
    (9): Linear(in_features=1000, out_features=20, bias=True)
    (10): Linear(in_features=1000, out_features=20, bias=True)
    (11): Linear(in_features=1000, out_features=20, bias=True)
    (12): Linear(in_features=1000, out_features=20, bias=True)
    (13): Linear(in_features=1000, out_features=20, bias=True)
    (14): Linear(in_features=1000, out_features=20, bias=True)
  )
)
======

************************************************************************************************************
Task 15
************************************************************************************************************
| Epoch   1, time=  6.0s | Train: skip eval | Valid: time=  0.2s loss=86.716, TAw acc= 54.9% | *
| Epoch   2, time=  6.0s | Train: skip eval | Valid: time=  0.2s loss=81.738, TAw acc= 54.9% | *
…
>>> Test on task 10 : loss=65.853 | TAw acc= 98.1%, forg=  0.0%| TAg acc= 57.7%, forg=  8.7% <<<
>>> Test on task 11 : loss=65.554 | TAw acc= 96.5%, forg=  0.0%| TAg acc= 73.5%, forg=  3.5% <<<
>>> Test on task 12 : loss=72.753 | TAw acc= 96.9%, forg=  0.0%| TAg acc= 75.2%, forg=  3.9% <<<
>>> Test on task 13 : loss=73.625 | TAw acc= 93.7%, forg=  0.0%| TAg acc= 73.9%, forg=  2.7% <<<
>>> Test on task 14 : loss=78.812 | TAw acc= 95.1%, forg=  0.0%| TAg acc= 72.1%, forg=  0.0% <<<
>>> Test on task 15 : loss=79.988 | TAw acc= 96.4%, forg=  0.0%| TAg acc= 67.3%, forg=  0.0% <<<
Save at icarl_wisdm_1/wisdm_flex_icarl
======
LLL_Net(
  (model): SimpleMLP(
    (fc1): Linear(in_features=91, out_features=1000, bias=True)
    (fc2): Sequential()
  )
  (heads): ModuleList(
    (0): Linear(in_features=1000, out_features=34, bias=True)
    (1): Linear(in_features=1000, out_features=20, bias=True)
    (2): Linear(in_features=1000, out_features=20, bias=True)
    (3): Linear(in_features=1000, out_features=20, bias=True)
    (4): Linear(in_features=1000, out_features=20, bias=True)
    (5): Linear(in_features=1000, out_features=20, bias=True)
    (6): Linear(in_features=1000, out_features=20, bias=True)
    (7): Linear(in_features=1000, out_features=20, bias=True)
    (8): Linear(in_features=1000, out_features=20, bias=True)
    (9): Linear(in_features=1000, out_features=20, bias=True)
    (10): Linear(in_features=1000, out_features=20, bias=True)
    (11): Linear(in_features=1000, out_features=20, bias=True)
    (12): Linear(in_features=1000, out_features=20, bias=True)
    (13): Linear(in_features=1000, out_features=20, bias=True)
    (14): Linear(in_features=1000, out_features=20, bias=True)
    (15): Linear(in_features=1000, out_features=20, bias=True)
  )
)
======

************************************************************************************************************
Task 16
************************************************************************************************************
| Epoch   1, time=  6.8s | Train: skip eval | Valid: time=  0.2s loss=82.739, TAw acc= 35.9% | *
| Epoch   2, time=  6.7s | Train: skip eval | Valid: time=  0.2s loss=77.294, TAw acc= 70.7% | *
…
>>> Test on task 11 : loss=65.508 | TAw acc= 96.5%, forg=  0.0%| TAg acc= 72.6%, forg=  4.4% <<<
>>> Test on task 12 : loss=72.638 | TAw acc= 96.9%, forg=  0.0%| TAg acc= 75.2%, forg=  3.9% <<<
>>> Test on task 13 : loss=73.462 | TAw acc= 93.7%, forg=  0.0%| TAg acc= 73.0%, forg=  3.6% <<<
>>> Test on task 14 : loss=78.617 | TAw acc= 95.1%, forg=  0.0%| TAg acc= 72.1%, forg=  0.0% <<<
>>> Test on task 15 : loss=80.158 | TAw acc= 96.4%, forg=  0.0%| TAg acc= 67.3%, forg=  0.0% <<<
>>> Test on task 16 : loss=75.790 | TAw acc= 90.9%, forg=  0.0%| TAg acc= 61.2%, forg=  0.0% <<<
Save at icarl_wisdm_1/wisdm_flex_icarl
======
LLL_Net(
  (model): SimpleMLP(
    (fc1): Linear(in_features=91, out_features=1000, bias=True)
    (fc2): Sequential()
  )
  (heads): ModuleList(
    (0): Linear(in_features=1000, out_features=34, bias=True)
    (1): Linear(in_features=1000, out_features=20, bias=True)
    (2): Linear(in_features=1000, out_features=20, bias=True)
    (3): Linear(in_features=1000, out_features=20, bias=True)
    (4): Linear(in_features=1000, out_features=20, bias=True)
    (5): Linear(in_features=1000, out_features=20, bias=True)
    (6): Linear(in_features=1000, out_features=20, bias=True)
    (7): Linear(in_features=1000, out_features=20, bias=True)
    (8): Linear(in_features=1000, out_features=20, bias=True)
    (9): Linear(in_features=1000, out_features=20, bias=True)
    (10): Linear(in_features=1000, out_features=20, bias=True)
    (11): Linear(in_features=1000, out_features=20, bias=True)
    (12): Linear(in_features=1000, out_features=20, bias=True)
    (13): Linear(in_features=1000, out_features=20, bias=True)
    (14): Linear(in_features=1000, out_features=20, bias=True)
    (15): Linear(in_features=1000, out_features=20, bias=True)
    (16): Linear(in_features=1000, out_features=20, bias=True)
  )
)
======

************************************************************************************************************
Task 17
************************************************************************************************************
| Epoch   1, time=  7.5s | Train: skip eval | Valid: time=  0.2s loss=94.118, TAw acc= 42.5% | *
| Epoch   2, time=  7.4s | Train: skip eval | Valid: time=  0.2s loss=89.209, TAw acc= 51.2% | *
…
>>> Test on task 12 : loss=72.570 | TAw acc= 96.9%, forg=  0.0%| TAg acc= 73.6%, forg=  5.4% <<<
>>> Test on task 13 : loss=73.315 | TAw acc= 93.7%, forg=  0.0%| TAg acc= 73.0%, forg=  3.6% <<<
>>> Test on task 14 : loss=78.521 | TAw acc= 95.1%, forg=  0.0%| TAg acc= 72.1%, forg=  0.0% <<<
>>> Test on task 15 : loss=80.031 | TAw acc= 96.4%, forg=  0.0%| TAg acc= 67.3%, forg=  0.0% <<<
>>> Test on task 16 : loss=75.901 | TAw acc= 90.9%, forg=  0.0%| TAg acc= 61.2%, forg=  0.0% <<<
>>> Test on task 17 : loss=83.973 | TAw acc= 92.6%, forg=  0.0%| TAg acc= 75.0%, forg=  0.0% <<<
Save at icarl_wisdm_1/wisdm_flex_icarl
======
LLL_Net(
  (model): SimpleMLP(
    (fc1): Linear(in_features=91, out_features=1000, bias=True)
    (fc2): Sequential()
  )
  (heads): ModuleList(
    (0): Linear(in_features=1000, out_features=34, bias=True)
    (1): Linear(in_features=1000, out_features=20, bias=True)
    (2): Linear(in_features=1000, out_features=20, bias=True)
    (3): Linear(in_features=1000, out_features=20, bias=True)
    (4): Linear(in_features=1000, out_features=20, bias=True)
    (5): Linear(in_features=1000, out_features=20, bias=True)
    (6): Linear(in_features=1000, out_features=20, bias=True)
    (7): Linear(in_features=1000, out_features=20, bias=True)
    (8): Linear(in_features=1000, out_features=20, bias=True)
    (9): Linear(in_features=1000, out_features=20, bias=True)
    (10): Linear(in_features=1000, out_features=20, bias=True)
    (11): Linear(in_features=1000, out_features=20, bias=True)
    (12): Linear(in_features=1000, out_features=20, bias=True)
    (13): Linear(in_features=1000, out_features=20, bias=True)
    (14): Linear(in_features=1000, out_features=20, bias=True)
    (15): Linear(in_features=1000, out_features=20, bias=True)
    (16): Linear(in_features=1000, out_features=20, bias=True)
    (17): Linear(in_features=1000, out_features=20, bias=True)
  )
)
======

************************************************************************************************************
Task 18
************************************************************************************************************
| Epoch   1, time=  8.7s | Train: skip eval | Valid: time=  0.3s loss=87.047, TAw acc= 38.1% | *
| Epoch   2, time=  8.2s | Train: skip eval | Valid: time=  0.2s loss=83.551, TAw acc= 65.5% | *
…
>>> Test on task 13 : loss=73.272 | TAw acc= 93.7%, forg=  0.0%| TAg acc= 72.1%, forg=  4.5% <<<
>>> Test on task 14 : loss=78.412 | TAw acc= 95.1%, forg=  0.0%| TAg acc= 72.1%, forg=  0.0% <<<
>>> Test on task 15 : loss=79.988 | TAw acc= 96.4%, forg=  0.0%| TAg acc= 65.5%, forg=  1.8% <<<
>>> Test on task 16 : loss=75.819 | TAw acc= 90.9%, forg=  0.0%| TAg acc= 61.2%, forg=  0.0% <<<
>>> Test on task 17 : loss=84.160 | TAw acc= 92.6%, forg=  0.0%| TAg acc= 73.1%, forg=  1.9% <<<
>>> Test on task 18 : loss=81.450 | TAw acc= 92.9%, forg=  0.0%| TAg acc= 59.8%, forg=  0.0% <<<
Save at icarl_wisdm_1/wisdm_flex_icarl
======
LLL_Net(
  (model): SimpleMLP(
    (fc1): Linear(in_features=91, out_features=1000, bias=True)
    (fc2): Sequential()
  )
  (heads): ModuleList(
    (0): Linear(in_features=1000, out_features=34, bias=True)
    (1): Linear(in_features=1000, out_features=20, bias=True)
    (2): Linear(in_features=1000, out_features=20, bias=True)
    (3): Linear(in_features=1000, out_features=20, bias=True)
    (4): Linear(in_features=1000, out_features=20, bias=True)
    (5): Linear(in_features=1000, out_features=20, bias=True)
    (6): Linear(in_features=1000, out_features=20, bias=True)
    (7): Linear(in_features=1000, out_features=20, bias=True)
    (8): Linear(in_features=1000, out_features=20, bias=True)
    (9): Linear(in_features=1000, out_features=20, bias=True)
    (10): Linear(in_features=1000, out_features=20, bias=True)
    (11): Linear(in_features=1000, out_features=20, bias=True)
    (12): Linear(in_features=1000, out_features=20, bias=True)
    (13): Linear(in_features=1000, out_features=20, bias=True)
    (14): Linear(in_features=1000, out_features=20, bias=True)
    (15): Linear(in_features=1000, out_features=20, bias=True)
    (16): Linear(in_features=1000, out_features=20, bias=True)
    (17): Linear(in_features=1000, out_features=20, bias=True)
    (18): Linear(in_features=1000, out_features=20, bias=True)
  )
)
======

************************************************************************************************************
Task 19
************************************************************************************************************
| Epoch   1, time=  9.1s | Train: skip eval | Valid: time=  0.2s loss=87.704, TAw acc= 29.5% | *
| Epoch   2, time=  8.9s | Train: skip eval | Valid: time=  0.2s loss=83.460, TAw acc= 43.6% | *
…
>>> Test on task 14 : loss=78.262 | TAw acc= 95.1%, forg=  0.0%| TAg acc= 69.7%, forg=  2.5% <<<
>>> Test on task 15 : loss=79.754 | TAw acc= 96.4%, forg=  0.0%| TAg acc= 65.5%, forg=  1.8% <<<
>>> Test on task 16 : loss=75.637 | TAw acc= 90.9%, forg=  0.0%| TAg acc= 61.2%, forg=  0.0% <<<
>>> Test on task 17 : loss=83.950 | TAw acc= 92.6%, forg=  0.0%| TAg acc= 72.2%, forg=  2.8% <<<
>>> Test on task 18 : loss=81.589 | TAw acc= 92.9%, forg=  0.0%| TAg acc= 59.8%, forg=  0.0% <<<
>>> Test on task 19 : loss=79.376 | TAw acc= 96.2%, forg=  0.0%| TAg acc= 78.3%, forg=  0.0% <<<
Save at icarl_wisdm_1/wisdm_flex_icarl
======
LLL_Net(
  (model): SimpleMLP(
    (fc1): Linear(in_features=91, out_features=1000, bias=True)
    (fc2): Sequential()
  )
  (heads): ModuleList(
    (0): Linear(in_features=1000, out_features=34, bias=True)
    (1): Linear(in_features=1000, out_features=20, bias=True)
    (2): Linear(in_features=1000, out_features=20, bias=True)
    (3): Linear(in_features=1000, out_features=20, bias=True)
    (4): Linear(in_features=1000, out_features=20, bias=True)
    (5): Linear(in_features=1000, out_features=20, bias=True)
    (6): Linear(in_features=1000, out_features=20, bias=True)
    (7): Linear(in_features=1000, out_features=20, bias=True)
    (8): Linear(in_features=1000, out_features=20, bias=True)
    (9): Linear(in_features=1000, out_features=20, bias=True)
    (10): Linear(in_features=1000, out_features=20, bias=True)
    (11): Linear(in_features=1000, out_features=20, bias=True)
    (12): Linear(in_features=1000, out_features=20, bias=True)
    (13): Linear(in_features=1000, out_features=20, bias=True)
    (14): Linear(in_features=1000, out_features=20, bias=True)
    (15): Linear(in_features=1000, out_features=20, bias=True)
    (16): Linear(in_features=1000, out_features=20, bias=True)
    (17): Linear(in_features=1000, out_features=20, bias=True)
    (18): Linear(in_features=1000, out_features=20, bias=True)
    (19): Linear(in_features=1000, out_features=20, bias=True)
  )
)
======

************************************************************************************************************
Task 20
************************************************************************************************************
| Epoch   1, time=  9.9s | Train: skip eval | Valid: time=  0.2s loss=88.422, TAw acc= 38.3% | *
| Epoch   2, time=  9.5s | Train: skip eval | Valid: time=  0.2s loss=83.182, TAw acc= 61.7% | *
…
>>> Test on task 15 : loss=79.616 | TAw acc= 96.4%, forg=  0.0%| TAg acc= 64.5%, forg=  2.7% <<<
>>> Test on task 16 : loss=75.494 | TAw acc= 90.9%, forg=  0.0%| TAg acc= 61.2%, forg=  0.0% <<<
>>> Test on task 17 : loss=83.963 | TAw acc= 92.6%, forg=  0.0%| TAg acc= 72.2%, forg=  2.8% <<<
>>> Test on task 18 : loss=81.709 | TAw acc= 92.9%, forg=  0.0%| TAg acc= 55.4%, forg=  4.5% <<<
>>> Test on task 19 : loss=79.417 | TAw acc= 96.2%, forg=  0.0%| TAg acc= 75.5%, forg=  2.8% <<<
>>> Test on task 20 : loss=81.552 | TAw acc= 95.5%, forg=  0.0%| TAg acc= 67.3%, forg=  0.0% <<<
Save at icarl_wisdm_1/wisdm_flex_icarl
======
LLL_Net(
  (model): SimpleMLP(
    (fc1): Linear(in_features=91, out_features=1000, bias=True)
    (fc2): Sequential()
  )
  (heads): ModuleList(
    (0): Linear(in_features=1000, out_features=34, bias=True)
    (1): Linear(in_features=1000, out_features=20, bias=True)
    (2): Linear(in_features=1000, out_features=20, bias=True)
    (3): Linear(in_features=1000, out_features=20, bias=True)
    (4): Linear(in_features=1000, out_features=20, bias=True)
    (5): Linear(in_features=1000, out_features=20, bias=True)
    (6): Linear(in_features=1000, out_features=20, bias=True)
    (7): Linear(in_features=1000, out_features=20, bias=True)
    (8): Linear(in_features=1000, out_features=20, bias=True)
    (9): Linear(in_features=1000, out_features=20, bias=True)
    (10): Linear(in_features=1000, out_features=20, bias=True)
    (11): Linear(in_features=1000, out_features=20, bias=True)
    (12): Linear(in_features=1000, out_features=20, bias=True)
    (13): Linear(in_features=1000, out_features=20, bias=True)
    (14): Linear(in_features=1000, out_features=20, bias=True)
    (15): Linear(in_features=1000, out_features=20, bias=True)
    (16): Linear(in_features=1000, out_features=20, bias=True)
    (17): Linear(in_features=1000, out_features=20, bias=True)
    (18): Linear(in_features=1000, out_features=20, bias=True)
    (19): Linear(in_features=1000, out_features=20, bias=True)
    (20): Linear(in_features=1000, out_features=20, bias=True)
  )
)
======

************************************************************************************************************
Task 21
************************************************************************************************************
| Epoch   1, time= 10.3s | Train: skip eval | Valid: time=  0.2s loss=100.548, TAw acc= 36.0% | *
| Epoch   2, time= 10.8s | Train: skip eval | Valid: time=  0.2s loss=95.920, TAw acc= 58.1% | *
…
>>> Test on task 16 : loss=75.333 | TAw acc= 90.9%, forg=  0.0%| TAg acc= 61.2%, forg=  0.0% <<<
>>> Test on task 17 : loss=83.802 | TAw acc= 92.6%, forg=  0.0%| TAg acc= 66.7%, forg=  8.3% <<<
>>> Test on task 18 : loss=81.349 | TAw acc= 92.9%, forg=  0.0%| TAg acc= 55.4%, forg=  4.5% <<<
>>> Test on task 19 : loss=79.198 | TAw acc= 96.2%, forg=  0.0%| TAg acc= 74.5%, forg=  3.8% <<<
>>> Test on task 20 : loss=81.728 | TAw acc= 95.5%, forg=  0.0%| TAg acc= 67.3%, forg=  0.0% <<<
>>> Test on task 21 : loss=93.497 | TAw acc= 98.3%, forg=  0.0%| TAg acc= 70.9%, forg=  0.0% <<<
Save at icarl_wisdm_1/wisdm_flex_icarl
======
LLL_Net(
  (model): SimpleMLP(
    (fc1): Linear(in_features=91, out_features=1000, bias=True)
    (fc2): Sequential()
  )
  (heads): ModuleList(
    (0): Linear(in_features=1000, out_features=34, bias=True)
    (1): Linear(in_features=1000, out_features=20, bias=True)
    (2): Linear(in_features=1000, out_features=20, bias=True)
    (3): Linear(in_features=1000, out_features=20, bias=True)
    (4): Linear(in_features=1000, out_features=20, bias=True)
    (5): Linear(in_features=1000, out_features=20, bias=True)
    (6): Linear(in_features=1000, out_features=20, bias=True)
    (7): Linear(in_features=1000, out_features=20, bias=True)
    (8): Linear(in_features=1000, out_features=20, bias=True)
    (9): Linear(in_features=1000, out_features=20, bias=True)
    (10): Linear(in_features=1000, out_features=20, bias=True)
    (11): Linear(in_features=1000, out_features=20, bias=True)
    (12): Linear(in_features=1000, out_features=20, bias=True)
    (13): Linear(in_features=1000, out_features=20, bias=True)
    (14): Linear(in_features=1000, out_features=20, bias=True)
    (15): Linear(in_features=1000, out_features=20, bias=True)
    (16): Linear(in_features=1000, out_features=20, bias=True)
    (17): Linear(in_features=1000, out_features=20, bias=True)
    (18): Linear(in_features=1000, out_features=20, bias=True)
    (19): Linear(in_features=1000, out_features=20, bias=True)
    (20): Linear(in_features=1000, out_features=20, bias=True)
    (21): Linear(in_features=1000, out_features=20, bias=True)
  )
)
======

************************************************************************************************************
Task 22
************************************************************************************************************
| Epoch   1, time= 11.1s | Train: skip eval | Valid: time=  0.2s loss=103.068, TAw acc= 44.2% | *
| Epoch   2, time= 11.9s | Train: skip eval | Valid: time=  0.3s loss=98.320, TAw acc= 62.3% | *
…
>>> Test on task 17 : loss=83.672 | TAw acc= 92.6%, forg=  0.0%| TAg acc= 66.7%, forg=  8.3% <<<
>>> Test on task 18 : loss=81.331 | TAw acc= 92.9%, forg=  0.0%| TAg acc= 55.4%, forg=  4.5% <<<
>>> Test on task 19 : loss=79.047 | TAw acc= 96.2%, forg=  0.0%| TAg acc= 74.5%, forg=  3.8% <<<
>>> Test on task 20 : loss=81.665 | TAw acc= 95.5%, forg=  0.0%| TAg acc= 64.5%, forg=  2.7% <<<
>>> Test on task 21 : loss=93.549 | TAw acc= 98.3%, forg=  0.0%| TAg acc= 70.1%, forg=  0.9% <<<
>>> Test on task 22 : loss=91.560 | TAw acc= 93.4%, forg=  0.0%| TAg acc= 59.4%, forg=  0.0% <<<
Save at icarl_wisdm_1/wisdm_flex_icarl
======
LLL_Net(
  (model): SimpleMLP(
    (fc1): Linear(in_features=91, out_features=1000, bias=True)
    (fc2): Sequential()
  )
  (heads): ModuleList(
    (0): Linear(in_features=1000, out_features=34, bias=True)
    (1): Linear(in_features=1000, out_features=20, bias=True)
    (2): Linear(in_features=1000, out_features=20, bias=True)
    (3): Linear(in_features=1000, out_features=20, bias=True)
    (4): Linear(in_features=1000, out_features=20, bias=True)
    (5): Linear(in_features=1000, out_features=20, bias=True)
    (6): Linear(in_features=1000, out_features=20, bias=True)
    (7): Linear(in_features=1000, out_features=20, bias=True)
    (8): Linear(in_features=1000, out_features=20, bias=True)
    (9): Linear(in_features=1000, out_features=20, bias=True)
    (10): Linear(in_features=1000, out_features=20, bias=True)
    (11): Linear(in_features=1000, out_features=20, bias=True)
    (12): Linear(in_features=1000, out_features=20, bias=True)
    (13): Linear(in_features=1000, out_features=20, bias=True)
    (14): Linear(in_features=1000, out_features=20, bias=True)
    (15): Linear(in_features=1000, out_features=20, bias=True)
    (16): Linear(in_features=1000, out_features=20, bias=True)
    (17): Linear(in_features=1000, out_features=20, bias=True)
    (18): Linear(in_features=1000, out_features=20, bias=True)
    (19): Linear(in_features=1000, out_features=20, bias=True)
    (20): Linear(in_features=1000, out_features=20, bias=True)
    (21): Linear(in_features=1000, out_features=20, bias=True)
    (22): Linear(in_features=1000, out_features=20, bias=True)
  )
)
======

************************************************************************************************************
Task 23
************************************************************************************************************
| Epoch   1, time= 12.0s | Train: skip eval | Valid: time=  0.3s loss=98.747, TAw acc= 26.2% | *
| Epoch   2, time= 12.5s | Train: skip eval | Valid: time=  0.2s loss=93.333, TAw acc= 30.8% | *
…
>>> Test on task 18 : loss=81.156 | TAw acc= 92.9%, forg=  0.0%| TAg acc= 55.4%, forg=  4.5% <<<
>>> Test on task 19 : loss=78.966 | TAw acc= 96.2%, forg=  0.0%| TAg acc= 74.5%, forg=  3.8% <<<
>>> Test on task 20 : loss=81.540 | TAw acc= 95.5%, forg=  0.0%| TAg acc= 64.5%, forg=  2.7% <<<
>>> Test on task 21 : loss=93.337 | TAw acc= 98.3%, forg=  0.0%| TAg acc= 70.1%, forg=  0.9% <<<
>>> Test on task 22 : loss=91.765 | TAw acc= 93.4%, forg=  0.0%| TAg acc= 59.4%, forg=  0.0% <<<
>>> Test on task 23 : loss=87.534 | TAw acc= 96.8%, forg=  0.0%| TAg acc= 66.7%, forg=  0.0% <<<
Save at icarl_wisdm_1/wisdm_flex_icarl
======
LLL_Net(
  (model): SimpleMLP(
    (fc1): Linear(in_features=91, out_features=1000, bias=True)
    (fc2): Sequential()
  )
  (heads): ModuleList(
    (0): Linear(in_features=1000, out_features=34, bias=True)
    (1): Linear(in_features=1000, out_features=20, bias=True)
    (2): Linear(in_features=1000, out_features=20, bias=True)
    (3): Linear(in_features=1000, out_features=20, bias=True)
    (4): Linear(in_features=1000, out_features=20, bias=True)
    (5): Linear(in_features=1000, out_features=20, bias=True)
    (6): Linear(in_features=1000, out_features=20, bias=True)
    (7): Linear(in_features=1000, out_features=20, bias=True)
    (8): Linear(in_features=1000, out_features=20, bias=True)
    (9): Linear(in_features=1000, out_features=20, bias=True)
    (10): Linear(in_features=1000, out_features=20, bias=True)
    (11): Linear(in_features=1000, out_features=20, bias=True)
    (12): Linear(in_features=1000, out_features=20, bias=True)
    (13): Linear(in_features=1000, out_features=20, bias=True)
    (14): Linear(in_features=1000, out_features=20, bias=True)
    (15): Linear(in_features=1000, out_features=20, bias=True)
    (16): Linear(in_features=1000, out_features=20, bias=True)
    (17): Linear(in_features=1000, out_features=20, bias=True)
    (18): Linear(in_features=1000, out_features=20, bias=True)
    (19): Linear(in_features=1000, out_features=20, bias=True)
    (20): Linear(in_features=1000, out_features=20, bias=True)
    (21): Linear(in_features=1000, out_features=20, bias=True)
    (22): Linear(in_features=1000, out_features=20, bias=True)
    (23): Linear(in_features=1000, out_features=20, bias=True)
  )
)
======

************************************************************************************************************
Task 24
************************************************************************************************************
| Epoch   1, time= 13.6s | Train: skip eval | Valid: time=  0.3s loss=100.482, TAw acc= 38.1% | *
| Epoch   2, time= 13.9s | Train: skip eval | Valid: time=  0.3s loss=95.674, TAw acc= 47.6% | *
…
>>> Test on task 19 : loss=78.885 | TAw acc= 96.2%, forg=  0.0%| TAg acc= 74.5%, forg=  3.8% <<<
>>> Test on task 20 : loss=81.729 | TAw acc= 95.5%, forg=  0.0%| TAg acc= 64.5%, forg=  2.7% <<<
>>> Test on task 21 : loss=93.266 | TAw acc= 98.3%, forg=  0.0%| TAg acc= 70.1%, forg=  0.9% <<<
>>> Test on task 22 : loss=91.645 | TAw acc= 93.4%, forg=  0.0%| TAg acc= 59.4%, forg=  0.0% <<<
>>> Test on task 23 : loss=87.669 | TAw acc= 96.8%, forg=  0.0%| TAg acc= 65.6%, forg=  1.1% <<<
>>> Test on task 24 : loss=90.988 | TAw acc= 92.1%, forg=  0.0%| TAg acc= 64.0%, forg=  0.0% <<<
Save at icarl_wisdm_1/wisdm_flex_icarl
======
LLL_Net(
  (model): SimpleMLP(
    (fc1): Linear(in_features=91, out_features=1000, bias=True)
    (fc2): Sequential()
  )
  (heads): ModuleList(
    (0): Linear(in_features=1000, out_features=34, bias=True)
    (1): Linear(in_features=1000, out_features=20, bias=True)
    (2): Linear(in_features=1000, out_features=20, bias=True)
    (3): Linear(in_features=1000, out_features=20, bias=True)
    (4): Linear(in_features=1000, out_features=20, bias=True)
    (5): Linear(in_features=1000, out_features=20, bias=True)
    (6): Linear(in_features=1000, out_features=20, bias=True)
    (7): Linear(in_features=1000, out_features=20, bias=True)
    (8): Linear(in_features=1000, out_features=20, bias=True)
    (9): Linear(in_features=1000, out_features=20, bias=True)
    (10): Linear(in_features=1000, out_features=20, bias=True)
    (11): Linear(in_features=1000, out_features=20, bias=True)
    (12): Linear(in_features=1000, out_features=20, bias=True)
    (13): Linear(in_features=1000, out_features=20, bias=True)
    (14): Linear(in_features=1000, out_features=20, bias=True)
    (15): Linear(in_features=1000, out_features=20, bias=True)
    (16): Linear(in_features=1000, out_features=20, bias=True)
    (17): Linear(in_features=1000, out_features=20, bias=True)
    (18): Linear(in_features=1000, out_features=20, bias=True)
    (19): Linear(in_features=1000, out_features=20, bias=True)
    (20): Linear(in_features=1000, out_features=20, bias=True)
    (21): Linear(in_features=1000, out_features=20, bias=True)
    (22): Linear(in_features=1000, out_features=20, bias=True)
    (23): Linear(in_features=1000, out_features=20, bias=True)
    (24): Linear(in_features=1000, out_features=20, bias=True)
  )
)
======

************************************************************************************************************
Task 25
************************************************************************************************************
| Epoch   1, time= 14.6s | Train: skip eval | Valid: time=  0.3s loss=102.384, TAw acc= 32.9% | *
| Epoch   2, time= 14.3s | Train: skip eval | Valid: time=  0.3s loss=97.601, TAw acc= 51.2% | *
…
>>> Test on task 20 : loss=81.378 | TAw acc= 95.5%, forg=  0.0%| TAg acc= 64.5%, forg=  2.7% <<<
>>> Test on task 21 : loss=93.089 | TAw acc= 98.3%, forg=  0.0%| TAg acc= 69.2%, forg=  1.7% <<<
>>> Test on task 22 : loss=91.628 | TAw acc= 93.4%, forg=  0.0%| TAg acc= 59.4%, forg=  0.0% <<<
>>> Test on task 23 : loss=87.487 | TAw acc= 96.8%, forg=  0.0%| TAg acc= 65.6%, forg=  1.1% <<<
>>> Test on task 24 : loss=91.242 | TAw acc= 92.1%, forg=  0.0%| TAg acc= 64.0%, forg=  0.0% <<<
>>> Test on task 25 : loss=90.585 | TAw acc= 88.3%, forg=  0.0%| TAg acc= 58.6%, forg=  0.0% <<<
Save at icarl_wisdm_1/wisdm_flex_icarl
======
LLL_Net(
  (model): SimpleMLP(
    (fc1): Linear(in_features=91, out_features=1000, bias=True)
    (fc2): Sequential()
  )
  (heads): ModuleList(
    (0): Linear(in_features=1000, out_features=34, bias=True)
    (1): Linear(in_features=1000, out_features=20, bias=True)
    (2): Linear(in_features=1000, out_features=20, bias=True)
    (3): Linear(in_features=1000, out_features=20, bias=True)
    (4): Linear(in_features=1000, out_features=20, bias=True)
    (5): Linear(in_features=1000, out_features=20, bias=True)
    (6): Linear(in_features=1000, out_features=20, bias=True)
    (7): Linear(in_features=1000, out_features=20, bias=True)
    (8): Linear(in_features=1000, out_features=20, bias=True)
    (9): Linear(in_features=1000, out_features=20, bias=True)
    (10): Linear(in_features=1000, out_features=20, bias=True)
    (11): Linear(in_features=1000, out_features=20, bias=True)
    (12): Linear(in_features=1000, out_features=20, bias=True)
    (13): Linear(in_features=1000, out_features=20, bias=True)
    (14): Linear(in_features=1000, out_features=20, bias=True)
    (15): Linear(in_features=1000, out_features=20, bias=True)
    (16): Linear(in_features=1000, out_features=20, bias=True)
    (17): Linear(in_features=1000, out_features=20, bias=True)
    (18): Linear(in_features=1000, out_features=20, bias=True)
    (19): Linear(in_features=1000, out_features=20, bias=True)
    (20): Linear(in_features=1000, out_features=20, bias=True)
    (21): Linear(in_features=1000, out_features=20, bias=True)
    (22): Linear(in_features=1000, out_features=20, bias=True)
    (23): Linear(in_features=1000, out_features=20, bias=True)
    (24): Linear(in_features=1000, out_features=20, bias=True)
    (25): Linear(in_features=1000, out_features=20, bias=True)
  )
)
======

************************************************************************************************************
Task 26
************************************************************************************************************
| Epoch   1, time= 15.3s | Train: skip eval | Valid: time=  0.3s loss=92.903, TAw acc= 30.3% | *
| Epoch   2, time= 15.1s | Train: skip eval | Valid: time=  0.2s loss=87.680, TAw acc= 63.2% | *
…
>>> Test on task 21 : loss=92.892 | TAw acc= 98.3%, forg=  0.0%| TAg acc= 69.2%, forg=  1.7% <<<
>>> Test on task 22 : loss=91.387 | TAw acc= 93.4%, forg=  0.0%| TAg acc= 58.5%, forg=  0.9% <<<
>>> Test on task 23 : loss=87.372 | TAw acc= 96.8%, forg=  0.0%| TAg acc= 65.6%, forg=  1.1% <<<
>>> Test on task 24 : loss=91.034 | TAw acc= 92.1%, forg=  0.0%| TAg acc= 64.0%, forg=  0.0% <<<
>>> Test on task 25 : loss=90.837 | TAw acc= 88.3%, forg=  0.0%| TAg acc= 58.6%, forg=  0.0% <<<
>>> Test on task 26 : loss=85.569 | TAw acc= 97.1%, forg=  0.0%| TAg acc= 57.7%, forg=  0.0% <<<
Save at icarl_wisdm_1/wisdm_flex_icarl
======
LLL_Net(
  (model): SimpleMLP(
    (fc1): Linear(in_features=91, out_features=1000, bias=True)
    (fc2): Sequential()
  )
  (heads): ModuleList(
    (0): Linear(in_features=1000, out_features=34, bias=True)
    (1): Linear(in_features=1000, out_features=20, bias=True)
    (2): Linear(in_features=1000, out_features=20, bias=True)
    (3): Linear(in_features=1000, out_features=20, bias=True)
    (4): Linear(in_features=1000, out_features=20, bias=True)
    (5): Linear(in_features=1000, out_features=20, bias=True)
    (6): Linear(in_features=1000, out_features=20, bias=True)
    (7): Linear(in_features=1000, out_features=20, bias=True)
    (8): Linear(in_features=1000, out_features=20, bias=True)
    (9): Linear(in_features=1000, out_features=20, bias=True)
    (10): Linear(in_features=1000, out_features=20, bias=True)
    (11): Linear(in_features=1000, out_features=20, bias=True)
    (12): Linear(in_features=1000, out_features=20, bias=True)
    (13): Linear(in_features=1000, out_features=20, bias=True)
    (14): Linear(in_features=1000, out_features=20, bias=True)
    (15): Linear(in_features=1000, out_features=20, bias=True)
    (16): Linear(in_features=1000, out_features=20, bias=True)
    (17): Linear(in_features=1000, out_features=20, bias=True)
    (18): Linear(in_features=1000, out_features=20, bias=True)
    (19): Linear(in_features=1000, out_features=20, bias=True)
    (20): Linear(in_features=1000, out_features=20, bias=True)
    (21): Linear(in_features=1000, out_features=20, bias=True)
    (22): Linear(in_features=1000, out_features=20, bias=True)
    (23): Linear(in_features=1000, out_features=20, bias=True)
    (24): Linear(in_features=1000, out_features=20, bias=True)
    (25): Linear(in_features=1000, out_features=20, bias=True)
    (26): Linear(in_features=1000, out_features=20, bias=True)
  )
)
======

************************************************************************************************************
Task 27
************************************************************************************************************
| Epoch   1, time= 17.5s | Train: skip eval | Valid: time=  0.3s loss=107.487, TAw acc= 52.7% | *
| Epoch   2, time= 17.2s | Train: skip eval | Valid: time=  0.3s loss=100.702, TAw acc= 68.9% | *
…
>>> Test on task 22 : loss=91.285 | TAw acc= 93.4%, forg=  0.0%| TAg acc= 58.5%, forg=  0.9% <<<
>>> Test on task 23 : loss=87.293 | TAw acc= 96.8%, forg=  0.0%| TAg acc= 65.6%, forg=  1.1% <<<
>>> Test on task 24 : loss=90.961 | TAw acc= 92.1%, forg=  0.0%| TAg acc= 64.0%, forg=  0.0% <<<
>>> Test on task 25 : loss=90.674 | TAw acc= 88.3%, forg=  0.0%| TAg acc= 58.6%, forg=  0.0% <<<
>>> Test on task 26 : loss=85.739 | TAw acc= 97.1%, forg=  0.0%| TAg acc= 57.7%, forg=  0.0% <<<
>>> Test on task 27 : loss=95.446 | TAw acc= 98.0%, forg=  0.0%| TAg acc= 72.5%, forg=  0.0% <<<
Save at icarl_wisdm_1/wisdm_flex_icarl
======
LLL_Net(
  (model): SimpleMLP(
    (fc1): Linear(in_features=91, out_features=1000, bias=True)
    (fc2): Sequential()
  )
  (heads): ModuleList(
    (0): Linear(in_features=1000, out_features=34, bias=True)
    (1): Linear(in_features=1000, out_features=20, bias=True)
    (2): Linear(in_features=1000, out_features=20, bias=True)
    (3): Linear(in_features=1000, out_features=20, bias=True)
    (4): Linear(in_features=1000, out_features=20, bias=True)
    (5): Linear(in_features=1000, out_features=20, bias=True)
    (6): Linear(in_features=1000, out_features=20, bias=True)
    (7): Linear(in_features=1000, out_features=20, bias=True)
    (8): Linear(in_features=1000, out_features=20, bias=True)
    (9): Linear(in_features=1000, out_features=20, bias=True)
    (10): Linear(in_features=1000, out_features=20, bias=True)
    (11): Linear(in_features=1000, out_features=20, bias=True)
    (12): Linear(in_features=1000, out_features=20, bias=True)
    (13): Linear(in_features=1000, out_features=20, bias=True)
    (14): Linear(in_features=1000, out_features=20, bias=True)
    (15): Linear(in_features=1000, out_features=20, bias=True)
    (16): Linear(in_features=1000, out_features=20, bias=True)
    (17): Linear(in_features=1000, out_features=20, bias=True)
    (18): Linear(in_features=1000, out_features=20, bias=True)
    (19): Linear(in_features=1000, out_features=20, bias=True)
    (20): Linear(in_features=1000, out_features=20, bias=True)
    (21): Linear(in_features=1000, out_features=20, bias=True)
    (22): Linear(in_features=1000, out_features=20, bias=True)
    (23): Linear(in_features=1000, out_features=20, bias=True)
    (24): Linear(in_features=1000, out_features=20, bias=True)
    (25): Linear(in_features=1000, out_features=20, bias=True)
    (26): Linear(in_features=1000, out_features=20, bias=True)
    (27): Linear(in_features=1000, out_features=20, bias=True)
  )
)
======

************************************************************************************************************
Task 28
************************************************************************************************************
| Epoch   1, time= 18.6s | Train: skip eval | Valid: time=  0.3s loss=103.589, TAw acc= 43.4% | *
| Epoch   2, time= 18.0s | Train: skip eval | Valid: time=  0.3s loss=98.393, TAw acc= 53.0% | *
…
>>> Test on task 23 : loss=87.274 | TAw acc= 96.8%, forg=  0.0%| TAg acc= 64.5%, forg=  2.2% <<<
>>> Test on task 24 : loss=90.805 | TAw acc= 92.1%, forg=  0.0%| TAg acc= 64.0%, forg=  0.0% <<<
>>> Test on task 25 : loss=90.612 | TAw acc= 88.3%, forg=  0.0%| TAg acc= 57.7%, forg=  0.9% <<<
>>> Test on task 26 : loss=85.686 | TAw acc= 97.1%, forg=  0.0%| TAg acc= 56.7%, forg=  1.0% <<<
>>> Test on task 27 : loss=95.555 | TAw acc= 98.0%, forg=  0.0%| TAg acc= 72.5%, forg=  0.0% <<<
>>> Test on task 28 : loss=87.768 | TAw acc= 85.8%, forg=  0.0%| TAg acc= 48.7%, forg=  0.0% <<<
Save at icarl_wisdm_1/wisdm_flex_icarl
======
LLL_Net(
  (model): SimpleMLP(
    (fc1): Linear(in_features=91, out_features=1000, bias=True)
    (fc2): Sequential()
  )
  (heads): ModuleList(
    (0): Linear(in_features=1000, out_features=34, bias=True)
    (1): Linear(in_features=1000, out_features=20, bias=True)
    (2): Linear(in_features=1000, out_features=20, bias=True)
    (3): Linear(in_features=1000, out_features=20, bias=True)
    (4): Linear(in_features=1000, out_features=20, bias=True)
    (5): Linear(in_features=1000, out_features=20, bias=True)
    (6): Linear(in_features=1000, out_features=20, bias=True)
    (7): Linear(in_features=1000, out_features=20, bias=True)
    (8): Linear(in_features=1000, out_features=20, bias=True)
    (9): Linear(in_features=1000, out_features=20, bias=True)
    (10): Linear(in_features=1000, out_features=20, bias=True)
    (11): Linear(in_features=1000, out_features=20, bias=True)
    (12): Linear(in_features=1000, out_features=20, bias=True)
    (13): Linear(in_features=1000, out_features=20, bias=True)
    (14): Linear(in_features=1000, out_features=20, bias=True)
    (15): Linear(in_features=1000, out_features=20, bias=True)
    (16): Linear(in_features=1000, out_features=20, bias=True)
    (17): Linear(in_features=1000, out_features=20, bias=True)
    (18): Linear(in_features=1000, out_features=20, bias=True)
    (19): Linear(in_features=1000, out_features=20, bias=True)
    (20): Linear(in_features=1000, out_features=20, bias=True)
    (21): Linear(in_features=1000, out_features=20, bias=True)
    (22): Linear(in_features=1000, out_features=20, bias=True)
    (23): Linear(in_features=1000, out_features=20, bias=True)
    (24): Linear(in_features=1000, out_features=20, bias=True)
    (25): Linear(in_features=1000, out_features=20, bias=True)
    (26): Linear(in_features=1000, out_features=20, bias=True)
    (27): Linear(in_features=1000, out_features=20, bias=True)
    (28): Linear(in_features=1000, out_features=20, bias=True)
  )
)
======

************************************************************************************************************
Task 29
************************************************************************************************************
| Epoch   1, time= 19.6s | Train: skip eval | Valid: time=  0.3s loss=98.574, TAw acc= 48.7% | *
| Epoch   2, time= 19.2s | Train: skip eval | Valid: time=  0.3s loss=93.201, TAw acc= 56.4% | *
…
>>> Test on task 24 : loss=90.815 | TAw acc= 92.1%, forg=  0.0%| TAg acc= 63.2%, forg=  0.9% <<<
>>> Test on task 25 : loss=90.592 | TAw acc= 88.3%, forg=  0.0%| TAg acc= 57.7%, forg=  0.9% <<<
>>> Test on task 26 : loss=85.735 | TAw acc= 97.1%, forg=  0.0%| TAg acc= 56.7%, forg=  1.0% <<<
>>> Test on task 27 : loss=95.470 | TAw acc= 98.0%, forg=  0.0%| TAg acc= 72.5%, forg=  0.0% <<<
>>> Test on task 28 : loss=88.128 | TAw acc= 85.8%, forg=  0.0%| TAg acc= 48.7%, forg=  0.0% <<<
>>> Test on task 29 : loss=92.121 | TAw acc= 91.6%, forg=  0.0%| TAg acc= 51.4%, forg=  0.0% <<<
Save at icarl_wisdm_1/wisdm_flex_icarl
======
LLL_Net(
  (model): SimpleMLP(
    (fc1): Linear(in_features=91, out_features=1000, bias=True)
    (fc2): Sequential()
  )
  (heads): ModuleList(
    (0): Linear(in_features=1000, out_features=34, bias=True)
    (1): Linear(in_features=1000, out_features=20, bias=True)
    (2): Linear(in_features=1000, out_features=20, bias=True)
    (3): Linear(in_features=1000, out_features=20, bias=True)
    (4): Linear(in_features=1000, out_features=20, bias=True)
    (5): Linear(in_features=1000, out_features=20, bias=True)
    (6): Linear(in_features=1000, out_features=20, bias=True)
    (7): Linear(in_features=1000, out_features=20, bias=True)
    (8): Linear(in_features=1000, out_features=20, bias=True)
    (9): Linear(in_features=1000, out_features=20, bias=True)
    (10): Linear(in_features=1000, out_features=20, bias=True)
    (11): Linear(in_features=1000, out_features=20, bias=True)
    (12): Linear(in_features=1000, out_features=20, bias=True)
    (13): Linear(in_features=1000, out_features=20, bias=True)
    (14): Linear(in_features=1000, out_features=20, bias=True)
    (15): Linear(in_features=1000, out_features=20, bias=True)
    (16): Linear(in_features=1000, out_features=20, bias=True)
    (17): Linear(in_features=1000, out_features=20, bias=True)
    (18): Linear(in_features=1000, out_features=20, bias=True)
    (19): Linear(in_features=1000, out_features=20, bias=True)
    (20): Linear(in_features=1000, out_features=20, bias=True)
    (21): Linear(in_features=1000, out_features=20, bias=True)
    (22): Linear(in_features=1000, out_features=20, bias=True)
    (23): Linear(in_features=1000, out_features=20, bias=True)
    (24): Linear(in_features=1000, out_features=20, bias=True)
    (25): Linear(in_features=1000, out_features=20, bias=True)
    (26): Linear(in_features=1000, out_features=20, bias=True)
    (27): Linear(in_features=1000, out_features=20, bias=True)
    (28): Linear(in_features=1000, out_features=20, bias=True)
    (29): Linear(in_features=1000, out_features=20, bias=True)
  )
)
======

************************************************************************************************************
Task 30
************************************************************************************************************
| Epoch   1, time= 19.7s | Train: skip eval | Valid: time=  0.3s loss=108.947, TAw acc= 33.3% | *
| Epoch   2, time= 19.4s | Train: skip eval | Valid: time=  0.3s loss=102.975, TAw acc= 50.0% | *
…
>>> Test on task 25 : loss=90.508 | TAw acc= 88.3%, forg=  0.0%| TAg acc= 55.9%, forg=  2.7% <<<
>>> Test on task 26 : loss=85.593 | TAw acc= 97.1%, forg=  0.0%| TAg acc= 56.7%, forg=  1.0% <<<
>>> Test on task 27 : loss=95.251 | TAw acc= 98.0%, forg=  0.0%| TAg acc= 72.5%, forg=  0.0% <<<
>>> Test on task 28 : loss=88.043 | TAw acc= 85.8%, forg=  0.0%| TAg acc= 48.7%, forg=  0.0% <<<
>>> Test on task 29 : loss=92.279 | TAw acc= 91.6%, forg=  0.0%| TAg acc= 50.5%, forg=  0.9% <<<
>>> Test on task 30 : loss=97.827 | TAw acc= 91.2%, forg=  0.0%| TAg acc= 67.3%, forg=  0.0% <<<
Save at icarl_wisdm_1/wisdm_flex_icarl
======
LLL_Net(
  (model): SimpleMLP(
    (fc1): Linear(in_features=91, out_features=1000, bias=True)
    (fc2): Sequential()
  )
  (heads): ModuleList(
    (0): Linear(in_features=1000, out_features=34, bias=True)
    (1): Linear(in_features=1000, out_features=20, bias=True)
    (2): Linear(in_features=1000, out_features=20, bias=True)
    (3): Linear(in_features=1000, out_features=20, bias=True)
    (4): Linear(in_features=1000, out_features=20, bias=True)
    (5): Linear(in_features=1000, out_features=20, bias=True)
    (6): Linear(in_features=1000, out_features=20, bias=True)
    (7): Linear(in_features=1000, out_features=20, bias=True)
    (8): Linear(in_features=1000, out_features=20, bias=True)
    (9): Linear(in_features=1000, out_features=20, bias=True)
    (10): Linear(in_features=1000, out_features=20, bias=True)
    (11): Linear(in_features=1000, out_features=20, bias=True)
    (12): Linear(in_features=1000, out_features=20, bias=True)
    (13): Linear(in_features=1000, out_features=20, bias=True)
    (14): Linear(in_features=1000, out_features=20, bias=True)
    (15): Linear(in_features=1000, out_features=20, bias=True)
    (16): Linear(in_features=1000, out_features=20, bias=True)
    (17): Linear(in_features=1000, out_features=20, bias=True)
    (18): Linear(in_features=1000, out_features=20, bias=True)
    (19): Linear(in_features=1000, out_features=20, bias=True)
    (20): Linear(in_features=1000, out_features=20, bias=True)
    (21): Linear(in_features=1000, out_features=20, bias=True)
    (22): Linear(in_features=1000, out_features=20, bias=True)
    (23): Linear(in_features=1000, out_features=20, bias=True)
    (24): Linear(in_features=1000, out_features=20, bias=True)
    (25): Linear(in_features=1000, out_features=20, bias=True)
    (26): Linear(in_features=1000, out_features=20, bias=True)
    (27): Linear(in_features=1000, out_features=20, bias=True)
    (28): Linear(in_features=1000, out_features=20, bias=True)
    (29): Linear(in_features=1000, out_features=20, bias=True)
    (30): Linear(in_features=1000, out_features=20, bias=True)
  )
)
======

************************************************************************************************************
Task 31
************************************************************************************************************
| Epoch   1, time= 21.4s | Train: skip eval | Valid: time=  0.3s loss=104.705, TAw acc= 35.6% | *
| Epoch   2, time= 21.7s | Train: skip eval | Valid: time=  0.3s loss=98.720, TAw acc= 60.9% | *
…
>>> Test on task 26 : loss=85.408 | TAw acc= 97.1%, forg=  0.0%| TAg acc= 56.7%, forg=  1.0% <<<
>>> Test on task 27 : loss=95.072 | TAw acc= 98.0%, forg=  0.0%| TAg acc= 70.6%, forg=  2.0% <<<
>>> Test on task 28 : loss=87.952 | TAw acc= 85.8%, forg=  0.0%| TAg acc= 48.7%, forg=  0.0% <<<
>>> Test on task 29 : loss=92.247 | TAw acc= 91.6%, forg=  0.0%| TAg acc= 49.5%, forg=  1.9% <<<
>>> Test on task 30 : loss=97.931 | TAw acc= 91.2%, forg=  0.0%| TAg acc= 67.3%, forg=  0.0% <<<
>>> Test on task 31 : loss=90.474 | TAw acc= 87.8%, forg=  0.0%| TAg acc= 65.2%, forg=  0.0% <<<
Save at icarl_wisdm_1/wisdm_flex_icarl
======
LLL_Net(
  (model): SimpleMLP(
    (fc1): Linear(in_features=91, out_features=1000, bias=True)
    (fc2): Sequential()
  )
  (heads): ModuleList(
    (0): Linear(in_features=1000, out_features=34, bias=True)
    (1): Linear(in_features=1000, out_features=20, bias=True)
    (2): Linear(in_features=1000, out_features=20, bias=True)
    (3): Linear(in_features=1000, out_features=20, bias=True)
    (4): Linear(in_features=1000, out_features=20, bias=True)
    (5): Linear(in_features=1000, out_features=20, bias=True)
    (6): Linear(in_features=1000, out_features=20, bias=True)
    (7): Linear(in_features=1000, out_features=20, bias=True)
    (8): Linear(in_features=1000, out_features=20, bias=True)
    (9): Linear(in_features=1000, out_features=20, bias=True)
    (10): Linear(in_features=1000, out_features=20, bias=True)
    (11): Linear(in_features=1000, out_features=20, bias=True)
    (12): Linear(in_features=1000, out_features=20, bias=True)
    (13): Linear(in_features=1000, out_features=20, bias=True)
    (14): Linear(in_features=1000, out_features=20, bias=True)
    (15): Linear(in_features=1000, out_features=20, bias=True)
    (16): Linear(in_features=1000, out_features=20, bias=True)
    (17): Linear(in_features=1000, out_features=20, bias=True)
    (18): Linear(in_features=1000, out_features=20, bias=True)
    (19): Linear(in_features=1000, out_features=20, bias=True)
    (20): Linear(in_features=1000, out_features=20, bias=True)
    (21): Linear(in_features=1000, out_features=20, bias=True)
    (22): Linear(in_features=1000, out_features=20, bias=True)
    (23): Linear(in_features=1000, out_features=20, bias=True)
    (24): Linear(in_features=1000, out_features=20, bias=True)
    (25): Linear(in_features=1000, out_features=20, bias=True)
    (26): Linear(in_features=1000, out_features=20, bias=True)
    (27): Linear(in_features=1000, out_features=20, bias=True)
    (28): Linear(in_features=1000, out_features=20, bias=True)
    (29): Linear(in_features=1000, out_features=20, bias=True)
    (30): Linear(in_features=1000, out_features=20, bias=True)
    (31): Linear(in_features=1000, out_features=20, bias=True)
  )
)
======

************************************************************************************************************
Task 32
************************************************************************************************************
| Epoch   1, time= 21.9s | Train: skip eval | Valid: time=  0.3s loss=104.154, TAw acc= 41.3% | *
| Epoch   2, time= 22.1s | Train: skip eval | Valid: time=  0.3s loss=98.924, TAw acc= 53.3% | *
…
>>> Test on task 27 : loss=94.947 | TAw acc= 98.0%, forg=  0.0%| TAg acc= 70.6%, forg=  2.0% <<<
>>> Test on task 28 : loss=87.859 | TAw acc= 85.8%, forg=  0.0%| TAg acc= 48.7%, forg=  0.0% <<<
>>> Test on task 29 : loss=92.143 | TAw acc= 91.6%, forg=  0.0%| TAg acc= 49.5%, forg=  1.9% <<<
>>> Test on task 30 : loss=97.803 | TAw acc= 91.2%, forg=  0.0%| TAg acc= 67.3%, forg=  0.0% <<<
>>> Test on task 31 : loss=90.553 | TAw acc= 87.8%, forg=  0.0%| TAg acc= 65.2%, forg=  0.0% <<<
>>> Test on task 32 : loss=93.136 | TAw acc= 94.2%, forg=  0.0%| TAg acc= 69.9%, forg=  0.0% <<<
Save at icarl_wisdm_1/wisdm_flex_icarl
======
LLL_Net(
  (model): SimpleMLP(
    (fc1): Linear(in_features=91, out_features=1000, bias=True)
    (fc2): Sequential()
  )
  (heads): ModuleList(
    (0): Linear(in_features=1000, out_features=34, bias=True)
    (1): Linear(in_features=1000, out_features=20, bias=True)
    (2): Linear(in_features=1000, out_features=20, bias=True)
    (3): Linear(in_features=1000, out_features=20, bias=True)
    (4): Linear(in_features=1000, out_features=20, bias=True)
    (5): Linear(in_features=1000, out_features=20, bias=True)
    (6): Linear(in_features=1000, out_features=20, bias=True)
    (7): Linear(in_features=1000, out_features=20, bias=True)
    (8): Linear(in_features=1000, out_features=20, bias=True)
    (9): Linear(in_features=1000, out_features=20, bias=True)
    (10): Linear(in_features=1000, out_features=20, bias=True)
    (11): Linear(in_features=1000, out_features=20, bias=True)
    (12): Linear(in_features=1000, out_features=20, bias=True)
    (13): Linear(in_features=1000, out_features=20, bias=True)
    (14): Linear(in_features=1000, out_features=20, bias=True)
    (15): Linear(in_features=1000, out_features=20, bias=True)
    (16): Linear(in_features=1000, out_features=20, bias=True)
    (17): Linear(in_features=1000, out_features=20, bias=True)
    (18): Linear(in_features=1000, out_features=20, bias=True)
    (19): Linear(in_features=1000, out_features=20, bias=True)
    (20): Linear(in_features=1000, out_features=20, bias=True)
    (21): Linear(in_features=1000, out_features=20, bias=True)
    (22): Linear(in_features=1000, out_features=20, bias=True)
    (23): Linear(in_features=1000, out_features=20, bias=True)
    (24): Linear(in_features=1000, out_features=20, bias=True)
    (25): Linear(in_features=1000, out_features=20, bias=True)
    (26): Linear(in_features=1000, out_features=20, bias=True)
    (27): Linear(in_features=1000, out_features=20, bias=True)
    (28): Linear(in_features=1000, out_features=20, bias=True)
    (29): Linear(in_features=1000, out_features=20, bias=True)
    (30): Linear(in_features=1000, out_features=20, bias=True)
    (31): Linear(in_features=1000, out_features=20, bias=True)
    (32): Linear(in_features=1000, out_features=20, bias=True)
  )
)
======

************************************************************************************************************
Task 33
************************************************************************************************************
| Epoch   1, time= 23.2s | Train: skip eval | Valid: time=  0.3s loss=113.524, TAw acc= 22.4% | *
| Epoch   2, time= 23.7s | Train: skip eval | Valid: time=  0.3s loss=107.995, TAw acc= 32.8% | *
…
>>> Test on task 28 : loss=87.758 | TAw acc= 85.8%, forg=  0.0%| TAg acc= 48.7%, forg=  0.0% <<<
>>> Test on task 29 : loss=92.132 | TAw acc= 91.6%, forg=  0.0%| TAg acc= 49.5%, forg=  1.9% <<<
>>> Test on task 30 : loss=97.731 | TAw acc= 91.2%, forg=  0.0%| TAg acc= 67.3%, forg=  0.0% <<<
>>> Test on task 31 : loss=90.455 | TAw acc= 87.8%, forg=  0.0%| TAg acc= 65.2%, forg=  0.0% <<<
>>> Test on task 32 : loss=93.230 | TAw acc= 94.2%, forg=  0.0%| TAg acc= 69.9%, forg=  0.0% <<<
>>> Test on task 33 : loss=95.063 | TAw acc= 98.9%, forg=  0.0%| TAg acc= 68.8%, forg=  0.0% <<<
Save at icarl_wisdm_1/wisdm_flex_icarl
======
LLL_Net(
  (model): SimpleMLP(
    (fc1): Linear(in_features=91, out_features=1000, bias=True)
    (fc2): Sequential()
  )
  (heads): ModuleList(
    (0): Linear(in_features=1000, out_features=34, bias=True)
    (1): Linear(in_features=1000, out_features=20, bias=True)
    (2): Linear(in_features=1000, out_features=20, bias=True)
    (3): Linear(in_features=1000, out_features=20, bias=True)
    (4): Linear(in_features=1000, out_features=20, bias=True)
    (5): Linear(in_features=1000, out_features=20, bias=True)
    (6): Linear(in_features=1000, out_features=20, bias=True)
    (7): Linear(in_features=1000, out_features=20, bias=True)
    (8): Linear(in_features=1000, out_features=20, bias=True)
    (9): Linear(in_features=1000, out_features=20, bias=True)
    (10): Linear(in_features=1000, out_features=20, bias=True)
    (11): Linear(in_features=1000, out_features=20, bias=True)
    (12): Linear(in_features=1000, out_features=20, bias=True)
    (13): Linear(in_features=1000, out_features=20, bias=True)
    (14): Linear(in_features=1000, out_features=20, bias=True)
    (15): Linear(in_features=1000, out_features=20, bias=True)
    (16): Linear(in_features=1000, out_features=20, bias=True)
    (17): Linear(in_features=1000, out_features=20, bias=True)
    (18): Linear(in_features=1000, out_features=20, bias=True)
    (19): Linear(in_features=1000, out_features=20, bias=True)
    (20): Linear(in_features=1000, out_features=20, bias=True)
    (21): Linear(in_features=1000, out_features=20, bias=True)
    (22): Linear(in_features=1000, out_features=20, bias=True)
    (23): Linear(in_features=1000, out_features=20, bias=True)
    (24): Linear(in_features=1000, out_features=20, bias=True)
    (25): Linear(in_features=1000, out_features=20, bias=True)
    (26): Linear(in_features=1000, out_features=20, bias=True)
    (27): Linear(in_features=1000, out_features=20, bias=True)
    (28): Linear(in_features=1000, out_features=20, bias=True)
    (29): Linear(in_features=1000, out_features=20, bias=True)
    (30): Linear(in_features=1000, out_features=20, bias=True)
    (31): Linear(in_features=1000, out_features=20, bias=True)
    (32): Linear(in_features=1000, out_features=20, bias=True)
    (33): Linear(in_features=1000, out_features=20, bias=True)
  )
)
======

************************************************************************************************************
Task 34
************************************************************************************************************
| Epoch   1, time= 24.1s | Train: skip eval | Valid: time=  0.3s loss=112.354, TAw acc= 36.1% | *
| Epoch   2, time= 23.9s | Train: skip eval | Valid: time=  0.3s loss=106.582, TAw acc= 43.1% | *
…
>>> Test on task 29 : loss=92.018 | TAw acc= 91.6%, forg=  0.0%| TAg acc= 49.5%, forg=  1.9% <<<
>>> Test on task 30 : loss=97.645 | TAw acc= 91.2%, forg=  0.0%| TAg acc= 67.3%, forg=  0.0% <<<
>>> Test on task 31 : loss=90.341 | TAw acc= 87.8%, forg=  0.0%| TAg acc= 65.2%, forg=  0.0% <<<
>>> Test on task 32 : loss=93.132 | TAw acc= 94.2%, forg=  0.0%| TAg acc= 68.9%, forg=  1.0% <<<
>>> Test on task 33 : loss=95.306 | TAw acc= 98.9%, forg=  0.0%| TAg acc= 68.8%, forg=  0.0% <<<
>>> Test on task 34 : loss=99.769 | TAw acc= 93.9%, forg=  0.0%| TAg acc= 47.5%, forg=  0.0% <<<
Save at icarl_wisdm_1/wisdm_flex_icarl
======
LLL_Net(
  (model): SimpleMLP(
    (fc1): Linear(in_features=91, out_features=1000, bias=True)
    (fc2): Sequential()
  )
  (heads): ModuleList(
    (0): Linear(in_features=1000, out_features=34, bias=True)
    (1): Linear(in_features=1000, out_features=20, bias=True)
    (2): Linear(in_features=1000, out_features=20, bias=True)
    (3): Linear(in_features=1000, out_features=20, bias=True)
    (4): Linear(in_features=1000, out_features=20, bias=True)
    (5): Linear(in_features=1000, out_features=20, bias=True)
    (6): Linear(in_features=1000, out_features=20, bias=True)
    (7): Linear(in_features=1000, out_features=20, bias=True)
    (8): Linear(in_features=1000, out_features=20, bias=True)
    (9): Linear(in_features=1000, out_features=20, bias=True)
    (10): Linear(in_features=1000, out_features=20, bias=True)
    (11): Linear(in_features=1000, out_features=20, bias=True)
    (12): Linear(in_features=1000, out_features=20, bias=True)
    (13): Linear(in_features=1000, out_features=20, bias=True)
    (14): Linear(in_features=1000, out_features=20, bias=True)
    (15): Linear(in_features=1000, out_features=20, bias=True)
    (16): Linear(in_features=1000, out_features=20, bias=True)
    (17): Linear(in_features=1000, out_features=20, bias=True)
    (18): Linear(in_features=1000, out_features=20, bias=True)
    (19): Linear(in_features=1000, out_features=20, bias=True)
    (20): Linear(in_features=1000, out_features=20, bias=True)
    (21): Linear(in_features=1000, out_features=20, bias=True)
    (22): Linear(in_features=1000, out_features=20, bias=True)
    (23): Linear(in_features=1000, out_features=20, bias=True)
    (24): Linear(in_features=1000, out_features=20, bias=True)
    (25): Linear(in_features=1000, out_features=20, bias=True)
    (26): Linear(in_features=1000, out_features=20, bias=True)
    (27): Linear(in_features=1000, out_features=20, bias=True)
    (28): Linear(in_features=1000, out_features=20, bias=True)
    (29): Linear(in_features=1000, out_features=20, bias=True)
    (30): Linear(in_features=1000, out_features=20, bias=True)
    (31): Linear(in_features=1000, out_features=20, bias=True)
    (32): Linear(in_features=1000, out_features=20, bias=True)
    (33): Linear(in_features=1000, out_features=20, bias=True)
    (34): Linear(in_features=1000, out_features=20, bias=True)
  )
)
======

************************************************************************************************************
Task 35
************************************************************************************************************
| Epoch   1, time= 26.6s | Train: skip eval | Valid: time=  0.3s loss=113.860, TAw acc= 43.2% | *
| Epoch   2, time= 26.6s | Train: skip eval | Valid: time=  0.3s loss=108.793, TAw acc= 51.9% | *
…
>>> Test on task 30 : loss=97.544 | TAw acc= 91.2%, forg=  0.0%| TAg acc= 67.3%, forg=  0.0% <<<
>>> Test on task 31 : loss=90.260 | TAw acc= 87.8%, forg=  0.0%| TAg acc= 65.2%, forg=  0.0% <<<
>>> Test on task 32 : loss=93.042 | TAw acc= 94.2%, forg=  0.0%| TAg acc= 68.0%, forg=  1.9% <<<
>>> Test on task 33 : loss=95.177 | TAw acc= 98.9%, forg=  0.0%| TAg acc= 68.8%, forg=  0.0% <<<
>>> Test on task 34 : loss=100.139 | TAw acc= 93.9%, forg=  0.0%| TAg acc= 47.5%, forg=  0.0% <<<
>>> Test on task 35 : loss=100.859 | TAw acc= 97.3%, forg=  0.0%| TAg acc= 59.1%, forg=  0.0% <<<
Save at icarl_wisdm_1/wisdm_flex_icarl
======
LLL_Net(
  (model): SimpleMLP(
    (fc1): Linear(in_features=91, out_features=1000, bias=True)
    (fc2): Sequential()
  )
  (heads): ModuleList(
    (0): Linear(in_features=1000, out_features=34, bias=True)
    (1): Linear(in_features=1000, out_features=20, bias=True)
    (2): Linear(in_features=1000, out_features=20, bias=True)
    (3): Linear(in_features=1000, out_features=20, bias=True)
    (4): Linear(in_features=1000, out_features=20, bias=True)
    (5): Linear(in_features=1000, out_features=20, bias=True)
    (6): Linear(in_features=1000, out_features=20, bias=True)
    (7): Linear(in_features=1000, out_features=20, bias=True)
    (8): Linear(in_features=1000, out_features=20, bias=True)
    (9): Linear(in_features=1000, out_features=20, bias=True)
    (10): Linear(in_features=1000, out_features=20, bias=True)
    (11): Linear(in_features=1000, out_features=20, bias=True)
    (12): Linear(in_features=1000, out_features=20, bias=True)
    (13): Linear(in_features=1000, out_features=20, bias=True)
    (14): Linear(in_features=1000, out_features=20, bias=True)
    (15): Linear(in_features=1000, out_features=20, bias=True)
    (16): Linear(in_features=1000, out_features=20, bias=True)
    (17): Linear(in_features=1000, out_features=20, bias=True)
    (18): Linear(in_features=1000, out_features=20, bias=True)
    (19): Linear(in_features=1000, out_features=20, bias=True)
    (20): Linear(in_features=1000, out_features=20, bias=True)
    (21): Linear(in_features=1000, out_features=20, bias=True)
    (22): Linear(in_features=1000, out_features=20, bias=True)
    (23): Linear(in_features=1000, out_features=20, bias=True)
    (24): Linear(in_features=1000, out_features=20, bias=True)
    (25): Linear(in_features=1000, out_features=20, bias=True)
    (26): Linear(in_features=1000, out_features=20, bias=True)
    (27): Linear(in_features=1000, out_features=20, bias=True)
    (28): Linear(in_features=1000, out_features=20, bias=True)
    (29): Linear(in_features=1000, out_features=20, bias=True)
    (30): Linear(in_features=1000, out_features=20, bias=True)
    (31): Linear(in_features=1000, out_features=20, bias=True)
    (32): Linear(in_features=1000, out_features=20, bias=True)
    (33): Linear(in_features=1000, out_features=20, bias=True)
    (34): Linear(in_features=1000, out_features=20, bias=True)
    (35): Linear(in_features=1000, out_features=20, bias=True)
  )
)
======

************************************************************************************************************
Task 36
************************************************************************************************************
| Epoch   1, time= 26.6s | Train: skip eval | Valid: time=  0.3s loss=116.199, TAw acc= 34.8% | *
| Epoch   2, time= 26.5s | Train: skip eval | Valid: time=  0.3s loss=111.401, TAw acc= 50.7% | *
…
>>> Test on task 31 : loss=90.252 | TAw acc= 87.8%, forg=  0.0%| TAg acc= 65.2%, forg=  0.0% <<<
>>> Test on task 32 : loss=92.949 | TAw acc= 94.2%, forg=  0.0%| TAg acc= 68.0%, forg=  1.9% <<<
>>> Test on task 33 : loss=95.173 | TAw acc= 98.9%, forg=  0.0%| TAg acc= 67.7%, forg=  1.1% <<<
>>> Test on task 34 : loss=100.035 | TAw acc= 93.9%, forg=  0.0%| TAg acc= 46.5%, forg=  1.0% <<<
>>> Test on task 35 : loss=101.012 | TAw acc= 97.3%, forg=  0.0%| TAg acc= 59.1%, forg=  0.0% <<<
>>> Test on task 36 : loss=103.081 | TAw acc= 99.0%, forg=  0.0%| TAg acc= 63.9%, forg=  0.0% <<<
Save at icarl_wisdm_1/wisdm_flex_icarl
======
LLL_Net(
  (model): SimpleMLP(
    (fc1): Linear(in_features=91, out_features=1000, bias=True)
    (fc2): Sequential()
  )
  (heads): ModuleList(
    (0): Linear(in_features=1000, out_features=34, bias=True)
    (1): Linear(in_features=1000, out_features=20, bias=True)
    (2): Linear(in_features=1000, out_features=20, bias=True)
    (3): Linear(in_features=1000, out_features=20, bias=True)
    (4): Linear(in_features=1000, out_features=20, bias=True)
    (5): Linear(in_features=1000, out_features=20, bias=True)
    (6): Linear(in_features=1000, out_features=20, bias=True)
    (7): Linear(in_features=1000, out_features=20, bias=True)
    (8): Linear(in_features=1000, out_features=20, bias=True)
    (9): Linear(in_features=1000, out_features=20, bias=True)
    (10): Linear(in_features=1000, out_features=20, bias=True)
    (11): Linear(in_features=1000, out_features=20, bias=True)
    (12): Linear(in_features=1000, out_features=20, bias=True)
    (13): Linear(in_features=1000, out_features=20, bias=True)
    (14): Linear(in_features=1000, out_features=20, bias=True)
    (15): Linear(in_features=1000, out_features=20, bias=True)
    (16): Linear(in_features=1000, out_features=20, bias=True)
    (17): Linear(in_features=1000, out_features=20, bias=True)
    (18): Linear(in_features=1000, out_features=20, bias=True)
    (19): Linear(in_features=1000, out_features=20, bias=True)
    (20): Linear(in_features=1000, out_features=20, bias=True)
    (21): Linear(in_features=1000, out_features=20, bias=True)
    (22): Linear(in_features=1000, out_features=20, bias=True)
    (23): Linear(in_features=1000, out_features=20, bias=True)
    (24): Linear(in_features=1000, out_features=20, bias=True)
    (25): Linear(in_features=1000, out_features=20, bias=True)
    (26): Linear(in_features=1000, out_features=20, bias=True)
    (27): Linear(in_features=1000, out_features=20, bias=True)
    (28): Linear(in_features=1000, out_features=20, bias=True)
    (29): Linear(in_features=1000, out_features=20, bias=True)
    (30): Linear(in_features=1000, out_features=20, bias=True)
    (31): Linear(in_features=1000, out_features=20, bias=True)
    (32): Linear(in_features=1000, out_features=20, bias=True)
    (33): Linear(in_features=1000, out_features=20, bias=True)
    (34): Linear(in_features=1000, out_features=20, bias=True)
    (35): Linear(in_features=1000, out_features=20, bias=True)
    (36): Linear(in_features=1000, out_features=20, bias=True)
  )
)
======

************************************************************************************************************
Task 37
************************************************************************************************************
| Epoch   1, time= 29.2s | Train: skip eval | Valid: time=  0.3s loss=107.964, TAw acc= 35.5% | *
| Epoch   2, time= 28.9s | Train: skip eval | Valid: time=  0.3s loss=101.912, TAw acc= 44.7% | *
…
>>> Test on task 32 : loss=92.951 | TAw acc= 94.2%, forg=  0.0%| TAg acc= 67.0%, forg=  2.9% <<<
>>> Test on task 33 : loss=95.094 | TAw acc= 98.9%, forg=  0.0%| TAg acc= 67.7%, forg=  1.1% <<<
>>> Test on task 34 : loss=99.948 | TAw acc= 93.9%, forg=  0.0%| TAg acc= 46.5%, forg=  1.0% <<<
>>> Test on task 35 : loss=100.972 | TAw acc= 97.3%, forg=  0.0%| TAg acc= 59.1%, forg=  0.0% <<<
>>> Test on task 36 : loss=103.387 | TAw acc= 99.0%, forg=  0.0%| TAg acc= 61.9%, forg=  2.1% <<<
>>> Test on task 37 : loss=97.537 | TAw acc= 93.2%, forg=  0.0%| TAg acc= 54.4%, forg=  0.0% <<<
Save at icarl_wisdm_1/wisdm_flex_icarl
======
LLL_Net(
  (model): SimpleMLP(
    (fc1): Linear(in_features=91, out_features=1000, bias=True)
    (fc2): Sequential()
  )
  (heads): ModuleList(
    (0): Linear(in_features=1000, out_features=34, bias=True)
    (1): Linear(in_features=1000, out_features=20, bias=True)
    (2): Linear(in_features=1000, out_features=20, bias=True)
    (3): Linear(in_features=1000, out_features=20, bias=True)
    (4): Linear(in_features=1000, out_features=20, bias=True)
    (5): Linear(in_features=1000, out_features=20, bias=True)
    (6): Linear(in_features=1000, out_features=20, bias=True)
    (7): Linear(in_features=1000, out_features=20, bias=True)
    (8): Linear(in_features=1000, out_features=20, bias=True)
    (9): Linear(in_features=1000, out_features=20, bias=True)
    (10): Linear(in_features=1000, out_features=20, bias=True)
    (11): Linear(in_features=1000, out_features=20, bias=True)
    (12): Linear(in_features=1000, out_features=20, bias=True)
    (13): Linear(in_features=1000, out_features=20, bias=True)
    (14): Linear(in_features=1000, out_features=20, bias=True)
    (15): Linear(in_features=1000, out_features=20, bias=True)
    (16): Linear(in_features=1000, out_features=20, bias=True)
    (17): Linear(in_features=1000, out_features=20, bias=True)
    (18): Linear(in_features=1000, out_features=20, bias=True)
    (19): Linear(in_features=1000, out_features=20, bias=True)
    (20): Linear(in_features=1000, out_features=20, bias=True)
    (21): Linear(in_features=1000, out_features=20, bias=True)
    (22): Linear(in_features=1000, out_features=20, bias=True)
    (23): Linear(in_features=1000, out_features=20, bias=True)
    (24): Linear(in_features=1000, out_features=20, bias=True)
    (25): Linear(in_features=1000, out_features=20, bias=True)
    (26): Linear(in_features=1000, out_features=20, bias=True)
    (27): Linear(in_features=1000, out_features=20, bias=True)
    (28): Linear(in_features=1000, out_features=20, bias=True)
    (29): Linear(in_features=1000, out_features=20, bias=True)
    (30): Linear(in_features=1000, out_features=20, bias=True)
    (31): Linear(in_features=1000, out_features=20, bias=True)
    (32): Linear(in_features=1000, out_features=20, bias=True)
    (33): Linear(in_features=1000, out_features=20, bias=True)
    (34): Linear(in_features=1000, out_features=20, bias=True)
    (35): Linear(in_features=1000, out_features=20, bias=True)
    (36): Linear(in_features=1000, out_features=20, bias=True)
    (37): Linear(in_features=1000, out_features=20, bias=True)
  )
)
======

************************************************************************************************************
Task 38
************************************************************************************************************
| Epoch   1, time= 30.8s | Train: skip eval | Valid: time=  0.3s loss=112.935, TAw acc= 42.9% | *
| Epoch   2, time= 30.8s | Train: skip eval | Valid: time=  0.3s loss=106.582, TAw acc= 68.1% | *
…
>>> Test on task 33 : loss=94.953 | TAw acc= 98.9%, forg=  0.0%| TAg acc= 66.7%, forg=  2.2% <<<
>>> Test on task 34 : loss=99.863 | TAw acc= 93.9%, forg=  0.0%| TAg acc= 46.5%, forg=  1.0% <<<
>>> Test on task 35 : loss=100.864 | TAw acc= 97.3%, forg=  0.0%| TAg acc= 59.1%, forg=  0.0% <<<
>>> Test on task 36 : loss=103.216 | TAw acc= 99.0%, forg=  0.0%| TAg acc= 60.8%, forg=  3.1% <<<
>>> Test on task 37 : loss=97.665 | TAw acc= 93.2%, forg=  0.0%| TAg acc= 54.4%, forg=  0.0% <<<
>>> Test on task 38 : loss=102.877 | TAw acc= 94.2%, forg=  0.0%| TAg acc= 66.1%, forg=  0.0% <<<
Save at icarl_wisdm_1/wisdm_flex_icarl
======
LLL_Net(
  (model): SimpleMLP(
    (fc1): Linear(in_features=91, out_features=1000, bias=True)
    (fc2): Sequential()
  )
  (heads): ModuleList(
    (0): Linear(in_features=1000, out_features=34, bias=True)
    (1): Linear(in_features=1000, out_features=20, bias=True)
    (2): Linear(in_features=1000, out_features=20, bias=True)
    (3): Linear(in_features=1000, out_features=20, bias=True)
    (4): Linear(in_features=1000, out_features=20, bias=True)
    (5): Linear(in_features=1000, out_features=20, bias=True)
    (6): Linear(in_features=1000, out_features=20, bias=True)
    (7): Linear(in_features=1000, out_features=20, bias=True)
    (8): Linear(in_features=1000, out_features=20, bias=True)
    (9): Linear(in_features=1000, out_features=20, bias=True)
    (10): Linear(in_features=1000, out_features=20, bias=True)
    (11): Linear(in_features=1000, out_features=20, bias=True)
    (12): Linear(in_features=1000, out_features=20, bias=True)
    (13): Linear(in_features=1000, out_features=20, bias=True)
    (14): Linear(in_features=1000, out_features=20, bias=True)
    (15): Linear(in_features=1000, out_features=20, bias=True)
    (16): Linear(in_features=1000, out_features=20, bias=True)
    (17): Linear(in_features=1000, out_features=20, bias=True)
    (18): Linear(in_features=1000, out_features=20, bias=True)
    (19): Linear(in_features=1000, out_features=20, bias=True)
    (20): Linear(in_features=1000, out_features=20, bias=True)
    (21): Linear(in_features=1000, out_features=20, bias=True)
    (22): Linear(in_features=1000, out_features=20, bias=True)
    (23): Linear(in_features=1000, out_features=20, bias=True)
    (24): Linear(in_features=1000, out_features=20, bias=True)
    (25): Linear(in_features=1000, out_features=20, bias=True)
    (26): Linear(in_features=1000, out_features=20, bias=True)
    (27): Linear(in_features=1000, out_features=20, bias=True)
    (28): Linear(in_features=1000, out_features=20, bias=True)
    (29): Linear(in_features=1000, out_features=20, bias=True)
    (30): Linear(in_features=1000, out_features=20, bias=True)
    (31): Linear(in_features=1000, out_features=20, bias=True)
    (32): Linear(in_features=1000, out_features=20, bias=True)
    (33): Linear(in_features=1000, out_features=20, bias=True)
    (34): Linear(in_features=1000, out_features=20, bias=True)
    (35): Linear(in_features=1000, out_features=20, bias=True)
    (36): Linear(in_features=1000, out_features=20, bias=True)
    (37): Linear(in_features=1000, out_features=20, bias=True)
    (38): Linear(in_features=1000, out_features=20, bias=True)
  )
)
======

************************************************************************************************************
Task 39
************************************************************************************************************
| Epoch   1, time= 31.4s | Train: skip eval | Valid: time=  0.3s loss=118.222, TAw acc= 34.8% | *
| Epoch   2, time= 31.5s | Train: skip eval | Valid: time=  0.3s loss=111.648, TAw acc= 60.6% | *
…
>>> Test on task 34 : loss=99.803 | TAw acc= 93.9%, forg=  0.0%| TAg acc= 46.5%, forg=  1.0% <<<
>>> Test on task 35 : loss=100.803 | TAw acc= 97.3%, forg=  0.0%| TAg acc= 59.1%, forg=  0.0% <<<
>>> Test on task 36 : loss=103.120 | TAw acc= 99.0%, forg=  0.0%| TAg acc= 58.8%, forg=  5.2% <<<
>>> Test on task 37 : loss=97.582 | TAw acc= 93.2%, forg=  0.0%| TAg acc= 53.4%, forg=  1.0% <<<
>>> Test on task 38 : loss=103.267 | TAw acc= 94.2%, forg=  0.0%| TAg acc= 66.1%, forg=  0.0% <<<
>>> Test on task 39 : loss=105.799 | TAw acc= 94.6%, forg=  0.0%| TAg acc= 68.5%, forg=  0.0% <<<
Save at icarl_wisdm_1/wisdm_flex_icarl
======
LLL_Net(
  (model): SimpleMLP(
    (fc1): Linear(in_features=91, out_features=1000, bias=True)
    (fc2): Sequential()
  )
  (heads): ModuleList(
    (0): Linear(in_features=1000, out_features=34, bias=True)
    (1): Linear(in_features=1000, out_features=20, bias=True)
    (2): Linear(in_features=1000, out_features=20, bias=True)
    (3): Linear(in_features=1000, out_features=20, bias=True)
    (4): Linear(in_features=1000, out_features=20, bias=True)
    (5): Linear(in_features=1000, out_features=20, bias=True)
    (6): Linear(in_features=1000, out_features=20, bias=True)
    (7): Linear(in_features=1000, out_features=20, bias=True)
    (8): Linear(in_features=1000, out_features=20, bias=True)
    (9): Linear(in_features=1000, out_features=20, bias=True)
    (10): Linear(in_features=1000, out_features=20, bias=True)
    (11): Linear(in_features=1000, out_features=20, bias=True)
    (12): Linear(in_features=1000, out_features=20, bias=True)
    (13): Linear(in_features=1000, out_features=20, bias=True)
    (14): Linear(in_features=1000, out_features=20, bias=True)
    (15): Linear(in_features=1000, out_features=20, bias=True)
    (16): Linear(in_features=1000, out_features=20, bias=True)
    (17): Linear(in_features=1000, out_features=20, bias=True)
    (18): Linear(in_features=1000, out_features=20, bias=True)
    (19): Linear(in_features=1000, out_features=20, bias=True)
    (20): Linear(in_features=1000, out_features=20, bias=True)
    (21): Linear(in_features=1000, out_features=20, bias=True)
    (22): Linear(in_features=1000, out_features=20, bias=True)
    (23): Linear(in_features=1000, out_features=20, bias=True)
    (24): Linear(in_features=1000, out_features=20, bias=True)
    (25): Linear(in_features=1000, out_features=20, bias=True)
    (26): Linear(in_features=1000, out_features=20, bias=True)
    (27): Linear(in_features=1000, out_features=20, bias=True)
    (28): Linear(in_features=1000, out_features=20, bias=True)
    (29): Linear(in_features=1000, out_features=20, bias=True)
    (30): Linear(in_features=1000, out_features=20, bias=True)
    (31): Linear(in_features=1000, out_features=20, bias=True)
    (32): Linear(in_features=1000, out_features=20, bias=True)
    (33): Linear(in_features=1000, out_features=20, bias=True)
    (34): Linear(in_features=1000, out_features=20, bias=True)
    (35): Linear(in_features=1000, out_features=20, bias=True)
    (36): Linear(in_features=1000, out_features=20, bias=True)
    (37): Linear(in_features=1000, out_features=20, bias=True)
    (38): Linear(in_features=1000, out_features=20, bias=True)
    (39): Linear(in_features=1000, out_features=20, bias=True)
  )
)
======

************************************************************************************************************
Task 40
************************************************************************************************************
| Epoch   1, time= 31.5s | Train: skip eval | Valid: time=  0.4s loss=109.997, TAw acc= 46.7% | *
| Epoch   2, time= 31.9s | Train: skip eval | Valid: time=  0.3s loss=103.837, TAw acc= 74.7% | *
…
>>> Test on task 35 : loss=100.682 | TAw acc= 97.3%, forg=  0.0%| TAg acc= 58.2%, forg=  0.9% <<<
>>> Test on task 36 : loss=102.954 | TAw acc= 99.0%, forg=  0.0%| TAg acc= 58.8%, forg=  5.2% <<<
>>> Test on task 37 : loss=97.466 | TAw acc= 93.2%, forg=  0.0%| TAg acc= 53.4%, forg=  1.0% <<<
>>> Test on task 38 : loss=103.160 | TAw acc= 94.2%, forg=  0.0%| TAg acc= 66.1%, forg=  0.0% <<<
>>> Test on task 39 : loss=105.897 | TAw acc= 94.6%, forg=  0.0%| TAg acc= 66.3%, forg=  2.2% <<<
>>> Test on task 40 : loss=97.916 | TAw acc= 96.1%, forg=  0.0%| TAg acc= 79.6%, forg=  0.0% <<<
Save at icarl_wisdm_1/wisdm_flex_icarl
======
LLL_Net(
  (model): SimpleMLP(
    (fc1): Linear(in_features=91, out_features=1000, bias=True)
    (fc2): Sequential()
  )
  (heads): ModuleList(
    (0): Linear(in_features=1000, out_features=34, bias=True)
    (1): Linear(in_features=1000, out_features=20, bias=True)
    (2): Linear(in_features=1000, out_features=20, bias=True)
    (3): Linear(in_features=1000, out_features=20, bias=True)
    (4): Linear(in_features=1000, out_features=20, bias=True)
    (5): Linear(in_features=1000, out_features=20, bias=True)
    (6): Linear(in_features=1000, out_features=20, bias=True)
    (7): Linear(in_features=1000, out_features=20, bias=True)
    (8): Linear(in_features=1000, out_features=20, bias=True)
    (9): Linear(in_features=1000, out_features=20, bias=True)
    (10): Linear(in_features=1000, out_features=20, bias=True)
    (11): Linear(in_features=1000, out_features=20, bias=True)
    (12): Linear(in_features=1000, out_features=20, bias=True)
    (13): Linear(in_features=1000, out_features=20, bias=True)
    (14): Linear(in_features=1000, out_features=20, bias=True)
    (15): Linear(in_features=1000, out_features=20, bias=True)
    (16): Linear(in_features=1000, out_features=20, bias=True)
    (17): Linear(in_features=1000, out_features=20, bias=True)
    (18): Linear(in_features=1000, out_features=20, bias=True)
    (19): Linear(in_features=1000, out_features=20, bias=True)
    (20): Linear(in_features=1000, out_features=20, bias=True)
    (21): Linear(in_features=1000, out_features=20, bias=True)
    (22): Linear(in_features=1000, out_features=20, bias=True)
    (23): Linear(in_features=1000, out_features=20, bias=True)
    (24): Linear(in_features=1000, out_features=20, bias=True)
    (25): Linear(in_features=1000, out_features=20, bias=True)
    (26): Linear(in_features=1000, out_features=20, bias=True)
    (27): Linear(in_features=1000, out_features=20, bias=True)
    (28): Linear(in_features=1000, out_features=20, bias=True)
    (29): Linear(in_features=1000, out_features=20, bias=True)
    (30): Linear(in_features=1000, out_features=20, bias=True)
    (31): Linear(in_features=1000, out_features=20, bias=True)
    (32): Linear(in_features=1000, out_features=20, bias=True)
    (33): Linear(in_features=1000, out_features=20, bias=True)
    (34): Linear(in_features=1000, out_features=20, bias=True)
    (35): Linear(in_features=1000, out_features=20, bias=True)
    (36): Linear(in_features=1000, out_features=20, bias=True)
    (37): Linear(in_features=1000, out_features=20, bias=True)
    (38): Linear(in_features=1000, out_features=20, bias=True)
    (39): Linear(in_features=1000, out_features=20, bias=True)
    (40): Linear(in_features=1000, out_features=20, bias=True)
  )
)
======

************************************************************************************************************
Task 41
************************************************************************************************************
| Epoch   1, time= 35.2s | Train: skip eval | Valid: time=  0.3s loss=108.477, TAw acc= 52.2% | *
| Epoch   2, time= 34.8s | Train: skip eval | Valid: time=  0.3s loss=103.586, TAw acc= 65.6% | *
…
>>> Test on task 36 : loss=102.911 | TAw acc= 99.0%, forg=  0.0%| TAg acc= 58.8%, forg=  5.2% <<<
>>> Test on task 37 : loss=97.414 | TAw acc= 93.2%, forg=  0.0%| TAg acc= 53.4%, forg=  1.0% <<<
>>> Test on task 38 : loss=103.157 | TAw acc= 94.2%, forg=  0.0%| TAg acc= 66.1%, forg=  0.0% <<<
>>> Test on task 39 : loss=105.775 | TAw acc= 94.6%, forg=  0.0%| TAg acc= 66.3%, forg=  2.2% <<<
>>> Test on task 40 : loss=98.062 | TAw acc= 96.1%, forg=  0.0%| TAg acc= 79.6%, forg=  0.0% <<<
>>> Test on task 41 : loss=99.484 | TAw acc= 87.6%, forg=  0.0%| TAg acc= 54.5%, forg=  0.0% <<<
Save at icarl_wisdm_1/wisdm_flex_icarl
======
LLL_Net(
  (model): SimpleMLP(
    (fc1): Linear(in_features=91, out_features=1000, bias=True)
    (fc2): Sequential()
  )
  (heads): ModuleList(
    (0): Linear(in_features=1000, out_features=34, bias=True)
    (1): Linear(in_features=1000, out_features=20, bias=True)
    (2): Linear(in_features=1000, out_features=20, bias=True)
    (3): Linear(in_features=1000, out_features=20, bias=True)
    (4): Linear(in_features=1000, out_features=20, bias=True)
    (5): Linear(in_features=1000, out_features=20, bias=True)
    (6): Linear(in_features=1000, out_features=20, bias=True)
    (7): Linear(in_features=1000, out_features=20, bias=True)
    (8): Linear(in_features=1000, out_features=20, bias=True)
    (9): Linear(in_features=1000, out_features=20, bias=True)
    (10): Linear(in_features=1000, out_features=20, bias=True)
    (11): Linear(in_features=1000, out_features=20, bias=True)
    (12): Linear(in_features=1000, out_features=20, bias=True)
    (13): Linear(in_features=1000, out_features=20, bias=True)
    (14): Linear(in_features=1000, out_features=20, bias=True)
    (15): Linear(in_features=1000, out_features=20, bias=True)
    (16): Linear(in_features=1000, out_features=20, bias=True)
    (17): Linear(in_features=1000, out_features=20, bias=True)
    (18): Linear(in_features=1000, out_features=20, bias=True)
    (19): Linear(in_features=1000, out_features=20, bias=True)
    (20): Linear(in_features=1000, out_features=20, bias=True)
    (21): Linear(in_features=1000, out_features=20, bias=True)
    (22): Linear(in_features=1000, out_features=20, bias=True)
    (23): Linear(in_features=1000, out_features=20, bias=True)
    (24): Linear(in_features=1000, out_features=20, bias=True)
    (25): Linear(in_features=1000, out_features=20, bias=True)
    (26): Linear(in_features=1000, out_features=20, bias=True)
    (27): Linear(in_features=1000, out_features=20, bias=True)
    (28): Linear(in_features=1000, out_features=20, bias=True)
    (29): Linear(in_features=1000, out_features=20, bias=True)
    (30): Linear(in_features=1000, out_features=20, bias=True)
    (31): Linear(in_features=1000, out_features=20, bias=True)
    (32): Linear(in_features=1000, out_features=20, bias=True)
    (33): Linear(in_features=1000, out_features=20, bias=True)
    (34): Linear(in_features=1000, out_features=20, bias=True)
    (35): Linear(in_features=1000, out_features=20, bias=True)
    (36): Linear(in_features=1000, out_features=20, bias=True)
    (37): Linear(in_features=1000, out_features=20, bias=True)
    (38): Linear(in_features=1000, out_features=20, bias=True)
    (39): Linear(in_features=1000, out_features=20, bias=True)
    (40): Linear(in_features=1000, out_features=20, bias=True)
    (41): Linear(in_features=1000, out_features=20, bias=True)
  )
)
======

************************************************************************************************************
Task 42
************************************************************************************************************
| Epoch   1, time= 35.1s | Train: skip eval | Valid: time=  0.4s loss=111.306, TAw acc= 47.1% | *
| Epoch   2, time= 36.6s | Train: skip eval | Valid: time=  0.3s loss=104.613, TAw acc= 74.7% | *
…
>>> Test on task 37 : loss=97.307 | TAw acc= 93.2%, forg=  0.0%| TAg acc= 53.4%, forg=  1.0% <<<
>>> Test on task 38 : loss=103.073 | TAw acc= 94.2%, forg=  0.0%| TAg acc= 66.1%, forg=  0.0% <<<
>>> Test on task 39 : loss=105.641 | TAw acc= 94.6%, forg=  0.0%| TAg acc= 66.3%, forg=  2.2% <<<
>>> Test on task 40 : loss=97.923 | TAw acc= 96.1%, forg=  0.0%| TAg acc= 79.6%, forg=  0.0% <<<
>>> Test on task 41 : loss=99.907 | TAw acc= 87.6%, forg=  0.0%| TAg acc= 54.5%, forg=  0.0% <<<
>>> Test on task 42 : loss=103.254 | TAw acc= 96.6%, forg=  0.0%| TAg acc= 64.1%, forg=  0.0% <<<
Save at icarl_wisdm_1/wisdm_flex_icarl
======
LLL_Net(
  (model): SimpleMLP(
    (fc1): Linear(in_features=91, out_features=1000, bias=True)
    (fc2): Sequential()
  )
  (heads): ModuleList(
    (0): Linear(in_features=1000, out_features=34, bias=True)
    (1): Linear(in_features=1000, out_features=20, bias=True)
    (2): Linear(in_features=1000, out_features=20, bias=True)
    (3): Linear(in_features=1000, out_features=20, bias=True)
    (4): Linear(in_features=1000, out_features=20, bias=True)
    (5): Linear(in_features=1000, out_features=20, bias=True)
    (6): Linear(in_features=1000, out_features=20, bias=True)
    (7): Linear(in_features=1000, out_features=20, bias=True)
    (8): Linear(in_features=1000, out_features=20, bias=True)
    (9): Linear(in_features=1000, out_features=20, bias=True)
    (10): Linear(in_features=1000, out_features=20, bias=True)
    (11): Linear(in_features=1000, out_features=20, bias=True)
    (12): Linear(in_features=1000, out_features=20, bias=True)
    (13): Linear(in_features=1000, out_features=20, bias=True)
    (14): Linear(in_features=1000, out_features=20, bias=True)
    (15): Linear(in_features=1000, out_features=20, bias=True)
    (16): Linear(in_features=1000, out_features=20, bias=True)
    (17): Linear(in_features=1000, out_features=20, bias=True)
    (18): Linear(in_features=1000, out_features=20, bias=True)
    (19): Linear(in_features=1000, out_features=20, bias=True)
    (20): Linear(in_features=1000, out_features=20, bias=True)
    (21): Linear(in_features=1000, out_features=20, bias=True)
    (22): Linear(in_features=1000, out_features=20, bias=True)
    (23): Linear(in_features=1000, out_features=20, bias=True)
    (24): Linear(in_features=1000, out_features=20, bias=True)
    (25): Linear(in_features=1000, out_features=20, bias=True)
    (26): Linear(in_features=1000, out_features=20, bias=True)
    (27): Linear(in_features=1000, out_features=20, bias=True)
    (28): Linear(in_features=1000, out_features=20, bias=True)
    (29): Linear(in_features=1000, out_features=20, bias=True)
    (30): Linear(in_features=1000, out_features=20, bias=True)
    (31): Linear(in_features=1000, out_features=20, bias=True)
    (32): Linear(in_features=1000, out_features=20, bias=True)
    (33): Linear(in_features=1000, out_features=20, bias=True)
    (34): Linear(in_features=1000, out_features=20, bias=True)
    (35): Linear(in_features=1000, out_features=20, bias=True)
    (36): Linear(in_features=1000, out_features=20, bias=True)
    (37): Linear(in_features=1000, out_features=20, bias=True)
    (38): Linear(in_features=1000, out_features=20, bias=True)
    (39): Linear(in_features=1000, out_features=20, bias=True)
    (40): Linear(in_features=1000, out_features=20, bias=True)
    (41): Linear(in_features=1000, out_features=20, bias=True)
    (42): Linear(in_features=1000, out_features=20, bias=True)
  )
)
======

************************************************************************************************************
Task 43
************************************************************************************************************
| Epoch   1, time= 38.2s | Train: skip eval | Valid: time=  0.4s loss=117.463, TAw acc= 35.7% | *
| Epoch   2, time= 37.7s | Train: skip eval | Valid: time=  0.3s loss=111.853, TAw acc= 66.7% | *
…
