…
| Selected 760 train exemplars, time=  0.0s
760
------------------------------------------------------------------------------------------------------------
>>> Test on task  0 : loss=2.047 | TAw acc= 86.9%, forg= -4.6%| TAg acc= 74.3%, forg=-13.7% <<<
>>> Test on task  1 : loss=2.548 | TAw acc= 75.2%, forg= -0.9%| TAg acc= 54.1%, forg=  0.0% <<<
>>> Test on task  2 : loss=2.892 | TAw acc= 73.4%, forg=-21.1%| TAg acc= 47.7%, forg=  2.8% <<<
>>> Test on task  3 : loss=3.086 | TAw acc= 43.0%, forg=  0.0%| TAg acc= 27.0%, forg=  0.0% <<<
Save at k=10/eeil_wisdm_1/wisdm_flex_eeil
======
LLL_Net(
  (model): SimpleMLP(
    (fc1): Linear(in_features=91, out_features=1000, bias=True)
    (fc2): Sequential()
  )
  (heads): ModuleList(
    (0): Linear(in_features=1000, out_features=34, bias=True)
    (1): Linear(in_features=1000, out_features=20, bias=True)
    (2): Linear(in_features=1000, out_features=20, bias=True)
    (3): Linear(in_features=1000, out_features=20, bias=True)
  )
)
======

************************************************************************************************************
Task  4
************************************************************************************************************
| Epoch   1, time=  0.4s | Train: skip eval | Valid: time=  0.3s loss=5.345, TAw acc=  5.0% | *
| Epoch   2, time=  0.4s | Train: skip eval | Valid: time=  0.2s loss=5.328, TAw acc=  5.0% | *
…
------------------------------------------------------------------------------------------------------------
>>> Test on task  0 : loss=1.955 | TAw acc= 88.6%, forg= -1.7%| TAg acc= 80.6%, forg= -6.3% <<<
>>> Test on task  1 : loss=2.473 | TAw acc= 77.1%, forg= -1.8%| TAg acc= 59.6%, forg= -5.5% <<<
>>> Test on task  2 : loss=2.840 | TAw acc= 75.2%, forg= -1.8%| TAg acc= 42.2%, forg=  8.3% <<<
>>> Test on task  3 : loss=3.134 | TAw acc= 77.0%, forg=-34.0%| TAg acc= 21.0%, forg=  6.0% <<<
>>> Test on task  4 : loss=3.124 | TAw acc= 69.4%, forg=  0.0%| TAg acc= 45.4%, forg=  0.0% <<<
Save at k=10/eeil_wisdm_1/wisdm_flex_eeil
======
LLL_Net(
  (model): SimpleMLP(
    (fc1): Linear(in_features=91, out_features=1000, bias=True)
    (fc2): Sequential()
  )
  (heads): ModuleList(
    (0): Linear(in_features=1000, out_features=34, bias=True)
    (1): Linear(in_features=1000, out_features=20, bias=True)
    (2): Linear(in_features=1000, out_features=20, bias=True)
    (3): Linear(in_features=1000, out_features=20, bias=True)
    (4): Linear(in_features=1000, out_features=20, bias=True)
  )
)
======

************************************************************************************************************
Task  5
************************************************************************************************************
| Epoch   1, time=  0.4s | Train: skip eval | Valid: time=  0.2s loss=5.242, TAw acc=  2.5% | *
| Epoch   2, time=  0.4s | Train: skip eval | Valid: time=  0.2s loss=5.229, TAw acc=  2.5% | *
…
>>> Test on task  0 : loss=1.869 | TAw acc= 90.3%, forg= -1.7%| TAg acc= 81.1%, forg= -0.6% <<<
>>> Test on task  1 : loss=2.347 | TAw acc= 80.7%, forg= -3.7%| TAg acc= 67.9%, forg= -8.3% <<<
>>> Test on task  2 : loss=2.727 | TAw acc= 79.8%, forg= -4.6%| TAg acc= 50.5%, forg=  0.0% <<<
>>> Test on task  3 : loss=3.019 | TAw acc= 85.0%, forg= -8.0%| TAg acc= 27.0%, forg=  0.0% <<<
>>> Test on task  4 : loss=3.107 | TAw acc= 83.3%, forg=-13.9%| TAg acc= 30.6%, forg= 14.8% <<<
>>> Test on task  5 : loss=3.159 | TAw acc= 68.5%, forg=  0.0%| TAg acc= 44.4%, forg=  0.0% <<<
Save at k=10/eeil_wisdm_1/wisdm_flex_eeil
======
LLL_Net(
  (model): SimpleMLP(
    (fc1): Linear(in_features=91, out_features=1000, bias=True)
    (fc2): Sequential()
  )
  (heads): ModuleList(
    (0): Linear(in_features=1000, out_features=34, bias=True)
    (1): Linear(in_features=1000, out_features=20, bias=True)
    (2): Linear(in_features=1000, out_features=20, bias=True)
    (3): Linear(in_features=1000, out_features=20, bias=True)
    (4): Linear(in_features=1000, out_features=20, bias=True)
    (5): Linear(in_features=1000, out_features=20, bias=True)
  )
)
======

************************************************************************************************************
Task  6
************************************************************************************************************
| Epoch   1, time=  0.5s | Train: skip eval | Valid: time=  0.3s loss=5.834, TAw acc=  6.0% | *
| Epoch   2, time=  0.5s | Train: skip eval | Valid: time=  0.2s loss=5.807, TAw acc=  7.1% | *
…
>>> Test on task  1 : loss=2.248 | TAw acc= 82.6%, forg= -1.8%| TAg acc= 67.9%, forg=  0.0% <<<
>>> Test on task  2 : loss=2.606 | TAw acc= 82.6%, forg= -2.8%| TAg acc= 60.6%, forg=-10.1% <<<
>>> Test on task  3 : loss=2.890 | TAw acc= 91.0%, forg= -6.0%| TAg acc= 35.0%, forg= -8.0% <<<
>>> Test on task  4 : loss=2.958 | TAw acc= 89.8%, forg= -6.5%| TAg acc= 44.4%, forg=  0.9% <<<
>>> Test on task  5 : loss=3.114 | TAw acc= 82.4%, forg=-13.9%| TAg acc= 14.8%, forg= 29.6% <<<
>>> Test on task  6 : loss=3.090 | TAw acc= 55.4%, forg=  0.0%| TAg acc= 40.2%, forg=  0.0% <<<
Save at k=10/eeil_wisdm_1/wisdm_flex_eeil
======
LLL_Net(
  (model): SimpleMLP(
    (fc1): Linear(in_features=91, out_features=1000, bias=True)
    (fc2): Sequential()
  )
  (heads): ModuleList(
    (0): Linear(in_features=1000, out_features=34, bias=True)
    (1): Linear(in_features=1000, out_features=20, bias=True)
    (2): Linear(in_features=1000, out_features=20, bias=True)
    (3): Linear(in_features=1000, out_features=20, bias=True)
    (4): Linear(in_features=1000, out_features=20, bias=True)
    (5): Linear(in_features=1000, out_features=20, bias=True)
    (6): Linear(in_features=1000, out_features=20, bias=True)
  )
)
======

************************************************************************************************************
Task  7
************************************************************************************************************
| Epoch   1, time=  0.6s | Train: skip eval | Valid: time=  0.3s loss=5.895, TAw acc=  3.7% | *
| Epoch   2, time=  0.6s | Train: skip eval | Valid: time=  0.2s loss=5.874, TAw acc=  3.7% | *
…
>>> Test on task  2 : loss=2.494 | TAw acc= 86.2%, forg= -3.7%| TAg acc= 60.6%, forg=  0.0% <<<
>>> Test on task  3 : loss=2.796 | TAw acc= 94.0%, forg= -3.0%| TAg acc= 49.0%, forg=-14.0% <<<
>>> Test on task  4 : loss=2.747 | TAw acc= 93.5%, forg= -3.7%| TAg acc= 55.6%, forg=-10.2% <<<
>>> Test on task  5 : loss=2.863 | TAw acc= 89.8%, forg= -7.4%| TAg acc= 25.9%, forg= 18.5% <<<
>>> Test on task  6 : loss=3.032 | TAw acc= 77.7%, forg=-22.3%| TAg acc= 26.8%, forg= 13.4% <<<
>>> Test on task  7 : loss=3.194 | TAw acc= 59.6%, forg=  0.0%| TAg acc= 30.3%, forg=  0.0% <<<
Save at k=10/eeil_wisdm_1/wisdm_flex_eeil
======
LLL_Net(
  (model): SimpleMLP(
    (fc1): Linear(in_features=91, out_features=1000, bias=True)
    (fc2): Sequential()
  )
  (heads): ModuleList(
    (0): Linear(in_features=1000, out_features=34, bias=True)
    (1): Linear(in_features=1000, out_features=20, bias=True)
    (2): Linear(in_features=1000, out_features=20, bias=True)
    (3): Linear(in_features=1000, out_features=20, bias=True)
    (4): Linear(in_features=1000, out_features=20, bias=True)
    (5): Linear(in_features=1000, out_features=20, bias=True)
    (6): Linear(in_features=1000, out_features=20, bias=True)
    (7): Linear(in_features=1000, out_features=20, bias=True)
  )
)
======

************************************************************************************************************
Task  8
************************************************************************************************************
| Epoch   1, time=  0.6s | Train: skip eval | Valid: time=  0.2s loss=6.309, TAw acc=  1.5% | *
| Epoch   2, time=  0.6s | Train: skip eval | Valid: time=  0.2s loss=6.287, TAw acc=  4.4% | *
…
>>> Test on task  3 : loss=2.641 | TAw acc= 95.0%, forg= -1.0%| TAg acc= 49.0%, forg=  0.0% <<<
>>> Test on task  4 : loss=2.598 | TAw acc= 93.5%, forg=  0.0%| TAg acc= 63.9%, forg= -8.3% <<<
>>> Test on task  5 : loss=2.653 | TAw acc= 91.7%, forg= -1.9%| TAg acc= 38.0%, forg=  6.5% <<<
>>> Test on task  6 : loss=2.819 | TAw acc= 83.9%, forg= -6.2%| TAg acc= 22.3%, forg= 17.9% <<<
>>> Test on task  7 : loss=3.106 | TAw acc= 82.6%, forg=-22.9%| TAg acc=  6.4%, forg= 23.9% <<<
>>> Test on task  8 : loss=3.527 | TAw acc= 53.2%, forg=  0.0%| TAg acc= 23.4%, forg=  0.0% <<<
Save at k=10/eeil_wisdm_1/wisdm_flex_eeil
======
LLL_Net(
  (model): SimpleMLP(
    (fc1): Linear(in_features=91, out_features=1000, bias=True)
    (fc2): Sequential()
  )
  (heads): ModuleList(
    (0): Linear(in_features=1000, out_features=34, bias=True)
    (1): Linear(in_features=1000, out_features=20, bias=True)
    (2): Linear(in_features=1000, out_features=20, bias=True)
    (3): Linear(in_features=1000, out_features=20, bias=True)
    (4): Linear(in_features=1000, out_features=20, bias=True)
    (5): Linear(in_features=1000, out_features=20, bias=True)
    (6): Linear(in_features=1000, out_features=20, bias=True)
    (7): Linear(in_features=1000, out_features=20, bias=True)
    (8): Linear(in_features=1000, out_features=20, bias=True)
  )
)
======

************************************************************************************************************
Task  9
************************************************************************************************************
| Epoch   1, time=  0.7s | Train: skip eval | Valid: time=  0.2s loss=6.273, TAw acc=  6.8% | *
| Epoch   2, time=  0.7s | Train: skip eval | Valid: time=  0.3s loss=6.249, TAw acc=  6.8% | *
…
>>> Test on task  4 : loss=2.421 | TAw acc= 93.5%, forg=  0.0%| TAg acc= 66.7%, forg= -2.8% <<<
>>> Test on task  5 : loss=2.496 | TAw acc= 90.7%, forg=  0.9%| TAg acc= 53.7%, forg= -9.3% <<<
>>> Test on task  6 : loss=2.630 | TAw acc= 88.4%, forg= -4.5%| TAg acc= 41.1%, forg= -0.9% <<<
>>> Test on task  7 : loss=2.857 | TAw acc= 87.2%, forg= -4.6%| TAg acc= 25.7%, forg=  4.6% <<<
>>> Test on task  8 : loss=3.307 | TAw acc= 79.8%, forg=-26.6%| TAg acc= 16.0%, forg=  7.4% <<<
>>> Test on task  9 : loss=3.289 | TAw acc= 53.9%, forg=  0.0%| TAg acc= 29.4%, forg=  0.0% <<<
Save at k=10/eeil_wisdm_1/wisdm_flex_eeil
======
LLL_Net(
  (model): SimpleMLP(
    (fc1): Linear(in_features=91, out_features=1000, bias=True)
    (fc2): Sequential()
  )
  (heads): ModuleList(
    (0): Linear(in_features=1000, out_features=34, bias=True)
    (1): Linear(in_features=1000, out_features=20, bias=True)
    (2): Linear(in_features=1000, out_features=20, bias=True)
    (3): Linear(in_features=1000, out_features=20, bias=True)
    (4): Linear(in_features=1000, out_features=20, bias=True)
    (5): Linear(in_features=1000, out_features=20, bias=True)
    (6): Linear(in_features=1000, out_features=20, bias=True)
    (7): Linear(in_features=1000, out_features=20, bias=True)
    (8): Linear(in_features=1000, out_features=20, bias=True)
    (9): Linear(in_features=1000, out_features=20, bias=True)
  )
)
======

************************************************************************************************************
Task 10
************************************************************************************************************
| Epoch   1, time=  0.9s | Train: skip eval | Valid: time=  0.3s loss=6.583, TAw acc= 14.5% | *
| Epoch   2, time=  0.8s | Train: skip eval | Valid: time=  0.3s loss=6.554, TAw acc= 14.5% | *
…
>>> Test on task  5 : loss=2.336 | TAw acc= 91.7%, forg=  0.0%| TAg acc= 58.3%, forg= -4.6% <<<
>>> Test on task  6 : loss=2.437 | TAw acc= 90.2%, forg= -1.8%| TAg acc= 45.5%, forg= -4.5% <<<
>>> Test on task  7 : loss=2.703 | TAw acc= 90.8%, forg= -3.7%| TAg acc= 29.4%, forg=  0.9% <<<
>>> Test on task  8 : loss=2.997 | TAw acc= 85.1%, forg= -5.3%| TAg acc= 23.4%, forg=  0.0% <<<
>>> Test on task  9 : loss=3.064 | TAw acc= 85.3%, forg=-31.4%| TAg acc= 27.5%, forg=  2.0% <<<
>>> Test on task 10 : loss=3.073 | TAw acc= 53.4%, forg=  0.0%| TAg acc= 34.0%, forg=  0.0% <<<
Save at k=10/eeil_wisdm_1/wisdm_flex_eeil
======
LLL_Net(
  (model): SimpleMLP(
    (fc1): Linear(in_features=91, out_features=1000, bias=True)
    (fc2): Sequential()
  )
  (heads): ModuleList(
    (0): Linear(in_features=1000, out_features=34, bias=True)
    (1): Linear(in_features=1000, out_features=20, bias=True)
    (2): Linear(in_features=1000, out_features=20, bias=True)
    (3): Linear(in_features=1000, out_features=20, bias=True)
    (4): Linear(in_features=1000, out_features=20, bias=True)
    (5): Linear(in_features=1000, out_features=20, bias=True)
    (6): Linear(in_features=1000, out_features=20, bias=True)
    (7): Linear(in_features=1000, out_features=20, bias=True)
    (8): Linear(in_features=1000, out_features=20, bias=True)
    (9): Linear(in_features=1000, out_features=20, bias=True)
    (10): Linear(in_features=1000, out_features=20, bias=True)
  )
)
======

************************************************************************************************************
Task 11
************************************************************************************************************
| Epoch   1, time=  1.0s | Train: skip eval | Valid: time=  0.2s loss=6.591, TAw acc=  2.2% | *
| Epoch   2, time=  1.0s | Train: skip eval | Valid: time=  0.3s loss=6.567, TAw acc=  2.2% | *
…
>>> Test on task  6 : loss=2.275 | TAw acc= 91.1%, forg= -0.9%| TAg acc= 53.6%, forg= -8.0% <<<
>>> Test on task  7 : loss=2.515 | TAw acc= 91.7%, forg= -0.9%| TAg acc= 45.0%, forg=-14.7% <<<
>>> Test on task  8 : loss=2.716 | TAw acc= 89.4%, forg= -4.3%| TAg acc= 29.8%, forg= -6.4% <<<
>>> Test on task  9 : loss=2.747 | TAw acc= 85.3%, forg=  0.0%| TAg acc= 27.5%, forg=  2.0% <<<
>>> Test on task 10 : loss=2.887 | TAw acc= 83.5%, forg=-30.1%| TAg acc= 27.2%, forg=  6.8% <<<
>>> Test on task 11 : loss=3.334 | TAw acc= 65.5%, forg=  0.0%| TAg acc= 38.7%, forg=  0.0% <<<
Save at k=10/eeil_wisdm_1/wisdm_flex_eeil
======
LLL_Net(
  (model): SimpleMLP(
    (fc1): Linear(in_features=91, out_features=1000, bias=True)
    (fc2): Sequential()
  )
  (heads): ModuleList(
    (0): Linear(in_features=1000, out_features=34, bias=True)
    (1): Linear(in_features=1000, out_features=20, bias=True)
    (2): Linear(in_features=1000, out_features=20, bias=True)
    (3): Linear(in_features=1000, out_features=20, bias=True)
    (4): Linear(in_features=1000, out_features=20, bias=True)
    (5): Linear(in_features=1000, out_features=20, bias=True)
    (6): Linear(in_features=1000, out_features=20, bias=True)
    (7): Linear(in_features=1000, out_features=20, bias=True)
    (8): Linear(in_features=1000, out_features=20, bias=True)
    (9): Linear(in_features=1000, out_features=20, bias=True)
    (10): Linear(in_features=1000, out_features=20, bias=True)
    (11): Linear(in_features=1000, out_features=20, bias=True)
  )
)
======

************************************************************************************************************
Task 12
************************************************************************************************************
| Epoch   1, time=  1.0s | Train: skip eval | Valid: time=  0.3s loss=7.090, TAw acc=  3.3% | *
| Epoch   2, time=  1.0s | Train: skip eval | Valid: time=  0.2s loss=7.046, TAw acc=  4.4% | *
…
>>> Test on task  7 : loss=2.411 | TAw acc= 92.7%, forg= -0.9%| TAg acc= 50.5%, forg= -5.5% <<<
>>> Test on task  8 : loss=2.579 | TAw acc= 89.4%, forg=  0.0%| TAg acc= 30.9%, forg= -1.1% <<<
>>> Test on task  9 : loss=2.510 | TAw acc= 86.3%, forg= -1.0%| TAg acc= 39.2%, forg= -9.8% <<<
>>> Test on task 10 : loss=2.613 | TAw acc= 91.3%, forg= -7.8%| TAg acc= 36.9%, forg= -2.9% <<<
>>> Test on task 11 : loss=3.187 | TAw acc= 90.8%, forg=-25.2%| TAg acc= 24.4%, forg= 14.3% <<<
>>> Test on task 12 : loss=2.881 | TAw acc= 68.6%, forg=  0.0%| TAg acc= 34.7%, forg=  0.0% <<<
Save at k=10/eeil_wisdm_1/wisdm_flex_eeil
======
LLL_Net(
  (model): SimpleMLP(
    (fc1): Linear(in_features=91, out_features=1000, bias=True)
    (fc2): Sequential()
  )
  (heads): ModuleList(
    (0): Linear(in_features=1000, out_features=34, bias=True)
    (1): Linear(in_features=1000, out_features=20, bias=True)
    (2): Linear(in_features=1000, out_features=20, bias=True)
    (3): Linear(in_features=1000, out_features=20, bias=True)
    (4): Linear(in_features=1000, out_features=20, bias=True)
    (5): Linear(in_features=1000, out_features=20, bias=True)
    (6): Linear(in_features=1000, out_features=20, bias=True)
    (7): Linear(in_features=1000, out_features=20, bias=True)
    (8): Linear(in_features=1000, out_features=20, bias=True)
    (9): Linear(in_features=1000, out_features=20, bias=True)
    (10): Linear(in_features=1000, out_features=20, bias=True)
    (11): Linear(in_features=1000, out_features=20, bias=True)
    (12): Linear(in_features=1000, out_features=20, bias=True)
  )
)
======

************************************************************************************************************
Task 13
************************************************************************************************************
| Epoch   1, time=  1.1s | Train: skip eval | Valid: time=  0.3s loss=6.811, TAw acc= 10.1% | *
| Epoch   2, time=  1.2s | Train: skip eval | Valid: time=  0.2s loss=6.788, TAw acc= 10.1% | *
…
>>> Test on task  8 : loss=2.356 | TAw acc= 88.3%, forg=  1.1%| TAg acc= 35.1%, forg= -4.3% <<<
>>> Test on task  9 : loss=2.289 | TAw acc= 86.3%, forg=  0.0%| TAg acc= 41.2%, forg= -2.0% <<<
>>> Test on task 10 : loss=2.360 | TAw acc= 94.2%, forg= -2.9%| TAg acc= 51.5%, forg=-14.6% <<<
>>> Test on task 11 : loss=2.899 | TAw acc= 91.6%, forg= -0.8%| TAg acc= 39.5%, forg= -0.8% <<<
>>> Test on task 12 : loss=2.824 | TAw acc= 90.1%, forg=-21.5%| TAg acc= 15.7%, forg= 19.0% <<<
>>> Test on task 13 : loss=3.310 | TAw acc= 57.9%, forg=  0.0%| TAg acc= 30.8%, forg=  0.0% <<<
Save at k=10/eeil_wisdm_1/wisdm_flex_eeil
======
LLL_Net(
  (model): SimpleMLP(
    (fc1): Linear(in_features=91, out_features=1000, bias=True)
    (fc2): Sequential()
  )
  (heads): ModuleList(
    (0): Linear(in_features=1000, out_features=34, bias=True)
    (1): Linear(in_features=1000, out_features=20, bias=True)
    (2): Linear(in_features=1000, out_features=20, bias=True)
    (3): Linear(in_features=1000, out_features=20, bias=True)
    (4): Linear(in_features=1000, out_features=20, bias=True)
    (5): Linear(in_features=1000, out_features=20, bias=True)
    (6): Linear(in_features=1000, out_features=20, bias=True)
    (7): Linear(in_features=1000, out_features=20, bias=True)
    (8): Linear(in_features=1000, out_features=20, bias=True)
    (9): Linear(in_features=1000, out_features=20, bias=True)
    (10): Linear(in_features=1000, out_features=20, bias=True)
    (11): Linear(in_features=1000, out_features=20, bias=True)
    (12): Linear(in_features=1000, out_features=20, bias=True)
    (13): Linear(in_features=1000, out_features=20, bias=True)
  )
)
======

************************************************************************************************************
Task 14
************************************************************************************************************
| Epoch   1, time=  1.2s | Train: skip eval | Valid: time=  0.3s loss=8.011, TAw acc=  3.6% | *
| Epoch   2, time=  1.2s | Train: skip eval | Valid: time=  0.3s loss=7.937, TAw acc=  3.6% | *
…
>>> Test on task  9 : loss=2.128 | TAw acc= 87.3%, forg= -1.0%| TAg acc= 48.0%, forg= -6.9% <<<
>>> Test on task 10 : loss=2.195 | TAw acc= 95.1%, forg= -1.0%| TAg acc= 56.3%, forg= -4.9% <<<
>>> Test on task 11 : loss=2.664 | TAw acc= 95.0%, forg= -3.4%| TAg acc= 45.4%, forg= -5.9% <<<
>>> Test on task 12 : loss=2.591 | TAw acc= 92.6%, forg= -2.5%| TAg acc= 22.3%, forg= 12.4% <<<
>>> Test on task 13 : loss=3.129 | TAw acc= 83.2%, forg=-25.2%| TAg acc= 17.8%, forg= 13.1% <<<
>>> Test on task 14 : loss=2.905 | TAw acc= 72.6%, forg=  0.0%| TAg acc= 35.4%, forg=  0.0% <<<
Save at k=10/eeil_wisdm_1/wisdm_flex_eeil
======
LLL_Net(
  (model): SimpleMLP(
    (fc1): Linear(in_features=91, out_features=1000, bias=True)
    (fc2): Sequential()
  )
  (heads): ModuleList(
    (0): Linear(in_features=1000, out_features=34, bias=True)
    (1): Linear(in_features=1000, out_features=20, bias=True)
    (2): Linear(in_features=1000, out_features=20, bias=True)
    (3): Linear(in_features=1000, out_features=20, bias=True)
    (4): Linear(in_features=1000, out_features=20, bias=True)
    (5): Linear(in_features=1000, out_features=20, bias=True)
    (6): Linear(in_features=1000, out_features=20, bias=True)
    (7): Linear(in_features=1000, out_features=20, bias=True)
    (8): Linear(in_features=1000, out_features=20, bias=True)
    (9): Linear(in_features=1000, out_features=20, bias=True)
    (10): Linear(in_features=1000, out_features=20, bias=True)
    (11): Linear(in_features=1000, out_features=20, bias=True)
    (12): Linear(in_features=1000, out_features=20, bias=True)
    (13): Linear(in_features=1000, out_features=20, bias=True)
    (14): Linear(in_features=1000, out_features=20, bias=True)
  )
)
======

************************************************************************************************************
Task 15
************************************************************************************************************
| Epoch   1, time=  1.4s | Train: skip eval | Valid: time=  0.2s loss=7.249, TAw acc=  4.4% | *
| Epoch   2, time=  1.3s | Train: skip eval | Valid: time=  0.3s loss=7.215, TAw acc=  4.4% | *
…
>>> Test on task 10 : loss=2.029 | TAw acc= 95.1%, forg=  0.0%| TAg acc= 64.1%, forg= -7.8% <<<
>>> Test on task 11 : loss=2.492 | TAw acc= 95.8%, forg= -0.8%| TAg acc= 47.9%, forg= -2.5% <<<
>>> Test on task 12 : loss=2.344 | TAw acc= 93.4%, forg= -0.8%| TAg acc= 31.4%, forg=  3.3% <<<
>>> Test on task 13 : loss=2.725 | TAw acc= 88.8%, forg= -5.6%| TAg acc= 18.7%, forg= 12.1% <<<
>>> Test on task 14 : loss=2.813 | TAw acc= 90.3%, forg=-17.7%| TAg acc= 23.9%, forg= 11.5% <<<
>>> Test on task 15 : loss=3.057 | TAw acc= 69.1%, forg=  0.0%| TAg acc= 34.1%, forg=  0.0% <<<
Save at k=10/eeil_wisdm_1/wisdm_flex_eeil
======
LLL_Net(
  (model): SimpleMLP(
    (fc1): Linear(in_features=91, out_features=1000, bias=True)
    (fc2): Sequential()
  )
  (heads): ModuleList(
    (0): Linear(in_features=1000, out_features=34, bias=True)
    (1): Linear(in_features=1000, out_features=20, bias=True)
    (2): Linear(in_features=1000, out_features=20, bias=True)
    (3): Linear(in_features=1000, out_features=20, bias=True)
    (4): Linear(in_features=1000, out_features=20, bias=True)
    (5): Linear(in_features=1000, out_features=20, bias=True)
    (6): Linear(in_features=1000, out_features=20, bias=True)
    (7): Linear(in_features=1000, out_features=20, bias=True)
    (8): Linear(in_features=1000, out_features=20, bias=True)
    (9): Linear(in_features=1000, out_features=20, bias=True)
    (10): Linear(in_features=1000, out_features=20, bias=True)
    (11): Linear(in_features=1000, out_features=20, bias=True)
    (12): Linear(in_features=1000, out_features=20, bias=True)
    (13): Linear(in_features=1000, out_features=20, bias=True)
    (14): Linear(in_features=1000, out_features=20, bias=True)
    (15): Linear(in_features=1000, out_features=20, bias=True)
  )
)
======

************************************************************************************************************
Task 16
************************************************************************************************************
| Epoch   1, time=  1.5s | Train: skip eval | Valid: time=  0.2s loss=7.473, TAw acc=  2.6% | *
| Epoch   2, time=  1.5s | Train: skip eval | Valid: time=  0.2s loss=7.443, TAw acc=  2.6% | *
…
>>> Test on task 11 : loss=2.329 | TAw acc= 96.6%, forg= -0.8%| TAg acc= 51.3%, forg= -3.4% <<<
>>> Test on task 12 : loss=2.152 | TAw acc= 91.7%, forg=  1.7%| TAg acc= 36.4%, forg= -1.7% <<<
>>> Test on task 13 : loss=2.421 | TAw acc= 88.8%, forg=  0.0%| TAg acc= 29.9%, forg=  0.9% <<<
>>> Test on task 14 : loss=2.499 | TAw acc= 92.0%, forg= -1.8%| TAg acc= 27.4%, forg=  8.0% <<<
>>> Test on task 15 : loss=3.050 | TAw acc= 89.4%, forg=-20.3%| TAg acc= 17.9%, forg= 16.3% <<<
>>> Test on task 16 : loss=3.278 | TAw acc= 75.7%, forg=  0.0%| TAg acc= 26.2%, forg=  0.0% <<<
Save at k=10/eeil_wisdm_1/wisdm_flex_eeil
======
LLL_Net(
  (model): SimpleMLP(
    (fc1): Linear(in_features=91, out_features=1000, bias=True)
    (fc2): Sequential()
  )
  (heads): ModuleList(
    (0): Linear(in_features=1000, out_features=34, bias=True)
    (1): Linear(in_features=1000, out_features=20, bias=True)
    (2): Linear(in_features=1000, out_features=20, bias=True)
    (3): Linear(in_features=1000, out_features=20, bias=True)
    (4): Linear(in_features=1000, out_features=20, bias=True)
    (5): Linear(in_features=1000, out_features=20, bias=True)
    (6): Linear(in_features=1000, out_features=20, bias=True)
    (7): Linear(in_features=1000, out_features=20, bias=True)
    (8): Linear(in_features=1000, out_features=20, bias=True)
    (9): Linear(in_features=1000, out_features=20, bias=True)
    (10): Linear(in_features=1000, out_features=20, bias=True)
    (11): Linear(in_features=1000, out_features=20, bias=True)
    (12): Linear(in_features=1000, out_features=20, bias=True)
    (13): Linear(in_features=1000, out_features=20, bias=True)
    (14): Linear(in_features=1000, out_features=20, bias=True)
    (15): Linear(in_features=1000, out_features=20, bias=True)
    (16): Linear(in_features=1000, out_features=20, bias=True)
  )
)
======

************************************************************************************************************
Task 17
************************************************************************************************************
| Epoch   1, time=  1.6s | Train: skip eval | Valid: time=  0.2s loss=7.883, TAw acc=  6.8% | *
| Epoch   2, time=  1.5s | Train: skip eval | Valid: time=  0.3s loss=7.849, TAw acc=  8.2% | *
…
>>> Test on task 12 : loss=2.030 | TAw acc= 90.1%, forg=  3.3%| TAg acc= 44.6%, forg= -8.3% <<<
>>> Test on task 13 : loss=2.197 | TAw acc= 91.6%, forg= -2.8%| TAg acc= 39.3%, forg= -8.4% <<<
>>> Test on task 14 : loss=2.289 | TAw acc= 92.0%, forg=  0.0%| TAg acc= 31.0%, forg=  4.4% <<<
>>> Test on task 15 : loss=2.810 | TAw acc= 93.5%, forg= -4.1%| TAg acc= 13.0%, forg= 21.1% <<<
>>> Test on task 16 : loss=3.085 | TAw acc= 90.7%, forg=-15.0%| TAg acc= 24.3%, forg=  1.9% <<<
>>> Test on task 17 : loss=3.317 | TAw acc= 71.3%, forg=  0.0%| TAg acc= 27.7%, forg=  0.0% <<<
Save at k=10/eeil_wisdm_1/wisdm_flex_eeil
======
LLL_Net(
  (model): SimpleMLP(
    (fc1): Linear(in_features=91, out_features=1000, bias=True)
    (fc2): Sequential()
  )
  (heads): ModuleList(
    (0): Linear(in_features=1000, out_features=34, bias=True)
    (1): Linear(in_features=1000, out_features=20, bias=True)
    (2): Linear(in_features=1000, out_features=20, bias=True)
    (3): Linear(in_features=1000, out_features=20, bias=True)
    (4): Linear(in_features=1000, out_features=20, bias=True)
    (5): Linear(in_features=1000, out_features=20, bias=True)
    (6): Linear(in_features=1000, out_features=20, bias=True)
    (7): Linear(in_features=1000, out_features=20, bias=True)
    (8): Linear(in_features=1000, out_features=20, bias=True)
    (9): Linear(in_features=1000, out_features=20, bias=True)
    (10): Linear(in_features=1000, out_features=20, bias=True)
    (11): Linear(in_features=1000, out_features=20, bias=True)
    (12): Linear(in_features=1000, out_features=20, bias=True)
    (13): Linear(in_features=1000, out_features=20, bias=True)
    (14): Linear(in_features=1000, out_features=20, bias=True)
    (15): Linear(in_features=1000, out_features=20, bias=True)
    (16): Linear(in_features=1000, out_features=20, bias=True)
    (17): Linear(in_features=1000, out_features=20, bias=True)
  )
)
======

************************************************************************************************************
Task 18
************************************************************************************************************
| Epoch   1, time=  1.9s | Train: skip eval | Valid: time=  0.2s loss=8.025, TAw acc=  0.0% | *
| Epoch   2, time=  1.7s | Train: skip eval | Valid: time=  0.2s loss=7.987, TAw acc=  0.0% | *
…
>>> Test on task 13 : loss=2.051 | TAw acc= 94.4%, forg= -2.8%| TAg acc= 44.9%, forg= -5.6% <<<
>>> Test on task 14 : loss=2.140 | TAw acc= 92.9%, forg= -0.9%| TAg acc= 37.2%, forg= -1.8% <<<
>>> Test on task 15 : loss=2.571 | TAw acc= 93.5%, forg=  0.0%| TAg acc= 21.1%, forg= 13.0% <<<
>>> Test on task 16 : loss=2.772 | TAw acc= 94.4%, forg= -3.7%| TAg acc= 24.3%, forg=  1.9% <<<
>>> Test on task 17 : loss=3.100 | TAw acc= 88.1%, forg=-16.8%| TAg acc= 11.9%, forg= 15.8% <<<
>>> Test on task 18 : loss=3.446 | TAw acc= 61.8%, forg=  0.0%| TAg acc= 16.7%, forg=  0.0% <<<
Save at k=10/eeil_wisdm_1/wisdm_flex_eeil
======
LLL_Net(
  (model): SimpleMLP(
    (fc1): Linear(in_features=91, out_features=1000, bias=True)
    (fc2): Sequential()
  )
  (heads): ModuleList(
    (0): Linear(in_features=1000, out_features=34, bias=True)
    (1): Linear(in_features=1000, out_features=20, bias=True)
    (2): Linear(in_features=1000, out_features=20, bias=True)
    (3): Linear(in_features=1000, out_features=20, bias=True)
    (4): Linear(in_features=1000, out_features=20, bias=True)
    (5): Linear(in_features=1000, out_features=20, bias=True)
    (6): Linear(in_features=1000, out_features=20, bias=True)
    (7): Linear(in_features=1000, out_features=20, bias=True)
    (8): Linear(in_features=1000, out_features=20, bias=True)
    (9): Linear(in_features=1000, out_features=20, bias=True)
    (10): Linear(in_features=1000, out_features=20, bias=True)
    (11): Linear(in_features=1000, out_features=20, bias=True)
    (12): Linear(in_features=1000, out_features=20, bias=True)
    (13): Linear(in_features=1000, out_features=20, bias=True)
    (14): Linear(in_features=1000, out_features=20, bias=True)
    (15): Linear(in_features=1000, out_features=20, bias=True)
    (16): Linear(in_features=1000, out_features=20, bias=True)
    (17): Linear(in_features=1000, out_features=20, bias=True)
    (18): Linear(in_features=1000, out_features=20, bias=True)
  )
)
======

************************************************************************************************************
Task 19
************************************************************************************************************
| Epoch   1, time=  1.7s | Train: skip eval | Valid: time=  0.2s loss=8.168, TAw acc=  6.8% | *
| Epoch   2, time=  1.8s | Train: skip eval | Valid: time=  0.2s loss=8.128, TAw acc=  6.8% | *
…
>>> Test on task 14 : loss=2.022 | TAw acc= 94.7%, forg= -1.8%| TAg acc= 46.9%, forg= -9.7% <<<
>>> Test on task 15 : loss=2.385 | TAw acc= 95.1%, forg= -1.6%| TAg acc= 33.3%, forg=  0.8% <<<
>>> Test on task 16 : loss=2.527 | TAw acc= 96.3%, forg= -1.9%| TAg acc= 27.1%, forg= -0.9% <<<
>>> Test on task 17 : loss=2.729 | TAw acc= 92.1%, forg= -4.0%| TAg acc= 21.8%, forg=  5.9% <<<
>>> Test on task 18 : loss=3.229 | TAw acc= 74.5%, forg=-12.7%| TAg acc= 11.8%, forg=  4.9% <<<
>>> Test on task 19 : loss=3.496 | TAw acc= 74.3%, forg=  0.0%| TAg acc= 19.8%, forg=  0.0% <<<
Save at k=10/eeil_wisdm_1/wisdm_flex_eeil
======
LLL_Net(
  (model): SimpleMLP(
    (fc1): Linear(in_features=91, out_features=1000, bias=True)
    (fc2): Sequential()
  )
  (heads): ModuleList(
    (0): Linear(in_features=1000, out_features=34, bias=True)
    (1): Linear(in_features=1000, out_features=20, bias=True)
    (2): Linear(in_features=1000, out_features=20, bias=True)
    (3): Linear(in_features=1000, out_features=20, bias=True)
    (4): Linear(in_features=1000, out_features=20, bias=True)
    (5): Linear(in_features=1000, out_features=20, bias=True)
    (6): Linear(in_features=1000, out_features=20, bias=True)
    (7): Linear(in_features=1000, out_features=20, bias=True)
    (8): Linear(in_features=1000, out_features=20, bias=True)
    (9): Linear(in_features=1000, out_features=20, bias=True)
    (10): Linear(in_features=1000, out_features=20, bias=True)
    (11): Linear(in_features=1000, out_features=20, bias=True)
    (12): Linear(in_features=1000, out_features=20, bias=True)
    (13): Linear(in_features=1000, out_features=20, bias=True)
    (14): Linear(in_features=1000, out_features=20, bias=True)
    (15): Linear(in_features=1000, out_features=20, bias=True)
    (16): Linear(in_features=1000, out_features=20, bias=True)
    (17): Linear(in_features=1000, out_features=20, bias=True)
    (18): Linear(in_features=1000, out_features=20, bias=True)
    (19): Linear(in_features=1000, out_features=20, bias=True)
  )
)
======

************************************************************************************************************
Task 20
************************************************************************************************************
| Epoch   1, time=  1.9s | Train: skip eval | Valid: time=  0.2s loss=8.266, TAw acc=  6.4% | *
| Epoch   2, time=  2.0s | Train: skip eval | Valid: time=  0.2s loss=8.224, TAw acc=  7.4% | *
…
>>> Test on task 15 : loss=2.306 | TAw acc= 95.1%, forg=  0.0%| TAg acc= 27.6%, forg=  6.5% <<<
>>> Test on task 16 : loss=2.353 | TAw acc= 96.3%, forg=  0.0%| TAg acc= 34.6%, forg= -7.5% <<<
>>> Test on task 17 : loss=2.536 | TAw acc= 95.0%, forg= -3.0%| TAg acc= 20.8%, forg=  6.9% <<<
>>> Test on task 18 : loss=2.954 | TAw acc= 85.3%, forg=-10.8%| TAg acc= 11.8%, forg=  4.9% <<<
>>> Test on task 19 : loss=3.267 | TAw acc= 89.1%, forg=-14.9%| TAg acc= 13.9%, forg=  5.9% <<<
>>> Test on task 20 : loss=2.668 | TAw acc= 79.4%, forg=  0.0%| TAg acc= 51.6%, forg=  0.0% <<<
Save at k=10/eeil_wisdm_1/wisdm_flex_eeil
======
LLL_Net(
  (model): SimpleMLP(
    (fc1): Linear(in_features=91, out_features=1000, bias=True)
    (fc2): Sequential()
  )
  (heads): ModuleList(
    (0): Linear(in_features=1000, out_features=34, bias=True)
    (1): Linear(in_features=1000, out_features=20, bias=True)
    (2): Linear(in_features=1000, out_features=20, bias=True)
    (3): Linear(in_features=1000, out_features=20, bias=True)
    (4): Linear(in_features=1000, out_features=20, bias=True)
    (5): Linear(in_features=1000, out_features=20, bias=True)
    (6): Linear(in_features=1000, out_features=20, bias=True)
    (7): Linear(in_features=1000, out_features=20, bias=True)
    (8): Linear(in_features=1000, out_features=20, bias=True)
    (9): Linear(in_features=1000, out_features=20, bias=True)
    (10): Linear(in_features=1000, out_features=20, bias=True)
    (11): Linear(in_features=1000, out_features=20, bias=True)
    (12): Linear(in_features=1000, out_features=20, bias=True)
    (13): Linear(in_features=1000, out_features=20, bias=True)
    (14): Linear(in_features=1000, out_features=20, bias=True)
    (15): Linear(in_features=1000, out_features=20, bias=True)
    (16): Linear(in_features=1000, out_features=20, bias=True)
    (17): Linear(in_features=1000, out_features=20, bias=True)
    (18): Linear(in_features=1000, out_features=20, bias=True)
    (19): Linear(in_features=1000, out_features=20, bias=True)
    (20): Linear(in_features=1000, out_features=20, bias=True)
  )
)
======

************************************************************************************************************
Task 21
************************************************************************************************************
| Epoch   1, time=  2.1s | Train: skip eval | Valid: time=  0.2s loss=8.801, TAw acc= 18.2% | *
| Epoch   2, time=  2.1s | Train: skip eval | Valid: time=  0.2s loss=8.730, TAw acc= 18.2% | *
…
>>> Test on task 16 : loss=2.226 | TAw acc= 96.3%, forg=  0.0%| TAg acc= 34.6%, forg=  0.0% <<<
>>> Test on task 17 : loss=2.324 | TAw acc= 99.0%, forg= -4.0%| TAg acc= 38.6%, forg=-10.9% <<<
>>> Test on task 18 : loss=2.697 | TAw acc= 89.2%, forg= -3.9%| TAg acc= 16.7%, forg=  0.0% <<<
>>> Test on task 19 : loss=2.874 | TAw acc= 93.1%, forg= -4.0%| TAg acc= 19.8%, forg=  0.0% <<<
>>> Test on task 20 : loss=2.707 | TAw acc= 97.6%, forg=-18.3%| TAg acc= 23.8%, forg= 27.8% <<<
>>> Test on task 21 : loss=2.255 | TAw acc= 84.7%, forg=  0.0%| TAg acc= 54.2%, forg=  0.0% <<<
Save at k=10/eeil_wisdm_1/wisdm_flex_eeil
======
LLL_Net(
  (model): SimpleMLP(
    (fc1): Linear(in_features=91, out_features=1000, bias=True)
    (fc2): Sequential()
  )
  (heads): ModuleList(
    (0): Linear(in_features=1000, out_features=34, bias=True)
    (1): Linear(in_features=1000, out_features=20, bias=True)
    (2): Linear(in_features=1000, out_features=20, bias=True)
    (3): Linear(in_features=1000, out_features=20, bias=True)
    (4): Linear(in_features=1000, out_features=20, bias=True)
    (5): Linear(in_features=1000, out_features=20, bias=True)
    (6): Linear(in_features=1000, out_features=20, bias=True)
    (7): Linear(in_features=1000, out_features=20, bias=True)
    (8): Linear(in_features=1000, out_features=20, bias=True)
    (9): Linear(in_features=1000, out_features=20, bias=True)
    (10): Linear(in_features=1000, out_features=20, bias=True)
    (11): Linear(in_features=1000, out_features=20, bias=True)
    (12): Linear(in_features=1000, out_features=20, bias=True)
    (13): Linear(in_features=1000, out_features=20, bias=True)
    (14): Linear(in_features=1000, out_features=20, bias=True)
    (15): Linear(in_features=1000, out_features=20, bias=True)
    (16): Linear(in_features=1000, out_features=20, bias=True)
    (17): Linear(in_features=1000, out_features=20, bias=True)
    (18): Linear(in_features=1000, out_features=20, bias=True)
    (19): Linear(in_features=1000, out_features=20, bias=True)
    (20): Linear(in_features=1000, out_features=20, bias=True)
    (21): Linear(in_features=1000, out_features=20, bias=True)
  )
)
======

************************************************************************************************************
Task 22
************************************************************************************************************
| Epoch   1, time=  2.3s | Train: skip eval | Valid: time=  0.2s loss=8.694, TAw acc=  7.7% | *
| Epoch   2, time=  2.2s | Train: skip eval | Valid: time=  0.2s loss=8.653, TAw acc= 10.3% | *
…
>>> Test on task 17 : loss=2.157 | TAw acc= 99.0%, forg=  0.0%| TAg acc= 49.5%, forg=-10.9% <<<
>>> Test on task 18 : loss=2.444 | TAw acc= 94.1%, forg= -4.9%| TAg acc= 23.5%, forg= -6.9% <<<
>>> Test on task 19 : loss=2.575 | TAw acc= 94.1%, forg= -1.0%| TAg acc= 24.8%, forg= -5.0% <<<
>>> Test on task 20 : loss=2.488 | TAw acc= 97.6%, forg=  0.0%| TAg acc= 23.0%, forg= 28.6% <<<
>>> Test on task 21 : loss=2.325 | TAw acc= 96.6%, forg=-11.9%| TAg acc= 36.4%, forg= 17.8% <<<
>>> Test on task 22 : loss=3.331 | TAw acc= 71.7%, forg=  0.0%| TAg acc= 17.9%, forg=  0.0% <<<
Save at k=10/eeil_wisdm_1/wisdm_flex_eeil
======
LLL_Net(
  (model): SimpleMLP(
    (fc1): Linear(in_features=91, out_features=1000, bias=True)
    (fc2): Sequential()
  )
  (heads): ModuleList(
    (0): Linear(in_features=1000, out_features=34, bias=True)
    (1): Linear(in_features=1000, out_features=20, bias=True)
    (2): Linear(in_features=1000, out_features=20, bias=True)
    (3): Linear(in_features=1000, out_features=20, bias=True)
    (4): Linear(in_features=1000, out_features=20, bias=True)
    (5): Linear(in_features=1000, out_features=20, bias=True)
    (6): Linear(in_features=1000, out_features=20, bias=True)
    (7): Linear(in_features=1000, out_features=20, bias=True)
    (8): Linear(in_features=1000, out_features=20, bias=True)
    (9): Linear(in_features=1000, out_features=20, bias=True)
    (10): Linear(in_features=1000, out_features=20, bias=True)
    (11): Linear(in_features=1000, out_features=20, bias=True)
    (12): Linear(in_features=1000, out_features=20, bias=True)
    (13): Linear(in_features=1000, out_features=20, bias=True)
    (14): Linear(in_features=1000, out_features=20, bias=True)
    (15): Linear(in_features=1000, out_features=20, bias=True)
    (16): Linear(in_features=1000, out_features=20, bias=True)
    (17): Linear(in_features=1000, out_features=20, bias=True)
    (18): Linear(in_features=1000, out_features=20, bias=True)
    (19): Linear(in_features=1000, out_features=20, bias=True)
    (20): Linear(in_features=1000, out_features=20, bias=True)
    (21): Linear(in_features=1000, out_features=20, bias=True)
    (22): Linear(in_features=1000, out_features=20, bias=True)
  )
)
======

************************************************************************************************************
Task 23
************************************************************************************************************
| Epoch   1, time=  2.5s | Train: skip eval | Valid: time=  0.2s loss=9.252, TAw acc=  1.6% | *
| Epoch   2, time=  2.3s | Train: skip eval | Valid: time=  0.2s loss=9.212, TAw acc=  1.6% | *
…
>>> Test on task 18 : loss=2.276 | TAw acc= 92.2%, forg=  2.0%| TAg acc= 32.4%, forg= -8.8% <<<
>>> Test on task 19 : loss=2.396 | TAw acc= 96.0%, forg= -2.0%| TAg acc= 26.7%, forg= -2.0% <<<
>>> Test on task 20 : loss=2.248 | TAw acc= 97.6%, forg=  0.0%| TAg acc= 38.1%, forg= 13.5% <<<
>>> Test on task 21 : loss=2.094 | TAw acc= 96.6%, forg=  0.0%| TAg acc= 44.1%, forg= 10.2% <<<
>>> Test on task 22 : loss=3.026 | TAw acc= 87.7%, forg=-16.0%| TAg acc=  9.4%, forg=  8.5% <<<
>>> Test on task 23 : loss=3.788 | TAw acc= 58.6%, forg=  0.0%| TAg acc= 16.1%, forg=  0.0% <<<
Save at k=10/eeil_wisdm_1/wisdm_flex_eeil
======
LLL_Net(
  (model): SimpleMLP(
    (fc1): Linear(in_features=91, out_features=1000, bias=True)
    (fc2): Sequential()
  )
  (heads): ModuleList(
    (0): Linear(in_features=1000, out_features=34, bias=True)
    (1): Linear(in_features=1000, out_features=20, bias=True)
    (2): Linear(in_features=1000, out_features=20, bias=True)
    (3): Linear(in_features=1000, out_features=20, bias=True)
    (4): Linear(in_features=1000, out_features=20, bias=True)
    (5): Linear(in_features=1000, out_features=20, bias=True)
    (6): Linear(in_features=1000, out_features=20, bias=True)
    (7): Linear(in_features=1000, out_features=20, bias=True)
    (8): Linear(in_features=1000, out_features=20, bias=True)
    (9): Linear(in_features=1000, out_features=20, bias=True)
    (10): Linear(in_features=1000, out_features=20, bias=True)
    (11): Linear(in_features=1000, out_features=20, bias=True)
    (12): Linear(in_features=1000, out_features=20, bias=True)
    (13): Linear(in_features=1000, out_features=20, bias=True)
    (14): Linear(in_features=1000, out_features=20, bias=True)
    (15): Linear(in_features=1000, out_features=20, bias=True)
    (16): Linear(in_features=1000, out_features=20, bias=True)
    (17): Linear(in_features=1000, out_features=20, bias=True)
    (18): Linear(in_features=1000, out_features=20, bias=True)
    (19): Linear(in_features=1000, out_features=20, bias=True)
    (20): Linear(in_features=1000, out_features=20, bias=True)
    (21): Linear(in_features=1000, out_features=20, bias=True)
    (22): Linear(in_features=1000, out_features=20, bias=True)
    (23): Linear(in_features=1000, out_features=20, bias=True)
  )
)
======

************************************************************************************************************
Task 24
************************************************************************************************************
| Epoch   1, time=  2.6s | Train: skip eval | Valid: time=  0.2s loss=9.172, TAw acc=  2.3% | *
| Epoch   2, time=  2.5s | Train: skip eval | Valid: time=  0.2s loss=9.110, TAw acc=  3.4% | *
…
>>> Test on task 19 : loss=2.268 | TAw acc= 96.0%, forg=  0.0%| TAg acc= 39.6%, forg=-12.9% <<<
>>> Test on task 20 : loss=2.080 | TAw acc= 97.6%, forg=  0.0%| TAg acc= 46.0%, forg=  5.6% <<<
>>> Test on task 21 : loss=1.985 | TAw acc= 96.6%, forg=  0.0%| TAg acc= 44.1%, forg= 10.2% <<<
>>> Test on task 22 : loss=2.748 | TAw acc= 94.3%, forg= -6.6%| TAg acc= 13.2%, forg=  4.7% <<<
>>> Test on task 23 : loss=3.262 | TAw acc= 81.6%, forg=-23.0%| TAg acc=  8.0%, forg=  8.0% <<<
>>> Test on task 24 : loss=2.775 | TAw acc= 77.6%, forg=  0.0%| TAg acc= 35.3%, forg=  0.0% <<<
Save at k=10/eeil_wisdm_1/wisdm_flex_eeil
======
LLL_Net(
  (model): SimpleMLP(
    (fc1): Linear(in_features=91, out_features=1000, bias=True)
    (fc2): Sequential()
  )
  (heads): ModuleList(
    (0): Linear(in_features=1000, out_features=34, bias=True)
    (1): Linear(in_features=1000, out_features=20, bias=True)
    (2): Linear(in_features=1000, out_features=20, bias=True)
    (3): Linear(in_features=1000, out_features=20, bias=True)
    (4): Linear(in_features=1000, out_features=20, bias=True)
    (5): Linear(in_features=1000, out_features=20, bias=True)
    (6): Linear(in_features=1000, out_features=20, bias=True)
    (7): Linear(in_features=1000, out_features=20, bias=True)
    (8): Linear(in_features=1000, out_features=20, bias=True)
    (9): Linear(in_features=1000, out_features=20, bias=True)
    (10): Linear(in_features=1000, out_features=20, bias=True)
    (11): Linear(in_features=1000, out_features=20, bias=True)
    (12): Linear(in_features=1000, out_features=20, bias=True)
    (13): Linear(in_features=1000, out_features=20, bias=True)
    (14): Linear(in_features=1000, out_features=20, bias=True)
    (15): Linear(in_features=1000, out_features=20, bias=True)
    (16): Linear(in_features=1000, out_features=20, bias=True)
    (17): Linear(in_features=1000, out_features=20, bias=True)
    (18): Linear(in_features=1000, out_features=20, bias=True)
    (19): Linear(in_features=1000, out_features=20, bias=True)
    (20): Linear(in_features=1000, out_features=20, bias=True)
    (21): Linear(in_features=1000, out_features=20, bias=True)
    (22): Linear(in_features=1000, out_features=20, bias=True)
    (23): Linear(in_features=1000, out_features=20, bias=True)
    (24): Linear(in_features=1000, out_features=20, bias=True)
  )
)
======

************************************************************************************************************
Task 25
************************************************************************************************************
| Epoch   1, time=  2.8s | Train: skip eval | Valid: time=  0.2s loss=9.267, TAw acc=  9.5% | *
| Epoch   2, time=  2.6s | Train: skip eval | Valid: time=  0.3s loss=9.226, TAw acc=  9.5% | *
…
>>> Test on task 20 : loss=1.940 | TAw acc= 97.6%, forg=  0.0%| TAg acc= 53.2%, forg= -1.6% <<<
>>> Test on task 21 : loss=1.862 | TAw acc= 95.8%, forg=  0.8%| TAg acc= 52.5%, forg=  1.7% <<<
>>> Test on task 22 : loss=2.559 | TAw acc= 93.4%, forg=  0.9%| TAg acc= 19.8%, forg= -1.9% <<<
>>> Test on task 23 : loss=2.938 | TAw acc= 86.2%, forg= -4.6%| TAg acc= 18.4%, forg= -2.3% <<<
>>> Test on task 24 : loss=2.778 | TAw acc= 97.4%, forg=-19.8%| TAg acc= 15.5%, forg= 19.8% <<<
>>> Test on task 25 : loss=3.271 | TAw acc= 73.5%, forg=  0.0%| TAg acc= 27.5%, forg=  0.0% <<<
Save at k=10/eeil_wisdm_1/wisdm_flex_eeil
======
LLL_Net(
  (model): SimpleMLP(
    (fc1): Linear(in_features=91, out_features=1000, bias=True)
    (fc2): Sequential()
  )
  (heads): ModuleList(
    (0): Linear(in_features=1000, out_features=34, bias=True)
    (1): Linear(in_features=1000, out_features=20, bias=True)
    (2): Linear(in_features=1000, out_features=20, bias=True)
    (3): Linear(in_features=1000, out_features=20, bias=True)
    (4): Linear(in_features=1000, out_features=20, bias=True)
    (5): Linear(in_features=1000, out_features=20, bias=True)
    (6): Linear(in_features=1000, out_features=20, bias=True)
    (7): Linear(in_features=1000, out_features=20, bias=True)
    (8): Linear(in_features=1000, out_features=20, bias=True)
    (9): Linear(in_features=1000, out_features=20, bias=True)
    (10): Linear(in_features=1000, out_features=20, bias=True)
    (11): Linear(in_features=1000, out_features=20, bias=True)
    (12): Linear(in_features=1000, out_features=20, bias=True)
    (13): Linear(in_features=1000, out_features=20, bias=True)
    (14): Linear(in_features=1000, out_features=20, bias=True)
    (15): Linear(in_features=1000, out_features=20, bias=True)
    (16): Linear(in_features=1000, out_features=20, bias=True)
    (17): Linear(in_features=1000, out_features=20, bias=True)
    (18): Linear(in_features=1000, out_features=20, bias=True)
    (19): Linear(in_features=1000, out_features=20, bias=True)
    (20): Linear(in_features=1000, out_features=20, bias=True)
    (21): Linear(in_features=1000, out_features=20, bias=True)
    (22): Linear(in_features=1000, out_features=20, bias=True)
    (23): Linear(in_features=1000, out_features=20, bias=True)
    (24): Linear(in_features=1000, out_features=20, bias=True)
    (25): Linear(in_features=1000, out_features=20, bias=True)
  )
)
======

************************************************************************************************************
Task 26
************************************************************************************************************
| Epoch   1, time=  2.9s | Train: skip eval | Valid: time=  0.3s loss=10.263, TAw acc=  0.0% | *
| Epoch   2, time=  2.9s | Train: skip eval | Valid: time=  0.3s loss=10.204, TAw acc=  0.0% | *
…
>>> Test on task 21 : loss=1.748 | TAw acc= 96.6%, forg=  0.0%| TAg acc= 60.2%, forg= -5.9% <<<
>>> Test on task 22 : loss=2.397 | TAw acc= 96.2%, forg= -1.9%| TAg acc= 22.6%, forg= -2.8% <<<
>>> Test on task 23 : loss=2.724 | TAw acc= 86.2%, forg=  0.0%| TAg acc= 26.4%, forg= -8.0% <<<
>>> Test on task 24 : loss=2.472 | TAw acc= 97.4%, forg=  0.0%| TAg acc= 31.9%, forg=  3.4% <<<
>>> Test on task 25 : loss=2.986 | TAw acc= 89.2%, forg=-15.7%| TAg acc= 19.6%, forg=  7.8% <<<
>>> Test on task 26 : loss=3.628 | TAw acc= 80.9%, forg=  0.0%| TAg acc= 11.7%, forg=  0.0% <<<
Save at k=10/eeil_wisdm_1/wisdm_flex_eeil
======
LLL_Net(
  (model): SimpleMLP(
    (fc1): Linear(in_features=91, out_features=1000, bias=True)
    (fc2): Sequential()
  )
  (heads): ModuleList(
    (0): Linear(in_features=1000, out_features=34, bias=True)
    (1): Linear(in_features=1000, out_features=20, bias=True)
    (2): Linear(in_features=1000, out_features=20, bias=True)
    (3): Linear(in_features=1000, out_features=20, bias=True)
    (4): Linear(in_features=1000, out_features=20, bias=True)
    (5): Linear(in_features=1000, out_features=20, bias=True)
    (6): Linear(in_features=1000, out_features=20, bias=True)
    (7): Linear(in_features=1000, out_features=20, bias=True)
    (8): Linear(in_features=1000, out_features=20, bias=True)
    (9): Linear(in_features=1000, out_features=20, bias=True)
    (10): Linear(in_features=1000, out_features=20, bias=True)
    (11): Linear(in_features=1000, out_features=20, bias=True)
    (12): Linear(in_features=1000, out_features=20, bias=True)
    (13): Linear(in_features=1000, out_features=20, bias=True)
    (14): Linear(in_features=1000, out_features=20, bias=True)
    (15): Linear(in_features=1000, out_features=20, bias=True)
    (16): Linear(in_features=1000, out_features=20, bias=True)
    (17): Linear(in_features=1000, out_features=20, bias=True)
    (18): Linear(in_features=1000, out_features=20, bias=True)
    (19): Linear(in_features=1000, out_features=20, bias=True)
    (20): Linear(in_features=1000, out_features=20, bias=True)
    (21): Linear(in_features=1000, out_features=20, bias=True)
    (22): Linear(in_features=1000, out_features=20, bias=True)
    (23): Linear(in_features=1000, out_features=20, bias=True)
    (24): Linear(in_features=1000, out_features=20, bias=True)
    (25): Linear(in_features=1000, out_features=20, bias=True)
    (26): Linear(in_features=1000, out_features=20, bias=True)
  )
)
======

************************************************************************************************************
Task 27
************************************************************************************************************
| Epoch   1, time=  2.9s | Train: skip eval | Valid: time=  0.2s loss=10.264, TAw acc=  0.0% | *
| Epoch   2, time=  3.0s | Train: skip eval | Valid: time=  0.2s loss=10.199, TAw acc=  0.0% | *
…
>>> Test on task 22 : loss=2.296 | TAw acc= 95.3%, forg=  0.9%| TAg acc= 26.4%, forg= -3.8% <<<
>>> Test on task 23 : loss=2.603 | TAw acc= 86.2%, forg=  0.0%| TAg acc= 27.6%, forg= -1.1% <<<
>>> Test on task 24 : loss=2.291 | TAw acc= 97.4%, forg=  0.0%| TAg acc= 41.4%, forg= -6.0% <<<
>>> Test on task 25 : loss=2.724 | TAw acc= 91.2%, forg= -2.0%| TAg acc= 29.4%, forg= -2.0% <<<
>>> Test on task 26 : loss=3.077 | TAw acc= 88.3%, forg= -7.4%| TAg acc=  3.2%, forg=  8.5% <<<
>>> Test on task 27 : loss=2.862 | TAw acc= 76.3%, forg=  0.0%| TAg acc= 33.9%, forg=  0.0% <<<
Save at k=10/eeil_wisdm_1/wisdm_flex_eeil
======
LLL_Net(
  (model): SimpleMLP(
    (fc1): Linear(in_features=91, out_features=1000, bias=True)
    (fc2): Sequential()
  )
  (heads): ModuleList(
    (0): Linear(in_features=1000, out_features=34, bias=True)
    (1): Linear(in_features=1000, out_features=20, bias=True)
    (2): Linear(in_features=1000, out_features=20, bias=True)
    (3): Linear(in_features=1000, out_features=20, bias=True)
    (4): Linear(in_features=1000, out_features=20, bias=True)
    (5): Linear(in_features=1000, out_features=20, bias=True)
    (6): Linear(in_features=1000, out_features=20, bias=True)
    (7): Linear(in_features=1000, out_features=20, bias=True)
    (8): Linear(in_features=1000, out_features=20, bias=True)
    (9): Linear(in_features=1000, out_features=20, bias=True)
    (10): Linear(in_features=1000, out_features=20, bias=True)
    (11): Linear(in_features=1000, out_features=20, bias=True)
    (12): Linear(in_features=1000, out_features=20, bias=True)
    (13): Linear(in_features=1000, out_features=20, bias=True)
    (14): Linear(in_features=1000, out_features=20, bias=True)
    (15): Linear(in_features=1000, out_features=20, bias=True)
    (16): Linear(in_features=1000, out_features=20, bias=True)
    (17): Linear(in_features=1000, out_features=20, bias=True)
    (18): Linear(in_features=1000, out_features=20, bias=True)
    (19): Linear(in_features=1000, out_features=20, bias=True)
    (20): Linear(in_features=1000, out_features=20, bias=True)
    (21): Linear(in_features=1000, out_features=20, bias=True)
    (22): Linear(in_features=1000, out_features=20, bias=True)
    (23): Linear(in_features=1000, out_features=20, bias=True)
    (24): Linear(in_features=1000, out_features=20, bias=True)
    (25): Linear(in_features=1000, out_features=20, bias=True)
    (26): Linear(in_features=1000, out_features=20, bias=True)
    (27): Linear(in_features=1000, out_features=20, bias=True)
  )
)
======

************************************************************************************************************
Task 28
************************************************************************************************************
| Epoch   1, time=  3.1s | Train: skip eval | Valid: time=  0.2s loss=10.100, TAw acc=  6.4% | *
| Epoch   2, time=  3.2s | Train: skip eval | Valid: time=  0.2s loss=10.039, TAw acc=  6.4% | *
…
>>> Test on task 23 : loss=2.446 | TAw acc= 86.2%, forg=  0.0%| TAg acc= 32.2%, forg= -4.6% <<<
>>> Test on task 24 : loss=2.115 | TAw acc= 98.3%, forg= -0.9%| TAg acc= 48.3%, forg= -6.9% <<<
>>> Test on task 25 : loss=2.490 | TAw acc= 92.2%, forg= -1.0%| TAg acc= 41.2%, forg=-11.8% <<<
>>> Test on task 26 : loss=2.786 | TAw acc= 90.4%, forg= -2.1%| TAg acc=  7.4%, forg=  4.3% <<<
>>> Test on task 27 : loss=2.873 | TAw acc= 91.5%, forg=-15.3%| TAg acc=  8.5%, forg= 25.4% <<<
>>> Test on task 28 : loss=3.227 | TAw acc= 71.0%, forg=  0.0%| TAg acc= 14.0%, forg=  0.0% <<<
Save at k=10/eeil_wisdm_1/wisdm_flex_eeil
======
LLL_Net(
  (model): SimpleMLP(
    (fc1): Linear(in_features=91, out_features=1000, bias=True)
    (fc2): Sequential()
  )
  (heads): ModuleList(
    (0): Linear(in_features=1000, out_features=34, bias=True)
    (1): Linear(in_features=1000, out_features=20, bias=True)
    (2): Linear(in_features=1000, out_features=20, bias=True)
    (3): Linear(in_features=1000, out_features=20, bias=True)
    (4): Linear(in_features=1000, out_features=20, bias=True)
    (5): Linear(in_features=1000, out_features=20, bias=True)
    (6): Linear(in_features=1000, out_features=20, bias=True)
    (7): Linear(in_features=1000, out_features=20, bias=True)
    (8): Linear(in_features=1000, out_features=20, bias=True)
    (9): Linear(in_features=1000, out_features=20, bias=True)
    (10): Linear(in_features=1000, out_features=20, bias=True)
    (11): Linear(in_features=1000, out_features=20, bias=True)
    (12): Linear(in_features=1000, out_features=20, bias=True)
    (13): Linear(in_features=1000, out_features=20, bias=True)
    (14): Linear(in_features=1000, out_features=20, bias=True)
    (15): Linear(in_features=1000, out_features=20, bias=True)
    (16): Linear(in_features=1000, out_features=20, bias=True)
    (17): Linear(in_features=1000, out_features=20, bias=True)
    (18): Linear(in_features=1000, out_features=20, bias=True)
    (19): Linear(in_features=1000, out_features=20, bias=True)
    (20): Linear(in_features=1000, out_features=20, bias=True)
    (21): Linear(in_features=1000, out_features=20, bias=True)
    (22): Linear(in_features=1000, out_features=20, bias=True)
    (23): Linear(in_features=1000, out_features=20, bias=True)
    (24): Linear(in_features=1000, out_features=20, bias=True)
    (25): Linear(in_features=1000, out_features=20, bias=True)
    (26): Linear(in_features=1000, out_features=20, bias=True)
    (27): Linear(in_features=1000, out_features=20, bias=True)
    (28): Linear(in_features=1000, out_features=20, bias=True)
  )
)
======

************************************************************************************************************
Task 29
************************************************************************************************************
| Epoch   1, time=  3.4s | Train: skip eval | Valid: time=  0.2s loss=10.324, TAw acc= 13.5% | *
| Epoch   2, time=  3.4s | Train: skip eval | Valid: time=  0.2s loss=10.224, TAw acc= 13.5% | *
…
>>> Test on task 24 : loss=2.068 | TAw acc= 98.3%, forg=  0.0%| TAg acc= 50.9%, forg= -2.6% <<<
>>> Test on task 25 : loss=2.348 | TAw acc= 92.2%, forg=  0.0%| TAg acc= 42.2%, forg= -1.0% <<<
>>> Test on task 26 : loss=2.673 | TAw acc= 91.5%, forg= -1.1%| TAg acc= 10.6%, forg=  1.1% <<<
>>> Test on task 27 : loss=2.637 | TAw acc= 94.1%, forg= -2.5%| TAg acc= 17.8%, forg= 16.1% <<<
>>> Test on task 28 : loss=2.918 | TAw acc= 81.3%, forg=-10.3%| TAg acc= 10.3%, forg=  3.7% <<<
>>> Test on task 29 : loss=2.378 | TAw acc= 77.2%, forg=  0.0%| TAg acc= 55.1%, forg=  0.0% <<<
Save at k=10/eeil_wisdm_1/wisdm_flex_eeil
======
LLL_Net(
  (model): SimpleMLP(
    (fc1): Linear(in_features=91, out_features=1000, bias=True)
    (fc2): Sequential()
  )
  (heads): ModuleList(
    (0): Linear(in_features=1000, out_features=34, bias=True)
    (1): Linear(in_features=1000, out_features=20, bias=True)
    (2): Linear(in_features=1000, out_features=20, bias=True)
    (3): Linear(in_features=1000, out_features=20, bias=True)
    (4): Linear(in_features=1000, out_features=20, bias=True)
    (5): Linear(in_features=1000, out_features=20, bias=True)
    (6): Linear(in_features=1000, out_features=20, bias=True)
    (7): Linear(in_features=1000, out_features=20, bias=True)
    (8): Linear(in_features=1000, out_features=20, bias=True)
    (9): Linear(in_features=1000, out_features=20, bias=True)
    (10): Linear(in_features=1000, out_features=20, bias=True)
    (11): Linear(in_features=1000, out_features=20, bias=True)
    (12): Linear(in_features=1000, out_features=20, bias=True)
    (13): Linear(in_features=1000, out_features=20, bias=True)
    (14): Linear(in_features=1000, out_features=20, bias=True)
    (15): Linear(in_features=1000, out_features=20, bias=True)
    (16): Linear(in_features=1000, out_features=20, bias=True)
    (17): Linear(in_features=1000, out_features=20, bias=True)
    (18): Linear(in_features=1000, out_features=20, bias=True)
    (19): Linear(in_features=1000, out_features=20, bias=True)
    (20): Linear(in_features=1000, out_features=20, bias=True)
    (21): Linear(in_features=1000, out_features=20, bias=True)
    (22): Linear(in_features=1000, out_features=20, bias=True)
    (23): Linear(in_features=1000, out_features=20, bias=True)
    (24): Linear(in_features=1000, out_features=20, bias=True)
    (25): Linear(in_features=1000, out_features=20, bias=True)
    (26): Linear(in_features=1000, out_features=20, bias=True)
    (27): Linear(in_features=1000, out_features=20, bias=True)
    (28): Linear(in_features=1000, out_features=20, bias=True)
    (29): Linear(in_features=1000, out_features=20, bias=True)
  )
)
======

************************************************************************************************************
Task 30
************************************************************************************************************
| Epoch   1, time=  3.7s | Train: skip eval | Valid: time=  0.2s loss=10.660, TAw acc=  7.8% | *
| Epoch   2, time=  3.6s | Train: skip eval | Valid: time=  0.2s loss=10.581, TAw acc=  7.8% | *
…
>>> Test on task 25 : loss=2.220 | TAw acc= 93.1%, forg= -1.0%| TAg acc= 47.1%, forg= -4.9% <<<
>>> Test on task 26 : loss=2.542 | TAw acc= 91.5%, forg=  0.0%| TAg acc= 19.1%, forg= -7.4% <<<
>>> Test on task 27 : loss=2.392 | TAw acc= 93.2%, forg=  0.8%| TAg acc= 32.2%, forg=  1.7% <<<
>>> Test on task 28 : loss=2.622 | TAw acc= 82.2%, forg= -0.9%| TAg acc= 15.9%, forg= -1.9% <<<
>>> Test on task 29 : loss=2.532 | TAw acc= 93.7%, forg=-16.5%| TAg acc= 25.2%, forg= 29.9% <<<
>>> Test on task 30 : loss=3.025 | TAw acc= 81.0%, forg=  0.0%| TAg acc= 31.4%, forg=  0.0% <<<
Save at k=10/eeil_wisdm_1/wisdm_flex_eeil
======
LLL_Net(
  (model): SimpleMLP(
    (fc1): Linear(in_features=91, out_features=1000, bias=True)
    (fc2): Sequential()
  )
  (heads): ModuleList(
    (0): Linear(in_features=1000, out_features=34, bias=True)
    (1): Linear(in_features=1000, out_features=20, bias=True)
    (2): Linear(in_features=1000, out_features=20, bias=True)
    (3): Linear(in_features=1000, out_features=20, bias=True)
    (4): Linear(in_features=1000, out_features=20, bias=True)
    (5): Linear(in_features=1000, out_features=20, bias=True)
    (6): Linear(in_features=1000, out_features=20, bias=True)
    (7): Linear(in_features=1000, out_features=20, bias=True)
    (8): Linear(in_features=1000, out_features=20, bias=True)
    (9): Linear(in_features=1000, out_features=20, bias=True)
    (10): Linear(in_features=1000, out_features=20, bias=True)
    (11): Linear(in_features=1000, out_features=20, bias=True)
    (12): Linear(in_features=1000, out_features=20, bias=True)
    (13): Linear(in_features=1000, out_features=20, bias=True)
    (14): Linear(in_features=1000, out_features=20, bias=True)
    (15): Linear(in_features=1000, out_features=20, bias=True)
    (16): Linear(in_features=1000, out_features=20, bias=True)
    (17): Linear(in_features=1000, out_features=20, bias=True)
    (18): Linear(in_features=1000, out_features=20, bias=True)
    (19): Linear(in_features=1000, out_features=20, bias=True)
    (20): Linear(in_features=1000, out_features=20, bias=True)
    (21): Linear(in_features=1000, out_features=20, bias=True)
    (22): Linear(in_features=1000, out_features=20, bias=True)
    (23): Linear(in_features=1000, out_features=20, bias=True)
    (24): Linear(in_features=1000, out_features=20, bias=True)
    (25): Linear(in_features=1000, out_features=20, bias=True)
    (26): Linear(in_features=1000, out_features=20, bias=True)
    (27): Linear(in_features=1000, out_features=20, bias=True)
    (28): Linear(in_features=1000, out_features=20, bias=True)
    (29): Linear(in_features=1000, out_features=20, bias=True)
    (30): Linear(in_features=1000, out_features=20, bias=True)
  )
)
======

************************************************************************************************************
Task 31
************************************************************************************************************
| Epoch   1, time=  3.9s | Train: skip eval | Valid: time=  0.2s loss=10.830, TAw acc= 17.4% | *
| Epoch   2, time=  3.9s | Train: skip eval | Valid: time=  0.2s loss=10.726, TAw acc= 18.6% | *
…
>>> Test on task 26 : loss=2.458 | TAw acc= 91.5%, forg=  0.0%| TAg acc= 21.3%, forg= -2.1% <<<
>>> Test on task 27 : loss=2.245 | TAw acc= 94.9%, forg= -0.8%| TAg acc= 40.7%, forg= -6.8% <<<
>>> Test on task 28 : loss=2.465 | TAw acc= 82.2%, forg=  0.0%| TAg acc= 23.4%, forg= -7.5% <<<
>>> Test on task 29 : loss=2.348 | TAw acc= 96.1%, forg= -2.4%| TAg acc= 24.4%, forg= 30.7% <<<
>>> Test on task 30 : loss=2.814 | TAw acc= 89.5%, forg= -8.6%| TAg acc= 13.3%, forg= 18.1% <<<
>>> Test on task 31 : loss=2.544 | TAw acc= 75.0%, forg=  0.0%| TAg acc= 48.3%, forg=  0.0% <<<
Save at k=10/eeil_wisdm_1/wisdm_flex_eeil
======
LLL_Net(
  (model): SimpleMLP(
    (fc1): Linear(in_features=91, out_features=1000, bias=True)
    (fc2): Sequential()
  )
  (heads): ModuleList(
    (0): Linear(in_features=1000, out_features=34, bias=True)
    (1): Linear(in_features=1000, out_features=20, bias=True)
    (2): Linear(in_features=1000, out_features=20, bias=True)
    (3): Linear(in_features=1000, out_features=20, bias=True)
    (4): Linear(in_features=1000, out_features=20, bias=True)
    (5): Linear(in_features=1000, out_features=20, bias=True)
    (6): Linear(in_features=1000, out_features=20, bias=True)
    (7): Linear(in_features=1000, out_features=20, bias=True)
    (8): Linear(in_features=1000, out_features=20, bias=True)
    (9): Linear(in_features=1000, out_features=20, bias=True)
    (10): Linear(in_features=1000, out_features=20, bias=True)
    (11): Linear(in_features=1000, out_features=20, bias=True)
    (12): Linear(in_features=1000, out_features=20, bias=True)
    (13): Linear(in_features=1000, out_features=20, bias=True)
    (14): Linear(in_features=1000, out_features=20, bias=True)
    (15): Linear(in_features=1000, out_features=20, bias=True)
    (16): Linear(in_features=1000, out_features=20, bias=True)
    (17): Linear(in_features=1000, out_features=20, bias=True)
    (18): Linear(in_features=1000, out_features=20, bias=True)
    (19): Linear(in_features=1000, out_features=20, bias=True)
    (20): Linear(in_features=1000, out_features=20, bias=True)
    (21): Linear(in_features=1000, out_features=20, bias=True)
    (22): Linear(in_features=1000, out_features=20, bias=True)
    (23): Linear(in_features=1000, out_features=20, bias=True)
    (24): Linear(in_features=1000, out_features=20, bias=True)
    (25): Linear(in_features=1000, out_features=20, bias=True)
    (26): Linear(in_features=1000, out_features=20, bias=True)
    (27): Linear(in_features=1000, out_features=20, bias=True)
    (28): Linear(in_features=1000, out_features=20, bias=True)
    (29): Linear(in_features=1000, out_features=20, bias=True)
    (30): Linear(in_features=1000, out_features=20, bias=True)
    (31): Linear(in_features=1000, out_features=20, bias=True)
  )
)
======

************************************************************************************************************
Task 32
************************************************************************************************************
| Epoch   1, time=  3.9s | Train: skip eval | Valid: time=  0.2s loss=10.882, TAw acc=  0.0% | *
| Epoch   2, time=  3.9s | Train: skip eval | Valid: time=  0.3s loss=10.792, TAw acc=  0.0% | *
…
>>> Test on task 27 : loss=2.146 | TAw acc= 94.9%, forg=  0.0%| TAg acc= 44.1%, forg= -3.4% <<<
>>> Test on task 28 : loss=2.392 | TAw acc= 83.2%, forg= -0.9%| TAg acc= 24.3%, forg= -0.9% <<<
>>> Test on task 29 : loss=2.147 | TAw acc= 96.1%, forg=  0.0%| TAg acc= 35.4%, forg= 19.7% <<<
>>> Test on task 30 : loss=2.552 | TAw acc= 93.3%, forg= -3.8%| TAg acc= 23.8%, forg=  7.6% <<<
>>> Test on task 31 : loss=2.404 | TAw acc= 94.0%, forg=-19.0%| TAg acc= 34.5%, forg= 13.8% <<<
>>> Test on task 32 : loss=2.459 | TAw acc= 85.8%, forg=  0.0%| TAg acc= 48.3%, forg=  0.0% <<<
Save at k=10/eeil_wisdm_1/wisdm_flex_eeil
======
LLL_Net(
  (model): SimpleMLP(
    (fc1): Linear(in_features=91, out_features=1000, bias=True)
    (fc2): Sequential()
  )
  (heads): ModuleList(
    (0): Linear(in_features=1000, out_features=34, bias=True)
    (1): Linear(in_features=1000, out_features=20, bias=True)
    (2): Linear(in_features=1000, out_features=20, bias=True)
    (3): Linear(in_features=1000, out_features=20, bias=True)
    (4): Linear(in_features=1000, out_features=20, bias=True)
    (5): Linear(in_features=1000, out_features=20, bias=True)
    (6): Linear(in_features=1000, out_features=20, bias=True)
    (7): Linear(in_features=1000, out_features=20, bias=True)
    (8): Linear(in_features=1000, out_features=20, bias=True)
    (9): Linear(in_features=1000, out_features=20, bias=True)
    (10): Linear(in_features=1000, out_features=20, bias=True)
    (11): Linear(in_features=1000, out_features=20, bias=True)
    (12): Linear(in_features=1000, out_features=20, bias=True)
    (13): Linear(in_features=1000, out_features=20, bias=True)
    (14): Linear(in_features=1000, out_features=20, bias=True)
    (15): Linear(in_features=1000, out_features=20, bias=True)
    (16): Linear(in_features=1000, out_features=20, bias=True)
    (17): Linear(in_features=1000, out_features=20, bias=True)
    (18): Linear(in_features=1000, out_features=20, bias=True)
    (19): Linear(in_features=1000, out_features=20, bias=True)
    (20): Linear(in_features=1000, out_features=20, bias=True)
    (21): Linear(in_features=1000, out_features=20, bias=True)
    (22): Linear(in_features=1000, out_features=20, bias=True)
    (23): Linear(in_features=1000, out_features=20, bias=True)
    (24): Linear(in_features=1000, out_features=20, bias=True)
    (25): Linear(in_features=1000, out_features=20, bias=True)
    (26): Linear(in_features=1000, out_features=20, bias=True)
    (27): Linear(in_features=1000, out_features=20, bias=True)
    (28): Linear(in_features=1000, out_features=20, bias=True)
    (29): Linear(in_features=1000, out_features=20, bias=True)
    (30): Linear(in_features=1000, out_features=20, bias=True)
    (31): Linear(in_features=1000, out_features=20, bias=True)
    (32): Linear(in_features=1000, out_features=20, bias=True)
  )
)
======

************************************************************************************************************
Task 33
************************************************************************************************************
| Epoch   1, time=  4.3s | Train: skip eval | Valid: time=  0.2s loss=10.972, TAw acc= 12.0% | *
| Epoch   2, time=  4.2s | Train: skip eval | Valid: time=  0.2s loss=10.898, TAw acc= 12.0% | *
…
>>> Test on task 28 : loss=2.315 | TAw acc= 83.2%, forg=  0.0%| TAg acc= 33.6%, forg= -9.3% <<<
>>> Test on task 29 : loss=2.059 | TAw acc= 96.9%, forg= -0.8%| TAg acc= 36.2%, forg= 18.9% <<<
>>> Test on task 30 : loss=2.374 | TAw acc= 95.2%, forg= -1.9%| TAg acc= 27.6%, forg=  3.8% <<<
>>> Test on task 31 : loss=2.138 | TAw acc= 94.8%, forg= -0.9%| TAg acc= 38.8%, forg=  9.5% <<<
>>> Test on task 32 : loss=2.597 | TAw acc= 88.3%, forg= -2.5%| TAg acc= 14.2%, forg= 34.2% <<<
>>> Test on task 33 : loss=3.017 | TAw acc= 76.8%, forg=  0.0%| TAg acc= 42.0%, forg=  0.0% <<<
Save at k=10/eeil_wisdm_1/wisdm_flex_eeil
======
LLL_Net(
  (model): SimpleMLP(
    (fc1): Linear(in_features=91, out_features=1000, bias=True)
    (fc2): Sequential()
  )
  (heads): ModuleList(
    (0): Linear(in_features=1000, out_features=34, bias=True)
    (1): Linear(in_features=1000, out_features=20, bias=True)
    (2): Linear(in_features=1000, out_features=20, bias=True)
    (3): Linear(in_features=1000, out_features=20, bias=True)
    (4): Linear(in_features=1000, out_features=20, bias=True)
    (5): Linear(in_features=1000, out_features=20, bias=True)
    (6): Linear(in_features=1000, out_features=20, bias=True)
    (7): Linear(in_features=1000, out_features=20, bias=True)
    (8): Linear(in_features=1000, out_features=20, bias=True)
    (9): Linear(in_features=1000, out_features=20, bias=True)
    (10): Linear(in_features=1000, out_features=20, bias=True)
    (11): Linear(in_features=1000, out_features=20, bias=True)
    (12): Linear(in_features=1000, out_features=20, bias=True)
    (13): Linear(in_features=1000, out_features=20, bias=True)
    (14): Linear(in_features=1000, out_features=20, bias=True)
    (15): Linear(in_features=1000, out_features=20, bias=True)
    (16): Linear(in_features=1000, out_features=20, bias=True)
    (17): Linear(in_features=1000, out_features=20, bias=True)
    (18): Linear(in_features=1000, out_features=20, bias=True)
    (19): Linear(in_features=1000, out_features=20, bias=True)
    (20): Linear(in_features=1000, out_features=20, bias=True)
    (21): Linear(in_features=1000, out_features=20, bias=True)
    (22): Linear(in_features=1000, out_features=20, bias=True)
    (23): Linear(in_features=1000, out_features=20, bias=True)
    (24): Linear(in_features=1000, out_features=20, bias=True)
    (25): Linear(in_features=1000, out_features=20, bias=True)
    (26): Linear(in_features=1000, out_features=20, bias=True)
    (27): Linear(in_features=1000, out_features=20, bias=True)
    (28): Linear(in_features=1000, out_features=20, bias=True)
    (29): Linear(in_features=1000, out_features=20, bias=True)
    (30): Linear(in_features=1000, out_features=20, bias=True)
    (31): Linear(in_features=1000, out_features=20, bias=True)
    (32): Linear(in_features=1000, out_features=20, bias=True)
    (33): Linear(in_features=1000, out_features=20, bias=True)
  )
)
======

************************************************************************************************************
Task 34
************************************************************************************************************
| Epoch   1, time=  4.5s | Train: skip eval | Valid: time=  0.2s loss=10.768, TAw acc=  4.8% | *
| Epoch   2, time=  4.5s | Train: skip eval | Valid: time=  0.2s loss=10.673, TAw acc= 11.9% | *
…
>>> Test on task 29 : loss=1.886 | TAw acc= 97.6%, forg= -0.8%| TAg acc= 45.7%, forg=  9.4% <<<
>>> Test on task 30 : loss=2.247 | TAw acc= 95.2%, forg=  0.0%| TAg acc= 32.4%, forg= -1.0% <<<
>>> Test on task 31 : loss=1.988 | TAw acc= 94.8%, forg=  0.0%| TAg acc= 38.8%, forg=  9.5% <<<
>>> Test on task 32 : loss=2.381 | TAw acc= 90.0%, forg= -1.7%| TAg acc= 24.2%, forg= 24.2% <<<
>>> Test on task 33 : loss=2.929 | TAw acc= 95.5%, forg=-18.8%| TAg acc=  6.2%, forg= 35.7% <<<
>>> Test on task 34 : loss=2.569 | TAw acc= 73.5%, forg=  0.0%| TAg acc= 31.0%, forg=  0.0% <<<
Save at k=10/eeil_wisdm_1/wisdm_flex_eeil
======
LLL_Net(
  (model): SimpleMLP(
    (fc1): Linear(in_features=91, out_features=1000, bias=True)
    (fc2): Sequential()
  )
  (heads): ModuleList(
    (0): Linear(in_features=1000, out_features=34, bias=True)
    (1): Linear(in_features=1000, out_features=20, bias=True)
    (2): Linear(in_features=1000, out_features=20, bias=True)
    (3): Linear(in_features=1000, out_features=20, bias=True)
    (4): Linear(in_features=1000, out_features=20, bias=True)
    (5): Linear(in_features=1000, out_features=20, bias=True)
    (6): Linear(in_features=1000, out_features=20, bias=True)
    (7): Linear(in_features=1000, out_features=20, bias=True)
    (8): Linear(in_features=1000, out_features=20, bias=True)
    (9): Linear(in_features=1000, out_features=20, bias=True)
    (10): Linear(in_features=1000, out_features=20, bias=True)
    (11): Linear(in_features=1000, out_features=20, bias=True)
    (12): Linear(in_features=1000, out_features=20, bias=True)
    (13): Linear(in_features=1000, out_features=20, bias=True)
    (14): Linear(in_features=1000, out_features=20, bias=True)
    (15): Linear(in_features=1000, out_features=20, bias=True)
    (16): Linear(in_features=1000, out_features=20, bias=True)
    (17): Linear(in_features=1000, out_features=20, bias=True)
    (18): Linear(in_features=1000, out_features=20, bias=True)
    (19): Linear(in_features=1000, out_features=20, bias=True)
    (20): Linear(in_features=1000, out_features=20, bias=True)
    (21): Linear(in_features=1000, out_features=20, bias=True)
    (22): Linear(in_features=1000, out_features=20, bias=True)
    (23): Linear(in_features=1000, out_features=20, bias=True)
    (24): Linear(in_features=1000, out_features=20, bias=True)
    (25): Linear(in_features=1000, out_features=20, bias=True)
    (26): Linear(in_features=1000, out_features=20, bias=True)
    (27): Linear(in_features=1000, out_features=20, bias=True)
    (28): Linear(in_features=1000, out_features=20, bias=True)
    (29): Linear(in_features=1000, out_features=20, bias=True)
    (30): Linear(in_features=1000, out_features=20, bias=True)
    (31): Linear(in_features=1000, out_features=20, bias=True)
    (32): Linear(in_features=1000, out_features=20, bias=True)
    (33): Linear(in_features=1000, out_features=20, bias=True)
    (34): Linear(in_features=1000, out_features=20, bias=True)
  )
)
======

************************************************************************************************************
Task 35
************************************************************************************************************
| Epoch   1, time=  4.7s | Train: skip eval | Valid: time=  0.2s loss=10.903, TAw acc=  5.8% | *
| Epoch   2, time=  4.6s | Train: skip eval | Valid: time=  0.2s loss=10.810, TAw acc=  5.8% | *
…
>>> Test on task 30 : loss=2.164 | TAw acc= 97.1%, forg= -1.9%| TAg acc= 40.0%, forg= -7.6% <<<
>>> Test on task 31 : loss=1.872 | TAw acc= 94.8%, forg=  0.0%| TAg acc= 47.4%, forg=  0.9% <<<
>>> Test on task 32 : loss=2.177 | TAw acc= 90.0%, forg=  0.0%| TAg acc= 36.7%, forg= 11.7% <<<
>>> Test on task 33 : loss=2.671 | TAw acc= 97.3%, forg= -1.8%| TAg acc= 10.7%, forg= 31.2% <<<
>>> Test on task 34 : loss=2.633 | TAw acc= 92.9%, forg=-19.5%| TAg acc= 14.2%, forg= 16.8% <<<
>>> Test on task 35 : loss=2.493 | TAw acc= 94.8%, forg=  0.0%| TAg acc= 51.3%, forg=  0.0% <<<
Save at k=10/eeil_wisdm_1/wisdm_flex_eeil
======
LLL_Net(
  (model): SimpleMLP(
    (fc1): Linear(in_features=91, out_features=1000, bias=True)
    (fc2): Sequential()
  )
  (heads): ModuleList(
    (0): Linear(in_features=1000, out_features=34, bias=True)
    (1): Linear(in_features=1000, out_features=20, bias=True)
    (2): Linear(in_features=1000, out_features=20, bias=True)
    (3): Linear(in_features=1000, out_features=20, bias=True)
    (4): Linear(in_features=1000, out_features=20, bias=True)
    (5): Linear(in_features=1000, out_features=20, bias=True)
    (6): Linear(in_features=1000, out_features=20, bias=True)
    (7): Linear(in_features=1000, out_features=20, bias=True)
    (8): Linear(in_features=1000, out_features=20, bias=True)
    (9): Linear(in_features=1000, out_features=20, bias=True)
    (10): Linear(in_features=1000, out_features=20, bias=True)
    (11): Linear(in_features=1000, out_features=20, bias=True)
    (12): Linear(in_features=1000, out_features=20, bias=True)
    (13): Linear(in_features=1000, out_features=20, bias=True)
    (14): Linear(in_features=1000, out_features=20, bias=True)
    (15): Linear(in_features=1000, out_features=20, bias=True)
    (16): Linear(in_features=1000, out_features=20, bias=True)
    (17): Linear(in_features=1000, out_features=20, bias=True)
    (18): Linear(in_features=1000, out_features=20, bias=True)
    (19): Linear(in_features=1000, out_features=20, bias=True)
    (20): Linear(in_features=1000, out_features=20, bias=True)
    (21): Linear(in_features=1000, out_features=20, bias=True)
    (22): Linear(in_features=1000, out_features=20, bias=True)
    (23): Linear(in_features=1000, out_features=20, bias=True)
    (24): Linear(in_features=1000, out_features=20, bias=True)
    (25): Linear(in_features=1000, out_features=20, bias=True)
    (26): Linear(in_features=1000, out_features=20, bias=True)
    (27): Linear(in_features=1000, out_features=20, bias=True)
    (28): Linear(in_features=1000, out_features=20, bias=True)
    (29): Linear(in_features=1000, out_features=20, bias=True)
    (30): Linear(in_features=1000, out_features=20, bias=True)
    (31): Linear(in_features=1000, out_features=20, bias=True)
    (32): Linear(in_features=1000, out_features=20, bias=True)
    (33): Linear(in_features=1000, out_features=20, bias=True)
    (34): Linear(in_features=1000, out_features=20, bias=True)
    (35): Linear(in_features=1000, out_features=20, bias=True)
  )
)
======

************************************************************************************************************
Task 36
************************************************************************************************************
| Epoch   1, time=  4.7s | Train: skip eval | Valid: time=  0.2s loss=10.866, TAw acc=  9.9% | *
| Epoch   2, time=  5.0s | Train: skip eval | Valid: time=  0.2s loss=10.769, TAw acc=  9.9% | *
…
>>> Test on task 31 : loss=1.808 | TAw acc= 94.0%, forg=  0.9%| TAg acc= 50.0%, forg= -1.7% <<<
>>> Test on task 32 : loss=2.158 | TAw acc= 90.8%, forg= -0.8%| TAg acc= 34.2%, forg= 14.2% <<<
>>> Test on task 33 : loss=2.491 | TAw acc= 97.3%, forg=  0.0%| TAg acc= 15.2%, forg= 26.8% <<<
>>> Test on task 34 : loss=2.419 | TAw acc= 93.8%, forg= -0.9%| TAg acc= 31.9%, forg= -0.9% <<<
>>> Test on task 35 : loss=2.484 | TAw acc= 93.9%, forg=  0.9%| TAg acc= 22.6%, forg= 28.7% <<<
>>> Test on task 36 : loss=2.742 | TAw acc= 84.3%, forg=  0.0%| TAg acc= 38.8%, forg=  0.0% <<<
Save at k=10/eeil_wisdm_1/wisdm_flex_eeil
======
LLL_Net(
  (model): SimpleMLP(
    (fc1): Linear(in_features=91, out_features=1000, bias=True)
    (fc2): Sequential()
  )
  (heads): ModuleList(
    (0): Linear(in_features=1000, out_features=34, bias=True)
    (1): Linear(in_features=1000, out_features=20, bias=True)
    (2): Linear(in_features=1000, out_features=20, bias=True)
    (3): Linear(in_features=1000, out_features=20, bias=True)
    (4): Linear(in_features=1000, out_features=20, bias=True)
    (5): Linear(in_features=1000, out_features=20, bias=True)
    (6): Linear(in_features=1000, out_features=20, bias=True)
    (7): Linear(in_features=1000, out_features=20, bias=True)
    (8): Linear(in_features=1000, out_features=20, bias=True)
    (9): Linear(in_features=1000, out_features=20, bias=True)
    (10): Linear(in_features=1000, out_features=20, bias=True)
    (11): Linear(in_features=1000, out_features=20, bias=True)
    (12): Linear(in_features=1000, out_features=20, bias=True)
    (13): Linear(in_features=1000, out_features=20, bias=True)
    (14): Linear(in_features=1000, out_features=20, bias=True)
    (15): Linear(in_features=1000, out_features=20, bias=True)
    (16): Linear(in_features=1000, out_features=20, bias=True)
    (17): Linear(in_features=1000, out_features=20, bias=True)
    (18): Linear(in_features=1000, out_features=20, bias=True)
    (19): Linear(in_features=1000, out_features=20, bias=True)
    (20): Linear(in_features=1000, out_features=20, bias=True)
    (21): Linear(in_features=1000, out_features=20, bias=True)
    (22): Linear(in_features=1000, out_features=20, bias=True)
    (23): Linear(in_features=1000, out_features=20, bias=True)
    (24): Linear(in_features=1000, out_features=20, bias=True)
    (25): Linear(in_features=1000, out_features=20, bias=True)
    (26): Linear(in_features=1000, out_features=20, bias=True)
    (27): Linear(in_features=1000, out_features=20, bias=True)
    (28): Linear(in_features=1000, out_features=20, bias=True)
    (29): Linear(in_features=1000, out_features=20, bias=True)
    (30): Linear(in_features=1000, out_features=20, bias=True)
    (31): Linear(in_features=1000, out_features=20, bias=True)
    (32): Linear(in_features=1000, out_features=20, bias=True)
    (33): Linear(in_features=1000, out_features=20, bias=True)
    (34): Linear(in_features=1000, out_features=20, bias=True)
    (35): Linear(in_features=1000, out_features=20, bias=True)
    (36): Linear(in_features=1000, out_features=20, bias=True)
  )
)
======

************************************************************************************************************
Task 37
************************************************************************************************************
| Epoch   1, time=  4.9s | Train: skip eval | Valid: time=  0.2s loss=12.488, TAw acc=  0.0% | *
| Epoch   2, time=  4.9s | Train: skip eval | Valid: time=  0.2s loss=12.361, TAw acc=  0.0% | *
…
>>> Test on task 32 : loss=1.970 | TAw acc= 90.0%, forg=  0.8%| TAg acc= 48.3%, forg=  0.0% <<<
>>> Test on task 33 : loss=2.363 | TAw acc= 97.3%, forg=  0.0%| TAg acc= 19.6%, forg= 22.3% <<<
>>> Test on task 34 : loss=2.247 | TAw acc= 93.8%, forg=  0.0%| TAg acc= 40.7%, forg= -8.8% <<<
>>> Test on task 35 : loss=2.234 | TAw acc= 93.9%, forg=  0.9%| TAg acc= 33.9%, forg= 17.4% <<<
>>> Test on task 36 : loss=2.639 | TAw acc= 95.0%, forg=-10.7%| TAg acc= 28.1%, forg= 10.7% <<<
>>> Test on task 37 : loss=3.096 | TAw acc= 80.6%, forg=  0.0%| TAg acc= 33.7%, forg=  0.0% <<<
Save at k=10/eeil_wisdm_1/wisdm_flex_eeil
======
LLL_Net(
  (model): SimpleMLP(
    (fc1): Linear(in_features=91, out_features=1000, bias=True)
    (fc2): Sequential()
  )
  (heads): ModuleList(
    (0): Linear(in_features=1000, out_features=34, bias=True)
    (1): Linear(in_features=1000, out_features=20, bias=True)
    (2): Linear(in_features=1000, out_features=20, bias=True)
    (3): Linear(in_features=1000, out_features=20, bias=True)
    (4): Linear(in_features=1000, out_features=20, bias=True)
    (5): Linear(in_features=1000, out_features=20, bias=True)
    (6): Linear(in_features=1000, out_features=20, bias=True)
    (7): Linear(in_features=1000, out_features=20, bias=True)
    (8): Linear(in_features=1000, out_features=20, bias=True)
    (9): Linear(in_features=1000, out_features=20, bias=True)
    (10): Linear(in_features=1000, out_features=20, bias=True)
    (11): Linear(in_features=1000, out_features=20, bias=True)
    (12): Linear(in_features=1000, out_features=20, bias=True)
    (13): Linear(in_features=1000, out_features=20, bias=True)
    (14): Linear(in_features=1000, out_features=20, bias=True)
    (15): Linear(in_features=1000, out_features=20, bias=True)
    (16): Linear(in_features=1000, out_features=20, bias=True)
    (17): Linear(in_features=1000, out_features=20, bias=True)
    (18): Linear(in_features=1000, out_features=20, bias=True)
    (19): Linear(in_features=1000, out_features=20, bias=True)
    (20): Linear(in_features=1000, out_features=20, bias=True)
    (21): Linear(in_features=1000, out_features=20, bias=True)
    (22): Linear(in_features=1000, out_features=20, bias=True)
    (23): Linear(in_features=1000, out_features=20, bias=True)
    (24): Linear(in_features=1000, out_features=20, bias=True)
    (25): Linear(in_features=1000, out_features=20, bias=True)
    (26): Linear(in_features=1000, out_features=20, bias=True)
    (27): Linear(in_features=1000, out_features=20, bias=True)
    (28): Linear(in_features=1000, out_features=20, bias=True)
    (29): Linear(in_features=1000, out_features=20, bias=True)
    (30): Linear(in_features=1000, out_features=20, bias=True)
    (31): Linear(in_features=1000, out_features=20, bias=True)
    (32): Linear(in_features=1000, out_features=20, bias=True)
    (33): Linear(in_features=1000, out_features=20, bias=True)
    (34): Linear(in_features=1000, out_features=20, bias=True)
    (35): Linear(in_features=1000, out_features=20, bias=True)
    (36): Linear(in_features=1000, out_features=20, bias=True)
    (37): Linear(in_features=1000, out_features=20, bias=True)
  )
)
======

************************************************************************************************************
Task 38
************************************************************************************************************
| Epoch   1, time=  5.3s | Train: skip eval | Valid: time=  0.2s loss=12.017, TAw acc= 17.7% | *
| Epoch   2, time=  5.2s | Train: skip eval | Valid: time=  0.2s loss=11.908, TAw acc= 21.5% | *
…
>>> Test on task 33 : loss=2.262 | TAw acc= 97.3%, forg=  0.0%| TAg acc= 27.7%, forg= 14.3% <<<
>>> Test on task 34 : loss=2.162 | TAw acc= 93.8%, forg=  0.0%| TAg acc= 46.9%, forg= -6.2% <<<
>>> Test on task 35 : loss=2.093 | TAw acc= 93.9%, forg=  0.9%| TAg acc= 41.7%, forg=  9.6% <<<
>>> Test on task 36 : loss=2.460 | TAw acc= 95.9%, forg= -0.8%| TAg acc= 33.9%, forg=  5.0% <<<
>>> Test on task 37 : loss=2.649 | TAw acc= 94.9%, forg=-14.3%| TAg acc= 26.5%, forg=  7.1% <<<
>>> Test on task 38 : loss=2.262 | TAw acc= 87.2%, forg=  0.0%| TAg acc= 43.1%, forg=  0.0% <<<
Save at k=10/eeil_wisdm_1/wisdm_flex_eeil
======
LLL_Net(
  (model): SimpleMLP(
    (fc1): Linear(in_features=91, out_features=1000, bias=True)
    (fc2): Sequential()
  )
  (heads): ModuleList(
    (0): Linear(in_features=1000, out_features=34, bias=True)
    (1): Linear(in_features=1000, out_features=20, bias=True)
    (2): Linear(in_features=1000, out_features=20, bias=True)
    (3): Linear(in_features=1000, out_features=20, bias=True)
    (4): Linear(in_features=1000, out_features=20, bias=True)
    (5): Linear(in_features=1000, out_features=20, bias=True)
    (6): Linear(in_features=1000, out_features=20, bias=True)
    (7): Linear(in_features=1000, out_features=20, bias=True)
    (8): Linear(in_features=1000, out_features=20, bias=True)
    (9): Linear(in_features=1000, out_features=20, bias=True)
    (10): Linear(in_features=1000, out_features=20, bias=True)
    (11): Linear(in_features=1000, out_features=20, bias=True)
    (12): Linear(in_features=1000, out_features=20, bias=True)
    (13): Linear(in_features=1000, out_features=20, bias=True)
    (14): Linear(in_features=1000, out_features=20, bias=True)
    (15): Linear(in_features=1000, out_features=20, bias=True)
    (16): Linear(in_features=1000, out_features=20, bias=True)
    (17): Linear(in_features=1000, out_features=20, bias=True)
    (18): Linear(in_features=1000, out_features=20, bias=True)
    (19): Linear(in_features=1000, out_features=20, bias=True)
    (20): Linear(in_features=1000, out_features=20, bias=True)
    (21): Linear(in_features=1000, out_features=20, bias=True)
    (22): Linear(in_features=1000, out_features=20, bias=True)
    (23): Linear(in_features=1000, out_features=20, bias=True)
    (24): Linear(in_features=1000, out_features=20, bias=True)
    (25): Linear(in_features=1000, out_features=20, bias=True)
    (26): Linear(in_features=1000, out_features=20, bias=True)
    (27): Linear(in_features=1000, out_features=20, bias=True)
    (28): Linear(in_features=1000, out_features=20, bias=True)
    (29): Linear(in_features=1000, out_features=20, bias=True)
    (30): Linear(in_features=1000, out_features=20, bias=True)
    (31): Linear(in_features=1000, out_features=20, bias=True)
    (32): Linear(in_features=1000, out_features=20, bias=True)
    (33): Linear(in_features=1000, out_features=20, bias=True)
    (34): Linear(in_features=1000, out_features=20, bias=True)
    (35): Linear(in_features=1000, out_features=20, bias=True)
    (36): Linear(in_features=1000, out_features=20, bias=True)
    (37): Linear(in_features=1000, out_features=20, bias=True)
    (38): Linear(in_features=1000, out_features=20, bias=True)
  )
)
======

************************************************************************************************************
Task 39
************************************************************************************************************
| Epoch   1, time=  5.9s | Train: skip eval | Valid: time=  0.3s loss=11.563, TAw acc= 13.6% | *
| Epoch   2, time=  5.8s | Train: skip eval | Valid: time=  0.2s loss=11.475, TAw acc= 13.6% | *
…
>>> Test on task 34 : loss=2.123 | TAw acc= 93.8%, forg=  0.0%| TAg acc= 46.0%, forg=  0.9% <<<
>>> Test on task 35 : loss=1.978 | TAw acc= 93.0%, forg=  1.7%| TAg acc= 47.0%, forg=  4.3% <<<
>>> Test on task 36 : loss=2.255 | TAw acc= 97.5%, forg= -1.7%| TAg acc= 45.5%, forg= -6.6% <<<
>>> Test on task 37 : loss=2.401 | TAw acc= 94.9%, forg=  0.0%| TAg acc= 28.6%, forg=  5.1% <<<
>>> Test on task 38 : loss=2.313 | TAw acc= 98.2%, forg=-11.0%| TAg acc= 24.8%, forg= 18.3% <<<
>>> Test on task 39 : loss=2.442 | TAw acc= 86.4%, forg=  0.0%| TAg acc= 49.2%, forg=  0.0% <<<
Save at k=10/eeil_wisdm_1/wisdm_flex_eeil
======
LLL_Net(
  (model): SimpleMLP(
    (fc1): Linear(in_features=91, out_features=1000, bias=True)
    (fc2): Sequential()
  )
  (heads): ModuleList(
    (0): Linear(in_features=1000, out_features=34, bias=True)
    (1): Linear(in_features=1000, out_features=20, bias=True)
    (2): Linear(in_features=1000, out_features=20, bias=True)
    (3): Linear(in_features=1000, out_features=20, bias=True)
    (4): Linear(in_features=1000, out_features=20, bias=True)
    (5): Linear(in_features=1000, out_features=20, bias=True)
    (6): Linear(in_features=1000, out_features=20, bias=True)
    (7): Linear(in_features=1000, out_features=20, bias=True)
    (8): Linear(in_features=1000, out_features=20, bias=True)
    (9): Linear(in_features=1000, out_features=20, bias=True)
    (10): Linear(in_features=1000, out_features=20, bias=True)
    (11): Linear(in_features=1000, out_features=20, bias=True)
    (12): Linear(in_features=1000, out_features=20, bias=True)
    (13): Linear(in_features=1000, out_features=20, bias=True)
    (14): Linear(in_features=1000, out_features=20, bias=True)
    (15): Linear(in_features=1000, out_features=20, bias=True)
    (16): Linear(in_features=1000, out_features=20, bias=True)
    (17): Linear(in_features=1000, out_features=20, bias=True)
    (18): Linear(in_features=1000, out_features=20, bias=True)
    (19): Linear(in_features=1000, out_features=20, bias=True)
    (20): Linear(in_features=1000, out_features=20, bias=True)
    (21): Linear(in_features=1000, out_features=20, bias=True)
    (22): Linear(in_features=1000, out_features=20, bias=True)
    (23): Linear(in_features=1000, out_features=20, bias=True)
    (24): Linear(in_features=1000, out_features=20, bias=True)
    (25): Linear(in_features=1000, out_features=20, bias=True)
    (26): Linear(in_features=1000, out_features=20, bias=True)
    (27): Linear(in_features=1000, out_features=20, bias=True)
    (28): Linear(in_features=1000, out_features=20, bias=True)
    (29): Linear(in_features=1000, out_features=20, bias=True)
    (30): Linear(in_features=1000, out_features=20, bias=True)
    (31): Linear(in_features=1000, out_features=20, bias=True)
    (32): Linear(in_features=1000, out_features=20, bias=True)
    (33): Linear(in_features=1000, out_features=20, bias=True)
    (34): Linear(in_features=1000, out_features=20, bias=True)
    (35): Linear(in_features=1000, out_features=20, bias=True)
    (36): Linear(in_features=1000, out_features=20, bias=True)
    (37): Linear(in_features=1000, out_features=20, bias=True)
    (38): Linear(in_features=1000, out_features=20, bias=True)
    (39): Linear(in_features=1000, out_features=20, bias=True)
  )
)
======

************************************************************************************************************
Task 40
************************************************************************************************************
| Epoch   1, time=  6.0s | Train: skip eval | Valid: time=  0.2s loss=12.531, TAw acc=  3.4% | *
| Epoch   2, time=  5.9s | Train: skip eval | Valid: time=  0.2s loss=12.402, TAw acc=  4.6% | *
…
>>> Test on task 35 : loss=1.904 | TAw acc= 93.0%, forg=  1.7%| TAg acc= 52.2%, forg= -0.9% <<<
>>> Test on task 36 : loss=2.123 | TAw acc= 97.5%, forg=  0.0%| TAg acc= 52.1%, forg= -6.6% <<<
>>> Test on task 37 : loss=2.196 | TAw acc= 94.9%, forg=  0.0%| TAg acc= 41.8%, forg= -8.2% <<<
>>> Test on task 38 : loss=2.098 | TAw acc= 98.2%, forg=  0.0%| TAg acc= 30.3%, forg= 12.8% <<<
>>> Test on task 39 : loss=2.640 | TAw acc= 97.5%, forg=-11.0%| TAg acc= 22.9%, forg= 26.3% <<<
>>> Test on task 40 : loss=2.516 | TAw acc= 76.9%, forg=  0.0%| TAg acc= 35.9%, forg=  0.0% <<<
Save at k=10/eeil_wisdm_1/wisdm_flex_eeil
======
LLL_Net(
  (model): SimpleMLP(
    (fc1): Linear(in_features=91, out_features=1000, bias=True)
    (fc2): Sequential()
  )
  (heads): ModuleList(
    (0): Linear(in_features=1000, out_features=34, bias=True)
    (1): Linear(in_features=1000, out_features=20, bias=True)
    (2): Linear(in_features=1000, out_features=20, bias=True)
    (3): Linear(in_features=1000, out_features=20, bias=True)
    (4): Linear(in_features=1000, out_features=20, bias=True)
    (5): Linear(in_features=1000, out_features=20, bias=True)
    (6): Linear(in_features=1000, out_features=20, bias=True)
    (7): Linear(in_features=1000, out_features=20, bias=True)
    (8): Linear(in_features=1000, out_features=20, bias=True)
    (9): Linear(in_features=1000, out_features=20, bias=True)
    (10): Linear(in_features=1000, out_features=20, bias=True)
    (11): Linear(in_features=1000, out_features=20, bias=True)
    (12): Linear(in_features=1000, out_features=20, bias=True)
    (13): Linear(in_features=1000, out_features=20, bias=True)
    (14): Linear(in_features=1000, out_features=20, bias=True)
    (15): Linear(in_features=1000, out_features=20, bias=True)
    (16): Linear(in_features=1000, out_features=20, bias=True)
    (17): Linear(in_features=1000, out_features=20, bias=True)
    (18): Linear(in_features=1000, out_features=20, bias=True)
    (19): Linear(in_features=1000, out_features=20, bias=True)
    (20): Linear(in_features=1000, out_features=20, bias=True)
    (21): Linear(in_features=1000, out_features=20, bias=True)
    (22): Linear(in_features=1000, out_features=20, bias=True)
    (23): Linear(in_features=1000, out_features=20, bias=True)
    (24): Linear(in_features=1000, out_features=20, bias=True)
    (25): Linear(in_features=1000, out_features=20, bias=True)
    (26): Linear(in_features=1000, out_features=20, bias=True)
    (27): Linear(in_features=1000, out_features=20, bias=True)
    (28): Linear(in_features=1000, out_features=20, bias=True)
    (29): Linear(in_features=1000, out_features=20, bias=True)
    (30): Linear(in_features=1000, out_features=20, bias=True)
    (31): Linear(in_features=1000, out_features=20, bias=True)
    (32): Linear(in_features=1000, out_features=20, bias=True)
    (33): Linear(in_features=1000, out_features=20, bias=True)
    (34): Linear(in_features=1000, out_features=20, bias=True)
    (35): Linear(in_features=1000, out_features=20, bias=True)
    (36): Linear(in_features=1000, out_features=20, bias=True)
    (37): Linear(in_features=1000, out_features=20, bias=True)
    (38): Linear(in_features=1000, out_features=20, bias=True)
    (39): Linear(in_features=1000, out_features=20, bias=True)
    (40): Linear(in_features=1000, out_features=20, bias=True)
  )
)
======

************************************************************************************************************
Task 41
************************************************************************************************************
| Epoch   1, time=  6.1s | Train: skip eval | Valid: time=  0.2s loss=11.966, TAw acc=  2.0% | *
| Epoch   2, time=  6.2s | Train: skip eval | Valid: time=  0.3s loss=11.843, TAw acc=  2.0% | *
…
>>> Test on task 36 : loss=2.051 | TAw acc= 97.5%, forg=  0.0%| TAg acc= 54.5%, forg= -2.5% <<<
>>> Test on task 37 : loss=2.070 | TAw acc= 95.9%, forg= -1.0%| TAg acc= 50.0%, forg= -8.2% <<<
>>> Test on task 38 : loss=1.983 | TAw acc= 99.1%, forg= -0.9%| TAg acc= 34.9%, forg=  8.3% <<<
>>> Test on task 39 : loss=2.338 | TAw acc= 97.5%, forg=  0.0%| TAg acc= 31.4%, forg= 17.8% <<<
>>> Test on task 40 : loss=2.574 | TAw acc= 84.6%, forg= -7.7%| TAg acc= 18.8%, forg= 17.1% <<<
>>> Test on task 41 : loss=2.432 | TAw acc= 85.7%, forg=  0.0%| TAg acc= 48.1%, forg=  0.0% <<<
Save at k=10/eeil_wisdm_1/wisdm_flex_eeil
======
LLL_Net(
  (model): SimpleMLP(
    (fc1): Linear(in_features=91, out_features=1000, bias=True)
    (fc2): Sequential()
  )
  (heads): ModuleList(
    (0): Linear(in_features=1000, out_features=34, bias=True)
    (1): Linear(in_features=1000, out_features=20, bias=True)
    (2): Linear(in_features=1000, out_features=20, bias=True)
    (3): Linear(in_features=1000, out_features=20, bias=True)
    (4): Linear(in_features=1000, out_features=20, bias=True)
    (5): Linear(in_features=1000, out_features=20, bias=True)
    (6): Linear(in_features=1000, out_features=20, bias=True)
    (7): Linear(in_features=1000, out_features=20, bias=True)
    (8): Linear(in_features=1000, out_features=20, bias=True)
    (9): Linear(in_features=1000, out_features=20, bias=True)
    (10): Linear(in_features=1000, out_features=20, bias=True)
    (11): Linear(in_features=1000, out_features=20, bias=True)
    (12): Linear(in_features=1000, out_features=20, bias=True)
    (13): Linear(in_features=1000, out_features=20, bias=True)
    (14): Linear(in_features=1000, out_features=20, bias=True)
    (15): Linear(in_features=1000, out_features=20, bias=True)
    (16): Linear(in_features=1000, out_features=20, bias=True)
    (17): Linear(in_features=1000, out_features=20, bias=True)
    (18): Linear(in_features=1000, out_features=20, bias=True)
    (19): Linear(in_features=1000, out_features=20, bias=True)
    (20): Linear(in_features=1000, out_features=20, bias=True)
    (21): Linear(in_features=1000, out_features=20, bias=True)
    (22): Linear(in_features=1000, out_features=20, bias=True)
    (23): Linear(in_features=1000, out_features=20, bias=True)
    (24): Linear(in_features=1000, out_features=20, bias=True)
    (25): Linear(in_features=1000, out_features=20, bias=True)
    (26): Linear(in_features=1000, out_features=20, bias=True)
    (27): Linear(in_features=1000, out_features=20, bias=True)
    (28): Linear(in_features=1000, out_features=20, bias=True)
    (29): Linear(in_features=1000, out_features=20, bias=True)
    (30): Linear(in_features=1000, out_features=20, bias=True)
    (31): Linear(in_features=1000, out_features=20, bias=True)
    (32): Linear(in_features=1000, out_features=20, bias=True)
    (33): Linear(in_features=1000, out_features=20, bias=True)
    (34): Linear(in_features=1000, out_features=20, bias=True)
    (35): Linear(in_features=1000, out_features=20, bias=True)
    (36): Linear(in_features=1000, out_features=20, bias=True)
    (37): Linear(in_features=1000, out_features=20, bias=True)
    (38): Linear(in_features=1000, out_features=20, bias=True)
    (39): Linear(in_features=1000, out_features=20, bias=True)
    (40): Linear(in_features=1000, out_features=20, bias=True)
    (41): Linear(in_features=1000, out_features=20, bias=True)
  )
)
======

************************************************************************************************************
Task 42
************************************************************************************************************
| Epoch   1, time=  6.2s | Train: skip eval | Valid: time=  0.2s loss=11.863, TAw acc= 18.4% | *
| Epoch   2, time=  6.5s | Train: skip eval | Valid: time=  0.2s loss=11.792, TAw acc= 25.0% | *
…
>>> Test on task 37 : loss=1.984 | TAw acc= 96.9%, forg= -1.0%| TAg acc= 56.1%, forg= -6.1% <<<
>>> Test on task 38 : loss=1.889 | TAw acc= 98.2%, forg=  0.9%| TAg acc= 36.7%, forg=  6.4% <<<
>>> Test on task 39 : loss=2.126 | TAw acc= 97.5%, forg=  0.0%| TAg acc= 37.3%, forg= 11.9% <<<
>>> Test on task 40 : loss=2.268 | TAw acc= 84.6%, forg=  0.0%| TAg acc= 26.5%, forg=  9.4% <<<
>>> Test on task 41 : loss=2.604 | TAw acc= 92.5%, forg= -6.8%| TAg acc= 23.3%, forg= 24.8% <<<
>>> Test on task 42 : loss=3.067 | TAw acc= 82.5%, forg=  0.0%| TAg acc= 30.1%, forg=  0.0% <<<
Save at k=10/eeil_wisdm_1/wisdm_flex_eeil
======
LLL_Net(
  (model): SimpleMLP(
    (fc1): Linear(in_features=91, out_features=1000, bias=True)
    (fc2): Sequential()
  )
  (heads): ModuleList(
    (0): Linear(in_features=1000, out_features=34, bias=True)
    (1): Linear(in_features=1000, out_features=20, bias=True)
    (2): Linear(in_features=1000, out_features=20, bias=True)
    (3): Linear(in_features=1000, out_features=20, bias=True)
    (4): Linear(in_features=1000, out_features=20, bias=True)
    (5): Linear(in_features=1000, out_features=20, bias=True)
    (6): Linear(in_features=1000, out_features=20, bias=True)
    (7): Linear(in_features=1000, out_features=20, bias=True)
    (8): Linear(in_features=1000, out_features=20, bias=True)
    (9): Linear(in_features=1000, out_features=20, bias=True)
    (10): Linear(in_features=1000, out_features=20, bias=True)
    (11): Linear(in_features=1000, out_features=20, bias=True)
    (12): Linear(in_features=1000, out_features=20, bias=True)
    (13): Linear(in_features=1000, out_features=20, bias=True)
    (14): Linear(in_features=1000, out_features=20, bias=True)
    (15): Linear(in_features=1000, out_features=20, bias=True)
    (16): Linear(in_features=1000, out_features=20, bias=True)
    (17): Linear(in_features=1000, out_features=20, bias=True)
    (18): Linear(in_features=1000, out_features=20, bias=True)
    (19): Linear(in_features=1000, out_features=20, bias=True)
    (20): Linear(in_features=1000, out_features=20, bias=True)
    (21): Linear(in_features=1000, out_features=20, bias=True)
    (22): Linear(in_features=1000, out_features=20, bias=True)
    (23): Linear(in_features=1000, out_features=20, bias=True)
    (24): Linear(in_features=1000, out_features=20, bias=True)
    (25): Linear(in_features=1000, out_features=20, bias=True)
    (26): Linear(in_features=1000, out_features=20, bias=True)
    (27): Linear(in_features=1000, out_features=20, bias=True)
    (28): Linear(in_features=1000, out_features=20, bias=True)
    (29): Linear(in_features=1000, out_features=20, bias=True)
    (30): Linear(in_features=1000, out_features=20, bias=True)
    (31): Linear(in_features=1000, out_features=20, bias=True)
    (32): Linear(in_features=1000, out_features=20, bias=True)
    (33): Linear(in_features=1000, out_features=20, bias=True)
    (34): Linear(in_features=1000, out_features=20, bias=True)
    (35): Linear(in_features=1000, out_features=20, bias=True)
    (36): Linear(in_features=1000, out_features=20, bias=True)
    (37): Linear(in_features=1000, out_features=20, bias=True)
    (38): Linear(in_features=1000, out_features=20, bias=True)
    (39): Linear(in_features=1000, out_features=20, bias=True)
    (40): Linear(in_features=1000, out_features=20, bias=True)
    (41): Linear(in_features=1000, out_features=20, bias=True)
    (42): Linear(in_features=1000, out_features=20, bias=True)
  )
)
======

************************************************************************************************************
Task 43
************************************************************************************************************
| Epoch   1, time=  6.7s | Train: skip eval | Valid: time=  0.2s loss=11.957, TAw acc=  9.5% | *
| Epoch   2, time=  6.6s | Train: skip eval | Valid: time=  0.2s loss=11.844, TAw acc= 10.7% | *
…
