…
| Selected 1432 train exemplars, time=  0.0s
1432
------------------------------------------------------------------------------------------------------------
>>> Test on task  0 : loss=1.030 | TAw acc= 92.4%, forg= -0.7%| TAg acc= 79.2%, forg=  2.8% <<<
>>> Test on task  1 : loss=1.266 | TAw acc= 93.3%, forg= -7.5%| TAg acc= 79.2%, forg=-15.8% <<<
>>> Test on task  2 : loss=1.158 | TAw acc= 95.0%, forg= -6.7%| TAg acc= 77.5%, forg=  0.0% <<<
>>> Test on task  3 : loss=1.350 | TAw acc= 88.3%, forg=  0.0%| TAg acc= 50.8%, forg=  0.0% <<<
Save at k=100/eeil_e5_dsads_1/har_flex_eeil
======
LLL_Net(
  (model): SimpleMLP(
    (fc1): Linear(in_features=405, out_features=66, bias=True)
    (fc2): Sequential()
  )
  (heads): ModuleList(
    (0): Linear(in_features=66, out_features=12, bias=True)
    (1): Linear(in_features=66, out_features=10, bias=True)
    (2): Linear(in_features=66, out_features=10, bias=True)
    (3): Linear(in_features=66, out_features=10, bias=True)
  )
)
======

************************************************************************************************************
Task  4
************************************************************************************************************
| Epoch   1, time=  0.4s | Train: skip eval | Valid: time=  0.2s loss=3.440, TAw acc= 34.4% | *
| Epoch   2, time=  0.4s | Train: skip eval | Valid: time=  0.2s loss=2.809, TAw acc= 65.6% | *
…
------------------------------------------------------------------------------------------------------------
>>> Test on task  0 : loss=0.864 | TAw acc= 91.7%, forg=  0.7%| TAg acc= 82.6%, forg= -0.7% <<<
>>> Test on task  1 : loss=1.160 | TAw acc= 94.2%, forg= -0.8%| TAg acc= 74.2%, forg=  5.0% <<<
>>> Test on task  2 : loss=0.990 | TAw acc= 94.2%, forg=  0.8%| TAg acc= 79.2%, forg= -1.7% <<<
>>> Test on task  3 : loss=1.046 | TAw acc= 97.5%, forg= -9.2%| TAg acc= 74.2%, forg=-23.3% <<<
>>> Test on task  4 : loss=1.209 | TAw acc= 98.3%, forg=  0.0%| TAg acc= 85.0%, forg=  0.0% <<<
Save at k=100/eeil_e5_dsads_1/har_flex_eeil
======
LLL_Net(
  (model): SimpleMLP(
    (fc1): Linear(in_features=405, out_features=66, bias=True)
    (fc2): Sequential()
  )
  (heads): ModuleList(
    (0): Linear(in_features=66, out_features=12, bias=True)
    (1): Linear(in_features=66, out_features=10, bias=True)
    (2): Linear(in_features=66, out_features=10, bias=True)
    (3): Linear(in_features=66, out_features=10, bias=True)
    (4): Linear(in_features=66, out_features=10, bias=True)
  )
)
======

************************************************************************************************************
Task  5
************************************************************************************************************
| Epoch   1, time=  0.5s | Train: skip eval | Valid: time=  0.1s loss=3.743, TAw acc= 34.4% | *
| Epoch   2, time=  0.5s | Train: skip eval | Valid: time=  0.1s loss=2.760, TAw acc= 43.8% | *
…
>>> Test on task  0 : loss=0.808 | TAw acc= 94.4%, forg= -2.1%| TAg acc= 81.9%, forg=  0.7% <<<
>>> Test on task  1 : loss=1.114 | TAw acc= 95.8%, forg= -1.7%| TAg acc= 75.8%, forg=  3.3% <<<
>>> Test on task  2 : loss=0.906 | TAw acc= 95.0%, forg=  0.0%| TAg acc= 81.7%, forg= -2.5% <<<
>>> Test on task  3 : loss=0.921 | TAw acc= 97.5%, forg=  0.0%| TAg acc= 80.8%, forg= -6.7% <<<
>>> Test on task  4 : loss=0.878 | TAw acc= 99.2%, forg= -0.8%| TAg acc= 93.3%, forg= -8.3% <<<
>>> Test on task  5 : loss=1.145 | TAw acc= 99.2%, forg=  0.0%| TAg acc= 77.5%, forg=  0.0% <<<
Save at k=100/eeil_e5_dsads_1/har_flex_eeil
======
LLL_Net(
  (model): SimpleMLP(
    (fc1): Linear(in_features=405, out_features=66, bias=True)
    (fc2): Sequential()
  )
  (heads): ModuleList(
    (0): Linear(in_features=66, out_features=12, bias=True)
    (1): Linear(in_features=66, out_features=10, bias=True)
    (2): Linear(in_features=66, out_features=10, bias=True)
    (3): Linear(in_features=66, out_features=10, bias=True)
    (4): Linear(in_features=66, out_features=10, bias=True)
    (5): Linear(in_features=66, out_features=10, bias=True)
  )
)
======

************************************************************************************************************
Task  6
************************************************************************************************************
| Epoch   1, time=  0.6s | Train: skip eval | Valid: time=  0.1s loss=4.279, TAw acc= 47.9% | *
| Epoch   2, time=  0.6s | Train: skip eval | Valid: time=  0.1s loss=3.102, TAw acc= 67.7% | *
…
>>> Test on task  1 : loss=1.091 | TAw acc= 95.0%, forg=  0.8%| TAg acc= 75.8%, forg=  3.3% <<<
>>> Test on task  2 : loss=0.857 | TAw acc= 96.7%, forg= -1.7%| TAg acc= 82.5%, forg= -0.8% <<<
>>> Test on task  3 : loss=0.834 | TAw acc= 96.7%, forg=  0.8%| TAg acc= 80.8%, forg=  0.0% <<<
>>> Test on task  4 : loss=0.687 | TAw acc= 99.2%, forg=  0.0%| TAg acc= 95.8%, forg= -2.5% <<<
>>> Test on task  5 : loss=0.896 | TAw acc= 99.2%, forg=  0.0%| TAg acc= 81.7%, forg= -4.2% <<<
>>> Test on task  6 : loss=1.078 | TAw acc= 92.5%, forg=  0.0%| TAg acc= 76.7%, forg=  0.0% <<<
Save at k=100/eeil_e5_dsads_1/har_flex_eeil
======
LLL_Net(
  (model): SimpleMLP(
    (fc1): Linear(in_features=405, out_features=66, bias=True)
    (fc2): Sequential()
  )
  (heads): ModuleList(
    (0): Linear(in_features=66, out_features=12, bias=True)
    (1): Linear(in_features=66, out_features=10, bias=True)
    (2): Linear(in_features=66, out_features=10, bias=True)
    (3): Linear(in_features=66, out_features=10, bias=True)
    (4): Linear(in_features=66, out_features=10, bias=True)
    (5): Linear(in_features=66, out_features=10, bias=True)
    (6): Linear(in_features=66, out_features=10, bias=True)
  )
)
======

************************************************************************************************************
Task  7
************************************************************************************************************
| Epoch   1, time=  0.8s | Train: skip eval | Valid: time=  0.2s loss=4.145, TAw acc= 47.9% | *
| Epoch   2, time=  0.8s | Train: skip eval | Valid: time=  0.2s loss=3.104, TAw acc= 74.0% | *
…
>>> Test on task  2 : loss=0.757 | TAw acc= 96.7%, forg=  0.0%| TAg acc= 82.5%, forg=  0.0% <<<
>>> Test on task  3 : loss=0.844 | TAw acc= 99.2%, forg= -1.7%| TAg acc= 80.0%, forg=  0.8% <<<
>>> Test on task  4 : loss=0.489 | TAw acc=100.0%, forg= -0.8%| TAg acc= 95.8%, forg=  0.0% <<<
>>> Test on task  5 : loss=0.785 | TAw acc= 99.2%, forg=  0.0%| TAg acc= 80.0%, forg=  1.7% <<<
>>> Test on task  6 : loss=1.029 | TAw acc= 93.3%, forg= -0.8%| TAg acc= 75.0%, forg=  1.7% <<<
>>> Test on task  7 : loss=1.058 | TAw acc= 95.8%, forg=  0.0%| TAg acc= 73.3%, forg=  0.0% <<<
Save at k=100/eeil_e5_dsads_1/har_flex_eeil
======
LLL_Net(
  (model): SimpleMLP(
    (fc1): Linear(in_features=405, out_features=66, bias=True)
    (fc2): Sequential()
  )
  (heads): ModuleList(
    (0): Linear(in_features=66, out_features=12, bias=True)
    (1): Linear(in_features=66, out_features=10, bias=True)
    (2): Linear(in_features=66, out_features=10, bias=True)
    (3): Linear(in_features=66, out_features=10, bias=True)
    (4): Linear(in_features=66, out_features=10, bias=True)
    (5): Linear(in_features=66, out_features=10, bias=True)
    (6): Linear(in_features=66, out_features=10, bias=True)
    (7): Linear(in_features=66, out_features=10, bias=True)
  )
)
======

************************************************************************************************************
Task  8
************************************************************************************************************
| Epoch   1, time=  0.9s | Train: skip eval | Valid: time=  0.1s loss=4.669, TAw acc= 49.0% | *
| Epoch   2, time=  0.8s | Train: skip eval | Valid: time=  0.1s loss=2.757, TAw acc= 60.4% | *
…
>>> Test on task  3 : loss=0.818 | TAw acc= 99.2%, forg=  0.0%| TAg acc= 80.8%, forg=  0.0% <<<
>>> Test on task  4 : loss=0.394 | TAw acc=100.0%, forg=  0.0%| TAg acc= 95.8%, forg=  0.0% <<<
>>> Test on task  5 : loss=0.683 | TAw acc= 99.2%, forg=  0.0%| TAg acc= 89.2%, forg= -7.5% <<<
>>> Test on task  6 : loss=0.836 | TAw acc= 94.2%, forg= -0.8%| TAg acc= 81.7%, forg= -5.0% <<<
>>> Test on task  7 : loss=0.967 | TAw acc= 96.7%, forg= -0.8%| TAg acc= 80.0%, forg= -6.7% <<<
>>> Test on task  8 : loss=1.087 | TAw acc= 92.5%, forg=  0.0%| TAg acc= 75.8%, forg=  0.0% <<<
Save at k=100/eeil_e5_dsads_1/har_flex_eeil
======
LLL_Net(
  (model): SimpleMLP(
    (fc1): Linear(in_features=405, out_features=66, bias=True)
    (fc2): Sequential()
  )
  (heads): ModuleList(
    (0): Linear(in_features=66, out_features=12, bias=True)
    (1): Linear(in_features=66, out_features=10, bias=True)
    (2): Linear(in_features=66, out_features=10, bias=True)
    (3): Linear(in_features=66, out_features=10, bias=True)
    (4): Linear(in_features=66, out_features=10, bias=True)
    (5): Linear(in_features=66, out_features=10, bias=True)
    (6): Linear(in_features=66, out_features=10, bias=True)
    (7): Linear(in_features=66, out_features=10, bias=True)
    (8): Linear(in_features=66, out_features=10, bias=True)
  )
)
======

************************************************************************************************************
Task  9
************************************************************************************************************
| Epoch   1, time=  1.0s | Train: skip eval | Valid: time=  0.1s loss=3.943, TAw acc= 60.4% | *
| Epoch   2, time=  1.0s | Train: skip eval | Valid: time=  0.1s loss=2.508, TAw acc= 57.3% | *
…
>>> Test on task  4 : loss=0.331 | TAw acc=100.0%, forg=  0.0%| TAg acc= 97.5%, forg= -1.7% <<<
>>> Test on task  5 : loss=0.668 | TAw acc= 99.2%, forg=  0.0%| TAg acc= 86.7%, forg=  2.5% <<<
>>> Test on task  6 : loss=0.818 | TAw acc= 95.0%, forg= -0.8%| TAg acc= 73.3%, forg=  8.3% <<<
>>> Test on task  7 : loss=0.808 | TAw acc= 96.7%, forg=  0.0%| TAg acc= 85.8%, forg= -5.8% <<<
>>> Test on task  8 : loss=0.944 | TAw acc= 96.7%, forg= -4.2%| TAg acc= 75.8%, forg=  0.0% <<<
>>> Test on task  9 : loss=0.699 | TAw acc= 98.3%, forg=  0.0%| TAg acc= 85.8%, forg=  0.0% <<<
Save at k=100/eeil_e5_dsads_1/har_flex_eeil
======
LLL_Net(
  (model): SimpleMLP(
    (fc1): Linear(in_features=405, out_features=66, bias=True)
    (fc2): Sequential()
  )
  (heads): ModuleList(
    (0): Linear(in_features=66, out_features=12, bias=True)
    (1): Linear(in_features=66, out_features=10, bias=True)
    (2): Linear(in_features=66, out_features=10, bias=True)
    (3): Linear(in_features=66, out_features=10, bias=True)
    (4): Linear(in_features=66, out_features=10, bias=True)
    (5): Linear(in_features=66, out_features=10, bias=True)
    (6): Linear(in_features=66, out_features=10, bias=True)
    (7): Linear(in_features=66, out_features=10, bias=True)
    (8): Linear(in_features=66, out_features=10, bias=True)
    (9): Linear(in_features=66, out_features=10, bias=True)
  )
)
======

************************************************************************************************************
Task 10
************************************************************************************************************
| Epoch   1, time=  1.2s | Train: skip eval | Valid: time=  0.1s loss=4.617, TAw acc= 53.1% | *
| Epoch   2, time=  1.2s | Train: skip eval | Valid: time=  0.1s loss=2.844, TAw acc= 81.2% | *
…
>>> Test on task  5 : loss=0.584 | TAw acc= 99.2%, forg=  0.0%| TAg acc= 90.8%, forg= -1.7% <<<
>>> Test on task  6 : loss=0.790 | TAw acc= 95.8%, forg= -0.8%| TAg acc= 80.0%, forg=  1.7% <<<
>>> Test on task  7 : loss=0.744 | TAw acc=100.0%, forg= -3.3%| TAg acc= 85.8%, forg=  0.0% <<<
>>> Test on task  8 : loss=0.952 | TAw acc= 95.8%, forg=  0.8%| TAg acc= 70.8%, forg=  5.0% <<<
>>> Test on task  9 : loss=0.600 | TAw acc= 99.2%, forg= -0.8%| TAg acc= 85.8%, forg=  0.0% <<<
>>> Test on task 10 : loss=1.161 | TAw acc= 95.8%, forg=  0.0%| TAg acc= 70.8%, forg=  0.0% <<<
Save at k=100/eeil_e5_dsads_1/har_flex_eeil
======
LLL_Net(
  (model): SimpleMLP(
    (fc1): Linear(in_features=405, out_features=66, bias=True)
    (fc2): Sequential()
  )
  (heads): ModuleList(
    (0): Linear(in_features=66, out_features=12, bias=True)
    (1): Linear(in_features=66, out_features=10, bias=True)
    (2): Linear(in_features=66, out_features=10, bias=True)
    (3): Linear(in_features=66, out_features=10, bias=True)
    (4): Linear(in_features=66, out_features=10, bias=True)
    (5): Linear(in_features=66, out_features=10, bias=True)
    (6): Linear(in_features=66, out_features=10, bias=True)
    (7): Linear(in_features=66, out_features=10, bias=True)
    (8): Linear(in_features=66, out_features=10, bias=True)
    (9): Linear(in_features=66, out_features=10, bias=True)
    (10): Linear(in_features=66, out_features=10, bias=True)
  )
)
======

************************************************************************************************************
Task 11
************************************************************************************************************
| Epoch   1, time=  1.4s | Train: skip eval | Valid: time=  0.1s loss=4.853, TAw acc= 57.3% | *
| Epoch   2, time=  1.3s | Train: skip eval | Valid: time=  0.1s loss=3.101, TAw acc= 74.0% | *
…
>>> Test on task  6 : loss=0.705 | TAw acc= 95.8%, forg=  0.0%| TAg acc= 87.5%, forg= -5.8% <<<
>>> Test on task  7 : loss=0.781 | TAw acc= 98.3%, forg=  1.7%| TAg acc= 79.2%, forg=  6.7% <<<
>>> Test on task  8 : loss=0.853 | TAw acc= 95.8%, forg=  0.8%| TAg acc= 79.2%, forg= -3.3% <<<
>>> Test on task  9 : loss=0.635 | TAw acc= 99.2%, forg=  0.0%| TAg acc= 84.2%, forg=  1.7% <<<
>>> Test on task 10 : loss=1.242 | TAw acc= 95.8%, forg=  0.0%| TAg acc= 65.8%, forg=  5.0% <<<
>>> Test on task 11 : loss=1.148 | TAw acc= 94.2%, forg=  0.0%| TAg acc= 71.7%, forg=  0.0% <<<
Save at k=100/eeil_e5_dsads_1/har_flex_eeil
======
LLL_Net(
  (model): SimpleMLP(
    (fc1): Linear(in_features=405, out_features=66, bias=True)
    (fc2): Sequential()
  )
  (heads): ModuleList(
    (0): Linear(in_features=66, out_features=12, bias=True)
    (1): Linear(in_features=66, out_features=10, bias=True)
    (2): Linear(in_features=66, out_features=10, bias=True)
    (3): Linear(in_features=66, out_features=10, bias=True)
    (4): Linear(in_features=66, out_features=10, bias=True)
    (5): Linear(in_features=66, out_features=10, bias=True)
    (6): Linear(in_features=66, out_features=10, bias=True)
    (7): Linear(in_features=66, out_features=10, bias=True)
    (8): Linear(in_features=66, out_features=10, bias=True)
    (9): Linear(in_features=66, out_features=10, bias=True)
    (10): Linear(in_features=66, out_features=10, bias=True)
    (11): Linear(in_features=66, out_features=10, bias=True)
  )
)
======

************************************************************************************************************
Task 12
************************************************************************************************************
| Epoch   1, time=  1.5s | Train: skip eval | Valid: time=  0.2s loss=4.128, TAw acc= 60.4% | *
| Epoch   2, time=  1.6s | Train: skip eval | Valid: time=  0.2s loss=2.464, TAw acc= 74.0% | *
…
>>> Test on task  7 : loss=0.752 | TAw acc=100.0%, forg=  0.0%| TAg acc= 80.8%, forg=  5.0% <<<
>>> Test on task  8 : loss=0.810 | TAw acc= 96.7%, forg=  0.0%| TAg acc= 82.5%, forg= -3.3% <<<
>>> Test on task  9 : loss=0.625 | TAw acc= 99.2%, forg=  0.0%| TAg acc= 80.8%, forg=  5.0% <<<
>>> Test on task 10 : loss=1.038 | TAw acc= 95.8%, forg=  0.0%| TAg acc= 69.2%, forg=  1.7% <<<
>>> Test on task 11 : loss=1.227 | TAw acc= 95.8%, forg= -1.7%| TAg acc= 63.3%, forg=  8.3% <<<
>>> Test on task 12 : loss=0.687 | TAw acc= 99.2%, forg=  0.0%| TAg acc= 84.2%, forg=  0.0% <<<
Save at k=100/eeil_e5_dsads_1/har_flex_eeil
======
LLL_Net(
  (model): SimpleMLP(
    (fc1): Linear(in_features=405, out_features=66, bias=True)
    (fc2): Sequential()
  )
  (heads): ModuleList(
    (0): Linear(in_features=66, out_features=12, bias=True)
    (1): Linear(in_features=66, out_features=10, bias=True)
    (2): Linear(in_features=66, out_features=10, bias=True)
    (3): Linear(in_features=66, out_features=10, bias=True)
    (4): Linear(in_features=66, out_features=10, bias=True)
    (5): Linear(in_features=66, out_features=10, bias=True)
    (6): Linear(in_features=66, out_features=10, bias=True)
    (7): Linear(in_features=66, out_features=10, bias=True)
    (8): Linear(in_features=66, out_features=10, bias=True)
    (9): Linear(in_features=66, out_features=10, bias=True)
    (10): Linear(in_features=66, out_features=10, bias=True)
    (11): Linear(in_features=66, out_features=10, bias=True)
    (12): Linear(in_features=66, out_features=10, bias=True)
  )
)
======

************************************************************************************************************
Task 13
************************************************************************************************************
| Epoch   1, time=  1.8s | Train: skip eval | Valid: time=  0.2s loss=4.155, TAw acc= 56.2% | *
| Epoch   2, time=  1.7s | Train: skip eval | Valid: time=  0.1s loss=2.404, TAw acc= 97.9% | *
…
>>> Test on task  8 : loss=0.730 | TAw acc= 96.7%, forg=  0.0%| TAg acc= 87.5%, forg= -5.0% <<<
>>> Test on task  9 : loss=0.520 | TAw acc= 99.2%, forg=  0.0%| TAg acc= 87.5%, forg= -1.7% <<<
>>> Test on task 10 : loss=0.967 | TAw acc= 98.3%, forg= -2.5%| TAg acc= 76.7%, forg= -5.8% <<<
>>> Test on task 11 : loss=1.009 | TAw acc= 96.7%, forg= -0.8%| TAg acc= 73.3%, forg= -1.7% <<<
>>> Test on task 12 : loss=0.586 | TAw acc=100.0%, forg= -0.8%| TAg acc= 85.0%, forg= -0.8% <<<
>>> Test on task 13 : loss=0.859 | TAw acc= 99.2%, forg=  0.0%| TAg acc= 74.2%, forg=  0.0% <<<
Save at k=100/eeil_e5_dsads_1/har_flex_eeil
======
LLL_Net(
  (model): SimpleMLP(
    (fc1): Linear(in_features=405, out_features=66, bias=True)
    (fc2): Sequential()
  )
  (heads): ModuleList(
    (0): Linear(in_features=66, out_features=12, bias=True)
    (1): Linear(in_features=66, out_features=10, bias=True)
    (2): Linear(in_features=66, out_features=10, bias=True)
    (3): Linear(in_features=66, out_features=10, bias=True)
    (4): Linear(in_features=66, out_features=10, bias=True)
    (5): Linear(in_features=66, out_features=10, bias=True)
    (6): Linear(in_features=66, out_features=10, bias=True)
    (7): Linear(in_features=66, out_features=10, bias=True)
    (8): Linear(in_features=66, out_features=10, bias=True)
    (9): Linear(in_features=66, out_features=10, bias=True)
    (10): Linear(in_features=66, out_features=10, bias=True)
    (11): Linear(in_features=66, out_features=10, bias=True)
    (12): Linear(in_features=66, out_features=10, bias=True)
    (13): Linear(in_features=66, out_features=10, bias=True)
  )
)
======

************************************************************************************************************
Task 14
************************************************************************************************************
| Epoch   1, time=  2.0s | Train: skip eval | Valid: time=  0.1s loss=4.070, TAw acc= 65.6% | *
| Epoch   2, time=  1.9s | Train: skip eval | Valid: time=  0.1s loss=2.408, TAw acc= 97.9% | *
…
