…
| Selected 420 train exemplars, time=  0.0s
420
------------------------------------------------------------------------------------------------------------
>>> Test on task  0 : loss=0.498 | TAw acc=100.0%, forg=  0.0%| TAg acc= 81.2%, forg= 18.8% <<<
>>> Test on task  1 : loss=1.154 | TAw acc= 90.0%, forg=  0.8%| TAg acc= 58.3%, forg= 31.7% <<<
>>> Test on task  2 : loss=0.802 | TAw acc= 96.7%, forg= -0.8%| TAg acc= 74.2%, forg= 20.8% <<<
>>> Test on task  3 : loss=0.438 | TAw acc= 95.0%, forg=  0.0%| TAg acc= 93.3%, forg=  0.0% <<<
Save at k=10/eeil_dsads_3/har_flex_eeil
======
LLL_Net(
  (model): SimpleMLP(
    (fc1): Linear(in_features=405, out_features=66, bias=True)
    (fc2): Sequential()
  )
  (heads): ModuleList(
    (0): Linear(in_features=66, out_features=12, bias=True)
    (1): Linear(in_features=66, out_features=10, bias=True)
    (2): Linear(in_features=66, out_features=10, bias=True)
    (3): Linear(in_features=66, out_features=10, bias=True)
  )
)
======

************************************************************************************************************
Task  4
************************************************************************************************************
| Epoch   1, time=  0.4s | Train: skip eval | Valid: time=  0.2s loss=3.439, TAw acc= 41.7% | *
| Epoch   2, time=  0.4s | Train: skip eval | Valid: time=  0.3s loss=2.020, TAw acc= 55.2% | *
…
------------------------------------------------------------------------------------------------------------
>>> Test on task  0 : loss=0.488 | TAw acc=100.0%, forg=  0.0%| TAg acc= 86.8%, forg= 13.2% <<<
>>> Test on task  1 : loss=0.951 | TAw acc= 90.0%, forg=  0.8%| TAg acc= 70.0%, forg= 20.0% <<<
>>> Test on task  2 : loss=0.811 | TAw acc= 96.7%, forg=  0.0%| TAg acc= 74.2%, forg= 20.8% <<<
>>> Test on task  3 : loss=0.952 | TAw acc= 92.5%, forg=  2.5%| TAg acc= 68.3%, forg= 25.0% <<<
>>> Test on task  4 : loss=0.595 | TAw acc= 87.5%, forg=  0.0%| TAg acc= 85.8%, forg=  0.0% <<<
Save at k=10/eeil_dsads_3/har_flex_eeil
======
LLL_Net(
  (model): SimpleMLP(
    (fc1): Linear(in_features=405, out_features=66, bias=True)
    (fc2): Sequential()
  )
  (heads): ModuleList(
    (0): Linear(in_features=66, out_features=12, bias=True)
    (1): Linear(in_features=66, out_features=10, bias=True)
    (2): Linear(in_features=66, out_features=10, bias=True)
    (3): Linear(in_features=66, out_features=10, bias=True)
    (4): Linear(in_features=66, out_features=10, bias=True)
  )
)
======

************************************************************************************************************
Task  5
************************************************************************************************************
| Epoch   1, time=  0.4s | Train: skip eval | Valid: time=  0.3s loss=2.817, TAw acc= 39.6% | *
| Epoch   2, time=  0.4s | Train: skip eval | Valid: time=  0.3s loss=1.640, TAw acc= 65.6% | *
…
>>> Test on task  0 : loss=0.545 | TAw acc=100.0%, forg=  0.0%| TAg acc= 81.2%, forg= 18.8% <<<
>>> Test on task  1 : loss=1.030 | TAw acc= 93.3%, forg= -2.5%| TAg acc= 69.2%, forg= 20.8% <<<
>>> Test on task  2 : loss=0.780 | TAw acc= 97.5%, forg= -0.8%| TAg acc= 72.5%, forg= 22.5% <<<
>>> Test on task  3 : loss=0.866 | TAw acc= 92.5%, forg=  2.5%| TAg acc= 64.2%, forg= 29.2% <<<
>>> Test on task  4 : loss=1.021 | TAw acc= 84.2%, forg=  3.3%| TAg acc= 68.3%, forg= 17.5% <<<
>>> Test on task  5 : loss=0.570 | TAw acc= 95.0%, forg=  0.0%| TAg acc= 92.5%, forg=  0.0% <<<
Save at k=10/eeil_dsads_3/har_flex_eeil
======
LLL_Net(
  (model): SimpleMLP(
    (fc1): Linear(in_features=405, out_features=66, bias=True)
    (fc2): Sequential()
  )
  (heads): ModuleList(
    (0): Linear(in_features=66, out_features=12, bias=True)
    (1): Linear(in_features=66, out_features=10, bias=True)
    (2): Linear(in_features=66, out_features=10, bias=True)
    (3): Linear(in_features=66, out_features=10, bias=True)
    (4): Linear(in_features=66, out_features=10, bias=True)
    (5): Linear(in_features=66, out_features=10, bias=True)
  )
)
======

************************************************************************************************************
Task  6
************************************************************************************************************
| Epoch   1, time=  0.4s | Train: skip eval | Valid: time=  0.3s loss=3.563, TAw acc= 36.5% | *
| Epoch   2, time=  0.4s | Train: skip eval | Valid: time=  0.3s loss=1.810, TAw acc= 70.8% | *
…
>>> Test on task  1 : loss=0.959 | TAw acc= 91.7%, forg=  1.7%| TAg acc= 68.3%, forg= 21.7% <<<
>>> Test on task  2 : loss=0.636 | TAw acc= 96.7%, forg=  0.8%| TAg acc= 84.2%, forg= 10.8% <<<
>>> Test on task  3 : loss=0.828 | TAw acc= 93.3%, forg=  1.7%| TAg acc= 67.5%, forg= 25.8% <<<
>>> Test on task  4 : loss=1.147 | TAw acc= 83.3%, forg=  4.2%| TAg acc= 66.7%, forg= 19.2% <<<
>>> Test on task  5 : loss=1.168 | TAw acc= 96.7%, forg= -1.7%| TAg acc= 64.2%, forg= 28.3% <<<
>>> Test on task  6 : loss=0.314 | TAw acc=100.0%, forg=  0.0%| TAg acc= 99.2%, forg=  0.0% <<<
Save at k=10/eeil_dsads_3/har_flex_eeil
======
LLL_Net(
  (model): SimpleMLP(
    (fc1): Linear(in_features=405, out_features=66, bias=True)
    (fc2): Sequential()
  )
  (heads): ModuleList(
    (0): Linear(in_features=66, out_features=12, bias=True)
    (1): Linear(in_features=66, out_features=10, bias=True)
    (2): Linear(in_features=66, out_features=10, bias=True)
    (3): Linear(in_features=66, out_features=10, bias=True)
    (4): Linear(in_features=66, out_features=10, bias=True)
    (5): Linear(in_features=66, out_features=10, bias=True)
    (6): Linear(in_features=66, out_features=10, bias=True)
  )
)
======

************************************************************************************************************
Task  7
************************************************************************************************************
| Epoch   1, time=  0.5s | Train: skip eval | Valid: time=  0.2s loss=3.194, TAw acc= 32.3% | *
| Epoch   2, time=  0.5s | Train: skip eval | Valid: time=  0.3s loss=2.351, TAw acc= 56.2% | *
…
>>> Test on task  2 : loss=0.671 | TAw acc= 97.5%, forg=  0.0%| TAg acc= 84.2%, forg= 10.8% <<<
>>> Test on task  3 : loss=0.713 | TAw acc= 92.5%, forg=  2.5%| TAg acc= 77.5%, forg= 15.8% <<<
>>> Test on task  4 : loss=1.081 | TAw acc= 85.8%, forg=  1.7%| TAg acc= 66.7%, forg= 19.2% <<<
>>> Test on task  5 : loss=1.222 | TAw acc= 97.5%, forg= -0.8%| TAg acc= 59.2%, forg= 33.3% <<<
>>> Test on task  6 : loss=1.070 | TAw acc= 99.2%, forg=  0.8%| TAg acc= 55.8%, forg= 43.3% <<<
>>> Test on task  7 : loss=0.409 | TAw acc= 99.2%, forg=  0.0%| TAg acc= 99.2%, forg=  0.0% <<<
Save at k=10/eeil_dsads_3/har_flex_eeil
======
LLL_Net(
  (model): SimpleMLP(
    (fc1): Linear(in_features=405, out_features=66, bias=True)
    (fc2): Sequential()
  )
  (heads): ModuleList(
    (0): Linear(in_features=66, out_features=12, bias=True)
    (1): Linear(in_features=66, out_features=10, bias=True)
    (2): Linear(in_features=66, out_features=10, bias=True)
    (3): Linear(in_features=66, out_features=10, bias=True)
    (4): Linear(in_features=66, out_features=10, bias=True)
    (5): Linear(in_features=66, out_features=10, bias=True)
    (6): Linear(in_features=66, out_features=10, bias=True)
    (7): Linear(in_features=66, out_features=10, bias=True)
  )
)
======

************************************************************************************************************
Task  8
************************************************************************************************************
| Epoch   1, time=  0.5s | Train: skip eval | Valid: time=  0.2s loss=4.098, TAw acc= 15.6% | *
| Epoch   2, time=  0.5s | Train: skip eval | Valid: time=  0.2s loss=1.625, TAw acc= 76.0% | *
…
>>> Test on task  3 : loss=0.803 | TAw acc= 91.7%, forg=  3.3%| TAg acc= 73.3%, forg= 20.0% <<<
>>> Test on task  4 : loss=0.999 | TAw acc= 85.0%, forg=  2.5%| TAg acc= 75.0%, forg= 10.8% <<<
>>> Test on task  5 : loss=1.424 | TAw acc= 96.7%, forg=  0.8%| TAg acc= 55.8%, forg= 36.7% <<<
>>> Test on task  6 : loss=1.088 | TAw acc= 99.2%, forg=  0.8%| TAg acc= 55.0%, forg= 44.2% <<<
>>> Test on task  7 : loss=1.087 | TAw acc= 96.7%, forg=  2.5%| TAg acc= 62.5%, forg= 36.7% <<<
>>> Test on task  8 : loss=0.468 | TAw acc= 99.2%, forg=  0.0%| TAg acc= 97.5%, forg=  0.0% <<<
Save at k=10/eeil_dsads_3/har_flex_eeil
======
LLL_Net(
  (model): SimpleMLP(
    (fc1): Linear(in_features=405, out_features=66, bias=True)
    (fc2): Sequential()
  )
  (heads): ModuleList(
    (0): Linear(in_features=66, out_features=12, bias=True)
    (1): Linear(in_features=66, out_features=10, bias=True)
    (2): Linear(in_features=66, out_features=10, bias=True)
    (3): Linear(in_features=66, out_features=10, bias=True)
    (4): Linear(in_features=66, out_features=10, bias=True)
    (5): Linear(in_features=66, out_features=10, bias=True)
    (6): Linear(in_features=66, out_features=10, bias=True)
    (7): Linear(in_features=66, out_features=10, bias=True)
    (8): Linear(in_features=66, out_features=10, bias=True)
  )
)
======

************************************************************************************************************
Task  9
************************************************************************************************************
| Epoch   1, time=  0.6s | Train: skip eval | Valid: time=  0.2s loss=3.659, TAw acc= 37.5% | *
| Epoch   2, time=  0.5s | Train: skip eval | Valid: time=  0.2s loss=1.908, TAw acc= 53.1% | *
…
>>> Test on task  4 : loss=1.293 | TAw acc= 85.8%, forg=  1.7%| TAg acc= 58.3%, forg= 27.5% <<<
>>> Test on task  5 : loss=1.374 | TAw acc= 96.7%, forg=  0.8%| TAg acc= 62.5%, forg= 30.0% <<<
>>> Test on task  6 : loss=0.964 | TAw acc= 99.2%, forg=  0.8%| TAg acc= 70.8%, forg= 28.3% <<<
>>> Test on task  7 : loss=0.789 | TAw acc= 97.5%, forg=  1.7%| TAg acc= 90.8%, forg=  8.3% <<<
>>> Test on task  8 : loss=1.015 | TAw acc= 97.5%, forg=  1.7%| TAg acc= 70.8%, forg= 26.7% <<<
>>> Test on task  9 : loss=0.602 | TAw acc= 93.3%, forg=  0.0%| TAg acc= 89.2%, forg=  0.0% <<<
Save at k=10/eeil_dsads_3/har_flex_eeil
======
LLL_Net(
  (model): SimpleMLP(
    (fc1): Linear(in_features=405, out_features=66, bias=True)
    (fc2): Sequential()
  )
  (heads): ModuleList(
    (0): Linear(in_features=66, out_features=12, bias=True)
    (1): Linear(in_features=66, out_features=10, bias=True)
    (2): Linear(in_features=66, out_features=10, bias=True)
    (3): Linear(in_features=66, out_features=10, bias=True)
    (4): Linear(in_features=66, out_features=10, bias=True)
    (5): Linear(in_features=66, out_features=10, bias=True)
    (6): Linear(in_features=66, out_features=10, bias=True)
    (7): Linear(in_features=66, out_features=10, bias=True)
    (8): Linear(in_features=66, out_features=10, bias=True)
    (9): Linear(in_features=66, out_features=10, bias=True)
  )
)
======

************************************************************************************************************
Task 10
************************************************************************************************************
| Epoch   1, time=  0.7s | Train: skip eval | Valid: time=  0.2s loss=3.630, TAw acc= 42.7% | *
| Epoch   2, time=  0.6s | Train: skip eval | Valid: time=  0.2s loss=2.329, TAw acc= 61.5% | *
…
>>> Test on task  5 : loss=1.222 | TAw acc= 96.7%, forg=  0.8%| TAg acc= 73.3%, forg= 19.2% <<<
>>> Test on task  6 : loss=1.007 | TAw acc= 99.2%, forg=  0.8%| TAg acc= 69.2%, forg= 30.0% <<<
>>> Test on task  7 : loss=1.203 | TAw acc= 98.3%, forg=  0.8%| TAg acc= 63.3%, forg= 35.8% <<<
>>> Test on task  8 : loss=1.229 | TAw acc= 97.5%, forg=  1.7%| TAg acc= 55.0%, forg= 42.5% <<<
>>> Test on task  9 : loss=1.152 | TAw acc= 93.3%, forg=  0.0%| TAg acc= 61.7%, forg= 27.5% <<<
>>> Test on task 10 : loss=0.664 | TAw acc= 90.0%, forg=  0.0%| TAg acc= 87.5%, forg=  0.0% <<<
Save at k=10/eeil_dsads_3/har_flex_eeil
======
LLL_Net(
  (model): SimpleMLP(
    (fc1): Linear(in_features=405, out_features=66, bias=True)
    (fc2): Sequential()
  )
  (heads): ModuleList(
    (0): Linear(in_features=66, out_features=12, bias=True)
    (1): Linear(in_features=66, out_features=10, bias=True)
    (2): Linear(in_features=66, out_features=10, bias=True)
    (3): Linear(in_features=66, out_features=10, bias=True)
    (4): Linear(in_features=66, out_features=10, bias=True)
    (5): Linear(in_features=66, out_features=10, bias=True)
    (6): Linear(in_features=66, out_features=10, bias=True)
    (7): Linear(in_features=66, out_features=10, bias=True)
    (8): Linear(in_features=66, out_features=10, bias=True)
    (9): Linear(in_features=66, out_features=10, bias=True)
    (10): Linear(in_features=66, out_features=10, bias=True)
  )
)
======

************************************************************************************************************
Task 11
************************************************************************************************************
| Epoch   1, time=  0.7s | Train: skip eval | Valid: time=  0.2s loss=3.369, TAw acc= 37.5% | *
| Epoch   2, time=  0.6s | Train: skip eval | Valid: time=  0.3s loss=2.324, TAw acc= 43.8% | *
…
>>> Test on task  6 : loss=0.919 | TAw acc= 99.2%, forg=  0.8%| TAg acc= 74.2%, forg= 25.0% <<<
>>> Test on task  7 : loss=0.944 | TAw acc= 97.5%, forg=  1.7%| TAg acc= 75.0%, forg= 24.2% <<<
>>> Test on task  8 : loss=1.060 | TAw acc= 97.5%, forg=  1.7%| TAg acc= 69.2%, forg= 28.3% <<<
>>> Test on task  9 : loss=1.161 | TAw acc= 94.2%, forg= -0.8%| TAg acc= 62.5%, forg= 26.7% <<<
>>> Test on task 10 : loss=1.359 | TAw acc= 95.0%, forg= -5.0%| TAg acc= 59.2%, forg= 28.3% <<<
>>> Test on task 11 : loss=0.982 | TAw acc= 82.5%, forg=  0.0%| TAg acc= 78.3%, forg=  0.0% <<<
Save at k=10/eeil_dsads_3/har_flex_eeil
======
LLL_Net(
  (model): SimpleMLP(
    (fc1): Linear(in_features=405, out_features=66, bias=True)
    (fc2): Sequential()
  )
  (heads): ModuleList(
    (0): Linear(in_features=66, out_features=12, bias=True)
    (1): Linear(in_features=66, out_features=10, bias=True)
    (2): Linear(in_features=66, out_features=10, bias=True)
    (3): Linear(in_features=66, out_features=10, bias=True)
    (4): Linear(in_features=66, out_features=10, bias=True)
    (5): Linear(in_features=66, out_features=10, bias=True)
    (6): Linear(in_features=66, out_features=10, bias=True)
    (7): Linear(in_features=66, out_features=10, bias=True)
    (8): Linear(in_features=66, out_features=10, bias=True)
    (9): Linear(in_features=66, out_features=10, bias=True)
    (10): Linear(in_features=66, out_features=10, bias=True)
    (11): Linear(in_features=66, out_features=10, bias=True)
  )
)
======

************************************************************************************************************
Task 12
************************************************************************************************************
| Epoch   1, time=  0.8s | Train: skip eval | Valid: time=  0.2s loss=3.094, TAw acc= 56.2% | *
| Epoch   2, time=  0.7s | Train: skip eval | Valid: time=  0.2s loss=1.885, TAw acc= 79.2% | *
…
>>> Test on task  7 : loss=1.053 | TAw acc= 96.7%, forg=  2.5%| TAg acc= 70.8%, forg= 28.3% <<<
>>> Test on task  8 : loss=1.060 | TAw acc= 98.3%, forg=  0.8%| TAg acc= 67.5%, forg= 30.0% <<<
>>> Test on task  9 : loss=1.324 | TAw acc= 93.3%, forg=  0.8%| TAg acc= 56.7%, forg= 32.5% <<<
>>> Test on task 10 : loss=1.441 | TAw acc= 96.7%, forg= -1.7%| TAg acc= 57.5%, forg= 30.0% <<<
>>> Test on task 11 : loss=1.714 | TAw acc= 81.7%, forg=  0.8%| TAg acc= 51.7%, forg= 26.7% <<<
>>> Test on task 12 : loss=0.693 | TAw acc= 98.3%, forg=  0.0%| TAg acc= 93.3%, forg=  0.0% <<<
Save at k=10/eeil_dsads_3/har_flex_eeil
======
LLL_Net(
  (model): SimpleMLP(
    (fc1): Linear(in_features=405, out_features=66, bias=True)
    (fc2): Sequential()
  )
  (heads): ModuleList(
    (0): Linear(in_features=66, out_features=12, bias=True)
    (1): Linear(in_features=66, out_features=10, bias=True)
    (2): Linear(in_features=66, out_features=10, bias=True)
    (3): Linear(in_features=66, out_features=10, bias=True)
    (4): Linear(in_features=66, out_features=10, bias=True)
    (5): Linear(in_features=66, out_features=10, bias=True)
    (6): Linear(in_features=66, out_features=10, bias=True)
    (7): Linear(in_features=66, out_features=10, bias=True)
    (8): Linear(in_features=66, out_features=10, bias=True)
    (9): Linear(in_features=66, out_features=10, bias=True)
    (10): Linear(in_features=66, out_features=10, bias=True)
    (11): Linear(in_features=66, out_features=10, bias=True)
    (12): Linear(in_features=66, out_features=10, bias=True)
  )
)
======

************************************************************************************************************
Task 13
************************************************************************************************************
| Epoch   1, time=  0.8s | Train: skip eval | Valid: time=  0.2s loss=3.576, TAw acc= 54.2% | *
| Epoch   2, time=  0.8s | Train: skip eval | Valid: time=  0.2s loss=2.029, TAw acc= 80.2% | *
…
>>> Test on task  8 : loss=0.992 | TAw acc= 97.5%, forg=  1.7%| TAg acc= 70.8%, forg= 26.7% <<<
>>> Test on task  9 : loss=1.233 | TAw acc= 95.0%, forg= -0.8%| TAg acc= 53.3%, forg= 35.8% <<<
>>> Test on task 10 : loss=1.241 | TAw acc= 95.8%, forg=  0.8%| TAg acc= 62.5%, forg= 25.0% <<<
>>> Test on task 11 : loss=1.587 | TAw acc= 81.7%, forg=  0.8%| TAg acc= 55.8%, forg= 22.5% <<<
>>> Test on task 12 : loss=1.497 | TAw acc= 98.3%, forg=  0.0%| TAg acc= 53.3%, forg= 40.0% <<<
>>> Test on task 13 : loss=0.535 | TAw acc= 97.5%, forg=  0.0%| TAg acc= 93.3%, forg=  0.0% <<<
Save at k=10/eeil_dsads_3/har_flex_eeil
======
LLL_Net(
  (model): SimpleMLP(
    (fc1): Linear(in_features=405, out_features=66, bias=True)
    (fc2): Sequential()
  )
  (heads): ModuleList(
    (0): Linear(in_features=66, out_features=12, bias=True)
    (1): Linear(in_features=66, out_features=10, bias=True)
    (2): Linear(in_features=66, out_features=10, bias=True)
    (3): Linear(in_features=66, out_features=10, bias=True)
    (4): Linear(in_features=66, out_features=10, bias=True)
    (5): Linear(in_features=66, out_features=10, bias=True)
    (6): Linear(in_features=66, out_features=10, bias=True)
    (7): Linear(in_features=66, out_features=10, bias=True)
    (8): Linear(in_features=66, out_features=10, bias=True)
    (9): Linear(in_features=66, out_features=10, bias=True)
    (10): Linear(in_features=66, out_features=10, bias=True)
    (11): Linear(in_features=66, out_features=10, bias=True)
    (12): Linear(in_features=66, out_features=10, bias=True)
    (13): Linear(in_features=66, out_features=10, bias=True)
  )
)
======

************************************************************************************************************
Task 14
************************************************************************************************************
| Epoch   1, time=  0.8s | Train: skip eval | Valid: time=  0.2s loss=3.216, TAw acc= 51.0% | *
| Epoch   2, time=  0.9s | Train: skip eval | Valid: time=  0.2s loss=1.685, TAw acc= 81.2% | *
…
