…
| Selected 420 train exemplars, time=  0.0s
420
------------------------------------------------------------------------------------------------------------
>>> Test on task  0 : loss=0.742 | TAw acc= 93.1%, forg=  0.7%| TAg acc= 77.8%, forg= 15.3% <<<
>>> Test on task  1 : loss=0.646 | TAw acc= 95.8%, forg=  0.8%| TAg acc= 77.5%, forg= 19.2% <<<
>>> Test on task  2 : loss=0.660 | TAw acc= 99.2%, forg=  0.8%| TAg acc= 73.3%, forg= 25.8% <<<
>>> Test on task  3 : loss=0.274 | TAw acc= 99.2%, forg=  0.0%| TAg acc= 99.2%, forg=  0.0% <<<
Save at k=10/eeil_dsads_3/har_flex_eeil
======
LLL_Net(
  (model): SimpleMLP(
    (fc1): Linear(in_features=405, out_features=66, bias=True)
    (fc2): Sequential()
  )
  (heads): ModuleList(
    (0): Linear(in_features=66, out_features=12, bias=True)
    (1): Linear(in_features=66, out_features=10, bias=True)
    (2): Linear(in_features=66, out_features=10, bias=True)
    (3): Linear(in_features=66, out_features=10, bias=True)
  )
)
======

************************************************************************************************************
Task  4
************************************************************************************************************
| Epoch   1, time=  0.3s | Train: skip eval | Valid: time=  0.3s loss=3.827, TAw acc= 45.8% | *
| Epoch   2, time=  0.4s | Train: skip eval | Valid: time=  0.3s loss=1.606, TAw acc= 79.2% | *
…
------------------------------------------------------------------------------------------------------------
>>> Test on task  0 : loss=0.693 | TAw acc= 93.8%, forg=  0.0%| TAg acc= 81.2%, forg= 11.8% <<<
>>> Test on task  1 : loss=0.675 | TAw acc= 96.7%, forg=  0.0%| TAg acc= 75.0%, forg= 21.7% <<<
>>> Test on task  2 : loss=0.687 | TAw acc=100.0%, forg=  0.0%| TAg acc= 74.2%, forg= 25.0% <<<
>>> Test on task  3 : loss=0.703 | TAw acc= 97.5%, forg=  1.7%| TAg acc= 73.3%, forg= 25.8% <<<
>>> Test on task  4 : loss=0.343 | TAw acc= 99.2%, forg=  0.0%| TAg acc= 97.5%, forg=  0.0% <<<
Save at k=10/eeil_dsads_3/har_flex_eeil
======
LLL_Net(
  (model): SimpleMLP(
    (fc1): Linear(in_features=405, out_features=66, bias=True)
    (fc2): Sequential()
  )
  (heads): ModuleList(
    (0): Linear(in_features=66, out_features=12, bias=True)
    (1): Linear(in_features=66, out_features=10, bias=True)
    (2): Linear(in_features=66, out_features=10, bias=True)
    (3): Linear(in_features=66, out_features=10, bias=True)
    (4): Linear(in_features=66, out_features=10, bias=True)
  )
)
======

************************************************************************************************************
Task  5
************************************************************************************************************
| Epoch   1, time=  0.4s | Train: skip eval | Valid: time=  0.2s loss=3.106, TAw acc= 27.1% | *
| Epoch   2, time=  0.4s | Train: skip eval | Valid: time=  0.2s loss=1.910, TAw acc= 51.0% | *
…
>>> Test on task  0 : loss=0.909 | TAw acc= 93.8%, forg=  0.0%| TAg acc= 68.8%, forg= 24.3% <<<
>>> Test on task  1 : loss=0.624 | TAw acc= 96.7%, forg=  0.0%| TAg acc= 80.8%, forg= 15.8% <<<
>>> Test on task  2 : loss=0.721 | TAw acc=100.0%, forg=  0.0%| TAg acc= 75.8%, forg= 23.3% <<<
>>> Test on task  3 : loss=0.660 | TAw acc= 97.5%, forg=  1.7%| TAg acc= 81.7%, forg= 17.5% <<<
>>> Test on task  4 : loss=0.989 | TAw acc= 97.5%, forg=  1.7%| TAg acc= 64.2%, forg= 33.3% <<<
>>> Test on task  5 : loss=0.542 | TAw acc= 95.0%, forg=  0.0%| TAg acc= 93.3%, forg=  0.0% <<<
Save at k=10/eeil_dsads_3/har_flex_eeil
======
LLL_Net(
  (model): SimpleMLP(
    (fc1): Linear(in_features=405, out_features=66, bias=True)
    (fc2): Sequential()
  )
  (heads): ModuleList(
    (0): Linear(in_features=66, out_features=12, bias=True)
    (1): Linear(in_features=66, out_features=10, bias=True)
    (2): Linear(in_features=66, out_features=10, bias=True)
    (3): Linear(in_features=66, out_features=10, bias=True)
    (4): Linear(in_features=66, out_features=10, bias=True)
    (5): Linear(in_features=66, out_features=10, bias=True)
  )
)
======

************************************************************************************************************
Task  6
************************************************************************************************************
| Epoch   1, time=  0.4s | Train: skip eval | Valid: time=  0.2s loss=4.370, TAw acc= 29.2% | *
| Epoch   2, time=  0.5s | Train: skip eval | Valid: time=  0.3s loss=2.010, TAw acc= 49.0% | *
…
>>> Test on task  1 : loss=0.739 | TAw acc= 96.7%, forg=  0.0%| TAg acc= 75.0%, forg= 21.7% <<<
>>> Test on task  2 : loss=0.763 | TAw acc=100.0%, forg=  0.0%| TAg acc= 75.0%, forg= 24.2% <<<
>>> Test on task  3 : loss=0.760 | TAw acc= 97.5%, forg=  1.7%| TAg acc= 74.2%, forg= 25.0% <<<
>>> Test on task  4 : loss=1.014 | TAw acc= 97.5%, forg=  1.7%| TAg acc= 64.2%, forg= 33.3% <<<
>>> Test on task  5 : loss=1.185 | TAw acc= 94.2%, forg=  0.8%| TAg acc= 63.3%, forg= 30.0% <<<
>>> Test on task  6 : loss=0.668 | TAw acc= 92.5%, forg=  0.0%| TAg acc= 86.7%, forg=  0.0% <<<
Save at k=10/eeil_dsads_3/har_flex_eeil
======
LLL_Net(
  (model): SimpleMLP(
    (fc1): Linear(in_features=405, out_features=66, bias=True)
    (fc2): Sequential()
  )
  (heads): ModuleList(
    (0): Linear(in_features=66, out_features=12, bias=True)
    (1): Linear(in_features=66, out_features=10, bias=True)
    (2): Linear(in_features=66, out_features=10, bias=True)
    (3): Linear(in_features=66, out_features=10, bias=True)
    (4): Linear(in_features=66, out_features=10, bias=True)
    (5): Linear(in_features=66, out_features=10, bias=True)
    (6): Linear(in_features=66, out_features=10, bias=True)
  )
)
======

************************************************************************************************************
Task  7
************************************************************************************************************
| Epoch   1, time=  0.5s | Train: skip eval | Valid: time=  0.3s loss=3.470, TAw acc= 41.7% | *
| Epoch   2, time=  0.5s | Train: skip eval | Valid: time=  0.2s loss=2.001, TAw acc= 62.5% | *
…
>>> Test on task  2 : loss=0.640 | TAw acc=100.0%, forg=  0.0%| TAg acc= 85.8%, forg= 13.3% <<<
>>> Test on task  3 : loss=0.853 | TAw acc= 98.3%, forg=  0.8%| TAg acc= 66.7%, forg= 32.5% <<<
>>> Test on task  4 : loss=1.029 | TAw acc= 97.5%, forg=  1.7%| TAg acc= 65.8%, forg= 31.7% <<<
>>> Test on task  5 : loss=1.066 | TAw acc= 95.0%, forg=  0.0%| TAg acc= 75.8%, forg= 17.5% <<<
>>> Test on task  6 : loss=1.324 | TAw acc= 91.7%, forg=  0.8%| TAg acc= 55.8%, forg= 30.8% <<<
>>> Test on task  7 : loss=0.518 | TAw acc= 99.2%, forg=  0.0%| TAg acc= 97.5%, forg=  0.0% <<<
Save at k=10/eeil_dsads_3/har_flex_eeil
======
LLL_Net(
  (model): SimpleMLP(
    (fc1): Linear(in_features=405, out_features=66, bias=True)
    (fc2): Sequential()
  )
  (heads): ModuleList(
    (0): Linear(in_features=66, out_features=12, bias=True)
    (1): Linear(in_features=66, out_features=10, bias=True)
    (2): Linear(in_features=66, out_features=10, bias=True)
    (3): Linear(in_features=66, out_features=10, bias=True)
    (4): Linear(in_features=66, out_features=10, bias=True)
    (5): Linear(in_features=66, out_features=10, bias=True)
    (6): Linear(in_features=66, out_features=10, bias=True)
    (7): Linear(in_features=66, out_features=10, bias=True)
  )
)
======

************************************************************************************************************
Task  8
************************************************************************************************************
| Epoch   1, time=  0.5s | Train: skip eval | Valid: time=  0.3s loss=4.417, TAw acc= 30.2% | *
| Epoch   2, time=  0.5s | Train: skip eval | Valid: time=  0.2s loss=2.226, TAw acc= 57.3% | *
…
>>> Test on task  3 : loss=0.851 | TAw acc= 97.5%, forg=  1.7%| TAg acc= 78.3%, forg= 20.8% <<<
>>> Test on task  4 : loss=0.946 | TAw acc= 97.5%, forg=  1.7%| TAg acc= 75.0%, forg= 22.5% <<<
>>> Test on task  5 : loss=1.373 | TAw acc= 96.7%, forg= -1.7%| TAg acc= 49.2%, forg= 44.2% <<<
>>> Test on task  6 : loss=1.414 | TAw acc= 92.5%, forg=  0.0%| TAg acc= 47.5%, forg= 39.2% <<<
>>> Test on task  7 : loss=1.091 | TAw acc= 98.3%, forg=  0.8%| TAg acc= 73.3%, forg= 24.2% <<<
>>> Test on task  8 : loss=0.433 | TAw acc=100.0%, forg=  0.0%| TAg acc= 99.2%, forg=  0.0% <<<
Save at k=10/eeil_dsads_3/har_flex_eeil
======
LLL_Net(
  (model): SimpleMLP(
    (fc1): Linear(in_features=405, out_features=66, bias=True)
    (fc2): Sequential()
  )
  (heads): ModuleList(
    (0): Linear(in_features=66, out_features=12, bias=True)
    (1): Linear(in_features=66, out_features=10, bias=True)
    (2): Linear(in_features=66, out_features=10, bias=True)
    (3): Linear(in_features=66, out_features=10, bias=True)
    (4): Linear(in_features=66, out_features=10, bias=True)
    (5): Linear(in_features=66, out_features=10, bias=True)
    (6): Linear(in_features=66, out_features=10, bias=True)
    (7): Linear(in_features=66, out_features=10, bias=True)
    (8): Linear(in_features=66, out_features=10, bias=True)
  )
)
======

************************************************************************************************************
Task  9
************************************************************************************************************
| Epoch   1, time=  0.6s | Train: skip eval | Valid: time=  0.2s loss=3.567, TAw acc= 59.4% | *
| Epoch   2, time=  0.6s | Train: skip eval | Valid: time=  0.3s loss=1.900, TAw acc= 93.8% | *
…
>>> Test on task  4 : loss=1.037 | TAw acc= 98.3%, forg=  0.8%| TAg acc= 69.2%, forg= 28.3% <<<
>>> Test on task  5 : loss=1.092 | TAw acc= 96.7%, forg=  0.0%| TAg acc= 74.2%, forg= 19.2% <<<
>>> Test on task  6 : loss=1.210 | TAw acc= 91.7%, forg=  0.8%| TAg acc= 62.5%, forg= 24.2% <<<
>>> Test on task  7 : loss=1.077 | TAw acc= 98.3%, forg=  0.8%| TAg acc= 67.5%, forg= 30.0% <<<
>>> Test on task  8 : loss=0.953 | TAw acc= 98.3%, forg=  1.7%| TAg acc= 65.8%, forg= 33.3% <<<
>>> Test on task  9 : loss=0.480 | TAw acc= 98.3%, forg=  0.0%| TAg acc= 91.7%, forg=  0.0% <<<
Save at k=10/eeil_dsads_3/har_flex_eeil
======
LLL_Net(
  (model): SimpleMLP(
    (fc1): Linear(in_features=405, out_features=66, bias=True)
    (fc2): Sequential()
  )
  (heads): ModuleList(
    (0): Linear(in_features=66, out_features=12, bias=True)
    (1): Linear(in_features=66, out_features=10, bias=True)
    (2): Linear(in_features=66, out_features=10, bias=True)
    (3): Linear(in_features=66, out_features=10, bias=True)
    (4): Linear(in_features=66, out_features=10, bias=True)
    (5): Linear(in_features=66, out_features=10, bias=True)
    (6): Linear(in_features=66, out_features=10, bias=True)
    (7): Linear(in_features=66, out_features=10, bias=True)
    (8): Linear(in_features=66, out_features=10, bias=True)
    (9): Linear(in_features=66, out_features=10, bias=True)
  )
)
======

************************************************************************************************************
Task 10
************************************************************************************************************
| Epoch   1, time=  0.7s | Train: skip eval | Valid: time=  0.2s loss=2.936, TAw acc= 36.5% | *
| Epoch   2, time=  0.6s | Train: skip eval | Valid: time=  0.3s loss=1.713, TAw acc= 62.5% | *
…
>>> Test on task  5 : loss=1.001 | TAw acc= 98.3%, forg= -1.7%| TAg acc= 75.8%, forg= 17.5% <<<
>>> Test on task  6 : loss=1.103 | TAw acc= 92.5%, forg=  0.0%| TAg acc= 71.7%, forg= 15.0% <<<
>>> Test on task  7 : loss=0.897 | TAw acc= 99.2%, forg=  0.0%| TAg acc= 77.5%, forg= 20.0% <<<
>>> Test on task  8 : loss=0.806 | TAw acc= 98.3%, forg=  1.7%| TAg acc= 75.0%, forg= 24.2% <<<
>>> Test on task  9 : loss=1.032 | TAw acc= 98.3%, forg=  0.0%| TAg acc= 67.5%, forg= 24.2% <<<
>>> Test on task 10 : loss=0.497 | TAw acc= 95.8%, forg=  0.0%| TAg acc= 95.0%, forg=  0.0% <<<
Save at k=10/eeil_dsads_3/har_flex_eeil
======
LLL_Net(
  (model): SimpleMLP(
    (fc1): Linear(in_features=405, out_features=66, bias=True)
    (fc2): Sequential()
  )
  (heads): ModuleList(
    (0): Linear(in_features=66, out_features=12, bias=True)
    (1): Linear(in_features=66, out_features=10, bias=True)
    (2): Linear(in_features=66, out_features=10, bias=True)
    (3): Linear(in_features=66, out_features=10, bias=True)
    (4): Linear(in_features=66, out_features=10, bias=True)
    (5): Linear(in_features=66, out_features=10, bias=True)
    (6): Linear(in_features=66, out_features=10, bias=True)
    (7): Linear(in_features=66, out_features=10, bias=True)
    (8): Linear(in_features=66, out_features=10, bias=True)
    (9): Linear(in_features=66, out_features=10, bias=True)
    (10): Linear(in_features=66, out_features=10, bias=True)
  )
)
======

************************************************************************************************************
Task 11
************************************************************************************************************
| Epoch   1, time=  0.7s | Train: skip eval | Valid: time=  0.3s loss=3.486, TAw acc= 35.4% | *
| Epoch   2, time=  0.7s | Train: skip eval | Valid: time=  0.2s loss=2.039, TAw acc= 65.6% | *
…
>>> Test on task  6 : loss=1.055 | TAw acc= 91.7%, forg=  0.8%| TAg acc= 76.7%, forg= 10.0% <<<
>>> Test on task  7 : loss=0.947 | TAw acc= 99.2%, forg=  0.0%| TAg acc= 72.5%, forg= 25.0% <<<
>>> Test on task  8 : loss=0.890 | TAw acc=100.0%, forg=  0.0%| TAg acc= 71.7%, forg= 27.5% <<<
>>> Test on task  9 : loss=0.968 | TAw acc= 98.3%, forg=  0.0%| TAg acc= 70.8%, forg= 20.8% <<<
>>> Test on task 10 : loss=0.955 | TAw acc= 94.2%, forg=  1.7%| TAg acc= 80.0%, forg= 15.0% <<<
>>> Test on task 11 : loss=0.598 | TAw acc= 97.5%, forg=  0.0%| TAg acc= 90.0%, forg=  0.0% <<<
Save at k=10/eeil_dsads_3/har_flex_eeil
======
LLL_Net(
  (model): SimpleMLP(
    (fc1): Linear(in_features=405, out_features=66, bias=True)
    (fc2): Sequential()
  )
  (heads): ModuleList(
    (0): Linear(in_features=66, out_features=12, bias=True)
    (1): Linear(in_features=66, out_features=10, bias=True)
    (2): Linear(in_features=66, out_features=10, bias=True)
    (3): Linear(in_features=66, out_features=10, bias=True)
    (4): Linear(in_features=66, out_features=10, bias=True)
    (5): Linear(in_features=66, out_features=10, bias=True)
    (6): Linear(in_features=66, out_features=10, bias=True)
    (7): Linear(in_features=66, out_features=10, bias=True)
    (8): Linear(in_features=66, out_features=10, bias=True)
    (9): Linear(in_features=66, out_features=10, bias=True)
    (10): Linear(in_features=66, out_features=10, bias=True)
    (11): Linear(in_features=66, out_features=10, bias=True)
  )
)
======

************************************************************************************************************
Task 12
************************************************************************************************************
| Epoch   1, time=  0.7s | Train: skip eval | Valid: time=  0.2s loss=4.462, TAw acc= 31.2% | *
| Epoch   2, time=  0.7s | Train: skip eval | Valid: time=  0.3s loss=2.293, TAw acc= 70.8% | *
…
>>> Test on task  7 : loss=0.873 | TAw acc= 99.2%, forg=  0.0%| TAg acc= 80.0%, forg= 17.5% <<<
>>> Test on task  8 : loss=0.774 | TAw acc=100.0%, forg=  0.0%| TAg acc= 77.5%, forg= 21.7% <<<
>>> Test on task  9 : loss=1.099 | TAw acc= 98.3%, forg=  0.0%| TAg acc= 68.3%, forg= 23.3% <<<
>>> Test on task 10 : loss=1.200 | TAw acc= 96.7%, forg= -0.8%| TAg acc= 65.8%, forg= 29.2% <<<
>>> Test on task 11 : loss=1.130 | TAw acc= 97.5%, forg=  0.0%| TAg acc= 71.7%, forg= 18.3% <<<
>>> Test on task 12 : loss=0.697 | TAw acc= 90.0%, forg=  0.0%| TAg acc= 85.0%, forg=  0.0% <<<
Save at k=10/eeil_dsads_3/har_flex_eeil
======
LLL_Net(
  (model): SimpleMLP(
    (fc1): Linear(in_features=405, out_features=66, bias=True)
    (fc2): Sequential()
  )
  (heads): ModuleList(
    (0): Linear(in_features=66, out_features=12, bias=True)
    (1): Linear(in_features=66, out_features=10, bias=True)
    (2): Linear(in_features=66, out_features=10, bias=True)
    (3): Linear(in_features=66, out_features=10, bias=True)
    (4): Linear(in_features=66, out_features=10, bias=True)
    (5): Linear(in_features=66, out_features=10, bias=True)
    (6): Linear(in_features=66, out_features=10, bias=True)
    (7): Linear(in_features=66, out_features=10, bias=True)
    (8): Linear(in_features=66, out_features=10, bias=True)
    (9): Linear(in_features=66, out_features=10, bias=True)
    (10): Linear(in_features=66, out_features=10, bias=True)
    (11): Linear(in_features=66, out_features=10, bias=True)
    (12): Linear(in_features=66, out_features=10, bias=True)
  )
)
======

************************************************************************************************************
Task 13
************************************************************************************************************
| Epoch   1, time=  0.8s | Train: skip eval | Valid: time=  0.2s loss=2.836, TAw acc= 39.6% | *
| Epoch   2, time=  0.8s | Train: skip eval | Valid: time=  0.3s loss=1.726, TAw acc= 58.3% | *
…
>>> Test on task  8 : loss=0.703 | TAw acc=100.0%, forg=  0.0%| TAg acc= 75.8%, forg= 23.3% <<<
>>> Test on task  9 : loss=0.909 | TAw acc= 98.3%, forg=  0.0%| TAg acc= 77.5%, forg= 14.2% <<<
>>> Test on task 10 : loss=1.166 | TAw acc= 97.5%, forg= -0.8%| TAg acc= 59.2%, forg= 35.8% <<<
>>> Test on task 11 : loss=1.042 | TAw acc= 98.3%, forg= -0.8%| TAg acc= 75.0%, forg= 15.0% <<<
>>> Test on task 12 : loss=1.311 | TAw acc= 90.8%, forg= -0.8%| TAg acc= 61.7%, forg= 23.3% <<<
>>> Test on task 13 : loss=0.409 | TAw acc= 97.5%, forg=  0.0%| TAg acc= 97.5%, forg=  0.0% <<<
Save at k=10/eeil_dsads_3/har_flex_eeil
======
LLL_Net(
  (model): SimpleMLP(
    (fc1): Linear(in_features=405, out_features=66, bias=True)
    (fc2): Sequential()
  )
  (heads): ModuleList(
    (0): Linear(in_features=66, out_features=12, bias=True)
    (1): Linear(in_features=66, out_features=10, bias=True)
    (2): Linear(in_features=66, out_features=10, bias=True)
    (3): Linear(in_features=66, out_features=10, bias=True)
    (4): Linear(in_features=66, out_features=10, bias=True)
    (5): Linear(in_features=66, out_features=10, bias=True)
    (6): Linear(in_features=66, out_features=10, bias=True)
    (7): Linear(in_features=66, out_features=10, bias=True)
    (8): Linear(in_features=66, out_features=10, bias=True)
    (9): Linear(in_features=66, out_features=10, bias=True)
    (10): Linear(in_features=66, out_features=10, bias=True)
    (11): Linear(in_features=66, out_features=10, bias=True)
    (12): Linear(in_features=66, out_features=10, bias=True)
    (13): Linear(in_features=66, out_features=10, bias=True)
  )
)
======

************************************************************************************************************
Task 14
************************************************************************************************************
| Epoch   1, time=  0.9s | Train: skip eval | Valid: time=  0.2s loss=3.970, TAw acc= 33.3% | *
| Epoch   2, time=  0.9s | Train: skip eval | Valid: time=  0.2s loss=2.211, TAw acc= 77.1% | *
…
