…
| Selected 705 train exemplars, time=  0.4s
705
------------------------------------------------------------------------------------------------------------
>>> Test on task  0 : loss=2.590 | TAw acc= 92.9%, forg=  0.0%| TAg acc= 89.0%, forg=  3.8% <<<
>>> Test on task  1 : loss=25.727 | TAw acc= 92.8%, forg=  0.0%| TAg acc= 79.3%, forg=  8.1% <<<
>>> Test on task  2 : loss=38.720 | TAw acc= 90.9%, forg=  0.0%| TAg acc= 83.0%, forg=  1.1% <<<
>>> Test on task  3 : loss=51.489 | TAw acc= 98.1%, forg=  0.0%| TAg acc= 84.8%, forg=  0.0% <<<
Save at k=10/icarl_wisdm_1/wisdm_flex_icarl
======
LLL_Net(
  (model): SimpleMLP(
    (fc1): Linear(in_features=91, out_features=1000, bias=True)
    (fc2): Sequential()
  )
  (heads): ModuleList(
    (0): Linear(in_features=1000, out_features=34, bias=True)
    (1): Linear(in_features=1000, out_features=20, bias=True)
    (2): Linear(in_features=1000, out_features=20, bias=True)
    (3): Linear(in_features=1000, out_features=20, bias=True)
  )
)
======

************************************************************************************************************
Task  4
************************************************************************************************************
| Epoch   1, time=  1.0s | Train: skip eval | Valid: time=  0.3s loss=65.779, TAw acc=  4.5% | *
| Epoch   2, time=  1.0s | Train: skip eval | Valid: time=  0.2s loss=65.754, TAw acc=  4.5% | *
…
------------------------------------------------------------------------------------------------------------
>>> Test on task  0 : loss=2.603 | TAw acc= 92.9%, forg=  0.0%| TAg acc= 86.8%, forg=  6.0% <<<
>>> Test on task  1 : loss=25.637 | TAw acc= 92.8%, forg=  0.0%| TAg acc= 76.6%, forg= 10.8% <<<
>>> Test on task  2 : loss=38.595 | TAw acc= 90.9%, forg=  0.0%| TAg acc= 78.4%, forg=  5.7% <<<
>>> Test on task  3 : loss=51.218 | TAw acc= 98.1%, forg=  0.0%| TAg acc= 83.8%, forg=  1.0% <<<
>>> Test on task  4 : loss=63.476 | TAw acc= 95.8%, forg=  0.0%| TAg acc= 82.2%, forg=  0.0% <<<
Save at k=10/icarl_wisdm_1/wisdm_flex_icarl
======
LLL_Net(
  (model): SimpleMLP(
    (fc1): Linear(in_features=91, out_features=1000, bias=True)
    (fc2): Sequential()
  )
  (heads): ModuleList(
    (0): Linear(in_features=1000, out_features=34, bias=True)
    (1): Linear(in_features=1000, out_features=20, bias=True)
    (2): Linear(in_features=1000, out_features=20, bias=True)
    (3): Linear(in_features=1000, out_features=20, bias=True)
    (4): Linear(in_features=1000, out_features=20, bias=True)
  )
)
======

************************************************************************************************************
Task  5
************************************************************************************************************
| Epoch   1, time=  1.3s | Train: skip eval | Valid: time=  0.3s loss=78.011, TAw acc=  7.1% | *
| Epoch   2, time=  1.3s | Train: skip eval | Valid: time=  0.3s loss=77.988, TAw acc=  9.5% | *
…
>>> Test on task  0 : loss=2.552 | TAw acc= 92.9%, forg=  0.0%| TAg acc= 86.3%, forg=  6.6% <<<
>>> Test on task  1 : loss=25.462 | TAw acc= 92.8%, forg=  0.0%| TAg acc= 76.6%, forg= 10.8% <<<
>>> Test on task  2 : loss=38.406 | TAw acc= 90.9%, forg=  0.0%| TAg acc= 77.3%, forg=  6.8% <<<
>>> Test on task  3 : loss=50.863 | TAw acc= 98.1%, forg=  0.0%| TAg acc= 83.8%, forg=  1.0% <<<
>>> Test on task  4 : loss=63.252 | TAw acc= 95.8%, forg=  0.0%| TAg acc= 80.5%, forg=  1.7% <<<
>>> Test on task  5 : loss=74.918 | TAw acc= 91.2%, forg=  0.0%| TAg acc= 82.5%, forg=  0.0% <<<
Save at k=10/icarl_wisdm_1/wisdm_flex_icarl
======
LLL_Net(
  (model): SimpleMLP(
    (fc1): Linear(in_features=91, out_features=1000, bias=True)
    (fc2): Sequential()
  )
  (heads): ModuleList(
    (0): Linear(in_features=1000, out_features=34, bias=True)
    (1): Linear(in_features=1000, out_features=20, bias=True)
    (2): Linear(in_features=1000, out_features=20, bias=True)
    (3): Linear(in_features=1000, out_features=20, bias=True)
    (4): Linear(in_features=1000, out_features=20, bias=True)
    (5): Linear(in_features=1000, out_features=20, bias=True)
  )
)
======

************************************************************************************************************
Task  6
************************************************************************************************************
| Epoch   1, time=  1.6s | Train: skip eval | Valid: time=  0.3s loss=91.613, TAw acc=  0.0% | *
| Epoch   2, time=  1.6s | Train: skip eval | Valid: time=  0.3s loss=91.597, TAw acc=  0.0% | *
…
>>> Test on task  1 : loss=25.276 | TAw acc= 92.8%, forg=  0.0%| TAg acc= 73.9%, forg= 13.5% <<<
>>> Test on task  2 : loss=38.097 | TAw acc= 90.9%, forg=  0.0%| TAg acc= 77.3%, forg=  6.8% <<<
>>> Test on task  3 : loss=50.563 | TAw acc= 98.1%, forg=  0.0%| TAg acc= 81.9%, forg=  2.9% <<<
>>> Test on task  4 : loss=62.869 | TAw acc= 95.8%, forg=  0.0%| TAg acc= 80.5%, forg=  1.7% <<<
>>> Test on task  5 : loss=74.531 | TAw acc= 91.2%, forg=  0.0%| TAg acc= 82.5%, forg=  0.0% <<<
>>> Test on task  6 : loss=89.466 | TAw acc= 93.9%, forg=  0.0%| TAg acc= 80.9%, forg=  0.0% <<<
Save at k=10/icarl_wisdm_1/wisdm_flex_icarl
======
LLL_Net(
  (model): SimpleMLP(
    (fc1): Linear(in_features=91, out_features=1000, bias=True)
    (fc2): Sequential()
  )
  (heads): ModuleList(
    (0): Linear(in_features=1000, out_features=34, bias=True)
    (1): Linear(in_features=1000, out_features=20, bias=True)
    (2): Linear(in_features=1000, out_features=20, bias=True)
    (3): Linear(in_features=1000, out_features=20, bias=True)
    (4): Linear(in_features=1000, out_features=20, bias=True)
    (5): Linear(in_features=1000, out_features=20, bias=True)
    (6): Linear(in_features=1000, out_features=20, bias=True)
  )
)
======

************************************************************************************************************
Task  7
************************************************************************************************************
| Epoch   1, time=  1.9s | Train: skip eval | Valid: time=  0.3s loss=104.439, TAw acc=  3.8% | *
| Epoch   2, time=  1.8s | Train: skip eval | Valid: time=  0.3s loss=104.425, TAw acc=  3.8% | *
…
>>> Test on task  2 : loss=37.755 | TAw acc= 90.9%, forg=  0.0%| TAg acc= 75.0%, forg=  9.1% <<<
>>> Test on task  3 : loss=50.152 | TAw acc= 98.1%, forg=  0.0%| TAg acc= 81.9%, forg=  2.9% <<<
>>> Test on task  4 : loss=62.444 | TAw acc= 95.8%, forg=  0.0%| TAg acc= 78.8%, forg=  3.4% <<<
>>> Test on task  5 : loss=74.084 | TAw acc= 91.2%, forg=  0.0%| TAg acc= 81.6%, forg=  0.9% <<<
>>> Test on task  6 : loss=89.029 | TAw acc= 93.9%, forg=  0.0%| TAg acc= 75.7%, forg=  5.2% <<<
>>> Test on task  7 : loss=101.987 | TAw acc= 92.5%, forg=  0.0%| TAg acc= 75.7%, forg=  0.0% <<<
Save at k=10/icarl_wisdm_1/wisdm_flex_icarl
======
LLL_Net(
  (model): SimpleMLP(
    (fc1): Linear(in_features=91, out_features=1000, bias=True)
    (fc2): Sequential()
  )
  (heads): ModuleList(
    (0): Linear(in_features=1000, out_features=34, bias=True)
    (1): Linear(in_features=1000, out_features=20, bias=True)
    (2): Linear(in_features=1000, out_features=20, bias=True)
    (3): Linear(in_features=1000, out_features=20, bias=True)
    (4): Linear(in_features=1000, out_features=20, bias=True)
    (5): Linear(in_features=1000, out_features=20, bias=True)
    (6): Linear(in_features=1000, out_features=20, bias=True)
    (7): Linear(in_features=1000, out_features=20, bias=True)
  )
)
======

************************************************************************************************************
Task  8
************************************************************************************************************
| Epoch   1, time=  2.3s | Train: skip eval | Valid: time=  0.3s loss=116.664, TAw acc=  5.1% | *
| Epoch   2, time=  2.3s | Train: skip eval | Valid: time=  0.3s loss=116.648, TAw acc=  5.1% | *
…
>>> Test on task  3 : loss=49.762 | TAw acc= 98.1%, forg=  0.0%| TAg acc= 81.0%, forg=  3.8% <<<
>>> Test on task  4 : loss=62.037 | TAw acc= 95.8%, forg=  0.0%| TAg acc= 78.0%, forg=  4.2% <<<
>>> Test on task  5 : loss=73.559 | TAw acc= 91.2%, forg=  0.0%| TAg acc= 80.7%, forg=  1.8% <<<
>>> Test on task  6 : loss=88.510 | TAw acc= 93.9%, forg=  0.0%| TAg acc= 75.7%, forg=  5.2% <<<
>>> Test on task  7 : loss=101.492 | TAw acc= 92.5%, forg=  0.0%| TAg acc= 73.8%, forg=  1.9% <<<
>>> Test on task  8 : loss=114.511 | TAw acc= 86.0%, forg=  0.0%| TAg acc= 69.2%, forg=  0.0% <<<
Save at k=10/icarl_wisdm_1/wisdm_flex_icarl
======
LLL_Net(
  (model): SimpleMLP(
    (fc1): Linear(in_features=91, out_features=1000, bias=True)
    (fc2): Sequential()
  )
  (heads): ModuleList(
    (0): Linear(in_features=1000, out_features=34, bias=True)
    (1): Linear(in_features=1000, out_features=20, bias=True)
    (2): Linear(in_features=1000, out_features=20, bias=True)
    (3): Linear(in_features=1000, out_features=20, bias=True)
    (4): Linear(in_features=1000, out_features=20, bias=True)
    (5): Linear(in_features=1000, out_features=20, bias=True)
    (6): Linear(in_features=1000, out_features=20, bias=True)
    (7): Linear(in_features=1000, out_features=20, bias=True)
    (8): Linear(in_features=1000, out_features=20, bias=True)
  )
)
======

************************************************************************************************************
Task  9
************************************************************************************************************
| Epoch   1, time=  2.7s | Train: skip eval | Valid: time=  0.3s loss=126.233, TAw acc=  1.2% | *
| Epoch   2, time=  2.7s | Train: skip eval | Valid: time=  0.3s loss=126.210, TAw acc=  1.2% | *
…
>>> Test on task  4 : loss=61.728 | TAw acc= 95.8%, forg=  0.0%| TAg acc= 76.3%, forg=  5.9% <<<
>>> Test on task  5 : loss=73.178 | TAw acc= 91.2%, forg=  0.0%| TAg acc= 80.7%, forg=  1.8% <<<
>>> Test on task  6 : loss=88.052 | TAw acc= 93.9%, forg=  0.0%| TAg acc= 73.9%, forg=  7.0% <<<
>>> Test on task  7 : loss=101.023 | TAw acc= 92.5%, forg=  0.0%| TAg acc= 72.9%, forg=  2.8% <<<
>>> Test on task  8 : loss=113.999 | TAw acc= 86.0%, forg=  0.0%| TAg acc= 67.3%, forg=  1.9% <<<
>>> Test on task  9 : loss=122.834 | TAw acc= 96.4%, forg=  0.0%| TAg acc= 74.1%, forg=  0.0% <<<
Save at k=10/icarl_wisdm_1/wisdm_flex_icarl
======
LLL_Net(
  (model): SimpleMLP(
    (fc1): Linear(in_features=91, out_features=1000, bias=True)
    (fc2): Sequential()
  )
  (heads): ModuleList(
    (0): Linear(in_features=1000, out_features=34, bias=True)
    (1): Linear(in_features=1000, out_features=20, bias=True)
    (2): Linear(in_features=1000, out_features=20, bias=True)
    (3): Linear(in_features=1000, out_features=20, bias=True)
    (4): Linear(in_features=1000, out_features=20, bias=True)
    (5): Linear(in_features=1000, out_features=20, bias=True)
    (6): Linear(in_features=1000, out_features=20, bias=True)
    (7): Linear(in_features=1000, out_features=20, bias=True)
    (8): Linear(in_features=1000, out_features=20, bias=True)
    (9): Linear(in_features=1000, out_features=20, bias=True)
  )
)
======

************************************************************************************************************
Task 10
************************************************************************************************************
| Epoch   1, time=  3.2s | Train: skip eval | Valid: time=  0.3s loss=137.462, TAw acc=  8.0% | *
| Epoch   2, time=  3.1s | Train: skip eval | Valid: time=  0.3s loss=137.434, TAw acc=  9.2% | *
…
>>> Test on task  5 : loss=72.735 | TAw acc= 91.2%, forg=  0.0%| TAg acc= 78.9%, forg=  3.5% <<<
>>> Test on task  6 : loss=87.564 | TAw acc= 93.9%, forg=  0.0%| TAg acc= 64.3%, forg= 16.5% <<<
>>> Test on task  7 : loss=100.497 | TAw acc= 92.5%, forg=  0.0%| TAg acc= 72.0%, forg=  3.7% <<<
>>> Test on task  8 : loss=113.417 | TAw acc= 86.0%, forg=  0.0%| TAg acc= 67.3%, forg=  1.9% <<<
>>> Test on task  9 : loss=122.343 | TAw acc= 96.4%, forg=  0.0%| TAg acc= 71.4%, forg=  2.7% <<<
>>> Test on task 10 : loss=134.659 | TAw acc= 92.3%, forg=  0.0%| TAg acc= 66.7%, forg=  0.0% <<<
Save at k=10/icarl_wisdm_1/wisdm_flex_icarl
======
LLL_Net(
  (model): SimpleMLP(
    (fc1): Linear(in_features=91, out_features=1000, bias=True)
    (fc2): Sequential()
  )
  (heads): ModuleList(
    (0): Linear(in_features=1000, out_features=34, bias=True)
    (1): Linear(in_features=1000, out_features=20, bias=True)
    (2): Linear(in_features=1000, out_features=20, bias=True)
    (3): Linear(in_features=1000, out_features=20, bias=True)
    (4): Linear(in_features=1000, out_features=20, bias=True)
    (5): Linear(in_features=1000, out_features=20, bias=True)
    (6): Linear(in_features=1000, out_features=20, bias=True)
    (7): Linear(in_features=1000, out_features=20, bias=True)
    (8): Linear(in_features=1000, out_features=20, bias=True)
    (9): Linear(in_features=1000, out_features=20, bias=True)
    (10): Linear(in_features=1000, out_features=20, bias=True)
  )
)
======

************************************************************************************************************
Task 11
************************************************************************************************************
| Epoch   1, time=  3.7s | Train: skip eval | Valid: time=  0.3s loss=152.953, TAw acc= 11.2% | *
| Epoch   2, time=  3.5s | Train: skip eval | Valid: time=  0.3s loss=152.937, TAw acc= 15.0% | *
…
>>> Test on task  6 : loss=86.959 | TAw acc= 93.9%, forg=  0.0%| TAg acc= 64.3%, forg= 16.5% <<<
>>> Test on task  7 : loss=99.927 | TAw acc= 92.5%, forg=  0.0%| TAg acc= 71.0%, forg=  4.7% <<<
>>> Test on task  8 : loss=112.734 | TAw acc= 86.0%, forg=  0.0%| TAg acc= 67.3%, forg=  1.9% <<<
>>> Test on task  9 : loss=121.657 | TAw acc= 96.4%, forg=  0.0%| TAg acc= 70.5%, forg=  3.6% <<<
>>> Test on task 10 : loss=134.008 | TAw acc= 92.3%, forg=  0.0%| TAg acc= 66.7%, forg=  0.0% <<<
>>> Test on task 11 : loss=150.500 | TAw acc= 97.2%, forg=  0.0%| TAg acc= 77.1%, forg=  0.0% <<<
Save at k=10/icarl_wisdm_1/wisdm_flex_icarl
======
LLL_Net(
  (model): SimpleMLP(
    (fc1): Linear(in_features=91, out_features=1000, bias=True)
    (fc2): Sequential()
  )
  (heads): ModuleList(
    (0): Linear(in_features=1000, out_features=34, bias=True)
    (1): Linear(in_features=1000, out_features=20, bias=True)
    (2): Linear(in_features=1000, out_features=20, bias=True)
    (3): Linear(in_features=1000, out_features=20, bias=True)
    (4): Linear(in_features=1000, out_features=20, bias=True)
    (5): Linear(in_features=1000, out_features=20, bias=True)
    (6): Linear(in_features=1000, out_features=20, bias=True)
    (7): Linear(in_features=1000, out_features=20, bias=True)
    (8): Linear(in_features=1000, out_features=20, bias=True)
    (9): Linear(in_features=1000, out_features=20, bias=True)
    (10): Linear(in_features=1000, out_features=20, bias=True)
    (11): Linear(in_features=1000, out_features=20, bias=True)
  )
)
======

************************************************************************************************************
Task 12
************************************************************************************************************
| Epoch   1, time=  4.2s | Train: skip eval | Valid: time=  0.3s loss=163.070, TAw acc= 14.7% | *
| Epoch   2, time=  4.0s | Train: skip eval | Valid: time=  0.3s loss=163.051, TAw acc= 17.3% | *
…
>>> Test on task  7 : loss=99.407 | TAw acc= 92.5%, forg=  0.0%| TAg acc= 71.0%, forg=  4.7% <<<
>>> Test on task  8 : loss=112.119 | TAw acc= 86.0%, forg=  0.0%| TAg acc= 67.3%, forg=  1.9% <<<
>>> Test on task  9 : loss=120.978 | TAw acc= 96.4%, forg=  0.0%| TAg acc= 70.5%, forg=  3.6% <<<
>>> Test on task 10 : loss=133.398 | TAw acc= 92.3%, forg=  0.0%| TAg acc= 65.8%, forg=  0.9% <<<
>>> Test on task 11 : loss=149.830 | TAw acc= 97.2%, forg=  0.0%| TAg acc= 76.1%, forg=  0.9% <<<
>>> Test on task 12 : loss=158.000 | TAw acc= 87.4%, forg=  0.0%| TAg acc= 63.1%, forg=  0.0% <<<
Save at k=10/icarl_wisdm_1/wisdm_flex_icarl
======
LLL_Net(
  (model): SimpleMLP(
    (fc1): Linear(in_features=91, out_features=1000, bias=True)
    (fc2): Sequential()
  )
  (heads): ModuleList(
    (0): Linear(in_features=1000, out_features=34, bias=True)
    (1): Linear(in_features=1000, out_features=20, bias=True)
    (2): Linear(in_features=1000, out_features=20, bias=True)
    (3): Linear(in_features=1000, out_features=20, bias=True)
    (4): Linear(in_features=1000, out_features=20, bias=True)
    (5): Linear(in_features=1000, out_features=20, bias=True)
    (6): Linear(in_features=1000, out_features=20, bias=True)
    (7): Linear(in_features=1000, out_features=20, bias=True)
    (8): Linear(in_features=1000, out_features=20, bias=True)
    (9): Linear(in_features=1000, out_features=20, bias=True)
    (10): Linear(in_features=1000, out_features=20, bias=True)
    (11): Linear(in_features=1000, out_features=20, bias=True)
    (12): Linear(in_features=1000, out_features=20, bias=True)
  )
)
======

************************************************************************************************************
Task 13
************************************************************************************************************
| Epoch   1, time=  4.8s | Train: skip eval | Valid: time=  0.3s loss=174.323, TAw acc=  0.0% | *
| Epoch   2, time=  4.8s | Train: skip eval | Valid: time=  0.3s loss=174.302, TAw acc=  0.0% | *
…
>>> Test on task  8 : loss=111.511 | TAw acc= 86.0%, forg=  0.0%| TAg acc= 67.3%, forg=  1.9% <<<
>>> Test on task  9 : loss=120.297 | TAw acc= 96.4%, forg=  0.0%| TAg acc= 70.5%, forg=  3.6% <<<
>>> Test on task 10 : loss=132.703 | TAw acc= 92.3%, forg=  0.0%| TAg acc= 65.8%, forg=  0.9% <<<
>>> Test on task 11 : loss=149.121 | TAw acc= 97.2%, forg=  0.0%| TAg acc= 76.1%, forg=  0.9% <<<
>>> Test on task 12 : loss=157.265 | TAw acc= 87.4%, forg=  0.0%| TAg acc= 63.1%, forg=  0.0% <<<
>>> Test on task 13 : loss=170.940 | TAw acc= 96.3%, forg=  0.0%| TAg acc= 65.7%, forg=  0.0% <<<
Save at k=10/icarl_wisdm_1/wisdm_flex_icarl
======
LLL_Net(
  (model): SimpleMLP(
    (fc1): Linear(in_features=91, out_features=1000, bias=True)
    (fc2): Sequential()
  )
  (heads): ModuleList(
    (0): Linear(in_features=1000, out_features=34, bias=True)
    (1): Linear(in_features=1000, out_features=20, bias=True)
    (2): Linear(in_features=1000, out_features=20, bias=True)
    (3): Linear(in_features=1000, out_features=20, bias=True)
    (4): Linear(in_features=1000, out_features=20, bias=True)
    (5): Linear(in_features=1000, out_features=20, bias=True)
    (6): Linear(in_features=1000, out_features=20, bias=True)
    (7): Linear(in_features=1000, out_features=20, bias=True)
    (8): Linear(in_features=1000, out_features=20, bias=True)
    (9): Linear(in_features=1000, out_features=20, bias=True)
    (10): Linear(in_features=1000, out_features=20, bias=True)
    (11): Linear(in_features=1000, out_features=20, bias=True)
    (12): Linear(in_features=1000, out_features=20, bias=True)
    (13): Linear(in_features=1000, out_features=20, bias=True)
  )
)
======

************************************************************************************************************
Task 14
************************************************************************************************************
| Epoch   1, time=  5.4s | Train: skip eval | Valid: time=  0.3s loss=185.639, TAw acc=  4.8% | *
| Epoch   2, time=  5.4s | Train: skip eval | Valid: time=  0.3s loss=185.617, TAw acc=  6.0% | *
…
>>> Test on task  9 : loss=119.660 | TAw acc= 96.4%, forg=  0.0%| TAg acc= 70.5%, forg=  3.6% <<<
>>> Test on task 10 : loss=132.063 | TAw acc= 92.3%, forg=  0.0%| TAg acc= 64.1%, forg=  2.6% <<<
>>> Test on task 11 : loss=148.472 | TAw acc= 97.2%, forg=  0.0%| TAg acc= 75.2%, forg=  1.8% <<<
>>> Test on task 12 : loss=156.519 | TAw acc= 87.4%, forg=  0.0%| TAg acc= 60.2%, forg=  2.9% <<<
>>> Test on task 13 : loss=170.294 | TAw acc= 96.3%, forg=  0.0%| TAg acc= 65.7%, forg=  0.0% <<<
>>> Test on task 14 : loss=180.889 | TAw acc= 94.6%, forg=  0.0%| TAg acc= 59.8%, forg=  0.0% <<<
Save at k=10/icarl_wisdm_1/wisdm_flex_icarl
======
LLL_Net(
  (model): SimpleMLP(
    (fc1): Linear(in_features=91, out_features=1000, bias=True)
    (fc2): Sequential()
  )
  (heads): ModuleList(
    (0): Linear(in_features=1000, out_features=34, bias=True)
    (1): Linear(in_features=1000, out_features=20, bias=True)
    (2): Linear(in_features=1000, out_features=20, bias=True)
    (3): Linear(in_features=1000, out_features=20, bias=True)
    (4): Linear(in_features=1000, out_features=20, bias=True)
    (5): Linear(in_features=1000, out_features=20, bias=True)
    (6): Linear(in_features=1000, out_features=20, bias=True)
    (7): Linear(in_features=1000, out_features=20, bias=True)
    (8): Linear(in_features=1000, out_features=20, bias=True)
    (9): Linear(in_features=1000, out_features=20, bias=True)
    (10): Linear(in_features=1000, out_features=20, bias=True)
    (11): Linear(in_features=1000, out_features=20, bias=True)
    (12): Linear(in_features=1000, out_features=20, bias=True)
    (13): Linear(in_features=1000, out_features=20, bias=True)
    (14): Linear(in_features=1000, out_features=20, bias=True)
  )
)
======

************************************************************************************************************
Task 15
************************************************************************************************************
| Epoch   1, time=  6.3s | Train: skip eval | Valid: time=  0.3s loss=193.613, TAw acc=  7.4% | *
| Epoch   2, time=  6.1s | Train: skip eval | Valid: time=  0.3s loss=193.570, TAw acc= 10.6% | *
…
>>> Test on task 10 : loss=131.457 | TAw acc= 92.3%, forg=  0.0%| TAg acc= 61.5%, forg=  5.1% <<<
>>> Test on task 11 : loss=147.798 | TAw acc= 97.2%, forg=  0.0%| TAg acc= 73.4%, forg=  3.7% <<<
>>> Test on task 12 : loss=155.797 | TAw acc= 87.4%, forg=  0.0%| TAg acc= 57.3%, forg=  5.8% <<<
>>> Test on task 13 : loss=169.584 | TAw acc= 96.3%, forg=  0.0%| TAg acc= 65.7%, forg=  0.0% <<<
>>> Test on task 14 : loss=180.237 | TAw acc= 94.6%, forg=  0.0%| TAg acc= 58.9%, forg=  0.9% <<<
>>> Test on task 15 : loss=188.377 | TAw acc= 95.2%, forg=  0.0%| TAg acc= 73.6%, forg=  0.0% <<<
Save at k=10/icarl_wisdm_1/wisdm_flex_icarl
======
LLL_Net(
  (model): SimpleMLP(
    (fc1): Linear(in_features=91, out_features=1000, bias=True)
    (fc2): Sequential()
  )
  (heads): ModuleList(
    (0): Linear(in_features=1000, out_features=34, bias=True)
    (1): Linear(in_features=1000, out_features=20, bias=True)
    (2): Linear(in_features=1000, out_features=20, bias=True)
    (3): Linear(in_features=1000, out_features=20, bias=True)
    (4): Linear(in_features=1000, out_features=20, bias=True)
    (5): Linear(in_features=1000, out_features=20, bias=True)
    (6): Linear(in_features=1000, out_features=20, bias=True)
    (7): Linear(in_features=1000, out_features=20, bias=True)
    (8): Linear(in_features=1000, out_features=20, bias=True)
    (9): Linear(in_features=1000, out_features=20, bias=True)
    (10): Linear(in_features=1000, out_features=20, bias=True)
    (11): Linear(in_features=1000, out_features=20, bias=True)
    (12): Linear(in_features=1000, out_features=20, bias=True)
    (13): Linear(in_features=1000, out_features=20, bias=True)
    (14): Linear(in_features=1000, out_features=20, bias=True)
    (15): Linear(in_features=1000, out_features=20, bias=True)
  )
)
======

************************************************************************************************************
Task 16
************************************************************************************************************
| Epoch   1, time=  6.3s | Train: skip eval | Valid: time=  0.3s loss=207.848, TAw acc=  1.4% | *
| Epoch   2, time=  6.7s | Train: skip eval | Valid: time=  0.3s loss=207.825, TAw acc=  1.4% | *
…
>>> Test on task 11 : loss=147.082 | TAw acc= 97.2%, forg=  0.0%| TAg acc= 71.6%, forg=  5.5% <<<
>>> Test on task 12 : loss=154.996 | TAw acc= 87.4%, forg=  0.0%| TAg acc= 57.3%, forg=  5.8% <<<
>>> Test on task 13 : loss=168.787 | TAw acc= 96.3%, forg=  0.0%| TAg acc= 64.8%, forg=  0.9% <<<
>>> Test on task 14 : loss=179.491 | TAw acc= 94.6%, forg=  0.0%| TAg acc= 54.5%, forg=  5.4% <<<
>>> Test on task 15 : loss=187.653 | TAw acc= 95.2%, forg=  0.0%| TAg acc= 73.6%, forg=  0.0% <<<
>>> Test on task 16 : loss=204.091 | TAw acc= 94.0%, forg=  0.0%| TAg acc= 79.0%, forg=  0.0% <<<
Save at k=10/icarl_wisdm_1/wisdm_flex_icarl
======
LLL_Net(
  (model): SimpleMLP(
    (fc1): Linear(in_features=91, out_features=1000, bias=True)
    (fc2): Sequential()
  )
  (heads): ModuleList(
    (0): Linear(in_features=1000, out_features=34, bias=True)
    (1): Linear(in_features=1000, out_features=20, bias=True)
    (2): Linear(in_features=1000, out_features=20, bias=True)
    (3): Linear(in_features=1000, out_features=20, bias=True)
    (4): Linear(in_features=1000, out_features=20, bias=True)
    (5): Linear(in_features=1000, out_features=20, bias=True)
    (6): Linear(in_features=1000, out_features=20, bias=True)
    (7): Linear(in_features=1000, out_features=20, bias=True)
    (8): Linear(in_features=1000, out_features=20, bias=True)
    (9): Linear(in_features=1000, out_features=20, bias=True)
    (10): Linear(in_features=1000, out_features=20, bias=True)
    (11): Linear(in_features=1000, out_features=20, bias=True)
    (12): Linear(in_features=1000, out_features=20, bias=True)
    (13): Linear(in_features=1000, out_features=20, bias=True)
    (14): Linear(in_features=1000, out_features=20, bias=True)
    (15): Linear(in_features=1000, out_features=20, bias=True)
    (16): Linear(in_features=1000, out_features=20, bias=True)
  )
)
======

************************************************************************************************************
Task 17
************************************************************************************************************
| Epoch   1, time=  7.8s | Train: skip eval | Valid: time=  0.3s loss=212.625, TAw acc=  5.0% | *
| Epoch   2, time=  7.7s | Train: skip eval | Valid: time=  0.3s loss=212.559, TAw acc=  5.9% | *
…
>>> Test on task 12 : loss=154.312 | TAw acc= 87.4%, forg=  0.0%| TAg acc= 56.3%, forg=  6.8% <<<
>>> Test on task 13 : loss=168.111 | TAw acc= 96.3%, forg=  0.0%| TAg acc= 64.8%, forg=  0.9% <<<
>>> Test on task 14 : loss=178.750 | TAw acc= 94.6%, forg=  0.0%| TAg acc= 54.5%, forg=  5.4% <<<
>>> Test on task 15 : loss=187.016 | TAw acc= 95.2%, forg=  0.0%| TAg acc= 72.8%, forg=  0.8% <<<
>>> Test on task 16 : loss=203.361 | TAw acc= 94.0%, forg=  0.0%| TAg acc= 79.0%, forg=  0.0% <<<
>>> Test on task 17 : loss=207.010 | TAw acc= 95.5%, forg=  0.0%| TAg acc= 63.9%, forg=  0.0% <<<
Save at k=10/icarl_wisdm_1/wisdm_flex_icarl
======
LLL_Net(
  (model): SimpleMLP(
    (fc1): Linear(in_features=91, out_features=1000, bias=True)
    (fc2): Sequential()
  )
  (heads): ModuleList(
    (0): Linear(in_features=1000, out_features=34, bias=True)
    (1): Linear(in_features=1000, out_features=20, bias=True)
    (2): Linear(in_features=1000, out_features=20, bias=True)
    (3): Linear(in_features=1000, out_features=20, bias=True)
    (4): Linear(in_features=1000, out_features=20, bias=True)
    (5): Linear(in_features=1000, out_features=20, bias=True)
    (6): Linear(in_features=1000, out_features=20, bias=True)
    (7): Linear(in_features=1000, out_features=20, bias=True)
    (8): Linear(in_features=1000, out_features=20, bias=True)
    (9): Linear(in_features=1000, out_features=20, bias=True)
    (10): Linear(in_features=1000, out_features=20, bias=True)
    (11): Linear(in_features=1000, out_features=20, bias=True)
    (12): Linear(in_features=1000, out_features=20, bias=True)
    (13): Linear(in_features=1000, out_features=20, bias=True)
    (14): Linear(in_features=1000, out_features=20, bias=True)
    (15): Linear(in_features=1000, out_features=20, bias=True)
    (16): Linear(in_features=1000, out_features=20, bias=True)
    (17): Linear(in_features=1000, out_features=20, bias=True)
  )
)
======

************************************************************************************************************
Task 18
************************************************************************************************************
| Epoch   1, time=  8.4s | Train: skip eval | Valid: time=  0.3s loss=228.990, TAw acc=  2.3% | *
| Epoch   2, time=  8.4s | Train: skip eval | Valid: time=  0.3s loss=228.956, TAw acc=  2.3% | *
…
>>> Test on task 13 : loss=167.409 | TAw acc= 96.3%, forg=  0.0%| TAg acc= 63.0%, forg=  2.8% <<<
>>> Test on task 14 : loss=177.950 | TAw acc= 94.6%, forg=  0.0%| TAg acc= 54.5%, forg=  5.4% <<<
>>> Test on task 15 : loss=186.243 | TAw acc= 95.2%, forg=  0.0%| TAg acc= 72.8%, forg=  0.8% <<<
>>> Test on task 16 : loss=202.553 | TAw acc= 94.0%, forg=  0.0%| TAg acc= 78.0%, forg=  1.0% <<<
>>> Test on task 17 : loss=206.485 | TAw acc= 95.5%, forg=  0.0%| TAg acc= 63.9%, forg=  0.0% <<<
>>> Test on task 18 : loss=223.573 | TAw acc= 91.4%, forg=  0.0%| TAg acc= 64.7%, forg=  0.0% <<<
Save at k=10/icarl_wisdm_1/wisdm_flex_icarl
======
LLL_Net(
  (model): SimpleMLP(
    (fc1): Linear(in_features=91, out_features=1000, bias=True)
    (fc2): Sequential()
  )
  (heads): ModuleList(
    (0): Linear(in_features=1000, out_features=34, bias=True)
    (1): Linear(in_features=1000, out_features=20, bias=True)
    (2): Linear(in_features=1000, out_features=20, bias=True)
    (3): Linear(in_features=1000, out_features=20, bias=True)
    (4): Linear(in_features=1000, out_features=20, bias=True)
    (5): Linear(in_features=1000, out_features=20, bias=True)
    (6): Linear(in_features=1000, out_features=20, bias=True)
    (7): Linear(in_features=1000, out_features=20, bias=True)
    (8): Linear(in_features=1000, out_features=20, bias=True)
    (9): Linear(in_features=1000, out_features=20, bias=True)
    (10): Linear(in_features=1000, out_features=20, bias=True)
    (11): Linear(in_features=1000, out_features=20, bias=True)
    (12): Linear(in_features=1000, out_features=20, bias=True)
    (13): Linear(in_features=1000, out_features=20, bias=True)
    (14): Linear(in_features=1000, out_features=20, bias=True)
    (15): Linear(in_features=1000, out_features=20, bias=True)
    (16): Linear(in_features=1000, out_features=20, bias=True)
    (17): Linear(in_features=1000, out_features=20, bias=True)
    (18): Linear(in_features=1000, out_features=20, bias=True)
  )
)
======

************************************************************************************************************
Task 19
************************************************************************************************************
| Epoch   1, time=  9.1s | Train: skip eval | Valid: time=  0.3s loss=231.693, TAw acc=  4.8% | *
| Epoch   2, time=  8.6s | Train: skip eval | Valid: time=  0.3s loss=231.647, TAw acc=  4.8% | *
…
>>> Test on task 14 : loss=177.234 | TAw acc= 94.6%, forg=  0.0%| TAg acc= 53.6%, forg=  6.2% <<<
>>> Test on task 15 : loss=185.511 | TAw acc= 95.2%, forg=  0.0%| TAg acc= 72.8%, forg=  0.8% <<<
>>> Test on task 16 : loss=201.742 | TAw acc= 94.0%, forg=  0.0%| TAg acc= 78.0%, forg=  1.0% <<<
>>> Test on task 17 : loss=205.871 | TAw acc= 95.5%, forg=  0.0%| TAg acc= 63.2%, forg=  0.8% <<<
>>> Test on task 18 : loss=222.870 | TAw acc= 91.4%, forg=  0.0%| TAg acc= 64.7%, forg=  0.0% <<<
>>> Test on task 19 : loss=220.724 | TAw acc= 94.7%, forg=  0.0%| TAg acc= 62.8%, forg=  0.0% <<<
Save at k=10/icarl_wisdm_1/wisdm_flex_icarl
======
LLL_Net(
  (model): SimpleMLP(
    (fc1): Linear(in_features=91, out_features=1000, bias=True)
    (fc2): Sequential()
  )
  (heads): ModuleList(
    (0): Linear(in_features=1000, out_features=34, bias=True)
    (1): Linear(in_features=1000, out_features=20, bias=True)
    (2): Linear(in_features=1000, out_features=20, bias=True)
    (3): Linear(in_features=1000, out_features=20, bias=True)
    (4): Linear(in_features=1000, out_features=20, bias=True)
    (5): Linear(in_features=1000, out_features=20, bias=True)
    (6): Linear(in_features=1000, out_features=20, bias=True)
    (7): Linear(in_features=1000, out_features=20, bias=True)
    (8): Linear(in_features=1000, out_features=20, bias=True)
    (9): Linear(in_features=1000, out_features=20, bias=True)
    (10): Linear(in_features=1000, out_features=20, bias=True)
    (11): Linear(in_features=1000, out_features=20, bias=True)
    (12): Linear(in_features=1000, out_features=20, bias=True)
    (13): Linear(in_features=1000, out_features=20, bias=True)
    (14): Linear(in_features=1000, out_features=20, bias=True)
    (15): Linear(in_features=1000, out_features=20, bias=True)
    (16): Linear(in_features=1000, out_features=20, bias=True)
    (17): Linear(in_features=1000, out_features=20, bias=True)
    (18): Linear(in_features=1000, out_features=20, bias=True)
    (19): Linear(in_features=1000, out_features=20, bias=True)
  )
)
======

************************************************************************************************************
Task 20
************************************************************************************************************
| Epoch   1, time=  9.9s | Train: skip eval | Valid: time=  0.3s loss=249.380, TAw acc=  2.2% | *
| Epoch   2, time= 10.0s | Train: skip eval | Valid: time=  0.3s loss=249.354, TAw acc=  2.2% | *
…
>>> Test on task 15 : loss=184.781 | TAw acc= 95.2%, forg=  0.0%| TAg acc= 72.8%, forg=  0.8% <<<
>>> Test on task 16 : loss=200.940 | TAw acc= 94.0%, forg=  0.0%| TAg acc= 78.0%, forg=  1.0% <<<
>>> Test on task 17 : loss=205.125 | TAw acc= 95.5%, forg=  0.0%| TAg acc= 63.2%, forg=  0.8% <<<
>>> Test on task 18 : loss=222.107 | TAw acc= 91.4%, forg=  0.0%| TAg acc= 64.7%, forg=  0.0% <<<
>>> Test on task 19 : loss=220.230 | TAw acc= 94.7%, forg=  0.0%| TAg acc= 61.9%, forg=  0.9% <<<
>>> Test on task 20 : loss=241.436 | TAw acc= 94.2%, forg=  0.0%| TAg acc= 70.8%, forg=  0.0% <<<
Save at k=10/icarl_wisdm_1/wisdm_flex_icarl
======
LLL_Net(
  (model): SimpleMLP(
    (fc1): Linear(in_features=91, out_features=1000, bias=True)
    (fc2): Sequential()
  )
  (heads): ModuleList(
    (0): Linear(in_features=1000, out_features=34, bias=True)
    (1): Linear(in_features=1000, out_features=20, bias=True)
    (2): Linear(in_features=1000, out_features=20, bias=True)
    (3): Linear(in_features=1000, out_features=20, bias=True)
    (4): Linear(in_features=1000, out_features=20, bias=True)
    (5): Linear(in_features=1000, out_features=20, bias=True)
    (6): Linear(in_features=1000, out_features=20, bias=True)
    (7): Linear(in_features=1000, out_features=20, bias=True)
    (8): Linear(in_features=1000, out_features=20, bias=True)
    (9): Linear(in_features=1000, out_features=20, bias=True)
    (10): Linear(in_features=1000, out_features=20, bias=True)
    (11): Linear(in_features=1000, out_features=20, bias=True)
    (12): Linear(in_features=1000, out_features=20, bias=True)
    (13): Linear(in_features=1000, out_features=20, bias=True)
    (14): Linear(in_features=1000, out_features=20, bias=True)
    (15): Linear(in_features=1000, out_features=20, bias=True)
    (16): Linear(in_features=1000, out_features=20, bias=True)
    (17): Linear(in_features=1000, out_features=20, bias=True)
    (18): Linear(in_features=1000, out_features=20, bias=True)
    (19): Linear(in_features=1000, out_features=20, bias=True)
    (20): Linear(in_features=1000, out_features=20, bias=True)
  )
)
======

************************************************************************************************************
Task 21
************************************************************************************************************
| Epoch   1, time= 10.6s | Train: skip eval | Valid: time=  0.3s loss=263.406, TAw acc=  0.0% | *
| Epoch   2, time= 10.6s | Train: skip eval | Valid: time=  0.3s loss=263.381, TAw acc=  0.0% | *
…
>>> Test on task 16 : loss=200.141 | TAw acc= 94.0%, forg=  0.0%| TAg acc= 78.0%, forg=  1.0% <<<
>>> Test on task 17 : loss=204.378 | TAw acc= 95.5%, forg=  0.0%| TAg acc= 62.4%, forg=  1.5% <<<
>>> Test on task 18 : loss=221.304 | TAw acc= 91.4%, forg=  0.0%| TAg acc= 63.8%, forg=  0.9% <<<
>>> Test on task 19 : loss=219.497 | TAw acc= 94.7%, forg=  0.0%| TAg acc= 61.9%, forg=  0.9% <<<
>>> Test on task 20 : loss=240.502 | TAw acc= 94.2%, forg=  0.0%| TAg acc= 70.0%, forg=  0.8% <<<
>>> Test on task 21 : loss=255.382 | TAw acc= 89.7%, forg=  0.0%| TAg acc= 77.3%, forg=  0.0% <<<
Save at k=10/icarl_wisdm_1/wisdm_flex_icarl
======
LLL_Net(
  (model): SimpleMLP(
    (fc1): Linear(in_features=91, out_features=1000, bias=True)
    (fc2): Sequential()
  )
  (heads): ModuleList(
    (0): Linear(in_features=1000, out_features=34, bias=True)
    (1): Linear(in_features=1000, out_features=20, bias=True)
    (2): Linear(in_features=1000, out_features=20, bias=True)
    (3): Linear(in_features=1000, out_features=20, bias=True)
    (4): Linear(in_features=1000, out_features=20, bias=True)
    (5): Linear(in_features=1000, out_features=20, bias=True)
    (6): Linear(in_features=1000, out_features=20, bias=True)
    (7): Linear(in_features=1000, out_features=20, bias=True)
    (8): Linear(in_features=1000, out_features=20, bias=True)
    (9): Linear(in_features=1000, out_features=20, bias=True)
    (10): Linear(in_features=1000, out_features=20, bias=True)
    (11): Linear(in_features=1000, out_features=20, bias=True)
    (12): Linear(in_features=1000, out_features=20, bias=True)
    (13): Linear(in_features=1000, out_features=20, bias=True)
    (14): Linear(in_features=1000, out_features=20, bias=True)
    (15): Linear(in_features=1000, out_features=20, bias=True)
    (16): Linear(in_features=1000, out_features=20, bias=True)
    (17): Linear(in_features=1000, out_features=20, bias=True)
    (18): Linear(in_features=1000, out_features=20, bias=True)
    (19): Linear(in_features=1000, out_features=20, bias=True)
    (20): Linear(in_features=1000, out_features=20, bias=True)
    (21): Linear(in_features=1000, out_features=20, bias=True)
  )
)
======

************************************************************************************************************
Task 22
************************************************************************************************************
| Epoch   1, time= 11.3s | Train: skip eval | Valid: time=  0.3s loss=258.977, TAw acc=  3.4% | *
| Epoch   2, time= 11.7s | Train: skip eval | Valid: time=  0.3s loss=258.916, TAw acc=  3.4% | *
…
>>> Test on task 17 : loss=203.727 | TAw acc= 95.5%, forg=  0.0%| TAg acc= 62.4%, forg=  1.5% <<<
>>> Test on task 18 : loss=220.536 | TAw acc= 91.4%, forg=  0.0%| TAg acc= 63.8%, forg=  0.9% <<<
>>> Test on task 19 : loss=218.813 | TAw acc= 94.7%, forg=  0.0%| TAg acc= 61.9%, forg=  0.9% <<<
>>> Test on task 20 : loss=239.575 | TAw acc= 94.2%, forg=  0.0%| TAg acc= 70.0%, forg=  0.8% <<<
>>> Test on task 21 : loss=254.524 | TAw acc= 89.7%, forg=  0.0%| TAg acc= 77.3%, forg=  0.0% <<<
>>> Test on task 22 : loss=254.723 | TAw acc= 94.2%, forg=  0.0%| TAg acc= 80.8%, forg=  0.0% <<<
Save at k=10/icarl_wisdm_1/wisdm_flex_icarl
======
LLL_Net(
  (model): SimpleMLP(
    (fc1): Linear(in_features=91, out_features=1000, bias=True)
    (fc2): Sequential()
  )
  (heads): ModuleList(
    (0): Linear(in_features=1000, out_features=34, bias=True)
    (1): Linear(in_features=1000, out_features=20, bias=True)
    (2): Linear(in_features=1000, out_features=20, bias=True)
    (3): Linear(in_features=1000, out_features=20, bias=True)
    (4): Linear(in_features=1000, out_features=20, bias=True)
    (5): Linear(in_features=1000, out_features=20, bias=True)
    (6): Linear(in_features=1000, out_features=20, bias=True)
    (7): Linear(in_features=1000, out_features=20, bias=True)
    (8): Linear(in_features=1000, out_features=20, bias=True)
    (9): Linear(in_features=1000, out_features=20, bias=True)
    (10): Linear(in_features=1000, out_features=20, bias=True)
    (11): Linear(in_features=1000, out_features=20, bias=True)
    (12): Linear(in_features=1000, out_features=20, bias=True)
    (13): Linear(in_features=1000, out_features=20, bias=True)
    (14): Linear(in_features=1000, out_features=20, bias=True)
    (15): Linear(in_features=1000, out_features=20, bias=True)
    (16): Linear(in_features=1000, out_features=20, bias=True)
    (17): Linear(in_features=1000, out_features=20, bias=True)
    (18): Linear(in_features=1000, out_features=20, bias=True)
    (19): Linear(in_features=1000, out_features=20, bias=True)
    (20): Linear(in_features=1000, out_features=20, bias=True)
    (21): Linear(in_features=1000, out_features=20, bias=True)
    (22): Linear(in_features=1000, out_features=20, bias=True)
  )
)
======

************************************************************************************************************
Task 23
************************************************************************************************************
| Epoch   1, time= 12.3s | Train: skip eval | Valid: time=  0.3s loss=272.564, TAw acc=  4.1% | *
| Epoch   2, time= 12.8s | Train: skip eval | Valid: time=  0.3s loss=272.523, TAw acc=  4.1% | *
…
>>> Test on task 18 : loss=219.843 | TAw acc= 91.4%, forg=  0.0%| TAg acc= 63.8%, forg=  0.9% <<<
>>> Test on task 19 : loss=218.137 | TAw acc= 94.7%, forg=  0.0%| TAg acc= 61.9%, forg=  0.9% <<<
>>> Test on task 20 : loss=238.707 | TAw acc= 94.2%, forg=  0.0%| TAg acc= 69.2%, forg=  1.7% <<<
>>> Test on task 21 : loss=253.658 | TAw acc= 89.7%, forg=  0.0%| TAg acc= 77.3%, forg=  0.0% <<<
>>> Test on task 22 : loss=254.024 | TAw acc= 94.2%, forg=  0.0%| TAg acc= 80.8%, forg=  0.0% <<<
>>> Test on task 23 : loss=266.117 | TAw acc= 98.5%, forg=  0.0%| TAg acc= 66.4%, forg=  0.0% <<<
Save at k=10/icarl_wisdm_1/wisdm_flex_icarl
======
LLL_Net(
  (model): SimpleMLP(
    (fc1): Linear(in_features=91, out_features=1000, bias=True)
    (fc2): Sequential()
  )
  (heads): ModuleList(
    (0): Linear(in_features=1000, out_features=34, bias=True)
    (1): Linear(in_features=1000, out_features=20, bias=True)
    (2): Linear(in_features=1000, out_features=20, bias=True)
    (3): Linear(in_features=1000, out_features=20, bias=True)
    (4): Linear(in_features=1000, out_features=20, bias=True)
    (5): Linear(in_features=1000, out_features=20, bias=True)
    (6): Linear(in_features=1000, out_features=20, bias=True)
    (7): Linear(in_features=1000, out_features=20, bias=True)
    (8): Linear(in_features=1000, out_features=20, bias=True)
    (9): Linear(in_features=1000, out_features=20, bias=True)
    (10): Linear(in_features=1000, out_features=20, bias=True)
    (11): Linear(in_features=1000, out_features=20, bias=True)
    (12): Linear(in_features=1000, out_features=20, bias=True)
    (13): Linear(in_features=1000, out_features=20, bias=True)
    (14): Linear(in_features=1000, out_features=20, bias=True)
    (15): Linear(in_features=1000, out_features=20, bias=True)
    (16): Linear(in_features=1000, out_features=20, bias=True)
    (17): Linear(in_features=1000, out_features=20, bias=True)
    (18): Linear(in_features=1000, out_features=20, bias=True)
    (19): Linear(in_features=1000, out_features=20, bias=True)
    (20): Linear(in_features=1000, out_features=20, bias=True)
    (21): Linear(in_features=1000, out_features=20, bias=True)
    (22): Linear(in_features=1000, out_features=20, bias=True)
    (23): Linear(in_features=1000, out_features=20, bias=True)
  )
)
======

************************************************************************************************************
Task 24
************************************************************************************************************
| Epoch   1, time= 13.7s | Train: skip eval | Valid: time=  0.3s loss=269.950, TAw acc=  5.0% | *
| Epoch   2, time= 13.7s | Train: skip eval | Valid: time=  0.3s loss=269.876, TAw acc= 10.0% | *
…
