…
| Selected 420 train exemplars, time=  0.0s
420
------------------------------------------------------------------------------------------------------------
>>> Test on task  0 : loss=0.511 | TAw acc= 98.6%, forg= -0.7%| TAg acc= 81.9%, forg= 16.0% <<<
>>> Test on task  1 : loss=0.901 | TAw acc= 85.0%, forg=  1.7%| TAg acc= 69.2%, forg= 16.7% <<<
>>> Test on task  2 : loss=0.503 | TAw acc=100.0%, forg=  0.0%| TAg acc= 87.5%, forg= 12.5% <<<
>>> Test on task  3 : loss=0.196 | TAw acc= 99.2%, forg=  0.0%| TAg acc= 99.2%, forg=  0.0% <<<
Save at k=10/eeil_dsads_2/har_flex_eeil
======
LLL_Net(
  (model): SimpleMLP(
    (fc1): Linear(in_features=405, out_features=66, bias=True)
    (fc2): Sequential()
  )
  (heads): ModuleList(
    (0): Linear(in_features=66, out_features=12, bias=True)
    (1): Linear(in_features=66, out_features=10, bias=True)
    (2): Linear(in_features=66, out_features=10, bias=True)
    (3): Linear(in_features=66, out_features=10, bias=True)
  )
)
======

************************************************************************************************************
Task  4
************************************************************************************************************
| Epoch   1, time=  0.3s | Train: skip eval | Valid: time=  0.2s loss=4.432, TAw acc= 34.4% | *
| Epoch   2, time=  0.3s | Train: skip eval | Valid: time=  0.2s loss=1.893, TAw acc= 58.3% | *
…
------------------------------------------------------------------------------------------------------------
>>> Test on task  0 : loss=0.658 | TAw acc= 98.6%, forg=  0.0%| TAg acc= 77.8%, forg= 20.1% <<<
>>> Test on task  1 : loss=1.044 | TAw acc= 85.8%, forg=  0.8%| TAg acc= 65.8%, forg= 20.0% <<<
>>> Test on task  2 : loss=0.509 | TAw acc=100.0%, forg=  0.0%| TAg acc= 82.5%, forg= 17.5% <<<
>>> Test on task  3 : loss=0.596 | TAw acc= 99.2%, forg=  0.0%| TAg acc= 81.7%, forg= 17.5% <<<
>>> Test on task  4 : loss=0.274 | TAw acc=100.0%, forg=  0.0%| TAg acc= 99.2%, forg=  0.0% <<<
Save at k=10/eeil_dsads_2/har_flex_eeil
======
LLL_Net(
  (model): SimpleMLP(
    (fc1): Linear(in_features=405, out_features=66, bias=True)
    (fc2): Sequential()
  )
  (heads): ModuleList(
    (0): Linear(in_features=66, out_features=12, bias=True)
    (1): Linear(in_features=66, out_features=10, bias=True)
    (2): Linear(in_features=66, out_features=10, bias=True)
    (3): Linear(in_features=66, out_features=10, bias=True)
    (4): Linear(in_features=66, out_features=10, bias=True)
  )
)
======

************************************************************************************************************
Task  5
************************************************************************************************************
| Epoch   1, time=  0.4s | Train: skip eval | Valid: time=  0.2s loss=3.873, TAw acc= 37.5% | *
| Epoch   2, time=  0.4s | Train: skip eval | Valid: time=  0.2s loss=1.950, TAw acc= 82.3% | *
…
>>> Test on task  0 : loss=0.585 | TAw acc= 97.9%, forg=  0.7%| TAg acc= 86.8%, forg= 11.1% <<<
>>> Test on task  1 : loss=1.523 | TAw acc= 86.7%, forg=  0.0%| TAg acc= 44.2%, forg= 41.7% <<<
>>> Test on task  2 : loss=0.483 | TAw acc=100.0%, forg=  0.0%| TAg acc= 89.2%, forg= 10.8% <<<
>>> Test on task  3 : loss=0.555 | TAw acc=100.0%, forg= -0.8%| TAg acc= 83.3%, forg= 15.8% <<<
>>> Test on task  4 : loss=0.819 | TAw acc=100.0%, forg=  0.0%| TAg acc= 75.8%, forg= 23.3% <<<
>>> Test on task  5 : loss=0.547 | TAw acc= 94.2%, forg=  0.0%| TAg acc= 91.7%, forg=  0.0% <<<
Save at k=10/eeil_dsads_2/har_flex_eeil
======
LLL_Net(
  (model): SimpleMLP(
    (fc1): Linear(in_features=405, out_features=66, bias=True)
    (fc2): Sequential()
  )
  (heads): ModuleList(
    (0): Linear(in_features=66, out_features=12, bias=True)
    (1): Linear(in_features=66, out_features=10, bias=True)
    (2): Linear(in_features=66, out_features=10, bias=True)
    (3): Linear(in_features=66, out_features=10, bias=True)
    (4): Linear(in_features=66, out_features=10, bias=True)
    (5): Linear(in_features=66, out_features=10, bias=True)
  )
)
======

************************************************************************************************************
Task  6
************************************************************************************************************
| Epoch   1, time=  0.4s | Train: skip eval | Valid: time=  0.2s loss=3.280, TAw acc= 24.0% | *
| Epoch   2, time=  0.4s | Train: skip eval | Valid: time=  0.3s loss=1.784, TAw acc= 50.0% | *
…
>>> Test on task  1 : loss=1.131 | TAw acc= 87.5%, forg= -0.8%| TAg acc= 70.0%, forg= 15.8% <<<
>>> Test on task  2 : loss=0.501 | TAw acc=100.0%, forg=  0.0%| TAg acc= 82.5%, forg= 17.5% <<<
>>> Test on task  3 : loss=0.385 | TAw acc=100.0%, forg=  0.0%| TAg acc= 94.2%, forg=  5.0% <<<
>>> Test on task  4 : loss=0.607 | TAw acc= 99.2%, forg=  0.8%| TAg acc= 85.8%, forg= 13.3% <<<
>>> Test on task  5 : loss=0.964 | TAw acc= 91.7%, forg=  2.5%| TAg acc= 70.0%, forg= 21.7% <<<
>>> Test on task  6 : loss=0.374 | TAw acc= 96.7%, forg=  0.0%| TAg acc= 95.8%, forg=  0.0% <<<
Save at k=10/eeil_dsads_2/har_flex_eeil
======
LLL_Net(
  (model): SimpleMLP(
    (fc1): Linear(in_features=405, out_features=66, bias=True)
    (fc2): Sequential()
  )
  (heads): ModuleList(
    (0): Linear(in_features=66, out_features=12, bias=True)
    (1): Linear(in_features=66, out_features=10, bias=True)
    (2): Linear(in_features=66, out_features=10, bias=True)
    (3): Linear(in_features=66, out_features=10, bias=True)
    (4): Linear(in_features=66, out_features=10, bias=True)
    (5): Linear(in_features=66, out_features=10, bias=True)
    (6): Linear(in_features=66, out_features=10, bias=True)
  )
)
======

************************************************************************************************************
Task  7
************************************************************************************************************
| Epoch   1, time=  0.4s | Train: skip eval | Valid: time=  0.2s loss=3.024, TAw acc= 44.8% | *
| Epoch   2, time=  0.5s | Train: skip eval | Valid: time=  0.2s loss=1.716, TAw acc= 41.7% | *
…
>>> Test on task  2 : loss=0.668 | TAw acc=100.0%, forg=  0.0%| TAg acc= 81.7%, forg= 18.3% <<<
>>> Test on task  3 : loss=0.490 | TAw acc=100.0%, forg=  0.0%| TAg acc= 90.0%, forg=  9.2% <<<
>>> Test on task  4 : loss=0.831 | TAw acc= 99.2%, forg=  0.8%| TAg acc= 74.2%, forg= 25.0% <<<
>>> Test on task  5 : loss=1.004 | TAw acc= 90.0%, forg=  4.2%| TAg acc= 70.0%, forg= 21.7% <<<
>>> Test on task  6 : loss=1.089 | TAw acc= 95.0%, forg=  1.7%| TAg acc= 60.8%, forg= 35.0% <<<
>>> Test on task  7 : loss=0.516 | TAw acc= 95.0%, forg=  0.0%| TAg acc= 94.2%, forg=  0.0% <<<
Save at k=10/eeil_dsads_2/har_flex_eeil
======
LLL_Net(
  (model): SimpleMLP(
    (fc1): Linear(in_features=405, out_features=66, bias=True)
    (fc2): Sequential()
  )
  (heads): ModuleList(
    (0): Linear(in_features=66, out_features=12, bias=True)
    (1): Linear(in_features=66, out_features=10, bias=True)
    (2): Linear(in_features=66, out_features=10, bias=True)
    (3): Linear(in_features=66, out_features=10, bias=True)
    (4): Linear(in_features=66, out_features=10, bias=True)
    (5): Linear(in_features=66, out_features=10, bias=True)
    (6): Linear(in_features=66, out_features=10, bias=True)
    (7): Linear(in_features=66, out_features=10, bias=True)
  )
)
======

************************************************************************************************************
Task  8
************************************************************************************************************
| Epoch   1, time=  0.5s | Train: skip eval | Valid: time=  0.2s loss=3.650, TAw acc= 51.0% | *
| Epoch   2, time=  0.5s | Train: skip eval | Valid: time=  0.2s loss=2.030, TAw acc= 61.5% | *
…
>>> Test on task  3 : loss=0.476 | TAw acc=100.0%, forg=  0.0%| TAg acc= 92.5%, forg=  6.7% <<<
>>> Test on task  4 : loss=0.689 | TAw acc= 99.2%, forg=  0.8%| TAg acc= 80.0%, forg= 19.2% <<<
>>> Test on task  5 : loss=1.247 | TAw acc= 92.5%, forg=  1.7%| TAg acc= 52.5%, forg= 39.2% <<<
>>> Test on task  6 : loss=0.870 | TAw acc= 99.2%, forg= -2.5%| TAg acc= 80.0%, forg= 15.8% <<<
>>> Test on task  7 : loss=0.999 | TAw acc= 95.8%, forg= -0.8%| TAg acc= 76.7%, forg= 17.5% <<<
>>> Test on task  8 : loss=0.588 | TAw acc= 95.8%, forg=  0.0%| TAg acc= 90.0%, forg=  0.0% <<<
Save at k=10/eeil_dsads_2/har_flex_eeil
======
LLL_Net(
  (model): SimpleMLP(
    (fc1): Linear(in_features=405, out_features=66, bias=True)
    (fc2): Sequential()
  )
  (heads): ModuleList(
    (0): Linear(in_features=66, out_features=12, bias=True)
    (1): Linear(in_features=66, out_features=10, bias=True)
    (2): Linear(in_features=66, out_features=10, bias=True)
    (3): Linear(in_features=66, out_features=10, bias=True)
    (4): Linear(in_features=66, out_features=10, bias=True)
    (5): Linear(in_features=66, out_features=10, bias=True)
    (6): Linear(in_features=66, out_features=10, bias=True)
    (7): Linear(in_features=66, out_features=10, bias=True)
    (8): Linear(in_features=66, out_features=10, bias=True)
  )
)
======

************************************************************************************************************
Task  9
************************************************************************************************************
| Epoch   1, time=  0.5s | Train: skip eval | Valid: time=  0.2s loss=3.291, TAw acc= 41.7% | *
| Epoch   2, time=  0.5s | Train: skip eval | Valid: time=  0.2s loss=1.751, TAw acc= 62.5% | *
…
>>> Test on task  4 : loss=0.644 | TAw acc= 99.2%, forg=  0.8%| TAg acc= 81.7%, forg= 17.5% <<<
>>> Test on task  5 : loss=0.953 | TAw acc= 91.7%, forg=  2.5%| TAg acc= 71.7%, forg= 20.0% <<<
>>> Test on task  6 : loss=0.738 | TAw acc= 98.3%, forg=  0.8%| TAg acc= 89.2%, forg=  6.7% <<<
>>> Test on task  7 : loss=0.920 | TAw acc= 97.5%, forg= -1.7%| TAg acc= 75.0%, forg= 19.2% <<<
>>> Test on task  8 : loss=1.025 | TAw acc= 94.2%, forg=  1.7%| TAg acc= 75.0%, forg= 15.0% <<<
>>> Test on task  9 : loss=0.555 | TAw acc= 97.5%, forg=  0.0%| TAg acc= 95.0%, forg=  0.0% <<<
Save at k=10/eeil_dsads_2/har_flex_eeil
======
LLL_Net(
  (model): SimpleMLP(
    (fc1): Linear(in_features=405, out_features=66, bias=True)
    (fc2): Sequential()
  )
  (heads): ModuleList(
    (0): Linear(in_features=66, out_features=12, bias=True)
    (1): Linear(in_features=66, out_features=10, bias=True)
    (2): Linear(in_features=66, out_features=10, bias=True)
    (3): Linear(in_features=66, out_features=10, bias=True)
    (4): Linear(in_features=66, out_features=10, bias=True)
    (5): Linear(in_features=66, out_features=10, bias=True)
    (6): Linear(in_features=66, out_features=10, bias=True)
    (7): Linear(in_features=66, out_features=10, bias=True)
    (8): Linear(in_features=66, out_features=10, bias=True)
    (9): Linear(in_features=66, out_features=10, bias=True)
  )
)
======

************************************************************************************************************
Task 10
************************************************************************************************************
| Epoch   1, time=  0.6s | Train: skip eval | Valid: time=  0.2s loss=3.214, TAw acc= 38.5% | *
| Epoch   2, time=  0.6s | Train: skip eval | Valid: time=  0.2s loss=1.892, TAw acc= 49.0% | *
…
>>> Test on task  5 : loss=1.011 | TAw acc= 91.7%, forg=  2.5%| TAg acc= 62.5%, forg= 29.2% <<<
>>> Test on task  6 : loss=0.789 | TAw acc= 99.2%, forg=  0.0%| TAg acc= 85.8%, forg= 10.0% <<<
>>> Test on task  7 : loss=0.842 | TAw acc= 97.5%, forg=  0.0%| TAg acc= 77.5%, forg= 16.7% <<<
>>> Test on task  8 : loss=1.287 | TAw acc= 95.8%, forg=  0.0%| TAg acc= 56.7%, forg= 33.3% <<<
>>> Test on task  9 : loss=0.982 | TAw acc= 97.5%, forg=  0.0%| TAg acc= 80.0%, forg= 15.0% <<<
>>> Test on task 10 : loss=0.576 | TAw acc= 94.2%, forg=  0.0%| TAg acc= 94.2%, forg=  0.0% <<<
Save at k=10/eeil_dsads_2/har_flex_eeil
======
LLL_Net(
  (model): SimpleMLP(
    (fc1): Linear(in_features=405, out_features=66, bias=True)
    (fc2): Sequential()
  )
  (heads): ModuleList(
    (0): Linear(in_features=66, out_features=12, bias=True)
    (1): Linear(in_features=66, out_features=10, bias=True)
    (2): Linear(in_features=66, out_features=10, bias=True)
    (3): Linear(in_features=66, out_features=10, bias=True)
    (4): Linear(in_features=66, out_features=10, bias=True)
    (5): Linear(in_features=66, out_features=10, bias=True)
    (6): Linear(in_features=66, out_features=10, bias=True)
    (7): Linear(in_features=66, out_features=10, bias=True)
    (8): Linear(in_features=66, out_features=10, bias=True)
    (9): Linear(in_features=66, out_features=10, bias=True)
    (10): Linear(in_features=66, out_features=10, bias=True)
  )
)
======

************************************************************************************************************
Task 11
************************************************************************************************************
| Epoch   1, time=  0.6s | Train: skip eval | Valid: time=  0.2s loss=3.831, TAw acc= 49.0% | *
| Epoch   2, time=  0.7s | Train: skip eval | Valid: time=  0.2s loss=2.154, TAw acc= 75.0% | *
…
>>> Test on task  6 : loss=0.741 | TAw acc= 99.2%, forg=  0.0%| TAg acc= 87.5%, forg=  8.3% <<<
>>> Test on task  7 : loss=0.839 | TAw acc= 97.5%, forg=  0.0%| TAg acc= 78.3%, forg= 15.8% <<<
>>> Test on task  8 : loss=1.143 | TAw acc= 95.8%, forg=  0.0%| TAg acc= 66.7%, forg= 23.3% <<<
>>> Test on task  9 : loss=1.029 | TAw acc= 96.7%, forg=  0.8%| TAg acc= 68.3%, forg= 26.7% <<<
>>> Test on task 10 : loss=1.150 | TAw acc= 95.0%, forg= -0.8%| TAg acc= 64.2%, forg= 30.0% <<<
>>> Test on task 11 : loss=0.428 | TAw acc= 97.5%, forg=  0.0%| TAg acc= 94.2%, forg=  0.0% <<<
Save at k=10/eeil_dsads_2/har_flex_eeil
======
LLL_Net(
  (model): SimpleMLP(
    (fc1): Linear(in_features=405, out_features=66, bias=True)
    (fc2): Sequential()
  )
  (heads): ModuleList(
    (0): Linear(in_features=66, out_features=12, bias=True)
    (1): Linear(in_features=66, out_features=10, bias=True)
    (2): Linear(in_features=66, out_features=10, bias=True)
    (3): Linear(in_features=66, out_features=10, bias=True)
    (4): Linear(in_features=66, out_features=10, bias=True)
    (5): Linear(in_features=66, out_features=10, bias=True)
    (6): Linear(in_features=66, out_features=10, bias=True)
    (7): Linear(in_features=66, out_features=10, bias=True)
    (8): Linear(in_features=66, out_features=10, bias=True)
    (9): Linear(in_features=66, out_features=10, bias=True)
    (10): Linear(in_features=66, out_features=10, bias=True)
    (11): Linear(in_features=66, out_features=10, bias=True)
  )
)
======

************************************************************************************************************
Task 12
************************************************************************************************************
| Epoch   1, time=  0.9s | Train: skip eval | Valid: time=  0.2s loss=3.407, TAw acc= 33.3% | *
| Epoch   2, time=  0.7s | Train: skip eval | Valid: time=  0.2s loss=1.944, TAw acc= 60.4% | *
…
>>> Test on task  7 : loss=0.774 | TAw acc= 98.3%, forg= -0.8%| TAg acc= 82.5%, forg= 11.7% <<<
>>> Test on task  8 : loss=1.190 | TAw acc= 95.0%, forg=  0.8%| TAg acc= 70.0%, forg= 20.0% <<<
>>> Test on task  9 : loss=0.937 | TAw acc= 96.7%, forg=  0.8%| TAg acc= 83.3%, forg= 11.7% <<<
>>> Test on task 10 : loss=1.219 | TAw acc= 94.2%, forg=  0.8%| TAg acc= 65.0%, forg= 29.2% <<<
>>> Test on task 11 : loss=1.162 | TAw acc= 97.5%, forg=  0.0%| TAg acc= 66.7%, forg= 27.5% <<<
>>> Test on task 12 : loss=0.760 | TAw acc= 87.5%, forg=  0.0%| TAg acc= 82.5%, forg=  0.0% <<<
Save at k=10/eeil_dsads_2/har_flex_eeil
======
LLL_Net(
  (model): SimpleMLP(
    (fc1): Linear(in_features=405, out_features=66, bias=True)
    (fc2): Sequential()
  )
  (heads): ModuleList(
    (0): Linear(in_features=66, out_features=12, bias=True)
    (1): Linear(in_features=66, out_features=10, bias=True)
    (2): Linear(in_features=66, out_features=10, bias=True)
    (3): Linear(in_features=66, out_features=10, bias=True)
    (4): Linear(in_features=66, out_features=10, bias=True)
    (5): Linear(in_features=66, out_features=10, bias=True)
    (6): Linear(in_features=66, out_features=10, bias=True)
    (7): Linear(in_features=66, out_features=10, bias=True)
    (8): Linear(in_features=66, out_features=10, bias=True)
    (9): Linear(in_features=66, out_features=10, bias=True)
    (10): Linear(in_features=66, out_features=10, bias=True)
    (11): Linear(in_features=66, out_features=10, bias=True)
    (12): Linear(in_features=66, out_features=10, bias=True)
  )
)
======

************************************************************************************************************
Task 13
************************************************************************************************************
| Epoch   1, time=  0.9s | Train: skip eval | Valid: time=  0.2s loss=2.911, TAw acc= 53.1% | *
| Epoch   2, time=  0.8s | Train: skip eval | Valid: time=  0.2s loss=1.637, TAw acc= 82.3% | *
…
>>> Test on task  8 : loss=1.203 | TAw acc= 94.2%, forg=  1.7%| TAg acc= 73.3%, forg= 16.7% <<<
>>> Test on task  9 : loss=1.190 | TAw acc= 98.3%, forg= -0.8%| TAg acc= 63.3%, forg= 31.7% <<<
>>> Test on task 10 : loss=1.258 | TAw acc= 94.2%, forg=  0.8%| TAg acc= 64.2%, forg= 30.0% <<<
>>> Test on task 11 : loss=1.141 | TAw acc= 98.3%, forg= -0.8%| TAg acc= 66.7%, forg= 27.5% <<<
>>> Test on task 12 : loss=1.448 | TAw acc= 92.5%, forg= -5.0%| TAg acc= 51.7%, forg= 30.8% <<<
>>> Test on task 13 : loss=0.703 | TAw acc= 98.3%, forg=  0.0%| TAg acc= 88.3%, forg=  0.0% <<<
Save at k=10/eeil_dsads_2/har_flex_eeil
======
LLL_Net(
  (model): SimpleMLP(
    (fc1): Linear(in_features=405, out_features=66, bias=True)
    (fc2): Sequential()
  )
  (heads): ModuleList(
    (0): Linear(in_features=66, out_features=12, bias=True)
    (1): Linear(in_features=66, out_features=10, bias=True)
    (2): Linear(in_features=66, out_features=10, bias=True)
    (3): Linear(in_features=66, out_features=10, bias=True)
    (4): Linear(in_features=66, out_features=10, bias=True)
    (5): Linear(in_features=66, out_features=10, bias=True)
    (6): Linear(in_features=66, out_features=10, bias=True)
    (7): Linear(in_features=66, out_features=10, bias=True)
    (8): Linear(in_features=66, out_features=10, bias=True)
    (9): Linear(in_features=66, out_features=10, bias=True)
    (10): Linear(in_features=66, out_features=10, bias=True)
    (11): Linear(in_features=66, out_features=10, bias=True)
    (12): Linear(in_features=66, out_features=10, bias=True)
    (13): Linear(in_features=66, out_features=10, bias=True)
  )
)
======

************************************************************************************************************
Task 14
************************************************************************************************************
| Epoch   1, time=  0.9s | Train: skip eval | Valid: time=  0.2s loss=3.640, TAw acc= 60.4% | *
| Epoch   2, time=  0.8s | Train: skip eval | Valid: time=  0.2s loss=1.964, TAw acc= 82.3% | *
…
