…
| Selected 420 train exemplars, time=  0.0s
420
------------------------------------------------------------------------------------------------------------
>>> Test on task  0 : loss=0.858 | TAw acc= 97.9%, forg=  1.4%| TAg acc= 71.5%, forg= 27.8% <<<
>>> Test on task  1 : loss=0.993 | TAw acc= 95.0%, forg=  2.5%| TAg acc= 60.8%, forg= 35.8% <<<
>>> Test on task  2 : loss=1.063 | TAw acc= 99.2%, forg=  0.0%| TAg acc= 66.7%, forg= 32.5% <<<
>>> Test on task  3 : loss=0.472 | TAw acc=100.0%, forg=  0.0%| TAg acc= 98.3%, forg=  0.0% <<<
Save at k=10/eeil_dsads_2/har_flex_eeil
======
LLL_Net(
  (model): SimpleMLP(
    (fc1): Linear(in_features=405, out_features=66, bias=True)
    (fc2): Sequential()
  )
  (heads): ModuleList(
    (0): Linear(in_features=66, out_features=12, bias=True)
    (1): Linear(in_features=66, out_features=10, bias=True)
    (2): Linear(in_features=66, out_features=10, bias=True)
    (3): Linear(in_features=66, out_features=10, bias=True)
  )
)
======

************************************************************************************************************
Task  4
************************************************************************************************************
| Epoch   1, time=  0.3s | Train: skip eval | Valid: time=  0.2s loss=2.815, TAw acc= 32.3% | *
| Epoch   2, time=  0.3s | Train: skip eval | Valid: time=  0.3s loss=1.859, TAw acc= 37.5% | *
…
------------------------------------------------------------------------------------------------------------
>>> Test on task  0 : loss=0.578 | TAw acc= 99.3%, forg=  0.0%| TAg acc= 85.4%, forg= 13.9% <<<
>>> Test on task  1 : loss=0.727 | TAw acc= 95.8%, forg=  1.7%| TAg acc= 81.7%, forg= 15.0% <<<
>>> Test on task  2 : loss=1.006 | TAw acc= 99.2%, forg=  0.0%| TAg acc= 65.0%, forg= 34.2% <<<
>>> Test on task  3 : loss=0.928 | TAw acc=100.0%, forg=  0.0%| TAg acc= 70.8%, forg= 27.5% <<<
>>> Test on task  4 : loss=0.624 | TAw acc= 90.0%, forg=  0.0%| TAg acc= 89.2%, forg=  0.0% <<<
Save at k=10/eeil_dsads_2/har_flex_eeil
======
LLL_Net(
  (model): SimpleMLP(
    (fc1): Linear(in_features=405, out_features=66, bias=True)
    (fc2): Sequential()
  )
  (heads): ModuleList(
    (0): Linear(in_features=66, out_features=12, bias=True)
    (1): Linear(in_features=66, out_features=10, bias=True)
    (2): Linear(in_features=66, out_features=10, bias=True)
    (3): Linear(in_features=66, out_features=10, bias=True)
    (4): Linear(in_features=66, out_features=10, bias=True)
  )
)
======

************************************************************************************************************
Task  5
************************************************************************************************************
| Epoch   1, time=  0.4s | Train: skip eval | Valid: time=  0.2s loss=2.875, TAw acc= 27.1% | *
| Epoch   2, time=  0.4s | Train: skip eval | Valid: time=  0.2s loss=1.955, TAw acc= 71.9% | *
…
>>> Test on task  0 : loss=0.518 | TAw acc= 99.3%, forg=  0.0%| TAg acc= 88.2%, forg= 11.1% <<<
>>> Test on task  1 : loss=0.658 | TAw acc= 95.0%, forg=  2.5%| TAg acc= 84.2%, forg= 12.5% <<<
>>> Test on task  2 : loss=0.983 | TAw acc= 99.2%, forg=  0.0%| TAg acc= 68.3%, forg= 30.8% <<<
>>> Test on task  3 : loss=0.788 | TAw acc=100.0%, forg=  0.0%| TAg acc= 73.3%, forg= 25.0% <<<
>>> Test on task  4 : loss=1.260 | TAw acc= 93.3%, forg= -3.3%| TAg acc= 54.2%, forg= 35.0% <<<
>>> Test on task  5 : loss=0.368 | TAw acc= 99.2%, forg=  0.0%| TAg acc= 99.2%, forg=  0.0% <<<
Save at k=10/eeil_dsads_2/har_flex_eeil
======
LLL_Net(
  (model): SimpleMLP(
    (fc1): Linear(in_features=405, out_features=66, bias=True)
    (fc2): Sequential()
  )
  (heads): ModuleList(
    (0): Linear(in_features=66, out_features=12, bias=True)
    (1): Linear(in_features=66, out_features=10, bias=True)
    (2): Linear(in_features=66, out_features=10, bias=True)
    (3): Linear(in_features=66, out_features=10, bias=True)
    (4): Linear(in_features=66, out_features=10, bias=True)
    (5): Linear(in_features=66, out_features=10, bias=True)
  )
)
======

************************************************************************************************************
Task  6
************************************************************************************************************
| Epoch   1, time=  0.5s | Train: skip eval | Valid: time=  0.2s loss=3.745, TAw acc= 50.0% | *
| Epoch   2, time=  0.4s | Train: skip eval | Valid: time=  0.3s loss=1.811, TAw acc= 53.1% | *
…
>>> Test on task  1 : loss=0.632 | TAw acc= 95.8%, forg=  1.7%| TAg acc= 84.2%, forg= 12.5% <<<
>>> Test on task  2 : loss=0.963 | TAw acc= 99.2%, forg=  0.0%| TAg acc= 72.5%, forg= 26.7% <<<
>>> Test on task  3 : loss=0.766 | TAw acc=100.0%, forg=  0.0%| TAg acc= 80.0%, forg= 18.3% <<<
>>> Test on task  4 : loss=1.169 | TAw acc= 90.8%, forg=  2.5%| TAg acc= 54.2%, forg= 35.0% <<<
>>> Test on task  5 : loss=0.914 | TAw acc=100.0%, forg= -0.8%| TAg acc= 71.7%, forg= 27.5% <<<
>>> Test on task  6 : loss=0.509 | TAw acc= 99.2%, forg=  0.0%| TAg acc= 98.3%, forg=  0.0% <<<
Save at k=10/eeil_dsads_2/har_flex_eeil
======
LLL_Net(
  (model): SimpleMLP(
    (fc1): Linear(in_features=405, out_features=66, bias=True)
    (fc2): Sequential()
  )
  (heads): ModuleList(
    (0): Linear(in_features=66, out_features=12, bias=True)
    (1): Linear(in_features=66, out_features=10, bias=True)
    (2): Linear(in_features=66, out_features=10, bias=True)
    (3): Linear(in_features=66, out_features=10, bias=True)
    (4): Linear(in_features=66, out_features=10, bias=True)
    (5): Linear(in_features=66, out_features=10, bias=True)
    (6): Linear(in_features=66, out_features=10, bias=True)
  )
)
======

************************************************************************************************************
Task  7
************************************************************************************************************
| Epoch   1, time=  0.5s | Train: skip eval | Valid: time=  0.2s loss=2.946, TAw acc= 46.9% | *
| Epoch   2, time=  0.5s | Train: skip eval | Valid: time=  0.2s loss=1.874, TAw acc= 61.5% | *
…
>>> Test on task  2 : loss=1.274 | TAw acc= 99.2%, forg=  0.0%| TAg acc= 68.3%, forg= 30.8% <<<
>>> Test on task  3 : loss=0.890 | TAw acc=100.0%, forg=  0.0%| TAg acc= 77.5%, forg= 20.8% <<<
>>> Test on task  4 : loss=1.386 | TAw acc= 92.5%, forg=  0.8%| TAg acc= 54.2%, forg= 35.0% <<<
>>> Test on task  5 : loss=1.167 | TAw acc=100.0%, forg=  0.0%| TAg acc= 57.5%, forg= 41.7% <<<
>>> Test on task  6 : loss=1.355 | TAw acc= 96.7%, forg=  2.5%| TAg acc= 65.0%, forg= 33.3% <<<
>>> Test on task  7 : loss=0.818 | TAw acc= 90.0%, forg=  0.0%| TAg acc= 88.3%, forg=  0.0% <<<
Save at k=10/eeil_dsads_2/har_flex_eeil
======
LLL_Net(
  (model): SimpleMLP(
    (fc1): Linear(in_features=405, out_features=66, bias=True)
    (fc2): Sequential()
  )
  (heads): ModuleList(
    (0): Linear(in_features=66, out_features=12, bias=True)
    (1): Linear(in_features=66, out_features=10, bias=True)
    (2): Linear(in_features=66, out_features=10, bias=True)
    (3): Linear(in_features=66, out_features=10, bias=True)
    (4): Linear(in_features=66, out_features=10, bias=True)
    (5): Linear(in_features=66, out_features=10, bias=True)
    (6): Linear(in_features=66, out_features=10, bias=True)
    (7): Linear(in_features=66, out_features=10, bias=True)
  )
)
======

************************************************************************************************************
Task  8
************************************************************************************************************
| Epoch   1, time=  0.5s | Train: skip eval | Valid: time=  0.3s loss=2.995, TAw acc= 37.5% | *
| Epoch   2, time=  0.5s | Train: skip eval | Valid: time=  0.2s loss=2.141, TAw acc= 59.4% | *
…
>>> Test on task  3 : loss=0.791 | TAw acc=100.0%, forg=  0.0%| TAg acc= 78.3%, forg= 20.0% <<<
>>> Test on task  4 : loss=1.346 | TAw acc= 92.5%, forg=  0.8%| TAg acc= 56.7%, forg= 32.5% <<<
>>> Test on task  5 : loss=1.051 | TAw acc=100.0%, forg=  0.0%| TAg acc= 70.8%, forg= 28.3% <<<
>>> Test on task  6 : loss=1.303 | TAw acc= 97.5%, forg=  1.7%| TAg acc= 61.7%, forg= 36.7% <<<
>>> Test on task  7 : loss=1.750 | TAw acc= 92.5%, forg= -2.5%| TAg acc= 48.3%, forg= 40.0% <<<
>>> Test on task  8 : loss=0.885 | TAw acc= 74.2%, forg=  0.0%| TAg acc= 72.5%, forg=  0.0% <<<
Save at k=10/eeil_dsads_2/har_flex_eeil
======
LLL_Net(
  (model): SimpleMLP(
    (fc1): Linear(in_features=405, out_features=66, bias=True)
    (fc2): Sequential()
  )
  (heads): ModuleList(
    (0): Linear(in_features=66, out_features=12, bias=True)
    (1): Linear(in_features=66, out_features=10, bias=True)
    (2): Linear(in_features=66, out_features=10, bias=True)
    (3): Linear(in_features=66, out_features=10, bias=True)
    (4): Linear(in_features=66, out_features=10, bias=True)
    (5): Linear(in_features=66, out_features=10, bias=True)
    (6): Linear(in_features=66, out_features=10, bias=True)
    (7): Linear(in_features=66, out_features=10, bias=True)
    (8): Linear(in_features=66, out_features=10, bias=True)
  )
)
======

************************************************************************************************************
Task  9
************************************************************************************************************
| Epoch   1, time=  0.6s | Train: skip eval | Valid: time=  0.2s loss=3.389, TAw acc= 61.5% | *
| Epoch   2, time=  0.5s | Train: skip eval | Valid: time=  0.2s loss=1.759, TAw acc= 92.7% | *
…
>>> Test on task  4 : loss=1.185 | TAw acc= 93.3%, forg=  0.0%| TAg acc= 63.3%, forg= 25.8% <<<
>>> Test on task  5 : loss=0.991 | TAw acc=100.0%, forg=  0.0%| TAg acc= 73.3%, forg= 25.8% <<<
>>> Test on task  6 : loss=1.138 | TAw acc= 97.5%, forg=  1.7%| TAg acc= 77.5%, forg= 20.8% <<<
>>> Test on task  7 : loss=1.649 | TAw acc= 95.8%, forg= -3.3%| TAg acc= 45.0%, forg= 43.3% <<<
>>> Test on task  8 : loss=1.587 | TAw acc= 92.5%, forg=-18.3%| TAg acc= 53.3%, forg= 19.2% <<<
>>> Test on task  9 : loss=0.614 | TAw acc= 97.5%, forg=  0.0%| TAg acc= 95.8%, forg=  0.0% <<<
Save at k=10/eeil_dsads_2/har_flex_eeil
======
LLL_Net(
  (model): SimpleMLP(
    (fc1): Linear(in_features=405, out_features=66, bias=True)
    (fc2): Sequential()
  )
  (heads): ModuleList(
    (0): Linear(in_features=66, out_features=12, bias=True)
    (1): Linear(in_features=66, out_features=10, bias=True)
    (2): Linear(in_features=66, out_features=10, bias=True)
    (3): Linear(in_features=66, out_features=10, bias=True)
    (4): Linear(in_features=66, out_features=10, bias=True)
    (5): Linear(in_features=66, out_features=10, bias=True)
    (6): Linear(in_features=66, out_features=10, bias=True)
    (7): Linear(in_features=66, out_features=10, bias=True)
    (8): Linear(in_features=66, out_features=10, bias=True)
    (9): Linear(in_features=66, out_features=10, bias=True)
  )
)
======

************************************************************************************************************
Task 10
************************************************************************************************************
| Epoch   1, time=  0.6s | Train: skip eval | Valid: time=  0.2s loss=3.588, TAw acc= 27.1% | *
| Epoch   2, time=  0.6s | Train: skip eval | Valid: time=  0.2s loss=2.417, TAw acc= 55.2% | *
…
>>> Test on task  5 : loss=0.855 | TAw acc=100.0%, forg=  0.0%| TAg acc= 89.2%, forg= 10.0% <<<
>>> Test on task  6 : loss=1.214 | TAw acc= 98.3%, forg=  0.8%| TAg acc= 68.3%, forg= 30.0% <<<
>>> Test on task  7 : loss=1.431 | TAw acc= 94.2%, forg=  1.7%| TAg acc= 61.7%, forg= 26.7% <<<
>>> Test on task  8 : loss=1.547 | TAw acc= 92.5%, forg=  0.0%| TAg acc= 51.7%, forg= 20.8% <<<
>>> Test on task  9 : loss=1.159 | TAw acc= 97.5%, forg=  0.0%| TAg acc= 70.8%, forg= 25.0% <<<
>>> Test on task 10 : loss=1.033 | TAw acc= 83.3%, forg=  0.0%| TAg acc= 78.3%, forg=  0.0% <<<
Save at k=10/eeil_dsads_2/har_flex_eeil
======
LLL_Net(
  (model): SimpleMLP(
    (fc1): Linear(in_features=405, out_features=66, bias=True)
    (fc2): Sequential()
  )
  (heads): ModuleList(
    (0): Linear(in_features=66, out_features=12, bias=True)
    (1): Linear(in_features=66, out_features=10, bias=True)
    (2): Linear(in_features=66, out_features=10, bias=True)
    (3): Linear(in_features=66, out_features=10, bias=True)
    (4): Linear(in_features=66, out_features=10, bias=True)
    (5): Linear(in_features=66, out_features=10, bias=True)
    (6): Linear(in_features=66, out_features=10, bias=True)
    (7): Linear(in_features=66, out_features=10, bias=True)
    (8): Linear(in_features=66, out_features=10, bias=True)
    (9): Linear(in_features=66, out_features=10, bias=True)
    (10): Linear(in_features=66, out_features=10, bias=True)
  )
)
======

************************************************************************************************************
Task 11
************************************************************************************************************
| Epoch   1, time=  0.7s | Train: skip eval | Valid: time=  0.3s loss=3.497, TAw acc= 53.1% | *
| Epoch   2, time=  0.7s | Train: skip eval | Valid: time=  0.3s loss=2.136, TAw acc= 65.6% | *
…
>>> Test on task  6 : loss=1.183 | TAw acc= 98.3%, forg=  0.8%| TAg acc= 68.3%, forg= 30.0% <<<
>>> Test on task  7 : loss=1.284 | TAw acc= 95.8%, forg=  0.0%| TAg acc= 72.5%, forg= 15.8% <<<
>>> Test on task  8 : loss=1.617 | TAw acc= 93.3%, forg= -0.8%| TAg acc= 50.8%, forg= 21.7% <<<
>>> Test on task  9 : loss=1.053 | TAw acc= 98.3%, forg= -0.8%| TAg acc= 74.2%, forg= 21.7% <<<
>>> Test on task 10 : loss=2.021 | TAw acc= 83.3%, forg=  0.0%| TAg acc= 34.2%, forg= 44.2% <<<
>>> Test on task 11 : loss=0.823 | TAw acc= 82.5%, forg=  0.0%| TAg acc= 80.8%, forg=  0.0% <<<
Save at k=10/eeil_dsads_2/har_flex_eeil
======
LLL_Net(
  (model): SimpleMLP(
    (fc1): Linear(in_features=405, out_features=66, bias=True)
    (fc2): Sequential()
  )
  (heads): ModuleList(
    (0): Linear(in_features=66, out_features=12, bias=True)
    (1): Linear(in_features=66, out_features=10, bias=True)
    (2): Linear(in_features=66, out_features=10, bias=True)
    (3): Linear(in_features=66, out_features=10, bias=True)
    (4): Linear(in_features=66, out_features=10, bias=True)
    (5): Linear(in_features=66, out_features=10, bias=True)
    (6): Linear(in_features=66, out_features=10, bias=True)
    (7): Linear(in_features=66, out_features=10, bias=True)
    (8): Linear(in_features=66, out_features=10, bias=True)
    (9): Linear(in_features=66, out_features=10, bias=True)
    (10): Linear(in_features=66, out_features=10, bias=True)
    (11): Linear(in_features=66, out_features=10, bias=True)
  )
)
======

************************************************************************************************************
Task 12
************************************************************************************************************
| Epoch   1, time=  0.7s | Train: skip eval | Valid: time=  0.3s loss=4.429, TAw acc= 49.0% | *
| Epoch   2, time=  0.7s | Train: skip eval | Valid: time=  0.2s loss=2.294, TAw acc= 85.4% | *
…
>>> Test on task  7 : loss=1.311 | TAw acc= 94.2%, forg=  1.7%| TAg acc= 65.8%, forg= 22.5% <<<
>>> Test on task  8 : loss=1.508 | TAw acc= 88.3%, forg=  5.0%| TAg acc= 59.2%, forg= 13.3% <<<
>>> Test on task  9 : loss=1.082 | TAw acc= 98.3%, forg=  0.0%| TAg acc= 65.8%, forg= 30.0% <<<
>>> Test on task 10 : loss=1.994 | TAw acc= 83.3%, forg=  0.0%| TAg acc= 36.7%, forg= 41.7% <<<
>>> Test on task 11 : loss=1.870 | TAw acc= 90.8%, forg= -8.3%| TAg acc= 28.3%, forg= 52.5% <<<
>>> Test on task 12 : loss=0.727 | TAw acc= 97.5%, forg=  0.0%| TAg acc= 93.3%, forg=  0.0% <<<
Save at k=10/eeil_dsads_2/har_flex_eeil
======
LLL_Net(
  (model): SimpleMLP(
    (fc1): Linear(in_features=405, out_features=66, bias=True)
    (fc2): Sequential()
  )
  (heads): ModuleList(
    (0): Linear(in_features=66, out_features=12, bias=True)
    (1): Linear(in_features=66, out_features=10, bias=True)
    (2): Linear(in_features=66, out_features=10, bias=True)
    (3): Linear(in_features=66, out_features=10, bias=True)
    (4): Linear(in_features=66, out_features=10, bias=True)
    (5): Linear(in_features=66, out_features=10, bias=True)
    (6): Linear(in_features=66, out_features=10, bias=True)
    (7): Linear(in_features=66, out_features=10, bias=True)
    (8): Linear(in_features=66, out_features=10, bias=True)
    (9): Linear(in_features=66, out_features=10, bias=True)
    (10): Linear(in_features=66, out_features=10, bias=True)
    (11): Linear(in_features=66, out_features=10, bias=True)
    (12): Linear(in_features=66, out_features=10, bias=True)
  )
)
======

************************************************************************************************************
Task 13
************************************************************************************************************
| Epoch   1, time=  0.8s | Train: skip eval | Valid: time=  0.2s loss=3.191, TAw acc= 36.5% | *
| Epoch   2, time=  0.8s | Train: skip eval | Valid: time=  0.2s loss=2.202, TAw acc= 67.7% | *
…
>>> Test on task  8 : loss=1.122 | TAw acc= 95.8%, forg= -2.5%| TAg acc= 70.0%, forg=  2.5% <<<
>>> Test on task  9 : loss=0.882 | TAw acc= 97.5%, forg=  0.8%| TAg acc= 69.2%, forg= 26.7% <<<
>>> Test on task 10 : loss=1.414 | TAw acc= 85.0%, forg= -1.7%| TAg acc= 64.2%, forg= 14.2% <<<
>>> Test on task 11 : loss=1.250 | TAw acc= 90.0%, forg=  0.8%| TAg acc= 55.8%, forg= 25.0% <<<
>>> Test on task 12 : loss=1.039 | TAw acc= 99.2%, forg= -1.7%| TAg acc= 75.0%, forg= 18.3% <<<
>>> Test on task 13 : loss=0.408 | TAw acc= 95.8%, forg=  0.0%| TAg acc= 93.3%, forg=  0.0% <<<
Save at k=10/eeil_dsads_2/har_flex_eeil
======
LLL_Net(
  (model): SimpleMLP(
    (fc1): Linear(in_features=405, out_features=66, bias=True)
    (fc2): Sequential()
  )
  (heads): ModuleList(
    (0): Linear(in_features=66, out_features=12, bias=True)
    (1): Linear(in_features=66, out_features=10, bias=True)
    (2): Linear(in_features=66, out_features=10, bias=True)
    (3): Linear(in_features=66, out_features=10, bias=True)
    (4): Linear(in_features=66, out_features=10, bias=True)
    (5): Linear(in_features=66, out_features=10, bias=True)
    (6): Linear(in_features=66, out_features=10, bias=True)
    (7): Linear(in_features=66, out_features=10, bias=True)
    (8): Linear(in_features=66, out_features=10, bias=True)
    (9): Linear(in_features=66, out_features=10, bias=True)
    (10): Linear(in_features=66, out_features=10, bias=True)
    (11): Linear(in_features=66, out_features=10, bias=True)
    (12): Linear(in_features=66, out_features=10, bias=True)
    (13): Linear(in_features=66, out_features=10, bias=True)
  )
)
======

************************************************************************************************************
Task 14
************************************************************************************************************
| Epoch   1, time=  0.9s | Train: skip eval | Valid: time=  0.3s loss=3.011, TAw acc= 61.5% | *
| Epoch   2, time=  0.8s | Train: skip eval | Valid: time=  0.2s loss=1.801, TAw acc= 64.6% | *
…
