…
Namespace(backbone_type='incremental', batch_size=20, buffer_size=100, conf_host='elquinto', conf_jobnum='cd862714-33a0-4a12-803a-0d34831e83b9', conf_timestamp='2023-08-10 05:59:08.420096', cutmix_alpha=None, dataid=4, dataset='mod-har', debug_mode=0, disable_log=0, distributed='no', fitting_epochs=250, ignore_other_metrics=0, load_data='', lr=0.01, maxlr=0.05, minibatch_size=20, minlr=0.0005, model='gdumb_har', n_epochs=1, non_verbose=0, notes=None, nowand=0, ntask=15, optim_mom=0.0, optim_nesterov=0, optim_wd=0.0001, save_path='', seed=None, validation=0, wandb_entity='frahman', wandb_project='mammoth')
====TRAINING TASK: 0
SimpleMLP(
  (fc1): Linear(in_features=405, out_features=1000, bias=True)
  (fc2): Linear(in_features=1000, out_features=12, bias=True)
  (_features): Identity()
  (classifier): Sequential(
    (0): Linear(in_features=405, out_features=1000, bias=True)
    (1): ReLU()
    (2): Linear(in_features=1000, out_features=12, bias=True)
  )
  (net): Sequential(
    (0): Identity()
    (1): Sequential(
      (0): Linear(in_features=405, out_features=1000, bias=True)
      (1): ReLU()
      (2): Linear(in_features=1000, out_features=12, bias=True)
    )
  )
)

Accuracy for 1 task(s): 	 [Class-IL]: 8.33 % 	 [Task-IL]: 8.33 %

====TRAINING TASK: 1
SimpleMLP(
  (fc1): Linear(in_features=405, out_features=1000, bias=True)
  (fc2): Linear(in_features=1000, out_features=22, bias=True)
  (_features): Identity()
  (classifier): Sequential(
    (0): Linear(in_features=405, out_features=1000, bias=True)
    (1): ReLU()
    (2): Linear(in_features=1000, out_features=22, bias=True)
  )
  (net): Sequential(
    (0): Identity()
    (1): Sequential(
      (0): Linear(in_features=405, out_features=1000, bias=True)
      (1): ReLU()
      (2): Linear(in_features=1000, out_features=22, bias=True)
    )
  )
)

Accuracy for 2 task(s): 	 [Class-IL]: 15.0 % 	 [Task-IL]: 37.57 %

====TRAINING TASK: 2
SimpleMLP(
  (fc1): Linear(in_features=405, out_features=1000, bias=True)
  (fc2): Linear(in_features=1000, out_features=32, bias=True)
  (_features): Identity()
  (classifier): Sequential(
    (0): Linear(in_features=405, out_features=1000, bias=True)
    (1): ReLU()
    (2): Linear(in_features=1000, out_features=32, bias=True)
  )
  (net): Sequential(
    (0): Identity()
    (1): Sequential(
      (0): Linear(in_features=405, out_features=1000, bias=True)
      (1): ReLU()
      (2): Linear(in_features=1000, out_features=32, bias=True)
    )
  )
)

Accuracy for 3 task(s): 	 [Class-IL]: 24.44 % 	 [Task-IL]: 60.74 %

====TRAINING TASK: 3
SimpleMLP(
  (fc1): Linear(in_features=405, out_features=1000, bias=True)
  (fc2): Linear(in_features=1000, out_features=42, bias=True)
  (_features): Identity()
  (classifier): Sequential(
    (0): Linear(in_features=405, out_features=1000, bias=True)
    (1): ReLU()
    (2): Linear(in_features=1000, out_features=42, bias=True)
  )
  (net): Sequential(
    (0): Identity()
    (1): Sequential(
      (0): Linear(in_features=405, out_features=1000, bias=True)
      (1): ReLU()
      (2): Linear(in_features=1000, out_features=42, bias=True)
    )
  )
)

Accuracy for 4 task(s): 	 [Class-IL]: 11.25 % 	 [Task-IL]: 49.13 %

====TRAINING TASK: 4
SimpleMLP(
  (fc1): Linear(in_features=405, out_features=1000, bias=True)
  (fc2): Linear(in_features=1000, out_features=52, bias=True)
  (_features): Identity()
  (classifier): Sequential(
    (0): Linear(in_features=405, out_features=1000, bias=True)
    (1): ReLU()
    (2): Linear(in_features=1000, out_features=52, bias=True)
  )
  (net): Sequential(
    (0): Identity()
    (1): Sequential(
      (0): Linear(in_features=405, out_features=1000, bias=True)
      (1): ReLU()
      (2): Linear(in_features=1000, out_features=52, bias=True)
    )
  )
)

Accuracy for 5 task(s): 	 [Class-IL]: 8.0 % 	 [Task-IL]: 52.75 %

====TRAINING TASK: 5
SimpleMLP(
  (fc1): Linear(in_features=405, out_features=1000, bias=True)
  (fc2): Linear(in_features=1000, out_features=62, bias=True)
  (_features): Identity()
  (classifier): Sequential(
    (0): Linear(in_features=405, out_features=1000, bias=True)
    (1): ReLU()
    (2): Linear(in_features=1000, out_features=62, bias=True)
  )
  (net): Sequential(
    (0): Identity()
    (1): Sequential(
      (0): Linear(in_features=405, out_features=1000, bias=True)
      (1): ReLU()
      (2): Linear(in_features=1000, out_features=62, bias=True)
    )
  )
)

Accuracy for 6 task(s): 	 [Class-IL]: 1.67 % 	 [Task-IL]: 44.81 %

====TRAINING TASK: 6
SimpleMLP(
  (fc1): Linear(in_features=405, out_features=1000, bias=True)
  (fc2): Linear(in_features=1000, out_features=72, bias=True)
  (_features): Identity()
  (classifier): Sequential(
    (0): Linear(in_features=405, out_features=1000, bias=True)
    (1): ReLU()
    (2): Linear(in_features=1000, out_features=72, bias=True)
  )
  (net): Sequential(
    (0): Identity()
    (1): Sequential(
      (0): Linear(in_features=405, out_features=1000, bias=True)
      (1): ReLU()
      (2): Linear(in_features=1000, out_features=72, bias=True)
    )
  )
)

Accuracy for 7 task(s): 	 [Class-IL]: 7.86 % 	 [Task-IL]: 45.32 %

====TRAINING TASK: 7
SimpleMLP(
  (fc1): Linear(in_features=405, out_features=1000, bias=True)
  (fc2): Linear(in_features=1000, out_features=82, bias=True)
  (_features): Identity()
  (classifier): Sequential(
    (0): Linear(in_features=405, out_features=1000, bias=True)
    (1): ReLU()
    (2): Linear(in_features=1000, out_features=82, bias=True)
  )
  (net): Sequential(
    (0): Identity()
    (1): Sequential(
      (0): Linear(in_features=405, out_features=1000, bias=True)
      (1): ReLU()
      (2): Linear(in_features=1000, out_features=82, bias=True)
    )
  )
)

Accuracy for 8 task(s): 	 [Class-IL]: 2.5 % 	 [Task-IL]: 45.92 %

====TRAINING TASK: 8
SimpleMLP(
  (fc1): Linear(in_features=405, out_features=1000, bias=True)
  (fc2): Linear(in_features=1000, out_features=92, bias=True)
  (_features): Identity()
  (classifier): Sequential(
    (0): Linear(in_features=405, out_features=1000, bias=True)
    (1): ReLU()
    (2): Linear(in_features=1000, out_features=92, bias=True)
  )
  (net): Sequential(
    (0): Identity()
    (1): Sequential(
      (0): Linear(in_features=405, out_features=1000, bias=True)
      (1): ReLU()
      (2): Linear(in_features=1000, out_features=92, bias=True)
    )
  )
)

Accuracy for 9 task(s): 	 [Class-IL]: 5.09 % 	 [Task-IL]: 46.82 %

====TRAINING TASK: 9
SimpleMLP(
  (fc1): Linear(in_features=405, out_features=1000, bias=True)
  (fc2): Linear(in_features=1000, out_features=102, bias=True)
  (_features): Identity()
  (classifier): Sequential(
    (0): Linear(in_features=405, out_features=1000, bias=True)
    (1): ReLU()
    (2): Linear(in_features=1000, out_features=102, bias=True)
  )
  (net): Sequential(
    (0): Identity()
    (1): Sequential(
      (0): Linear(in_features=405, out_features=1000, bias=True)
      (1): ReLU()
      (2): Linear(in_features=1000, out_features=102, bias=True)
    )
  )
)

Accuracy for 10 task(s): 	 [Class-IL]: 5.58 % 	 [Task-IL]: 50.6 %

====TRAINING TASK: 10
SimpleMLP(
  (fc1): Linear(in_features=405, out_features=1000, bias=True)
  (fc2): Linear(in_features=1000, out_features=112, bias=True)
  (_features): Identity()
  (classifier): Sequential(
    (0): Linear(in_features=405, out_features=1000, bias=True)
    (1): ReLU()
    (2): Linear(in_features=1000, out_features=112, bias=True)
  )
  (net): Sequential(
    (0): Identity()
    (1): Sequential(
      (0): Linear(in_features=405, out_features=1000, bias=True)
      (1): ReLU()
      (2): Linear(in_features=1000, out_features=112, bias=True)
    )
  )
)

Accuracy for 11 task(s): 	 [Class-IL]: 2.73 % 	 [Task-IL]: 43.7 %

====TRAINING TASK: 11
SimpleMLP(
  (fc1): Linear(in_features=405, out_features=1000, bias=True)
  (fc2): Linear(in_features=1000, out_features=122, bias=True)
  (_features): Identity()
  (classifier): Sequential(
    (0): Linear(in_features=405, out_features=1000, bias=True)
    (1): ReLU()
    (2): Linear(in_features=1000, out_features=122, bias=True)
  )
  (net): Sequential(
    (0): Identity()
    (1): Sequential(
      (0): Linear(in_features=405, out_features=1000, bias=True)
      (1): ReLU()
      (2): Linear(in_features=1000, out_features=122, bias=True)
    )
  )
)

Accuracy for 12 task(s): 	 [Class-IL]: 3.33 % 	 [Task-IL]: 46.34 %

====TRAINING TASK: 12
SimpleMLP(
  (fc1): Linear(in_features=405, out_features=1000, bias=True)
  (fc2): Linear(in_features=1000, out_features=132, bias=True)
  (_features): Identity()
  (classifier): Sequential(
    (0): Linear(in_features=405, out_features=1000, bias=True)
    (1): ReLU()
    (2): Linear(in_features=1000, out_features=132, bias=True)
  )
  (net): Sequential(
    (0): Identity()
    (1): Sequential(
      (0): Linear(in_features=405, out_features=1000, bias=True)
      (1): ReLU()
      (2): Linear(in_features=1000, out_features=132, bias=True)
    )
  )
)

Accuracy for 13 task(s): 	 [Class-IL]: 3.21 % 	 [Task-IL]: 47.79 %

====TRAINING TASK: 13
SimpleMLP(
  (fc1): Linear(in_features=405, out_features=1000, bias=True)
  (fc2): Linear(in_features=1000, out_features=142, bias=True)
  (_features): Identity()
  (classifier): Sequential(
    (0): Linear(in_features=405, out_features=1000, bias=True)
    (1): ReLU()
    (2): Linear(in_features=1000, out_features=142, bias=True)
  )
  (net): Sequential(
    (0): Identity()
    (1): Sequential(
      (0): Linear(in_features=405, out_features=1000, bias=True)
      (1): ReLU()
      (2): Linear(in_features=1000, out_features=142, bias=True)
    )
  )
)

Accuracy for 14 task(s): 	 [Class-IL]: 3.57 % 	 [Task-IL]: 46.44 %

====TRAINING TASK: 14
SimpleMLP(
  (fc1): Linear(in_features=405, out_features=1000, bias=True)
  (fc2): Linear(in_features=1000, out_features=152, bias=True)
  (_features): Identity()
  (classifier): Sequential(
    (0): Linear(in_features=405, out_features=1000, bias=True)
    (1): ReLU()
    (2): Linear(in_features=1000, out_features=152, bias=True)
  )
  (net): Sequential(
    (0): Identity()
    (1): Sequential(
      (0): Linear(in_features=405, out_features=1000, bias=True)
      (1): ReLU()
      (2): Linear(in_features=1000, out_features=152, bias=True)
    )
  )
)
torch.Size([15200, 405])
	LABELS: [  0   1   2   3   4   5   6   7   8   9  10  11  12  13  14  15  16  17
  18  19  20  21  22  23  24  25  26  27  28  29  30  31  32  33  34  35
  36  37  38  39  40  41  42  43  44  45  46  47  48  49  50  51  52  53
  54  55  56  57  58  59  60  61  62  63  64  65  66  67  68  69  70  71
  72  73  74  75  76  77  78  79  80  81  82  83  84  85  86  87  88  89
…
