…
Namespace(backbone_type='incremental', batch_size=20, buffer_size=100, conf_host='elquinto', conf_jobnum='122f9a22-c266-4d55-a99d-38b87788310b', conf_timestamp='2023-08-10 06:04:02.479686', cutmix_alpha=None, dataid=5, dataset='mod-har', debug_mode=0, disable_log=0, distributed='no', fitting_epochs=250, ignore_other_metrics=0, load_data='', lr=0.0001, maxlr=0.05, minibatch_size=20, minlr=0.0005, model='gdumb_har', n_epochs=1, non_verbose=0, notes=None, nowand=0, ntask=44, optim_mom=0.0, optim_nesterov=0, optim_wd=0.0001, save_path='', seed=None, validation=0, wandb_entity='frahman', wandb_project='mammoth')
====TRAINING TASK: 0
SimpleMLP(
  (fc1): Linear(in_features=91, out_features=1000, bias=True)
  (fc2): Linear(in_features=1000, out_features=34, bias=True)
  (_features): Identity()
  (classifier): Sequential(
    (0): Linear(in_features=91, out_features=1000, bias=True)
    (1): ReLU()
    (2): Linear(in_features=1000, out_features=34, bias=True)
  )
  (net): Sequential(
    (0): Identity()
    (1): Sequential(
      (0): Linear(in_features=91, out_features=1000, bias=True)
      (1): ReLU()
      (2): Linear(in_features=1000, out_features=34, bias=True)
    )
  )
)

Accuracy for 1 task(s): 	 [Class-IL]: 55.19 % 	 [Task-IL]: 52.46 %

====TRAINING TASK: 1
SimpleMLP(
  (fc1): Linear(in_features=91, out_features=1000, bias=True)
  (fc2): Linear(in_features=1000, out_features=54, bias=True)
  (_features): Identity()
  (classifier): Sequential(
    (0): Linear(in_features=91, out_features=1000, bias=True)
    (1): ReLU()
    (2): Linear(in_features=1000, out_features=54, bias=True)
  )
  (net): Sequential(
    (0): Identity()
    (1): Sequential(
      (0): Linear(in_features=91, out_features=1000, bias=True)
      (1): ReLU()
      (2): Linear(in_features=1000, out_features=54, bias=True)
    )
  )
)

Accuracy for 2 task(s): 	 [Class-IL]: 41.25 % 	 [Task-IL]: 38.24 %

====TRAINING TASK: 2
SimpleMLP(
  (fc1): Linear(in_features=91, out_features=1000, bias=True)
  (fc2): Linear(in_features=1000, out_features=74, bias=True)
  (_features): Identity()
  (classifier): Sequential(
    (0): Linear(in_features=91, out_features=1000, bias=True)
    (1): ReLU()
    (2): Linear(in_features=1000, out_features=74, bias=True)
  )
  (net): Sequential(
    (0): Identity()
    (1): Sequential(
      (0): Linear(in_features=91, out_features=1000, bias=True)
      (1): ReLU()
      (2): Linear(in_features=1000, out_features=74, bias=True)
    )
  )
)

Accuracy for 3 task(s): 	 [Class-IL]: 38.88 % 	 [Task-IL]: 34.53 %

====TRAINING TASK: 3
SimpleMLP(
  (fc1): Linear(in_features=91, out_features=1000, bias=True)
  (fc2): Linear(in_features=1000, out_features=94, bias=True)
  (_features): Identity()
  (classifier): Sequential(
    (0): Linear(in_features=91, out_features=1000, bias=True)
    (1): ReLU()
    (2): Linear(in_features=1000, out_features=94, bias=True)
  )
  (net): Sequential(
    (0): Identity()
    (1): Sequential(
      (0): Linear(in_features=91, out_features=1000, bias=True)
      (1): ReLU()
      (2): Linear(in_features=1000, out_features=94, bias=True)
    )
  )
)

Accuracy for 4 task(s): 	 [Class-IL]: 34.41 % 	 [Task-IL]: 33.6 %

====TRAINING TASK: 4
SimpleMLP(
  (fc1): Linear(in_features=91, out_features=1000, bias=True)
  (fc2): Linear(in_features=1000, out_features=114, bias=True)
  (_features): Identity()
  (classifier): Sequential(
    (0): Linear(in_features=91, out_features=1000, bias=True)
    (1): ReLU()
    (2): Linear(in_features=1000, out_features=114, bias=True)
  )
  (net): Sequential(
    (0): Identity()
    (1): Sequential(
      (0): Linear(in_features=91, out_features=1000, bias=True)
      (1): ReLU()
      (2): Linear(in_features=1000, out_features=114, bias=True)
    )
  )
)

Accuracy for 5 task(s): 	 [Class-IL]: 34.87 % 	 [Task-IL]: 32.57 %

====TRAINING TASK: 5
SimpleMLP(
  (fc1): Linear(in_features=91, out_features=1000, bias=True)
  (fc2): Linear(in_features=1000, out_features=134, bias=True)
  (_features): Identity()
  (classifier): Sequential(
    (0): Linear(in_features=91, out_features=1000, bias=True)
    (1): ReLU()
    (2): Linear(in_features=1000, out_features=134, bias=True)
  )
  (net): Sequential(
    (0): Identity()
    (1): Sequential(
      (0): Linear(in_features=91, out_features=1000, bias=True)
      (1): ReLU()
      (2): Linear(in_features=1000, out_features=134, bias=True)
    )
  )
)

Accuracy for 6 task(s): 	 [Class-IL]: 26.04 % 	 [Task-IL]: 32.39 %

====TRAINING TASK: 6
SimpleMLP(
  (fc1): Linear(in_features=91, out_features=1000, bias=True)
  (fc2): Linear(in_features=1000, out_features=154, bias=True)
  (_features): Identity()
  (classifier): Sequential(
    (0): Linear(in_features=91, out_features=1000, bias=True)
    (1): ReLU()
    (2): Linear(in_features=1000, out_features=154, bias=True)
  )
  (net): Sequential(
    (0): Identity()
    (1): Sequential(
      (0): Linear(in_features=91, out_features=1000, bias=True)
      (1): ReLU()
      (2): Linear(in_features=1000, out_features=154, bias=True)
    )
  )
)

Accuracy for 7 task(s): 	 [Class-IL]: 23.27 % 	 [Task-IL]: 31.41 %

====TRAINING TASK: 7
SimpleMLP(
  (fc1): Linear(in_features=91, out_features=1000, bias=True)
  (fc2): Linear(in_features=1000, out_features=174, bias=True)
  (_features): Identity()
  (classifier): Sequential(
    (0): Linear(in_features=91, out_features=1000, bias=True)
    (1): ReLU()
    (2): Linear(in_features=1000, out_features=174, bias=True)
  )
  (net): Sequential(
    (0): Identity()
    (1): Sequential(
      (0): Linear(in_features=91, out_features=1000, bias=True)
      (1): ReLU()
      (2): Linear(in_features=1000, out_features=174, bias=True)
    )
  )
)

Accuracy for 8 task(s): 	 [Class-IL]: 20.86 % 	 [Task-IL]: 31.83 %

====TRAINING TASK: 8
SimpleMLP(
  (fc1): Linear(in_features=91, out_features=1000, bias=True)
  (fc2): Linear(in_features=1000, out_features=194, bias=True)
  (_features): Identity()
  (classifier): Sequential(
    (0): Linear(in_features=91, out_features=1000, bias=True)
    (1): ReLU()
    (2): Linear(in_features=1000, out_features=194, bias=True)
  )
  (net): Sequential(
    (0): Identity()
    (1): Sequential(
      (0): Linear(in_features=91, out_features=1000, bias=True)
      (1): ReLU()
      (2): Linear(in_features=1000, out_features=194, bias=True)
    )
  )
)

Accuracy for 9 task(s): 	 [Class-IL]: 20.79 % 	 [Task-IL]: 32.03 %

====TRAINING TASK: 9
SimpleMLP(
  (fc1): Linear(in_features=91, out_features=1000, bias=True)
  (fc2): Linear(in_features=1000, out_features=214, bias=True)
  (_features): Identity()
  (classifier): Sequential(
    (0): Linear(in_features=91, out_features=1000, bias=True)
    (1): ReLU()
    (2): Linear(in_features=1000, out_features=214, bias=True)
  )
  (net): Sequential(
    (0): Identity()
    (1): Sequential(
      (0): Linear(in_features=91, out_features=1000, bias=True)
      (1): ReLU()
      (2): Linear(in_features=1000, out_features=214, bias=True)
    )
  )
)

Accuracy for 10 task(s): 	 [Class-IL]: 18.9 % 	 [Task-IL]: 31.49 %

====TRAINING TASK: 10
SimpleMLP(
  (fc1): Linear(in_features=91, out_features=1000, bias=True)
  (fc2): Linear(in_features=1000, out_features=234, bias=True)
  (_features): Identity()
  (classifier): Sequential(
    (0): Linear(in_features=91, out_features=1000, bias=True)
    (1): ReLU()
    (2): Linear(in_features=1000, out_features=234, bias=True)
  )
  (net): Sequential(
    (0): Identity()
    (1): Sequential(
      (0): Linear(in_features=91, out_features=1000, bias=True)
      (1): ReLU()
      (2): Linear(in_features=1000, out_features=234, bias=True)
    )
  )
)

Accuracy for 11 task(s): 	 [Class-IL]: 14.58 % 	 [Task-IL]: 30.3 %

====TRAINING TASK: 11
SimpleMLP(
  (fc1): Linear(in_features=91, out_features=1000, bias=True)
  (fc2): Linear(in_features=1000, out_features=254, bias=True)
  (_features): Identity()
  (classifier): Sequential(
    (0): Linear(in_features=91, out_features=1000, bias=True)
    (1): ReLU()
    (2): Linear(in_features=1000, out_features=254, bias=True)
  )
  (net): Sequential(
    (0): Identity()
    (1): Sequential(
      (0): Linear(in_features=91, out_features=1000, bias=True)
      (1): ReLU()
      (2): Linear(in_features=1000, out_features=254, bias=True)
    )
  )
)

Accuracy for 12 task(s): 	 [Class-IL]: 12.81 % 	 [Task-IL]: 30.75 %

====TRAINING TASK: 12
SimpleMLP(
  (fc1): Linear(in_features=91, out_features=1000, bias=True)
  (fc2): Linear(in_features=1000, out_features=274, bias=True)
  (_features): Identity()
  (classifier): Sequential(
    (0): Linear(in_features=91, out_features=1000, bias=True)
    (1): ReLU()
    (2): Linear(in_features=1000, out_features=274, bias=True)
  )
  (net): Sequential(
    (0): Identity()
    (1): Sequential(
      (0): Linear(in_features=91, out_features=1000, bias=True)
      (1): ReLU()
      (2): Linear(in_features=1000, out_features=274, bias=True)
    )
  )
)

Accuracy for 13 task(s): 	 [Class-IL]: 13.59 % 	 [Task-IL]: 29.41 %

====TRAINING TASK: 13
SimpleMLP(
  (fc1): Linear(in_features=91, out_features=1000, bias=True)
  (fc2): Linear(in_features=1000, out_features=294, bias=True)
  (_features): Identity()
  (classifier): Sequential(
    (0): Linear(in_features=91, out_features=1000, bias=True)
    (1): ReLU()
    (2): Linear(in_features=1000, out_features=294, bias=True)
  )
  (net): Sequential(
    (0): Identity()
    (1): Sequential(
      (0): Linear(in_features=91, out_features=1000, bias=True)
      (1): ReLU()
      (2): Linear(in_features=1000, out_features=294, bias=True)
    )
  )
)

Accuracy for 14 task(s): 	 [Class-IL]: 13.3 % 	 [Task-IL]: 29.19 %

====TRAINING TASK: 14
SimpleMLP(
  (fc1): Linear(in_features=91, out_features=1000, bias=True)
  (fc2): Linear(in_features=1000, out_features=314, bias=True)
  (_features): Identity()
  (classifier): Sequential(
    (0): Linear(in_features=91, out_features=1000, bias=True)
    (1): ReLU()
    (2): Linear(in_features=1000, out_features=314, bias=True)
  )
  (net): Sequential(
    (0): Identity()
    (1): Sequential(
      (0): Linear(in_features=91, out_features=1000, bias=True)
      (1): ReLU()
      (2): Linear(in_features=1000, out_features=314, bias=True)
    )
  )
)

Accuracy for 15 task(s): 	 [Class-IL]: 12.21 % 	 [Task-IL]: 29.35 %

====TRAINING TASK: 15
SimpleMLP(
  (fc1): Linear(in_features=91, out_features=1000, bias=True)
  (fc2): Linear(in_features=1000, out_features=334, bias=True)
  (_features): Identity()
  (classifier): Sequential(
    (0): Linear(in_features=91, out_features=1000, bias=True)
    (1): ReLU()
    (2): Linear(in_features=1000, out_features=334, bias=True)
  )
  (net): Sequential(
    (0): Identity()
    (1): Sequential(
      (0): Linear(in_features=91, out_features=1000, bias=True)
      (1): ReLU()
      (2): Linear(in_features=1000, out_features=334, bias=True)
    )
  )
)

Accuracy for 16 task(s): 	 [Class-IL]: 11.99 % 	 [Task-IL]: 28.9 %

====TRAINING TASK: 16
SimpleMLP(
  (fc1): Linear(in_features=91, out_features=1000, bias=True)
  (fc2): Linear(in_features=1000, out_features=354, bias=True)
  (_features): Identity()
  (classifier): Sequential(
    (0): Linear(in_features=91, out_features=1000, bias=True)
    (1): ReLU()
    (2): Linear(in_features=1000, out_features=354, bias=True)
  )
  (net): Sequential(
    (0): Identity()
    (1): Sequential(
      (0): Linear(in_features=91, out_features=1000, bias=True)
      (1): ReLU()
      (2): Linear(in_features=1000, out_features=354, bias=True)
    )
  )
)

Accuracy for 17 task(s): 	 [Class-IL]: 9.32 % 	 [Task-IL]: 27.81 %

====TRAINING TASK: 17
SimpleMLP(
  (fc1): Linear(in_features=91, out_features=1000, bias=True)
  (fc2): Linear(in_features=1000, out_features=374, bias=True)
  (_features): Identity()
  (classifier): Sequential(
    (0): Linear(in_features=91, out_features=1000, bias=True)
    (1): ReLU()
    (2): Linear(in_features=1000, out_features=374, bias=True)
  )
  (net): Sequential(
    (0): Identity()
    (1): Sequential(
      (0): Linear(in_features=91, out_features=1000, bias=True)
      (1): ReLU()
      (2): Linear(in_features=1000, out_features=374, bias=True)
    )
  )
)

Accuracy for 18 task(s): 	 [Class-IL]: 7.68 % 	 [Task-IL]: 27.6 %

====TRAINING TASK: 18
SimpleMLP(
  (fc1): Linear(in_features=91, out_features=1000, bias=True)
  (fc2): Linear(in_features=1000, out_features=394, bias=True)
  (_features): Identity()
  (classifier): Sequential(
    (0): Linear(in_features=91, out_features=1000, bias=True)
    (1): ReLU()
    (2): Linear(in_features=1000, out_features=394, bias=True)
  )
  (net): Sequential(
    (0): Identity()
    (1): Sequential(
      (0): Linear(in_features=91, out_features=1000, bias=True)
      (1): ReLU()
      (2): Linear(in_features=1000, out_features=394, bias=True)
    )
  )
)

Accuracy for 19 task(s): 	 [Class-IL]: 10.18 % 	 [Task-IL]: 27.27 %

====TRAINING TASK: 19
SimpleMLP(
  (fc1): Linear(in_features=91, out_features=1000, bias=True)
  (fc2): Linear(in_features=1000, out_features=414, bias=True)
  (_features): Identity()
  (classifier): Sequential(
    (0): Linear(in_features=91, out_features=1000, bias=True)
    (1): ReLU()
    (2): Linear(in_features=1000, out_features=414, bias=True)
  )
  (net): Sequential(
    (0): Identity()
    (1): Sequential(
      (0): Linear(in_features=91, out_features=1000, bias=True)
      (1): ReLU()
      (2): Linear(in_features=1000, out_features=414, bias=True)
    )
  )
)

Accuracy for 20 task(s): 	 [Class-IL]: 10.76 % 	 [Task-IL]: 27.9 %

====TRAINING TASK: 20
SimpleMLP(
  (fc1): Linear(in_features=91, out_features=1000, bias=True)
  (fc2): Linear(in_features=1000, out_features=434, bias=True)
  (_features): Identity()
  (classifier): Sequential(
    (0): Linear(in_features=91, out_features=1000, bias=True)
    (1): ReLU()
    (2): Linear(in_features=1000, out_features=434, bias=True)
  )
  (net): Sequential(
    (0): Identity()
    (1): Sequential(
      (0): Linear(in_features=91, out_features=1000, bias=True)
      (1): ReLU()
      (2): Linear(in_features=1000, out_features=434, bias=True)
    )
  )
)

Accuracy for 21 task(s): 	 [Class-IL]: 8.92 % 	 [Task-IL]: 27.76 %

====TRAINING TASK: 21
SimpleMLP(
  (fc1): Linear(in_features=91, out_features=1000, bias=True)
  (fc2): Linear(in_features=1000, out_features=454, bias=True)
  (_features): Identity()
  (classifier): Sequential(
    (0): Linear(in_features=91, out_features=1000, bias=True)
    (1): ReLU()
    (2): Linear(in_features=1000, out_features=454, bias=True)
  )
  (net): Sequential(
    (0): Identity()
    (1): Sequential(
      (0): Linear(in_features=91, out_features=1000, bias=True)
      (1): ReLU()
      (2): Linear(in_features=1000, out_features=454, bias=True)
    )
  )
)

Accuracy for 22 task(s): 	 [Class-IL]: 7.75 % 	 [Task-IL]: 27.79 %

====TRAINING TASK: 22
SimpleMLP(
  (fc1): Linear(in_features=91, out_features=1000, bias=True)
  (fc2): Linear(in_features=1000, out_features=474, bias=True)
  (_features): Identity()
  (classifier): Sequential(
    (0): Linear(in_features=91, out_features=1000, bias=True)
    (1): ReLU()
    (2): Linear(in_features=1000, out_features=474, bias=True)
  )
  (net): Sequential(
    (0): Identity()
    (1): Sequential(
      (0): Linear(in_features=91, out_features=1000, bias=True)
      (1): ReLU()
      (2): Linear(in_features=1000, out_features=474, bias=True)
    )
  )
)

Accuracy for 23 task(s): 	 [Class-IL]: 7.79 % 	 [Task-IL]: 27.27 %

====TRAINING TASK: 23
SimpleMLP(
  (fc1): Linear(in_features=91, out_features=1000, bias=True)
  (fc2): Linear(in_features=1000, out_features=494, bias=True)
  (_features): Identity()
  (classifier): Sequential(
    (0): Linear(in_features=91, out_features=1000, bias=True)
    (1): ReLU()
    (2): Linear(in_features=1000, out_features=494, bias=True)
  )
  (net): Sequential(
    (0): Identity()
    (1): Sequential(
      (0): Linear(in_features=91, out_features=1000, bias=True)
      (1): ReLU()
      (2): Linear(in_features=1000, out_features=494, bias=True)
    )
  )
)

Accuracy for 24 task(s): 	 [Class-IL]: 9.31 % 	 [Task-IL]: 26.9 %

====TRAINING TASK: 24
SimpleMLP(
  (fc1): Linear(in_features=91, out_features=1000, bias=True)
  (fc2): Linear(in_features=1000, out_features=514, bias=True)
  (_features): Identity()
  (classifier): Sequential(
    (0): Linear(in_features=91, out_features=1000, bias=True)
    (1): ReLU()
    (2): Linear(in_features=1000, out_features=514, bias=True)
  )
  (net): Sequential(
    (0): Identity()
    (1): Sequential(
      (0): Linear(in_features=91, out_features=1000, bias=True)
      (1): ReLU()
      (2): Linear(in_features=1000, out_features=514, bias=True)
    )
  )
)

Accuracy for 25 task(s): 	 [Class-IL]: 7.42 % 	 [Task-IL]: 26.88 %

====TRAINING TASK: 25
SimpleMLP(
  (fc1): Linear(in_features=91, out_features=1000, bias=True)
  (fc2): Linear(in_features=1000, out_features=534, bias=True)
  (_features): Identity()
  (classifier): Sequential(
    (0): Linear(in_features=91, out_features=1000, bias=True)
    (1): ReLU()
    (2): Linear(in_features=1000, out_features=534, bias=True)
  )
  (net): Sequential(
    (0): Identity()
    (1): Sequential(
      (0): Linear(in_features=91, out_features=1000, bias=True)
      (1): ReLU()
      (2): Linear(in_features=1000, out_features=534, bias=True)
    )
  )
)

Accuracy for 26 task(s): 	 [Class-IL]: 8.89 % 	 [Task-IL]: 27.57 %

====TRAINING TASK: 26
SimpleMLP(
  (fc1): Linear(in_features=91, out_features=1000, bias=True)
  (fc2): Linear(in_features=1000, out_features=554, bias=True)
  (_features): Identity()
  (classifier): Sequential(
    (0): Linear(in_features=91, out_features=1000, bias=True)
    (1): ReLU()
    (2): Linear(in_features=1000, out_features=554, bias=True)
  )
  (net): Sequential(
    (0): Identity()
    (1): Sequential(
      (0): Linear(in_features=91, out_features=1000, bias=True)
      (1): ReLU()
      (2): Linear(in_features=1000, out_features=554, bias=True)
    )
  )
)

Accuracy for 27 task(s): 	 [Class-IL]: 6.58 % 	 [Task-IL]: 27.21 %

====TRAINING TASK: 27
SimpleMLP(
  (fc1): Linear(in_features=91, out_features=1000, bias=True)
  (fc2): Linear(in_features=1000, out_features=574, bias=True)
  (_features): Identity()
  (classifier): Sequential(
    (0): Linear(in_features=91, out_features=1000, bias=True)
    (1): ReLU()
    (2): Linear(in_features=1000, out_features=574, bias=True)
  )
  (net): Sequential(
    (0): Identity()
    (1): Sequential(
      (0): Linear(in_features=91, out_features=1000, bias=True)
      (1): ReLU()
      (2): Linear(in_features=1000, out_features=574, bias=True)
    )
  )
)

Accuracy for 28 task(s): 	 [Class-IL]: 7.04 % 	 [Task-IL]: 26.83 %

====TRAINING TASK: 28
SimpleMLP(
  (fc1): Linear(in_features=91, out_features=1000, bias=True)
  (fc2): Linear(in_features=1000, out_features=594, bias=True)
  (_features): Identity()
  (classifier): Sequential(
    (0): Linear(in_features=91, out_features=1000, bias=True)
    (1): ReLU()
    (2): Linear(in_features=1000, out_features=594, bias=True)
  )
  (net): Sequential(
    (0): Identity()
    (1): Sequential(
      (0): Linear(in_features=91, out_features=1000, bias=True)
      (1): ReLU()
      (2): Linear(in_features=1000, out_features=594, bias=True)
    )
  )
)

Accuracy for 29 task(s): 	 [Class-IL]: 6.67 % 	 [Task-IL]: 26.25 %

====TRAINING TASK: 29
SimpleMLP(
  (fc1): Linear(in_features=91, out_features=1000, bias=True)
  (fc2): Linear(in_features=1000, out_features=614, bias=True)
  (_features): Identity()
  (classifier): Sequential(
    (0): Linear(in_features=91, out_features=1000, bias=True)
    (1): ReLU()
    (2): Linear(in_features=1000, out_features=614, bias=True)
  )
  (net): Sequential(
    (0): Identity()
    (1): Sequential(
      (0): Linear(in_features=91, out_features=1000, bias=True)
      (1): ReLU()
      (2): Linear(in_features=1000, out_features=614, bias=True)
    )
  )
)

Accuracy for 30 task(s): 	 [Class-IL]: 6.6 % 	 [Task-IL]: 26.07 %

====TRAINING TASK: 30
SimpleMLP(
  (fc1): Linear(in_features=91, out_features=1000, bias=True)
  (fc2): Linear(in_features=1000, out_features=634, bias=True)
  (_features): Identity()
  (classifier): Sequential(
    (0): Linear(in_features=91, out_features=1000, bias=True)
    (1): ReLU()
    (2): Linear(in_features=1000, out_features=634, bias=True)
  )
  (net): Sequential(
    (0): Identity()
    (1): Sequential(
      (0): Linear(in_features=91, out_features=1000, bias=True)
      (1): ReLU()
      (2): Linear(in_features=1000, out_features=634, bias=True)
    )
  )
)

Accuracy for 31 task(s): 	 [Class-IL]: 6.68 % 	 [Task-IL]: 26.4 %

====TRAINING TASK: 31
SimpleMLP(
  (fc1): Linear(in_features=91, out_features=1000, bias=True)
  (fc2): Linear(in_features=1000, out_features=654, bias=True)
  (_features): Identity()
  (classifier): Sequential(
    (0): Linear(in_features=91, out_features=1000, bias=True)
    (1): ReLU()
    (2): Linear(in_features=1000, out_features=654, bias=True)
  )
  (net): Sequential(
    (0): Identity()
    (1): Sequential(
      (0): Linear(in_features=91, out_features=1000, bias=True)
      (1): ReLU()
      (2): Linear(in_features=1000, out_features=654, bias=True)
    )
  )
)

Accuracy for 32 task(s): 	 [Class-IL]: 7.52 % 	 [Task-IL]: 26.29 %

====TRAINING TASK: 32
SimpleMLP(
  (fc1): Linear(in_features=91, out_features=1000, bias=True)
  (fc2): Linear(in_features=1000, out_features=674, bias=True)
  (_features): Identity()
  (classifier): Sequential(
    (0): Linear(in_features=91, out_features=1000, bias=True)
    (1): ReLU()
    (2): Linear(in_features=1000, out_features=674, bias=True)
  )
  (net): Sequential(
    (0): Identity()
    (1): Sequential(
      (0): Linear(in_features=91, out_features=1000, bias=True)
      (1): ReLU()
      (2): Linear(in_features=1000, out_features=674, bias=True)
    )
  )
)

Accuracy for 33 task(s): 	 [Class-IL]: 7.52 % 	 [Task-IL]: 26.53 %

====TRAINING TASK: 33
SimpleMLP(
  (fc1): Linear(in_features=91, out_features=1000, bias=True)
  (fc2): Linear(in_features=1000, out_features=694, bias=True)
  (_features): Identity()
  (classifier): Sequential(
    (0): Linear(in_features=91, out_features=1000, bias=True)
    (1): ReLU()
    (2): Linear(in_features=1000, out_features=694, bias=True)
  )
  (net): Sequential(
    (0): Identity()
    (1): Sequential(
      (0): Linear(in_features=91, out_features=1000, bias=True)
      (1): ReLU()
      (2): Linear(in_features=1000, out_features=694, bias=True)
    )
  )
)

Accuracy for 34 task(s): 	 [Class-IL]: 7.74 % 	 [Task-IL]: 26.13 %

====TRAINING TASK: 34
SimpleMLP(
  (fc1): Linear(in_features=91, out_features=1000, bias=True)
  (fc2): Linear(in_features=1000, out_features=714, bias=True)
  (_features): Identity()
  (classifier): Sequential(
    (0): Linear(in_features=91, out_features=1000, bias=True)
    (1): ReLU()
    (2): Linear(in_features=1000, out_features=714, bias=True)
  )
  (net): Sequential(
    (0): Identity()
    (1): Sequential(
      (0): Linear(in_features=91, out_features=1000, bias=True)
      (1): ReLU()
      (2): Linear(in_features=1000, out_features=714, bias=True)
    )
  )
)

Accuracy for 35 task(s): 	 [Class-IL]: 6.93 % 	 [Task-IL]: 25.71 %

====TRAINING TASK: 35
SimpleMLP(
  (fc1): Linear(in_features=91, out_features=1000, bias=True)
  (fc2): Linear(in_features=1000, out_features=734, bias=True)
  (_features): Identity()
  (classifier): Sequential(
    (0): Linear(in_features=91, out_features=1000, bias=True)
    (1): ReLU()
    (2): Linear(in_features=1000, out_features=734, bias=True)
  )
  (net): Sequential(
    (0): Identity()
    (1): Sequential(
      (0): Linear(in_features=91, out_features=1000, bias=True)
      (1): ReLU()
      (2): Linear(in_features=1000, out_features=734, bias=True)
    )
  )
)

Accuracy for 36 task(s): 	 [Class-IL]: 7.61 % 	 [Task-IL]: 26.25 %

====TRAINING TASK: 36
SimpleMLP(
  (fc1): Linear(in_features=91, out_features=1000, bias=True)
  (fc2): Linear(in_features=1000, out_features=754, bias=True)
  (_features): Identity()
  (classifier): Sequential(
    (0): Linear(in_features=91, out_features=1000, bias=True)
    (1): ReLU()
    (2): Linear(in_features=1000, out_features=754, bias=True)
  )
  (net): Sequential(
    (0): Identity()
    (1): Sequential(
      (0): Linear(in_features=91, out_features=1000, bias=True)
      (1): ReLU()
      (2): Linear(in_features=1000, out_features=754, bias=True)
    )
  )
)

Accuracy for 37 task(s): 	 [Class-IL]: 4.66 % 	 [Task-IL]: 25.75 %

====TRAINING TASK: 37
SimpleMLP(
  (fc1): Linear(in_features=91, out_features=1000, bias=True)
  (fc2): Linear(in_features=1000, out_features=774, bias=True)
  (_features): Identity()
  (classifier): Sequential(
    (0): Linear(in_features=91, out_features=1000, bias=True)
    (1): ReLU()
    (2): Linear(in_features=1000, out_features=774, bias=True)
  )
  (net): Sequential(
    (0): Identity()
    (1): Sequential(
      (0): Linear(in_features=91, out_features=1000, bias=True)
      (1): ReLU()
      (2): Linear(in_features=1000, out_features=774, bias=True)
    )
  )
)

Accuracy for 38 task(s): 	 [Class-IL]: 6.34 % 	 [Task-IL]: 25.77 %

====TRAINING TASK: 38
SimpleMLP(
  (fc1): Linear(in_features=91, out_features=1000, bias=True)
  (fc2): Linear(in_features=1000, out_features=794, bias=True)
  (_features): Identity()
  (classifier): Sequential(
    (0): Linear(in_features=91, out_features=1000, bias=True)
    (1): ReLU()
    (2): Linear(in_features=1000, out_features=794, bias=True)
  )
  (net): Sequential(
    (0): Identity()
    (1): Sequential(
      (0): Linear(in_features=91, out_features=1000, bias=True)
      (1): ReLU()
      (2): Linear(in_features=1000, out_features=794, bias=True)
    )
  )
)

Accuracy for 39 task(s): 	 [Class-IL]: 3.74 % 	 [Task-IL]: 25.55 %

====TRAINING TASK: 39
SimpleMLP(
  (fc1): Linear(in_features=91, out_features=1000, bias=True)
  (fc2): Linear(in_features=1000, out_features=814, bias=True)
  (_features): Identity()
  (classifier): Sequential(
    (0): Linear(in_features=91, out_features=1000, bias=True)
    (1): ReLU()
    (2): Linear(in_features=1000, out_features=814, bias=True)
  )
  (net): Sequential(
    (0): Identity()
    (1): Sequential(
      (0): Linear(in_features=91, out_features=1000, bias=True)
      (1): ReLU()
      (2): Linear(in_features=1000, out_features=814, bias=True)
    )
  )
)

Accuracy for 40 task(s): 	 [Class-IL]: 3.91 % 	 [Task-IL]: 25.77 %

====TRAINING TASK: 40
SimpleMLP(
  (fc1): Linear(in_features=91, out_features=1000, bias=True)
  (fc2): Linear(in_features=1000, out_features=834, bias=True)
  (_features): Identity()
  (classifier): Sequential(
    (0): Linear(in_features=91, out_features=1000, bias=True)
    (1): ReLU()
    (2): Linear(in_features=1000, out_features=834, bias=True)
  )
  (net): Sequential(
    (0): Identity()
    (1): Sequential(
      (0): Linear(in_features=91, out_features=1000, bias=True)
      (1): ReLU()
      (2): Linear(in_features=1000, out_features=834, bias=True)
    )
  )
)

Accuracy for 41 task(s): 	 [Class-IL]: 4.53 % 	 [Task-IL]: 25.6 %

====TRAINING TASK: 41
SimpleMLP(
  (fc1): Linear(in_features=91, out_features=1000, bias=True)
  (fc2): Linear(in_features=1000, out_features=854, bias=True)
  (_features): Identity()
  (classifier): Sequential(
    (0): Linear(in_features=91, out_features=1000, bias=True)
    (1): ReLU()
    (2): Linear(in_features=1000, out_features=854, bias=True)
  )
  (net): Sequential(
    (0): Identity()
    (1): Sequential(
      (0): Linear(in_features=91, out_features=1000, bias=True)
      (1): ReLU()
      (2): Linear(in_features=1000, out_features=854, bias=True)
    )
  )
)

Accuracy for 42 task(s): 	 [Class-IL]: 4.89 % 	 [Task-IL]: 25.54 %

====TRAINING TASK: 42
SimpleMLP(
  (fc1): Linear(in_features=91, out_features=1000, bias=True)
  (fc2): Linear(in_features=1000, out_features=874, bias=True)
  (_features): Identity()
  (classifier): Sequential(
    (0): Linear(in_features=91, out_features=1000, bias=True)
    (1): ReLU()
    (2): Linear(in_features=1000, out_features=874, bias=True)
  )
  (net): Sequential(
    (0): Identity()
    (1): Sequential(
      (0): Linear(in_features=91, out_features=1000, bias=True)
      (1): ReLU()
      (2): Linear(in_features=1000, out_features=874, bias=True)
    )
  )
)

Accuracy for 43 task(s): 	 [Class-IL]: 5.71 % 	 [Task-IL]: 25.72 %

====TRAINING TASK: 43
SimpleMLP(
  (fc1): Linear(in_features=91, out_features=1000, bias=True)
  (fc2): Linear(in_features=1000, out_features=894, bias=True)
  (_features): Identity()
  (classifier): Sequential(
    (0): Linear(in_features=91, out_features=1000, bias=True)
    (1): ReLU()
    (2): Linear(in_features=1000, out_features=894, bias=True)
  )
  (net): Sequential(
    (0): Identity()
    (1): Sequential(
      (0): Linear(in_features=91, out_features=1000, bias=True)
      (1): ReLU()
      (2): Linear(in_features=1000, out_features=894, bias=True)
    )
  )
)
torch.Size([89400, 91])
	LABELS: [  0   1   2   3   4   5   6   7   8   9  10  11  12  13  14  15  16  17
  18  19  20  21  22  23  24  25  26  27  28  29  30  31  32  33  34  35
  36  37  38  39  40  41  42  43  44  45  46  47  48  49  50  51  52  53
  54  55  56  57  58  59  60  61  62  63  64  65  66  67  68  69  70  71
  72  73  74  75  76  77  78  79  80  81  82  83  84  85  86  87  88  89
…
